HW9/9_gym-DDPG/results/DDPG_Pendulum-v1_500-eps0.1-t32-l5e-05-s1-u100.pth (torch, 176234 bytes, 12 tensors)

layers.0.weight f4 [128, 4]
00000000: 6437 af3e c229 d3be 40d2 12be ff52 163d
00000010: 3d21 0bbf 64f9 903e afe4 0abe 7874 7e3e
00000020: 63df d7bc c5f3 43bd 46fc c63d 609a 343c
00000030: 30ff 3a3e e486 47be 3051 15bd 4060 38bd
00000040: cb9b a93d 2070 9dbb a38f e13e 3ab1 0c3e
00000050: caef 9ebe 6c19 20bf 585d 533c 1b38 2dbe
00000060: 5e27 64be 6a00 c5bd 3d4f a43e f11a 903e
00000070: 58cc 14bf 5d20 e73e eef1 1b3e 4022 b53e
00000080: 786e 983e 151d 19bf 228a 00bf d81a f8be
00000090: a058 dd3e 6168 ecbd 2e88 843e c71b c0be
000000a0: ed24 f33e 8f8e a4be 8e6a cc3e e1cb 1cbc
000000b0: fd6f bdbe 625f 663e 115b 89be bdff f93d
000000c0: 5051 0cbe e82f 32be 733c e9be 801f 81be
000000d0: 8591 9d3e fb21 b5bd 20cc 033f f836 e53e
000000e0: e551 00be 16d6 cfbe 2866 973e 4b03 063e
000000f0: 5a05 dabe c112 de3e 816c 883e 9e23 c53e
00000100: 68cb bebe 9372 7fbe 482b a5bc f09c 6e3c
00000110: 41a2 f6be 73cd c0be 785b 843e 403f 1abe
00000120: 9541 503e 1763 0cbc 0a7b 463e 3912 b73d
00000130: 7b77 813d 6124 bc3e e10b f0be a376 983e
00000140: 3749 d9be 6c6e fcbe 36c8 7d3c 761e 97bd
00000150: 451b 923e 3aca 0dbf c536 d5be c2cb c83e
00000160: e78d 39be 85e0 1c3f baad ff3d 2687 bbbe
00000170: 0b95 a93d 3986 363e 9662 b2be 2820 68be
00000180: 19d7 933d 94e5 b13d 3235 32be 49d6 28be
00000190: f765 af3e f095 a1be 8ab2 a93e 6278 0a3e
000001a0: e260 ecbe 2176 31bf a186 013f 939c 6f3c
000001b0: 1b77 7e3e 2916 b13e c678 fd3d 9865 833e
000001c0: 8f7e c23e 7512 1abf ba47 4e3d 9d09 b33c
000001d0: e1e0 b53e 8f2c c33e 9aa8 cabe 76ba c0be
000001e0: 041f bbbe 5a0c d03d 8722 fe3e a61c b5be
000001f0: 1d79 933e f449 babe fdfe efbe 6ce7 57be
00000200: 4638 5b3e 4eb7 1f3f 8d14 afbe e264 ba3d
00000210: ab6e d73e 2357 db3e 262f b63e b21c 863e
00000220: 556a 913e da80 373e 935f b6be 702d ecbe
00000230: 2876 a8be a917 7ebe 4ea5 87be 0d32 333e
00000240: 7a52 da3c 06fc 73be f780 7e3e 0949 be3d
00000250: ed8c 693e 7e89 fc3e c530 0dbe 8756 063f
00000260: 4da9 1dbe 45d6 fbbd e318 e5be b244 a0be
00000270: ca3a bfbe d85d 7dbe bf2c b23e 4960 4ebe
00000280: 7c7e eabe 0906 5e3e 2e0e 163e a23d 8e3e
00000290: 2eb6 d9be 7ba8 253e 26a4 56be a07c f0bd
000002a0: 31da 02bf 1017 ecbe 9808 debd c072 ef3d
000002b0: 076c 1f3e 4638 023e 9c9e fc3e 517d 083f
000002c0: 0dc0 aa3e 4574 b23d d522 aabe ba2a ea3e
000002d0: 7952 e0bd de37 b6bc 7cdc d6be 5756 46bc
000002e0: 77fd f7be 4b22 fa3e 0233 dbbe 90c5 bfbe
000002f0: 91ae d1bd 4cc6 1cbf 07cd 423e d4f4 2abe
00000300: a461 93be 5af5 093e fda8 b03e 4152 c2be
00000310: 186b 743e 1da6 bc3e b316 fa3e e6b2 c3be
00000320: f07c f83d 5d82 34bf 55cb dd3e d4bd 2bbe
00000330: 518c 9d3e 06fe 073e d079 cabd 98ee 84be
00000340: df48 c5bc 7bc4 f43e 0dad 2a3d f2a7 9d3d
00000350: ef99 0abf 31ef d83e 6ba4 cc3e bb1c b73e
00000360: 6fe9 a83e 689c 19bf e042 6ebe f68a b73e
00000370: 5b10 0abf 197c d13e 4f62 bdbe 1e00 c1be
00000380: 7c0e ac3d c3e7 2cbf 8575 1fbd 374c 6a3e
00000390: 42ba 953e b618 223f feef 3fbe 9a0c c2be
000003a0: 03b5 103f 4084 d5bd cd7a 37be 1a7a ec3d
000003b0: d691 debe 3301 d43e ed49 a03e b871 d2be
000003c0: 549e febe e52c 883d 2f1f 4a3e 4c01 60bd
000003d0: f893 a3be 6986 dbbd 31e5 efbe 3ee8 b3be
000003e0: 6cf4 d5be 3892 1f3f 109d cf3e 0746 60be
000003f0: faf9 9fbd f7ab cd3e d153 0cbd ff2e 50be
0.34221947 -0.41242796 -0.14338017 0.036700245 -0.5434759 0.2831527 -0.13563798 0.24849117
-0.026351636 -0.0478399 0.09716086 0.011023134 0.18261409 -0.1948505 -0.03645438 -0.045013666
0.08281668 -0.004804626 0.440549 0.13739482 -0.3104232 -0.6253879 0.012900673 -0.16915934
-0.22280642 -0.096192196 0.32091704 0.28145555 -0.58124304 0.4514188 0.15229008 0.35377693
0.2977178 -0.5981 -0.50210774 -0.4845798 0.43231678 -0.11543346 0.25885147 -0.37521192
0.4748911 -0.32140014 0.39925045 -0.009570093 -0.36999503 0.22497323 -0.2682729 0.12206981
-0.13702893 -0.17401087 -0.45553932 -0.25219345 0.30775085 -0.08844372 0.51483345 0.447685
-0.1253124 -0.40593022 0.29570127 0.13087194 -0.42582208 0.43373683 0.26645282 0.38503736
-0.37264562 -0.2494605 -0.02016224 0.014563784 -0.48170665 -0.37656745 0.25851035 -0.1506319
0.20337518 -0.008568547 0.19382873 0.089390226 0.06321617 0.36746505 -0.46884063 0.29778013
-0.4243867 -0.49302995 0.015489629 -0.07378857 0.2853643 -0.553867 -0.41643348 0.39217955
-0.18120538 0.6128009 0.124843076 -0.36626548 0.08280381 0.1782464 -0.3484084 -0.22668517
0.07218761 0.08686367 -0.17403105 -0.16487993 0.3425748 -0.31559706 0.33144027 0.13522485
-0.46167666 -0.69320875 0.5059605 0.014624733 0.24850123 0.3458722 0.12376551 0.25663447
0.37987182 -0.60184413 0.050361373 0.02185517 0.3552313 0.38119933 -0.39581758 -0.37642258
-0.365471 0.10158606 0.49635717 -0.3537342 0.2880334 -0.36384547 -0.46874228 -0.21084374
0.21408185 0.62389076 -0.34195367 0.09101273 0.4207662 0.42839918 0.35582846 0.26193768
0.28401437 0.17920247 -0.35619792 -0.46128416 -0.32902646 -0.24813713 -0.26493305 0.17499562
0.026650656 -0.23826608 0.24853884 0.09291274 0.22807665 0.49323648 -0.13788135 0.5247578
-0.15396614 -0.12296728 -0.4474555 -0.3130241 -0.3734954 -0.2474283 0.34799764 -0.20153917
-0.45799625 0.2168199 0.14653847 0.27781397 -0.42521805 0.16177551 -0.20961055 -0.1174252
-0.51114184 -0.46111345 -0.10841483 0.11691809 0.15568553 0.12716779 0.4933976 0.5331622
0.33349648 0.08713583 -0.332297 0.45735723 -0.109532304 -0.022243436 -0.4196509 -0.012105546
-0.48435566 0.48854288 -0.42812353 -0.37455416 -0.10238374 -0.61240077 0.19023524 -0.16694957
-0.2878543 0.134725 0.34503928 -0.3795338 0.23868978 0.36845484 0.48845443 -0.38222426
0.12133205 -0.7051142 0.43319193 -0.16771632 0.30771115 0.13280496 -0.09886515 -0.25963283
-0.0240826 0.47806153 0.04166894 0.07698049 -0.54141134 0.4236999 0.3996919 0.35764107
0.32990596 -0.6000428 -0.23267698 0.35848206 -0.53931206 0.40914991 -0.36989066 -0.37695402
0.084012 -0.6754114 -0.038930435 0.22880636 0.29243666 0.63318956 -0.18743894 -0.3790024
0.565262 -0.10425615 -0.17917939 0.115467265 -0.4347064 0.41407165 0.313064 -0.41102386
-0.4973017 0.06649188 0.19738458 -0.054688737 -0.3194883 -0.10718996 -0.46854547 -0.35138124
-0.41788042 0.6233249 0.40549517 -0.21901713 -0.07811351 0.4017026 -0.03425962 -0.20330428

layers.0.bias f4 [128]
00000000: 6d2c b8be 00ec ce3e 47e4 c03e fc92 fbbe
00000010: 52cf e0be f964 1cbe 3f11 9bbe 48d9 133e
00000020: e253 c9be 4589 a7be c642 823e a14a b6bd
00000030: aee4 33be 28d8 01bf 56b0 8c3e deca 073e
00000040: dd1f 1dbe 7090 6bbe effc 0a3e 7cf6 6c3e
00000050: ef4d 893e d084 333e 26db fb3c 3ada d5be
00000060: f7f1 d63e 5797 5c3d 43c5 92be 9e53 0b3f
00000070: a223 bb3e 6669 c6be e1b8 40be 861e 14be
00000080: 4a38 69be 0453 913e 26ab abbe 667c 0c3f
00000090: e278 24be 08e0 c33e bce7 b83d 9536 25be
000000a0: 0bc2 d53e 000e 92be 8a29 45be f5f6 cb3c
000000b0: 0a07 de3e ca73 5dbe f383 51be f1bf a5be
000000c0: cd4f 17be 00a5 12be 0219 02be e9d8 31be
000000d0: ec15 803e c848 ae3d 15d5 4dbe 3253 2abe
000000e0: 9054 813e 16b1 b63d b5c9 ba3e ae3d 593c
000000f0: d40a acbe 2e4b a5be da61 97bd 5faf 0dbc
00000100: 7320 283e f267 b2bd 41b0 323e 2a89 eabd
00000110: b544 e33e 2748 573e b720 ccbd b7b0 0b3f
00000120: 539d 5a3e ccf8 97be 9a02 6bbe 4377 cc3e
00000130: 2275 993e 5584 f63e 8f7f 8a3c 8bff e83e
00000140: f30d 9f3e 3782 6a3e 5c3b 4dbd 043f 113f
00000150: 5b78 3b3e 7dea 70bd ebd3 b13d 893d 143f
00000160: 3226 ce3e 7a13 03ba b5ef 0f3f 71ce 883e
00000170: c01c 6bbe 47b9 02bf 0cd9 c63e 13b1 0b3f
00000180: 0912 3bbe cb95 853e bce8 7bbc 6775 3cbd
00000190: 469e 1abc 5059 643e 5197 193e 040e e43e
000001a0: 412e 853e e933 9e3e 8769 073f 27d6 743e
000001b0: fd9c 293e 6983 73be 9052 ea3e ebe7 a73d
000001c0: dd1b c53e 0389 ee3e aa15 02bd 39ec d43e
000001d0: fc8b 04bd f222 063f d6b2 e93e 80d3 d6bd
000001e0: 5cc9 cf3d 3525 43be 4e93 28be d5c1 723d
000001f0: 79b2 3f3d 6d84 d5bd e146 e3be d556 82be
-0.35971394 0.4041443 0.37674162 -0.49135578 -0.43908173 -0.15272893 -0.30286595 0.14438355
-0.3932181 -0.32721916 0.2544157 -0.08900953 -0.17567703 -0.50720453 0.27478284 0.13260981
-0.15344186 -0.23004317 0.13573049 0.23140901 0.2681727 0.17531133 0.030744147 -0.41768056
0.4198148 0.053855266 -0.28666124 0.54424465 0.36550623 -0.38752288 -0.18820526 -0.14464769
-0.22775379 0.28383648 -0.33529013 0.54877317 -0.16061738 0.3825686 0.09028575 -0.16134103
0.41749606 -0.28526306 -0.19254127 0.024898032 0.43364745 -0.21626201 -0.20460491 -0.32373002
-0.14776535 -0.14320755 -0.12704852 -0.17367901 0.25016725 0.08509976 -0.20100816 -0.16633299
0.2525983 0.08920495 0.36482015 0.0132593345 -0.3360201 -0.3228392 -0.073917106 -0.008647769
0.16418628 -0.08711232 0.17450048 -0.11451943 0.44388357 0.21023618 -0.09967177 0.5456652
0.21349077 -0.29682004 -0.22950211 0.3993474 0.29972178 0.48147836 0.016906528 0.45507464
0.3106533 0.22901236 -0.050105438 0.5673678 0.1830763 -0.058817375 0.08682998 0.57906395
0.40263516 -0.00050001557 0.5622514 0.26720002 -0.22960186 -0.5106396 0.3883747 0.5456707
-0.18268599 0.26090845 -0.015375312 -0.0460104 -0.009437149 0.22299695 0.14999129 0.44541943
0.2601185 0.3089898 0.52895397 0.23909818 0.16563793 -0.23780598 0.45766115 0.08198532
0.3849782 0.46588907 -0.03175894 0.41586474 -0.032360062 0.5239707 0.45644253 -0.10489559
0.10145828 -0.19057162 -0.16462442 0.059266884 0.046801064 -0.10425649 -0.44390014 -0.25456873

layers.1.weight f4 [128, 128]
00000000: 9391 ea3d ac85 4d3d a8db 023e 9024 933d
00000010: 8788 583d 651c 8c3d 365b a1bd 0711 233e
00000020: 73f5 a2bd 279e 27bd b2f9 8dbd ad2e 983d
00000030: fec4 6bbd 9468 47bd d7b8 a6bc 3bcd 7abb
00000040: bd55 ba3d aaf5 f43d ceea 33bc fedc 083d
00000050: d641 45bc 3fc7 b23d 945a 4c3c 1029 d9bd
00000060: e11f cd3d e2c6 24bd f6e6 b23d aab6 cdbc
00000070: fc67 27be e597 bcbd 8cb2 733d f72d 85bc
00000080: 03ad e5bd af39 d53c 166c e6bc 244a de3d
00000090: b29a 82bd fd97 8abd d0bd b13d 09b5 80bc
000000a0: f738 0f3e 8aac b33d 9d5c 0a3d 4d34 14bd
000000b0: 88d7 993c 3a23 9dbd f2b4 2c3d a7e8 94bd
000000c0: 1a18 8fbc 6c1e 82bd 4fee 043d 391a fbbd
000000d0: 0569 0bbc 2a0e b93c 5210 01bd 87ec 67bd
000000e0: ae28 303d a530 81bd 0d3d 643d 576a e03d
000000f0: 7ff4 a7bc 4a77 14bd d1d8 623b 2cd9 373d
00000100: e6d8 c9bd e3b6 87bd cdbd 863d cdd1 6b3d
00000110: 3017 ce3d ec13 463c 6b3d babb 52cf 393d
00000120: fae8 063e d7e4 cfbd b105 d3bc 94ae 883d
00000130: 49f5 c53c 20e2 a43d 6c32 783d 8e53 7d3c
00000140: 7605 0c3e 7cd7 a43d 43e4 963d 3efd 7abd
00000150: 5c4d ed3d cea8 d63d 46bc 9e3d 8c7d 0c3d
00000160: c184 833d 82f4 12bd 5286 113e f3ec c23d
00000170: bd81 81bc 2814 a2bd b424 f53d c9c6 be3d
00000180: 4e1f d73d a238 24bb d0b0 023d 1edf 20bd
00000190: ae35 debc a96d 953b 5128 703c 4c4d 7d3d
000001a0: 715b 9bbc 428d f93d 3be4 e83d e260 ea3d
000001b0: e622 b03d b552 4dbc d6ba de3d b131 a53d
000001c0: 27db f43d 4378 80bd 5eb5 a93b c606 a23d
000001d0: 94c2 963d 5141 053e 4685 9ebc 90d3 1f3d
000001e0: 8610 48be 2391 45bd b048 913d dae3 17be
000001f0: 305c f5bc 897f 9f3d f184 1abc 8fb4 f93b
00000200: 6ad7 cf3d 4053 8dbd c426 d7bb ead9 473c
00000210: c8a2 13be 6f3b 443e ba6b d83c 3c0b 5fbe
00000220: 89e0 af3d c769 83be 4b70 c03a 1187 86bd
00000230: c4fa e7bc 7deb 38bd 5d50 403d 3d9e b8bd
00000240: 500d 4cbe 6622 e6bc bdc9 a3bd ad04 a3bd
00000250: 0c0c 243e e651 a53d 614e c1be 42df a93b
00000260: 1225 b73c 7d4a 343d f15c eb3d a543 28bc
00000270: 2443 2f3e 1cd6 4fbd 08cc 88bc 9f29 99ba
00000280: e53e c63c f071 0f3c 6738 ec3c 6257 f63d
00000290: 5b33 76bd 52d9 16be 80d1 0a3d a48b c53d
000002a0: 460c 09be 6cc3 1bbd 0b8b 64bd a35b b5bd
000002b0: 3f47 163d 0e13 e03b eb60 5abd d6c9 283e
000002c0: d12d 1f3d 8cfc 833c 6060 f43d 9d1c 68bd
000002d0: 8d52 ac3a 12cd f9bb 48ef 92bb fb74 7cba
000002e0: f041 e73d f23c 53be 4ecb 953d 95ed babd
000002f0: cda6 00be 3bb3 c4bc d0d1 e1bc 87e1 80be
00000300: c9f1 78be c535 d1bd 59b3 313e 0557 a63c
00000310: 5db1 61bd c31e ffbd 7118 8abd e317 da3d
00000320: 41de 5dbd 45c0 00be 3288 abbd b6e8 9e3d
00000330: 306a 493d e2dc b3be ad2b 05bd f1ee 10bd
00000340: c845 5d3d 8ec0 0e3e cbd0 f8bd 2379 df3d
00000350: b542 58bc 28bd 25bc a599 e3bc 5477 963d
00000360: af09 4fbd f998 44be 0ddb f03c 0d0e 82bd
00000370: 21a9 ac3d 1e7a c0bd d3ea e8bd 9c5c 113e
00000380: 121d 993d 5aa8 983d 7b0e 253c cd2f f6bd
00000390: 70e4 c3be 882b 223e 5022 7dbc 0ce9 bb3d
000003a0: 9d22 b4bd 8633 52be 3534 c7bd 9feb 323d
000003b0: 81ec a0bd 6709 8fbd c966 edbd ee64 c1bd
000003c0: 892f 223d 7fe0 22bd 6d3f d93d 6dd9 0c3e
000003d0: 286a 6f3d afd9 743d 847f 80bc a534 98bd
000003e0: 0b14 133e 880b a23d 565d d1bd b0bb 533e
000003f0: d831 e73d 1b6e 8f3d c092 333d 4771 b4bc
0.11453547 0.050176308 0.12779105 0.07184708 0.052864578 0.06841353 -0.07878725 0.15924464
-0.07956972 -0.04092231 -0.06932391 0.07430778 -0.057560913 -0.048683718 -0.02035181 -0.00382693
0.090983845 0.11960919 -0.010981275 0.03341388 -0.012039622 0.087294094 0.012472767 -0.10603535
0.10015846 -0.040228732 0.087354586 -0.025111515 -0.1634826 -0.09208659 0.059496447 -0.01625727
-0.1121464 0.026028482 -0.028127711 0.10853985 -0.06377162 -0.06767271 0.08678782 -0.015711324
0.13986574 0.087731436 0.03377973 -0.03618269 0.018779531 -0.076727346 0.04216475 -0.072709374
-0.017467547 -0.06353459 0.03245383 -0.12260861 -0.008508925 0.022589762 -0.031509705 -0.056622054
0.043007545 -0.06308106 0.055722285 0.10957783 -0.020502327 -0.036246575 0.0034614096 0.044884846
-0.09855823 -0.0662668 0.065791704 0.05757313 0.100630164 0.012089711 -0.005683591 0.04536373
0.13174811 -0.101510696 -0.02575955 0.06673923 0.024164813 0.080509424 0.06059496 0.0154618155
0.13673958 0.08048913 0.07367756 -0.061276667 0.11587021 0.10481416 0.07750754 0.03429942
0.06421805 -0.035877712 0.14211395 0.09517851 -0.015808934 -0.07914001 0.11969891 0.09315259
0.10504018 -0.002505817 0.031906903 -0.03927528 -0.027125206 0.0045601916 0.01465805 0.061841294
-0.018964501 0.12185146 0.113716565 0.1144426 0.08600406 -0.012531926 0.1087548 0.080661185
0.119558625 -0.06272938 0.0051790914 0.07911448 0.073613316 0.13013197 -0.01935066 0.03902012
-0.19537553 -0.048234116 0.07093942 -0.14833012 -0.029951185 0.07787997 -0.00943111 0.007620401
0.10148509 -0.06900644 -0.0065659005 0.012197951 -0.14417565 0.19163297 0.026418556 -0.2178163
0.085877486 -0.2566664 0.0014681903 -0.065687306 -0.028317817 -0.045146454 0.04695164 -0.090145566
-0.19926953 -0.028092574 -0.07997463 -0.07959876 0.1602022 0.080722615 -0.3775511 0.005184085
0.022356544 0.04401635 0.114923365 -0.010270034 0.17115456 -0.0507413 -0.016698852 -0.0011685378
0.024199912 0.008755192 0.028835488 0.12028386 -0.06010757 -0.14731339 0.0338912 0.09645775
-0.13383588 -0.038028166 -0.055796664 -0.08855369 0.03668904 0.006838209 -0.053315084 0.16483244
0.038862053 0.016111635 0.119324446 -0.056667913 0.0013147161 -0.0076233232 -0.004484091 -0.00096304686
0.112918735 -0.20628718 0.07314168 -0.091273464 -0.1256363 -0.024011245 -0.027565867 -0.25172064
-0.24310984 -0.10215334 0.17353572 0.020305166 -0.055100787 -0.12457039 -0.06742943 0.10649087
-0.054167036 -0.12573345 -0.083755866 0.0775923 0.049173534 -0.35129458 -0.032512356 -0.035384122
0.054021627 0.13940641 -0.12149199 0.10911777 -0.013199498 -0.010115899 -0.027783224 0.07346979
-0.050546344 -0.1919898 0.029401327 -0.06350336 0.08430696 -0.09398292 -0.11372914 0.14195484
0.07476248 0.074539855 0.010074253 -0.12020836 -0.3826022 0.15836918 -0.015450075 0.091753095
-0.087956645 -0.20527467 -0.097267546 0.043681737 -0.078576095 -0.06984215 -0.1159187 -0.09443079
0.039596114 -0.039764877 0.10607801 0.13754816 0.058450848 0.05977791 -0.015685804 -0.07431916
0.14363115 0.07912356 -0.102228805 0.20677066 0.11288804 0.07003423 0.043841124 -0.022026671

layers.1.bias f4 [128]
00000000: aec9 dc3d 9468 ee3a 6a01 293d e5b7 12bc
00000010: ebc6 11bd fad6 6c3d 1704 8c3d 8b05 36bb
00000020: 6f49 d33d 83f3 b23d fd6d 9abc 4fbb 8b3c
00000030: ff2f cf3b 719e bd3d 7023 a83c a9db 503d
00000040: 9e59 b93d 5271 48bd 65c4 81bd 980c c33c
00000050: 1803 173e 6869 5e3d 1df2 8abd c653 c63d
00000060: 708e 293e 2fcb 053d 2b5a de3c e1c5 c53c
00000070: 482d 6f3d f188 c93d 3103 c43c 6e06 bebc
00000080: 1a3f 913d 8aae f03d 4d3b 313d fbc1 823d
00000090: a941 1fbd 93f5 913d 1f8f 55bd dc02 123e
000000a0: 8fcc 113d 4ae9 e6bc df4a d73b c002 303c
000000b0: 0778 acbd 7ca5 013e cf82 683d 6806 f03d
000000c0: d963 fa3d 12e6 473d f519 bf3a 9306 963d
000000d0: 7b2c 0c3e 51af 813d b6e8 bd3d 7c3e 143e
000000e0: dc00 8d3d 9838 f03d 9cb2 8d3d 5eaf 00bd
000000f0: 7004 f63d 74c1 ddbc 5c3e 443c f311 b63d
00000100: 7a45 5b3d 1c57 10bd e6d6 843d 18a6 bb3d
00000110: db14 053e f687 df3d b2f2 49bd 986e f53d
00000120: a044 49bb a4a2 3c3d 2e34 b9bc 2350 0e3e
00000130: 3806 203e 6980 023d bd68 173d 6ff9 833d
00000140: 0e87 203e ce3b 0a3d 8b1f ed3d 7ab5 97bc
00000150: 2f28 a0bc f13a 133e 8806 f7bc ec85 98bb
00000160: 690e f83d 2df6 ff3c 6a76 d83d 54b9 1e3c
00000170: 0d40 af3d 265d d53d 6d0a aa3d df6e 44bc
00000180: 8fcb c23d eb79 c63d 16c4 0d3c 7e11 f93c
00000190: 6cff 61bd f269 143e 70e8 833d 62d3 0cbd
000001a0: d50b 3d3d 8e96 4abc 2da2 9e3d d690 d03c
000001b0: 666e 543d 2be3 493d dc90 333c 17e8 e83d
000001c0: f8b8 fd3d 4391 c43d aa6b 023d 4228 053d
000001d0: 66c5 913c 08b6 8b3d ab0c aa3d c9d9 8f3d
000001e0: 9067 66bd 4ec5 08bd 77e5 4f3d 61bf 0f3e
000001f0: da17 d33d 5ccb 63bd 4322 c43d 7206 eb3d
0.10780655 0.0018189126 0.041261114 -0.008954977 -0.035590094 0.057822205 0.068367176 -0.00277743
0.10316741 0.087378524 -0.018851275 0.01705709 0.0063228603 0.09258736 0.02052471 0.050990734
0.09050296 -0.048936196 -0.063362874 0.023809716 0.14747274 0.054299742 -0.06784461 0.09683947
0.16558242 0.032664474 0.027142605 0.024142208 0.058392793 0.098405726 0.023927303 -0.023196425
0.07092114 0.11752041 0.043269444 0.06384655 -0.038880978 0.07126918 -0.052138444 0.14258903
0.035595473 -0.028187413 0.0065702046 0.010742843 -0.08421331 0.12660784 0.056765374 0.11719972
0.12226076 0.048803397 0.0014579879 0.07325473 0.13688843 0.06332267 0.09272902 0.14476961
0.068849295 0.117295444 0.06918833 -0.031417243 0.12012565 -0.027069785 0.011977758 0.08890142
0.053533055 -0.035239324 0.06486301 0.09162539 0.12996237 0.10914604 -0.049303718 0.11983985
-0.003071107 0.046053544 -0.022607889 0.13897757 0.15627372 0.031860743 0.03696512 0.0644406
0.1567652 0.03374844 0.11578282 -0.018519152 -0.019550411 0.14377953 -0.030154482 -0.0046546366
0.121121235 0.031245315 0.10569461 0.00968774 0.085571386 0.10418157 0.0830277 -0.011989324
0.09511482 0.09691223 0.008652708 0.030403849 -0.05517523 0.1449354 0.06440818 -0.034381278
0.046153862 -0.012364997 0.07745776 0.025459688 0.051863097 0.04928891 0.01095983 0.113723926
0.123887956 0.09598019 0.031840958 0.032509096 0.017794322 0.06821829 0.083031975 0.07023961
-0.05625111 -0.03339129 0.050755944 0.14037849 0.10307284 -0.05561386 0.095768474 0.11475839

layers.2.weight f4 [64, 128]
00000000: 4020 aabb 8359 f03d 59ec 4f3d ad01 b83d
00000010: 4d1e 303c cd5c a43d 116f f13c 95e2 6bbd
00000020: caf4 3d3d 695f 8ebb d70b f43b f1ae b23d
00000030: 79ec b23d edf0 bb3c 5610 8a3c 49a4 d73c
00000040: 9851 353d 624e 4cbe e4ff 08bc dfd9 293d
00000050: dd1f a7bd 51ae 483d 1233 1dbd dd16 b8bc
00000060: ae90 d8bd 98f8 38be 02ad 23bd c436 d6bc
00000070: f7a5 07be b4fe 363d 856c 59bd 1e10 b2bc
00000080: 714c fd3c feee 40bd 043f 5c3d bbe8 d3bd
00000090: 5c09 57bc 6304 8d3d f94c 073b 588a 833d
000000a0: 4561 14bd 3aa4 3e3b 725d a4bd bb3a 44bc
000000b0: 0703 e9bd 5893 023d baf6 3d3d d65e 35bc
000000c0: 4b2f 12bd 21fe a6bc aaf4 84bd d3ac 0ebd
000000d0: 4f6d 08be 2fa5 1d3d ba35 113e 3381 f5bd
000000e0: 5a12 62be 8256 3ebd 6e0e a1bd d218 b9bc
000000f0: 018d 283b d463 56bd 2f6b 2fbe e527 fbbd
00000100: eb8e abbd 64a6 2fbe f132 aabd 2df9 b33d
00000110: 9ce1 bc3c 3145 70bd 9e39 c6ba 0435 1d3e
00000120: de01 523c 1de6 e6bd 47a1 17bd 347c a6bd
00000130: c5f3 c1bc ed8b 283e 6e43 12bd c43c 683d
00000140: 0905 a5bd 03ec 90bd 7df2 72bd 21f1 3a3d
00000150: b47b adbc 9f0e 413d 80bd 0e3e da58 913c
00000160: 0fe6 87bd 0da5 85bd 5d70 bdbc b3d8 01bd
00000170: a327 383b b0a7 523d abe1 013d 12ec 3d3d
00000180: 1457 17bd 3d9f a0bd 5bdd be3d 6138 77bd
00000190: 92f1 2c3e cc30 bf3d 7b00 e8bd 6373 07be
000001a0: f094 a0be a349 90bc d1cd 55bc a15b a4bd
000001b0: 0962 5dbc 29fd e63d 4f3c 313e d0ef c7ba
000001c0: 5b97 6cbd 98db 31bd 3041 153e ce49 823d
000001d0: 0465 d13d 0a93 2bbd e19d 5e3d 0c0f 6abd
000001e0: 847d a13d c55b f33b 5a3a 90bd f425 2cbd
000001f0: 851a c4bd 46c4 bebd 4fb7 5dbc f1c6 a43d
00000200: a73f d83c 8336 86bd 58cc e2bd 207b a53d
00000210: e69c 893c d651 b33d ff2e 3fbd 3a47 35be
00000220: 5137 953d a69c 543d 7394 78bd c314 f7bd
00000230: 2541 dfbc c8a6 ee3d b637 953d 1545 04bd
00000240: f090 4c3b d293 7f3d a966 92bd 4fd7 b0bc
00000250: 5999 6f3d 3d6e 3a3d 12e8 163d 4ed3 4cbc
00000260: 4422 d63c a088 f8bd 9a77 0cbe bcaf 1bbd
00000270: f2dd e2bd feb0 803d 1963 d2bb 3eaa 0b3d
00000280: 3338 83bc 7ecf 403c 087a ccbc 00fc 823d
00000290: 406e 85bc eb27 cfbc 10a3 0fbb e215 f7bc
000002a0: d9ed 3ebc 988d d4bc 523d 163d 8890 3c3d
000002b0: 0b03 2abe 51f8 573d 4c7f 89bd 812d 9ebd
000002c0: 882b ce3c ac86 683c 353e b8bd 4f4e febb
000002d0: 4efd 843b e450 76bd 34a9 083e 4658 efbd
000002e0: 9358 e0bd c260 1fbe 06be 19bd 17bd 6bbc
000002f0: 4da3 15bd f3d3 443d 2511 303c b8b5 d93b
00000300: 4bdc ba3d ee14 3c3d c122 0bbb fd71 f5bc
00000310: a1b3 f23c d931 0abd 9706 513d 99c0 913d
00000320: fea3 8a3d 7cec eb3c dd02 47bd 0f7e c9bd
00000330: 1ef4 2ebc 19de 53bd 8ed2 373d 349e c1bc
00000340: ce89 bb3c bde5 c3bd a5f0 4e3c 788a 3fbd
00000350: 5e4e ca3d 44a2 6fbd 8d39 953d 8674 3fbd
00000360: 06ae 8ebc 220b 8d3d 0f97 25bd 8390 093d
00000370: e0ed b43c 9baf cd3b 6b25 903d 7cc9 19bc
00000380: 2a6e 4fbd a759 843d 0e41 003d be66 60bd
00000390: 267c 823e 8fc2 f9ba 9240 3dbc 8b87 1b3d
000003a0: 792a c5bb 6ffc 793d e765 9a3d 1d51 abbd
000003b0: f638 cebd a578 053e fd59 203e 5321 85bd
000003c0: 587e e8bc bcf9 903d b971 2a3e f9bf cabd
000003d0: a6c0 82bd 4251 2ebd 9d9e b4bd 28cf 53bc
000003e0: 94de b63c e838 debc 91a5 b4bd 8cc6 05bc
000003f0: d87b 09bd 066b 5abd dfb4 8c3c a831 6ebd
-0.005191833 0.11735823 0.050762508 0.08984695 0.010749412 0.08025513 0.029471906 -0.057589132
0.046376027 -0.00434487 0.0074477005 0.08724774 0.0873651 0.02294203 0.016853493 0.026323454
0.044267267 -0.19951776 -0.00836179 0.041467544 -0.08160374 0.048994366 -0.038378783 -0.02247184
-0.105744705 -0.18063581 -0.039959915 -0.026149161 -0.13246904 0.044676498 -0.053082008 -0.0217362
0.03092024 -0.04710292 0.053771034 -0.10347124 -0.01312479 0.06885602 0.0020645245 0.06422871
-0.036225576 0.0029089586 -0.08025636 -0.011976893 -0.113775305 0.0318788 0.046377875 -0.011069974
-0.035689633 -0.02038485 -0.064919785 -0.034832787 -0.13322948 0.03848761 0.14180651 -0.119875334
-0.22077313 -0.04646922 -0.0786408 -0.022594843 0.002571881 -0.052341297 -0.17130731 -0.12263469
-0.08376869 -0.17153317 -0.083104976 0.08787761 0.023056798 -0.058659736 -0.0015123372 0.15352255
0.012817828 -0.112743594 -0.03701904 -0.081291586 -0.023675809 0.16459627 -0.035708837 0.056698576
-0.08057601 -0.07076266 -0.059313286 0.045640115 -0.02117715 0.047133084 0.13939476 0.017742563
-0.06635677 -0.065256216 -0.023124868 -0.0317008 0.0028099797 0.05142945 0.031709354 0.046367712
-0.03694828 -0.07842872 0.09319564 -0.0603565 0.16889027 0.09335479 -0.11328217 -0.1322761
-0.3136363 -0.017613238 -0.013049559 -0.08025289 -0.013512143 0.11278755 0.17308162 -0.0015253965
-0.05776153 -0.04342231 0.14575648 0.063617334 0.10224345 -0.041888274 0.054349784 -0.057143256
0.07885268 0.0074267113 -0.0704238 -0.042028382 -0.09575371 -0.0931478 -0.013532474 0.080457576
0.02639754 -0.06553366 -0.11074132 0.08080125 0.016798448 0.08755843 -0.04667568 -0.17702952
0.072859414 0.051907204 -0.060688447 -0.12064507 -0.027252743 0.11652905 0.07286017 -0.032292444
0.003121432 0.06239683 -0.07148487 -0.021587042 0.058495853 0.045515288 0.036842413 -0.012501551
0.026139386 -0.12135434 -0.137175 -0.03800939 -0.11077489 0.062837586 -0.006420505 0.034097902
-0.016018009 0.01176822 -0.024960533 0.063957214 -0.016287923 -0.025287589 -0.0021917261 -0.030161802
-0.011653387 -0.025946423 0.036679573 0.046036273 -0.16602723 0.052727047 -0.06713733 -0.07723523
0.025167242 0.0141922645 -0.0899624 -0.0077608 0.0040585166 -0.060135737 0.13345796 -0.11686759
-0.10954394 -0.15564254 -0.037534736 -0.014388344 -0.03653269 0.048053693 0.010746275 0.006643977
0.09124049 0.045918398 -0.0021230432 -0.02996158 0.02962667 -0.033738945 0.051031675 0.07116813
0.0676956 0.028799288 -0.048586715 -0.09838497 -0.010678319 -0.05172548 0.044878535 -0.023635007
0.022892859 -0.095653035 0.012630616 -0.046762913 0.098782286 -0.058504358 0.072863676 -0.046741985
-0.017416965 0.06886889 -0.040427264 0.033585083 0.022086084 0.0062770373 0.07038387 -0.0093864165
-0.05064217 0.06462412 0.03131204 -0.054785483 0.25485343 -0.0019055175 -0.011551039 0.03797106
-0.006017026 0.061031755 0.075389676 -0.083650805 -0.10069458 0.13034303 0.15659328 -0.06500497
-0.028380558 0.07078883 0.16644944 -0.09899897 -0.06384401 -0.042557962 -0.088193156 -0.012927808
0.02232293 -0.027126744 -0.08820642 -0.008165013 -0.033565372 -0.05332472 0.01717609 -0.058152825

layers.2.bias f4 [64]
00000000: c8d0 133e 2f35 ec3d 3a81 bebd 2144 24bb
00000010: 1fe9 dc3c 7800 f83d a7ec 39bd beec 963c
00000020: 9530 453c 8797 5fbc b5bd 353c 9130 be3d
00000030: 690c 64bc 5442 cd3c 1164 0d3e 1459 9f3d
00000040: 15d8 763c be27 953d 7993 413e 767a 8b3d
00000050: 8828 cc3d 6b3b a93b 7635 69bd fa9b 0f3c
00000060: 1b74 5a3c 4656 bc3c f6e7 fc3d 6c47 903d
00000070: 4177 093e c00e ac3d 4604 91bd 4a71 f53d
00000080: 6c70 b0bd bae9 0d3e 90a1 4bbb fb83 583c
00000090: 0946 4f3d 30ea b23d ea36 383e eef1 64bc
000000a0: 607c e63d 630e 20bd afaf bdbc 244d 053e
000000b0: 7965 0a3e 68ea 143e 182d aebb f1a2 c939
000000c0: bbd0 de3d b8ed bebb 31cc f13b 904c c23c
000000d0: 4a79 123e 32a1 ffbb 2278 3d3c 32ea 6b3d
000000e0: 9a53 c6bc ec31 6fbd 9b4c 03bc c799 4ebc
000000f0: f6f5 903d 496c 653e 7a3f 803d 47ac 9ebd
0.14435112 0.115335815 -0.09301992 -0.0025065022 0.02696663 0.121094644 -0.045391705 0.018423434
0.012035509 -0.013646967 0.011092593 0.09286607 -0.013918974 0.025056042 0.13807704 0.07780662
0.015066166 0.07282971 0.18903913 0.06810467 0.09968668 0.005164554 -0.05693575 0.008765215
0.013333346 0.022990357 0.123489305 0.07044873 0.13424398 0.08401251 -0.07080893 0.11984499
-0.08615193 0.13858691 -0.003107164 0.01321506 0.0506039 0.08736074 0.17989698 -0.013973696
0.112541914 -0.03907622 -0.023155062 0.13017708 0.13515271 0.14542544 -0.005315434 0.00038459108
0.10879656 -0.005826678 0.007379078 0.023718148 0.1430408 -0.0078011984 0.011564286 0.057596393
-0.024209786 -0.05839722 -0.00801387 -0.012609906 0.07078163 0.22404589 0.06262107 -0.07747703

readout.weight f4 [1, 64]
00000000: b3b1 d23e b302 7d3e 56fa 573e ae3e 1ebe
00000010: 291c c6bd 87e3 3ebe 6a92 373d 5ea2 e83d
00000020: e0ca bbbd 7667 8c3d 8cde 33be 3830 39be
00000030: bd7c ad3d 9200 883c 9654 5cbe c6a1 f73c
00000040: 950e 2a3d e0b3 4a3e c342 9cbe 433f 2abe
00000050: f15a 32be c1a9 ebb9 9c1f 5e3a 36a6 493e
00000060: 1506 20be a005 0fbe 198e 9fbe e82f 063e
00000070: 7725 53be 9e50 3bbe af89 aa3d 2af8 e8bd
00000080: f888 523d a6a4 ccbd d6c7 a93d 2fc1 15be
00000090: aedc 843d e9d7 06be 7ff8 b6be d1d6 ffbd
000000a0: 52c8 f63e 2702 f53d 2a06 173d 35d4 04be
000000b0: 127d dcbd c804 eebd 76aa b43d 2923 4dbe
000000c0: 5885 bcbd 673b f23d c6fc 16be 193d e23d
000000d0: bc33 37be 02c9 093e 9548 dbbd 0135 34be
000000e0: c2df d53c e758 8a3d e399 06be 2a60 793d
000000f0: 7db7 823e ec1d b4be 8bd8 b83e 7f4c 5a3e
0.411512 0.24708061 0.2109159 -0.15453598 -0.0967334 -0.18641482 0.044817366 0.11359094
-0.09169555 0.06855671 -0.17565364 -0.180848 0.084710576 0.016601834 -0.21516642 0.030228507
0.041517813 0.1979518 -0.30519685 -0.16625695 -0.17417504 -0.0004494917 0.0008473338 0.1969231
-0.1562732 -0.1396699 -0.311631 0.13104212 -0.2061976 -0.18292472 0.08327042 -0.113754585
0.051400155 -0.09992342 0.08290069 -0.14624475 0.06487404 -0.131683 -0.35736462 -0.12492145
0.48199707 0.11963301 0.036871113 -0.12971576 -0.10766043 -0.11622006 0.08821575 -0.20032944
-0.09205121 0.11827736 -0.14744863 0.1104681 -0.17890829 0.13455585 -0.10707203 -0.17598344
0.026107673 0.06755238 -0.1314464 0.060882725 0.25530615 -0.3517908 0.3610271 0.21318243

layers.0.weight f4 [128, 3]
00000000: a401 0e3f 8ae6 cd3e 30c4 0e3f b03f 03bf
00000010: 291e 293f 643c 3abe a003 50bd 4754 883d
00000020: d055 11bf 41df 8a3e 3371 0dbf 182a 083f
00000030: c0d6 ccbd f682 1ebf 37a4 da3e bcc9 94bd
00000040: e9cd 0dbf afd9 103e 8aca 8fbe 7a77 60bf
00000050: b843 113e 0e9f 95be df3a 41be 5e15 073f
00000060: e94f b9bc f79a c9be 7ec8 eb3e fe4d f0be
00000070: 93ae 713e 38d7 ce3d c013 e33e 19a8 19bf
00000080: c272 83be 695d 453e 85cb 8dbd 7b5b d5be
00000090: 61be 3abd ce41 d43e 1fb6 b9bc 2738 df3e
000000a0: 8c52 33bf 2257 cb3e 2723 fc3e 661d 69be
000000b0: d90d 1cbd 8639 9bbe c72e 3dbf dae2 a83d
000000c0: d59f 1cbf 9e9d ee3e cb16 083f a8db 21be
000000d0: 09eb 883d e065 a3be 6c26 0c3f 5c5e 0f3d
000000e0: e51d 3e3e a455 55be 7461 fd3d 23aa bdbe
000000f0: 24ba abbd b2c0 613e 0210 ba3e 017d 10bf
00000100: 16c9 873e 7ae4 303e 4e7d c2bd c17a e03e
00000110: 1a38 f1be 69bb 34be 6e51 abbe 0091 83be
00000120: 03b2 2f3b be50 85be 601b f3be 6390 cabe
00000130: 2fb7 803d 02fe c73d 43b5 ec3e 6e17 d1be
00000140: 601f ba3e 75cc af3e 99f5 7bbe dfce b4bd
00000150: 9c94 e1be 0b0e 333d f747 903c d2ae 11bf
00000160: 9037 313f 6778 0cbf ac50 91be 94d4 a43d
00000170: 919a 0d3f 9d69 9f3d 6762 db3e 8e49 d0bc
00000180: 2257 b63d a6d8 4fbe 8b9e ddbe ca2e f13e
00000190: a371 f03e fb2b ea3e e589 b1be e4d0 383d
000001a0: 8984 ab3e 6330 cf3e 7b10 bc3e 2bfd 8d3c
000001b0: 42c4 313e 0d9c 2f3f a6f4 f53d e69c 61be
000001c0: 4db7 cb3d 67a5 c5be 1174 f8be 4cf4 97be
000001d0: e4ff 2abe dec2 c73e 89e9 c7be 04e8 fcbe
000001e0: bfc7 cdbd 6e90 9e3e 2acd bebe 4a95 1dbf
000001f0: f988 d9be 9a0b 6ebd 2ec4 433e 1d04 463f
00000200: e1be 2cbe 69af e13d dba6 363e 4deb cebe
00000210: 7d3c 8dbd 962b 0abf 7671 8d3e 0058 183f
00000220: e959 2bbf 2ee3 12bf 0704 b53d 6418 0f3f
00000230: c132 17bd bdb2 ffbe 5f60 d9bd fba9 09bf
00000240: 2226 83bb 07a7 fe3e 30b1 c83e e3ac bbbe
00000250: 0ca5 273f 56b1 5a3e 89c2 51be 0729 073f
00000260: b0c5 d6be a72d 29be 51ae 133f 6e93 f23d
00000270: 92d5 6ebe 1998 04bf 6ace dcbe f262 9fbe
00000280: 2c43 b7be 0915 65bd f30e 363e 6100 fc3e
00000290: 375b f93d e2dc e73e 7792 183f d982 793e
000002a0: 4dfd c73e f278 35be 4b93 4b3e 70a9 793e
000002b0: a495 57bd 93c9 0dbf 48fb 02bf 9764 bbbe
000002c0: 65de 92bc b64c 95be 5d67 f63e 1cd8 b3be
000002d0: 92ac ee3e 025c 1e3f ab42 e0be 9920 9abe
000002e0: 905d a73e 4b2c 863d ea43 d2be 1f2b 6fbc
000002f0: 579b d2bc d160 a1bd 58ee c63e 8845 283e
00000300: a59e c1bd 7bde e83e 9f54 943e 16c9 7cbe
00000310: ae83 25bf 1a5c cdbe 1f38 8b3e 56bf c43d
00000320: 2704 b53e e496 37be 706a 223f fd66 dabd
00000330: 149f 5fbc 2d61 e5be 73f2 f6be e739 1d3e
00000340: 89ed 193f c15a 0bbf acea 833e 59c9 06bf
00000350: 52da de3e 177e d4be dc33 c63e 2838 adbe
00000360: 88c1 93be 5d9f 2fbe cf63 40be a823 053f
00000370: bd52 d93d 77b0 373e 8b1f 6bbe ee16 d03e
00000380: ce2a c63d 8d65 e2be 0066 0a3f cbc5 e4be
00000390: 823a b73e 24e0 74be 18c0 8d3e 893d 0bbd
000003a0: 27b4 a23e 513e 083f 8af7 4cbe 62d9 623e
000003b0: efb1 c53d bfc5 09bf c4ef ac3e 6c93 ef3d
000003c0: 4377 ac3c a73d b1bb 3d78 80be 060e 95be
000003d0: 1525 993e 938a 0f3f 1e26 abbe 100c 4abe
000003e0: ffd8 08bd 33cc f5be a6e6 dc3d 4ae5 eebe
000003f0: 54cd 2c3e c9a3 cf3e 5e81 dd3e 2271 4ebc
0.55471253 0.4021495 0.5576811 -0.51269054 0.66061646 -0.181871 -0.050784707 0.066567
-0.56771564 0.27123454 -0.55250853 0.5318923 -0.10001898 -0.6191858 0.4270341 -0.0726504
-0.5539232 0.1414554 -0.28084213 -0.87682307 0.14185989 -0.29222912 -0.18870114 0.5276698
-0.022621112 -0.3937604 0.460514 -0.46934503 0.23601751 0.100996435 0.44351006 -0.6002212
-0.2567349 0.19273914 -0.06923584 -0.41671357 -0.045591716 0.41456455 -0.02266985 0.43597528
-0.7004783 0.39714915 0.4924557 -0.22765121 -0.038099144 -0.30317324 -0.738995 0.082463935
-0.61181384 0.46604627 0.5315978 -0.15806448 0.066854544 -0.31913662 0.5474613 0.035002097
0.18566091 -0.2083345 0.12372103 -0.37043867 -0.08385113 0.22046164 0.36340338 -0.5644074
0.26520604 0.17274657 -0.09496556 0.43843654 -0.47113115 -0.17649616 -0.33460563 -0.25696564
0.0026808984 -0.26038164 -0.47481823 -0.39563283 0.062849395 0.09765245 0.46232042 -0.40838188
0.36352062 0.34335676 -0.24605407 -0.0882852 -0.44058692 0.043714564 0.01761244 -0.5690738
0.69225407 -0.5487122 -0.2838186 0.080483586 0.55313975 0.07783816 0.42848513 -0.025425699
0.08903338 -0.20297489 -0.4328502 0.4710601 0.46961698 0.4573668 -0.34675518 0.04512109
0.33499554 0.40466604 0.36731324 0.017332634 0.17360023 0.6859749 0.120095536 -0.22032508
0.09947071 -0.38602754 -0.48526052 -0.2967857 -0.16699177 0.3901586 -0.3904536 -0.49395764
-0.10047864 0.30969566 -0.37265903 -0.6155592 -0.42487314 -0.058116533 0.19117805 0.77350026
-0.1686969 0.11019785 0.17837088 -0.40413895 -0.06896303 -0.53972757 0.27625626 0.5950928
-0.66934067 -0.573779 0.08838659 0.5589659 -0.036913637 -0.49941054 -0.106140845 -0.53774995
-0.0040023485 0.49736807 0.39197683 -0.3665534 0.65486217 0.21356711 -0.20484366 0.5279698
-0.419477 -0.16521321 0.5768786 0.11844526 -0.23323658 -0.5179458 -0.4312623 -0.31130177
-0.35793436 -0.055928264 0.1777914 0.4921904 0.12175601 0.45285708 0.5959849 0.2436632
0.3906044 -0.17721918 0.19880407 0.24381042 -0.052632943 -0.553857 -0.51164675 -0.3660018
-0.017928312 -0.29160088 0.48125735 -0.35125816 0.46616036 0.6185914 -0.43800864 -0.30102995
0.3268857 0.06551417 -0.4106744 -0.014597683 -0.025708837 -0.078797944 0.38853717 0.16432774
-0.09454087 0.4548224 0.2897081 -0.24686083 -0.6465405 -0.4010933 0.27191254 0.09606807
0.3535473 -0.17928654 0.6344366 -0.10664175 -0.013648767 -0.44800702 -0.4823185 0.15354119
0.60128075 -0.54435354 0.25764978 -0.5265098 0.4352594 -0.4150245 0.3871144 -0.33831906
-0.2885859 -0.17150636 -0.18788074 0.5200753 0.10611484 0.1793841 -0.22961251 0.40642494
0.09676133 -0.44218102 0.5406189 -0.44682154 0.35786825 -0.23913628 0.27685618 -0.03399423
0.3177807 0.5322009 -0.20016304 0.22153237 0.09653079 -0.5381736 0.33776677 0.1169804
0.021052962 -0.005408961 -0.25091735 -0.29112262 0.29911104 0.5607082 -0.3342752 -0.19731164
-0.03341007 -0.48007354 0.1078618 -0.4665931 0.16875201 0.40554646 0.43262762 -0.012600215

layers.0.bias f4 [128]
00000000: f9dc ecbe dcf3 b1be 36dc 0dbf ed8a c13e
00000010: e0d0 783d e9c1 56be 6deb cebd 3f21 783e
00000020: 23a6 fabe 5600 bfbd 6a7f 683d 9d2b babe
00000030: a5ab f2bd b3b9 183f c124 183f da4d a1bc
00000040: 543f ccbe d035 fb3e 88db 8c3e 6ebc ee3e
00000050: b02a dabb 66e6 d23d e7bf 54be 3975 0dbf
00000060: 75d7 9b3e 8103 dd3c 921a 0f3d f60e 0c3f
00000070: 30dd 38be d892 ddbd 2bea 9bbe f1c2 f33d
00000080: 46bd 103e 69a3 d6be d4c9 0e3f 3d04 073f
00000090: b400 2f3e 5c09 063c 6b53 d33e f877 0e3e
000000a0: 1df8 1a3d 4bd8 94be 0e15 c03e 5912 5b3e
000000b0: a402 0b3e a0df 73bd 4b56 0e3e baa3 f83e
000000c0: 164f a33e fed5 013f c3cf 78be 90ba d8be
000000d0: e987 1fbe 22e1 8a3e bd33 aebe 5de6 5fbe
000000e0: b056 44be dce0 d43e cf21 32bc b8e3 3bbe
000000f0: f0b2 4bbd ddc1 dabe 4ca6 263e 0e56 98be
00000100: 1a76 073f b8c1 4bbe a7f3 3e3e 96ed 313e
00000110: 19b9 df3d 259d 823e 1c49 b4be 87f8 2b3e
00000120: d767 3b3e 98d3 2c3c 03b1 debe 5d8b bbbe
00000130: 220e 063f e746 8ebd 2919 cc3e 26b2 c63e
00000140: 9030 963e 4bea 17bd f01a 803e dd76 fbbe
00000150: b89a bc3e eb74 babe cb79 eabc 4b95 6bbe
00000160: 154c d7be c95d 193e 95a8 11bf 902a 193f
00000170: 4f04 043f c695 a93e 94c0 de3e 42ad 11bd
00000180: 68b3 663d 1afd 083e 19a8 cdbe 3732 513d
00000190: 74e4 183c c42d c9be 7438 1c3e f599 123f
000001a0: 3bd2 51bb 8d87 b43d 2670 66bd c61c 083d
000001b0: ceaf a23c 8fd2 26be deba cd3e 49e7 f5be
000001c0: 18a1 fb3e 7cb2 90be c815 bd3e 06aa 72be
000001d0: 6adf aa3e 4e99 053f dc5b c1be de93 c73e
000001e0: de6e 3dbe dcb3 063e 2cd8 893e 32e2 ec3e
000001f0: 60a9 a13e bb25 cbbd be62 3dbd 5230 09bc
-0.4626234 -0.34756362 -0.5541414 0.37801304 0.060746074 -0.20972408 -0.10103498 0.24231432
-0.48954877 -0.09326236 0.056762137 -0.363614 -0.11849145 0.59658355 0.5943108 -0.019690443
-0.39892066 0.49064493 0.2751124 0.46628135 -0.006657921 0.10297851 -0.2077633 -0.5525699
0.30437818 0.02697921 0.03493745 0.5471033 -0.18053126 -0.10819024 -0.30452093 0.119024165
0.14134702 -0.41921547 0.55776715 0.5274084 0.17090112 0.008180942 0.4127458 0.13912952
0.037834276 -0.29071268 0.37516063 0.21393718 0.13575226 -0.059539437 0.13900106 0.48562413
0.31896275 0.5071715 -0.24298005 -0.42329836 -0.1557919 0.27124888 -0.34023848 -0.2186522
-0.19173694 0.41577804 -0.010872318 -0.18348587 -0.049731195 -0.4272603 0.16274375 -0.29753155
0.52914584 -0.19898117 0.18647633 0.17375788 0.109239765 0.25510517 -0.35212028 0.16794024
0.1830133 0.010548495 -0.43494424 -0.36629763 0.52365315 -0.06947117 0.39862946 0.3880779
0.29333925 -0.037088674 0.25020552 -0.49114123 0.3683679 -0.36417326 -0.028622529 -0.2300617
-0.42050233 0.14977182 -0.5689786 0.5983057 0.51569074 0.3312208 0.435063 -0.035565622
0.05632344 0.133778 -0.4016731 0.05107328 0.009331811 -0.3929273 0.1525591 0.5726617
-0.0032016176 0.08814917 -0.056259297 0.033230565 0.01985922 -0.16291259 0.4018163 -0.4802802
0.49146342 -0.28261173 0.3693068 -0.23697671 0.33373576 0.5218705 -0.37765396 0.3898
-0.18499324 0.13154548 0.2692274 0.46266323 0.31574535 -0.09919306 -0.046236746 -0.008373337

layers.1.weight f4 [128, 128]
00000000: b76a 09bd 680c 433d 5231 a7bc 75e8 a0bc
00000010: 0b55 59bc 5ec7 e93a 0f8b 8e3d c881 273c
00000020: 41e1 1dbe c165 90bd 6c99 47bc a5f5 7a3d
00000030: 807a 0cbe fb77 133d d58e 7fba f440 f3bc
00000040: 0163 a5bd f635 0f3d 14e2 97bd 4441 2b3d
00000050: 8432 4abd c6ab 85bd 3c1b e13c 3307 ba3c
00000060: 8b16 bfbd 6063 e83c bb07 afbd 53f0 a1bd
00000070: 470d e0bd 2643 8d3d 2db3 c1bd b2bc bf3d
00000080: a235 003d 5c65 90bd 8059 84bd b2e5 7ebd
00000090: f0ad 833d d843 573d 4bf6 e13c 6238 753c
000000a0: 52b9 c2bb 908c 653d 87a3 b3bd 7078 b53c
000000b0: ee8d 84bd 32b2 843c 5ef9 a23d b12a 053c
000000c0: 7f9e c8bc a305 593c 7c15 41ba 705d c0bc
000000d0: 9cc6 953d 5382 2ebc d43a 033c f65e 9abd
000000e0: 8a32 843d 11f5 d7bd 228a 5d3d 48c3 a6bd
000000f0: 76a5 163c 4a35 893d 8fa8 17bd ad23 c93d
00000100: 6775 263d ea57 6ebd cdb3 55bd d886 5ab8
00000110: 8cdf 94bd bbcd 873d 2fb4 20be b69e 4b3d
00000120: 2bcc 1a3d 0d7f 223b 103a 973d 7199 e6bc
00000130: 5e8e ac3d 422a 95bd 487e 603c b78e 073d
00000140: 7167 0dbd f1f8 b13c a7ca ab3d 7342 febc
00000150: 9cb5 66bc d7bd 253e f04d e2bc 7d88 db3d
00000160: 65f5 41bd 3f97 79bd 9b95 803c 82f0 8c3c
00000170: f431 42bd 586e 6dbd a095 6fbd 68e0 a93d
00000180: f6ce 1abb 9d27 9c39 8500 c639 7d2f 463c
00000190: e271 4c3d 5f31 073d e4cb cabd 8213 393d
000001a0: 8be6 323d d372 b63d fa18 3f3d 194e 1a3c
000001b0: d2a5 bfbd e251 7ebd 5d2a 1dbd b556 3abd
000001c0: 6018 1f3d 2f00 fa3c 7a77 b03d 1c8a 88bd
000001d0: 9dad eb3b 2548 f43b ed23 babc 288f 7d3d
000001e0: 5e18 abbc 9fdf 2ebd 0719 1dbb 4059 3bbc
000001f0: 5c40 d03b f0ce 443c 6395 9bbd fd42 df3c
00000200: cfbc debd 25cd 933d 191b b2bd 848a 323c
00000210: 6c1c 11be 06f9 62bd 9ca3 49bd 42ba 57bd
00000220: 63ac 1dbe e6b6 c33c 50d5 37bd 96c0 1e3d
00000230: 68c5 38be d743 6dbd 36f1 f13c 6323 21bd
00000240: 3d5f cb3c 263d 1dbd 1e98 bf3c 821d 27bd
00000250: 6720 113d 52f5 723c afb5 893d 4677 2bbd
00000260: 67f1 cbbd a840 ba3c 4afa 11be 04d1 9abd
00000270: d846 833d 32f9 8e3d 3098 d5bc 25a2 13bd
00000280: 8567 5fbd 57db b9bc a4fa c6bc a2ab a5bc
00000290: ae01 c8bd 9f49 363d c224 49bd 2705 003d
000002a0: 6904 c83b 7737 babc 93fd d7bd cc4a 933a
000002b0: b143 d3bd 8fce 50bd 4ada b23d a746 3b3c
000002c0: 7386 753c 9582 85bd 4659 15bd 7118 a23d
000002d0: a2e2 5a3c a4c0 9a3d 182d 0bbd c6ba dd3d
000002e0: 314b 2d3d 200e 803d b01e 5e3d a3fb fa3c
000002f0: 4eb8 07bd 01a5 8e3d 47e1 773d 8869 2a3e
00000300: 8e29 b1bd c0ba 993d b5c1 86bd 8e4a 803d
00000310: 90cf 923d 80e9 663d 550b e1bd 236b 18bd
00000320: ead3 62bd 6947 66bd 64f9 093e f64b 893c
00000330: 6b80 f93c a58b 71bd 4b47 b4bc d2fe 8d3d
00000340: ac3c db3b b986 493c 816c a23d eb94 61bd
00000350: b8ee 903d 8478 1d3e b237 75bd 2053 ef3d
00000360: dd3d aabd c683 633d df1b 753d 9531 3fbe
00000370: f00c 9d3d 96fb 83bd 3114 d2bd 3a29 00bd
00000380: 09e4 b73c e0cb e6bd ff96 ecbd 5fe1 893d
00000390: 57c1 57bd d53f 9b3c a4b2 febd face efbc
000003a0: a7c4 b5bd 2fbd 943d 7850 3ebc 553f 6dbd
000003b0: fcdb bebd 0fdb 2fbd 35fd b4bd a37e 90bd
000003c0: 328a adbd 77ab 76bd c7f9 093d 47f9 9bbd
000003d0: 708d 7fbd f812 0ebc 1897 b1bd 65de b53d
000003e0: d824 e83b 61ac a63c 2aac c2bc da77 fd3b
000003f0: 1278 d93d 0ec7 b23d bddd a0bc e435 0c3d
-0.033549037 0.047619253 -0.02040926 -0.019642094 -0.013264905 0.0017835905 0.06960117 0.010223813
-0.15417959 -0.07050658 -0.012182575 0.06126942 -0.13718605 0.036003094 -0.00097487617 -0.029694058
-0.08075524 0.03496357 -0.07416168 0.04181029 -0.04936458 -0.06526904 0.027478807 0.022708511
-0.093304716 0.028367698 -0.08546396 -0.07907166 -0.109400325 0.06897573 -0.09458003 0.09362163
0.03130115 -0.07050583 -0.06462383 -0.062230773 0.0642966 0.052554935 0.027583262 0.014967056
-0.005942502 0.056042254 -0.08771425 0.022152156 -0.064723834 0.016198251 0.07957719 0.008127854
-0.02448964 0.013245973 -0.0007365567 -0.023482054 0.07313272 -0.010651189 0.008009631 -0.075376436
0.06454952 -0.105447896 0.05408681 -0.08142716 0.009194722 0.06699617 -0.037025984 0.09821258
0.040639307 -0.05818931 -0.052173425 -5.2100833e-05 -0.07269201 0.06631037 -0.15693735 0.049711905
0.037792366 0.0024794966 0.073841214 -0.028149338 0.08425592 -0.07283451 0.013701983 0.033095088
-0.034522478 0.02172515 0.08388262 -0.031037545 -0.014081385 0.161857 -0.027625054 0.107193924
-0.047353167 -0.060935255 0.015696337 0.017204527 -0.04741092 -0.05796656 -0.058492303 0.08294755
-0.0023621893 0.00029784153 0.0003776589 0.012096283 0.049913295 0.03300607 -0.0990217 0.04518462
0.043676894 0.0890862 0.04665468 0.009418034 -0.093577996 -0.06208981 -0.03837048 -0.045492847
0.038841605 0.030517666 0.08616538 -0.06666967 0.007192327 0.0074548894 -0.022722209 0.061904103
-0.020885643 -0.04269373 -0.0023971216 -0.011434853 0.0063553285 0.012012228 -0.07596853 0.027253622
-0.10875856 0.072168626 -0.08696575 0.0108972825 -0.14170998 -0.05541327 -0.049228296 -0.052667864
-0.15397792 0.023890924 -0.044881165 0.038757883 -0.18044055 -0.057926025 0.029533964 -0.039340388
0.024825687 -0.038388394 0.023387965 -0.040799625 0.035431292 0.014828997 0.067241065 -0.041861795
-0.09958153 0.022735909 -0.14255634 -0.07559398 0.06409997 0.06981124 -0.026073545 -0.036043305
-0.054542083 -0.022687597 -0.024289437 -0.020223442 -0.097659454 0.044503804 -0.04910732 0.031254914
0.0061040414 -0.022731526 -0.10546412 0.0011237501 -0.103156455 -0.05097824 0.087330416 0.011430419
0.0149856685 -0.06519047 -0.03646209 0.07914818 0.013359698 0.075562745 -0.03397855 0.1082664
0.042308036 0.06252694 0.054228485 0.030637568 -0.03313475 0.06965066 0.060517576 0.1664182
-0.08650504 0.07506323 -0.065799154 0.0626422 0.07168496 0.056375027 -0.109884895 -0.03721155
-0.05537788 -0.056220446 0.13474041 0.016759854 0.030456742 -0.058971066 -0.022006651 0.06933369
0.0066905823 0.012300187 0.07930852 -0.05507366 0.07076782 0.15378004 -0.05986757 0.11685777
-0.08312581 0.05554559 0.059841033 -0.18671258 0.07668483 -0.064444706 -0.102577575 -0.031289317
0.022447603 -0.11269355 -0.11552238 0.06732439 -0.052674618 0.018951336 -0.12436417 -0.029273499
-0.08875399 0.072626464 -0.011615865 -0.057921726 -0.093193024 -0.04293352 -0.08837358 -0.07055404
-0.08473624 -0.060222115 0.03368547 -0.07615905 -0.062390745 -0.008671515 -0.08671397 0.08880309
0.0070844702 0.020345869 -0.023763735 0.0077352347 0.10618605 0.08729373 -0.019636983 0.03423108

layers.1.bias f4 [128]
00000000: 1f43 253c 8fee 083d d087 c8bd 88fc 73bc
00000010: 49e7 563d 8681 63bd 7efa c43d f268 c93b
00000020: 164f d33c afbe 4f3d 696f 153d 476f 67bd
00000030: 04e4 88bd 2ea6 173d 881e 8fbc d136 4ebd
00000040: 96ea ecba 2a8b 663c 1a54 c1bd 01f6 8d3d
00000050: d7a8 5f3d fcbf 4cbd db00 7a3d cd5e 3e3c
00000060: 3f5b b9bc 3f2a 153d 9089 a03d 1d78 b43d
00000070: 8515 803d 1f5e b33c 1199 613d c9dc a93d
00000080: 9936 f93c c7dc 4ebc 9518 863d 8965 403d
00000090: 27fe 5cbd 05a2 a53d 4087 e73c b4a0 97bd
000000a0: 5dc3 7f3c 9762 9a3c bc12 e93c 924c 673c
000000b0: 6bf2 3c3d 47bb 623d 5f09 013b e84b 973d
000000c0: 4316 873d dbe8 2f3d abc3 ad3d 7c2f dd3d
000000d0: 22d6 bf3b 65a3 10bd 5e72 e9bc 139d 90bc
000000e0: 7111 873d 06cf 9abc 9398 b63d ab57 02bb
000000f0: 9577 81bd e256 3abd 6927 9bbd 6253 9abb
00000100: 05ce c93b cdc3 3ebd 1fc7 e7bc 8bf1 aabd
00000110: bacb bdbd 2c15 5d3d c328 6b3d f38d ab3d
00000120: 657c 1ebd bd71 d6bc 109a 463d c406 c73b
00000130: 383a df3c 7962 b7bd a92d 88bc b0f7 5ebd
00000140: 4df7 4b3d 4d53 5abc 8d3d 3cbd 8e0c be3d
00000150: 93e1 9c3d a8a7 ccba 6e0b 943c 5f07 6abd
00000160: b91c afbd 6713 a0bd 8662 ca3d 802d 803d
00000170: 8846 d8bc ed4d 51bd f08e 03bd 19a2 babd
00000180: 03a6 74bd dc94 923d 7b74 39bd c308 96bd
00000190: 87a2 9a3d 4680 f7bc c52a abbb 0d1f 543d
000001a0: 1517 34bd 32d4 5bbd 4ded fcbc d6d0 a4bc
000001b0: 5577 b43d c296 86bd 9618 92bb 23ed 95bb
000001c0: 2209 153d 0a7f 653d 4f1d c4bc c3d2 223d
000001d0: 04d6 8fbd 9438 9c3d 1567 74bc e601 2fbd
000001e0: b62e 9a3d 846b b8bd 81e2 b639 e325 993d
000001f0: e771 373d fa89 37bd 5be6 a4bc 8433 b1bc
0.010086804 0.033430632 -0.09791529 -0.014891751 0.052466664 -0.055543445 0.0961809 0.0061465437
0.025794547 0.05071896 0.036483202 -0.056502607 -0.066841155 0.037023716 -0.017470613 -0.050345246
-0.0018075283 0.014071265 -0.09439869 0.06931687 0.054604378 -0.049987778 0.061035972 0.011619282
-0.022626517 0.036417242 0.07838738 0.08811972 0.062541045 0.021895466 0.055077616 0.082940646
0.030421542 -0.01262588 0.065476574 0.04697183 -0.053953316 0.080875434 0.028262734 -0.074036986
0.015610543 0.01884584 0.028451316 0.014117377 0.046129625 0.055354383 0.0019689423 0.07387525
0.06596043 0.042946678 0.08484586 0.108000726 0.005854384 -0.035312075 -0.028496917 -0.017653024
0.065951236 -0.018897545 0.0891582 -0.001988868 -0.063216366 -0.045493014 -0.07575876 -0.004709647
0.0061585926 -0.04657345 -0.02829319 -0.08346852 -0.092673734 0.05397527 0.05741192 0.08376684
-0.03869285 -0.026177282 0.04848677 0.0060738046 0.02724944 -0.08954329 -0.016623335 -0.054435432
0.04979639 -0.0133255245 -0.045957137 0.09279738 0.07660212 -0.001561393 0.018071856 -0.057135936
-0.085504 -0.07816201 0.09882073 0.062586784 -0.02640082 -0.051099706 -0.032118738 -0.09112949
-0.059728634 0.07157299 -0.0452771 -0.0732589 0.07550531 -0.030212533 -0.0052236044 0.051787425
-0.043967325 -0.053669162 -0.030874873 -0.020119112 0.08811823 -0.065717235 -0.0044584973 -0.004575388
0.036385663 0.056029357 -0.023939757 0.03975178 -0.07023242 0.07627979 -0.014917155 -0.04272642
0.07528441 -0.09004882 0.00034882504 0.074779294 0.04478636 -0.04480932 -0.020129373 -0.02163101

readout.weight f4 [1, 128]
00000000: 3611 3ebd a1af febd fd17 51be e315 6d3d
00000010: 05b0 e43d 1042 9b3d 24c1 0c3e 183a a33d
00000020: c938 a5bd d3fd 06bd a6e9 5cbe cc49 df3d
00000030: 481b 29be 6e01 873d 5d20 dcbd 1dc9 9bbd
00000040: 39dc 1bbe b163 12be 8ef5 36be 5401 6dbe
00000050: c903 ebbd 0fcb 00be ccc5 6cbd edf6 a1bd
00000060: 68e6 81bd 23f3 2a3e 92f9 2abe 5c48 a93d
00000070: 373c 34be 73e7 b7bd 8929 27be eabc cc3d
00000080: b4b5 0ebd 6dfb e4bd 1aca 68be efac 253e
00000090: 3ec7 c43d a0ff 9f3d 9a37 efba 69fd e1bd
000000a0: 5689 a0bd 4ae2 5fbd 38ff 7a3c 6a04 dcbd
000000b0: 497a 11be e45a 023e 8307 283e 5c2a e73d
000000c0: 919c 4fbe 6337 c6bd b39e a73d 20b6 03be
000000d0: 582e 3dbe 9f7d 09be 17ab 853d fc55 0abe
000000e0: 2247 3ebe 48dd c63d 3a18 0f3e 0068 e53c
000000f0: 33dd 09be e349 ab3d 1e37 333e c2b0 00bd
00000100: 74f1 e93d d73d 8dbd efc7 93bd 509f 29be
00000110: 3a9e bf3d f158 81bd ff12 993d 7e3e d7bd
00000120: 8441 51be d8ac e13d a0ba bbbd e735 9a3d
00000130: dc0c c33d 8829 9fbd 1d32 81be 1fba 18be
00000140: b757 503e b524 08be 28ee 9f3d 4c85 e13d
00000150: b64f a83c ff1d 13be 9aaf ca3d a788 aebe
00000160: f10b 1a3e 9503 38be 94c7 323d 3b74 a63d
00000170: 0986 3e3d e482 85bd 821b 4b3e 0ceb 683e
00000180: 7b9f fabd 7e9a a63d 8834 853c 4d0e 08be
00000190: 962a 42be f627 353e 2dbf f33c e871 f13d
000001a0: dc55 02be f0cd 803d 967e f4bd 82e2 ad3d
000001b0: 3e7d 2f3e 08f4 9abe e79d bf3d 6504 92bd
000001c0: 7b62 3ebd 0dc1 7abd 4eb4 d3bd f4e3 efbd
000001d0: ae33 d53c ed2b 44bd 673e d73d 9687 d9bd
000001e0: 46b8 0ebe 6ea6 28be 005e a23c cfc3 463d
000001f0: 9416 19be 724f 033d b31f 703d f0a8 c33d
-0.046403132 -0.12435842 -0.20419307 0.0578822 0.111663856 0.0758096 0.13745552 0.07970065
-0.080674715 -0.03295691 -0.21573505 0.109027475 -0.16514313 0.065920696 -0.1074836 -0.07606719
-0.15220727 -0.14295842 -0.17867109 -0.23145038 -0.11475331 -0.1257746 -0.05780582 -0.079084255
-0.06342775 0.16694312 -0.16696766 0.082657546 -0.17601095 -0.08979692 -0.16324438 0.0999697
-0.034841254 -0.11180768 -0.22733346 0.1617925 0.09608315 0.078124285 -0.0018250823 -0.11034662
-0.07838695 -0.054659165 0.015319638 -0.107430294 -0.14206804 0.12729985 0.16409115 0.11287376
-0.20274569 -0.09678533 0.08184566 -0.12862444 -0.1847471 -0.13426827 0.065267734 -0.13509363
-0.18581823 0.09710175 0.13974085 0.028003693 -0.13463287 0.08363702 0.17501494 -0.03141857
0.11423007 -0.06896561 -0.07215869 -0.16564679 0.09356351 -0.06315792 0.07474326 -0.10509966
-0.20435148 0.110192955 -0.09166455 0.07529812 0.09523937 -0.07771593 -0.25233546 -0.1491475
0.2034596 -0.13295253 0.078090966 0.110117525 0.020545822 -0.14366911 0.098967746 -0.34088632
0.15043618 -0.17970116 0.043647364 0.08127638 0.046514545 -0.06519106 0.19834712 0.22745913
-0.1223745 0.08134936 0.0162604 -0.13286705 -0.18961558 0.17691025 0.029754246 0.11789304
-0.12728065 0.062892795 -0.11938207 0.084904686 0.1713762 -0.30264306 0.09356289 -0.071297444
-0.046480637 -0.061219264 -0.10337125 -0.117134005 0.02602562 -0.047893453 0.10509949 -0.10621564
-0.13937482 -0.16469738 0.019820213 0.04852658 -0.14950019 0.032058187 0.05862398 0.09553707
