HW9/9_gym-DDPG/results/DDPG_HalfCheetah-v4_5500-eps0.15-t32-l0.0001-s2.pth (torch, 195708 bytes, 13 tensors)

layers.0.weight f4 [128, 23]
000000 aa c3 25 3e da 11 23 3e d3 9c c9 3d 08 5d 58 bd
       0.16187921 0.15924779 0.09844365 -0.052823097
000010 f4 c2 05 3d b7 52 13 3e 91 62 18 bc 26 3d 3f be
       0.032656625 0.14387022 -0.009300844 -0.1867567
000020 91 2f 99 3e 8a f0 8c be 94 13 5f be 01 d0 10 3d
       0.29919103 -0.27527267 -0.21784812 0.035354618
000030 d7 5c da bc 90 58 8f 3d 0b 38 f4 3c 87 c0 74 3d
       -0.026655598 0.06999314 0.02981188 0.05975392
000040 80 95 6a 3d 4d 4e 25 be 99 05 06 be c4 f3 60 3e
       0.05727148 -0.1614315 -0.13088073 0.21967989
000050 57 34 8e be 9e f8 24 bd db 35 5c 3d 1f 15 f3 3f
       -0.27774307 -0.040276162 0.053762298 1.8990821
000060 7b 05 46 bf 5b b7 3e 3e 85 15 0d 3e 14 99 9d be
       -0.7735211 0.18624632 0.1377774 -0.30780852
000070 43 12 a0 be a7 89 5a bf 84 97 77 bf 1b 84 4c be
       -0.31263933 -0.8536629 -0.9671557 -0.19972269
000080 5e bc e0 be 18 9d 08 3e e8 a2 da bb b0 ce 02 bd
       -0.43893713 0.13341177 -0.006672252 -0.031935394
000090 74 a2 c2 3c 30 27 e0 bd 7f 57 48 bb ac f4 ae ba
       0.023759104 -0.109449744 -0.003056973 -0.0013348064
0000a0 46 7a 70 be a5 17 9d bd 41 d0 43 3e 27 0e fd be
       -0.23484144 -0.076705255 0.19122411 -0.4942486
0000b0 92 f9 83 bd 1f bc 19 3e 22 a1 a8 3f e7 be 13 3e
       -0.06444086 0.15013169 1.3174174 0.14428292
0000c0 91 9d 2c be 87 1b 08 3e f3 1a 36 bd 2a 1b 9c 3e
       -0.16856982 0.13291751 -0.044459295 0.30489475
0000d0 06 8d 6c 3e 16 e4 2c bd e0 eb 9c be 4f 80 1a bd
       0.23100671 -0.042209707 -0.30648708 -0.03772002
0000e0 ba 6c 52 be 8f 24 9a 3d bf 65 1c bd 4c d6 dc 3d
       -0.20549288 0.07526504 -0.03818297 0.107830614
0000f0 96 3e f2 bb 05 72 f6 bd 42 c0 a1 bc cc 4c 0e 3e
       -0.0073927147 -0.12033466 -0.019744996 0.13896483
000100 ed 31 1d 3b 87 b1 46 bb 02 f6 86 3c 11 e5 fc bd
       0.0023986057 -0.0030318217 0.016474728 -0.123483784
000110 ff f3 38 3d 95 db 85 bf 1a 77 5f bf 5a b8 97 be
       0.045154568 -1.0457636 -0.8729111 -0.29632837
000120 32 de 20 bf 4c 56 ec bd e6 ea a2 3d 0d 39 10 3e
       -0.62839043 -0.11539897 0.079549596 0.14084263
000130 c9 0a 48 bd b5 8c 0d 3d 03 66 51 3e 99 9d 4e 3b
       -0.04883841 0.034558017 0.2044907 0.003152704
000140 f8 f7 07 3e 4d 7c e8 bc db f1 8e bd 3c 33 81 bc
       0.13278186 -0.028379584 -0.06979724 -0.0157715
000150 d3 fb cf 3d e4 d1 53 3c 2a a8 17 be d6 11 13 be
       0.101554535 0.01292846 -0.14810243 -0.14362273
000160 ff 8b 54 3c eb 97 5c be 61 7a 97 bd 05 9c dd bd
       0.012972831 -0.21542327 -0.07396389 -0.10820774
000170 bb e2 39 40 73 5b 85 bd dc 14 50 3f 3f a6 27 3d
       2.9044635 -0.06511583 0.8128183 0.04093003
000180 f1 9a 1f 3e 22 8d 00 3f 22 75 6b bd 2a 77 bc be
       0.15586449 0.5021535 -0.057484753 -0.36809665
000190 b3 70 3b be de 34 89 3e 92 d6 32 3d ac ec 14 3e
       -0.1830471 0.26798147 0.04366166 0.14543408
0001a0 7b 0a 39 3d af 17 17 3d 09 6d ba 3d cd 3a 3d 3d
       0.04517601 0.03688782 0.09102828 0.046198655
0001b0 d5 95 ae bc 14 b5 e8 3d 49 69 e8 3d a5 65 a7 bd
       -0.02131168 0.11362663 0.113482065 -0.08173684
0001c0 65 5b 38 be 7f 39 88 bc 8f 6f 58 be be 93 d7 3e
       -0.18003614 -0.016628979 -0.21136306 0.42104906
0001d0 b6 52 36 bf 78 96 9a bc 95 c4 29 be 53 e6 fd bd
       -0.71219957 -0.018870577 -0.16578896 -0.123974465
0001e0 89 3d b2 3e 64 0a 85 3e 19 91 56 3d a9 e2 cd 3d
       0.34812573 0.2598449 0.05238447 0.100529976
0001f0 c2 f7 af 3d 69 52 7a bd 58 1c a7 3b 30 65 cf 3d
       0.08592178 -0.06111375 0.0050998144 0.10126722
000200 da 39 df bd 32 9c e7 bd ed 6f 20 be 99 cb 09 3d
       -0.10899706 -0.11309089 -0.15667696 0.03364143
000210 99 79 40 3d 16 77 9c be 81 76 6a 3c f2 fd 82 3e
       0.046990965 -0.30559605 0.01431048 0.2558437
000220 3d 0f 95 3d f0 dd 4c be 58 b3 94 3d e9 1b 3f bf
       0.07278297 -0.20006537 0.072607696 -0.7465196
000230 b1 c0 c8 bf 94 bf 02 3d e7 68 12 3e ba 4c 0a be
       -1.5683805 0.031920984 0.1429783 -0.13505831
000240 16 5b bc 3e 71 4b 68 3e 96 a7 e1 bd 36 35 03 bd
       0.36788243 0.22685029 -0.110182926 -0.032033168
000250 1f ec 30 3e a2 9f c8 bd 28 6a 85 3d b2 89 4b 3a
       0.17277573 -0.097960725 0.06514388 0.00077643536
000260 b1 3d ed bd 5f 13 33 bd 89 b9 da bc f7 2e 24 be
       -0.11584032 -0.043719646 -0.026699798 -0.1603354
000270 de 91 00 be b0 bd 24 bc de 82 2a 3e e3 cf e6 3b
       -0.12555644 -0.010054991 0.16651484 0.007043825
000280 1a 8f 1b be 55 49 1a 3f 7d 4a 24 bf b2 fc 47 be
       -0.15191308 0.60268146 -0.6417616 -0.1952999
000290 6b 0b 1f 3d 96 8f 5e 3e 0a 6b 07 3d 7e 2a dc be
       0.03882925 0.21734461 0.033061065 -0.4300117
0002a0 fa f7 9a 3c 42 cc 5f bc 57 0c 8d be 8e 62 c8 bd
       0.018917073 -0.013659539 -0.27548477 -0.09784423
0002b0 f1 cc 8f 3d e1 69 80 bd 37 5b be bc 57 a1 9a bd
       0.07021511 -0.06270195 -0.023236854 -0.075503044
0002c0 4c d2 07 be f3 10 9f 3d 4b 51 34 3e 94 cb 87 3d
       -0.13263816 0.07766905 0.17609136 0.06630626
0002d0 08 f8 f6 bd 9e f2 56 bc 17 39 5c 3e cb 89 35 bd
       -0.12059027 -0.013119368 0.21506153 -0.044320863
0002e0 c0 d6 9d 3e 40 3a 6e be 50 7b bc bd 46 99 d3 3d
       0.30827904 -0.23264408 -0.092032075 0.10331969
0002f0 5a 2b 20 bd ba e5 ed 3d 00 9e 8b 3c 27 38 be be
       -0.039103843 0.116160825 0.017043114 -0.37152216
000300 20 90 00 3f f6 4f b6 3e 5d b0 b5 bc 8c f2 b0 bd
       0.5021992 0.3560788 -0.022178823 -0.08640012
000310 02 d2 1f 3d 1e 99 af bd 23 95 d3 3d 9f 80 ac 3d
       0.03901864 -0.08574127 0.1033118 0.0842297
000320 30 5a 26 bd 9b 13 01 be 47 4e 71 be eb 32 78 bd
       -0.040613353 -0.12605135 -0.23565017 -0.060595434
000330 06 b2 79 bd de d8 05 3e f3 a4 88 3d 57 2d 16 3e
       -0.060960792 0.1307101 0.066720866 0.14665733
000340 57 4d 6a 3d ff c0 aa bd db a2 a4 be 79 7a 34 bd
       0.057202663 -0.08337592 -0.321555 -0.04406211
000350 0a 91 5e be 61 51 7d 3d 02 5a d0 bd 93 35 5e 3e
       -0.21735016 0.061845187 -0.10173418 0.21700124
000360 98 4f b4 bd 9c 37 31 be c2 b7 0d 3d 3b d6 8a 3d
       -0.08804244 -0.1730637 0.034599073 0.067791425
000370 60 7c f0 3c 5f 92 06 be ea 52 04 3e 33 e9 bc 3d
       0.029356182 -0.13141774 0.12922254 0.09224167
000380 49 37 4e bb 29 c7 b8 3d af eb f5 bd 63 6d 49 3e
       -0.0031466058 0.09022362 -0.12007844 0.19670634
000390 e0 19 d9 3d de cc bd 3d 4e b4 2d 3f cb 1b c2 3e
       0.106006384 0.09267591 0.6785325 0.3791183
0003a0 f5 4d d8 3e 55 50 8a 3d 58 2c 40 be 32 8f f7 be
       0.42246976 0.06753603 -0.18766916 -0.48351437
0003b0 06 39 9f be ea ff b7 be 5a 2e e8 be 8f d1 64 3e
       -0.31098193 -0.35937434 -0.45347863 0.22345565
0003c0 1f 28 ab 3d 80 31 9d bb 3c b1 d6 bd 85 a7 24 be
       0.08357262 -0.0047971606 -0.104830235 -0.16079529
0003d0 1b 21 63 3e 8e 79 bf 3d 16 3f 34 3d 5f fe 0c 3e
       0.22180597 0.093493566 0.044005476 0.1376891
0003e0 af 40 46 bd 24 e2 44 be c5 ed 3d be de e0 b7 bd
       -0.04840153 -0.19226891 -0.18547733 -0.08978437
0003f0 0e e0 a0 bc 0d fa 32 bf 95 c8 31 bc 33 95 60 be
       -0.019638088 -0.699128 -0.010851045 -0.21931915

layers.0.bias f4 [128]
000000 ad db 85 bd 48 43 8e 3e dc 37 65 3c 9b 39 c4 3c
       -0.065360405 0.27785707 0.013990369 0.02395325
000010 6e 5d b9 3e 88 bc 0e 3f ce fb e8 bb 2e 92 4d 3e
       0.36204094 0.55756426 -0.0071100956 0.20075294
000020 81 8b 96 3e e3 c8 3d 3e 39 3f 3e bd fc b2 27 3e
       0.29403308 0.18533663 -0.046447013 0.16376871
000030 5f 85 78 3e 17 cd 83 be 48 34 8d be 81 13 18 be
       0.24269627 -0.2574241 -0.2757895 -0.1485119
000040 a9 c8 9d bb b7 7b f2 3e bf 28 d7 3e 98 a4 a6 3d
       -0.0048151803 0.47360012 0.42023274 0.081368625
000050 15 f0 eb 3e 4a c7 a9 3e 29 80 a0 3e 45 bb 8e be
       0.46081606 0.33159858 0.31347778 -0.2787725
000060 22 df cd 3e 1c c8 79 3d 96 a9 64 be 40 14 02 3f
       0.402093 0.060981855 -0.22330317 0.5081215
000070 f5 b4 d1 3e ac 3e 96 3e 9f 0f 20 3f dc 19 05 bf
       0.40958372 0.2934469 0.62523836 -0.51992583
000080 53 78 9d 3e 64 33 d3 be b1 99 d7 bd 9c 4b f3 be
       0.30755863 -0.41250145 -0.10527361 -0.47518623
000090 67 dc 92 bd 8c 55 09 3e b3 94 f2 be b2 2f be 3e
       -0.07170945 0.1341154 -0.47379074 0.37145764
0000a0 e5 e7 d1 3e 9c 82 91 3e 88 0f ed 3d 42 d3 1f 3f
       0.40997234 0.2841996 0.11575228 0.6243173
0000b0 76 8b 8b be 9c ed 2e 3f 29 46 f8 3d 62 bb b4 bd
       -0.27254838 0.68331313 0.12122757 -0.08824803
0000c0 c5 04 3c bd 66 eb 70 3e 59 51 12 3e 37 ca d9 bd
       -0.045902986 0.23527297 0.14288844 -0.106342725
0000d0 0f 06 57 bd 9b e3 4a 3f ee fa cc bd 86 9b ba 3e
       -0.052496012 0.7925355 -0.100087985 0.3644678
0000e0 6a 57 e2 3d fb ed 54 bd 18 55 55 be bc 42 e4 bd
       0.11051829 -0.05198477 -0.20833242 -0.11145541
0000f0 36 c8 1b 3e 11 3e 5a 3e 1e 0a ae 3e a7 cc 19 be
       0.15213093 0.21312739 0.33992094 -0.15019475
000100 21 85 7c be 86 ad e5 3c 1d af 7e be 5e 3d 1f be
       -0.2466016 0.028036844 -0.24871488 -0.15550753
000110 65 80 b6 be 86 ac dd 3e 57 c6 be 3e 3c 89 05 bd
       -0.35644832 0.43295687 0.37260696 -0.03260158
000120 0f ee c1 be dd 19 8e be 16 a6 d8 be 8e 6c 3b be
       -0.37876937 -0.27754107 -0.42314214 -0.18303129
000130 6d d4 a0 be 92 92 2f be ea 45 ca 3e d6 b8 b1 bd
       -0.31412068 -0.17145756 0.39506465 -0.08677833
000140 19 82 8b bd 8f 88 8a be 1c 90 57 bd d7 0f 56 be
       -0.068119235 -0.2705731 -0.052627668 -0.2090448
000150 7e ea a1 be 59 a3 0c bd d0 00 50 be be 32 9f 3e
       -0.31624216 -0.034335468 -0.2031281 0.310934
000160 64 0a 74 3e 44 a1 3c 3e 0b bc 5a bd d3 43 04 3f
       0.23832089 0.18420893 -0.053401988 0.5166599
000170 79 10 e7 3e 0d 87 82 3d 3b 29 0b 3f 23 d3 90 be
       0.45129755 0.06373415 0.5435979 -0.28286085
000180 ef bd 13 be 19 1c b0 be a9 db e0 3d 92 62 01 3f
       -0.14427923 -0.34396437 0.10979397 0.5054103
000190 2f 98 66 be d0 1f 0f 3f 42 b3 4d bd 7e 1c 0c bd
       -0.22518991 0.5590792 -0.05021978 -0.03420686
0001a0 13 14 14 be 38 3f c8 be a4 55 09 bd 56 1e 13 3f
       -0.14460783 -0.39110732 -0.03352894 0.57468164
0001b0 ca e7 36 3f b9 ab 06 3e b0 62 c1 3d f8 8e 6b 3e
       0.7144743 0.13151444 0.09442651 0.23003757
0001c0 24 37 d1 3e d8 e0 d6 3e a2 53 12 3f 5e cb 90 3d
       0.4086238 0.41968417 0.57158864 0.07070039
0001d0 33 7e 10 3f e9 7d 96 3d de 72 ca 3e a6 33 db bd
       0.56442565 0.07348234 0.39540762 -0.107032105
0001e0 a6 2e 98 ba 5f de e3 3d 80 90 c8 be bc a9 1c 3f
       -0.0011610582 0.11126398 -0.39172745 0.61196494
0001f0 5c 63 d7 be 2e 84 30 3e ae 2f e4 be bd b6 ba be
       -0.42067993 0.17237923 -0.44567627 -0.36467543

layers.1.weight f4 [128, 128]
000000 06 2c 3a bd ac 28 b2 bc cc fa 80 bd cd 4b af bc
       -0.04545214 -0.02174791 -0.06297836 -0.02139845
000010 13 1c da bb 0e 17 8c 3c 29 74 2e 3d bc b5 8a bd
       -0.0066561787 0.017100837 0.042591248 -0.06772944
000020 3a 5a f2 3c 76 b9 2b 3c 3a 24 66 3d d9 52 15 bb
       0.029584039 0.010481229 0.056186892 -0.0022784977
000030 5c 6c 26 3d db 4a e1 3d 51 80 00 3e 15 56 9f 3c
       0.040630683 0.11000606 0.12548949 0.019450227
000040 d7 62 1a 3d 73 9d 34 3d 64 47 cf 3c e2 ac d5 3d
       0.037691917 0.044095468 0.025302596 0.104333654
000050 a3 f8 77 bc f0 61 a4 bd 79 79 23 3c 10 ad 14 3d
       -0.015134963 -0.080264926 0.009977692 0.036297858
000060 6f 20 7f bd 47 fa cb 3c 05 84 b3 3d 33 77 78 3c
       -0.06228679 0.024899615 0.08765415 0.015165138
000070 28 74 95 bd 41 9b 2b be 54 a3 88 bd 66 d0 60 bd
       -0.07297546 -0.16758443 -0.06671777 -0.054886244
000080 b3 50 b5 39 60 75 28 3d 84 b3 8d 3d 04 19 b7 3d
       0.00034583136 0.041127563 0.069190055 0.08940318
000090 0f 7f a7 3d f5 aa 9d bd cc bb 12 3b 73 45 98 bd
       0.081785314 -0.07698623 0.0022389768 -0.074351214
0000a0 49 91 b7 3c 68 d7 4e 3d 0f c8 3e 3d 24 0d 59 bc
       0.022408145 0.050498396 0.04657751 -0.013247762
0000b0 d6 42 9a 3d 16 73 d8 bc 58 69 07 bc f3 8d 25 bd
       0.07532279 -0.026422065 -0.008264862 -0.040418576
0000c0 f1 c1 29 3c c2 fa c5 bb aa e9 1d 3d cb 30 33 3d
       0.010361181 -0.0060418556 0.038552918 0.043747704
0000d0 14 62 80 3c ff d4 8e bc d1 6c ae 3d 13 00 f7 bc
       0.015671767 -0.017435549 0.08516849 -0.030151403
0000e0 bf f2 71 3c f0 a6 55 3d 40 2b a9 3d 33 67 b3 bb
       0.014767348 0.052161157 0.082602024 -0.005474949
0000f0 f6 89 10 3d f8 fe 7e 3d 8c 87 bd 3d ee 48 c7 bd
       0.03528782 0.062254876 0.09254369 -0.09730707
000100 9b 6c 50 bd 7e b5 06 3d 77 39 76 bd 3e cc 0e bd
       -0.050884824 0.03288793 -0.060113396 -0.03486275
000110 66 97 22 bd d7 a5 98 3c 41 b1 0e bc 7c d5 10 3c
       -0.039695166 0.018633766 -0.008709253 0.008839961
000120 15 50 69 3d 7f 81 7d bd 51 5f 20 bb 7f 85 5c 3d
       0.056961138 -0.061891075 -0.0024470876 0.05383825
000130 7e 62 57 3d 91 8f e3 3a 3f 19 01 3d 0f 41 88 3d
       0.052584164 0.0017361512 0.031518217 0.06653034
000140 1e c5 42 3d 4c a7 88 bc 67 81 ca bc d5 52 8b bd
       0.047551267 -0.016681336 -0.024719907 -0.06802908
000150 38 39 92 bd 8e d8 f0 3b 26 0d 78 bc a1 8c b1 bd
       -0.0713982 0.007350034 -0.015139854 -0.08669401
000160 8b 1e 7e 3d 7e ff 21 3c 32 9e 0d bd 29 af d1 bc
       0.062040847 0.009887574 -0.034574695 -0.025596218
000170 46 a1 84 bd fa 46 b0 bd 9d b2 51 bd 36 4e 83 3d
       -0.06476073 -0.08607288 -0.05119573 0.06411402
000180 b6 e1 f2 3d d7 0a a5 3e c3 9b 88 bd de e6 36 3b
       0.11859457 0.32234833 -0.06670334 0.0027908604
000190 0c 06 30 bd db 6b b2 3c 51 21 1f bd 1b 95 d1 bc
       -0.042974517 0.021779945 -0.038850132 -0.025583794
0001a0 86 96 82 bc e6 9c 82 3d 98 46 89 bc 50 f6 a1 bc
       -0.015940916 0.06377582 -0.016757295 -0.019770771
0001b0 d8 f0 97 3c 12 fd 31 3d 0a 41 93 bd f3 df 0a 3d
       0.01854746 0.043454237 -0.071901396 0.03390498
0001c0 62 e7 32 3e 49 56 77 3d 51 eb 88 3d 29 93 8f 3d
       0.17471078 0.060385022 0.06685508 0.070104904
0001d0 40 d7 73 3d f3 eb 22 be 52 cb 85 bd 25 64 d4 3c
       0.05953145 -0.1591032 -0.06532921 0.025926659
0001e0 cf 73 5f 3d ea 0f c7 3c 53 12 df 3d b3 68 29 3d
       0.054553803 0.02429958 0.10892167 0.041359615
0001f0 fd a5 83 bc 68 b9 09 bb f2 39 85 bc 5a d5 54 3c
       -0.01607036 -0.0021015052 -0.016262982 0.01299032
000200 b7 b7 b1 bd 02 ce df be 59 0a 0b bb 6d 33 a5 3d
       -0.08677619 -0.4371186 -0.0021215884 0.08066449
000210 c6 20 6e 3c 78 5d 80 3d ed a0 aa ba 38 58 b6 3d
       0.014534181 0.06267828 -0.001301793 0.08903545
000220 f0 93 0d 3d 3c 78 03 3d b6 59 7b bd fb 9b 88 bd
       0.034564912 0.032097086 -0.061364852 -0.06670376
000230 12 bb c5 bc 8c c0 89 3c 27 4e 37 bc 2f ab 8c bd
       -0.024137054 0.016815446 -0.011188067 -0.06868588
000240 a5 a8 a1 3d 2d 14 30 bd 00 9d d1 bc b0 6e 78 3c
       0.078934945 -0.04298799 -0.025587559 0.015163109
000250 0e 57 e1 3d fd 6c d6 3c a2 c5 f5 bc 2e 60 61 3c
       0.110029325 0.026175017 -0.030001465 0.013755841
000260 98 e9 93 3d 56 e6 b4 bd 52 52 37 3d 71 d6 3e 3d
       0.07222289 -0.088329956 0.04475624 0.046591226
000270 f9 f0 00 bd 13 05 85 bd 84 55 a4 bd 31 65 68 bd
       -0.03147981 -0.064951085 -0.08024123 -0.05673713
000280 ac df 22 3d 44 96 d1 bd e9 03 ba bc 0b dd a6 bd
       0.03976409 -0.10233739 -0.022706943 -0.08147629
000290 a9 81 4e 3d b8 53 37 3d 74 4a 53 3d c8 22 93 3d
       0.050416622 0.044757575 0.051584676 0.07184368
0002a0 25 a3 11 3e 11 63 03 3d 27 da af 3d f3 55 09 bd
       0.14222391 0.0320769 0.08586531 -0.033529233
0002b0 e2 88 2a 3c 01 98 a8 3d 4d 68 9b bd 6e 93 8f bd
       0.010408612 0.082321174 -0.07588253 -0.07010542
0002c0 39 de bd 3d bb f9 77 3d 2a c3 ae bd a4 84 08 bd
       0.09270901 0.060540896 -0.08533318 -0.03332962
0002d0 1c 96 37 be 4d cf 76 3d be c3 3d bd 79 8b 8a bd
       -0.17928356 0.06025629 -0.046329252 -0.067648835
0002e0 a7 a0 c8 3d 37 8f a0 3d ec e3 4e 3d 36 e9 13 bc
       0.09796267 0.07839816 0.050510332 -0.00902777
0002f0 c8 4f d5 bc 2c 77 a3 3d 04 2b 62 3d d1 ee 0c 3d
       -0.02603902 0.079817146 0.055216804 0.03440744
000300 b2 9a 1c 3d 33 12 17 bd aa 52 1f bd 57 1e 1c 3d
       0.038233466 -0.03688259 -0.038897194 0.03811487
000310 66 a0 36 3d 70 a6 b0 3d 7c 2a 74 bc 09 a3 c7 3c
       0.04458656 0.086254954 -0.014902707 0.024369733
000320 42 d0 09 3c b0 2c 80 bd d5 82 50 3d 5b 07 f6 bc
       0.008411469 -0.062585235 0.05090602 -0.030032804
000330 f8 e9 a4 3d eb f7 ea bd 98 18 ee bc f5 6d 06 bd
       0.080524385 -0.11473068 -0.029064462 -0.032819707
000340 c1 14 8e bc 77 dc 65 bc c3 15 fb 3c 85 8f 3c bc
       -0.01734388 -0.014029614 0.030650025 -0.011508827
000350 c5 24 f4 bd b2 48 64 3d cd cb a1 bd d3 ce 3a bc
       -0.11921076 0.05573339 -0.079002 -0.01140185
000360 fc 4f 04 bb c8 64 3c 3c cf 5c a2 b9 75 9e 1b 3d
       -0.0020189276 0.0114986375 -0.00030968196 0.037992913
000370 1d 33 fa 3b 8d 54 84 bd af 88 5c 3d 94 b3 68 bd
       0.0076354877 -0.06461439 0.05384129 -0.056811884
000380 24 83 96 bd ad 6d 05 be 47 50 48 bd b3 30 9a 3d
       -0.07349232 -0.13030119 -0.048904683 0.0752882
000390 c5 9f 9c bc 61 ce ae 3c fd 9e 0c 3d 87 82 8c 3d
       -0.019119153 0.021338644 0.03433131 0.068608336
0003a0 45 cb 36 3d 29 33 ea bc a8 db 63 bd b7 aa 17 be
       0.044627447 -0.028588848 -0.055629402 -0.14811216
0003b0 ff 66 75 3c cd ce 43 bb 78 11 3b bd d5 96 36 3d
       0.014978169 -0.0029877902 -0.045670956 0.04457744
0003c0 7f 83 35 be c7 88 31 3d f4 fd 7f bc 54 d1 7c bd
       -0.17725943 0.04334333 -0.015624512 -0.06172307
0003d0 90 54 b6 3d dc 15 c8 bd ad bc 75 3b 11 c4 2a 3d
       0.08902848 -0.09769794 0.0037496493 0.04169089
0003e0 5a ea 1a bc b9 a0 c7 3d e5 28 7e bc 04 c5 13 be
       -0.009455288 0.09747452 -0.01551268 -0.14430624
0003f0 fa 57 04 3c a9 bc 1d be 78 6f 75 bd 98 ca 47 bd
       0.008077616 -0.15404 -0.059920758 -0.048777193

layers.1.bias f4 [128]
000000 3b 9c 9f be ae 4d 97 3e 24 33 67 be 33 93 2e be
       -0.31173882 0.29551452 -0.22578102 -0.1704834
000010 11 49 a0 3e c8 a2 49 3e 12 2e 69 3d 13 55 b1 3e
       0.31305745 0.19691002 0.0569287 0.3463522
000020 41 60 0b 3f 72 7f ae be 8a 44 8c be 6a 76 64 be
       0.54443747 -0.34081608 -0.2739604 -0.22310796
000030 70 b2 a3 3e 65 e8 2c 3e d3 11 60 be ed 2e 1f 3e
       0.31972075 0.16885526 -0.218818 0.15545245
000040 cf b1 92 be 95 ef 9a be b5 aa 8f 3e b3 e6 7a be
       -0.28651282 -0.30260912 0.28059927 -0.24502067
000050 69 74 d4 3e ae c2 4d 3e 6f d5 3b be a3 ea 20 be
       0.41495064 0.20093796 -0.18343137 -0.15714507
000060 c3 c3 90 3e 49 a7 c1 3e ed cd e5 bc de 97 fd 3e
       0.28274354 0.3782294 -0.028052295 0.49529928
000070 7e 96 fb 3d 2a 3b 83 bc 18 35 3c bc 27 8c 15 3b
       0.122845635 -0.016019423 -0.011487268 0.0022819133
000080 7e 8e c9 3e 6d 2b d2 be 65 6b 7a be ee 79 b3 3e
       0.39366525 -0.41048756 -0.2445503 0.35053962
000090 1f 44 23 be b1 c1 60 bb 34 8e 97 3e 17 2f ab be
       -0.15943955 -0.0034295137 0.2960068 -0.33434364
0000a0 84 d4 5a 3e ae 85 b0 be 63 40 b2 3e 51 66 b6 3e
       0.21370131 -0.3447699 0.34814748 0.35624936
0000b0 e1 89 c1 3e 33 df cd 3e 9f 71 69 be bf 0e 83 be
       0.37800506 0.4020935 -0.2279725 -0.25597188
0000c0 70 fb 84 bd 78 dc ad 3d 62 b7 8e 3e 07 c8 bb be
       -0.064932704 0.08489317 0.27874285 -0.36676046
0000d0 00 86 c5 3e 89 03 b4 be 01 4b ac 3e f0 4d b4 be
       0.38578796 -0.35158947 0.33650973 -0.35215712
0000e0 05 ba 97 3e 80 5c 30 be 65 0e 5a be 76 fc 40 3d
       0.2963411 -0.17222786 -0.21294554 0.047115766
0000f0 f0 9e 95 be b2 e8 8a be f9 12 8f be b3 68 3b 3e
       -0.29222822 -0.27130657 -0.27944162 0.18301658
000100 ff bd c0 3e a9 71 8f 3d 47 6a ee 3e 1e 2a b2 be
       0.37644956 0.07004101 0.46565458 -0.34797758
000110 eb 78 50 3d a3 f4 68 3e 3a 84 5b 3e 0c 62 61 3d
       0.050896566 0.22749572 0.21437159 0.055025145
000120 f2 39 a4 3e ee f5 55 3e b5 03 13 3e 74 f9 e8 3d
       0.3207546 0.20894596 0.14356883 0.113757044
000130 08 8c 5b 3d 53 b3 7e be 8a b2 b8 be 24 bd 52 be
       0.05360034 -0.24873094 -0.36073714 -0.20579964
000140 57 f5 6a 3d 2d 4b 9d 3e 7f 0d dd 3e 70 81 a2 3e
       0.05736288 0.30721417 0.4317436 0.31739378
000150 9b bd 6e 3e 56 57 db 3e 4f 54 8d be 6d dc a4 be
       0.23314516 0.4284007 -0.27603385 -0.32199422
000160 31 66 8e 3e 57 a0 50 bd e5 4e 80 be 37 e7 ef 3e
       0.2781234 -0.050934162 -0.25060192 0.4685609
000170 7a c6 3a 3e 80 cc 57 be b5 88 5d be e9 7c 05 be
       0.18239775 -0.21074104 -0.21634181 -0.1303593
000180 47 65 d3 3e be e6 ae bd ce 21 de bb 07 e2 82 be
       0.41288206 -0.08540104 -0.006778932 -0.2556307
000190 1f 0a 70 be 6d 54 bd 3e 74 56 a6 3e 85 86 d7 3e
       -0.23441361 0.36978474 0.32487833 0.42094818
0001a0 f5 78 ac be 67 f3 ab 3e be d3 dc 3e 49 23 52 3e
       -0.33686033 0.3358414 0.43130296 0.20521273
0001b0 fb 67 f0 3e e0 aa 8e 3e 22 d3 8e be 0f e2 c8 bd
       0.4695433 0.27864742 -0.27895457 -0.09808742
0001c0 06 a0 22 be 04 0b 04 3f e6 21 2e be 99 59 8b be
       -0.15881357 0.5157931 -0.17005119 -0.27216795
0001d0 f7 27 5d be 8b fc 2f be 63 6c a6 3d e7 24 ae be
       -0.21597277 -0.17186181 0.08126142 -0.3401253
0001e0 40 eb af be 66 49 be be 78 a3 72 be 72 5a 01 3f
       -0.3435917 -0.37165374 -0.23695171 0.50528634
0001f0 45 19 5f 3b aa 48 84 be 74 6e 05 be 83 92 80 be
       0.0034042161 -0.25836688 -0.13030416 -0.2511178

layers.2.weight f4 [64, 128]
000000 14 8c 6f be b9 1a e8 3c c0 58 7b bf a8 9b 15 3d
       -0.2339328 0.028333055 -0.98182297 0.0365254
000010 54 a4 97 3d d8 22 40 3e 12 42 2d 3e e4 2e c2 3d
       0.0740439 0.18763292 0.16919735 0.094816
000020 19 c7 d1 3d 6c 8c 9a bf de 8b b6 be b5 d4 75 bd
       0.10243053 -1.2074103 -0.35653585 -0.060017306
000030 d4 36 15 3b 43 8a 07 bb 39 f2 83 bc 15 d9 8f 3e
       0.0022768276 -0.0020681776 -0.016106712 0.28095308
000040 ba a8 20 be 16 e3 07 bc c3 23 93 bd b4 39 11 be
       -0.15689364 -0.008293888 -0.071845554 -0.14182168
000050 7c fb b5 3c 9d f0 a8 bd 98 bb 36 be d1 86 59 be
       0.022214644 -0.08249018 -0.17844999 -0.21242835
000060 d8 12 40 be 0a 41 1e bd 1e be 89 be 6b 03 fb 3e
       -0.18757188 -0.038636245 -0.2690286 0.49026045
000070 bf 58 0b bd ba 61 88 be 82 d9 cc bd 5a 9a 90 3d
       -0.03402018 -0.2663706 -0.10002424 0.0706069
000080 39 64 bb 3d 5b d3 8c 3c 2c fb 32 3d c1 1a 0b 3e
       0.09149975 0.017190626 0.043696567 0.13584425
000090 58 71 b8 bd 1e f3 a9 3e dd 30 e4 3d 67 5a 34 bf
       -0.090059936 0.33193296 0.111421324 -0.70450443
0000a0 65 0b 00 3e a8 69 ca be 04 d8 93 bd 55 8d 47 3e
       0.12504347 -0.39533734 -0.07218936 0.19487508
0000b0 c5 c1 08 3d 28 2b 4a 3d 8c 14 84 bd 4a 56 08 3e
       0.033387918 0.049357563 -0.064492315 0.13314167
0000c0 40 aa 47 bd be c0 aa bb 3c 92 88 3e 7f dc ef bb
       -0.048746347 -0.005210965 0.26674068 -0.0073199864
0000d0 96 77 49 3d 48 f0 b6 be 8d ef 87 3d 7e 33 ce bd
       0.04918631 -0.35730195 0.066374876 -0.10068415
0000e0 06 8c 81 bd 7a b8 01 3e 66 0c a2 bd 92 50 a8 bd
       -0.063255355 0.12668028 -0.07912521 -0.082184926
0000f0 b2 d6 58 bd d9 a3 c7 bd fb 09 86 bd 94 85 c8 3e
       -0.052939124 -0.09748048 -0.065448724 0.39164412
000100 e0 94 f4 3c cb 4e 27 3e 80 39 a3 3d ce 8b 96 bf
       0.029856145 0.16338651 0.07969952 -1.1761415
000110 1f 3f ec 3d fd bd 84 bd 78 8c 2d 3e f2 85 c3 be
       0.11535477 -0.0648155 0.16948116 -0.3818813
000120 5e 77 02 3e 8c c7 b8 bd 0e f1 2a 3e 82 15 60 3d
       0.12740847 -0.090224355 0.16693518 0.05470801
000130 cb 4d 86 3d 63 cc 04 bf 3a 4e 86 bc b6 59 a1 bb
       0.065578066 -0.5187437 -0.016394723 -0.0049240245
000140 8e 86 e8 3d d8 3b a8 3d 7a da 0f 3e 77 5a 8f bd
       0.11353789 0.08214539 0.14048186 -0.06999677
000150 0f 81 b6 3e 36 31 f4 3d de 0e 76 3e 91 65 b1 bd
       0.3564534 0.11923449 0.24029109 -0.086619504
000160 8c 7d 6d 3d f1 a1 1d be 44 b0 e9 bd bc 09 d8 3d
       0.05798106 -0.15393807 -0.11410573 0.10548732
000170 ed a2 e2 bd ba 2c 19 be f2 36 c8 3d b6 5d 53 3d
       -0.11066232 -0.14958468 0.09776105 0.05160304
000180 7b 12 8d 3b 45 95 5c bd d0 8b df 3c b6 e1 f3 bc
       0.0043051816 -0.053853292 0.027288347 -0.029770713
000190 07 2b d5 bd 10 cd c5 3c 68 9d 52 3c c5 d0 82 3d
       -0.104085974 0.024145633 0.012854911 0.06387476
0001a0 9c 1f c9 bd 89 41 7a bb 4a 45 9d bd 0c 08 db 3d
       -0.09820482 -0.0038186035 -0.076792315 0.10694894
0001b0 c6 24 ce bc 21 cc 41 3d a4 28 2f be 4a 1e 1a 3e
       -0.02516402 0.047313813 -0.17105347 0.15050617
0001c0 45 3d 3b bc 02 df 08 3d 4f 99 9d 39 17 f6 2b bb
       -0.011428182 0.0334158 0.00030059597 -0.002623921
0001d0 68 33 0e 3d 85 f7 e7 3d 52 ad 55 3e c9 88 b6 bd
       0.034716994 0.113265075 0.20866898 -0.089128084
0001e0 64 e5 a1 3d 0b a5 91 bf 4d 1e 90 bc f7 cb a5 3c
       0.07905081 -1.1378492 -0.017592574 0.02023886
0001f0 e7 ea 1e 3c ca 2f f5 3c fd 9f 96 3b fa 50 ef 3d
       0.00969956 0.029930014 0.004596709 0.11685367
000200 29 cb 3d bd 3f 13 92 3d 4c 34 a3 be 28 f3 44 bd
       -0.046336327 0.07132577 -0.31875837 -0.048083454
000210 e4 3d 24 3e e5 c9 26 3d 6c 7f c7 3c 89 6e 09 3e
       0.16039234 0.040719885 0.024352752 0.13421072
000220 ca 2e ec 3d e1 df 4c be a5 c4 5b bd 29 e4 82 bd
       0.11532362 -0.20007278 -0.05365433 -0.06391174
000230 14 cc 89 3c 14 ee ed 3d 6c 85 04 bd da 8d 7c 3e
       0.016820945 0.116176754 -0.032353804 0.24663487
000240 77 c1 88 bc 35 02 1f bd 44 fd 01 3d 36 86 a0 bd
       -0.016693814 -0.038820464 0.031735674 -0.07838099
000250 20 5e 4f 3d f4 19 0f 3e 35 56 15 be f5 22 1a be
       0.050626874 0.13974744 -0.14583667 -0.15052398
000260 54 fe 3d 3d dc 9f 01 bd 23 00 24 be 4a 40 bf 3e
       0.046385124 -0.031646594 -0.16015677 0.37353736
000270 5d e8 0f 3e ce 93 3f be f7 04 12 39 64 92 86 3d
       0.14053483 -0.18708727 0.00013925495 0.065708905
000280 09 60 a5 3c e1 46 18 be 78 f1 aa bd 86 0d 7e bb
       0.020187395 -0.14870788 -0.08346838 -0.0038765385
000290 04 31 7a be 78 49 4e 3e d2 59 ee 3d f3 ea 28 be
       -0.2443276 0.20145214 0.116382256 -0.16495876
0002a0 9e bf 95 3d 3a f6 20 bf e7 e9 fb bc d4 e7 5c 3e
       0.07311939 -0.6287571 -0.030751182 0.2157281
0002b0 94 3e 83 3d 37 c4 f6 3d 58 58 01 bc 3e b3 b1 bd
       0.0640842 0.12049144 -0.007894598 -0.08676766
0002c0 4b 37 d0 bd 43 1e 9f bd 84 2b f6 3d cd 41 d7 bc
       -0.10166796 -0.07769444 0.12020019 -0.026276493
0002d0 45 f2 fe 3d 2f 96 97 bd 64 01 a6 3c f8 82 41 bd
       0.12448553 -0.07401692 0.020264335 -0.047244042
0002e0 ed b8 96 3d ee 05 fa bd 81 b1 8e be 7f 70 8e be
       0.073594905 -0.12208162 -0.278698 -0.27820203
0002f0 bd c5 4c be bf 98 69 bd 41 5b 6e bd 95 0e dd 3e
       -0.19997306 -0.057030436 -0.058192495 0.43175188
000300 67 29 33 3c 81 70 7c 3d 9c 10 48 3d 05 80 b2 bd
       0.010935164 0.06163073 0.048843965 -0.08715824
000310 10 32 3f bd c1 05 26 3d 42 92 d9 3d 08 25 a9 be
       -0.046678603 0.04053283 0.106235996 -0.33036065
000320 63 6a 47 3e 83 83 8b 3d a7 34 2b 3c de b7 51 bc
       0.19474177 0.06812193 0.010449565 -0.012800185
000330 95 1e 6e bc 48 19 59 bc 8e 98 74 bf 22 c3 13 be
       -0.0145336585 -0.013250656 -0.9554528 -0.14429906
000340 89 dc a1 3d 6c 4e de 3d 98 39 e4 3d 8d d2 e7 bb
       0.07903392 0.108548015 0.11143798 -0.00707466
000350 53 15 82 3e 41 91 32 3e b4 27 14 be de 21 09 be
       0.25406894 0.17438222 -0.1446827 -0.13391826
000360 98 46 9a 3d 35 83 78 be 29 45 84 bc ae 55 1b bd
       0.07532996 -0.24268802 -0.01614626 -0.037923507
000370 88 5e e4 3d 45 7e a7 bd 70 08 5e be 70 d7 eb bd
       0.11150843 -0.08178381 -0.21682906 -0.11515701
000380 be cf c7 3d 9c aa 9a bd 50 b3 38 bd 93 fd 17 be
       0.097564206 -0.075520724 -0.04509288 -0.14842825
000390 90 9f db bc df 5e 84 3d 59 59 0f 3e e3 5d 89 3d
       -0.026809484 0.06463408 0.13998927 0.067073606
0003a0 5b 6c 6c bf 70 48 d3 3c 80 a1 59 bc ab da e1 3c
       -0.9235284 0.025791377 -0.0132831335 0.02757009
0003b0 95 80 20 bc b9 3d 08 3e 4e 9d 0c be 7d 6d 2b bd
       -0.009796281 0.13304795 -0.13731882 -0.041852463
0003c0 e2 93 70 bd 8b 10 8c 3d d0 21 54 be 55 a1 10 be
       -0.058734782 0.06839093 -0.20716023 -0.14124043
0003d0 e0 91 bf bc a3 1e 87 3b 5a b9 3d 3e 5f 4d d0 3d
       -0.023384988 0.004123525 0.18527737 0.10171007
0003e0 eb bd 6d bd 0a 4c 97 be 96 d0 31 3e c8 08 de 3d
       -0.058042448 -0.295502 0.17364725 0.10841519
0003f0 b8 47 72 be cf 61 21 3d df 4b b8 bc e8 e1 35 be
       -0.23660171 0.03939992 -0.022497116 -0.17761958

layers.2.bias f4 [64]
000000 d7 ae 24 3e 81 b4 a5 3e c3 97 8a 3e 8c e3 49 be
       0.16082321 0.32364276 0.2706891 -0.19715708
000010 11 96 84 be 46 38 91 be 85 1d 8a be 3f 39 d1 3e
       -0.25895742 -0.28363246 -0.26975647 0.40863988
000020 96 27 7c be 17 f0 bc 3e 10 7b 28 be cb 29 71 be
       -0.24624476 0.36901924 -0.16453195 -0.23551099
000030 e5 2d ad be e1 a6 1d 3e 03 a9 81 be c3 f1 77 3e
       -0.33824077 0.1539569 -0.25324258 0.24213319
000040 d9 c3 f3 bd 11 2f c0 3e 51 53 d9 3e 8e 56 e7 3e
       -0.11902589 0.3753591 0.42446378 0.45183223
000050 e2 1b 37 be 2e 79 a8 3e 6f 41 52 be 5f 38 30 3d
       -0.1788173 0.32904953 -0.20532773 0.04302251
000060 8c 70 59 be 1c 20 99 3e a0 32 30 be 76 df 58 be
       -0.2123434 0.2990731 -0.17206812 -0.21178994
000070 d7 c0 b6 3e 31 10 8a be fb 01 63 be 4d e7 41 be
       0.35694 -0.26965478 -0.22168724 -0.1893589
000080 3f 55 00 3f 1c ed 88 3e b6 9c e4 3e 32 b8 87 be
       0.50130075 0.267434 0.4465081 -0.26507717
000090 98 be 43 be 97 64 4e be 78 f6 8d 3e eb a7 e0 3e
       -0.19115674 -0.2015556 0.27727103 0.4387811
0000a0 43 13 c7 3e a4 d0 dc 3e c7 00 92 3d 3f c0 a0 be
       0.38881883 0.4312793 0.071290545 -0.31396672
0000b0 e9 6f 59 be 32 1b 9d bc 83 59 95 bd 88 4b ae 3e
       -0.21234097 -0.019178007 -0.07292464 0.34042
0000c0 50 4b 55 be b0 20 de 3e bd 24 69 be 13 5c 9c bc
       -0.2082951 0.43384314 -0.22767921 -0.019086873
0000d0 66 ab 97 be 91 a3 9f bd d7 83 9a be 49 db 90 be
       -0.29622954 -0.0779487 -0.3017871 -0.282923
0000e0 35 5f d7 3e d7 77 a3 be 7f 65 34 be d7 fc a4 be
       0.42064825 -0.31927368 -0.17616843 -0.32224151
0000f0 90 20 e0 3e bc ab 01 be 44 81 65 be ee a2 73 be
       0.43774843 -0.12663168 -0.22412592 -0.23792621

readout.weight f4 [1, 64]
000000 6e 91 29 3f c9 15 8f 3e f4 02 a2 3e a1 6f dc be
       0.66237533 0.27946308 0.31642878 -0.43053916
000010 cf fe 70 be 4b 8d bd be eb 34 30 be 98 97 7e 3e
       -0.23534702 -0.3702186 -0.17207687 0.24862516
000020 09 d4 bb be c9 78 8d 3e 08 a6 8a be bc 42 88 be
       -0.36685207 0.27631214 -0.27079797 -0.26613414
000030 c4 f0 c0 be 61 2f db 3e ea b7 a9 be 05 ff 55 3e
       -0.3768369 0.42809585 -0.33148128 0.20898063
000040 9b b0 31 bf 32 30 a9 3e b1 56 94 3e 9c 86 86 3e
       -0.69410104 0.33044583 0.2897239 0.26274574
000050 ae a8 67 be a2 54 57 3e 15 3e 82 be d7 75 be 3e
       -0.2262294 0.21028379 -0.2543799 0.3719928
000060 90 e5 1d be d6 8d d7 3e 6b b8 80 be f4 aa 76 be
       -0.15419602 0.421004 -0.251407 -0.24088651
000070 93 ad d1 3e 3d 6b 2a be 0a 89 3b be ec 0c 7e be
       0.4095274 -0.1664247 -0.18313995 -0.24809617
000080 11 b6 0c 3f 1d a3 51 3e 57 8e 7b 3e b1 ae 1c bf
       0.5496531 0.20472379 0.24566017 -0.6120406
000090 24 41 89 be dc a0 33 be 7a ac 37 3e 4f dd ba 3e
       -0.2680751 -0.17541832 0.17936888 0.3649697
0000a0 bf c2 96 3e 60 cd a8 3e 0e bd 48 3f 3e a5 e9 be
       0.29445454 0.3296919 0.78413475 -0.45633882
0000b0 ed 0e 42 be d0 b9 7c 3d ac 83 02 3d af 80 56 3e
       -0.18951006 0.061700642 0.031863853 0.20947526
0000c0 b7 ad 69 be f5 97 77 3e 85 93 2f be f0 24 d1 3e
       -0.22820173 0.24179061 -0.17146118 0.40848494
0000d0 57 76 ad be d8 db ce 3d 55 83 6c be 94 2f 99 be
       -0.3387935 0.101005256 -0.23096974 -0.29919112
0000e0 2c 28 bb 3e af 02 a7 be 9a 2d 5f be a5 18 66 be
       0.36554086 -0.32619235 -0.2179474 -0.22470339
0000f0 03 4a a6 3e ca 5e 63 be 2a 12 c1 be 6a 7e 5e be
       0.3247834 -0.22204128 -0.3770917 -0.2172791

layers.0.weight f4 [128, 17]
000000 4d cb db 3f be 71 34 bf 0d 34 fc bd 28 ed 0b 3f
       1.7171417 -0.70486057 -0.123146154 0.54658747
000010 0e c4 17 3e 23 9b 4b bd 42 e6 09 be 1c 3c c3 3d
       0.14820883 -0.049708497 -0.13466743 0.09532949
000020 dd 09 87 3d cb 38 c8 3d 56 47 7b 3e b1 aa 0c 3e
       0.06593678 0.097764574 0.24538931 0.13736989
000030 79 bd 30 be de 11 e6 3c da 2d 7b 3e ae e8 29 be
       -0.17259778 0.028084692 0.2452921 -0.16592667
000040 8b 42 33 3e 15 31 32 3f 72 4a 44 3f b3 46 71 3c
       0.17505853 0.69606143 0.76676095 0.014726329
000050 e0 9c 85 be cb 30 41 3e ca 07 89 be 49 77 06 bd
       -0.2609625 0.1886627 -0.26763755 -0.032828603
000060 43 df 11 be 49 0b 4a bf de 92 13 be 43 77 e3 3e
       -0.14245324 -0.7892347 -0.14411494 0.44426927
000070 22 d7 8c be fa 83 8c 3d 3d 1a ba bb 00 47 42 3d
       -0.27507883 0.0686111 -0.0056793974 0.047430992
000080 15 d7 36 bd 19 34 a9 bd f4 86 41 bf 17 8c 42 bf
       -0.044638712 -0.0826189 -0.7559655 -0.7599501
000090 f5 ef d9 be a2 23 3f 3e ae 41 fa 3c 36 8c 93 3e
       -0.42565885 0.18665937 0.030548897 0.2881791
0000a0 0b 65 be 3e 3e df 83 bc 4e fa cd 3e ba ec 8e 3e
       0.37186465 -0.016097661 0.4023003 0.27914983
0000b0 07 ea 2b be 02 ee 95 be d4 b8 89 bd 00 c6 c0 3d
       -0.16788493 -0.29283148 -0.06724706 0.094127655
0000c0 a5 af 20 3e d3 a4 16 be 91 b6 5b be b4 42 a4 3f
       0.15692003 -0.14711313 -0.21456362 1.2832856
0000d0 e9 cc aa be db 89 d3 3e 45 72 27 be 74 99 9f ba
       -0.3335946 0.41316113 -0.16352184 -0.001217647
0000e0 99 44 43 be ab db 40 bf 51 28 84 be ae ab 71 be
       -0.19069137 -0.75335187 -0.2581201 -0.23600647
0000f0 a7 16 86 be 87 07 90 3e 94 cb 92 be 16 b4 8c be
       -0.26189157 0.28130743 -0.28670943 -0.27481145
000100 d5 66 5a be d0 e4 d2 3d f9 aa 5a bd 82 8a 25 bd
       -0.2132829 0.10297549 -0.05338571 -0.040415294
000110 6b f1 a8 bd b5 b6 8e 3f e9 21 9c 3e 22 d2 e2 3b
       -0.08249172 1.1149508 0.3049462 0.0069220224
000120 4a 38 1f 3e 9f 8e 22 bf d5 7c 80 be 34 f7 ed bd
       0.15548816 -0.6349887 -0.2509524 -0.11619416
000130 76 29 61 3e 12 9b ef be 52 11 c5 bd 4e a3 94 be
       0.21988472 -0.46797997 -0.09622444 -0.29030842
000140 84 34 37 3e b6 25 da bd 57 c8 9b be 4a 9f 11 be
       0.17891127 -0.10651724 -0.30426285 -0.1422092
000150 ec a5 94 3d 8e 91 5e be c2 af 37 3d 6c 98 12 be
       0.072582096 -0.21735212 0.04484535 -0.14315957
000160 0d 03 bc 3e 4b c2 2a be 33 53 ca bd 51 0c 03 bf
       0.36721078 -0.1667568 -0.0987915 -0.5119067
000170 68 1a 10 be c3 b7 0a 3e 2a 35 65 3b a8 01 12 3e
       -0.14072573 0.13546662 0.0034974315 0.14258444
000180 b1 89 e2 3d 8a 65 52 bc 99 98 4a 3d 4c 31 c6 3e
       0.11061419 -0.012841592 0.049461935 0.38709486
000190 4b 8f 1d 3e 42 1a 52 be 54 b0 bb 3f c1 d3 58 bf
       0.15386693 -0.20517829 1.4663186 -0.8469811
0001a0 93 ff c5 3c 10 8d d8 3d cd eb 42 bd a2 c4 93 3d
       0.024169719 0.105737805 -0.04758816 0.07215239
0001b0 fc fd aa be ee 4d 11 bf 57 89 3e bd 76 92 61 be
       -0.333969 -0.56759536 -0.046517696 -0.22028527
0001c0 d6 9f 0c 3e 0e 58 f9 bb 5a 82 25 be f0 a3 75 3d
       0.13732848 -0.007609374 -0.16163006 0.059970796
0001d0 e9 fa 3b 3e d9 65 ef bc 27 91 9f 3d dc a9 ce 3d
       0.18357433 -0.02922337 0.077913575 0.10090992
0001e0 8c 4c 33 be 96 7a 5c 3e 86 05 8e 3e b8 29 d5 3e
       -0.17509669 0.21531138 0.2773859 0.4163339
0001f0 e1 4f d2 3e b5 d8 97 be 3b 1e 12 3f bd c1 b1 be
       0.41076568 -0.29657522 0.5707738 -0.34718123
000200 20 b5 79 3f 1c b6 bd bd dd f5 2f 3e 8a 16 4f 3c
       0.97542 -0.0926325 0.17183633 0.012639651
000210 46 cd 17 3d af 25 aa 3e 7b 83 a4 be 28 ab ce 3d
       0.037061 0.33231875 -0.32131562 0.10091239
000220 e0 69 4d 3f 11 74 8e bf bb 64 59 be c2 36 7a 3e
       0.8023968 -1.1129171 -0.21229832 0.24434951
000230 16 1f ec bd ef 64 9a 3e 67 cc 0f be e5 ed 89 3e
       -0.11529367 0.3015513 -0.14042817 0.26939312
000240 c9 56 66 3e a3 89 16 3e 4f 34 5b bc b3 55 56 3d
       0.22494043 0.14700942 -0.013379171 0.052327823
000250 14 3a 97 3c 16 7c 97 be ff d6 8e 3e bc 37 94 bc
       0.018460311 -0.29586858 0.27898404 -0.018092982
000260 e2 0c ac bd 49 e7 44 bf 3a bb 43 3f 57 5d 64 3e
       -0.08400895 -0.76915413 0.7645756 0.22301231
000270 04 1d 4e bd 52 47 92 3e 0d ea 2f 3f 72 0e 0c 3f
       -0.05032064 0.28570038 0.6871651 0.5470954
000280 88 e5 e9 3e 64 37 5e bd fe a5 f0 be 49 1d 8c be
       0.4568293 -0.054252043 -0.47001642 -0.27366093
000290 bb 4b 35 3e 4e dd 5f 3d f9 dd c3 3d 38 9b 27 bd
       0.1770467 0.054654412 0.09563822 -0.040919513
0002a0 c2 fc 21 be 82 94 26 be e9 80 05 3f 63 93 4e 3f
       -0.15819076 -0.16267589 0.52149826 0.80693644
0002b0 b5 12 34 3e 10 44 7d 3e 14 ac 2c be 16 23 ea be
       0.17585261 0.24732995 -0.16862518 -0.45729893
0002c0 83 96 2b be 0b 63 f7 bd 9e 2d 85 3e f1 1d 6d 3e
       -0.16756634 -0.12079438 0.26011366 0.23155953
0002d0 de cd b9 3c 6a 6c 93 be 67 95 58 3d c9 c6 b3 bc
       0.022681173 -0.2879365 0.052876856 -0.021945374
0002e0 e7 27 9f be a5 9e 4b bc af 32 21 3e 5f d8 d1 3e
       -0.3108513 -0.0124279605 0.1574199 0.4098539
0002f0 69 66 8d be a8 bb 04 be 3a 55 b7 be ef 0b 0e 3e
       -0.27617195 -0.1296221 -0.3580721 0.1387174
000300 b3 f1 bf 3d 67 81 9d be 03 11 f9 3e 77 65 23 be
       0.09372272 -0.3076279 0.4864579 -0.15956675
000310 7c d6 06 3f 41 17 20 bd e2 81 e9 bd f3 9b 76 be
       0.5267103 -0.039084677 -0.11401726 -0.24082927
000320 c3 c6 1a be 06 90 1a bc 07 9e 66 be 58 ee 08 3e
       -0.15114884 -0.009433752 -0.2252122 0.13372171
000330 f4 38 12 bd ec 36 9f 3f c1 25 32 3e 87 04 49 be
       -0.035698846 1.2438636 0.17397214 -0.19630633
000340 b7 c2 22 bd cf c1 1b 3e 02 c8 49 3e 6f 9d fa bd
       -0.039736476 0.15210651 0.19705203 -0.12237059
000350 23 1b 6e ba 06 72 81 bc ce f0 91 3e 14 49 07 be
       -0.0009083023 -0.01580144 0.28504032 -0.13211471
000360 6d 41 1f be 77 58 d6 3d 3f 48 8c be e7 c7 44 3d
       -0.15552302 0.10466092 -0.2739887 0.048042204
000370 5c 7d bf ba 1c 47 76 3f f5 f4 99 bf 72 21 8e bd
       -0.0014609504 0.96202254 -1.202788 -0.06939973
000380 5f 74 a5 3e 2f 93 90 be 05 c9 3e 3e c0 b3 84 be
       0.32315347 -0.28237292 0.1863137 -0.25918388
000390 71 bd ff 3d 3f fb af 3d 29 19 06 3f a2 47 e0 be
       0.12487305 0.08592843 0.5238214 -0.43804651
0003a0 9d 37 40 3e 45 ee 91 3e 66 9d 11 3d 86 48 6e 3d
       0.18771215 0.28502098 0.035550497 0.058174632
0003b0 fe cc 4b bd b1 14 2b 3e e4 05 ab bf ee 34 8b bd
       -0.049756043 0.16707112 -1.3361173 -0.06797205
0003c0 f3 40 6f 3e 52 be 44 3e 37 09 45 3f 5b 7c 68 3f
       0.2336462 0.19213226 0.76967186 0.9081475
0003d0 bf 7b 56 3f 37 df b7 3e 86 f3 01 bf 99 0b 1d bc
       0.8378257 0.35912487 -0.5076221 -0.009585285
0003e0 fe 82 a3 3e d0 c3 f5 3b c8 5f 09 3e ae 0b 05 3d
       0.31935877 0.0075001493 0.13415444 0.03248184
0003f0 48 ab 20 be 2b ff 83 be c8 b0 bf 3d 64 1b 24 3f
       -0.15690339 -0.25780615 0.0935989 0.64104295

layers.0.bias f4 [128]
000000 a3 86 84 3e 50 5c dd 3e 41 1c 9a bd 0a d6 8a 3d
       0.2588397 0.4323449 -0.0752492 0.06779106
000010 31 cd 83 be 85 af 83 be 83 d6 3e 3e cc f4 24 3e
       -0.25742486 -0.25719848 0.18636517 0.16109008
000020 71 35 77 3d f1 ae 9c 3e af e8 c2 bd 2d 98 bc 3e
       0.0603537 0.3060222 -0.09517037 0.3683485
000030 4a 48 80 3e 61 ee 59 3d b9 fd f5 3e 9f 04 f1 3e
       0.25055152 0.05320585 0.48045138 0.47073838
000040 b2 c0 61 3e 6c 07 22 be e3 34 b5 3e f6 d2 f5 bc
       0.22046164 -0.15823144 0.35391912 -0.03000782
000050 54 94 9b 3d cb cb b3 be a0 7c 83 be 71 05 9e 3e
       0.07596651 -0.3511642 -0.2568102 0.30863526
000060 04 d8 15 be 64 46 ce 3d c1 c6 58 3e e9 fe 14 3d
       -0.14633185 0.1007202 0.21169569 0.036375914
000070 30 f5 15 3e e6 5d 15 3f 62 75 62 be 32 08 c2 3e
       0.14644313 0.583464 -0.2211509 0.37896878
000080 4a a0 06 3d b6 14 f8 3e 61 68 88 3c 56 ae 10 be
       0.032867707 0.484533 0.016651334 -0.14129004
000090 85 3c d6 3e 2f 99 6a 3e 5a 6d c4 3e dc cf 1c bb
       0.41843048 0.22909997 0.3836468 -0.0023927605
0000a0 d0 51 f2 bd c7 15 94 3d e0 05 a2 be 41 f8 17 3d
       -0.11832011 0.07230716 -0.31645107 0.037101988
0000b0 25 7a ea 3e c5 cd 7a be e0 42 b4 3e 4c e2 45 3e
       0.45796314 -0.24492557 0.35207272 0.19324607
0000c0 77 d8 97 3e 9c 0e 8f be 86 9d c1 bd 8a 69 00 bd
       0.29657337 -0.27940834 -0.09453873 -0.03135065
0000d0 25 7e 68 be 59 a4 71 3c 31 0d 25 3f 7d 09 9c be
       -0.2270437 0.014748656 0.64473253 -0.3047599
0000e0 f4 7c 35 3f 93 34 87 3d e6 88 98 3a 2e a4 6a 3d
       0.7089379 0.066018246 0.0011637479 0.05728548
0000f0 90 89 fe 3e 02 c9 17 be e1 1f 43 3f 73 bd 19 3f
       0.49714327 -0.14822772 0.7622052 0.600547
000100 a4 da b2 be c9 34 12 be c2 d4 06 be c0 51 d3 be
       -0.34932435 -0.14277948 -0.13167098 -0.41273308
000110 af d5 97 bd 2a 67 da bd 6c 9b f6 3c 52 0a e9 3e
       -0.07413804 -0.10664208 0.030103408 0.45515686
000120 d5 b3 14 3e c3 f7 bf 3e 6f 24 82 3e 61 26 60 bd
       0.14521725 0.37493715 0.25418422 -0.0547241
000130 40 09 1a 3f 71 ca 1a be e7 b4 1d 3e bc ec 23 3b
       0.60170364 -0.15116288 0.1540104 0.002501293
000140 fc b3 b6 3e 78 1d 14 3e 87 53 6b bd 4e be 04 bf
       0.35684192 0.14464366 -0.057452705 -0.5185288
000150 ec 03 f4 3c e1 48 19 bf f7 ab b9 3e 25 5a a7 3e
       0.029787026 -0.5987683 0.3626401 0.32685962
000160 dd 43 05 bc 58 85 fd 3e b7 02 1d 3f 2b 25 94 be
       -0.008133856 0.49515796 0.6133227 -0.28934607
000170 12 71 0c 3f e2 30 59 3f fc e4 dc 3b 06 c1 04 bf
       0.5486003 0.84840214 0.0067411643 -0.5185703
000180 a4 57 b3 3d 82 79 64 3b b6 cf fd 3e 40 f6 61 3f
       0.087569505 0.0034862463 0.49572533 0.8826637
000190 e7 32 78 3d 32 b1 6e be 87 3c 5a 3f 08 d1 1b be
       0.06059542 -0.23309782 0.8524861 -0.15216458
0001a0 85 72 9c bd 31 0c ce be 84 d0 99 bd 8d 3c b1 3d
       -0.0763903 -0.40243676 -0.07510474 0.08654127
0001b0 b5 0d 73 3e 7a 1e 83 3e b5 cc bb 3e d3 8c 11 be
       0.23735698 0.2560919 0.36679617 -0.14213876
0001c0 12 f8 79 3e 2a 3e 50 3c 66 d8 24 3e 99 39 94 3e
       0.24411038 0.012710134 0.16098174 0.28950194
0001d0 8a a8 b3 be 45 9a 32 be 3c 01 3f be ef 60 e2 be
       -0.35089523 -0.17441662 -0.18652815 -0.4421458
0001e0 2b 3f 98 be 31 1e bc be 44 83 3e 3f 78 8d ca bd
       -0.29735693 -0.36741784 0.74419045 -0.09890264
0001f0 ea 53 42 be b4 3f 5a 3e 18 65 29 3f 41 f0 e2 3e
       -0.18977323 0.21313363 0.6616988 0.44323924

layers.1.weight f4 [128, 128]
000000 8d 27 ea 3d 41 34 33 be 6e 99 6d 3d 0d c4 26 3e
       0.11433325 -0.17500402 0.05800765 0.16285725
000010 12 7a 91 bd 27 ed be bd d1 e0 37 3e 10 6b f2 39
       -0.07103361 -0.09322577 0.17956854 0.00046237605
000020 c4 e1 07 3d 06 0f 4e bc f9 f4 d5 bd f3 89 45 bd
       0.03317429 -0.012576824 -0.104471155 -0.04822726
000030 5c 6e f7 bd 95 6c 13 3e e5 e9 80 3d 28 4d e8 3c
       -0.12081596 0.1439689 0.06294612 0.028357103
000040 62 9a c3 bd ac d8 07 bd f6 23 2a bd 56 dc e6 3d
       -0.095509306 -0.03316562 -0.0415382 0.112724945
000050 67 a1 c8 3d 13 63 2b be ff b1 55 bd 42 03 3d 3c
       0.0979641 -0.16737013 -0.052171703 0.011536421
000060 47 11 ce 3d 0b 49 21 be 5c 17 08 3d 6f 50 f5 bd
       0.10061889 -0.1575052 0.033225402 -0.11978232
000070 ca 8c 87 3d 99 fd b3 bc 6e 4e 2c be 54 1d af 3d
       0.0661865 -0.02197151 -0.16826794 0.08550516
000080 4d fa b9 bd 76 1e af 3d fd f6 79 bc 0d 38 1d 3d
       -0.09080944 0.08550732 -0.0152566405 0.038383532
000090 29 41 17 3e 2d 07 d3 3d fc 0f 2e bd dd 3a 66 bd
       0.1477095 0.10304103 -0.042495713 -0.05620848
0000a0 92 f2 08 be e3 af 68 3e d5 7e 5c be 84 cc 16 3d
       -0.13373783 0.22723345 -0.21532758 0.036816135
0000b0 6d dc 01 3e d8 19 ad 3d fb f5 d5 3d 26 9a ac bd
       0.12681742 0.08452195 0.10447308 -0.08427839
0000c0 c4 92 19 3d 8a 59 ee 3c 0a 7f fb bc 70 4b 86 bd
       0.037493482 0.02909543 -0.030700225 -0.06557357
0000d0 51 05 85 bd b2 a5 85 3d 06 b5 df 3d 2a 00 ce bd
       -0.06495155 0.065257445 0.10923199 -0.10058625
0000e0 3a c2 85 3e b5 2a d3 3d cd a0 ef 3d 24 13 05 3e
       0.26124746 0.1031088 0.11700592 0.12995583
0000f0 e2 c5 2f 3c 9d ea f5 bd de 7e 21 3e 2a 8c 24 3c
       0.010728331 -0.120076396 0.15771052 0.010043183
000100 42 eb 20 bd ea 28 24 bf d3 cd d6 3c 3c 51 c8 be
       -0.03928686 -0.6412493 0.026221192 -0.39124477
000110 93 e6 49 3d b3 42 c7 bd 88 be 9b 3c 3f 9a b8 3d
       0.04929216 -0.09729519 0.01901175 0.09013795
000120 de 0e 3b 3d 77 93 31 3e fc 8a 2a bd 16 94 99 bd
       0.045668475 0.1734141 -0.041636452 -0.07498948
000130 8d ee ca ba 22 c6 a9 bd 3f e7 a7 bd 6c fa 04 3d
       -0.0015482471 -0.08289744 -0.081984036 0.032465383
000140 cf a3 2a 3d 05 c4 7a bc 1a 15 92 bd 43 75 27 be
       0.041660126 -0.015305524 -0.07132931 -0.16353326
000150 6d 62 2b 3e dc cd c3 3d 3e da 83 3d 1c 9a b2 3d
       0.16736765 0.09560749 0.06438111 0.087208
000160 87 44 ee bb 32 e1 9f bc 9b 59 d4 3d 76 46 ad 3d
       -0.0072713527 -0.019516561 0.103686534 0.08460705
000170 e0 e2 30 3e fd f7 98 3d 18 43 90 bd 65 6f cd bd
       0.17274046 0.07469175 -0.07044047 -0.100310124
000180 bf 71 88 3d 2f 36 74 3d b9 ca ba 3d a2 b9 47 3e
       0.0666232 0.059621986 0.091206975 0.19504407
000190 12 bc f0 3d c0 3f 8b 3d b5 c8 20 3e 6e b3 49 3c
       0.117546216 0.06799269 0.15701564 0.012310846
0001a0 12 bb 99 3d f2 04 18 3c 88 e4 d4 bb a5 dc 2b 3d
       0.07506384 0.009278523 -0.0064969696 0.04195847
0001b0 04 85 e3 3d 95 7d bd 3d 40 49 8b 3c e6 de 88 3d
       0.11109355 0.092524685 0.017002702 0.066831395
0001c0 3c a1 2e bd 23 ba 7c 3c 3c 14 fb 3d 05 bc 07 be
       -0.042634234 0.015425238 0.12259719 -0.13255318
0001d0 3c ac 13 be 15 e2 c3 bd 97 11 98 bd 2f 87 2d be
       -0.14421171 -0.09564606 -0.0742523 -0.169461
0001e0 77 5b 00 be b6 d8 10 be a8 b7 e6 3d a6 52 9d bd
       -0.12534891 -0.14145169 0.112654984 -0.076817796
0001f0 7b 1b 1f bd ff 01 83 3d 80 f8 48 3e 5d b3 a8 3d
       -0.038844567 0.06396865 0.19626045 0.08237336
000200 7c e1 e7 bd 23 cb 8c bd 5f 6e 0e 3e c8 96 8f 3d
       -0.113223046 -0.06874683 0.1390929 0.07011181
000210 c3 ab 19 bd c3 37 a7 bc d5 51 04 3e 7c 20 95 bd
       -0.03751732 -0.020412331 0.12921841 -0.072815865
000220 78 e7 5f 3d 17 44 f7 bc 69 6f 84 be ba 0e 55 bd
       0.054664105 -0.030183835 -0.2586625 -0.052015997
000230 06 7b 9c bc 19 60 3a be c0 02 23 3e fb d0 d2 bd
       -0.01910163 -0.18200721 0.15919018 -0.10293766
000240 a2 b9 8e bd b1 b0 b8 3d 3c 45 4e be 92 57 10 bd
       -0.069690004 0.09018076 -0.20143598 -0.035239764
000250 96 44 3f bd d8 69 cb 3e f6 a1 bd bc d3 31 da 3d
       -0.046696268 0.3972919 -0.023148518 0.106540345
000260 6b 41 0a be 38 0c aa bd e5 aa df 3d c1 3b ad 3c
       -0.13501517 -0.08303112 0.109212674 0.021146657
000270 a6 a8 d3 bc 79 85 f4 bd 9b 1e a8 3c 13 e2 61 be
       -0.025837254 -0.119395204 0.020522406 -0.22058897
000280 c9 e1 3b be c2 bf 37 be 96 b8 97 bd 55 b2 07 bd
       -0.18347849 -0.17944244 -0.07408254 -0.033129055
000290 55 0e 07 be 1a 4a c7 bc 6c 8f 25 3e 09 8f fb bc
       -0.13189061 -0.024327327 0.16167992 -0.030707853
0002a0 c9 a5 52 bd de b9 d1 3c 09 d3 ac 3d 4d 4c ca bc
       -0.051427636 0.025601324 0.08438689 -0.024694586
0002b0 36 d5 ba bc 79 13 d7 bd 12 22 ee be 25 97 e7 bc
       -0.022806745 -0.10501761 -0.4651037 -0.028270314
0002c0 74 6e 5d 3c 80 fd af 3d 58 bc 63 bd 84 62 22 3d
       0.013515104 0.08593273 -0.05559954 0.039644733
0002d0 95 c9 80 bb 67 fc d3 bc 90 11 14 be f1 80 b9 bd
       -0.0039302805 -0.02587719 -0.14459825 -0.09057797
0002e0 18 87 78 3e c2 e0 d5 bc e8 e4 a3 be ff f1 89 3d
       0.24270284 -0.02610815 -0.3201058 0.0673561
0002f0 e4 bd 17 3c aa a1 91 be 14 26 d8 be c5 9e d3 bd
       0.009261582 -0.28443652 -0.4221655 -0.10333017
000300 1b fc 64 3e ac 30 eb 3d 84 d4 a9 3d 66 ea e7 3d
       0.22361796 0.11483893 0.08292487 0.11324005
000310 22 f0 43 3d 12 7f 1e be 84 1f a4 3d be 22 3c be
       0.04783643 -0.15478161 0.08013824 -0.18372628
000320 70 d8 b4 3b c3 82 b3 3c c8 e1 3f 3e 2e fe 63 bc
       0.0055189654 0.021912938 0.18738472 -0.013915582
000330 77 39 24 3d 21 59 ed bd c0 1e aa bd 95 76 61 3c
       0.040093865 -0.115892656 -0.08306646 0.013761182
000340 5f 33 17 bf 17 ba 27 3d 75 b0 a1 bd 54 18 60 3d
       -0.5906276 0.040948953 -0.07894985 0.0547107
000350 33 0d b8 be 67 c8 e8 be 17 c5 93 bd 68 8e 8f bc
       -0.3594757 -0.45465395 -0.07215326 -0.01752396
000360 19 8d d3 bc c1 16 cf bd 24 9d b0 3d 88 2e c1 3d
       -0.025824117 -0.10111762 0.08623722 0.09432703
000370 3a 0f e6 bd 1c f0 1a be d9 8e 7b 3e be 1c a1 bc
       -0.11233373 -0.15130657 0.24566211 -0.019667026
000380 5c 4a a9 bd 3d c5 5d bd 90 ab 81 bb 74 be cd 3d
       -0.08266136 -0.05414318 -0.0039572194 0.10046092
000390 6a 5f b1 bd 7f fe 9f 3d cc d7 0d 3d 20 1f 80 3c
       -0.08660777 0.07812213 0.034629628 0.015639842
0003a0 cc a6 68 bd e0 4c 56 3c 40 69 4a bd 7c 53 e4 3d
       -0.056799695 0.013079852 -0.04941678 0.11148736
0003b0 da b3 90 3d 52 36 92 bd 6b 5a 6d 3e 36 08 fb ba
       0.07065554 -0.07139267 0.23179023 -0.0019152227
0003c0 7d 39 5f 3d 95 b8 1b 3a 78 8f 9f 3d 29 bd bb bc
       0.054498184 0.00059402856 0.07791036 -0.022917347
0003d0 7e 90 1e 3e 8c f6 df bc 1d f4 9d 3c f6 e3 e3 3d
       0.15484807 -0.027339242 0.019281441 0.111274645
0003e0 15 fa 81 3e 76 15 89 3c 18 ee ba 3c 02 96 12 3e
       0.2538611 0.016733866 0.02281861 0.14315036
0003f0 59 f4 d5 3d d7 be 9e bd da 65 70 3e 6f 6d d1 3c
       0.10446996 -0.077512436 0.23476353 0.025564877
