HW9/9_gym-DDPG/results/DDPG_HalfCheetah-v4_500-eps0.15-t32-l0.0001-s2.pth (torch, 195690 bytes, 13 tensors)

layers.0.weight f4 [128, 23]
-0.08734735 -0.012622968 0.072894365 0.028835213 0.07421583 -0.033742875 -0.14297359 -0.17962457
0.31262138 -0.22273512 -0.055600062 0.03564274 -0.05616306 0.16453584 0.02803815 0.09844191
0.10142359 -0.095276125 -0.061634466 0.17337841 -0.15288818 0.00090404577 -0.042169593 0.47229832
-0.22096457 -0.041447315 -0.0034168998 -0.10711824 -0.23806606 -0.11236142 -0.27037182 -0.2971119
0.1460291 0.08704532 -0.02830926 -0.08865125 0.06762439 -0.10513072 -0.02380178 -0.051174942
-0.062245145 -0.14134713 0.13679035 -0.06880204 -0.038430117 0.09014959 0.18068218 -0.0345662
0.021222193 0.0040605315 0.16900837 0.1457658 0.25707617 0.01243139 -0.30778116 0.05075276
-0.04339804 0.13183832 0.013651992 0.17340893 0.12997119 -0.18713467 0.09799104 0.1764735
0.13694493 0.018705724 0.10056404 -0.21806872 -0.114695914 0.09299017 -0.417965 0.098845094
-0.219223 0.0068806256 -0.025530493 0.049243312 0.03539155 -0.065280646 -0.021294009 -0.17850287
0.1801894 -0.012812183 -0.21695411 -0.04650907 0.0848885 -0.064908 0.011023727 -0.033345275
-0.081119545 -0.019257074 0.07487742 -0.14302717 0.48235497 -0.3783092 0.32480562 0.045013838
-0.16091383 0.13461162 -0.1824816 -0.20363289 -0.28482375 0.17247891 -0.033079423 0.12673351
0.09447171 0.06403546 0.15309936 0.16700895 -0.14375141 0.20014969 0.13819708 -0.16447926
-0.2846025 0.08931252 -0.17717439 0.1207483 -0.43291706 0.2149216 -0.16497198 0.15433057
0.21959333 0.14184688 -0.20924994 0.05627698 0.17844805 -0.23347303 -0.06577679 0.16185047
-0.2059158 -0.20367545 -0.1540236 0.08986149 -0.012216779 -0.22149694 0.10776458 0.12195983
0.10213472 -0.1361957 0.32633036 -0.43473014 -0.3446761 -0.17104839 0.17972252 0.15283279
0.06726913 0.18027933 -0.08211527 0.16286644 0.17859577 -0.15408583 0.07466944 -0.013432958
-0.18398859 -0.009495431 -0.045579333 -0.117661454 -0.11988859 -0.022076817 0.21914034 0.15667012
-0.11878335 0.24980289 -0.12463737 -0.22624934 -0.00806319 0.08456574 -0.12198361 -0.11429479
-0.13351409 -6.139279e-05 -0.051267922 -0.0068370276 0.12552395 -0.06773318 -0.15705758 -0.052134354
-0.2015834 0.055451673 0.15387166 0.057174973 -0.16367841 -0.02084261 0.12992571 -0.03629619
-0.13060413 -0.23907451 -0.10712501 0.089739405 0.16105816 -0.0019552575 0.010631774 -0.27129936
0.46146905 0.07711912 -0.0739314 -0.094950445 0.046903294 -0.12955923 0.07698093 0.1600903
-0.077125035 -0.13039629 -0.16241477 -0.11032552 -0.037756067 0.11670559 0.015736112 -0.104215786
0.032773186 -0.074698806 -0.35928848 -0.034324 -0.18837912 -0.110240184 -0.18030071 0.22453664
-0.005067307 -0.114676066 0.02028685 0.14193745 0.028006725 -0.2241127 0.15689687 0.1520988
0.009412223 -0.057720296 -0.07960705 0.262333 0.035987724 -0.052288223 0.2223337 -0.16496502
0.19353177 0.023068804 -0.101698846 0.04215373 0.010748891 -0.16060126 -0.42565763 0.020996477
-0.06785085 0.019445894 -0.14755432 -0.2246302 0.2082512 0.070308894 0.07664267 0.180797
-0.0866068 -0.19536412 -0.15870796 -0.020310326 0.006399132 -0.21974699 -0.12608887 0.12906633
00000000: 2be3 b2bd 91d0 4ebc a449 953d d337 ec3c
00000010: 78fe 973d f835 0abd ab67 12be 81ef 37be
00000020: e90f a03e ad14 64be e4bc 63bd 1ffe 113d
00000030: 3d0b 66bd 157c 283e 43b0 e53c ea9b c93d
00000040: 2cb7 cf3d 2120 c3bd 6c74 7cbd 1c8a 313e
00000050: b88e 1cbe 7cfd 6c3a 06ba 2cbd 16d1 f13e
00000060: 8944 62be a9c4 29bd 11ee 5fbb cf60 dbbd
00000070: 97c7 73be bf1d e6bd 2d6e 8abe 0d1f 98be
00000080: a788 153e d144 b23d d2e8 e7bc c98e b5bd
00000090: a87e 8a3d c64e d7bd f3fb c2bc d19c 51bd
000000a0: c4f4 7ebd 4dbd 10be c512 0c3e 15e8 8cbd
000000b0: e668 1dbd 59a0 b83d c004 393e 4a95 0dbd
000000c0: 2ada ad3c 350e 853b 8810 2d3e a143 153e
000000d0: 7d9f 833e 07ad 4b3c 7e95 9dbe 20e2 4f3d
000000e0: 25c2 31bd a000 073e 9bac 5f3c 1c92 313e
000000f0: 2b17 053e 3ba0 3fbe 87af c83d 78b5 343e
00000100: 4b3b 0c3e bf3c 993c 85f4 cd3d 684d 5fbe
00000110: b1e5 eabd a171 be3d 82ff d5be 4c6f ca3d
00000120: fe7b 60be df76 e13b 5325 d1bc 5bb3 493d
00000130: bbf6 103d dcb1 85bd c670 aebc 75c9 36be
00000140: 9283 383e 31ea 51bc 3829 5ebe 4b80 3ebd
00000150: 06da ad3d 7cee 84bd dd9c 343c 0e95 08bd
00000160: 0122 a6bd 03c1 9dbc 5559 993d b775 12be
00000170: 3bf7 f63e beb1 c1be ec4c a63e 6e60 383d
00000180: 98c6 24be a1d7 093e 75dc 3abe 2485 50be
00000190: 6bd4 91be 509e 303e 4a7e 07bd 6ec6 013e
000001a0: 627a c13d 0625 833d 14c6 1c3e 6504 2b3e
000001b0: 9233 13be 0af4 4c3e 8983 0d3e 406d 28be
000001c0: 6bb7 91be 7ce9 b63d 346d 35be e24a f73d
000001d0: 4ea7 ddbe 6814 5c3e 6aee 28be d508 1e3e
000001e0: 13dd 603e 4f40 113e 9e45 56be b182 663d
000001f0: 16bb 363e 8e13 6fbe fbb5 86bd 21bc 253e
00000200: 97db 52be 4c90 50be 5db8 1dbe 4d09 b83d
00000210: e328 48bc 18d0 62be adb3 dc3d 13c6 f93d
00000220: 022c d13d e376 0bbe c614 a73e f394 debe
00000230: 6379 b0be 4f27 2fbe 2e09 383e 3380 1c3e
00000240: 66c4 893d 259b 383e 0d2c a8bd 76c6 263e
00000250: cfe1 363e adc8 1dbe 4bec 983d e915 5cbc
00000260: 8167 3cbe b992 1bbc 65b1 3abd 7df8 f0bd
00000270: 2688 f5bd 71da b4bc 5366 603e 226e 203e
00000280: af44 f3bd 54cc 7f3e e141 ffbd e8ad 67be
00000290: 781b 04bc cd30 ad3d 8bd2 f9bd 6313 eabd
000002a0: ebb7 08be 01c0 80b8 50fe 51bd 2509 e0bb
000002b0: 5a89 003e b2b7 8abd b4d3 20be d58a 55bd
000002c0: e16b 4ebe 4b21 633d 8890 1d3e 4e30 6a3d
000002d0: 509b 27be 1fbe aabc 3f0b 053e 50ab 14bd
000002e0: 17bd 05be f3cf 74be 5b64 dbbd 4bc9 b73d
000002f0: 6eec 243e c723 00bb e430 2e3c c0e7 8abe
00000300: ac45 ec3e a1f0 9d3d 5969 97bd 6175 c2bd
00000310: ab1d 403d 2dab 04be 2ea8 9d3d b6ee 233e
00000320: bbf3 9dbd 9b86 05be 0f50 26be 59f2 e1bd
00000330: 1ba6 1abd 5703 ef3d 05e9 803c 166f d5bd
00000340: 2d3d 063d b0fb 98bd a9f4 b7be 5397 0cbd
00000350: 75e6 40be 9bc5 e1bd c0a0 38be efec 653e
00000360: a70b a6bb 49db eabd 9c30 a63c 0d58 113e
00000370: 5c6e e53c cd7d 65be 93a9 203e cabf 1b3e
00000380: b935 1a3c 1e6c 6cbd 0509 a3bd 8350 863e
00000390: dd67 133d 2d2c 56bd 72ab 633e 97ec 28be
000003a0: 312d 463e cafa bc3c 7c47 d0bd 64a9 2c3d
000003b0: 1e1c 303c a874 24be ccef d9be ce00 ac3c
000003c0: 63f5 8abd ff4c 9f3c 7b18 17be 7605 66be
000003d0: cd3f 553e 1cfe 8f3d d5f6 9c3d d922 393e
000003e0: e85e b1bd 880d 48be 5784 22be d761 a6bc
000003f0: cfaf d13b 5b05 61be 711d 01be f729 043e

layers.0.bias f4 [128]
-0.037429206 -0.09790554 0.014838646 -0.012291088 -0.053144112 0.17213587 -0.12668966 -0.010999976
0.058557466 0.08473036 0.0741795 0.13775672 0.09978136 -0.07383436 -0.07041524 -0.0845024
-0.008959961 0.17398483 0.14918125 -0.15401752 0.19792552 0.03766448 0.2074299 0.01943934
0.22099496 -0.033465665 0.14087634 0.29204935 0.1557853 -0.042832267 0.1487816 -0.24554102
-0.032343667 -0.17145373 -0.04745887 -0.21307561 0.06641986 0.015335252 -0.20086226 0.13240632
0.1414586 0.09411924 -0.080373555 0.024782147 -0.06092545 0.3222226 0.067759395 0.010474906
0.07108376 -0.100285105 0.048306286 -0.0053080167 0.18267077 0.39527902 -0.10602947 0.07958738
-0.12708962 -0.1436195 -0.006341291 -0.01605396 0.15024912 0.09633237 0.1523268 0.023330545
-0.09361191 0.042060934 -0.033587392 -0.089253016 -0.16677965 0.14143683 0.16686045 -0.056156974
-0.120778985 -0.2022783 -0.012848929 -0.11642855 -0.122705765 -0.0013796873 0.18442303 0.102349766
-0.07303642 0.12489489 0.024594413 -0.10862193 -0.1010677 -0.0044413377 -0.042047735 0.2181625
0.12403272 0.028355723 0.08679836 0.32098287 0.32009545 0.12548666 0.35354108 -0.046156824
-0.051682506 -0.0054804725 0.14705569 0.26620883 -0.018984113 0.31499076 -0.07694599 -0.06251253
0.04653852 -0.18336554 0.12011955 0.14814146 0.2978491 -0.047960483 0.0016892926 0.15356238
0.111182325 0.03574277 0.30809167 0.07861703 0.3064539 0.23257019 0.234655 -0.070296556
0.12862805 -0.101774484 -0.13986792 0.33313996 -0.11370794 0.018432377 -0.21140705 -0.102492586
00000000: 5e4f 19bd b382 c8bd cb1d 733c 8f60 49bc
00000010: a4ad 59bd 6344 303e efba 01be 3e39 34bc
00000020: f4d9 6f3d 1c87 ad3d 6ceb 973d 1910 0d3e
00000030: 2b5a cc3d 7836 97bd de35 90bd 980f adbd
00000040: cdcc 12bc 1429 323e f8c2 183e c5b6 1dbe
00000050: fdac 4a3e 1246 1a3d 8168 543e 403f 9f3c
00000060: 814c 623e 4b13 09bd e341 103e 7e87 953e
00000070: 2f86 1f3e e370 2fbd 345a 183e 1b6f 7bbe
00000080: cb7a 04bd 9191 2fbe 3b64 42bd 7e30 5abe
00000090: 2307 883d b540 7b3c d6ae 4dbe 8695 073e
000000a0: 86da 103e 97c1 c03d e49a a4bd ee03 cb3c
000000b0: f78c 79bd 5cfa a43e 70c5 8a3d f19e 2b3c
000000c0: 5d94 913d 4762 cdbd d0dc 453d dfee adbb
000000d0: 0c0e 3b3e 0362 ca3e fb25 d9bd b5fe a23d
000000e0: c823 02be fd10 13be 9bca cfbb 9883 83bc
000000f0: e8da 193e e849 c53d 8ffb 1b3e b31f bf3c
00000100: 9ab7 bfbd 1648 2c3d ef92 09bd 49ca b6bd
00000110: 49c8 2abe d1d4 103e 77dd 2a3e db04 66bd
00000120: f95a f7bd 0b22 4fbe 5084 52bc 1772 eebd
00000130: 294d fbbd a0d6 b4ba 64d9 3c3e c19c d13d
00000140: 1e94 95bd e4c8 ff3d 397a c93c 2d75 debd
00000150: 95fc cebd a488 91bb 3f3a 2cbd fe65 5f3e
00000160: de04 fe3d 434a e83c 57c3 b13d de57 a43e
00000170: 8de3 a33e 937f 003e 5603 b53e f00e 3dbd
00000180: 09b1 53bd 8995 b3bb c495 163e 864c 883e
00000190: 9284 9bbc 7846 a13e dc95 9dbd 9206 80bd
000001a0: 2d9f 3e3d 2dc4 3bbe 3d01 f63d 65b2 173e
000001b0: ad7f 983e 3672 44bd 416b dd3a 753f 1d3e
000001c0: 8fb3 e33d 0367 123d 31be 9d3e f701 a13d
000001d0: 87e7 9c3e e126 6e3e 6649 703e a4f7 8fbd
000001e0: 12b7 033e 246f d0bd 8939 0fbe 5291 aa3e
000001f0: b5df e8bd 7fff 963c 177b 58be a2e7 d1bd

layers.1.weight f4 [128, 128]
-0.053808365 0.006108161 -0.068033196 -0.04564601 -0.013462872 0.024514442 0.028681401 -0.047114525
0.0021889214 0.001889136 -0.02228233 0.000738331 0.045330558 0.08863617 0.1118187 0.03746437
0.08062405 0.026734171 0.030614076 -0.06300967 -0.031003335 -0.08521285 0.032775957 0.055654503
-0.08825374 -0.028364483 0.07280301 0.03784374 -0.07670582 -0.077128075 -0.05687612 -0.04991082
0.028439248 0.036513355 0.06879513 0.044857353 0.047311116 -0.04271167 0.038981654 -0.0065400917
0.013942009 0.031216687 0.045697656 -0.06951153 0.04397273 -0.0012562916 0.046668522 -0.015152022
-0.056251574 0.0016950405 0.07924773 0.034431446 0.051491033 -0.018627051 0.083510675 -0.04905217
0.026192194 0.043466683 0.08613057 0.04027276 0.015400415 0.04926908 0.09569452 -0.058265418
-0.05150289 0.005984752 -0.018550884 -0.053821445 -0.066034935 0.013075792 -0.016466407 0.0626771
0.088214286 -0.09149622 0.04896913 0.06412969 0.089204915 0.007575623 0.06894137 0.087696604
0.062902026 -0.003094128 -0.01094584 -0.033474028 0.019449182 0.030834027 -0.014072544 -0.067383096
0.09409924 -0.05470333 -0.015272977 -0.016078224 -0.03843788 -0.04930659 -0.045585886 0.06958562
0.12700868 0.16600972 -0.0034693002 -0.05116698 -0.039919145 0.008924355 -0.057017174 -0.03350782
-0.013116125 0.09671328 -0.0042633787 -0.014005832 -0.009147066 0.070654504 -0.030599525 0.03532731
0.09836903 0.02532663 0.107326515 0.001676897 0.06021084 -0.11739351 -0.062474668 0.020462114
0.05062285 -0.013427602 0.10730193 0.0057604443 -0.023630565 -0.019952305 -0.040589333 0.027564362
0.05749981 -0.05970496 0.004651467 0.0772772 -0.009594218 0.05031815 -0.007541116 0.08598375
0.022817183 0.039256193 -0.038308952 -0.08665266 -0.03111376 0.06314832 0.0006123784 0.0032088682
0.05263834 -0.045831338 -0.035912115 0.09662282 0.08841683 0.022572977 -0.09321975 0.016578432
0.081425205 -0.08933232 0.07110828 0.039035834 -0.03931702 -0.07753386 0.016560517 -0.025138386
0.017921446 -0.107281104 0.0052908165 -0.09450052 0.04385779 0.020807222 0.035989836 0.049241103
0.11444509 0.0028746629 0.079276554 -0.05813549 0.046445377 0.050988283 -0.018301455 -0.10842209
0.09491545 0.071816154 -0.0797614 -0.02944727 -0.12852389 0.042532194 -0.098370545 -0.051605124
0.072053514 0.076819584 0.07182405 -0.01584582 -0.07530635 0.071623154 0.05759165 0.049446583
0.041297164 -0.034903504 -0.00023969258 0.02851119 -0.033815414 0.08587125 -0.010579954 0.053310953
0.01679425 -0.015278799 0.023452336 0.013770916 0.03362398 -0.07718385 -0.05184314 -0.013293911
0.0077153086 -0.06975832 -0.07333939 -0.0051738475 -0.0527342 0.073579594 -0.054379754 -0.024276448
-0.030403005 0.020065818 -0.0513209 0.0508595 -0.005725965 -0.051504638 0.03321153 -0.05760638
-0.036367908 -0.15336077 -0.053258575 0.07780169 0.012267073 0.014745303 0.0464534 0.09341327
0.02492049 -0.032002013 -0.09013571 -0.13594815 0.023883639 -0.035387255 -0.016833887 0.050808284
-0.060088966 0.038002852 0.0020747525 -0.07692022 0.082428634 -0.06296816 -0.0150098875 0.041066952
-0.044551127 0.086990684 -0.010142833 -0.012545949 -0.011033781 0.0023556617 0.0027901214 -0.024719834
00000000: 2966 5cbd f826 c83b fd54 8bbd 50f7 3abd
00000010: 6193 5cbc 83d2 c83c 42f5 ea3c 29fb 40bd
00000020: 0274 0f3b e39c f73a 6f89 b6bc 8e8c 413a
00000030: 89ac 393d e186 b53d 3401 e53d 3d74 193d
00000040: 391e a53d 9f01 db3c 5fca fa3c 370b 81bd
00000050: b5fa fdbc 1384 aebd 1540 063d faf5 633d
00000060: 60be b4bd a25c e8bc bf19 953d 0a02 1b3d
00000070: f117 9dbd 53f5 9dbd eff6 68bd 4a6f 4cbd
00000080: 6df9 e83c 078f 153d 76e4 8c3d 58bc 373d
00000090: 4dc9 413d 6ff2 2ebd 3aab 1f3d 444e d6bb
000000a0: 066d 643c 23ba ff3c 772d 3b3d 105c 8ebd
000000b0: c01c 343d 27aa a4ba 7e27 3f3d 3040 78bc
000000c0: 0d68 66bd 1f2c de3a a24c a23d fd07 0d3d
000000d0: 43e8 523d c297 98bc a507 ab3d eeea 48bd
000000e0: 0391 d63c 1f0a 323d 3965 b03d 0df5 243d
000000f0: 0652 7c3c 60ce 493d 7dfb c33d b8a7 6ebd
00000100: b2f4 52bd bd1b c43b 06f8 97bc e073 5cbd
00000110: 533d 87bd d93b 563c 8fe4 86bc da5c 803d
00000120: b1a9 b43d 5f62 bbbd db93 483d 6d56 833d
00000130: 11b1 b63d ef3c f83b 2231 8d3d 479a b33d
00000140: c7d2 803d dbc6 4abb 2e56 33bc 101c 09bd
00000150: e453 9f3c a497 fc3c 8790 66bc 2600 8abd
00000160: 1ab7 c03d 9910 60bd 823b 7abc 7bb6 83bc
00000170: 0a71 1dbd b5f5 49bd 44b8 3abd e882 8e3d
00000180: 900e 023e 74fe 293e 335d 63bb 7894 51bd
00000190: 4282 23bd 7537 123c d78a 69bd 7f3f 09bd
000001a0: 04e5 56bc 9d11 c63d d0b3 8bbb b878 65bc
000001b0: 93dd 15bc 4fb3 903d dbab fabc 5fb3 103d
000001c0: b475 c93d cb79 cf3c 01ce db3d 54cb db3a
000001d0: a49f 763d 026c f0bd 70e5 7fbd 2aa0 a73c
000001e0: e859 4f3d 72ff 5bbc 1dc1 db3d 1cc2 bc3b
000001f0: e394 c1bc 0473 a3bc 0041 26bd a8ce e13c
00000200: ec84 6b3d 308d 74bd 556b 983b 8243 9e3d
00000210: 1131 1dbc 681a 4e3d 771b f7bb 4018 b03d
00000220: 1aeb ba3c 1acb 203d d9e9 1cbd f376 b1bd
00000230: 49e2 febc e853 813d 0588 203a e04b 523b
00000240: 4d9b 573d a4b9 3bbd 9518 13bd 2fe2 c53d
00000250: e213 b53d f7ea b83c ffe9 bebd 7ecf 873c
00000260: 42c2 a63d ddf3 b6bd 38a1 913d 0ae4 1f3d
00000270: e20a 21bd 13ca 9ebd eca9 873c 04ef cdbc
00000280: ffcf 923c 32b6 dbbd 965e ad3b 7d89 c1bd
00000290: 3aa4 333d e873 aa3c 146a 133d 0ab1 493d
000002a0: 3062 ea3d d764 3c3b bf5b a23d 7b1f 6ebd
000002b0: 823d 3e3d 17d9 503d efec 95bc 670c debd
000002c0: 0863 c23d 5914 933d f259 a3bd 673b f1bc
000002d0: c49b 03be 3d36 2e3d 7f76 c9bd e55f 53bd
000002e0: cb90 933d 9653 9d3d 7d18 933d 18cf 81bc
000002f0: 373a 9abd 29af 923d 39e5 6b3d 8088 4a3d
00000300: 3727 293d faf6 0ebd fd55 7bb9 4d90 e93c
00000310: 0882 0abd 44dd af3d 8b57 2dbc 965c 5a3d
00000320: 1894 893c ee53 7abc 1d1f c03c 689f 613c
00000330: 4cb9 093d 9112 9ebd 7959 54bd b4ce 59bc
00000340: b3d0 fc3b 73dd 8ebd f632 96bd 6189 a9bb
00000350: d1ff 57bd e6b0 963d 4ebd 5ebd 67df c6bc
00000360: b90f f9bc 1261 a43c dd35 52bd 0d52 503d
00000370: e0a0 bbbb 87f6 52bd d008 083d abf4 6bbd
00000380: 84f6 14bd 9b0a 1dbe aa25 5abd 7e56 9f3d
00000390: d5fb 483c 4996 713c ec45 3e3d 754f bf3d
000003a0: 0e26 cc3c 8b14 03bd 1299 b8bd fe35 0bbe
000003b0: 9fa7 c33c 3af2 10bd 38e7 89bc 591c 503d
000003c0: d91f 76bd e1a8 1b3d 92f8 073b 5988 9dbd
000003d0: 58d0 a83d 73f5 80bd 08ec 75bc d235 283d
000003e0: 3e7b 36bd 2c28 b23d 202e 26bc 868d 4dbc
000003f0: 08c7 34bc 7261 1a3b 78da 363b 4081 cabc

layers.1.bias f4 [128]
-0.067936875 0.05961653 -0.009033342 -0.04762529 0.13146861 -0.008487811 -0.086604096 0.117262885
0.23300739 -0.028702684 -0.031097054 -0.041899003 0.05041879 -0.028430983 -0.07924421 0.027709968
-0.04230022 -0.05738019 0.045007862 -0.056388024 0.1536651 -0.006541489 0.029762618 -0.021039462
0.090078935 0.1584031 0.030550063 0.24932338 0.020406561 0.022724435 0.010162905 -0.053363737
0.107589014 -0.16870211 -0.07182845 0.09800773 -0.008067717 -0.049312476 0.10065197 -0.06785647
-0.009911227 -0.08657892 0.019990807 0.14121728 0.19752218 0.12348091 -0.04136923 -0.03337009
0.051417943 0.050215915 0.05367853 -0.10169421 0.11405398 -0.14160544 0.0943629 -0.1112879
0.10909893 -0.018282201 -0.028068256 0.07591963 -0.060148757 -0.043707132 -0.04843228 0.0647328
0.10624433 -0.08192149 0.19228657 0.0015842532 -0.10015748 -0.010989989 0.0016108227 0.018019918
0.10165453 0.026820373 -0.046500538 -0.07469992 -0.011492994 -0.0572229 -0.038989626 -0.038599137
-0.08493901 0.058250234 0.16268025 0.04027738 0.016447106 0.112238206 -0.051304035 -0.09540469
0.027506072 0.073080905 -0.03152254 0.17708205 0.033389933 -0.030897394 -0.05149568 -0.009145138
0.1508424 0.010802324 -0.008245971 -0.021233968 -0.10888959 0.10518612 0.07675364 0.1644573
-0.10534137 0.07089483 0.12001405 0.021478996 0.17952293 0.035454057 -0.033307835 -0.05305859
0.015247685 0.18997726 -0.06148647 -0.026215902 -0.017156871 -0.06672388 -0.0627003 -0.09691643
-0.085859776 -0.0010292777 -0.08222227 0.14166908 0.046153877 -0.059203163 0.028827885 -0.07586402
00000000: 7d22 8bbd 7630 743d 9500 14bc bc12 43bd
00000010: b59f 063e 7610 0bbc 7d5d b1bd 8627 f03d
00000020: 7d99 6e3e e421 ebbc 40bf febc 4a9e 2bbd
00000030: ef83 4e3d 18e8 e8bc ca4a a2bd 0400 e33c
00000040: ff42 2dbd 7d07 6bbd 2a5a 383d 21f7 66bd
00000050: 625a 1d3e fd59 d6bb bcd0 f33c f35a acbc
00000060: 4e7b b83d 6c34 223e 2044 fa3c a14e 7f3e
00000070: a92b a73c 9828 ba3c 5082 263c ef93 5abd
00000080: a157 dc3d 3fc0 2cbe cb1a 93bd 47b8 c83d
00000090: 752e 04bc e1fb 49bd 9f22 ce3d 55f8 8abd
000000a0: b362 22bc 4a50 b1bd c3c3 a33c 439b 103e
000000b0: 4143 4a3e 8fe3 fc3d c872 29bd 13af 08bd
000000c0: 9f9b 523d 34af 4d3d 05de 5b3d 0e45 d0bd
000000d0: 2295 e93d 0401 11be 5641 c13d e9ea e3bd
000000e0: 436f df3d 8ec4 95bc 66ef e5bc c07b 9b3d
000000f0: 8b5e 76bd 4006 33bd ed60 46bd a192 843d
00000100: a196 d93d 74c6 a7bd c5e6 443e b7a6 cf3a
00000110: 5d1f cdbd 5b0f 34bc 3e22 d33a 829e 933c
00000120: 4030 d03d 66b6 db3c 5977 3ebd 46fc 98bd
00000130: 1c4d 3cbc 8f62 6abd 96b3 1fbd 211a 1ebd
00000140: 81f4 adbd cc97 6e3d a795 263e e5f9 243d
00000150: 15bc 863c 25dd e53d 2e24 52bd 8963 c3bd
00000160: 6a54 e13c 71ab 953d c71d 01bd ff54 353e
00000170: e2c3 083d 881c fdbc 22ed 52bd 7dd5 15bc
00000180: 6e76 1a3e 3bfc 303c 1c1a 07bc dcf2 adbc
00000190: 8101 dfbd d26b d73d 0331 9d3d 7f67 283e
000001a0: 37bd d7bd 4f31 913d edc9 f53d b8f4 af3c
000001b0: dcd4 373e 4638 113d cc6d 08bd f753 59bd
000001c0: 6dd1 793c 6689 423e 3dd9 7bbd bbc2 d6bc
000001d0: 918c 8cbc 88a6 88bd 0469 80bd 1f7c c6bd
000001e0: 40d7 afbd d4e8 86ba 2664 a8bd b311 113e
000001f0: d90b 3d3d 047f 72bd 7528 ec3c 985e 9bbd

layers.2.weight f4 [64, 128]
-0.14513461 0.01267346 -0.09872382 0.062435303 0.047573075 0.08686568 0.13261582 0.08295568
0.079006545 -0.114051476 -0.07928914 -0.06147603 -0.006641914 -0.02997711 0.049792614 0.12765528
-0.09800385 -0.13299161 -0.07952093 -0.019609887 0.029694231 -0.09171525 -0.12570012 -0.014152363
-0.04975036 -0.013167779 -0.12723413 0.20427506 0.0059674247 -0.063208945 -0.09255672 0.019855648
0.0916389 0.020082593 0.011016486 0.11024961 -0.16505265 0.038623974 0.035459276 -0.20018299
0.06449315 0.005426813 -0.08340689 0.10787068 0.014546813 0.01552838 -0.041812308 0.07404212
-0.041574802 -0.0062246784 0.13352612 0.02434926 0.0278674 -0.08197484 0.05789259 -0.043132395
0.031903528 0.030431755 0.033884928 -0.113734074 -0.07021549 -0.011053443 -0.097665384 0.10117789
0.01948316 0.11588555 0.075831056 -0.049080458 0.048128985 -0.02513922 0.10146651 -0.079764344
0.07434628 -0.07776533 0.07587873 0.02751522 0.003461397 -0.07002948 -0.04529889 -0.02572099
0.07645006 0.053120576 0.092423186 -0.066198684 0.08800016 0.037093274 0.047528606 -0.0710978
0.060894657 -0.0111715635 -0.06981707 0.08615419 -0.079953276 -0.06499622 0.05279269 0.037450414
-0.016628902 -0.11757421 -0.0014373042 -0.052222725 -0.09345082 0.019345025 -0.026407829 0.0011958139
-0.06977693 -0.03184099 -0.077565424 0.13834043 -0.0054694265 -0.0046609687 -0.06048047 0.0032589245
0.0062297867 -0.0061543477 -0.025933573 -0.02944522 0.0690799 0.037231684 0.110843584 -0.093420744
0.020321624 0.03589532 -0.083401285 0.026149107 0.025460925 -0.046223417 -0.067080565 0.043524228
-0.03532412 0.043054882 -0.016068516 0.05595448 0.011499045 0.04270909 -0.03380301 0.09327073
0.084842674 0.0007991345 -0.022956822 -0.0123019675 -0.024406323 0.10072293 -0.006465709 0.15974899
-0.018666936 -0.03141237 0.006775098 0.056738686 0.016305493 0.09861718 -0.021838736 0.015579753
-0.031922773 -0.041606802 -0.023264391 0.17625646 -0.0058720843 0.0108510405 0.018411877 0.023088057
-0.0110056605 -0.08485497 -0.060430344 -0.044923104 -0.13585165 -0.046665017 0.056497548 -0.12555091
0.045658253 -0.034136314 -0.07033341 0.14712213 -0.031717926 0.08038843 0.014962453 -0.036121834
-0.088378385 -0.09445237 0.03803737 0.018045044 0.08655182 -0.051123038 -0.02634699 -0.05490953
-0.00031864512 -0.084891625 -0.0598834 -0.102409825 0.046552774 -0.033386312 -0.018221611 0.11539199
-0.03720554 0.014007964 0.0056563397 0.006059962 -0.062277112 0.009132187 0.012867818 -0.09153497
0.12250414 0.023066873 -0.029373351 -0.036151618 -0.0582733 0.018666914 -0.20039536 0.0068734116
0.039440002 0.05134663 0.064605296 -0.028589528 0.1333737 0.11355412 -0.08047161 -0.005980801
0.054282762 -0.1253906 0.04133597 -0.082777694 0.077887714 0.04823134 -0.044944067 -0.071150824
0.054110836 -0.054151177 -0.08014795 -0.049887825 0.013015219 0.027795747 0.112466045 -0.0020484524
-0.09819533 -0.016416142 -0.057837855 0.0063370713 -0.061985787 0.09537502 -0.10482265 -0.08081618
-0.030042695 0.037014112 0.0007967589 -0.07919838 0.049773123 -0.004318097 0.07154181 0.08904479
-0.014356142 -0.12936112 0.07095709 0.06426032 -0.1263738 0.046382725 0.029386066 -0.08687345
00000000: 2b9e 14be 58a4 4f3c b72f cabd 29bc 7f3d
00000010: fcdb 423d a2e6 b13d 71cc 073e abe4 a93d
00000020: 2fce a13d d293 e9bd 5862 a2bd 4ace 7bbd
00000030: 6aa4 d9bb 8e92 f5bc 57f3 4b3d 11b8 023e
00000040: 3eb6 c8bd f42e 08be dfdb a2bd eaa4 a0bc
00000050: 5141 f33c 34d5 bbbd 88b7 00be 50df 67bc
00000060: 09c7 4bbd abbd 57bc aa49 02be 7b2d 513e
00000070: 638a c33b b173 81bd 618e bdbd 50a8 a23c
00000080: 2dad bb3d 4084 a43c 7e7e 343c 8cca e13d
00000090: 9003 29be 2c34 1e3d bf3d 113d c5fc 4cbe
000000a0: fc14 843d 68d3 b13b 3bd1 aabd 4eeb dc3d
000000b0: c255 6e3c bf6a 7e3c 6243 2bbd 65a3 973d
000000c0: 574a 2abd 63f8 cbbb 12bb 083e 1978 c73c
000000d0: 2c4a e43c 6de2 a7bd c820 6d3d 98ab 30bd
000000e0: 46ad 023d 044c f93c ecca 0a3d 69ed e8bd
000000f0: 24cd 8fbd 8019 35bc ca04 c8bd 5b36 cf3d
00000100: 269b 9f3c 6755 ed3d 504d 9b3d 9708 49bd
00000110: e622 453d c4f0 cdbc accd cf3d 7d5b a3bd
00000120: dd42 983d 6e43 9fbd 4f66 9b3d 9967 e13c
00000130: 9bd8 623b 9e6b 8fbd 548b 39bd d3b4 d2bc
00000140: d991 9c3d f694 593d 5e48 bd3d 2d93 87bd
00000150: 6e39 b43d 1eef 173d 5bad 423d b99b 91bd
00000160: ad6c 793d ef08 37bc 41fc 8ebd 9c71 b03d
00000170: 8bbe a3bd bd1c 85bd 263d 583d 9b65 193d
00000180: 5639 88bc bfca f0bd ed63 bcba 7fe7 55bd
00000190: 2563 bfbd 7579 9e3c 3b55 d8bc dbbc 9c3a
000001a0: 35e7 8ebd b36b 02bd 9fda 9ebd 1da9 0d3e
000001b0: e038 b3bb 0abb 98bb 5fba 77bd ae93 553b
000001c0: 3d23 cc3b 69aa c9bb a572 d4bc 1a37 f1bc
000001d0: c379 8d3d 4080 183d f601 e33d 6053 bfbd
000001e0: 8979 a63c f906 133d 4bce aabd a736 d63c
000001f0: 6e93 d03c c454 3dbd 8961 89bd 7646 323d
00000200: 06b0 10bd 515a 303d 1fa2 83bc 8630 653d
00000210: 7e66 3c3c baef 2e3d 0675 0abd b904 bf3d
00000220: ffc1 ad3d 027d 513a f20f bcbc 318e 49bc
00000230: c5ef c7bc d347 ce3d 4cde d3bb 3d95 233e
00000240: 67eb 98bc 42aa 00bd a401 de3b d366 683d
00000250: 1993 853c cef7 c93d 26e7 b2bc 3842 7f3c
00000260: 74c1 02bd e56b 2abd f794 bebc 937c 343e
00000270: 9d6a c0bb 90c8 313c 81d4 963c 2a23 bd3c
00000280: 1651 34bc 71c8 adbd cf85 77bd 4a01 38bd
00000290: b21c 0bbe d123 3fbd f969 673d 6b90 00be
000002a0: 2604 3b3d 85d2 0bbd f60a 90bd 2fa7 163e
000002b0: a8ea 01bd b0a2 a43d 1425 753c 7df4 13bd
000002c0: baff b4bd 3f70 c1bd 13cd 1b3d 33d3 933c
000002d0: 1542 b13d 6466 51bd a5d5 d7bc d1e8 60bd
000002e0: d30f a7b9 a9db adbd 4c48 75bd 3ebc d1bd
000002f0: 1fae 3e3d 16c0 08bd 7d45 95bc a352 ec3d
00000300: d664 18bd a981 653c d158 b93b a592 c63b
00000310: 4916 7fbd 2b9f 153c 8ad3 523c b076 bbbd
00000320: 73e3 fa3d bdf6 bc3c 62a0 f0bc b813 14bd
00000330: fcaf 6ebd 5beb 983c 7134 4dbe 5b3a e13b
00000340: d78b 213d d850 523d c84f 843d 9634 eabc
00000350: 1d93 083e 108f e83d 4dce a4bd 98fa c3bb
00000360: 9a57 5e3d 6566 00be e84f 293d 5a87 a9bd
00000370: 9883 9f3d 3a8e 453d 4517 38bd 86b7 91bd
00000380: 53a3 5d3d a0cd 5dbd 9c24 a4bd 2d57 4cbd
00000390: c93d 553c e8b3 e33c 9954 e63d 543f 06bb
000003a0: a21a c9bd 257b 86bc 63e7 6cbd 35a7 cf3b
000003b0: cfe4 7dbd fa53 c33d 42ad d6bd f482 a5bd
000003c0: 191c f6bc 1c9c 173d 96dd 503a c332 a2bd
000003d0: e7de 4b3d d37e 8dbb 8384 923d 1d5d b63d
000003e0: 0636 6bbc 3e77 04be f351 913d ea9a 833d
000003f0: 2268 01be d0fb 3d3d 0cbb f03c b5ea b1bd

layers.2.bias f4 [64]
-0.022526002 0.058261212 0.008781801 0.008301854 -0.03723533 -0.055386774 -0.034105215 0.11759843
-0.04603066 0.07608367 0.018090855 -0.010015946 -0.0823663 -0.07191003 -0.023602635 -0.03686517
-0.013013512 0.08507335 0.13723733 0.15833387 0.04860791 0.03619801 0.011535544 -0.12996747
0.017040895 0.07899327 0.053319946 0.010110681 0.09910203 -0.03546269 0.007002553 -0.00052292773
0.21906742 -0.024882963 0.15162334 -0.0694487 0.050923634 -0.0003959097 -0.015406507 0.15708053
0.11262079 0.14003251 -0.099309094 -0.014999778 0.017931022 -0.019178007 -0.07292464 0.047586113
0.015506806 0.13977282 -0.0011863296 -0.04815585 -0.061352953 -0.07503127 -0.07826197 -0.065292515
0.12583213 -0.08426697 0.045911737 -0.09030191 0.14554037 0.07196825 -0.051304545 -0.0094323605
00000000: 7388 b8bc 4fa3 6e3d 8be1 0f3c 8004 083c
00000010: 1384 18bd 3edd 62bd e9b1 0bbd 72d7 f03d
00000020: a58a 3cbd c1d1 9b3d 4633 943c ec19 24bc
00000030: aaaf a8bd 9145 93bd 505a c1bc efff 16bd
00000040: a036 55bc f03a ae3d f187 0c3e 4622 223e
00000050: 1619 473d 5d44 143d 94ff 3c3c 3116 05be
00000060: 5999 8b3c 39c7 a13d 0466 5a3d 45a7 253c
00000070: 01f6 ca3d 5341 11bd ac75 e53b 1615 09ba
00000080: 3653 603e 5bd7 cbbc 2643 1b3e 1f3b 8ebd
00000090: 4d95 503d 1a92 cfb9 936b 7cbc b8d9 203e
000000a0: bba5 e63d af64 0f3e 9162 cbbd a1c1 75bc
000000b0: 14e4 923c 321b 9dbc 8359 95bd a8e9 423d
000000c0: 4210 7e3c 9b20 0f3e 9e7e 9bba 123f 45bd
000000d0: 3c4d 7bbd ffa9 99bd d047 a0bd 15b8 85bd
000000e0: 23da 003e 2994 acbd f20d 3c3d 35f0 b8bd
000000f0: 8908 153e 1764 933d b724 52bd 308a 1abc

readout.weight f4 [1, 64]
0.23734681 0.12698671 0.17402916 -0.08724419 -0.11949371 -0.18083397 -0.06219706 0.12864459
-0.16911331 0.19866456 -0.15073565 -0.16355972 -0.15485008 0.15588322 -0.16021466 0.10565607
-0.121415436 0.19730283 0.18658572 0.18661548 -0.15265636 0.1339219 -0.12552077 0.21549742
-0.05354363 0.08953589 -0.15470205 -0.07282918 0.24507141 -0.09103792 -0.097801335 -0.08926236
0.3853037 0.13650766 0.16591519 -0.13321654 -0.14961135 -0.07068185 0.10816511 0.21444735
0.19583993 0.16772065 0.23340815 -0.068316266 -0.06013552 0.061700642 0.031863853 0.13097139
-0.16795652 0.15702875 -0.07232941 0.15710323 -0.15032798 0.10255169 -0.08353528 -0.18946709
0.2416008 -0.06731531 -0.13672285 -0.13217053 0.22706059 -0.14942683 -0.11988217 -0.13595255
00000000: 0b0b 733e ce08 023e b334 323e 15ad b2bd
00000010: 1eb9 f4bd 8a2c 39be 58c2 7ebd 68bb 033e
00000020: 0a2c 2dbe b96e 4b3e 725a 1abe 337c 27be
00000030: 0591 1ebe da9f 1f3e 500f 24be 3662 d83d
00000040: a8a8 f8bd c109 4a3e 5410 3f3e 2118 3f3e
00000050: f351 1cbe d322 093e 8488 00be 5bab 5c3e
00000060: 9150 5bbd 985e b73d 376a 1ebe 7727 95bd
00000070: 00f4 7a3e 1772 babd 114c c8bd 2fcf b6bd
00000080: 8746 c53e aac8 0b3e ace5 293e eb69 08be
00000090: b833 19be a5c1 90bd ab85 dd3d 1698 5b3e
000000a0: 438a 483e f6be 2b3e 8c02 6f3e 66e9 8bbd
000000b0: aa50 76bd d0b9 7c3d ac83 023d 5d1d 063e
000000c0: cbfc 2bbe 25cc 203e 7121 94bd abdf 203e
000000d0: 94ef 19be 9f06 d23d 8b14 abbd a903 42be
000000e0: 3366 773e 9cdc 89bd 1301 0cbe b657 07be
000000f0: 9282 683e 5903 19be c884 f5bd 2537 0bbe

layers.0.weight f4 [128, 17]
0.121270426 -0.27341375 -0.07947038 0.3403629 -0.020521041 -0.08074317 0.08113362 -0.055078723
-0.07619827 0.14215346 0.29300955 0.12241887 -0.21609697 0.012463246 0.290986 -0.23672612
0.08345351 0.21647352 0.19876659 0.12462926 -0.27174857 0.06170072 0.0705984 0.16555803
-0.1455639 -0.6509009 -0.0831727 0.36956364 -0.22196499 0.1452836 0.027814575 -0.024655335
-0.08262153 -0.045179315 -0.28715527 -0.07149243 -0.18759647 0.18915437 0.10250474 0.03520062
0.15377384 -0.077591956 0.3836099 0.29258752 -0.16240726 -0.32897502 -0.07768124 0.08406852
0.08353559 -0.19666871 -0.31837583 -0.0038592368 -0.24178065 0.28638214 -0.071555994 -0.14777741
0.017463647 -0.31294933 -0.13241746 -0.27871042 0.19779767 0.18609548 -0.35681167 -0.23757578
-0.16697077 0.13227427 -0.027603205 -0.20473835 -0.29864702 0.18601146 0.021961268 -0.22130018
0.15444751 -0.2654737 0.26135227 -0.23856607 0.5385918 -0.20386353 0.06640412 -0.29517207
0.18337803 -0.12962139 -0.32468528 -0.26247957 0.085016124 0.25115812 -0.062272813 -0.11392739
0.09664179 -0.08855322 -0.06123712 -0.31368178 -0.19514284 0.0805318 -0.14459586 0.13181145
0.060257457 -0.05783707 -0.07359819 0.2543807 0.041363534 -0.26272702 0.3966412 -0.52127117
-0.16012533 0.01010957 -0.007992437 0.16953649 0.066222236 -0.12538351 -0.19098817 -0.1916353
0.29940224 -0.03118036 -0.16487527 0.03913098 0.24660283 -0.037647188 0.13574918 0.00957048
0.11398587 0.3836931 -0.1873928 -0.032145873 0.26624614 -0.034576837 0.10333524 -0.4210687
0.38701844 -0.25615937 0.10272073 0.10209106 -0.105115384 0.28726533 -0.35974702 0.16812727
0.0019966206 -0.55951685 0.035116475 0.0792405 -0.32424006 0.15837783 -0.06675162 -0.07700043
-0.054988883 0.29029462 0.07707052 -0.038810886 -0.058404822 -0.3106769 0.11962223 0.15463658
-0.2085982 -0.2126685 0.31161898 -0.04752142 0.31591913 0.33465794 0.12865199 -0.04174751
0.3848841 0.06662204 -0.36511737 -0.12651908 0.30698267 -0.059195176 0.12479348 -0.055235676
-0.21656945 -0.22637174 -0.022423452 0.05300849 0.08793862 0.085523315 -0.20389386 -0.2906022
-0.018234538 -0.19249101 0.21359155 0.2317723 0.042340763 -0.196584 0.018026058 -0.028149813
-0.41844022 -0.065442726 0.22731782 -0.17703304 -0.1403408 -0.023879495 -0.17911778 0.11048168
0.1742686 -0.107384056 0.16650167 -0.25865418 0.0602135 0.16590105 -0.18987982 -0.26175708
-0.16658764 -0.069488734 -0.24789289 0.17388186 -0.1478685 0.5567378 0.03783702 -0.19535859
0.21859221 -0.0029742057 -0.058120865 -0.13120766 -0.13394554 0.09752767 0.2293628 -0.21442023
-0.10541707 0.052758686 -0.36071646 0.18008856 -0.19486576 -0.0063771554 -0.27190524 0.0010241141
0.12629092 -0.31110713 0.10670103 -0.23602939 0.0482801 0.120833404 0.04163231 -0.22884446
0.2033115 0.29064375 0.1618872 0.046553887 -0.09150144 0.23973517 -0.0720502 0.09624023
0.4225052 0.42812565 0.47272548 0.32523352 0.24478167 -0.03100807 -0.6313242 0.2697438
0.18648705 0.13909821 0.16901281 -0.00437296 -0.21898402 -0.19281566 0.115062766 -0.30303803
00000000: a15c f83d e3fc 8bbe 5ec1 a2bd 0c44 ae3e
00000010: be1b a8bc ad5c a5bd 6229 a63d 3a9a 61bd
00000020: d70d 9cbd ad90 113e 5905 963e bfb6 fa3d
00000030: 8648 5dbe a432 4c3c 1efc 943e 5568 72be
00000040: ade9 aa3d 3cab 5d3e 7889 4b3e a03d ff3d
00000050: a122 8bbe e5b9 7c3d e595 903d 0b88 293e
00000060: b40e 15be 71a1 26bf 7356 aabd 7237 bd3e
00000070: ca4a 63be 39c5 143e 64db e33c fcf9 c9bc
00000080: 7a35 a9bd f20d 39bd 0406 93be a06a 92bd
00000090: 4a19 40be afb1 413e 01ee d13d 862e 103d
000000a0: e476 1d3e 88e8 9ebd 8468 c43e 08ce 953e
000000b0: 174e 26be 6a6f a8be 5817 9fbd 1e2c ac3d
000000c0: b514 ab3d 8663 49be 2802 a3be 40eb 7cbb
000000d0: 5995 77be aea0 923e f38b 92bd f652 17be
000000e0: ec0f 8f3c e53a a0be 7198 07be 22b3 8ebe
000000f0: 798b 4a3e d08f 3e3e 05b0 b6be 1147 73be
00000100: 63fa 2abe e872 073e 1e20 e2bc eea6 51be
00000110: 43e8 98be ca79 3e3e 1ee8 b33c 849c 62be
00000120: 7d27 1e3e 2bec 87be f7cf 853e aa4a 74be
00000130: 27e1 093f 9ac1 50be e2fe 873d cb20 97be
00000140: 73c7 3b3e 78bb 04be 263d a6be b963 86be
00000150: ef1c ae3d cc97 803e c711 7fbd c352 e9bd
00000160: 21ec c53d 645b b5bd c6d3 7abd e69a a0be
00000170: 86d3 47be dbed a43d f010 14be 95f9 063e
00000180: 86d0 763d 90e6 6cbd a6ba 96bd 303e 823e
00000190: cf6c 293d 2884 86be 8e14 cb3e 0772 05bf
000001a0: e5f7 23be 9ca2 253c b6f2 02bc f99a 2d3e
000001b0: 869f 873d 8964 00be 6792 43be 0b3c 44be
000001c0: 404b 993e f46d ffbc 10d5 28be ce47 203d
000001d0: 7485 7c3e f033 1abd d501 0b3e 81cd 1c3c
000001e0: 6c71 e93d 6c73 c43e e6e3 3fbe 64ab 03bd
000001f0: 6a51 883e 71a0 0dbd 6da1 d33d 5196 d7be
00000200: 4827 c63e 5227 83be 3f5f d23d 1e15 d13d
00000210: bc46 d7bd 7114 933e c330 b8be 8e29 2c3e
00000220: bcd9 023b 7f3c 0fbf 4bd6 0f3d d848 a23d
00000230: cb02 a6be cc2d 223e 13b5 88bd 67b2 9dbd
00000240: 063c 61bd 7fa1 943e 26d7 9d3d 2af8 1ebd
00000250: e539 6fbd 0b11 9fbe 80fc f43d 0d59 1e3e
00000260: c49a 55be c5c5 59be 868c 9f3e d2a5 42bd
00000270: 27c0 a13e 4958 ab3e 59bd 033e 70ff 2abd
00000280: 870f c53e 2371 883d aaf0 babe 388e 01be
00000290: d52c 9d3e a476 72bd b993 ff3d ce3e 62bd
000002a0: 62c4 5dbe fecd 67be 63b1 b7bc 6e1f 593d
000002b0: 2a19 b43d d926 af3d 8dc9 50be d0c9 94be
000002c0: 9960 95bc 5d1c 45be beb7 5a3e b855 6d3e
000002d0: 826d 2d3d 514d 49be 62ab 933c 709a e6bc
000002e0: cc3d d6be d606 86bd 01c6 683e 2648 35be
000002f0: 80b5 0fbe ee9e c3bc a76a 37be 3844 e23d
00000300: 7873 323e 2cec dbbd 6a7f 2a3e 526e 84be
00000310: 6ea2 763d f7e1 293e db6f 42be 0605 86be
00000320: f395 2abe 1c50 8ebd a2d7 7dbe 160e 323e
00000330: d76a 17be 5e86 0e3f fefa 1a3d 150c 48be
00000340: a3d6 5f3e e4ea 42bb 2510 6ebd 4d5b 06be
00000350: 0529 09be 96bc c73d 15de 6a3e fa90 5bbe
00000360: e8e4 d7bd 7e19 583d d4af b8be 2369 383e
00000370: e48a 47be 75f7 d0bb 2a37 8bbe 913b 863a
00000380: 6852 013e 6f49 9fbe 1286 da3d b0b1 71be
00000390: 5bc1 453d 8177 f73d a486 2a3d 3456 6abe
000003a0: e430 503e 42cf 943e c2c5 253e 4aaf 3e3d
000003b0: 1b65 bbbd 237d 753e 0e8f 93bd 9919 c53d
000003c0: 9a52 d83e 4933 db3e 1309 f23e 0285 a63e
000003d0: 0ca8 7a3e a304 febc 769e 21bf dc1b 8a3e
000003e0: 76f6 3e3e c36f 0e3e b211 2d3e 0c4b 8fbb
000003f0: 593d 60be 7871 45be 07a6 eb3d cd27 9bbe

layers.0.bias f4 [128]
0.0885967 0.21031766 0.02193764 -0.16424927 0.30321288 -0.106864445 -0.08330615 0.14264444
-0.26163912 0.00225672 -0.021242931 0.09863939 0.21299519 -0.1982998 0.112082675 0.14765906
0.19224365 0.07872871 0.22086325 0.04699168 -0.038720544 -0.063682295 -0.024224432 -0.015692465
-0.2240712 0.13883385 0.032852445 0.13249478 0.20438512 0.23681797 -0.06945461 0.18038347
-0.14308973 0.32671514 0.078035645 -0.30864543 0.27772972 0.09842975 0.23529604 -0.16228077
0.03444491 -0.07185452 -0.015469862 0.22697665 0.24653736 -0.11157256 0.42108938 0.06126539
-0.004157564 -0.2119544 0.11477658 0.06460766 0.06339184 -0.03258015 0.24298213 -0.09002728
0.15165389 -0.17893395 -0.07644903 -0.21994711 0.29585564 -0.0023998143 0.20320743 0.26331356
0.19667071 0.089889616 -0.13854174 -0.14405978 0.3658454 -0.2779805 -0.036000367 0.28197575
-0.15241237 0.13820405 0.13316035 0.22291313 0.20494176 0.21892369 0.24483235 0.073389575
0.07388955 0.08354782 0.04495914 -0.16707475 -0.18228357 -0.25778952 0.087935306 0.19155306
-0.19690628 0.0686167 0.4041048 -0.30428684 0.4096769 0.27827895 0.4106475 -0.124848425
0.21414907 0.047925267 0.3096514 0.49390376 -0.14133883 0.12459017 0.40827256 0.15410824
-0.23690529 -0.18618539 -0.13377218 -0.026542095 -0.1089062 0.24725464 0.2116869 -0.1483485
0.14143313 0.092187166 0.09567609 -0.06020543 -0.026995748 -0.06415367 -0.13315447 -0.2463491
0.26552066 -0.07485093 0.35648477 0.03008542 0.025173692 0.06673531 0.2748273 0.21852235
00000000: 3072 b53d 835d 573e 91b6 b33c f630 28be
00000010: b83e 9b3e bfdb dabd 6a9c aabd 6211 123e
00000020: 90f5 85be 7be5 133b a805 aebc 7303 ca3d
00000030: 691b 5a3e 1a0f 4bbe 9a8b e53d f033 173e
00000040: 85db 443e 853c a13d fa29 623e 597a 403d
00000050: 6f99 1ebd dd6b 82bd 5172 c6bc 7c8d 80bc
00000060: ec72 65be 762a 0e3e 4990 063d b6ac 073e
00000070: 554a 513e 6980 723e 383e 8ebd 72b6 383e
00000080: 1d86 12be 3547 a73e 27d1 9f3d c606 9ebe
00000090: 9732 8e3e 8995 c93d 72f1 703e ee2c 26be
000000a0: 1b16 0d3d 7628 93bd 4e75 7dbc 916c 683e
000000b0: 4a74 7c3e 2880 e4bd 0799 d73e 6bf1 7a3d
000000c0: 2d3c 88bb 930a 59be fc0f eb3d 0551 843d
000000d0: 95d3 813d c372 05bd 4fd0 783e 3960 b8bd
000000e0: 284b 1b3e 763a 37be 4f91 9cbd d139 61be
000000f0: 647a 973e 3446 1dbb 9c15 503e 09d1 863e
00000100: 0c64 493e 0c18 b83d e3dd 0dbe 6884 13be
00000110: 1750 bb3e 7653 8ebe 1f75 13bd 205f 903e
00000120: fd11 1cbe 5d85 0d3e 305b 083e 5743 643e
00000130: 41dc 513e 882d 603e 55b5 7a3e 464d 963d
00000140: 6853 973d 1f1b ab3d 1327 383d a515 2bbe
00000150: 8ba8 3abe fdfc 83be 6d17 b43d 7c26 443e
00000160: cda1 49be ea86 8c3d d3e6 ce3e 7ccb 9bbe
00000170: 2cc1 d13e 947a 8e3e 6440 d23e 88b0 ffbd
00000180: e549 5b3e 494d 443d a18a 9e3e f4e0 fc3e
00000190: 20bb 10be 2229 ff3d 1a09 d13e 8dce 1d3e
000001a0: 4d97 72be 62a7 3ebe 93fb 08be cf6e d9bc
000001b0: 370a dfbd 5230 7d3e 73c4 583e abe8 17be
000001c0: d9d3 103e a0cc bc3d d3f1 c33d f899 76bd
000001d0: 3026 ddbc 0063 83bd a559 08be f042 7cbe
000001e0: 53f2 873e 724b 99bd 2c85 b63e b375 f63c
000001f0: 0f39 ce3c 86ac 883d 2ab6 8c3e 53c4 5f3e

layers.1.weight f4 [128, 128]
0.094402455 -0.11213723 0.050407816 0.08678736 -0.06994819 -0.12789685 0.13666184 0.03522023
-0.07486971 0.018084273 -0.05591317 0.002957165 -0.015484187 0.089138 0.08050552 0.022471962
-0.07690901 0.031367492 -0.09552037 0.03613611 0.028849421 -0.05127664 -0.07648901 -0.02546708
0.034884606 -0.08282923 0.05889593 -0.1128278 0.037509363 -0.025786215 -0.17909777 0.07503091
-0.08052187 0.05160995 0.031670276 -0.0455045 0.028367216 0.08675706 0.045445282 -0.15028113
-0.06470604 0.042687405 -0.06387421 0.045260087 -0.05661957 0.08074097 0.11699836 -0.09960819
-0.018190421 0.03364685 0.045691717 0.08222683 -0.06201484 0.09752436 0.09385365 0.049073525
0.042718004 0.1528079 0.090990715 0.07422278 -0.07252783 -0.12193672 0.06983895 0.03205565
0.0080604255 -0.008675558 0.021451507 -0.19704859 0.024353199 -0.07981511 -0.0670171 0.02271837
-0.06488705 0.048580047 0.00018179431 -0.08259383 -0.033588316 -0.04182324 -0.008534186 0.057582393
0.042501885 -0.0017990691 -0.0054507297 -0.09424537 0.14098316 0.108350985 0.0028709255 -0.012002514
0.0024512887 -0.028685404 0.07962914 0.056661077 0.12029814 -0.0039670994 -0.030885 0.0084716845
0.13818292 0.07195879 0.11072333 0.16254051 0.013642376 0.09690453 0.070987485 0.019612053
0.08772299 0.008428217 -0.018791817 0.01830467 0.09782105 0.049754776 0.026367975 0.10576454
-0.082219645 0.022391768 0.10960151 -0.045061316 -0.07293235 -0.089136906 -0.04955389 -0.09931376
-0.019889189 -0.097777344 0.044059664 0.004318661 -0.090167224 0.01602955 0.016916417 0.05549812
-0.0865868 -0.16744193 0.025732731 0.13476467 -0.14679694 -0.0200269 0.1149227 0.0144194225
-0.027520701 -0.115834236 -0.030021945 0.0012937454 0.03833693 -0.055389687 0.0024000984 -0.08645587
-0.06381847 0.022007918 -0.08079561 -0.05155883 -0.051475827 0.10134036 0.007141114 0.02085176
-0.11725342 -0.082709126 -0.021345627 0.003638753 -0.032608636 -0.0474936 0.02080991 0.05409131
-0.08457947 -0.23644558 -0.06385346 0.004088689 -0.015097497 -0.07613511 -0.109641306 0.17508604
0.03178521 0.0070610563 0.14477533 -0.07294971 -0.107940175 -0.06466791 -0.16444246 -0.03817235
0.103330724 0.025530092 -0.04419086 -0.17437336 0.05233672 -0.0071608075 -0.23572238 0.031174386
0.12507693 -0.09628213 -0.049135346 -0.07362208 -0.03746088 0.066087335 -0.29158857 -0.049741257
-0.08094413 0.03852005 0.072920196 -0.03879683 0.12562023 -0.01816432 0.056586113 0.0037943725
0.036164355 0.1000386 0.15738408 0.102193125 0.054012038 -0.08482842 -0.09599413 0.0971949
-0.095527485 0.03656896 -0.09684119 -0.024712998 -0.059412953 0.0076176454 -0.13109908 0.04020777
-0.004244238 0.088912785 -0.11979548 0.18385285 -0.12206989 -0.02272723 -0.034512673 -0.011152883
0.015652025 -0.12935106 0.0013667442 0.12266884 -0.023084955 0.016913367 0.05765756 0.07241564
-0.12605612 -0.06047381 -0.04252224 0.12096118 -0.058927912 0.10680916 0.08434295 0.026212268
-0.18049487 -0.07392925 0.10531331 0.11808333 0.11249464 -0.096288085 -0.06834818 0.081990585
-0.01178419 0.013154513 0.009313328 -0.08158749 0.13338219 0.08992596 0.119147554 0.018599419
00000000: 1356 c13d 34a8 e5bd 6d78 4e3d 92bd b13d
00000010: ff40 8fbd 64f7 02be 15f1 0b3e 1743 103d
00000020: 4a55 99bd 7825 943c 3505 65bd ffcc 413b
00000030: 63b1 7dbc fc8d b63d 14e0 a43d 1f17 b83c
00000040: 7982 9dbd 337b 003d 2fa0 c3bd 7503 143d
00000050: 9f55 ec3c 7407 52bd 45a6 9cbd 56a0 d0bc
00000060: 29e3 0e3d 5fa2 a9bd dc3c 713d 4312 e7bd
00000070: 6ba3 193d 9d3d d3bc 6865 37be cea9 993d
00000080: a6e8 a4bd f464 533d b1b8 013d ed62 3abd
00000090: 5d62 e83c afad b13d d524 3a3d 4ce3 19be
000000a0: 9a84 84bd fdd8 2e3d 7bd0 82bd a462 393d
000000b0: ece9 67bd 865b a53d d69c ef3d 61ff cbbd
000000c0: 1404 95bc 48d1 093d 3d27 3b3d 8a66 a83d
000000d0: 4603 7ebd daba c73d 5836 c03d 5201 493d
000000e0: 13f9 2e3d ad79 1c3e 5759 ba3d 1d02 983d
000000f0: 7989 94bd f6b9 f9bd b907 8f3d c94c 033d
00000100: e00f 043c ed23 0ebc 12bb af3c 1bc7 49be
00000110: 5c80 c73c 1b76 a3bd 4340 89bd e01b ba3c
00000120: 80e3 84bd dffb 463d 0aa0 3e39 f426 a9bd
00000130: e793 09bd d94e 2bbd f8d2 0bbc 84db 6b3d
00000140: 7516 2e3d bece ebba 099c b2bb b703 c1bd
00000150: e45d 103e 1fe7 dd3d 2326 3c3b 31a6 44bc
00000160: cda5 203b a7fd eabc 9a14 a33d 7215 683d
00000170: df5e f63d 71fe 81bb 8a02 fdbc d2cc 0a3c
00000180: d37f 0d3e 215f 933d eac2 e23d 0571 263e
00000190: 4684 5f3c e275 c63d e361 913d 75a9 a03c
000001a0: 1ca8 b33d 8116 0a3c 4cf1 99bc adf3 953c
000001b0: 6756 c83d aacb 4b3d a701 d83c 149b d83d
000001c0: c662 a8bd f16e b73c c276 e03d 3792 38bd
000001d0: 8e5d 95bd 698d b6bd 05f9 4abd 0365 cbbd
000001e0: a7ee a2bc 7d3f c8bd e877 343d 8e83 8d3b
000001f0: 98a9 b8bd 6750 833c 4c94 8a3c ff51 633d
00000200: 6c54 b1bd e675 2bbe 73cd d23c c0ff 093e
00000210: f051 16be 740f a4bc 985c eb3d 713f 6c3c
00000220: 1873 e1bc 803a edbd 95f0 f5bc e492 a93a
00000230: 2f07 1d3d 4ce0 62bd f84a 1d3b c60f b1bd
00000240: 42b3 82bd f349 b43c 2b78 a5bd 5a2f 53bd
00000250: 51d8 52bd 898b cf3d 0200 ea3b 4fd1 aa3c
00000260: 9022 f0bd 6763 a9bd 06dd aebc 2578 6e3b
00000270: a290 05bd a688 42bd 8b79 aa3c d98e 5d3d
00000280: 0038 adbd ca1e 72be 9ac5 82bd 69fa 853b
00000290: 7e5b 77bc b9ec 9bbd 9f8b e0bd c149 333e
000002a0: 3531 023d 6f60 e73b fc3f 143e a866 95bd
000002b0: bd0f ddbd 9c70 84bd 9b63 28be 9c5a 1cbd
000002c0: 0f9f d33d 7c24 d13c 7a01 35bd ee8e 32be
000002d0: 075f 563d 35a5 eabb 3561 71be 6d61 ff3c
000002e0: 2b14 003e 912f c5bd 2542 49bd 2cc7 96bd
000002f0: 9470 19bd cc58 873d 194b 95be 7dbd 4bbd
00000300: 09c6 a5bd 33c7 1d3d 2f57 953d 6de9 1ebd
00000310: 97a2 003e 57cd 94bc d7c6 673d 02ab 783b
00000320: 1321 143d 0ae1 cc3d 4b29 213e a14a d13d
00000330: ba3b 5d3d 86ba adbd 9298 c4bd 1f0e c73d
00000340: eaa3 c3bd 55c9 153d ac54 c6bd ea72 cabc
00000350: ff5a 73bd 719d f93b d63e 06be e7b0 243d
00000360: 4013 8bbb e817 b63d 5557 f5bd ec43 3c3e
00000370: c7ff f9bd 752e babc 295d 0dbd 95ba 36bc
00000380: ad38 803c 9b74 04be 5324 b33a cd39 fb3d
00000390: a91c bdbc e78d 8a3c 552a 6c3d a74e 943d
000003a0: db14 01be 63b3 77bd cd2b 2ebd 7fba f73d
000003b0: 655e 71bd c3be da3d ffbb ac3d 1cbb d63c
000003c0: a6d3 38be 3868 97bd 81ae d73d acd5 f13d
000003d0: 9763 e63d b032 c5bd 21fa 8bbd aeea a73d
000003e0: 7a12 41bc 0786 573c ee96 183c 5817 a7bd
000003f0: 5795 083e 1a2b b83d a203 f43d cf5d 983c

layers.1.bias f4 [128]
0.10367701 -0.03738257 0.041508943 -0.12341314 0.017672325 0.051034223 -0.031512763 0.15515624
0.09171034 0.051196493 -0.05723164 -0.13210654 0.048304036 0.08563532 -0.03969707 -0.09364328
0.07489458 -0.021853734 0.1432367 0.07610603 0.034006067 -0.04754276 -0.06336872 -0.022166
0.28298643 -0.0203348 0.11859286 -0.021377435 0.0523653 -0.1686675 0.03824543 0.065080345
-0.15017283 0.09033121 0.06809254 -0.039549723 0.019969165 0.050307892 0.14389864 0.039372064
0.052481942 -0.1127069 0.14512214 0.17164315 0.13996325 0.12929045 0.055421434 -0.00240513
0.053781465 -0.006082207 -0.03474678 -0.16999413 0.043186903 0.02316734 0.13313727 -0.1195935
-0.15204182 0.025288833 -0.02234518 0.07358 0.035478737 0.09076149 -0.15289901 0.06500468
-0.057965323 -0.004195213 0.07395014 -0.053607218 0.0078640105 -0.08347437 0.18357065 -0.09247096
-0.20621233 0.24328105 0.16482335 -0.073886365 0.043773957 -0.063396595 -0.04993655 0.12679198
0.03725107 -0.045593094 0.08454409 -0.17435159 0.13321935 0.18903235 -0.14739607 0.10963019
-0.16320266 0.09095409 -0.05768768 0.15514636 -0.018131958 -0.05248642 -0.018256426 -0.04893014
-0.021830944 -0.014175458 0.008610918 0.06864854 0.0089762015 0.049438983 0.113123804 0.09370912
-0.077977695 -0.05414615 -0.0843579 -0.03497785 0.10944452 0.14141932 0.114546716 0.09648027
0.11901696 -0.15529822 0.08203909 -0.080266386 -0.0061296797 0.028059484 -0.12756579 0.10174229
0.14680468 -0.0046852715 0.088524 0.0743877 0.010247257 -0.0723559 0.028951304 -0.10669772
00000000: 9d54 d43d 771e 19bd 4805 2a3d 07c0 fcbd
00000010: 8dc5 903c 4309 513d 8713 01bd 47e1 1e3e
00000020: a1d2 bb3d 6ab3 513d b96b 6abd f046 07be
00000030: 74da 453d 9261 af3d 6599 22bd 0cc8 bfbd
00000040: 5462 993d 9a06 b3bc a4ac 123e 7add 9b3d
00000050: f249 0b3d 32bc 42bd 76c7 81bd 7995 b5bc
00000060: 99e3 903e 2b95 a6bc d0e0 f23d bb1f afbc
00000070: ff7c 563d 2cb7 2cbe 3da7 1c3d d848 853d
00000080: e8c6 19be 92ff b83d 1a74 8b3d e4fe 21bd
00000090: 6096 a33c a60f 4e3d 2a5a 133e 9a44 213d
000000a0: 4ef7 563d e0d2 e6bd e69a 143e 39c3 2f3e
000000b0: 8752 0f3e b764 043e 9601 633d 639f 1dbb
000000c0: f449 5c3d 404d c7bb a452 0ebd f112 2ebe
000000d0: c0e4 303d 6fc9 bd3c 2355 083e 70ed f4bd
000000e0: dab0 1bbe 872a cf3c 3d0d b7bc 1cb1 963d
000000f0: 2752 113d 29e1 b93d 8f91 1cbe 2c21 853d
00000100: 0c6d 6dbd ff77 89bb 2c73 973d 3e93 5bbd
00000110: 0dd8 003c 9cf4 aabd f2f9 3b3e 6a61 bdbd
00000120: 5329 53be ab1e 793e 74c7 283e bc51 97bd
00000130: 524c 333d 13d6 81bd 458a 4cbd c2d5 013e
00000140: 9494 183d d3bf 3abd 7425 ad3d 3989 32be
00000150: a76a 083e b291 413e ffee 16be cb85 e03d
00000160: 991e 27be 2346 ba3d eb49 6cbd b0de 1e3e
00000170: 7989 94bc 00fc 56bd 808e 95bc f86a 48bd
00000180: cfd6 b2bc 2e40 68bc cf14 0d3c 9b97 8c3d
00000190: eb10 133c 8880 4a3d 74ad e73d 91ea bf3d
000001a0: c5b2 9fbd 5ac8 5dbd d6c3 acbd ef44 0fbd
000001b0: 7324 e03d 3ad0 103e 7897 ea3d 7397 c53d
000001c0: 2abf f33d 7f06 1fbe 1c04 a83d b462 a4bd
000001d0: 7bdb c8bb 01dd e53c 9ba0 02be 435e d03d
000001e0: f753 163e e886 99bb 124c b53d 9458 983d
000001f0: 1ce4 273c 552f 94bd 492b ed3c 5684 dabd
