HW9/9_gym-DDPG/results/DDPG_HalfCheetah-v4_2000-eps0.15-t32-l0.0001-s2.pth (torch, 195708 bytes, 13 tensors)

layers.0.weight f4 [128, 23]
000000 16 b1 9d bd 46 7a 24 3d b3 3d 86 3c 86 9f a1 bd
       -0.07699792 0.04015567 0.016386842 -0.07891755
000010 de 36 d5 bc cf 05 25 3d b6 42 0a be 98 aa 39 be
       -0.02602714 0.040288743 -0.1350201 -0.18131483
000020 f3 ff a3 3e bd 94 9d bd 1e 51 c4 bd 8c 63 24 3d
       0.3203121 -0.07694385 -0.095857844 0.040133998
000030 53 1c 5a bd dd 42 05 3e e2 e5 63 3c 48 bc c1 3d
       -0.05324967 0.13013788 0.013909789 0.0945974
000040 7a 0f d3 3d b9 5d a8 bd 97 1f a8 bd 27 6a 19 3e
       0.10305686 -0.08221001 -0.0820915 0.149819
000050 e0 8c 1f be 35 92 a6 3c 22 5d 25 bc 16 ac 94 3f
       -0.15581083 0.020333389 -0.010093005 1.1615016
000060 34 7a b0 be c9 78 14 3e 44 72 fe 3c a7 6f de bd
       -0.34468234 0.14499201 0.031060345 -0.1086114
000070 57 2d 9f be e5 0c fb be d4 e8 2a bf fe 6c 84 be
       -0.3108928 -0.49033275 -0.6676152 -0.25864404
000080 ec 02 7f bc c8 71 63 3d 52 4c 58 3c 2f 8c da bd
       -0.0155646615 0.055528432 0.01320179 -0.10671269
000090 9a cd f6 3c cf 24 f3 bd 77 24 02 bd e3 b4 13 bd
       0.030127335 -0.11872255 -0.031773057 -0.03606118
0000a0 ae 8a f0 bd 92 92 2f be 48 3a 3d 3e 0b 06 9e be
       -0.11745201 -0.17145756 0.18479264 -0.30863985
0000b0 38 5b 66 3c 6c ef 4c 3d 61 49 a0 3e 2b 02 62 3d
       0.014059834 0.050033018 0.31305984 0.05517785
0000c0 f4 52 10 be 3b 41 05 3e da 15 3f 3e b9 cc d0 3c
       -0.14094144 0.13013165 0.1866068 0.025488244
0000d0 2e cb 0e 3e 0e 57 e5 bd 4a 70 a1 be b3 17 11 3e
       0.13944694 -0.11198245 -0.31530982 0.14169197
0000e0 3d d0 d4 bd 58 b3 0d 3e 9e 93 ca 3c 96 28 2a 3e
       -0.10391281 0.13837945 0.024728592 0.16617045
0000f0 38 06 cd 3d 2d 56 09 be 36 5a ca 3d 7a ec 47 3e
       0.10010952 -0.1341178 0.098804876 0.19523802
000100 0d 19 bc 3d 0b d0 07 3d ff 10 e3 3d 8c ea 66 be
       0.091844656 0.03315739 0.11087226 -0.2255041
000110 30 6e d3 bd 3b b4 8e bd bf 7b 34 bf fc 53 ad bd
       -0.10323751 -0.0696797 -0.7050132 -0.084632844
000120 a1 24 9d be a1 64 ab 3c f3 27 a8 3d e0 aa b5 3e
       -0.30692008 0.020922007 0.08210745 0.3548193
000130 db 21 4d 3e 29 91 59 3b 66 a3 45 bd 3c a6 1e be
       0.20032446 0.0033198094 -0.048251532 -0.15493101
000140 ec 1f 28 3e b3 cf b6 bc c2 6b 0b be fe 68 a5 bc
       0.16418427 -0.022315836 -0.13615325 -0.020191666
000150 96 9e 00 3e 08 aa 55 3c 57 d0 3c bd 77 f9 f4 3a
       0.12560496 0.013041027 -0.046097126 0.0018690069
000160 27 49 54 bd d6 43 8b bc 0b e2 89 bb 3e f8 12 be
       -0.051827576 -0.01700012 -0.0042078546 -0.1435251
000170 48 95 bb 3f 9e ba 92 be 6d 7e 30 3f 73 4d 94 3c
       1.4654932 -0.28658003 0.6894291 0.018103337
000180 66 a3 02 3e 87 7c 5d 3e 76 49 fd be 92 4d c2 be
       0.12757644 0.21629535 -0.4947011 -0.37949806
000190 ae b5 8a be 7e 0f ab 3e ae b4 06 3d 5f 7f 06 3e
       -0.27091736 0.33410257 0.032887153 0.13134526
0001a0 f0 a4 7c 3d 5c 7e 83 3d e5 60 35 3e 56 9e fa 3d
       0.061680734 0.064205855 0.17712744 0.122372314
0001b0 13 ba 01 bd a5 6f 22 3e 1c 77 24 3e 48 d4 56 bd
       -0.031671595 0.15862902 0.16061062 -0.05244854
0001c0 f3 78 26 bd 0f 85 b3 3c b2 f7 7a be 89 e4 78 3e
       -0.04064269 0.021914033 -0.24508551 0.24305929
0001d0 2c 2d 19 bf 4f eb ad 3b 74 92 43 be 4c eb c1 3d
       -0.5983455 0.005307592 -0.19098836 0.094687074
0001e0 f2 7e 10 3e 63 ea 37 3e ad 9c 37 be 71 81 52 3d
       0.14110926 0.17960505 -0.17930861 0.051392976
0001f0 10 e4 fc 3d a4 36 42 be 5d d7 25 bd 06 bb 12 3e
       0.12348187 -0.18966156 -0.04048859 0.14329156
000200 83 93 38 be 7e 5e 32 be 6a c7 24 be be f7 a2 3d
       -0.18025021 -0.17418858 -0.16091695 0.07957409
000210 41 25 39 3d 99 46 85 be da ca b9 3d f2 88 37 3e
       0.045201544 -0.26030424 0.09071894 0.17923334
000220 2b 21 c3 3d 74 a1 24 be a4 42 c6 3e 47 8c 2c bf
       0.09527811 -0.16077214 0.38722718 -0.67401546
000230 68 8d 60 bf 1b 12 8f be 81 1f 1b 3e 18 31 d6 bd
       -0.8771577 -0.279435 0.15148737 -0.10458583
000240 95 51 88 3e d7 d4 68 3e 5e c0 79 bd 47 ea d3 3d
       0.26624742 0.22737442 -0.06097447 0.10347419
000250 67 1e 38 3e 19 21 01 be cb 0d 77 3d c9 e1 15 bc
       0.17980348 -0.12610282 0.06031589 -0.00914807
000260 8a 05 24 be 9f 96 01 bd ac b5 fd bc d2 88 f8 bd
       -0.16017738 -0.031637784 -0.030970417 -0.121354714
000270 3a b6 fc bd 9e b3 80 bd ae 1e 55 3e a0 83 c1 3d
       -0.123394445 -0.06284259 0.20812485 0.094489336
000280 ef 85 cf bd e3 7e 13 3f 61 2f 05 be 49 71 ff bd
       -0.10132968 0.5761549 -0.13006355 -0.12472779
000290 a8 04 c0 3b 84 4e 62 3e d0 eb 58 bd b7 a7 85 be
       0.00585993 0.22100264 -0.052959263 -0.2610452
0002a0 70 1b f3 bd 83 ba d6 3c 6e 49 2c be a0 4b 43 bd
       -0.11870468 0.026211983 -0.16824886 -0.047679543
0002b0 e7 b6 10 3e 5d 64 9e bd d9 19 e7 bd 5d 1c 8f bd
       0.14132272 -0.077339865 -0.11284227 -0.06987832
0002c0 e0 b1 3a be 74 0a e8 3c e9 f9 1d 3e 1d df 7a 3d
       -0.18231916 0.028325297 0.15427364 0.061247934
0002d0 a7 5d 03 be 6b f2 ff 3b 83 e5 2a 3e e0 a7 81 bd
       -0.12828694 0.007810881 0.16689114 -0.06330848
0002e0 0c e5 04 3c 6e dd 6f be 85 c9 d1 bd 85 4d 1c 3e
       0.00811125 -0.23424312 -0.10243515 0.15263946
0002f0 90 a7 d5 3d a8 b1 3b 3d 24 0d f4 bb 21 2b b3 be
       0.10432351 0.045823723 -0.0074478555 -0.34993842
000300 1e 5c 07 3f 36 23 8e 3e b4 22 97 bd ce 1a c1 bd
       0.52874935 0.2776124 -0.07379666 -0.09428941
000310 32 a6 10 3d 0e 83 d7 bd 47 c7 cd 3d d2 50 05 3e
       0.035314746 -0.105230436 0.10047775 0.13019112
000320 47 92 1a bd 2a 37 9e bd 69 d2 37 be 95 98 b9 bd
       -0.037737157 -0.077253655 -0.17951359 -0.09062306
000330 19 0e 1b bd 81 c1 26 3e e1 a8 8a 3d 03 6b f1 bd
       -0.03785524 0.16284753 0.06770492 -0.11787989
000340 cb d8 a4 3d 31 1c d5 bc 1a 85 ba be 27 7b 1e 3c
       0.080491625 -0.02601442 -0.36429673 0.0096729165
000350 88 f1 8e be 01 68 d5 bd 99 c3 04 be 93 dd 5e 3e
       -0.2791865 -0.10420228 -0.1296524 0.21764211
000360 5c 77 9b bb 90 38 0c be f4 1b 09 3c 35 f5 f5 3d
       -0.0047444534 -0.13693452 0.008368481 0.1200966
000370 d2 d1 23 3d ae ba 45 be 2f 59 0a 3e 57 36 05 3e
       0.039995022 -0.19309494 0.13510583 0.1300901
000380 f1 af 31 3c 55 61 15 3d 85 16 c6 bd 9c 74 52 3e
       0.01084517 0.036469776 -0.09672264 0.20552295
000390 63 69 47 3d 4b dc 6d bc 2e 34 1d 3f 96 eb 0f 3e
       0.04868449 -0.014517854 0.61407745 0.14054713
0003a0 e6 64 76 3e ab 2d ed 3c 60 21 63 bd 26 67 94 be
       0.24061927 0.02895244 -0.05545175 -0.28984946
0003b0 8e ae d0 bd 4f a9 d2 be 3d ed d9 be e9 bc 7c 3e
       -0.10189544 -0.41144797 -0.4256381 0.24681439
0003c0 24 29 95 3d 13 f7 40 3c 9e 9d 0a be a0 f5 45 be
       0.072832376 0.011777657 -0.13536689 -0.1933198
0003d0 91 bb 75 3e bb 91 a0 3d 90 9c 20 3d 3e 4b 3b 3e
       0.23997332 0.07840296 0.03921181 0.18290421
0003e0 85 44 1d bd 23 55 39 be 47 b4 2d be bb 64 1b bc
       -0.038395423 -0.18098883 -0.16963302 -0.009484465
0003f0 ec 0e a6 ba 69 9f f0 be c1 35 88 bd 3b d4 4d bd
       -0.0012669242 -0.4699662 -0.06650878 -0.050251227

layers.0.bias f4 [128]
000000 48 ee 96 bc c4 d8 e8 3d 34 58 c1 bd e2 4a ea 3d
       -0.018424168 0.1136947 -0.094406515 0.11440064
000010 5a aa 0f 3e 8d 42 bc 3e 86 bb 62 3d 86 3a 07 3e
       0.14029828 0.36769524 0.055354618 0.13205919
000020 67 62 61 3e 37 38 0e 3e 09 d0 2d bc 71 10 1c 3e
       0.22010194 0.13888632 -0.0106086815 0.15240647
000030 a6 70 4c 3e 07 c6 e6 bc e8 f8 2d be 52 6d 12 be
       0.19964847 -0.028170599 -0.16989481 -0.14299515
000040 73 3c 55 bd 92 ed a6 3e ec 2e 95 3e 12 82 7c bd
       -0.052059602 0.32603127 0.2913736 -0.061647482
000050 b9 89 ae 3e 3f 03 81 3e 96 91 7b 3e 6c 4e 16 be
       0.3408945 0.2519779 0.24567255 -0.14678353
000060 30 82 ac 3e 51 44 b2 bd e6 40 ca bc 68 14 ce 3e
       0.33693075 -0.087044366 -0.02468915 0.40249944
000070 7d a8 8d 3e 4a 0c 27 3e 3d d9 b6 3e b3 1a d8 be
       0.2766761 0.16313282 0.35712615 -0.4220787
000080 53 5f f9 3d 02 12 9e be a2 75 b6 bd b9 df c4 be
       0.12176385 -0.30873114 -0.089091554 -0.38451937
000090 b2 9b a1 bc a5 a8 19 3e 75 d2 9c be 7b c7 2a 3e
       -0.019727562 0.15005739 -0.30629316 0.16677658
0000a0 25 24 99 3e 87 22 47 3e 5f 60 52 3d 20 b9 b9 3e
       0.2991039 0.19446765 0.051361438 0.36274052
0000b0 90 dc 3f be 0f db 08 3f f6 44 0d 3e 69 dd e5 bd
       -0.18736482 0.53459257 0.13795838 -0.11223871
0000c0 e6 fd fb bb 86 8c 58 3d 08 1e 91 3d 39 20 d4 bd
       -0.007690179 0.05286839 0.07085806 -0.103577085
0000d0 40 e4 d6 3d 72 db 20 3f 86 83 35 be d3 9d 3d 3e
       0.10492754 0.62834847 -0.17725953 0.18517236
0000e0 b6 50 ba bd 47 e3 88 bd a1 01 32 be be d1 88 bd
       -0.09097426 -0.06683975 -0.17383434 -0.0668063
0000f0 8e a5 b2 3d 02 78 27 3e d2 24 6f 3e 59 e3 6a 3d
       0.08722983 0.16354373 0.2335389 0.057345722
000100 cb 28 2b be 61 17 90 3d 74 42 1a be af b4 b8 bd
       -0.1671478 0.07035709 -0.15064412 -0.09018838
000110 7f ce 90 be 36 79 91 3e 9f d3 a0 3e 9e f0 54 bd
       -0.28282544 0.2841279 0.31411454 -0.051987283
000120 e2 4f 74 be 1a 72 89 be 13 64 8c be 3e c5 a1 bd
       -0.23858598 -0.26844865 -0.274201 -0.07898949
000130 a4 7b 7c be dd a2 c2 bd f2 4f 9b 3e 39 af 26 bc
       -0.2465654 -0.0950372 0.3033443 -0.010173612
000140 2c dd 83 3b dc de 08 bd 6a 2a 1e bd 93 aa 60 be
       0.0040241685 -0.03341566 -0.038614668 -0.21940069
000150 00 a9 65 be 5c 8d c5 bd 3f d7 1a be 6f 9e be 3e
       -0.2242775 -0.09646103 -0.15121172 0.3723025
000160 a9 39 09 3e cd 3e c1 3d a0 bc ae bd c6 39 dd 3e
       0.13400902 0.094358064 -0.08532071 0.4320814
000170 3e 10 d8 3e b5 19 ea 3d ef 6c fa 3e 9b 80 39 be
       0.42199892 0.114306845 0.48911235 -0.18115465
000180 3a 21 02 be 2e 5c 51 be b7 d7 0e 3e b6 dc b8 3e
       -0.12707987 -0.2044532 0.13949476 0.3610589
000190 16 ff df bd 2e b0 e9 3e 4f a3 06 bd 5c a6 b7 bc
       -0.10937326 0.45642227 -0.032870587 -0.022418194
0001a0 ad 19 7a bd b5 0d b1 be 22 c4 6d 3c 1e d2 b9 3e
       -0.061059643 -0.3458077 0.014512094 0.3629312
0001b0 80 ff 0b 3f f8 26 14 3d 2a a1 b0 3d 12 5e 59 3e
       0.5468674 0.036169976 0.086244896 0.21227291
0001c0 74 88 74 3e 6a 61 8e 3e 13 8f e6 3e e4 32 9a 3d
       0.23880178 0.27808696 0.45031032 0.07529238
0001d0 d8 89 ef 3e 7d c1 20 3e 97 37 ad 3e f8 91 ba bb
       0.46784854 0.1569881 0.33831474 -0.0056936704
0001e0 cd 55 d3 3d 51 48 d4 3b 3c b5 a8 be e9 43 05 3f
       0.103190996 0.0064783473 -0.3295077 0.5205675
0001f0 0f b1 ae be e5 6d 27 3e 9a ba 41 be 9e 5f 67 be
       -0.3411946 0.16350515 -0.18918839 -0.22595069

layers.1.weight f4 [128, 128]
000000 ab 22 a4 bc 7a d4 24 3b 00 29 93 bd 5f 17 1f bd
       -0.020036062 0.002515106 -0.071855545 -0.038840648
000010 56 87 25 ba bd 63 9f 3c 1f 27 1b 3d 89 89 7b bd
       -0.0006314417 0.019456739 0.037879106 -0.06141046
000020 17 6e 55 3c 12 0e ff b9 df 4d 43 bc 98 71 f9 ba
       0.013026736 -0.00048647873 -0.011920421 -0.0019031046
000030 3e da 37 3d 64 23 dc 3d eb 9e eb 3d d1 ab 39 3d
       0.044885866 0.10748938 0.115049206 0.045329873
000040 09 65 92 3d 5c 26 1a 3d 4a 79 e2 3c 28 ac ee 3c
       0.07148177 0.03763424 0.027645726 0.029134825
000050 d6 91 12 bd 99 04 aa bd 24 c8 be 3c f2 d5 4c 3d
       -0.03578361 -0.08301658 0.023288794 0.05000872
000060 a6 20 95 bd 9a 76 a2 bc 2b 2d a7 3d b0 6b 51 3c
       -0.07281618 -0.019831944 0.08162912 0.012782022
000070 b7 0f 88 bd 92 16 ca bd 5a db ac bd 0a 76 0b bd
       -0.06643622 -0.09867586 -0.084402755 -0.034048118
000080 e6 35 9b 3b 5f 81 3a 3d 88 10 63 3d 1b fd 88 3d
       0.00473665 0.045533534 0.055435687 0.06688901
000090 66 99 50 3d e4 93 59 bd 3a 6a 01 3d 79 94 b0 bc
       0.050927542 -0.053119555 0.031595446 -0.021555172
0000a0 75 ed 90 3c b0 7a 87 3c 29 59 31 3d 82 d0 1a bd
       0.017691353 0.016537994 0.04329792 -0.037796505
0000b0 46 63 87 3d 70 b7 a1 bc b9 b6 fd 3b 2d cb 7d bc
       0.06610732 -0.01974079 0.0077427295 -0.015490335
0000c0 58 57 29 bd 48 a0 31 3c a2 97 55 3d f3 8f 09 3d
       -0.041343063 0.010841437 0.05214656 0.033584546
0000d0 29 1f a9 3d ae 6a 87 bc 3f 2b cc 3d 26 a8 62 bd
       0.082578965 -0.016530361 0.09969186 -0.05533614
0000e0 cc 79 8d bb 78 e9 4a 3d 0d c9 9e 3d 2c db 04 3d
       -0.004317498 0.04953906 0.07753191 0.03243558
0000f0 e0 89 a3 3c 2a 8c 8b 3d 44 33 d1 3d 80 16 83 bd
       0.019963205 0.068138435 0.10214856 -0.06400776
000100 c9 3f 83 bd 87 2c 97 3c 6e b6 a1 bc 04 3d 52 bd
       -0.064086504 0.01845385 -0.01974031 -0.05132772
000110 f3 cf 94 bd bf b2 b2 3c f1 a8 a4 bb 40 20 29 3d
       -0.07266226 0.021813748 -0.005025022 0.04129052
000120 10 38 a9 3d 2c 9a 98 bd 6f 19 1b bb 69 01 60 3d
       0.08262646 -0.07451281 -0.0023666283 0.054688845
000130 b6 11 a3 3d eb 43 f6 3b c1 4a 31 3d d7 ba 9f 3d
       0.079623625 0.0075154207 0.04328418 0.07799309
000140 b3 5b 85 3d e4 d0 d0 3b 14 3d 82 3c d4 5c 15 bd
       0.06511631 0.006372558 0.015898265 -0.03646548
000150 9c d8 2c ba 4b cf 18 3d 41 ea 5c bc 01 5e 7a bd
       -0.00065935566 0.037307065 -0.013483585 -0.061124805
000160 f2 be a8 3d e9 6b e8 bc 36 e4 a3 bc d9 cf f0 bc
       0.08239545 -0.028371768 -0.02000628 -0.029395984
000170 fb e9 4b bd bf 72 4f bd 8c 4e 60 bd f3 52 91 3d
       -0.049783688 -0.05064654 -0.054762408 0.070958994
000180 e2 c0 15 3e e6 1b 78 3e 54 b9 9f bc 5e 69 d1 bc
       0.1462436 0.24229392 -0.019497551 -0.025562938
000190 b0 57 39 bd 40 d2 31 3c 09 e0 51 bd 87 b6 e9 bc
       -0.04524964 0.01085335 -0.051239047 -0.028529419
0001a0 ba 24 67 bc 6f 15 dd 3d 8c 40 44 bc a7 d0 c5 bc
       -0.014107877 0.10795104 -0.01197828 -0.024147345
0001b0 23 8d 34 3c ca b2 89 3d 90 ec 23 bd f4 65 f4 3c
       0.011019978 0.067235544 -0.040020525 0.029833771
0001c0 6d 96 0a 3e 71 e7 55 3d 27 72 b6 3d 0f 49 9f 3c
       0.13533945 0.052222673 0.089084916 0.019444017
0001d0 2c 27 6a 3d 9c 78 0e be 19 06 7d bd 3c 0c 00 3d
       0.057166263 -0.13913196 -0.061773393 0.031261668
0001e0 7a 7d 26 3d 85 a6 4f 3c 40 94 cd 3d a8 43 d7 3c
       0.040647008 0.012673979 0.10038042 0.026277378
0001f0 e1 b8 b0 bc 75 52 06 3b c6 96 bc bc d8 94 75 3c
       -0.021572532 0.0020495926 -0.023021113 0.0149891
000200 36 41 6e bc ed d3 76 bd 99 c9 c8 3c 8d da b1 3d
       -0.014541915 -0.060260702 0.024510192 0.086842634
000210 8a 25 db 3c a7 54 4d 3d c3 45 a1 ba 53 f8 9f 3d
       0.026751298 0.05012956 -0.0012304116 0.07811036
000220 b8 14 fd 3c 8e 43 2e 3d ad b4 23 bd 68 cf 98 bd
       0.030893669 0.042544894 -0.039967228 -0.074614346
000230 24 de eb bc 7b c2 b2 3c 78 a0 9b ba 67 ec a0 bc
       -0.028792448 0.021821251 -0.0011873385 -0.019643975
000240 96 b3 8c 3d c7 99 42 bd c2 50 e2 bc 56 e0 6f 3d
       0.06870191 -0.047509935 -0.027626399 0.058563553
000250 8e 64 c4 3d 74 ff b5 3c 75 f4 83 bd 40 33 8c 3c
       0.09589492 0.022216536 -0.06443111 0.017114282
000260 0a c0 8a 3d 48 28 ab bd 19 53 72 3d 93 2a 2c 3d
       0.0677491 -0.083572924 0.05916128 0.04203279
000270 69 cc 2a bd 9b d1 b9 bd 33 33 a5 bc 39 c2 37 bd
       -0.041698847 -0.09073182 -0.020166015 -0.04486296
000280 4c d1 0e 3d ff b2 c2 bd 38 48 8f bc 44 88 a6 bd
       0.03486757 -0.09506797 -0.017490491 -0.08131459
000290 dc b9 28 3d d2 99 0f 3d 97 ae 3f 3d 4e 51 90 3d
       0.041192874 0.035058804 0.04679736 0.07046758
0002a0 ca 08 02 3e 94 24 a6 3c bf 0d c0 3d 8b 64 73 bd
       0.12698665 0.020281114 0.09377622 -0.059422057
0002b0 77 38 bb 3c 70 f1 9e 3d 10 76 08 bd ee de ac bd
       0.022854073 0.07760894 -0.03331572 -0.08440958
0002c0 c9 11 ad 3d 47 78 a0 3d 5d 54 a5 bd 31 d5 41 bd
       0.08450658 0.07835441 -0.08072732 -0.047322456
0002d0 6b 7e 15 be 27 ea 30 3d 93 f6 b6 bd 6a 88 2f bd
       -0.14599006 0.043192055 -0.08933749 -0.042854704
0002e0 c0 70 cc 3d 0d ba 9f 3d 8e 4f 82 3d 6f 0a e0 bc
       0.09982443 0.07799158 0.0636283 -0.027348725
0002f0 3b 8f 61 bd 99 87 c0 3d 67 75 81 3d 9f 65 da 3c
       -0.055068236 0.09400863 0.06321221 0.026659785
000300 0b 63 02 3d f6 ca fc bc 13 df db bc 45 e0 ec 3c
       0.031832736 -0.030858498 -0.026839769 0.028915534
000310 8b af b3 3b 72 1e a9 3d ee c9 89 bc 8b a2 e1 3c
       0.005483573 0.0825776 -0.01681992 0.027543327
000320 45 f5 62 3c 9d 90 83 bd d5 1a 5a 3d c9 00 6b bc
       0.013852422 -0.06424067 0.053248245 -0.014343449
000330 ed 55 48 3d fd cd c3 bd 6f 2b 42 bd dc f3 71 bc
       0.04891007 -0.095607735 -0.047404703 -0.014767613
000340 88 50 30 bc f0 cb 4e bd c7 4c 10 3a 32 1a ae bc
       -0.010761388 -0.05048746 0.0005504605 -0.021252725
000350 65 79 cb bd 15 38 af 3d e6 c9 66 bd c9 37 56 bc
       -0.099352635 0.08555619 -0.05634489 -0.013074824
000360 cb 01 61 bc 4b ce b8 3c 06 66 2a bd 1d 9c 28 3d
       -0.013733338 0.022559306 -0.041601203 0.041164506
000370 74 e2 a0 3b cb 41 88 bd fe c7 4f 3d 43 7d 85 bd
       0.004909808 -0.06653174 0.050727837 -0.065180324
000380 33 34 a7 bd 41 73 70 be f5 ca 78 bd 03 36 a8 3d
       -0.08164253 -0.23481466 -0.06074043 0.08213427
000390 db fc ce 39 a7 a0 64 3c 9e a7 0c 3d d5 81 9d 3d
       0.00039479774 0.013954318 0.03433954 0.07690779
0003a0 a4 49 0d 3d b1 d8 00 bd db 83 8c bd da a0 12 be
       0.034494057 -0.031456653 -0.06861087 -0.14319173
0003b0 44 49 03 3d 9a d6 16 bd 3e 7f 2d bd 10 a7 4e 3d
       0.032052293 -0.036825754 -0.042357676 0.050452292
0003c0 38 94 a5 bd a6 64 fc 3c f5 19 21 bb 11 26 93 bd
       -0.08084911 0.030809712 -0.0024582122 -0.07184995
0003d0 b3 6c ab 3d a5 90 de bd 3c 08 02 3b 4b b7 27 3d
       0.08370342 -0.108674325 0.0019841334 0.040946286
0003e0 32 5f 13 bd de 13 c5 3d 48 4c 90 bc 51 b0 9a bd
       -0.035979457 0.0962293 -0.017614499 -0.07553161
0003f0 88 fe 13 bc 52 7b b3 bd fb 04 39 bc ec 38 1a bd
       -0.009032853 -0.08763756 -0.011292691 -0.03765194

layers.1.bias f4 [128]
000000 77 11 6a be 35 59 41 3e 8a 5d 37 be 7c 8a 01 be
       -0.22858225 0.18881686 -0.17906776 -0.12650484
000010 84 e2 94 3e 2b b3 ad 3d 97 be 58 bd a3 dc 8b 3e
       0.29079068 0.08481439 -0.052916136 0.2731677
000020 2a 78 e0 3e f2 76 6e be 4e db 30 be 1a ba 19 be
       0.43841678 -0.23287562 -0.17271158 -0.15012398
000030 dc 72 6b 3e af 63 cd 3d 7e 4d 33 be 79 cc db 3d
       0.22993034 0.10028779 -0.1751003 0.107323594
000040 79 88 39 be 14 94 59 be ab e3 53 3e 03 4d 40 be
       -0.18118466 -0.21247894 0.20692317 -0.18779378
000050 8c 9c a5 3e 6d 17 03 3e a3 b6 99 bd 62 5b 93 bd
       0.32345998 0.12801905 -0.07505538 -0.07195164
000060 9f a1 42 3e bd a9 8e 3e 89 12 20 3d 04 44 ba 3e
       0.19006966 0.27863875 0.039080177 0.36380017
000070 79 6c 12 3e 60 29 d3 3c 95 91 39 bc f6 a9 5a bb
       0.14299192 0.025776565 -0.011326213 -0.0033365465
000080 67 61 97 3e 31 d4 9b be 33 3b 4c be ad 74 7b 3e
       0.295665 -0.30435327 -0.19944458 0.24556227
000090 51 19 c1 bd 44 1a ee 3b 5e 4e 53 3e 18 63 84 be
       -0.09428657 0.0072663147 0.20635363 -0.25856853
0000a0 98 f4 f2 3d b4 06 90 be 2e 78 7a 3e 66 1c 8a 3e
       0.11863059 -0.28130114 0.24459907 0.2697479
0000b0 30 a0 ac 3e 32 2b 9d 3e ed b2 2f be f1 f1 3a be
       0.33715963 0.30697018 -0.17158099 -0.18256356
0000c0 dc 4a 2d bd 4d ec cf bc aa 85 31 3e f9 e8 87 be
       -0.04230772 -0.025381232 0.17336145 -0.26544932
0000d0 f9 8d 94 3e bf ac 89 be 43 30 81 3e ea 0f 82 be
       0.29014567 -0.26889607 0.25232133 -0.25402766
0000e0 60 3d 81 3e 3f 87 c5 bd bc 60 d7 bd 8d 86 c6 3c
       0.25242138 -0.09644937 -0.105164975 0.02423408
0000f0 9f 79 37 be 9f 53 43 be 4a 61 58 be 87 a9 53 3e
       -0.17917489 -0.19074868 -0.21130863 0.20670138
000100 93 c3 93 3e e9 ad 59 bc 83 e5 b0 3e a2 47 3e be
       0.2886015 -0.013286092 0.34550104 -0.18582013
000110 ac d6 ea bc 84 9d f0 3d 1d 82 ee 3d 63 5c 89 3d
       -0.028666817 0.11748794 0.11645911 0.067070745
000120 c0 46 71 3e a8 20 1b 3e 58 15 4c 3d 70 61 49 3b
       0.23562145 0.15149176 0.049825042 0.0030728243
000130 df 8e 80 bd 4e d9 4f be 30 d3 56 be 87 1d 63 be
       -0.062772505 -0.20297739 -0.20978999 -0.22179233
000140 4d 3e 0a 3c 69 b6 5f 3e 31 f4 ac 3e a9 a2 63 3e
       0.008437705 0.21846928 0.33780053 0.22230019
000150 94 28 e5 3d f4 78 91 3e 7b 49 14 be c9 c1 7b be
       0.1118938 0.28412592 -0.14481156 -0.24585642
000160 55 c6 3f 3e cd 11 50 3c 83 cf 06 be 14 d6 b5 3e
       0.18728001 0.012699557 -0.13165097 0.3551489
000170 d1 2b 95 3d 57 09 fd bd e0 8c 56 be b9 d0 ce bd
       0.07283748 -0.12355297 -0.20952177 -0.100984044
000180 dc 6d a7 3e 0e 4b 68 bd b9 43 85 bd bb 5c 3c be
       0.32701004 -0.056712203 -0.06507058 -0.18394749
000190 5f a4 56 be 78 f1 90 3e 9d ae 6f 3e 0e 61 a9 3e
       -0.2096114 0.28309226 0.23406453 0.3308186
0001a0 b4 39 83 be 8b a5 74 3e bb e7 ad 3e 61 83 12 3e
       -0.25629961 0.23891275 0.3396586 0.1430793
0001b0 1c ab c5 3e 92 e4 47 3e 19 a8 43 be 33 20 0c be
       0.3860711 0.19520786 -0.19107093 -0.13684158
0001c0 09 62 ab bd 2d cb c6 3e b9 f6 00 be 89 31 39 be
       -0.08368308 0.38826886 -0.12594117 -0.18085302
0001d0 82 0e 1c be a0 fb 4c be 95 df 68 3c 33 ab 77 be
       -0.1523991 -0.20017862 0.014213462 -0.24186401
0001e0 2a 6e 8b be 2e 0f 60 be fc 68 49 be 37 94 cf 3e
       -0.27232486 -0.2188079 -0.19668955 0.40542766
0001f0 af 15 1f 3d 69 c8 3a be e4 fd a0 bd 52 2a 60 be
       0.03883904 -0.18240513 -0.07860926 -0.21891144

layers.2.weight f4 [64, 128]
000000 81 14 65 be e7 49 ed 3c 2b 70 c4 be 7d 62 08 3d
       -0.22371103 0.028965903 -0.38366827 0.03329705
000010 8d 04 e2 3b 7c 42 1a 3e 06 eb 19 3e c4 a7 d5 3d
       0.006897515 0.15064424 0.1503106 0.104323894
000020 64 5f b7 3d 29 97 0c bf 69 59 46 be 81 77 f7 bc
       0.08953741 -0.5491815 -0.19370045 -0.030208351
000030 8d 90 63 bb e7 27 55 bb 58 64 c8 bc 15 fa 7f 3e
       -0.003472361 -0.0032525004 -0.02446191 0.24997742
000040 de a6 1f be 3c 01 ba bd 95 8a b3 bd 29 21 b4 bd
       -0.15590999 -0.09082267 -0.08766667 -0.08795387
000050 48 47 cb 3c b2 85 bc bd 9a 08 cd bd a1 3f a1 bd
       0.024814263 -0.09205188 -0.10011406 -0.078734644
000060 db 24 63 be 57 ae 8d bc 4e c9 b8 be 1b 84 c2 3e
       -0.22182028 -0.017295046 -0.36091083 0.37991413
000070 b8 ce 4f bd 9f c8 94 be 90 10 ce bd e1 aa 90 3d
       -0.05073425 -0.29059312 -0.10061753 0.070638426
000080 30 7f ae 3d b6 6f 1c 3c 5f e5 51 3b 85 44 0c 3e
       0.08520353 0.009548118 0.0032027585 0.13698013
000090 33 3f 3a be 2e 8b 0e 3e ac ac da 3d 63 1d 04 bf
       -0.18188171 0.1392028 0.10677466 -0.5160734
0000a0 19 2f e0 3d 8e ad 31 be d6 bf 9c bd 8f c3 3d 3e
       0.10946483 -0.17351362 -0.07653777 0.18531631
0000b0 78 ab ee 3d 3a 53 1a 3d ca 66 89 bd d3 b5 b3 3d
       0.11653799 0.037677027 -0.067090586 0.087749146
0000c0 e7 d1 16 bd 66 05 94 3b 25 ea 72 3e 2b 7d 2f 3c
       -0.036821272 0.004517245 0.23722132 0.010710995
0000d0 0a 17 30 3d 99 21 85 be 81 be 5d 3d ed c8 b5 bd
       0.04299072 -0.26002195 0.054136757 -0.08876214
0000e0 37 60 90 bb f4 92 95 3d 95 5b 3a 3d e2 d8 9b bd
       -0.004406001 0.0730342 0.045497496 -0.076097265
0000f0 8a aa e1 bd 20 52 02 bd 56 d5 a4 bd d9 0c 23 3e
       -0.11018856 -0.0318166 -0.08048503 0.1592287
000100 ab c1 e7 3c 26 47 24 3e 7e 80 9e 3d b3 9d 24 bf
       0.02829059 0.16042766 0.07739352 -0.6430313
000110 9f d8 ba 3d 40 74 75 bd d6 1a 1e 3e 8f 01 ad be
       0.091233484 -0.059925318 0.15439925 -0.33790252
000120 0f fc e1 3d 90 c3 9f bd 1e 55 22 3e 4f c4 73 3d
       0.110344045 -0.078009725 0.15852782 0.059513386
000130 ab ec 4b 3d 88 28 d0 be e9 f8 b7 bd 9b f4 d6 bc
       0.04978625 -0.40655923 -0.08983023 -0.026239684
000140 7e 1f d3 3d 00 5a bf 3d 36 3a 00 3e 7a d7 88 bd
       0.10308741 0.09343338 0.12522206 -0.06681724
000150 41 79 97 3e e8 8b cf 3d 4b d9 18 3e 16 6d 91 bd
       0.29584697 0.10134107 0.1492664 -0.071008846
000160 97 68 83 3d 65 a2 19 be e4 4d cd bd 8e 4e c3 3d
       0.06416433 -0.15003355 -0.10024622 0.095364675
000170 79 0e cd bd d7 02 b1 bd 39 aa 93 bd 27 81 d2 bb
       -0.10012526 -0.0864312 -0.07210202 -0.0064240876
000180 b2 20 a2 ba 02 00 f7 bd 30 7a f3 bb 4a 7d ea bc
       -0.0012369363 -0.12060548 -0.0074303374 -0.028624196
000190 03 f0 3f be 19 50 c0 3c 90 ba 1f 3c 9a 4c 34 3d
       -0.18743901 0.023475694 0.00974907 0.044018365
0001a0 bd fd 35 bd ca 5a 7d bc b7 86 a2 bd 05 95 c9 3d
       -0.044431437 -0.01546354 -0.07935851 0.09842876
0001b0 fb 32 38 bd f9 51 32 3d 18 a4 aa bd d3 30 b7 3d
       -0.044970494 0.043535206 -0.0833208 0.08944859
0001c0 1d e9 20 3c 64 e0 9f 3c 79 73 9a bd a0 b1 c3 bc
       0.009821204 0.019516177 -0.07541556 -0.02388841
0001d0 0b 65 ac 3c ea 86 96 3d f1 91 4d 3e a7 62 b0 bd
       0.021044275 0.073499516 0.20075203 -0.086125664
0001e0 c1 82 4e 3d 96 bb 10 bf 1c a0 b8 bd 8f cc 27 3c
       0.050417665 -0.56536233 -0.090149134 0.010241642
0001f0 02 f0 30 bd a2 21 2a bc 87 bb 0d bd 3f 13 49 3d
       -0.04319764 -0.010383995 -0.034602668 0.04909062
000200 73 91 12 bd 41 ec 87 3d e5 29 9d bd d2 bc 8d 3b
       -0.035783242 0.06636859 -0.076740064 0.0043254877
000210 a3 b6 9a 3d 83 6c 55 3d ab a1 50 3c be da 05 3e
       0.075543664 0.052105438 0.012733857 0.13071725
000220 df d2 d6 3d d0 d7 0d be 74 59 ac bc c1 17 11 3c
       0.10489439 -0.13851857 -0.021038748 0.008855761
000230 9c a5 85 3b d9 0b ef 3d 11 2d dc bc 80 df 79 3e
       0.00407858 0.11672182 -0.026876958 0.24401665
000240 46 0b 9f bc 98 ab 09 bd ce ba 6a 3c 69 c1 c5 3a
       -0.019414555 -0.03361091 0.014326764 0.0015087548
000250 35 9c 34 3d 23 f5 f4 3d 0e 84 33 bd 62 0c a4 bc
       0.044094283 0.119608186 -0.04382711 -0.020025436
000260 67 3a 2a bc 7a fd dc bc 2a 39 82 be 71 f4 88 3e
       -0.010389901 -0.026976336 -0.25434238 0.26748994
000270 be 8c 24 3d dc 79 3e be 26 08 8e 3c 93 2b c7 3d
       0.040173285 -0.18601173 0.01733787 0.09725108
000280 29 d3 cc 3b cc 58 ee bd a7 a5 8d bd 8a 01 12 bc
       0.006250758 -0.116380304 -0.06916361 -0.0089115
000290 c7 21 87 be c3 50 a3 ba 17 11 f7 3d 28 29 5e be
       -0.26392958 -0.0012459982 0.120638065 -0.21695387
0002a0 5d db 87 3d 71 f8 58 be 06 3f 55 bd 76 d4 4e 3e
       0.06633637 -0.21188523 -0.052062057 0.20198235
0002b0 18 c2 78 3d 98 14 da 3d 6c c1 aa 3c 56 c3 64 bd
       0.060731977 0.10648459 0.020844184 -0.05585035
0002c0 c4 e8 b4 bd 08 a4 97 bd 13 1c c9 3d 37 c9 d4 3b
       -0.08833459 -0.07404333 0.09819808 0.0064937132
0002d0 be c3 de 3d 29 a0 94 bd 75 ed c5 3b ed 9e 22 bd
       0.108771786 -0.072571106 0.00604027 -0.039702345
0002e0 a2 d5 57 3d 7c bd d3 bd 9c 88 1e bd bf 03 31 be
       0.05269397 -0.10338876 -0.0387045 -0.17286585
0002f0 fd f9 25 bc bb 99 10 bd 05 44 bb bc 59 6b 55 3e
       -0.010130403 -0.03530286 -0.022859583 0.20841731
000300 52 b4 41 bb e8 f8 a0 3d f0 90 f3 3c a9 cb c8 bd
       -0.0029556942 0.07859975 0.029732198 -0.0980447
000310 39 92 29 bd 01 10 d2 3c 9e 42 ba 3d 87 b9 92 be
       -0.041399214 0.025642397 0.090947375 -0.2865717
000320 78 a8 33 3e 3b ca 45 3d 3b 6a a8 3b 91 da 1f bc
       0.17544734 0.048288565 0.005139617 -0.0097567
000330 f3 9f e0 bc 01 e6 38 bc ad 92 95 be 5b 01 49 bd
       -0.02742002 -0.011285306 -0.29213467 -0.04907356
000340 1f ab 8b 3d 2d 72 bc 3d 5f 2d ca 3d 6c 85 9b bc
       0.06819748 0.09201465 0.09871935 -0.018984519
000350 8b d6 62 3e 1e b2 24 3e 43 ad da bd f4 cb 86 bb
       0.22152154 0.16083571 -0.10677578 -0.0041136686
000360 a6 49 8a 3d c8 fa 45 be fa 0b de 3c 9e 67 47 bd
       0.067523286 -0.19333947 0.02710532 -0.0486828
000370 83 5c b3 3d cb c0 6e b9 ad 10 70 be 37 b3 ae bd
       0.087578796 -0.0002276927 -0.23443861 -0.08530276
000380 c4 3e a6 3d c8 9e ad bd db 16 9d bd 90 e4 ab bd
       0.0811744 -0.08477551 -0.07670375 -0.08393204
000390 8e d8 25 bc d8 7c 4e 3d 83 b2 09 3e 5b eb 57 3d
       -0.010122431 0.05041203 0.13447003 0.052714687
0003a0 a6 cf 4a be 05 79 11 3c 3f 88 eb bc fc 70 0d 3d
       -0.19805774 0.008878951 -0.02875149 0.03453158
0003b0 da 36 1c bd ad 81 fb 3d 5a a4 d9 bd 40 67 3a bd
       -0.038138248 0.12280593 -0.10627051 -0.045508623
0003c0 aa 50 cd bc 8b 94 72 3d 42 01 2d be ad 67 d6 bd
       -0.025062878 0.059223693 -0.16895011 -0.10468993
0003d0 f8 b5 9a bb 9c d6 8d 3b 43 ea 39 3e 74 42 b0 3d
       -0.0047213994 0.004328562 0.1815577 0.08606425
0003e0 d1 89 02 bc 39 61 90 be 4f aa 9c 3d 16 82 c1 3d
       -0.007967428 -0.28199175 0.07649671 0.0944864
0003f0 70 cf 54 be 05 53 24 3d cb 3c a1 3c 05 6d e1 bd
       -0.20782256 0.040118236 0.019682309 -0.11007122

layers.2.bias f4 [64]
000000 f2 d3 3b 3d 60 86 6b 3e 87 68 35 3e 31 d8 25 be
       0.045856424 0.23000479 0.17715655 -0.16195752
000010 cf c8 44 be 22 a4 5a be 80 89 44 be 82 da 9d 3e
       -0.19217227 -0.21351674 -0.19193077 0.3083077
000020 4f 8f 25 be 38 bd 88 3e 4e db 06 be d8 1c 20 be
       -0.16167949 0.26706862 -0.13169596 -0.15636003
000030 ae 0b 7f be 8b 10 34 3d 56 81 3b be 46 29 10 3e
       -0.24906799 0.04396109 -0.18311056 0.14078245
000040 b2 cd d7 bd 41 8e 8b 3e a7 18 a7 3e 76 27 b3 3e
       -0.1053728 0.2725697 0.32635996 0.34991044
000050 69 08 db bd 2e b5 68 3e ed 2b 14 be 4f 81 0c bd
       -0.106949635 0.22725365 -0.14469881 -0.034303006
000060 76 73 0e be a1 4d 3f 3e a8 66 de bd f4 59 17 be
       -0.13911232 0.18681957 -0.10859424 -0.14780408
000070 31 6f 85 3e 96 dc 45 be e0 19 16 be 98 16 fa bd
       0.26061395 -0.19322428 -0.14658308 -0.12211341
000080 fd 67 d0 3e af a5 29 3e e4 71 b0 3e be af 7b be
       0.40704337 0.1656711 0.34461892 -0.24578759
000090 a2 b3 e5 bd ae 1d 07 be 0b d0 33 3e 77 4b b1 3e
       -0.11215903 -0.13194916 0.17559831 0.34627888
0000a0 fe 54 97 3e 74 61 ad 3e b3 12 d5 bc 33 b3 5e be
       0.2955703 0.33863413 -0.026009893 -0.21748047
0000b0 92 f3 0b be 32 1b 9d bc 83 59 95 bd 46 58 74 3e
       -0.13667133 -0.019178007 -0.07292464 0.23861799
0000c0 45 70 0a be e6 f5 a9 3e 3e a8 20 be 55 9c 03 bc
       -0.1351939 0.33195418 -0.1568918 -0.008032878
0000d0 8a 1b 44 be 91 a3 9f bd 62 89 70 be 4d 79 5e be
       -0.1915113 -0.0779487 -0.23489907 -0.2172596
0000e0 93 e7 a3 3e 5d 64 7d be d3 0f de bd 8a 1a 81 be
       0.32012615 -0.24745317 -0.10842862 -0.2521556
0000f0 c1 e2 ab 3e 53 28 6d bd 57 e8 2a be be 4a 24 be
       0.33571437 -0.057899784 -0.16690193 -0.16044137

readout.weight f4 [1, 64]
000000 99 cc 0d 3f 4a cb 73 3e cd 3b 8e 3e 31 88 1d be
       0.55390316 0.23808017 0.2778 -0.15383984
000010 9e 21 44 be 64 72 92 be 93 7e ed bd 71 6b 56 3e
       -0.19153449 -0.28602898 -0.11596408 0.20939423
000020 f5 d4 9d be a1 b4 80 3e 3d 81 47 be f9 b8 6c be
       -0.30826536 0.2513781 -0.19482894 -0.23117436
000030 45 17 95 be e3 3e a3 3e 05 12 4b be 03 be 31 3e
       -0.29119316 0.31883916 -0.19831093 0.1735764
000040 fe a3 5d be 1f 68 95 3e 90 e7 84 3e 11 f4 74 3e
       -0.2164459 0.29181 0.25957918 0.23921229
000050 9d 40 40 be 3d 9f 3c 3e 5c d2 21 be ce 72 a0 3e
       -0.18774648 0.1842012 -0.15802902 0.3133759
000060 ca ab dc bd 77 82 9d 3e 0c 0f 3e be 6c 91 1f be
       -0.10774954 0.307636 -0.18560427 -0.15582818
000070 2d 76 bf 3e 0a c3 05 be 0a 32 05 be 06 15 4d be
       0.37394848 -0.13062683 -0.1300737 -0.20027551
000080 a3 f5 02 3f a4 3d 39 3e bd 65 62 3e b2 f2 7e be
       0.5115606 0.1808992 0.22109123 -0.24897268
000090 2f 4e 52 be bc 5c 0e be 07 d6 1d 3e 26 14 a3 3e
       -0.20537637 -0.13902563 0.15413676 0.3185131
0000a0 ca da 87 3e e9 34 8f 3e ba ea 02 3f a3 c9 4c be
       0.2653411 0.27970055 0.51139414 -0.19998793
0000b0 a1 f7 12 be d0 b9 7c 3d ac 83 02 3d 02 be 3a 3e
       -0.14352275 0.061700642 0.031863853 0.18236545
0000c0 32 08 4d be 2b 4a 5c 3e ca cf fe bd c6 e9 89 3e
       -0.20022658 0.21512668 -0.12441976 0.26936167
0000d0 1a 3d 6c be d8 db ce 3d be 12 2b be 42 d5 87 be
       -0.23070183 0.101005256 -0.16706368 -0.2652989
0000e0 d6 76 a8 3e 1b 7a 0b be 59 23 21 be 78 9e 3e be
       0.32903165 -0.13620798 -0.1573614 -0.18615139
0000f0 ec 40 98 3e 75 2a 2b be 98 08 5f be cd 00 36 be
       0.2973703 -0.16715415 -0.21780622 -0.17773743

layers.0.weight f4 [128, 17]
000000 f0 d3 3f 3f 31 2d 1b bf 60 92 ca bd bc 69 cd 3e
       0.74932766 -0.6061583 -0.098912 0.4011973
000010 f8 64 cd bc bc 57 b1 bb 33 11 02 be 75 04 9e bd
       -0.02507256 -0.00541207 -0.12701873 -0.07715694
000020 89 7e b4 3c 24 22 ae 3c bb 2a 79 3e d8 23 31 3e
       0.022032993 0.021256514 0.24332707 0.1729883
000030 f5 f7 55 be 3e 98 be 3c 3f c9 b8 3e 59 a2 87 be
       -0.2089537 0.023265954 0.3609104 -0.2649105
000040 eb 28 0f 3e 41 e5 89 3e 4a a4 23 3f 55 9b 8e 3e
       0.13980453 0.2693272 0.6392256 0.27852884
000050 66 43 de be 93 93 a4 3e 05 41 d7 bd 79 ef 11 3d
       -0.43410796 0.3214384 -0.10510448 0.03562877
000060 24 c3 0f be 30 79 40 bf 05 71 00 3c 24 62 f2 3e
       -0.14039284 -0.7518492 0.007839446 0.473405
000070 f2 6d 90 be 32 6e fd 3d 7a f3 e3 3b ad 2c a7 3c
       -0.28208882 0.12374534 0.006956515 0.020407045
000080 0d 25 9a 3c 9a b2 94 bd a4 fd 3c bf 73 58 b4 bd
       0.018816495 -0.07260628 -0.73824525 -0.08805933
000090 b3 83 9f be 83 43 1e 3e 8b b4 8f bc 81 e9 b2 3e
       -0.31155166 0.15455441 -0.017542144 0.34943774
0000a0 00 8b 87 3e bc 28 a8 bd 83 df c9 3e 49 60 6f 3e
       0.26473236 -0.082108945 0.39428338 0.23376574
0000b0 56 7d 71 be e0 df bc be 29 09 5c bd f1 fb ca 3d
       -0.23582968 -0.36889553 -0.053719673 0.09911335
0000c0 0c 3f 1a 3e 95 75 10 be 03 4a 97 be af 0f 8f 3d
       0.15063113 -0.14107354 -0.29548654 0.06985413
0000d0 2d 6c 12 bf b8 9d 3b 3f 88 4d 9f bd c7 2a e8 bd
       -0.57196313 0.73287535 -0.0777846 -0.11336284
0000e0 a0 12 ca 3d 09 4d 92 be ce cb 11 be c1 bb 8a be
       0.09866834 -0.28574398 -0.14237902 -0.2709637
0000f0 53 51 54 3e a5 c8 58 3e 50 36 91 be 83 99 a0 be
       0.20734148 0.2117029 -0.2836175 -0.3136712
000100 4f 4d e3 bd f7 03 77 3d ef 41 0a 3d bf 12 15 be
       -0.1109873 0.060306516 0.033754285 -0.14557932
000110 63 7f c3 be 4c 33 53 3f 30 43 04 bd 89 8e e8 bc
       -0.38183126 0.8250015 -0.032290637 -0.028388279
000120 81 11 e1 3d 5b c8 e8 be 8e 3a f4 3d 41 a1 19 bd
       0.10989667 -0.4546536 0.11925231 -0.0375073
000130 71 18 f7 3e 07 6f fb bd ad 6e c9 3b 9f 88 ac be
       0.48260835 -0.12277036 0.006147227 -0.33697984
000140 cc bc 58 3e a9 f4 e6 bd 4a 80 ae be 31 38 32 be
       0.2116577 -0.11277134 -0.34082252 -0.17404248
000150 91 8e 93 3d 46 33 32 3e 2d 8b e8 3d de ca a9 bd
       0.07204927 0.17402372 0.11354671 -0.08290647
000160 16 f4 8f 3e d9 5e 85 be 9a b6 63 bd 13 e9 06 bf
       0.2811591 -0.26048926 -0.055594064 -0.52699393
000170 9e 68 58 be 7f f8 c0 3d 34 c1 dc bd 76 03 25 3e
       -0.21133658 0.09422397 -0.10779038 0.16114601
000180 5d 93 8f 3d e1 5f c3 3c e1 31 7d 3c 3b 79 d4 3e
       0.07010529 0.02384943 0.015453787 0.41498742
000190 9d c4 4c 3e aa 4d 74 be d4 81 b4 3f 8e 25 44 bf
       0.19996877 -0.23857751 1.410212 -0.76619804
0001a0 57 5a a3 bd bb b2 d7 3d 37 40 05 3e d1 80 7a bc
       -0.07976215 0.10532137 0.13012777 -0.015289501
0001b0 e5 a8 49 be 1b 99 fc be 21 6e a6 3c 9c ea c4 bd
       -0.19693334 -0.4933556 0.020316185 -0.09615061
0001c0 22 e9 76 3e 40 d1 b0 bc ce 84 42 be 9a 18 76 3d
       0.2411237 -0.021584153 -0.18995973 0.060082056
0001d0 15 c3 7b 3e f8 ab 0a ba c6 9f 88 3d 13 5d 45 bd
       0.24586137 -0.00052899076 0.06671099 -0.048184466
0001e0 c2 d3 24 be e8 53 ba 3e f5 d8 dd bd 0e cd e5 3d
       -0.16096404 0.3639214 -0.10832397 0.11220752
0001f0 2c 76 df 3e d5 bd ec 3d 01 2f c4 3e 38 bf 9b be
       0.43644845 0.11559645 0.3831711 -0.30419326
000200 fc d6 d0 3e 14 31 0e be ea 78 1c 3e 0f b6 76 3d
       0.4078902 -0.1388591 0.152805 0.06023222
000210 e8 12 3c 3a 8e 03 be 3e af ff ce be 5d 65 21 3e
       0.0007174448 0.37112087 -0.40429446 0.15761323
000220 54 95 ad 3e 4c ff 9b bf 93 b5 ea 3d 3d a0 0f 3e
       0.3390299 -1.2187285 0.11460414 0.1402597
000230 57 af 5c be 0d cd 7a 3e ed 7a e6 bb 0c 9e fb bd
       -0.21551262 0.24492283 -0.007033697 -0.122860044
000240 5c fd 95 3e 04 f8 a8 3e 7d f8 42 3d 06 d6 48 3d
       0.2929486 0.3300172 0.04760026 0.049032234
000250 03 ab 80 bd c6 36 9c be 2e 8b 42 3e 98 4c e8 3d
       -0.06282618 -0.3051054 0.18998405 0.11342734
000260 1c ff ee bd fe 27 61 bf 19 aa 14 3f 8d ed 8e 3e
       -0.11669752 -0.8795165 0.5807205 0.27915612
000270 e0 6b 8d 3c 7f bc b8 3e 9e 9d 0c 3f 6b b5 d6 3e
       0.017263353 0.3608131 0.54928005 0.41935286
000280 2d b2 ad 3e e2 a4 4d bd 60 b2 c8 be b4 a3 7e be
       0.33925 -0.050206073 -0.3919859 -0.24867135
000290 38 ec 51 3e 95 49 82 bc fd 09 e8 3d 5f d8 14 bd
       0.20500267 -0.015904227 0.1133003 -0.03633916
0002a0 6b 57 36 be e4 7b 50 be 9a 23 5a 3e d3 5f 03 3f
       -0.17806785 -0.2035976 0.21302643 0.5131809
0002b0 33 ee 10 3e f1 cd e0 3c cb a9 70 bc 0a c7 da be
       0.14153366 0.02744195 -0.014688919 -0.4272998
0002c0 c5 bb 06 bd 70 b2 89 bd 11 e0 24 3e 4c 8e 05 3f
       -0.032893915 -0.067234874 0.161011 0.5217025
0002d0 b4 22 7f 3d 80 27 a3 be 39 44 37 3d 2c 9b 75 bc
       0.062288955 -0.31866074 0.044742797 -0.014990609
0002e0 d3 0b b6 be 45 eb bf 3c 1c 85 6f 3e 75 57 93 3e
       -0.35555896 0.023427615 0.23390621 0.28777662
0002f0 23 92 d4 bd 67 71 ad 3e 75 dc 0c bf af 1d 71 3e
       -0.10379436 0.33875582 -0.5502389 0.2354648
000300 fa 68 1c 3e cf d1 2f be 76 09 e9 3d 69 5a f0 bd
       0.1527442 -0.1716988 0.11378758 -0.11735994
000310 1b ae 7d 3d 63 cd 92 3d 85 9a d3 bd 1e f4 a8 be
       0.061933618 0.07168081 -0.10332207 -0.32998747
000320 96 6b 69 bd 64 f8 9a bc c1 8a 76 be 4f 97 03 3e
       -0.056987368 -0.01891727 -0.24076368 0.12850688
000330 87 24 16 bf b8 53 95 3f ac 5e 96 3d d9 cf 11 be
       -0.58649486 1.1666174 0.07342276 -0.14239444
000340 b5 92 88 3e 06 77 61 3e 99 84 76 bc 7a 4c fc bd
       0.2667443 0.2201806 -0.015046262 -0.12319274
000350 99 16 1d 3b 5b 69 02 3d a7 a9 9a 3e 61 54 0a be
       0.0023969768 0.031838756 0.3020756 -0.1350875
000360 82 23 39 be fc 26 15 3e e0 df a9 be 4d f9 cd 3d
       -0.18079951 0.14565653 -0.33178616 0.10057316
000370 90 c7 8c bd 1d 89 bb 3e d2 c0 90 bf 60 f1 20 3d
       -0.06874001 0.36628047 -1.1308844 0.039292693
000380 7c b7 8e 3e b1 5c d7 be 82 d9 6a 3d 39 38 9c be
       0.27874362 -0.42062905 0.057336338 -0.30511644
000390 79 34 5d be a2 f4 87 3c b9 f4 59 3e bb c1 d6 be
       -0.21602048 0.016596142 0.2128476 -0.4194468
0003a0 cf 79 4c 3e 09 ea 9b 3e 3a 76 98 3d ff 14 cb 3b
       0.19968341 0.30451992 0.07444425 0.0061975713
0003b0 17 f2 26 bd ba d1 39 3e 90 f9 a7 be 51 8d b5 bd
       -0.04075822 0.1814641 -0.3280759 -0.088648446
0003c0 12 74 c5 3e 90 7c ad 3e 2d fe 29 3f 51 41 0a 3f
       0.38565117 0.33884096 0.66403466 0.54005915
0003d0 2e ad ed 3e 6e 69 c7 3d 14 b6 36 bf b0 c2 dd 3d
       0.46421188 0.09736906 -0.7137158 0.10828149
0003e0 c8 de 69 3e 1e 23 c1 3d 80 d0 0d 3e 11 d1 94 ba
       0.2283889 0.09430526 0.13849068 -0.001135381
0003f0 92 b7 59 be 7b 84 73 be 2a 58 6b 3d 16 bd 8d 3d
       -0.21261433 -0.23781006 0.057457127 0.06920831

layers.0.bias f4 [128]
000000 a5 c3 80 3d f2 34 97 3e 4d 27 01 3d 52 83 e7 bd
       0.06287316 0.29532582 0.03153162 -0.11304344
000010 fe 7f 75 3d 80 f0 10 be f3 e4 5c 3d e6 18 d4 3d
       0.059936516 -0.14154243 0.05392928 0.103563115
000020 61 c9 ad bd 00 bb 54 3e e4 14 0e be a4 6c b9 3e
       -0.084856756 0.2077446 -0.13875157 0.362157
000030 5c 2b 6b 3e e5 f7 3f be 03 b1 a9 3e 95 d0 9a 3e
       0.22965759 -0.18746908 0.33142862 0.3023726
000040 a7 2d 12 3e 2a d2 c0 bd ab a4 82 3e 93 3d 88 3d
       0.14275227 -0.094150856 0.25516257 0.06652369
000050 3c 4f 6a bd e8 97 72 be 26 70 09 be c8 75 42 3e
       -0.05720447 -0.2369076 -0.13421687 0.18990242
000060 ce 3d 66 bd d8 10 76 3e 61 77 ba 3d b9 0d ae 3d
       -0.056211285 0.24029863 0.09104801 0.08498711
000070 0e 29 85 3e 1e 0f f1 3e 76 fe 22 be d2 76 84 3e
       0.26007885 0.47081846 -0.15917382 0.25871903
000080 d0 30 22 bd f9 a2 b4 3e ce 4c 81 3c 13 ad 73 be
       -0.039597332 0.35280588 0.015783694 -0.23796491
000090 d1 a0 8d 3e c8 ce 8b 3d ef 23 b0 3e 04 5b 70 bd
       0.27661756 0.0682655 0.34402415 -0.05868055
0000a0 e7 22 e7 3d 43 e3 32 3c 3e 93 de bd 98 9f 31 3e
       0.11285954 0.010918441 -0.10867928 0.17346036
0000b0 0d 8b b8 3e 39 9c da bd ab bb 05 3f 62 35 cf 3d
       0.36043587 -0.10674328 0.52239484 0.10117604
0000c0 76 7f da 3d cf 2d 5f be e0 a0 6a 3d 61 a0 c4 bd
       0.106688425 -0.21794818 0.05728233 -0.09600902
0000d0 89 97 f1 bd 34 81 f7 3d da 07 b8 3e d5 1f 6e be
       -0.11796481 0.120851904 0.3594349 -0.2325433
0000e0 46 56 16 3f ad ae c6 bd 70 ff e9 3c 35 d6 39 be
       0.5872539 -0.097012855 0.028564185 -0.1814812
0000f0 81 9b a9 3e da 53 97 bc e3 e8 c5 3e fc 8a cb 3e
       0.33126453 -0.0184726 0.3865424 0.39754474
000100 ba 9a 40 bd 03 60 b5 3d c1 e2 fb bd 15 11 77 be
       -0.04702256 0.088562034 -0.12299109 -0.2412761
000110 7e 77 e4 3d 64 5f 14 be 42 85 2e 3c d9 bb b1 3e
       0.11155604 -0.14489514 0.010651888 0.3471363
000120 02 45 88 bd 1a 39 88 3e 02 ad c4 3e 6d 97 b0 3d
       -0.06653787 0.26606065 0.38413244 0.08622632
000130 43 49 f1 3e e3 b1 d8 bb 64 d2 86 3e 4a 80 53 3b
       0.47126207 -0.0066130026 0.2633239 0.003227251
000140 04 a3 8d 3e 8c 1d 12 3e 7b f8 e7 3c 41 3a 69 be
       0.27663434 0.14269084 0.028316727 -0.22776128
000150 d4 18 03 be c8 bd c0 be 4a 1d 0b 3e ef 41 8d 3e
       -0.1280244 -0.37644792 0.13585392 0.27589366
000160 af d4 f1 bd 50 d3 bb 3e 4b 3f 0b 3f 92 b9 78 be
       -0.11808144 0.36684656 0.5439345 -0.2428954
000170 69 db e4 3e 28 24 07 3f f7 c7 63 3e f3 f9 74 be
       0.44698647 0.52789545 0.2224425 -0.23923473
000180 45 b4 66 3e 1c 49 8c 3d 65 16 9d 3e 8b c7 34 3f
       0.22529705 0.06849882 0.30681148 0.7061698
000190 be 90 3c bd 73 dd 11 be bc 2e 28 3f fb 33 64 3d
       -0.046036474 -0.14244632 0.6569631 0.055713635
0001a0 d1 e0 2d be 16 44 32 be 9c 97 ef bd eb cd 85 3d
       -0.16980292 -0.17408785 -0.11698839 0.06533416
0001b0 bd ce fc 3d 22 61 58 3e b7 6e 74 3e f0 8d d7 bc
       0.1234412 0.21130803 0.2387036 -0.026312798
0001c0 33 d0 08 3e 35 3b 67 3e ae b4 3e 3e 6a dd 1e 3e
       0.13360672 0.2258118 0.18623611 0.1551415
0001d0 8f 06 38 be 04 0f b0 bd 1c ef 0c bd 22 54 99 be
       -0.17971252 -0.08596614 -0.03440772 -0.29947
0001e0 b0 72 55 3d ca 74 52 be ef 36 23 3f 99 34 9e bd
       0.052111328 -0.20552364 0.63755697 -0.07724876
0001f0 a7 3a 87 bd ad a7 2a 3e 28 b7 d7 3e e2 39 8a 3e
       -0.06602984 0.16665526 0.42131925 0.26997286

layers.1.weight f4 [128, 128]
000000 94 c2 dd 3d 98 b4 2c be b0 7e 1e 3d 12 06 e1 3d
       0.108281285 -0.16865766 0.038695037 0.10987486
000010 07 87 92 bd 75 0c c1 bd 57 66 41 3e e1 d6 67 bc
       -0.07154661 -0.09426204 0.18886696 -0.014150352
000020 92 a1 25 3d db 8d 26 bc 70 8f cd bd 3f c8 b1 3b
       0.04043729 -0.010165657 -0.10037124 0.0054254825
000030 2f 14 34 be 62 50 0b 3e ab 45 ca 3c 72 a5 53 3d
       -0.17585824 0.13604882 0.024691423 0.051671453
000040 35 26 f3 bd f1 7b 3d bd 2b f5 20 3c e1 51 f7 3d
       -0.11872522 -0.046260778 0.009824078 0.12076164
000050 f8 2e b8 3d 06 c1 38 be 89 16 7c bd 21 3e d8 bc
       0.089933336 -0.18042383 -0.06154493 -0.026396813
000060 50 86 c2 3d 28 16 47 be c9 3b 78 3d aa 2a e0 bd
       0.09498274 -0.19442046 0.06060389 -0.109456375
000070 b0 9e 46 3d 96 e5 70 bc df da 65 be f2 87 ca 3d
       0.04849118 -0.014703175 -0.22446774 0.09889211
000080 ef 6b d0 bd 77 d3 ce 3d 3a 76 01 3d 63 db ef 3c
       -0.10176837 0.100989275 0.03160689 0.029279416
000090 e1 dd fb 3d aa 13 f7 3d 3b 32 af bc 44 87 41 bd
       0.122981794 0.120642975 -0.021386256 -0.04724814
0000a0 81 a7 0c be fe c6 04 3e bf b0 68 be eb 78 82 3c
       -0.13735773 0.12966534 -0.22723673 0.015926799
0000b0 a4 92 0f 3e f6 d5 56 3d 1f 2d fa 3d aa 33 97 bd
       0.14020783 0.052450143 0.122156374 -0.07382901
0000c0 dd fb 1b 3d 04 43 ff 3c c7 d6 61 bc 9c 25 25 3c
       0.038081992 0.031159885 -0.013784117 0.010079768
0000d0 a5 80 9a bd 7e fc a4 3d c0 ba ab 3d 3c b9 47 bc
       -0.07544068 0.080559716 0.08385229 -0.012190159
0000e0 ce 09 4e 3e ef c0 d0 3d 9c 04 d8 3d 26 46 e9 3d
       0.20120928 0.10193049 0.10547754 0.11390333
0000f0 4d c6 63 bc 32 3b fc bd 6e 41 fb 3d 80 ec 15 3d
       -0.013902259 -0.12315978 0.12268339 0.036602497
000100 82 28 af bd 6d 47 c4 be 32 34 f1 3c 17 bc d0 be
       -0.08552648 -0.38335744 0.029443834 -0.407685
000110 3d 6e 57 3d 76 ce 0c be 5e d2 87 bc db 06 96 3d
       0.052595366 -0.13750634 -0.016579803 0.07325526
000120 22 c2 06 3d 80 e1 37 3e f5 34 71 bd c8 c8 d3 bd
       0.032899983 0.17957115 -0.058888394 -0.1034103
000130 7a 98 f6 bc 46 8f 3d bd 63 6f 82 bd c3 b0 91 3d
       -0.030102003 -0.046279214 -0.063689016 0.07113793
000140 83 b6 71 3d 93 17 88 3c 8b 20 42 bd 9a e6 eb bd
       0.059011947 0.016612804 -0.047394317 -0.11518593
000150 b6 24 f3 3d 86 79 d2 3d d0 3c ba 3d a2 b8 1b 3d
       0.118722364 0.10277085 0.0909363 0.038017876
000160 a7 8f a7 3c b9 7a 5d 3a 8e 15 f5 3d 31 7a c3 3d
       0.020454241 0.0008448768 0.11967002 0.095447905
000170 e3 88 34 3e df 93 77 3d ed 00 97 bd 76 e6 7a bc
       0.17630343 0.060443755 -0.073732235 -0.015313735
000180 7b f9 b4 3d 33 da 63 3d 6e 4d 0c 3e de 8e 87 3e
       0.08836647 0.055628013 0.13701412 0.26476187
000190 b8 44 0e 3e e2 ac 3a 3d 58 d2 16 3e ee 0f 3b 3c
       0.13893402 0.04557503 0.14728677 0.011417372
0001a0 67 75 5f 3d 78 4e b5 3c 43 6b be 3c f9 18 3f 3d
       0.054555323 0.022132143 0.023244506 0.046654675
0001b0 95 3c a8 3d b6 78 b9 3d f4 49 18 3d 6a ef a6 3d
       0.0821468 0.09056227 0.037179902 0.08151133
0001c0 f2 c2 94 3c fc 36 25 39 ca 53 0b 3e 1f f6 18 be
       0.018159363 0.0001575611 0.13606182 -0.14937638
0001d0 1c c4 c4 bd fc a8 06 be fb ec 3c bd db 36 19 be
       -0.096077174 -0.131504 -0.04612444 -0.14962332
0001e0 e8 d7 cd bd ca d7 2e be 45 75 47 3e c8 b0 ee bd
       -0.100509465 -0.17074504 0.19478329 -0.11654812
0001f0 54 06 8f bd e0 a2 71 3d 31 f6 5a 3e 00 95 fd 3d
       -0.06983629 0.05899322 0.21382977 0.12381935
000200 16 8b cf bd 96 2e b7 bd cb fc ff 3d fe 9e d8 3d
       -0.101339504 -0.089444324 0.12499388 0.105772
000210 49 76 14 be 65 ec 09 3d 20 ff 13 3e 22 c6 0e be
       -0.14498247 0.03367271 0.14452791 -0.13942769
000220 08 d8 07 bd bb 3c 8a bd 90 76 30 be 0d a3 7c bd
       -0.033165008 -0.06749865 -0.17232728 -0.061678935
000230 b4 b2 6d 3d 3f 05 82 bd 92 14 23 3e 03 fa ef bd
       0.058031753 -0.06348657 0.15925816 -0.11717608
000240 bc 95 53 bd b1 54 06 bd e8 7d b9 bd aa d5 2a bc
       -0.05165647 -0.03279561 -0.09057218 -0.010426918
000250 08 18 20 be 9d 1e f3 3e 2e ef 91 3b 0d d8 c5 3d
       -0.15634167 0.47484294 0.0044535613 0.09660349
000260 d4 a5 de bd d2 8c a0 bc 43 88 64 bc 19 0e 3c 3d
       -0.10871473 -0.019598398 -0.013948503 0.045911882
000270 37 77 7f 3c 47 7b ac bd ad 4e c0 3d 68 6c 5d be
       0.015592388 -0.08421951 0.09390006 -0.21623385
000280 58 59 ad be 5b a5 55 be 2c 61 94 bd 7c aa 94 bd
       -0.33857226 -0.2086386 -0.072450966 -0.0725908
000290 eb cf 8e bd de 97 54 bd f2 6e 52 3d 76 9f 9e 3d
       -0.06973251 -0.051902644 0.051375337 0.077452585
0002a0 d4 1e 41 bd 95 0d 85 3d 20 ff 10 3e 5b 0c 2c be
       -0.04714854 0.06496731 0.14159822 -0.16801588
0002b0 ba cc 9b bd 95 9a 03 be 70 84 08 bf 2f b1 7f bc
       -0.07607408 -0.12851937 -0.53327084 -0.015606209
0002c0 8b 12 9e 3d f7 3a 92 3c bc 71 d2 bc b9 ed ce 3c
       0.077183805 0.017850382 -0.025688998 0.02525984
0002d0 0a b9 cd 3d dd 35 86 bc a0 15 92 be 87 f2 12 3d
       0.10045059 -0.016383106 -0.28532124 0.035875823
0002e0 82 e2 4c 3e 2d 0d 12 be 53 d7 97 be b7 f3 ac bd
       0.20008281 -0.14262839 -0.29656467 -0.084449224
0002f0 18 fa de bb 77 be 70 bd 98 d5 f3 be cc bc 19 be
       -0.006804716 -0.05877539 -0.47623897 -0.15013427
000300 aa 8c bc 3e 27 88 32 3e e6 05 cf 3d 43 64 da 3d
       0.36826068 0.1743475 0.10108547 0.10663655
000310 66 6c d8 3d 7b 65 6b bd 7e 90 86 3d 83 41 59 be
       0.1056755 -0.057469826 0.065705284 -0.21216397
000320 bd 57 34 3d a2 82 fb 3d cc 83 69 3e 1e b0 cd 3d
       0.044028986 0.122807756 0.22804183 0.10043357
000330 59 71 7d bd 44 68 32 bd cb 9e d2 bc fd e1 f8 3c
       -0.061875675 -0.043556467 -0.025710484 0.030381197
000340 d6 42 b8 be b5 b8 b1 bd b3 13 4f bd a5 06 ca 3c
       -0.35988492 -0.08677808 -0.050555896 0.024661371
000350 e5 5e 5f be b3 fc 82 be 73 86 23 be d6 2e 47 3d
       -0.21813543 -0.2558342 -0.15969257 0.04862865
000360 3f c7 17 bd ed dc f3 3c 5e e7 21 be b4 ac 29 3e
       -0.03705525 0.029768432 -0.15810916 0.16569787
000370 ff 87 24 be 50 54 0c be 9d 92 7d 3e 5b 73 08 3c
       -0.16067503 -0.13704038 0.2476296 0.008328284
000380 48 a6 92 3a 8f d9 10 bd ec ac 15 bd 43 f0 1f 3e
       0.0011188472 -0.03536373 -0.036541864 0.15618996
000390 f5 6e a0 bd 10 fb 02 3d 47 fe 04 bd ea dc 00 3e
       -0.078336634 0.031977713 -0.03246906 0.12584272
0003a0 8e 04 46 be 98 94 aa bd 9c 7d 4a bd 34 80 13 3e
       -0.19337675 -0.08329123 -0.049436197 0.14404374
0003b0 b8 e0 5c bc 90 94 0c bd 67 57 17 3e 0f 18 87 3c
       -0.0134813115 -0.034321368 0.14779435 0.016490964
0003c0 69 3d 73 bd d2 d5 dd bc 7d 8b d3 3d ff 06 1e bc
       -0.059384737 -0.027079497 0.1032934 -0.009645223
0003d0 af f1 2a 3e 66 8a a4 bd 8d cf 0b bd f3 a0 eb 3d
       0.16693757 -0.0803421 -0.034133483 0.11505308
0003e0 8b 21 64 3e 09 35 88 3d 4c 09 d2 bd f8 35 33 bc
       0.2227842 0.06650741 -0.102556795 -0.01093816
0003f0 f2 7a 21 3e 22 f7 4b bd b8 68 51 3e 6e a3 31 3c
       0.15769556 -0.04979623 0.20450103 0.010842187
