HW9/9_gym-DDPG/results/DDPG_Pendulum-v1_2000-eps0.1-t32-l5e-05-s1-u20.pth (torch, 176234 bytes, 12 tensors)

layers.0.weight f4 [128, 4]
00000000: 4000 283f dae6 08bf 580b 3abc 28f7 7ebd
00000010: a31c fcbe f972 a33e 7030 17be 906c 2a3e
00000020: c804 cabd ac6a 2f3c b773 b23d 1448 a6bc
00000030: 3e1b f03e 83a1 8cbd 37a5 4abe 595c c3bc
00000040: f039 e9bd 72f5 973e a475 fe3e a259 85bd
00000050: 94be 80be e6d3 83bf 08e9 45be d23f 4abd
00000060: 4a77 64be 2104 223f b84c c23e ca0e 3e3c
00000070: 4798 05bf 10a5 5e3f f0d0 c23d d35f 593e
00000080: 4cbf 3b3f 16c1 47bf 3b3e 0ebf a745 cfbe
00000090: 0697 5b3f 49bd 3b3e 3d54 c33e abd6 05be
000000a0: 72fa 1b3f 4784 143e 3909 e43e 2d7c 21be
000000b0: 654b 2bbf 4cad e6be 82c4 93be 8bca 6f3e
000000c0: baad 65be 75c5 6cbf e794 ddbe 3d9f 51bb
000000d0: 0934 783e 0d73 803d e094 093f d346 e63e
000000e0: 7658 efbd b06d a5be 4ad8 b43e 2ed0 e03d
000000f0: 010a bbbe b27a 3e3f 225b 823e ad80 8d3e
00000100: 24e7 b6be b6a5 78be 109c 5b3d 731a 363e
00000110: 6417 e4be 3b3a 813d 6753 873e a1be 8fbe
00000120: 40a4 743f b9d7 a73e 3344 563e 73e7 cdbd
00000130: 1bf3 a3bd 5179 923e 9052 f5be 6474 af3e
00000140: 4917 f0be f216 20bf bd11 70bc 810b 87bc
00000150: bf5b c63e 7b8b 93bf 3658 b8be deee 6e3e
00000160: 41ac fabd b0d2 1c3f 9c95 1e3d fe61 d4be
00000170: 2f2d 8d3c 3749 57bd cda4 b3be 5e7a 14be
00000180: 7406 dfbc 0c0a 8e3d c36a 81bd 1614 babd
00000190: ad94 e93e c219 ca3d 3b6c b93e f86c ba3d
000001a0: 9b02 22bf 118b febd 0945 013f 6748 d8bd
000001b0: a198 9a3e 5b6c df3e 41e8 1a3e e4f4 233e
000001c0: 911d 003f 5db9 2fbf 760e 463c 09f7 633e
000001d0: 49aa 633e 275e 943e f207 debe 6da2 9fbe
000001e0: beb8 2ebe 3b54 503f 6b8d f43e 8164 93be
000001f0: c68b a63e 5fe1 0fbf c2f3 0bbf ae0d d0bd
00000200: 3835 293e 29d6 0c3f d659 aebe 7e57 453e
00000210: 4230 793f 132c 9d3f 2243 973e 62fb 023d
00000220: 9d01 8a3e 19c5 9c3e fb3b a6be e5c9 fbbe
00000230: 377d c4be 36a0 d0be e126 6fbe 5363 dd3d
00000240: 95ac 29be b36b c1bb 91fe 8a3e 40ab 0bb9
00000250: 548c bc3e b713 083f c57d fabd 8afb 273f
00000260: 6179 a8bd 5378 90be 2f3d f5be 8225 88be
00000270: a236 85be 0afa b23e b559 c83e 54ef 6bbe
00000280: 46fc e5be a5bc 9d3e 3c91 b63d 039b 563e
00000290: 532d d5be 8ab0 f3be 655c 1bbe 66fb b53a
000002a0: 5ef5 acbe f8a3 6dbf 3559 f2bd f709 5d3d
000002b0: 4118 243f 76e1 723f a9bd 053f e2f0 f83e
000002c0: ac9b cb3e 2ff8 f6bd 066a a0be 7dd6 353f
000002d0: f75e 55be 01b7 d2be 1f52 e4be b647 83bc
000002e0: d518 4abf afb3 98be bfe6 eebe 1d91 69be
000002f0: 6f31 6ebe 790d 80be fd67 3e3e a494 4cbd
00000300: 8cff 25be b6e0 653f 6aa7 9c3e c5c4 a9be
00000310: bff9 6a3f 3d1b 2e3f 43be fb3e 4382 45be
00000320: d0fd dc3d b478 56bd ad09 f13e edef 85bd
00000330: e3a3 0d3f 3a07 d9be 1d02 61be 7fe1 febc
00000340: 1eef 0cbd 0b67 e33e 862d 22bd 0125 6e3d
00000350: 3588 05bf 828a 2b3f 49f9 d73e b40f 943e
00000360: aad9 263f 053a 85bf 1919 77be 28f5 53bd
00000370: cc84 31bf 90de 643e e00c cdbe 734d 93be
00000380: 961f 893e 2d06 81bf fd3d 1abe 6f9d 8e3d
00000390: 86d8 f03e 8a14 433f 8d93 45be 9530 8ebe
000003a0: adfb 433f 988e 5cbf 4572 18be 8ffe 12bc
000003b0: 0aa6 c5be 788e 463f f71d 913e a03d c4be
000003c0: 3e48 05bf 5cce eb3e 9c90 2d3e d7b5 02be
000003d0: 9fd0 b7be 83c4 48bf ea0f 03bf 927d 34bd
000003e0: 859c bbbe c981 3f3f 7c2e d13e d093 81be
000003f0: 74a6 20be 2f6a ea3e f33c cdbd 5aed 83be
0.6562538 -0.5347725 -0.011355244 -0.062247425 -0.49240598 0.31923655 -0.14764571 0.16642976
-0.09864193 0.010706585 0.08713477 -0.020298041 0.46895784 -0.068667434 -0.19789587 -0.023847746
-0.11388004 0.29679447 0.49699128 -0.06511237 -0.251454 -1.0299041 -0.19327176 -0.04937727
-0.2231113 0.6328755 0.37949157 0.011600206 -0.5218548 0.86970615 0.09512508 0.2122796
0.7333877 -0.78029 -0.55563706 -0.40482828 0.8577732 0.18333925 0.38150206 -0.1307017
0.60929024 0.14503585 0.44538286 -0.15770026 -0.6691192 -0.4505409 -0.2886086 0.23417108
-0.22429553 -0.92488796 -0.43277666 -0.0031985783 0.242386 0.06271944 0.5374279 0.4497591
-0.116867945 -0.32310247 0.35321265 0.10977207 -0.3653107 0.7440597 0.25460154 0.27637234
-0.3572322 -0.24281964 0.05361563 0.17783527 -0.44549096 0.06309935 0.26430818 -0.28075126
0.95563126 0.3278177 0.20924453 -0.10053911 -0.08005353 0.28608182 -0.47914553 0.34268486
-0.46892765 -0.6253501 -0.014652667 -0.016484978 0.38741872 -1.1526941 -0.360048 0.23333308
-0.12239886 0.61258984 0.038716897 -0.41481012 0.01723346 -0.052560057 -0.3508667 -0.14499804
-0.027224757 0.0693551 -0.06319191 -0.09085862 0.45621243 0.09868194 0.36215386 0.091028154
-0.63285226 -0.124288686 0.50495964 -0.10560685 0.30194572 0.43637356 0.1512766 0.16011387
0.50045115 -0.68642217 0.012088409 0.22262205 0.22232927 0.28978083 -0.43365437 -0.3117861
-0.17062661 0.81378525 0.47764143 -0.28787616 0.32528514 -0.56203264 -0.5466882 -0.10158859
0.16524208 0.5501428 -0.34052914 0.19271657 0.9733926 1.2279075 0.29543406 0.03197802
0.26954356 0.30619124 -0.32467636 -0.4917747 -0.3837678 -0.4074723 -0.23354675 0.1080996
-0.16569741 -0.0059027313 0.27147344 -0.00013319869 0.36825812 0.5315508 -0.1223102 0.65618193
-0.08226276 -0.282168 -0.47898242 -0.26591116 -0.26018244 0.3495639 0.3913094 -0.23040515
-0.44919032 0.30807987 0.0891442 0.2095757 -0.41636142 -0.47595626 -0.15171964 0.0013884127
-0.3378095 -0.9282832 -0.11833421 0.05396458 0.6409951 0.94875276 0.52242523 0.4862128
0.39767206 -0.12059056 -0.3133089 0.7103041 -0.20837007 -0.41155246 -0.44593903 -0.016025405
-0.7894414 -0.29824588 -0.4666042 -0.22809263 -0.23261045 -0.2501028 0.18594356 -0.049946442
-0.16210765 0.89796007 0.30596477 -0.33157936 0.9178733 0.6801031 0.49168596 -0.19287972
0.107905984 -0.052361205 0.47077695 -0.06539903 0.55328196 -0.42388326 -0.21973462 -0.031113384
-0.034407727 0.44414553 -0.039594196 0.05814076 -0.5216096 0.6700822 0.42182377 0.2891823
0.6517588 -1.0408331 -0.24130668 -0.05174747 -0.69343257 0.22350526 -0.40048885 -0.28770027
0.2678191 -1.008001 -0.15062709 0.06963622 0.47040194 0.76203215 -0.19294567 -0.2777144
0.765559 -0.8615508 -0.1488734 -0.008971824 -0.3860324 0.7756114 0.28343174 -0.38328266
-0.5206336 0.46055877 0.16949695 -0.12764679 -0.35901353 -0.78424853 -0.5119616 -0.044065066
-0.36642852 0.7480741 0.40855777 -0.25308084 -0.15688497 0.45784137 -0.10021391 -0.25767022

layers.0.bias f4 [128]
00000000: b3e4 14bf 8cd5 013f 1f5a da3e fdcf 11bf
00000010: f947 a7be 52dc 81be 3a54 8cbe 6893 133e
00000020: 5490 d1be 317f c5be 3a7f 233e d85f 2ebe
00000030: 7e2c 64be 33bc 1fbf f2d8 8d3e 4448 813e
00000040: 85be 81bd 2d12 4dbe a256 3f3e 9198 a33e
00000050: 1ea4 973e d699 823e eec0 a63d eb43 03bf
00000060: 6bd9 073f b866 cdbd 8e2b 9bbe b228 223f
00000070: 18ab a03e acf1 dbbe 9fe2 513c 30ae 4dbe
00000080: ccf5 d2be 462f d13d 05e0 c3be 5858 153f
00000090: 9497 05be 995a cc3e cbbb ae3d 9ac1 7abd
000000a0: 153f 033f cc06 bdbe 2ee6 3ebc 7482 60be
000000b0: 9e40 d23e c839 74be 6234 73bc 20ac 0fbf
000000c0: e62c 2c3d 1e03 61bd 7bc0 5cbe 732d ccbe
000000d0: b062 ab3e bc64 c43d d209 b9be 6475 cabd
000000e0: 9419 913e d9a0 893e bea6 973e 6788 243d
000000f0: d9a2 a8be 19a9 d6be 43d8 2a3c b854 163d
00000100: 0308 b13e 9bf3 b7bd 8f14 403e 74d9 d0be
00000110: 5957 063f 6bfe a73e 0a90 553d ebda 173f
00000120: a5c1 933e 6301 bfbe c3c1 6dbe dac6 e63e
00000130: 4096 d03e dda4 183f 36e3 243e a9ab 033f
00000140: 836e d33e 300e 06bd 8598 8f3c d22c 113f
00000150: f748 823e d06f a7bc 7f21 b83d 4f87 253f
00000160: 4f27 ff3e 1242 153e d24b 273f 92df 583e
00000170: 9b8c 9ebe 2b64 fcbe e4fa ce3e c3cf 0b3f
00000180: 7577 d63d e2c3 b43e e7be 3fbe b2e2 5ebe
00000190: 4528 81bc 6247 c13e 0523 b6bb f1f9 fb3e
000001a0: 60d7 ac3e 822c c93e bcc6 2d3f 8716 a73e
000001b0: f445 243e 63ea 0abf 18b0 f43e 6ffa 803e
000001c0: bd91 e33e 28da b23e 06b3 0b3d 884b fe3e
000001d0: b66f 10be 5620 043f f5ab b63e dfd9 17bd
000001e0: 2a1f ad3d 8662 12be ac31 12be 7e22 3f3c
000001f0: 889c d9bd 022e eabd 647b fcbe 4b9e c6be
-0.5816147 0.5071647 0.42646882 -0.5695799 -0.32672098 -0.25363404 -0.2740801 0.144117
-0.40930426 -0.38573602 0.15966502 -0.17028749 -0.22282597 -0.62396544 0.2770458 0.25250447
-0.06335167 -0.20026465 0.18685392 0.31952336 0.296174 0.25507993 0.08142267 -0.5127551
0.5306613 -0.10029358 -0.30306667 0.63343346 0.31380534 -0.42957819 0.012810378 -0.20085979
-0.41203153 0.10214095 -0.3825685 0.58337927 -0.13046104 0.3991287 0.085319124 -0.06121979
0.5126813 -0.36919248 -0.011651559 -0.21924764 0.41064924 -0.23850167 -0.014844032 -0.56122017
0.042035006 -0.054934613 -0.215578 -0.39878425 0.3347373 0.09589526 -0.36140305 -0.09885672
0.28339827 0.2688053 0.29619402 0.040169146 -0.32936743 -0.41925886 0.010427537 0.036701888
0.34576425 -0.08982011 0.18757842 -0.40790904 0.5247703 0.32811293 0.05213932 0.5931842
0.28858677 -0.37305745 -0.23218445 0.45073587 0.40739632 0.5962656 0.16102299 0.5143381
0.4129525 -0.032728374 0.017528782 0.56709015 0.25446293 -0.020439059 0.08990764 0.6465959
0.49834678 0.14575985 0.6535007 0.21179035 -0.30966648 -0.49295172 0.4042579 0.54613894
0.10472003 0.35305697 -0.18725167 -0.21766165 -0.015766272 0.37749773 -0.005558374 0.49214128
0.33758068 0.3929177 0.6788137 0.32634374 0.1604231 -0.54263896 0.477906 0.25191066
0.44447127 0.34932065 0.034106277 0.49667 -0.14105114 0.5161184 0.35678068 -0.037073012
0.0845321 -0.14295396 -0.14276761 0.011665938 -0.10625559 -0.114345565 -0.4931289 -0.38792643

layers.1.weight f4 [128, 128]
00000000: 3e36 ed3e 45ea 513d 7b4a 193e 5e7b f73e
00000010: 3844 e53c 7e9f 95bd a7f7 f3bd a668 283e
00000020: cca0 3a3b 5848 d83c 83b8 85bd 891f 313d
00000030: 825b b5bd 27fe b4bc a8e6 71bc 4883 ff3c
00000040: 6a9b 22bc 2bde ab3d e6e8 8f3d 8130 3f3d
00000050: bc4a b33b 811f 003e 477f e63c 001b aebd
00000060: 7388 dc3d 5b9b 5bbc 885f 913d 8c9b 073d
00000070: 4dce 2dbe 6aa0 38bd 5890 943d 2ba5 de3c
00000080: 3abc f2bd 3883 2f3d 262f 383c 03c4 0c3e
00000090: f553 c3bd 5c4e 72bd 3827 ca3d 1230 aebc
000000a0: 52df 213e be32 85bc a20b 423d 408d e6bb
000000b0: e9f7 493c 977c b9bd 0338 693d 4687 43be
000000c0: 5f75 313a 5f05 f7bc cc35 413d 76c2 c4bd
000000d0: 62d1 683d 09fd 103d b137 263e b889 8fbd
000000e0: 06b6 8e3d 4281 5dbd d530 ba3d 7937 f23d
000000f0: c5c7 42bd d847 87bd 640e e33c 2295 5c3d
00000100: 295d acbd 630f 8bbd 0491 8c3d 5837 e03d
00000110: b62e ac3d 75d2 333d 6d68 7ebc 8084 943d
00000120: f891 103e 6bc0 19bd 3c4b eabc 8041 ad3d
00000130: 2ca3 4d3d 0865 e63d b049 1a3d 981e 273d
00000140: 78f7 1d3e 528d a43d 5c6a 623d 0aa0 35bd
00000150: b67a fd3d 1f83 f93d 7952 f93d 7705 1c3d
00000160: fa2c 883d 6cdd 3bbd f4b8 0f3e 20c3 e93d
00000170: 2da8 da3c 1c61 2ebe 9421 1c3e d6cc b43d
00000180: b7e4 e03d 448b 81bc 027c 3f3d da3c 84bc
00000190: 8d2e 23bd ebd5 353d f2ac 4b3d 2ee9 323d
000001a0: 8774 b9bc fd4b 103e 7ef6 e23d a027 e43d
000001b0: 53cd b93d fce4 0a3d 6063 cc3d edf4 b43d
000001c0: e5d1 033e 2df9 30bd 0231 debb 2c84 a53d
000001d0: a764 933d 79f4 1d3e 178a 523c a7e6 f13c
000001e0: e796 84be 32cb 18bc 6044 473e 11d4 84be
000001f0: 4656 e03c 54fb 833d 977d a0bc 59fc 553d
00000200: 3413 f23e 76bd e93d 419a 053c 7cfd 003f
00000210: 3e97 10be 6d73 16bd be2e a1ba 8a30 363d
00000220: 63e9 a43d cd27 dc3b 8c95 9abd 3657 8abc
00000230: acd1 61bd ae3d b6bc 92ae 1fba d5db ac3d
00000240: 4430 d6bd f9f1 babd 81df 953c 2fa6 6ebd
00000250: 5bc4 343e 9dce a13d ff79 5bbc 8f5e 13bd
00000260: c087 7e3d c688 d23c 602f ea3c c77f d93d
00000270: 421d a2bd 833d 86bd 97dc 003d e700 fbbc
00000280: 2b79 48bd f87c fe3d 81b2 a53c abb9 513e
00000290: 6935 0bbe 8dc0 34bc 4bc5 333d a484 ab3d
000002a0: b221 013b 0cef d8bd 6083 033e 4839 50bd
000002b0: c9e5 f23c 56dc 77bc 22ac 9dba c335 87be
000002c0: 65ee e63d 0882 0d3e dfc4 7f3c 82c4 41bd
000002d0: 965d 513e 8f1e d83d 87a0 3b3e c22a 453d
000002e0: 16ba 133d 0292 77bd 0ed1 8f3b 4e42 0b3d
000002f0: b588 19bd e0d0 2ebd 6e76 a63d d2cf 463d
00000300: 5496 c9bd e36e 17be b588 4e3d fc7a 95bd
00000310: 1e75 bf3d 850c cc3c 4ee1 a6bc 327d 3c3e
00000320: 88b2 e33d c27d a5bd 3a9b 4cbd b0bd 983d
00000330: 543e 013e 56d4 3f3c e912 58bd 5c4e ae3d
00000340: 5002 a13d b38d a93d 2a8e 94bd a909 2b3c
00000350: d301 9b3b d8ff 8f3d fa19 753d b0ff b53d
00000360: abe7 20bd 0170 84bd 2cba ef3a de43 92bd
00000370: d50c b63d 79cb 5dbe bfc1 3a3d 4861 c73d
00000380: e304 c13d d31b be3d 567f 2fbd 2366 a8bd
00000390: 612e 8a3d b121 313e d6d6 a3bd 0b15 93bc
000003a0: 1ed9 8c3d ac0c aa3d a368 413d ffc4 a13c
000003b0: d628 c0bc eff0 023b 2b97 99bc 909a 8bbd
000003c0: 05b5 0b3d 7230 82bd 6ede 0d3d e341 123d
000003d0: 23f9 863d f59a 563d 9849 bb3d d19f c73d
000003e0: 33b1 78be 2728 4d3d aa70 543e 0581 3bbe
000003f0: 59e1 c13d 2bd8 b93d 2133 89bc d17d b6bc
0.46330446 0.051248807 0.14969818 0.4833631 0.02798663 -0.07305811 -0.1191247 0.1644617
0.002847719 0.026401684 -0.065293334 0.043242965 -0.08855344 -0.022093846 -0.014764465 0.03119053
-0.009924749 0.083919846 0.07026844 0.046677116 0.0054715555 0.12512018 0.028136862 -0.085012436
0.10768213 -0.013403739 0.07098299 0.033107325 -0.16973229 -0.045074858 0.07254094 0.027178368
-0.118523076 0.04284975 0.01124171 0.13746648 -0.09537498 -0.05915676 0.09870762 -0.021263156
0.15807846 -0.016259547 0.047374375 -0.0070358813 0.012327173 -0.09056967 0.056938183 -0.19094571
0.0006769504 -0.030153928 0.047170445 -0.09607403 0.056840308 0.035397563 0.16232182 -0.0700869
0.06968312 -0.054078348 0.09091345 0.11826987 -0.047553796 -0.066055 0.027716823 0.05385316
-0.084162064 -0.06790044 0.06863597 0.10948056 0.08407347 0.04390188 -0.015527827 0.07251835
0.14118183 -0.03753702 -0.028600328 0.08459759 0.05020444 0.11249739 0.03766793 0.04080066
0.15426433 0.08034767 0.055277213 -0.04434208 0.12376921 0.121832125 0.121739335 0.03809115
0.066492036 -0.04586546 0.14035398 0.1141417 0.02669152 -0.17029232 0.15247184 0.08828132
0.10981124 -0.015813477 0.046749122 -0.016142298 -0.039839316 0.04439346 0.04972548 0.04367941
-0.022638572 0.14091487 0.11082171 0.1114037 0.090723656 0.033909783 0.09979892 0.088357784
0.12873037 -0.043206383 -0.0067807445 0.080818504 0.07196932 0.1542529 0.012850306 0.029528929
-0.2589638 -0.009325789 0.19459677 -0.25943044 0.027384888 0.064444214 -0.019591136 0.05224261
0.47280276 0.1141309 0.008154453 0.50386786 -0.14120194 -0.036731172 -0.0012297255 0.044479884
0.080523275 0.006718612 -0.07548055 -0.016887289 -0.0551316 -0.022246208 -0.00060913817 0.08440367
-0.10458425 -0.09128184 0.018295052 -0.058263954 0.17653029 0.079007365 -0.013395785 -0.03597885
0.06214118 0.025699984 0.028587043 0.10620075 -0.07915737 -0.06554701 0.03146037 -0.030640079
-0.04894368 0.1242618 0.020226719 0.20480983 -0.13594593 -0.011032236 0.043889325 0.083749086
0.0019703922 -0.105924696 0.12843084 -0.050835878 0.029650586 -0.015128216 -0.0012029449 -0.26408204
0.11275939 0.13819134 0.015610903 -0.047306545 0.20445856 0.105527036 0.18322955 0.04813648
0.036066137 -0.06044198 0.004388935 0.03399878 -0.03748389 -0.042679667 0.081280574 0.048538037
-0.09843126 -0.14788394 0.050423343 -0.07298848 0.0934851 0.024908314 -0.020371106 0.18407133
0.111180365 -0.08080627 -0.049952723 0.07458055 0.12621433 0.01170834 -0.05275241 0.085110396
0.07861769 0.0827898 -0.07253678 0.010439315 0.004730442 0.0703122 0.059839226 0.08886659
-0.039283436 -0.064666755 0.0018289736 -0.07141851 0.08889166 -0.2165965 0.045594927 0.09735352
0.0942476 0.09282651 -0.042846046 -0.08222606 0.06747127 0.17298009 -0.07999961 -0.01795437
0.06877349 0.08303198 0.04721893 0.019747255 -0.023456972 0.0019980033 -0.01874884 -0.0681659
0.03410818 -0.063568965 0.034635954 0.035707366 0.06590488 0.052393872 0.09144896 0.097472794
-0.24286346 0.05008712 0.20746103 -0.18310936 0.0946681 0.09074434 -0.016748013 -0.02227679

layers.1.bias f4 [128]
00000000: 598d 013e 8ad4 153d 9866 933d 1e8c 3a3c
00000010: 771f 0dbd 1224 933d dd11 b13c 4ff7 a6bc
00000020: 2906 3e3e 745b f13d 676f cb3b ea58 113e
00000030: 54c8 8fbc 5c32 b33d 1f4c b13c 78d2 c63d
00000040: 919d 223e 24b0 e0bd 5500 81bd 9106 113d
00000050: c3f6 533e 11f4 c53d 76b8 8bbd 17a4 523e
00000060: aa89 553e 1fa6 b73d a05b b13d b396 cd3d
00000070: 4042 ae3d 0e07 ef3d d731 473d 8804 103d
00000080: d990 a33d cb72 3d3e c0d4 983d ac24 de3d
00000090: 5528 9d3c a7a8 bc3d 90d6 65bd 7eb7 583e
000000a0: b645 3ebd c71d 123d 7369 283d ff59 0f3d
000000b0: 52fa 153a 3bb4 1c3e ba0e 9d3d c7d3 f93d
000000c0: cf4a 1a3e 33d6 c53d 88bc fabd 5e3b d93d
000000d0: a7ce 133e eae4 103e 31f3 0d3e 4613 643e
000000e0: 233d 353e 29e3 113e 8735 973d a8c9 283d
000000f0: 2a46 253e 97b6 99bd 6860 9c3c f855 063d
00000100: 6dd1 07bd fc48 373c 6f1f 243e 9660 f03d
00000110: 40a7 193e d7ac 0f3e 57f8 523c 3173 1d3e
00000120: 4cb7 b13c 009c 323e 036a 953c c2be 263e
00000130: acd4 383e 9f17 05ba e9e5 893d 94d3 083e
00000140: d83a 7b3e dd86 b23d ca50 1e3e 29a0 723d
00000150: 9301 8ebd 5a2c 343e 28a9 b8bb 19ce 083d
00000160: e97a 143e f8c0 0a3d 89ba ef3d 4b92 d33c
00000170: 9abd dc3d 9500 143e 60a6 203e 24d7 8fbb
00000180: 128e 043e f6f6 d93d d7db 613d 0394 dc3c
00000190: d19f 3cbd ea1b 273e 03ff ae3d a0cc bd3d
000001a0: 425c da3d f8c1 2d3c 0cab ce3d 1ed2 4d3d
000001b0: d432 653d 8f80 9f3b ee0d 323c ee68 dd3d
000001c0: 03b9 1a3e 17e5 f43d 7eb1 be3b c583 3c3d
000001d0: 64e2 513d 6595 a73d 5df2 c13d 41a7 8d3d
000001e0: d77a 14be 000b 023d 07c9 be3d 2b38 233e
000001f0: 652d d63d 2802 f6bd 89aa ee3d ea1a 1b3e
0.12651576 0.036579646 0.071973026 0.011385946 -0.034453835 0.07184614 0.021614963 -0.020381598
0.18557037 0.117850214 0.0062083486 0.14194074 -0.017551579 0.0874984 0.021642743 0.097081125
0.1588042 -0.10971096 -0.062988915 0.035406653 0.20699601 0.096656926 -0.068222925 0.20570408
0.20853296 0.08967232 0.08660054 0.10038509 0.0850873 0.116712674 0.048631515 0.03516057
0.07986612 0.18500821 0.07462454 0.10846838 0.01918427 0.092118554 -0.056112826 0.21163747
-0.0464532 0.03567293 0.04111619 0.034997936 0.00057211996 0.15303127 0.076688245 0.121985964
0.150676 0.09659996 -0.12242991 0.106070265 0.144343 0.14149824 0.13862301 0.22272977
0.17699103 0.14246811 0.073832564 0.04120794 0.16140047 -0.075055294 0.019088939 0.03279683
-0.03315871 0.011186834 0.16027616 0.11737172 0.15005207 0.14030777 0.012876592 0.15375973
0.021693848 0.17442322 0.018239027 0.16283706 0.18049878 -0.0005077067 0.06733305 0.1336196
0.24534166 0.087171294 0.15460506 0.059234772 -0.06933894 0.17595044 -0.0056353994 0.033399675
0.14500012 0.033875436 0.11705501 0.025826594 0.10778351 0.14453347 0.15688467 -0.0043896604
0.1294482 0.10642807 0.055141296 0.026926046 -0.04605085 0.16319242 0.085447334 0.09267545
0.10662128 0.010605328 0.10091218 0.05024921 0.055956677 0.0048676203 0.010867579 0.108110294
0.15109639 0.11957758 0.0058194986 0.046024103 0.051241294 0.081827916 0.09470055 0.06916667
-0.14499985 0.03174877 0.09315687 0.15939395 0.10457877 -0.1201213 0.11653621 0.15146986

layers.2.weight f4 [64, 128]
00000000: 9d34 0d3c 2791 493d b548 a63d f235 123d
00000010: 5c1d 6abd 84b4 d13c 0a1d 8e3b 8534 983d
00000020: ff30 4d3d 20f5 10bb 4764 173c a464 0a3d
00000030: b6e9 b83d 57a4 403d 5610 8a3c 6332 433d
00000040: e410 4e3d 1078 6d3d cc62 16bc 52c3 f43c
00000050: 0dcd 23bc c6b0 803d 1233 1dbd d4c1 123c
00000060: ac23 1fbd f26a 53bc 10cc 023d 7e99 163b
00000070: d171 babd 1db2 153c 39bb 2dbd 5d5a 00b9
00000080: 5827 d13c b874 13bc f649 223d 67b6 adbd
00000090: 510c f93b 4b03 8a3d f5b8 78ba 32b7 8f3d
000000a0: 79b0 22bd 4ba2 da3c b815 9abd 5653 7abc
000000b0: 4777 6cbd d961 0e3d eb49 0e3d c485 a2bc
000000c0: d2ef 5dbd a620 42bd 81a1 2f3d 932b 0cbd
000000d0: a31a bcbd eb66 713d 7b9f c03b 0d5b 5b3d
000000e0: 1c79 033d 73bf 72bc b552 a2bd a179 07bc
000000f0: ae5a 10bc 01f1 dc3c 7404 b3bd daef 46bc
00000100: 1181 92bd ee64 4fbd f132 aabd bb09 7f3d
00000110: 230c 923d 9ec0 3dbd 3531 2dbd 916e 373d
00000120: 64ef b6bb d0b1 c2bc b299 98bc 88c3 b2bd
00000130: d04e 84bd 7f1c 653d 721b 80bd 6581 403d
00000140: 6433 1abd 83f0 83bd 1c50 3cbd 6db2 463d
00000150: 5dec b3bd 011a 003d b43b cb3c d483 d93c
00000160: ebd1 a4bd 0da5 85bd 175c aabc 547a 12bd
00000170: edc7 07bd 0e10 d73c 5a5f 203d 8fb6 863d
00000180: ba48 4fbd f1ad 57bd c4cb 9a3d 6116 56bc
00000190: 1877 d4bc 8a89 3f3d 9c1b 93bd 1083 063d
000001a0: 3a57 30bd d08d bebb 0901 26bd a21f 91bd
000001b0: 9fe4 73bc 4498 633c f621 32bd 9135 283c
000001c0: 89bc a1bd 9135 81bd 0f02 0c3d 7cc2 833d
000001d0: a767 2b3d 4049 7fbd dc0a 633d 0c0f 6abd
000001e0: 1df1 1f3d 75c1 373c cf43 d0bc 2c90 a0bd
000001f0: 9465 a3bd a28d b9bd 1bcb 90bc 899b 843d
00000200: a9fc 823d 5a20 c63d 9e66 ebbd 2ff0 cb3d
00000210: 8610 b23d f4cc 223e 911c a03d 25e9 e33e
00000220: 2ab9 e53d 6894 4e3c 7e57 ebb6 1634 0cbe
00000230: e932 943e 861f 7d3e abcc 943d 85bb 31bb
00000240: 5e0b 253d 3ae2 a53e e064 8fbd 5d70 253c
00000250: 43e0 88bd dc33 5d3d 230f 173d f16d 2e3e
00000260: aae3 b33b 2335 83be 1be5 55be 50da 2a3c
00000270: c121 1cbe 286f 573d 902e b33c 3f8e cf3d
00000280: 7740 8d3c 9eaa 993c 91fb 873b beb6 423d
00000290: 6ae5 813d ccda 8d3a ce6e 1d3f db7d 20bd
000002a0: ca67 eb3d 1558 95be 44e8 8c3d 35f8 e03b
000002b0: 3335 00bd e9dc 8a3d 3d62 3dbd 5b53 52bd
000002c0: e78c a2bc 2abe f53c 5054 873e 5349 923c
000002d0: 2d5c d13c 76b5 84bd 8f45 a83c d086 a3bd
000002e0: ed5f b5bd 124b 13be 1d77 88bd 422d fc3c
000002f0: 30aa 11bd 67ea 503e 4fb7 c13d 13b5 6b3e
00000300: 991c ab3d 51cd db3d ef9e 04bf 06f0 e2bc
00000310: e60a b63d 5f96 063d ad8b 3d3d ab6f ca3d
00000320: e06a ac3d 4117 bf3b 3519 0abd 6270 45bd
00000330: af5d d2bc 3b2b ac3b 6573 743d 817a d5bd
00000340: 3f66 ed3d 15fe 74bd 000f 263d 56fe 69bd
00000350: cf2b 263e c6d5 b0bd b9b9 7d3d 2e7b adbd
00000360: a8d1 fd3b 220b 8d3d 6a11 143a 9420 593d
00000370: 37d0 123d 67aa ea3c d356 623d ebd1 033d
00000380: dd7a 98bd 191b db3d 97f8 423d b64f 1fbc
00000390: b5c4 ce3d a722 013c 7b63 4e3d 1179 7c3d
000003a0: 42d8 a23a cd36 c83d 1f0a bb3d 69d2 7bbd
000003b0: 6187 82bd 4f27 453e 5547 0a3e b31d 2bbe
000003c0: 5869 59bb bec7 ae3d 6b06 2c3e 813d 5fbd
000003d0: d46e 02bc ade8 9fbc 0196 74bd 28cf 53bc
000003e0: dd33 433e 1bbd 2fbc 87e3 10bd 02ca bd3a
000003f0: 80f9 f13b 5e3a 7a3e 49e4 193d 27f5 dbbd
0.008618501 0.049210694 0.081193365 0.035695978 -0.057156906 0.025598772 0.004336958 0.07431892
0.050095554 -0.0022118762 0.009240217 0.033787385 0.09028952 0.047031727 0.016853493 0.047655474
0.050309077 0.05797583 -0.009178828 0.029878292 -0.009997618 0.06283717 -0.038378783 0.008957345
-0.03885238 -0.012903916 0.03193289 0.0022979672 -0.0910374 0.009136704 -0.042414878 -0.00012240694
0.025531456 -0.008999996 0.039621316 -0.08482056 0.007600345 0.06738909 -0.000948801 0.070173636
-0.03971908 0.026688715 -0.07523674 -0.015278658 -0.05773094 0.034761284 0.034738462 -0.019839175
-0.05418379 -0.047394417 0.04287863 -0.034221243 -0.09184768 0.05893604 0.0058783866 0.05355363
0.03209792 -0.014816153 -0.07925931 -0.008268745 -0.008810682 0.026970388 -0.08741084 -0.012142146
-0.07153524 -0.050633363 -0.083104976 0.06226514 0.07131221 -0.046326272 -0.042283256 0.04478318
-0.005582737 -0.023766428 -0.018627975 -0.08728701 -0.06460345 0.05593538 -0.06255235 0.0469984
-0.037646666 -0.06442358 -0.045974836 0.048510004 -0.08785317 0.0312748 0.024808742 0.026552118
-0.08047851 -0.065256216 -0.020795865 -0.035761192 -0.03314965 0.026252773 0.039153434 0.06577789
-0.050606467 -0.052656118 0.075583965 -0.013066859 -0.025935695 0.046762027 -0.071830004 0.032839835
-0.043051936 -0.005815245 -0.04052833 -0.070861116 -0.0148860505 0.013891283 -0.04348942 0.0102666775
-0.07897288 -0.06309045 0.03418165 0.06433579 0.041846897 -0.062325716 0.05543028 -0.057143256
0.039048303 0.011215557 -0.025422959 -0.078399986 -0.07978359 -0.090602174 -0.017674973 0.064749785
0.06395847 0.09674139 -0.11494182 0.09957921 0.08694558 0.15898496 0.078179486 0.44513813
0.11216958 0.012608625 -7.013731e-06 -0.13691744 0.2894509 0.24719056 0.072656 -0.0027119827
0.040294044 0.3239916 -0.07001662 0.01009759 -0.066833995 0.054004535 0.03687967 0.17034127
0.005489786 -0.25626478 -0.20888178 0.010428026 -0.15247251 0.05259624 0.021872789 0.10134553
0.017242653 0.018758114 0.004149862 0.047537558 0.063425854 0.0010822653 0.614972 -0.039182525
0.114944056 -0.29168764 0.06880239 0.006865526 -0.031300735 0.067804165 -0.046236265 -0.051349025
-0.019842578 0.029997904 0.26431513 0.01785723 0.025556648 -0.064799234 0.02054098 -0.07984698
-0.08856187 -0.14384106 -0.06663344 0.0307833 -0.035562694 0.20401917 0.094587915 0.23018293
0.08355064 0.1073252 -0.51805013 -0.027702343 0.088887975 0.03285825 0.046275783 0.0988458
0.08418822 0.0058316295 -0.033715446 -0.04820288 -0.025679437 0.005254177 0.05968036 -0.104237564
0.115917675 -0.059812624 0.04054165 -0.05712732 0.16227649 -0.08634524 0.061944697 -0.0847076
0.0077459402 0.06886889 0.0005648347 0.053009585 0.0358431 0.028645707 0.055258583 0.032182615
-0.07445309 0.10698528 0.047600355 -0.009723594 0.10096113 0.007881797 0.05038784 0.061638895
0.0012424069 0.097760774 0.0913279 -0.06147996 -0.06373478 0.19253276 0.13503774 -0.16710548
-0.0033174362 0.085341915 0.16799323 -0.054502014 -0.007960994 -0.019520128 -0.059713367 -0.012927808
0.19062753 -0.010726239 -0.035373237 0.0014479759 0.007384479 0.24436328 0.037571225 -0.107401185

layers.2.bias f4 [64]
00000000: e6f8 0b3d 7356 bd3d 200a 82bd f708 eb3a
00000010: 0fcc 183d 4d43 003e 4ed1 38bd e193 b53c
00000020: 5499 d33c a732 87bc 90d5 973c a774 cf3d
00000030: eccb 803c 3715 d23c 3b6a 453e 1a86 a23d
00000040: f558 7c3c 0154 c23d 7bb0 613e b045 913d
00000050: 414e e53d fd7f 2b3d ff79 68bd 94f5 cc3c
00000060: 1263 2e3d 9008 3bbb 303e 29bd 3956 a93d
00000070: b9c9 153e f9cb bc3d fb0d 9dbd 2d2d 013e
00000080: 53be b6bd 441a 193e 7baa fb3c d097 943c
00000090: f848 653d 058c be3d 17c6 003d 71b4 9c39
000000a0: bff2 11bc dae1 27bd 853b b03d cea4 0e3e
000000b0: e16c 133e 27c4 1f3e dba8 f4bb 2902 443b
000000c0: 6b49 093e cb99 5ebc 0404 563c 342c 4b3d
000000d0: 70b5 173e fc95 0e3e 7903 b63c 87a6 833d
000000e0: 1b9f a7bc 55be 93bd b44c d6bb c1f0 8ebc
000000f0: a354 083e 26e9 613d d2be cc3d 8895 8fbd
0.034172915 0.092450045 -0.063495874 0.0017931749 0.03730398 0.12525673 -0.045121484 0.02216524
0.025829948 -0.016503645 0.018534452 0.101296715 0.015722238 0.025644882 0.19278805 0.07935734
0.015402068 0.09488679 0.22039978 0.0709337 0.111965664 0.041870106 -0.05675697 0.025019445
0.04257495 -0.002853904 -0.041319072 0.08268399 0.14627732 0.09218592 -0.07668682 0.1261489
-0.0892302 0.14951426 0.03072094 0.018138796 0.05597779 0.0930405 0.031438913 0.00029889078
-0.008907973 -0.040986873 0.086051024 0.13930055 0.14397003 0.1560217 -0.007466418 0.0029908514
0.13406913 -0.013586472 0.013062481 0.049602702 0.14815307 0.13924402 0.022218453 0.06428247
-0.02046161 -0.07214037 -0.0065399054 -0.017448785 0.13313536 0.05515399 0.099973336 -0.07010943

readout.weight f4 [1, 64]
00000000: 4f1b aa3d 7fe2 913e 8cc4 903e 8b94 52be
00000010: 80b6 11be 4865 79be cb07 383d 5ab3 ee3d
00000020: 16c3 04be 8a52 893d 721b 6fbe b9a2 70be
00000030: a65c 783c b82a 8c3c 467f 86bf ef7e 0b3d
00000040: 2a99 2b3d 3fc8 243f 234a 8dbf cc1a 58be
00000050: 2f64 6abe f216 27bf 60de 2b3b 485b 8f3e
00000060: 46f8 51be da4f 29bd 44b6 54bd eea7 4e3e
00000070: 815e 88be 0d0c 78be 10cf a23c f8c7 31be
00000080: 728b 3f3d 98cc 16be 3546 6d3f 2aa7 4ebe
00000090: 827b 8f3d 2940 31be 88fa a9bd 1a4b 38be
000000a0: d287 db3d 2618 153c 68ee dd3e f4ba 37be
000000b0: d780 22be c96a 30be f59c b13d b357 80be
000000c0: 6926 1bbe 485e 3a3c 0459 47be 15d6 4b3e
000000d0: 62ab 61be 34ff 4e3f 42a0 27be fe2d 68be
000000e0: 9ba5 ec3c cd05 c43e df95 34be f57b 5a3d
000000f0: a16f 6b3f ec67 47ba 364d 2c3f ff14 0d3f
0.0830599 0.28493115 0.28274953 -0.20564477 -0.14229774 -0.24355042 0.044929307 0.11655302
-0.12965044 0.06705196 -0.23350313 -0.23499574 0.015158808 0.017110214 -1.0507591 0.0340566
0.041894116 0.6436805 -1.103825 -0.21103972 -0.2288978 -0.65269387 0.0026225075 0.2799933
-0.20504865 -0.041335918 -0.051931635 0.20181248 -0.266346 -0.24223347 0.019874126 -0.17361438
0.046763845 -0.14726484 0.9268525 -0.20180956 0.07005979 -0.17309631 -0.08299738 -0.17997399
0.10719265 0.009099996 0.43345952 -0.1794241 -0.15869461 -0.17228235 0.08672515 -0.2506691
-0.15151371 0.011375017 -0.1946755 0.19905885 -0.22038034 0.8085816 -0.16369727 -0.22673795
0.02888756 0.38285676 -0.17635296 0.05334087 0.9196721 -0.0007606733 0.67305315 0.5511016

layers.0.weight f4 [128, 3]
00000000: d22e 233f 74c9 123f ca37 1b3f c122 1ebf
00000010: 18f5 393f 5e5a 22be 9116 8abc e854 7fbd
00000020: 1f51 1abf 3c63 8e3e aee8 83be 7dca 2c3f
00000030: ef87 80be 61b1 9ebe 4d56 fc3e af16 43be
00000040: 85dd 33bf 5a74 5e3e 35cb f0be 8f38 24bf
00000050: 3b49 923e b5cf 90be fe15 f23d 83f9 183f
00000060: f505 ccbe bfcd 123d 073c 2f3f 8c0d 11bf
00000070: 113d e03e d388 d83d 97c1 c93e 16d1 57bf
00000080: 9ca1 7ebe 3a45 db3e b506 b3be ed98 debe
00000090: b536 0dbe 5c9c c93e 2cd5 41bd 2265 c33e
000000a0: 2566 1abf 8bf5 013f db91 fe3e 8b9d 13bf
000000b0: d743 2abd 4ec9 00bf c88f 44bf 04a9 8f3d
000000c0: 4e4d 30bf 9543 363f 08fe 053f 7657 0fbe
000000d0: 308d fc3c ada2 aabe 0f13 c33e b718 e33d
000000e0: 377a b43e cf69 c5bd a623 1fbe c619 d6be
000000f0: 6780 f43c dd07 2d3f 0564 9a3e 99a0 f5be
00000100: a3b9 233f 412b 833e d484 f53c c980 c73d
00000110: 0db0 10bf 95fd 15be a003 debe bfed 8cbe
00000120: 81a7 fd3d abba 02bf 0d4a efbe f05a c0be
00000130: 15c3 5e3e 30a7 0b3e 8a87 8f3d d5f1 f6bc
00000140: 3216 183f 69c1 d43e fa7b b4be b3f4 ffbd
00000150: 2106 0abf afaf 163e d9e5 9c3d dbd2 f6be
00000160: 086c 093f 7953 16bf 5224 d4be dce0 f73e
00000170: 9a26 2f3f 0ea8 d3bc 755c 263f 62d1 1fbd
00000180: 4888 fe3d ccce bebe 27ac d6be e1a6 003f
00000190: fda0 1d3f b633 0a3f 6438 e1be bf9c 9a3d
000001a0: 3f16 bc3e 8e4a 033f 0182 363f da28 a23d
000001b0: d085 623e 2770 3d3f 91c5 0f3e 6804 0ebe
000001c0: 31d6 9d3b 0665 d1be ba58 2bbf 0ea2 cdbe
000001d0: 9744 80be 6b41 2d3f c812 1bbf 13d4 cbbe
000001e0: 4b6c ed3c 0161 7a3e 8483 c2be 502a 13bf
000001f0: b4e6 30bf fa93 28be fd40 403e 819f 5b3f
00000200: cfea 80be 8362 4b3e 54a6 aabd 058b c8be
00000210: 9c39 43be 7f67 d4be eaf1 913e d221 313f
00000220: 051c 5abf 26f9 08bf 1039 083e feae 283f
00000230: 57d6 0dbd 54d0 f9be 18e4 a0be 2fd6 0abf
00000240: 0b4e cdbc 2a8f 423f c2eb b83e 8229 b2be
00000250: 7c3a 473f 01d0 313e 0682 02bd d559 c23e
00000260: 668a edbe ba8f 70be c024 1b3f 76d4 503e
00000270: cbbb 8cbe 9aeb 40bf a715 bcbe ad03 d6be
00000280: bc3e cbbe 02f0 d0bd aa3a f83e c72e d73e
00000290: 9e24 393e 0838 133f d996 3f3f a0d5 853e
000002a0: e559 853e 7b51 c0be 6bf5 923e 2fc9 cc3e
000002b0: 1b80 1ebe daa4 06bf ec91 03bf ee56 debe
000002c0: 8d8a 33be 3b90 15be d4ef eb3e 2982 b4be
000002d0: 2d0a de3e 885f d13e 2376 f2be edca 9cbe
000002e0: 3ae3 f43e 8ac9 643e 2a8a 0ebf 8ec4 db3d
000002f0: de31 2bbb c630 923d 7b7f 133f 887b 273e
00000300: 252f 7ebd dce7 083f 226e b93e 9625 c8be
00000310: b55c 87bf bc9c 8fbe 8328 483e 436f 7b3e
00000320: b360 e13e d001 14be ed75 2e3f 2373 4dbe
00000330: 5085 993d b303 0ebf 9864 f3be e22b 573e
00000340: 4382 103f e43d 0fbf d7d0 f1bd 4a5c dcbd
00000350: 06dd 3c3f 3cb9 9fbe 2968 a73e 20bf e7be
00000360: 24d7 72be 2364 7fbe bbf9 4bbe d806 583f
00000370: 3381 b63e 42aa 1d3e ab94 74be 8c6a 393f
00000380: 603b 083e d750 d5be 941f d73e 65b7 f3be
00000390: 6401 bb3e 6198 68be 10ef a93e 5afc 87bc
000003a0: 4c43 283f 5ae2 283f 99c5 54be a4f7 dd3e
000003b0: f777 bb3d e7a1 28bf 471a b73e f35b b73d
000003c0: fbbe e73d 07e1 30be aa66 7ebe 1be3 bbbe
000003d0: 0859 f03e 4c39 0a3f 6a7a d1be 35a7 85be
000003e0: a07f 22be 2a48 ddbe 2ed0 71bd bd3f 05bf
000003f0: 4158 223e 5964 5a3f 315f c83e f684 033e
0.6374332 0.57338643 0.60632 -0.6177178 0.7263961 -0.15854785 -0.016856464 -0.062336832
-0.6028003 0.27810085 -0.25763458 0.6749647 -0.2510371 -0.30994704 0.49284592 -0.19051622
-0.70259887 0.21724072 -0.47030035 -0.641488 0.28571495 -0.28283468 0.11820601 0.59755725
-0.39848295 0.035840746 0.6845097 -0.56661296 0.4379659 0.10572972 0.3940551 -0.84303415
-0.24866337 0.42826253 -0.34966055 -0.43476048 -0.137904 0.39377105 -0.047322437 0.38163096
-0.6031211 0.50765294 0.49720654 -0.57662266 -0.041568603 -0.50307167 -0.7678189 0.07014659
-0.6886796 0.7119687 0.52340746 -0.13998207 0.030829042 -0.33327237 0.38100478 0.11088698
0.35249493 -0.09639322 -0.15540943 -0.4181654 0.029846383 0.67590123 0.30154434 -0.4797409
0.63955134 0.25618938 0.029970564 0.09741361 -0.5651863 -0.14647515 -0.4336214 -0.27525136
0.123854645 -0.5106608 -0.46736184 -0.3756938 0.21754105 0.13637996 0.07008274 -0.030144611
0.5940887 0.4155381 -0.35250837 -0.124978445 -0.539156 0.14715455 0.076610275 -0.48207745
0.5368047 -0.5872112 -0.4143396 0.48413742 0.68418276 -0.02583697 0.6498483 -0.039018042
0.12428337 -0.37267148 -0.41928217 0.50254637 0.61573774 0.53985155 -0.43988335 0.07549428
0.36735722 0.51285636 0.7129212 0.07917948 0.22121358 0.73999256 0.1404021 -0.13868868
0.0048167934 -0.40897387 -0.6693226 -0.401627 -0.2505233 0.67677945 -0.6057553 -0.39810237
0.028982302 0.24451067 -0.37990963 -0.5748644 -0.69102025 -0.16462699 0.18774791 0.8579026
-0.25179145 0.19861798 -0.08332506 -0.39168563 -0.19064945 -0.4148521 0.28504878 0.6919223
-0.85199004 -0.5350517 0.13303018 0.65892017 -0.03462824 -0.48791754 -0.31424022 -0.5423307
-0.025061628 0.759997 0.3611737 -0.34797293 0.77823615 0.17364503 -0.03186228 0.3795916
-0.46394652 -0.23492327 0.6060295 0.20393547 -0.27487025 -0.753595 -0.3673527 -0.4179968
-0.396963 -0.10202028 0.48482257 0.42027876 0.18080375 0.5750737 0.7483955 0.26139545
0.26045147 -0.37562165 0.28702864 0.3999724 -0.15478556 -0.52595294 -0.51394534 -0.43425697
-0.17533322 -0.14605801 0.46081412 -0.35255554 0.43367139 0.40893197 -0.47355756 -0.3062357
0.4782961 0.22342506 -0.5567957 0.10730849 -0.0026122252 0.07138209 0.57616395 0.16355717
-0.06205668 0.5347879 0.36216837 -0.39091176 -1.0575167 -0.28049266 0.19546704 0.24554162
0.44019088 -0.14453816 0.6814869 -0.20063452 0.074961305 -0.55474395 -0.47537684 0.21012834
0.56448764 -0.5595381 -0.11807411 -0.1075979 0.73774755 -0.3119601 0.32696655 -0.45263004
-0.23714882 -0.24940543 -0.19919483 0.8438544 0.35645446 0.1539698 -0.23884837 0.724282
0.133039 -0.41663238 0.4201628 -0.47600856 0.36524498 -0.22714378 0.33190203 -0.016599823
0.65727687 0.65970385 -0.20778503 0.43352997 0.09153741 -0.65872043 0.35762236 0.08953085
0.113157235 -0.17273341 -0.2484385 -0.36696705 0.46942925 0.5399368 -0.40913707 -0.2610413
-0.15868998 -0.4321912 -0.059036426 -0.5205038 0.15853979 0.8530937 0.39135125 0.1284369

layers.0.bias f4 [128]
00000000: 7f57 aabe 0f0b 8ebe d4af 06bf bb9a b13e
00000010: b3d6 353e fa22 0cbe f0b5 b3bc f704 883e
00000020: 2ea0 23be b05e e5bc f4ad c6ba 7f40 d2be
00000030: 55a8 afbd 0d17 2b3f c8f4 053f 5f51 ea3d
00000040: ccba 9dbe 6a6e 163f 3f72 ee3e 0de6 e03e
00000050: c0b6 3e3e 7186 b63d 2df9 69be 4418 0ebf
00000060: dc6d 373e 2dd2 373e 9703 b33e 9a5d f53e
00000070: c06f b63b 7b8b 0fbe 5148 82be e70c 8c3e
00000080: 85d3 c23d 50db 5abe 4a76 283f d972 063f
00000090: 7388 3b3e 97dd 61bc b5cf cd3e c6ec 8c3e
000000a0: e01d ce3c 6c2b d9bd f139 c93e b6b0 c53d
000000b0: be17 383e 9006 c5bd a569 253e 7433 133f
000000c0: 4d68 c53e 492b 1b3f a960 98be d5ba 9bbe
000000d0: 5805 c3bd ab12 a33e cb09 80be f033 2dbe
000000e0: 286c 51bd d142 773e 1b28 ff3d 71e7 86be
000000f0: 304d 9abd 0ccd 82be 7631 8e3e 5771 9ebd
00000100: 43e1 f03e 3ca6 aabd 329a 953e cd21 4d3e
00000110: c11d 293e 2b5b 253e 021f 5dbd 2b6b 9e3d
00000120: 3dcb 6f3e 8980 313e aa61 74be 51ed c2be
00000130: c7cc 173f 5760 6e3d 027a e03e cc19 0a3f
00000140: 2dcb 8e3e d2fe 1d3c d156 833e b549 05bf
00000150: f13f bf3e 28f5 78be 2fe5 cebc 4199 bfbd
00000160: b5c8 e6be 149e 403e 7e2e f4be 35e9 053f
00000170: e46f 133f 0199 ad3e f4f7 c33e 8b66 40bd
00000180: fa89 3f3e 33c4 1e3e 3303 1bbf a202 c43c
00000190: 5bde c63d 5359 e7be 3552 563e 376b 1a3f
000001a0: 349a 19be eaf5 2d3e 71d1 2c3d 5af6 2d3e
000001b0: 2748 603d 344a adbd aa56 df3e e417 b3be
000001c0: 5f80 d73e e1ab 95be 8a83 d53e 0285 70be
000001d0: ff38 5a3e b044 283f 74c8 c8be 0df4 023f
000001e0: f96a 95bd b94a 323e 65f2 bf3e 75e4 043f
000001f0: c90e be3e df39 f5bc 1392 fd3d 1ede 31bb
-0.3326988 -0.27742812 -0.5261204 0.34688362 0.17757683 -0.13685217 -0.02193734 0.26566288
-0.15979072 -0.027999252 -0.0015158043 -0.41064832 -0.08577029 0.6683205 0.5232663 0.114413016
-0.30806577 0.5876223 0.46571538 0.43925515 0.18624401 0.089123614 -0.2284896 -0.55505776
0.17913002 0.1795127 0.34963676 0.47922975 0.005567521 -0.14018051 -0.25445798 0.27353594
0.095130004 -0.21372724 0.65805495 0.52518994 0.1831377 -0.013785741 0.4019753 0.27524394
0.02516073 -0.10603985 0.39302018 0.096528456 0.17977807 -0.09620392 0.16153581 0.57500386
0.38556138 0.6061292 -0.29761246 -0.3041598 -0.095225036 0.3185018 -0.2500747 -0.16914344
-0.051128536 0.24146582 0.124588214 -0.2634845 -0.075342536 -0.25547063 0.2777211 -0.077364616
0.4704686 -0.08332488 0.29219204 0.20032425 0.16515256 0.16148059 -0.05398465 0.077352844
0.23417373 0.17334189 -0.23865381 -0.38071683 0.5929684 0.058197346 0.43843085 0.5394561
0.27889386 0.009643273 0.25652173 -0.52065593 0.3735347 -0.2431227 -0.025255768 -0.09355403
-0.45075002 0.18810302 -0.4769172 0.5230897 0.57592607 0.33905795 0.3827511 -0.046972793
0.18704978 0.15504532 -0.60551757 0.023927037 0.0971038 -0.45185336 0.20929797 0.60319847
-0.1500023 0.1698834 0.042191926 0.16988507 0.05475631 -0.08461419 0.43620807 -0.34979165
0.42090127 -0.29232696 0.4170192 -0.23488238 0.21310805 0.6572981 -0.39215434 0.5115364
-0.07295794 0.17411317 0.3748962 0.519111 0.37120655 -0.029934822 0.12381377 -0.0027140449

layers.1.weight f4 [128, 128]
00000000: 0d31 353d 9445 893d 4c58 433b 3c39 81be
00000010: 4f25 05be d14e d1be 2704 e2bd 963f c13c
00000020: b9ef f0be f056 06bd 7f96 383c e038 d03d
00000030: 8062 6bbe ced4 133b f442 cfbd 9ba8 cbbd
00000040: abe1 9fbc 6938 5f3c 7ccc 24bf ef8b ca3c
00000050: 09f1 a8bb 9a58 24bd 66de db3c 99a5 383d
00000060: 6295 e4bd 7505 f13b 3e2d 1abf 3699 18be
00000070: 82b4 2cbd 2997 913d 324d 08bf c874 463d
00000080: 7e64 ad3c f637 493b 30e1 73bd a7d2 44be
00000090: fec0 453a 7fd1 483d 5446 bf3c c799 883c
000000a0: e667 6ebc 3e3d 873c 159f eabd 62fd 233c
000000b0: d71d 15be 65a5 223d bb40 433c 5184 c7bb
000000c0: da84 6b3b 246c 383d 37bc 81bb 9c4f bcbe
000000d0: 5608 913d b88f 2dbc 3a74 79be 8810 f7bd
000000e0: 3e73 ba3d 6ddd fdbd f197 423d 8e30 aabd
000000f0: 4b3a 58bb 95ac aa3d df7d b8bc 5031 05be
00000100: e52d 3e3d cab1 83bd b989 f6be 0f24 6ebc
00000110: d320 b8bd dfd5 583d a5bf 0cbf 63e2 233d
00000120: 516a c83c a8db 463c 41c2 8fbe ddfb c8bc
00000130: cc58 72be afc1 e8be f3c3 9d3d f505 a63d
00000140: 26b8 63bd d48c 983d b70b a93d b15f d4bc
00000150: 3e48 2fbc 962d 2ebe 87ef 0abd 80db 51bd
00000160: b74a a6b9 b89b 0abd 280c 973d 6326 c3bd
00000170: 06d2 04bf 8262 b3bd 7671 95bd 66e8 ae3d
00000180: 094a 823b 8002 dabd ee7b ea3d f995 3dbd
00000190: 7f98 b03d 036e 6a3d ed24 54be 66be e93c
000001a0: 3476 a7bd fdbc ec3d 8f4b 4d3d 3265 693d
000001b0: 1c81 e4be 8992 03bd 4a6f e9bd a55f f9bd
000001c0: 8a7d 26bd 2e44 51be 4c33 903d a99a 13bd
000001d0: f70d 2dbc 2abf a7bd 1a7c 6c3d d565 553d
000001e0: a8e9 25be 24d6 cebc 9859 803d 4bde 1abd
000001f0: b199 74bc 4087 e2bd bd51 debd 900e c13c
00000200: 6702 42be ac28 9a3d 6018 53bd 2d51 bdbd
00000210: 41e9 9dbe b103 dabe 6ffe 86be 57e5 84bd
00000220: c723 d4be 0e94 3bbd aa19 1c3c 2618 a53d
00000230: 9ce3 51be 19f7 1cbe 8e24 883d 7548 51bd
00000240: b0d1 8a3d 92b9 f0bc fe29 843c 76b2 14bd
00000250: 739b 2a3d ec08 2fbd ac90 b23d e4ed 26bc
00000260: d62a babd 48a9 61bd 71af 96be 941b 87bd
00000270: 9fcf ab3d c8c9 a33d fa88 45bd 26ba ecbc
00000280: 6ea0 29bd 2f7d 32bd 21f7 9dbc aa6c 153d
00000290: 08ea 2cbd 9ee1 5d3d e39a 1ebd 698c 7f3d
000002a0: 832a 863c 9f67 36bd e7fd aabd 9a2c 853c
000002b0: 3ede 4dbe 553a 9fbc 8483 cc3d 0149 753c
000002c0: 555e 173d 9f85 3ebd 91d8 c8bc 86d3 74bd
000002d0: 7ee1 f73c 2289 bd3d 252c 89bd ea52 fb3d
000002e0: d72e 9dbd 9ec6 973d 9a2e 583d fd08 243d
000002f0: f384 31bb f8f8 253e 4e56 943d fdf5 bd3c
00000300: d407 8abd 0678 ba3d 646e b4bd 6f82 943d
00000310: efd7 9c3d c55d 8c3d 7ab5 c7be 534a 0ebd
00000320: 428e 5dbd ab1d 103d 2ff4 10be b200 023d
00000330: 1d5c 713d a852 b8bd bd79 3f3c bfc9 d03d
00000340: d1c9 893c 261b 793c e8ab bd3d 8a7c 18bd
00000350: 083c a93d ffc0 51bc 07b3 3dbd aa58 013d
00000360: e3e8 c6bc 32d6 c33d 61ca 133e 3255 2ebe
00000370: 23af c63d 8a9d c1bd 63c1 a8bd 65fe b4bc
00000380: cf4d 0d3d 29b9 8dbd 7af8 14be 3249 6d3d
00000390: fd28 f7bd 63c4 843d 6560 7fbd 2345 c2bc
000003a0: 8fab 38be e5d6 c83d ce1b 0e3b af66 1dbd
000003b0: b18e 35be 61a1 293d 9cd0 4fbb 0f2b 1ebf
000003c0: 3f39 0fbd b287 0cbe cedc 433d 3260 a4bc
000003d0: 2cb5 75bd 4b14 85bd cc7d 08be b90a ce3d
000003e0: 7584 2bbf 3003 62bc 69be 64bb 9bef f83c
000003f0: 6d94 763d 2110 963d e159 2bbc f6c0 3d3d
0.04423623 0.06702724 0.0029807268 -0.2523898 -0.13002513 -0.40880445 -0.11035948 0.02358989
-0.47057894 -0.032797754 0.01126635 0.10167098 -0.22986794 0.0022557261 -0.10120192 -0.09944268
-0.019516787 0.013624289 -0.6437452 0.024724929 -0.0051556868 -0.04012356 0.026839446 0.0450798
-0.11161305 0.007355387 -0.60225284 -0.14902195 -0.042164333 0.0710891 -0.5324279 0.048451215
0.021166082 0.0030703521 -0.059540927 -0.19220982 0.00075437117 0.049027916 0.023348965 0.01667489
-0.0145511385 0.016508695 -0.11456124 0.010009142 -0.14562164 0.039708514 0.011917288 -0.0060887714
0.003593734 0.045025006 -0.0039592045 -0.36779487 0.07081668 -0.010593347 -0.24360743 -0.120637
0.09104012 -0.12395749 0.047508184 -0.08310042 -0.003299373 0.08333699 -0.022520958 -0.13007092
0.046430487 -0.06430395 -0.4815195 -0.014534964 -0.08990636 0.05293834 -0.54979926 0.04001082
0.024464758 0.012137331 -0.2807789 -0.02453416 -0.23666686 -0.4546027 0.0770339 0.08106605
-0.05559554 0.07448736 0.082541876 -0.025924535 -0.010698376 -0.17009577 -0.033919837 -0.051234722
-0.00031717654 -0.03383991 0.073753655 -0.09528806 -0.5188297 -0.08759023 -0.072970316 0.0854042
0.003976111 -0.10645008 0.11449419 -0.046285603 0.08622836 0.05723382 -0.20717211 0.028533172
-0.08176842 0.11559484 0.050120886 0.056981273 -0.44629753 -0.03212217 -0.1139818 -0.12176446
-0.040647067 -0.20436165 0.07041034 -0.036036167 -0.0105624115 -0.081907585 0.05773554 0.052099068
-0.16202414 -0.025248595 0.06267089 -0.03780965 -0.014929221 -0.11060953 -0.10855434 0.023566514
-0.18946229 0.07527289 -0.051536918 -0.09243999 -0.3084202 -0.4258094 -0.26365992 -0.064890556
-0.41433546 -0.045795493 0.009527603 0.080612466 -0.20496982 -0.15328635 0.06647597 -0.05109449
0.06778276 -0.029385362 0.016133305 -0.036303006 0.041652154 -0.042733118 0.08719 -0.0101885535
-0.090902016 -0.05509308 -0.29430726 -0.06597057 0.0838921 0.07997471 -0.048226334 -0.028897356
-0.041412763 -0.043576416 -0.01928288 0.036480583 -0.042215377 0.054170243 -0.03872193 0.062389765
0.016377693 -0.044532415 -0.08349209 0.01625662 -0.2010431 -0.019436995 0.09986022 0.014971019
0.036955196 -0.04651415 -0.02451733 -0.059772037 0.03025889 0.09254672 -0.06697873 0.12271674
-0.076749496 0.0741093 0.052778818 0.040047634 -0.00270873 0.16208255 0.07243024 0.023188585
-0.06739774 0.09104924 -0.08810118 0.07251441 0.076583736 0.068538226 -0.39005643 -0.03473885
-0.054090746 0.035184544 -0.14155649 0.031738944 0.058925737 -0.090001404 0.0116867395 0.1019473
0.016819866 0.015204227 0.09261304 -0.037228145 0.08263403 -0.0128023615 -0.046313312 0.031578697
-0.02428097 0.09562339 0.1443267 -0.17024687 0.097013734 -0.09453876 -0.082400106 -0.022093961
0.034498032 -0.06920082 -0.14547911 0.057931133 -0.12068365 0.0648277 -0.06234779 -0.023714608
-0.18034194 0.09806613 0.0021684053 -0.038428005 -0.17730214 0.04141367 -0.0031710034 -0.6178445
-0.034966704 -0.13723639 0.047817998 -0.0200654 -0.059987232 -0.06498011 -0.13329238 0.10060639
-0.6699899 -0.013794705 -0.0034903532 0.03038769 0.060200144 0.07327295 -0.0104584405 0.0463266

layers.1.bias f4 [128]
00000000: eb4d 2dbc a5e0 693d 17e3 61bd 537e bdbd
00000010: a92e 903d 9528 bdbd ca41 093e 93a8 0e3b
00000020: 3dc2 843c 57e3 ff3c d22b 0d3d ca08 48bd
00000030: 2d74 763a d763 de3c c7aa 153b 4e54 43bb
00000040: 6d51 6dbd 15c2 aebc e955 bfbd c5a6 d03c
00000050: 457e 873d 58a7 96bc 6ed6 6c3d c78a 32bc
00000060: 8b25 86bc 5b10 723d a026 e53d deae cb3d
00000070: 3b3f 1d3e 5df5 883c 1a4a 883d baa6 bc3d
00000080: 72b8 133c d110 d43c d019 983d 62ff ac3d
00000090: 70a0 29bd 04ad 083e 5a5e 823d 86c3 a0bd
000000a0: 8735 823d e132 203d 5d81 173d e743 473d
000000b0: b495 6e3d 3988 483d c610 123d 536d d03d
000000c0: 105d 8e3d 3fa0 323d c10d f03d 16c5 943d
000000d0: 5aaa 933d 52bc ecbc 5e72 e9bc 548c 0c3d
000000e0: 245c 8b3d 4c39 2fbc b540 003e 9478 18bb
000000f0: 4652 47bd cc1f bbbb b877 47bd 6253 9abb
00000100: f03d d83c 56f6 2ebd adfe 18bc 3c0b a1bd
00000110: 8575 2dbd 5116 a63d c328 6b3d 6e59 cc3d
00000120: 3127 fcba b7c2 58bd 8f29 6c3d bda1 733d
00000130: a061 073d 4e34 87bd 326e abbc c5b8 d8bc
00000140: ad89 983d 7de6 be3b 33f4 0ebc ed2d f83d
00000150: 59f1 a53d cbf7 d1bd 5bcc 0fbc 7eba a5bd
00000160: ae87 42bd 77fb 7ebd b376 d33d 58b0 9e3d
00000170: f6c4 8d3d 49e1 623c a92c 703b 3a08 d0bd
00000180: b0ea 9e3c 9c0a 773d 58a4 60bd f76e 81bd
00000190: 3651 dc3d c40a 30bd d303 3bbc 4f85 9c3d
000001a0: b326 96bd 1a2e ccbd fe6b 363d d20e 82bd
000001b0: 8718 853d abe3 5d3b 7735 733c 3e3f a4bb
000001c0: 22ee 923d e272 4a3d 6807 acbd 484c 9e3d
000001d0: 8b7c 53bd 9438 9c3d 10b4 c3bc 196d 8d3b
000001e0: 2bd4 a33b 2634 9abd e98c 4e3d ed84 7e3d
000001f0: b021 693d ad0f 63bd 7f45 223c 6a85 a63b
-0.010577659 0.057099003 -0.05514821 -0.0925261 0.0704015 -0.09236256 0.13404003 0.0021767959
0.016205901 0.031236334 0.03446562 -0.048836507 0.0009401467 0.027147217 0.0022837387 -0.0029804888
-0.05793898 -0.02133278 -0.09342558 0.025470147 0.06615881 -0.018390343 0.057821684 -0.010897345
-0.016375324 0.05909763 0.11189008 0.09945463 0.15356152 0.01671856 0.06654759 0.09211488
0.009016143 0.025886925 0.07426798 0.08447148 -0.04141277 0.1334725 0.063656524 -0.07849793
0.06357866 0.039111022 0.036988605 0.04864874 0.058248237 0.048958037 0.035660528 0.10177102
0.06951344 0.043609854 0.11721373 0.07264154 0.07210226 -0.028898392 -0.028496917 0.034313515
0.06804684 -0.010694813 0.12524684 -0.002326523 -0.048662446 -0.0057105776 -0.048698157 -0.004709647
0.026396722 -0.042715393 -0.009338063 -0.07863471 -0.042348403 0.08109725 0.05741192 0.09977995
-0.0019237754 -0.05292007 0.05765682 0.059480418 0.033052087 -0.06601773 -0.020926569 -0.026455292
0.074481346 0.005825816 -0.008725214 0.12118135 0.08102674 -0.10252341 -0.0087767495 -0.08092211
-0.047492675 -0.062251534 0.103253745 0.07748479 0.06922333 0.0138476575 0.0036647713 -0.10157819
0.019399017 0.060312852 -0.05484423 -0.06319993 0.10757677 -0.042979017 -0.011414486 0.07642614
-0.073316 -0.09969731 0.044536583 -0.06350483 0.06498819 0.0033857625 0.01484429 -0.005012422
0.071743265 0.049425967 -0.0839985 0.07729393 -0.051632445 0.07627979 -0.023889571 0.004315984
0.0049996576 -0.07529478 0.05042735 0.062138487 0.056916893 -0.05543487 0.0099042645 0.005081822

readout.weight f4 [1, 128]
00000000: 3081 44be 8d89 33be c5e0 09bf f0ef 013f
00000010: e605 9b3e e104 d73d cc25 a53e 86d6 bd3d
00000020: cda5 c3bd fc2e 03bd 9c6e 8cbf f5d8 f23d
00000030: 3878 1fbf 4829 313e eb36 fbbe bc50 c6be
00000040: c115 c7bc 0631 69be 561a 13be ad5d 43bf
00000050: 3065 6cbe b131 58be ef1e 9fbd 20c8 adbe
00000060: 50ab 37be f276 b93e 8a26 dbbe 7181 f13d
00000070: fc7d f6be d72a debd 3608 81bf 0a41 2d3f
00000080: edd7 ddbd 5960 81bd 66e6 403e 58ae a63e
00000090: db39 4f3e 09a3 f23d 2a2c ba3e 3982 bfbd
000000a0: 08d7 6abe 68ab bfbe ed98 1d3d 8fb7 20be
000000b0: 2724 40be 1e55 4f3f bea8 443d b073 183e
000000c0: 8b79 c8be 0aa0 f9be a1b7 1e3e 0215 10bd
000000d0: 21dd b6be bbb8 6bbe 17ab 853d bb48 7abe
000000e0: 347a 37be 552d 493c 56ae 113e ca99 593d
000000f0: 1c83 90bd 8b90 bf3d 7f2e f03e c2b0 00bd
00000100: 1f67 b93d b0c4 8fbd 4110 12be be4b 21be
00000110: e12b 723e bf1c 84be ff12 993d d763 04bf
00000120: efb4 b0be 1a7d 3f3d 9f2b 10be 9b69 3b3f
00000130: da56 0a3e eead 7fbf edac d4be 0c0e 00be
00000140: 14a4 0e3f 7fb6 08bf 3acf e13e f256 b23e
00000150: 52b0 673d 738a ccbe 0686 e13d 17ee 47be
00000160: 8f50 643e 155e 2dbe 3341 033d 7c69 133e
00000170: b891 213f b191 2b3e ce68 763e 47bc 903e
00000180: cd76 7dbe e10d cb3d 285a a33d 1b9e 0fbf
00000190: 1689 20bf 9f1d 8b3d b7be 403e 621e c53d
000001a0: a53b bbbd a44b 973e 00f7 b0be d6f3 433f
000001b0: e2d7 01bb 3951 b9be 724c d33d 39f5 90bd
000001c0: af61 a1be 201d 49be 5f1a 3abe c83a 37bf
000001d0: 3bff 323d ed2b 44bd d80a 163e c1f0 d0be
000001e0: 644a 65be 3377 adbe f7c0 1f3e b39a 833d
000001f0: 8613 7dbf 9b09 a43d 9ac3 af3e e91f 593e
-0.19189906 -0.1753294 -0.53858596 0.5075674 0.30277938 0.104989775 0.322554 0.09269433
-0.09553108 -0.03202723 -1.0971255 0.118577875 -0.62292814 0.17300904 -0.49065337 -0.3873347
-0.024302365 -0.22772607 -0.14365515 -0.7631481 -0.23085475 -0.21112706 -0.07769572 -0.33941746
-0.17936444 0.3622356 -0.4280284 0.11792267 -0.48142993 -0.10848015 -1.0080631 0.67677367
-0.108322 -0.06317205 0.1883789 0.3255489 0.20236914 0.11847503 0.3636182 -0.0935101
-0.2293359 -0.3743546 0.03847592 -0.15695022 -0.18763791 0.80989254 0.048012488 0.14887881
-0.3915523 -0.48754913 0.15499736 -0.035176285 -0.35715583 -0.23019688 0.065267734 -0.24441807
-0.1791771 0.012278874 0.1422666 0.05312518 -0.07056257 0.09353741 0.46910474 -0.03141857
0.09052872 -0.07019937 -0.14264013 -0.1575155 0.23649551 -0.25803182 0.07474326 -0.51714844
-0.3451304 0.046750166 -0.1407914 0.73208016 0.13509694 -0.9987477 -0.41538182 -0.12505358
0.55719113 -0.53403467 0.44103414 0.3483196 0.056564637 -0.39949378 0.11011891 -0.19524418
0.22296356 -0.1693042 0.0320446 0.14395708 0.63112974 0.16754796 0.24063417 0.28268644
-0.2475235 0.099147566 0.0797618 -0.56100625 -0.62709177 0.06792759 0.18822752 0.09624936
-0.09142236 0.29549897 -0.34563446 0.7654394 -0.0019812514 -0.3619478 0.10317315 -0.070780225
-0.3151984 -0.19640017 -0.18174122 -0.7157407 0.043700438 -0.047893453 0.14652574 -0.4080868
-0.22391659 -0.33880004 0.15600954 0.06425991 -0.98857915 0.080096446 0.3432892 0.21203579
