HW9/9_gym-DDPG/results/DDPG_Pendulum-v1_1000-eps0.1-t32-l0.0001-s1-u100.pth (torch, 176270 bytes, 12 tensors)

layers.0.weight f4 [128, 4]
0.52092063 -0.50764894 -0.14230628 0.21033384 -0.55645967 0.17700347 -0.16326064 0.20611282
-0.04921016 -0.028366085 0.08394617 0.0017187096 0.78880733 -0.5557559 -0.082962506 -0.13441359
0.05258525 0.14818425 0.46258453 0.09033863 -0.35727188 -0.7809283 -0.097192064 -0.13982445
-0.30587998 -0.04307231 0.31672493 0.30606455 -0.5604478 0.51470757 0.15695776 0.3129592
0.4347846 -0.41482237 -0.5080292 -0.3772515 0.45587012 0.073369525 0.33431727 -0.44338292
0.45289087 -0.3403896 0.4064793 0.09401251 -0.36015692 0.18025194 -0.27540755 0.1527026
-0.2205334 -0.08988115 -0.504514 -0.28331316 0.42308095 0.08257056 0.47105846 0.42617822
-0.16962723 -0.3558129 0.28938788 0.14354114 -0.4149453 0.6597328 0.24100313 0.3097796
-0.36575258 -0.33192417 0.0029207945 -0.004567665 -0.5671727 -0.3741308 0.30474597 -0.08101677
0.27724224 0.18305476 0.19680393 0.13291204 0.081420906 0.43866172 -0.43616435 0.22060652
-0.4262646 -0.6653725 -0.04299942 -0.08888499 0.3796059 -0.6856754 -0.4056174 0.3990759
-0.12962365 0.695389 0.14883365 -0.24561639 0.0483581 0.22337474 -0.3565873 -0.07055762
0.070826806 -0.13652746 -0.18706499 -0.15379466 0.37537047 -0.22067103 0.33419332 0.21003725
-0.48487872 -0.6806008 0.53513 0.11592603 0.24486749 0.29360354 0.031826656 0.22387683
0.44691136 -0.6054211 0.083372004 0.21629311 0.3647504 0.4127158 -0.41073692 -0.3354315
-0.3524689 0.28573924 0.53720903 -0.4195592 0.4176146 -0.50428295 -0.4996743 -0.0777701
0.16324395 0.6280116 -0.36921385 0.04983018 0.58051306 0.51925033 0.33954835 0.31388494
0.37915853 0.11626242 -0.33913514 -0.46616048 -0.3417954 -0.36385298 -0.21304527 0.17228256
0.032704983 -0.09066212 0.2672167 -0.0017520748 0.2998411 0.6897662 -0.10933936 0.4715769
-0.17271373 -0.2533145 -0.43996114 -0.31963274 -0.4018671 -0.13223477 0.38108334 -0.22271505
-0.4490661 0.23721425 0.14910161 0.2588503 -0.3031287 -0.2918406 -0.21612321 -0.059514206
-0.50393885 -0.4870314 -0.0642205 0.14770329 0.27160352 0.3302942 0.47133586 0.44080868
0.37806585 0.080066234 -0.36615235 0.38271013 -0.24123663 0.19912437 -0.4605872 -0.06197103
-0.4478922 0.34694406 -0.50059897 -0.2676421 -0.16159001 -0.3929711 0.24706769 -0.15610059
-0.2722868 0.27864143 0.32034943 -0.4227759 0.23205705 0.36308768 0.5011249 -0.4892074
0.018221518 -0.66640615 0.45719743 -0.12312099 0.74544066 0.0007353986 -0.11487015 -0.190579
-0.003623167 0.6073264 0.06298245 0.06820534 -0.5052922 0.66318816 0.4107691 0.32406121
0.34351686 -0.56077063 -0.20864905 0.504875 -0.5581467 0.27540207 -0.41522005 -0.22116865
0.2157597 -0.8117886 -0.036981903 0.25254053 0.33459598 0.5786145 -0.171457 -0.43013462
0.5297281 -0.015857356 -0.1915289 0.07113955 -0.41949773 0.4778768 0.3081411 -0.4465366
-0.44740424 0.3059699 0.22777028 0.030575814 -0.22076094 -0.2924826 -0.52079624 -0.27709076
-0.3569343 0.8346477 0.3751052 -0.204464 -0.053008318 0.41890112 -0.033222325 -0.18638279
00000000: 0e5b 053f 48f5 01bf bdb8 11be c161 573e
00000010: 2474 0ebf 6640 353e cc2d 27be 3d0f 533e
00000020: 9890 49bd fe5f e8bc f8eb ab3d 5346 e13a
00000030: 47ef 493f 0546 0ebf 3fe8 a9bd b7a3 09be
00000040: a263 573d 9dbd 173e e1d7 ec3e 7603 b93d
00000050: 57ec b6be ebea 47bf a20c c7bd 242e 0fbe
00000060: 4d9c 9cbe 976c 30bd c529 a23e 7eb4 9c3e
00000070: 8279 0fbf e0c3 033f 89b9 203e 303c a03e
00000080: 169c de3e 9963 d4be 340e 02bf 1c27 c1be
00000090: cf67 e93e c342 963d a22b ab3e 1603 e3be
000000a0: 50e1 e73e 8c47 aebe 0e1e d03e a189 c03d
000000b0: 7d66 b8be f793 383e 3802 8dbe 125e 1c3e
000000c0: 82d3 61be 9c13 b8bd d427 01bf 6c0e 91be
000000d0: 119e d83e c11a a93d 932e f13e 0834 da3e
000000e0: c3b2 2dbe 1c2d b6be a62a 943e 73fc 123e
000000f0: b673 d4be 40e4 283f 86c9 763e 6f9b 9e3e
00000100: ec43 bbbe f7f1 a9be cd6a 3f3b 5aac 95bb
00000110: 3b32 11bf 128e bfbe aa07 9c3e 1fec a5bd
00000120: b2f2 8d3e b572 3b3e f886 493e 181a 083e
00000130: 01c0 a63d 4598 e03e ef50 dfbe ade6 613e
00000140: 5b3f dabe da55 2abf 2920 30bd 5509 b6bd
00000150: b45b c23e 6c88 2fbf 15ad cfbe ad53 cc3e
00000160: 10bc 04be 0305 323f d967 183e dd82 7bbe
00000170: 2513 463d 59bc 643e 9c92 b6be 8380 90bd
00000180: a50d 913d dbcd 0bbe f78d 3fbe 597c 1dbe
00000190: 8f30 c03e 96f7 61be 631b ab3e 0114 573e
000001a0: 0642 f8be db3b 2ebf 48fe 083f a06a ed3d
000001b0: 8bbe 7a3e 3453 963e ab5c 023d f83f 653e
000001c0: 91d1 e43e e1fc 1abf f1be aa3d f17b 5d3e
000001d0: 90c0 ba3e 7c4f d33e 1c4c d2be adbd abbe
000001e0: ce76 b4be 6a4c 923e 8886 093f 77d0 d6be
000001f0: 95d1 d53e b018 01bf 4fd5 ffbe ee45 9fbd
00000200: 6c29 273e 5ec5 203f 9909 bdbe bb1a 4c3d
00000210: 819c 143f 97ed 043f 48d9 ad3e 87b5 a03e
00000220: 1121 c23e fe1a ee3d 1fa3 adbe 96ac eebe
00000230: cfff aebe f04a babe 8a28 5abe d76a 303e
00000240: a9f5 053d 10ad b9bd a1d0 883e e0a5 e5ba
00000250: c684 993e 8594 303f 50ed dfbd 8772 f13e
00000260: dedb 30be 70b2 81be 9642 e1be e7a6 a3be
00000270: 86c1 cdbe 8d68 07be 5b1d c33e 6a0f 64be
00000280: feeb e5be 4be8 723e 18ae 183e 0788 843e
00000290: af33 9bbe 226c 95be 674f 5dbe 2bc5 73bd
000002a0: 2302 01bf 2e5c f9be 0a86 83bd 883f 173e
000002b0: 9e0f 8b3e 521c a93e ef52 f13e adb1 e13e
000002c0: d991 c13e c4f9 a33d 5278 bbbe 95f2 c33e
000002d0: bc06 77be 42e7 4b3e 16d2 ebbe 56d5 7dbd
000002e0: 2052 e5be a7a2 b13e 4127 00bf 6308 89be
000002f0: da77 25be 8233 c9be 50ff 7c3e d5d8 1fbe
00000300: 2d69 8bbe 17aa 8e3e d704 a43e 1576 d8be
00000310: 5da0 6d3e a1e6 b93e b949 003f 6479 fabe
00000320: 4b45 953c 9899 2abf c815 ea3e dc26 fcbd
00000330: 33d5 3e3f c4c7 403a 0b41 ebbd 2427 43be
00000340: a872 6dbb be79 1b3f f1fc 803d 3eaf 8b3d
00000350: d45a 01bf b3c6 293f 5450 d23e 5aeb a53e
00000360: 71e1 af3e aa8e 0fbf 19a8 55be 7d3f 013f
00000370: b4e2 0ebf 8001 8d3e b997 d4be 097a 62be
00000380: 1cf0 5c3e 61d1 4fbf 567a 17bd fe4c 813e
00000390: 2a50 ab3e 1420 143f 6c92 2fbe 9b3a dcbe
000003a0: 439c 073f 49e7 81bc 2720 44be 9db1 913d
000003b0: 68c8 d6be 45ac f43e acc4 9d3e 72a0 e4be
000003c0: 2b12 e5be 16a8 9c3e 9d3c 693e 217a fa3c
000003d0: 280f 62be 48c0 95be e752 05bf d7de 8dbe
000003e0: 18c0 b6be 79ab 553f ca0d c03e 035f 51be
000003f0: 401f 59bd 357a d63e 2214 08bd 21db 3ebe

layers.0.bias f4 [128]
-0.3039263 0.42300442 0.3998101 -0.23913214 -0.43850774 -0.12827888 -0.2770963 0.1517646
-0.44861925 -0.27404007 0.26475415 -0.1022213 -0.120508544 -0.5588905 0.3243827 0.13788655
-0.15150593 -0.16870876 0.13760623 0.26595426 0.2818522 0.21985707 0.037909683 -0.3992853
0.4361545 0.046474334 -0.33262798 0.57202476 0.32844692 -0.3635194 -0.15579206 -0.107241005
-0.18844295 0.22731872 -0.36856383 0.58353126 -0.21603934 0.36219624 0.119273745 -0.13800737
0.43549752 -0.38295022 -0.16780831 -0.017903334 0.39348605 -0.1482118 -0.2599012 -0.3794234
-0.15903957 -0.17647868 -0.0843413 -0.036215685 0.26254463 0.06580282 -0.20048736 -0.14398481
0.22534274 0.079877995 0.4087004 0.033641834 -0.3386222 -0.35378417 -0.1053413 -0.029115248
0.17086038 -0.11235457 0.19950491 -0.11937944 0.45648018 0.23351364 -0.1514781 0.55585593
0.22373554 -0.3040408 -0.20392919 0.42154822 0.34172377 0.48749304 0.031912908 0.45898435
0.3317197 0.2563963 -0.028706769 0.45511922 0.22188306 -0.052452188 0.112877116 0.6001022
0.42369825 0.019236699 0.6024442 0.2694973 -0.21261065 -0.38726842 0.40795606 0.58823115
-0.21445037 0.31497058 0.036696516 -0.03975741 -0.022848975 0.2151709 0.17635751 0.47288215
0.26545367 0.33433774 0.56766266 0.27563193 0.22468214 -0.3045049 0.4795604 0.0098201
0.4152079 0.4680432 0.012105286 0.40268353 -0.03828173 0.5329197 0.4135581 -0.07227233
0.110426486 -0.17970954 -0.06347765 0.054490067 0.08295746 -0.08849792 -0.4724166 -0.2398389
00000000: 3a9c 9bbe 0994 d83e e9b3 cc3e 0edf 74be
00000010: 1684 e0be 8a5b 03be 91df 8dbe 2e68 1b3e
00000020: 6cb1 e5be fb4e 8cbe db8d 873e 6759 d1bd
00000030: 2fcd f6bd 7313 0fbf 7d15 a63e 2232 0d3e
00000040: 5f24 1bbe fdc1 2cbe a6e8 0c3e 282b 883e
00000050: ee4e 903e 3622 613e 2f47 1b3d 1f6f ccbe
00000060: a54f df3e df5b 3e3d 374e aabe 3770 123f
00000070: 322a a83e 371f babe f487 1fbe 2ca1 dbbd
00000080: 30f7 40be 3dc6 683e 66b4 bcbe 4e62 153f
00000090: 6b39 5dbe c971 b93e cb45 f43d ce51 0dbe
000000a0: 88f9 de3e 0d12 c4be f1d5 2bbe 03aa 92bc
000000b0: 0177 c93e d6c4 17be c511 85be c943 c2be
000000c0: 45db 22be d4b6 34be 22bb acbd e656 14bd
000000d0: 406c 863e a1c3 863d 8f4c 4dbe c170 13be
000000e0: 3fc0 663e 1397 a33d 2e41 d13e 05cc 093d
000000f0: e45f adbe 3323 b5be 2ebd d7bd 1a83 eebc
00000100: 06f6 2e3e 271a e6bd 044b 4c3e 357d f4bd
00000110: c5b7 e93e 331e 6f3e 131d 1bbe 934c 0e3f
00000120: ee1a 653e 3cab 9bbe d0d2 50be 2bd5 d73e
00000130: 6bf6 ae3e b098 f93e 1cb7 023d ffff ea3e
00000140: 2ad7 a93e 6046 833e 752a ebbc 6305 e93e
00000150: 5035 633e 1bd8 56bd 1e2c e73d 4ca0 193f
00000160: faee d83e 4896 9d3c c839 1a3f 8dfb 893e
00000170: 9bb6 59be 0c48 c6be 9edf d03e 5196 163f
00000180: e198 5bbe d343 a13e 164f 163d aad8 22bd
00000190: c62d bbbc c355 5c3e 1097 343e 9c1d f23e
000001a0: 8be9 873e 512e ab3e 5752 113f a11f 8d3e
000001b0: 1313 663e 11e8 9bbe f188 f53e 7ce4 203c
000001c0: 2196 d43e 5ca3 ef3e 4055 463c 892c ce3e
000001d0: 4ecd 1cbd 6d6d 083f e3bd d33e 8403 94bd
000001e0: 4827 e23d c705 38be 9200 82bd fa30 5f3d
000001f0: 9ae5 a93d 663e b5bd 97e0 f1be 5498 75be

layers.1.weight f4 [128, 128]
0.09077637 0.049634486 0.14798032 0.22667818 0.034622975 0.13146403 -0.087579526 0.14585285
-0.071791396 -0.029728102 -0.061059475 0.060033828 -0.06768167 -0.052811496 -0.014079452 0.002543417
0.07427517 0.11035566 -0.0020657429 0.038196743 0.013471126 0.090688206 0.039488126 -0.11214547
0.109479785 -0.034508668 0.07569405 -0.0034182223 -0.088245034 -0.083689205 0.049806565 0.011446717
-0.10690874 0.03487285 -0.02795779 0.11233259 -0.077249154 -0.047380406 0.08088429 -0.026866242
0.14205429 0.09832395 0.00051472866 -0.036752176 0.02224345 -0.08112142 0.028256243 -0.07913608
-0.02652136 -0.06379949 0.036216404 -0.073543556 0.021428423 0.02808159 -0.046314232 -0.074112296
0.06620243 -0.03482099 0.06146311 0.10873105 -0.05462881 -0.042002775 0.0041695023 0.0659131
-0.062880866 -0.051611938 0.07755738 0.057273675 0.10764301 0.016490752 -0.016254878 0.049029697
0.15211222 -0.09761415 -0.045507096 0.090750515 0.01997908 0.11098889 0.058293708 0.027917422
0.16036126 0.08127142 0.061010018 -0.05777393 0.114881605 0.0916454 0.08316018 0.045437206
0.065863945 -0.020250732 0.15529178 0.09753534 -0.010815355 -0.11126655 0.13782766 0.10655763
0.13066971 0.0021419686 0.032484185 -0.033839084 -0.029913796 0.022786714 0.01618745 0.07548607
-0.02032609 0.117166474 0.12340059 0.14144474 0.10455058 -0.008909606 0.101663455 0.07859385
0.11462307 -0.04955587 0.003291197 0.09304036 0.072246574 0.15530552 -0.0027548214 0.035686817
-0.1405205 -0.04362499 0.102601096 -0.15820055 -0.025467109 0.059078828 -0.025715819 0.01611024
0.11278782 0.10906198 -0.017188754 0.26883087 -0.13960293 0.12824158 0.08945293 0.0454101
0.06902462 -0.15384555 -0.10598665 -0.0069774636 -0.029273465 -0.06402231 0.024608381 0.06653196
0.061835892 -0.0006364342 -0.15141605 -0.066036575 0.1761757 0.061598662 -0.08888151 -0.04261108
0.047945913 -0.014895869 0.0892478 0.007990784 0.010121716 -0.047675647 0.0047902963 0.0042129834
-0.04985718 0.0016695731 0.05943792 0.16789895 -0.10021996 -0.066299945 0.045058344 0.09525233
-0.0067332853 -0.0028680095 0.10302562 -0.08524167 0.035747394 -0.0055999327 -0.03019702 0.017654276
0.07192648 0.026637807 0.018953333 0.22284274 0.08086755 0.12587197 -0.026230702 0.050192934
0.0009698971 -0.11035224 -0.0074287704 0.012532667 -0.0119276345 0.001892058 0.045705296 -0.040382065
-0.3106439 -0.13768236 0.04542231 -0.10245876 0.086343974 0.0097908825 -0.036518443 0.13728005
0.09621288 -0.13410313 -0.046586607 0.06882413 0.08406474 -0.05625961 -0.015713966 0.05514198
0.07224413 0.0948942 -0.018992944 -0.0254586 0.024015129 0.04269198 0.033517785 0.106219545
-0.015020268 -0.18481897 0.01856109 -0.07123511 0.0671937 -0.048706423 0.007526101 0.11001885
0.06247592 0.123168215 -0.0438286 -0.14071372 0.044949368 0.14805706 -0.08212813 0.037797485
0.074507795 0.07442876 0.03258542 0.0443365 -0.0542516 -0.08526975 -0.018340923 -0.087314434
0.05512138 -0.10149821 0.06489433 0.069278985 0.056962952 0.038805652 -0.012804728 0.12770067
-0.1848031 0.06970931 -0.043426517 -0.11135559 0.071865916 0.10238289 0.0614628 -0.013867751
00000000: f6e8 b93d 884d 4b3d 2788 173e 531e 683e
00000010: d2d0 0d3d 829e 063e e55c b3bd 735a 153e
00000020: 5e07 93bd 5988 f3bc 8019 7abd 08e6 753d
00000030: b09c 8abd de50 58bd 80ad 66bc 75af 263b
00000040: 951d 983d 2602 e23d 6a61 07bb 3074 1c3d
00000050: ffb5 5c3c bdba b93d 4dbe 213d 86ac e5bd
00000060: f036 e03d f658 0dbd 7b05 9b3d 4104 60bb
00000070: d0b9 b4bd 3f65 abbd f801 4c3d 038b 3b3c
00000080: f8f2 dabd d5d6 0e3d bc07 e5bc a10e e63d
00000090: ce34 9ebd f511 42bd aaa6 a53d 9816 dcbc
000000a0: ae76 113e 115e c93d dbee 063a 7389 16bd
000000b0: e537 b63c fd22 a6bd a379 e73c 1912 a2bd
000000c0: 5343 d9bc 4fa9 82bd a757 143d 019e 96bd
000000d0: a98a af3c 5d0b e63c feb3 3dbd 30c8 97bd
000000e0: 2495 873d 74a0 0ebd bec0 7b3d 62ae de3d
000000f0: 76c2 5fbd 1a0b 2cbd 52a0 883b 73fd 863d
00000100: afc7 80bd 0a67 53bd 67d6 9e3d cd97 6a3d
00000110: f073 dc3d 9d17 873c f328 85bc 5dd3 483d
00000120: 4ec3 1b3e ede9 c7bd a665 3abd 68db b93d
00000130: 2bab a33c 254e e33d 62c5 6e3d 14b3 e43c
00000140: be35 243e a171 a63d a4e5 793d 5ba4 6cbd
00000150: 0c47 eb3d 95b0 bb3d e24f aa3d 5d1c 3a3d
00000160: ade3 863d dde4 a5bc cf04 1f3e 9cc0 c73d
00000170: e332 31bc b8df e3bd b222 0d3e e33a da3d
00000180: 48ce 053e 4560 0c3b 230e 053d da9a 0abd
00000190: c70d f5bc 34ab ba3c 8b9b 843c 7198 9a3d
000001a0: e682 a6bc faf4 ef3d 73b9 fc3d e4d6 103e
000001b0: 9d1e d63d 99f9 11bc ee34 d03d d0f5 a03d
000001c0: 80bf ea3d 19fb 4abd 1fb1 573b f28b be3d
000001d0: 03f6 933d 6908 1f3e 3c8a 34bb 572c 123d
000001e0: 9be4 0fbe 1eb0 32bd 8620 d23d 53ff 21be
000001f0: 66a0 d0bc a4fc 713d fba9 d2bc 9ff9 833c
00000200: 4dfd e63d e35b df3d 6ecf 8cbc 33a4 893e
00000210: 12f4 0ebe c351 033e 1933 b73d f1ff 393d
00000220: c85c 8d3d b089 1dbe 870f d9bd 35a3 e4bb
00000230: e8ce efbc 211e 83bd 8497 c93c e941 883d
00000240: a247 7d3d 60d6 26ba cf0c 1bbe 2f3e 87bd
00000250: 6767 343e e14e 7c3d 8207 b6bd f588 2ebd
00000260: ef62 443d ce0d 74bc 8dc7 b63d c7eb 023c
00000270: 8ed5 253c 8a47 43bd ebf7 9c3b 110d 8a3b
00000280: 0b37 4cbd 94d5 da3a 2d75 733d b4ed 2b3e
00000290: 1f40 cdbd 44c8 87bd 198f 383d a713 c33d
000002a0: e4a2 dcbb 37f5 3bbb 19ff d23d 2f93 aebd
000002b0: dc6b 123d a47f b7bb be5f f7bc b39f 903c
000002c0: 314e 933d 8837 da3c 0544 9b3c e330 643e
000002d0: e39d a53d 95e4 003e c5e1 d6bc 1b97 4d3d
000002e0: b140 7e3a 5b00 e2bd 0b6d f3bb d155 4d3c
000002f0: 206c 43bc eefe f73a 7a35 3b3d aa67 25bd
00000300: b80c 9fbe 9bfc 0cbe be0c 3a3d e6d5 d1bd
00000310: 1cd5 b03d f069 203c 5d94 15bd 2493 0c3e
00000320: 420b c53d 5552 09be 99d1 3ebd aaf3 8c3d
00000330: 222a ac3d 7a70 66bd 93ba 80bc 8fdc 613d
00000340: bbf4 933d e457 c23d 1797 9bbc 8e8e d0bc
00000350: 60bb c43c c9dd 2e3d f249 093d a289 d93d
00000360: 9217 76bc 2f41 3dbe 6d0d 983c b7e3 91bd
00000370: da9c 893d 6380 47bd 839d f63b 9051 e13d
00000380: c0e6 7f3d 9e3f fc3d 9e85 33bd 4217 10be
00000390: d41c 383d 459c 173e cb32 a8bd 89d1 1a3d
000003a0: 8b97 983d 1b6e 983d 4a78 053d 319a 353d
000003b0: ed36 5ebd e8a1 aebd b43f 96bc e9d1 b2bd
000003c0: f5c6 613d 4bde cfbd 52e7 843d 24e2 8d3d
000003d0: fc51 693d adf2 1e3d ecca 51bc f7c3 023e
000003e0: 063d 3dbe c1c3 8e3d 01e0 31bd 660e e4bd
000003f0: 702e 933d 1fae d13d 6bc0 7b3d 9035 63bc

layers.1.bias f4 [128]
0.1282435 0.005354263 0.06284386 0.019251045 -0.026282635 0.072191894 0.09471315 -0.022398153
0.13378218 0.114754714 -0.0347039 0.022045463 -0.0066195484 0.07295544 0.096965864 0.05605227
0.09956479 -0.052203767 -0.06362976 0.042468373 0.1640914 0.08309817 -0.065202616 0.13472687
0.18198515 0.019094378 0.081454 0.04086559 0.027062383 0.12145874 0.046817746 -0.066491075
0.08695047 0.12617606 0.0695289 0.09056618 -0.02373273 0.09496911 -0.079821646 0.15740988
0.022299662 -0.06730766 0.03446489 0.033226855 -0.09756496 0.1552548 0.07871069 0.13976657
0.1368451 0.0729449 -0.0022310333 0.092094064 0.1567611 0.05516226 0.14878522 0.16016912
0.07160276 0.10777311 0.0926297 -0.026568098 0.14284374 -0.066159345 0.0064370236 0.09562684
0.05724875 -0.014964034 0.117155135 0.11244114 0.15254363 0.13153653 0.0041845995 0.15144487
0.02580934 0.07434103 -0.002993742 0.16485128 0.18428789 0.11604556 0.06331183 0.054369066
0.17535365 0.041939422 0.13975537 -0.025167856 -0.06749549 0.16433679 -0.036996838 0.0012085694
0.13945577 0.032753173 0.118849136 0.034834888 0.11107064 0.12019989 0.107633695 0.0020899707
0.1190798 0.12148864 0.03623405 0.026566455 -0.038068872 0.1703223 0.06984639 -0.04790423
0.0602694 0.007988825 0.108367816 0.03924795 0.06816253 0.03778436 0.017018063 0.122938424
0.1404246 0.1270335 0.01245795 0.049577806 0.041381612 0.09265905 0.10190531 0.06906954
-0.078856505 0.005023964 0.075089596 0.16313244 0.10947589 -0.053697772 0.11695741 0.13826902
00000000: 4452 033e d072 af3b 48b4 803d 5eb4 9d3c
00000010: ae4e d7bc 58d9 933d f8f8 c13d 557c b7bc
00000020: 32fe 083e 8504 eb3d ad25 0ebd b098 b43c
00000030: cce8 d8bb a969 953d 0a96 c63d 1197 653d
00000040: a0e8 cb3d 9ed3 55bd 5250 82bd 51f3 2d3d
00000050: 9307 283e 602f aa3d f388 85bd d7f5 093e
00000060: 515a 3a3e d06b 9c3c 5bd1 a63d ad62 273d
00000070: eeb1 dd3c 5cbf f83d f7c3 3f3d 792c 88bd
00000080: 1713 b23d 4c34 013e 2b65 8e3d c37a b93d
00000090: 246b c2bc 2a7f c23d 8879 a3bd 0e30 213e
000000a0: c8ad b63c 99d8 89bd 0e2b 0d3d e218 083d
000000b0: 23d0 c7bd 1dfb 1e3e 1233 a13d f81e 0f3e
000000c0: 1f21 0c3e 2364 953d 8736 12bb d09b bc3d
000000d0: fb85 203e d2f1 613d 275b 183e 6003 243e
000000e0: 78a4 923d 26b8 dc3d a4b4 bd3d 57a5 d9bc
000000f0: a145 123e 8d7e 87bd abed d23b 01d8 c33d
00000100: aa7d 6a3d b52b 75bc 08ef ef3d 8a47 e63d
00000110: 6634 1c3e 83b1 063e f71e 893b 5d14 1b3e
00000120: 1c6e d33c 1c40 983d a832 44bb c6ce 283e
00000130: f7b5 3c3e 4ba9 ed3d a2a9 813d 19b2 5e3d
00000140: e88f 333e acc8 2b3d 081c 0f3e d22c cebc
00000150: 133b 8abd e747 283e ff89 17bd dc68 9e3a
00000160: 7ecd 0e3e 3128 063d 2d67 f33d 07af 0e3d
00000170: 0179 e33d 5c2b f63d 0e6f dc3d e4f7 083b
00000180: 1ce0 f33d 09cf f83d 286a 143d e5a1 d93c
00000190: 1bee 1bbd f868 2e3e a00b 8f3d 3a37 44bd
000001a0: 0cdd 763d 90e3 023c f2ef dd3d 75c2 203d
000001b0: cc98 8b3d c6c3 1a3d 7769 8b3c 24c7 fb3d
000001c0: 77cb 0f3e 1215 023e 6e1c 4c3c 1912 4b3d
000001d0: c47f 293d 07c4 bd3d bbb3 d03d 5574 8d3d
000001e0: 857f a1bd 11a0 a43b 93c8 993d 310c 273e
000001f0: e534 e03d 32f2 5bbd 5e87 ef3d 6596 0d3e

layers.2.weight f4 [64, 128]
0.01042972 0.049320806 0.08493022 0.03595957 -0.056207363 0.028851856 0.0011821787 0.07559298
0.049873464 -0.0014774132 0.0074538463 0.036618568 0.086535506 0.048651252 0.016853493 0.04819607
0.05134229 0.060529377 -0.008642915 0.031105751 -0.0100002 0.06453818 -0.038378783 0.009661014
-0.038768902 -0.012889389 0.031503357 0.0020870687 -0.09083452 0.012014061 -0.039956484 0.0014566317
0.02688181 -0.008042504 0.04079102 -0.08371222 0.00786202 0.06845256 0.0018647643 0.0709854
-0.034897216 0.026910888 -0.07457356 -0.014397756 -0.05664596 0.035846226 0.03535853 -0.017808024
-0.053412694 -0.046909228 0.047473602 -0.0334592 -0.09116877 0.062278323 0.010683077 0.05371751
0.034170024 -0.013802016 -0.07626519 -0.0071423226 -0.008409757 0.024565995 -0.08755873 -0.009330965
-0.07153524 -0.05037794 -0.083104976 0.06300962 0.072644904 -0.04411962 -0.038808808 0.046165112
-0.00452851 -0.021195652 -0.014491816 -0.08703484 -0.061985854 0.057047326 -0.061940562 0.047714643
-0.037148092 -0.06273877 -0.04393131 0.05252205 -0.0859306 0.032886963 0.023248347 0.027362345
-0.0795081 -0.065256216 -0.019725312 -0.034644287 -0.032295227 0.026955912 0.040163513 0.06701135
-0.04574052 -0.050966788 0.08021851 -0.011050927 -0.026353732 0.047399063 -0.070294596 0.033753704
-0.038619924 -0.0039564674 -0.03828557 -0.06951164 -0.01421784 0.016638014 -0.04292472 0.010026924
-0.07831396 -0.061819535 0.034987513 0.0660599 0.044085104 -0.060800787 0.056593537 -0.057143256
0.03894809 0.013871517 -0.02546659 -0.077714615 -0.07874081 -0.0885485 -0.01737017 0.06869035
0.040395774 0.054280054 -0.07355199 0.062037505 0.017571552 0.10579581 -0.05111439 0.0003690645
0.07711338 0.03660961 0.08438903 -0.12897591 0.14198492 0.2582797 0.3176732 -0.044347573
0.0007192232 0.25648427 -0.07029143 -0.011913604 0.0661755 0.03838966 0.036842413 0.017785536
0.018494688 0.049323607 -0.09336661 -0.026509749 -0.15079857 0.056993946 0.013386103 -0.008205946
-0.008018106 0.033411495 -0.0141633125 0.089951515 0.012594547 -0.018911798 0.15653032 -0.010368697
-0.016242353 -0.086010076 0.048373774 0.022306137 -0.21417885 0.0738121 -0.060000736 -0.07242909
0.026995191 0.015892629 0.20862103 -0.0052787485 0.020887997 -0.105990455 0.11375156 -0.072530076
-0.04270273 -0.10167377 -0.028393485 -0.029419862 -0.025110552 0.13466598 0.14281419 0.05665748
0.08326049 0.08335148 -0.2826955 -0.036702253 0.062354017 -0.0059240963 0.06779694 0.069611356
0.07454819 0.016925292 -0.026542475 -0.069770455 -0.016785903 -0.12077258 0.05063667 0.08865265
0.07688965 -0.09951837 0.037253127 -0.15049435 0.0801151 -0.06273774 0.026625728 -0.071821444
-0.014806865 0.06886781 -0.021887979 0.045251574 0.017237717 0.0023208046 0.089681484 0.016483085
-0.05423984 0.09456901 0.06961244 -0.034602676 0.26343226 -0.010049006 0.03065565 0.12328683
-0.08072825 0.08881351 0.06905214 -0.09698868 -0.079901285 0.10712333 0.055606503 -0.052764066
-0.030161636 0.07348089 0.119206 -0.07619716 -0.046429425 -0.041296482 -0.07601107 -0.012927808
0.10376121 -0.030310478 -0.047782768 -0.011489419 -0.011762046 -0.04710684 0.024878379 -0.06495417
00000000: 6be1 2a3c 9d04 4a3d e5ef ad3d 584a 133d
00000010: b139 66bd ba5a ec3c 56f3 9a3a 7ed0 9a3d
00000020: 1e48 4c3d c3a5 c1ba 653f f43b 5afd 153d
00000030: 8739 b13d 8946 473d 5610 8a3c 3e69 453d
00000040: 4b4c 523d a7ed 773d 039b 0dbc 7dd1 fe3c
00000050: e1d7 23bc 982c 843d 1233 1dbd 3b49 1e3c
00000060: 24cc 1ebd 042e 53bc aa09 013d 34c7 083b
00000070: 7307 babd a0d6 443c 69a9 23bd 73ec be3a
00000080: 3e37 dc3c b5c4 03bc 7c14 273d 5071 abbd
00000090: b4cf 003c db30 8c3d 1b6b f43a cb60 913d
000000a0: 62f0 0ebd 3974 dc3c 06ba 98bd 91e4 6bbc
000000b0: 9805 68bd 7ed3 123d 1bd4 103d 22e2 91bc
000000c0: 45c7 5abd e423 40bd ae73 423d 840c 09bd
000000d0: b1b6 babd 8e17 7f3d 1308 2f3c e406 5c3d
000000e0: def5 0b3d da21 62bc ed30 9cbd 250a eabb
000000f0: 14c9 09bc a03e c93c fe51 b3bd e7e0 18bc
00000100: 1181 92bd 1959 4ebd f132 aabd 300b 813d
00000110: dac6 943d c6b6 34bd fcf5 1ebd a117 3d3d
00000120: e563 94bb 81a2 adbc 156f 6dbc 523f b2bd
00000130: e1e4 7dbd 75aa 693d 63b5 7dbd 6e70 433d
00000140: 9928 18bd 2f7d 80bd 51f1 33bd 5c21 573d
00000150: 62fc afbd 7bb4 063d 5173 be3c ff26 e03c
00000160: 25d5 a2bd 0da5 85bd fa96 a1bc 2be7 0dbd
00000170: 0048 04bd a5d2 dc3c 7f82 243d 3f3d 893d
00000180: 695a 3bbd 8dc2 50bd 9a49 a43d f30e 35bc
00000190: c8e3 d7bc 8525 423d 9df6 8fbd 5341 0a3d
000001a0: ed2f 1ebd 41a5 81bb 54d1 1cbd 1e5c 8ebd
000001b0: f1f1 68bc 724c 883c d5d1 2fbd f847 243c
000001c0: 1263 a0bd 7b36 7dbd 114f 0f3d 6a4a 873d
000001d0: 9592 343d 3f0a 79bd a0ce 673d 0c0f 6abd
000001e0: 0888 1f3d 5c45 633c 4f9f d0bc d728 9fbd
000001f0: dd42 a1bd ea58 b5bd e34b 8ebc 87ad 8c3d
00000200: 0a76 253d c354 5e3d 6da2 96bd 0a1b 7e3d
00000210: 37f2 8f3c 79ab d83d 535d 51bd 007f c139
00000220: 9fed 9d3d f5f3 153d 28d4 ac3d 4312 04be
00000230: 7f64 113e 3d3d 843e 10a6 a23e cda5 35bd
00000240: 408a 3c3a e851 833e f4f4 8fbd 4731 43bc
00000250: 0587 873d 7a3e 1d3d 12e8 163d f9b2 913c
00000260: 2c82 973c 8d07 4a3d fe36 bfbd f92a d9bc
00000270: f16a 1abe 7c72 693d 6351 5b3c 3b72 06bc
00000280: 605e 03bc 7eda 083d 3d0d 68bc 8038 b83d
00000290: 5c59 4e3c eaec 9abc 7c49 203e 78e1 29bc
000002a0: af0e 85bc 0d26 b0bd 9423 463d 5cbb b63c
000002b0: b351 5bbe cc2a 973d 55c3 75bd b455 94bd
000002c0: 0525 dd3c 4231 823c c0a0 553e 5af9 acbb
000002d0: 4e1d ab3c 8611 d9bd 94f6 e83d a68a 94bd
000002e0: 0fe9 2ebd 563a d0bd 7499 e8bc ec01 f1bc
000002f0: a5b4 cdbc e1e5 093e e23d 123e ac11 683d
00000300: 7a84 aa3d 2eb4 aa3d 77bd 90be 1a55 16bd
00000310: ed66 7f3d ec1e c2bb 1fd9 8a3d 6690 8e3d
00000320: b9ac 983d e9a6 8a3c 9b6f d9bc d0e3 8ebd
00000330: 9782 89bc 9d57 f7bd 6668 4f3d 858f b53d
00000340: 5278 9d3d 4ad0 cbbd bc96 183d 311b 1abe
00000350: 6313 a43d a57c 80bd 331e da3c 1f17 93bd
00000360: 7e98 72bc 910a 8d3d 6b4e b3bc b759 393d
00000370: 1d36 8d3c a418 183b edaa b73d 8907 873c
00000380: 982a 5ebd 66ad c13d f890 8e3d 89bb 0dbd
00000390: 98e0 863e 96a4 24bc 8f21 fb3c ce7d fc3d
000003a0: da54 a5bd dce3 b53d 356b 8d3d 00a2 c6bd
000003b0: 49a3 a3bd 7a63 db3d a5c3 633d 221f 58bd
000003c0: 8915 f7bc 267d 963d 4622 f43d 420d 9cbd
000003d0: c82c 3ebd 8026 29bd b1ab 9bbd 28cf 53bc
000003e0: c280 d43d ae4d f8bc ddb7 43bd 1e3e 3cbc
000003f0: 99b5 40bc 1af3 40bd becd cb3c b106 85bd

layers.2.bias f4 [64]
0.03490361 0.057547227 -0.086245745 0.014243575 0.048310786 0.14224395 -0.04517212 0.017268296
0.03621141 0.12036597 0.022346772 0.116385914 0.018175485 0.025009207 0.17278177 0.08448462
0.015400193 0.116685376 0.17622419 0.086762846 0.123582825 0.0061616586 -0.056752417 0.1931155
0.04679686 0.10859531 0.16937841 0.26690573 0.1597426 0.10812369 -0.0123439655 0.14095533
-0.0861874 0.16003652 -0.0023061943 0.03683643 0.05069684 0.10766532 0.031438913 0.008529317
-0.008888404 0.14961281 -0.058436017 0.1537505 0.15697792 0.1684823 -0.005315434 0.020607011
0.14421101 -0.029364767 0.028423332 0.013729361 0.16437867 0.014000413 0.034846228 0.07990127
-0.025216697 -0.07146372 0.012221993 -0.014886256 0.052568994 0.1223204 -0.053026352 -0.09267794
00000000: 16f7 0e3d a4b6 6b3d 9ca1 b0bd e25d 693c
00000010: 88e1 453d 66a8 113e 6706 39bd 3e76 8d3c
00000020: 6a52 143d 6f82 f63d 9410 b73c bd5b ee3d
00000030: c1e4 943c 1ce0 cc3c b4ed 303e 4606 ad3d
00000040: 1751 7c3c bef8 ee3d 1d74 343e b8b0 b13d
00000050: fe18 fd3d bde7 c93b 3975 68bd 12c0 453e
00000060: 10ae 3f3d 3867 de3d 8971 2d3e dea7 883e
00000070: 9093 233e f46f dd3d 583e 4abc 9856 103e
00000080: 0583 b0bd 9de0 233e 8523 17bb cce1 163d
00000090: 7da7 4f3d a37f dc3d 17c6 003d 8cbe 0b3c
000000a0: aba0 11bc 1a34 193e 9b5a 6fbd c570 1d3e
000000b0: d2be 203e a086 2c3e 182d aebb 09d0 a83c
000000c0: 0dac 133e 618e f0bc 0cd8 e83c 1df1 603c
000000d0: e252 283e fd61 653c ebba 0e3d 47a3 a33d
000000e0: 3f93 cebc 925b 92bd c13e 483c 7ce5 73bc
000000f0: 9652 573d 1e83 fa3d 2932 59bd efcd bdbd

readout.weight f4 [1, 64]
0.08760465 0.19833532 0.26240072 -0.17343545 -0.110930435 -0.20447472 0.044739366 0.11916813
-0.104201436 0.4277671 -0.20845716 -0.19842786 0.018970063 0.016635306 -0.23096408 0.20405878
0.041818507 0.3394124 -0.21003218 -0.17987414 -0.19416939 0.00076504465 0.0024037 0.65426326
-0.17317398 -0.4142903 -0.40766907 0.562096 -0.22931135 -0.2015101 0.240036 -0.13674885
0.051398527 -0.114918984 0.08310499 -0.16610053 0.06485302 -0.14592028 -0.08299738 -0.14122242
0.107197605 0.50850534 0.20321846 -0.14662585 -0.12815596 -0.13792172 0.08821575 -0.2158358
-0.11239733 0.108389996 -0.15802102 0.13175026 -0.1883537 0.15121463 -0.1296785 -0.19335125
0.02590702 0.09311098 -0.1479806 0.059927285 0.2381633 -0.39646378 0.17149091 0.21592295
00000000: 116a b33d 6a18 4b3e 6359 863e 1099 31be
00000010: 7f2f e3bd d261 51be a040 373d 6c0e f43d
00000020: 9067 d5bd 4a04 db3e cb75 55be ac30 4bbe
00000030: 1b67 9b3c c446 883c d981 6cbe c9f4 503e
00000040: e249 2b3d 76c7 ad3e ad12 57be ed30 38be
00000050: 57d4 46be 478d 483a 6587 1d3b cc7d 273f
00000060: 8554 31be dc1d d4be 00ba d0be 86e5 0f3f
00000070: 98d0 6abe aa58 4ebe ffcb 753e e407 0cbe
00000080: 4387 523d a55a ebbd f332 aa3d 4216 2abe
00000090: a9d1 843d 206c 15be 88fa a9bd 9c9c 10be
000000a0: 6b8a db3d 682d 023f 8018 503e 1625 16be
000000b0: 513b 03be 5a3b 0dbe 76aa b43d 0f04 5dbe
000000c0: 9230 e6bd 93fb dd3d 43d0 21be 8ae9 063e
000000d0: cbdf 40be 02d8 1a3e 71ca 04be dffd 45be
000000e0: f53a d43c f8b0 be3d 3a88 17be 5076 753d
000000f0: 15e1 733e 4dfd cabe 509b 2f3e e81a 5d3e

layers.0.weight f4 [128, 3]
0.58538294 0.5192449 0.5473743 -0.47952297 0.7031898 -0.23618267 -0.103830636 -0.15734716
-0.66095704 0.34739062 -0.3645764 0.6955642 -0.1420423 -0.64907694 0.5394346 -0.004934047
-0.62616485 0.16956304 -0.19028832 -0.8902467 0.33355963 -0.35068133 0.2328913 0.63226175
-0.18442546 -0.3979376 0.5477853 -0.5160674 0.2919905 0.09706574 0.4720669 -0.8940862
-0.16588642 0.23968056 -0.27239028 -0.4181316 0.037831794 0.5043803 0.04315172 0.4721746
-0.64144605 0.439117 0.5836133 -0.2846835 0.0059086187 -0.20731735 -0.90459394 0.2826169
-0.76586527 0.57003754 0.47004563 -0.17625135 -0.07745407 -0.30082127 0.4936266 -0.030507704
0.24748519 -0.2805887 -0.14940757 -0.33058223 -0.038752284 0.3713484 0.34402305 -0.55498767
0.2169062 0.32971 -0.22200732 0.2578958 -0.51241904 -0.21888253 -0.41637814 -0.2362533
0.09470465 -0.33021745 -0.47629544 -0.39328352 -0.15243497 0.26260135 0.31254485 -0.4961867
0.45814648 0.43165296 -0.36051336 -0.06010199 -0.47521064 -0.123518854 0.2933686 -0.57108283
0.5508393 -0.6003638 -0.31879967 0.40681624 0.5882255 0.059630927 0.5816758 -0.19782789
0.085188024 -0.4192451 -0.4843685 0.2091229 0.7848611 0.5301833 -0.15980513 0.06787976
0.5330616 0.5117685 0.8049924 -0.19231279 0.28763723 0.8815598 -0.14642528 -0.41890493
0.032530967 -0.36710507 -0.5351249 -0.3913229 -0.108808786 0.45647776 -0.44113323 -0.4873334
-0.049567826 0.22391842 -0.44009256 -0.6516025 -0.6430576 0.09974972 0.24058188 0.8090713
-0.2876007 0.118062094 -0.04785305 -0.4098881 -0.14548627 -0.5965608 0.22302291 0.63414866
-0.7381904 -0.56519395 0.08830621 0.6586841 -0.22099373 -0.703961 -0.031326063 -0.38100833
0.14175272 0.4978374 0.46555543 -0.39738616 0.93354124 0.11784011 -0.2783273 0.39796302
-0.46565205 -0.2767223 0.6809146 -0.09573668 -0.22639309 -0.62602216 -0.43136975 -0.3214186
-0.44826186 -0.029248986 0.37072942 0.6926522 0.06604369 0.6094722 0.7907404 0.10892451
0.25190377 -0.232454 0.40472013 0.20505646 -0.09521904 -0.5398256 -0.53192586 -0.53628737
0.041838136 -0.30412948 0.5788657 -0.32728374 0.4251263 0.5093958 -0.5376593 -0.3973767
0.31999898 -0.019165609 -0.43100086 -0.1232409 -0.0036374617 -0.16890731 0.5533511 0.12969168
-0.022882914 0.5131507 0.3787165 -0.2650049 -0.53070855 -0.52530295 0.22690073 0.5036544
0.47166485 -0.0751642 0.91225135 -0.10846639 -0.16639899 -0.55961335 -0.46326643 0.14819339
0.41535902 -0.5788712 0.1473129 -0.44053528 0.6038819 -0.43129587 0.3381012 -0.35597804
-0.4421383 -0.064509645 -0.1565263 0.36020476 0.644423 0.19277452 -0.35556257 0.57540286
-0.2095187 -0.42546913 0.684891 -0.43331 0.40747282 -0.46560565 0.40031832 -0.0004560342
0.53047425 0.54059196 -0.19097602 0.43152192 -0.010962984 -0.584092 0.44535264 0.07612414
-0.039638907 -0.037063014 -0.21692531 -0.24115622 0.64924914 0.5291031 -0.35836098 -0.30474317
-0.035632025 -0.56400317 -0.18427381 -0.45434672 0.18048953 0.58962625 0.34232306 -0.15923737
00000000: a8db 153f 3ced 043f b920 0c3f 0984 f5be
00000010: 3f04 343f dfd9 71be 28a5 d4bd 9d1f 21be
00000020: 7b34 29bf 2fdd b13e c2a9 babe 7f10 323f
00000030: 8973 11be e829 26bf 6318 0a3f c9ad a1bb
00000040: 574c 20bf efa1 2d3e f1da 42be 35e7 63bf
00000050: 54c8 aa3e 818c b3be 0f7b 6e3e e8db 213f
00000060: 07da 3cbe 7abe cbbe a83b 0c3f fe1c 04bf
00000070: c77f 953e 67ca c63d c1b2 f13e d5e2 64bf
00000080: 21de 29be d26e 753e bd76 8bbe 5815 d6be
00000090: 83f5 1a3d 111f 013f dcbf 303d dfc0 f13e
000000a0: cf35 24bf f2d3 e03e ae67 153f 09c2 91be
000000b0: 169d c13b 004b 54be 7893 67bf 2ab3 903e
000000c0: bf0f 44bf fbed 113f d2a9 f03e 3c7b 34be
000000d0: 3da0 9ebd 3f05 9abe a0bc fc3e 4beb f9bc
000000e0: c26c 7d3e 52a9 8fbe 4cfe 18be 1342 a9be
000000f0: b7ba 1ebd 6121 be3e ca23 b03e ac13 0ebf
00000100: a91c 5e3e c0cf a83e e355 63be eb0a 843e
00000110: e52d 03bf be22 60be 842f d5be 63ec 71be
00000120: 83f4 c13d 4312 a9be ffdc f3be 755c c9be
00000130: ea17 1cbe af73 863e e105 a03e 2f0c febe
00000140: 2d92 ea3e 9e01 dd3e 3595 b8be 812d 76bd
00000150: cf4e f3be 74f7 fcbd 6934 963e 7c32 12bf
00000160: ce03 0d3f 71b1 19bf b639 a3be 384a d03e
00000170: f295 163f 8f3f 743d b5e8 143f 6593 4abe
00000180: 0f77 ae3d 4ba7 d6be 26ff f7be 5024 563e
00000190: a8ec 483f 18ba 073f f5a3 23be 8b04 8b3d
000001a0: ba76 083f 4303 033f fb13 4e3f a5ed 44be
000001b0: 3045 933e e7ad 613f 82f0 15be b57a d6be
000001c0: 313f 053d 32f5 bbbe f2fd 08bf 7a5b c8be
000001d0: 24d7 debd 74b7 e93e 37dc e1be c383 f9be
000001e0: a207 4bbd df4a 653e d053 e1be 6ccf 26bf
000001f0: 6c9f 24bf 9549 cc3d 195b 763e 4c1f 4f3f
00000200: 6640 93be 8aca f13d 8f01 44bd dadc d1be
00000210: 5afa 14be 35b8 18bf 1e60 643e 9157 223f
00000220: 0cfa 3cbf 8db0 10bf e3d9 b43d 859f 283f
00000230: 2e4c 62be ca36 34bf c24f 00bd 8613 c3be
00000240: a027 113e 8be4 fe3e 485d ee3e 3376 cbbe
00000250: 8ffc 6e3f 2856 f13d ea80 8ebe cfc1 cb3e
00000260: f269 eebe 8cae 8dbe 6b50 2e3f 9811 c4bd
00000270: 97d3 67be fd42 20bf 7fdc dcbe fb90 a4be
00000280: 9482 e5be 929b efbc 3fd0 bd3e a851 313f
00000290: ea41 873d 5f06 1c3f f66d 4a3f d013 df3d
000002a0: 88f9 803e 6c08 6ebe 7a37 cf3e 52fa 513e
000002b0: 3302 c3bd 0332 0abf 4b2c 08bf 214a 09bf
000002c0: 775e 2b3d dcb6 9bbe 8b30 143f bc91 a7be
000002d0: 28aa d93e c367 023f 0aa4 09bf f574 cbbe
000002e0: e8d6 a33e 3201 9dbc 25ac dcbe ba65 fcbd
000002f0: 7b62 6ebb 0af6 2cbe 6ba8 0d3f e5cd 043e
00000300: f374 bbbc d85d 033f 21e7 c13e b9ae 87be
00000310: 84dc 07bf 417a 06bf aa58 683e 7fef 003f
00000320: 0e7e f13e b0ef 99bd 4e89 693f a023 debd
00000330: 7f64 2abe d242 0fbf 4231 edbe 02c0 173e
00000340: f0a9 d43e e730 14bf 31d9 163e d78d e1be
00000350: 0198 1a3f d0d2 dcbe 9a1b ad3e c142 b6be
00000360: f45f e2be a21d 84bd 6e48 20be c26c b83e
00000370: e8f8 243f af66 453e 4c0c b6be 9a4d 133f
00000380: 128c 56be 17d7 d9be 0455 2f3f cfda ddbe
00000390: 47a0 d03e dd63 eebe 86f6 cc3e e017 efb9
000003a0: 29cd 073f 3c64 0a3f 388f 43be 71f0 dc3e
000003b0: 169e 33bc 0e87 15bf 4305 e43e f9e6 9b3d
000003c0: 685c 22bd 63cf 17bd ab21 5ebe a8f1 76be
000003d0: 3135 263f 4d73 073f 177b b7be 4c07 9cbe
000003e0: e3f2 11bd 8362 10bf 46b2 3cbe 22a0 e8be
000003f0: 3fd2 383e bff1 163f f844 af3e 1f0f 23be

layers.0.bias f4 [128]
-0.54526436 -0.41063842 -0.48914564 0.39868006 0.104133226 -0.24241668 -0.14117801 0.32235724
-0.42768696 -0.0050374186 0.10922677 -0.35250136 -0.16001007 0.6305789 0.6010461 -0.10133999
-0.19030763 0.5151509 0.37954247 0.48881182 -0.032263268 -0.0028522622 -0.15841092 -0.57225364
0.19984779 -0.01864021 0.24192727 0.5209726 -0.07443093 -0.1442345 -0.3103341 0.09419357
0.14474931 -0.2511007 0.38728145 0.3865989 0.11015104 0.077470146 0.45244873 0.10726338
-0.04359304 -0.31210136 0.2849121 0.15486361 0.21396652 -0.1012273 0.12558249 0.60231966
0.211819 0.5484189 -0.25252277 -0.4055619 -0.14231372 0.31500384 -0.31005052 -0.30681556
0.0928511 0.4154597 -0.010959988 -0.24745534 -0.012420288 -0.41311684 0.21190615 -0.26825848
0.46947876 -0.2197135 0.28797826 0.07852325 0.22819729 0.15990788 -0.19033232 0.10797002
0.25082064 0.33912614 -0.30339086 -0.3947589 0.562916 0.0031586306 0.3901734 0.40169823
0.32698333 -0.11516277 0.2926543 -0.48854855 0.47394955 -0.27572262 -0.055146176 -0.18613958
-0.40603375 0.05640713 -0.63655674 0.55089337 0.5536095 0.2855409 0.275853 -0.09896596
0.064769775 0.12580153 -0.22633801 -0.14302813 -0.0061012087 -0.43978232 0.1277734 0.56818086
0.006330996 0.19694163 -0.18970944 0.06592973 -0.023313886 -0.17225315 0.44462973 -0.49711558
0.42361987 -0.13731068 0.14261146 0.00070536346 0.44046384 0.61635345 -0.40958217 0.33334282
-0.26003677 0.09819669 0.25902238 0.47188446 0.27052215 0.047429543 -0.13526487 0.028366243
00000000: 7296 0bbf 333f d2be 4c71 fabe cb1f cc3e
00000010: cd43 d53d 143c 78be f890 10be 020c a53e
00000020: c9f9 dabe ee10 a5bb 49b2 df3d 0f7b b4be
00000030: aed9 23be 9e6d 213f 28de 193f 578b cfbd
00000040: 01e0 42be eee0 033f 6453 c23e 8b45 fa3e
00000050: 7d26 04bd 05ed 3abb 7936 22be 377f 12bf
00000060: e6a4 4c3e 5bb3 98bc c8bb 773e 765e 053f
00000070: 3e6f 98bd 35b2 13be 1ce4 9ebe 8fe8 c03d
00000080: 2a39 143e 4590 80be c149 c63e 4bf0 c53e
00000090: de96 e13d aba8 9e3d 5ca7 e73e e7ac db3d
000000a0: 9e8e 32bd c0cb 9fbe 00e0 913e 9194 1e3e
000000b0: 0a1a 5b3e 4250 cfbd b298 003e 9f31 1a3f
000000c0: 14e7 583e 2e65 0c3f aa4a 81be cfa5 cfbe
000000d0: b0ba 11be 2f48 a13e f1be 9ebe ee16 9dbe
000000e0: b828 be3d 22b7 d43e 8691 33bc ef64 7dbe
000000f0: 777e 4bbc 0d84 d3be edfd 583e 2d59 89be
00000100: 855f f03e 93fc 60be e371 933e ccd0 a03d
00000110: 8dac 693e e4be 233e 7ae6 42be 631f dd3d
00000120: 906b 803e f1a1 ad3e 0c56 9bbe d71d cabe
00000130: 431b 103f 0701 4f3b cfc4 c73e 64ab cd3e
00000140: 5c6a a73e 75da ebbd c9d6 953e 0923 fabe
00000150: 84a9 f23e 842b 8dbe f5e0 61bd 609b 3ebe
00000160: a8e3 cfbe 2a0b 673d 62f5 22bf 5907 0d3f
00000170: 5ab9 0d3f 6b32 923e 9b3c 8d3e aaae cabd
00000180: 04a6 843d 1ed2 003e 27c5 67be f775 12be
00000190: a6ec c7bb 262b e1be 08d7 023e 4d74 113f
000001a0: 3e74 cf3b 11ab 493e 3143 42be 2b06 873d
000001b0: c3fc bebc 2163 30be 82a6 e33e ef85 febe
000001c0: b4e4 d83e 2c9b 0cbe bd08 123e 24e8 383a
000001d0: 7a84 e13e 57c9 1d3f c1b4 d1be e9ab aa3e
000001e0: 8a23 85be 591b c93d 959e 843e d79a f13e
000001f0: e181 8a3e 7b45 423d e082 0abe 5360 e83c

layers.1.weight f4 [128, 128]
0.045222487 0.059358437 -0.030306254 0.0038443562 0.005228549 -0.07284188 0.12367453 -0.034912553
-0.019653931 -0.08837754 -0.07917283 0.04557909 -0.03531811 0.04996751 -0.077312544 -0.19677243
-0.14254045 0.0061358307 -0.03182019 0.021685125 -0.122006446 -0.0793411 0.027335806 0.028299363
-0.101788834 0.016894987 -0.02651843 -0.116868146 -0.076802455 0.06966811 -0.028094184 0.054322265
0.026599046 -0.012443018 -0.11747032 -0.083459854 0.037761856 0.053289022 -0.002648297 -0.003398018
-0.0012257146 0.032970335 -0.09355319 0.023344055 -0.073415 -0.0010985731 0.047111724 -0.015574596
-0.08815038 0.0029851918 0.0064802947 -0.11294158 0.070348 -0.04301755 0.05716221 -0.027790729
0.07922142 -0.10736472 0.02418953 -0.073614426 -0.010111324 -0.107467756 -0.05707928 0.000714512
0.005570096 -0.06982368 0.0005721602 -0.014741622 -0.08113786 0.071172915 -0.09353095 0.03336703
0.012197132 0.06251913 0.023685332 -0.02018846 0.055727564 -0.009215829 0.002335463 0.032092035
-0.05385889 0.007048602 0.055302218 -0.024306191 -0.07964098 0.12180148 -0.019304017 -0.008960245
-0.06103708 -0.125472 0.0045543113 -0.11972559 -0.008268839 -0.09240868 -0.06848177 0.07260066
-0.027163494 0.048429627 0.044225063 0.008833668 0.031965833 0.008272191 -0.23923942 0.022165747
-0.1136888 0.07293287 0.037261847 -0.028530708 -0.04071104 -0.075572595 -0.021540888 0.017397406
-0.08769124 -0.183637 0.070587516 0.009153948 -0.016053136 0.021345854 0.04877126 0.044532526
0.019617332 -0.065522425 0.003358567 -0.061198536 -0.03333718 0.029399918 -0.09158479 0.01816918
-0.03668219 0.09860046 -0.09803271 0.112767056 -0.019387338 -0.0007169393 0.20196299 -0.057518125
-0.0323997 -0.10250829 -0.021582088 0.024042854 -0.0013534597 0.085008435 0.080632485 0.03370125
-0.03725115 -0.047963105 0.09722917 -0.051064815 0.010083497 -0.02110808 0.07916287 -0.07368544
-0.08901564 0.016342418 -0.01910831 -0.03581616 0.08668039 0.06797616 0.041380554 -0.015239746
-0.047703896 0.0152473245 -0.020403102 0.024989141 -0.084282234 0.035801332 -0.053722996 0.036902882
0.012510917 -0.004465459 -0.069284804 0.018342273 0.0005931383 -0.048509963 0.115708776 0.020915354
-0.0024867759 -0.09964225 -0.014669692 0.03276632 0.021855904 0.079535104 0.093718305 0.3002728
0.15128264 0.07582551 0.06029777 0.06205763 -0.025614243 -0.18839799 0.04979939 -0.15505205
-0.09494343 0.071019836 -0.034235604 0.042413067 0.06631752 0.07192922 0.0342129 -0.053192534
-0.06452629 0.059042778 0.1145293 0.038583443 0.08195651 -0.03383644 -0.031008894 0.064328976
0.011678754 -0.006011208 0.07300382 -0.05701599 0.040378228 -0.07375444 -0.047175806 0.015962685
-0.07900979 0.08313297 0.040586334 -0.060082365 0.11545026 -0.07412753 -0.07802137 -0.04025372
0.0045304857 0.03020264 -0.04226464 0.10057455 -0.11227866 0.021743126 -0.02389885 -0.045690402
-0.2238922 0.08013893 -0.019683585 -0.039128564 0.023729533 -0.0165561 0.009099457 0.05199545
0.03783843 -0.19890074 0.02927766 0.0033931201 -0.052405477 0.13237485 -0.019207982 0.078471296
0.1267233 -0.034945216 -0.051355205 0.026281841 0.14151639 0.12100802 -0.10902674 0.022894586
00000000: 373b 393d d521 733d d244 f8bc 98f1 7b3b
00000010: 3f54 ab3b 202e 95bd 1249 fd3d 7700 0fbd
00000020: 4801 a1bc 49ff b4bd 5d25 a2bd 24b1 3a3d
00000030: b9a9 10bd bbaa 4c3d 0a56 9ebd b67e 49be
00000040: 20f6 11be 140f c93b e355 02bd 01a5 b13c
00000050: 84de f9bd 967d a2bd 57ef df3c 11d4 e73c
00000060: aa76 d0bd 5b67 8a3c 2e3d d9bc 9158 efbd
00000070: 9b4a 9dbd 27ae 8e3d c625 e6bc 0681 5e3d
00000080: 3ee6 d93c cddd 4bbc 4794 f0bd 00ed aabd
00000090: 2dac 1a3d 9745 5a3d 0d8f 2dbb 48b1 5ebb
000000a0: 28a8 a0ba e70b 073d d198 bfbd 083c bf3c
000000b0: 9b5a 96bd fffd 8fba 39f8 403d 972c 7fbc
000000c0: 3088 b4bd 35a3 433b a758 d43b ea4d e7bd
000000d0: 9d12 903d 2c33 30bd ec22 6a3d 62a9 e3bc
000000e0: d73e a23d 09e2 dbbd 1f29 c63c 29c3 96bd
000000f0: f7a9 25bc 0e18 dcbd f7cb 69bd 174e 3b3a
00000100: 5a85 b63b b8ff 8ebd 05fd 153a d886 71bc
00000110: 9b2b a6bd 1bc3 913d 288d bfbd deab 083d
00000120: 7bd6 473c 080a 803d be07 c23c 4562 a5bc
00000130: 9642 643d fdfd 16bc 910e 193b f072 033d
00000140: 249b 5cbd f6f7 e63b 9484 623d c71d c7bc
00000150: cf1a a3bd 0e73 f93d 7523 9ebc fecd 12bc
00000160: 0402 7abd bb7b 00be 553c 953b b132 f5bd
00000170: 067a 07bc c340 bdbd 2c40 8cbd a8af 943d
00000180: fa85 debc 255e 463d 5725 353d 17bb 103c
00000190: 9bee 023d 1588 073c 2efb 74be f194 b53c
000001a0: acd5 e8bd d45d 953d e19f 183d 3bb9 e9bc
000001b0: 9fc0 26bd cec5 9abd 8476 b0bc 0185 8e3c
000001c0: 7797 b3bd 560b 3cbe 3090 903d 71fa 153c
000001d0: de81 83bc 80dd ae3c 5fc4 473d bd67 363d
000001e0: 87b4 a03c 9f30 86bd 671b 5c3b 51ab 7abd
000001f0: 918c 08bd 19d8 f03c ce90 bbbd 88d7 943c
00000200: 1040 16bd 0aef c93d 60c5 c8bd 6af2 e63d
00000210: 32d2 9ebc fbf0 3bba 63cf 4e3e 2098 6bbd
00000220: 8cb5 04bd deef d1bd ebcc b0bc 85f5 c43c
00000230: 9266 b1ba e718 ae3d a522 a53d 520a 0a3d
00000240: a994 18bd f674 44bd 1620 c73d 5729 51bd
00000250: 4035 253c daea acbc 2520 a23d 64e8 96bd
00000260: d54d b6bd 89e0 853c 0889 9cbc f7b3 12bd
00000270: 7d85 b13d 1637 8b3d a87e 293d 21b0 79bc
00000280: 2965 43bd eacf 793c 6824 a7bc 07b6 cc3c
00000290: 2a9c acbd 6ba4 123d a50c 5cbd 7a27 173d
000002a0: 97fa 4c3c fc52 92bb 31e5 8dbd 8942 963c
000002b0: d67c 1b3a 62b2 46bd b9f8 ec3d ad56 ab3c
000002c0: 2df9 22bb 3c11 ccbd 2659 70bc fa35 063d
000002d0: 270b b33c 4de3 a23d 62ef bf3d 5bbd 993e
000002e0: d6e9 1a3e 684a 9b3d cbfa 763d 2430 7e3d
000002f0: f6d4 d1bc 67eb 40be 72fa 4b3d f7c5 1ebe
00000300: b371 c2bd d972 913d a23a 0cbd 53b9 2d3d
00000310: 7bd1 873d a04f 933d d322 0c3d 6ae0 59bd
00000320: 5c26 84bd d7d6 713d 568e ea3d ac09 1e3d
00000330: d1d8 a73d 1498 0abd 5d06 febc e9be 833d
00000340: 3f58 3f3c abf9 c4bb 0783 953d 9989 69bd
00000350: a463 253d 910c 97bd 6b3b 41bd 2dc4 823c
00000360: e3cf a1bd 9e41 aa3d db3d 263d ed18 76bd
00000370: 3071 ec3d 2dd0 97bd abc9 9fbd 16e1 24bd
00000380: 7874 943b 876b f73c b01d 2dbd 08fa cd3d
00000390: 5bf2 e5bd a41e b23c 85c7 c3bc dc25 3bbd
000003a0: ff43 65be e11f a43d 783f a1bc 4645 20bd
000003b0: 7064 c23c a9a0 87bc e415 153c 2ef9 543d
000003c0: 78fc 1a3d a3ac 4bbe b4d7 ef3c 1c5f 5e3b
000003d0: 20a7 56bd 468d 073e 0f5a 9dbc 8fb5 a03d
000003e0: c1c3 013e b722 0fbd d659 52bd 044d d73c
000003f0: ace9 103e 0ed3 f73d 6949 dfbd 6d8d bb3c

layers.1.bias f4 [128]
-0.026433796 0.03912865 -0.06545086 -0.02874137 0.07310312 -0.008044934 0.1110015 0.00039881712
-0.07646851 0.029375125 0.07978183 -0.05807513 -0.05315032 0.037710078 -0.017443303 -0.07228207
-0.058312915 0.00794639 -0.075197436 0.14481893 0.038206924 -0.070450276 0.053905074 0.0069119297
-0.024761833 0.046357743 0.06631714 0.10812225 0.043176536 -0.0150248725 0.05497211 0.09011991
0.007443791 0.031813428 0.07300643 0.07595893 -0.08300441 0.10607422 0.06737644 -0.095736854
0.040671546 -0.0026031982 0.041040443 0.012273191 0.05068577 0.07818661 0.06881565 0.10034444
0.057693414 0.026997678 0.10422988 0.08591668 0.025179403 -0.039794553 -0.028496917 -0.0338146
0.0697743 0.023184722 0.10669532 -0.024995964 -0.09992638 -0.039396252 -0.042054236 -0.004709647
0.02086536 -0.009081997 -0.032908358 -0.076383844 -0.041340567 0.052076437 0.05439689 0.117004275
-0.0010155498 -0.051867496 0.023291381 -0.017869193 0.0030410995 -0.08701578 -0.0032952782 -0.053059377
0.056019936 0.0009514622 -0.06595138 0.09441293 0.08723189 -0.0076069967 0.043800358 -0.039311282
-0.08133643 -0.067841485 0.011826052 0.08999532 -0.009544186 -0.017857421 -0.02906549 -0.06961404
-0.035117064 0.06288755 -0.059259817 -0.08426543 0.04336934 -0.045851298 0.01589667 0.07044473
-0.057874013 -0.05489165 -0.050459936 -0.029422516 0.09534224 -0.051412325 0.005955368 -0.004575388
0.035892148 0.018411182 -0.031905614 0.07072188 -0.03348814 0.07627979 -0.005333662 -0.03209228
0.068668164 -0.06395042 0.00186875 0.09011432 0.06850393 -0.05321534 -0.0040226607 0.029067378
00000000: b08b d8bc 5d45 203d 1a0b 86bd 0673 ebbc
00000010: 17b7 953d e6ce 03bc c154 e33d 5418 d139
00000020: 869b 9cbd 1aa4 f03c a864 a33d 30e0 6dbd
00000030: 26b4 59bd e275 1a3d 42e5 8ebc 9f08 94bd
00000040: 86d9 6ebd 9331 023c 1d01 9abd 6a4b 143e
00000050: dd7e 1c3d 3c48 90bd 91cb 5c3d 787d e23b
00000060: 54d9 cabc 9ee1 3d3d 48d1 873d 336f dd3d
00000070: e1d9 303d e22a 76bc 6f2a 613d ca90 b83d
00000080: 0beb f33b cc4e 023d 6584 953d 5b90 9b3d
00000090: 37fe a9bd 713d d93d a9fc 893d af11 c4bd
000000a0: 3597 263d 6b9a 2abb 061a 283d 7e15 493c
000000b0: e29b 4f3d 4d20 a03d 38ef 8c3d 6381 cd3d
000000c0: ee4f 6c3d 3c2a dd3c 7a76 d53d 16f5 af3d
000000d0: 0945 ce3c 9dff 22bd 5e72 e9bc 2e81 0abd
000000e0: d4e5 8e3d e3ed bd3c 1383 da3d 56c4 ccbc
000000f0: 34a6 ccbd f75d 21bd 1041 2cbd 6253 9abb
00000100: d5ed aa3c a8cc 14bc eaca 06bd 226f 9cbd
00000110: ba54 29bd 1a4e 553d 46cf 5e3d f09f ef3d
00000120: 321c 85ba 0373 54bd 91cd be3c 6a62 92bc
00000130: 2f4d 473b 5435 b2bd 98f5 57bb ca54 59bd
00000140: 2975 653d 8c6b 793a 8411 87bd 915b c13d
00000150: a2a6 b23d 1d44 f9bb 0168 333d de04 21bd
00000160: b793 a6bd 7af0 8abd 0fc2 413c 774f b83d
00000170: 385f 1cbc ba49 92bc c01a eebc ce91 8ebd
00000180: e9d6 0fbd 30cb 803d 6cba 72bd 5b93 acbd
00000190: 0da4 313d 92ce 3bbd bc39 823c 5445 903d
000001a0: 4d0d 6dbd 11d6 60bd 14af 4ebd 7d07 f1bc
000001b0: cb42 c33d bb95 52bd 3f25 c33b 23ed 95bb
000001c0: a503 133d 0cd3 963c 76af 02bd a2d6 903d
000001d0: dc2a 09bd 9438 9c3d 00c6 aebb 3273 03bd
000001e0: e5a1 8c3d 70f8 82bd d8f0 f43a db8d b83d
000001f0: ca4b 8c3d 54f8 59bd 86d0 83bb b61e ee3c

readout.weight f4 [1, 128]
-0.077926025 -0.16714743 -0.1840115 0.2029198 0.10496279 0.3107376 0.15356831 0.097994216
-0.4183496 -0.04627596 -0.25742802 0.17400391 -0.28362012 0.14331143 -0.22675851 -0.054745946
-0.02391275 -0.1343543 -0.11466909 -0.310518 -0.26577592 -0.31346777 -0.10771018 -0.08977319
-0.11459689 0.2052511 -0.21038531 0.10305357 -0.22985634 -0.18171833 -0.19774373 0.0939117
-0.038083244 -0.11671905 -0.6245814 0.2116411 0.011866674 0.12486084 0.03589668 -0.17718454
-0.22650191 -0.06993886 0.02755014 -0.2661027 -0.21817017 0.12400958 0.40242353 0.26778826
-0.5949921 -0.17596903 0.107356824 -0.14165138 -0.091493316 -0.27389038 0.065267734 -0.20838965
-0.24421246 0.14858386 0.15871306 0.15573262 -0.3302203 0.2276213 0.29717764 -0.03141857
0.1895707 -0.2173143 -0.06448848 -0.2528848 0.26535118 -0.1755812 0.07472025 -0.5907805
-0.14467227 0.04745095 -0.09747163 0.12841828 0.20482986 -0.12654522 -0.2577953 -0.22168945
0.2644656 -0.22108059 0.1212656 0.1396199 0.0276286 -0.11490027 0.14374268 -0.2131212
0.5613937 -0.22171432 0.20890835 0.11050817 0.082954936 -0.29536107 0.26744872 0.23993914
-0.10734265 0.18752892 0.10494233 -0.35526198 -0.2366739 0.068758234 0.050733812 0.21433134
-0.19419244 0.16100356 -0.13567004 0.26935902 0.08011927 -0.34702346 0.11212176 -0.071297444
-0.13261648 -0.17121923 -0.12353104 -0.17274423 0.038552593 -0.047893453 0.114984185 -0.12577908
-0.09919678 -0.07154555 0.03696516 0.11476682 -0.17809835 0.14921486 0.21618281 0.09575235
00000000: ae97 9fbd b228 2bbe 836d 3cbe 35ca 4f3e
00000010: bbf6 d63d 0019 9f3e 0341 1d3e 31b1 c83d
00000020: eb31 d6be dc8b 3dbd 9bcd 83be 152e 323e
00000030: a836 91be 3bc0 123e 6233 68be 493d 60bd
00000040: ace4 c3bc 2c94 09be a1d7 eabd 37fc 9ebe
00000050: c813 88be d97e a0be 2897 dcbd 02db b7bd
00000060: c6b1 eabd 582d 523e 3f6f 57be c00d d33d
00000070: 765f 6bbe 5f14 3abe 557d 4abe c754 c03d
00000080: 2dfd 1bbd 660a efbd 91e4 1fbf 72b8 583e
00000090: 706c 423c 0ab7 ff3d 6608 133d dd6f 35be
000000a0: 1ef0 67be 1b3c 8fbd d5b0 e13c 9d3e 88be
000000b0: 0068 5fbe bcf8 fd3d 750a ce3e 8b1b 893e
000000c0: 6751 18bf 3a31 34be e5dd db3d 0f0d 11be
000000d0: d960 bbbd 5c3b 8cbe 17ab 853d 1964 55be
000000e0: d512 7abe 5e26 183e ad85 223e 5f78 1f3e
000000f0: a312 a9be 8f15 693e ab27 983e c2b0 00bd
00000100: d21e 423e a487 5ebe 8912 84bd 1e7a 81be
00000110: 1cdc 873e 8fcb 33be ee06 993d 643d 17bf
00000120: f824 14be ed5b 423d 359f c7bd 1580 033e
00000130: ebbe 513e 1295 01be bffd 83be 8f02 63be
00000140: 0968 873e f362 62be 195a f83d 85f8 0e3e
00000150: 6055 e23c d550 ebbd 4831 133e 723c 5abe
00000160: 7fb7 0f3f 1409 63be 12ec 553e 1c52 e23d
00000170: 47e4 a93d 9139 97be 0aef 883e 9bb2 753e
00000180: 77d6 dbbd 9507 403e 01ec d63d e6e4 b5be
00000190: a55a 72be 1ed1 8c3d 42ce 4f3d ad79 5b3e
000001a0: 62da 46be 1ede 243e 16ed 0abe 6de9 893e
000001b0: 9215 a43d 0fad b1be 18a0 e53d 6504 92bd
000001c0: 9dcc 07be 1854 2fbe d8fd fcbd dde3 30be
000001d0: 53e9 1d3d ed2b 44bd d47c eb3d 3bcc 00be
000001e0: ae27 cbbd 7986 92bd c868 173d de0a eb3d
000001f0: 6a5f 36be c8cb 183e 075f 5d3e cf19 c43d
