HW9/9_gym-DDPG/results/DDPG_Pendulum-v1_1500-eps0.1-t32-l0.001-s1-u100.pth (torch, 176252 bytes, 12 tensors)

layers.0.weight f4 [128, 4]
0.60535383 -0.5361546 -0.1776518 0.12605728 -0.5887745 0.11909419 -0.15280193 0.18242782
-0.040626295 -0.018637823 0.07780623 -0.0020980227 0.6517551 -0.44620293 -0.08092181 -0.12716003
-0.047539853 0.07443 0.49901932 0.038936123 -0.3045309 -0.75983113 -0.04314132 -0.22480549
-0.21848552 0.33068773 0.3867628 0.13322924 -0.52673304 0.6876259 0.17772159 0.2221007
0.49988565 -0.64627934 -0.53610796 -0.40236 0.39385974 -0.11607085 0.24992049 -0.32128227
0.59301436 -0.119525455 0.39817914 -0.02641583 -0.35737383 0.26189747 -0.2640023 0.14370522
-0.26439407 -0.32715514 -0.45387083 -0.24264494 0.29808217 -0.116578974 0.5136114 0.4461713
-0.1748615 -0.29632428 0.26820308 0.106996834 -0.30820045 0.8640495 0.24205476 0.2833329
-0.33696917 -0.46358797 0.04128691 0.018888203 -0.55047745 -0.5194372 0.2396236 -0.13582872
0.4032599 0.08694641 0.19231798 0.023164505 0.06316734 0.26753336 -0.47854742 0.28563023
-0.4132745 -0.32939374 0.08065565 -0.08549698 0.60902345 -0.47306174 -0.4620249 0.42325464
-0.017752292 0.70045066 0.24214429 -0.25615314 0.12444112 0.18255115 -0.35310304 -0.2147102
0.08840185 -0.00023537378 -0.14836901 -0.17275599 0.37368095 -0.1805539 0.34788513 0.1552363
-0.49223742 -0.47433272 0.5204086 0.036308937 0.33177784 0.38446274 0.16019559 0.22559565
0.4791308 -0.47265872 0.09882296 0.23273252 0.35697684 0.32208407 -0.3910582 -0.35787743
-0.40682694 0.299022 0.5024639 -0.31063995 0.35692424 -0.33583462 -0.47820985 -0.2040941
0.29076564 0.4637363 -0.35430807 0.12943855 0.64976305 0.59893733 0.3283466 0.3749715
0.3062102 0.14332183 -0.3395068 -0.47849175 -0.35491574 -0.29323593 -0.2219205 0.12847981
0.101136796 -0.093424186 0.21005043 0.14712642 0.17398053 0.39305314 -0.09799014 0.6977956
-0.16738702 -0.26713005 -0.41634235 -0.34183803 -0.40985563 -0.0965056 0.41641045 -0.16374962
-0.44074288 0.29542625 0.10772675 0.21751302 -0.47690827 -0.092687406 -0.22936614 -0.054427996
-0.38422698 -0.6907346 -0.17608415 0.14326826 0.081814565 0.025563898 0.49419847 0.56475097
0.16375852 -0.07268777 -0.32821968 0.5581805 -0.12322997 -0.22866122 -0.3929483 -0.0260371
-0.5928521 0.3713477 -0.50299716 -0.19717145 -0.1054767 -0.3166582 0.19492733 -0.27504614
-0.3731346 0.23166952 0.35958976 -0.34809262 0.2785622 0.40143573 0.51098084 -0.33690685
0.06448263 -0.34794107 0.46491095 -0.22209221 0.6358262 0.051517688 0.038423933 -0.07338588
-0.031592984 0.41495907 0.08442506 0.10885867 -0.5100577 0.63396066 0.41693932 0.28158423
0.74696046 -0.6133958 -0.25497404 0.29369208 -0.59321743 0.3070845 -0.43104252 -0.2850722
0.23773056 -0.42039233 -0.011284266 0.48589075 0.3962004 0.62281954 -0.131172 -0.37902707
0.70503056 -0.034754578 -0.21596658 0.021283431 -0.42614016 0.5432878 0.25079474 -0.39828354
-0.49655122 0.4385435 0.3527911 -0.08908636 -0.32574382 -0.40290046 -0.46950945 -0.34586018
-0.36843297 0.68480134 0.38092196 -0.18701221 -0.12083756 0.4687984 -0.01505823 -0.20339616
00000000: 78f8 1a3f 6e41 09bf 5aea 35be 2915 013e
00000010: edb9 16bf a8e7 f33d 1c78 1cbe 5cce 3a3e
00000020: c267 26bd 59ae 98bc df58 9f3d fb7e 09bb
00000030: 6cd9 263f b674 e4be 55ba a5bd 3d36 02be
00000040: 26b9 42bd c16e 983d 767f ff3e 7c7b 1f3d
00000050: 79eb 9bbe 4b84 42bf f4b4 30bd 6933 66be
00000060: abba 5fbe e74f a93e c605 c63e 3f6d 083e
00000070: fad7 06bf 4008 303f a6fc 353e 5e6e 633e
00000080: 03f1 ff3e 9072 25bf 5f3e 09bf 2102 cebe
00000090: fca7 c93e 8eb6 edbd 28eb 7f3e 1c7f a4be
000000a0: cacf 173f c3c9 f4bd 23de cb3e 0366 d8bc
000000b0: b4f9 b6be 6d17 863e 4f2b 87be 7627 133e
000000c0: a95e 87be e180 a7be c261 e8be ea77 78be
000000d0: 3a9e 983e f5c0 eebd 097c 033f 9170 e43e
000000e0: e50e 33be d1b7 97be ea51 893e 2821 db3d
000000f0: 73cc 9dbe 5932 5d3f 34dd 773e 0311 913e
00000100: 3987 acbe 675b edbe 771c 293d 6fbb 9a3c
00000110: 17ec 0cbf d6f9 04bf e45f 753e af16 0bbe
00000120: 1578 ce3e f610 b23d 01ef 443e 7dc3 bd3c
00000130: e15d 813d 22fa 883e 2b04 f5be 203e 923e
00000140: b798 d3be 4ca6 a8be ca2e a53d 0a19 afbd
00000150: f6e8 1b3f 2635 f2be 878e ecbe d5b4 d83e
00000160: 416d 91bc bc50 333f acf4 773e 8126 83be
00000170: fcda fe3d b0ee 3a3e ecc9 b4be fedc 5bbe
00000180: 070c b53d abce 76b9 0cee 17be f2e6 30be
00000190: 1c53 bf3e 1fe3 38be 001e b23e 44f6 1e3e
000001a0: 8b06 fcbe bddb f2be 7f39 053f aeb8 143d
000001b0: c9de a93e 4dd8 c43e 500a 243e 8c02 673e
000001c0: a250 f53e 5300 f2be b163 ca3d 6f51 6e3e
000001d0: abc5 b63e 34e8 a43e c838 c8be b63b b7be
000001e0: 9f4b d0be 6919 993e 79a1 003f 330c 9fbe
000001f0: c6be b63e 84f2 abbe ecd7 f4be 0bfe 50be
00000200: 3cdf 943e d86e ed3e de67 b5be 8a8b 043e
00000210: df56 263f f553 193f 0c1d a83e 44fc bf3e
00000220: 95c7 9c3e f5c2 123e d6d3 adbe dffc f4be
00000230: 84b7 b5be 0523 96be 213f 63be 3690 033e
00000240: cf20 cf3d 2e55 bfbd 7617 573e 4fa8 163e
00000250: f427 323e 433e c93e 0eaf c8bd bca2 323f
00000260: 8167 2bbe 45c5 88be d32a d5be 6505 afbe
00000270: 99d8 d1be baa4 c5bd c033 d53e fbad 27be
00000280: 0da9 e1be 1c42 973e d89f dc3d bcbb 5e3e
00000290: 522d f4be e5d2 bdbd f5de 6abe e4ef 5ebd
000002a0: 66b9 c4be fcd3 30bf 674f 34be eab4 123e
000002b0: 658e a73d 616b d13c 9507 fd3e 8593 103f
000002c0: 50b0 273e 53dd 94bd 690c a8be ebe4 0e3f
000002d0: ff5f fcbd 2b26 6abe 8530 c9be c24b d5bc
000002e0: 28c5 17bf 4921 be3e 6cc4 00bf 50e7 49be
000002f0: 2b04 d8bd 0621 a2be 089b 473e d9d2 8cbe
00000300: 800b bfbe c63a 6d3e 261c b83e 3239 b2be
00000310: b49f 8e3e fc88 cd3e a4cf 023f 0e7f acbe
00000320: 780f 843d 5525 b2be cf08 ee3e 246c 63be
00000330: 81c5 223f 3604 533d 6a62 1d3d 564b 96bd
00000340: a567 01bd 8475 d43e 0ce7 ac3d 4bf1 de3d
00000350: 2493 02bf 3f4b 223f 1279 d53e cf2b 903e
00000360: cd38 3f3f 8207 1dbf f58b 82be cf5e 963e
00000370: 19dd 17bf 2e3a 9d3e 9bb1 dcbe fcf4 91be
00000380: a46f 733e aa3d d7be a4e1 38bc acc6 f83e
00000390: c7da ca3e 1a71 1f3f f451 06be d60f c2be
000003a0: e27c 343f d15a 0ebd 5826 5dbe 975a ae3c
000003b0: 0b2f dabe e914 0b3f 2b68 803e d2eb cbbe
000003c0: f63b febe c688 e03e 09a1 b43e e972 b6bd
000003d0: e5c7 a6be f848 cebe 8b63 f0be 9614 b1be
000003e0: 3fa3 bcbe 244f 2f3f 3408 c33e 2180 3fbe
000003f0: af79 f7bd 5806 f03e cbb6 76bc 1547 50be

layers.0.bias f4 [128]
-0.266931 0.45679963 0.41194013 -0.49635923 -0.38215438 -0.15305859 -0.3384819 0.23730108
-0.42734683 -0.4276016 0.221691 -0.054043606 -0.08661997 -0.5154208 0.35513672 0.13475354
-0.109525666 -0.24295372 0.15131629 0.15125152 0.35380495 0.14378992 0.032976344 -0.43142933
0.4675349 0.02705416 -0.32586712 0.5578434 0.4440125 -0.44476423 -0.09323176 -0.16524966
-0.29586813 0.24634896 -0.34490627 0.59622735 -0.3609936 0.2866446 0.15217091 -0.17057607
0.490419 -0.32735303 -0.10643723 0.009234517 0.38380292 -0.25585404 -0.25243396 -0.34633735
-0.1907691 -0.24760754 -0.16875437 -0.18109104 0.24278283 0.10905956 -0.104128905 -0.1825696
0.08382037 0.012469058 0.4223933 0.07241376 -0.29873 -0.3342224 0.0051297545 0.028264247
0.22096215 -0.12646699 0.09867899 -0.014930435 0.4773721 0.27397975 -0.17762408 0.55625963
0.24338041 -0.34586322 -0.13618244 0.43480363 0.2925858 0.4899146 0.027648635 0.48288426
0.36203307 0.07154596 -0.03396346 0.61799395 0.23622103 -0.104937375 0.09185553 0.6167235
0.43596038 -0.0045215553 0.61831844 0.2619121 -0.24372399 -0.41431966 0.4225408 0.5824339
-0.09188329 0.34553927 0.050089482 -0.046851683 0.007735202 0.23455049 0.16847552 0.48298463
0.2964944 0.38789368 0.56289315 0.29440352 0.18219888 -0.29305482 0.49638295 0.0689262
0.43763474 0.41706273 -0.055237968 0.4406279 0.019727537 0.5454231 0.58315104 -0.04038787
0.089766204 -0.21832848 -0.12882958 0.072651535 0.019609692 -0.03849689 -0.5124764 -0.27283967
00000000: 2eab 88be a4e1 e93e d1e9 d23e cc22 febe
00000010: bda9 c3be 64bb 1cbe 804d adbe 0eff 723e
00000020: 34cd dabe 99ee dabe f702 633e d45c 5dbd
00000030: d065 b1bd 9ef2 03bf 7bd4 b53e d5fc 093e
00000040: fe4e e0bd dcc8 78be a8f2 1a3e aee1 1a3e
00000050: ec25 b53e aa3d 133e 3412 073d 4ee4 dcbe
00000060: bc60 ef3e b0a0 dd3c 0ed8 a6be d3ce 0e3f
00000070: 9b55 e33e 23b8 e3be 4bf0 bebd 3537 29be
00000080: 077c 97be e742 7c3e 8e97 b0be 5ba2 183f
00000090: 27d4 b8be 15c3 923e b1d2 1b3e 7eab 2ebe
000000a0: 3318 fb3e d19a a7be c3fb d9bd 5f4c 173c
000000b0: d181 c43e 4dff 82be 063f 81be 2153 b1be
000000c0: fa58 43be d58c 7dbe f2cd 2cbe ee6f 39be
000000d0: 109c 783e 9e5a df3d 8941 d5bd 86f3 3abe
000000e0: 04aa ab3d 054b 4c3c ef43 d83e aa4d 943d
000000f0: 23f3 98be 331f abbe 8017 a83b 6c8a e73c
00000100: e743 623e 9080 01be 3618 ca3d c99e 74bc
00000110: 1e6a f43e 1347 8c3e 16e3 35be 0867 0e3f
00000120: b738 793e fc14 b1be 6973 0bbe 959e de3e
00000130: cecd 953e 16d6 fa3e 647f e23c 9b3c f73e
00000140: 665c b93e b086 923d 451d 0bbd da34 1e3f
00000150: ede3 713e 68e9 d6bd c11e bc3d 97e1 1d3f
00000160: 3336 df3e 8e29 94bb 1e4a 1e3f 5819 863e
00000170: c892 79be b521 d4be 4557 d83e 631a 153f
00000180: 4e2d bcbd 86ea b03e a12a 4d3d 8de7 3fbd
00000190: 9477 fd3b 012e 703e d984 2c3e c349 f73e
000001a0: 1dce 973e 009a c63e c419 103f 0fbc 963e
000001b0: 5892 3a3e 480b 96be e825 fe3e 2e29 8d3d
000001c0: a911 e03e 3f89 d53e 3541 62bd fb99 e13e
000001d0: a59b a13c d9a0 0b3f 6349 153f c06d 25bd
000001e0: 58d7 b73d 8091 5fbe e7eb 03be 54ca 943d
000001f0: 81a4 a03c eaae 1dbd a731 03bf a4b1 8bbe

layers.1.weight f4 [128, 128]
0.117823884 0.053656064 0.17072804 0.41704106 -0.0029489095 0.10130333 -0.12204578 0.16314748
-0.069697 -0.010124438 -0.047922004 0.049115703 -0.078048296 -0.023410829 -0.004995272 0.0062350594
0.098869205 0.10835836 0.009603113 0.026128063 -0.010910381 0.09689356 0.02303891 -0.123301275
0.1262537 -0.015544683 0.067401685 0.037656892 -0.04338091 -0.094979174 0.05453379 -0.012753677
-0.12075057 0.08800888 -0.0277872 0.12516023 -0.061444566 -0.050167795 0.08467008 -0.025619023
0.1646029 0.008775044 -0.0018698438 -0.0327887 0.03301687 -0.0922783 0.03179396 -0.063757166
-0.028171882 -0.058231648 0.03555372 -9.719479e-07 0.082399234 0.019557988 0.017778875 -0.071557134
0.044793878 -0.020287981 0.08821656 0.10615746 -0.05551435 -0.06133469 0.006990592 0.06703384
-0.021782892 -0.04909032 0.08260456 0.10145364 0.12089242 0.009839429 -0.023821346 0.04108205
0.12355676 -0.08181169 -0.04390809 0.08970258 0.023888942 0.11063627 0.052373547 0.051898204
0.138919 0.11685117 0.04202049 0.03525723 0.109423876 0.11305015 0.07638578 0.042919952
0.06933272 0.001568129 0.15794371 0.09538298 -0.026339479 -0.13338679 0.14774884 0.109219775
0.10098663 0.013614644 0.03762858 -0.048388004 -0.04044393 0.0073627527 0.08148844 0.10134897
-0.024767807 0.1440425 0.12635109 0.121854864 0.09096298 0.049938772 0.109986424 0.061644994
0.15425219 -0.040544543 -0.0054878304 0.10831674 0.071096025 0.14364794 0.042807885 0.022176538
-0.23083404 -0.021576425 0.11144224 0.05024744 -0.011270452 0.0537904 -0.03758109 0.05294936
0.08992007 0.122713506 0.03760346 0.3027124 -0.14720564 0.123892784 0.027031481 0.05158542
0.012716615 -0.047066487 -0.04974811 -0.021757899 -0.052975066 0.019668262 0.0428824 0.06766683
0.073358335 -0.03716097 -0.073368415 -0.07166394 0.15143669 0.04016464 -0.045307275 -0.059738792
0.069527656 0.03932041 0.0657146 0.10962185 0.080986984 -0.06483721 0.006932515 -0.06377978
-0.02434012 0.13697079 0.026703408 0.18062961 -0.0722434 -0.01795312 0.0379385 0.08404619
0.026796125 -0.10116329 0.07977087 -0.05334714 0.04529624 -0.017822921 -0.018203706 0.015075517
0.066828564 0.08962242 0.02854451 -0.0351275 0.2270206 0.11286178 0.009421897 0.05622399
0.009982664 -0.03168365 -0.021959314 0.02126954 -0.06342829 -0.04299168 0.064335376 0.076476805
-0.017339412 -0.120478906 0.0654183 -0.03473695 0.13408636 -0.005775999 -0.031213757 0.12569796
0.08505391 -0.08518778 -0.0757145 0.08860427 0.075813904 0.004474333 -0.033724807 0.10630142
0.059303544 0.110244304 -0.062541045 0.084797956 -0.00023138302 0.041744176 0.007947725 0.10721112
-0.007239955 -0.04592039 0.025731016 -0.07656477 0.037931014 -0.085956715 0.050249513 0.1262404
0.038411763 0.12569351 -0.024187988 -0.09459827 0.05710773 0.12714422 -0.07351364 0.08156819
0.074935935 0.11069845 0.055312026 0.024020018 -0.033743292 0.05383649 -0.009032032 -0.08388322
0.08206543 -0.048907198 0.050075397 0.10170127 0.06789452 0.034003858 0.11519501 0.102453634
-0.15311229 0.061014585 0.09110672 0.18130831 0.04905826 0.07729053 -0.014607816 -0.024396898
00000000: a64d f13d 76c6 5b3d 55d3 2e3e 6886 d53e
00000010: 7e42 41bb 1f78 cf3d 23f3 f9bd 2210 273e
00000020: 4dbd 8ebd f9e0 25bc dd49 44bd 8c2d 493d
00000030: c9d7 9fbd 11c8 bfbc 61af a3bb 784f cc3b
00000040: f07b ca3d fdea dd3d 6056 1d3c 850a d63c
00000050: 74c1 32bc 2170 c63d 19bc bc3c 6185 fcbd
00000060: a648 013e 20af 7ebc e509 8a3d 1d3e 1a3d
00000070: 2eb0 31bd 7184 c2bd d35e 5f3d ccf4 50bc
00000080: 134c f7bd 003e b43d fba1 e3bc 012a 003e
00000090: 4cad 7bbd bf7c 4dbd 8267 ad3d fcde d1bc
000000a0: aa8d 283e 34c5 0f3c 8c15 f5ba 724d 06bd
000000b0: b33c 073d 68fc bcbd 623a 023d 1e93 82bd
000000c0: b8c8 e6bc 4f84 6ebd c7a0 113d e073 82b5
000000d0: eec0 a83d 1338 a03c 01a5 913c 8c8c 92bd
000000e0: c979 373d fb32 a6bc e2aa b43d 1569 d93d
000000f0: 0463 63bd 153a 7bbd 5611 e53b 0a49 893d
00000100: 0972 b2bc ee12 49bd 942c a93d edc6 cf3d
00000110: 7296 f73d 8e35 213c fc24 c3bc a745 283d
00000120: 540b fd3d e38c a7bd f8d8 33bd fcb5 b73d
00000130: beb2 c33c 4595 e23d a585 563d 3693 543d
00000140: c840 0e3e ab4f ef3d ad1d 2c3d e369 103d
00000150: a019 e03d d686 e73d 2670 9c3d d5cc 2f3d
00000160: 50fe 8d3d ae89 cd3a ffbb 213e 2758 c33d
00000170: e4c5 d7bc 8c96 08be 794b 173e 9eae df3d
00000180: 14d2 ce3d f50f 5f3c 6d20 1a3d 8032 46bd
00000190: 89a8 25bd 3f43 f13b 69e3 a63d 0c90 cf3d
000001a0: dbe5 cabc e17f 133e 2e62 013e 0b8f f93d
000001b0: cd4a ba3d 998c 4c3d 9040 e13d 767f 7c3d
000001c0: 49f4 1d3e 0912 26bd 42d3 b3bb 2bd5 dd3d
000001d0: cb9a 913d 7218 133e 5257 2f3d 92ab b53c
000001e0: c25f 6cbe 0bc1 b0bc d43b e43d 42d0 4d3d
000001f0: b4a7 38bc 5353 5c3d a1ee 19bd 6ee1 583d
00000200: 0328 b83d 3851 fb3d 1606 1a3d 1ffd 9a3e
00000210: 13bd 16be 80bb fd3d 2071 dd3c 3c4b 533d
00000220: 5959 503c cac8 40bd adc4 4bbd 9f3d b2bc
00000230: 62fc 58bd 561f a13c 75a5 2f3d e894 8a3d
00000240: e53c 963d 1a36 18bd 2e42 96bd 8bc4 92bd
00000250: 3812 1b3e ad83 243d 1f94 39bd aab0 74bd
00000260: 8464 8e3d 700e 213d 6095 863d 6c81 e03d
00000270: 81dc a53d 5fc9 84bd 272a e33b f99e 82bd
00000280: ee64 c7bc 1242 0c3e 1bc1 da3c f8f6 383e
00000290: 59f4 93bd 6c12 93bc 6765 1b3d 6920 ac3d
000002a0: 8c83 db3c b32e cfbd e95e a33d 8882 5abd
000002b0: 8d88 393d 6001 92bc f01f 95bc 4dff 763c
000002c0: 6add 883d f68b b73d 2dd6 e93c dae1 0fbd
000002d0: 1778 683e 1424 e73d 4d5e 1a3c 204b 663d
000002e0: 548e 233c b7c6 01bd 05e4 b3bc 753d ae3c
000002f0: b1e6 81bd 0b18 30bd 44c2 833d df9f 9c3d
00000300: 620b 8ebc a5bd f6bd 08fa 853d 5548 0ebd
00000310: ef4d 093e 9744 bdbb feb3 ffbc f7b6 003e
00000320: bf30 ae3d ee76 aebd 3410 9bbd 2876 b53d
00000330: 5244 9b3d 6d9d 923b 0623 0abd 8fb4 d93d
00000340: 46e8 723d c4c7 e13d 8515 80bd 8daa ad3d
00000350: 689f 72b9 f1fb 2a3d 2d37 023c 8191 db3d
00000360: 253d edbb 0517 3cbd dac9 d23c fdcd 9cbd
00000370: 8d5d 1b3d 130a b0bd 6fd2 4d3d 2a45 013e
00000380: a755 1d3d cdb5 003e e325 c6bc bdbc c1bd
00000390: cce9 693d 1832 023e 528e 96bd 390d a73d
000003a0: 0378 993d deb5 e23d dd8e 623d a1c5 c43c
000003b0: 6836 0abd a783 5c3d 17fb 13bc f7ca abbd
000003c0: ec11 a83d ea52 48bd dc1b 4d3d c148 d03d
000003d0: 480c 8b3d a147 0b3d 5deb eb3d 36d3 d13d
000003e0: 78c9 1cbe 6eea 793d 2996 ba3d e3a8 393e
000003f0: 50f1 483d 7f4a 9e3d 9f55 6fbc 01dc c7bc

layers.1.bias f4 [128]
0.14436446 0.045128055 0.062112708 0.037953436 -0.10181893 0.03597497 0.054111596 -0.0020598138
0.15734243 0.09678151 0.055143002 0.03656992 -0.04775337 0.07528668 0.023552863 0.086701095
0.13060157 0.059007596 0.012140979 0.054520912 0.20215961 0.103961065 -0.06814047 0.15298063
0.18461671 0.019826282 0.10701073 0.05555227 0.09963806 0.13474219 0.05366948 -0.04348746
0.1125019 0.16022386 0.077038355 0.0891427 0.01117141 0.113141425 -0.012079426 0.16744743
0.016378568 -0.12609532 0.045873914 0.032095607 0.016500833 0.17812547 0.09410305 0.1438556
0.16551238 0.08416206 0.008919064 0.10969387 0.15829483 0.12505332 0.13761513 0.16384242
0.08861617 0.119492315 0.12574461 0.032890785 0.1716408 -0.124513134 0.023305478 0.03438399
-0.041913904 -0.03248167 0.13754103 0.13117157 0.16824533 0.14429526 0.011270165 0.15292501
0.033946365 0.10004303 0.012644024 0.16799407 0.19750905 -0.005094872 0.07486106 0.059237726
0.20033075 0.0874281 0.15580812 -0.0135965105 -0.01617816 0.1791255 0.009102946 0.037543133
0.15128541 0.033875436 0.14110519 0.036782026 0.12095695 0.13353497 0.13440433 0.018054392
0.13407628 0.10912351 0.04701518 0.05570488 -0.058296513 0.18438281 0.08334104 -0.052313514
0.06022793 0.02000005 0.08621095 -0.014975965 0.07279442 0.0128320325 0.046321608 0.012121908
0.15797758 0.13577928 -0.014887168 0.057766505 0.05263426 0.1058099 0.12839411 0.07023961
-0.07514764 0.03447058 0.074131586 0.16305012 0.14043655 -0.06963172 0.119861454 0.1481173
00000000: 47d4 133e 32d8 383d e569 7e3d 1075 1b3d
00000010: 7186 d0bd 7d5a 133d 1fa4 5d3d f1fd 06bb
00000020: 601e 213e 6235 c63d a1dd 613d 57ca 153d
00000030: 0a99 43bd e72f 9a3d eff1 c03c 5890 b13d
00000040: 6bbc 053e f3b1 713d f5ea 463c 5251 5f3d
00000050: ee02 4f3e 8ae9 d43d 3b8d 8bbd f4a6 1c3e
00000060: 2a0c 3d3e ba6a a23c 7128 db3d c78a 633d
00000070: 0a0f cc3d dbf9 093e 87d4 5b3d e81f 32bd
00000080: 6567 e63d b911 243e 49c6 9d3d 7390 b63d
00000090: 4a08 373c b1b6 e73d c9e8 45bc 5777 2b3e
000000a0: 592c 863c 221f 01be 49e6 3b3d af76 033d
000000b0: c12c 873c 8666 363e 1ab9 c03d e24e 133e
000000c0: 147c 293e 285d ac3d 4421 123c 2ea7 e03d
000000d0: 0a18 223e fa0d 003e fbea 0c3e 4fc6 273e
000000e0: 657c b53d 63b8 f43d 32c3 003e 7db8 063d
000000f0: 9bc2 2f3e be00 ffbd 21eb be3c 3ad6 0c3d
00000100: eaad 2bbd 800b 05bd 8ed7 0c3e d751 063e
00000110: 8148 2c3e 23c2 133e 80a6 383c 6098 1c3e
00000120: 580b 0b3d 5ce3 cc3d e128 4f3c a306 2c3e
00000130: d03f 4a3e e2f2 a6bb c150 993d 42a3 723d
00000140: 8123 4d3e 810d b33d 2a8c 1f3e e6c3 5ebc
00000150: 1088 84bc ad6c 373e 8624 153c d4c6 193d
00000160: 90ea 1a3e f8c0 0a3d e17d 103e c0a8 163d
00000170: 47b8 f73d 64bd 083e 4aa1 093e cee6 933c
00000180: 4b4b 093e 267c df3d fd92 403d cd2a 643d
00000190: 53c8 6ebd d9ce 3c3e b5ae aa3d b246 56bd
000001a0: 90b1 763d 25d7 a33c 5e8f b03d c05d 75bc
000001b0: 3e15 953d 723d 523c babb 3d3d f89a 463c
000001c0: e0c4 213e b909 0b3e 4fe9 73bc 929c 6c3d
000001d0: 0697 573d dcb2 d83d bf79 033e c9d9 8f3d
000001e0: 02e7 99bd 0631 0d3d 4dd2 973d 9cf6 263e
000001f0: 99ce 0f3e 139b 8ebd ec79 f53d 10ac 173e

layers.2.weight f4 [64, 128]
0.08242128 0.057793397 -0.043485533 0.121531 -0.05871117 0.031936977 0.24852633 0.15838723
0.10848784 -0.27635586 0.40660366 -0.38335153 0.14425974 0.22025725 0.016853493 0.10009355
-0.098503195 -0.374639 -0.15129486 -0.009204617 -0.15303881 0.117367506 -0.038378783 0.015561264
-0.0842685 -0.013272094 -0.41172412 -0.015757123 -0.065242164 0.030130642 -0.14145151 -0.30537096
0.035537776 0.048370395 0.070461236 -0.25378224 -0.072649404 0.091901734 0.31088144 -0.13392957
-0.07433804 -0.13265443 -0.05433401 -0.05002321 -0.07137236 0.033911146 0.08269563 -0.036685463
0.007139646 -0.018229604 0.003874403 -0.03634113 -0.10627277 -0.07864064 0.0784919 -0.07737957
-0.50513566 -0.16854896 -0.42793092 -0.0031405892 0.08358179 0.1477881 0.19613364 0.10010356
-0.06974234 -0.22240092 -0.37869018 0.108681105 0.041583933 -0.038624763 -0.051351454 0.15422118
-0.0058486573 -0.35771266 -0.37327638 -0.31504893 0.007254555 0.20878932 -0.012801089 0.17207527
0.057781152 -0.6624258 -0.090108 -0.14792491 0.043927863 0.073956266 0.17695762 0.0041850274
-0.04229875 -0.065256216 0.018517287 -0.050802622 -0.014377 0.103763744 0.073349744 -0.5273014
-0.20744538 -0.15083833 -0.021618946 -0.10178263 0.08213297 0.075987265 -0.24275865 0.1670645
-0.036335945 -0.03464256 0.022421712 0.27792305 -0.004821028 0.10139382 0.33554843 0.086974636
-0.05830073 -0.030672625 0.30453062 0.05156325 -0.08974581 -0.04345278 0.08301018 -0.057143256
0.07938627 0.09499616 -0.21656823 -0.038327973 -0.10023293 0.10867617 -0.25708523 -0.38787177
0.029993316 0.07206433 -0.067772806 0.06714068 0.111811414 0.2093107 0.000945311 0.09420017
0.076842286 0.046978135 0.23967835 -0.12548207 0.2679161 0.26259103 0.072857 -0.031066703
0.015246326 -0.006963584 -0.24998724 -0.008886351 0.04019501 0.025414921 0.035597242 0.08532591
0.053425677 -0.007970825 -0.1576603 -0.039605726 -0.108048044 0.058640808 0.00783122 -0.09888702
0.0045906296 0.039781496 -0.018791895 0.06891236 0.06145336 -0.013355536 0.06571049 -0.022850342
0.061481677 0.20519032 0.06280959 0.06288537 -0.05969854 0.07102715 -0.056384817 -0.064831465
0.030190593 0.026002608 0.17109431 -0.005542565 0.0047202487 -0.06592187 -0.009884573 -0.062386267
-0.053311095 -0.4310554 -0.06860048 0.016118594 -0.0119638685 0.2731916 0.121168956 0.22560893
0.33096153 -0.009015139 0.005028011 -0.0317123 0.058608994 -0.024029288 0.06490244 0.056310136
0.08925505 0.063109346 -0.036960512 -0.1054938 -0.025893912 -0.04837965 0.06149142 0.024745831
0.06465756 -0.14360707 0.028124684 0.31971455 0.13650805 -0.08507989 0.14245278 -0.02027827
-0.019742997 0.06886889 -0.01226446 0.044267803 0.01727542 0.015080192 0.10140244 -0.054353695
-0.08591874 0.09965372 0.058848232 -0.026280425 0.31676275 0.0009865655 0.035331286 0.048581768
-0.07589785 0.089890294 0.051089328 0.2251312 -0.07549531 0.26466277 0.33296585 0.35607362
-0.021848572 0.07342091 0.2981203 -0.07092364 -0.0363772 -0.046203732 -0.08153585 -0.012927808
0.11016475 -0.02008352 -0.05257942 0.0019605658 -0.011655039 0.19612335 -0.007002797 -0.120189674
00000000: 7dcc a83d c5b8 6c3d e31d 32bd 3fe5 f83d
00000010: 207b 70bd 59d0 023d b07d 7e3e 4330 223e
00000020: df2e de3d 847e 8dbe 5b2e d03e a746 c4be
00000030: d3b8 133e 1e8b 613e 5610 8a3c d9fd cc3d
00000040: 0bbc c9bd afd0 bfbe 0aed 1abe f6ce 16bc
00000050: 35b6 1cbe 605e f03d 1233 1dbd acf4 7e3c
00000060: f794 acbd 3273 59bc 81cd d2be 1515 81bc
00000070: af9d 85bd 89d4 f63c aad8 10be 9559 9cbe
00000080: 0f90 113d 0920 463d fb4d 903d bfef 81be
00000090: 36c9 94bd fa36 bc3d da2b 9f3e d524 09be
000000a0: 8b3e 98bd 90d6 07be 578d 5ebd 23e5 4cbd
000000b0: ac2b 92bd 6ae6 0a3d 545c a93d 7f43 16bd
000000c0: b1f3 e93b 4056 95bc b2e9 7d3b 70da 14bd
000000d0: 8aa5 d9bd 580e a1bd 5cc0 a03d 2e79 9ebd
000000e0: 9250 01bf 1998 2cbe c319 dbbe 58d2 4dbb
000000f0: ee2c ab3d c455 173e 42d7 483e 1803 cd3d
00000100: 12d5 8ebd 11bd 63be aee3 c1be 3394 de3d
00000110: ea53 2a3d 0035 1ebd e755 52bd 28ec 1d3e
00000120: 18a6 bfbb 1d26 b7be 151e bfbe 184e a1be
00000130: 9eb7 ed3b decc 553e a9bb 51bc 8034 303e
00000140: eeab 6c3d bd94 29bf 8b8a b8bd a179 17be
00000150: b4ed 333d 6276 973d 6134 353e 8e22 893b
00000160: 7441 2dbd 0da5 85bd 91b1 973c 6916 50bd
00000170: 828d 6bbc 1682 d43d 6438 963d 39fd 06bf
00000180: 906c 54be 5d75 1abe 371a b1bc 6973 d0bd
00000190: 5535 a83d 369f 9b3d b995 78be f512 2b3e
000001a0: 00d5 14bd 5be5 0dbd bdad b73c ee4b 8e3e
000001b0: b7f9 9dbb 90a7 cf3d 01cd ab3e c21f b23d
000001c0: bfcc 6ebd 2845 fbbc 70eb 9b3e fd33 533d
000001d0: a7cc b7bd 8bfb 31bd 3e01 aa3d 0c0f 6abd
000001e0: 4595 a23d 598d c23d 10c4 5dbe cbfd 1cbd
000001f0: ec46 cdbd 9d91 de3d ada0 83be 2197 c6be
00000200: 8bb4 f53c 7796 933d 78cc 8abd 0e81 893d
00000210: 62fd e43d 8b55 563e bfce 773a 05ec c03d
00000220: 7d5f 9d3d 256c 403d 3e6e 753e 5f7e 00be
00000230: 4d2c 893e 5572 863e 0d36 953d 997f febc
00000240: bacb 793c c72e e4bb a8fc 7fbe 0f98 11bc
00000250: 86a3 243d f432 d03c 6ace 113d 5abf ae3d
00000260: e2d4 5a3d 1098 02bc b471 21be 9d39 22bd
00000270: 4b48 ddbd 5831 703d 844e 003c 4785 cabd
00000280: fe6c 963b ecf1 223d 76f1 99bc ec21 8d3d
00000290: 85b6 7b3d 2ed1 5abc 3993 863d a430 bbbc
000002a0: 36d4 7b3d 691d 523e 50a2 803d 0bca 803d
000002b0: 7586 74bd af76 913d c4f3 66bd 5cc6 84bd
000002c0: 4352 f73c 6c03 d53c 5933 2f3e 689e b5bb
000002d0: 51ac 9a3b 0c02 87bd e7f2 21bc be88 7fbd
000002e0: bc5c 5abd 4bb3 dcbe 697e 8cbd 240b 843c
000002f0: 1a04 44bc c5df 8b3e 6e27 f83d 0706 673e
00000300: ca73 a93e 3cb4 13bc 03c2 a43b c2e4 01bd
00000310: fc0f 703d 12d9 c4bc 92eb 843d 75a5 663d
00000320: 5acb b63d 793f 813d e863 17bd 220d d8bd
00000330: 781f d4bc bd29 46bd 6dde 7b3d c5b7 ca3c
00000340: 2f6b 843d bb0d 13be bd65 e63c a0b1 a33e
00000350: c4c8 0b3e 5e3e aebd 24df 113e 9d1e a6bc
00000360: 11bc a1bc 220b 8d3d e0f0 48bc 2852 353d
00000370: 2e85 8d3c e912 773c 15ac cf3d fba1 5ebd
00000380: 2af6 afbd 4017 cc3d d80a 713d 0c4a d7bc
00000390: ba2e a23e a54f 813a 8ab7 103d adfd 463d
000003a0: 5570 9bbd 6718 b83d 0b43 513d cb88 663e
000003b0: 499d 9abd e181 873e 807a aa3e 484f b63e
000003c0: c7fb b2bc b45d 963d 39a3 983e 6a40 91bd
000003d0: 4200 15bd 2040 3dbd 45fc a6bd 28cf 53bc
000003e0: 0e9e e13d 3286 a4bc 855d 57bd d67c 003b
000003f0: c7f4 3ebc 8fd4 483e b877 e5bb 0126 f6bd

layers.2.bias f4 [64]
0.26402304 0.03955631 -0.11683737 0.033013843 0.061548755 0.15394774 -0.043826263 0.011568308
0.04887801 -0.014462646 0.050117683 0.13154742 -0.05780432 0.024394404 0.08757838 0.07784546
0.007608629 0.07768865 0.1601507 0.10061555 0.13549176 0.15819852 -0.057414133 0.2841621
0.059653528 0.08921046 -0.041319072 0.024818636 0.16555724 0.11249334 -0.099303246 0.15077637
-0.13105944 0.17443839 -0.0035334057 0.043224704 0.05036122 0.1205357 0.031438913 0.023084702
-0.04837336 -0.038194314 0.04640961 0.16694884 0.168292 0.180188 -0.007046338 0.036127936
0.15719958 -0.015946608 0.044118077 0.087954104 0.17708384 0.0031357354 0.042199366 0.09306574
-0.02135059 -0.057574186 -0.07533802 -0.011895517 0.0458917 0.16215709 -0.060686607 -0.116508566
00000000: 072e 873e cc05 223d 6e48 efbd 8639 073d
00000010: 8c1a 7c3d 7aa4 1d3e 2b83 33bd 0089 3d3c
00000020: 4f34 483d bcf4 6cbc 3348 4d3d 5eb4 063e
00000030: 39c4 6cbd c6d6 c73c 4b5c b33d 716d 9f3d
00000040: ce51 f93b 3a1b 9f3d 8cfe 233e 870f ce3d
00000050: 5abe 0a3e cbfe 213e 152b 6bbd b27d 913e
00000060: 4257 743d f9b3 b63d 303e 29bd 7450 cb3c
00000070: d687 293e e962 e63d 805f cbbd 1f65 1a3e
00000080: 7234 06be fa9f 323e b690 67bb 630c 313d
00000090: 9147 4e3d 6cdb f63d 17c6 003d 211c bd3c
000000a0: 2523 46bd a471 1cbd 0118 3e3d a3f4 2a3e
000000b0: bd54 2c3e 3483 383e f8e4 e6bb e3fa 133d
000000c0: edf8 203e 76a2 82bc 28b5 343d 4821 b43d
000000d0: 7755 353e e980 4d3b 3ed9 2c3d 4099 be3d
000000e0: 6fe7 aebc e9d2 6bbd d24a 9abd 6ae5 42bc
000000f0: eff8 3b3d 820c 263e 8592 78bd 0b9c eebd

readout.weight f4 [1, 64]
0.92125595 0.2676616 0.32935917 -0.18076105 -0.12366497 -0.2110621 0.04656885 0.12305704
-0.1198562 0.06579331 -0.20730981 -0.20994335 0.2314744 0.016403938 -0.1153871 0.030362757
0.2887088 0.46155983 -0.4298214 -0.19350316 -0.19754507 -0.4717466 0.0021798674 0.958232
-0.17766751 -0.16538842 -0.051931635 0.192979 -0.22003752 -0.20693287 0.19803174 -0.14354901
0.24457115 -0.12909085 0.08220571 -0.16879573 0.064356185 -0.15767191 -0.08299738 -0.15151526
0.43165052 0.013136692 0.36370015 -0.16020118 -0.13546932 -0.14386319 0.086689495 -0.23438127
-0.11136971 0.010511154 -0.17762274 0.55588 -0.20419379 0.31408682 -0.13517486 -0.20660172
0.028310822 0.068951525 -0.028200015 0.05870876 0.28471023 -0.13226889 0.23559012 0.26131025
00000000: 6ed7 6b3f f10a 893e c4a1 a83e 6d19 39be
00000010: 0f44 fdbd aa20 58be fabe 3e3d 5405 fc3d
00000020: 2b77 f5bd a5be 863d 0649 54be 64fb 56be
00000030: a007 6d3e 8d61 863c 1250 ecbd 51bb f83c
00000040: a4d1 933e 9251 ec3e 8d11 dcbe b125 46be
00000050: 4149 4abe c588 f1be 1bdc 0e3b b14e 753f
00000060: 79ee 35be 955b 29be 44b6 54bd 499c 453e
00000070: 8451 61be 36e6 53be d5c8 4a3e 83fe 12be
00000080: dc70 7a3e 6430 04be 785b a83d cad8 2cbe
00000090: 2dcd 833d bf74 21be 88fa a9bd d126 1bbe
000000a0: 4c01 dd3e 483b 573c e836 ba3e c70b 24be
000000b0: 78b8 0abe df50 13be 438a b13d a501 70be
000000c0: cd15 e4bd fa36 2c3c bce2 35be 274e 0e3f
000000d0: 2d18 51be fdcf a03e 476b 0abe 678f 53be
000000e0: 19ec e73c 7536 8d3d b803 e7bc 9978 703d
000000f0: 8ac5 913e 7f71 07be 893e 713e 75ca 853e

layers.0.weight f4 [128, 3]
1.6949775 0.4288343 0.3041678 -0.3220594 0.7055877 0.06396948 0.31932214 0.14099993
-0.30750662 0.12428528 -0.8004935 0.1261635 0.20393914 -0.6201926 0.47968552 -0.35311094
-1.1467768 0.6787861 -0.058400292 -2.3282354 0.9689245 -0.15007167 0.37744966 0.17386474
-0.60002464 -0.67149025 0.627265 -0.62305766 0.6243228 0.20735662 0.5768648 -0.34179294
-0.21977623 0.14439926 -0.45665258 -0.2544518 0.16345564 0.8412858 -0.25161415 0.68076277
-0.55658793 0.78929377 0.7272823 -0.32414412 0.47418854 -0.28823277 -2.0962715 0.96094257
-0.358609 1.3803478 0.42315158 0.6040932 0.08241254 -0.05870352 0.443961 0.84050614
0.118101 -0.058442663 0.01834868 0.00061102567 0.49643877 0.62358737 0.46271452 -0.52633387
0.2430082 0.4271388 -0.06013141 -0.41464317 -0.32630837 -0.650482 -0.48999327 -0.15214144
0.53853303 -0.29557586 -0.1467443 -0.5678171 0.16384485 0.26607794 0.21547666 -0.26690757
0.78949934 0.92145705 -0.12340817 -0.027555047 -0.05302687 -0.39348066 -0.043484285 -0.582756
-0.097233504 -0.18184604 -0.0037978147 0.9515945 0.49513343 0.5656218 0.5146351 -0.07855404
-0.18266723 -0.36839572 0.051559206 0.9532182 0.82808167 0.13670525 0.3395316 -0.20002408
0.5788237 0.30922008 0.64140636 0.16795413 0.08080346 1.0321195 -0.2638375 -0.35761184
-0.045551155 -0.086225405 -0.41078675 -0.34392062 0.032377917 0.82707834 -0.47492436 -0.25130162
-0.08855915 0.10231935 0.0007010552 -0.36237696 -1.5849295 0.05161883 0.35127544 1.1175652
-0.27830252 -0.061015833 -0.43986946 -0.092297934 0.14651483 -1.9279578 0.7765035 0.70532423
-0.7568242 -0.3990272 0.1476056 0.67281145 0.24225919 0.13380958 -0.25000173 -0.0053777085
-0.19869274 0.6687564 0.32144436 -0.14182328 0.65976614 0.08890808 0.013599909 0.37741527
-0.36148605 -0.11440756 1.1939818 0.062484637 -0.4958067 -1.5245348 -0.09676165 -0.50475544
-0.82830507 0.030155426 -0.09360761 1.2991685 0.22700842 0.91896564 0.94247216 0.027059352
0.61491793 -0.31705204 0.43108302 0.33445036 -0.35998523 -0.06411993 -0.358597 -0.5132958
-0.10541116 0.13567893 0.33768445 -0.4197517 1.1405721 0.4505332 -0.42497933 -0.13119182
0.6351499 0.29322094 -0.21185881 -0.09925539 0.2939167 0.24729134 0.5473066 0.012010023
0.5130173 0.4973178 0.24639656 0.2023622 -0.9503542 -0.34441113 0.8656597 0.03225354
0.44854522 -0.35302436 0.3862275 -0.15885217 0.14276773 -0.7206029 -0.09410642 0.25316915
1.1676445 0.20485136 0.07642923 -0.6394499 0.8982523 -0.47050673 0.034376565 -0.054874014
-0.53115165 -0.3428721 0.23099126 0.9283897 0.3865829 -0.062221333 -0.21415305 0.35453105
-0.0026200744 0.03171045 1.1309652 -0.016145872 0.5335914 -0.22439064 0.08790485 0.015554847
0.6437676 0.62258005 0.0149781685 0.2386704 0.20661296 -0.58218956 0.4061239 0.071112424
0.6042367 0.030177407 -0.03422551 0.45358387 1.4079055 0.3201266 0.31397378 -0.90747684
0.05072131 -0.68229926 -0.31268555 -0.082332626 0.3322901 0.7768913 0.28840736 0.7685366
00000000: 06f5 d83f 2b90 db3e e2bb 9b3e f8e4 a4be
00000010: 65a1 343f 6e02 833d 317e a33e 4962 103e
00000020: 8271 9dbe 4889 fe3d 24ed 4cbf 0131 013e
00000030: 6cd5 503e f1c4 1ebf 5799 f53e f5ca b4be
00000040: 95c9 92bf edc4 2d3f 2535 6fbd cf01 15c0
00000050: 700b 783f 63ac 19be 1541 c13e 9909 323e
00000060: 379b 19bf c9e6 2bbf 7094 203f b580 1fbf
00000070: 9ed3 1f3f 4b55 543e 69ad 133f 7cff aebe
00000080: 050d 61be 66dd 133e 5ece e9be 8247 82be
00000090: ea60 273e 825e 573f 92d3 80be 7846 2e3f
000000a0: 8c7c 0ebf 280f 4a3f 2c2f 3a3f 38f6 a5be
000000b0: d7c8 f23e 3f93 93be 5029 06c0 5500 763f
000000c0: 999b b7be 3daf b03f 53a7 d83e daa5 1a3f
000000d0: e8c7 a83d 1a73 70bd db4e e33e 692b 573f
000000e0: f0de f13d 9361 6fbd f94f 963c 3d2d 203a
000000f0: 392d fe3e 6ca3 1f3f ebe8 ec3e d1bd 06bf
00000100: 24d7 783e f0b1 da3e 5a4c 76bd 1c4c d4be
00000110: e411 a7be fd85 26bf 66e0 fabe f7ca 1bbe
00000120: 4ddd 093f b855 97be 2344 16be 765c 11bf
00000130: f2c6 273e 5e3b 883e eaa5 5c3e 1ca8 88be
00000140: a11c 4a3f 9ce4 6b3f 6cbd fcbd 1fbb e1bc
00000150: b432 59bd 4c76 c9be 941c 32bd 7f2f 15bf
00000160: 5c22 c7bd d935 3abe c2e4 78bb b29b 733f
00000170: 2182 fd3e 97cc 103f 20bf 033f f1e0 a0bd
00000180: 1e0d 3bbe 5d9e bcbe bf2f 533d 1c06 743f
00000190: 29fd 533f 76fc 0b3e 16d7 ad3e 1dd3 4cbe
000001a0: ca2d 143f 1852 9e3e 3533 243f 2bfc 2b3e
000001b0: 497c a53d 7e1c 843f b515 87be e618 b7be
000001c0: d993 3abd f296 b0bd a452 d2be 5d16 b0be
000001d0: b59e 043d 68bb 533f 4929 f3be 9baa 80be
000001e0: 805e b5bd cf8c d13d 05c7 373a 7989 b9be
000001f0: f8de cabf 446e 533d 60da b33e 600c 8f3f
00000200: ab7d 8ebe bdeb 79bd 9236 e1be b306 bdbd
00000210: fc07 163e 52c7 f6bf efc8 463f 2190 343f
00000220: 3bbf 41bf 4b4d ccbe ec25 173e 5f3d 2c3f
00000230: cb12 783e 6105 093e 3a00 80be 7d37 b0bb
00000240: 1c76 4bbe 9f33 2b3f 5b94 a43e 1f3a 11be
00000250: 6fe6 283f 7015 b63d 27d2 5e3c 933c c13e
00000260: b314 b9be 834e eabd 65d4 983f e4ef 7f3d
00000270: 60da fdbe f523 c3bf f92a c6bd a737 01bf
00000280: cd0b 54bf 8308 f73c 59b5 bfbd 274b a63f
00000290: e574 683e 5541 6b3f db45 713f 93ab dd3c
000002a0: 436b 1d3f a554 a2be eab6 dc3e 143d ab3e
000002b0: fc4f b8be 4f51 83bd 079a b7be 5b67 03bf
000002c0: cee1 d7bd 6bef 0a3e fae4 ac3e b2e9 d6be
000002d0: 44fe 913f 4aac e63e e496 d9be 2657 06be
000002e0: 2f99 223f 0e21 963e 84f1 58be 6946 cbbd
000002f0: 407c 963e f139 7d3e 491c 0c3f b0c5 443c
00000300: 1a55 033f 70a0 fe3e 614f 7c3e 0938 4f3e
00000310: 6a4a 73bf a856 b0be e09b 5d3f 4a1c 043d
00000320: b8a7 e53e 9cbf b4be 9cbf c53e 25aa 22be
00000330: b431 123e 6f79 38bf deba c0bd 639f 813e
00000340: 6075 953f 8ec4 513e ee86 9c3d fdb2 23bf
00000350: ddf3 653f 42e6 f0be 71ce 0c3d 93c3 60bd
00000360: 8ef9 07bf ef8c afbe f988 6c3e f3aa 6d3f
00000370: 32ee c53e ccdb 7ebd f04a 5bbe 1885 b53e
00000380: 8eb5 2bbb d1e2 013d 78c3 903f 5944 84bc
00000390: 7299 083f a9c6 65be 7507 b43d c2d9 7e3c
000003a0: f4cd 243f 6861 1f3f fe66 753c 0366 743e
000003b0: 5992 533e 600a 15bf 79ef cf3e 64a3 913d
000003c0: 42af 1a3f 9c36 f73c 0c30 0cbd 253c e83e
000003d0: 3f36 b43f a2e7 a33e 2cc1 a03e 6750 68bf
000003e0: 26c1 4f3d 2aab 2ebf 5218 a0be 029e a8bd
000003f0: ee21 aa3e 59e2 463f 21aa 933e d1be 443f

layers.0.bias f4 [128]
-1.121278 -0.8062552 -1.1411499 0.55177283 -0.059938043 -0.22597404 -0.6070092 -0.016305681
-0.2744881 -0.5088453 0.0125938 -0.42939484 -0.4739582 0.3174082 0.49863878 -0.3571963
-0.8876851 -0.15875548 0.38328293 -0.066407844 -0.48465574 0.016843824 -0.6400497 -0.70973885
-0.022262387 -0.113295205 -0.17116821 0.48976228 -0.7934497 -0.28664294 -0.42569602 -0.4031022
0.28191337 -1.3903931 0.03397578 0.4414743 -0.4086407 -0.33594128 -0.48320428 0.13235149
-0.19517696 -0.61941314 -0.30058533 -0.19653128 -0.3692491 -0.30045602 -0.44280994 -0.312561
0.4483325 0.18463743 -0.7870429 -0.35258412 -0.22181597 0.38036036 -0.08129377 -0.63148654
-0.54481727 0.11836978 -0.41841397 -0.79291165 -0.55132174 -0.82099396 -0.32666975 -0.70546615
0.2240046 -0.736575 -0.037270147 0.10362716 -0.17850113 -0.30817464 -0.35357374 -0.107508875
-0.22519992 0.30539334 -0.44917858 -0.7402275 0.44943374 -0.21614206 0.3194372 0.21296197
0.14573978 -0.7801372 -0.06497673 -0.5149371 0.26706398 -1.0568755 -0.6107498 -0.4049575
-0.26773912 0.2820466 -0.58177537 0.6907252 0.47371432 0.037246022 0.12914303 -0.7369151
-0.30781668 0.35642642 -0.700029 -0.42095414 -0.45418257 -1.1116529 -0.051066265 -0.06607564
0.220503 0.23126842 -0.1592369 -0.1718345 -0.59287816 -0.81414783 0.29915962 -0.57267654
-0.15195277 -0.69333124 -0.13431086 0.38835996 0.0797052 0.5011929 -1.0925438 -0.02255856
-0.39076996 -0.09533305 -0.20709047 -0.11751416 0.18872671 0.17221735 -0.2122824 -0.2709432
00000000: 0a86 8fbf be66 4ebf 3311 92bf fc40 0d3f
00000010: 9881 75bd bd65 67be f464 1bbf 7e93 85bc
00000020: b489 8cbe b043 02bf 3a56 4e3c a4d9 dbbe
00000030: a6aa f2be 5483 a23e 954d ff3e 6fe2 b6be
00000040: 553f 63bf cc90 22be a93d c43e d600 88bd
00000050: cc24 f8be 0ffc 893c 4cda 23bf 72b1 35bf
00000060: 9c5f b6bc 5107 e8bd b846 2fbe 1fc2 fa3e
00000070: 851f 4bbf ddc2 92be d4f4 d9be 6963 cebe
00000080: f356 903e 67f8 b1bf 302a 0b3d eb08 e23e
00000090: 5b39 d1be 7f00 acbe 8d66 f7be 2687 073e
000000a0: 78dc 47be dc91 1ebf 52e6 99be 7f3f 49be
000000b0: 380e bdbe 5fd5 99be fcb7 e2be ff07 a0be
000000c0: d68b e53e 9811 3d3e a57b 49bf e885 b4be
000000d0: ba23 63be 98be c23e 597d a6bd 1aa9 21bf
000000e0: 2579 0bbf db6b f23d 5b3a d6be 42fc 4abf
000000f0: 6c23 0dbf a92c 52bf 4241 a7be 6e99 34bf
00000100: 7661 653e 2e90 3cbf 95a8 18bd 7a3a d43d
00000110: 00c9 36be 11c9 9dbe 9e07 b5be 9d2d dcbd
00000120: cf9a 66be 845c 9c3e bcfa e5be 8d7f 3dbf
00000130: 2e1c e63e 5854 5dbe 468d a33e b412 5a3e
00000140: cf3c 153e 12b7 47bf 8512 85bd ebd2 03bf
00000150: 9cbc 883e b247 87bf 195a 1cbf 9756 cfbe
00000160: 1a15 89be 6968 903e 3bef 14bf 5ed3 303f
00000170: af8a f23e 498f 183d 123e 043e 78a6 3cbf
00000180: 269a 9dbe 867d b63e 1a35 33bf 4d87 d7be
00000190: 9e8a e8be a44a 8ebf dc2a 51bd aa52 87bd
000001a0: 8acb 613e a1d1 6c3e ff0e 23be 62f5 2fbe
000001b0: ddc6 17bf fe6b 50bf 732b 993e ee9a 12bf
000001c0: 8299 1bbe 287e 31bf c988 09be 1ed7 c63e
000001d0: 7b3c a33d 2e4e 003f 7ad8 8bbf bbcc b8bc
000001e0: 0013 c8be f93d c3bd 860f 54be 44ab f0bd
000001f0: 9341 413e bf59 303e 8f60 59be 11b9 8abe

layers.1.weight f4 [128, 128]
-0.21049733 0.08712633 -0.050598018 0.010791648 0.047986455 -0.3353476 -0.36020014 -0.017599443
-0.18182863 0.019227888 -0.16732989 0.007469254 -0.2745065 -0.023395274 -0.2476317 -0.26998296
-0.18356371 -0.025567688 -0.5813411 -0.006230489 -0.20215626 -0.044275828 0.020331824 -0.033046607
-0.14543515 0.03881991 -0.35084075 -0.21325105 -0.15032302 0.04805488 -0.00080770615 0.05491323
-0.049649436 -0.31542853 -0.060210757 -0.08661226 -0.0682306 -0.0021128221 -0.03973527 -0.065230094
-0.030026563 -0.25240594 -0.100776605 -0.018262852 -0.35458916 -0.038858127 0.057553243 -0.05323369
-0.098506704 -0.005192256 0.0054394817 -0.4555468 0.009529901 -0.09862658 -0.38474333 -0.35572013
0.01409161 -0.13321865 -0.027090326 -0.026082592 -0.03911911 -0.017752688 -0.08541243 0.08966801
0.029644052 -0.15429445 -0.20173581 -0.01243052 -0.14319746 0.044584803 -0.41142353 0.020059604
-0.02296484 -0.55968344 -0.04766943 -0.029260764 -0.0042248447 -0.14241496 0.03385293 0.012860248
-0.09057878 -0.04881429 0.015077092 -0.054550853 -0.041387357 0.033974953 -0.031387802 0.057740703
-0.15157333 -0.12956701 -0.050271485 -0.32102692 -0.13490964 -0.049459692 -0.11303174 0.06097076
-0.058699276 -0.2444361 0.19100752 -0.073813416 0.0805946 -0.010880134 -0.47902155 -0.0045022876
0.039929215 0.013310249 0.02615458 -0.061424956 -0.13863297 -0.0144467605 -0.11951177 0.017134136
-0.23482361 -0.27730963 0.058630936 -0.29654345 -0.051684104 -0.18979932 0.08413337 0.047420572
-0.13930605 -0.010094425 -0.0023873583 -0.10555371 -0.0021013403 -0.56402487 -0.015373485 -0.012862831
-0.10580271 -0.49873346 -1.9325727 -0.02431707 0.32840475 0.05643281 0.10641796 0.2323361
-0.08070341 0.03870481 0.010249212 0.04840452 -1.0377238 -0.18444785 0.19427495 0.12166602
0.7415946 0.05739881 -0.6962072 0.042745758 0.8255166 -0.2026291 -0.05194576 0.071998894
0.23912182 -0.20185256 -1.5633446 -1.0324638 0.3095912 0.1516546 -0.31093952 -0.09303122
-0.06482183 -0.6965006 -0.35894012 0.27431864 -0.23424986 0.22675686 0.008094509 0.229784
0.12411783 -0.0460962 -0.9248742 0.06489532 -0.0040233266 -0.009210953 -0.3223994 0.22663352
-0.21188971 -0.013816446 0.070832774 -0.16165583 0.000108932 0.12339235 0.32926857 -0.09223508
-0.23807338 0.114679255 0.20971292 0.27166513 -1.5006781 -0.21092057 -0.13643384 -1.1635733
-0.058249228 0.11741808 -1.2794842 0.24615632 0.08131097 -0.55940336 -1.3761768 0.07615877
0.20292161 -2.3460643 0.027663574 -0.06951457 -0.05111941 -0.5417513 -0.28461453 0.19417414
-0.36604172 -0.62862897 -0.03819978 0.08460321 0.082808465 0.3775638 -1.3804039 -0.39114687
-0.061906494 0.11009848 0.16372216 -0.06636577 -0.051489796 -0.0136954235 -0.22891317 0.39436552
-0.056221776 0.4105145 -0.15422674 -0.45583904 0.081431545 -2.4671676 0.010882671 0.003261469
-1.161068 0.1489596 0.2533076 -0.17797786 -0.3809551 -0.20182967 0.08063358 0.01862954
0.11005349 -0.5275589 -0.2360226 -1.8407067 0.069289885 -0.44300345 -0.23357038 0.49538302
-0.43347737 -0.008310624 0.16791658 0.096239105 -0.03262523 -1.3443598 0.09548782 0.14881814
00000000: 9d8c 57be 4a6f b23d de3f 4fbd 74cf 303c
00000010: 728d 443d aeb2 abbe 276c b8be b52c 90bc
00000020: 4931 3abe ce83 9d3c 8758 2bbe a5c0 f43b
00000030: 1e8c 8cbe 72a7 bfbc 2a93 7dbe 353b 8abe
00000040: 20f8 3bbe 5473 d1bc c5d2 14bf 2129 ccbb
00000050: 0d02 4fbe 925a 35bd ed8e a63c e15b 07bd
00000060: f4ec 14be a001 1f3d 66a1 b3be 7c5e 5abe
00000070: 47ee 19be 32d5 443d 3ebc 53ba b2ec 603d
00000080: 355d 4bbd d97f a1be 8e9f 76bd c561 b1bd
00000090: 7cbc 8bbd 4677 0abb 73c1 22bd 5b97 85bd
000000a0: 44fa f5bc 5a3b 81be f763 cebd fa9b 95bc
000000b0: b68c b5be b329 1fbd f3bc 6b3d 920b 5abd
000000c0: e2bd c9bd cd23 aabb ae3d b23b 6e3d e9be
000000d0: 4d23 1c3c bbfc c9bd 14fd c4be f320 b6be
000000e0: 7fe0 663c 786a 08be 88ec ddbc 29ab d5bc
000000f0: 5c3b 20bd 166e 91bc b6ec aebd dda3 b73d
00000100: 15d8 f23c 5dff 1dbe d593 4ebe 61a9 4bbc
00000110: 5ba2 12be 8e9e 363d 1ba6 d2be 0a54 a43c
00000120: c320 bcbc 6a47 0fbf 0541 43bd 45b4 efbc
00000130: 9170 8abb 3ad5 11be 5fa9 0a3d cab3 523c
00000140: 5e81 b9bd 7ef1 47bd e805 773c b770 5fbd
00000150: ca85 29bd 5229 0b3d 7f90 00bd 8481 6c3d
00000160: 0a36 1bbe 37ad 04be 79e9 4dbd a45d a4be
00000170: c125 0abe 3f96 4abd 2f7d e7bd 7abc 793d
00000180: a76e 70bd 754d 7abe 7a97 433e 7d2b 97bd
00000190: c80e a53d 9742 32bc 5042 f5be ed87 93bb
000001a0: d18c 233d 3b13 5a3c 2142 d63c bc98 7bbd
000001b0: cdf5 0dbe 1bb2 6cbc 96c2 f4bd e35c 8c3c
000001c0: 9a75 70be 87fb 8dbe fe26 703d 8bd4 97be
000001d0: b6b2 53bd c15a 42be 1e4e ac3d 133c 423d
000001e0: 3fa6 0ebe 1663 25bc 3a75 1cbb 8b2c d8bd
000001f0: a4b6 09bb ef63 10bf 12e1 7bbc a0be 52bc
00000200: 17af d8bd fe59 ffbe 8b5e f7bf 9834 c7bc
00000210: ab24 a83e 1726 673d a9f1 d93d 84e9 6d3e
00000220: d447 a5bd ef88 1e3d 50ec 273c d143 463d
00000230: 22d4 84bf e6df 3cbe 03f0 463e 092c f93d
00000240: 25d9 3d3f 041b 6b3d a33a 32bf 2d16 2f3d
00000250: 0e55 533f 017e 4fbe 14c5 54bd 2874 933d
00000260: 5adc 743e 70b2 4ebe ad1b c8bf c627 84bf
00000270: bd82 9e3e 584b 1b3e 7733 9fbe 2787 bebd
00000280: 4fc1 84bd dd4d 32bf 00c7 b7be 7e73 8c3e
00000290: 32df 6fbe f332 683e d59e 043c 7f4c 6b3e
000002a0: 7d31 fe3d 5ecf 3cbd 8ec4 6cbf d6e7 843d
000002b0: 1cd6 83bb 89e9 16bc 8911 a5be 9e12 683e
000002c0: 9ef9 58be 605e 62bc c610 913d 1b89 25be
000002d0: 6c72 e438 21b5 fc3d e495 a83e bfe5 bcbd
000002e0: 82c9 73be f5dc ea3d fcbe 563e b117 8b3e
000002f0: 3816 c0bf 90fb 57be 50b5 0bbe f8ef 94bf
00000300: be96 6ebd e478 f03d 23c6 a3bf 6710 7c3e
00000310: 5e86 a63d 0f35 0fbf 9026 b0bf 21f9 9b3d
00000320: afca 4f3e eb25 16c0 b89e e23c a85d 8ebd
00000330: 9662 51bd 37b0 0abf ffb8 91be 96d5 463e
00000340: d269 bbbe d4ed 20bf 5f77 1cbd 7344 ad3d
00000350: 7c97 a93d 0b50 c13e 13b1 b0bf 6744 c8be
00000360: aa91 7dbd 507b e13d c8a6 273e c7ea 87bd
00000370: f7e6 52bd c562 60bc 3768 6abe 47ea c93e
00000380: ce48 66bd f52e d23e 9ded 1dbe bc63 e9be
00000390: 95c5 a63d 13e6 1dc0 3b4d 323c 5fbe 553b
000003a0: e09d 94bf de88 183e 89b1 813e d43f 36be
000003b0: 8c0c c3be 70ac 4ebe 3823 a53d fa9c 983c
000003c0: b963 e13d 1a0e 07bf e9af 71be 479c ebbf
000003d0: dbe7 8d3d 59d1 e2be 132d 6fbe d8a2 fd3e
000003e0: bff0 ddbe 4929 08bc 53f2 2b3e 0219 c53d
000003f0: 08a2 05bd fb13 acbf 1e8f c33d c863 183e

layers.1.bias f4 [128]
-0.059674967 0.07900819 -0.12617563 -0.06041372 -0.004368905 -0.10110604 0.16086155 0.007229414
-0.009197357 -0.04003401 -0.006155065 -0.11149058 -0.07927613 -0.13572657 -0.018198876 -0.111992046
-0.07698448 -0.13914472 0.10667456 -0.019684164 0.042023886 -0.088296615 0.04901447 -0.019565672
-0.037724823 0.005448093 0.007903919 0.0775211 0.23451538 0.11963577 0.016771419 0.03962825
-0.02204557 0.011413858 0.055823654 0.00018397949 -0.10446197 -0.01210689 0.021408945 -0.21036163
0.01841418 -0.05804266 -0.11851888 0.2839713 0.026264947 0.0026219578 0.02183877 0.001758204
-0.0974249 0.17983712 0.016806321 0.030006656 0.02562176 -0.06368158 -0.054573033 -0.022100136
0.032204766 -0.23703869 0.0392511 0.14118971 -0.07517738 -0.08494721 -0.09579264 -0.044906765
-0.027206615 -0.080990806 -0.16488041 -0.08613464 -0.08527372 -0.023498464 0.010342378 0.046492066
-0.06563168 -0.08952884 0.14336143 -0.058049846 -0.26340422 -0.38801193 -0.0055536656 0.08026003
0.021438006 -0.030446721 -0.09340142 0.055865128 -0.34310424 -0.07522033 -0.026584381 -0.078475684
0.18325128 -0.07164401 0.034687575 0.23871884 -0.053039562 -0.07123464 0.048664033 -0.135121
-0.09421251 -0.1579814 -0.28067553 -0.124387264 0.0645484 -0.05197265 -0.2792596 -0.030190753
-0.11370709 -0.11781222 -0.06863195 -0.1071255 0.040204145 -0.11894582 -0.055737942 0.07634917
0.027011579 0.03411024 -0.034818724 0.007031456 -0.10922007 0.03134438 0.08715155 0.04317378
0.035978667 -0.10815338 -0.03539846 0.1708824 0.037530396 -0.12073384 -0.025751837 -0.05002766
00000000: bd6d 74bd 0ccf a13d 2f34 01be 6074 77bd
00000010: 0829 8fbb af10 cfbd e4b8 243e b8e4 ec3b
00000020: 83b0 16bc b4fa 23bd 6db0 c9bb 2c55 e4bd
00000030: 865b a2bd e8fb 0abe cf15 95bc 165c e5bd
00000040: 0aaa 9dbd f47b 0ebe 3178 da3d af40 a1bc
00000050: 3d21 2c3d dbd4 b4bd 66c3 483d 3048 a0bc
00000060: 5885 1abd eb85 b23b 707f 013c 62c3 9e3d
00000070: cd24 703e 9903 f53d 3764 893c 3b51 223d
00000080: e998 b4bc 3101 3b3c 58a7 643d 9eea 4039
00000090: 28f0 d5bd fa5b 46bc d061 af3c 0a69 57be
000000a0: 56d9 963c 24be 6dbd 07ba f2bd b064 913e
000000b0: 9629 d73c 27d5 2b3b 38e7 b23c 8973 e63a
000000c0: b586 c7bd 3927 383e 69ad 893c 85d0 f53c
000000d0: bae4 d13c 7d6b 82bd f987 5fbd 580b b5bc
000000e0: 25e9 033d 45ba 72be c3c5 203d 0994 103e
000000f0: 99f6 99bd cef8 adbd ee2e c4bd 28f0 37bd
00000100: 68e0 debc 82de a5bd 69d6 28be 5c67 b0bd
00000110: fda3 aebd da7f c0bc 1473 293c 776e 3e3d
00000120: e769 86bd e55a b7bd 57cd 123e adc5 6dbd
00000130: ebdc 86be 80a9 c6be 86fb b5bb 5f5f a43d
00000140: c29e af3c 676b f9bc 3e49 bfbd d5d2 643d
00000150: 5cab afbe 1e0d 9abd 7dc7 d9bc dcb7 a0bd
00000160: 39a6 3b3e 18ba 92bd 8f14 0e3d b672 743e
00000170: 0340 59bd 78e3 91bd f053 473d 295d 0abe
00000180: 7df2 c0bd e0c5 21be b4b4 8fbe c0be febd
00000190: f431 843d 46e1 54bd 1dfb 8ebe 9952 f7bc
000001a0: 43df e8bd 8847 f1bd e88e 8cbd 9d64 dbbd
000001b0: 1aad 243d de99 f3bd 784d 64bd f45c 9c3d
000001c0: 6347 dd3c 2eb7 0b3d 149e 0ebd 2168 e63b
000001d0: c6ae dfbd f762 003d 837c b23d fdd6 303d
000001e0: 5e5e 133d 857f ddbd fafd 10bd ccfb 2e3e
000001f0: 79b9 193d 4e43 f7bd 84f5 d2bc cee9 4cbd

readout.weight f4 [1, 128]
-0.14900577 -0.36557406 -0.42268428 0.02268407 -0.002144803 0.017456822 0.2073236 0.13911375
0.020606909 0.17701088 -1.1342742 0.14076899 -0.59263146 0.5406518 -0.17834733 -0.16520053
-0.022388253 -0.47891638 -3.0286138 -0.41771093 -0.35815173 -0.2655402 -0.3947312 0.0038953049
-0.4808933 0.030871259 -0.7976943 0.29886776 -0.7495395 -1.273677 -0.24219328 0.056628622
0.0071293744 -0.021277528 0.00018408078 0.024930753 0.009568583 0.15843171 0.28178394 -0.60565144
-0.3523822 0.010261718 -1.7499344 -7.3388343 -0.45388305 0.0033078298 0.0015630256 -0.004302104
-0.32533157 -1.4814808 0.025898354 -1.1028497 -0.06709289 -0.53633463 0.060933866 -3.044622
-0.19575049 0.114387915 0.030604778 0.35702854 -0.5722503 0.02214663 0.047823235 0.39205968
0.0021839957 -0.03395241 -0.26390582 0.007523169 0.0546233 -0.04430181 0.066072956 -0.5075857
-0.027953148 0.0016197426 -0.57033956 -0.008255877 0.59790826 -0.3256608 -2.3598917 -0.40753427
0.05624988 -1.6004516 -0.010584204 0.17156266 -0.22827546 -0.010669763 0.029343542 -0.04868994
0.75567806 -0.8284632 0.016629664 0.13813336 0.0030112115 -0.013283607 0.13401888 -0.0064681713
-0.4638311 2.8218756 0.26559994 -0.014031682 -0.572148 0.06731207 -1.1864272 0.008148405
-0.04242512 0.031042084 -0.27620575 0.021805022 0.019677034 -5.0288215 0.031238107 -0.23097202
-0.3630126 -0.08999807 -0.13619375 -0.6335813 0.01231346 -0.405099 0.2722276 -0.17287204
-0.6676395 -0.005459253 0.015300715 0.10696976 -0.3240379 0.0439286 0.03401443 -0.008467849
00000000: f894 18be 862c bbbe 136a d8be f1d3 b93c
00000010: d38f 0cbb 9c01 8f3c a34c 543e d673 0e3e
00000020: d2cf a83c 5742 353e e62f 91bf bf25 103e
00000030: b2b6 17bf 2868 0a3f afa0 36be 542a 29be
00000040: 9267 b7bc 8734 f5be cfd4 41c0 35de d5be
00000050: aa5f b7be e3f4 87be 351a cabe 5f48 7f3b
00000060: a637 f6be b9e5 fc3c b235 4cbf 3205 993e
00000070: d2e1 3fbf d907 a3bf 8401 78be 6af3 673d
00000080: 879d e93b 364e aebc cf05 4139 943b cc3c
00000090: 8cc5 1c3c ec3b 223e fc45 903e f90b 1bbf
000000a0: 716b b4be c420 283c dafd dfbf bbd7 eac0
000000b0: 5c63 e8be 2dc8 583b 70de cc3a aaf8 8cbb
000000c0: dc91 a6be 2aa1 bdbf c928 d43c 2e2a 8dbf
000000d0: ff67 89bd 3a4d 09bf ca95 793d 16db 42c0
000000e0: d172 48be 3644 ea3d dfb6 fa3c 72cc b63e
000000f0: ff7e 12bf d96c b53c 4ce2 433d 0cbc c83e
00000100: 5e21 0f3b af11 0bbd aa1e 87be ea84 f63b
00000110: aebc 5f3d d175 35bd 4251 873d 23f1 01bf
00000120: 00fe e4bc 8b4d d43a c601 12bf a843 07bc
00000130: 8410 193f 03bd a6be 7708 17c0 55a8 d0be
00000140: 4666 663d 99db ccbf 5f69 2dbc 1fae 2f3e
00000150: 0bc1 69be 3bd0 2ebc de61 f03c 1a6f 47bd
00000160: 1e74 413f 2a16 54bf ef3a 883c d572 0d3e
00000170: bf57 453b 7ca3 59bc 3f3c 093e f4f2 d3bb
00000180: 457b edbe 9c99 3440 b7fc 873e 24e5 65bc
00000190: 4b78 12bf e9da 893d d9dc 97bf e380 053c
000001a0: f6c5 2dbd f84b fe3c d76a 8dbe 72a0 b23c
000001b0: bb31 a13c 1bec a0c0 0fe7 ff3c ee83 6cbe
000001c0: cadc b9be e850 b8bd 6076 0bbe 6232 22bf
000001d0: 65be 493c 2369 cfbe 6a61 8b3e 5e05 31be
000001e0: 6cea 2abf 89e3 b2bb daaf 7a3c f612 db3d
000001f0: 4ce8 a5be 7aee 333d b752 0b3d bcbc 0abc
