HW9/9_gym-DDPG/results/DDPG_Pendulum-v1_1000-eps0.1-t32-l0.0005-s1-u20.pth (torch, 176180 bytes, 12 tensors)

layers.0.weight f4 [128, 4]
00000000: 57b2 ae3e 5f77 42bf 11c9 a2bc ab2c a1bc
00000010: 2a45 0bbf 3828 5e3e afd2 c2bd 919e 3d3e
00000020: fd6a 6dbc b668 ba3b b528 5d3d ffcc fdb7
00000030: 30ff 3a3e e486 47be 3051 15bd 4060 38bd
00000040: 58db ebbd 6446 123e 8d3d f33e ed9c a93c
00000050: 99cd 84be 7282 debe dba6 ba3d bb96 85be
00000060: 7089 7cbe 1ea0 363e 8994 a63e 920c f93d
00000070: cac7 1fbf 9432 b53e a9cf b63d 8e6a bd3e
00000080: c245 2a3f b49a 74bf 4b2f d2be 9889 51be
00000090: b981 a13e ee2d 243c 5534 493e 6281 c9be
000000a0: afe8 df3e fcc6 51be 7203 da3e 9c13 9bba
000000b0: f579 f8be 8994 0abe 9ef1 9ebe 9b87 483e
000000c0: e893 83be 641b a1be a51c f2be 5b2d 4abe
000000d0: 9b8c 093e e053 6dbe e736 013f 976b 093f
000000e0: 607e afbd 9519 a1be 14a9 b63e e245 183e
000000f0: 2bcc b3be 1e4d 453f bc6d 383e 8767 a73e
00000100: c0d1 a7be 53e9 98be eb80 243d 2f51 643d
00000110: 0c24 fbbe 5299 85be b38a 843e 7b44 1cbe
00000120: 19f7 b83e d9c7 8a3e 3d8f 793e b839 683c
00000130: f48c 623d 0cf7 b03d 73d2 f2be 1ebd 513e
00000140: aa41 cabe 349c 1fbf 8da7 8abd 30cf 133a
00000150: 5cd8 aa3e ee5a 7bbf dc92 d6be 8b21 a13e
00000160: a9bb febd fcb4 0a3f 70dc ee3d e5dd bcbe
00000170: 0e4a 8d3d cd6c 2c3e bc52 adbe b4bd 82be
00000180: e6a7 553d a9b3 e8bc 5eb4 4bbd ea29 42be
00000190: c631 b63e cceb f23a 0a2d c03e eaa0 523b
000001a0: 956a 04bf 20e0 86be 176d 103f fb2a 72bd
000001b0: 9d15 8c3e 6721 cb3e 2b10 703d 48f4 843e
000001c0: 715f cb3e be61 21bf 08c6 033e 0ff1 0d3e
000001d0: c530 a63e 6b66 e13e bc0f b7be 4339 ddbe
000001e0: 75d9 9cbe 40a3 2b3f 2b14 113f 26f9 a9be
000001f0: 2038 e53e b4ca 3cbf bab0 efbe 1dec 813c
00000200: ff60 243e b7f7 0a3f 4db6 bdbe fd56 7f3d
00000210: 627e 2a3f 701e 4a3f 64f2 963e c055 ae3e
00000220: c8d4 963e 3ae8 823e 53e2 8dbe 5ac8 febe
00000230: 1628 bcbe 4d04 1ebe 8cc1 dabd 26e1 a73d
00000240: cad2 973d c4e3 34be f338 293e d7a7 b93e
00000250: ef14 3d3e 79e9 b73e 066a 26be ecd7 223f
00000260: b480 30be 2aa3 95bd a9ac d4be be20 bbbe
00000270: 102c d9be 82c0 ea3c 4feb e53e 40af 4ebe
00000280: 879f eebe ee19 933e 2133 f63d c893 763e
00000290: b9e6 9dbe 10fa 3dbe e6a7 6cbe ec18 c0bd
000002a0: 3d8b febe 83f0 0fbf 4fd7 cbbc ba9e 053e
000002b0: da41 003d be32 423f 7021 ff3e 5f8a 893e
000002c0: fa28 bc3e c366 75bc d36d d3be 3ab7 a13e
000002d0: c9d4 8ebe 9ed6 bcbe 0820 cabe c66e 8bbd
000002e0: cb8e 0ebf c079 b13e 3be5 cbbe eeb3 dcbe
000002f0: 5607 acbc 0dd2 78be 437d 733e 987b e9bd
00000300: a74b 37be 189e e93e 016e b83e a4d0 c6be
00000310: 2225 a13e e4f4 633f 3000 f63e 770d 96be
00000320: 9b67 86bc e4b1 9abe 6298 eb3e 0184 36be
00000330: 969b 0d3f 875d 893c 90bf 033d 6a69 553c
00000340: 382a cfbb 7654 d53e 838f c53c 697d 073e
00000350: 154f d7be 4221 3b3f a78a e63e 32d1 c43e
00000360: 87c4 0f3f 52fc 59bf 329b c8bd 5b0a 803e
00000370: 5af0 05bf c753 de3e 2f81 afbe a141 c2be
00000380: 1aa5 b53d aebe 64bf 9b0f 813b 5cec b53c
00000390: 6100 b03e 3897 053f fcf7 9ebe 8ad4 c1be
000003a0: ac8c f73e c5ee 3dbe f6bf 78be 0d65 20bd
000003b0: c2ce e0be 7204 d33e 2934 a83e 391d dabe
000003c0: 85ec dcbe a5de 9f3e 8c05 8c3e 42bf c7bd
000003d0: 0a04 8bbe 1eaa a6be 188e f8be ab1f 6cbe
000003e0: ecc8 b6be b383 293f 7944 da3e 1d5b 4fbe
000003f0: 4a25 5dbb 8af8 f63e 1834 a9bb 554c 60be
0.34120438 -0.75963396 -0.019871267 -0.01967462 -0.5440241 0.2169503 -0.09512841 0.1851752
-0.01449084 0.005688752 0.0539939 -3.0255409e-05 0.18261409 -0.1948505 -0.03645438 -0.045013666
-0.11516446 0.14284664 0.47507897 0.02070471 -0.2593811 -0.43458897 0.091138564 -0.2609156
-0.24661803 0.17834517 0.32535198 0.12160601 -0.6241423 0.3539015 0.08926327 0.36995357
0.6651269 -0.9554856 -0.41051707 -0.20462644 0.31544283 0.010020716 0.1964887 -0.39356524
0.4373221 -0.20486063 0.42580754 -0.0011831406 -0.48530546 -0.13533224 -0.31043714 0.1958298
-0.2569878 -0.3146621 -0.4728748 -0.19743864 0.13432543 -0.23176527 0.504744 0.53679794
-0.08569026 -0.3146483 0.3567587 0.14870408 -0.35116705 0.77070796 0.1801061 0.32696173
-0.32777214 -0.29865512 0.04016201 0.055741485 -0.4905094 -0.26093537 0.2588707 -0.15260498
0.3612602 0.27105597 0.24371047 0.0141739175 0.055310205 0.086408705 -0.47426185 0.20482299
-0.39503223 -0.6234772 -0.06770239 0.00056384783 0.33368194 -0.9818562 -0.4190892 0.31470904
-0.12438137 0.5418241 0.11663139 -0.36888042 0.068988904 0.16838379 -0.33852184 -0.25535357
0.052162074 -0.028405981 -0.04973256 -0.18961301 0.3558485 0.0018533408 0.37534362 0.003213937
-0.5172513 -0.2634287 0.5641646 -0.05912302 0.2736024 0.3967392 0.05860917 0.25967622
0.39721254 -0.6303977 0.12868512 0.13861488 0.32459083 0.4402345 -0.35754192 -0.4320775
-0.30634657 0.67045975 0.566714 -0.33197898 0.44769382 -0.737468 -0.4681452 0.015859658
0.16052626 0.5428423 -0.37053147 0.062338818 0.66599095 0.78952694 0.29481804 0.34049797
0.29459214 0.255678 -0.27711734 -0.4976223 -0.36749333 -0.15431328 -0.106814474 0.081972405
0.07413252 -0.1766501 0.1652563 0.36260864 0.18465017 0.35920313 -0.16251382 0.6361072
-0.17236596 -0.07306512 -0.4153798 -0.36548418 -0.4241643 0.028656248 0.4490609 -0.2018404
-0.46606085 0.2873072 0.12021471 0.24079812 -0.3084009 -0.18552423 -0.23110923 -0.093797535
-0.49715605 -0.56226367 -0.02488294 0.1304883 0.0313128 0.75858676 0.49830198 0.2686338
0.36750013 -0.014978114 -0.41294727 0.31585103 -0.27896717 -0.3688249 -0.39477563 -0.06808238
-0.55686635 0.346632 -0.39823326 -0.43106025 -0.020999592 -0.24298878 0.23778252 -0.11400527
-0.17899953 0.45628428 0.36021426 -0.38831055 0.31473643 0.8904555 0.48047018 -0.29307148
-0.016406825 -0.30213845 0.46014696 -0.17823793 0.5531553 0.01676823 0.03216511 0.013025621
-0.0063221715 0.41666 0.024116283 0.13231434 -0.42052522 0.7309762 0.45027658 0.38440853
0.5615925 -0.85150635 -0.09795226 0.250079 -0.5231987 0.43423292 -0.34278247 -0.37940696
0.08869381 -0.89353454 0.003938628 0.022207431 0.3437529 0.52183867 -0.31048572 -0.37857467
0.48349512 -0.18548115 -0.24291977 -0.03915887 -0.43907744 0.4121433 0.32852295 -0.4260042
-0.431492 0.31224552 0.27347982 -0.097532764 -0.2715152 -0.32551664 -0.4854591 -0.23058955
-0.35700166 0.6621658 0.42630365 -0.202496 -0.003374415 0.48236495 -0.0051636808 -0.21904118

layers.0.bias f4 [128]
00000000: a54f 9ebe e784 fb3e 0b5a d63e fc92 fbbe
00000010: 7f7b f7be e26c 74be dccd d9be afdb 553e
00000020: aa31 06bf 1445 cebe 9004 863e fc47 7abd
00000030: a995 64be db75 eabe f9f5 713e b73b 8f3e
00000040: 872a 2abe dd3a 4ebe 194d f43d 7833 4f3e
00000050: b677 a53e 802d 843e 5e1c ea3d f9cc e4be
00000060: 4bef f63e a241 ca3d 07a0 bbbe a316 293f
00000070: 714a b73e 1ea5 bcbe c23d 39be ef70 86be
00000080: 3ffd b0be 784f c63e 8976 c4be 53a6 1e3f
00000090: 2d48 bcbe aacb b23e 4cad 2e3e bb12 2bbe
000000a0: 254b f73e 9ed7 cabe 7496 b2bd a6d9 133e
000000b0: 830f c33e 400b 61be f168 8ebd 9cfa e8be
000000c0: 785e 1ebe f528 0fbe f335 26be 4c56 bcbe
000000d0: 1c7d 893e 8663 a33d 56ac a5be f3aa 0cbe
000000e0: 611b 953e 0a9e 403c 41da 003f 9891 a43d
000000f0: 7934 b8be fc42 e5be 894f e7bc 13f6 163d
00000100: 2cdd d93d 7ee1 08be ceef 203e 9bd9 26be
00000110: 5ee9 043f 46cc 8b3e 0be2 733d 9477 173f
00000120: d506 883e 3d2d a9be 1e06 24be 972a e33e
00000130: 0785 cd3e 4da6 073f d7d4 6b3d 542f f33e
00000140: 8900 b53e b933 a63e 51c8 dc38 64d9 1d3f
00000150: dc12 653e 6112 9e3d 1527 443e 030b 1e3f
00000160: 7e3d f53e f9dc c43d 57f8 123f 059e ab3e
00000170: cd60 82be 2bc2 d8be 3f99 d03e bc83 123f
00000180: fc41 63be 1bcf ad3e d1f1 dabd dafb 023d
00000190: 0b14 ac3c 610e 963e e9c4 963d 7a2d f73e
000001a0: ab3a 973e 10fb ce3e bd35 1a3f 09f3 9a3e
000001b0: ce62 533e 66de 66be 205a ee3e a26f d43d
000001c0: ae72 e13e 6a0a e43e c1d1 8f3c 0050 eb3e
000001d0: 35ba e0bd 1212 0f3f a796 123f 6b8b 41bd
000001e0: 2b04 6f3d 1ae5 2cbe ce19 0ebe 80a1 ccbc
000001f0: b4ba cb3c 3722 663c 177d eebe dbe0 94be
-0.3092014 0.49124834 0.41865572 -0.49135578 -0.48336408 -0.2386966 -0.4253987 0.20884584
-0.5241953 -0.40287077 0.26175356 -0.061103806 -0.22322716 -0.45793042 0.23628987 0.27975246
-0.16617785 -0.20139642 0.11928768 0.20234478 0.32317895 0.25815964 0.11431192 -0.44687632
0.4822944 0.098758 -0.3664553 0.66050166 0.35798982 -0.36844724 -0.18089965 -0.26258036
-0.3456821 0.38732505 -0.38371685 0.6197254 -0.36773816 0.34921008 0.17058295 -0.16706364
0.48299518 -0.39617628 -0.08720103 0.14438495 0.38097772 -0.21976948 -0.0695361 -0.455037
-0.15465724 -0.13980468 -0.16231517 -0.3678459 0.26853263 0.07977967 -0.32358044 -0.13737087
0.2912245 0.011756429 0.5033303 0.08035582 -0.35977533 -0.44777668 -0.028236168 0.03685577
0.10637888 -0.13367268 0.15716478 -0.16293947 0.5191859 0.27304286 0.059541743 0.59166837
0.26567712 -0.33042327 -0.16017959 0.4436843 0.40140554 0.5298813 0.057576027 0.47497046
0.3535197 0.32461336 0.00010527729 0.61659837 0.22370476 0.07718349 0.19155534 0.6173555
0.47898477 0.0961246 0.57410187 0.33518997 -0.25464478 -0.42335638 0.40741917 0.5723226
-0.2219314 0.3394707 -0.10690654 0.031978466 0.021005651 0.29307845 0.073617764 0.48276883
0.29536948 0.4042592 0.6023825 0.30263546 0.2064316 -0.22545776 0.46553135 0.10372855
0.44032806 0.44539195 0.017556073 0.45959473 -0.10973016 0.5588695 0.5726113 -0.0472521
0.058353584 -0.1688427 -0.13877031 -0.024979353 0.0248693 0.014046243 -0.4657981 -0.290778

layers.1.weight f4 [128, 128]
00000000: 9e11 393e 971e 843d e47a 2c3e 9024 933d
00000010: d381 c3bc 72b4 cd3d e0b6 1abe 87be 2d3e
00000020: 9d34 833c ed4e 90bd 0ddf b1bd 7f02 2d3d
00000030: a978 96bd 1f04 a0bd df63 0a3b b94b 5e3d
00000040: 4385 773d 89a5 ec3d afa8 5bbd ef62 bf3c
00000050: de3f 5b3c 1721 9d3d b239 c83c 95e9 1abe
00000060: fa6b 0e3e d132 85bd 3050 923d 1400 ec3d
00000070: 5894 1fbe 6841 dcbd 8250 703d 70d8 bbbc
00000080: d271 07be 07f8 3d3d 8ea6 44bd 6f56 0f3e
00000090: 698c fcbd da44 75bd 02dc cd3d 59c0 b8bc
000000a0: dbfb 2d3e 2747 043d 37de 9b3c 8127 9cbc
000000b0: fd3d 7f3c 3042 b0bd 010f 543d 3f70 1abe
000000c0: 88da a2bc a888 42bd f1f2 3e3d b1e6 e7be
000000d0: 0e59 873d edb7 de3c a46d 273d a9f5 46bd
000000e0: 5aa6 db3d 83bb 74bd c0ea d83d 2bb4 ea3d
000000f0: 69b5 4ebd 3bbe 5abd a61b a83b bdb0 b73d
00000100: 4baa 4ebd 4186 83bd f518 9d3d 4e84 d53b
00000110: 197a 093e b75c cb3c 7477 0a3d d96f 7a3d
00000120: f3d5 1d3e 07eb 8abd 3afb 03bd d5d6 bc3d
00000130: e79c 0a3d 136a f43d 4af4 873d a62f 6e3d
00000140: 9cbc 1f3e f417 6b3d 7427 8d3d 0224 ad3c
00000150: 71ee 163e a55a ca3d 1cb0 bd3d fdc7 5c3d
00000160: 552d ac3d 740e c7bd 7f56 293e 31db e43d
00000170: e391 72bc 72e3 58be c11c 263e c13f ed3d
00000180: 318d 9c3d 5a96 153d 2aab 993c c1f4 71bd
00000190: 3b09 8bbc a8a5 c63c 0ea0 313c e89d dc3d
000001a0: 8868 07bc 0d42 233e 8c63 153e 7134 143e
000001b0: 5802 cd3d 1545 3dbd 86c1 043e 5d3d 9d3d
000001c0: c22e 263e cc8d 8abd f095 543c 6646 e73d
000001d0: 6e17 933d dc55 183e 7f90 4a3b d3b1 263d
000001e0: 52c0 2fbe ee63 70bd 742a ee3d 9456 6bbe
000001f0: 69c4 35bd e706 9f3d 253c 52bd d168 a13b
00000200: 19d1 61be a447 533c 8211 aebd ead9 473c
00000210: d8b2 273d 5962 91bd 16aa 6e3e b5e1 5b3c
00000220: cd9c 41bd 8c6c 343d e87a b63c 0d49 0a3d
00000230: 41da 363c 3055 a23d a416 a13c 130f 433d
00000240: 72e6 14be b1fe 32bd 1e6d 183d 7c43 98bb
00000250: 6c1d c7bc 8924 d93d ff87 4dbd 1713 db3d
00000260: 725d 20bb 381b 0e3e cafa 133e 9a26 fc3c
00000270: 6acf 143e 60a6 8a3d 6e9e 243d 14cb 33bc
00000280: 8218 ca3d 9e9f 213e 45cc 1e3e 2083 123d
00000290: 5082 8d3d e620 7a3d 656a c63c e787 d53d
000002a0: 83b6 d9bd 988e 773d 75b1 fdbc 1453 a73c
000002b0: fce9 d43d 3c4f 673d 8237 093c eea8 4a3e
000002c0: 269a d93d a465 fb3d 1ea7 863d 8016 e83e
000002d0: b96b c83d 2b76 133e 3ead ddbd 9b87 843d
000002e0: 559e 46bd 84c5 293d 4d90 2a3d 7e5f 9a3b
000002f0: 9798 593c a868 d23c b058 9d3d e0fc ac3d
00000300: 9743 e23d b354 96bc 58fe 643d e939 ac3d
00000310: e434 d43d c65d 11be 97d7 a13c 579d 9f3d
00000320: 378c 683c 7ec1 bb3c 411c 5fbd 1e7b 12bd
00000330: 313d 8d3d 0d07 77bd cf2e a8bd 667f 69bc
00000340: cc39 8abd 3d2e 153e 0df0 21bd d07d 71bd
00000350: 4380 1ebe 6026 7b3c 20ee a6bd a84c 9fbb
00000360: 647c 4fbd 070d 6c3d 41fd a4bd a4c2 3abd
00000370: bf21 a63d fde9 2f3e 2d70 8fbd ac53 693d
00000380: 7268 db3d 1f90 133d 20b7 cb3c dff6 80bc
00000390: 905f 103d c709 67bb 3897 4f3c bc24 433d
000003a0: 2a17 2e3b 52b5 fa3b 0216 cabb b510 35bd
000003b0: 7338 7ebd efb5 9d3d 962a 66bd 3ec7 19bc
000003c0: de58 c1bd 6fa4 813c c037 813c b1ac c93d
000003d0: bb59 ef3d 686b bebd bae2 123e a8a0 973d
000003e0: 48c8 e83d acb5 be3d 360f 763d 2582 663e
000003f0: 7079 f23d 5c09 a03c d5ff fbbc 3827 35bc
0.18073127 0.06451147 0.16843754 0.07184708 -0.023865616 0.10044183 -0.15108824 0.16967212
0.016016299 -0.07046304 -0.08685122 0.04223871 -0.07347233 -0.07813286 0.0021116657 0.054271434
0.060429823 0.11555011 -0.053627666 0.023362605 0.013381926 0.07672327 0.024441574 -0.15128167
0.13908377 -0.06503833 0.07144201 0.115234524 -0.15583932 -0.10754663 0.05867053 -0.022930354
-0.13227013 0.046379115 -0.0480104 0.13997816 -0.123314686 -0.059880115 0.10051729 -0.022552656
0.16990606 0.03229442 0.019026859 -0.019061806 0.015578744 -0.08606374 0.05177212 -0.15081881
-0.019879594 -0.047493607 0.046618406 -0.4529319 0.06608783 0.027187312 0.040876046 -0.048574124
0.107250884 -0.059749138 0.1059165 0.114601456 -0.050465975 -0.053404074 0.005130249 0.08969257
-0.050455373 -0.06422091 0.07670776 0.006516016 0.13425483 0.024824483 0.033805326 0.061141822
0.15413646 -0.06783109 -0.03222201 0.092206635 0.03384104 0.119342946 0.06638391 0.05815091
0.15599293 0.05739589 0.06892291 0.021135334 0.14739396 0.0988057 0.09262106 0.05390166
0.08407084 -0.097195536 0.16536902 0.1117462 -0.01480529 -0.21180514 0.16221906 0.11584426
0.076441176 0.03652034 0.018758375 -0.059071306 -0.016972175 0.024248913 0.010841383 0.10772306
-0.008264668 0.15943165 0.14588755 0.1447313 0.10010213 -0.04620846 0.12964448 0.0767772
0.16228774 -0.06765327 0.012975201 0.11292724 0.07182203 0.14876503 0.003090888 0.04069693
-0.17163208 -0.05868905 0.11629191 -0.22982246 -0.044376764 0.077649884 -0.05132689 0.004925825
-0.2205242 0.012895498 -0.08499433 0.012197951 0.040942043 -0.070988365 0.2330707 0.013420512
-0.047268678 0.04404883 0.022275403 0.033761073 0.011160434 0.079264045 0.019664116 0.047621798
-0.14541033 -0.043699924 0.037213437 -0.0046467166 -0.024306022 0.10602672 -0.050178524 0.106970005
-0.002446976 0.1387757 0.14451137 0.030780125 0.14532247 0.06770015 0.040190153 -0.010973711
0.09867956 0.15783545 0.1550761 0.03576958 0.06909621 0.06106653 0.024220655 0.10426312
-0.106305145 0.060438722 -0.030968407 0.020425357 0.103961915 0.05647205 0.0083750505 0.19791004
0.106251046 0.12275246 0.06574844 0.45329666 0.097861715 0.14400546 -0.10824059 0.06471177
-0.04849084 0.04144813 0.041641522 0.0047110906 0.013281009 0.02568467 0.076829314 0.084466696
0.11048048 -0.018350935 0.055906624 0.08409483 0.103616506 -0.14195928 0.019756122 0.07793682
0.014193586 0.022919413 -0.054470304 -0.035761945 0.06896437 -0.06030946 -0.08212053 -0.014251566
-0.06749305 0.1456842 -0.03953557 -0.058957875 -0.15478615 0.0153289735 -0.081508875 -0.004861433
-0.050655738 0.05762961 -0.08056117 -0.04559578 0.08111905 0.17179103 -0.07003818 0.05696456
0.10713281 0.036026116 0.024867594 -0.015742717 0.035247386 -0.003525363 0.012670331 0.047642455
0.00265641 0.0076510096 -0.0061671743 -0.044205386 -0.062065553 0.07700717 -0.056192957 -0.009385882
-0.09440778 0.015825478 0.015773654 0.098473914 0.116870366 -0.0929783 0.14344302 0.074036896
0.113663256 0.09311995 0.0600731 0.22510584 0.118395686 0.019535713 -0.030761639 -0.011056714

layers.1.bias f4 [128]
00000000: 998a 1b3e 409c b7bd 6379 ac3d 9e37 233d
00000010: a749 b4bd f17c 703c f2f6 f83d f3ae c63b
00000020: c640 1a3e 7653 033e 8134 3ebd 9297 5e3d
00000030: 1805 2f3c 5c30 5b3d e744 c53c bca1 d63d
00000040: 9150 323e 4412 4a3d 559e 503d 843c 883d
00000050: 7fee 4d3e 9c15 f43d f388 85bd 6cc9 2b3e
00000060: f38e 4d3e f3e3 ac3d 6054 963d 6a92 953d
00000070: be14 f33d 6bdc 143e cb32 993d bff1 243d
00000080: 0353 f83d 0b0c 293e 282a ad3d 6ac5 d63d
00000090: f2ab 88bd 2237 f23d 11e5 5dbd c9cc 3c3e
000000a0: d850 44bc 9dc6 c5bd 8d38 583d 3d31 063d
000000b0: ce23 b13c 9c32 373e 8c3b ca3d 0942 2d3e
000000c0: f11a 2b3e 464e bb3d 17e2 103c 3e07 fe3d
000000d0: bbfe 353e 1dcc 043e 8107 213e 8c1b 3d3e
000000e0: 953e d83d c6dc 2b3e ca1f f03d 3590 113d
000000f0: 9171 2c3e 4459 b93c 8652 eabc 5af9 d33c
00000100: dfae d43d 7ddb 143d 088f 873d 85cf 0f3e
00000110: e39c 363e 2355 1e3e a2ae 083d 1bd9 283e
00000120: 05d1 553d 1899 f93d 390d 693c ad5c 433e
00000130: c128 4c3e 3d5e 1cbc 758f b83d d563 b83c
00000140: ee4d 4b3e 6ff4 d33d d863 293e aadf a33d
00000150: ee04 babd c326 433e 7d68 8dbd 0b5c 2a3d
00000160: 0a1a 263e f8c0 0a3d ac22 1e3e 845e 673d
00000170: 93d3 043e 4547 113e 0223 0f3e 108e ba3c
00000180: 58df 143e cfd6 133e 44c5 643d 44ff 9a3d
00000190: 0632 ecbc 2645 463e 05ba df3d 0aae 6e3d
000001a0: 7ab8 753d 7558 113d c1ba 013e f96c b03d
000001b0: 17f5 d33d aa93 f1ba 41a6 febc 6901 fd3c
000001c0: 3e97 2f3e 75fd 173e 6e43 5bbd 5232 973d
000001d0: 3ec3 a43d c722 e93d e0b9 0a3e 0415 8e3d
000001e0: 7ba8 efbd 4fd9 fc3c f792 d33d d477 3c3e
000001f0: 922c 1f3e 77f1 063c 59c4 163e e512 243e
0.1518959 -0.08965349 0.0842159 0.039847963 -0.088031106 0.014678226 0.12156476 0.006063336
0.15063772 0.12824807 -0.04643679 0.054343767 0.010682367 0.053512916 0.024080707 0.10480067
0.17413546 0.049333826 0.050932247 0.066521674 0.2011051 0.11918184 -0.065202616 0.16776055
0.20074062 0.08441915 0.07340312 0.07303317 0.11869191 0.14537208 0.07480391 0.04026961
0.12125208 0.165085 0.08455306 0.104868725 -0.06673421 0.11826922 -0.054173533 0.18437494
-0.011982165 -0.09657023 0.052788306 0.0327618 0.021623518 0.178904 0.09874639 0.16919722
0.16709496 0.09145789 0.0088429665 0.12403725 0.17772953 0.12968488 0.15725519 0.1846754
0.105588116 0.16783437 0.11724813 0.035537917 0.16840197 0.022625573 -0.028603803 0.025875736
0.103849165 0.036342133 0.06619078 0.14044006 0.17833285 0.15462165 0.033369668 0.16489069
0.05220129 0.121874034 0.014224344 0.19078322 0.19937421 -0.0095439525 0.09011737 0.022508541
0.19853947 0.103493564 0.16541994 0.08001645 -0.090829715 0.19057755 -0.06904695 0.041591685
0.1622087 0.033875436 0.15442914 0.05648662 0.12971334 0.14187343 0.13978198 0.022772819
0.14538324 0.14437412 0.05585219 0.07568219 -0.028832447 0.19362316 0.10924152 0.058271445
0.059990384 0.03548475 0.12668897 0.08614535 0.103494816 -0.0018430848 -0.031085135 0.030884461
0.17147538 0.1484278 -0.053531103 0.07382645 0.08045052 0.113835864 0.13547468 0.06937602
-0.11702057 0.03086534 0.10330766 0.18405086 0.15544346 0.008236281 0.14723338 0.16022833

layers.2.weight f4 [64, 128]
00000000: 87fa 443c d218 1e3d 1c23 ac3d de30 183d
00000010: 841b 69bd 33a8 e63c be35 c5bb 86c9 993d
00000020: c467 4e3d 823c f2ba 8915 cbba 7464 133d
00000030: 49e8 b03d c58d 463d 5610 8a3c a487 423d
00000040: d1a1 523d a146 783d d775 11bc 8f72 f43c
00000050: a28b 39bc b03a 823d 1233 1dbd 751d 183c
00000060: ad58 29bd 4b35 63bc a8c9 053d d60c 403b
00000070: a6c5 babd ac83 8b3a 02a7 26bd 5629 6e3a
00000080: 8dd4 d53c 773e 1dbc b547 263d 38ab aabd
00000090: f949 3f3c c03a 8b3d 03e4 5d3a 3bda 903d
000000a0: 838d 11bd 9749 d03c 3273 9abd acaf 8abc
000000b0: 40bd 6bbd 59be 163d 9528 0e3d 5e5f 96bc
000000c0: f78c 5ebd c997 44bd 8ae6 433d 0ae9 febc
000000d0: 67a0 b7bd 14ec 7a3d d20a 243c 144b 603d
000000e0: 927e 083d 2211 3cbc 5a76 9dbd 14e6 06bc
000000f0: f684 6cbc 3a07 ca3c a2ca b2bd cd1c 1cbc
00000100: 1181 92bd 5e0e 47bd f132 aabd 56ff 7e3d
00000110: 18bb 963d f517 37bd 78ac 22bd 67f3 2c3d
00000120: de65 b6bb b899 b3bc 48dd 76bc ade3 afbd
00000130: 1f93 91bd 01f7 393d c5a5 80bd e7f9 3f3d
00000140: fcde 38bd 1ee4 82bd cdad 35bd cec5 533d
00000150: 0865 b3bd e1c0 083d e6a9 393c ee90 d73c
00000160: ce87 a3bd 0da5 85bd 175d a1bc ff44 0bbd
00000170: ca85 06bd ba7a db3c 986a 283d 56dc 873d
00000180: 127b 3ebd d6b3 52bd 28fb a23d 7db8 0fbc
00000190: 3684 cdbc a026 3f3d e1a9 8cbd 677a 0b3d
000001a0: 21e0 15bd 8e5e 9dbb 9b60 1ebd 65f2 8fbd
000001b0: 5f7e 72bc 0252 1f3b 80a9 55bd 0b74 173c
000001c0: 4ef4 a1bd c3c3 7fbd 19dc 093d 57ea 863d
000001d0: a288 303d 8074 78bd 901d 663d 0c0f 6abd
000001e0: cbcf 1a3d d0f8 5a3c 6efb c4bc f55a a1bd
000001f0: d67f a2bd dbb5 b5bd 61ac 8abc cca5 8a3d
00000200: a826 f93c 5abb 2d3e e0a4 99bd 9903 cb3d
00000210: 4ac6 bf3d 3d94 713e b319 50bd 23c3 193e
00000220: 7115 ae3d 460f b2bd 1a40 983d 188a 51be
00000230: 1ca1 933e 52bf 3c3e 1338 953d fa0c 17bd
00000240: 1f72 cb3c bbf3 e33c c952 d7be d535 b9bc
00000250: de92 953d 18c2 503d 12e8 163d 1ff3 a33d
00000260: 13c4 fc3c 4a1c 87be 0f92 9dbe 4c1c ccbc
00000270: 7d64 c1bd 7571 8e3d 77d6 083d a2d7 443d
00000280: 3fb1 b2bb 7084 2a3d a18e cd3b 93ea 013d
00000290: b279 833d ddc8 c83b cd73 4dbb eb46 cabc
000002a0: 5d4c 113e 2c50 c13d 0ebb 673d 0032 fb3c
000002b0: 875c 80bd e580 9a3d 2312 d1bc 3a85 a1bd
000002c0: 964b c83c 5bda 293d 0351 273e 369e 553a
000002d0: 19ba be3b f78e d9bd 9243 8c3d aacc a0bd
000002e0: 3ed3 f1bd 845d f6bd 1434 dabb f993 af3c
000002f0: 0348 96bb 13f5 a5be 431d 253e 8e14 ff3d
00000300: afc4 d23d 1bfc d13d ad26 16bb 4495 90bc
00000310: cfa8 543d b86a 783b 4524 f53d fce7 a03d
00000320: f035 cf3d d1a5 54bc 659d 63bd 1e9b 39be
00000330: 5952 233c b55d ad3c 7d90 8c3d ad70 053e
00000340: 4713 b93d a525 8cbd f799 583d 667f 33be
00000350: 4ffe 4e3e 36b2 29bd 9d0a 0f3e 84a6 7abd
00000360: 7857 8cbc 220b 8d3d cd4e 15bc d58f 883d
00000370: 48d5 bc3c b611 113d 1f18 bb3d 12bc d13a
00000380: 4a5d 17bd fa2b cd3d 5158 c03d 301b d8bc
00000390: 8ba5 b6be ae90 0b3c 8623 fc3c c063 68be
000003a0: 994c 9dbd c3fd c63d 3849 c43d 8631 b4be
000003b0: e0d4 9fbd ebc1 913e 2522 df3d 8808 af3d
000003c0: 7046 aabc 47df ad3d b22b 513e 0364 5bbd
000003d0: 1d09 9bbd d9f4 aabc 3a29 98bd 28cf 53bc
000003e0: 6978 0a3e eb99 a7bd 0d40 5dbd 3c5c 163b
000003f0: 7fce afbc 95b1 ea3e 7d4b 1c3d b6eb 18bd
0.012022621 0.03859789 0.08405134 0.03715598 -0.056911007 0.028156376 -0.0060183695 0.07509141
0.050391927 -0.0018481167 -0.0015494089 0.03598447 0.08638055 0.048475046 0.016853493 0.04749264
0.05142385 0.060614232 -0.008878193 0.029839782 -0.011324795 0.0635885 -0.038378783 0.009284367
-0.041344333 -0.0138676865 0.032663018 0.0029304526 -0.0911973 0.00106441 -0.040686615 0.0009085139
0.026102329 -0.009597412 0.04059573 -0.08333439 0.011675351 0.06798315 0.00084644574 0.07072874
-0.035535347 0.025425715 -0.07541503 -0.01692947 -0.05755353 0.036802623 0.03470667 -0.018356021
-0.054333653 -0.047996316 0.04782728 -0.031116981 -0.08966141 0.061260298 0.010012345 0.0547591
0.03332383 -0.011478694 -0.076885894 -0.008233566 -0.014435997 0.024661649 -0.087300554 -0.009528351
-0.07153524 -0.048597686 -0.083104976 0.062255226 0.07359904 -0.04470058 -0.03971526 0.042224314
-0.0055663427 -0.021923885 -0.015067406 -0.085883476 -0.07108139 0.045401577 -0.06281618 0.046869185
-0.04513453 -0.06391166 -0.044355202 0.051702313 -0.087595046 0.03338707 0.011332011 0.026314225
-0.07984887 -0.065256216 -0.019697709 -0.034001347 -0.032842435 0.026791919 0.04111728 0.066338226
-0.046504088 -0.051441036 0.079580605 -0.008772013 -0.025087457 0.046667695 -0.06868339 0.03405228
-0.0365907 -0.0048025316 -0.03866635 -0.07028655 -0.014800637 0.0024310355 -0.0521636 0.009243975
-0.079079255 -0.062442552 0.033657167 0.065876655 0.043099053 -0.060657978 0.056180537 -0.057143256
0.037795823 0.013364986 -0.024045672 -0.07878677 -0.07934539 -0.08872577 -0.0169279 0.067699045
0.03041394 0.16966 -0.075021505 0.099127956 0.093639925 0.23591705 -0.05080576 0.15015845
0.085001834 -0.086943194 0.074341014 -0.20462835 0.28833854 0.18432358 0.07286086 -0.03687761
0.02483469 0.02782618 -0.42055348 -0.022608677 0.07303403 0.050966352 0.036842413 0.08005356
0.030855214 -0.2638877 -0.30775496 -0.024915837 -0.09442995 0.06955234 0.033407655 0.048057206
-0.0054532583 0.04163021 0.006273106 0.031717848 0.06419696 0.0061274604 -0.003134954 -0.02469202
0.14189287 0.0943912 0.056574874 0.03066349 -0.06267648 0.07544116 -0.025521344 -0.07886739
0.024450105 0.041468006 0.16339497 0.00081488804 0.0058205244 -0.106229715 0.068488255 -0.078515366
-0.118078694 -0.120295554 -0.00665904 0.021432864 -0.004586221 -0.3241354 0.16124444 0.12455092
0.10291421 0.102531634 -0.0022911236 -0.0176493 0.0519188 0.0037905406 0.119698085 0.078567475
0.1011771 -0.012978987 -0.055570025 -0.18125579 0.009968364 0.021162847 0.068634965 0.13031264
0.0903688 -0.068431176 0.052881207 -0.17529067 0.20214199 -0.04142972 0.13968892 -0.061193958
-0.017131552 0.06886889 -0.009113026 0.06668059 0.02305092 0.03541728 0.0913546 0.0016001484
-0.0369542 0.100181535 0.09391845 -0.026380152 -0.35673174 0.008518381 0.030778658 -0.22694302
-0.076806255 0.0971637 0.09584278 -0.35194033 -0.078042746 0.2846826 0.108951844 0.08546549
-0.02078554 0.084898524 0.20426825 -0.053562175 -0.075700976 -0.020868706 -0.07429738 -0.012927808
0.13522495 -0.081836544 -0.05401616 0.002294316 -0.02146077 0.4583861 0.03815793 -0.037334166

layers.2.bias f4 [64]
00000000: d6d8 0f3d c814 133d cf56 f2bd f10f 1c3d
00000010: 58eb 8d3d 1ffe 223e 69a8 32bd 908d ab3c
00000020: 78ff 6a3d 24ff 61bc 69b8 6d3d 7903 0d3e
00000030: 7229 a23c c794 c53c 613c 453e 737a ba3e
00000040: e23e 423d 4ecf 973d b910 673e 2485 db3d
00000050: de46 123e ce90 623e c0be 63bd 422f 843a
00000060: 5661 8c3d c55e cf3d 303e 29bd 25be aa3c
00000070: fe84 2f3e a966 f13d 4233 98bd 0ab1 243e
00000080: c708 08be 6222 3a3e 5a0e 15bb a98e 4a3d
00000090: 81ad 4d3d 5176 013e 17c6 003d 561f fe3c
000000a0: bdc0 f43c 3fa5 f03d 1138 bdbc c610 303e
000000b0: 94fc 333e fc37 3f3e 182d aebb 3082 1e3d
000000c0: cd19 2a3e 19d1 51bd a3fe 463d cb7d 9bbc
000000d0: d9a0 3a3e b3e6 62bd 8b57 563d a47b c73d
000000e0: be76 bdbc 74cf 4fbd fafc 063d d9c8 40bc
000000f0: 4f95 8e3c 64a0 303e a837 2ebd 5932 e2bd
0.0351189 0.03590849 -0.11832964 0.03810114 0.06929654 0.15917252 -0.04361764 0.020941526
0.05737254 -0.01379374 0.058037195 0.13770856 0.019795153 0.024118794 0.19261314 0.36421546
0.04742325 0.07412587 0.22564973 0.10718754 0.14284846 0.22125551 -0.055601835 0.0010084885
0.06854503 0.10125498 -0.041319072 0.020842621 0.17140576 0.11787159 -0.07431652 0.1608316
-0.13284598 0.18177179 -0.002274415 0.049452458 0.050214294 0.1264279 0.031438913 0.031020802
0.029877061 0.11750268 -0.023098024 0.17193899 0.1757682 0.186737 -0.005315434 0.038698375
0.16611405 -0.0512248 0.048582684 -0.018980881 0.18225421 -0.055395793 0.05232958 0.097403795
-0.02312791 -0.050734952 0.0329561 -0.011766636 0.01740518 0.17248684 -0.042533547 -0.11044759

readout.weight f4 [1, 64]
00000000: 09b2 b23d 3f18 c43e 82f5 8e3e 3fe3 3dbe
00000010: 0d52 03be 7205 59be 6b3b 3f3d 49bc e63d
00000020: cbc2 f4bd 6b11 8a3d 022a 55be 8016 59be
00000030: 1cad a03c 252a 813c 901a 79be 4866 883f
00000040: 294e e23e 45ea e73d 108a 0ebf 1c4c 4abe
00000050: 60dc 51be 0cfd 723f 998b 7d3b 9bb1 d43d
00000060: 4668 3abe 2bd4 30be 44b6 54bd 545e 6d3e
00000070: fe58 6ebe ba60 57be 562d 003d 259c 12be
00000080: b774 8b3e 0998 06be a29a aa3d c222 34be
00000090: 5cff 823d f6c6 24be 88fa a9bd 58fc 18be
000000a0: 3c42 5e3f d056 2d3f c8e4 103d 8411 28be
000000b0: fc02 11be 8eeb 16be 76aa b43d 930a 72be
000000c0: 9803 f5bd a452 993e 4ed1 36be 117d 4e3f
000000d0: f3c1 55be b56d 7a3e eacb 0cbe 02ac 55be
000000e0: 7426 dd3c d2ab 7c3d 064b 0fbe 17b1 793d
000000f0: 2b4b 4e3f 50f9 02be c9ca 963d 59ac a33e
0.08725364 0.38299748 0.27921683 -0.18543719 -0.12824269 -0.21193483 0.046687525 0.11266381
-0.11951216 0.067416035 -0.20816806 -0.2119999 0.019613795 0.015767166 -0.24326539 1.0656214
0.44200256 0.1132398 -0.55679417 -0.19755596 -0.20494223 0.9491737 0.0038687943 0.10385438
-0.1820384 -0.17268436 -0.051931635 0.23180515 -0.23276135 -0.21032992 0.031293236 -0.14317377
0.27237484 -0.13143934 0.08330275 -0.17591384 0.06396362 -0.16091523 -0.08299738 -0.14940012
0.86819816 0.6771059 0.035374433 -0.16412932 -0.14161295 -0.14738294 0.08821575 -0.23636846
-0.11963576 0.29945862 -0.17853281 0.80659586 -0.20874767 0.24455912 -0.13749662 -0.20866397
0.026995875 0.061687298 -0.13993463 0.0609599 0.8058345 -0.12790418 0.07362897 0.31967428

layers.0.weight f4 [128, 3]
00000000: 8429 8c3e d3b5 103f ca56 1e3f cfc3 c0be
00000010: 95c1 1b3f e998 94be c7ba a4be 1e71 ca3e
00000020: b89c edbe 4be5 fb3e 7937 f7be 84a1 6b3e
00000030: 1d3e e43d 025c ecbe a230 d03e eeb5 bebe
00000040: 47e3 0bbf 889a 073f 6c8d ccbd caa0 74bf
00000050: 3ff9 bc3e b4a2 8ebe a182 acbd dc14 b83e
00000060: 9d70 42bf 8aa9 62bf 342e e63e d0d2 14be
00000070: 0397 a43e 62bc 60be d987 ed3d b671 64bf
00000080: 1136 83be 496a ac3e abfd 11bf 53d4 d1be
00000090: 04d1 bfbd c871 ec3e 4d01 80bd b483 fc3d
000000a0: f78f 08bf 87cf 753e f3e6 123f 9c33 3bbe
000000b0: 75d0 933d 83d5 0fbf bdac cdbe bb91 ad3e
000000c0: a698 0fbf 0b0a 2f3f 591f 863e 3e17 69be
000000d0: ff31 bc3e df82 80be 86d3 003f abc0 a6bc
000000e0: 0078 b43e cf1d bbbd 6e1f 17bf 721d 84be
000000f0: 7f67 65be ddc6 843e 3932 f83d 2c76 ebbe
00000100: 02fd ac3e a57e be3b 0c64 df3c 0983 933e
00000110: fc8d bdbe 1b3f f33d cb44 5ebf b120 32be
00000120: a5f8 5fbd 0242 fbbe a9d4 b8be 4255 a5be
00000130: 75c3 9e3e ce20 00bc ef0b 163e 218f debe
00000140: 8c3f 133f 72d9 033f 6016 63be ae97 043c
00000150: 9fd6 8bbe 4688 043d 0533 123b f2d1 dcbe
00000160: 5732 293f 7937 17bf f814 70be a457 023f
00000170: 42dc fd3e 55b1 16be 0a2d 083f 7d21 92bd
00000180: 73e8 09be 49ca 30bf 3771 c5be de7d eb3e
00000190: 51aa 113f 5b83 d93e 3ae9 1fbe 8e02 7a3e
000001a0: 2e99 923e 2e56 303f 9ad2 0d3f 880c a3bd
000001b0: 9e86 63bd b923 fd3e b284 f53d eb23 8abe
000001c0: aa44 0ebf 495f c0be d65a e9be 1b1e b5be
000001d0: 2252 14be 4201 da3d 9367 27bf 44e7 e5be
000001e0: 3b6b 163e e69d 853d becd a5be 8c31 32bf
000001f0: 0c60 60bf adde f2bd 3420 4d3e 7642 153f
00000200: 486c b0be f09c ae3d 0604 d3bb 1d17 4dbe
00000210: e09e be3d 28de e4be 1520 3e3e 8d1c 2e3f
00000220: 37ef 31bf 16ee 11bf 65b8 4abc aec5 333f
00000230: a480 9dbc 9f09 c3be 786a 4bbf 2c7d 1dbf
00000240: 8845 453e ac20 d03e 0b92 a53e 8674 9fbe
00000250: 8614 143f a448 183e dbe5 83be b271 4f3f
00000260: ae89 cabe f818 88be 43d4 143f 09d1 e43d
00000270: dafc c8be 4284 1bbf 8347 c4be 1db5 d3be
00000280: 9cf2 b5be 17f4 de3d fe7c a83e 1141 353f
00000290: d474 04bd 1ff4 1a3f e3aa 6b3f a1bf 283c
000002a0: 3c05 f6bd 1ec1 7fbe d6e5 f33e 2796 ec3e
000002b0: 2c5f b43d 8d24 b4be 0b5f 0ebf 1874 1dbf
000002c0: a9ec 203e 0a1e 85be 1f81 003f 0286 84be
000002d0: a1b6 ed3e 181e 853f 80a5 afbe d38b f2be
000002e0: 4e86 033e 9836 113d 2c4b e7be 30f0 043e
000002f0: fdb4 d9bd 27bd e6bb 1567 1f3f 60f0 993c
00000300: 98b3 acbc 4a95 c33e ec93 323e 00b6 9ebe
00000310: bd84 8bbf 1f32 58be e592 863e 2b34 a43e
00000320: 31fe f33d 7965 aebd ceb8 563f 3e85 d4bd
00000330: 3f66 15be 69f6 4ebf 3915 eabe a5d8 00be
00000340: 1d92 4e3f 487a a5be ef8b be3d ed93 2ebf
00000350: e250 e33e dc77 e7be a268 013f 0987 5cbe
00000360: d990 bdbe 30cf 87be d609 d8bd c6a4 8e3f
00000370: 97e4 a03e 6b6b 333e 1ec0 f3be d6f3 bd3e
00000380: 738f b83d 98aa 0bbf 12c2 443e 5606 03bf
00000390: d23f 9f3e 76dd eabc fd05 f03d 3fe1 263d
000003a0: b9b2 1f3f a544 933e 3102 58be a7e1 3fbe
000003b0: 38c0 ea3d bb64 e5be e43c ab3e 0daf c4bd
000003c0: 0a4f 40bd d394 c9be 0427 8abe 4491 9ebe
000003d0: 5843 023f f7df 8c3e 8cbb d8be 066c e0bd
000003e0: 2111 3a3e 9e11 7dbf 4c45 28be 8366 67be
000003f0: 8afc f63e d522 553e 182f 923d 8d28 58be
0.27375424 0.5652744 0.6185118 -0.3764939 0.6084226 -0.2902291 -0.3217375 0.39539427
-0.4640863 0.49198374 -0.4828451 0.23010832 0.1114466 -0.46163946 0.40662104 -0.37248176
-0.5464367 0.5297017 -0.099879116 -0.95557845 0.3690891 -0.27858508 -0.08423353 0.35953414
-0.75953084 -0.88539946 0.44957125 -0.14533544 0.32146463 -0.21946862 0.115981765 -0.8923601
-0.25627187 0.3367484 -0.5702769 -0.40982303 -0.093660384 0.46180558 -0.06250248 0.12329808
-0.5334467 0.24004947 0.5738365 -0.18281406 0.072174944 -0.5618517 -0.4017085 0.33900246
-0.560923 0.683747 0.2619579 -0.22762772 0.36756894 -0.25099847 0.5032276 -0.020355543
0.35247803 -0.09136545 -0.5903233 -0.25803715 -0.22402762 0.2593297 0.12118954 -0.45988595
0.3378678 0.005813437 0.027269386 0.2881091 -0.37022388 0.11877271 -0.8682372 -0.17395283
-0.054680485 -0.49073797 -0.36099747 -0.3229161 0.31008497 -0.007820321 0.1465299 -0.43468574
0.5751884 0.5150367 -0.22176504 0.008092804 -0.2731218 0.032356523 0.0022308242 -0.43128926
0.6609244 -0.5906902 -0.23445499 0.5091498 0.49582106 -0.14716084 0.53193724 -0.07135294
-0.13467579 -0.6905866 -0.3856294 0.45994467 0.5690051 0.4248303 -0.15616313 0.24415037
0.28632492 0.688815 0.5539948 -0.079613745 -0.055548303 0.49441317 0.119882 -0.26980528
-0.55573523 -0.37572697 -0.45577115 -0.3537453 -0.14484456 0.10644771 -0.65392417 -0.44903004
0.14689343 0.06524257 -0.3238353 -0.6960685 -0.87646556 -0.11858878 0.20031816 0.58304536
-0.34457612 0.08526027 -0.0064396886 -0.20028348 0.09307647 -0.44700742 0.18566926 0.68012315
-0.6950564 -0.57003915 -0.012373065 0.7022351 -0.01922638 -0.38093278 -0.79459333 -0.6151912
0.19264805 0.40649927 0.32337984 -0.31143588 0.57843816 0.1487146 -0.25761303 0.8103286
-0.39558166 -0.2658155 0.58136386 0.11172683 -0.3925541 -0.60748684 -0.3833581 -0.41349116
-0.3553666 0.108864 0.3290786 0.7080241 -0.03233798 0.6052875 0.9205763 0.010299594
-0.12012717 -0.24976012 0.47636288 0.46208307 0.08807215 -0.35184136 -0.55613774 -0.6150527
0.15715279 -0.2599948 0.50197023 -0.2588349 0.46428397 1.0399809 -0.34305954 -0.47372302
0.12844202 0.035452455 -0.4517454 0.1298225 -0.10630224 -0.0070415917 0.62266666 0.018791378
-0.02108173 0.38199836 0.1743924 -0.3099823 -1.0899884 -0.2111287 0.26283947 0.3207105
0.119137175 -0.08515448 0.8387574 -0.103769764 -0.14589785 -0.8084474 -0.45719317 -0.12582643
0.806917 -0.32319856 0.09304034 -0.68194467 0.44397646 -0.45208633 0.5055028 -0.21535887
-0.37024572 -0.2652526 -0.10548751 1.1144035 0.314244 0.17521445 -0.4760751 0.37100095
0.09011736 -0.5455718 0.19214657 -0.5118154 0.3110338 -0.028670054 0.11719892 0.040742155
0.62382084 0.2876331 -0.21094586 -0.18738423 0.11462444 -0.44803414 0.33444893 -0.09603701
-0.046950378 -0.39371356 -0.26982892 -0.30970204 0.5088401 0.27514622 -0.42330587 -0.10958104
0.18170597 -0.98855007 -0.16432685 -0.22597699 0.48239547 0.20814069 0.07137889 -0.21109219

layers.0.bias f4 [128]
00000000: ea91 c7be 3950 f0be 08f1 c4be efe4 ac3e
00000010: d934 cfbd e054 d6bd d4f0 44be 55f6 093e
00000020: 0c4e e1bd bad9 d6be 6c00 a33e ff87 02bf
00000030: e4b7 1ebd 3966 353f 64db 163f 0e7a dd3c
00000040: 851c f1be a17c b33e 8934 e23e bfe9 7f3e
00000050: 35a6 c83d d330 10be 13d9 bbbe fe31 febe
00000060: 714b 943e 6347 c1bd 1cc2 923e a28e fa3e
00000070: 1121 97be 8c7c 2abe cafa d4be f03b 193e
00000080: 7bec 503e 0781 22bf 5bd3 613e 1a2a f83d
00000090: f2c7 a83e 3f18 0f3d 1899 a93e 37be e93e
000000a0: 012c ecbd 8f97 89be 0cf0 2b3e 0317 f83d
000000b0: 317e a83d 1af8 ee3c 61b3 5e3e 8f7e 763e
000000c0: b256 6a3e 8ed3 bc3e e4bf 76be ebd6 8dbe
000000d0: 3818 85bd 08cb 383e b921 9abe eb21 60be
000000e0: 0315 563e 5c90 183f 8cd7 783d c433 99be
000000f0: cd08 33be 41ed ccbe c615 76bd 6741 92be
00000100: 95c5 773e 8db8 50be 378f 983e 5cf7 d53c
00000110: fdf0 313e 0d13 b63e abd3 e5be 7272 093e
00000120: acd9 553e b9d2 133c 3486 8dbe 2de0 a4be
00000130: c50f e73e eaf1 1a3d 202b 863e a526 643e
00000140: b34c 693e 8098 bdbd 2448 513e 19cd 48be
00000150: f645 9b3e 423e 88be ae02 41bd b0a9 b6be
00000160: a8b4 8bbe 11a1 a33d f6de 52bf 4b94 e83e
00000170: a98b 0a3f 0671 1f3c a47f 1e3f 63ae c5be
00000180: aa30 f03d 45c0 ed3d 3c70 15bf 9fa7 f8bc
00000190: a996 f9bd 6427 3bbf 09ef 0f3e 1d97 123f
000001a0: a62f 48be c1ea 913d d360 c6be 84e7 963c
000001b0: 7507 1c3e ec3c 24be cde1 d63e 4f8a 09bf
000001c0: ce3f b73e cbfc 04be 7345 e83d 5ddb d9be
000001d0: 7020 593e f39d 063f c575 06bf fcdd 123d
000001e0: 7e90 89be 0443 24be 4ccf 593e 63cd 653e
000001f0: ed4d 143e 3065 dd3b 18cb da3d 6fe4 47be
-0.3897851 -0.46936205 -0.38465142 0.33768412 -0.10117502 -0.10465407 -0.19232494 0.13472874
-0.110012144 -0.41962987 0.3183626 -0.50988764 -0.03874959 0.70859104 0.58928514 0.02703574
-0.4709207 0.35056022 0.44180706 0.24991511 0.097973265 -0.14081125 -0.36689052 -0.49647516
0.28963807 -0.09437444 0.2866372 0.48936945 -0.29517415 -0.16649073 -0.41597587 0.1496427
0.2040271 -0.6347813 0.22053282 0.12117405 0.32965046 0.034935232 0.33124614 0.45652935
-0.115318306 -0.26873443 0.1679079 0.12113764 0.08227194 0.029171038 0.21748115 0.24071716
0.22884634 0.36880153 -0.24096638 -0.27703032 -0.0649876 0.180462 -0.30103853 -0.21887939
0.20906453 0.59595275 0.060752437 -0.29922307 -0.17483826 -0.4002476 -0.06007936 -0.28565523
0.24196465 -0.203829 0.29796764 0.026118927 0.17377086 0.3556141 -0.44888052 0.13422564
0.20883816 0.009022408 -0.2764145 -0.32202283 0.4512922 0.037828363 0.26204777 0.22280367
0.22783165 -0.09257603 0.20437676 -0.19609489 0.30326813 -0.2661 -0.047121696 -0.35676336
-0.27286267 0.07989705 -0.8237146 0.4542564 0.54119354 0.009731537 0.61913514 -0.3860961
0.11728032 0.11608938 -0.5837438 -0.030353365 -0.12186939 -0.7310698 0.14056028 0.5726183
-0.19549426 0.07124854 -0.38745746 0.018420942 0.1523722 -0.16038865 0.41969147 -0.5372667
0.35790867 -0.12987058 0.113413714 -0.42550173 0.2120378 0.5258476 -0.5252345 0.035856232
-0.2686805 -0.1604119 0.21270484 0.2244163 0.14482851 0.0067564473 0.10683268 -0.19520734

layers.1.weight f4 [128, 128]
00000000: 86a5 103d 3f6d 283d f91b 0cbd a0a3 00bc
00000010: 5a20 063c e181 c5bd 270c ae3d 483e 04bd
00000020: c560 37bc b130 ddbd 9dfe d8bd f173 133d
00000030: 83ed 94bd 4279 0b3d 71fe 78bd 845c 4ebd
00000040: 9a2e bbbd 3675 28bb 0f28 83bd dae1 633c
00000050: 8493 45bd 2dff e6bd 9da6 dc3c 3175 843c
00000060: 6117 d4bd e4ad fcbc 1197 29bd 009c e7bd
00000070: 892d cebd 689c 743d a5a8 23bd a924 083d
00000080: cac4 fc3c a3e4 a1bc 79db e5bd e712 dfbd
00000090: d273 e0bb 39f7 473d c061 dbbb 366b 83bb
000000a0: 30bb 02bc 43b1 833c 9fda dbbd 9544 b53c
000000b0: 2973 a6bd 7443 9bbc 94fc 933c ab09 aebc
000000c0: bb97 57bd 385c d7bc 1432 413b cdc4 c9bd
000000d0: 72ed 993d daa6 31bd cd20 ff3b 81d8 75bd
000000e0: 85f4 8f3d 0fbc e1bd f90d 673c 51b7 acbd
000000f0: c643 89bc 6fa8 60bd 71c5 88bd 3769 96bc
00000100: a383 2f3b ec81 7fbd d358 08bd 1fd3 0cbd
00000110: 4aa5 a3bd 5dfc 803d eb26 b3bd 71a0 a93c
00000120: b9de b03b f7b7 223d 22bc e0bd 005f f3bc
00000130: 08ec 5d3d 1ae7 14bd 3177 91bc a3f9 1d3c
00000140: 8420 74bd ccab 8b3c 49e8 533d 9e7e d6bc
00000150: 2aca 64bd a8b8 9c3d fb0f e6bc df2e d43a
00000160: aa8f a8bd 60c1 e1bd 3427 53bc d9ee 8e3b
00000170: e813 21bd 2549 eabd 6eeb 8ebd 9cba 783d
00000180: bcdd 1abd b6a3 bebc 82ee 453d fddc d9bb
00000190: 5ee0 553b d5e7 efbb aad5 e9bd 65c3 503c
000001a0: 6c6d 01be efb3 013d 6649 bb3c 1abf 1bbd
000001b0: 4b23 3dbd 325f 82bc b0a5 6bbd 7186 4abb
000001c0: 01be 053d 6805 b6bd 6ecc 663d a6f7 52bc
000001d0: e870 b5bc 31ec d1ba 49f2 4e3d c4d7 ed3c
000001e0: 3f20 013c 38d7 a7bd 918f adbc 9b67 60bd
000001f0: 3cd3 fcbc 9534 33bc 2982 e0bd 80c5 453c
00000200: 7e04 cbbc 1309 823d 2bd0 cabd 6588 593d
00000210: 99eb 9dbd 97b7 cebd ed3c ad3d 6aa3 9dbd
00000220: 0de7 8bbd c3ff 99bc 7423 bbbd ade4 d33c
00000230: dc0b 66bd 57b9 08bb da8e 4a3d a8f4 8c3b
00000240: 062b 863b 1b8a 59bd ad9a ea3c 48aa 4bbd
00000250: 29d7 7d3c 5e06 97bc 225c 953d 4cf9 2cbd
00000260: c6dd c8bd 0837 86bc a1ed babd a4ad 84bd
00000270: 6748 613d af07 843d 36c7 a8ba 47e5 46bd
00000280: eed9 4cbd e4ad b23c 3e08 1ebd 37b8 1f3c
00000290: 24ce acbd dca5 3b3d 4985 8abd df89 ac3c
000002a0: 89bc 053c d3ae 4abd df80 c2bd 38b5 123c
000002b0: b6c1 8bbd 8cb5 97bd f6bb 9e3d 18bb 9dba
000002c0: 8786 76ba 2a73 b0bd 02b3 dcbc 711a 423d
000002d0: 7e7e 573c adf1 663d fb32 9cbd dfd4 b13d
000002e0: 7a58 5f3d d7e6 8c3d 113f c23c 7fd5 e13c
000002f0: 73ff d7bc 5298 44bc 7919 303d d92f ec3c
00000300: 42a7 c7bd 305b 993d bdd0 afbd ec45 3f3d
00000310: 03ff 903d 2321 863d 7e46 e1bb 50d9 56bd
00000320: 0c7f 96bd 4ec2 babc c687 a13c 6776 463c
00000330: 2b33 8a3c 6dde 90bd 977f 16bd 705c 6a3d
00000340: f44c 7c3b c3b3 2cbc d3d4 743d f1c4 87bd
00000350: c7df 1e3d 1b49 1f3d d8ee 67bd c1dc 1b3d
00000360: 5f63 c4bd cc71 2b3d 53e8 523d 9453 b7bd
00000370: 3358 753d 9587 b7bd 1932 c4bd f688 45bd
00000380: d590 95bb a4e9 09bc 95a8 57bc 94de b63d
00000390: 1752 a8bd e59d 87ba 3422 42bd e3d0 2bbd
000003a0: b3d4 28be aa91 5d3d da8c debc d9e3 9bbd
000003b0: 0f14 bfbc de70 8c3d 5d0e 7dbb da57 35bc
000003c0: 48a3 f33b 8f5d a9bd 4edf dd3c f899 0cbd
000003d0: cd95 9abd 3ee0 3f3d be8b 8a3c 7ede 9b3d
000003e0: 1abe 8d3d 6b00 b9bb 6bee 07bd b019 76bb
000003f0: 774a af3d 8f33 423d b29f 67bd 2bbe db3c
0.035314105 0.04111981 -0.034206364 -0.007851511 0.008186424 -0.09643913 0.084984116 -0.03228596
-0.011192505 -0.10800303 -0.10595439 0.035999242 -0.07271864 0.034051187 -0.06078953 -0.0503812
-0.09139748 -0.0025704629 -0.06404125 0.013908828 -0.048236385 -0.1127914 0.026934916 0.016169162
-0.10356022 -0.030844636 -0.041403834 -0.113090515 -0.10067279 0.059719473 -0.039955754 0.033238087
0.030855555 -0.019762343 -0.11223502 -0.10892277 -0.0068497444 0.048819754 -0.0066950023 -0.0040105833
-0.007979199 0.016075736 -0.10735058 0.022127429 -0.08127434 -0.018953063 0.018064775 -0.021244844
-0.052634936 -0.02628909 0.0029479312 -0.0985199 0.07515992 -0.043372013 0.0077858926 -0.060020927
0.0702906 -0.110221975 0.014102452 -0.08433402 -0.01675595 -0.05484813 -0.06678284 -0.018360717
0.0026781342 -0.062379763 -0.033287834 -0.03438103 -0.07990511 0.062981345 -0.087476574 0.020706387
0.0053976444 0.039726224 -0.109733835 -0.029708385 0.054180175 -0.036353208 -0.01775703 0.009642038
-0.05960132 0.017049693 0.051735196 -0.026183423 -0.05585686 0.07652408 -0.028083792 0.0016188285
-0.08230527 -0.110232115 -0.012887765 0.004361969 -0.039325625 -0.114397325 -0.069784984 0.06072484
-0.03780912 -0.023271423 0.048323162 -0.0066486583 0.0032634954 -0.0073213377 -0.11417706 0.012741898
-0.12639397 0.03166574 0.022862148 -0.038024046 -0.046176236 -0.015914533 -0.05753106 -0.0030902887
0.032651905 -0.0888775 0.056347303 -0.012876427 -0.022148564 -0.0016015825 0.05052403 0.02903355
0.007881223 -0.081953466 -0.021186622 -0.054786306 -0.030862443 -0.0109378295 -0.10962326 0.012071013
-0.024782415 0.06349387 -0.09902986 0.05310859 -0.07710952 -0.10093611 0.08458886 -0.076971844
-0.06831179 -0.018798715 -0.091376215 0.025865877 -0.056163654 -0.0020862424 0.04945264 0.0043016262
0.0040944843 -0.053110223 0.028638208 -0.04972294 0.015493193 -0.018435653 0.072929636 -0.042229936
-0.09807925 -0.016383663 -0.09127355 -0.06478432 0.05500069 0.06446778 -0.0012876752 -0.0485585
-0.05001252 0.021811433 -0.03858208 0.00974851 -0.08437756 0.045812473 -0.067637034 0.021061836
0.008162626 -0.04948313 -0.094972365 0.008954339 -0.06824057 -0.07407674 0.077506945 -0.0012033908
-0.00094042014 -0.08615716 -0.026940826 0.047388498 0.013152717 0.056382824 -0.07626911 0.0868318
0.054527737 0.06879967 0.023711713 0.027567623 -0.026366925 -0.011999207 0.042993043 0.02883141
-0.09748699 0.07488096 -0.085847355 0.046697542 0.070798896 0.06549289 -0.0068748584 -0.05245334
-0.07348451 -0.02279773 0.019718062 0.01211319 0.016870102 -0.07073674 -0.036742773 0.05721706
0.0038498016 -0.010540905 0.059773277 -0.066293605 0.03878763 0.03888808 -0.056624264 0.038052324
-0.09589266 0.041856572 0.051491093 -0.08951488 0.059898566 -0.08961407 -0.09579868 -0.04822632
-0.0045643845 -0.008417521 -0.013162752 0.08929172 -0.082187824 -0.0010346739 -0.0473959 -0.041947257
-0.16487388 0.054093994 -0.027166773 -0.07611818 -0.023324994 0.06857465 -0.0038613298 -0.011068309
0.007435236 -0.08269798 0.027084019 -0.034326524 -0.075481035 0.046844713 0.016912337 0.076107964
0.069210246 -0.005645802 -0.033186357 -0.0037551932 0.08559125 0.04741245 -0.05654878 0.026824078

layers.1.bias f4 [128]
00000000: 9ea3 f4bc 10f5 bd3c fee2 c2bd 78d4 cebd
00000010: 80a2 253d 7d5b 8abd 4868 ee3d a204 63bd
00000020: ca12 023e 960a c23d a2b2 d93c 7342 54bd
00000030: 96eb 43bd d975 123d a01c 2abd 3af0 d4bd
00000040: 2efd 89bd 875e 9ebc 1cea 0abe fc36 6d3d
00000050: b5b4 903d efd1 7cbd 68ae db3c 118c 63bd
00000060: 0614 f2bc da5a ef3c b314 9b3d c20f ea3d
00000070: be36 103d 04cc 8a3c dafb 4c3d 545c 703d
00000080: 4997 12bc 975c 6abc f96c 4a3d 101a cb3d
00000090: ec2c cfbd bb50 c53c a16f 693d af15 70bc
000000a0: 8dd2 713c 923f 2bbd 3a9d 93bb 31a8 0abb
000000b0: 4007 1c3d bdaf e23c b491 bd3c 0a19 cd3d
000000c0: f642 4d3d 0316 6a3c ebd1 7d3d 27be 603d
000000d0: a642 413c d888 78bd 5e72 e9bc ce8d 90bc
000000e0: 484e 813d 9924 cdbc a96a 143e 6c5b c8bc
000000f0: 1329 66bd 81fd 8abd 7fee cfbd 144e 9fbc
00000100: 1acc dbbc f5c6 34bd 743c 13bc f69a c1bd
00000110: a094 b3bd 68aa cd3d 8bb9 d83d 6aa6 813d
00000120: b155 58bd be03 69bd 2cf4 dc3d a05e 77bc
00000130: 4492 3c3d 9d35 0cbe 59c1 15bd 65dd 69bd
00000140: e37f ef3d 927f cebc 02f6 9abd 477a bc3d
00000150: 044a 283d 8d3e 713c b9b0 ba3b 1564 c1bd
00000160: 8984 a0bd c935 aabd 733a 2c3d 7ed1 eabb
00000170: 76fb 46bd f3ea 833b 7ff2 aabd 91e8 bebd
00000180: fa2b 8dbd 5ac0 c63d 0c64 923d 797b cdbc
00000190: f348 693d 822c 72bd 3ed9 91bd 43b8 dbbb
000001a0: 0fdd cbbb 074c 23bd 8879 7fbd 9c77 a1bd
000001b0: a00c bb3d 1402 a6bd a568 30bd 23ed 95bb
000001c0: 9189 e43c 060e b53c 6090 c5bd 3f66 133d
000001d0: cbf0 c1bd 1ec6 2c3d e27c 34ba b0c2 3bbd
000001e0: 8ea2 0d3e 701b a9bd 8f58 9fbd c292 ef3d
000001f0: 6919 263d cc34 003c bd07 29be abf2 6bbd
-0.029863175 0.023188144 -0.095159516 -0.10099119 0.040438175 -0.06755731 0.11640984 -0.05542434
0.1270248 0.09474675 0.026574437 -0.051821183 -0.047832094 0.03575692 -0.041531205 -0.10397382
-0.06737743 -0.019332184 -0.13565868 0.057913765 0.07065717 -0.061723646 0.026816562 -0.0555535
-0.029550564 0.029218126 0.075723074 0.11428787 0.035208456 0.016942985 0.050044872 0.0586818
-0.008947202 -0.014304302 0.04942033 0.099170804 -0.1011599 0.024086347 0.056991223 -0.014653607
0.014759672 -0.041808672 -0.004504827 -0.0021157379 0.03809285 0.02767169 0.023140766 0.100145414
0.050112687 0.014287475 0.06196777 0.054868843 0.011795675 -0.06067738 -0.028496917 -0.017645743
0.06313759 -0.025041865 0.14493813 -0.024457656 -0.056191515 -0.06786633 -0.101529114 -0.01944641
-0.026830722 -0.044135053 -0.008986581 -0.094533846 -0.08768582 0.10042268 0.105822645 0.06330569
-0.052816097 -0.056888334 0.107887596 -0.015098244 0.046037927 -0.13692327 -0.036561344 -0.057095904
0.11694314 -0.025207315 -0.075664535 0.0920301 0.04108621 0.014724386 0.0056973365 -0.09442917
-0.07837779 -0.0831104 0.04204793 -0.0071660867 -0.048579656 0.004025811 -0.08347034 -0.09321702
-0.068931535 0.09704657 0.07147989 -0.02508329 0.056954335 -0.059124477 -0.07121514 -0.0067053153
-0.0062214206 -0.039867427 -0.06237176 -0.07884142 0.091332674 -0.08105865 -0.043068547 -0.004575388
0.027897628 0.022101413 -0.09646678 0.03598618 -0.09469756 0.042181127 -0.0006885064 -0.045839965
0.13831541 -0.082571864 -0.07780563 0.11697914 0.040551577 0.007825088 -0.16506858 -0.057604473

readout.weight f4 [1, 128]
00000000: 967e 0fbd 4c5d b6bc f973 49bd fea7 8e3e
00000010: 2e18 c53d 47c2 e83d a7ad 103e 484f 1c3c
00000020: d602 6bbe 5635 d2be b2a4 8ebd a3a2 e93d
00000030: d048 18bd d9cb 5f3d 2dfa 11be ba71 59bd
00000040: 87be babc d6fe 32be 23a0 9abd f870 e8bc
00000050: ab2c 2cbe d12e f3bd 4aa8 46bd bfab 57bf
00000060: c8bc 02be c497 4c3d aa33 b3bc 9a80 f43d
00000070: 0dfd f4bc d3c9 073b b3c8 02bf 8ad7 603d
00000080: 1f8a 56bd fd4a 6f3e 9df7 afbc 5764 e13e
00000090: 9f4b 903d 64ed 4c3c 0153 2ebe 8521 08be
000000a0: 8023 7d3c 85d4 32bb f228 faba 4b3e b7bd
000000b0: 996a 44be 2626 8b3d faab 1b3d 79f7 813e
000000c0: 3bfa 97bd 250a 44bd 25c7 893d bf7f 87bc
000000d0: ab3b b53c 5be6 8ebd 17ab 853d c212 a0bd
000000e0: 5060 74bd db20 8f3c 805f cb3e 94b4 d83d
000000f0: 50e7 82bd f768 3cbb 820c 5a3d 431d 93bc
00000100: f2d4 55ba 967a 8cbd b578 a0c0 dc09 05bd
00000110: 36a0 583d a32d 49bd f44e 1a3f bc82 80bd
00000120: 9c73 17bd 6e27 303d 645f d5bd 7c5f c13b
00000130: d5ec ee3d 64ee 28bd bc60 43bd 4e37 8dbe
00000140: 2d65 f63e 89f5 c5bd 9a56 bf3c 7ccd 513c
00000150: b9d2 9939 908d 66be a03a 4d3e 6f47 24be
00000160: bd11 263e 4265 92be f1b5 1ebe eec3 863e
00000170: fe55 2c3d f2c4 0cbf 0442 713c 2d7b c53c
00000180: 7b85 18bd 7954 7d3d 799a 02be 3218 5fc0
00000190: 67dd 07bd 5695 633d 290b c63e 2df6 733e
000001a0: b501 6cbe 9d61 1d3d 093e 1ebe 1bd7 493d
000001b0: 60be 15be 3f1c 03bd f60d af3d 6504 92bd
000001c0: 3c64 37bc 243f edbc bd2b 81bb 6cb2 45bd
000001d0: 2a5b f0bc 8074 34be 547e 4d3d 153a 3b3b
000001e0: 9690 a7bd ac38 7ebd 129e 30be 0517 953e
000001f0: ccaa 3dbb f883 ba3e d8d0 00bf 4324 803d
-0.03503283 -0.022261284 -0.049182866 0.27862543 0.096237525 0.113651805 0.14128743 0.0095403865
-0.229503 -0.41056317 -0.06965007 0.114079736 -0.037178814 0.054637764 -0.1425559 -0.053086974
-0.022795929 -0.17480025 -0.07550075 -0.02837418 -0.16813914 -0.11874164 -0.048500337 -0.8424644
-0.12767327 0.049949422 -0.021875221 0.11938591 -0.02990582 0.0020719662 -0.5108749 0.054893054
-0.052377816 0.2336845 -0.021480376 0.44021866 0.070456736 0.01250777 -0.17023851 -0.13294037
0.015450358 -0.0027287316 -0.0019085689 -0.08947428 -0.19181289 0.067943856 0.038005807 0.2538412
-0.074207745 -0.047861237 0.06727437 -0.016540406 0.022123178 -0.069775306 0.065267734 -0.07816078
-0.059662163 0.017471721 0.39721298 0.105813175 -0.063917756 -0.0028749087 0.053234585 -0.017958289
-0.00081570365 -0.06859319 -5.0147347 -0.032480106 0.052887164 -0.04911579 0.6027672 -0.062749356
-0.036975488 0.043006353 -0.10418585 0.005901275 0.11666266 -0.041242972 -0.047699675 -0.27581257
0.48124066 -0.09665973 0.023356725 0.012805339 0.00029339435 -0.2251494 0.20041895 -0.16042875
0.16217704 -0.2859288 -0.15499093 0.26321357 0.042074196 -0.54988015 0.014725212 0.024106586
-0.037236672 0.061848138 -0.12754239 -3.4858518 -0.03317013 0.05556234 0.3868039 0.23824377
-0.23047526 0.03842317 -0.15453352 0.049277406 -0.14623404 -0.03200936 0.08547585 -0.071297444
-0.011193331 -0.028960772 -0.0039419816 -0.04826586 -0.029340345 -0.17622566 0.050169304 0.0028568555
-0.081818745 -0.062065765 -0.17247799 0.29119125 -0.0028940914 0.3642881 -0.5031867 0.062569164
