HW9/9_gym-DDPG/results/DDPG_Pendulum-v1_2000-eps0.1-t32-l0.0005-s1-u20.pth (torch, 176180 bytes, 12 tensors)

layers.0.weight f4 [128, 4]
0.36693105 -0.81661654 0.03655744 -0.022749156 -0.5490839 0.2686822 -0.11624269 0.14190246
-0.018877331 0.017512651 0.054097775 0.005833876 0.18261409 -0.1948505 -0.03645438 -0.045013666
-0.05831073 0.18089761 0.4621756 0.044096522 -0.23930581 -0.44553673 0.12613808 -0.25443986
-0.3430692 0.31573257 0.288101 0.1523968 -0.63922787 0.43914947 0.04567264 0.35683048
0.76295245 -1.1346757 -0.3378071 -0.122739226 0.4194682 0.011125444 0.21616411 -0.32635027
0.43465668 -0.16412862 0.41839373 -0.016978953 -0.9139383 -0.37757036 -0.2409824 0.23904848
-0.26771015 -0.45506144 -0.46445033 -0.15740675 0.075642675 -0.17318268 0.5037594 0.5047914
-0.14910768 -0.3514478 0.34071383 0.20027521 -0.29742604 0.89479643 0.18840063 0.16060737
-0.38799363 -0.20179497 0.02069158 0.050054822 -0.6852367 -0.05107283 0.18926232 -0.16459452
0.34873757 0.32566008 0.25844678 -0.08435435 0.05580233 0.0025310933 -0.46709853 0.23878066
-0.4618988 -0.5504474 -0.045875397 -0.021736909 0.37129238 -1.2771906 -0.32461792 0.15236315
-0.022935554 0.8763289 0.0066868025 -0.35476556 0.035096887 0.13648504 -0.34088007 -0.21113521
0.04305856 -0.03099024 -0.028248895 -0.16255373 0.33470863 0.09298657 0.37413257 -0.046365276
-0.74082637 -0.054699134 0.5317172 0.02460391 0.27636948 0.38394317 0.03779036 0.27212
0.38407663 -0.67881775 0.09598962 0.11239148 0.37946036 0.4339421 -0.3618602 -0.41353455
-0.37805343 1.0286349 0.51598316 -0.3662023 0.540322 -0.9897835 -0.38258946 0.12725504
0.19167766 0.5083011 -0.37444514 0.13106012 0.8432428 0.84024173 0.3401815 0.3002906
0.39003363 0.27008295 -0.24562252 -0.4873722 -0.43249518 -0.16391477 -0.16305219 0.04658402
-0.10047324 -0.15852131 0.15417509 0.31111038 0.2783892 0.20924841 -0.15439083 0.83217233
-0.18198271 0.04178552 -0.37861127 -0.43531987 -0.5042032 0.31257603 0.39697033 -0.28987926
-0.4499963 0.3326437 0.12811424 0.15829635 -0.3302397 -0.25798333 -0.226769 -0.047153093
-0.43567833 -0.66866386 -0.14162531 0.14743066 0.18496944 0.89330935 0.48376915 0.19563128
0.4731426 -0.03641596 -0.4032585 0.37883684 -0.2841555 -0.4980529 -0.39083332 0.008861082
-0.891704 0.23493214 -0.36119223 -0.3464226 -0.21579209 -0.10952222 0.19293843 -0.054909915
-0.062095415 0.52490455 0.3399876 -0.4443531 0.37949666 1.2180473 0.41429022 -0.32023174
-0.16321789 -0.11000124 0.44934177 -0.22669722 0.56324774 0.010345074 0.018117946 0.052352153
0.012102029 0.44297683 0.0051146913 0.10478716 -0.4070433 0.8914785 0.424166 0.20838256
0.5047585 -0.98153967 -0.23841128 0.01924132 -0.5727666 0.26079857 -0.36471894 -0.31831074
0.045346186 -0.8772236 -0.07775882 0.06425408 0.36824545 0.4853919 -0.31148124 -0.3359197
0.4201507 -0.321913 -0.233191 -0.000502004 -0.3379994 0.51270694 0.35066813 -0.38681483
-0.6055452 0.53740185 0.24415854 -0.15919393 -0.30876163 -0.46446225 -0.4684975 -0.13355017
-0.3112954 0.9327326 0.37930927 -0.26308796 0.117242955 0.47782058 -0.030564869 -0.21632701
00000000: 63de bb3e c80d 51bf 41bd 153d 705c babc
00000010: c390 0cbf b790 893e a610 eebd e14e 113e
00000020: a2a4 9abc b176 8f3c a195 5d3d 192a bf3b
00000030: 30ff 3a3e e486 47be 3051 15bd 4060 38bd
00000040: 3bd7 6ebd 393d 393e 48a2 ec3e 8e9e 343d
00000050: 950c 75be 641d e4be 572a 013e f145 82be
00000060: c4a6 afbe b3a7 a13e f981 933e e80d 1c3e
00000070: 70a4 23bf 33d8 e03e 3c13 3b3d 7cb2 b63e
00000080: da50 433f 0e3d 91bf 0df5 acbe b45e fbbd
00000090: 89c4 d63e 7f47 363c 205a 5d3e 6217 a7be
000000a0: 528b de3e 5511 28be b437 d63e 7217 8bbc
000000b0: dcf7 69bf e750 c1be 17c4 76be 20c9 743e
000000c0: 4e11 89be d0fd e8be 6fcc edbe 3c2f 21be
000000d0: 8cea 9a3d cd56 31be 60f6 003f 023a 013f
000000e0: afaf 18be f7f0 b3be 0b72 ae3e f214 4d3e
000000f0: 3a48 98be 6111 653f 18ec 403e 4276 243e
00000100: 1aa7 c6be 57a3 4ebe 6381 a93c 4906 4d3d
00000110: ac6b 2fbf be31 51bd fbcd 413e 778b 28be
00000120: bb8d b23e ebbc a63e 2353 843e f9c1 acbd
00000130: fc90 643d b3e0 253b 8a27 efbe eb82 743e
00000140: 007e ecbe 1fea 0cbf d7e7 3bbd 9a11 b2bc
00000150: 091a be3e fb7a a3bf 5234 a6be 1605 1c3e
00000160: 58e3 bbbc 1757 603f f71c db3b d5a3 b5be
00000170: c1c1 0f3d bcc2 0b3e d587 aebe d433 58be
00000180: 2c5e 303d 3edf fdbc 3a6a e7bc 7c74 26be
00000190: ee5e ab3e be6f be3d 4e8e bf3e 84e9 3dbd
000001a0: cca6 3dbf 330c 60bd 9e1e 083f 248e c93c
000001b0: 4d80 8d3e 3394 c43e 11ca 1a3d 5053 8b3e
000001c0: b1a5 c43e 00c7 2dbf 3596 c43d 812d e63d
000001d0: a148 c23e a92d de3e bd45 b9be cdba d3be
000001e0: 3890 c1be 4faa 833f 7917 043f de7e bbbe
000001f0: 8b52 0a3f 7462 7dbf c4e2 c3be 254f 023e
00000200: 2647 443e 0520 023f 46b7 bfbe a034 063e
00000210: c3de 573f 151a 573f 452c ae3e b1bf 993e
00000220: 7db2 c73e 5048 8a3e 7884 7bbe d988 f9be
00000230: 0270 ddbe 46d9 27be 27f7 26be e3ce 3e3d
00000240: eac4 cdbd 6953 22be 13e0 1d3e dc49 9f3e
00000250: 0789 8e3e 3745 563e a118 1ebe 3f09 553f
00000260: ad59 3abe 4b27 2b3d 56d9 c1be 3fe2 debe
00000270: 7613 01bf f709 a03e b23f cb3e 0e6b 94be
00000280: ea65 e6be 4650 aa3e 6130 033e 7018 223e
00000290: 2e15 a9be 6416 84be 2236 68be 9a23 41bd
000002a0: 3b11 dfbe 8e2d 2bbf 3a06 11be 10f8 163e
000002b0: a168 3d3e ecaf 643f 97b0 f73e 9153 483e
000002c0: bf3f f23e e728 15bd e677 cebe e7f6 c13e
000002d0: d47c 91be ca00 ffbe 4e1b c8be 122e 113c
000002e0: b746 64bf 0d92 703e 30ee b8be 4e5e b1be
000002f0: 9af8 5cbe 304d e0bd a791 453e 38e9 60bd
00000300: c357 7ebd 2560 063f db12 ae3e 4082 e3be
00000310: 634d c23e f9e8 9b3f d91d d43e 6af5 a3be
00000320: 9722 27be 5548 e1bd 2010 e63e 5123 68be
00000330: 0131 103f 637e 293c 166c 943c 366f 563d
00000340: 9747 463c dccd e23e 2499 a73b a79a d63d
00000350: fb67 d0be ef37 643f 492c d93e 3d62 553e
00000360: da37 013f 2f46 7bbf 1622 74be f99f 9d3c
00000370: d5a0 12bf 6487 853e 71bc babe a0f9 a2be
00000380: ecbc 393d ba91 60bf 0440 9fbd a597 833d
00000390: ab8a bc3e 4a85 f83e 787a 9fbe abfd abbe
000003a0: fe1d d73e c8d1 a4be 9fc9 6ebe eb98 03ba
000003b0: 420e adbe c340 033f c68a b33e 980c c6be
000003c0: 0305 1bbf 2b93 093f b204 7a3e bc03 23be
000003d0: 0116 9ebe ffcd edbe e8de efbe 60c1 08be
000003e0: 1c62 9fbe 90c7 6e3f d334 c23e 77b3 86be
000003f0: 131d f03d e6a4 f43e 2d63 fabc d484 5dbe

layers.0.bias f4 [128]
-0.2882536 0.4856658 0.41495845 -0.49135578 -0.4956792 -0.23639834 -0.49131927 0.2498929
-0.5263467 -0.4361094 0.29592347 -0.11870104 -0.22402622 -0.53987175 0.22023839 0.27100784
-0.1653146 -0.19550787 0.15855177 0.16894147 0.344801 0.35143074 0.09017041 -0.45132276
0.48825848 0.10717953 -0.38922265 0.65468186 0.3164765 -0.3305035 -0.13612823 -0.41587988
-0.3603831 0.38351786 -0.39383253 0.6069068 -0.407569 0.32034272 0.17630695 -0.057003852
0.5170868 -0.3834639 -0.0010353135 0.13754588 0.40854838 -0.22489923 -0.08054559 -0.5688708
-0.12965062 -0.21673284 -0.19769078 -0.38956586 0.2467452 0.22809832 -0.24548092 -0.09670544
0.20199798 0.028518181 0.5285008 0.123398386 -0.3192999 -0.47783145 0.033074226 0.06066324
0.10325324 -0.10458434 0.089546956 -0.18461518 0.5072882 0.30423495 0.10450213 0.64223576
0.24474685 -0.3192516 -0.10708434 0.42876855 0.3998529 0.5437384 0.11284985 0.46220708
0.378342 0.35985902 0.07110146 0.6054512 0.25568953 0.1737613 0.22316274 0.6654107
0.5154262 0.1773315 0.55236375 0.36607468 -0.24796976 -0.47172037 0.37625724 0.5410801
-0.22076538 0.34512398 -0.22785522 -0.013160173 0.06651477 0.35790032 0.088387966 0.4910621
0.26296473 0.48149586 0.6224936 0.31598192 0.2572414 -0.30780882 0.43334535 0.15356769
0.43841633 0.38668972 0.025494078 0.40896052 -0.17866656 0.53583336 0.5992542 -0.015671529
0.007916401 -0.19759744 -0.109847814 -0.013283225 0.03269388 0.077928655 -0.3762288 -0.2893733
00000000: fa95 93be 30a9 f83e 6f75 d43e fc92 fbbe
00000010: aac9 fdbe 6812 72be 338e fbbe ede3 7f3e
00000020: a8be 06bf bb49 dfbe 4883 973e 8819 f3bd
00000030: 2167 65be 0935 0abf 2c86 613e 8ac1 8a3e
00000040: 3b48 29be 3733 48be 655b 223e fefe 2c3e
00000050: c289 b03e bbee b33e 44ab b83d c713 e7be
00000060: 04fd f93e f180 db3d 3148 c7be 3b99 273f
00000070: 3509 a23e c137 a9be 3365 0bbe 35ee d4be
00000080: 2284 b8be 745c c43e 6ba4 c9be 3e5e 1b3f
00000090: e2ac d0be f603 a43e cf89 343e df7c 69bd
000000a0: cd5f 043f 6155 c4be 5bb3 87ba d4d8 0c3e
000000b0: 412d d13e fc4b 66be 16f5 a4bd 84a1 11bf
000000c0: 22c3 04be 37ef 5dbe 746f 4abe 2d75 c7be
000000d0: c6aa 7c3e 9b92 693e 5a5f 7bbe 800d c6bd
000000e0: 8fd8 4e3e f69e e93c d44b 073f 4bb8 fc3d
000000f0: 477b a3be 53a6 f4be d778 073d 047a 783d
00000100: 6f76 d33d 5030 d6bd 6564 b73d c30b 3dbe
00000110: a4dd 013f afc4 9b3e 3605 d63d 9069 243f
00000120: eb9e 7a3e f274 a3be 094f dbbd 8d87 db3e
00000130: 85b9 cc3e 7132 0b3f d21d e73d 68a6 ec3e
00000140: 0bb6 c13e 713f b83e a49d 913d dafe 1a3f
00000150: bde9 823e 7bee 313e c684 643e 5b58 2a3f
00000160: f9f2 033f 6496 353e b667 0d3f 246e bb3e
00000170: c9eb 7dbe 5585 f1be caa4 c03e 3a84 0a3f
00000180: 5210 62be 17b4 b03e e152 69be c49d 57bc
00000190: e538 883d b63e b73e c004 b53d 7e6c fb3e
000001a0: 50a3 863e a086 f63e be5b 1f3f 62c8 a13e
000001b0: 25b5 833e 1e99 9dbe 71df dd3e d940 1d3e
000001c0: 1b78 e03e 32fc c53e f5d8 d03c 4663 d13e
000001d0: 5ef4 36be 602c 093f b968 193f 9461 80bc
000001e0: cbb3 013c fc56 4abe e4f7 e0bd e2a1 59bc
000001f0: 05ea 053d 0f99 9f3d 10a1 c0be bd28 94be

layers.1.weight f4 [128, 128]
0.12150894 0.06300152 0.15583715 0.07184708 0.0037569415 0.12447734 -0.14551504 0.16232239
0.0080965925 -0.02736725 -0.08229932 0.02714463 -0.081881724 -0.055050068 0.005133928 0.052895088
0.07569879 0.11530782 -0.061632052 0.023207847 0.0039001715 0.06311819 0.016534524 -0.13895988
0.12005678 -0.05959426 0.09178606 0.09211844 -0.20085828 -0.07902206 0.077048115 -0.012687206
-0.12496928 0.035477217 -0.025280273 0.16690339 -0.08475727 -0.07706011 0.10217886 -0.0073472173
0.17810759 0.0381376 -0.019326985 -0.021842815 0.0145695815 -0.10420703 0.05484095 -0.13256717
-0.001782005 -0.024916835 0.061494958 -0.54086053 0.049427833 0.029555442 0.012578074 -0.048175562
0.061553024 -0.038058907 0.044483818 0.12656185 -0.07456846 -0.06247059 0.021764454 0.08683502
-0.032362066 -0.05434091 0.08678024 0.01387024 0.12951386 0.020053787 0.03591038 0.06510411
0.1551215 -0.04187275 -0.036863014 0.086427666 0.039843827 0.10819155 0.07411371 0.06079279
0.16287076 0.007318742 0.07496722 -0.011575015 0.15304182 0.09607461 0.08576398 0.057351265
0.08513939 -0.09417961 0.16820672 0.11185848 -0.01386128 -0.17519915 0.16919388 0.11799779
0.04839379 0.028440172 0.03182184 -0.055740945 -0.029024784 0.021208873 -0.0072273253 0.08243232
-0.004171507 0.15552624 0.14006017 0.1309134 0.096880615 -0.042704776 0.11428648 0.07284274
0.15568241 -0.07139423 0.028247176 0.102312066 0.06950822 0.12736374 -0.0049014124 0.0356672
-0.18961686 -0.047166657 0.14395508 -0.21011862 -0.04261894 0.057702035 -0.09750892 0.01972381
-0.14705418 0.040726315 -0.06949378 0.012197951 0.011941728 -0.0816198 0.22475876 0.053245984
-0.06314587 -0.043379255 0.004376749 0.04474226 0.005668534 0.05340066 0.015358687 0.060455695
-0.14185807 -0.030765574 0.02355014 -0.014514414 0.020513954 0.12505175 -0.007906021 0.0875631
0.025342863 0.11887221 0.13064149 0.042078078 0.15127608 0.03842401 0.025087547 -0.025153473
0.09060745 0.14909256 0.13480526 -0.006011306 0.036448322 0.051792 0.022547718 0.097323
-0.09321175 0.06006663 0.019122787 0.012303599 0.099373445 0.06215177 0.007943194 0.17123212
0.090450406 0.08246998 0.046770148 0.4256914 0.12075803 0.14707275 -0.056230444 0.06386072
-0.01772751 0.012711789 0.09414651 0.0015523233 0.048235245 0.027161047 0.06631164 0.108636275
0.08884633 -0.039478436 0.034850962 0.05180978 0.12708087 -0.15215169 0.007755862 0.07082603
0.024959262 -0.0155781275 -0.039142117 -0.017128887 0.05013335 -0.039199855 -0.08322648 -0.00400044
-0.083154336 0.20029472 -0.030063126 -0.04828848 -0.13100122 -0.0005444791 -0.05297069 0.0058293445
-0.045493513 0.035492975 -0.07704739 -0.051332723 0.0747487 0.14322814 -0.0658971 0.056892235
0.16537575 0.056687217 0.006973902 -0.033992372 0.07381545 -0.0056374436 0.042036716 0.05765056
0.0018822778 0.030953836 0.0035310162 -0.018942608 -0.0607703 0.060618743 -0.043436326 -0.009469224
-0.072050996 0.0017278616 0.007986667 0.093549386 0.11275673 -0.064499825 0.14094913 0.09203003
0.09774421 0.07428877 -0.012221907 0.20046525 0.111504 0.039057557 0.04954353 -0.029340832
00000000: aed9 f83d f106 813d c693 1f3e 9024 933d
00000010: 0537 763b faed fe3d e501 15be d737 263e
00000020: 92a7 043c 4831 e0bc 8c8c a8bd 6a5e de3c
00000030: 9bb1 a7bd 2e7c 61bd 823a a83b 85a8 583d
00000040: f807 9b3d 8226 ec3d e471 7cbd 621e be3c
00000050: 059a 7f3b 1c44 813d 6973 873c 804b 0ebe
00000060: 54e0 f53d 1c19 74bd 54fa bb3d 98a8 bc3d
00000070: cbad 4dbe 51d6 a1bd 67cb 9d3d 00de 4fbc
00000080: e5ef ffbd 8f50 113d 9318 cfbc b9e8 2a3e
00000090: 3895 adbd b1d1 9dbd 2643 d13d edc0 f0bb
000000a0: d661 363e 2c36 1c3d a053 9ebc b4ef b2bc
000000b0: 41b5 6e3c 7f6a d5bd e7a0 603d b0bf 07be
000000c0: 2a92 e9ba 641e ccbc 23e2 7b3d d675 0abf
000000d0: d774 4a3d 411e f23c 4414 4e3c bd53 45bd
000000e0: 061f 7c3d a8e3 1bbd aa34 363d 6e99 013e
000000f0: 59b7 98bd 29e1 7fbd 5e4b b23c 8fd6 b13d
00000100: 168e 04bd 9394 5ebd d7b9 b13d 0140 633c
00000110: 489f 043e d747 a43c c316 133d 4e55 853d
00000120: 2cd8 1e3e c382 2bbd acfd 16bd fd00 b13d
00000130: 4833 233d 8893 dd3d eec8 973d dc01 793d
00000140: 98c7 263e 0fd2 ef3b 6a88 993d 22a5 3dbc
00000150: ffb6 1c3e c4c2 c43d 07a5 af3d 29e9 6a3d
00000160: 8f5d ae3d 3de1 c0bd 623e 2c3e 0f16 e53d
00000170: 6c1a 63bc 6867 33be 2941 2d3e d3a8 f13d
00000180: 9138 463d 5dfb e83c 9e57 023d 9e50 64bd
00000190: 62c5 edbc 3bbe ad3c 33d3 ecbb 47d2 a83d
000001a0: 23b1 88bb 4542 1f3e ef6b 0f3e 2a0e 063e
000001b0: 5869 c63d 34eb 2ebd 080f ea3d 932e 953d
000001c0: 366b 1f3e 2337 92bd 9f66 e73c fd88 d13d
000001d0: 535a 8e3d a46b 023e 079c a0bb c517 123d
000001e0: ec2a 42be d331 41bd f668 133e 5629 57be
000001f0: 3391 2ebd f858 6c3d c2b2 c7bd d493 a13c
00000200: 5f95 16be a3d0 263d c152 8ebd ead9 473c
00000210: 3da7 433c 4828 a7bd 2927 663e 7618 5a3d
00000220: 9f52 81bd 72ae 31bd d56a 8f3b a943 373d
00000230: 1cbf b93b a7ba 5a3d 01a3 7b3c 64a0 773d
00000240: 3e43 11be 1608 fcbc 39ec c03c ddcd 6dbc
00000250: e10c a83c 910d 003e 4188 01bc 4854 b33d
00000260: d69b cf3c 4673 f33d e2c6 053e 105a 2c3d
00000270: 1ee8 1a3e 7f62 1d3d 6684 cd3c a80e cebc
00000280: 6690 b93d b8ab 183e 640a 0a3e 7dfa c4bb
00000290: d64a 153d d923 543d feb5 b83c 4851 c73d
000002a0: cde5 bebd 6d08 763d 64a7 9c3c 0995 493c
000002b0: 4e84 cb3d db92 7e3d 2c24 023c 7957 2f3e
000002c0: 103e b93d 05e6 a83d 0e92 3f3d 39f4 d93e
000002d0: fc4f f73d 3d9a 163e e551 66bd 69c9 823d
000002e0: 4839 91bc 1c45 503c e3cf c03d 5477 cb3a
000002f0: 5292 453d d880 de3c 66ce 873d b27c de3d
00000300: 11f5 b53d 24b4 21bd e2bf 0e3d 7e36 543d
00000310: 7d21 023e a7cd 1bbe e324 fe3b 3d0d 913d
00000320: 5e77 cc3c 673b 7fbc 7c53 20bd e151 8cbc
00000330: a158 4d3d 0790 20bd a572 aabd 1f16 83bb
00000340: d24c aabd 0f1a 4d3e f246 f6bc 24ca 45bd
00000350: 2f25 06be 60bb 0eba cbf7 58bd 1604 bf3b
00000360: 6857 3abd 1561 113d 06cb 9dbd 4342 52bd
00000370: d915 993d 66aa 123e 0ff5 86bd d507 693d
00000380: 4358 293e db30 683d 5585 e43b 963b 0bbd
00000390: 8e2c 973d 4eba b8bb b12e 2c3d fe22 6c3d
000003a0: c3b6 f63a e692 fd3c 9f68 673b 872d 9bbc
000003b0: 47ea 78bd 5c4b 783d 4aea 31bd ce24 1bbc
000003c0: 798f 93bd 6a79 e23a 82da 023c d296 bf3d
000003d0: 00ed e63d 7c18 84bd f854 103e 3e7a bc3d
000003e0: 1e2e c83d b624 983d 653e 48bc c346 4d3e
000003f0: 365c e43d d1fa 1f3d 28ee 4a3d 2f5c f0bc

layers.1.bias f4 [128]
0.13434634 -0.0655215 0.08970911 0.04561886 -0.072643496 0.045385614 0.11341663 0.010540127
0.14141606 0.16940013 -0.025118306 0.059739925 0.011913787 0.06408224 0.024080707 0.086728714
0.16821384 0.0340024 0.0038301337 0.060235552 0.19266498 0.11089647 -0.065202616 0.14480388
0.18118836 0.10097067 0.043817952 0.062996715 0.13942356 0.14278236 0.056934383 0.046401575
0.10778649 0.16782825 0.084172405 0.09183716 -0.06673421 0.11151332 -0.057002906 0.17606094
-0.05161617 -0.09065197 0.056554712 0.045251083 0.031085234 0.16115259 0.099037945 0.15178297
0.16514172 0.10067913 -0.004513532 0.12062322 0.1607629 0.11538297 0.14577721 0.19151416
0.0822964 0.1802258 0.106034644 0.03451566 0.17535083 0.015488063 -0.031545363 0.04574687
0.089974344 0.019471517 0.0640452 0.13795243 0.15893999 0.14105697 0.023122301 0.19099502
0.04068214 0.15837494 -0.0038866808 0.17407462 0.199016 0.014320513 0.094692 0.022425188
0.18227987 0.08849432 0.13876167 0.09228389 -0.070326984 0.17742012 -0.044520102 0.05385582
0.14820649 0.033875436 0.16320808 0.0434341 0.13907535 0.15029064 0.15322563 0.0027041568
0.13509606 0.15977761 0.066270664 0.05648832 -0.13082032 0.18662626 0.13076851 0.09148293
0.057921566 0.01889928 0.124910034 0.06586315 0.10262038 0.034106173 -0.0034217713 0.041223537
0.16327833 0.15134831 -0.04399461 0.08427253 0.07909601 0.10462627 0.124733314 0.06937602
-0.092620246 0.025905713 0.08435467 0.17765108 0.14029485 -0.013901829 0.13524976 0.15259783
00000000: 1692 093e 2330 86bd 69b9 b73d d7da 3a3d
00000010: 1dc6 94bd 44e6 393d fa46 e83d 7fb0 2c3c
00000020: 5fcf 103e 3a77 2d3e e8c4 cdbc dab1 743d
00000030: 0b32 433c 8d3d 833d e744 c53c d39e b13d
00000040: 4040 2c3e 1a46 0b3d fb02 7b3b 8eb9 763d
00000050: f849 453e b01d e33d f388 85bd 7847 143e
00000060: 7189 393e b6c9 ce3d 747a 333d 6c04 813d
00000070: 0dc5 0e3e 8a35 123e 0734 693d 940f 3e3d
00000080: 2abf dc3d 2bdb 2b3e 9562 ac3d 1f15 bc3d
00000090: f2ab 88bd 1861 e43d e17b 69bd 5249 343e
000000a0: 7a6b 53bd bda7 b9bd eaa5 673d 3359 393d
000000b0: 76a6 fe3c 2f05 253e 68d4 ca3d ff6c 1b3e
000000c0: e91a 293e dc30 ce3d 40e6 93bb 4f09 f73d
000000d0: 089f 243e e84d ec3d 9f46 153e 4a1c 443e
000000e0: 048b a83d 1d8d 383e b128 d93d 4b60 0d3d
000000f0: 2b8f 333e a5c1 7d3c b635 01bd 1261 3b3d
00000100: 7844 b83d bb82 9f3c 212a 833d 6743 0d3e
00000110: 2ac1 223e 3d71 103e fb6a bd3c 3394 433e
00000120: 51a2 263d 0a2d 223e afb7 7ebb 9e40 323e
00000130: daca 4b3e 96a0 6a3c e1ed c13d 07b5 b73c
00000140: 93a7 3a3e 833c b53d 8a17 0e3e 56ff bc3d
00000150: 9807 90bd 9fad 353e b65a 36bd ec97 5c3d
00000160: 71c3 173e f8c0 0a3d 0520 273e f4e7 313d
00000170: c569 0e3e cae5 193e 2ee7 1c3e 3938 313b
00000180: 9f56 0a3e be9c 233e eab8 873d 4c60 673d
00000190: c3f5 05be f41a 3f3e 2ee8 053e 675b bb3d
000001a0: 2a3f 6d3d aad2 9a3c d5d0 ff3d 42e3 863d
000001b0: a22a d23d eab2 0b3d cc3f 60bb 03da 283d
000001c0: 6f32 273e 0dfb 1a3e b133 34bd 1497 ac3d
000001d0: 17fd a13d 4c46 d63d 2e74 ff3d 0415 8e3d
000001e0: afaf bdbd 3838 d43c 24c2 ac3d 2aea 353e
000001f0: 74a9 0f3e 7fc4 63bc ea7e 0a3e 9b42 1c3e

layers.2.weight f4 [64, 128]
0.012022621 0.03859789 0.08405134 0.03715598 -0.056911007 0.028156376 -0.0060183695 0.07509141
0.050391927 -0.0018481167 -0.0015494089 0.03598447 0.08638055 0.048475046 0.016853493 0.04749264
0.05142385 0.060614232 -0.008878193 0.029839782 -0.011324795 0.0635885 -0.038378783 0.009284367
-0.041344333 -0.0138676865 0.032663018 0.0029304526 -0.0911973 0.00106441 -0.040686615 0.0009085139
0.026102329 -0.009597412 0.04059573 -0.08333439 0.011675351 0.06798315 0.00084644574 0.07072874
-0.035535347 0.025425715 -0.07541503 -0.01692947 -0.05755353 0.036802623 0.03470667 -0.018356021
-0.054333653 -0.047996316 0.04782728 -0.031116981 -0.08966141 0.061260298 0.010012345 0.0547591
0.03332383 -0.011478694 -0.076885894 -0.008233566 -0.014435997 0.024661649 -0.087300554 -0.009528351
-0.07153524 -0.048597686 -0.083104976 0.062255226 0.07359904 -0.04470058 -0.03971526 0.042224314
-0.0055663427 -0.021923885 -0.015067406 -0.085883476 -0.07108139 0.045401577 -0.06281618 0.046869185
-0.04513453 -0.06391166 -0.044355202 0.051702313 -0.087595046 0.03338707 0.011332011 0.026314225
-0.07984887 -0.065256216 -0.019697709 -0.034001347 -0.032842435 0.026791919 0.04111728 0.066338226
-0.046504088 -0.051441036 0.079580605 -0.008772013 -0.025087457 0.046667695 -0.06868339 0.03405228
-0.0365907 -0.0048025316 -0.03866635 -0.07028655 -0.014800637 0.0024310355 -0.0521636 0.009243975
-0.079079255 -0.062442552 0.033657167 0.065876655 0.043099053 -0.060657978 0.056180537 -0.057143256
0.037795823 0.013364986 -0.024045672 -0.07878677 -0.07934539 -0.08872577 -0.0169279 0.067699045
0.04023151 0.15865031 -0.08155757 0.10478959 0.09255199 0.25698262 -0.041044615 0.1981015
0.091342926 -0.092218466 0.065429166 -0.18487176 0.5369269 0.17946394 0.07286086 -0.022986552
0.016001636 0.043031156 -0.4296327 -0.013701812 0.08179625 0.0559682 0.036842413 0.09051314
0.042057518 -0.28756833 -0.3614066 -0.016231496 -0.1180038 0.07598274 0.040769532 0.037040327
-0.0005663495 0.05258573 0.010866001 0.030889524 0.06419696 0.011952995 -0.003447687 -0.017754296
0.16039781 0.09866873 0.06423511 -0.011659357 -0.09025845 0.08107987 -0.017724127 -0.06924754
0.03352674 0.046777323 0.1557009 0.0068809553 0.013886134 -0.10443796 0.08011382 -0.09956846
-0.11716508 -0.14057073 -0.0017199031 0.02417224 0.0034168016 -0.33657247 0.21947843 0.12127579
0.10865242 0.105711296 -0.0021384833 -0.012410058 0.056529693 0.011564157 0.12446406 0.09072529
0.10770008 -0.028745899 -0.05813081 -0.17533688 0.016835794 0.011787226 0.073966 0.13623565
0.097328655 -0.053943392 0.057504937 -0.16821784 0.19662513 -0.037925914 0.12948555 -0.09604171
-0.011466464 0.06886889 0.0022956803 0.072415605 0.030894144 0.040692504 0.10508493 0.0075367796
-0.029122233 0.11067397 0.103202194 -0.021212097 -0.4401847 0.015931498 0.008505802 -0.26607305
-0.0740888 0.10260834 0.10461186 -0.39430672 -0.06954522 0.30114648 0.10465988 0.08620353
-0.01504367 0.09452593 0.19576779 -0.043781597 -0.0822463 -0.01599091 -0.068481706 -0.012927808
0.13125536 -0.0839963 -0.042572603 0.008989003 -0.012713925 0.5558849 0.045351826 -0.033453155
00000000: 87fa 443c d218 1e3d 1c23 ac3d de30 183d
00000010: 841b 69bd 33a8 e63c be35 c5bb 86c9 993d
00000020: c467 4e3d 823c f2ba 8915 cbba 7464 133d
00000030: 49e8 b03d c58d 463d 5610 8a3c a487 423d
00000040: d1a1 523d a146 783d d775 11bc 8f72 f43c
00000050: a28b 39bc b03a 823d 1233 1dbd 751d 183c
00000060: ad58 29bd 4b35 63bc a8c9 053d d60c 403b
00000070: a6c5 babd ac83 8b3a 02a7 26bd 5629 6e3a
00000080: 8dd4 d53c 773e 1dbc b547 263d 38ab aabd
00000090: f949 3f3c c03a 8b3d 03e4 5d3a 3bda 903d
000000a0: 838d 11bd 9749 d03c 3273 9abd acaf 8abc
000000b0: 40bd 6bbd 59be 163d 9528 0e3d 5e5f 96bc
000000c0: f78c 5ebd c997 44bd 8ae6 433d 0ae9 febc
000000d0: 67a0 b7bd 14ec 7a3d d20a 243c 144b 603d
000000e0: 927e 083d 2211 3cbc 5a76 9dbd 14e6 06bc
000000f0: f684 6cbc 3a07 ca3c a2ca b2bd cd1c 1cbc
00000100: 1181 92bd 5e0e 47bd f132 aabd 56ff 7e3d
00000110: 18bb 963d f517 37bd 78ac 22bd 67f3 2c3d
00000120: de65 b6bb b899 b3bc 48dd 76bc ade3 afbd
00000130: 1f93 91bd 01f7 393d c5a5 80bd e7f9 3f3d
00000140: fcde 38bd 1ee4 82bd cdad 35bd cec5 533d
00000150: 0865 b3bd e1c0 083d e6a9 393c ee90 d73c
00000160: ce87 a3bd 0da5 85bd 175d a1bc ff44 0bbd
00000170: ca85 06bd ba7a db3c 986a 283d 56dc 873d
00000180: 127b 3ebd d6b3 52bd 28fb a23d 7db8 0fbc
00000190: 3684 cdbc a026 3f3d e1a9 8cbd 677a 0b3d
000001a0: 21e0 15bd 8e5e 9dbb 9b60 1ebd 65f2 8fbd
000001b0: 5f7e 72bc 0252 1f3b 80a9 55bd 0b74 173c
000001c0: 4ef4 a1bd c3c3 7fbd 19dc 093d 57ea 863d
000001d0: a288 303d 8074 78bd 901d 663d 0c0f 6abd
000001e0: cbcf 1a3d d0f8 5a3c 6efb c4bc f55a a1bd
000001f0: d67f a2bd dbb5 b5bd 61ac 8abc cca5 8a3d
00000200: ccc9 243d 3a75 223e a807 a7bd ed9b d63d
00000210: e68b bd3d 3a93 833e 661e 28bd 1fdb 4a3e
00000220: 0012 bb3d 09dd bcbd baff 853d 064f 3dbe
00000230: 0b74 093f 65c5 373e 1338 953d 4b4e bcbc
00000240: dd15 833c 7041 303d d1f8 dbbe 917d 60bc
00000250: cb84 a73d e93e 653d 12e8 163d f45e b93d
00000260: 8144 2c3d 283c 93be 490a b9be eaf7 84bc
00000270: faab f1bd d79c 9b3d f4fd 263d 99b7 173d
00000280: 1277 14ba 2264 573d 5007 323c 070c fd3c
00000290: b279 833d 7fd6 433c 97f2 61bb 7571 91bc
000002a0: 533f 243e d512 ca3d b38d 833d e306 3fbc
000002b0: 6cd9 b8bd 340d a63d 3032 91bc a7d1 8dbd
000002c0: 5653 093d 9499 3f3d 0f70 1f3e a379 e13b
000002d0: ab82 633c 92e3 d5bd b712 a43d 8cea cbbd
000002e0: 3ff4 efbd c6f1 0fbe 5f6e e1ba dd04 c63c
000002f0: 6bec 5f3b 3a53 acbe f4be 603e 715f f83d
00000300: 2985 de3d 2a7f d83d cc25 0cbb 8e53 4bbc
00000310: ae8b 673d 9777 3d3c 03e7 fe3d 2ece b93d
00000320: dc91 dc3d 857c ebbc 921a 6ebd 838b 33be
00000330: 38eb 893c 361f 413c 7c7b 973d 5c81 0b3e
00000340: 3f54 c73d bff3 5cbd 4c8a 6b3d 4c41 2cbe
00000350: 1958 493e 3458 1bbd dc97 043e 84b1 c4bd
00000360: d6dd 3bbc 220b 8d3d 2073 163b a24e 943d
00000370: b715 fd3c 2fad 263d c536 d73d 17f7 f63b
00000380: c091 eebc 09a9 e23d ac5b d33d fec4 adbc
00000390: e45f e1be c682 823c eb5b 0b3c ba3a 88be
000003a0: debb 97bd 5224 d23d be3e d63d 92e2 c9be
000003b0: b96d 8ebd df2f 9a3e eb57 d63d 7a8b b03d
000003c0: ba79 76bc d096 c13d 5a77 483e 5554 33bd
000003d0: c070 a8bd 5eff 82bc 2340 8cbd 28cf 53bc
000003e0: ce67 063e 4106 acbd 9c60 2ebd 9c46 133c
000003f0: 114e 50bc 794e 0e3f d6c2 393d 2d06 09bd

layers.2.bias f4 [64]
0.0351189 0.04005302 -0.10920474 0.02946963 0.0605649 0.15056928 -0.04361764 0.020941526
0.048620064 -0.01379374 0.049427323 0.1291045 0.019795153 0.024118794 0.18403845 0.33530203
0.052300896 0.07412587 0.20375472 0.0985694 0.13424006 0.28837895 -0.055601835 0.0010084885
0.0599103 0.09260892 -0.041319072 0.02180751 0.16281848 0.10926622 -0.07431652 0.15213442
-0.12755707 0.17305124 -0.002274415 0.040807262 0.050214294 0.11776445 0.031438913 0.022338027
0.0139649855 0.1938331 -0.023098024 0.16327806 0.16706605 0.17804798 -0.005315434 0.030114468
0.15735918 -0.034785096 0.039943412 -0.0134198805 0.17364824 -0.07465728 0.043621406 0.08879774
-0.02312791 -0.050734952 0.024255687 -0.011766636 0.06736287 0.16375585 -0.04554386 -0.10098121
00000000: d6d8 0f3d a30e 243d bca6 dfbd 4b6a f13c
00000010: e712 783d d52e 1a3e 69a8 32bd 908d ab3c
00000020: d525 473d 24ff 61bc 4e74 4a3d f833 043e
00000030: 7229 a23c c794 c53c 9374 3c3e b5ac ab3e
00000040: 7739 563d 4ecf 973d 14a5 503e c1de c93d
00000050: 3a76 093e 68a6 933e c0be 63bd 422f 843a
00000060: 8164 753d bfa9 bd3d 303e 29bd aaa5 b23c
00000070: e3b9 263e f8c6 df3d 4233 98bd 20c9 1b3e
00000080: 529e 02be 5834 313e 5a0e 15bb 8425 273d
00000090: 81ad 4d3d 7d2e f13d 17c6 003d 3dfe b63c
000000a0: 65cd 643c 2f7c 463e 1138 bdbc 5d32 273e
000000b0: 5d13 2b3e 3652 363e 182d aebb 9eb2 f63c
000000c0: c422 213e d17a 0ebd b49b 233d 0fdf 5bbc
000000d0: d8d0 313e ebe5 98bd 5cac 323d 97db b53d
000000e0: be76 bdbc 74cf 4fbd ddb3 c63c d9c8 40bc
000000f0: 8bf5 893d 9daf 273e 338c 3abd 3dcf cebd

readout.weight f4 [1, 64]
0.08725364 0.40468937 0.29891485 -0.18775393 -0.13069345 -0.21440157 0.046687525 0.11266381
-0.12195279 0.067416035 -0.21221846 -0.21475755 0.019613795 0.015767166 -0.24525268 1.5233538
0.46892923 0.1132398 -0.57042927 -0.19888942 -0.20820604 1.193298 0.0038687943 0.10385438
-0.18545273 -0.17544279 -0.051931635 0.25934827 -0.23641457 -0.21266957 0.031293236 -0.14630385
0.29221463 -0.13333002 0.08330275 -0.17864983 0.06396362 -0.16253914 -0.08299738 -0.15172826
1.2249458 0.88244605 0.035374433 -0.1658312 -0.14522177 -0.1498896 0.08821575 -0.23905635
-0.12392692 0.32614893 -0.17977224 1.2289226 -0.21057191 0.29911608 -0.1397835 -0.21135905
0.026995875 0.061687298 -0.14343302 0.0609599 1.0348485 -0.131032 0.072246835 0.34197396
00000000: 09b2 b23d 7233 cf3e 5e0b 993e 9142 40be
00000010: 81d4 05be 168c 5bbe 6b3b 3f3d 49bc e63d
00000020: 62c2 f9bd 6b11 8a3d cc4f 59be 67e9 5bbe
00000030: 1cad a03c 252a 813c 8523 7bbe 42fd c23f
00000040: 7e17 f03e 45ea e73d a707 12bf aba9 4bbe
00000050: f733 55be fdbd 983f 998b 7d3b 9bb1 d43d
00000060: 52e7 3dbe 46a7 33be 44b6 54bd 4cc9 843e
00000070: a916 72be 0dc6 59be 562d 003d add0 15be
00000080: 289d 953e aa87 08be a29a aa3d fbef 36be
00000090: 5cff 823d a970 26be 88fa a9bd a75e 1bbe
000000a0: 06cb 9c3f fce7 613f c8e4 103d a7cf 29be
000000b0: 04b5 14be a97c 19be 76aa b43d 30cb 74be
000000c0: 66cd fdbd fefc a63e 3716 38be 564d 9d3f
000000d0: 2aa0 57be be25 993e 6823 0fbe 826e 58be
000000e0: 7426 dd3c d2ab 7c3d 1be0 12be 17b1 793d
000000f0: ea75 843f 412d 06be 26f6 933d 3617 af3e

layers.0.weight f4 [128, 3]
0.34789166 0.5429305 0.61382884 -0.42457885 0.61394894 -0.37719518 -0.26814392 0.30342126
-0.41997844 0.51588744 -0.45611894 0.18190426 0.20379795 -0.55893934 0.4477708 -0.6543813
-0.34191066 0.5362457 -0.1630645 -0.9889632 0.25243235 -0.39298436 -0.003944105 0.29377
-1.0419612 -0.4348814 0.49215278 -0.30884856 0.2623949 -0.20108734 0.030775325 -0.9425368
-0.32751036 0.37333864 -0.83971065 -0.40683505 -0.20346375 0.46913853 0.018430352 0.21415776
-0.4800524 0.16156265 0.5344807 -0.13291502 0.0340213 -0.74013025 -0.19914684 0.30104527
-0.4566799 1.2505928 0.12958871 -0.09450589 0.28669763 -0.27336207 0.29803512 0.11561512
0.41608262 -0.059358038 -0.76945585 -0.2374285 -0.21155652 0.27315438 0.12522209 -0.4969937
0.53700686 -0.08959805 0.11138841 0.33945656 -0.3719971 -0.15538462 -1.1359655 -0.1837782
0.0039155195 -0.7049644 -0.46673146 -0.27665752 0.56130314 0.011792268 -0.016401002 -0.32944825
0.53731215 0.75657934 -0.3204365 -0.116146445 -0.2731218 0.032356523 0.0022308242 -0.41233298
0.7070803 -0.40279093 -0.3480778 0.67509633 0.49453902 -0.39072585 0.4372433 -0.13189712
0.0114826495 -0.9568433 -0.3995327 0.49722457 0.83950776 0.3005573 -0.30532473 0.2778839
0.19881204 0.74933285 0.4561907 -0.1411657 -0.1072895 0.60285634 0.105677165 -0.115447246
-0.8958618 -0.526422 -0.27192193 -0.26777357 -0.14995678 0.21044059 -0.88534534 -0.5052621
0.1752247 0.32043839 -0.3089214 -0.9620902 -0.9877625 -0.18837295 0.3068118 0.5402408
-0.37890458 0.19667679 -0.08522972 -0.19804163 0.1560887 -0.32532176 0.16410017 0.66732764
-0.73267525 -0.54715824 0.022701023 0.96654546 -0.04257249 -0.23403986 -1.1477822 -0.64989597
0.15178455 0.49296877 0.36023208 -0.35445416 0.6690526 0.10874643 -0.05669496 0.8040137
-0.4654568 -0.080119655 0.7766938 0.14581513 -0.42161044 -0.86480147 -0.35534504 -0.7012474
-0.3184744 0.086153395 0.52098006 0.7559731 0.027656049 0.82585824 0.60607445 -0.026980575
-0.23535457 -0.1968434 0.4127899 0.614798 -0.26136962 -0.31869125 -0.5588541 -0.66586816
0.16290447 -0.16055149 0.3871334 -0.32311526 0.6496883 0.9548866 -0.38265568 -0.4389333
0.25545207 0.047736187 -0.5843777 -0.024238188 -0.056204844 0.13906091 0.69538224 0.012357937
0.14315426 0.66311103 0.17114037 -0.53960806 -1.1636875 -0.031639338 0.23335359 0.37621662
0.07726164 -0.20239544 0.8576401 -0.05916603 -0.032861155 -1.0235213 -0.5043523 -0.016718809
0.8893705 -0.34743056 0.22696286 -0.7652413 0.41414544 -0.47276866 0.4846674 -0.1816419
-0.6330141 -0.28706813 -0.17625688 1.1132141 0.37683207 0.22213294 -0.2863823 0.6268302
0.05864811 -0.4714085 0.04569764 -0.45414084 0.293175 -0.09353755 0.089326166 0.3884531
0.7419566 0.14349838 -0.28715727 -0.08572303 0.1638877 -0.33161724 0.5931559 -0.040709633
0.12986231 -0.5304541 -0.23323964 -0.47823805 0.7192848 0.22104959 -0.4863477 0.03477338
0.19914682 -1.0111241 -0.14346728 -0.2483231 0.5509247 0.50358313 0.110819496 -0.0331834
00000000: db1e b23e 7efd 0a3f e323 1d3f 6662 d9be
00000010: c22b 1d3f ba1f c1be 294a 89be 085a 9b3e
00000020: 6a07 d7be 3311 043f 6c88 e9be 1c45 3a3e
00000030: 69b0 503e a616 0fbf 3742 e53e 8885 27bf
00000040: ea0e afbe 6647 093f 61fa 26be b12c 7dbf
00000050: d03e 813e 3f35 c9be 8d3d 81bb 0569 963e
00000060: fc5e 85bf c6a8 debe 73fb fb3e 6621 9ebe
00000070: a058 863e d7e9 4dbe 891c fc3c 174a 71bf
00000080: 70af a7be 3e26 bf3e 47f7 56bf af4c d0be
00000090: cd58 50be ed32 f03e 40fb 963c 2c4c 5b3e
000000a0: 6ec9 f5be ae70 253e bad3 083f e01a 08be
000000b0: eb59 0b3d 2d79 3dbf 26ed 4bbe 9b22 9a3e
000000c0: f3d1 e9be 6d13 a03f e7b2 043e 4e8c c1bd
000000d0: 08ca 923e 1df6 8bbe 0f98 983e 9fc7 ec3d
000000e0: c808 d53e 6a21 73bd 0ffb 44bf 7520 73be
000000f0: 46a2 58be e4da 8b3e 383a 003e f575 febe
00000100: 4879 093f 2f7f b7bd 9b1f e43d 40cd ad3e
00000110: 6776 bebe 251d 1fbe 5167 91bf 5a30 3cbe
00000120: c24d 803b 8c78 34bf 6df7 eebe 0ea6 8dbe
00000130: 90b1 0f3f 5b34 413c 655b 86bc 71ad a8be
00000140: 4a8d 093f 2faf 413f 4110 a4be 30de edbd
00000150: 9fd6 8bbe 4688 043d 0533 123b 4f1d d3be
00000160: 3703 353f 9d3a cebe 4137 b2be 1dd3 2c3f
00000170: 3834 fd3e 380d c8be 5bde df3e 0a10 07be
00000180: b921 3c3c aff3 74bf 8d8f ccbe 3894 fe3e
00000190: fbe9 563f a5e2 993e 8653 9cbe cc46 8e3e
000001a0: 6295 4b3e 47d4 3f3f d491 e93e be8d 10be
000001b0: 99ba dbbd cb54 1a3f 456d d83d 9b6f ecbd
000001c0: 3357 65bf 98c3 06bf 5a39 8bbe 9e19 89be
000001d0: 458e 19be bd7d 573e fea5 62bf db58 01bf
000001e0: 1b6e 333e 8010 a43e f22a 9ebe 8b4b 76bf
000001f0: 01de 7cbf d7e4 40be 7016 9d3e 394d 0a3f
00000200: c8ff c1be a465 493e eb8c aebd 6dcb 4abe
00000210: b7d5 1f3e 9390 a6be e009 283e fcd5 2a3f
00000220: 9b90 3bbf 9012 0cbf 7ff7 b93c 866f 773f
00000230: 7e60 2ebd 25a8 6fbe 87ea 92bf 955f 26bf
00000240: 696d 1b3e 6766 fc3e 5770 b83e 047b b5be
00000250: 0847 2b3f 73b6 de3d f938 68bd d8d3 4d3f
00000260: 5b50 eebe c615 a4bd 68d5 463f 9050 153e
00000270: 53dd d7be a163 5dbf c9ef b5be f384 33bf
00000280: 140f a3be 3171 b03d f35e 053f 7487 413f
00000290: f08e e23c 726b 533f b227 1b3f 5e06 ddbc
000002a0: ca00 71be 5191 49be 3359 d33e 6763 1d3f
000002b0: 3dd2 85be 802b a3be 1011 0fbf 5676 2abf
000002c0: 6ed0 263e 9c67 24be 5936 c63e 5d6f a5be
000002d0: f951 263f 7373 743f 72eb c3be debb e0be
000002e0: 9dca 823e 0587 433d c799 15bf 2a8f c6bc
000002f0: 0d37 66bd fc65 0e3e 9204 323f f278 4a3c
00000300: 0897 123e a5c1 293f 6c3f 2f3e c123 0abf
00000310: b6f3 94bf 4098 01bd 3ef4 6e3e 779f c03e
00000320: 5a3b 9e3d c040 4fbe 4d8e 5b3f 1458 72bd
00000330: 6b99 06bd bf02 83bf 3b1d 01bf e2f5 88bc
00000340: c9ad 633f 6be2 b1be f468 683e dbe6 43bf
00000350: df0a d43e bc0e f2be 5326 f83e 5600 3abe
00000360: 360d 22bf 98fa 92be af7c 34be cd7d 8e3f
00000370: 22f0 c03e d176 633e b3a0 92be f277 203f
00000380: 0039 703d 745c f1be 732d 3b3d 2685 e8be
00000390: 091b 963e 9d90 bfbd a3f0 b63d 53e3 c63e
000003a0: def0 3d3f 3df1 123e 4706 93be 8e8f afbd
000003b0: 2dd2 273e bcc9 a9be 11d9 173f 25bf 26bd
000003c0: a0fa 043e d7cb 07bf 5fd6 6ebe 9edb f4be
000003d0: 0c23 383f d35a 623e 9102 f9be 886e 0e3d
000003e0: 25ed 4b3e 846c 81bf 16e9 12be 6948 7ebe
000003f0: 6709 0d3f d3ea 003f 55f5 e23d 51eb 07bd

layers.0.bias f4 [128]
-0.4318309 -0.40396944 -0.42423868 0.26492387 -0.16389354 -0.03234633 -0.06203752 0.1883247
0.108351886 -0.41950735 0.2361185 -0.48773983 -0.11466849 0.6525631 0.57646114 0.15272199
-0.43340582 0.3281561 0.44268107 0.24020901 0.094310716 0.0037162637 -0.3975907 -0.73405015
0.16607311 -0.06737599 0.34547067 0.29071116 -0.29517415 -0.18529068 -0.34031627 0.1292743
0.057236344 -0.97221833 0.19563565 -0.07460228 0.40532494 -0.0011944288 0.6072328 0.3136271
-0.17463174 -0.11920139 -0.10317257 0.07653797 0.055999927 0.014912731 0.15419838 0.017666768
0.1074803 0.35381764 -0.32584208 -0.28174245 -0.33525226 0.2939087 -0.27591312 -0.41481838
0.25914863 0.46679932 0.09146837 -0.39212555 -0.4673723 -0.4368174 -0.11552691 -0.31539857
0.19890194 -0.115029134 0.19307493 -0.04867769 0.045499947 0.17712 -0.6082081 0.22587258
0.2749336 -0.07481249 -0.28878805 -0.38827854 0.28927988 0.043077856 0.27362385 0.1594477
0.2218917 -0.075953305 0.24484478 -0.056478236 0.13797872 -0.15222189 -0.070355624 -0.3473533
-0.21432279 0.11798645 -0.8860478 0.1681064 0.42089796 0.0581527 0.44516632 -0.3743344
0.2661935 0.039612792 -0.73612314 -0.22166897 0.03264164 -0.8429436 0.056949586 0.50689197
-0.09123333 -0.041819282 -0.5220025 -0.07080798 0.17284463 -0.24128154 0.35535726 -0.48982427
0.053654358 -0.41929618 -0.06545867 -0.5187699 0.11830474 0.4941698 -0.6774528 -0.12864962
-0.03597331 -0.2550953 0.30115232 0.014311573 0.056594696 -0.073731124 0.13733734 -0.35353258
00000000: f118 ddbe 15d5 cebe d035 d9be 1aa4 873e
00000010: b5d3 27be 967d 04bd 0e1b 7ebd 31d8 403e
00000020: 98e7 dd3d abc9 d6be 0cc9 713e 09b9 f9be
00000030: 50d7 eabd 600e 273f f592 133f 2763 1c3e
00000040: 5ee7 ddbe 1404 a83e 18a7 e23e 5af9 753e
00000050: fa25 c13d 8f8c 733b 0291 cbbe b6ea 3bbf
00000060: 120f 2a3e 6cfc 89bd 88e1 b03e 18d8 943e
00000070: 1121 97be d7bc 3dbe ef3d aebe 7b60 043e
00000080: a870 6a3d 4de3 78bf b654 483e 15c9 98bd
00000090: c086 cf3e 618e 9cba 9c73 1b3f bb93 a03e
000000a0: aad2 32be dc1f f4bd 244c d3bd f0bf 9c3d
000000b0: 2e60 653d 8754 743c 2ee6 1d3e e6b9 903c
000000c0: a21e dc3d 9627 b53e c6d4 a6be 8c40 90be
000000d0: 2fa6 abbe 337b 963e 7c44 8dbe 1363 d4be
000000e0: 21af 843e 5200 ef3e c553 bb3d aec4 c8be
000000f0: 6c4b efbe 88a6 dfbe 5f99 ecbd ec7b a1be
00000100: f3ac 4b3e 6594 ebbd 6fb5 453e 4262 47bd
00000110: 275e 3a3d f25e 353e 87b3 1bbf 244b 673e
00000120: 19c4 8c3e 4a37 99bd 07dc 93be 72cc c6be
00000130: 7e1c 943e 6872 303d 6d18 8c3e 4246 233e
00000140: 9437 633e 688d 9bbd 97b8 7a3e b955 67bd
00000150: 4b4a 0d3e 0ee0 1bbe 9c16 90bd 4bd8 b1be
00000160: 6f77 5bbe e1a2 f13d 07d4 62bf 1624 2c3e
00000170: f07f d73e 8731 6e3d d7ec e33e c2a8 bfbe
00000180: 844a 883e 0641 223d 9172 3cbf 31fd 62be
00000190: 3eb3 053d 27cb 57bf f843 693d acc3 013f
000001a0: 8ad8 babd b24a 2bbd f5a1 05bf c603 91bd
000001b0: 2ffe 303e 8212 77be 63f1 b53e 3fca fabe
000001c0: acc4 5b3d fdad d6be 320f 86bd 1bce 04bf
000001d0: c149 f23d d303 fd3e 8c6d 2dbf babc 03be
000001e0: c058 13bd da9b 82be a330 9a3e 167b 6a3c
000001f0: d7cf 673d 5800 97bd 29a2 0c3e 3902 b5be

layers.1.weight f4 [128, 128]
0.035314105 0.04111981 -0.034206364 -0.007851511 0.008186424 -0.09643913 0.084984116 -0.03228596
-0.011192505 -0.10800303 -0.10595439 0.035999242 -0.07271864 0.034051187 -0.06078953 -0.0503812
-0.09139748 -0.0025704629 -0.06404125 0.013908828 -0.048236385 -0.1127914 0.026934916 0.016169162
-0.10356022 -0.030844636 -0.041403834 -0.113090515 -0.10067279 0.059719473 -0.039955754 0.033238087
0.030855555 -0.019762343 -0.11223502 -0.10892277 -0.0068497444 0.048819754 -0.0066950023 -0.0040105833
-0.007979199 0.016075736 -0.10735058 0.022127429 -0.08127434 -0.018953063 0.018064775 -0.021244844
-0.052634936 -0.02628909 0.0029479312 -0.0985199 0.07515992 -0.043372013 0.0077858926 -0.060020927
0.0702906 -0.110221975 0.014102452 -0.08433402 -0.01675595 -0.05484813 -0.06678284 -0.018360717
0.0026781342 -0.062379763 -0.033287834 -0.03438103 -0.07990511 0.062981345 -0.087476574 0.020706387
0.0053976444 0.039726224 -0.109733835 -0.029708385 0.054180175 -0.036353208 -0.01775703 0.009642038
-0.05960132 0.017049693 0.051735196 -0.026183423 -0.05585686 0.07652408 -0.028083792 0.0016188285
-0.08230527 -0.110232115 -0.012887765 0.004361969 -0.039325625 -0.114397325 -0.069784984 0.06072484
-0.03780912 -0.023271423 0.048323162 -0.0066486583 0.0032634954 -0.0073213377 -0.11417706 0.012741898
-0.12639397 0.03166574 0.022862148 -0.038024046 -0.046176236 -0.015914533 -0.05753106 -0.0030902887
0.032651905 -0.0888775 0.056347303 -0.012876427 -0.022148564 -0.0016015825 0.05052403 0.02903355
0.007881223 -0.081953466 -0.021186622 -0.054786306 -0.030862443 -0.0109378295 -0.10962326 0.012071013
-0.024782415 0.06349387 -0.09902986 0.05310859 -0.07710952 -0.10093611 0.08458886 -0.076971844
-0.06831179 -0.018798715 -0.091376215 0.025865877 -0.056163654 -0.0020862424 0.04945264 0.0043016262
0.0040944843 -0.053110223 0.028638208 -0.04972294 0.015493193 -0.018435653 0.072929636 -0.042229936
-0.09807925 -0.016383663 -0.09127355 -0.06478432 0.05500069 0.06446778 -0.0012876752 -0.0485585
-0.05001252 0.021811433 -0.03858208 0.00974851 -0.08437756 0.045812473 -0.067637034 0.021061836
0.008162626 -0.04948313 -0.094972365 0.008954339 -0.06824057 -0.07407674 0.077506945 -0.0012033908
-0.00094042014 -0.08615716 -0.026940826 0.047388498 0.013152717 0.056382824 -0.07626911 0.0868318
0.054527737 0.06879967 0.023711713 0.027567623 -0.026366925 -0.011999207 0.042993043 0.02883141
-0.09748699 0.07488096 -0.085847355 0.046697542 0.070798896 0.06549289 -0.0068748584 -0.05245334
-0.07348451 -0.02279773 0.019718062 0.01211319 0.016870102 -0.07073674 -0.036742773 0.05721706
0.0038498016 -0.010540905 0.059773277 -0.066293605 0.03878763 0.03888808 -0.056624264 0.038052324
-0.09589266 0.041856572 0.051491093 -0.08951488 0.059898566 -0.08961407 -0.09579868 -0.04822632
-0.0045643845 -0.008417521 -0.013162752 0.08929172 -0.082187824 -0.0010346739 -0.0473959 -0.041947257
-0.16487388 0.054093994 -0.027166773 -0.07611818 -0.023324994 0.06857465 -0.0038613298 -0.011068309
0.007435236 -0.08269798 0.027084019 -0.034326524 -0.075481035 0.046844713 0.016912337 0.076107964
0.069210246 -0.005645802 -0.033186357 -0.0037551932 0.08559125 0.04741245 -0.05654878 0.026824078
00000000: 86a5 103d 3f6d 283d f91b 0cbd a0a3 00bc
00000010: 5a20 063c e181 c5bd 270c ae3d 483e 04bd
00000020: c560 37bc b130 ddbd 9dfe d8bd f173 133d
00000030: 83ed 94bd 4279 0b3d 71fe 78bd 845c 4ebd
00000040: 9a2e bbbd 3675 28bb 0f28 83bd dae1 633c
00000050: 8493 45bd 2dff e6bd 9da6 dc3c 3175 843c
00000060: 6117 d4bd e4ad fcbc 1197 29bd 009c e7bd
00000070: 892d cebd 689c 743d a5a8 23bd a924 083d
00000080: cac4 fc3c a3e4 a1bc 79db e5bd e712 dfbd
00000090: d273 e0bb 39f7 473d c061 dbbb 366b 83bb
000000a0: 30bb 02bc 43b1 833c 9fda dbbd 9544 b53c
000000b0: 2973 a6bd 7443 9bbc 94fc 933c ab09 aebc
000000c0: bb97 57bd 385c d7bc 1432 413b cdc4 c9bd
000000d0: 72ed 993d daa6 31bd cd20 ff3b 81d8 75bd
000000e0: 85f4 8f3d 0fbc e1bd f90d 673c 51b7 acbd
000000f0: c643 89bc 6fa8 60bd 71c5 88bd 3769 96bc
00000100: a383 2f3b ec81 7fbd d358 08bd 1fd3 0cbd
00000110: 4aa5 a3bd 5dfc 803d eb26 b3bd 71a0 a93c
00000120: b9de b03b f7b7 223d 22bc e0bd 005f f3bc
00000130: 08ec 5d3d 1ae7 14bd 3177 91bc a3f9 1d3c
00000140: 8420 74bd ccab 8b3c 49e8 533d 9e7e d6bc
00000150: 2aca 64bd a8b8 9c3d fb0f e6bc df2e d43a
00000160: aa8f a8bd 60c1 e1bd 3427 53bc d9ee 8e3b
00000170: e813 21bd 2549 eabd 6eeb 8ebd 9cba 783d
00000180: bcdd 1abd b6a3 bebc 82ee 453d fddc d9bb
00000190: 5ee0 553b d5e7 efbb aad5 e9bd 65c3 503c
000001a0: 6c6d 01be efb3 013d 6649 bb3c 1abf 1bbd
000001b0: 4b23 3dbd 325f 82bc b0a5 6bbd 7186 4abb
000001c0: 01be 053d 6805 b6bd 6ecc 663d a6f7 52bc
000001d0: e870 b5bc 31ec d1ba 49f2 4e3d c4d7 ed3c
000001e0: 3f20 013c 38d7 a7bd 918f adbc 9b67 60bd
000001f0: 3cd3 fcbc 9534 33bc 2982 e0bd 80c5 453c
00000200: 7e04 cbbc 1309 823d 2bd0 cabd 6588 593d
00000210: 99eb 9dbd 97b7 cebd ed3c ad3d 6aa3 9dbd
00000220: 0de7 8bbd c3ff 99bc 7423 bbbd ade4 d33c
00000230: dc0b 66bd 57b9 08bb da8e 4a3d a8f4 8c3b
00000240: 062b 863b 1b8a 59bd ad9a ea3c 48aa 4bbd
00000250: 29d7 7d3c 5e06 97bc 225c 953d 4cf9 2cbd
00000260: c6dd c8bd 0837 86bc a1ed babd a4ad 84bd
00000270: 6748 613d af07 843d 36c7 a8ba 47e5 46bd
00000280: eed9 4cbd e4ad b23c 3e08 1ebd 37b8 1f3c
00000290: 24ce acbd dca5 3b3d 4985 8abd df89 ac3c
000002a0: 89bc 053c d3ae 4abd df80 c2bd 38b5 123c
000002b0: b6c1 8bbd 8cb5 97bd f6bb 9e3d 18bb 9dba
000002c0: 8786 76ba 2a73 b0bd 02b3 dcbc 711a 423d
000002d0: 7e7e 573c adf1 663d fb32 9cbd dfd4 b13d
000002e0: 7a58 5f3d d7e6 8c3d 113f c23c 7fd5 e13c
000002f0: 73ff d7bc 5298 44bc 7919 303d d92f ec3c
00000300: 42a7 c7bd 305b 993d bdd0 afbd ec45 3f3d
00000310: 03ff 903d 2321 863d 7e46 e1bb 50d9 56bd
00000320: 0c7f 96bd 4ec2 babc c687 a13c 6776 463c
00000330: 2b33 8a3c 6dde 90bd 977f 16bd 705c 6a3d
00000340: f44c 7c3b c3b3 2cbc d3d4 743d f1c4 87bd
00000350: c7df 1e3d 1b49 1f3d d8ee 67bd c1dc 1b3d
00000360: 5f63 c4bd cc71 2b3d 53e8 523d 9453 b7bd
00000370: 3358 753d 9587 b7bd 1932 c4bd f688 45bd
00000380: d590 95bb a4e9 09bc 95a8 57bc 94de b63d
00000390: 1752 a8bd e59d 87ba 3422 42bd e3d0 2bbd
000003a0: b3d4 28be aa91 5d3d da8c debc d9e3 9bbd
000003b0: 0f14 bfbc de70 8c3d 5d0e 7dbb da57 35bc
000003c0: 48a3 f33b 8f5d a9bd 4edf dd3c f899 0cbd
000003d0: cd95 9abd 3ee0 3f3d be8b 8a3c 7ede 9b3d
000003e0: 1abe 8d3d 6b00 b9bb 6bee 07bd b019 76bb
000003f0: 774a af3d 8f33 423d b29f 67bd 2bbe db3c

layers.1.bias f4 [128]
-0.029863175 0.023188144 -0.095159516 -0.10104368 0.03639755 -0.07494937 0.1569594 -0.20967123
0.14580956 0.12658961 0.026574437 -0.07790424 -0.061188765 0.088367 -0.041531205 -0.10397382
-0.06737743 0.06658421 -0.13565868 0.057913765 0.11399676 -0.061723646 0.026816562 -0.0770168
-0.029550564 0.029218126 0.075723074 0.18419895 0.035208456 0.0060350555 -0.0026499506 0.12688716
-0.008947202 0.07039349 0.04942033 0.09884086 -0.081219845 0.024086347 0.078647465 -0.051283155
0.014759672 -0.041808672 -0.004503899 -0.0021157379 0.047282618 0.02767169 0.023140766 0.16936132
0.050112687 -0.0003365395 0.06436655 0.050296575 0.011795675 -0.06067738 -0.028496917 -0.017645743
0.06313759 -0.025041865 0.16841178 0.028959675 -0.056191515 -0.06786633 -0.101529114 -0.01944641
-0.026830722 -0.044135053 -0.06804234 -0.094533846 -0.08768582 0.049962744 0.1293787 0.06330569
-0.052816097 -0.056888334 0.11390366 -0.015098244 0.11409548 -0.13692327 -0.036561344 -0.03104449
0.13977174 -0.026245056 -0.08663261 0.17433044 0.028895667 0.042695343 0.02958507 -0.09442917
-0.046260204 -0.054156166 -0.032836717 0.032522984 -0.03221201 0.005267942 -0.09596356 -0.09321702
-0.068931535 0.17188492 0.02230592 -0.049837604 0.056954335 -0.059124477 -0.086361736 -0.06290746
-0.00568915 0.024242373 -0.19718917 -0.07884142 0.13579588 -0.08105865 -0.06460777 -0.004575388
0.027897628 0.022101413 -0.09646678 0.03598618 -0.09469756 -0.010754838 0.07594663 -0.045839965
0.051171143 -0.082571864 -0.023269165 0.10262726 0.034354266 0.019848477 -0.16506858 -0.117910065
00000000: 9ea3 f4bc 10f5 bd3c fee2 c2bd fdef cebd
00000010: 9915 153d 0e7f 99bd f7b9 203e 0eb4 56be
00000020: 1a4f 153e b5a0 013e a2b2 d93c 428c 9fbd
00000030: 12a1 7abd c2f9 b43d a01c 2abd 3af0 d4bd
00000040: 2efd 89bd 4d5d 883d 1cea 0abe fc36 6d3d
00000050: 2277 e93d efd1 7cbd 68ae db3c fcba 9dbd
00000060: 0614 f2bc da5a ef3c b314 9b3d a69e 3c3e
00000070: be36 103d b7c1 c53b cbaa 2dbb b5ee 013e
00000080: 4997 12bc 762a 903d f96c 4a3d 146d ca3d
00000090: 9756 a6bd bb50 c53c ec11 a13d 490e 52bd
000000a0: 8dd2 713c 923f 2bbd 7195 93bb 31a8 0abb
000000b0: 6bab 413d bdaf e23c b491 bd3c 0e6d 2d3e
000000c0: f642 4d3d 9171 b0b9 9cd2 833d c803 4e3d
000000d0: a642 413c d888 78bd 5e72 e9bc ce8d 90bc
000000e0: 484e 813d 9924 cdbc 2374 2c3e d73c ed3c
000000f0: 1329 66bd 81fd 8abd 7fee cfbd 144e 9fbc
00000100: 1acc dbbc f5c6 34bd c859 8bbd f69a c1bd
00000110: a094 b3bd bca5 4c3d da7b 043e 6aa6 813d
00000120: b155 58bd be03 69bd 5246 e93d a05e 77bc
00000130: e4aa e93d 9d35 0cbe 59c1 15bd 0451 febc
00000140: 5320 0f3e dfff d6bc 706c b1bd ae83 323e
00000150: 9bb6 ec3c 50e1 2e3d 645c f23c 1564 c1bd
00000160: 577b 3dbd dbd2 5dbd cb7f 06bd d236 053d
00000170: bef0 03bd b39e ac3b 8b88 c4bd 91e8 bebd
00000180: fa2b 8dbd 9a02 303e e8ba b63c 8422 4cbd
00000190: f348 693d 822c 72bd 6cde b0bd a0d5 80bd
000001a0: 0d6c babb f197 c63c f5eb 49be 9c77 a1bd
000001b0: 130e 0b3e 1402 a6bd 1451 84bd 23ed 95bb
000001c0: 9189 e43c 060e b53c 6090 c5bd 3f66 133d
000001d0: cbf0 c1bd 0f35 30bc e889 9b3d b0c2 3bbd
000001e0: d598 513d 701b a9bd fa9e bebc 3e2e d23d
000001f0: 0fb7 0c3d 4699 a23c bd07 29be d57a f1bd

readout.weight f4 [1, 128]
-0.03503283 -0.022261284 -0.049182866 0.29210752 0.09387096 0.102972105 0.10764648 -0.3028013
-0.24715652 -0.38386515 -0.06965007 0.23909765 -0.111408904 0.1547861 -0.1425559 -0.053086974
-0.022795929 -0.4405439 -0.07550075 -0.02837418 -0.27755475 -0.11874164 -0.048500337 -0.80275023
-0.12767327 0.049949422 -0.021875221 0.14657962 -0.02990582 0.00356739 -3.032596 0.062707745
-0.052377816 0.4210562 -0.021480376 0.34842974 0.16930556 0.01250777 -0.26069766 -0.14386979
0.015450358 -0.0027287316 -0.00190966 -0.08947428 -0.35809714 0.067943856 0.038005807 0.3537721
-0.074207745 -0.044393875 0.06006699 0.0026187478 0.022123178 -0.069775306 0.065267734 -0.07816078
-0.059662163 0.017471721 0.9469984 0.32781604 -0.063917756 -0.0028749087 0.053234585 -0.017958289
-0.00081570365 -0.06859319 -7.587798 -0.032480106 0.052887164 -0.028924078 0.7736396 -0.062749356
-0.036975488 0.043006353 -0.11897186 0.005901275 0.21400133 -0.041242972 -0.047699675 -0.3922623
0.52812713 -0.08486428 0.000425703 0.45503086 -0.009760385 -0.29807404 0.3534166 -0.16042875
0.39379376 -0.37535474 -0.19696818 0.3339475 0.04675175 -0.42333564 0.018789936 0.024106586
-0.037236672 0.09965522 -0.15680826 -7.7332044 -0.03317013 0.05556234 0.3709215 0.29747942
-0.45205837 0.1869606 -0.3200496 0.049277406 -0.13981085 -0.03200936 0.06316346 -0.071297444
-0.011193331 -0.028960772 -0.0039419816 -0.04826586 -0.029340345 -0.23731816 0.23032658 0.0028568555
-0.185797 -0.062065765 -0.20100963 0.9077202 -0.0024213598 0.4922406 -0.5031867 0.21280348
00000000: 967e 0fbd 4c5d b6bc f973 49bd 1e8f 953e
00000010: 6b3f c03d 0ae3 d23d c275 dc3d c608 9bbe
00000020: 9916 7dbe f989 c4be b2a4 8ebd 04d6 743e
00000030: 5a2a e4bd 3f80 1e3e 2dfa 11be ba71 59bd
00000040: 87be babc f88e e1be 23a0 9abd f870 e8bc
00000050: a81b 8ebe d12e f3bd 4aa8 46bd 0a81 4dbf
00000060: c8bc 02be c497 4c3d aa33 b3bc f818 163e
00000070: 0dfd f4bc dfca 693b 0e16 42c0 eb6c 803d
00000080: 1f8a 56bd ae94 d73e 9df7 afbc 6265 b23e
00000090: 705e 2d3e 64ed 4c3c 2a7a 85be 9a52 13be
000000a0: 8023 7d3c 85d4 32bb 8e4d faba 4b3e b7bd
000000b0: 8258 b7be 2626 8b3d faab 1b3d 9e21 b53e
000000c0: 3bfa 97bd 5ad6 35bd ce08 763d 4c9f 2b3b
000000d0: ab3b b53c 5be6 8ebd 17ab 853d c212 a0bd
000000e0: 5060 74bd db20 8f3c 7d6e 723f 81d7 a73e
000000f0: 50e7 82bd f768 3cbb 820c 5a3d 431d 93bc
00000100: f2d4 55ba 967a 8cbd 3ecf f2c0 dc09 05bd
00000110: 36a0 583d 30f2 ecbc 3f0d 463f bc82 80bd
00000120: 9c73 17bd 6e27 303d 85a7 f3bd 7c5f c13b
00000130: 2a23 5b3e 64ee 28bd bc60 43bd 9bd6 c8be
00000140: 5733 073f 53cd adbd e430 df39 cef9 e83e
00000150: 06ea 1fbc 299d 98be 05f3 b43e 6f47 24be
00000160: 569f c93e 7f2e c0be 07b2 49be 2bfb aa3e
00000170: c37e 3f3d 73bf d8be 5aed 993c 2d7b c53c
00000180: 7b85 18bd 0918 cc3d 5892 20be 6976 f7c0
00000190: 67dd 07bd 5695 633d 6ce9 bd3e 394f 983e
000001a0: 3274 e7be 9972 3f3e 8bdd a3be 1bd7 493d
000001b0: 932a 0fbe 3f1c 03bd d85b 813d 6504 92bd
000001c0: 3c64 37bc 243f edbc bd2b 81bb 6cb2 45bd
000001d0: 2a5b f0bc 8803 73be bbda 6b3e 153a 3b3b
000001e0: 9241 3ebe ac38 7ebd 78d5 4dbe 5a60 683f
000001f0: adaf 1ebb f606 fc3e d8d0 00bf 28e9 593e
