HW9/9_gym-DDPG/results/DDPG_Pendulum-v1_1000-eps0.1-t32-l0.0001-s1.pth (torch, 176180 bytes, 12 tensors)

layers.0.weight f4 [128, 4]
0.34889203 -0.49660972 -0.20351459 0.21093939 -0.5561472 0.24614562 -0.17890073 0.23129784
-0.049114157 -0.01393471 0.07380462 0.0014516565 0.21554741 -0.31111807 -0.0071891784 -0.044039637
0.040811945 0.10443231 0.44944802 0.18402171 -0.32652137 -0.64866275 -0.115492485 -0.18668503
-0.3487068 0.045348756 0.37947732 0.27002093 -0.5712538 0.38382685 0.07433394 0.41320407
0.47546571 -0.5285186 -0.52338874 -0.37408784 0.36934388 -0.22542448 0.21116501 -0.33112088
0.41855833 -0.31465217 0.3842912 0.10325522 -0.35203794 0.16853632 -0.30758935 0.12174666
-0.19622597 -0.11220214 -0.45014828 -0.3049067 0.28842422 -0.07209959 0.50471926 0.3951649
-0.1489194 -0.38758114 0.32381332 0.13044645 -0.44755214 0.5419833 0.22045217 0.3801177
-0.36713517 -0.13049878 0.021699207 -0.0039121658 -0.5584132 -0.3240694 0.2803659 -0.1507936
0.21459809 0.34930897 0.19664103 0.026893688 0.003182645 0.3135167 -0.51238847 0.24591056
-0.4132694 -0.46566573 0.0466926 -0.13346958 0.27601874 -0.81552714 -0.4042813 0.30788967
-0.18764739 0.6488859 0.1424492 -0.22287335 0.019802837 0.2395865 -0.35341102 -0.1869081
0.06348755 0.059836812 -0.23641253 -0.15517543 0.47358915 -0.11237949 0.30534384 0.11923843
-0.44806698 -0.5178419 0.5397932 0.031552337 0.28414515 0.1773 0.108173415 0.34692577
0.39385766 -0.57450056 0.15227194 0.21536589 0.3198938 0.4608873 -0.4133692 -0.40048465
-0.375418 0.25606492 0.5164568 -0.41741848 0.34239313 -0.72884315 -0.50176233 -0.11384666
0.114086404 0.60547876 -0.40386042 0.038945783 0.6103557 0.7959621 0.2956957 0.26029554
0.40384856 0.0975629 -0.34618384 -0.437468 -0.33807713 -0.2738225 -0.23939063 0.1743539
0.03338701 -0.2511058 0.24914809 0.18925084 0.24587616 0.7248863 -0.1897639 0.45993042
-0.20937178 -0.2876937 -0.47618255 -0.2228159 -0.40598497 -0.18587168 0.37887883 -0.24480632
-0.4616045 0.22187111 0.08674695 0.26005414 -0.4261067 -0.20586388 -0.1887129 -0.042213358
-0.5010711 -0.43569797 -0.048515946 0.16216238 0.055346612 0.39484766 0.48020577 0.38173768
0.3261704 0.004266582 -0.30935603 0.45519042 -0.14677344 -0.48672602 -0.43115675 -0.09014886
-0.6557633 0.4591462 -0.47661883 -0.35590187 -0.08017521 -0.34809676 0.18921141 -0.22129026
-0.40061474 0.094460465 0.30235687 -0.41101983 0.23531267 0.40971392 0.4963145 -0.4405211
0.078669384 -0.48655704 0.42656207 -0.28732076 0.8298485 -0.048774526 -0.09336769 -0.1334704
-0.017254725 0.5370782 0.0605474 0.06496935 -0.53564966 0.49071622 0.40744 0.37157333
0.32294196 -0.43136308 -0.15641297 0.5128663 -0.5807661 0.48799565 -0.4281137 -0.25339445
0.23573714 -0.6609687 -0.012298843 0.27338147 0.40158296 0.6175556 -0.21026018 -0.34583303
0.46691802 -0.08753817 -0.20422375 0.0755019 -0.4581494 0.46336105 0.30267626 -0.3918215
-0.51017064 0.30562124 0.21956262 -0.04135113 -0.23233198 -0.49213246 -0.5122228 -0.2825009
-0.40399688 0.7024991 0.4019772 -0.18691659 0.04927299 0.6889771 0.06331983 -0.13643062
00000000: faa1 b23e a143 febe 2166 50be 7f00 583e
00000010: aa5f 0ebf 990d 7c3e c131 37be 57d9 6c3e
00000020: ed2b 49bd 694e 64bc e026 973d 8245 be3a
00000030: 76b8 5c3e de4a 9fbe 3393 ebbb e862 34bd
00000040: 6d2a 273d 9be0 d53d 0d1e e63e 3070 3c3e
00000050: cf2d a7be c30e 26bf 5387 ecbd 5c2a 3fbe
00000060: b389 b2be 9ebf 393d da4a c23e 2f40 8a3e
00000070: b03d 12bf f484 c43e 653c 983d 7c8f d33e
00000080: 3e70 f33e ff4c 07bf cefc 05bf 7188 bfbe
00000090: a41a bd3e add5 66be a43b 583e ad88 a9be
000000a0: 474d d63e 171a a1be d1c1 c43e 7977 d33d
000000b0: 513e b4be c994 2c3e 5a7c 9dbe 5056 f93d
000000c0: 76ef 48be 3cca e5bd d679 e6be bb1c 9cbe
000000d0: 57ac 933e f3a8 93bd 4835 013f 0e53 ca3e
000000e0: 547e 18be 0971 c6be dcca a53e c193 053e
000000f0: 8e25 e5be 6bbf 0a3f 37be 613e ca9e c23e
00000100: 24f9 bbbe 79a1 05be 89c2 b13c a031 80bb
00000110: 2bf4 0ebf 6dec a5be 1f8c 8f3e a369 1abe
00000120: 9abf 5b3e a0d8 b23e 445c 493e 2750 dc3c
00000130: ec93 503b 4385 a03e e42b 03bf facf 7b3e
00000140: 0c98 d3be bd6b eebe bd40 3f3d 40ac 08be
00000150: 5452 8d3e 63c6 50bf f5fd cebe b7a3 9d3e
00000160: a326 40be 631d 263f 34de 113e e938 64be
00000170: 8f39 a23c 2a56 753e 4af2 b4be d664 3fbe
00000180: c305 823d 7217 753d 2016 72be 4fe6 1ebe
00000190: 477a f23e 3827 e6bd 0756 9c3e 4733 f43d
000001a0: 0969 e5be 4991 04bf e32f 0a3f 063d 013d
000001b0: 797b 913e 228e 353e 068a dd3d 41a0 b13e
000001c0: b6a7 c93e 7812 13bf 2ded 1b3e e088 5c3e
000001d0: 1fc9 a33e 6cf9 eb3e 21a5 d3be 530c cdbe
000001e0: ca36 c0be f11a 833e 8336 043f e0b7 d5be
000001f0: 274e af3e 7795 3abf 7f73 00bf 7028 e9bd
00000200: 22a6 e93d a800 1b3f cbc6 cebe 9d85 1f3d
00000210: 4540 1c3f 2cc4 4b3f 6d65 973e 7545 853e
00000220: 3dc5 ce3e 0fcf c73d 023f b1be cefb dfbe
00000230: 7218 adbe 7632 8cbe d122 75be d489 323e
00000240: d1c0 083d f090 80be ad20 7f3e f9ca 413e
00000250: f6c6 7b3e 2692 393f 7851 42be 007c eb3e
00000260: 8e65 56be 974c 93be 33ce f3be da29 64be
00000270: 43dd cfbe 2555 3ebe 68fc c13e 82ae 7abe
00000280: 6d57 ecbe 2e32 633e 63a8 b13d d125 853e
00000290: a82a dabe fbcd 52be f43d 41be eae7 2cbd
000002a0: 3246 00bf ce13 dfbe a8b8 46bd e50d 263e
000002b0: 21b3 623d 7929 ca3e 88dd f53e 1f73 c33e
000002c0: cfff a63e afce 8b3b ea63 9ebe b80e e93e
000002d0: c74b 16be 2734 f9be 94c0 dcbe f79f b8bd
000002e0: 1be0 27bf 3615 eb3e 6207 f4be c538 b6be
000002f0: e732 a4bd bd39 b2be a3c0 413e ea99 62be
00000300: 601d cdbe 7d74 c13d 85ce 9a3e 3171 d2be
00000310: cef5 703e 06c6 d13e ef1c fe3e fb8b e1be
00000320: 6a1d a13d 011e f9be 5866 da3e b51b 93be
00000330: f470 543f ccc7 47bd 8f37 bfbd 77ac 08be
00000340: c859 8dbc f57d 093f 8d00 783d a70e 853d
00000350: 5620 09bf 283f fb3e fa9b d03e dc3e be3e
00000360: a658 a53e 9fdb dcbe b92a 20be 354b 033f
00000370: 16ad 14bf 91da f93e b831 dbbe ebbc 81be
00000380: 1465 713e 3f35 29bf 1681 49bc a8f8 8b3e
00000390: 489c cd3e 2018 1e3f 724e 57be 0711 b1be
000003a0: e10f ef3e 3647 b3bd 0820 51be bda0 9a3d
000003b0: 8f92 eabe a93d ed3e 62f8 9a3e d49c c8be
000003c0: 8b9a 02bf 637a 9c3e 06d5 603e cd5f 29bd
000003d0: 6fe8 6dbe c9f8 fbbe 0921 03bf f5a3 90be
000003e0: aed8 cebe fbd6 333f f5cf cd3e 1067 3fbe
000003f0: 7ad2 493d ce60 303f d4ad 813d 78b4 0bbe

layers.0.bias f4 [128]
-0.32695076 0.4251837 0.38732558 -0.5065208 -0.4700794 -0.17417303 -0.15214153 0.14850712
-0.44851792 -0.3940288 0.306662 -0.092980124 -0.14356145 -0.449888 0.29718214 0.16615745
-0.17166045 -0.14712036 0.1742671 0.30790377 0.31566188 0.24018872 0.1062491 -0.40225673
0.41161698 0.04922222 -0.2990218 0.5192511 0.40026018 -0.29427898 -0.18438958 -0.110530354
-0.14126563 0.23957187 -0.400657 0.5722436 -0.13854334 0.37094972 0.14583953 -0.1432377
0.4387284 -0.34554976 -0.15567726 0.11757923 0.4414473 -0.14403239 -0.13977535 -0.419234
-0.1314326 -0.2074233 -0.08861375 -0.115491085 0.23688471 0.07518991 -0.22877963 -0.12494969
0.19166614 0.065986894 0.42641273 0.056392502 -0.28744557 -0.32293758 -0.023347626 0.0628699
0.20717658 -0.047943775 0.17767066 -0.04958629 0.3965357 0.2285253 -0.077560596 0.55266523
0.25384733 -0.28254935 -0.15087618 0.40457475 0.3057622 0.46894976 0.047242332 0.4489956
0.34392694 0.24098995 -0.028867288 0.5029486 0.22688064 -0.05562059 0.10507852 0.58857733
0.43314794 0.0611063 0.59304607 0.3545129 -0.23089483 -0.47993132 0.38104975 0.56240577
-0.21809417 0.29128668 0.038657367 -0.01694076 -0.060076464 0.29231116 0.14287664 0.47205877
0.26427975 0.3256226 0.5835168 0.29720506 0.2115058 -0.212865 0.4625014 0.14940773
0.40302995 0.47747704 0.014712033 0.42084774 0.09952383 0.55242836 0.48039302 -0.061806023
0.12337957 -0.17076991 -0.17809716 0.040608525 0.1116217 -0.051659007 -0.37130472 -0.24263035
00000000: 1766 a7be aeb1 d93e 8a4f c63e 59ab 01bf
00000010: 3fae f0be 6a5a 32be fdca 1bbe 4012 183e
00000020: 24a4 e5be 25be c9be cd02 9d3e 5d6c bebd
00000030: c601 13be b857 e6be 4228 983e 2e25 2a3e
00000040: c2c7 2fbe b8a6 16be 1373 323e 90a5 9d3e
00000050: 6f9e a13e 08f4 753e 2199 d93d 98f4 cdbe
00000060: 76bf d23e 3d9d 493d 6319 99be a4ed 043f
00000070: e7ee cc3e bcab 96be 9fd0 3cbe bd5d e2bd
00000080: f0a7 10be 5452 753e ea22 cdbe 8e7e 123f
00000090: 4ede 0dbe 1fed bd3e f556 153e e7ac 12be
000000a0: 02a1 e03e e6eb b0be dc69 1fbe 61cd f03d
000000b0: 6105 e23e 3a7d 13be 4521 0fbe d7a5 d6be
000000c0: 4496 06be c666 54be 207b b5bd 9786 ecbd
000000d0: e891 723e 2bfd 993d 3545 6abe a0e5 ffbd
000000e0: 2144 443e 2324 873d c552 da3e d3fb 663d
000000f0: 112c 93be 1358 a5be 8543 bfbc efc1 803d
00000100: 1926 543e b160 44bd 4cef 353e fe1a 4bbd
00000110: ba06 cb3e 8902 6a3e 17d8 9ebd 787b 0d3f
00000120: 47f8 813e 4faa 90be 497f 1abe 6c24 cf3e
00000130: dd8c 9c3e 2f1a f03e 2d81 413d c0e2 e53e
00000140: 3117 b03e 12c6 763e 177b ecbc 3dc1 003f
00000150: 6653 683e 6ad2 63bd 6833 d73d 01ad 163f
00000160: 91c5 dd3e 9a4a 7a3d ded1 173f b782 b53e
00000170: b26f 6cbe 8fb9 f5be f418 c33e d3f9 0f3f
00000180: 1454 5fbe 8723 953e 3057 1e3d 59c7 8abc
00000190: bd12 76bd cfa9 953e 414e 123e b0b1 f13e
000001a0: ad4f 873e 01b8 a63e 5b61 153f 432b 983e
000001b0: fa94 583e 48f9 59be fccc ec3e 57fe 183e
000001c0: f159 ce3e df77 f43e bd0a 713c 5b79 d73e
000001d0: 26d3 cb3d f26b 0d3f 13f6 f53e 5028 7dbd
000001e0: 6eae fc3d 4fde 2ebe 1a5f 36be 2055 263d
000001f0: eb99 e43d 6598 53bd a71b bebe 1774 78be

layers.1.weight f4 [128, 128]
0.08833894 0.04707179 0.14478604 0.014128462 0.05004059 0.12780029 -0.07070491 0.13868402
-0.050485577 -0.061405417 -0.06840592 0.074675225 -0.059412565 -0.06533216 -0.0032655078 0.0083572725
0.07446587 0.11840306 0.035467383 0.04673528 -0.005358393 0.107756265 0.036723692 -0.10043271
0.113185264 -0.0695426 0.08236608 -0.011849227 -0.105732046 -0.08722171 0.06535352 0.032163482
-0.12705307 0.058595084 -0.017642083 0.11477906 -0.08425224 -0.054801077 0.10178861 -0.012521635
0.14091207 0.06262968 0.012520275 -0.018335784 0.028665408 -0.047531523 0.039912783 -0.11063978
-0.012575303 -0.053933814 0.04487054 -0.20328085 0.018357122 0.032372817 -0.06395969 -0.064172305
0.05266518 -0.042745408 0.06751412 0.11761375 -0.015143647 -0.02827856 0.021651806 0.1017788
-0.11999771 -0.06854785 0.06572845 0.04964667 0.11206884 0.022072349 0.015671218 0.050829563
0.14159624 -0.07316905 -0.036533065 0.089042544 0.030392779 0.115146704 0.06492789 0.034553062
0.15673162 0.096112676 0.071107894 -0.051432047 0.117782444 0.11028669 0.0942148 0.046569694
0.073246226 -0.034534466 0.16142614 0.10747997 -0.012302323 -0.16157438 0.14839672 0.116697416
0.12951574 0.0070852805 0.038136575 -0.038118083 -0.04099725 0.034908406 0.015929712 0.08632356
-0.008376001 0.119335 0.13132085 0.15340291 0.106518656 -0.013389117 0.1215206 0.08859206
0.12562016 -0.05731802 0.01572035 0.1024366 0.08145259 0.16237089 -0.0029892405 0.041564904
-0.14535001 -0.0437827 0.09860994 -0.1282161 -0.009523697 0.0826358 -0.035052236 0.03447702
-0.004159281 0.09495743 -0.011117644 -0.17281844 -0.16065751 0.12753004 0.079669364 0.011546805
-0.018994529 -0.2795427 -0.07729842 -0.0040311823 -0.06954116 -0.059536673 0.036017034 0.04219703
0.06699759 0.016776074 -0.123294 -0.08264455 0.18510063 0.028777182 -0.12571077 -0.11113897
0.04363081 -0.017307874 0.10221551 0.028876245 0.03825766 -0.14101434 -0.003459325 -0.04302355
-0.114505224 -0.04267739 -0.048170928 0.15953954 -0.088801645 -0.058331054 0.040877584 0.11023185
-0.024609556 -0.06151115 0.10371233 -0.06993678 0.01834042 -0.01330542 -0.04741932 0.001970209
0.07088521 -0.028292585 0.03744093 0.06859611 0.058499854 0.10276476 -0.09248034 0.037690703
-0.021337954 -0.16931991 -0.042882454 -0.014358544 -0.007329294 -0.04560798 0.03219512 -0.024181768
-0.40646133 -0.1559636 0.08908306 -0.024608187 0.074230246 0.0009886282 -0.035518274 0.12949844
0.08667095 -0.27617165 -0.08464973 0.07729984 0.084859714 -0.059111882 0.0022533175 0.043423727
0.068057545 0.06442676 -0.025385218 0.018512016 0.029558629 0.03961407 0.023467645 0.105717786
-0.014074944 -0.22173919 0.03143438 -0.09438892 0.016838143 -0.10027489 -0.012083673 0.13448192
-0.021143066 0.11444727 -0.03575808 -0.14691973 0.029631482 0.15329283 -0.136845 0.05716485
0.056799535 0.046783518 0.037276577 0.05992978 -0.07910163 -0.122797586 -0.013665406 -0.08714072
0.06139868 -0.079414986 0.10323632 0.09066654 0.03007332 0.038128596 0.003991309 0.11585247
-0.07197959 0.017030818 -0.1484602 -0.0026806833 0.036240786 0.1083582 -0.06397573 -0.053399704
00000000: 0ceb b43d 59ce 403d cb42 143e 117b 673c
00000010: 5df7 4c3d 14de 023e bccd 90bd 2f03 0e3e
00000020: f7c9 4ebd 3f84 7bbd 6718 8cbd 53ef 983d
00000030: 975a 73bd decc 85bd 2102 56bb f1ec 083c
00000040: 9081 983d 4e7d f23d 3f46 113d 7e6d 3f3d
00000050: 7595 afbb 51af dc3d 956b 163d aaaf cdbd
00000060: adcd e73d 5a6c 8ebd 8caf a83d 4323 42bc
00000070: 0b8a d8bd 4ca1 b2bd 11d8 853d dbbd 033d
00000080: 331a 02be 6601 703d 2186 90bc 4911 eb3d
00000090: 708c acbd 1877 60bd 8c76 d03d 8b27 4dbc
000000a0: 414b 103e fd43 803d d721 4d3c ed34 96bc
000000b0: b8d3 ea3c 6ab0 42bd 967b 233d 1c97 e2bd
000000c0: a508 4ebc b4e9 5cbd 2cca 373d db28 50be
000000d0: ad61 963c 5c99 043d 4cfd 82bd c56c 83bd
000000e0: 72b7 573d cf15 2fbd d844 8a3d 7adf f03d
000000f0: 0f1d 78bc 70a8 e7bc 215f b13c 6771 d03d
00000100: 5cc1 f5bd d162 8cbd a39c 863d 4f5a 4b3d
00000110: 5984 e53d 12d1 b43c ed60 803c a932 503d
00000120: 9bfe 103e a8d9 95bd b2a3 15bd f05b b63d
00000130: 47fa f83c 09d2 eb3d eaf8 843d 8387 0d3d
00000140: 417e 203e b9d6 c43d 04a1 913d 69aa 52bd
00000150: ec37 f13d fddd e13d b0f3 c03d ddbf 3e3d
00000160: 1e02 963d 0374 0dbd e54c 253e 751e dc3d
00000170: af8f 49bc c173 25be 4ff5 173e 0eff ee3d
00000180: c69f 043e a42b e83b 1935 1c3d b521 1cbd
00000190: bbec 27bd 1efc 0e3d 077f 823c 68ca b03d
000001a0: 7f3b 09bc e965 f43d f978 063e a715 1d3e
000001b0: 7426 da3d 075e 5bbc cbdf f83d c16f b53d
000001c0: 92a2 003e 4dc6 6abd f7c7 803c 48ca d13d
000001d0: 9ed0 a63d 8e44 263e 22e7 43bb f63f 2a3d
000001e0: a2d6 14be 7d55 33bd 02f4 c93d 154b 03be
000001f0: 4809 1cbc f53c a93d ef92 0fbd c737 0d3d
00000200: 944a 88bb 0b79 c23d c726 36bc 51f7 30be
00000210: 6783 24be 3c97 023e b129 a33d cf2e 3d3c
00000220: 6a9a 9bbc 3920 8fbe a24e 9ebd 0218 84bb
00000230: 986b 8ebd badc 73bd 9986 133d cbd6 2c3d
00000240: 0836 893d fa6d 893c 9181 fcbd 8c41 a9bd
00000250: 058b 3d3e 20be eb3c 53ba 00be d49c e3bd
00000260: 38b6 323d 3ec9 8dbc 5e56 d13d e08d ec3c
00000270: 10b4 1c3d 1066 10be d8b5 62bb 7639 30bd
00000280: b781 eabd 7dce 2ebd e14e 45bd 555e 233e
00000290: a3dd b5bd 8bec 6ebd 416f 273d 3cc1 e13d
000002a0: fb99 c9bc 1ef3 7bbd 2167 d43d 043b 8fbd
000002b0: a63e 963c fafe 59bc c33a 42bd 9f1e 013b
000002c0: 442c 913d dac5 e7bc a95b 193d 1e7c 8c3d
000002d0: 8b9d 6f3d 5576 d23d 5566 bdbd 9161 1a3d
000002e0: efcc aebc 3362 2dbe 83a5 2fbd 1940 6bbc
000002f0: 932a f0bb 6fcf 3abd 08df 033d d818 c6bc
00000300: b31b d0be ecb4 1fbe 2e71 b63d 1c97 c9bc
00000310: 0706 983d dc94 813a 9c7b 11bd 3d9b 043e
00000320: 8a80 b13d 5f66 8dbe d65c adbd 614f 9e3d
00000330: eeca ad3d 4d1f 72bd 65ac 133b 14dd 313d
00000340: c161 8b3d 2df2 833d a9f4 cfbc 83a6 973c
00000350: f024 f23c 5d42 223d 383f c03c 9182 d83d
00000360: 989a 66bc 990f 63be 56c1 003d fa4e c1bd
00000370: 25f0 893c ec5c cdbd 99fa 45bc a1b5 093e
00000380: 3934 adbc 5563 ea3d 1177 12bd 2072 16be
00000390: b9bd f23c ccf8 1c3e 1821 0cbe b125 6a3d
000003a0: a1a6 683d 13a0 3f3d 53af 183d ee78 753d
000003b0: 0900 a2bd 4d7d fbbd dee4 5fbc d576 b2bd
000003c0: 2f7d 7b3d 53a4 a2bd 906d d33d 61af b93d
000003d0: 535c f63c bb2c 1c3d 87c9 823b 0f44 ed3d
000003e0: 096a 93bd 3784 8b3c f305 18be 67ae 2fbb
000003f0: 3871 143d e7ea dd3d b505 83bd a6b9 5abd

layers.1.bias f4 [128]
0.12587048 0.010717871 0.046940885 0.009182511 -0.06202499 0.025610229 0.03116086 -0.007822697
0.12484361 0.10315895 -0.003978525 0.020464314 0.043170497 0.08434461 0.07375037 0.075013794
0.12761617 -0.0039356085 -0.0796064 0.044417225 0.17045675 0.089838274 -0.065202616 0.13933879
0.1031807 0.04583883 0.033712678 0.04443263 0.0798763 0.11982617 0.051548615 -0.06522517
0.09193417 0.13144162 0.05831448 0.06086592 -0.044861384 0.0933014 -0.047628976 0.15743782
0.026962955 0.059207194 0.02939702 0.019352313 -0.0020731818 0.15392894 0.07630545 0.1339489
0.1418034 0.068372704 0.03398447 0.0963192 0.15082744 0.091816835 0.025349215 0.15277046
0.05341311 0.16652168 0.091989964 0.009036668 0.14189324 -0.07736972 -0.0052625164 0.10037697
0.007742059 -0.006501647 0.14419138 0.11126262 0.15394439 0.1308853 -0.08313961 0.13591072
0.019737104 0.096887365 -0.040238235 0.152255 0.118338704 -0.018542225 0.058566574 -0.0058535086
0.120094694 0.04964573 0.1415505 -0.007964479 -0.049565986 0.16249965 -0.024259292 0.02945316
0.13603495 0.033875436 0.12793851 0.030272719 0.10251988 0.122856125 0.06447598 -0.08998436
0.12221484 0.11336063 3.9057577e-05 0.051115125 -0.06224767 0.15734461 0.08661603 0.042761892
0.035160482 0.01015422 0.0956351 -0.0056781387 0.0678703 -0.008065934 0.018837085 0.09180361
0.1479197 0.119717814 0.004811626 0.052484464 0.044246867 0.09127508 0.10990034 0.07023961
-0.09420278 -0.0074011944 0.07624271 0.15636036 0.11963313 -0.019409847 0.12071676 0.13230379
00000000: 31e4 003e 029a 2f3c 1645 403d 3e72 163c
00000010: ea0d 7ebd 8bcc d13c 0f45 ff3c c52a 00bc
00000020: 02ae ff3d 0045 d33d 495e 82bb c7a4 a73c
00000030: 8cd3 303d debc ac3d 6f0a 973d d5a0 993d
00000040: d0ad 023e 47f6 80bb ae08 a3bd d6ee 353d
00000050: 378c 2e3e 21fd b73d f388 85bd d4ae 0e3e
00000060: 6750 d33d 7fc1 3b3d 4e16 0a3d fdfe 353d
00000070: 3096 a33d 6c67 f53d a424 533d c694 85bd
00000080: fb47 bc3d a298 063e 2adb 6e3d 8b4e 793d
00000090: 92c0 37bd ce14 bf3d 9a16 43bd 6137 213e
000000a0: 6ae1 dc3c 3e83 723d 05d2 f03c be88 9e3c
000000b0: 38de 07bb 8c9f 1d3e 0846 9c3d e729 093e
000000c0: e934 113e fd06 8c3d 4d33 0b3d 0043 c53d
000000d0: 8272 1a3e 770a bc3d 28a9 cf3c dc6f 1c3e
000000e0: b5c7 5a3d a984 2a3e 3c65 bc3d 880e 143c
000000f0: 764c 113e 0474 9ebd 3071 acbb 7192 cd3d
00000100: 19b1 fd3b c50b d5bb e8a6 133e a8dd e33d
00000110: 99a3 1d3e cc06 063e 1a45 aabd 2e2c 0b3e
00000120: b5af a13c e26c c63d d9d0 24bd bce8 1b3e
00000130: 905b f23d dde5 97bc 81e3 6f3d cace bfbb
00000140: 35f4 f53d 5259 4b3d 9df2 103e 727d 02bc
00000150: b405 4bbd 4f66 263e 6cbb c6bc c147 f13c
00000160: bf4c 0b3e f8c0 0a3d 5002 033e 7efe f73c
00000170: f1f5 d13d fe9b fb3d fc0b 843d b849 b8bd
00000180: c64b fa3d 9e29 e83d c1d1 2338 185e 513d
00000190: 6af7 7ebd f21e 213e bf63 b13d 1827 2f3d
000001a0: 7004 103d e35d 263c 56dc c33d ae0f babb
000001b0: 95ff 8a3d fb26 04bc 3b50 9a3c 8803 bc3d
000001c0: 4378 173e 9d2e f53d d8aa 9d3b f3f9 563d
000001d0: 343c 353d 6eee ba3d 6e13 e13d c9d9 8f3d
000001e0: 63ed c0bd b885 f2bb 2325 9c3d ee1c 203e
000001f0: 3702 f53d 6601 9fbc 593a f73d a57a 073e

layers.2.weight f4 [64, 128]
0.011766236 0.05189596 0.083887145 0.037610415 -0.05695306 0.028186815 0.0050012083 0.07483489
0.049796488 -0.00089233014 0.007496385 0.03576474 0.086584836 0.048191436 0.016853493 0.04711107
0.051176794 0.060503703 -0.00916128 0.029148286 -0.011868389 0.06375717 -0.038378783 0.009053574
-0.037546184 -0.014074958 0.03247624 0.0028321564 -0.092124544 0.013372383 -0.040701244 0.0007657388
0.026009737 -0.010364862 0.04021923 -0.08306035 0.011675351 0.06765979 0.0007206645 0.07065993
-0.035653483 0.025450496 -0.07594286 -0.012199289 -0.05821683 0.03630422 0.034304604 -0.018576918
-0.054800972 -0.04866817 0.047527026 -0.03142848 -0.089992896 0.06118145 0.010683077 0.054672044
0.03327077 -0.011478694 -0.076812945 -0.008911695 -0.0054393564 0.024661649 -0.08738926 -0.009332737
-0.07153524 -0.048453216 -0.083104976 0.061953254 0.07333229 -0.04489123 -0.037156153 0.048381377
-0.006160201 -0.022200568 -0.014394706 -0.08610566 -0.06000886 0.058903128 -0.0618031 0.0464765
-0.035815157 -0.06331353 -0.0446271 0.051313847 -0.085645065 0.033223797 0.024689382 0.025798237
-0.08005254 -0.065256216 -0.020110266 -0.033932082 -0.033118255 0.02732358 0.042192094 0.06604242
-0.04663136 -0.05141173 0.07961113 -0.008772013 -0.025087457 0.04641891 -0.06882434 0.03565493
-0.036335945 -0.005591903 -0.038552172 -0.06983407 -0.014875823 0.018087257 -0.04311798 0.008977207
-0.0795455 -0.06265528 0.034570552 0.06608506 0.043021545 -0.060991142 0.055854794 -0.057143256
0.03826208 0.013318187 -0.024358902 -0.07926318 -0.07964997 -0.08885507 -0.01731929 0.068629526
0.0314614 0.029380351 -0.0799312 0.07265756 0.04669009 0.09306981 -0.020975033 -0.015882734
0.07410595 0.041322943 0.015152406 -0.1249593 0.056898538 0.30303594 -0.08044025 -0.028390106
0.0049586124 0.022038667 -0.016641589 -0.0063865446 0.0713128 0.034730785 0.036842413 0.0835
0.293361 0.10286205 -0.1649693 -0.03994031 -0.07453182 0.07357817 0.021734998 -0.07576022
-0.00051865965 0.03155868 -0.0107309185 0.03720101 0.010750184 -0.010799536 0.25193292 -0.019353855
0.010469812 -0.3741253 0.057854872 0.055069316 -0.047337838 0.06811644 -0.04977058 -0.06537868
0.028836878 0.02971578 0.006348106 -0.006129541 0.007733395 -0.085073106 0.1386594 -0.06638711
-0.05787868 -0.38658568 -0.04522659 0.017519899 -0.023121811 0.1642847 0.032561064 0.07024274
0.13289563 0.08359304 -0.31615105 -0.026004264 0.056417234 -0.0024522815 -0.08043757 0.08938012
0.08982792 0.07742655 -0.08697894 -0.092254855 0.0078596175 -0.009140494 0.06508518 -0.33862698
0.10214753 -0.09501299 0.0370128 -0.19239296 0.111390054 -0.079345874 0.061476674 -0.046391934
-0.015052165 0.06886889 -0.01826773 0.048487075 0.025403235 0.02206528 0.25890788 -0.059736975
-0.06572212 0.09739797 0.029667962 -0.022957943 0.10760926 0.0055327932 0.029336527 0.016851146
0.09112716 0.09606047 0.08052753 -0.12454755 -0.07674817 0.13728645 0.11002321 0.16229637
-0.02253524 0.07720723 0.12019808 -0.06258015 -0.03570535 -0.035121933 -0.08069222 -0.012927808
0.057309408 -0.05001248 -0.061373603 0.0013521798 -0.01832756 0.099394426 0.019264266 -0.076915756
00000000: 2cc7 403c dc90 543d 06cd ab3d 610d 1a3d
00000010: 9d47 69bd 09e8 e63c 2de1 a33b 0943 993d
00000020: 67f7 4b3d 43eb 69ba 3ca4 f53b 0c7e 123d
00000030: 6453 b13d 6264 453d 5610 8a3c 8af7 403d
00000040: c29e 513d bbd2 773d 3119 16bc 63c8 ee3c
00000050: a273 42bc 1f93 823d 1233 1dbd 7155 143c
00000060: 07ca 19bd a79a 66bc ce05 053d b39b 393b
00000070: cbab bcbd d717 5b3c 59b6 26bd dcbb 483a
00000080: 5f12 d53c 62d1 29bc ebbc 243d 8b1b aabd
00000090: f949 3f3c 3791 8a3d faea 3c3a 27b6 903d
000000a0: 6309 12bd 8f7d d03c ee87 9bbd 87df 47bc
000000b0: c574 6ebd bcb3 143d fc82 0c3d 9f2e 98bc
000000c0: fc76 60bd 4658 47bd b3ab 423d 26bb 00bd
000000d0: 324e b8bd 6699 7a3d 1308 2f3c cbef 5f3d
000000e0: ee46 083d 2211 3cbc 1b50 9dbd 5c02 12bc
000000f0: a13c b2bb 3a07 ca3c 24f9 b2bd 56e8 18bc
00000100: 1181 92bd e176 46bd f132 aabd b2c2 7d3d
00000110: 3d2f 963d dedf 37bd 0d31 18bd 8d2b 463d
00000120: 83db c9bb f7dd b5bc c6d7 6bbc 2a58 b0bd
00000130: dacb 75bd 6844 713d 3f25 7dbd 245e 3e3d
00000140: eab2 12bd 86aa 81bd e8ca 36bd 782e 523d
00000150: ae66 afbd ad15 083d 6341 ca3c d356 d33c
00000160: 96f2 a3bd 0da5 85bd 49be a4bc 5efc 0abd
00000170: 02a7 07bd b3d5 df3c 9ed1 2c3d 4041 873d
00000180: 8600 3fbd 1b95 52bd 290b a33d 7db8 0fbc
00000190: 3684 cdbc c121 3e3d c7f3 8cbd e70a 123d
000001a0: 00d5 14bd 483c b7bb e2e8 1dbd 2a05 8fbd
000001b0: b9b9 73bc ba2b 943c 7b9c 30bd 2315 133c
000001c0: c0e8 a2bd 6951 80bd da99 0d3d 9b57 873d
000001d0: 5c37 303d d9d1 79bd ffc7 643d 0c0f 6abd
000001e0: b3b8 1c3d 8634 5a3c 528c c7bc bc54 a2bd
000001f0: 861f a3bd a6f9 b5bd 2fe1 8dbc a38d 8c3d
00000200: abdd 003d 10af f03c f8b2 a3bd 7dcd 943d
00000210: 1c3e 3f3d 629b be3d d5d3 abbc 821c 82bc
00000220: dcc4 973d 3f42 293d cc41 783c a9ea ffbd
00000230: 710e 693d 8727 9b3e dcbd a4bd 5e92 e8bc
00000240: db7b a23b 6f8a b43c f153 88bc 3846 d1bb
00000250: 720c 923d de41 0e3d 12e8 163d 0c02 ab3d
00000260: 6a33 963e 57a9 d23d b6ed 28be 7398 23bd
00000270: 24a4 98bd 27b0 963d 980d b23c 2d28 9bbd
00000280: a9f6 07ba ad43 013d bcd0 2fbc 1660 183d
00000290: 8a21 303c 89f0 30bc 5afd 803e fa8b 9ebc
000002a0: 9389 2b3c 5a8d bfbe 3bf9 6c3d 5d90 613d
000002b0: 52e5 41bd a280 8b3d 3cdc 4bbd 42e5 85bd
000002c0: 513b ec3c 826e f33c c603 d03b 51da c8bb
000002d0: 6b68 fd3b cf3a aebd bbfc 0d3e f7f5 87bd
000002e0: 3212 6dbd 8fee c5be 843f 39bd e485 8f3c
000002f0: f469 bdbc 403a 283e c05e 053d 6ddb 8f3d
00000300: cb15 083e d432 ab3d 8dde a1be e506 d5bc
00000310: c215 673d 75b6 20bb 74bc a4bd ed0c b73d
00000320: b3f7 b73d d091 9e3d 0422 b2bd 1df0 bcbd
00000330: a0c5 003c 03c2 15bc 614b 853d 8460 adbe
00000340: b932 d13d 2c96 c2bd bc9a 173d a902 45be
00000350: 7820 e43d 1780 a2bd f7ce 7b3d 7805 3ebd
00000360: 5b9d 76bc 220b 8d3d 35a6 95bc 629a 463d
00000370: 721a d03c 3fc2 b43c 938f 843e c2ae 74bd
00000380: 5299 86bd 9678 c73d 3a0a f33c 4c12 bcbc
00000390: 3e62 dc3d 6f4c b53b 2853 f03c 6a0b 8a3c
000003a0: e0a0 ba3d 5abb c43d 9eeb a43d c912 ffbd
000003b0: 252e 9dbd d294 0c3e d953 e13d 0531 263e
000003c0: d39b b8bc d31e 9e3d 692a f63d 062a 80bd
000003d0: c63f 12bd 04dc 0fbd f641 a5bd 28cf 53bc
000003e0: 45bd 6a3d e3d9 4cbd e362 7bbd a03b b13a
000003f0: ae23 96bc 4e8f cb3d 18d0 9d3c 0286 9dbd

layers.2.bias f4 [64]
0.034902148 0.052330483 -0.09431044 0.014289501 0.04532031 0.13710034 -0.043883655 0.014509561
0.032509632 -0.013817324 0.031050455 0.117420174 -0.026198791 0.023246452 0.12615329 0.07739106
0.016209038 0.0677316 0.018675657 0.08515952 0.119775236 0.0061821416 -0.054913692 -0.0072777634
-0.038825877 0.07597155 -0.041319072 0.059993856 0.14862984 0.09529311 -0.15842758 0.13051946
-0.08829475 0.1578257 0.011646436 0.026603196 0.050345555 0.103910714 0.031438913 0.0064333836
-0.009285508 -0.040205248 -0.02926103 0.15027422 0.15188779 0.16391659 -0.005315434 0.017912919
0.14123687 -0.02603552 0.027450865 0.016774153 0.16028288 -0.03552173 0.026812658 0.07633508
-0.021867398 -0.09801516 0.002659341 -0.010596864 0.12112047 0.14707692 -0.062126484 -0.0887245
00000000: 8ef5 0e3d 7d58 563d d525 c1bd 831e 6a3c
00000010: caa1 393d 0864 0c3e 59bf 33bd 82b9 6d3c
00000020: d228 053d 0f62 62bc 865d fe3c fd79 f03d
00000030: d99e d6bc 586f be3c 542e 013e 347f 9e3d
00000040: d1c8 843c ddb6 8a3d b1fd 983c 1d68 ae3d
00000050: b84c f53d 9093 ca3b 2eed 60bd 4e7a eebb
00000060: e207 1fbd f996 9b3d 303e 29bd 1ebc 753d
00000070: 6c32 183e 0929 c33d d73a 22be e5a6 053e
00000080: e1d3 b4bd 0f9d 213e b1d0 3e3c f2ee d93c
00000090: 2437 4e3d 24cf d43d 17c6 003d 22cf d23b
000000a0: 3e22 18bc 42ae 24bd d4b4 efbc 7ce1 193e
000000b0: 7988 1b3e c0d9 273e 182d aebb 1dbe 923c
000000c0: 66a0 103e 7148 d5bc a3e0 e03c f369 893c
000000d0: 3221 243e 3c7f 11bd 38a6 db3c 9155 9c3d
000000e0: 4223 b3bc 2cbc c8bd 5748 2e3b 789e 2dbc
000000f0: 020e f83d 559b 163e 5778 7ebd 31b5 b5bd

readout.weight f4 [1, 64]
0.08701182 0.23421274 0.26987177 -0.17131679 -0.11639568 -0.2012165 0.046822887 0.22158843
-0.10528197 0.06765549 -0.2194536 -0.20212355 0.2775492 0.014937271 -0.42002785 0.029815063
0.042673714 0.23652287 -0.04951647 -0.1843684 -0.19625907 0.0007662773 0.004783689 0.21513213
-0.051201895 -0.16296843 -0.051931635 0.38370875 -0.22130218 -0.19801687 0.32074022 -0.14438184
0.05099904 -0.11624247 0.24715881 -0.16258167 0.06431549 -0.14715666 -0.08299738 -0.14234515
0.108589515 0.1291513 0.16765666 -0.15407085 -0.13090417 -0.14020887 0.08821575 -0.22490148
-0.10827411 0.16420664 -0.16966277 0.16387537 -0.19545539 0.199135 -0.12920251 -0.19907768
0.028051743 0.21593331 -0.17044528 0.17711198 0.3632423 -0.12018259 0.1620802 0.23169735
00000000: 4133 b23d 77d5 6f3e a22c 8a3e ab6d 2fbe
00000010: dc60 eebd b30b 4ebe 5bc9 3f3d 14e8 623e
00000020: 139e d7bd f68e 8a3d 72b8 60be 7af9 4ebe
00000030: ee1a 8e3e 75bb 743c e40d d7be b83e f43c
00000040: a2ca 2e3d 0d33 723e c8d1 4abd 12cb 3cbe
00000050: 23f8 48be 00e0 483a 7ec0 9c3b 994b 5c3e
00000060: 14b9 51bd 32e1 26be 44b6 54bd 7975 c43e
00000070: 0a9d 62be efc4 4abe 1038 a43e d5d8 13be
00000080: 5fe4 503d 8810 eebd 3317 7d3e cf7b 26be
00000090: d7b7 833d 3cb0 16be 88fa a9bd edc2 11be
000000a0: 2e64 de3d 3d40 043e 30ae 2b3e c0c4 1dbe
000000b0: be0b 06be ea92 0fbe 76aa b43d 934c 66be
000000c0: d1be ddbd c925 283e 14bc 2dbe f2ce 273e
000000d0: 7525 48be 0cea 4b3e aa4d 04be 05db 4bbe
000000e0: c5cc e53c 9f1d 5d3e 3589 2ebe d85c 353e
000000f0: e5fa b93e 4a22 f6bd 5af8 253e 1242 6d3e

layers.0.weight f4 [128, 3]
0.5199547 0.5274386 0.6308093 -0.50238067 0.7361134 -0.28139693 -0.056840535 -0.025820486
-0.58579487 0.38349086 -0.37600726 0.5621821 -0.065998234 -0.5839624 0.41637972 -0.12619786
-0.7193337 0.23400088 -0.19277658 -0.85243714 0.26904804 -0.3353281 -0.23329863 0.6394306
-0.057830933 -0.32342646 0.55539614 -0.5099783 0.25411147 0.053505633 0.23138717 -0.65565777
-0.27766088 0.21083057 -0.44886068 -0.45085847 0.041997407 0.4461705 0.09543336 0.4545861
-0.69090724 0.37753686 0.56211936 -0.51004785 0.15203704 -0.16657084 -0.9337565 0.22217654
-0.4237226 0.7060155 0.5122371 -0.234274 -0.14272438 -0.26119828 0.58309036 0.015170556
0.2537562 -0.22666547 -0.09889667 -0.46146703 0.08240472 0.37008047 0.4141632 -0.44262144
0.028597921 0.45865023 -0.31705233 0.1475736 -0.58222836 0.0906999 -0.538676 -0.097680286
0.00769852 -0.5626889 -0.43729895 -0.4175948 -0.18804339 0.052734543 0.6428942 -0.36318186
0.36456835 0.4066584 -0.29555097 -0.081623256 -0.43820992 -0.21959017 0.030749356 -0.6063126
0.8559826 -0.5543003 -0.3595183 0.19314584 0.65870786 0.06272497 0.63835937 -0.17928405
-0.013721143 -0.41902807 -0.42145595 0.4186778 0.5247355 0.5494159 -0.31805843 0.20469722
0.35077095 0.4112758 0.8032831 -0.23052853 0.15552953 0.87259924 -0.21925333 -0.19517307
-0.025730133 -0.42498255 -0.5870897 -0.44037685 -0.10784187 0.20915368 -0.50369114 -0.48312223
-0.063498355 0.35526723 -0.4004303 -0.53640765 -0.73633057 -0.027200919 0.21992545 0.95374584
-0.2941613 -0.0162753 -0.05974111 -0.4285362 -0.14766327 -0.62672937 0.18063708 0.5916081
-0.8438198 -0.5487588 0.0748012 0.7632342 -0.20156246 -0.5184456 -0.2832672 -0.51656723
0.047867317 0.50974226 0.45468813 -0.40553093 1.0022975 0.1511933 -0.27069893 0.6548877
-0.5310858 -0.16553792 0.6676396 0.117588244 -0.3981945 -1.0486878 -0.29002035 -0.3133365
-0.6347222 -0.018098827 -0.009124356 0.7131952 0.026082452 0.36674592 0.7122184 0.30413583
0.43177974 -0.32218096 0.30172455 0.034675 0.15952866 -0.53029776 -0.4588206 -0.630323
0.020264354 -0.33915713 0.58775 -0.37420687 0.536187 0.439193 -0.5084538 -0.42953292
0.4737989 0.10328675 -0.44997898 -0.061991803 -0.05278262 -0.16462119 0.6248274 0.1595514
-0.08229984 0.6629272 0.32132787 -0.3210406 -1.067214 -0.24228054 0.24636458 0.15941198
0.41090918 -0.09815547 0.9573935 -0.31496188 -0.2430219 -0.6513675 -0.37387076 0.14672473
0.77164763 -0.61257803 0.30056068 -0.80707353 0.47522315 -0.44295865 0.520228 -0.4106696
-0.31412968 0.0063902605 -0.23063259 0.6224376 0.10814623 0.17998071 -0.32302654 0.5836204
-0.14201193 -0.45706946 0.5758475 -0.46291444 0.36814663 -0.052675873 0.27523196 0.14351153
0.5817505 0.56430924 -0.18677007 0.5831336 0.043751735 -0.6151979 0.26581964 0.07721611
-0.042032447 0.007629405 -0.27567786 -0.18487246 0.39996973 0.60117865 -0.37192973 -0.39579225
-0.032409824 -0.6446847 -0.122909784 -0.50086737 0.11777174 0.54876035 0.40826815 -0.101305336
00000000: c01b 053f 3706 073f b87c 213f 059c 00bf
00000010: ee71 3c3f 4213 90be 9fd1 68bd 7c85 d3bc
00000020: a7f6 15bf ea58 c43e 0684 c0be 2beb 0f3f
00000030: 152a 87bd 8f7e 15bf b92f d53e 033a 01be
00000040: 4126 38bf ed9d 6f3e 3967 45be 5239 5abf
00000050: aac0 893e 20b0 abbe d6e5 6ebe b9b1 233f
00000060: 21e0 6cbd 2798 a5be 712e 0e3f f08d 02bf
00000070: e61a 823e b928 5b3d c2f0 6c3e 30d9 27bf
00000080: 9129 8ebe f8e3 573e 11d1 e5be ecd6 e6be
00000090: 7905 2c3d 7670 e43e 9172 c33d 82bf e83e
000000a0: 4cdf 30bf 834c c13e 0ee7 0f3f 7f92 02bf
000000b0: 99af 1b3e 8c91 2abe aa0a 6fbf 3f82 633e
000000c0: 2bf2 d8be 6fbd 343f f821 033f 86e5 6fbe
000000d0: 5726 12be c8bb 85be 6945 153f ec8d 783c
000000e0: 55ec 813e fe1a 68be 568a cabd 6845 ecbe
000000f0: cec3 a83d 307b bd3e 330d d43e 479f e2be
00000100: 3046 ea3c 34d4 ea3e af54 a2be 891d 173e
00000110: eb0c 15bf dfc0 b93d ace6 09bf 9a0c c8bd
00000120: de43 fc3b 610c 10bf a6e5 dfbe fcce d5be
00000130: 728e 40be 2d00 583d b794 243f f9f2 b9be
00000140: b4a8 ba3e 8835 d03e 7552 97be 182a a7bd
00000150: 0d5d e0be 3fdc 60be 13e6 fb3c 4d37 1bbf
00000160: ad21 5b3f a0e6 0dbf c812 b8be 06c8 453e
00000170: 14a1 283f f375 803d 856b 233f 3d96 37be
00000180: a5ce 60bc d98a d6be 13c9 d7be f05c d63e
00000190: 1155 063f 85a6 0c3f 8ed8 a2be 269c 513e
000001a0: 4098 b33e be92 d23e f6a3 4d3f ac0f 6cbe
000001b0: 2243 1f3e aa62 5f3f f283 60be 73db 47be
000001c0: 00c8 d2bc 5097 d9be 834b 16bf 1379 e1be
000001d0: 33dc dcbd 622c 563e e7f1 00bf cc5b f7be
000001e0: 6d0b 82bd 96e5 b53e 3305 cdbe 0352 09bf
000001f0: 2980 3cbf 76d4 debc 2334 613e b028 743f
00000200: 4f9c 96be c753 85bc 18b3 74bd 1969 dbbe
00000210: 0a35 17be 5671 20bf edf8 383e a173 173f
00000220: 9304 58bf 757b 0cbf 5f31 993d 5163 433f
00000230: 6466 4ebe dab8 04bf 6608 91be c03d 04bf
00000240: 8510 443d 787e 023f e2cc e83e c0a1 cfbe
00000250: 494b 803f 6bd2 1a3e 0d99 8abe b8a6 273f
00000260: 3df5 07bf c682 29be 6eea 2a3f 1bd2 f03d
00000270: 26e0 cbbe 673b 86bf 8c7d 94be a46d a0be
00000280: 277d 22bf fe43 94bc 537e 15bc f693 363f
00000290: deaa d53c 1fc6 bb3e f253 363f b1b7 9b3e
000002a0: 3c12 dd3e e7f4 a4be a47b 9a3e 5f07 0e3d
000002b0: 7b5b 233e 98c1 07bf 89ea eabe d95c 21bf
000002c0: 6e01 a63c 01a6 adbe c976 163f 0b98 bfbe
000002d0: 8d43 093f e8dd e03e 072a 02bf bdeb dbbe
000002e0: c595 f23e 0188 d33d a563 e6be 1eeb 7dbd
000002f0: 9732 58bd 7592 28be b0f4 1f3f 7161 233e
00000300: d28c a8bd 99b5 293f 1685 a43e 6f5f a4be
00000310: 789a 88bf 6418 78be ff46 7c3e e53c 233e
00000320: b062 d23e bc05 c9bd be17 753f af42 a1be
00000330: bcda 78be 05c0 26bf fd6b bfbe 023f 163e
00000340: b38a 453f ead1 1cbf 17e3 993e 5f9c 4ebf
00000350: 7350 f33e 7acb e2be aa2d 053f 4943 d2be
00000360: 9bd5 a0be 6465 d13b f32a 6cbe 1258 1f3f
00000370: c57b dd3d dd4c 383e bc63 a5be 2668 153f
00000380: 936b 11be 0205 eabe be6a 133f 1f03 edbe
00000390: b77d bc3e a8c2 57bd 34eb 8c3e b0f4 123e
000003a0: 9aed 143f 9276 103f a740 3fbe 3e48 153f
000003b0: 0535 333d 9c7d 1dbf 8319 883e 7b23 9e3d
000003c0: 372a 2cbd 1600 fa3b a625 8dbe 354f 3dbe
000003d0: d5c8 cc3e d8e6 193f 936d bebe 48a5 cabe
000003e0: 2ac0 04bd 0e0a 25bf 20b8 fbbd d838 00bf
000003f0: 4f32 f13d 8f7b 0c3f 8608 d13e 2c79 cfbd

layers.0.bias f4 [128]
-0.45877722 -0.39792633 -0.49780735 0.3379096 0.043788496 -0.075890385 -0.13893202 0.23255026
-0.51202345 -0.049813833 0.2408802 -0.29517654 -0.2160822 0.6194621 0.5703365 -0.16812764
-0.5481819 0.5255423 0.26868173 0.3731594 -0.1111187 -0.075867064 -0.08156588 -0.76297885
0.274696 0.021955498 0.049810763 0.53458554 -0.13531934 -0.1293431 -0.34825382 0.08265278
0.20034856 -0.40783668 0.5842453 0.43543425 0.19010723 -0.04877579 0.42483425 0.33083126
-0.028086312 -0.38904727 0.31527582 0.26706967 0.24043371 -0.07570798 0.10303362 0.45890343
0.25115895 0.5047064 -0.23946166 -0.43701857 -0.04329875 0.27445891 -0.11101438 -0.13833109
-0.10081954 0.5955317 -0.07409964 -0.22573863 -0.10691164 -0.39067635 0.14805403 -0.18073508
0.52978414 -0.16690226 0.25668588 0.039288424 0.28295264 0.19440112 -0.28632554 0.1280475
0.15014473 0.16781315 -0.28776234 -0.4119451 0.56497186 -0.1333904 0.3870999 0.41102535
0.33806428 -0.15716095 0.21122923 -0.3945279 0.44046816 -0.29148853 -0.008952199 -0.1684149
-0.42625797 0.19508867 -0.43871152 0.5187281 0.53929335 0.31936455 0.509364 -0.09166692
-0.0163487 0.18577248 -0.4341616 -0.010457882 -0.015917338 -0.26343563 0.12718283 0.56314504
-0.07786665 0.03596479 -0.08480122 0.03893259 -0.07081757 -0.09892624 0.46654812 -0.4552432
0.39495322 -0.23265317 0.31693488 -0.18100487 0.37857643 0.6257315 -0.5055509 0.40109158
-0.3088857 0.15251328 0.2488163 0.48133016 0.30058372 -0.005917501 -0.070666224 0.107852444
00000000: d9e4 eabe 00bd cbbe 9be0 febe 7d02 ad3e
00000010: 915b 333d 6b6c 9bbd 3244 0ebe a821 6e3e
00000020: f813 03bf 9709 4cbd 4da9 763e 6121 97be
00000030: a744 5dbe 1195 1e3f 9301 123f a729 2cbe
00000040: a655 0cbf f189 063f a790 893e c00e bf3e
00000050: 3392 e3bd 3160 9bbd 030c a7bd 9552 43bf
00000060: f4a4 8c3e 04dc b33c 5f06 4c3d 99da 083f
00000070: 2791 0abe 8572 04be 534e b2be dc45 a93d
00000080: 2c28 4d3e f8cf d0be 1a91 153f 3df1 de3e
00000090: 78ab 423e 1fc9 47bd e083 d93e b762 a93e
000000a0: 4415 e6bc 3431 c7be d56b a13e 5bbd 883e
000000b0: 4134 763e c90c 9bbd 4a03 d33d 64f5 ea3e
000000c0: e897 803e 7034 013f 7035 75be e6c0 dfbe
000000d0: 085a 31bd e185 8c3e 825b e3bd aaa6 0dbe
000000e0: 7a7a cebd c474 183f 8dc1 97bd 0728 67be
000000f0: 7df4 dabd bb06 c8be 7a9b 173e 9e12 39be
00000100: ef9f 073f 6de8 2abe 556c 833e e6ec 203d
00000110: 2bdf 903e 1611 473e 4399 92be e21e 033e
00000120: 8abf 193e 36d7 2b3e 9655 93be 78ea d2be
00000130: ffa1 103f 7e97 08be f531 c63e ea71 d23e
00000140: c316 ad3e cdee 20be 7a4c 583e 90ff c9be
00000150: 0b85 e13e fc3d 95be 3eac 12bc f574 2cbe
00000160: 7c3e dabe 53c5 473e cc9e e0be 5dcb 043f
00000170: 210f 0a3f c083 a33e ae65 023f debb bbbd
00000180: b5ed 85bc 243b 3e3e 6e4a debe 8957 2bbc
00000190: 1465 82bc 09e1 86be 373c 023e 462a 103f
000001a0: 8d78 9fbd d14f 133d 43ac adbd c877 1f3d
000001b0: cd08 91bd d799 cabd 65df ee3e a315 e9be
000001c0: 4f37 ca3e a23c 6ebe 4a45 a23e 5759 39be
000001d0: c5d4 c13e f12f 203f c96b 01bf e05b cd3e
000001e0: 4426 9ebe 712c 1c3e b3c9 7e3e e870 f63e
000001f0: 1ce6 993e 99e7 c1bb 74b9 90bd bee1 dc3d

layers.1.weight f4 [128, 128]
0.011930062 0.06612397 -0.069554225 -0.016183306 -0.05639876 -0.08195113 -0.035098005 -0.06800537
-0.009951984 -0.025276698 -0.10702033 0.0039349445 -0.13251998 -0.008467139 -0.13961773 -0.18826059
-0.12401898 0.0053707357 -0.05395674 0.019565478 -0.109088905 -0.068451025 0.012187703 -0.011749797
-0.11291749 0.043328192 -0.025446195 -0.15162697 -0.041869104 0.070184946 -0.037470732 0.047968086
0.007044102 -0.04446149 -0.09391348 -0.116051055 -0.07480854 0.046205934 0.015146309 -0.03937026
-0.010948434 0.02165022 -0.11325436 0.005205321 -0.2282929 -0.049066897 0.034472145 -0.012552672
-0.09343867 0.01590605 -0.005121263 -0.10202396 0.062941924 -0.022530202 0.0010610543 -0.06399461
0.07613711 -0.12203419 0.051567838 -0.075834125 -0.07324473 -0.073920734 -0.034121066 -0.029182265
0.007107635 -0.07567283 -0.04867675 -0.01661672 -0.09108577 0.055841394 -0.080735005 0.036857408
0.017291518 0.037218504 0.0314758 -0.021298584 -0.0467909 -0.053220753 0.015070168 0.050726496
-0.06192361 -0.043217152 0.07932296 -0.025955489 -0.09485646 0.0711939 -0.032422174 -0.02563841
-0.107477054 -0.084853075 -0.032879867 -0.14303249 -0.051562656 -0.051738653 -0.11210158 0.08141856
0.0026669968 -0.068708114 0.046022326 -0.012905248 0.08727709 -0.02655927 -0.24006404 0.02241281
-0.04074899 0.05167633 0.04448185 -0.07649021 -0.045099087 -0.0059794732 -0.12835822 0.003569949
-0.10786658 -0.22693983 0.06434761 -0.02296551 -0.012916865 -0.16662109 0.04877126 0.04778673
0.014878867 -0.030774549 0.018760335 -0.050946068 -0.12861103 -0.013257477 -0.09882162 0.019948073
0.0063982713 0.099130005 -0.06304361 0.10468368 -0.01693792 0.07551599 0.19674513 -0.051350337
0.009981124 -0.0002825847 -0.025267752 0.05665588 -0.25237367 0.08465137 0.028194321 0.015640933
-0.08657007 -0.030110978 0.064381234 -0.017612536 -0.04919963 0.017360717 0.061678156 -0.21124727
-0.09799925 0.011805921 0.013183094 -0.047741678 0.088657305 0.10163651 0.0028433742 -0.036593072
-0.080321915 0.038432725 -0.022622323 -0.0513086 -0.21378052 0.043194726 -0.043201953 0.021516519
0.008112256 -0.04708646 -0.10735313 -0.0072189616 -0.0043441183 -0.008046765 0.093935005 0.02744373
-0.04057585 -0.08744948 -0.022937547 -0.10514841 0.0023207534 0.09577142 -0.26961 0.12150835
0.17138627 0.06575285 0.064111635 0.04379356 0.0020043035 -0.32349673 0.06429963 -0.24630754
-0.1036537 0.028379422 -0.06436631 0.09102893 0.07783181 0.060913634 0.09507864 -0.042068306
-0.049730472 0.049401127 0.1352817 0.022516876 0.062245823 -0.09675143 -0.035024777 0.073157
0.01686699 -0.04579483 0.09186024 -0.05628361 0.004277154 -0.08516374 -0.061718605 -0.13608858
-0.043096106 0.086797155 0.10783961 -0.08683583 0.084871836 -0.067751996 -0.0996519 -0.029139694
0.020660158 -0.16382675 0.01737098 0.10812335 -0.07177649 0.047199685 -0.094148144 -0.034803607
-0.022598226 0.099457845 -0.008684066 -0.037802745 -0.005950228 0.11622069 -0.17001091 0.034612793
0.007430864 -0.22019015 0.05860097 0.028538715 -0.047867868 0.13912195 0.08328756 0.062125865
0.14552934 -0.014761143 -0.026537132 0.02429335 0.14522846 0.059899762 -0.17569435 0.04568936
00000000: 4f76 433c 016c 873d 7272 8ebd da92 84bc
00000010: 6302 67bd fed5 a7bd edc2 0fbd 6646 8bbd
00000020: a50d 23bc 1411 cfbc 7a2d dbbd b5f0 803b
00000030: 51b3 07be c1b9 0abc f3f7 0ebe 62c7 40be
00000040: aafd fdbd fffc af3b be01 5dbd c847 a03c
00000050: 016a dfbd 0d30 8cbd eeae 473c 3882 40bc
00000060: 4941 e7bd e778 313d 8a74 d0bc 1a44 1bbe
00000070: f07e 2bbd 20bd 8f3d e97a 19bd 2f7a 443d
00000080: 36d2 e63b 401d 36bd b655 c0bd 2dac edbd
00000090: 3835 99bd 6f42 3d3d 3928 783c b642 21bd
000000a0: 0f61 33bc cd5b b13c e7f1 e7bd 6691 aa3b
000000b0: 9dc5 69be 5ffa 48bd aa32 0d3d b9a9 4dbc
000000c0: c65c bfbd 684d 823c 45d0 a7bb f0f1 d0bd
000000d0: b2e7 803d 4291 b8bc 1313 8b3a 9b0f 83bd
000000e0: c6ed 9b3d 10ed f9bd cc38 533d ec4e 9bbd
000000f0: 5501 96bd c163 97bd 88c2 0bbd a50f efbc
00000100: 2ae7 e83b 5bfa 9abd 4661 47bd ca1f 88bc
00000110: 2d8b babd f2b9 643d 6558 a5bd cbf7 163d
00000120: f1a6 8d3c 6e72 183d c5ec 003d 5e7a aebc
00000130: d1a7 3fbd 01fe 59bd dee8 763c 96c6 4f3d
00000140: 9ca3 7dbd 7804 31bd 1374 a23d 9ba0 d4bc
00000150: 1b44 c2bd 1cce 913d 1dcd 04bd a507 d2bc
00000160: ee1c dcbd 73c7 adbd 0aad 06bd 1c77 12be
00000170: 5d33 53bd e9eb 53bd 8395 e5bd c6be a63d
00000180: c8c8 2e3b d7b6 8cbd e881 3c3d 8970 53bc
00000190: 55be b23d d492 d9bc 59d3 75be 129b b73c
000001a0: 6ae8 26bd 8faa 533d 9a32 363d e6a6 9cbd
000001b0: d2b9 38bd 75ef c3bb 5670 03be cef5 693b
000001c0: 27e9 dcbd ea62 68be aec8 833d 2a22 bcbc
000001d0: 42a1 53bc b89e 2abe 5fc4 473d 05bc 433d
000001e0: 7ec6 733c e81a fcbc 46af 993c d3ac 50bd
000001f0: 9cb2 03be e435 59bc fd62 cabd 246a a33c
00000200: 97a8 d13b ac04 cb3d 021d 81bd 6664 d63d
00000210: 65c1 8abc 21a8 9a3d 8e77 493e bb54 52bd
00000220: de87 233c e027 94b9 51fe cebc ff0f 683d
00000230: 1f37 81be b35d ad3d c7f7 e63c 6a21 803c
00000240: a64b b1bd 4cab f6bc 4fda 833d 2a48 90bc
00000250: 8d85 49bd 1038 8e3c 3ca2 7c3d 3451 58be
00000260: d5b3 c8bd 9f6d 413c e7fd 573c c78c 43bd
00000270: f691 b53d cd26 d03d e757 3a3b 9ee2 15bd
00000280: d17f a4bd a26b 1d3d 7352 b9bc f728 52bd
00000290: 48e9 5abe f4ec 303d 88f4 30bd 6943 b03c
000002a0: 45e9 043c bbdd 40bd f5db dbbd 0a8d ecbb
000002b0: 1b59 8ebb 94d6 03bc ff60 c03d acd1 e03c
000002c0: dd32 26bd b718 b3bd 86e7 bbbc 0d58 d7bd
000002d0: c817 183b ce23 c43d 520a 8abe 5fd9 f83d
000002e0: e27f 2f3e 6ea9 863d f64c 833d e060 333d
000002f0: a25a 033b 5da1 a5be 86af 833d 0b38 7cbe
00000300: 6448 d4bd f67b e83c 7cd2 83bd 606d ba3d
00000310: 4966 9f3d 9380 793d 97b8 c23d d14f 2cbd
00000320: 2eb2 4bbd d658 4a3d 4987 0a3e 5075 b83c
00000330: 7af5 7e3d 9d25 c6bd 2476 0fbd 56d3 953d
00000340: a42c 8a3c 5c93 3bbd 3921 bc3d a589 66bd
00000350: 5e27 8c3b 546a aebd a6cc 7cbd ce5a 0bbe
00000360: 8b85 30bd b5c2 b13d 03db dc3d fcd6 b1bd
00000370: 49d1 ad3d 8fc1 8abd 4c16 ccbd 5eb6 eebc
00000380: 7e3f a93c 33c2 27be 964d 8e3c c66f dd3d
00000390: 8dff 92bd 7554 413d bed0 c0bd 3a8e 0ebd
000003a0: ea1f b9bc 8eb0 cb3d 9d47 0ebc 0dd7 1abd
000003b0: 21fa c2bb 1d05 ee3d 5717 2ebe 25c6 0d3d
000003c0: 9b7e f33b 8779 61be 9207 703d 06ca e93c
000003d0: 1911 44bd fc75 0e3e ab92 aa3d b177 7e3d
000003e0: a505 153e b9d8 71bc 6664 d9bc d902 c73c
000003f0: c5b6 143e 7459 753d 38e9 33be c424 3b3d

layers.1.bias f4 [128]
-0.019270413 0.03401064 -0.09507897 -0.00267054 0.064668775 -0.07518836 0.17418385 0.014933579
0.03213803 0.025011552 0.060791176 -0.056388386 -0.030247359 0.020903176 -0.024577094 -0.033019572
-0.012005569 0.01007982 -0.098489925 0.06828181 0.05018723 -0.022523742 0.067810945 -0.010260279
-0.015097808 0.031593304 0.07029971 0.10923662 0.11460932 0.049238596 0.06588309 0.09624507
0.011243512 0.056130365 0.037228853 0.054527923 -0.027443947 0.0946964 0.064302154 -0.09290402
0.038808364 0.01663294 0.044172887 0.010187974 0.025931899 0.07641371 0.078838006 0.097886644
0.049088717 0.0073410976 0.10289349 0.097945906 0.08968046 -0.051900074 -0.030876592 -0.031091163
0.069432296 0.0148646515 0.09614254 -0.05561329 -0.032767627 -0.07386559 0.014256453 -0.004709647
0.0057848925 -0.044888314 -0.028809862 -0.08608699 -0.049649805 0.04644816 0.05741192 0.06889518
-0.008391133 -0.03517932 0.043022327 0.026516387 0.012546109 -0.11385287 0.022911806 -0.06556937
0.04951073 0.021657318 -0.035661973 0.08422964 0.08923386 0.0148932515 0.031528067 -0.065178305
-0.096688226 -0.08382866 0.09549988 0.08434996 -0.015979547 0.008911395 -0.078273565 -0.0049693338
-0.009230684 0.074913405 -0.069020584 -0.0648824 0.0782822 -0.04289242 0.01587476 0.055825006
-0.07336053 -0.07468628 -0.026067136 -0.10677377 0.108654946 -0.0646878 -0.037656497 -0.004575388
0.034186844 0.006245289 -0.028299218 0.083324686 -0.057708066 0.10160114 -0.0014116152 -0.027382208
0.057607036 -0.07498856 0.015160678 0.11557601 0.065030865 -0.07718616 -0.01566621 0.028168028
00000000: fcdc 9dbc be4e 0b3d c3b8 c2bd 3a04 2fbb
00000010: 1071 843d 5bfc 99bd 405d 323e f8ab 743c
00000020: 2ba3 033d 07e5 cc3c 2b00 793d 82f7 66bd
00000030: 4fc9 f7bc 233d ab3c e755 c9bc 883f 07bd
00000040: 02b3 44bc d425 253c 16b5 c9bd 55d7 8b3d
00000050: 2091 4d3d b683 b8bc 77e0 8a3d bb1a 28bc
00000060: cc5c 77bc fb67 013d 4bf9 8f3d 73b7 df3d
00000070: 4bb8 ea3d 69ae 493d b7ed 863d 231c c53d
00000080: b536 383c f4e8 653d 487d 183d ac58 5f3d
00000090: 21d2 e0bc 30f0 c13d d9b0 833d 7644 bebd
000000a0: 85f5 1e3d ce41 883c a1ee 343d 76eb 263c
000000b0: 226f d43c cb7e 9c3d d275 a13d cb78 c83d
000000c0: 4011 493d 978d f03b d2b9 d23d dd97 c83d
000000d0: 64aa b73d 2c95 54bd e8f0 fcbc e5b2 febc
000000e0: 8532 8e3d de8a 733c 61e6 c43d c3ca 63bd
000000f0: 5937 06bd d846 97bd e693 693c 6253 9abb
00000100: 328f bd3b cfdc 37bd a902 ecbc 604e b0bd
00000110: 985d 4bbd 6d40 3e3d c328 6b3d eb18 8d3d
00000120: f67a 09bc 3118 10bd 2e38 303d e538 d93c
00000130: 328e 4d3c b22b e9bd 8ab1 bb3c 3c49 86bd
00000140: c3cb 4a3d b06a b13c 4a12 12bd 9780 ac3d
00000150: 3ec0 b63d d302 743c 9323 013d 347c 85bd
00000160: 7a04 c6bd 5cae abbd 7195 c33d acbf ac3d
00000170: 8ae7 82bc 1a01 123c e44d a0bd cbd5 a2bb
00000180: 4b3c 17bc 336c 993d aa5a 8dbd 10e1 84bd
00000190: 6b52 a03d f6af 2fbd c90b 823c c3a8 643d
000001a0: 0c3e 96bd 1ff5 98bd bf8a d5bc 35ac dabd
000001b0: 7c86 de3d 0a7b 84bd b33d 1abd 23ed 95bb
000001c0: 8107 0c3d 48a5 cc3b c3d3 e7bc 22a6 aa3d
000001d0: 4b5f 6cbd 4214 d03d f205 b9ba a750 e0bc
000001e0: 5bf5 6b3d 9a93 99bd 7e64 783c 1db3 ec3d
000001f0: e72e 853d c713 9ebd 6c56 80bc a3c0 e63c

readout.weight f4 [1, 128]
-0.12517418 -0.18764798 -0.051328946 0.1755312 0.19297642 0.14260787 0.31111073 0.09361782
-0.1316885 -0.118554235 -0.23618706 0.42455617 -0.16882375 0.366181 -0.2596523 -0.14742684
-0.14050709 -0.15325217 -0.1535322 -0.42108592 -0.18941773 -0.17685501 -0.10659247 -0.25055438
-0.28903612 0.39534453 -0.24711156 0.1288435 -0.2368913 -0.23456584 -0.61238533 0.10939951
-0.65032023 -0.11183995 -0.26712868 0.25279078 0.45053428 0.19871037 0.031467006 -0.13070258
-0.08313121 -0.07295033 0.023014342 -0.2904803 -0.23439148 0.12468597 0.40277743 0.14401522
-0.2173388 -0.16348547 0.10424079 -0.10065289 -0.2098089 -0.28184217 0.06271623 -0.17279994
-0.27051225 0.101622686 0.23424608 0.103322566 -0.14724171 -0.11030374 0.32103458 -0.03141857
0.21015748 -0.06860919 -0.07174925 -0.21796165 0.36234453 -0.20657626 0.07474326 -0.52890676
-0.2911003 0.15408248 -0.12638758 0.21679924 0.2126387 -0.070565075 -0.45660958 -0.26170993
0.31319723 -0.15719597 0.4128105 0.18679972 0.03915738 -0.10609615 0.95352465 -0.05421068
0.06465155 -0.24184681 0.16643868 0.07576523 0.052971162 0.46911156 0.21445706 0.266179
-0.16706176 0.15547615 0.11713953 -0.15674825 -0.14486933 0.067706935 0.056963526 0.10728958
-0.20776609 0.30354917 -0.1323494 0.27973026 0.12901402 -0.4268043 0.16729726 -0.071297444
-0.24708998 -0.24930978 -0.17469014 -0.23245668 0.040227015 -0.16703765 0.15496004 -0.12716305
-0.11823926 -0.012728952 0.038825806 0.109392 -0.2436303 0.10331644 0.96243906 0.6357891
00000000: a92d 00be cb26 40be 4d3e 52bd 73be 333e
00000010: 9c9b 453e cc07 123e e849 9f3e b3ba bf3d
00000020: 5ad9 06be 90cc f2bd 05db 71be 6d5f d93e
00000030: 22e0 2cbe 137c bb3e 25f1 84be 10f7 16be
00000040: 17e1 0fbe 23ee 1cbe 8c37 1dbe 9398 d7be
00000050: b9f6 41be 7b19 35be 274d dabd aa48 80be
00000060: 8bfc 93be 996a ca3e d00a 7dbe 8def 033e
00000070: a293 72be 0732 70be 49c5 1cbf da0c e03d
00000080: 637b 26bf 580c e5bd 17c5 88be cb6d 813e
00000090: 6eac e63e bb7a 4b3e 8ce3 003d e6d6 05be
000000a0: b240 aabd fc66 95bd 9388 bc3c d5b9 94be
000000b0: 5204 70be 5c5b ff3d d838 ce3e ba78 133e
000000c0: 108e 5ebe bc68 27be 327c d53d 1a23 cebd
000000d0: 25d8 56be 9e4d 90be 5e71 803d 78f2 30be
000000e0: 9580 8abe 8e1f d03d 34de 6f3e c89a d33d
000000f0: 88c6 16be ede6 e1bd a55e a43e c2b0 00bd
00000100: 8633 573e fa82 8cbd 45f1 92bd 5731 5fbe
00000110: 3985 b93e ba88 53be ff12 993d 6f66 07bf
00000120: 190b 95be ccc7 1d3e bf6b 01be 9f00 5e3e
00000130: f6bd 593e 6c84 90bd bbc8 e9be d8fe 85be
00000140: 635b a03e fbf7 20be e65b d33e 6d48 3f3e
00000150: 7d63 203d f048 d9bd 311a 743f 050c 5ebd
00000160: 0868 843d b1a6 77be e76e 2a3e cd2a 9b3d
00000170: 4af8 583d 642f f03e a29a 5b3e 9d48 883e
00000180: 3d12 2bbe 2435 1f3e dae6 ef3d 9d82 20be
00000190: a058 14be efa9 8a3d 9652 693d a4ba db3d
000001a0: a2c0 54be cc6a 9b3e 9a86 07be ce38 8f3e
000001b0: 401c 043e 1886 dabe f94f 2b3e 6504 92bd
000001c0: 2805 7dbe 104b 7fbe f9e1 32be 2009 6ebe
000001d0: 15c5 243d eb0b 2bbe d8ad 1e3e 0837 02be
000001e0: 6d27 f2bd 188d 50bc cf07 1f3d ea08 e03d
000001f0: 397a 79be 9297 d33d 6862 763f 13c3 223f
