HW9/9_gym-DDPG/results/DDPG_HalfCheetah-v4_6000-eps0.15-t32-l0.0001-s2.pth (torch, 195708 bytes, 13 tensors)

layers.0.weight f4 [128, 23]
0	0x3e425a30	0.18979716
1	0x3e269efb	0.16271584
2	0x3e0263d3	0.12733392
3	0xbd56d38b	-0.052447837
4	0x3d793d2c	0.060849354
5	0x3e2cb85c	0.16867203
6	0xbbf7f591	-0.0075671156
7	0xbe472c1d	-0.19450422
8	0x3e99408c	0.29932058
9	0xbe9ca54a	-0.30594856
10	0xbe745afe	-0.23862836
11	0x3cf3f302	0.029778961
12	0xbcb72bbe	-0.022359725
13	0x3d8834d5	0.06650702
14	0x3d033d54	0.03204091
15	0x3d419bd2	0.047267742
16	0x3d567b88	0.052363902
17	0xbe2f10cc	-0.17096251
18	0xbe09c4a1	-0.13453914
19	0x3e68855b	0.22707121
20	0xbe92e12d	-0.2868742
21	0xbd1d471e	-0.0383979
22	0x3d9f194d	0.077684976
23	0x3ff8841c	1.9415317
24	0xbf46aa36	-0.7760347
25	0x3e2b063b	0.16701595
26	0x3dff24db	0.124582015
27	0xbea0c3c4	-0.31399357
28	0xbe985765	-0.29754177
29	0xbf5f8883	-0.87317675
30	0xbf762a5d	-0.9615839
31	0xbe3fe65f	-0.18740223
32	0xbefaa07b	-0.48950562
33	0x3e03d841	0.12875463
34	0xbbd27c01	-0.006423474
35	0xbcd06cdd	-0.025442535
36	0x3cc713e6	0.02430148
37	0xbdd2959a	-0.102824405
38	0x3b808769	0.003922392
39	0x3b1276f8	0.0022348743
40	0xbe6e11b3	-0.23248939
41	0xbd7b8cd2	-0.061413594
42	0x3e3415ab	0.1758639
43	0xbf01ebef	-0.5075063
44	0xbdb7fd6e	-0.08983885
45	0x3e1e3250	0.1544888
46	0x3fad124a	1.3521206
47	0x3e24f10e	0.1610758
48	0xbdffa75c	-0.12483093
49	0x3e4b40f0	0.1984899
50	0xbde250f5	-0.110505976
51	0x3ec24438	0.37942672
52	0x3e93a382	0.28835684
53	0xbd130939	-0.035897467
54	0xbe951db1	-0.29124215
55	0xbd6795be	-0.05653929
56	0xbe3b9554	-0.18318683
57	0x3da27019	0.07931537
58	0xbd5f0629	-0.054449234
59	0x3dc698e7	0.096971326
60	0xbc7fc056	-0.015609821
61	0xbdfa3bc5	-0.122184314
62	0xbcd22d7a	-0.02565645
63	0x3dfeb8b0	0.1243757
64	0x3cbbda84	0.022931345
65	0x3c14a775	0.009073128
66	0x3bde69ac	0.0067874994
67	0xbdc053de	-0.093909964
68	0x3d558259	0.052126262
69	0xbf906a66	-1.128247
70	0xbf58c4c6	-0.8467525
71	0xbe917037	-0.28405926
72	0xbf265b14	-0.64982724
73	0xbe009c02	-0.12559512
74	0x3d7d5d5c	0.061856613
75	0x3dec1c51	0.115288384
76	0xbd9dd75d	-0.07707093
77	0x3d2caf57	0.042159405
78	0x3e7bb774	0.245817
79	0x3c9e1921	0.019299092
80	0x3e02b478	0.12764156
81	0xbcdf19d7	-0.027234001
82	0xbd80e60c	-0.06293878
83	0xbc63f516	-0.0139134135
84	0x3dbee326	0.09320669
85	0x3c6c5edb	0.014426912
86	0xbe1544a3	-0.14576964
87	0xbe3e331f	-0.18574189
88	0x3cf619d5	0.030041615
89	0xbe7c883a	-0.24661341
90	0xbd63ed35	-0.05564614
91	0xbde677b6	-0.11253302
92	0x403ff294	2.9991808
93	0xbd50acde	-0.05094611
94	0x3f4dcb8b	0.80388707
95	0x3d5cd9a3	0.053918492
96	0x3e0e482f	0.13894723
97	0x3f0620bf	0.52393717
98	0xbd00b959	-0.03142676
99	0xbeaf69ec	-0.342605
100	0xbe373078	-0.17889583
101	0x3e82db89	0.25558117
102	0x3d6bb95d	0.057549823
103	0x3e0e2373	0.1388071
104	0x3d3fd6e6	0.046835802
105	0x3d00d908	0.031456977
106	0x3dbfa27d	0.09357164
107	0x3d155c67	0.036465075
108	0xbcb378d1	-0.021908196
109	0x3de989ba	0.114032224
110	0x3def1c09	0.11675269
111	0xbd8e6a15	-0.06953827
112	0xbe3f98b4	-0.18710595
113	0xbd0042d1	-0.03131372
114	0xbe4e37c3	-0.20138459
115	0x3ed8b048	0.42321992
116	0xbf391fdc	-0.7231424
117	0x3b661c42	0.0035112058
118	0xbe242766	-0.16030654
119	0xbe16f5cf	-0.14742206
120	0x3eb42baf	0.35189578
121	0x3e815a6f	0.25264308
122	0x3d72d87a	0.05928848
123	0x3dde84c9	0.108651705
124	0x3dbc058e	0.09180747
125	0xbda87090	-0.082245946
126	0x3c1c495b	0.009538974
127	0x3dd02645	0.10163549
128	0xbdc83b05	-0.09776882
129	0xbdebe575	-0.11518375
130	0xbe12d1bc	-0.1433782
131	0x3cf48d08	0.029852405
132	0x3d182b50	0.03715068
133	0xbe9dd22b	-0.30824408
134	0x3ce1b65d	0.027552778
135	0x3e84f6bf	0.25969502
136	0x3da87542	0.0822549
137	0xbe4f0fe8	-0.20220912
138	0x3d46721d	0.04844867
139	0xbf3ee30f	-0.74565214
140	0xbfcbe459	-1.5929061
141	0x3d66b596	0.056325518
142	0x3e23c960	0.15994787
143	0xbde76737	-0.112989835
144	0x3eab5ea3	0.3347064
145	0x3e3e0bf2	0.18559244
146	0xbddd4fec	-0.108062595
147	0xbd1af283	-0.037828933
148	0x3e2ee2af	0.1707866
149	0xbdb4a1ad	-0.088199
150	0x3d92c9da	0.071674064
151	0x3c31de90	0.010856286
152	0xbdf3d914	-0.11906639
153	0xbd1bc6b8	-0.03803131
154	0xbcdede9c	-0.027205758
155	0xbe1e4b07	-0.15458308
156	0xbe1fc98a	-0.15604225
157	0x3c10c02b	0.008834879
158	0x3e1c3213	0.15253477
159	0xbd0ba598	-0.03409347
160	0xbdfcef6b	-0.12350353
161	0x3f2225fb	0.63339204
162	0xbf2a3400	-0.66485596
163	0xbe4677e7	-0.19381677
164	0x3d52b859	0.05144534
165	0x3e407212	0.18793514
166	0x3d4ea097	0.05044612
167	0xbee3abf5	-0.4446713
168	0x3d0c62aa	0.03427378
169	0xbb878968	-0.004136253
170	0xbe97d926	-0.2965786
171	0xbdc2a68d	-0.09504423
172	0x3da3ff81	0.08007718
173	0xbd781b9a	-0.060573198
174	0xbca916c0	-0.02064073
175	0xbd9759d6	-0.07390182
176	0xbdfc9096	-0.12332265
177	0x3d8ffeb9	0.07031006
178	0x3e426bc4	0.18986422
179	0x3d7a994f	0.061181363
180	0xbdfcf788	-0.123519
181	0x3c27b5e1	0.010236234
182	0x3e675572	0.22591189
183	0xbd712dad	-0.05888145
184	0x3ea66fdf	0.32507226
185	0xbe80aec2	-0.2513333
186	0xbdbb0be8	-0.0913313
187	0x3dc5eedc	0.096646994
188	0xbd63feab	-0.055662792
189	0x3df2e719	0.11860485
190	0x3ba24a18	0.0049526803
191	0xbec15326	-0.3775875
192	0x3efe1167	0.49622652
193	0x3ebb204d	0.3654808
194	0xbcca570b	-0.024699708
195	0xbda936ce	-0.08262406
196	0x3d37c17b	0.04486225
197	0xbda5b08b	-0.080903135
198	0x3dcbb1ac	0.099459976
199	0x3da37edf	0.07983183
200	0xbd33c490	-0.04388863
201	0xbe02540f	-0.12727378
202	0xbe887526	-0.26651877
203	0xbd8a4dc8	-0.06753117
204	0xbd013547	-0.03154495
205	0x3e0a98e5	0.13534887
206	0x3d8df47f	0.069313996
207	0x3de0d9f3	0.109790705
208	0x3d3d05a4	0.046147957
209	0xbdcbc400	-0.099494934
210	0xbe9ddde7	-0.3083336
211	0xbd7714a1	-0.060322408
212	0xbe7a5c8c	-0.24449366
213	0x3d9678c7	0.07347255
214	0xbdd27f82	-0.102782264
215	0x3e614657	0.21999489
216	0xbdba5428	-0.09098083
217	0xbe1d9c1d	-0.15391584
218	0x3d1b43ab	0.03790633
219	0x3d7f355f	0.062306758
220	0x3cf0062b	0.029299816
221	0xbdfa4a9f	-0.12221264
222	0x3df3c6e7	0.11903172
223	0x3daf6fe0	0.0856626
224	0xbb488848	-0.0030598808
225	0x3dc03a79	0.09386153
226	0xbe0010bc	-0.12506384
227	0x3e51c3d4	0.20484859
228	0x3dc6a785	0.096999206
229	0x3dc43beb	0.09581741
230	0x3f3768f6	0.7164453
231	0x3ebe54cc	0.3717407
232	0x3ed83522	0.42228037
233	0x3d80418d	0.06262503
234	0xbe686469	-0.22694553
235	0xbef79f79	-0.48363855
236	0xbe89047d	-0.26761237
237	0xbead2439	-0.33816698
238	0xbeed292d	-0.46320477
239	0x3e587aaf	0.2114055
240	0x3d7f3348	0.062304765
241	0xbac44f83	-0.001497731
242	0xbdd7cc31	-0.10536993
243	0xbe1d6a10	-0.15372491
244	0x3e5a17f8	0.21298206
245	0x3dcd29d9	0.100177474
246	0x3d2b1cf7	0.04177567
247	0x3e134748	0.1438266
248	0xbcd1b2ff	-0.025598047
249	0xbe490df2	-0.19634226
250	0xbe3e7064	-0.18597561
251	0xbd9aa099	-0.07550163
252	0xbc831775	-0.016002396
253	0xbf3b44a7	-0.7315163
254	0xb9ec8cb1	-0.0004511825
255	0xbe75cf24	-0.24004799

layers.0.bias f4 [128]
0	0xbd87fcfc	-0.0664005
1	0x3e9201d3	0.28517017
2	0x3d0b119d	0.033952344
3	0x3cb8a7ea	0.022541005
4	0x3ebd2449	0.36941746
5	0x3f1339f4	0.57510304
6	0xbbe3de9f	-0.0069540287
7	0x3e53aa3b	0.20670407
8	0x3e99b402	0.30020148
9	0x3e3aeecf	0.18255161
10	0xbd8821cb	-0.066470705
11	0x3e42d555	0.19026692
12	0x3e788677	0.24270044
13	0xbe8b16de	-0.27165884
14	0xbe92a702	-0.28643042
15	0xbe1d65ca	-0.1537086
16	0xbb9c3012	-0.0047664726
17	0x3f000ca9	0.5001932
18	0x3ede9532	0.43473202
19	0x3db700c5	0.08935694
20	0x3ef99996	0.4874999
21	0x3eabd916	0.3356406
22	0x3ea0447c	0.3130225
23	0xbe8f1ae5	-0.27950206
24	0x3ed2a9a8	0.41145062
25	0x3dce2cdc	0.1006715
26	0xbe663466	-0.22480926
27	0x3f048566	0.5176605
28	0x3ed8e695	0.4236342
29	0x3e97533e	0.29555696
30	0x3f200735	0.62511
31	0xbf073bda	-0.528257
32	0x3ea21475	0.31656232
33	0xbed7d621	-0.42155555
34	0xbe007bbf	-0.12547205
35	0xbef527a5	-0.4788181
36	0xbd4a0338	-0.049319476
37	0x3e1d99dd	0.15390725
38	0xbef6ee86	-0.48228854
39	0x3ecc78db	0.39935955
40	0x3ed6ca0b	0.41951022
41	0x3e97b561	0.2963057
42	0x3e03551f	0.1282544
43	0x3f252b5d	0.6451929
44	0xbe8f2177	-0.2795522
45	0x3f3190d0	0.6936159
46	0x3e183f93	0.14868002
47	0xbdc7de4f	-0.09759199
48	0xbd887d2d	-0.066645004
49	0x3e7c5861	0.24643089
50	0x3e13955c	0.14412445
51	0xbde47b82	-0.1115637
52	0xbd7b1fa0	-0.061309457
53	0x3f4e7987	0.80654186
54	0xbddfc678	-0.10926527
55	0x3ec6f622	0.3885966
56	0x3e011513	0.12605695
57	0xbd81cec7	-0.06338268
58	0xbe6b65ca	-0.22988048
59	0xbdf4d572	-0.11954774
60	0x3e2629a0	0.16226816
61	0x3e551354	0.20808154
62	0x3eb47639	0.35246447
63	0xbe2f4c52	-0.17118958
64	0xbe81379c	-0.2523774
65	0x3cea7ac4	0.028622992
66	0xbe823bdd	-0.25436297
67	0xbe2f405c	-0.17114395
68	0xbeba45af	-0.3638129
69	0x3ee44bb7	0.44589016
70	0x3ec29c25	0.38009754
71	0xbbfce497	-0.0077176797
72	0xbebd6e07	-0.36998007
73	0xbe8913af	-0.2677283
74	0xbeddc88c	-0.43317068
75	0xbe63cb5f	-0.22245549
76	0xbea34d61	-0.31894973
77	0xbe2a0673	-0.16604023
78	0x3eca1eb3	0.39476547
79	0xbdc50e6d	-0.09621892
80	0xbd98a52c	-0.07453379
81	0xbe92defb	-0.28685746
82	0xbd50e4f5	-0.0509996
83	0xbe4e9278	-0.20173061
84	0xbea47118	-0.32117534
85	0xbccba814	-0.02486042
86	0xbe47e328	-0.19520247
87	0x3e9afbc5	0.3027021
88	0x3e89947c	0.26871097
89	0x3e476242	0.19471076
90	0xbd3eb645	-0.046560545
91	0x3f0693ec	0.5256946
92	0x3ee9dfa3	0.45678434
93	0x3d739285	0.059465904
94	0x3f0c9735	0.54918224
95	0xbe9718eb	-0.29511198
96	0xbe054345	-0.13013943
97	0xbeb29083	-0.3487588
98	0x3de1a2ae	0.11017357
99	0x3f02e61c	0.5113237
100	0xbe7cc2bf	-0.24683665
101	0x3f108917	0.5645918
102	0xbd5fc558	-0.05463156
103	0xbd0aa3d2	-0.033847637
104	0xbe1bc2e7	-0.15211068
105	0xbec36529	-0.38163117
106	0xbce6f756	-0.02819411
107	0x3f165e1f	0.5873737
108	0x3f3a090f	0.7267007
109	0x3df1d3bc	0.11807963
110	0x3dbe803e	0.09301804
111	0x3e6b7bac	0.22996396
112	0x3edfd1f8	0.4371488
113	0x3ed9ea5b	0.42561612
114	0x3f150b70	0.5822058
115	0x3d6e372c	0.058158085
116	0x3f136ed6	0.57591
117	0x3d4b8001	0.04968262
118	0x3ed0a2be	0.40749162
119	0xbdd94714	-0.1060926
120	0xba1c49c5	-0.000596192
121	0x3df5ee8a	0.12008388
122	0xbecb102f	-0.39660785
123	0x3f231d69	0.6371675
124	0xbedecabb	-0.43514046
125	0x3e2b8d56	0.16753134
126	0xbef26a53	-0.47346744
127	0xbeb29290	-0.34877443

layers.1.weight f4 [128, 128]
0	0xbd41f19d	-0.04734956
1	0xbcf7e422	-0.03026015
2	0xbd4bdea8	-0.04977289
3	0xbc592af7	-0.0132548725
4	0x3c70bd20	0.014693528
5	0x3c8910a2	0.016731564
6	0x3d2a64d2	0.041600056
7	0xbd8eb111	-0.069673665
8	0x3cf986e8	0.030459836
9	0x3c41f40b	0.0118379695
10	0x3d820a33	0.063496016
11	0xbb77de22	-0.003782161
12	0x3d24f88a	0.040276088
13	0x3de35b03	0.111013435
14	0x3e043348	0.12910187
15	0x3cbbaf2c	0.022910677
16	0x3d22201e	0.03958141
17	0x3d34ca05	0.044137973
18	0x3cd5521a	0.026040126
19	0x3dcf91dc	0.10135242
20	0xbc30be31	-0.010787533
21	0xbdaeabbe	-0.08528851
22	0x3d076301	0.0330534
23	0x3d19c152	0.03753788
24	0xbd870298	-0.065922916
25	0x3cb6632c	0.022264086
26	0x3d9b341f	0.07578301
27	0x3c8ae1ee	0.016953435
28	0xbd90aeb4	-0.07064572
29	0xbe415436	-0.1887978
30	0xbd906c91	-0.070519574
31	0xbd6998b3	-0.05703039
32	0x3b237bb9	0.002494557
33	0x3d2e0d5f	0.04249322
34	0x3da3567d	0.07975481
35	0x3db819ee	0.08989321
36	0x3db36a86	0.08760552
37	0xbdac7a32	-0.084217444
38	0xbb271c5c	-0.0025499081
39	0xbdb92402	-0.09040071
40	0x3cb8aedf	0.022544323
41	0x3d93f08a	0.072236136
42	0x3d436968	0.047707945
43	0xbc4e61d1	-0.012596563
44	0x3d8a55c0	0.06754637
45	0xbcb738d2	-0.022365961
46	0xbb9566a0	-0.004559353
47	0xbd153d81	-0.036435608
48	0x3cc5129d	0.024056727
49	0x3bae5355	0.0053199925
50	0x3d2724fe	0.040806763
51	0x3d549ad5	0.05190547
52	0x3c449d08	0.01200033
53	0xbcb88e1f	-0.022528706
54	0x3da6552a	0.081217125
55	0xbd092736	-0.03348466
56	0x3c55ebeb	0.0130567355
57	0x3d5cc70b	0.05390076
58	0x3dae4858	0.08509892
59	0xbaf2957d	-0.0018507686
60	0x3cefb974	0.029263236
61	0x3d91b1ec	0.07114014
62	0x3dba41c4	0.09094575
63	0xbdcae4ac	-0.09906897
64	0xbd57e326	-0.05270686
65	0x3cee4add	0.029088432
66	0xbd6e0e98	-0.058119386
67	0xbd0fcfd0	-0.035110295
68	0xbceca6a8	-0.028888062
69	0x3c5fc916	0.0136587825
70	0xbb9690ff	-0.0045949216
71	0x3be2c820	0.0069208294
72	0x3d83af16	0.06429879
73	0xbd6a70e2	-0.05723656
74	0x3b340cc8	0.0027473439
75	0x3d598ac7	0.053110864
76	0x3d4a119d	0.049333204
77	0xbb902f60	-0.004400179
78	0x3d032b39	0.032023642
79	0x3d851906	0.064989135
80	0x3d274f13	0.040846895
81	0xbcb3a34e	-0.021928456
82	0xbca32a79	-0.019917713
83	0xbd894e15	-0.06704346
84	0xbda1d478	-0.07901853
85	0x3c52da06	0.012869364
86	0xbbe26b37	-0.0069097537
87	0xbdadbbd1	-0.08483089
88	0x3d620f41	0.05519033
89	0x3c84a12b	0.016190132
90	0xbd14ffa3	-0.036376607
91	0xbce51575	-0.027964333
92	0xbd824ef2	-0.06362714
93	0xbdb86474	-0.09003535
94	0xbd544367	-0.051822092
95	0x3d77d05e	0.06050145
96	0x3df27b37	0.118399076
97	0x3ea5a1d0	0.32350016
98	0xbd9c0bf7	-0.076194696
99	0x3c8733c0	0.016504169
100	0xbd2b34cf	-0.04179841
101	0x3cc50b6d	0.0240533
102	0xbd1f9ea8	-0.038969666
103	0xbcb448a1	-0.022007288
104	0xbc9b1df1	-0.018935176
105	0x3d8f6e63	0.070034765
106	0xbc8b0429	-0.016969757
107	0xbca98fe2	-0.020698491
108	0x3c96616a	0.018356998
109	0x3d552b3d	0.05204319
110	0xbdac3ef9	-0.084104486
111	0x3cbd5687	0.023112549
112	0x3e43b9e0	0.19113874
113	0x3d686b92	0.056743212
114	0x3d928b93	0.07155528
115	0x3d9678cd	0.0734726
116	0x3d5a9063	0.053360354
117	0xbe1f64dc	-0.15565819
118	0xbd877ed1	-0.06615985
119	0x3cf60801	0.030033113
120	0x3d4c812c	0.049927875
121	0x3cdc2cef	0.026876895
122	0x3ddc99d0	0.10771525
123	0x3d314e91	0.043287817
124	0xbc6e05ee	-0.014527781
125	0xbc03f1bc	-0.008053239
126	0xbc459d0b	-0.012061368
127	0x3acc9943	0.001560964
128	0xbda52918	-0.08064479
129	0xbeec1af7	-0.46114323
130	0xba8321f7	-0.0010004629
131	0x3da79c87	0.08184152
132	0x3c3f48fb	0.011675115
133	0x3d858b50	0.065207124
134	0xbb6a6eea	-0.0035771676
135	0x3db3df45	0.0878282
136	0x3d166659	0.0367187
137	0x3d06400a	0.032775916
138	0xbd8d7567	-0.06907158
139	0xbd8806db	-0.066419326
140	0xbcd1cddd	-0.025610859
141	0x3c783f84	0.015151862
142	0xbc3143ac	-0.010819357
143	0xbd8415e0	-0.06449485
144	0x3d95b235	0.07309381
145	0xbd33801d	-0.04382335
146	0xbccf5efe	-0.02531385
147	0x3c12dcbd	0.008963761
148	0x3dd9845b	0.10620948
149	0x3cf03a06	0.029324543
150	0xbd0455dd	-0.032308448
151	0x3c39c986	0.011339551
152	0x3d92a554	0.0716044
153	0xbdbf5850	-0.09343016
154	0x3d38db22	0.045130856
155	0x3d47b1a4	0.048753396
156	0xbcda74d7	-0.026667042
157	0xbd8791be	-0.06619595
158	0xbda9b6a4	-0.08286789
159	0xbd77a1e6	-0.060457133
160	0x3d2d1412	0.04225547
161	0xbdcd0788	-0.10011202
162	0xbd0b3448	-0.033985406
163	0xbdaa49cf	-0.08314859
164	0x3d7b725d	0.061388362
165	0x3d479982	0.04873038
166	0x3d3afae4	0.045649424
167	0x3d892414	0.066963345
168	0x3e130db4	0.14360696
169	0x3d0bd8fe	0.034142487
170	0x3db28bd0	0.08718073
171	0xbd0f28bb	-0.034950953
172	0x3c878071	0.016540738
173	0x3dad5141	0.084627636
174	0xbd9ce07d	-0.07660005
175	0xbd8f7406	-0.070045516
176	0x3dc83603	0.09775927
177	0x3d6d5537	0.057942595
178	0xbdb51ee9	-0.08843786
179	0xbceb61ce	-0.02873316
180	0xbe30f29c	-0.17280048
181	0x3d77b61d	0.06047641
182	0xbd63b622	-0.055593617
183	0xbd8e166b	-0.0693787
184	0x3dc4b9a0	0.09605718
185	0x3da230cf	0.07919466
186	0x3d48e566	0.049046896
187	0xbbdca97b	-0.006734071
188	0xbcaaec4e	-0.020864632
189	0x3da2fe45	0.07958654
190	0x3d6b5820	0.05745709
191	0x3d034e1c	0.032056913
192	0x3d22cdfe	0.03974723
193	0xbd259b31	-0.040431205
194	0xbd33aab9	-0.043863986
195	0x3d29af89	0.04142717
196	0x3d1699ed	0.03676789
197	0x3dadad0d	0.084802724
198	0xbc2acb6f	-0.010424479
199	0x3c9c6235	0.019089798
200	0x3c5d0bd4	0.01349159
201	0xbd8b91f5	-0.068149485
202	0x3d39f27f	0.045397278
203	0xbcf84a04	-0.03030873
204	0x3da31451	0.079628594
205	0xbe046140	-0.12927723
206	0xbcd376bd	-0.025813455
207	0xbd08db5c	-0.033412322
208	0xbc9e7f10	-0.019347697
209	0xbbee62da	-0.0072749676
210	0x3c8c1b63	0.017102903
211	0xbc6049c1	-0.013689459
212	0xbdeff0b3	-0.117158316
213	0x3d714609	0.05890468
214	0xbd94bcc9	-0.072625704
215	0xbc498b0f	-0.012301221
216	0xbc037bc6	-0.008025115
217	0x3bedf3f1	0.007261746
218	0x3aa8344d	0.001283297
219	0x3d11a17a	0.035554387
220	0x3c1f33db	0.009716953
221	0xbd82e05e	-0.06390451
222	0x3d64ba9a	0.05584202
223	0xbd5c9703	-0.053854953
224	0xbdaad645	-0.0834165
225	0xbdfb42d8	-0.12268609
226	0xbd51e863	-0.051247012
227	0x3da3c2d8	0.07996148
228	0xbcab81ba	-0.020935882
229	0x3cc0ea87	0.023549331
230	0x3d0e6c80	0.034771442
231	0x3d8cde69	0.06878359
232	0x3d37e7ae	0.04489868
233	0xbcc07620	-0.023493826
234	0xbd5db67f	-0.05412912
235	0xbe18a4d5	-0.14906628
236	0x3c680012	0.014160173
237	0x3b4eadb5	0.0031536643
238	0xbd37e122	-0.044892438
239	0x3d43432d	0.047671486
240	0xbe51c3f0	-0.204849
241	0x3d3dcae4	0.04633607
242	0xbc6787f6	-0.014131537
243	0xbd70bdf4	-0.058774903
244	0x3db370a8	0.08761722
245	0xbdcea43a	-0.100899175
246	0x3b9e63d9	0.00483368
247	0x3d20c64f	0.03925162
248	0xbc4f537a	-0.01265418
249	0x3dc7f73c	0.09763953
250	0xbc446f86	-0.01198948
251	0xbe18e3a1	-0.14930584
252	0x3c1ab829	0.009443321
253	0xbe20c07a	-0.15698424
254	0xbd70b6aa	-0.058767952
255	0xbd547250	-0.05186683

layers.1.bias f4 [128]
0	0xbea4d000	-0.3218994
1	0x3e9dc1d9	0.30811957
2	0xbe6e594c	-0.23276252
3	0xbe2dd292	-0.16974857
4	0x3ea410fc	0.32044208
5	0x3e54a11a	0.2076458
6	0x3d7d8a5b	0.061899524
7	0x3eb58f52	0.35460907
8	0x3f0e177e	0.55504596
9	0xbeaf2159	-0.3420513
10	0xbe93652e	-0.2878813
11	0xbe716657	-0.23574196
12	0x3ea8af34	0.3294617
13	0x3e333c0f	0.1750338
14	0xbe6d8cea	-0.23198286
15	0x3e1fa85c	0.15591568
16	0xbe98cbb5	-0.29842916
17	0xbea1430c	-0.31496465
18	0x3e9201de	0.2851705
19	0xbe795301	-0.2434807
20	0x3eda397d	0.42621985
21	0x3e54d0a8	0.20782721
22	0xbe45d1a8	-0.19318259
23	0xbe2568e2	-0.16153291
24	0x3e9486a4	0.29008973
25	0x3ec6d41b	0.388337
26	0xbd28ed68	-0.041242033
27	0x3f0172c8	0.5056577
28	0x3e023c0d	0.1271822
29	0xbcd2e486	-0.025743734
30	0xbb8e56d6	-0.0043438477
31	0xbb222a80	-0.002474457
32	0x3ece7f08	0.40331292
33	0xbed64d48	-0.41855836
34	0xbe810798	-0.25201106
35	0x3eb90368	0.3613541
36	0xbe2446c3	-0.16042618
37	0x3b00140e	0.0019543204
38	0x3e9ccc1e	0.3062448
39	0xbeb183d7	-0.34670898
40	0x3e6432af	0.2228496
41	0xbebc1a1b	-0.36738667
42	0x3eb71030	0.35754538
43	0x3ebd1bec	0.36935365
44	0x3ec37807	0.3817751
45	0x3ed309bf	0.41218373
46	0xbe6b7462	-0.22993615
47	0xbe862bf2	-0.26205403
48	0xbd990ecc	-0.074735254
49	0x3dc4341e	0.09580253
50	0x3e93a530	0.28836966
51	0xbec22558	-0.37919116
52	0x3ecacf7d	0.39611426
53	0xbeb73fc5	-0.3579084
54	0x3eafd2f7	0.3434064
55	0xbebbe761	-0.36699966
56	0x3e9a9796	0.30193776
57	0xbe340500	-0.17580032
58	0xbe5d37b0	-0.21603274
59	0x3d206258	0.039156288
60	0xbe9e5478	-0.3092382
61	0xbe8f17d9	-0.27947882
62	0xbe9337de	-0.2875356
63	0x3e35c718	0.1775173
64	0x3ec590de	0.38587087
65	0x3d9e786e	0.07737814
66	0x3ef4a037	0.47778484
67	0xbebead99	-0.3724182
68	0x3d871559	0.065958686
69	0x3e7632ca	0.24042812
70	0x3e5f455b	0.21803801
71	0x3d54299a	0.051797487
72	0x3ea97163	0.3309432
73	0x3e63d5b0	0.22249484
74	0x3e1eb5e4	0.15499073
75	0x3dfe2cdc	0.124109
76	0x3d989275	0.074498095
77	0xbe84c1ce	-0.2592911
78	0xbec75d2c	-0.38938272
79	0xbe53fc9c	-0.20701832
80	0x3d814696	0.06312291
81	0x3ea25a3f	0.31709477
82	0x3ee1bda7	0.44090006
83	0x3ea7014f	0.32618186
84	0x3e788a53	0.24271517
85	0x3ee3883b	0.44439873
86	0xbe92a0a2	-0.28638178
87	0xbeaa1725	-0.33220783
88	0x3e935a1f	0.28779694
89	0xbd7a7304	-0.061144844
90	0xbe8657c1	-0.26238826
91	0x3ef4e2b5	0.47829214
92	0x3e455131	0.19269253
93	0xbe5ca3ec	-0.21546906
94	0xbe5b43f3	-0.2141264
95	0xbe05340e	-0.13008139
96	0x3ed86ee3	0.422721
97	0xbdb90ecc	-0.090360254
98	0x3b0b9436	0.0021298057
99	0xbe88ab92	-0.26693398
100	0xbe7e7e9f	-0.2485299
101	0x3ec24c98	0.3794906
102	0x3eab34ad	0.33438626
103	0x3edd9d45	0.4328405
104	0xbebc4573	-0.36771736
105	0x3eafc790	0.34331942
106	0x3ee1925a	0.4405697
107	0x3e59f43b	0.21284573
108	0x3ef47442	0.47744948
109	0x3e936eac	0.28795373
110	0xbe923da1	-0.28562644
111	0xbdca8fb8	-0.098906934
112	0xbe2708bb	-0.16311924
113	0x3f06f76f	0.52721304
114	0xbe375c8c	-0.17906398
115	0xbe8de956	-0.27717084
116	0xbe650da5	-0.22368486
117	0xbe28f5c9	-0.1650001
118	0x3db818fb	0.0898914
119	0xbeb615d9	-0.35563543
120	0xbeb136d5	-0.34612146
121	0xbec27a23	-0.37983808
122	0xbe6ebcb0	-0.23314166
123	0x3f03bbc0	0.5145836
124	0x3be44f18	0.0069674365
125	0xbe87c076	-0.26514024
126	0xbe0582f6	-0.13038239
127	0xbe81f139	-0.2537935

layers.2.weight f4 [64, 128]
0	0xbe6b6a43	-0.22989754
1	0x3cdc4717	0.026889367
2	0xbf7df8c4	-0.9920771
3	0x3c9e1f82	0.019302133
4	0x3d980a74	0.07423869
5	0x3e448633	0.19191818
6	0x3e2ee899	0.17080916
7	0x3dc47782	0.09593107
8	0x3dd4cc9c	0.10390589
9	0xbf9fc54e	-1.2482088
10	0xbebc8344	-0.36818898
11	0xbd96b577	-0.073588304
12	0x3b23c14e	0.0024987045
13	0xbb5e6c0c	-0.0033938913
14	0xbc4a84b6	-0.012360742
15	0x3e90a6d9	0.28252295
16	0xbe1c72dc	-0.1527819
17	0xbb753a1a	-0.0037418664
18	0xbd87af83	-0.06625273
19	0xbe183db3	-0.14867286
20	0x3cad7f2b	0.021178802
21	0xbda00e29	-0.07815201
22	0xbe469bee	-0.1939542
23	0xbe53a397	-0.20667873
24	0xbe43959f	-0.19100045
25	0xbd2116a8	-0.039328247
26	0xbe8c4271	-0.2739444
27	0x3efeb161	0.49744704
28	0xbd5d024c	-0.05395727
29	0xbe74576f	-0.23861478
30	0xbdc91950	-0.09819281
31	0x3dbb59b5	0.0914797
32	0x3dbd161a	0.09232731
33	0x3c81920c	0.01581671
34	0x3d54e8a1	0.051979665
35	0x3e0bb65a	0.1364378
36	0xbd9dac19	-0.07698841
37	0x3eae7452	0.3407312
38	0x3de2a6db	0.110669814
39	0xbf35d2a2	-0.71024525
40	0x3e024dc8	0.12724984
41	0xbeb21ea0	-0.3478899
42	0xbd91f27b	-0.071263276
43	0x3e48dfde	0.19616649
44	0x3d05a902	0.03263188
45	0x3d4c60e1	0.04989708
46	0xbd8c1ac4	-0.06841043
47	0x3e004d5d	0.12529512
48	0xbd6fe992	-0.05857236
49	0xbbcee074	-0.006313378
50	0x3e891542	0.2677403
51	0xbbabbec8	-0.0052412488
52	0x3d4e59d6	0.050378643
53	0xbeb7e5b6	-0.35917443
54	0x3d89c03f	0.06726121
55	0xbdc1f7cf	-0.09471094
56	0xbd9d248f	-0.076729886
57	0x3e0709a8	0.13187277
58	0xbd903942	-0.07042171
59	0xbdc8c0ec	-0.09802422
60	0xbda46aa1	-0.0802815
61	0xbddc2c7b	-0.107506715
62	0xbd89f4d7	-0.067361526
63	0x3ecf6036	0.4050309
64	0x3ced9e91	0.029006274
65	0x3e270e55	0.16314061
66	0x3db3bd71	0.087763675
67	0xbfa1e8da	-1.2649186
68	0x3df8d3a0	0.12149739
69	0xbd88cc6f	-0.066796176
70	0x3e3342ba	0.17505923
71	0xbec1f51e	-0.37882322
72	0x3e04583a	0.12924281
73	0xbdc25f3c	-0.09490821
74	0x3e2c4604	0.16823584
75	0x3d58fe57	0.052976932
76	0x3d885a3d	0.066578366
77	0xbf033219	-0.5124832
78	0x3d62a0f4	0.055329278
79	0x3bb0a568	0.0053908117
80	0x3def2296	0.116765186
81	0x3da7dfcd	0.081969835
82	0x3e11169f	0.14168786
83	0xbd8e7568	-0.06955987
84	0x3eb91692	0.36150032
85	0x3df7844b	0.1208578
86	0x3e566187	0.20935641
87	0xbdbc1d54	-0.091852814
88	0x3d6bcc6e	0.057568006
89	0xbe223eee	-0.15844318
90	0xbdd37765	-0.10325507
91	0x3ddbdbe1	0.10735298
92	0xbde548fc	-0.11195561
93	0xbe1169e7	-0.14200555
94	0x3dd29d4f	0.102839105
95	0x3d80be6a	0.062863186
96	0x3bb61115	0.0055562356
97	0xbd3fa3f7	-0.04678723
98	0x3ced75a0	0.028986752
99	0xbcd6a752	-0.026202831
100	0xbdc866d3	-0.09785237
101	0x3cd29781	0.025707008
102	0x3c6025ce	0.013680888
103	0x3d839d05	0.064264335
104	0xbda3d43c	-0.07999465
105	0xba0a2fb3	-0.000527139
106	0xbd9db196	-0.076998875
107	0x3dd7d48a	0.105385855
108	0xbca79cf0	-0.020460576
109	0x3d428f19	0.04749975
110	0xbe3b2a80	-0.18277931
111	0x3e2db077	0.16961847
112	0xbccdbb3c	-0.025113694
113	0x3d107091	0.0352636
114	0xba552c61	-0.0008131918
115	0x3bdbb64f	0.0067050825
116	0x3d159230	0.03651637
117	0x3df06aa8	0.11739093
118	0x3e5689ca	0.20951
119	0xbd9bacf9	-0.07601351
120	0x3db07d48	0.086176455
121	0xbf94f141	-1.1636125
122	0xbc9b5780	-0.018962622
123	0x3cab3ab0	0.020902008
124	0x3cd4d860	0.025982082
125	0x3d038ec2	0.032118566
126	0x3b76085d	0.0037541606
127	0x3df33b02	0.11876489
128	0xbd3d9fac	-0.046294853
129	0x3d950704	0.07276729
130	0xbe9ed9e1	-0.31025603
131	0xbd93a2fe	-0.07208823
132	0x3e2c3803	0.16818242
133	0x3d211f5e	0.039336555
134	0x3cbeb114	0.023277797
135	0x3e09359e	0.1339936
136	0x3dee8b0e	0.11647616
137	0xbe4b5032	-0.19854811
138	0xbd60170a	-0.05470947
139	0xbdb62271	-0.08893288
140	0x3c93c543	0.018038398
141	0x3defc1d3	0.11706891
142	0xbd01747a	-0.03160522
143	0x3e7a6d7b	0.24455826
144	0xbc95ea77	-0.018300278
145	0xbd32f8de	-0.04369437
146	0x3d157f00	0.03649807
147	0xbd9e15a1	-0.07718969
148	0x3d4fcef4	0.050734475
149	0x3e10b062	0.14129785
150	0xbe2757fa	-0.16342154
151	0xbe14359f	-0.1447358
152	0x3d3bcac8	0.045847684
153	0xbd005198	-0.031327814
154	0xbe289598	-0.16463315
155	0x3ec29a55	0.3800837
156	0x3e0d46ea	0.13796583
157	0xbe25853b	-0.16164105
158	0x3af7ddeb	0.0018910741
159	0x3dae131a	0.08499737
160	0x3cae67e0	0.021289766
161	0xbe1a5ca5	-0.15074404
162	0xbda70140	-0.08154535
163	0xbb5eae04	-0.0033978233
164	0xbe746566	-0.23866805
165	0x3e53f2c6	0.2069808
166	0x3dec84b1	0.115487464
167	0xbe1bc6fc	-0.15212625
168	0x3d992866	0.074784085
169	0xbf2d5a3e	-0.67715824
170	0xbcf0bd7d	-0.02938723
171	0x3e5d06f9	0.21584691
172	0x3d8b19be	0.06792019
173	0x3df9eb99	0.1220314
174	0xbc4ab25a	-0.012371624
175	0xbdca90bc	-0.09890887
176	0xbdc860b2	-0.09784068
177	0xbd9d4420	-0.076790094
178	0x3df2593e	0.11833428
179	0xbccde717	-0.025134606
180	0x3e00e2b4	0.1258648
181	0xbd91b1ff	-0.07114028
182	0x3cb6f550	0.022333771
183	0xbd3dc69a	-0.04633198
184	0x3d9421cc	0.07233009
185	0xbe013bfb	-0.12620537
186	0xbe8f4249	-0.2798026
187	0xbe9c0eb2	-0.30479962
188	0xbe80d67c	-0.2516364
189	0xbd57da15	-0.052698214
190	0xbd78b1b7	-0.060716357
191	0x3ee40bdc	0.44540298
192	0x3c5064b7	0.012719325
193	0x3d7324f0	0.0593614
194	0x3d61e86a	0.055153288
195	0xbd8564d4	-0.06513372
196	0xbd370b62	-0.04468859
197	0x3d2ac783	0.041694175
198	0x3dd55cc8	0.10418087
199	0xbea7a5c4	-0.32743657
200	0x3e469bae	0.19395325
201	0x3d8da0f9	0.06915469
202	0x3c35f28f	0.011105194
203	0xbc331dc5	-0.010932391
204	0xbc56e246	-0.013115471
205	0xbb2fa6dd	-0.002680234
206	0xbf7fa236	-0.9985689
207	0xbe0c67b7	-0.13711439
208	0x3da3fb76	0.08006947
209	0x3ddf5756	0.1090533
210	0x3de5ea1b	0.11226293
211	0xbbbabc57	-0.0056987214
212	0x3e83661d	0.25663844
213	0x3e3374b1	0.17524983
214	0xbe3dbdf7	-0.18529497
215	0xbe1ee054	-0.15515262
216	0x3d9c7590	0.07639611
217	0xbe7f7d4a	-0.24950138
218	0xbc960a89	-0.01831557
219	0xbd1b5844	-0.037925974
220	0x3de9010f	0.11377155
221	0xbd9a7d27	-0.07543402
222	0xbe5d15ea	-0.21590391
223	0xbdf2b76d	-0.11851392
224	0x3dca864a	0.09888895
225	0xbd90a849	-0.07063348
226	0xbd2a2a75	-0.041544396
227	0xbe15b7d5	-0.14620908
228	0xbce6e40d	-0.028184915
229	0x3d87bd23	0.06627872
230	0x3e1038bf	0.14084147
231	0x3d852d19	0.06502742
232	0xbf81d346	-1.01426
233	0x3ce22c01	0.027608873
234	0xbc3d7c12	-0.011565225
235	0x3ce8a32c	0.028398119
236	0xbbefd20c	-0.0073187407
237	0x3e087ae0	0.13328123
238	0xbe060cee	-0.1309087
239	0xbd02d290	-0.03193909
240	0xbd8e5972	-0.06950654
241	0x3d8df6db	0.069318496
242	0xbe5eb9e1	-0.21750595
243	0xbe0c25bd	-0.13686271
244	0xbca0462c	-0.01956471
245	0x3b922d44	0.0044609625
246	0x3e3b71f4	0.18305188
247	0x3de1be21	0.11022592
248	0xbd80e2bd	-0.06293247
249	0xbe8b7625	-0.27238575
250	0x3e3b0d0b	0.18266694
251	0x3de00a9a	0.10939522
252	0xbe699fa1	-0.228148
253	0x3d233785	0.03984787
254	0xbca8d465	-0.02060909
255	0xbe5b69e4	-0.21427113

layers.2.bias f4 [64]
0	0x3e312f67	0.17303239
1	0x3eaacee8	0.33360982
2	0x3e8f60dd	0.28003588
3	0xbe50d654	-0.2039426
4	0xbe897165	-0.26844326
5	0xbe95a80e	-0.29229778
6	0xbe8e8d34	-0.27842104
7	0x3ed6c894	0.41949904
8	0xbe83bf88	-0.25732064
9	0x3ec28bf7	0.3799741
10	0xbe2d24e6	-0.16908607
11	0xbe7a64fb	-0.24452583
12	0xbeaffd4e	-0.34372944
13	0x3e290818	0.16506994
14	0xbe854513	-0.26029262
15	0x3e81bf00	0.25341034
16	0xbe034cec	-0.12822312
17	0x3ec5e8b7	0.3865411
18	0x3edeb3f2	0.43496662
19	0x3eecf1d9	0.46278265
20	0xbe3f3b22	-0.18674901
21	0x3eae11a0	0.33997822
22	0xbe5b23bd	-0.21400352
23	0x3d645729	0.055747185
24	0xbe62ccb0	-0.22148395
25	0x3e9f65d6	0.31132382
26	0xbe3970e1	-0.18109466
27	0xbe600464	-0.21876675
28	0x3ebbd192	0.36683327
29	0xbe8ead14	-0.27866423
30	0xbe6ba852	-0.23013428
31	0xbe4800de	-0.19531581
32	0x3f02f308	0.51152086
33	0x3e8e851e	0.27835935
34	0x3eea3710	0.45745134
35	0xbe893826	-0.2680065
36	0xbe4c372f	-0.19942926
37	0xbe55e006	-0.2088624
38	0x3e938c9e	0.2881822
39	0x3ee60006	0.44921893
40	0x3ecc4137	0.39893505
41	0x3ee1efcf	0.44128272
42	0x3da22adb	0.0791833
43	0xbea79fd0	-0.32739115
44	0xbe627c0a	-0.2211763
45	0xbc9d1b32	-0.019178007
46	0xbd955983	-0.07292464
47	0x3eb3e405	0.35134903
48	0xbe5e017a	-0.21680251
49	0x3ee3baed	0.4447855
50	0xbe7023f8	-0.23451221
51	0xbc030dc6	-0.007998889
52	0xbe9d16b4	-0.30681384
53	0xbd9fa391	-0.0779487
54	0xbe9f67c0	-0.31133842
55	0xbe9492bf	-0.29018208
56	0x3edcd20d	0.43129006
57	0xbea6cdaf	-0.325788
58	0xbe3e6e2c	-0.18596715
59	0xbea9463e	-0.33061403
60	0x3ee5bddb	0.4487141
61	0xbe06d3e9	-0.13166775
62	0xbe674b50	-0.22587323
63	0xbe7c5c54	-0.24644595

readout.weight f4 [1, 64]
0	0x3f2b7912	0.66981614
1	0x3e90b13c	0.2826022
2	0x3ea38c53	0.31942996
3	0xbef511b3	-0.47865066
4	0xbe722743	-0.2364779
5	0xbebe945d	-0.37222567
6	0xbe32318b	-0.17401712
7	0x3e808546	0.2510168
8	0xbebe5128	-0.37171292
9	0x3e8e28d2	0.27765518
10	0xbe902562	-0.2815352
11	0xbe87b5fb	-0.26506028
12	0xbec0e428	-0.3767407
13	0x3edf0e00	0.4356537
14	0xbeac16ad	-0.3361105
15	0x3e582d04	0.21110922
16	0xbf3a8d7c	-0.7287214
17	0x3eaa30a9	0.3324025
18	0x3e950e24	0.2911235
19	0x3e872f70	0.2640338
20	0xbe6b1c29	-0.22959961
21	0x3e58b7a5	0.21163805
22	0xbe870959	-0.2637432
23	0x3ec05849	0.37567356
24	0xbe1f5440	-0.15559483
25	0x3edb5ae2	0.42842776
26	0xbe80768b	-0.2509044
27	0xbe7eb3cd	-0.24873276
28	0x3ed2fabf	0.4120693
29	0xbe2d0920	-0.16898012
30	0xbe3ea742	-0.18618491
31	0xbe7f9239	-0.24958123
32	0x3f0d62ca	0.55228865
33	0x3e52e178	0.20593822
34	0x3e7ceca4	0.24699646
35	0xbf202c82	-0.62567914
36	0xbe8e3e7a	-0.2778204
37	0xbe3680fb	-0.1782264
38	0x3e3914d5	0.18074353
39	0x3ebc6ea5	0.36803165
40	0x3e979950	0.29609156
41	0x3eaa8f00	0.33312225
42	0x3f4bddb1	0.7963515
43	0xbef0cc82	-0.47031027
44	0xbe418166	-0.18897018
45	0x3d7cb9d0	0.061700642
46	0x3d0283ac	0.031863853
47	0x3e580c9b	0.21098559
48	0xbe6a48a7	-0.22879277
49	0x3e792faf	0.24334596
50	0xbe309baa	-0.17246881
51	0x3ee681aa	0.450208
52	0xbeafd9fd	-0.34346
53	0x3dcedbd8	0.101005256
54	0xbe724e21	-0.23662616
55	0xbe99e304	-0.30056012
56	0x3ebc44f7	0.36771366
57	0xbeb6129c	-0.35561073
58	0xbe66641f	-0.2249913
59	0xbe66684d	-0.22500725
60	0x3ea70ca0	0.3262682
61	0xbe66f1e3	-0.2255321
62	0xbecbe4e3	-0.39823064
63	0xbe61803e	-0.22021577

layers.0.weight f4 [128, 17]
0	0x3fe91dad	1.8212181
1	0xbf2c6091	-0.6733485
2	0xbe0d5712	-0.13802746
3	0x3f12ee31	0.573947
4	0x3d95d42c	0.07315859
5	0xbd286462	-0.041111358
6	0xbdbfb5f4	-0.09360877
7	0x3e10a14c	0.1412403
8	0x3d6ef218	0.058336347
9	0x3e0d6c4d	0.13810845
10	0x3e8885e5	0.26664653
11	0x3dfe9263	0.12430265
12	0xbe2ad3f8	-0.16682422
13	0x3bd9bd86	0.0066449074
14	0x3e50a877	0.20376764
15	0xbe1e681d	-0.15469404
16	0x3e3ac061	0.18237449
17	0x3f363a0b	0.71182317
18	0x3f489eec	0.78367496
19	0x3d527c86	0.051388286
20	0xbe892eee	-0.26793617
21	0x3e2a1c6e	0.16612408
22	0xbe8a29e0	-0.26985073
23	0xbd7016c4	-0.05861546
24	0xbe05a9fa	-0.13053122
25	0xbf469a68	-0.77579355
26	0xbe4607e6	-0.1933895
27	0x3eda73c2	0.4266644
28	0xbe8b0c2e	-0.2715773
29	0x3d884e9d	0.06655619
30	0x3b8ed038	0.0043583177
31	0x3d331907	0.04372504
32	0xbcec89f8	-0.028874382
33	0xbda156ba	-0.0787787
34	0xbf4f4209	-0.80960137
35	0xbf325e58	-0.6967521
36	0xbed09071	-0.407352
37	0x3e3adc82	0.1824818
38	0x3d54e382	0.05197478
39	0x3eb0a70a	0.3450244
40	0x3ec7503c	0.389284
41	0xbced4c32	-0.028966997
42	0x3ed0d2b4	0.40785754
43	0x3e7161e2	0.23572496
44	0xbe6245e9	-0.22096981
45	0xbe934686	-0.28764743
46	0xbd850297	-0.064946346
47	0x3db65f70	0.08904922
48	0x3e0b6e8d	0.1361639
49	0xbe162d6a	-0.14665762
50	0xbe506948	-0.20352662
51	0x3fb5bae1	1.4197656
52	0xbe99137e	-0.29897684
53	0x3ee52cb0	0.44760656
54	0xbe204378	-0.15650737
55	0xbd94a3a0	-0.072577715
56	0xbe67c95c	-0.22635406
57	0xbf4d58df	-0.8021373
58	0xbe963cd0	-0.2934327
59	0xbe5c7206	-0.21527871
60	0xbe96ad3e	-0.29429048
61	0x3e7edd45	0.24889095
62	0xbe94c6a4	-0.290578
63	0xbe88cf08	-0.26720452
64	0xbe63bb8c	-0.22239512
65	0x3db6688f	0.08906662
66	0xbd55c98b	-0.05219416
67	0xbca1763a	-0.019709695
68	0xbcd0700c	-0.025444053
69	0x3f96f7c1	1.1794358
70	0x3e9b1f0c	0.30297124
71	0x3d55e670	0.052221715
72	0x3e2ce7d7	0.16885315
73	0xbf324131	-0.69630724
74	0xbe7d9bd8	-0.24766481
75	0xbdf91472	-0.12162103
76	0x3e4a1243	0.19733529
77	0xbee34c61	-0.4439421
78	0xbd9afdee	-0.075679645
79	0xbe8b9b10	-0.2726674
80	0x3e26841c	0.16261333
81	0xbde4925c	-0.11160728
82	0xbe96b74c	-0.2943672
83	0xbe1781b2	-0.14795569
84	0x3d9b4925	0.075823106
85	0xbe35b2b5	-0.17743953
86	0x3d15ceb9	0.0365741
87	0xbe2622fa	-0.1622428
88	0x3ede147c	0.43375003
89	0xbe13d8a0	-0.14438105
90	0xbde75f78	-0.11297506
91	0xbedd6c86	-0.4324686
92	0xbdd4d3ac	-0.10391936
93	0x3e0806a0	0.13283777
94	0x3d24e0c9	0.040253434
95	0x3e529ed5	0.20568402
96	0x3dd656c9	0.10465772
97	0xbc7f7021	-0.015590698
98	0x3d4a1cdb	0.049343925
99	0x3ecc27f9	0.39874247
100	0x3e0e45e3	0.13893847
101	0xbe4ba4fa	-0.19887152
102	0x3fbd16b1	1.477255
103	0xbf572c28	-0.8405175
104	0x396b8bea	0.00022463468
105	0x3d96770a	0.07346924
106	0xbd1138f3	-0.0354547
107	0x3d906646	0.07050757
108	0xbeaf31f2	-0.34217793
109	0xbf09c027	-0.53808826
110	0xbcfce85c	-0.030872516
111	0xbe910deb	-0.2833093
112	0x3ded9ca6	0.11602144
113	0xbb591099	-0.0033121465
114	0xbe210c80	-0.15727425
115	0x3d30d1f4	0.043168977
116	0x3e3e4ca9	0.18583931
117	0xbd3941c2	-0.045228727
118	0x3da81312	0.082067624
119	0x3ddb63e3	0.10712411
120	0xbe17db55	-0.14829762
121	0x3dbbfa97	0.091786556
122	0x3e9b6085	0.30347076
123	0x3ed00c3d	0.40634337
124	0x3eca0d4e	0.39463276
125	0xbe975bf0	-0.2956233
126	0x3f3254ca	0.6966063
127	0xbec75116	-0.3892905
128	0x3f7d67f0	0.9898672
129	0xbd35c1cf	-0.044374283
130	0x3e1fd628	0.15609038
131	0xbacf563e	-0.0015818549
132	0x3d509bb1	0.05092973
133	0x3eb6d73c	0.35711086
134	0xbea14a8d	-0.3150219
135	0x3d83cc6e	0.06435476
136	0x3f44e61e	0.7691363
137	0xbf907f50	-1.1288853
138	0xbe4dc2a6	-0.20093784
139	0x3e86ed50	0.2635293
140	0xbe3bd74e	-0.18343851
141	0x3ea29a31	0.31758264
142	0xbe5665e9	-0.20937313
143	0x3e8d2c65	0.27572933
144	0x3e5fee3d	0.21868224
145	0x3e11094a	0.141637
146	0x3ca06820	0.0195809
147	0x3d668206	0.056276344
148	0x3ca83222	0.020531718
149	0xbe91f788	-0.28509164
150	0x3e8fbf93	0.28075847
151	0xbbbfd73c	-0.0058545154
152	0xbdc2c212	-0.09509672
153	0xbf55e6a3	-0.8355505
154	0x3f33b1e9	0.70193344
155	0x3e4544be	0.19264504
156	0xbd5fd9ad	-0.05465095
157	0x3e840b38	0.2578981
158	0x3f312d9a	0.6921021
159	0x3f184176	0.59474885
160	0x3ef4a6ed	0.47783604
161	0xbd4f8319	-0.050662134
162	0xbefa8e10	-0.4893651
163	0xbe8ae9a1	-0.2713137
164	0x3e35980f	0.17733787
165	0x3d406eb3	0.04698057
166	0x3dbdaa17	0.09260958
167	0xbd3a1dfe	-0.04543876
168	0xbe1f3a37	-0.15549551
169	0xbe1f207a	-0.15539733
170	0x3f1b09a1	0.6056157
171	0x3f5a44c2	0.85261166
172	0x3e36cb37	0.17850958
173	0x3e861d50	0.2619424
174	0xbe59a829	-0.21255554
175	0xbf100345	-0.5625499
176	0xbe583c21	-0.21116687
177	0xbe09bce7	-0.13450967
178	0x3e66d727	0.22543012
179	0x3e755597	0.23958431
180	0x3d932f86	0.07186799
181	0xbe8bc7f3	-0.27300987
182	0x3d4e24c1	0.05032802
183	0xbbbebd7e	-0.005820929
184	0xbe9e0c39	-0.308687
185	0xbbee1401	-0.0072655682
186	0x3e1d904b	0.15387075
187	0x3ee3870b	0.44438967
188	0xbe8dd789	-0.27703503
189	0xbeaf2e38	-0.3421495
190	0xbe858bd9	-0.26083258
191	0x3ddf9a98	0.10918158
192	0xbd506727	-0.050879624
193	0xbea155ce	-0.31510776
194	0x3f227d63	0.63472575
195	0xbe47fbaa	-0.19529596
196	0x3f0d4d46	0.55196035
197	0x3c89c9cf	0.016819863
198	0xbdf0f04b	-0.11764582
199	0xbe5cdfe9	-0.2156979
200	0xbe311eb4	-0.17296869
201	0xbc8e9639	-0.017405616
202	0xbe789a0c	-0.24277514
203	0x3e043d3c	0.12913984
204	0xbccdb7bf	-0.025112031
205	0x3fa2d71c	1.2721896
206	0x3e3927db	0.1808161
207	0xbe70cd26	-0.23515758
208	0xbcb8dc5e	-0.022566017
209	0x3e262a9b	0.1622719
210	0x3e6dad9a	0.23210755
211	0xbdd4f2df	-0.103978865
212	0xbc49b3f9	-0.012310975
213	0xbdb91ccd	-0.090386964
214	0x3e6c4f7e	0.23077199
215	0xbe133c91	-0.14378573
216	0xbe0f08c1	-0.13968183
217	0x3db70d81	0.089381225
218	0xbe83b28e	-0.25722164
219	0x3d1d4f89	0.03840593
220	0x3cc06209	0.023484247
221	0x3f71da0b	0.9447333
222	0xbfa87c8a	-1.3163006
223	0xbd79a08f	-0.060944136
224	0x3ea3a27e	0.3195991
225	0xbe4c3b1a	-0.1994442
226	0x3e5742f8	0.2102164
227	0xbe5678cb	-0.20944516
228	0x3df0dd39	0.11760945
229	0x3d9a9afc	0.07549092
230	0x3ee4719e	0.44617933
231	0xbef90d28	-0.4864285
232	0x3e352497	0.17689739
233	0x3e92b976	0.2865712
234	0x3c8e27e5	0.017353008
235	0x3d81447b	0.0631189
236	0xbd43fa65	-0.047846217
237	0x3e36fdc0	0.17870235
238	0xbfb1bdfa	-1.3886101
239	0xbd575416	-0.052570425
240	0x3e31f95d	0.17380281
241	0x3e357acb	0.17722623
242	0x3f4b647d	0.7945021
243	0x3f75f9fc	0.9608457
244	0x3f5f8f9a	0.87328494
245	0x3ec3d31f	0.3824701
246	0xbef0a61e	-0.47001737
247	0xbca8dc08	-0.020612732
248	0x3e90fa22	0.28315836
249	0xbbd75f5f	-0.0065726484
250	0x3e09a14e	0.13440439
251	0x3d199836	0.037498675
252	0xbe0d247a	-0.13783446
253	0xbe87d600	-0.26530457
254	0x3da88f7d	0.08230493
255	0x3f227efd	0.6347502

layers.0.bias f4 [128]
0	0x3e8cad17	0.27475807
1	0x3ede203a	0.43383962
2	0xbd827751	-0.06370414
3	0x3da8f343	0.082495235
4	0xbe7c5348	-0.24641144
5	0xbe8dab89	-0.27669933
6	0x3e5e7303	0.21723561
7	0x3e088a27	0.13333951
8	0x3da4cfcf	0.08047449
9	0x3e9c748d	0.3055767
10	0xbdf85310	-0.12125218
11	0x3eb4a716	0.35283726
12	0x3e62364e	0.22091028
13	0x3d9c965e	0.07645868
14	0x3f011506	0.50422704
15	0x3ef6317d	0.48084632
16	0x3e6cda12	0.23130062
17	0xbe20a2de	-0.15687129
18	0x3eb448ba	0.35211736
19	0xbd247ec5	-0.04015996
20	0x3c7c25e7	0.015389896
21	0xbec09f16	-0.37621373
22	0xbe8b1bc9	-0.27169636
23	0x3eb100b2	0.34570843
24	0xbe1dd748	-0.15414155
25	0x3d9946d2	0.07484211
26	0x3e827516	0.25479954
27	0x3cc206a9	0.023684816
28	0x3dc5581d	0.09635947
29	0x3f1a058f	0.6016473
30	0xbe71f26f	-0.23627637
31	0x3ec53fcf	0.38525245
32	0x3d21e806	0.039527915
33	0x3efd8702	0.49517065
34	0x3cebf87b	0.028805008
35	0xbe0e64f3	-0.13905697
36	0x3eddf715	0.4335257
37	0x3e8ac9c3	0.27107057
38	0x3eb3f538	0.35148025
39	0x3c2937fa	0.010328287
40	0xbe0f45f1	-0.13991524
41	0x3dd069e7	0.10176449
42	0xbebbe92d	-0.36701337
43	0x3d113685	0.035452385
44	0x3ef64ada	0.48103982
45	0xbe84ff4b	-0.25976023
46	0x3ead35c3	0.3383008
47	0x3e3d1e37	0.18468557
48	0x3e9f6a6d	0.31135884
49	0xbe8dbff5	-0.27685514
50	0xbdd22dcb	-0.102626406
51	0xbc667e9c	-0.014068272
52	0xbe84e489	-0.25955608
53	0x3b2adc97	0.0026071423
54	0x3f22acd9	0.63544995
55	0xbea05395	-0.31313768
56	0x3f3bd86b	0.733771
57	0x3dbc5dd2	0.09197582
58	0xbb1718ba	-0.002305551
59	0x3d4be8d2	0.04978258
60	0x3f0ad143	0.5422556
61	0xbe2d4743	-0.16921715
62	0x3f4cd408	0.80011034
63	0x3f174457	0.59088653
64	0xbeb9cf29	-0.36290863
65	0xbe3a8e35	-0.1821831
66	0xbe184b25	-0.14872415
67	0xbed2ff89	-0.41210583
68	0xbdd5e916	-0.10444848
69	0xbddd6c31	-0.108116515
70	0x3d46a6e0	0.04849899
71	0x3ef3ba66	0.47603148
72	0x3e5c8138	0.21533668
73	0x3ec83ba2	0.39107996
74	0x3e86f4d8	0.26358676
75	0xbd4219e6	-0.04738798
76	0x3f1c5ba5	0.6107734
77	0xbe1d7e6a	-0.15380254
78	0x3e02a4b3	0.1275814
79	0x3b297456	0.0025856695
80	0x3eb1f797	0.3475921
81	0x3e171534	0.14754182
82	0xbd70e61c	-0.0588132
83	0xbf0b0263	-0.54300517
84	0x3da17f24	0.07885578
85	0xbf1ff333	-0.6248047
86	0x3ece9ea0	0.40355396
87	0x3e9a5b7f	0.3014793
88	0xbcf18385	-0.029481659
89	0x3eed2549	0.4631751
90	0x3f20239a	0.62554324
91	0xbe92168f	-0.28532836
92	0x3f0a624b	0.54056233
93	0x3f5c05b8	0.85946226
94	0x3b94ce5e	0.0045412024
95	0xbf09209e	-0.53565395
96	0x3d7507a8	0.059821755
97	0xba185651	-0.0005811202
98	0x3f077b30	0.52922344
99	0x3f69ad60	0.91280174
100	0x3da19030	0.0788883
101	0xbe74016a	-0.23828664
102	0x3f61a074	0.8813546
103	0xbe55edb5	-0.2089146
104	0xbdcceec5	-0.10006479
105	0xbecd9747	-0.40154478
106	0xbd986406	-0.07440953
107	0x3d7c09d1	0.0615328
108	0x3e78c4ba	0.24293795
109	0x3e679fe2	0.22619584
110	0x3ec109ab	0.3770269
111	0xbe1c55f4	-0.15267164
112	0x3e8fed33	0.28110656
113	0x3c34c317	0.011032841
114	0x3e42580b	0.18978898
115	0x3e9c00a5	0.30469242
116	0xbecc9502	-0.39957434
117	0xbe1adc3e	-0.15123078
118	0xbe62bb7a	-0.22141829
119	0xbef05909	-0.46942928
120	0xbeb0b09f	-0.3450975
121	0xbeb2f0e4	-0.3494941
122	0x3f3d8f0f	0.74046415
123	0xbddfb5c8	-0.10923344
124	0xbe4c792b	-0.19968097
125	0x3e4712c9	0.1944076
126	0x3f35aed1	0.70969874
127	0x3eeffdd8	0.46873355

layers.1.weight f4 [128, 128]
0	0x3de90250	0.11377394
1	0xbe16d816	-0.14730868
2	0x3d6ad6d4	0.057333782
3	0x3e55228f	0.20813964
4	0xbd9bddfe	-0.07610701
5	0xbdbbe5de	-0.09174703
6	0x3e33cd99	0.17558898
7	0xbc04580e	-0.0080776345
8	0x3ced2750	0.02894941
9	0xbcfb4363	-0.03067178
10	0xbdd563ea	-0.10419448
11	0xbd42101d	-0.047378648
12	0xbddbbec6	-0.107297465
13	0x3e0ac81e	0.13552901
14	0x3d76dad7	0.060267296
15	0x3d4f5d7d	0.050626267
16	0xbdcad595	-0.09904019
17	0xbcaaba63	-0.02084083
18	0xbd705cd2	-0.05868227
19	0x3ddbfd0d	0.10741625
20	0x3dbd596b	0.09245571
21	0xbe2e35af	-0.17012666
22	0xbd5ee819	-0.054420564
23	0x3c53b3f7	0.012921325
24	0x3df7a743	0.120924495
25	0xbe174034	-0.14770585
26	0x3ca26e2e	0.019827928
27	0xbdf598c9	-0.11992032
28	0x3d9cc0a8	0.07653934
29	0xbc45c303	-0.01207042
30	0xbe2161dd	-0.15759988
31	0x3da52c7c	0.08065125
32	0xbdb67966	-0.08909874
33	0x3da1d800	0.07902527
34	0xbd0aa0e8	-0.03384486
35	0x3d3585fd	0.044317234
36	0x3e22c571	0.1589563
37	0x3dd38d59	0.10329694
38	0xbd88a1bb	-0.06671473
39	0xbd42ae5f	-0.047529574
40	0xbe0c766a	-0.13717046
41	0x3e5b07f1	0.21389748
42	0xbe4f87fc	-0.20266718
43	0x3cc17272	0.023614142
44	0x3e000f79	0.12505902
45	0x3da6609f	0.08123898
46	0x3de1e4e0	0.110299826
47	0xbdade4ed	-0.0849093
48	0x3d0d0c64	0.034435645
49	0x3d025f84	0.031829372
50	0xbcd449e7	-0.025914146
51	0xbd55e782	-0.052222736
52	0xbd413d60	-0.047177672
53	0x3d963b6d	0.07335553
54	0x3dcda852	0.1004187
55	0xbde04648	-0.10950905
56	0x3e934aa8	0.28767896
57	0x3dbd6d0c	0.09249315
58	0x3defd1e5	0.11709956
59	0x3e0e6df6	0.13909134
60	0x3cc55b6f	0.02409145
61	0xbdff433f	-0.12463998
62	0x3e211321	0.15729953
63	0x3c2f5f5b	0.010703887
64	0xbd452ebc	-0.048140272
65	0xbf2a9e91	-0.66648203
66	0x3c895a42	0.016766671
67	0xbec8c3c6	-0.39211863
68	0x3d47c8cf	0.04877549
69	0xbdc99bc0	-0.0984416
70	0x3c79b832	0.0152416695
71	0x3dae0cab	0.0849851
72	0x3d081b99	0.033229444
73	0x3e320eb9	0.17388429
74	0xbd2b7b4d	-0.041865636
75	0xbda3baaf	-0.079945914
76	0xbc2185dc	-0.009858575
77	0xbdc39137	-0.09549182
78	0xbda43f44	-0.080198795
79	0x3cbcb198	0.023033902
80	0x3d5d25d1	0.053991143
81	0xbcf2e299	-0.029649066
82	0xbdaf676c	-0.08564648
83	0xbe239934	-0.15976411
84	0x3e1586a1	0.14602138
85	0x3dbc972d	0.09208522
86	0x3d834081	0.064087875
87	0x3dd7b9d0	0.10533488
88	0xbb8f0fc6	-0.004365894
89	0xbc431132	-0.011905955
90	0x3dd48610	0.10377133
91	0x3da9be3e	0.08288239
92	0x3e2db3a5	0.1696306
93	0x3d88c2f8	0.06677812
94	0xbda0ef58	-0.07858151
95	0xbdccfc3b	-0.10009047
96	0x3d8cc438	0.06873363
97	0x3dae8a22	0.085224405
98	0x3db0d9d0	0.086352944
99	0x3e44e5a6	0.19228229
100	0x3dd62e4f	0.104580514
101	0x3d69e812	0.057106085
102	0x3e12597b	0.14291947
103	0xbb476fde	-0.0030431668
104	0x3d88fdaf	0.06689011
105	0x3c7c5eb2	0.0154034365
106	0xbc2f8960	-0.010713905
107	0x3d35cbe1	0.044383887
108	0x3dc446a1	0.09583784
109	0x3dc1ce52	0.094631806
110	0x3c4624c6	0.012093728
111	0x3d99d9f6	0.07512276
112	0xbd15f1ea	-0.03660766
113	0xbc0329b1	-0.0080055455
114	0x3df1b053	0.11801209
115	0xbe07c1a8	-0.13257468
116	0xbe273154	-0.16327411
117	0xbda5800e	-0.08081065
118	0xbd9e184c	-0.07719478
119	0xbe2a6866	-0.16641387
120	0xbe06b53b	-0.13155071
121	0xbe143b89	-0.14475836
122	0x3ddffe46	0.10937171
123	0xbd8d82e7	-0.06909733
124	0xbd138305	-0.03601362
125	0x3d696307	0.056979205
126	0x3e47e54e	0.19521067
127	0x3d8fb8f4	0.07017699
128	0xbde68857	-0.112564735
129	0xbdf7e993	-0.121050976
130	0x3e11ad20	0.14226198
131	0x3db39bc8	0.08769947
132	0xbbedbb27	-0.0072549763
133	0xbcc3c80a	-0.023899097
134	0x3e0e1f38	0.13879097
135	0xbd8e392b	-0.06944498
136	0x3d365f38	0.0445244
137	0xbc9f44e3	-0.019442027
138	0xbeaaf02c	-0.33386362
139	0x3b9765ff	0.004620313
140	0xbcbd520c	-0.023110412
141	0xbe2ee64e	-0.17080042
142	0x3e04d98b	0.12973611
143	0xbde4a260	-0.11163783
144	0xbdab834f	-0.083746545
145	0x3d43fa68	0.047846228
146	0xbe536dc9	-0.20647348
147	0xbcdb14e2	-0.026743356
148	0xbd33e28a	-0.043917216
149	0x3eadac03	0.33920297
150	0xbd61575b	-0.05501495
151	0x3ddfe4d0	0.109323144
152	0xbe065457	-0.1311811
153	0xbdaffd6d	-0.08593259
154	0x3e015f91	0.12634112
155	0x3cbfa930	0.023396105
156	0xbcef078b	-0.029178401
157	0xbdf3f96a	-0.11912806
158	0x3ccb2c97	0.024801536
159	0xbe4fa2f3	-0.20277004
160	0xbdb0a07f	-0.08624362
161	0xbe3ca7b4	-0.18423349
162	0xbd0c473f	-0.034247633
163	0xbc0cd77d	-0.008596298
164	0xbe0dfeb0	-0.13866687
165	0xbcaea47f	-0.021318672
166	0x3e2ee7a0	0.17080545
167	0xbca72915	-0.020405332
168	0xbd0506e8	-0.03247729
169	0x3ce86953	0.028370535
170	0x3d9b66c2	0.07587959
171	0xbc3a4a69	-0.01137028
172	0xbc94d545	-0.018168101
173	0xbdd167d5	-0.102248825
174	0xbeec7721	-0.46184638
175	0xbcd22a54	-0.02565495
176	0x3b2c7930	0.002631735
177	0x3dc4722b	0.09592088
178	0xbd5ce79e	-0.053931825
179	0x3d2e3833	0.042534065
180	0xbc047150	-0.008083656
181	0xbcd3d330	-0.025857538
182	0xbe1f44f3	-0.15553646
183	0xbe01dd8e	-0.12682173
184	0x3e6eed77	0.23332773
185	0xbb780d6f	-0.0037849804
186	0xbe8ead3f	-0.2786655
187	0x3d1843a3	0.03717388
188	0x3b9d7f67	0.0048064473
189	0xbe9f0f45	-0.31066337
190	0xbeda729e	-0.4266557
191	0xbdbb4513	-0.09144034
192	0x3e27f606	0.16402444
193	0x3dde3581	0.10850049
194	0x3db25a2c	0.08708605
195	0x3dbcace0	0.09212661
196	0x3cdb7fa9	0.026794272
197	0xbdbab02e	-0.09115635
198	0x3d972586	0.07380204
199	0xbe354519	-0.1770214
200	0xbc40b652	-0.011762219
201	0xbb680ec8	-0.00354092
202	0x3e49c4e4	0.19704014
203	0xbca2dd76	-0.019880991
204	0x3d693346	0.056933664
205	0xbddb26eb	-0.107007824
206	0xbdb730ee	-0.089448795
207	0x3cb41f88	0.021987692
208	0xbf10cac8	-0.5655942
209	0x3ced812d	0.02899226
210	0xbdb1a7a4	-0.08674553
211	0x3d729929	0.059228096
212	0xbec355f6	-0.3815152
213	0xbee4979d	-0.44646922
214	0xbdade407	-0.084907584
215	0xbc06132f	-0.008183285
216	0xbcfa2716	-0.030536216
217	0xbd9d7e99	-0.07690162
218	0x3dd6b86e	0.10484396
219	0x3da5d2dd	0.080968596
220	0xbdcbba0a	-0.099475935
221	0xbe1e7dbb	-0.1547765
222	0x3e4b4915	0.19852097
223	0xbb9cd551	-0.0047861715
224	0xbddac7ac	-0.10682616
225	0xbc124516	-0.008927604
226	0x3b62f0e9	0.0034628457
227	0x3de9d33e	0.114172444
228	0xbdbd33eb	-0.09238418
229	0x3d93aeee	0.072110996
230	0x3cabcd42	0.020971898
231	0x3d36e2bf	0.044649836
232	0xbd9274c3	-0.07151177
233	0x3ce0beba	0.027434696
234	0xbd419039	-0.047256682
235	0x3df12408	0.117744505
236	0x3dbe0698	0.092786014
237	0xbd565d3b	-0.052335005
238	0x3e81908a	0.25305587
239	0xbbc32ee0	-0.0059565157
240	0x3d89b866	0.06724624
241	0x3b4ce031	0.0031261558
242	0x3daa06f3	0.08302107
243	0x3b61f6ff	0.0034479497
244	0x3e134fe9	0.14385952
245	0xbd282eb4	-0.041060165
246	0x3c644c95	0.013934274
247	0x3de39869	0.11113054
248	0x3e80ee4d	0.2518181
249	0xbb1b4117	-0.002368992
250	0x3d743a8a	0.05962614
251	0x3e104dea	0.14092222
252	0x3df15f5a	0.11785765
253	0xbd842b3d	-0.064535595
254	0x3e771e8a	0.24132743
255	0x3ce4a371	0.027909966
