HW9/9_gym-DDPG/results/DDPG_Pendulum-v1_1500-eps0.1-t32-l5e-05-s1-u20.pth (torch, 176234 bytes, 12 tensors)

layers.0.weight f4 [128, 4]
0.6345461 -0.5123099 -0.002945618 -0.072022475 -0.5097495 0.30080608 -0.1472948 0.1739424
-0.093315735 0.0042322837 0.08657365 -0.0272114 0.44558182 0.018031511 -0.15376638 -0.050931122
-0.10985621 0.2660521 0.4983381 -0.041860987 -0.22445539 -0.97712684 -0.1970621 -0.05449374
-0.23101883 0.6042306 0.38241547 0.025771977 -0.54505324 0.8124956 0.09822032 0.23481591
0.725577 -0.77390116 -0.55730027 -0.34183678 0.8686008 0.12416515 0.36841974 -0.14243142
0.6051598 0.1040146 0.44408098 -0.14229824 -0.6767258 -0.3767704 -0.29371274 0.19370559
-0.21238993 -0.7584716 -0.46922123 -0.008626639 0.21360089 0.036265615 0.5396379 0.4641897
-0.09822701 -0.3491903 0.35544744 0.12534656 -0.37658882 0.71613294 0.23603874 0.30863893
-0.350479 -0.28772438 0.036479753 0.17282291 -0.4150527 0.06870842 0.26822096 -0.2672803
0.9492927 0.26645815 0.1993916 -0.09862982 -0.09609605 0.3063679 -0.511132 0.33042786
-0.4296592 -0.61941874 -0.030463804 0.00036676473 0.35845715 -1.1307083 -0.37037233 0.28807542
-0.11485622 0.5973212 0.050241392 -0.41239977 0.027671121 -0.050680533 -0.34360966 -0.13607517
-0.0182535 0.06184114 -0.067065276 -0.09126674 0.44827604 0.07208044 0.3606584 0.10930513
-0.5362655 -0.14739309 0.5160117 -0.06128401 0.3098764 0.43763703 0.13825198 0.1844817
0.5012621 -0.64666444 0.007078329 0.25794983 0.27238986 0.26764005 -0.41804063 -0.30785605
-0.13655658 0.7430121 0.48116183 -0.29131177 0.3454387 -0.5131504 -0.54037213 -0.07326258
0.20337076 0.5308509 -0.33497992 0.18642664 0.9742219 1.1423053 0.30514348 0.052809756
0.21068178 0.29194844 -0.2884695 -0.5084865 -0.40449214 -0.39104083 -0.21766791 0.14401522
-0.14522678 -0.01019668 0.27416962 -0.0017336062 0.33416745 0.5147612 -0.122210175 0.6721971
-0.095795445 -0.22380993 -0.48383644 -0.26554012 -0.21631552 0.3039614 0.40131685 -0.1970748
-0.45827377 0.30290347 0.086280264 0.22675097 -0.38143966 -0.44416952 -0.16866727 0.00899641
-0.31555164 -0.9040866 -0.11876338 0.085907355 0.63283336 0.86942995 0.5266912 0.5078604
0.39863357 -0.107695036 -0.31977367 0.7092889 -0.254438 -0.41677302 -0.44295284 -0.0139321545
-0.788516 -0.19800852 -0.48278216 -0.2348724 -0.24216631 -0.270714 0.1754804 -0.05446792
-0.08612795 0.81935376 0.32929385 -0.3199867 0.90015733 0.62566584 0.48645374 -0.19479509
0.08489785 -0.12394633 0.46781057 -0.06607292 0.5498009 -0.33464542 -0.2176325 -0.03483255
-0.021392021 0.44134668 -0.039930653 0.07462363 -0.45771894 0.6362969 0.4335072 0.32030118
0.648925 -1.0018578 -0.25698513 -0.03295689 -0.62443584 0.25345775 -0.4375105 -0.30311513
0.24741614 -1.0128852 -0.13943249 0.10237927 0.4909702 0.7052672 -0.17904538 -0.3376641
0.7455466 -0.8417861 -0.12464755 0.024657581 -0.3852566 0.7164665 0.2879406 -0.3957962
-0.46458045 0.4749405 0.1557556 -0.19887637 -0.32185382 -0.67606276 -0.5305235 -0.06737305
-0.3521276 0.70104843 0.408433 -0.27226877 -0.12445344 0.42309797 -0.10640422 -0.26601
00000000: 9d71 223f be26 03bf 450b 41bb 8580 93bd
00000010: f17e 02bf 4103 9a3e 73d4 16be f51d 323e
00000020: 521c bfbd f8ae 8a3b 874d b13d 71ea debc
00000030: 4d23 e43e d2b6 933c ef74 1dbe 279d 50bd
00000040: 4bfc e0bd fb37 883e 2c26 ff3e 6d76 2bbd
00000050: a2d7 65be fc24 7abf a6ca 49be d434 5fbd
00000060: 3390 6cbe dbae 1a3f f6cb c33e c11f d33c
00000070: 9c88 0bbf b6ff 4f3f bc27 c93d 9573 703e
00000080: 6abf 393f 631e 46bf 3bab 0ebf 3b05 afbe
00000090: 9f5c 5e3f 4c4a fe3d 83a1 bc3e 8bd9 11be
000000a0: c1eb 1a3f 9b05 d53d 955e e33e a1b6 11be
000000b0: e73d 2dbf 0de8 c0be 8461 96be c25a 463e
000000c0: bf7c 59be 322b 42bf c43d f0be bf56 0dbc
000000d0: 31ba 5a3e 418b 143d b625 0a3f 46aa ed3e
000000e0: 3e2b c9bd 12c9 b2be 35fd b53e d95a 003e
000000f0: 40d0 c0be 7d54 373f 24b4 713e ec05 9e3e
00000100: fc71 b3be 9c50 93be cb6b 153d 7df8 303e
00000110: ca81 d4be 00b7 8c3d 4254 893e f7d8 88be
00000120: d904 733f 346d 883e 502d 4c3e 6efe c9bd
00000130: 02ce c4bd 41dc 9c3e 8cd9 02bf d72d a93e
00000140: 4afc dbbe 3a92 1ebf 3a8f f9bc 544a c039
00000150: b287 b73e 0dbb 90bf 71a1 bdbe 9f7e 933e
00000160: bd39 ebbd 0bea 183f ebc9 4d3d 1026 d3be
00000170: 8cae e23c 6496 4fbd 9bed afbe 4a57 0bbe
00000180: 5d88 95bc 234d 7d3d 8559 89bd 0eea babd
00000190: 7084 e53e e99e 933d 38a8 b83e 5edb df3d
000001a0: b248 09bf 37ee 16be 5819 043f f104 7bbd
000001b0: 1fa8 9e3e f611 e03e ed91 0d3e c5e8 3c3e
000001c0: b752 003f cd8b 25bf 54f1 e73b 0012 843e
000001d0: af76 8b3e 1e08 893e 6c09 d6be 4f9f 9dbe
000001e0: 7dd5 0bbe 0a36 3e3f d85a f63e d126 95be
000001f0: 57dd b03e d35d 03bf d455 0abf b10a 96bd
00000200: 6d40 503e d8e5 073f 7d82 abbe a0e6 3e3e
00000210: 9b66 793f 0f37 923f c43b 9c3e 0b4f 583d
00000220: f7bc 573e 447a 953e 46b2 93be 2c2c 02bf
00000230: 9819 cfbe 8136 c8be 56e4 5ebe ba78 133e
00000240: 54b6 14be fa0f 27bc f65f 8c3e 2c3a e3ba
00000250: ff17 ab3e 64c7 033f 5449 fabd 1c15 2c3f
00000260: 6730 c4bd 6e2e 65be 69b9 f7be e0f4 87be
00000270: d181 5dbe d4a0 9b3e 6779 cd3e facd 49be
00000280: dca2 eabe 2a16 9b3e b5b3 b03d 6831 683e
00000290: 0f4c c3be 306a e3be 1db7 2cbe ae65 133c
000002a0: fc8f a1be 3872 67bf 373a f3bd 32f0 af3d
000002b0: 5e01 223f f692 5e3f 3cd5 063f 2403 023f
000002c0: b319 cc3e 378f dcbd 60b9 a3be f593 353f
000002d0: b345 82be 4663 d5be b7ca e2be b143 64bc
000002e0: 2fdc 49bf bfc2 4abe 392f f7be 6482 70be
000002f0: 72fa 77be 079b 8abe 22b1 333e c119 5fbd
00000300: da63 b0bd 2bc1 513f 3499 a83e 4cd5 a3be
00000310: b670 663f a32b 203f 7710 f93e 5d78 47be
00000320: edde ad3d 93d7 fdbd de84 ef3e 3d51 87bd
00000330: c0bf 0c3f a556 abbe 0edb 5ebe 93ac 0ebd
00000340: 523e afbc 31f8 e13e 538e 23bd 46d4 983d
00000350: 235a eabe 5be4 223f a8f4 dd3e 84fe a33e
00000360: f31f 263f e03c 80bf 8e93 83be cefd 06bd
00000370: 07db 1fbf 37c5 813e 6001 e0be e831 9bbe
00000380: a85a 7d3e 39a6 81bf 64c7 0ebe 39ac d13d
00000390: 7260 fb3e 648c 343f ac57 37be 4fe2 acbe
000003a0: 24dc 3e3f 4b7f 57bf 3747 ffbd b2fe c93c
000003b0: 5a40 c5be 596a 373f f36c 933e cda5 cabe
000003c0: 7ddd edbe 672b f33e 657e 1f3e 3fa6 4bbe
000003d0: 06ca a4be 7312 2dbf 63d0 07bf e2fa 89bd
000003e0: 124a b4be e977 333f 211e d13e d066 8bbe
000003f0: 72e1 febd 4ca0 d83e 75ea d9bd 7632 88be

layers.0.bias f4 [128]
-0.60701895 0.5085281 0.4316123 -0.58939487 -0.35823447 -0.2240587 -0.29893154 0.1947161
-0.41861233 -0.36829466 0.16975467 -0.11924667 -0.20481747 -0.621961 0.27206215 0.2691607
-0.076424114 -0.17185424 0.18607251 0.30747285 0.32453057 0.24071862 0.10478534 -0.54394746
0.53182703 -0.08005824 -0.30086088 0.63458323 0.31154507 -0.46052295 -0.0036873957 -0.18815339
-0.4231122 0.11455749 -0.41122362 0.59174997 -0.15288687 0.4222218 0.09677402 -0.037196886
0.5120318 -0.3653106 0.0102177495 -0.22297369 0.39044368 -0.22236905 -0.046062216 -0.5460116
0.04817384 -0.040726975 -0.22538716 -0.369876 0.3362032 0.10641766 -0.4153725 -0.06970727
0.26184896 0.228715 0.27425125 0.07263037 -0.31046188 -0.3911704 0.03515793 0.0061596255
0.31152287 -0.11595546 0.22704932 -0.40261647 0.49675098 0.31453645 0.056832273 0.6030829
0.29407695 -0.36779797 -0.24737802 0.45051593 0.42675442 0.5850519 0.15250778 0.5011245
0.41486424 0.017483093 0.049894687 0.5640531 0.26523313 0.028279953 0.123074085 0.65863574
0.4976129 0.13405947 0.67334473 0.28308174 -0.30191368 -0.49799582 0.4089551 0.56598485
0.08581978 0.35316414 -0.18959703 -0.20270985 0.04034841 0.35861772 0.018025156 0.4774189
0.31876448 0.38342553 0.6758079 0.33139917 0.19527161 -0.50908864 0.497902 0.28439242
0.43498173 0.3500801 0.059671123 0.49341348 -0.11421731 0.52695805 0.36986884 -0.044055227
0.0783009 -0.16883792 -0.17837292 0.009768905 -0.09349382 -0.0901446 -0.49858266 -0.36535043
00000000: 9865 1bbf e62e 023f 4afc dc3e 95e2 16bf
00000010: 826a b7be a56f 65be 8e0d 99be a863 473e
00000020: 5b54 d6be 1e91 bcbe 2bd4 2d3e 9937 f4bd
00000030: acbb 51be d638 1fbf bb4b 8b3e 6ecf 893e
00000040: 3f84 9cbd 8ffa 2fbe cb89 3e3e 156d 9d3e
00000050: df28 a63e f17e 763e b299 d63d 2440 0bbf
00000060: d125 083f 93f5 a3bd 700a 9abe 0c74 223f
00000070: d682 9f3e aac9 ebbe 3ca8 71bb 48ab 40be
00000080: 2aa2 d8be 1e9d ea3d e78b d2be ed7c 173f
00000090: 608e 1cbe 752d d83e 7531 c63d c35b 18bd
000000a0: 8414 033f fe09 bbbe 5968 273c 3753 64be
000000b0: 3ce8 c73e b6b4 63be bcab 3cbd 6bc7 0bbf
000000c0: ef51 453d 54d1 26bd e4cb 66be 6360 bdbe
000000d0: d322 ac3e 81f1 d93d b4ab d4be afc2 8ebd
000000e0: 1111 863e 4434 6a3e a96a 8c3e 3bbf 943d
000000f0: dcf4 9ebe 7d47 c8be c301 103d afd6 c93b
00000100: ed7f 9f3e 0e7a edbd 9e7f 683e bf23 cebe
00000110: 2556 fe3e ec0a a13e f5c8 683d a463 1a3f
00000120: 4191 963e 0450 bcbe aa50 7dbe 06aa e63e
00000130: 8e7f da3e f6c5 153f 002b 1c3e b249 003f
00000140: 1669 d43e b438 8f3c 5f5e 4c3d c965 103f
00000150: a3cc 873e 5cab e73c 440e fc3d 5a9c 283f
00000160: 1ec7 fe3e e346 093e 5260 2c3f 17f0 903e
00000170: 6e94 9abe 4ff9 febe 9062 d13e 62e4 103f
00000180: 48c2 af3d eed1 b43e b925 42be 2c93 4fbe
00000190: 6044 253d be9c b73e 7ea9 933c 4070 f43e
000001a0: 1935 a33e 5a50 c43e bf01 2d3f 27ad a93e
000001b0: 48f5 473e a253 02bf 03ed fe3e e29b 913e
000001c0: edb5 de3e b33d b33e b569 743d b1a0 fc3e
000001d0: c4ea e9bd b9e6 063f 735f bd3e 4173 34bd
000001e0: 395c a03d d9e3 2cbe 64a7 36be c20d 203c
000001f0: b079 bfbd bb9d b8bd 3a46 ffbe 360f bbbe

layers.1.weight f4 [128, 128]
0.50218266 0.053940732 0.15404418 0.397125 0.025461975 -0.04616569 -0.11679643 0.17053996
-0.02370329 0.01570077 -0.063041985 0.0458638 -0.08656988 -0.035580195 -0.012434076 0.025085915
-0.0047754813 0.093337305 0.07649409 0.044607576 0.010129418 0.13022956 0.02990946 -0.10874875
0.11205195 -0.016961047 0.071683146 0.035428558 -0.15786232 -0.06436741 0.072564706 0.015604148
-0.13278508 0.052043192 -0.003350482 0.14292954 -0.09649716 -0.07159785 0.089221284 -0.022505326
0.16145617 -0.008196904 0.046410557 -0.015619576 0.01654938 -0.09715093 0.054888852 -0.1666247
0.004006601 -0.026340472 0.046803445 -0.08872677 0.05638956 0.031422317 0.19138017 -0.07127359
0.08514247 -0.05894486 0.09463057 0.122957 -0.050288364 -0.0661066 0.027868457 0.04342992
-0.086741775 -0.06316048 0.06776645 0.07818768 0.081706345 0.04864343 -0.0038829462 0.079956405
0.14607534 -0.0823069 -0.026590602 0.08943636 0.055848528 0.11342007 0.047049813 0.04076152
0.15877217 0.083170466 0.05265195 -0.028808866 0.12209334 0.13394399 0.13160628 0.039211467
0.0624631 -0.041099668 0.14278436 0.10795995 0.009651871 -0.15454398 0.16249888 0.09189027
0.10458645 -0.005181552 0.039368846 -0.02372851 -0.029658977 0.054840118 0.06370048 0.056478396
-0.026846081 0.14473496 0.115158774 0.11761817 0.10330055 0.008936046 0.0986693 0.08404157
0.12647943 -0.03882402 -0.0061236457 0.08163214 0.064512834 0.16091706 0.017943138 0.03892283
-0.251298 -0.001902969 0.1981879 -0.25690588 0.015088732 0.063165165 -0.017850779 0.050026674
0.46878248 0.116721086 0.014121273 0.32656914 -0.13051161 -0.012843826 0.023788983 0.059230205
0.053127225 -0.008234416 -0.07021918 -0.013008863 -0.05106553 -0.030584985 0.012146321 0.07989974
-0.09641813 -0.056740243 0.0022905348 -0.062337685 0.18385924 0.08151161 -0.015173219 -0.05231127
0.06104731 0.0265386 0.049213488 0.097106375 -0.069033965 -0.07660395 0.042917486 -0.043546114
-0.063211374 0.116112694 0.0131186955 0.2121427 -0.12562478 -0.04894789 0.037713073 0.09523411
0.010069223 -0.10137851 0.13244967 -0.054861944 0.019686773 -0.017939832 0.0035351517 -0.19879603
0.12617987 0.13998263 0.02524057 -0.055276245 0.1967711 0.11042818 0.23344891 0.054408085
0.04950106 -0.08944317 -0.01674225 0.049242415 -0.05247735 -0.03710454 0.097083166 0.036546048
-0.11511688 -0.15626699 0.05381267 -0.09732424 0.08554849 0.034701366 -0.004051346 0.19072583
0.11694923 -0.12512401 -0.042275123 0.084740505 0.13384657 0.0054977085 -0.032311756 0.09088239
0.08423778 0.087311715 -0.059798367 0.017345345 0.0070979507 0.083637916 0.073561296 0.09532137
-0.035020493 -0.069352284 0.008612989 -0.07478472 0.070959955 -0.17811875 0.06555734 0.108097784
0.08590817 0.10272311 -0.04098395 -0.0849335 0.08019661 0.18803765 -0.072667934 -0.00214563
0.067656405 0.091912694 0.049763013 0.027213616 -0.0002644043 -0.017023643 -0.020784335 -0.07652819
0.03763843 -0.05602075 0.04611875 0.044227038 0.060125835 0.06294865 0.09101919 0.117749184
-0.23480684 0.06459026 0.20667075 -0.17807494 0.08191716 0.09607114 -0.0036890628 -0.024730712
00000000: 0b8f 003f f5f0 5c3d c2bd 1d3e f853 cb3e
00000010: a295 d03c 3c18 3dbd f732 efbd 07a2 2e3e
00000020: 672d c2bc e79e 803c 281c 81bd aedb 3b3d
00000030: 8d4b b1bd 8abc 11bd 4bb8 4bbc fa80 cd3c
00000040: a47b 9cbb a127 bf3d efa8 9c3d 6fb6 363d
00000050: dcf5 253c e65a 053e af04 f53c aab7 debd
00000060: 7e7b e53d e5f1 8abc 9dce 923d 891d 113d
00000070: a9a6 21be 10d3 83bd ce9c 943d 8aa8 7f3c
00000080: d0f8 07be 3e2b 553d c393 5bbb 1f5c 123e
00000090: 4ea0 c5bd e5a1 92bd a6b9 b63d 175d b8bc
000000a0: c454 253e 4f4c 06bc ff18 3e3d 40e9 7fbc
000000b0: 9192 873c 11f7 c6bd 22d3 603d aa9f 2abe
000000c0: ce49 833b f9c7 d7bc f8b4 3f3d 61b6 b5bd
000000d0: bdf8 663d b0b4 003d 2af9 433e e3f7 91bd
000000e0: 2d5f ae3d 2a70 71bd accd c13d e1d0 fb3d
000000f0: 2cfb 4dbd e662 87bd 644c e43c 92e3 313d
00000100: aca5 b1bd 485a 81bd 23c9 8a3d dd20 a03d
00000110: a855 a73d 553e 473d 0779 7ebb 2fc0 a33d
00000120: c694 153e 8590 a8bd 89d4 d9bc 692a b73d
00000130: 6dc1 643d c848 e83d 4eb7 403d 8df5 263d
00000140: 2c95 223e 4755 aa3d 92a9 573d 9200 ecbc
00000150: 130c fa3d 9d28 093e ccc3 063e 349c 203d
00000160: 4fd9 7f3d 2058 28bd 1036 123e 1b1a dd3d
00000170: e222 1e3c c740 1ebe 1b66 263e f730 bc3d
00000180: 6c31 d63d 02ca a9bb 3a41 213d 4b62 c2bc
00000190: 62f7 f2bc 08a0 603d 6675 823d e455 673d
000001a0: 50ec dbbc 6735 143e 5dd8 eb3d cce1 f03d
000001b0: 3d8f d33d 7e68 123c 2113 ca3d fd1d ac3d
000001c0: d383 013e f005 1fbd dda8 c8bb c02e a73d
000001d0: 4e1f 843d 71c7 243e 7dfd 923c 8c6d 1f3d
000001e0: 22aa 80be 0b6d f9ba c5f1 4a3e 2b89 83be
000001f0: bb36 773c bd5c 813d cc3b 92bc c5e8 4c3d
00000200: 4204 f03e 770b ef3d e95c 673c 1234 a73e
00000210: d6a4 05be e96e 52bc 1de1 c23c 5f9b 723d
00000220: ef9b 593d a5e9 06bc 13cf 8fbd 2023 55bc
00000230: 172a 51bd 5d8d fabc 5d01 473c 7aa2 a33d
00000240: de76 c5bd 7568 68bd cc1c 163b cd55 7fbd
00000250: 9945 3c3e 8fef a63d 1899 78bc 5844 56bd
00000260: be0c 7a3d 7a67 d93c 1594 493d b5df c63d
00000270: ae61 8dbd 88e2 9cbd 3fca 2f3d 695d 32bd
00000280: f774 81bd 7ecc ed3d ccef 563c f03b 593e
00000290: c8a3 00be 957d 48bd 0679 1a3d 1a0a c33d
000002a0: 62f9 243c 899f cfbd e3a0 073e ebb6 60bd
000002b0: 2846 a13c 8ef6 92bc 01ae 673b 3091 4bbe
000002c0: 4c35 013e 9b57 0f3e 50c5 ce3c 5869 62bd
000002d0: 5d7e 493e 2b28 e23d 3b0d 6f3e 03db 5e3d
000002e0: a0c1 4a3d fb2d b7bd 0b27 89bc 6ab2 493d
000002f0: 7df2 56bd eefa 17bd 8ad3 c63d 4fb1 153d
00000300: 66c2 ebbd 7404 20be ad6a 5c3d ee51 c7bd
00000310: 0c34 af3d 0523 0e3d 27c1 84bb a24d 433e
00000320: 1483 ef3d 8220 00be ae28 2dbd 6e8c ad3d
00000330: 130f 093e 1f26 b43b 5559 04bd 8c20 ba3d
00000340: db84 ac3d 7cd0 b23d 22ef 74bd d317 8e3c
00000350: ed95 e83b 5b4a ab3d 4ea7 963d da37 c33d
00000360: a671 0fbd 9208 8ebd 7f1d 0d3c bb28 99bd
00000370: 7453 913d c364 36be ed42 863d 5f62 dd3d
00000380: 9ff0 af3d 7e60 d23d c9de 27bd 9df1 adbd
00000390: 1f3e a43d f18c 403e edd2 94bd b39d 0cbb
000003a0: 718f 8a3d b93c bc3d 4dd4 4b3d 17ef de3c
000003b0: bf9f 8ab9 2b75 8bbc e943 aabc d0ba 9cbd
000003c0: c12a 1a3d 0476 65bd 04e7 3c3d 6927 353d
000003d0: 8246 763d 39eb 803d 4568 ba3d 7c26 f13d
000003e0: 3471 70be e647 843d 7fa1 533e 4759 36be
000003f0: 2fc4 a73d f2c0 c43d 34c4 71bb 1098 cabc

layers.1.bias f4 [128]
0.13218257 0.03656812 0.07560863 0.018439485 -0.030881051 0.07060736 0.0182359 -0.029450398
0.18349701 0.12316093 0.005703369 0.13946128 -0.015137695 0.07698828 0.021642743 0.09463775
0.14804086 -0.11275446 -0.062988915 0.050125718 0.2028935 0.11337446 -0.065202616 0.21522203
0.22773632 0.10616913 0.0995462 0.087562636 0.109942034 0.13158764 0.055119127 0.050620146
0.08450625 0.18406045 0.08754299 0.11248786 0.028858434 0.10098376 -0.05017111 0.21109062
-0.036364757 0.03749355 0.05245614 0.04726749 7.65254e-05 0.16256352 0.08875073 0.12695901
0.16268331 0.10126733 -0.11669044 0.11256956 0.15168391 0.13311355 0.14635555 0.23113102
0.17412797 0.15923351 0.09891696 0.027532391 0.160606 -0.07688896 0.013346089 0.027799426
-0.03315871 0.016538909 0.15745343 0.1275528 0.16075943 0.14861968 0.01740297 0.169006
0.031196093 0.16425213 0.017141178 0.17019029 0.18490624 -0.0017992096 0.075056076 0.1413704
0.250842 0.08872887 0.15904896 0.056010835 -0.07789787 0.17793907 -0.0075569265 0.048578527
0.14808294 0.033875436 0.122946106 0.032051705 0.112688795 0.149933 0.15839328 0.005064098
0.13489094 0.11548203 0.05985261 0.039516505 -0.04478556 0.17199023 0.09278706 0.088596895
0.10605109 0.02069706 0.11109092 0.05774019 0.06281624 -0.0036470555 0.00808082 0.12473223
0.1592242 0.12949255 -0.00096254 0.053634062 0.056604348 0.09158792 0.109182104 0.06916667
-0.15655696 0.033262517 0.1004304 0.16744861 0.11303273 -0.11551093 0.12108337 0.15179868
00000000: de5a 073e 74c8 153d b3d8 9a3d 670e 973c
00000010: 42fa fcbc 979a 903d 7463 953c f641 f1bc
00000020: a4e6 3b3e cc3b fc3d 54e3 ba3b f0ce 0e3e
00000030: 1804 78bc 08ac 9d3d 1f4c b13c 70d1 c13d
00000040: 0698 173e cfeb e6bd 5500 81bd a050 4d3d
00000050: 50c3 4f3e de30 e83d f388 85bd 2a63 5c3e
00000060: b633 693e 336f d93d e1de cb3d 0a54 b33d
00000070: 4a29 e13d e9be 063e 98c4 613d 1257 4f3d
00000080: 9d11 ad3d 587a 3c3e bd49 b33d 0960 e63d
00000090: 8668 ec3c 93d0 ce3d 3980 4dbd 2428 583e
000000a0: 36f3 14bd d692 193d 40dc 563d 8e9b 413d
000000b0: 437c a038 0d77 263e f1c2 b53d 8b01 023e
000000c0: 7496 263e 3f65 cf3d 66fb eebd df8a e63d
000000d0: 0753 1b3e eb4e 083e 3bde 153e 9cad 6c3e
000000e0: 9a4e 323e 1c0e 233e fa94 ca3d 9c8b e13c
000000f0: e675 243e f677 9dbd 8ea9 5a3c 9fbb e33c
00000100: 6dd1 07bd 9b7c 873c 793b 213e 349d 023e
00000110: 1f9e 243e c22f 183e ac90 8e3c e90f 2d3e
00000120: f38e ff3c b631 283e a86b 8c3c 5d46 2e3e
00000130: 1058 3d3e 75d3 ebba 00b7 993d 67c3 103e
00000140: 5d6e 803e 7bb7 b53d bbdd 223e 9e6b 653d
00000150: eb88 9fbd a935 363e 18a0 f7bb 47fa 463d
00000160: 0ea3 173e f8c0 0a3d 2bcb fb3d a648 033d
00000170: 62c9 e63d 0988 193e d931 223e bcf0 a53b
00000180: da20 0a3e d881 ec3d 0328 753d 0fdc 213d
00000190: 1071 37bd 351e 303e 2407 be3d 4a72 b53d
000001a0: 5031 d93d e18c a93c a383 e33d fa80 6c3d
000001b0: cda5 803d 7003 6fbb 6a65 043c 9d73 ff3d
000001c0: ab0b 233e b299 043e f752 7cba 64af 5b3d
000001d0: f6d9 673d 7392 bb3d de9a df3d 41a7 8d3d
000001e0: 7850 20be 473e 083d 74ae cd3d a677 2b3e
000001f0: b47d e73d ff90 ecbd 8ffa f73d 1d71 1b3e

layers.2.weight f4 [64, 128]
0.008618501 0.049210694 0.081193365 0.035695978 -0.057156906 0.025598772 0.004336958 0.07431892
0.050095554 -0.0022118762 0.009240217 0.033787385 0.09028952 0.047031727 0.016853493 0.047655474
0.050309077 0.05797583 -0.009178828 0.029878292 -0.009997618 0.06283717 -0.038378783 0.008957345
-0.03885238 -0.012903916 0.03193289 0.0022979672 -0.0910374 0.009136704 -0.042414878 -0.00012240694
0.025531456 -0.008999996 0.039621316 -0.08482056 0.007600345 0.06738909 -0.000948801 0.070173636
-0.03971908 0.026688715 -0.07523674 -0.015278658 -0.05773094 0.034761284 0.034738462 -0.019839175
-0.05418379 -0.047394417 0.04287863 -0.034221243 -0.09184768 0.05893604 0.0058783866 0.05355363
0.03209792 -0.014816153 -0.07925931 -0.008268745 -0.008810682 0.026970388 -0.08741084 -0.012142146
-0.07153524 -0.050633363 -0.083104976 0.06226514 0.07131221 -0.046326272 -0.042283256 0.04478318
-0.005582737 -0.023766428 -0.018627975 -0.08728701 -0.06460345 0.05593538 -0.06255235 0.0469984
-0.037646666 -0.06442358 -0.045974836 0.048510004 -0.08785317 0.0312748 0.024808742 0.026552118
-0.08047851 -0.065256216 -0.020795865 -0.035761192 -0.03314965 0.026252773 0.039153434 0.06577789
-0.050606467 -0.052656118 0.075583965 -0.013066859 -0.025935695 0.046762027 -0.071830004 0.032839835
-0.043051936 -0.005815245 -0.04052833 -0.070861116 -0.0148860505 0.013891283 -0.04348942 0.0102666775
-0.07897288 -0.06309045 0.03418165 0.06433579 0.041846897 -0.062325716 0.05543028 -0.057143256
0.039048303 0.011215557 -0.025422959 -0.078399986 -0.07978359 -0.090602174 -0.017674973 0.064749785
0.061716255 0.094623744 -0.114677235 0.097902894 0.07141807 0.14789802 0.0546921 0.4297081
0.10827806 0.008514882 -0.0041002557 -0.12857439 0.28794062 0.24148212 0.072656 -0.005634291
0.037074573 0.33010137 -0.07001662 0.008393942 -0.054865364 0.05321769 0.036842413 0.16530046
0.007252849 -0.25775495 -0.22531742 0.0035342486 -0.14998233 0.055779263 0.02061331 0.10057565
0.015798977 0.015831672 0.003121375 0.047230788 0.061662205 -0.00039516014 0.525326 -0.04379844
0.11550434 -0.28042316 0.0679953 0.0078701405 -0.032169987 0.06782942 -0.046944752 -0.051518604
-0.016560195 0.028515544 0.28452381 0.01628141 0.025082309 -0.055999618 0.03307766 -0.084644526
-0.08571569 -0.14112563 -0.065326154 0.028942201 -0.039766867 0.19934915 0.07778225 0.22618403
0.08355064 0.10542562 -0.5147484 -0.028937962 0.08477491 0.0325214 0.053721327 0.09685449
0.08346902 0.023970416 -0.027887737 -0.05023831 -0.019559879 -0.012088339 0.058790617 -0.09712895
0.11407697 -0.059936218 0.038942892 -0.043901097 0.14898992 -0.08159531 0.059514273 -0.08059637
0.005916007 0.06886889 0.00057282386 0.052073468 0.033297773 0.027501768 0.05271043 0.030288845
-0.06835492 0.10703051 0.05125912 -0.008717089 0.10114085 0.005905645 0.048931256 0.055847086
-0.0028589072 0.09818234 0.090669274 -0.062873565 -0.06454064 0.1738541 0.11759144 -0.16888624
-0.006639523 0.08475247 0.14914481 -0.055572946 -0.008188703 -0.01958711 -0.06228916 -0.012927808
0.18977214 -0.005822244 -0.038277544 0.00021714639 0.0041789105 0.23647569 0.036107015 -0.10487626
00000000: 9d34 0d3c 2791 493d b548 a63d f235 123d
00000010: 5c1d 6abd 84b4 d13c 0a1d 8e3b 8534 983d
00000020: ff30 4d3d 20f5 10bb 4764 173c a464 0a3d
00000030: b6e9 b83d 57a4 403d 5610 8a3c 6332 433d
00000040: e410 4e3d 1078 6d3d cc62 16bc 52c3 f43c
00000050: 0dcd 23bc c6b0 803d 1233 1dbd d4c1 123c
00000060: ac23 1fbd f26a 53bc 10cc 023d 7e99 163b
00000070: d171 babd 1db2 153c 39bb 2dbd 5d5a 00b9
00000080: 5827 d13c b874 13bc f649 223d 67b6 adbd
00000090: 510c f93b 4b03 8a3d f5b8 78ba 32b7 8f3d
000000a0: 79b0 22bd 4ba2 da3c b815 9abd 5653 7abc
000000b0: 4777 6cbd d961 0e3d eb49 0e3d c485 a2bc
000000c0: d2ef 5dbd a620 42bd 81a1 2f3d 932b 0cbd
000000d0: a31a bcbd eb66 713d 7b9f c03b 0d5b 5b3d
000000e0: 1c79 033d 73bf 72bc b552 a2bd a179 07bc
000000f0: ae5a 10bc 01f1 dc3c 7404 b3bd daef 46bc
00000100: 1181 92bd ee64 4fbd f132 aabd bb09 7f3d
00000110: 230c 923d 9ec0 3dbd 3531 2dbd 916e 373d
00000120: 64ef b6bb d0b1 c2bc b299 98bc 88c3 b2bd
00000130: d04e 84bd 7f1c 653d 721b 80bd 6581 403d
00000140: 6433 1abd 83f0 83bd 1c50 3cbd 6db2 463d
00000150: 5dec b3bd 011a 003d b43b cb3c d483 d93c
00000160: ebd1 a4bd 0da5 85bd 175c aabc 547a 12bd
00000170: edc7 07bd 0e10 d73c 5a5f 203d 8fb6 863d
00000180: ba48 4fbd f1ad 57bd c4cb 9a3d 6116 56bc
00000190: 1877 d4bc 8a89 3f3d 9c1b 93bd 1083 063d
000001a0: 3a57 30bd d08d bebb 0901 26bd a21f 91bd
000001b0: 9fe4 73bc 4498 633c f621 32bd 9135 283c
000001c0: 89bc a1bd 9135 81bd 0f02 0c3d 7cc2 833d
000001d0: a767 2b3d 4049 7fbd dc0a 633d 0c0f 6abd
000001e0: 1df1 1f3d 75c1 373c cf43 d0bc 2c90 a0bd
000001f0: 9465 a3bd a28d b9bd 1bcb 90bc 899b 843d
00000200: 2fca 7c3d 18ca c13d e6db eabd 5081 c83d
00000210: a343 923d 9472 173e d304 603d b302 dc3e
00000220: e3c0 dd3d 0182 0b3c 705b 86bb 01a9 03be
00000230: f46c 933e 1747 773e abcc 943d dc9f b8bb
00000240: 82db 173d 0c03 a93e e064 8fbd bf86 093c
00000250: 81ba 60bd cbfa 593d 12e8 163d 8644 293e
00000260: 4fa9 ed3b 75f8 83be 9cb9 66be da9e 673b
00000270: f894 19be cc78 643d 3fdd a83c 9bfa cd3d
00000280: db6c 813c 6cb1 813c fc8f 4c3b 1275 413d
00000290: 8291 7c3d 7f2d cfb9 c47b 063f fe65 33bd
000002a0: 8a8d ec3d a093 8fbe 1f41 8b3d c3f1 003c
000002b0: adc4 03bd 27ea 8a3d 2449 40bd 2c05 53bd
000002c0: 3fa9 87bc 6e99 e93c 1bad 913e 9760 853c
000002d0: 6a79 cd3c db5f 65bd 717c 073d 1c5a adbd
000002e0: b58b afbd 3d83 10be b8c9 85bd 3218 ed3c
000002f0: 95e2 22bd 2f22 4c3e 4d4c 9f3d c99c 673e
00000300: 991c ab3d 63e9 d73d 8dc6 03bf 4e0f edbc
00000310: 789e ad3d 2935 053d e50a 5c3d a65b c63d
00000320: cef1 aa3d 9b5d c43c d374 e4bc b0c6 4dbd
00000330: 0a3c a0bc 2b0e 46bc 6ece 703d 8beb c6bd
00000340: 30a1 e93d ae7f 75bd 9582 1f3d a3d1 33bd
00000350: d090 183e 711b a7bd 3dc5 733d b60f a5bd
00000360: 10db c13b 220b 8d3d 8f29 163a fd4a 553d
00000370: 3f63 083d 634b e13c e4e6 573d 5020 f83c
00000380: aafd 8bbd d032 db3d 15f5 513d 1fd2 0ebc
00000390: ef22 cf3d 2484 c13b 246c 483d eabf 643d
000003a0: 815c 3bbb d313 c93d d0b0 b93d dbc3 80bd
000003b0: e22d 84bd cf06 323e c8d3 f03d 84f0 2cbe
000003c0: 5b90 d9bb b492 ad3d 6bb9 183e 75a0 63bd
000003d0: e929 06bc 2675 a0bc eb22 7fbd 28cf 53bc
000003e0: a153 423e 86c8 bebb eac8 1cbd cab1 6339
000003f0: 3eef 883b af26 723e f3e4 133d 5dc9 d6bd

layers.2.bias f4 [64]
0.034172915 0.08595489 -0.06999143 0.008441884 0.043993678 0.1318913 -0.045121484 0.02216524
0.032534868 -0.016503645 0.025171425 0.10793172 0.015722238 0.025644882 0.21135585 0.07935734
0.015402068 0.088975675 0.2163231 0.07757956 0.118603505 0.053202506 -0.05675697 0.018523678
0.049221803 -0.0017226597 -0.041319072 0.076210395 0.15290403 0.09881953 -0.07358573 0.13281667
-0.0892302 0.15619959 0.03576626 0.024788616 0.05597779 0.099705905 0.031438913 0.006962132
-0.008907973 -0.040986873 0.078313515 0.1459611 0.15064773 0.16268644 -0.007466418 0.009620469
0.14075284 -0.013586472 0.019715583 0.043129027 0.15479468 0.12973744 0.028891178 0.07092137
-0.02046161 -0.07865063 0.00012445333 -0.014488263 0.13003518 0.056318115 0.096153714 -0.055047438
00000000: e6f8 0b3d 1e09 b03d ab57 8fbd d44f 0a3c
00000010: b732 343d 830e 073e 4ed1 38bd e193 b53c
00000020: 4843 053d a732 87bc 4e34 ce3c 4e0b dd3d
00000030: eccb 803c 3715 d23c ab6d 583e 1a86 a23d
00000040: f558 7c3c e138 b63d cd83 5d3e 08e2 9e3d
00000050: 65e6 f23d dfea 593d ff79 68bd f8be 973c
00000060: cd9c 493d deca e1ba 303e 29bd 3214 9c3d
00000070: e092 1c3e e561 ca3d 1db4 96bd 1801 083e
00000080: 53be b6bd c9f2 1f3e a47f 123d 7f11 cb3c
00000090: f848 653d 9c32 cc3d 17c6 003d 9922 e43b
000000a0: bff2 11bc dae1 27bd d662 a03d d476 153e
000000b0: 6643 1a3e 4697 263e dba8 f4bb 2c9f 1d3c
000000c0: 8321 103e cb99 5ebc 9382 a13c 10a8 303d
000000d0: 7f82 1e3e e4d9 043e 31ad ec3c 393f 913d
000000e0: 1b9f a7bc 9513 a1bd b07f 0239 2e60 6dbc
000000f0: f127 053e d3ad 663d 3dec c43d 6c79 61bd

readout.weight f4 [1, 64]
0.0830599 0.27759263 0.27514052 -0.20298979 -0.1403361 -0.24044016 0.044929307 0.11655302
-0.1274364 0.06705196 -0.23039639 -0.23283486 0.015158808 0.017110214 -1.0548192 0.0340566
0.041894116 0.58960456 -1.144793 -0.20874088 -0.22655031 -0.6352539 0.0026225075 0.27204332
-0.20227863 -0.045803294 -0.051931635 0.19315727 -0.2633819 -0.23938844 0.027255783 -0.17025542
0.046763845 -0.14589635 0.8550088 -0.19937424 0.07005979 -0.17101371 -0.08299738 -0.17725782
0.10719265 0.009099996 0.40041575 -0.17746954 -0.15602551 -0.17037089 0.08672515 -0.24841931
-0.1482222 0.011375017 -0.19230798 0.19055659 -0.21811834 0.7638485 -0.16117193 -0.22412509
0.02888756 0.37606624 -0.17341167 0.055718902 0.87773764 0.0010397513 0.6328297 0.52394253
00000000: 4f1b aa3d 9f20 8e3e 38df 8c3e 8edc 4fbe
00000010: 44b4 0fbe f235 76be cb07 383d 5ab3 ee3d
00000020: b07e 02be 8a52 893d 08ed 6bbe 436c 6ebe
00000030: a65c 783c b82a 8c3c 5104 87bf ef7e 0b3d
00000040: 2a99 2b3d 53f0 163f 9488 92bf 2bc0 55be
00000050: cefc 67be 00a0 22bf 60de 2b3b 4349 8b3e
00000060: 2122 4fbe 3c9c 3bbd 44b6 54bd 05cb 453e
00000070: fed9 86be 3e22 75be 8547 df3c 7057 2ebe
00000080: 728b 3f3d da65 15be dbe1 5a3f c328 4cbe
00000090: 827b 8f3d 381e 2fbe 88fa a9bd 1383 35be
000000a0: d287 db3d 2618 153c 4b03 cd3e 93ba 35be
000000b0: 27c5 1fbe b575 2ebe f59c b13d a261 7ebe
000000c0: 8fc7 17be 485e 3a3c 62ec 44be 4421 433e
000000d0: 6a5a 5fbe 938b 433f 410a 25be 0c81 65be
000000e0: 9ba5 ec3c c18b c03e d492 31be 8139 643d
000000f0: 6ab3 603f 4448 883a 2101 223f 1921 063f

layers.0.weight f4 [128, 3]
0.6299103 0.5502299 0.6015761 -0.6070817 0.70422757 -0.17080922 -0.008538595 -0.026064636
-0.6084057 0.29669347 -0.26348266 0.6683686 -0.21136379 -0.32202423 0.51150197 -0.156124
-0.70263934 0.1940147 -0.27675736 -0.70053273 0.2834615 -0.26772916 0.047510628 0.6030289
-0.35050985 -0.070139006 0.7033477 -0.5834549 0.41753715 0.09015523 0.39444318 -0.7873148
-0.26726702 0.399665 -0.23491815 -0.4128006 -0.11320323 0.37804338 -0.037696358 0.44817695
-0.6187416 0.4972964 0.49928373 -0.5538749 -0.040767446 -0.4654932 -0.72978795 0.065968916
-0.6223742 0.65978724 0.53940666 -0.14159338 0.033698697 -0.34209478 0.40378293 0.09646099
0.35857433 -0.09949481 -0.093596555 -0.42739102 -0.009683882 0.63292474 0.30047694 -0.44569904
0.58800113 0.27683643 -0.00195812 0.17605057 -0.5477983 -0.15854456 -0.46721122 -0.26511136
0.112619825 -0.45449257 -0.48212367 -0.3702612 0.21311213 0.13053688 0.10977932 -0.09026874
0.60467565 0.40980497 -0.33044654 -0.12694915 -0.5217497 0.120890304 0.07482928 -0.5065293
0.53914446 -0.5828972 -0.36758322 0.43196568 0.6862584 -0.046214465 0.6130954 -0.034008805
0.09808053 -0.34902638 -0.42992264 0.50709164 0.5860186 0.5305384 -0.42042914 0.06251154
0.3790753 0.5166177 0.67420256 0.06723321 0.2200309 0.7017003 0.13458817 -0.17182292
0.024768583 -0.39286113 -0.684663 -0.37241182 -0.22232652 0.65226626 -0.645575 -0.36849466
0.01999479 0.22327334 -0.37871695 -0.6372101 -0.6617353 -0.12758912 0.17654893 0.8252423
-0.21223147 0.18217874 -0.026398938 -0.39924568 -0.170303 -0.41467953 0.28170997 0.6634267
-0.8401495 -0.53585756 0.1544313 0.5705896 -0.04614084 -0.45945174 -0.29221576 -0.54210484
-0.010990597 0.7123379 0.35981333 -0.34812254 0.7620783 0.179594 -0.065959595 0.38691518
-0.4463097 -0.23908412 0.5911136 0.20429714 -0.26889765 -0.6845714 -0.38236198 -0.4178154
-0.38816425 -0.09632533 0.4919983 0.4155341 0.16756785 0.5835544 0.7344028 0.24827877
0.2533571 -0.36929414 0.2864775 0.35940686 -0.114153445 -0.5299977 -0.545721 -0.41311535
-0.14314815 -0.21179175 0.44592005 -0.33705598 0.41263792 0.44743934 -0.4593343 -0.33536005
0.46820065 0.20818466 -0.5402306 0.078227326 -0.0055219745 0.09018644 0.5128454 0.18560927
-0.05670613 0.5037734 0.35785618 -0.3837795 -0.9922556 -0.28481466 0.2417826 0.2535231
0.4280196 -0.14945538 0.6759761 -0.17615688 0.05551454 -0.50839853 -0.48713356 0.21309115
0.51040864 -0.55876166 -0.098037705 -0.15415157 0.73454356 -0.3075704 0.37150037 -0.44717866
-0.20266761 -0.22277907 -0.20001209 0.8102845 0.29157233 0.18618833 -0.23522136 0.68212086
0.11225992 -0.45207548 0.42894915 -0.47022766 0.40041885 -0.21723069 0.3450035 0.030120125
0.6607972 0.64562845 -0.19118771 0.3880329 0.095912226 -0.6202586 0.35472846 0.097129814
0.097412355 -0.10726507 -0.27110025 -0.3573536 0.4514839 0.5475796 -0.42177746 -0.23013459
-0.13888171 -0.38569042 0.016271748 -0.5199579 0.15858395 0.7985835 0.38098395 0.13330635
00000000: cd41 213f dedb 0c3f e400 1a3f b569 1bbf
00000010: 4248 343f 9de8 2ebe 77e5 0bbc 8185 d5bc
00000020: 7ac0 1bbf 35e8 973e 33e7 86be 341a 2b3f
00000030: c06f 58be 5ce0 a4be cbf1 023f f8de 1fbe
00000040: 2ce0 33bf caab 463e 24b3 8dbe 1d56 33bf
00000050: de21 913e cc13 89be 819a 423d 1a60 1a3f
00000060: 0776 b3be 0aa5 8fbd 980e 343f 4d5d 15bf
00000070: 6ec7 d53e 4ea3 b83d 75f4 c93e 768d 49bf
00000080: 39d7 88be e4a0 cc3e 628e 70be 9a5a d3be
00000090: 18d7 e7bd e78e c13e 7f67 1abd 7377 e53e
000000a0: d965 1ebf a29d fe3e 1ea2 ff3e bfca 0dbf
000000b0: c4fb 26bd 2055 eebe 62d3 3abf b61a 873d
000000c0: ea53 1fbf d1e7 283f 8e16 0a3f dbfd 10be
000000d0: a507 0a3d 0c27 afbe a3bc ce3e 578d c53d
000000e0: 0e97 b73e efc3 cbbd 8daf bfbd ffd2 dabe
000000f0: 25a9 1ebc 5b07 223f 1dd8 993e aa32 e4be
00000100: 3e87 163f 81bd 8d3e cd53 00bb 9a46 343e
00000110: 823c 0cbf 8159 22be 4f36 efbe adbc 87be
00000120: 39a5 e63d 40b3 e8be ead8 f6be e092 bdbe
00000130: 113a 5a3e 76ab 053e fbd3 e03d d1de b8bd
00000140: 06cc 1a3f f5d1 d13e 4a30 a9be f5fe 01be
00000150: 6391 05bf 5695 f73d 1840 993d e7ab 01bf
00000160: 5f05 0a3f c038 15bf de33 bcbe 9b2a dd3e
00000170: a1ae 2f3f 614b 3dbd d2f3 1c3f d14c 0bbd
00000180: 72de c83d 96b3 b2be d21e dcbe c2d0 013f
00000190: 5105 163f 5dd1 073f 7d42 d7be 0d06 803d
000001a0: 2816 c23e 0f41 043f 8a98 2c3f 91b1 893d
000001b0: c84f 613e a2a2 333f 7bd1 093e 59f2 2fbe
000001c0: 7ce7 ca3c 1825 c9be 1346 2fbf c3ac bebe
000001d0: 90a9 63be ecfa 263f 6744 25bf 55ab bcbe
000001e0: 1dcc a33c c4a1 643e 30e7 c1be 3320 23bf
000001f0: 7c67 29bf b9a6 02be 3ec9 343e 1443 533f
00000200: 3553 59be 108d 3a3e 9642 d8bc ee69 ccbe
00000210: e963 2ebe e050 d4be 4a3c 903e 55d6 293f
00000220: 0a14 57bf f62d 09bf 3d23 1e3e 2912 123f
00000230: 2dfe 3cbd 423d ebbe 4e9d 95be 62c7 0abf
00000240: e811 34bc c75b 363f 7439 b83e 1e3d b2be
00000250: 9017 433f 7de7 373e d315 87bd bf19 c63e
00000260: b482 e4be 78d2 74be 3953 173f 4533 513e
00000270: f4ac 89be 1240 2fbf f3c4 c3be e6eb d5be
00000280: 77bd c6be 3746 c5bd 34e7 fb3e e3c0 d43e
00000290: e896 2b3e d263 153f d201 3c3f ca3c 7e3e
000002a0: 06b8 813e 1f14 bdbe 2ead 923e 2d04 b83e
000002b0: 48c9 e9bd eead 07bf 5fb4 0bbf db83 d3be
000002c0: 6e95 12be f0df 58be a24f e43e 9a92 acbe
000002d0: 4745 d33e c516 e53e de2d ebbe 50b4 abbe
000002e0: ffb7 ef3e 5c2e 553e 8d4c 0abf a635 a03d
000002f0: aef1 b4bb abb3 b83d d649 033f 5b10 3e3e
00000300: b044 68bd 4bf7 003f ed38 b73e bf7e c4be
00000310: 7704 7ebf 3ad3 91be dc95 773e c8cd 813e
00000320: 6325 db3e d50a 19be c50c 2d3f 7862 34be
00000330: 3763 633d 6826 02bf 9269 f9be 9134 5a3e
00000340: 24aa 023f 010b 0fbf fec7 c8bd e9d9 1dbe
00000350: 0c0b 3c3f de79 9dbe 4c35 be3e 9af4 e4be
00000360: 1988 4fbe 3220 64be f8cf 4cbe ce6e 4f3f
00000370: f848 953e 27a8 3e3e dedd 70be 799f 2e3f
00000380: 87e8 e53d 7076 e7be 399f db3e aec1 f0be
00000390: b303 cd3e b971 5ebe 4ca4 b03e 7bbe f63c
000003a0: 012a 293f e847 253f b6c6 43be 40ac c63e
000003b0: a16d c43d 45c9 1ebf f89e b53e ffeb c63d
000003c0: 2180 c73d caad dbbd a7cd 8abe 0df7 b6be
000003d0: e628 e73e 2d2e 0c3f 37f3 d7be 67a8 6bbe
000003e0: 0237 0ebe 3779 c5be 544c 853c f61b 05bf
000003f0: d563 223e f86f 4c3f 5410 c33e 7681 083e

layers.0.bias f4 [128]
-0.3334815 -0.2964375 -0.521026 0.35448366 0.12402781 -0.15095149 -0.07760783 0.26951882
-0.1847808 -0.029613014 -0.0007908926 -0.44299832 -0.096671976 0.6057868 0.52384853 0.10914229
-0.29335216 0.5694229 0.44199657 0.41196993 0.16694276 0.10581107 -0.19458254 -0.53893757
0.17195176 0.17529008 0.3066832 0.46430734 0.007249814 -0.14134613 -0.2885167 0.2555296
0.09059419 -0.21116321 0.63417864 0.50481385 0.19433486 -0.0017951587 0.3981476 0.27905208
0.035955288 -0.07999033 0.40181112 0.11252311 0.18341832 -0.10067127 0.17882329 0.55675197
0.3975978 0.59755117 -0.32315746 -0.3066105 -0.12748103 0.3039942 -0.24510771 -0.15175205
-0.05607201 0.2669911 0.10517272 -0.22302921 0.0035515234 -0.25281754 0.27994707 -0.046203457
0.47645095 -0.11985203 0.27731678 0.19306274 0.15732339 0.20505166 -0.03819072 0.07353172
0.23242527 0.15123056 -0.27763286 -0.3532019 0.55342436 -0.002741181 0.44128317 0.5432655
0.26444778 -0.029084982 0.25315163 -0.524084 0.39212948 -0.22299239 -0.029492054 -0.059709426
-0.44716159 0.16012487 -0.4847087 0.51074415 0.5464057 0.3640099 0.37674308 -0.06413466
0.15608916 0.15878734 -0.6096271 0.018448764 0.07991145 -0.44306967 0.18003201 0.6263103
-0.14714667 0.19172537 0.045550004 0.15891774 0.03706349 -0.097769514 0.43832076 -0.41175485
0.41734663 -0.27759466 0.43471697 -0.22845718 0.23327747 0.56675327 -0.36975092 0.49464735
-0.12412913 0.1708922 0.36499852 0.51009065 0.36568758 -0.018301675 0.09374945 -0.027315238
00000000: 16be aabe a8c6 97be f661 05bf e27e b53e
00000010: 4b02 fe3d 0793 1abe dbf0 9ebd 5ffe 893e
00000020: 2e37 3dbe fe96 f2bc e753 4fba add0 e2be
00000030: f5fb c5bd d814 1b3f f01a 063f fe85 df3d
00000040: 4132 96be b3c5 113f 604d e23e b9ed d23e
00000050: 0bf3 2a3e 79b3 d83d a540 47be d0f7 09bf
00000060: 1f14 303e 3e7f 333e 9505 9d3e b1b9 ed3e
00000070: d98f ed3b 0abd 10be 76b8 93be c7d4 823e
00000080: 7289 b93d 2b3b 58be 8859 223f 7b3b 013f
00000090: b8ff 463e 884b ebba 01da cb3e eadf 8e3e
000000a0: da45 133d f8d1 a3bd 30ba cd3e 8472 e63d
000000b0: 03d2 3b3e bd2c cebd 741d 373e 4c87 0e3f
000000c0: f091 cb3e 1df9 183f e574 a5be 0dfc 9cbe
000000d0: 638a 02be 21a5 9b3e 84fd 7abe e464 1bbe
000000e0: c4ab 65bd 0fb3 883e cc64 d73d c561 64be
000000f0: adc0 683b 4d71 81be 3955 8f3e d63f 3dbd
00000100: 61f1 f33e fb74 f5bd 77fc 8d3e 3db2 453e
00000110: 6219 213e 10f9 513e df6d 1cbd cc97 963d
00000120: e400 6e3e 2fdc 1a3e e525 8ebe e1d6 b4be
00000130: 38ad 0d3f 63a5 33bb deef e13e 7313 0b3f
00000140: b365 873e a143 eebc 179d 813e 5e2a 06bf
00000150: 32c5 c83e 1e58 64be 5299 f1bc df91 74bd
00000160: 5df2 e4be c6f7 233e bd2b f8be 21c0 023f
00000170: 3ee1 0b3f 815f ba3e 78e4 c03e 0859 83bd
00000180: d6d5 1f3e 2699 223e 8610 1cbf dd21 973c
00000190: 9da8 a33d 07da e2be 505a 383e df55 203f
000001a0: 9ead 16be a853 443e a492 3a3d 55bb 223e
000001b0: e3cf 173d 623b c8bd 946b e03e 88d1 d2be
000001c0: 75ae d53e e320 8ebe 3993 de3e aef0 69be
000001d0: 4ae0 6e3e be16 113f fe4f bdbe 6b42 fd3e
000001e0: 6a37 febd 5dfe 2e3e 16e1 ba3e 4d95 023f
000001f0: 673b bb3e 65ed 95bc b6ff bf3d 35c4 dfbc

layers.1.weight f4 [128, 128]
0.04423623 0.06366292 0.00860934 -0.24945681 -0.089809276 -0.3809631 -0.08439616 0.04312757
-0.4196926 -0.042391017 0.016624976 0.1092502 -0.23260759 -0.00292982 -0.09300029 -0.08498182
-0.0060186586 0.01656005 -0.528535 0.028075453 -0.0077150567 -0.048304457 0.031657238 0.04802798
-0.10720837 0.011840788 -0.5342859 -0.14189792 -0.07539572 0.07365674 -0.4063457 0.04671837
0.026040195 0.0030703521 -0.051978715 -0.14937173 -0.02272066 0.05245359 0.024137916 0.024172865
-0.010428546 0.016925711 -0.110015236 0.015124852 -0.1154592 0.046413925 0.013249298 -0.0035664572
-0.0038832552 0.03940924 0.0007365432 -0.37076423 0.07378271 -0.01038089 -0.24360743 -0.120637
0.09104012 -0.118300386 0.048011303 -0.07978839 0.0046565766 0.09666327 -0.027154252 -0.17146112
0.041710585 -0.06277083 -0.39564082 -0.012713411 -0.085707285 0.057579204 -0.54733294 0.04277856
0.026793597 0.012137331 -0.30332842 -0.021985997 -0.1869814 -0.39276183 0.052314997 0.06900182
-0.051253263 0.09265545 0.08343875 -0.02252396 -0.015374351 -0.17009577 -0.029867778 -0.093427345
0.004916178 -0.031526294 0.07926751 -0.08551969 -0.405215 -0.086896494 -0.06655675 0.08662158
0.0046353233 -0.13943069 0.11449419 -0.043887265 0.08001571 0.06721393 -0.1788239 0.03133981
-0.072085984 0.1305027 0.050523262 0.03936256 -0.3630743 -0.030998368 -0.100593396 -0.12889501
-0.035205893 -0.17071979 0.073107176 -0.036036167 -0.0070977192 -0.07324965 0.05773554 0.052007478
-0.16971424 -0.032540523 0.031498592 -0.036218222 0.011986659 -0.11060953 -0.10756562 0.026415119
-0.14547041 0.09518355 -0.052719206 -0.014026138 -0.22848426 -0.508435 -0.25201097 -0.038058057
-0.337781 -0.026018098 -0.00036354776 0.077621505 -0.18989465 -0.14418833 0.040786404 -0.05836511
0.07204197 -0.035446405 0.0047423523 -0.042988457 0.048150767 -0.024946995 0.084252104 -0.010254044
-0.09933447 -0.040106393 -0.25731695 -0.08079648 0.07475913 0.07932332 -0.028360827 -0.022625975
-0.049038075 -0.0033585036 -0.01359902 0.032761376 -0.05119949 0.05017437 -0.0464771 0.04926192
0.012901647 -0.055896062 -0.0818951 0.009992057 -0.19997497 -0.028273934 0.10153709 0.008454267
0.043415528 -0.036973603 -0.023533458 -0.054865584 0.020062845 0.082762234 -0.115015 0.13396914
-0.076749496 0.06699306 0.046166163 0.041734833 -0.0032217423 0.16036049 0.07483725 0.029679455
-0.06041718 0.08096861 -0.08344397 0.07670106 0.06815216 0.06543267 -0.27950338 -0.036912262
-0.061394412 0.024088386 -0.12271322 0.032149207 0.0503908 -0.07353903 0.012895694 0.10368471
0.0087804785 0.030167548 0.08506409 -0.041168272 0.09023694 0.0317669 -0.048706394 0.044872187
-0.029321725 0.08374861 0.14176007 -0.18834068 0.080827795 -0.07822336 -0.089615904 -0.023032214
0.026339792 -0.08137181 -0.14547911 0.06572047 -0.099732675 0.067966014 -0.08779196 -0.028150419
-0.17892735 0.1035181 0.0026507995 -0.048828013 -0.14335756 0.053339515 -0.0067978497 -0.350418
-0.057340432 -0.12737143 0.048545245 -0.078984424 -0.06626004 -0.084541105 -0.13329238 0.10369273
-0.39316913 0.005091853 0.0028676349 0.015553977 0.09344249 0.096345305 -0.008531709 0.04186198
00000000: 0d31 353d b461 823d 300e 0d3c 9b71 7fbe
00000010: eded b7bd 980d c3be e5d7 acbd 89a6 303d
00000020: f3e1 d6be 34a2 2dbd 1a31 883c 92be df3d
00000030: af30 6ebe 3902 40bb f076 bebd f30a aebd
00000040: 2b38 c5bb f1a8 873c 124e 07bf 7efe e53c
00000050: 96ce fcbb e5da 45bd 05ab 013d fdb8 443d
00000060: 1090 dbbd ddff 413c f6c6 08bf b04d 11be
00000070: 1269 9abd 58d9 963d 8b0c d0be c35b 3f3d
00000080: 3f52 d53c f637 493b a2e7 54bd e7f4 18be
00000090: ad20 babc 93d9 563d e1bc c53c 2c06 c63c
000000a0: 7edc 2abc caa7 8a3c ab4f e1bd 3ace 773c
000000b0: e075 ecbd 871c 3e3d 9513 593c 39bb 69bb
000000c0: 367e 7ebb 956b 213d 9414 413a cfd4 bdbe
000000d0: 641b 973d 9c14 2abc 3a74 79be 8810 f7bd
000000e0: 3e73 ba3d 7947 f2bd 80a7 443d 1868 a3bd
000000f0: 3296 983b 64f7 c53d 9872 debc 8193 2fbe
00000100: b8d8 2a3d fe8d 80bd 6f91 cabe e94b 50bc
00000110: 4d87 afbd 2cd8 6b3d 031e 0cbf 9238 2f3d
00000120: 3f7e db3c a8db 463c dd4d 9bbe fa1b b4bc
00000130: 0d78 3fbe 1418 c9be 4048 563d d450 8d3d
00000140: f1ee 51bd 24c2 bd3d efe1 aa3d 2b84 b8bc
00000150: b4e4 7bbc 962d 2ebe 45ad f4bc d656 bfbd
00000160: e417 a13b b721 01bd 0157 a23d f224 afbd
00000170: 5778 cfbe caf6 b1bd e84e 88bd a866 b13d
00000180: e9e3 973b ebc6 0ebe ee7b ea3d 22c3 33bd
00000190: 47df a33d 75a7 893d 9d1d 37be 2c5e 003d
000001a0: d1a1 93bd 80a2 053e 7bf1 4e3d a33a 213d
000001b0: e0e4 b9be 4af0 fdbc e903 cebd 0efd 03be
000001c0: 0e34 10bd 2bd1 2ebe 37b9 953d a99a 13bd
000001d0: fc93 e8bb ea03 96bd 1a7c 6c3d cb05 553d
000001e0: 92c9 2dbe 3649 05bd ab04 013d 8f59 14bd
000001f0: b163 443c 4087 e2bd 5d4b dcbd 8564 d83c
00000200: 32f6 14be 98ef c23d 18f0 57bd e3cd 65bc
00000210: c7f7 69be cc28 02bf 9507 81be c4e2 1bbd
00000220: a2f1 acbe e823 d5bc 8e9a beb9 06f8 9e3d
00000230: be73 42be 1ba6 13be a50f 273d 4110 6fbd
00000240: be8a 933d 4030 11bd bc65 9b3b aa14 30bd
00000250: bd39 453d a45d ccbc 5e8c ac3d 9400 28bc
00000260: df6f cbbd 9a46 24bd 0cbf 83be a078 a5bd
00000270: 511b 993d 4474 a23d f754 e8bc 1c5a b9bc
00000280: 26dc 48bd 571a 5cbb 6dce 5ebc cb30 063d
00000290: 8eb6 51bd a483 4d3d c65e 3ebd dec6 493d
000002a0: 6e61 533c 45f3 64bd 9eb8 a7bd bab5 233c
000002b0: 3dc6 4cbe bd9e e7bc aef2 cf3d c483 0a3c
000002c0: 7bd4 313d a271 17bd 3dc9 c0bc bcba 60bd
000002d0: d65a a43c 3f7f a93d fc8c ebbd 352f 093e
000002e0: d72e 9dbd a833 893d bb18 3d3d 25f2 2a3d
000002f0: de23 53bb 8a35 243e 4644 993d 5422 f33c
00000300: 0178 77bd dfd2 a53d ace4 aabd 7215 9d3d
00000310: 5c93 8b3d 9001 863d 111b 8fbe 5031 17bd
00000320: b578 7bbd 0255 c53c 1251 fbbd e3ae 033d
00000330: 9566 4e3d a29b 96bd 7648 533c a658 d43d
00000340: ffdb 0f3c ef21 f73c 1536 ae3d 10a0 28bd
00000350: 25ce b83d 021e 023d 5b80 47bd e6cb 373d
00000360: 1d34 f0bc 6484 ab3d 8d29 113e 61dc 40be
00000370: 0b89 a53d 9233 a0bd 8b88 b7bd 0eae bcbc
00000380: 8cc6 d73c 43a6 a6bd 7af8 14be 7498 863d
00000390: a540 ccbd c431 8b3d 45cc b3bd b59b e6bc
000003a0: bb38 37be 4c01 d43d 09b9 2d3b e2ff 47bd
000003b0: 53cc 12be 897a 5a3d 7fc0 debb fd69 b3be
000003c0: cddd 6abd a86d 02be 61d7 463d 96c2 a1bd
000003d0: 58b3 87bd e323 adbd cc7d 08be db5c d43d
000003e0: 774d c9be 8fd9 a63b eeee 3b3b 1cd6 7e3c
000003f0: c75e bf3d b050 c53d 95c8 0bbc 7877 2b3d

layers.1.bias f4 [128]
-0.009386317 0.04841054 -0.06956756 -0.086476296 0.064253345 -0.0864692 0.13400945 0.0026617148
0.016657446 0.03086273 0.032767877 -0.046881903 -0.006990962 0.019897768 -0.009226096 -0.019294847
-0.05793898 -0.018444687 -0.08286553 0.012758277 0.066281974 -0.028046168 0.058132615 -0.0037744795
-0.01706307 0.05362047 0.09801757 0.10149415 0.12338801 0.015386943 0.064676106 0.08630919
0.020181842 0.024642518 0.07426798 0.087488346 -0.0432553 0.13343938 0.050704964 -0.07981936
0.06334175 0.036141597 0.04221814 0.047918588 0.060117856 0.040203936 0.035660528 0.10021561
0.06834096 0.03359718 0.11673717 0.07264154 0.05413194 -0.02659012 -0.028496917 0.024828777
0.07687923 -0.010694813 0.1249825 -0.0049627796 -0.048662446 -0.0070037283 -0.05349139 -0.004709647
0.027118087 -0.042715393 -0.010838213 -0.07782836 -0.033619937 0.075926386 0.05741192 0.09705819
-0.002242412 -0.05292007 0.05873823 0.06328467 0.036430728 -0.07049077 -0.012331419 -0.032528996
0.066173665 0.016720654 -0.020002086 0.12094676 0.08008206 -0.10621291 -0.010461007 -0.082115054
-0.048493225 -0.05739055 0.10030667 0.078026295 0.05429949 0.014018547 0.0066438476 -0.10052199
-0.0010287876 0.05242128 -0.05585827 -0.07292317 0.09539253 -0.042979017 -0.014460845 0.07271627
-0.074630566 -0.084965155 0.027325774 -0.054993503 0.06498819 -0.0013435417 0.016254658 -0.005012422
0.054790996 0.039288558 -0.084182225 0.06765417 -0.05082958 0.07627979 -0.023735916 0.0020849667
0.00655271 -0.0748759 0.04677613 0.06592432 0.057722308 -0.047211584 0.009111123 0.005608598
00000000: 11c9 19bc 214a 463d 7079 8ebd 7c1a b1bd
00000010: 4297 833d c416 b1bd c639 093e 2a70 2e3b
00000020: 3275 883c d6d3 fc3c 9c37 063d 3d07 40bd
00000030: 7114 e5bb a500 a33c 0d29 17bc 3a10 9ebc
00000040: 6d51 6dbd 5019 97bc 67b5 a9bd 1808 513c
00000050: d8be 873d 14c1 e5bc 771c 6e3d 425d 77bb
00000060: dac7 8bbc 23a1 5b3d 70bd c83d 2adc cf3d
00000070: dab2 fc3d 8419 7c3c e874 843d dfc2 b03d
00000080: 6454 a53c 1bdf c93c d019 983d 172d b33d
00000090: 782c 31bd 55a4 083e 02b0 4f3d 5578 a3bd
000000a0: 52b9 813d 3609 143d eeec 2c3d 4846 443d
000000b0: 243e 763d e2ac 243d c610 123d d73d cd3d
000000c0: 58f6 8b3d 329d 093d e613 ef3d 16c5 943d
000000d0: 74b9 5d3d 86d3 d9bc 5e72 e9bc b865 cb3c
000000e0: dc72 9d3d 4c39 2fbc d3f6 ff3d d09e a2bb
000000f0: 4652 47bd 887f e5bb ca19 5bbd 6253 9abb
00000100: c026 de3c 56f6 2ebd c392 31bc 7a64 9fbd
00000110: 0fb5 09bd 4b7f 9b3d c328 6b3d 72c6 c63d
00000120: 6ef5 12bb b7c2 58bd 8097 703d 659b 813d
00000130: 6338 153d 775d 90bd b809 4abc 203d 05bd
00000140: 0f86 873d c1f9 883c 6adb a3bc efb2 f73d
00000150: 1002 a43d 2786 d9bd a564 2bbc f02b a8bd
00000160: d5a0 46bd 5a12 6bbd 956d cd3d 40cc 9f3d
00000170: 2469 5e3d 0cae 653c a2b4 d93b 79de cdbd
00000180: 62d8 86ba b2b7 563d a4cb 64bd be58 95bd
00000190: 295d c33d c40a 30bd 2eed 6cbc 45ec 943d
000001a0: e9d7 98bd 3602 aebd 4dda df3c de40 61bd
000001b0: 8718 853d c719 b0ba 7d28 853c 3e3f a4bb
000001c0: 866c 603d 0aed 203d bb67 acbd 458e 8a3d
000001d0: ad32 50bd 9438 9c3d d371 c2bc f0a3 083b
000001e0: 1eb8 d63b 8958 99bd 5498 3f3d 5403 873d
000001f0: 3a6e 6c3d ef60 41bd d246 153c 54c8 b73b

readout.weight f4 [1, 128]
-0.15252294 -0.16875789 -0.42645803 0.31140444 0.22334199 0.089674845 0.30881566 0.087026425
-0.09268577 -0.02906847 -0.9796447 0.11704397 -0.5736342 0.14064007 -0.44429684 -0.3153422
-0.024302365 -0.22210978 -0.13381141 -0.5268211 -0.19976889 -0.11000477 -0.07494313 -0.30805552
-0.17695409 0.3103381 -0.290645 0.113466494 -0.43763512 -0.105786785 -0.73779446 0.5436691
-0.09162248 -0.06015938 0.1883789 0.30022138 0.19630864 0.11082967 0.29637262 -0.09137351
-0.22406398 -0.36372432 0.03185795 -0.14633065 -0.16781944 0.63901645 0.048012488 0.13915049
-0.32139483 -0.39346552 0.14643532 -0.035176285 -0.18576135 -0.20325038 0.065267734 -0.2297987
-0.17500766 0.012278874 0.13517448 0.04526448 -0.07056257 0.0852738 0.3677417 -0.03141857
0.08531262 -0.07019937 -0.14137042 -0.13329443 0.22185488 -0.23190537 0.07474326 -0.40495276
-0.33224112 0.046750166 -0.1272857 0.5662768 0.1286066 -0.7605538 -0.3542124 -0.119930714
0.38542736 -0.48043278 0.39677274 0.2973432 0.050457835 -0.38570768 0.105424546 -0.18942058
0.217827 -0.15881418 0.03019806 0.13074718 0.5253649 0.16534038 0.22728385 0.27083954
-0.22179544 0.097054996 0.0701877 -0.46692723 -0.5950495 0.06792759 0.111608975 0.08767431
-0.08994291 0.27800462 -0.2958575 0.7712857 -0.0019812514 -0.35387886 0.09971379 -0.070780225
-0.28238824 -0.1789057 -0.17644912 -0.6035762 0.038835328 -0.047893453 0.14002427 -0.39032832
-0.21343979 -0.27775538 0.15628661 0.055878676 -0.6856916 0.071550384 0.31939656 0.19268624
00000000: f92e 1cbe dece 2cbe b558 dabe 6770 9f3e
00000010: c3b3 643e 72a7 b73d 161d 9e3e e93a b23d
00000020: 09d2 bdbd 0021 eebc ffc9 7abf c0b4 ef3d
00000030: b1d9 12bf f303 103e e07a e3be 8874 a1be
00000040: c115 c7bc bf70 63be dc05 09be bfdd 06bf
00000050: 3790 4cbe 2e4a e1bd c97b 99bd 74b9 9dbe
00000060: 7433 35be a3e4 9e3e 6ccf 94be 1f61 e83d
00000070: b611 e0be bea6 d8bd 19e0 3cbf e62d 0b3f
00000080: 91a4 bbbd af69 76bd 66e6 403e 9eb6 993e
00000090: 2205 493e abfa e23d 27be 973e 0922 bbbd
000000a0: 0771 65be 133a babe 7b7d 023d b4d7 15be
000000b0: dcd8 2bbe 9596 233f bea8 443d 777d 0e3e
000000c0: dd8d a4be 5074 c9be 24f3 153e 0215 10bd
000000d0: 3938 3ebe de20 50be 17ab 853d 5a50 6bbe
000000e0: 3535 33be 552d 493c 2e6b 0a3e 3f67 393d
000000f0: 1c83 90bd 08a4 ae3d a448 bc3e c2b0 00bd
00000100: 62b8 ae3d b0c4 8fbd 68c3 10be 567e 08be
00000110: ed2d 633e 9a78 6dbe ff12 993d f855 cfbe
00000120: 821b aabe 1a7d 3f3d 2f57 02be 84f7 103f
00000130: 73b1 033e a7b3 42bf 545b b5be 3c9e f5bd
00000140: bc56 c53e 49fb f5be cc25 cb3e 5e3d 983e
00000150: e0ac 4e3d 7a7b c5be d3e8 d73d 78f7 41be
00000160: 0b0e 5f3e 2fa0 22be ec61 f73c 97e2 053e
00000170: 507e 063f fd4e 293e 19bd 683e 7bab 8a3e
00000180: 581e 63be c5c4 c63d 92be 8f3d 1611 efbe
00000190: 2a55 18bf 9f1d 8b3d 3f93 e43d 978e b33d
000001a0: fd33 b8bd 9f56 8e3e a27a 97be fb72 453f
000001b0: e2d7 01bb 9c2f b5be be36 cc3d 39f5 90bd
000001c0: 3195 90be 0e33 37be 14af 34be f883 1abf
000001d0: cb11 1f3d ed2b 44bd 8662 0f3e 1dd9 c7be
000001e0: f68f 5abe f435 8ebe 9909 203e 0ae1 643d
000001f0: 7c89 2fbf 0289 923d f287 a33e 8b4f 453e
