HW9/9_gym-DDPG/results/DDPG_Pendulum-v1_500-eps0.1-t32-l5e-05-s1-u20.pth (torch, 176216 bytes, 12 tensors)

layers.0.weight f4 [128, 4]
00000000: e709 2c3f 4d54 06bf 00bf 023d aff3 debd
00000010: 50e4 0ebf 71ec 613e 617f 34be 01b0 563e
00000020: ae15 87bd 277c 493b 38bf 943d d8f3 82bc
00000030: 12b0 ee3e e386 8bbd 89ad adbd dd48 25be
00000040: 2e81 61bd 4145 313e 3b08 fb3e 99c5 00bd
00000050: 48d6 75be 30b8 39bf 5169 dfbd b54d cfbd
00000060: 601e 07be 5daa 053f 2397 c13e c913 343d
00000070: 2787 10bf 41a4 283f 97a4 e83d b914 b43e
00000080: 044e 253f b4a5 1abf d95b 0abf 0681 d0be
00000090: 9e9e 253f b542 f9bc d3c1 ab3e 5f65 9bbe
000000a0: 1f76 0c3f d083 7cbd 657b d33e 387d a9bd
000000b0: 01de 18bf 5675 9c3c a477 98be 8daa 333e
000000c0: 3f53 7dbe 60a5 d3be 26ec fcbe 5dfa e3bd
000000d0: 87f9 3f3e 55d5 78bd 9edd 053f 0ead da3e
000000e0: fdb1 c8bd 09d0 b0be f32f b33e c7c9 1e3e
000000f0: 0f5d bbbe 29cc 313f 7690 823e 3392 b63e
00000100: ea5f b5be 1a74 c5be d002 2d3c 2ea4 9a3d
00000110: 76b4 f5be f686 cfbd 1eb0 9b3e 42ed 58be
00000120: 3c59 5a3f 430f d93d 0da3 383e 225c 4fbd
00000130: e5de bcbc 911a cf3e bb56 0abf 46c4 723e
00000140: ec4c e7be f28b 01bf a7e8 b7bd 8c7a a1bd
00000150: e6e9 e43e d522 58bf 2505 e0be fead c63e
00000160: f84e dbbd d70a 0e3f 381a 863d 61b1 c6be
00000170: 2d99 2b3d 4fa2 8a3d c265 aebe b79e 19be
00000180: cd2b c13c ddc4 7fbd 6345 a3bd 9b43 16be
00000190: d84b bc3e 8cf9 8ebc 1588 b13e 43e4 cf3d
000001a0: e3f3 11bf fefb 78be 8408 033f 02e5 bdbd
000001b0: 2c15 983e 2ff9 d93e acf9 e23d a00b 723e
000001c0: 1fee de3e e00d 04bf d546 823c 84db ad3e
000001d0: 47d8 a03e 2770 cf3e 45cf cabe 5291 cebe
000001e0: 37dd a0be b5dc e13e 394b 003f 7934 c2be
000001f0: f801 943e 965e a0be 5880 0abf 9474 8cbd
00000200: 84bd 0f3e 9d01 143f 4394 b3be c93d 2b3e
00000210: df20 523f 2ab9 423f ab93 ad3e 5577 1d3e
00000220: 6aeb 733e bf6b 813e 41b1 abbe 88b1 f1be
00000230: 73b1 bbbe 10bb a4be 1722 72be 3288 203e
00000240: 4d9e bfbd c93e aabd 0e80 873e 0791 733d
00000250: 4888 813e 87b3 023f 421c 4abe c6e6 0f3f
00000260: aeba fabd ec13 39be 4b1c efbe 4a85 a7be
00000270: 8824 b2be 7d97 8a3d 8078 d63e 7566 68be
00000280: e058 ebbe d68d 813e c59b ef3d de41 8d3e
00000290: 2c58 d8be c2f1 56be 0385 44be 85dc 24bd
000002a0: 97a8 e0be 7048 2abf 8d21 06be 655d 203e
000002b0: 4162 f93e ed52 143f b7e0 053f 01db ee3e
000002c0: 6d35 ac3e f68e 503d c8ac c0be 3353 093f
000002d0: 0d9e 9fbe a8e1 72be 2a1e e0be bcac 48bd
000002e0: 744f 2dbf dd08 e53d c41e e2be 2e6a b4be
000002f0: dff3 32be e2cc 94be badc 0a3e 156b 0fbe
00000300: 5145 80be baa0 ef3e 09a4 b43e 681e d0be
00000310: 7eef 103f ca69 e93e 074d f43e a433 b7be
00000320: 6b9a 0d3e 80fb 8dbe b124 ee3e 3e5c 3cbe
00000330: 2aa1 063f 63ab 1dbe a93b 44be 5733 eabd
00000340: 28bc 20bd b748 ea3e a836 153b e22a db3d
00000350: 048d f9be aeb9 183f 3ef4 e03e 5b09 b53e
00000360: 95c8 4a3f c467 1abf d305 4dbe 2122 9e3d
00000370: 4a5c 03bf 613c c93e b6aa e3be 95a4 c3be
00000380: afd8 dd3e a6c5 40bf 9997 17be eac2 553e
00000390: 1a38 d53e 57b7 293f d1a0 4fbe 58a6 ccbe
000003a0: abda 4d3f 3cef 21bf 9159 55be fd85 df3d
000003b0: 8613 d3be 2a34 033f 060d a33e 8e0a d5be
000003c0: 235e 03bf b40b 893e 7e0d 693e 9556 0cbe
000003d0: 007f 96be be5c cfbe 7c0b 08bf 2837 55be
000003e0: 8e8a b2be 85ab 1f3f d2e7 dc3e f610 4bbe
000003f0: 6369 6fbd 159c c23e 154e cabd 77b7 7dbe
0.6720261 -0.5247238 0.031920433 -0.10886323 -0.5581713 0.22062851 -0.17626716 0.20965578
-0.06595932 0.0030744167 0.072630346 -0.015985414 0.46618706 -0.06812837 -0.08480365 -0.16141076
-0.055054836 0.17311575 0.49029717 -0.031438444 -0.24007523 -0.7254667 -0.109087594 -0.10122243
-0.13195181 0.5221308 0.3781062 0.04396418 -0.56456226 0.6587563 0.11359518 0.3517206
0.6457217 -0.6040909 -0.540464 -0.40723437 0.64695156 -0.030427316 0.33546314 -0.30350778
0.5486774 -0.061649144 0.4130508 -0.08275837 -0.5971375 0.019098919 -0.2977878 0.17545529
-0.24738787 -0.4133711 -0.49398917 -0.111317374 0.18747531 -0.060750324 0.52291286 0.42710155
-0.097995736 -0.34533718 0.3499752 0.1550666 -0.36594436 0.6945215 0.2550084 0.35658416
-0.3542474 -0.3856514 0.010559753 0.07550846 -0.47989243 -0.10133164 0.30407804 -0.21184257
0.8529241 0.10598614 0.18030949 -0.050624974 -0.023055503 0.40449956 -0.5403859 0.23707685
-0.45175874 -0.50604165 -0.08979922 -0.07884702 0.447097 -0.8442815 -0.43753925 0.3880462
-0.107084215 0.5548529 0.065479696 -0.38807204 0.041894127 0.06769239 -0.3406201 -0.15001951
0.023580456 -0.062443603 -0.07972219 -0.14674227 0.36776614 -0.017452978 0.34674135 0.10150959
-0.57012767 -0.24314877 0.5118487 -0.092721954 0.29703653 0.42572924 0.110827774 0.23637247
0.43541047 -0.5158367 0.015902916 0.3395654 0.31415007 0.40515253 -0.3961126 -0.40345246
-0.31418774 0.441137 0.5011478 -0.37930658 0.28907752 -0.31322163 -0.5410209 -0.06858173
0.14037138 0.5781496 -0.35074052 0.16722788 0.8208141 0.7606379 0.33901724 0.15377553
0.23820272 0.25277516 -0.33533671 -0.47205758 -0.3665882 -0.32173967 -0.23645817 0.15676954
-0.09356365 -0.083127566 0.26464885 0.05946448 0.25299287 0.51055187 -0.19737342 0.5621151
-0.122426376 -0.18074006 -0.46701273 -0.3271888 -0.34793496 0.06767175 0.4188881 -0.22695334
-0.45966244 0.25303525 0.116996326 0.27589315 -0.4225477 -0.20990661 -0.19191365 -0.040249366
-0.43878624 -0.6651678 -0.13098736 0.15660627 0.48707774 0.57939035 0.5229601 0.46651462
0.3363451 0.05091759 -0.37631822 0.53642577 -0.3117527 -0.23718894 -0.43773013 -0.048992857
-0.6769936 0.11183331 -0.44164097 -0.3523726 -0.17475842 -0.29062563 0.13560763 -0.14005692
-0.25052884 0.46802312 0.352814 -0.40648198 0.56615436 0.45588523 0.47715017 -0.35781586
0.13828437 -0.27730942 0.46512368 -0.18394563 0.52589667 -0.1539741 -0.19163384 -0.114355735
-0.03924194 0.45758602 0.0022768173 0.107015386 -0.487404 0.59658325 0.43936342 0.353587
0.79212314 -0.60314584 -0.20021753 0.07721353 -0.51312697 0.39303878 -0.4446618 -0.38211504
0.4332938 -0.7530159 -0.14803924 0.20875135 0.41644365 0.6629538 -0.2027619 -0.3997066
0.80411786 -0.6325567 -0.20834948 0.10914228 -0.41225833 0.5125147 0.31845874 -0.41609615
-0.51315516 0.2676674 0.22759053 -0.13704903 -0.29393768 -0.40500444 -0.53142524 -0.20821822
-0.34871334 0.62371093 0.43145615 -0.19830689 -0.058450114 0.38009706 -0.09878174 -0.24777018

layers.0.bias f4 [128]
00000000: 1576 08bf fb09 f13e a969 dc3e f845 ebbe
00000010: 2fa0 d8be 7792 78be 8b4c babe ca76 333e
00000020: 0a1d 00bf 8953 8abe 438a 6b3e 39b7 92bc
00000030: 209a 09be 6507 02bf 5198 863e ed8d 493e
00000040: 0ccc e0bd b7f6 46be d8da 433e e909 8d3e
00000050: 02cf 9b3e e10e 743e daa2 d33d c6eb 04bf
00000060: efbb 023f 8ccc ae3c daa0 bfbe 61f1 233f
00000070: 1885 963e 3db2 d3be 22e9 1bbe a0cc 64be
00000080: 6245 bfbe 7bd0 823e 9ee0 c0be 9527 173f
00000090: 73ff 65be 3a97 bf3e 2a7f ed3d 8ec1 f7bd
000000a0: 9bfb f63e 1b69 b0be fbc2 febd 6b0b d0bd
000000b0: e1ff c53e 95fd 28be b502 e6bd 23e3 0cbf
000000c0: d75a 31be 483a 3dbd 074a 56be 2a69 99be
000000d0: 3e36 9f3e b395 c93d 6e95 dabe 961c f5bd
000000e0: ffc5 433e 262b aa3d 0eff 0b3e 01d7 9d3d
000000f0: 0e85 94be 48cd babe bda0 04bb 9c95 6bbd
00000100: 864c 3a3e 476f afbd 08c1 0f3e 15c3 69be
00000110: c1a7 da3e 15c9 8c3e 2e2c 813d fc75 1a3f
00000120: df74 923e 39a1 aabe df30 69be 7001 e63e
00000130: 0f49 b63e 60df 0e3f 278b c43d fb3a 003f
00000140: da77 bb3e a21e 103e f35d 22bd 677a 103f
00000150: 4254 663e aa21 3e3b c643 1a3e fb94 213f
00000160: 5848 ec3e 80b1 003d 0544 213f 1190 a03e
00000170: 4d1a 88be 3d0c f2be 7e14 d83e fb73 173f
00000180: dfa8 e0bd 9bc2 b13e 4c1e 16be fa64 eebd
00000190: 4436 0f3b e89c 923e e5f3 70bd ac9d ed3e
000001a0: e52c 903e a410 b93e 0286 233f d6b2 9e3e
000001b0: f61f 693e ae73 b2be 5bdd 053f e470 563e
000001c0: 506a d23e fa2d e63e 87ea 82bb 1107 dd3e
000001d0: 898b 42bd db77 123f 6957 f03e 9112 81bd
000001e0: 3151 7f3d a8aa 05be 9a62 c9bd 8b7c 5dbc
000001f0: ffb9 9dbb 7c1d 1cbd d0e0 efbe e89c a7be
-0.5330518 0.47077927 0.43049362 -0.4595182 -0.4230971 -0.24274622 -0.36386523 0.17525783
-0.5004431 -0.27016857 0.23001961 -0.017909633 -0.134377 -0.50792533 0.26288083 0.19683047
-0.10976419 -0.19430052 0.19126451 0.27546623 0.30431372 0.23833801 0.10333796 -0.5192226
0.51068014 0.02133777 -0.37427408 0.6404019 0.29398417 -0.41346923 -0.15225652 -0.22343683
-0.37357622 0.25549683 -0.3767137 0.5904477 -0.22460727 0.37420064 0.1159652 -0.120974645
0.48238835 -0.3445519 -0.12439533 -0.10158428 0.38671783 -0.16502984 -0.11230985 -0.55034083
-0.17319809 -0.04619816 -0.20926677 -0.29963046 0.3109607 0.09843006 -0.4269213 -0.11968343
0.19118498 0.08309011 0.13671514 0.07707024 -0.29007763 -0.36484742 -0.002023741 -0.057515725
0.18193254 -0.08566146 0.1403848 -0.22828324 0.4270611 0.27497163 0.06307255 0.6033628
0.2860479 -0.33326128 -0.22772549 0.44922972 0.35602614 0.55809593 0.09596854 0.5009
0.36614877 0.14074185 -0.03964038 0.5643677 0.2249308 0.0029011765 0.15064916 0.6311795
0.46148944 0.031419277 0.62994415 0.31359914 -0.26582566 -0.47274962 0.42203134 0.5916135
-0.109697096 0.34718785 -0.14659995 -0.116403535 0.0021852413 0.28635335 -0.058826346 0.46409357
0.28159252 0.36145508 0.63876355 0.30995816 0.22766098 -0.34853882 0.52290887 0.20941502
0.41096735 0.44956952 -0.003995243 0.43169454 -0.047496352 0.57214135 0.4694169 -0.063023694
0.06233329 -0.13053381 -0.0983326 -0.013518463 -0.004813432 -0.038114056 -0.46851206 -0.32736897

layers.1.weight f4 [128, 128]
00000000: 9569 ad3e 0f1d 8c3d 5ffe 2a3e 4ca1 8a3e
00000010: aa71 e13c 4004 563d 716b debd 783b 323e
00000020: 0e07 0fbd 1c47 ac3c 7877 75bd 2514 203d
00000030: f191 90bd 4fcf 2bbd 08f4 8d3b a4e0 f83c
00000040: 701d a33d 43a0 dd3d 75e8 633d 9bfd 3f3d
00000050: ec68 f63c 3301 063e 5477 083d c914 fcbd
00000060: e890 f23d b504 bdbc c757 a93d 9a4c 2c3d
00000070: 684f f4bd 10d2 7cbd 155f 943d 2f62 753c
00000080: 3b88 f7bd 1f9d 0c3d da98 17bc a619 083e
00000090: 55dc a7bd 8563 b0bd 85f6 bb3d cda1 80bc
000000a0: 4b2a 2d3e c6ab 6cbc 975c 183d e695 ecbc
000000b0: 9e1a b73c 239c b6bd ec13 2e3d fc98 fbbd
000000c0: 9b41 b2bb 78a7 18bd 5aeb 613d 12e7 4ebd
000000d0: d2d1 7f3d 3f11 2a3d 69f4 173e b54d 81bd
000000e0: 3258 cd3d b851 0dbd 14ff d83d 18d9 ff3d
000000f0: 9b34 3fbd 14f2 60bd f490 ec3c 9626 3f3d
00000100: 5a51 4cbd d8a1 4abd 8be0 b63d ea63 443d
00000110: ac9f dd3d 8a82 e03c 29c5 343c 996f 703d
00000120: 2d68 213e 468d e0bd 1acb f5bc 73aa ce3d
00000130: 488a fe3c 93eb ea3d 1c68 8a3d 3deb 573d
00000140: 268d 233e 9794 b73d 48cc 7d3d 0c6e f53b
00000150: b3a3 0c3e da7b fa3d 1685 a03d ac8a 5f3d
00000160: a8d3 a23d 0b6b 31bd 23af 273e 6eed e53d
00000170: 6dfe 0aba 19da 0fbe e797 263e 31b7 eb3d
00000180: 28d3 c63d 1307 043c 8a27 1d3d ca8f 00bd
00000190: b40e b8bc d6da ce3c bfa2 0f3d 49c7 d43d
000001a0: 6bc9 abbc 79ad 203e 92d3 043e dabd 043e
000001b0: ded4 e13d 355b a6bc 1df1 e83d a27a ad3d
000001c0: bdb9 133e 2656 27bd a29c 2d3c ffb6 cf3d
000001d0: 6652 8c3d a556 1e3e 9da6 c9ba 594d 4f3d
000001e0: 0544 48be 1d1c b2bc 1bd0 003e 87ef 53be
000001f0: a4ba bb3b 1974 8b3d 9431 42bd e562 0f3d
00000200: ef32 a23e 31e2 073e 96d0 d33c 8d7d 473e
00000210: e623 f1bd 566f ac3d 3275 333d b5fb 7e3d
00000220: 60d3 643d d815 3ebc 7f12 95bd 77a4 cdbc
00000230: d3f6 0cbd 686b 57ba bd0d 493d 0f85 bb3d
00000240: 675e 4f3d 5cf0 cebc 4939 5dbd 31af 55bd
00000250: a431 433e 9944 ad3d f203 05bd 591d 7bbd
00000260: a937 7d3d 6d87 f93c b8d3 ab3d 10a8 c23d
00000270: 16d7 0abc 5785 47bd eafa 0d3d 6446 01bd
00000280: 62bf 1ebd 6ea6 913d 51b0 0d3d facb 4c3e
00000290: 0634 b4bd e194 7fbd fac8 583d fb73 d43d
000002a0: 631f d03c 4b7b e3bd 72c2 003e e4fd 66bd
000002b0: a54c 0f3d ed6f 09bc fa6a 32bb 80f8 46bd
000002c0: 652b d03d 1c30 e23d f121 483d 8350 1ebc
000002d0: 6ccd 423e 6432 0c3e 1916 183e 7605 933d
000002e0: 2a78 833d 3c24 8bbd 3865 bb3b e158 3c3d
000002f0: 1975 25bd 3a1c ccbc b348 bc3d 2c49 4c3d
00000300: aad9 9cbd bdc7 03be 3bf3 9f3d adb2 bdbd
00000310: 2211 ee3d 3b63 983c 6987 6c3b 60d6 253e
00000320: a104 fe3d 30f3 07be 38cc 42bd 9b92 c23d
00000330: 520b d03d 7c3c f23b 42dc 16bc 33a6 d43d
00000340: 3077 b03d 1b31 b53d 19f7 14bd 18b8 343d
00000350: f31f 003d 7ffe 8c3d 1536 b33c 148a f63d
00000360: a929 0439 da0f c4bd 3a97 0f3d 1fe0 6bbd
00000370: 182d 813d bfe9 d2bd 0ef8 763d 549d 0a3e
00000380: a568 203d 506f fc3d 9cf0 d0bc 8a6b abbd
00000390: 2953 a13d 9c81 1f3e ec52 d6bd 5093 853d
000003a0: 3d5e a73d d82e e23d aaa4 863d 99e7 1f3d
000003b0: b765 eabb e4e4 63bc bbfc 603b ce64 81bd
000003c0: a068 963d 14d8 6abd 99a3 9a3d f2bc ac3d
000003d0: 7b1a 8d3d e226 583d 44d0 713d e022 0b3e
000003e0: ec58 1fbe 684e 6f3d 9c31 ce3d 946e c7bd
000003f0: 589a 8c3d 7f78 d53d a105 adbc db25 23bd
0.33869615 0.0684148 0.16698597 0.27076185 0.02752002 0.052250147 -0.108603366 0.17405498
-0.034918837 0.021030001 -0.059928387 0.03908171 -0.07059086 -0.04194575 0.0043320693 0.030380554
0.07964599 0.10821583 0.05564161 0.046872716 0.030079328 0.13086395 0.033316925 -0.12308652
0.11844045 -0.023073534 0.08268695 0.04206524 -0.11929208 -0.06172377 0.07244698 0.014977022
-0.12086531 0.03432953 -0.009252751 0.13291034 -0.08196322 -0.08612732 0.09177879 -0.015702153
0.16910665 -0.014445251 0.037197676 -0.02888007 0.02235156 -0.089164995 0.042499468 -0.12285039
-0.0054399497 -0.037269086 0.05515609 -0.050513335 0.06245596 0.041520353 0.14839329 -0.063136496
0.100265875 -0.03450176 0.10595527 0.12492579 -0.046681028 -0.054918364 0.028877713 0.046667658
-0.04988227 -0.049470752 0.08929547 0.047946848 0.108214706 0.027405996 0.011033335 0.058700178
0.15762396 -0.10964446 -0.030004073 0.10091104 0.031071797 0.114707135 0.067581385 0.052714575
0.15971813 0.08963888 0.061962396 0.0074899253 0.13734321 0.12230654 0.07837884 0.054575607
0.079505265 -0.043314975 0.16375403 0.11226927 -0.00053021946 -0.14048041 0.16268884 0.1150955
0.097082436 0.008058327 0.038367786 -0.031387128 -0.022467948 0.025250833 0.035067316 0.10389573
-0.020970067 0.15691175 0.12971333 0.12963048 0.11026929 -0.020307163 0.11374114 0.08470656
0.14426322 -0.040853642 0.010596426 0.101423256 0.06851654 0.1546274 -0.0015384738 0.050610874
-0.19557197 -0.021741921 0.12579386 -0.20696841 0.0057290364 0.06809253 -0.047410563 0.035006423
0.31679484 0.13269879 0.025856297 0.19481488 -0.11774425 0.08419673 0.043812938 0.062251765
0.055865645 -0.011601888 -0.072789185 -0.025102837 -0.034415077 -0.0008217604 0.049085367 0.09156238
0.05062714 -0.025261097 -0.05400971 -0.05216903 0.19061905 0.084603496 -0.032474466 -0.061307285
0.06182066 0.030460084 0.083899915 0.09504712 -0.008474132 -0.048711147 0.03466312 -0.03156127
-0.038756736 0.07111822 0.034591977 0.19999686 -0.08798985 -0.06239784 0.05292604 0.10373684
0.025405591 -0.11107501 0.12574175 -0.056394473 0.034985203 -0.008388502 -0.0027224408 -0.04857683
0.10164527 0.110443324 0.048860494 -0.00966275 0.19023675 0.13691097 0.1485218 0.07178776
0.06419404 -0.067940205 0.0057188533 0.0459832 -0.040394876 -0.024915803 0.09193554 0.04987447
-0.076587036 -0.12869163 0.078100644 -0.09262595 0.116243616 0.018602004 0.0036091453 0.16195059
0.12403227 -0.13276362 -0.04755804 0.09500619 0.10158409 0.007392464 -0.009207787 0.103832625
0.08616483 0.08847257 -0.036368463 0.044120878 0.03128047 0.06884479 0.021876374 0.12038055
0.0001260402 -0.09573336 0.03505633 -0.057586785 0.06307429 -0.1029849 0.060295157 0.13536578
0.039162297 0.12325919 -0.025505356 -0.08370121 0.0787719 0.15576786 -0.10465035 0.06522238
0.081722714 0.11044091 0.06574376 0.039039228 -0.0071532386 -0.013909552 0.0034330327 -0.06318055
0.073441744 -0.057334974 0.07550735 0.08434476 0.068898164 0.052771457 0.05903651 0.13587523
-0.15561265 0.058424383 0.10068056 -0.09737888 0.06865376 0.104233734 -0.021120848 -0.039831024

layers.1.bias f4 [128]
00000000: 1246 193e d481 473d 707d c03d bebc 083d
00000010: eb68 86bd 2d15 1c3d b37d c4bb eabd 35bd
00000020: 7a54 183e dcec 0b3e 109a 8bbc 9070 d13d
00000030: 4d81 1ebd 877c 8c3d 1f4c b13c 4b9d b63d
00000040: 463f 083e 0552 c5bd 5500 81bd f540 5f3d
00000050: 3e04 373e bd25 e63d f388 85bd 0593 113e
00000060: 4e80 573e 22e4 0d3e fad2 8f3d 4521 763d
00000070: 0b51 d23d dd6f 163e 49c8 863d 34ce 3a3d
00000080: 8a3f c33d 9500 2c3e 2b35 ac3d 9850 f43d
00000090: 0675 263d f45e d93d 3f0c a8bc e56e 3d3e
000000a0: 3e4e a9bb f29d 5fbb 0a13 523d 8cab 373d
000000b0: 4716 03bb 7afc 313e dab7 c33d 3a26 1a3e
000000c0: 0ed2 233e 0ce3 ba3d e85b e4bd 5326 e43d
000000d0: e262 303e 27bb f83d 6d0a 233e c781 533e
000000e0: 8d67 0e3e dcd3 1f3e cba4 f73d 475e a63c
000000f0: 758c 2a3e 96f4 d3bd 737c abbc 502a 06bc
00000100: 6dd1 07bd f971 e33c 8764 1d3e f32f fe3d
00000110: 7fba 2b3e 071e 233e 1440 e53c 82ad 2a3e
00000120: c3ee 213d 1e5f 0c3e bb21 213d 64c7 3b3e
00000130: f27d 543e 110e e1bb e06b aa3d 0ae9 0f3e
00000140: e596 603e 685a bc3d b376 233e f37c 2e3d
00000150: 0bea d8bd 584d 413e 7620 16bd 0860 423d
00000160: fc18 203e f8c0 0a3d 5986 0e3e 5ce4 3c3d
00000170: 1818 f83d b214 0b3e ba99 0b3e 3553 c43c
00000180: 574d 0f3e 7104 0c3e f84b 803d e55d 733d
00000190: 612e 8dbd d771 373e 538c d63d ef13 093d
000001a0: dffc cc3d b554 e83c f0b9 fe3d d83a 8a3d
000001b0: 7f95 a53d 3e30 19bc 32ed 33bc 3e0d 1e3e
000001c0: 0cc5 1a3e 0b47 163e f87e cbbc 9744 8e3d
000001d0: 6c6c 903d 69fd e13d 0eb1 f43d 41a7 8d3d
000001e0: ffa2 23be b8b4 153d e630 c23d 2536 2a3e
000001f0: 8a65 f53d 8da6 12be 4fd9 063e 16be 233e
0.14968136 0.048707798 0.09398925 0.033383124 -0.0656298 0.038106132 -0.00599643 -0.04437057
0.14875975 0.13664573 -0.017041236 0.10226548 -0.03869753 0.06859689 0.021642743 0.0891672
0.13305387 -0.096347846 -0.062988915 0.054505307 0.17872712 0.11237667 -0.065202616 0.1421624
0.21045038 0.13856557 0.070226625 0.060090322 0.10269364 0.1469111 0.0658117 0.045606807
0.095336035 0.16797097 0.084085785 0.119294345 0.040638946 0.10613814 -0.020513652 0.18499334
-0.005166798 -0.0034121242 0.05128769 0.044841334 -0.0020002292 0.17381468 0.09556551 0.15053645
0.15998098 0.09125337 -0.11150342 0.11140122 0.17225221 0.121450715 0.15921946 0.20654975
0.13906689 0.15608162 0.12091979 0.020308627 0.16655143 -0.103493854 -0.020933365 -0.008188799
-0.03315871 0.027764307 0.1537038 0.12411489 0.16770361 0.15929423 0.027984656 0.1666775
0.03953434 0.1370816 0.03933881 0.1833778 0.2075117 -0.006868132 0.08321357 0.14053741
0.21932562 0.09196931 0.15963249 0.04259963 -0.10591515 0.1887716 -0.03665205 0.047454864
0.15634531 0.033875436 0.13918437 0.046116218 0.121139705 0.13582113 0.13632861 0.023965457
0.13994347 0.1367357 0.0626449 0.059415717 -0.06893612 0.1791452 0.104759835 0.033466276
0.10009169 0.028360704 0.124378085 0.06749505 0.08085155 -0.009349881 -0.010981845 0.15434739
0.1511423 0.14675538 -0.024840817 0.06946676 0.0705193 0.11034662 0.11947833 0.06916667
-0.15980147 0.0365493 0.09481983 0.16622217 0.11982258 -0.14321347 0.13168834 0.15990481

layers.2.weight f4 [64, 128]
00000000: 4636 253c 4516 4f3d f589 ac3d 54f3 153d
00000010: 5c1d 6abd 6495 e53c 0a1d 8e3b 722a 9a3d
00000020: 1f37 503d e245 b7ba 185f ca3b 881f 133d
00000030: 162d b03d 2cf7 463d 5610 8a3c 1b70 473d
00000040: 743c 533d 9701 793d cc62 16bc 1615 ff3c
00000050: 5cb5 16bc e951 833d 1233 1dbd 84f8 1e3c
00000060: 07ca 19bd f26a 53bc 6a81 043d 038a 633b
00000070: 66ca b8bd 1e46 403c 132f 27bd 0f2c aa3a
00000080: beeb dc3c 5949 00bc 849f 263d 1696 a7bd
00000090: b686 133c b777 8c3d 7d3b 043b f415 923d
000000a0: 06e6 12bd 3974 dc3c 191d 98bd 30e3 6bbc
000000b0: 8cd5 66bd 01a1 153d 69cc 113d 43de 90bc
000000c0: 4f73 59bd 404f 3fbd ed57 443d ca85 08bd
000000d0: 1f5b b8bd b151 793d 4dbe 213c 730c 613d
000000e0: a282 0a3d 2f99 61bc bad0 9dbd 3b0a e6bb
000000f0: 8b26 fbbb 3a07 ca3c 7404 b3bd f0bd 31bc
00000100: 1181 92bd efdf 49bd f132 aabd 1b67 813d
00000110: 7534 953d e67f 37bd b5fb 20bd b7ef 3b3d
00000120: 6c4f 8ebb 552f aebc 5353 79bc e8c7 afbd
00000130: 344e 7cbd d09b 693d eb65 7dbd 5c2b 443d
00000140: e55a 18bd 363e 81bd 4051 36bd 4bdf 573d
00000150: f1e3 afbd 3220 073d 78af c73c a8b4 e13c
00000160: e4d2 a2bd 0da5 85bd b5cb 9ebc b935 0dbd
00000170: 272e 03bd 6041 dc3c 5ca9 243d 09c8 893d
00000180: 4afb 3ebd 4eda 50bd 996c a23d ff21 35bc
00000190: 6add d5bc ee6a 433d 7fac 8fbd 8d26 0a3d
000001a0: e226 1ebd 3655 88bb 6a0b 22bd 916a 8ebd
000001b0: 8760 61bc 5bbe 863c f621 32bd 9135 283c
000001c0: daa4 9fbd c871 7cbd 0f02 0c3d 807a 863d
000001d0: 27a3 323d e9cb 79bd 2799 683d 0c0f 6abd
000001e0: 1df1 1f3d 3c67 533c 7a57 c5bc 31b2 9ebd
000001f0: dcb1 a0bd ab83 b6bd 026d 86bc b0c7 8b3d
00000200: 7ad7 483d 0cc9 9c3d 68e6 e2bd 21ac b13d
00000210: 411f 5b3d df77 013e 41cd 6eb8 6de9 a53e
00000220: 7b1f b13d 1514 153d eafe 133c 8e75 fdbd
00000230: e042 8e3e 1ad5 703e abcc 943d c7f1 acbc
00000240: 020b 413c 87b4 883e e064 8fbd adac 0dbc
00000250: eda9 babc 6431 2a3d 12e8 163d 4cc6 d03d
00000260: 9237 ab3c 42cc 4bbe 7de5 34be 5090 f9bc
00000270: 41b8 fbbd 656b 633d 8742 073c 2318 af3d
00000280: 2e43 69b8 25a0 793c 264c 05bb 4a44 733d
00000290: 47ff 483d 68dc 1ebc 5a32 b03e d37c 05bd
000002a0: d892 9e3d 1658 4dbe af5f 723d 42ba ea3c
000002b0: d12d 50bd f8cc 7a3d df7e 57bd 5624 76bd
000002c0: 0d85 af3b d918 b73c 3e63 9a3e b644 503b
000002d0: 3366 903c 51c6 84bd 764a 1b3d d2f9 afbd
000002e0: aa23 94bd ac51 01be 2483 50bd 1d7e 1c3c
000002f0: 514f 32bd 8634 3e3e 2078 5b3d f4ec 6e3e
00000300: 991c ab3d 4a21 bf3d a416 dabe 96ac 11bd
00000310: 10d3 833d 59f0 cd3c fb6f 733d 26cd b43d
00000320: b798 a23d 24ec 043d f051 b0bc 65bb 7abd
00000330: eb64 9bbc 34dd 2bbd 91ea 613d c56c 62bd
00000340: 8ec2 dc3d ce46 afbd 10dd f63c 8ee1 f8bc
00000350: 3f09 033e 6d89 adbd fc3b 8d3d 2a89 78bd
00000360: 2159 d1bb 220b 8d3d f7f6 29bc 9bcb 393d
00000370: 5c7c d13c 2ee4 aa3c fefd 8c3d 1d5d b03c
00000380: 3cc5 81bd cf2b d13d e058 733d abd3 bdbc
00000390: 08e2 f03d 5bbe c1ba 4ae8 093d 580d df3c
000003a0: a55d ddbc 165e be3d 627d af3d 2b5d 9cbd
000003b0: 67e6 93bd b104 2e3e 12c1 a63d 3d33 16be
000003c0: ccb9 b5bc 19d7 a53d 99c0 023e d033 83bd
000003d0: 3514 6ebc 70cc d0bc e907 9ebd 28cf 53bc
000003e0: d3ad 133e b02d 85bc 65b9 5fbd 4bf1 b4bb
000003f0: d62f 3bbc 9374 743e 1d89 c43c 3242 c3bd
0.010083741 0.050558347 0.08424751 0.03660901 -0.057156906 0.028025337 0.004336958 0.07527627
0.050833818 -0.0013982619 0.006175887 0.035918742 0.086023495 0.048575565 0.016853493 0.048690896
0.051571324 0.06079253 -0.009178828 0.031137984 -0.009198513 0.064121075 -0.038378783 0.009702805
-0.037546184 -0.012903916 0.03234998 0.0034719713 -0.090229794 0.011735467 -0.040816378 0.0012983101
0.02696788 -0.007829987 0.04067947 -0.081829235 0.009004286 0.06858771 0.002017706 0.071330935
-0.0358639 0.026910888 -0.07427425 -0.014397427 -0.056355998 0.0365305 0.03559533 -0.017684108
-0.053088482 -0.046706438 0.047935415 -0.033330716 -0.09001755 0.060868923 0.009872031 0.054943513
0.033815987 -0.013769432 -0.07705827 -0.0070202625 -0.007664507 0.024661649 -0.08741084 -0.010848507
-0.07153524 -0.049285825 -0.083104976 0.06318494 0.07285396 -0.044799708 -0.039302547 0.045882907
-0.004342964 -0.021262804 -0.01521762 -0.08583051 -0.061598018 0.05703336 -0.061864775 0.047892913
-0.03719606 -0.06310694 -0.04451108 0.052703183 -0.08588398 0.03298969 0.024375662 0.027551964
-0.079503804 -0.065256216 -0.019384244 -0.034475062 -0.032026436 0.026886642 0.040200576 0.06727607
-0.046626367 -0.05098944 0.079308696 -0.011055469 -0.026106555 0.047709398 -0.07015323 0.03372817
-0.0386113 -0.0041605486 -0.039561667 -0.0695392 -0.013755924 0.01644819 -0.04348942 0.0102666775
-0.07795115 -0.061631948 0.03418165 0.06566334 0.043612625 -0.06098548 0.056786682 -0.057143256
0.039048303 0.012903031 -0.024089564 -0.07748831 -0.07846424 -0.089118324 -0.0164094 0.06825197
0.04903362 0.07655534 -0.11079103 0.08675409 0.053496603 0.12643383 -5.693478e-05 0.32404652
0.086485825 0.036396105 0.009032944 -0.123759374 0.27785397 0.23518792 0.072656 -0.021111382
0.01178241 0.2670023 -0.07001662 -0.008647126 -0.022786105 0.04155101 0.036842413 0.10194072
0.020900521 -0.19902137 -0.17665668 -0.030464321 -0.12291003 0.05552234 0.008255607 0.085495256
-5.5614095e-05 0.015235935 -0.0020339577 0.059391297 0.049071576 -0.009696104 0.34413415 -0.032589745
0.07742852 -0.20053133 0.059173282 0.028653268 -0.050824944 0.06123063 -0.052611228 -0.060093246
0.005356437 0.022350715 0.3015384 0.0031779236 0.017626857 -0.06483138 0.03791281 -0.08592571
-0.07233365 -0.12628812 -0.050906315 0.009551552 -0.043532673 0.18574724 0.053581357 0.23332578
0.08355064 0.09332521 -0.42595398 -0.03556498 0.06436741 0.02513902 0.059432965 0.088281915
0.07939284 0.032451764 -0.021523446 -0.06121387 -0.01896902 -0.041959003 0.05515534 -0.055279512
0.10779296 -0.08558427 0.030134708 -0.03038099 0.12796496 -0.084734775 0.06896207 -0.060677685
-0.006388799 0.06886889 -0.010373822 0.04536019 0.025571994 0.020860758 0.06884383 0.021528775
-0.063364476 0.10213434 0.05941093 -0.02317222 0.11761862 -0.0014781462 0.033668794 0.027228042
-0.027022192 0.09295289 0.08568837 -0.07634958 -0.0722168 0.16993977 0.08142294 -0.14667983
-0.022183321 0.08097667 0.12768783 -0.06406367 -0.014531185 -0.025488108 -0.077163525 -0.012927808
0.14421777 -0.016257137 -0.054620165 -0.0055219284 -0.011424979 0.23872595 0.023991162 -0.0953411

layers.2.bias f4 [64]
00000000: 4297 0f3d c32a 7b3d 552e c4bd 2210 c63c
00000010: 5918 753d a821 173e 4ed1 38bd e193 b53c
00000020: 044c 463d a732 87bc e477 273d e335 fd3d
00000030: eccb 803c 3715 d23c 8d21 813e 1a86 a23d
00000040: f558 7c3c 1610 873d 9c61 633e 1514 bf3d
00000050: 9d89 093e eb31 a93d ff79 68bd 43b2 c8bb
00000060: be0a 853d deca e1ba 303e 29bd 96d8 4d3d
00000070: 7da1 2c3e 4089 ea3d 1db4 96bd 642f 183e
00000080: 45c6 b1bd 5229 303e a7f6 23bd d600 263d
00000090: f848 653d 9b7f ec3d 17c6 003d db4f ba3c
000000a0: bff2 11bc dae1 27bd 94eb 7bb9 499b 253e
000000b0: 5b75 2a3e 3fc0 363e dba8 f4bb 784b cf3c
000000c0: 975a 203e cb99 5ebc db43 113d b0ab 993c
000000d0: 049a 2e3e e48c 7c3d df13 373d 9e69 b13d
000000e0: 1b9f a7bc 70dd d8bd af5b 823c 2e60 6dbc
000000f0: cda6 c53d b463 693d 5270 29bc 8764 8abd
0.03505636 0.061320078 -0.0957915 0.024177615 0.059837673 0.14758933 -0.045121484 0.02216524
0.048412338 -0.016503645 0.04088582 0.12363794 0.015722238 0.025644882 0.2522091 0.07935734
0.015402068 0.06594865 0.22205204 0.09330002 0.13431402 0.08261474 -0.05675697 -0.006124766
0.064961895 -0.0017226597 -0.041319072 0.05025538 0.16858478 0.114519596 -0.07358573 0.14861828
-0.08680395 0.17203262 -0.040030148 0.04052814 0.05597779 0.11547776 0.031438913 0.022743156
-0.008907973 -0.040986873 -0.00024024985 0.16172518 0.1664633 0.17846774 -0.007466418 0.025304541
0.15659557 -0.013586472 0.035465103 0.018758625 0.1705094 0.0616578 0.044696685 0.08662723
-0.02046161 -0.10589111 0.015912859 -0.014488263 0.09650955 0.05697985 -0.010341721 -0.06757455

readout.weight f4 [1, 64]
00000000: 9cb7 b33d 7c9a 6a3e caf1 6d3e 3f10 3ebe
00000010: de90 febd b889 63be cb07 383d 5ab3 ee3d
00000020: 37f8 e5bd 8a52 893d e65f 57be 43d1 5bbe
00000030: a65c 783c b82a 8c3c 7743 43bf ef7e 0b3d
00000040: 2a99 2b3d e698 9b3e 16e2 4dbf 4b2e 46be
00000050: 6421 56be 66b1 cabe 60de 2b3b dea0 663e
00000060: 3788 3cbe 3c9c 3bbd 44b6 54bd 99af 133e
00000070: a4e5 7abe af6a 62be 8547 df3c 0222 19be
00000080: f640 503d 1a9a 04be b1ef 813e b198 3abe
00000090: 827b 8f3d f778 20be 88fa a9bd 284c 22be
000000a0: d287 db3d 2618 153c 2b1a 673e ff4e 26be
000000b0: bdb2 0dbe bcda 1dbe f59c b13d fb54 6ebe
000000c0: 3dc9 03be 485e 3a3c 3b9b 33be 75b7 113e
000000d0: 2428 4fbe 7194 d83e 1dfd 12be a552 55be
000000e0: 9ba5 ec3c 1520 a83e 18e5 1dbe 8139 643d
000000f0: 7ba8 e43e 001f 0c3a 782d c73e 16cb bd3e
0.08775255 0.22910494 0.23236766 -0.18560885 -0.12429975 -0.22220504 0.044929307 0.11655302
-0.11228984 0.06705196 -0.21032676 -0.21466546 0.015158808 0.017110214 -0.7627482 0.0340566
0.041894116 0.3039009 -0.80423105 -0.19353597 -0.20911175 -0.3958847 0.0026225075 0.22522303
-0.18411337 -0.045803294 -0.051931635 0.14422454 -0.24501663 -0.22111009 0.027255783 -0.14954379
0.0508432 -0.1294941 0.25378183 -0.1822231 0.07005979 -0.15671144 -0.08299738 -0.15849364
0.10719265 0.009099996 0.22568576 -0.16241072 -0.13837714 -0.15415472 0.08672515 -0.23274605
-0.12869735 0.011375017 -0.17539684 0.1423014 -0.20230156 0.42300752 -0.14354368 -0.20832308
0.02888756 0.32836977 -0.15419424 0.055718902 0.4465979 0.00053451955 0.38901877 0.37069005

layers.0.weight f4 [128, 3]
00000000: f2af 003f 1d7f 023f 358f 163f da67 14bf
00000010: e6db 2f3f 73ff 37be 78b5 0abd f70c df3c
00000020: 425b 19bf a41e a83e f5d9 debe b188 203f
00000030: f40d 8dbd b929 ecbe 7729 fb3e 4a86 4cbe
00000040: de2a 1ebf 4218 2c3e 4999 83be 5f36 3dbf
00000050: edf5 4b3e e147 8abe c9b1 ddbd 7dd6 083f
00000060: 9f94 84be b4a9 aabe a7a6 1d3f c3e1 f7be
00000070: a493 a43e bbea 0e3e d25e e33e 6352 23bf
00000080: 2450 72be 86a1 b03e aaaa 15be 8df6 c8be
00000090: 87da 4fbd 9fc1 cc3e b29d bbbc d725 fc3e
000000a0: 3e24 25bf c9ab ed3e fbf3 0e3f af46 e8be
000000b0: a6f9 2ebd 7995 abbe 405a 22bf 0f11 a23d
000000c0: 62a1 12bf a577 073f 1e69 063f 71be 49be
000000d0: 6bba a73d 296b a1be da18 db3e 563d 073d
000000e0: 3d80 a73e ea6f f3bd 1c98 b2bd b443 d6be
000000f0: ec34 eabd 5bca e83e 6d2e 933e 46ad 03bf
00000100: ba77 c93e c092 8b3e db9f 0ebe 46d2 c03e
00000110: 0867 f8be 0c2f 3dbe ce79 e4be cc8a 6ebe
00000120: c2e2 a33d 7edf b1be 3e5d f5be b4b4 cebe
00000130: 478b 0f3e b4fb c63d 7b9b 723e b246 acbe
00000140: 76b5 083f ff35 c53e cec1 95be 8682 ffbd
00000150: 026f f2be 4a55 823d 3696 8f3d 1c38 07bf
00000160: 9c9f 0e3f 5d31 13bf 090c 8dbe 6a32 5e3e
00000170: f647 213f 7a02 5ebd 6cb4 d23e daed 0cbd
00000180: ad5a 813d 37d9 9cbe 7a87 e0be 09d9 bb3e
00000190: 4842 033f 2897 033f e6b5 97be 3e35 d63d
000001a0: 7997 ce3e c68b bf3e 1480 023f d9be ec3c
000001b0: 17f0 1e3e d657 1c3f 0e7c aa3d 2ba5 4dbe
000001c0: 7921 103d 2448 c6be bd25 f8be bb8e b0be
000001d0: a64e 42be f9c3 da3e da43 18bf b1b4 eabe
000001e0: f302 3fbd 2c7f 783e bf14 bfbe 34d2 27bf
000001f0: 9f21 f7be 406d aabd 06a8 223e f50e 3e3f
00000200: b0b8 71be 9f70 033e 662f 353d 1ab3 cbbe
00000210: 04b5 43bd ff3e cfbe 698d 933e 4d6d 143f
00000220: c4b6 39bf dd4a 0ebf ab82 a23d aa7f 053f
00000230: d49e 5fbd 4fcc e5be 5e67 a1be 94a3 0abf
00000240: 95af 57bd 2180 073f 6f81 b23e b2fc b6be
00000250: b985 323f 8bfb 4a3e b711 40be 2e6c 013f
00000260: ccde d2be c2ea 3ebe 75dd 073f 4d5b fb3d
00000270: 1678 48be 3e12 11bf c749 d7be e88d 9fbe
00000280: 2a34 bbbe 5391 dabc 2f65 653e 02c1 0e3f
00000290: a2b0 bc3d 1817 023f 9111 2a3f 42d4 743e
000002a0: 86c3 663e 2f10 afbe affa 883e 79da 743e
000002b0: 3de6 89bd 56a3 08bf 2b6e fabe 8c20 a0be
000002c0: 4385 cebd d8dc 86be 11de d03e a13b acbe
000002d0: ac81 c93e 9254 1d3f 670b dcbe f51a b4be
000002e0: 4876 943e 9654 5b3d 82de ddbe 58c5 453d
000002f0: f3fc d4bc 86b0 93bd 6613 ef3e 6ec5 053e
00000300: dfd7 4ebd d310 db3e ed01 b83e 9d2d 81be
00000310: 0597 34bf b3e5 c9be 3dbf 983e 99b3 4e3e
00000320: d744 c63e 1234 3abe 11a5 1d3f 93ae 3bbe
00000330: 1bd8 13bd bfa2 00bf 6c20 fbbe 0e5b 4c3e
00000340: e6cc ed3e eddc 0fbf d69a 1ebd 6e07 aabe
00000350: 68c8 1f3f 739e a9be e9f6 b53e 5a40 d8be
00000360: 942f 72be 4366 3abe 9f7d 52be 4dd0 133f
00000370: 3ff1 173e ad94 633e b34c 78be 5109 fa3e
00000380: 20d1 a63d e4a4 f6be 7a2f ce3e bdf5 f0be
00000390: 9d20 ea3e 3557 85be 24e8 ac3e 37df e83d
000003a0: 67d0 163f 326d 083f 4df4 44be 90b5 813e
000003b0: 5b88 d53d 5fe8 0dbf 18db c73e 09c8 ed3d
000003c0: 34ef 543d a36c afbd 26dc 8abe 0d49 a2be
000003d0: f258 a03e e469 0e3f fa4b abbe eb17 2bbe
000003e0: 74e3 a1bd a482 d7be 3146 d73d 1638 f7be
000003f0: 24a5 b53d 61e8 043f c46e c33e f304 8ebc
0.5026847 0.5097521 0.58812267 -0.57970965 0.68694913 -0.1796854 -0.03386447 0.027227862
-0.59904873 0.32835877 -0.43525663 0.62708575 -0.06887427 -0.46125582 0.49055073 -0.19973102
-0.6178416 0.16806129 -0.25702885 -0.7391109 0.19918032 -0.27007964 -0.108249255 0.53452283
-0.2589464 -0.33332598 0.61582416 -0.4841443 0.3214389 0.1395673 0.4440828 -0.6379759
-0.23663384 0.34498233 -0.14615884 -0.39250603 -0.050745513 0.3999147 -0.022902343 0.4924762
-0.64508426 0.46420124 0.55841035 -0.45366427 -0.042718552 -0.33512476 -0.6341896 0.0791341
-0.572775 0.5291694 0.52504146 -0.19701554 0.08189853 -0.3152707 0.42792398 0.03301748
0.32715026 -0.1188658 -0.08720419 -0.41848528 -0.11435875 0.45466885 0.28746358 -0.5143627
0.39349157 0.272604 -0.13928168 0.37660426 -0.48516107 -0.18474978 -0.4462418 -0.23295134
0.08002235 -0.34740824 -0.479227 -0.4037224 0.14017974 0.09715977 0.23692124 -0.33647686
0.5340189 0.38517758 -0.29249424 -0.12476067 -0.47350317 0.06363924 0.07011072 -0.5281999
0.55712295 -0.574972 -0.27548245 0.21698919 0.6300043 -0.05420158 0.41153276 -0.03440652
0.06316123 -0.30634472 -0.4385336 0.36689022 0.5127301 0.5140252 -0.29630965 0.10459374
0.4034994 0.37411326 0.5097668 0.028899597 0.15521275 0.61071527 0.08324443 -0.20082538
0.035188172 -0.38726914 -0.48466292 -0.34483895 -0.18975314 0.4272764 -0.59478533 -0.45840982
-0.046633672 0.24267262 -0.37320516 -0.6555512 -0.48267838 -0.08321619 0.15884408 0.7424157
-0.23605609 0.1283593 0.044234656 -0.3978508 -0.04778005 -0.4047775 0.28818825 0.5797928
-0.72544503 -0.5558298 0.07935079 0.52147925 -0.05459483 -0.44882438 -0.31524175 -0.5415585
-0.052657682 0.52929884 0.34864375 -0.35739666 0.69735295 0.19822519 -0.18756758 0.50555694
-0.41185606 -0.1864424 0.5307229 0.122732736 -0.19577059 -0.5666846 -0.42048475 -0.31162953
-0.36563236 -0.026680624 0.2240188 0.55763257 0.092133775 0.5081649 0.66433054 0.23909095
0.22535524 -0.34192035 0.26753756 0.23911466 -0.067333676 -0.5337423 -0.48912176 -0.3127483
-0.100840114 -0.26340365 0.40794423 -0.33639243 0.39356744 0.6145717 -0.4297745 -0.35176817
0.2899649 0.053547464 -0.43333822 0.048283905 -0.025999522 -0.072114035 0.46694487 0.13063595
-0.05049884 0.42786273 0.3593897 -0.25230113 -0.7054294 -0.3943306 0.29833403 0.20185699
0.38724396 -0.18183926 0.61579996 -0.18328314 -0.036094766 -0.5024833 -0.49048173 0.1995661
0.46445388 -0.5619648 -0.03872188 -0.33208793 0.6241517 -0.331287 0.3553994 -0.42236596
-0.23650962 -0.18203072 -0.20555733 0.57739717 0.14838122 0.22224684 -0.24248008 0.48835233
0.08145356 -0.48172677 0.40270597 -0.47062483 0.45728007 -0.26043096 0.3377086 0.113707
0.58911747 0.5329162 -0.19233818 0.25333834 0.10426398 -0.55432695 0.39034343 0.11610419
0.051985934 -0.08565643 -0.27121085 -0.31696358 0.3131786 0.55630326 -0.33456403 -0.16708343
-0.07904711 -0.42091858 0.10511435 -0.48284978 0.08869389 0.5191708 0.38170445 -0.017336344

layers.0.bias f4 [128]
00000000: f625 cdbe 4246 9bbe 60a3 04bf bb85 9b3e
00000010: 63c9 573c 9806 07be bb61 17be 99e9 763e
00000020: 643c 96be 1af4 c9bd 920d db3d 50eb f4be
00000030: 4073 c4bd fa6f 023f c323 013f a827 b43c
00000040: 99df cbbe ae96 f93e e810 b83e d194 bd3e
00000050: 031f bb3d 0989 dd3c ff0c 45be 6437 0ebf
00000060: cbe3 793e edc1 e13c 258f 463e a293 f93e
00000070: 92ee 9fbd aec2 1dbe 13d2 c9be b5f7 5e3e
00000080: 965f 1b3e a1d3 92be 14d1 0c3f 5f54 eb3e
00000090: a527 733e 5ca8 9f3c 9e9f ce3e a805 283e
000000a0: 74f8 5d3c 591f 71be 2caf c43e 3b1a 343e
000000b0: 77d1 cf3d e7bf 70bd 4fa1 1d3e 569a f43e
000000c0: c032 b93e 3278 083f fa6c 8fbe 757b afbe
000000d0: 8d5b 0bbe 8e4f 823e 78ba 8cbe b896 32be
000000e0: b447 b9bd e9fc be3e 45bf 4fbb f5c8 5dbe
000000f0: fff5 3a3d f629 bcbe ac70 463e 59bb 0fbe
00000100: 22a2 f63e 902d 3cbe 08b7 5b3e bbd4 103e
00000110: 7ed3 143e 001a 503e d888 aebd c0e5 b83d
00000120: ebad 3c3e ed73 253e 3338 b9be 0a77 b4be
00000130: d776 e03e fbeb 7cbd be20 cc3e b97d d03e
00000140: be8b 763e 6bc1 37bd ac68 773e a735 02bf
00000150: 36b1 ec3e 6077 a5be 0257 4bbd 8a26 f8bd
00000160: 78e4 f3be 73fd fe3d 3f60 12bf 7c7a 0f3f
00000170: dd07 ef3e c5c2 9c3e dd86 ea3e 3d59 babd
00000180: 061b 6b3d 340a 203e d3d7 fbbe a0db 7fbd
00000190: 170d 92bc 8225 cfbe 59fc f83d 5cb1 0d3f
000001a0: d079 f3bd 2447 963d e2a5 77bc a9d6 a73d
000001b0: 79a6 a7bc b04c 1bbe 5125 d53e 1161 f1be
000001c0: c32e eb3e 5e3b 8ebe c2b6 b53e 83a8 19be
000001d0: cda1 823e 4949 fe3e a4f5 babe 0eea cf3e
000001e0: f96e 4bbe 1ede f73d d80a 8d3e 2381 e73e
000001f0: 20a2 aa3e 6535 ee39 4f83 073d 76f8 9fbc
-0.40068024 -0.3032704 -0.5181179 0.30375466 0.013170573 -0.13186109 -0.14783375 0.24112548
-0.2934295 -0.09861012 0.10695948 -0.4783578 -0.09592295 0.5095211 0.50445193 0.021991566
-0.3981903 0.48747772 0.35950398 0.370276 0.091367744 0.027042883 -0.19243239 -0.5555327
0.24403302 0.027558291 0.19390543 0.48745447 -0.078091756 -0.15406296 -0.39418086 0.2177418
0.15173182 -0.28677085 0.5500653 0.45962808 0.23745592 0.01948946 0.40356153 0.16408408
0.013548005 -0.23547114 0.38414896 0.17588131 0.10147374 -0.058776762 0.15393566 0.47774
0.36171532 0.53308403 -0.2801283 -0.34273878 -0.13609143 0.2545132 -0.27486014 -0.17440307
-0.090468794 0.3730233 -0.00316997 -0.2165869 0.045644756 -0.36750764 0.19378918 -0.14036311
0.48170573 -0.18376756 0.2145654 0.1414365 0.14533803 0.20322418 -0.085221946 0.09028196
0.1842572 0.16157503 -0.3617569 -0.3524707 0.43840668 -0.061748486 0.3986873 0.4072092
0.24076745 -0.044862192 0.24161023 -0.50863117 0.4622895 -0.32317638 -0.049643524 -0.12116726
-0.47635245 0.12450685 -0.5717811 0.5604627 0.46685687 0.30617347 0.45806018 -0.09099052
0.05739882 0.15628892 -0.49188098 -0.06246531 -0.017828507 -0.40458304 0.121575065 0.55348754
-0.11888468 0.07337788 -0.015115233 0.0819524 -0.020465123 -0.15165973 0.41630033 -0.47144368
0.45934114 -0.2777967 0.35490996 -0.15005688 0.2551407 0.49665287 -0.36515534 0.40608257
-0.19866551 0.12102912 0.27547336 0.4521571 0.33326817 0.0004543468 0.03308421 -0.019527655

layers.1.weight f4 [128, 128]
00000000: 0d31 353d a227 833d de33 703c 2740 a2bd
00000010: 4f2f 93bc 2464 91be d65a 8cbd e8a2 983d
00000020: a9ea 83be 0a72 51bd a4ab ca3c 02b6 fc3d
00000030: f185 5ebe 7028 04bd 7774 c7bd 0155 b8bd
00000040: ef48 253c 156c 803c 303e 83be 8097 e43c
00000050: d7f6 9e3c a869 17bd 33be 183d 9660 7b3d
00000060: 7c9f d5bd 7c05 7a3c 925b 8abe 5732 0dbe
00000070: 22ae f5bd 47a5 9a3d d940 85bd aa08 643d
00000080: 6607 f13c 93e1 77bc d9d3 2bbd a044 c9bd
00000090: a8a9 c73c 0e7c 5b3d 1817 7d3c 84db e53c
000000a0: 12f8 c9bb 2a9e ca3a 9dc5 d0bd 1ae2 a63c
000000b0: 2b5f 82bd 1007 5b3d fdb8 0c3d b9fe cfbb
000000c0: 0897 d83c 74dc 883c aa61 083c c696 43be
000000d0: f6ed 943d 372d dabc 4735 56be 19eb 0ebe
000000e0: 3e73 ba3d 14f1 e7bd 1b97 103d 30be 9bbd
000000f0: 8715 933c 11a8 bd3d 8d0e 23bd 8011 34bd
00000100: 7e6a 953d e9d8 84bd ece4 ecbd 0b53 0ebc
00000110: 062e acbd ff2e 813d 8fb2 a7be f94a 353d
00000120: 4778 bf3c a8db 463c 08fb 29be 5a59 a3bc
00000130: 9154 033d 4894 fdbd cd3c 1d3c 4de0 203d
00000140: b112 4cbd 9e62 df3d 091f 9a3d 3d14 9abc
00000150: bf7a a63c 1803 49bd 62a3 cfbc baa2 523c
00000160: e4ef a93c 7c5f 4abd b142 be3d 1b9c c6bd
00000170: 905f d7bd f347 adbd 3ad7 74bd f5fe ae3d
00000180: b241 c6bb 078e aebd ee7b ea3d 46c0 f0bc
00000190: d781 9b3d 872a aa3d 6651 35be 6cd3 fd3c
000001a0: 0ebb 7fbd c35f 0a3e 24e3 473d aed7 ac3c
000001b0: 3ecb 11be 4255 afbc 0570 93bd 175b debd
000001c0: 531f 40bd f684 c0bd fdc1 9c3d a99a 13bd
000001d0: f9ec fabb 9cae 1dbd 1a7c 6c3d a060 573d
000001e0: d093 1fbe 0a68 56bc d8b3 f93b 0710 56bd
000001f0: 2b66 3c3d 090b e3bd 7475 32bd d1b9 cf3c
00000200: ac45 6bbc 91e9 c53d a15a 5dbd 2c4d 523c
00000210: ba5c 14be 6988 b4be 8e25 0fbe fe1b 03bd
00000220: 0385 8ebe 239b ff3b 811d 4e3c b27c b83d
00000230: ed27 34be 1d4d 91bd eab1 37bc 93c9 8ebd
00000240: 0832 4f3d 633b 33bd ae06 b93a fd2f 3ebd
00000250: 6b2b 8a3d 1517 463c 60a8 b23d e97e 063c
00000260: e7a1 d1bd 5baf b7bb 8d42 73be d2e7 c1bd
00000270: 2d45 c53c ddc9 a23d 3136 e1bb 8c37 b2bc
00000280: 2f58 51bd a69e 883d 72e5 3339 61cd e63c
00000290: fdfc 41bd 50cb 533d 17ef 7dbd 7922 253d
000002a0: dd9d 7d3c f7ba 8fbd b203 aabd 2d86 1b3c
000002b0: a9a8 d8bd 26bc acbc fbcc d03d df5e 4e3b
000002c0: 005f 813d 1143 16bd 29dd 87bc 467d 053d
000002d0: 7c56 7a3c 018f 6a3d 108d bebd e077 223e
000002e0: d8c4 b4bd bd38 853d 36cf ee3c fa87 383d
000002f0: 4275 4c3b 700f d33d cc4c 733d 5cc4 913d
00000300: a303 21bd 58f8 9e3d d5cf a4bd 0c76 9c3d
00000310: 7237 843d a5bb 8b3d 5272 50be d3ae 1dbd
00000320: 4fa0 89bd 3242 8d3c 3ae4 f1bc 8d78 0b3d
00000330: ccbf 273d 6b53 83bd b97f 2dbb 9b12 b13d
00000340: bf82 df3b 1bb1 053d 086c 8c3d 78f6 29bd
00000350: 323a d33d 9a4f 973d 5492 39bd 30c1 af3d
00000360: dbd8 9ebb d22d 653d b406 233e db37 6cbe
00000370: e42b 9f3d 091c 88bd 901f b9bd 0d35 edbc
00000380: c037 0f3c 05d9 a4bd 4fe9 03be 2187 993d
00000390: db4a 89bd 472b a23d 74f3 e3bd f894 0dbd
000003a0: 5be9 25be 1c4c b73d 9e13 83bb 546f 5fbd
000003b0: a999 94bd 6c5a 7e3d 2dc8 3abc e623 15be
000003c0: 94f7 cabd 4074 c0bd 9146 393d 49ae ffbc
000003d0: fa3f 89bd 7456 57bc e5a3 0bbe 4d7e c83d
000003e0: c154 d4bd 07d8 0c3d 2b09 0ebb 8046 7fbc
000003f0: 82b5 e83d 3a4e ef3d 8d59 6b3c 8617 213d
0.04423623 0.06404044 0.014660804 -0.07922392 -0.017966894 -0.28396714 -0.06853263 0.07452947
-0.2576497 -0.051134147 0.024740048 0.12339403 -0.21730782 -0.032265127 -0.09739011 -0.09000588
0.0100881895 0.015676538 -0.25633383 0.027904272 0.019404812 -0.036965996 0.037290763 0.06137141
-0.1043081 0.015260097 -0.27022988 -0.13788734 -0.11996104 0.075510554 -0.06506509 0.055672325
0.029422473 -0.015129465 -0.04195008 -0.09827542 0.02437289 0.053585105 0.0154474005 0.028058775
-0.0061636055 0.0015458514 -0.10193942 0.020371486 -0.06365808 0.053473532 0.034356106 -0.006347504
0.026439205 0.016706683 0.008324066 -0.19100484 0.0727195 -0.026632888 -0.20918761 -0.1395687
0.09104012 -0.11325279 0.035300355 -0.07604635 0.017954601 0.09260572 -0.0398088 -0.043962
0.072957024 -0.06486685 -0.11567101 -0.008686791 -0.08407216 0.06307792 -0.32753417 0.044260953
0.023372782 0.012137331 -0.16599667 -0.019940067 0.03206307 -0.12381798 0.009597016 0.03927641
-0.049822513 0.109074816 0.07525451 -0.018808478 0.020322202 -0.049075216 -0.025346462 0.01285618
0.020744272 -0.049407467 0.09290064 -0.096977435 -0.10516274 -0.08460989 -0.05977557 0.08544723
-0.006050312 -0.08523183 0.11449419 -0.029388558 0.07593124 0.08308893 -0.17706832 0.030984603
-0.06243425 0.13513093 0.048800603 0.021098938 -0.14237687 -0.021402959 -0.071991004 -0.10857218
-0.046904873 -0.0940036 0.07654188 -0.036036167 -0.007657644 -0.0384966 0.05773554 0.052582383
-0.1558373 -0.013086328 0.007620316 -0.05226138 0.045995872 -0.11086089 -0.043569043 0.025357159
-0.014359873 0.0966369 -0.05404151 0.012835782 -0.14488497 -0.35260323 -0.1397917 -0.032009117
-0.27835855 0.007800476 0.0125802765 0.09008159 -0.17593355 -0.07094786 -0.011211852 -0.06972041
0.050584823 -0.043757807 0.0014116371 -0.046432484 0.067465626 0.012090464 0.08723521 0.008208969
-0.102359585 -0.005605621 -0.23755856 -0.09468044 0.024080837 0.079486586 -0.006872915 -0.021755002
-0.05110949 0.06670885 0.00017156245 0.028174104 -0.04736041 0.051707566 -0.061995592 0.04031608
0.015479532 -0.070180826 -0.08301486 0.009492439 -0.10579044 -0.02108581 0.10195347 0.0031489653
0.06316948 -0.036685053 -0.01658495 0.032590173 0.015279409 0.057265285 -0.09304249 0.15866041
-0.088266075 0.065049626 0.02915154 0.045051552 0.003119782 0.10305679 0.05939941 0.07117531
-0.03931011 0.077622116 -0.08047453 0.07639703 0.06455888 0.068229 -0.2035611 -0.038496803
-0.067200296 0.017243478 -0.029527772 0.034050513 0.040954396 -0.06412395 -0.0026473834 0.08646127
0.006821006 0.032639604 0.06856543 -0.041494817 0.10313834 0.0738823 -0.045305565 0.085817695
-0.0048476285 0.0559519 0.15920526 -0.23068182 0.07772043 -0.06645972 -0.09039223 -0.02895596
0.008741319 -0.08049206 -0.12881969 0.07496477 -0.06703731 0.07918411 -0.111304194 -0.034565896
-0.162023 0.089500636 -0.0040001413 -0.05454953 -0.07255871 0.06209795 -0.011400265 -0.14564475
-0.09910503 -0.09397173 0.045233313 -0.031211035 -0.06701656 -0.013143171 -0.1363674 0.09789715
-0.10367728 0.034385707 -0.0021672945 -0.015580773 0.11362745 0.116848424 0.014364612 0.039329074

layers.1.bias f4 [128]
00000000: 5a32 8cbc b269 ee3c 7f3e 8cbd 05c9 4abd
00000010: 9324 393d 2025 4dbd 351c f43d 7a50 003a
00000020: 2994 c53c 5e15 363d 5853 ed3c 18e8 39bd
00000030: 1027 a5bc 4b23 b63c 4b85 d5bc 047a 29bd
00000040: 6d51 6dbd c8e5 173a 2ec0 a9bd 1db5 813d
00000050: e119 343d 26ca 0cbd f8e7 7e3d 95d5 f239
00000060: fe92 c5bc 8188 0a3d ff2b af3d 7de4 a53d
00000070: c809 a13d 39c8 a33c e01b 843d 740a 8c3d
00000080: e53e ae3c 6fed f13c 6350 8b3d 2a64 123d
00000090: 0d8a 50bd 8832 ae3d 6191 403d 0614 9abd
000000a0: 5e46 4c3d 82a4 43bc 5f57 e33c 0ba2 933c
000000b0: 3b11 313d 8fdb 713d c610 123d 32b6 b23d
000000c0: 740d 773d 68eb 943c 67d5 b33d 16c5 943d
000000d0: 316a d93c e271 c4bc 5e72 e9bc 72a4 adb9
000000e0: 917b 923d 4c39 2fbc b42a ab3d bbda 9bbc
000000f0: 4652 47bd c95f 22bd ac74 1bbd 6253 9abb
00000100: 94fa 2abb 56f6 2ebd 5f2c 9aba 1a84 bbbd
00000110: 4878 a9bd 1c7e 703d c328 6b3d c240 b63d
00000120: 3f94 aebc 85b5 52bd 1f0c 783d acab ce3b
00000130: 2f54 663d d247 9cbd 6cd9 24bc be9f 60bd
00000140: b5a8 ba3c 4579 2d3c ab59 03bd 2146 a83d
00000150: 69ef 963d d805 a4bc 4525 473c 30fb 9abd
00000160: e838 62bd 9255 98bd d6d1 b83d 5c9b 8d3d
00000170: 42bd 4bbc 89ae debb 47d7 ccbb 3883 f3bd
00000180: 0cc8 9abc 508b 763d 8a9c 5abd 8148 89bd
00000190: d44c ac3d c40a 30bd 5304 b6bb 0cbc 473d
000001a0: 8758 8fbd 39fc b7bd bbdf a1bc 39ff 80bd
000001b0: 8718 853d f6dc 4dbd 7d5d 3fba 23ed 95bb
000001c0: 4c7a 373d 7365 b43c dee8 93bd efe6 8e3d
000001d0: 99f7 89bd 9438 9c3d eb53 f9bc 8c6e a8bc
000001e0: 7484 093d 67b3 8cbd 68a4 b43a 6296 a63d
000001f0: a196 8b3d 46ac e5bc 0196 9d3b 8278 dbbc
-0.017113853 0.029103134 -0.06847858 -0.049508113 0.045200896 -0.050084233 0.119194426 0.00048948044
0.0241185 0.04445397 0.028970405 -0.045387357 -0.020160228 0.022233626 -0.026064536 -0.04137613
-0.05793898 0.0005794433 -0.082886085 0.06333373 0.043969993 -0.03437247 0.06223294 0.00046316968
-0.024117943 0.033821587 0.085533135 0.08100221 0.07863194 0.019992935 0.06450629 0.06837931
0.021270225 0.029532162 0.06802442 0.035740055 -0.050912905 0.08505732 0.047013644 -0.075233504
0.049871795 -0.011941077 0.027751623 0.018021604 0.043229323 0.059047278 0.035660528 0.08726157
0.060315564 0.018178657 0.08780938 0.07264154 0.026539894 -0.023980085 -0.028496917 -0.00033119653
0.07152475 -0.010694813 0.08357754 -0.019025197 -0.048662446 -0.03964213 -0.037953064 -0.004709647
-0.0026089298 -0.042715393 -0.0011762491 -0.09156056 -0.08274895 0.058714017 0.05741192 0.0889907
-0.021310924 -0.05144264 0.060558435 0.006307086 0.056232627 -0.07630886 -0.010061603 -0.054839842
0.022785524 0.010587995 -0.032067936 0.08216501 0.073698826 -0.020022318 0.012154882 -0.075674415
-0.05523005 -0.07438196 0.09024398 0.06914398 -0.012435259 -0.0067957086 -0.006251249 -0.11890262
-0.018894218 0.060191453 -0.053371944 -0.06703282 0.08413091 -0.042979017 -0.0055547147 0.04876332
-0.06999307 -0.089836545 -0.019760003 -0.0629868 0.06498819 -0.050259553 -0.00073000026 -0.004575388
0.044794366 0.022021031 -0.0722215 0.06977641 -0.06736679 0.07627979 -0.030435523 -0.020560525
0.033573583 -0.06870156 0.0013781907 0.08134152 0.068158396 -0.028036248 0.0048091416 -0.026790861

readout.weight f4 [1, 128]
00000000: a191 d8bd 48ca 0ebe 1d8a 5fbe 28b9 8f3d
00000010: 844e 8a3d fb1b 983d 51f3 553e 1e90 953d
00000020: 56b9 9bbd 1c76 83bc b0e1 adbe dfec cd3d
00000030: 3392 62be 2487 ae3d 66ef 38be 8b46 1dbe
00000040: c115 c7bc efca 3abe 5827 d7bd 7a71 f5bd
00000050: 01fb 09be e436 b1bd fdc4 56bd 7495 2dbe
00000060: e955 c6bd f1bd 013e 624f 36be c8b7 ca3d
00000070: 96c8 57be 7bd9 a1bd 8922 69be a24d 2f3e
00000080: 889a 90bd e6b5 22bd 67ac f13d b491 fd3d
00000090: 2ace 233e 7736 9f3d 3e67 1d3d d21f a1bd
000000a0: 2d28 0abe f532 a1be c64c 0b3c e29e edbd
000000b0: 22b9 94bd c15e 4c3e bea8 443d 03f0 bf3d
000000c0: 493f 27be eaac 29be 4562 d03d 0215 10bd
000000d0: 477d 03be 0efa edbd 17ab 853d b87c 24be
000000e0: 281c 19be 552d 493c 70a6 d33d aac3 ce3c
000000f0: 1c83 90bd ede9 653d 0f91 2a3e c2b0 00bd
00000100: 1fbd 7a3d b0c4 8fbd 2979 00be 89d8 e8bd
00000110: 78b4 333e e42b ecbd ff12 993d c1b6 34be
00000120: b570 94be 5450 403d 1dec cabd bf87 8c3d
00000130: 6920 d63d 1cde 57be 7e18 1ebe b235 d8bd
00000140: 2a4f 223e 6de1 c3be 4502 2f3e 066a e43d
00000150: fb0f 663c bd93 2bbe e30c c43d 7bf4 07be
00000160: 47ba 353e 393d 0abe a791 143d 4b11 b73d
00000170: 6c57 543e ee54 f53d 5134 163e f196 483e
00000180: 8a6a 1dbe 63b8 b33d a3be f43c 98e2 58be
00000190: 2157 4cbe 9f1d 8b3d 7986 353d 06d9 323d
000001a0: 8189 97bd 7f63 173e 5c3d 86bd 65c7 6b3d
000001b0: e2d7 01bb cf20 47be 8994 b53d 6504 92bd
000001c0: 8de5 23be 62cf 11be d044 1bbe 3e4a bfbe
000001d0: 79d9 6e3c ed2b 44bd d26f c93d 8a4c 97be
000001e0: 98e8 21be 03f5 3fbe 8869 c43c 94e5 123d
000001f0: 3b0e 36be aae1 303d 4890 373e 4f32 ed3d
-0.105746515 -0.13944352 -0.2183003 0.070177376 0.06753257 0.07427212 0.20893599 0.07302879
-0.076037094 -0.01604753 -0.33961248 0.10054945 -0.22126083 0.0852187 -0.18060073 -0.15358941
-0.024302365 -0.18241476 -0.10505551 -0.119845346 -0.13474657 -0.08653048 -0.052433956 -0.16951543
-0.09684355 0.12670113 -0.1780372 0.09898335 -0.21072611 -0.07902809 -0.2276708 0.17119458
-0.070607245 -0.039724253 0.11800461 0.12381306 0.15996614 0.0777406 0.038428538 -0.07867397
-0.13491888 -0.3148419 0.008502191 -0.1160257 -0.07261874 0.19958021 0.048012488 0.093719505
-0.16332735 -0.16569868 0.101749934 -0.035176285 -0.12840758 -0.1161996 0.065267734 -0.16063201
-0.14952147 0.012278874 0.1033448 0.025239784 -0.07056257 0.056131292 0.16656898 -0.03141857
0.061215516 -0.07019937 -0.12546219 -0.11369426 0.17549312 -0.11531809 0.07474326 -0.1764784
-0.2899224 0.046951607 -0.09908316 0.06861829 0.104554005 -0.21080822 -0.1543903 -0.105571166
0.15850511 -0.38257924 0.1709071 0.11153035 0.014041896 -0.16755576 0.095727704 -0.13276856
0.1774684 -0.13499917 0.036271717 0.08938845 0.20736474 0.1197909 0.14668395 0.1958883
-0.15372673 0.08775403 0.029876059 -0.21180189 -0.19955112 0.06792759 0.044317696 0.043664
-0.07399274 0.14784048 -0.06554672 0.057563204 -0.0019812514 -0.19446109 0.088662215 -0.071297444
-0.16005535 -0.14239267 -0.15162969 -0.3736133 0.014578217 -0.047893453 0.09835781 -0.29550582
-0.15811384 -0.18745808 0.023976102 0.035863474 -0.17778866 0.04318396 0.17926133 0.11581861
