HW9/9_gym-DDPG/results/DDPG_HalfCheetah-v4_5000-eps0.15-t32-l0.0001-s2.pth (torch, 195708 bytes, 13 tensors)

layers.0.weight f4 [128, 23]
00000000: 9187 123e a4a7 2b3e 1218 993d 5d25 a5bd
00000010: 51a9 ccbb 025e f93d 06d5 34bc 38a2 3abe
00000020: 9e2f 963e cccb 69be 1332 4cbe ceda 1e3d
00000030: 74db 14bd 68bc a43d 79c3 b03c c165 993d
00000040: 8ea3 7b3d 5501 1fbe 456d 05be 30c4 523e
00000050: 2eaf 87be 8d4a 17bd 4075 3b3d c197 ee3f
00000060: 0009 45bf fc60 3b3e 9494 153e 0360 8abe
00000070: 6968 acbe 391b 5bbf 384e 75bf 4ee4 58be
00000080: 847e d1be 567c f13d 467a 9cba c2e0 0ebd
00000090: 41a5 c63c f54f bfbd 153e 89bb a17f 19bc
000000a0: 160e 69be 344b b6bd 92e7 533e cf73 00bf
000000b0: cedd 1fbd fa6c 0d3e 2e4f a03f be06 043e
000000c0: 8c91 3cbe f896 a23d 7cc6 5d3d 1974 6e3e
000000d0: 47ca 4e3e 0a3a 14bd 8d92 a4be 947b 7f3c
000000e0: ef9a 5dbe 69bc 933d 4802 d0bc 32f1 f23d
000000f0: 22e7 a8b9 dae2 00be 9ead 3f3b afc0 063e
00000100: be45 ab3c 7e22 93ba 6ef0 083c f522 0abe
00000110: 7e80 4f3d 2b71 75bf ee7b 60bf f43d 9cbe
00000120: 6d4e 22bf b36b aabd bfc6 ba3d 24bb 263e
00000130: c6d1 afbc e79a c53c 1383 2f3e f104 b6bb
00000140: 1e85 063e ac57 6dbc 2a00 a8bd 1ef3 b2bc
00000150: 071e e63d 861b 383c f6ff 0fbe cfa5 dcbd
00000160: 9f2b e7bc 6c25 2ebe 8451 c7bd bd23 e2bd
00000170: 661b 3340 284c b9bd 1f25 503f 1ea2 703d
00000180: 8bf1 223e d871 f73e c0fd abbd fae2 c5be
00000190: 7cc1 3abe 79ce 8a3e 474e 0a3d 4202 193e
000001a0: 7f68 3e3d 8633 1f3d fd7c b63d 2a8c 663d
000001b0: f4ce dcbc 4331 ef3d a946 ef3d c290 86bd
000001c0: 06be 31be 2ccd 4dbb b5fa 60be f361 d43e
000001d0: 44ed 33bf 68e3 fabc 9580 38be cb7b 84bd
000001e0: f883 ad3e 3f3e 853e d63f 3b3d ff1d c73d
000001f0: 7646 ab3d a23c 9bbd c4f5 0d3b c309 dd3d
00000200: 28ca f7bd 68a7 eebd 2249 20be edd3 093d
00000210: d765 743d e911 9ebe 1748 a13c 58e6 873e
00000220: 6f66 843d 732a 54be 8c17 c53d ba43 39bf
00000230: e4c0 c2bf cef4 e4bc 4854 0e3e 6301 1bbe
00000240: bba7 b63e ff6b 673e e9f3 b8bd 6646 8ebc
00000250: 0f21 2d3e a4a2 dbbd 2c1e 903d 8214 05bc
00000260: 95a8 f7bd af4a 48bd b180 0cbd b847 1cbe
00000270: 0d36 ffbd 77a0 31bd 5418 403e 9d2f 323c
00000280: d6d1 2ebe c589 153f 1e9e 17bf cca4 45be
00000290: 873c f33c fc67 843e c0dc e93c 26ee d2be
000002a0: f47a fe3a 4071 27bc 9b7d 85be 4292 bfbd
000002b0: c254 9f3d 39bf 89bd a3dc b4bc 9e28 aabd
000002c0: c215 0cbe 6f53 9b3d 64b7 293e ab5a 853d
000002d0: dc05 eabd 32fe 12bd 99ca 5a3e 1c94 f6bc
000002e0: 4cc9 973e 7299 6bbe 7228 d3bd 3484 f53d
000002f0: 47d3 20bd e465 d83d 1ae5 a03c 1d58 b5be
00000300: fce6 003f 8f2c b13e 7b99 01bd c5c6 b4bd
00000310: ef61 1e3d e62a b9bd cd7b e13d c0ff b83d
00000320: efff 25bd 0dd2 eabd 5004 6fbe 12a0 8bbd
00000330: db89 8abd bc1b f83d 7335 873d 3e96 2c3e
00000340: 3534 9e3d e0d5 81bd 9a5a a2be 23ce 06bd
00000350: 798b 4abe c989 523d 5806 cebd b14f 653e
00000360: 0078 b9bd 4a00 3bbe 8dbf 113d ac2a 8d3d
00000370: 683b 043d 81a1 0fbe c644 0a3e e8e2 c13d
00000380: f721 cb3a c1f5 ab3d 204f ddbd fadb 4d3e
00000390: 8d10 c43d 4c18 8f3d 98e0 263f 93f0 c13e
000003a0: dc77 de3e 3004 003d 04b9 21be 2a01 eebe
000003b0: 0de7 b7be 812b c3be fbfa e5be bccb 7b3e
000003c0: 2da2 aa3d 8309 0dbb 323f dfbd 238a 23be
000003d0: fd8f 633e c041 c73d aa77 223d 967c ed3d
000003e0: c3f9 00bd 9920 3abe 0aca 41be d6b9 b1bd
000003f0: 5703 a9bc ac2e 31bf 784a d9bc 8751 4fbe
0.14309527 0.16763169 0.07475294 -0.08063767 -0.00624577 0.12176134 -0.011037117 -0.18225944
0.29333204 -0.22831649 -0.19940977 0.038782887 -0.0363421 0.08043748 0.021577584 0.07490111
0.061435275 -0.15527852 -0.13029964 0.20582652 -0.2650084 -0.03693633 0.045766115 1.8640062
-0.7696686 0.18298715 0.1460746 -0.27026376 -0.3367341 -0.85588413 -0.9582248 -0.21180841
-0.40916836 0.11791293 -0.0011938296 -0.034882315 0.024248721 -0.093414225 -0.004188309 -0.009368808
-0.2275928 -0.089010626 0.20693806 -0.5017671 -0.03902989 0.13811103 1.2524164 0.12893197
-0.18414897 0.07938951 0.054144368 0.23286475 0.2019435 -0.036188163 -0.3214306 0.015593428
-0.21641134 0.07213671 -0.025391713 0.118624106 -0.00032215664 -0.12586537 0.002924777 0.1315944
0.02090728 -0.001122549 0.008358104 -0.13489898 0.05065965 -0.95875806 -0.876891 -0.30516016
-0.6340092 -0.08321323 0.09119939 0.16282326 -0.021462332 0.024121715 0.17139845 -0.0055547883
0.13136718 -0.014486235 -0.08203156 -0.021844443 0.11236196 0.011237031 -0.14062485 -0.10773813
-0.028219042 -0.17006463 -0.09732345 -0.11041973 2.7985473 -0.09047729 0.8130664 0.058748357
0.15912454 0.48329043 -0.08398008 -0.38649732 -0.18237871 0.2711065 0.033766057 0.14942268
0.046486374 0.038867496 0.089105584 0.056286015 -0.026954152 0.11679318 0.11683399 -0.06570579
-0.17357644 -0.003140281 -0.21970637 0.4148098 -0.70283914 -0.030626014 -0.180178 -0.06468924
0.33889747 0.26024053 0.045715176 0.09722518 0.08363049 -0.07579924 0.002166138 0.107928775
-0.12099105 -0.11653024 -0.15652898 0.033649374 0.059667435 -0.3087304 0.019687695 0.26542926
0.0646485 -0.20719318 0.09623632 -0.7236897 -1.5215116 -0.027948763 0.13899338 -0.15137248
0.35674843 0.22599791 -0.09030897 -0.017367553 0.16907142 -0.107243806 0.07037005 -0.008122565
-0.12092701 -0.04889935 -0.034302417 -0.15261734 -0.12461481 -0.04336592 0.1875928 0.01087561
-0.17072234 0.58413345 -0.5922564 -0.19301146 0.029691948 0.25860584 0.028547645 -0.41197318
0.0019415305 -0.010219872 -0.26072392 -0.09354068 0.07779838 -0.06725926 -0.022077864 -0.08308528
-0.13680175 0.07584273 0.16573864 0.06511434 -0.11426899 -0.03588695 0.21366347 -0.03009992
0.29645765 -0.23007753 -0.10310449 0.11988106 -0.03926399 0.10566309 0.019640494 -0.35418788
0.50352454 0.34604308 -0.03164051 -0.08826975 0.038667616 -0.09041385 0.11009941 0.090331554
-0.04052728 -0.11465845 -0.23341489 -0.0681764 -0.06764575 0.12114665 0.066019915 0.16854188
0.077248015 -0.063396215 -0.31709749 -0.03291143 -0.19779767 0.051400933 -0.10059804 0.22393681
-0.09056091 -0.18261829 0.035583068 0.06892905 0.032283217 -0.14026453 0.13502797 0.09467107
0.0015497793 0.08396483 -0.108061075 0.20103446 0.09573469 0.06987056 0.6518645 0.37878856
0.4345082 0.031253994 -0.15793234 -0.46485263 -0.35918465 -0.38119128 -0.44918045 0.24589437
0.08331714 -0.0021520562 -0.109007254 -0.15970664 0.22222896 0.09729338 0.0396649 0.115960285
-0.03148819 -0.18176498 -0.18924728 -0.086780235 -0.020631475 -0.6921184 -0.026524767 -0.20245944

layers.0.bias f4 [128]
00000000: 8fa1 81bd d649 823e c9dd cbba ef75 0c3d
00000010: 8f38 b63e 8f18 0c3f 4356 833a 8862 503e
00000020: 9bb1 933e d20b 433e 2c19 14bd 659f 213e
00000030: 8eeb 6f3e d552 7dbe 9efc 85be 1bae 10be
00000040: 3ed4 0ebc e404 e73e 23d5 d03e 68a9 8a3d
00000050: 33ae e13e a1ea ab3e f92f 9d3e 9096 8abe
00000060: 109b c93e adf1 f73c f30c 63be 021c 003f
00000070: 20ee cb3e 4f24 993e 83a5 1c3f 93a7 04bf
00000080: fe03 983e 75ee ccbe 6545 c7bd def6 f0be
00000090: f61e b7bd 02f0 e83d bea1 ecbe b4a4 a93e
000000a0: 6b9d ce3e 8cb7 893e 5d07 e53d beee 1b3f
000000b0: b18e 89be 21a9 2c3f cf14 e83d c66d d8bd
000000c0: 6b30 eabc e0f5 643e cd5c 193e 5399 cfbd
000000d0: 79c4 3abd b11f 493f f518 f5bd 96a6 b43e
000000e0: beb7 bf3d 7e91 06bd ceb8 3dbe 96ae dabd
000000f0: 58d6 173e bd5e 5e3e d86a ac3e 424d 0bbe
00000100: aa3d 7ebe dde6 fa3c 1135 79be 30c6 1cbe
00000110: 7383 b1be 1920 d93e 7fdb bc3e 3bba 47bd
00000120: dc5f c0be 431b 92be f5ef d1be ff24 17be
00000130: c362 9dbe b998 1fbe dd7c c93e 1108 99bd
00000140: 0261 70bd 32c3 83be 334a 5cbd dc3a 59be
00000150: 1f5f a0be e4e0 43bd dd3f 52be 47e5 9d3e
00000160: 9e33 6c3e e8ec 353e a0d7 51bd b8cf 023f
00000170: 1724 e53e 2c68 9b3d f073 0a3f 0856 89be
00000180: 43ea 20be 23f1 b1be 20db e43d a8fa fe3e
00000190: 0f41 4ebe 30a5 0d3f b7bf 39bd b074 e8bc
000001a0: 78ab 0dbe 6b46 cdbe e30a 04bd 2fcb 0e3f
000001b0: a05c 343f b6df 073e 1574 d13d cbda 743e
000001c0: 3e8c c23e 20f7 d33e 910f 103f f96a aa3d
000001d0: 355a 0d3f 9739 b63d 1d3e c73e 148b e3bd
000001e0: 9442 b6bb f2ac d63d 182e c6be 3ced 1b3f
000001f0: 0d79 d0be 061a 353e f7d2 d4be 08d8 bcbe
-0.06329643 0.25446957 -0.0015553768 0.034292158 0.35590026 0.54724973 0.0010020215 0.20350087
0.2884644 0.19047478 -0.03615682 0.1578346 0.234297 -0.24738629 -0.26169294 -0.14128916
-0.008717595 0.4512092 0.4078761 0.06770593 0.44078216 0.33577445 0.30700663 -0.27067995
0.39376116 0.030266607 -0.22172908 0.50042737 0.39830112 0.29910514 0.6119005 -0.518182
0.29690546 -0.40025678 -0.09730033 -0.47063345 -0.08941452 0.11373903 -0.4621715 0.3313347
0.40354475 0.26897848 0.11183045 0.60911167 -0.26866677 0.6744557 0.11332094 -0.105678126
-0.02858754 0.22359419 0.14976807 -0.10136666 -0.045597527 0.7856398 -0.11967651 0.35283345
0.09361218 -0.032853596 -0.18527529 -0.10677831 0.1482786 0.21715827 0.33675265 -0.1360369
-0.2482821 0.030627662 -0.2433665 -0.15309978 -0.346706 0.424073 0.36886212 -0.048761588
-0.37573135 -0.28536424 -0.41003385 -0.14760207 -0.30739412 -0.15585603 0.39353076 -0.07472242
-0.058686264 -0.2573486 -0.0537817 -0.2121386 -0.31322572 -0.047821894 -0.20532174 0.30838987
0.23066565 0.17766154 -0.051231027 0.51098204 0.44754097 0.075882286 0.54083157 -0.2682345
-0.15714364 -0.34754285 0.11174607 0.4980061 -0.20142005 0.5533018 -0.04534885 -0.028375953
-0.13834941 -0.40092787 -0.032236945 0.55778784 0.70453835 0.13268933 0.10227219 0.23911588
0.3799762 0.4139948 0.5627375 0.08321185 0.5521577 0.08897703 0.38914576 -0.111105114
-0.005562136 0.104822055 -0.38707042 0.60908866 -0.40717354 0.17685708 -0.41567203 -0.3688357

layers.1.weight f4 [128, 128]
00000000: f869 3cbd 4b01 e9bc 9198 95bd 2d2e cbbc
00000010: 5af3 a0bc ab94 a73c e079 373d cb62 80bd
00000020: bb6a f53c 3633 1f3c c6dd 523d 1505 c0b9
00000030: 6380 2f3d eeb7 e13d 4f05 033e e596 9a3c
00000040: 43cd 243d 18a4 1e3d cfab e03c 7b36 e83d
00000050: 20b3 d7bc 703d 97bd 11da 03bc 1f1d 163d
00000060: c529 59bd fa9b cb3c 1548 ca3d 9c7b 883c
00000070: e924 93bd 98b2 12be fded 83bd 40fb 57bd
00000080: bc1a 0b39 21d2 2b3d 16ca 483d 29d5 b03d
00000090: dc31 b63d 2acc 9cbd 1109 1e3c 4022 81bd
000000a0: fdb6 bc3c 64c1 213d f411 403d 0b22 fbbb
000000b0: e4d2 ab3d f48f e0bc 3ebd 22bb bb9b 1dbd
000000c0: e249 943c efc8 31bc 8dcc e03c 7ec4 fa3c
000000d0: 4ee8 c63c 9aad 65bc 656b a33d 013c d9bc
000000e0: b53b 813c 47fe 593d e96c a53d 26c7 89ba
000000f0: 3155 313d cf48 533d 2ad7 ca3d 4ef1 b9bd
00000100: 8e77 54bd 33cd 153d bd1d 75bd 9a7c 02bd
00000110: a194 e2bc 71c3 b43c 55c2 48bc c76f 1a3c
00000120: 7510 743d 7281 7dbd 2231 2abb 7f48 503d
00000130: 51fe 513d 3de0 e83b 5e29 e63c acca 8d3d
00000140: 795e 573d 438f 4cbc b6a8 3cbc f522 8ebd
00000150: ec7d 54bd 5631 e6bb 7975 92bc 4932 b1bd
00000160: 8a13 853d 8090 b1ba ef5a 21bd 34ad a8bc
00000170: 7944 74bd 3236 aabd 3506 4bbd 764d 843d
00000180: cf09 fc3d 0115 a13e 301e 46bd 2e93 99ba
00000190: da1c 6fbd 9dca ac3c 3d7f 2abd 0e75 0abd
000001a0: fde4 83bc 638b 7e3d 0b75 75bc 1792 92bc
000001b0: 987b bb3c 6b42 513d c547 5cbd 5f4d 263d
000001c0: c769 1a3e 1268 7c3d 89f1 833d 1707 873d
000001d0: 2f33 813d c02a 20be 738e 87bd 4572 e13c
000001e0: ac52 573d 96fe 933c c8ce d93d ebed 3a3d
000001f0: 47c6 91bc 72f2 433b 0332 86bc eced 9e3c
00000200: 31ac b6bd 83c4 d7be fbe4 893b 6cfb a53d
00000210: 35c2 8e3c 3d97 813d 1968 903b 24e0 bb3d
00000220: e2f0 033d a749 073d db8c 36bd 2130 87bd
00000230: 4a62 babc 3fc1 ae3c f6da 26bc c731 93bd
00000240: 582a a03d d9e8 28bd 85aa d8bc dd4d 393c
00000250: 6b4e e13d 1262 ea3c c86a c1bc be44 963c
00000260: 3a3c 843d 7ff4 abbd 7501 473d 06b3 323d
00000270: 96a5 15bd f726 93bd ed85 b0bd 8486 5ebd
00000280: 7d8b 213d 724c cdbd 019d 85bc 2161 a5bd
00000290: c28c f23c 9087 363d 0074 4f3d 1b9c 973d
000002a0: ab6b 0f3e 26e0 4f3d 27cb b53d 419f 1dbd
000002b0: c71f d73b f0c3 a93d c340 7abd 6692 8fbd
000002c0: 7048 c63d 689a 883d 075d a6bd 7c60 41bd
000002d0: c300 3cbe 819d 813d a2f8 2dbd 90f6 89bd
000002e0: 2b0b c53d 1c74 a13d d180 6c3d 2365 15bc
000002f0: 4d8e 0abd 156d a63d 6826 5f3d f87a 0b3d
00000300: b36b 233d aaf4 fdbc 8d67 1ebd 8e08 0b3d
00000310: 0ee0 0d3d 4648 b43d 930b 88bc dbb3 053d
00000320: d619 243b 29b0 62bd 7a36 5d3d 086e dabc
00000330: 9307 a23d 6e75 d6bd 4c9b 02bd 035a eebc
00000340: 817c abbc bc83 83bc 303d 283d 0959 14bc
00000350: e6a2 f3bd a2e4 793d 92b4 a1bd fae1 38bc
00000360: 7bcb 9a3b f2ae 8c3c 11e1 b3ba 6ae6 1c3d
00000370: 305a 8d3b 20bb 81bd d4fd 563d e8b5 5cbd
00000380: e456 91bd 1da6 04be 7cb1 3ebd deb9 933d
00000390: bb0a 3abc 895a ae3c 3083 133d e390 8d3d
000003a0: f2b2 393d 51b7 06bd 767d 5dbd f790 11be
000003b0: a0a1 803c a5f0 cbbb f160 49bd 63f4 443d
000003c0: 2b65 25be 6de0 2d3d fcb6 88bc 321d 78bd
000003d0: e41a bc3d a74e cbbd 73d0 583b 7427 2c3d
000003e0: 4f7d 59bb c0eb c73d 8802 91bc c920 16be
000003f0: 0928 a13b bc26 18be 3433 73bd 040d 37bd
-0.045999497 -0.028443 -0.0730449 -0.024802292 -0.019647289 0.020456633 0.044793963 -0.06268843
0.02995812 0.0097167995 0.05148103 -0.0003662488 0.04284705 0.1102141 0.12794994 0.01887078
0.040234815 0.03873071 0.027425675 0.11338516 -0.02633053 -0.07384765 -0.008047597 0.036648866
-0.05301835 0.024854649 0.0987703 0.016660504 -0.071847744 -0.1432594 -0.06441877 -0.052729845
0.00013266032 0.04194844 0.04902085 0.08634407 0.08896229 -0.07656129 0.009645716 -0.06305361
0.023036474 0.039491072 0.04689212 -0.0076639703 0.083898336 -0.027412392 -0.0024832035 -0.038478594
0.018101636 -0.010851129 0.027441287 0.030611273 0.024280693 -0.014018441 0.07979468 -0.02651787
0.01577554 0.053221013 0.080774136 -0.0010511621 0.043294135 0.051583108 0.099043205 -0.09079228
-0.05187183 0.036572646 -0.059842814 -0.03185711 -0.027658762 0.02206585 -0.012253364 0.009426064
0.059586007 -0.061891027 -0.0025969227 0.050850388 0.051267926 0.0071068094 0.028095897 0.06923422
0.05258033 -0.012485328 -0.011514833 -0.06940261 -0.0518779 -0.0070249243 -0.017878281 -0.08652169
0.064978674 -0.0013547093 -0.03939336 -0.020590402 -0.059635613 -0.08311118 -0.049566466 0.06460087
0.12306558 0.31461337 -0.048368633 -0.0011716837 -0.058377124 0.021092707 -0.04162525 -0.03380304
-0.016100401 0.06214465 -0.0149815185 -0.017891927 0.022886083 0.05108873 -0.053779382 0.04060113
0.15079413 0.061622687 0.064425536 0.06593149 0.063085906 -0.15641308 -0.06618967 0.027520308
0.052569076 0.018065732 0.106351435 0.045637053 -0.017794741 0.0029899147 -0.01638127 0.01940056
-0.08919562 -0.42142114 0.004208205 0.081045955 0.01742659 0.063276745 0.0044069407 0.09173611
0.032212146 0.033029225 -0.044567924 -0.06600977 -0.022751946 0.021332381 -0.01018404 -0.07187229
0.078205764 -0.041237686 -0.026448498 0.011310068 0.11001285 0.028611217 -0.023610488 0.018343326
0.064568 -0.08396243 0.048585374 0.04362776 -0.03653487 -0.07185166 -0.08619294 -0.054327503
0.039439667 -0.100243464 -0.016310217 -0.080751665 0.029608134 0.044562876 0.050647736 0.07402822
0.14005916 0.050750874 0.08876639 -0.038481954 0.0065650675 0.08289325 -0.061096918 -0.07010345
0.09681785 0.06670076 -0.08123212 -0.047211155 -0.18359666 0.063288696 -0.042473443 -0.06736481
0.09621271 0.07883474 0.057740036 -0.009118351 -0.033827115 0.081262745 0.054479986 0.03405282
0.03989763 -0.031000454 -0.038672972 0.033943705 0.034637503 0.088028476 -0.016607082 0.032642227
0.0025039813 -0.05534378 0.05400703 -0.026663795 0.07911601 -0.10471617 -0.031886384 -0.029095655
-0.020933392 -0.016054027 0.041073978 -0.009054431 -0.11896305 0.061009057 -0.07895769 -0.011284346
0.004723964 0.017173264 -0.0013723691 0.038305677 0.0043137297 -0.063345194 0.052488163 -0.053884417
-0.07096651 -0.12953992 -0.04655598 0.07213186 -0.011355097 0.021283405 0.036013782 0.069124006
0.04533667 -0.032889668 -0.054074727 -0.14215456 0.015702069 -0.0062237554 -0.049164716 0.048084628
-0.16151874 0.042450357 -0.016688816 -0.060574718 0.091848165 -0.09927111 0.003308323 0.042029813
-0.0033186262 0.097617626 -0.017701402 -0.14660944 0.0049181026 -0.14858526 -0.059375003 -0.044690147

layers.1.bias f4 [128]
00000000: 73bc 9abe 63d9 923e 6981 64be 2613 30be
00000010: 2226 9f3e 4c40 403e 22d5 4d3d 3f70 af3e
00000020: fd58 093f 03e3 adbe f950 87be 0648 5dbe
00000030: db77 a03e f02f 2a3e 23ea 58be ed6d 193e
00000040: 5465 8dbe 0ea7 95be 7cd0 8c3e c822 79be
00000050: c9ef d03e d1ab 443e 5801 2fbe 13c0 1bbe
00000060: 0298 8d3e 1a5a bd3e 34ac 9ebc d300 fa3e
00000070: e558 fb3d 4f23 18bc 9b1c 83bb d6ab b23b
00000080: ac26 c63e bb06 d1be 40e3 73be 572f af3e
00000090: 2cfa 21be a2ae 96bb 3b2a 943e 5f1e a8be
000000a0: 75ef 523e 7ba6 a7be d5d3 ae3e 2f2a b33e
000000b0: 8cbe c13e fb3d ca3e e9f4 6abe daf3 81be
000000c0: 8f84 83bd 2eae 953d 3bcb 8a3e f9a6 b8be
000000d0: e645 c23e c0ed b1be 57ea a83e e589 adbe
000000e0: 1449 963e 026b 28be 9f21 4fbe 841c 663d
000000f0: 4ecc 8bbe 6ef6 85be 79eb 8dbe 32e3 403e
00000100: 5c26 be3e ff9e 833d 4f0f e83e ac9c a7be
00000110: e99f 2f3d 4f11 5f3e ad93 593e 62eb 633d
00000120: ea1f a23e d2d2 4b3e eea2 0b3e c942 d93d
00000130: c6e3 0c3d 9e70 77be a88e a8be 88de 53be
00000140: 7db5 553d b8da 993e 4c9a d93e 3821 9f3e
00000150: f5a3 673e 3806 d63e 60c1 86be 45d4 a0be
00000160: 5338 8b3e 6c96 41bd 55d1 6dbe 52e8 ea3e
00000170: 906c 323e d0e4 53be 8851 5fbe ed2d 03be
00000180: eaf3 d03e 2665 adbd ff07 2fbc ff39 80be
00000190: b48c 6bbe e837 ba3e f723 a33e d580 d33e
000001a0: d466 9fbe e43a a93e ce77 d93e 1d2b 4f3e
000001b0: 5e7e ec3e 69b4 8b3e 44c8 8cbe 993c d0bd
000001c0: cf16 1fbe abae 013f b570 2dbe 6301 89be
000001d0: ddb9 59be a58d 3dbe e94b 9d3d 1dc5 aabe
000001e0: 0909 aebe a0af babe 904a 73be 0cf1 fe3e
000001f0: 7a7a 963b faa0 82be a298 03be 65a1 7cbe
-0.302219 0.28681478 -0.22314991 -0.17194805 0.3108378 0.18774527 0.050252087 0.34265324
0.5365141 -0.3396226 -0.26428965 -0.21609506 0.31341442 0.16619849 -0.21183066 0.1498334
-0.2761637 -0.29229015 0.2750281 -0.24329674 0.40807942 0.19206168 -0.17090356 -0.15209989
0.27655035 0.36982805 -0.019369222 0.48828754 0.12272815 -0.009285762 -0.004001213 0.0054526133
0.3870138 -0.40825447 -0.23817158 0.34215805 -0.15818089 -0.0045984546 0.2893847 -0.3283567
0.20599158 -0.32744202 0.3414599 0.3499312 0.37840688 0.39500412 -0.22944988 -0.25381356
-0.06421768 0.07308613 0.27108178 -0.3606489 0.37943953 -0.347517 0.32991287 -0.33894268
0.2935263 -0.1644707 -0.20227669 0.05617954 -0.2730431 -0.26164573 -0.27718714 0.18836668
0.3713864 0.064268105 0.4532418 -0.3273672 0.04287711 0.21783946 0.2124774 0.0556444
0.31664973 0.1990464 0.13636371 0.106084414 0.03439691 -0.24164054 -0.32921338 -0.20690358
0.052175034 0.30049682 0.42500532 0.3108003 0.22621138 0.4180162 -0.26319408 -0.3141195
0.2719141 -0.047262594 -0.23224385 0.4588037 0.17424226 -0.20692754 -0.21808445 -0.12810488
0.40811092 -0.08466558 -0.010683059 -0.25044248 -0.23002893 0.36370778 0.31863376 0.4130923
-0.3113314 0.33052742 0.42474216 0.2023129 0.4619016 0.2728608 -0.2749654 -0.10167808
-0.15536045 0.5065715 -0.16937526 -0.2675887 -0.21262307 -0.18511064 0.07680494 -0.3335351
-0.33991268 -0.36462116 -0.23758912 0.4979328 0.004592237 -0.2551344 -0.12851194 -0.24670942

layers.2.weight f4 [64, 128]
00000000: 747b 6fbe 6c30 fb3c 52e0 74bf 13b3 373d
00000010: b67f a13d 7d72 3d3e 1c63 2e3e 7eea c63d
00000020: 015c cf3d c770 97bf 68a2 b2be cf36 59bd
00000030: 6977 0a3b 64af 173a 1dde 99bc 2a58 903e
00000040: 9a31 1fbe 72b3 6bbc d611 a6bd 73fc 0dbe
00000050: 1fcf b33c 5d1f b0bd e196 1dbe da6d 56be
00000060: b96d 3ebe bb6b 14bd 7b39 8bbe 7bfd f83e
00000070: 59a9 14bc de0f 92be 9c4e c8bd 1ba5 8d3d
00000080: 3ca3 b93d 2494 953c 9730 323d 98d5 0a3e
00000090: 5a75 d2bd 33d7 a63e b59e e33d fae0 2dbf
000000a0: 436b fe3d d486 e6be c1ef 96bd 1643 453e
000000b0: fa3c 3d3d b922 483d 36b1 6abd b50f 073e
000000c0: caa5 20bd 40c8 7abb 4c1e 893e a020 12bc
000000d0: 6930 463d 08ea b5be a034 853d c767 cfbd
000000e0: 270f 49bd 8595 fb3d 8034 86bd 1e0d 45bd
000000f0: 6506 48bd 1e16 a9bd f5cb 83bd 86a3 c03e
00000100: a047 f83c c545 283e 09c8 983d 1c49 92bf
00000110: 9a89 e33d bf01 82bd 807b 2e3e 4c26 c4be
00000120: 6efe 003e 6a07 b0bd 2e98 2a3e f043 6b3d
00000130: 24ff 843d d3fd 05bf 44d1 16bd de84 1ebb
00000140: 4f82 e73d 4202 aa3d 8a50 0e3e 9ebf 90bd
00000150: c0c4 b53e 5d8c f03d 1ee7 713e ce95 92bd
00000160: 9a77 703d 76d4 1bbe 53f8 ffbd 1180 d43d
00000170: b12d e1bd 1dba 12be 0867 a73d 67ed 2f3d
00000180: 7a7c 243b f7de 74bd ac78 d23c 2c31 f6bc
00000190: b251 c9bd 8c50 bd3c 91a7 4a3c 6d67 803d
000001a0: 890c 85bd cd50 b4bb 2f19 9ebd 2e55 dc3d
000001b0: ca5a e6bc ea10 413d 8ac0 11be e01a 173e
000001c0: d672 0a3c dc3e 023d e3bf a6bb de7d 90bc
000001d0: 9f80 203d ff98 e43d 9f0e 583e 2f9f c4bd
000001e0: bdbc 913d a9e2 8bbf e70f 11bd 9ffe 9d3c
000001f0: 34c9 ad3b f8bd e23c f79e 913b b56b ff3d
00000200: 8bae 26bd abf2 943d 0d43 a0be 2b10 edbc
00000210: e507 253e f73e 263d 5173 d43c 25f9 0a3e
00000220: 3d4a ea3d 0436 48be 8357 53bd a60d 42bd
00000230: 122b 863c 3dee ed3d 1a10 05bd 1e86 803e
00000240: acfa 67bc 20a7 19bd 7cf8 f83c bfc1 7abd
00000250: 9823 553d 2454 0d3e f391 f6bd 4302 17be
00000260: d174 513d 9571 f3bc def2 27be 24d3 bd3e
00000270: 67df 143e 9204 51be 6b0b de3a a6d3 883d
00000280: c6d5 9f3c abe8 10be 7279 a5bd 6f0b 80bb
00000290: d96d 7fbe 04b4 4f3e 5d3c f03d 9cfe 2dbe
000002a0: 1a56 933d 593b 16bf 9c88 04bd 2975 5b3e
000002b0: 5644 913d f9c4 f33d ad23 75ba 9c93 a6bd
000002c0: 9e7c c9bd 71f0 9fbd c498 f93d d454 c9bc
000002d0: 307d fc3d 2931 8abd 6e04 a43c 6ff2 31bd
000002e0: 4aa8 a63d 3a05 f4bd daba 84be 4888 6abe
000002f0: 4743 2cbe e240 65bd f4f6 5ebd b0f3 d43e
00000300: d15b 2e3c e142 823d b1ab 393d 8ddf b8bd
00000310: c8b0 41bd 9b35 2b3d 497e d83d b9b8 a9be
00000320: d3bd 463e 9156 873d b006 0e3c 288d 7dbc
00000330: 6d2c 7ebc 0771 8fbc 0dfc 60bf ded5 14be
00000340: 27ea a23d c039 de3d 6b88 e33d 1797 01bc
00000350: 4f54 823e 0c4f 313e cfe1 0cbe 7899 cabd
00000360: 8daa 993d 4968 6fbe e142 adbc 5947 19bd
00000370: 44c3 e23d 48e1 97bd c0b9 60be 69be dabd
00000380: 1b07 c43d 3610 a6bd f97f 38bd 7d75 1abe
00000390: e181 26bc 6f18 823d 4412 0f3e df8c 8b3d
000003a0: 363a 43bf 8b1a c73c 7c0e 64bc ae6b ff3c
000003b0: 5541 2dbc b9b9 073e 68bb 08be 0345 3abd
000003c0: cacf 2fbd 8ee7 893d f641 49be 534c 1abe
000003d0: 5ed9 9fbc 7b30 933b 0afa 413e 4f45 ca3d
000003e0: a56f 56bd a9ab 94be aea4 233e b6e3 dc3d
000003f0: 0953 6cbe b732 1b3d b692 aabc 2d7a 10be
-0.23386937 0.030662738 -0.95654786 0.044848513 0.07885687 0.18500705 0.17029995 0.097126946
0.1012497 -1.1831292 -0.3488953 -0.053030785 0.0021128303 0.0005786328 -0.01878267 0.28192264
-0.15546265 -0.014386045 -0.08108871 -0.13865833 0.021949349 -0.08599732 -0.15389587 -0.20940343
-0.18596543 -0.036235552 -0.27192292 0.4863089 -0.009073579 -0.2852773 -0.097806185 0.06916257
0.090643376 0.018259116 0.04350337 0.13558042 -0.10276289 0.3258606 0.11114255 -0.6792141
0.12422802 -0.4502474 -0.07369948 0.19263873 0.04620073 0.04886124 -0.057297908 0.13189586
-0.03922061 -0.003826633 0.26780927 -0.008918911 0.04838601 -0.35530114 0.06504178 -0.10127216
-0.049086716 0.12284378 -0.06552982 -0.048108213 -0.048834223 -0.08256172 -0.06435386 0.37624758
0.030307591 0.16432865 0.07460029 -1.1428561 0.1111023 -0.06347989 0.17039299 -0.38310468
0.12597057 -0.08595164 0.16659614 0.057437837 0.06493977 -0.5234043 -0.036820665 -0.0024188082
0.11304151 0.08301212 0.1389791 -0.07067798 0.3550167 0.11745522 0.2362332 -0.07157479
0.05870781 -0.15217766 -0.12498536 0.10375989 -0.10995043 -0.14328809 0.081739485 0.042951014
0.0025098608 -0.05978295 0.025692306 -0.030052744 -0.09830035 0.023109697 0.0123690525 0.06269727
-0.064965315 -0.0055027963 -0.07719647 0.10758434 -0.028119463 0.04713527 -0.14233604 0.14756346
0.008450231 0.03179823 -0.0050887926 -0.017638143 0.039185163 0.11161994 0.21099328 -0.09600674
0.07116077 -1.0928546 -0.035415556 0.019286452 0.0053035263 0.027678475 0.004443999 0.12471715
-0.0406938 0.07272848 -0.31301156 -0.028938374 0.16116293 0.04058739 0.025933893 0.13571604
0.11439941 -0.19551855 -0.05159713 -0.047376297 0.01637796 0.11617706 -0.03248606 0.25102323
-0.014158886 -0.0375129 0.030391924 -0.061219927 0.052035898 0.13801628 -0.12039556 -0.14746957
0.051136795 -0.029717246 -0.1640124 0.3707515 0.14538346 -0.204119 0.0016940659 0.06680994
0.019511115 -0.14151256 -0.080798045 -0.003907613 -0.24944247 0.20283514 0.117302634 -0.16991657
0.07194157 -0.5868431 -0.032356843 0.21431412 0.07093112 0.11902804 -0.00093513244 -0.08133623
-0.09838222 -0.078095324 0.12187341 -0.024576582 0.12328565 -0.06747658 0.020021643 -0.043444093
0.08137567 -0.119150594 -0.25923806 -0.2290355 -0.1682254 -0.05597008 -0.05443473 0.4159217
0.010642008 0.063604124 0.045329753 -0.09027014 -0.047287732 0.04179917 0.10570962 -0.33148745
0.1940835 0.06608308 0.008668587 -0.015475549 -0.015513522 -0.01750995 -0.878846 -0.14534709
0.07954817 0.10850859 0.11110004 -0.007909558 0.25454947 0.1731531 -0.13758014 -0.09892553
0.07503233 -0.23379625 -0.021150054 -0.037421558 0.110724 -0.07416016 -0.21945858 -0.10680849
0.09571668 -0.08108561 -0.04504392 -0.1508388 -0.0101628015 0.063523166 0.13971812 0.068139784
-0.762607 0.024304649 -0.013919469 0.031179275 -0.010574658 0.13254441 -0.1335274 -0.04547597
-0.042922772 0.06733619 -0.19654068 -0.15068178 -0.019512828 0.0044918633 0.18943039 0.09876501
-0.052352566 -0.29037216 0.15980789 0.1078562 -0.2307855 0.037890162 -0.02082191 -0.14109106

layers.2.bias f4 [64]
00000000: 756c 1c3e 49bb a23e ddf0 873e bdda 44be
00000010: 397c 82be 22bd 8fbe d4db 87be ff02 cd3e
00000020: c3e0 74be 9dd3 b83e ee09 25be e17c 6bbe
00000030: aaaf a9be 32d0 143e 7351 7fbe 3ffc 6f3e
00000040: bd0a edbd 7747 bc3e bbd0 d43e 963a e33e
00000050: 4290 32be 0260 a43e 8e29 4cbe 04a3 153d
00000060: 3ba1 54be 24a9 943e 2281 2bbe 5be2 56be
00000070: e206 b43e 1dc9 86be 1d4f 5dbe 26fb 3fbe
00000080: 2af4 fd3e 53d4 843e 8b81 e03e 1d2b 86be
00000090: 62c1 3dbe 19c1 4abe b5df 893e 4587 dd3e
000000a0: 6ee4 c23e a6c1 d93e 24eb 813d 7d3c 9abe
000000b0: ef9b 53be 321b 9dbc 8359 95bd 5b32 aa3e
000000c0: 850c 50be bc05 da3e d31f 67be 91ac 8abc
000000d0: 675a 93be 91a3 9fbd 76cf 95be d836 90be
000000e0: 303c d33e ef98 a0be ef38 2cbe 6774 a3be
000000f0: b802 dc3e db0d febd 82b2 68be 4f78 6cbe
0.15275748 0.31783512 0.26550952 -0.19224067 -0.254854 -0.28073984 -0.26534903 0.40041348
-0.23913865 0.36098948 -0.16117069 -0.22996856 -0.33141834 0.14532545 -0.24933414 0.23436068
-0.11574314 0.36773273 0.415655 0.44380635 -0.17437842 0.32104498 -0.19937727 0.036532417
-0.2076463 0.29035294 -0.16748479 -0.20984785 0.351615 -0.26325312 -0.2161221 -0.1874815
0.49600345 0.2594324 0.43848833 -0.26204768 -0.18530801 -0.19800223 0.26928487 0.43267265
0.38064903 0.42530555 0.06343678 -0.30124274 -0.20664953 -0.019178007 -0.07292464 0.33241543
-0.20317276 0.425825 -0.22570734 -0.01692799 -0.2877991 -0.0779487 -0.29259843 -0.28166842
0.41256857 -0.3136668 -0.16818593 -0.31924745 0.42970824 -0.124049865 -0.22724345 -0.23092769

readout.weight f4 [1, 64]
00000000: a839 283f 8320 8d3e e46f a03e 6691 c8be
00000010: 32af 70be 5b3d bdbe 35f5 2dbe 5c4a 7c3e
00000020: b9ef b9be 82db 8c3e 7bbd 87be 253b 89be
00000030: cc0a bfbe 1443 d83e 6585 a7be ca77 543e
00000040: 26fb 29bf 0a44 a83e adbe 933e aa02 863e
00000050: a991 65be 341a 563e 1f67 7bbe 4229 bd3e
00000060: 21b7 1cbe 55d1 d43e ba81 80be d15e 73be
00000070: 9a79 d03e 867f 27be 6536 38be 9eeb 7dbe
00000080: 2f13 0c3f eeac 503e d563 7a3e e63e 19bf
00000090: afbc 84be 036b 31be 1964 363e ba39 b93e
000000a0: dbfc 953e 610e a73e 4e46 453f 1feb e1be
000000b0: b351 42be d0b9 7c3d ac83 023d 7915 553e
000000c0: a10f 6abe 5e5c 763e fd5e 2ebe c635 c43e
000000d0: 06c7 a9be d8db ce3d 5880 69be b799 98be
000000e0: 351b ba3e 4858 9bbe 4be6 5fbe e726 66be
000000f0: a2a5 a53e ae9d 5fbe 8b3c abbe 066a 5ebe
0.65712976 0.27563867 0.31335366 -0.3917343 -0.23504332 -0.36960873 -0.1698807 0.24637741
-0.36315706 0.2751122 -0.2651175 -0.26802936 -0.37312925 0.42238677 -0.3271896 0.20748821
-0.6639885 0.3286441 0.28856412 0.26173908 -0.22418846 0.20908433 -0.24551056 0.3694554
-0.15304233 0.41565958 -0.25098974 -0.23766638 0.40717775 -0.1635724 -0.179895 -0.24796912
0.5471677 0.20378467 0.24452145 -0.598616 -0.25925204 -0.17325978 0.17811622 0.36176854
0.29294476 0.32628158 0.770604 -0.44124696 -0.18976478 0.061700642 0.031863853 0.20808972
-0.22857524 0.24058673 -0.17028423 0.38322276 -0.33159655 0.101005256 -0.22802866 -0.29804775
0.36348882 -0.3034079 -0.21865194 -0.22475778 0.3235293 -0.21837494 -0.33444628 -0.21720132

layers.0.weight f4 [128, 17]
00000000: 7826 d13f 69ba 37bf 80f5 e1bd 6ae8 063f
00000010: f3b1 0f3e 138e 3cbd e57d 22be 652d 383d
00000020: cb8c 903d 94ce d63d e353 673e 5611 193e
00000030: ed30 36be da4a 013d a69a 913e 2875 29be
00000040: 46ed 233e d97d 2f3f 3f36 3f3f 1eb8 383d
00000050: 4d30 7dbe b4f1 3f3e 8857 8bbe 9247 02bd
00000060: 41a1 2fbe 0791 49bf 1df4 0bbe 53b0 d93e
00000070: 8bc9 8fbe 73d0 a43d ac3f 6fbc aab6 3d3d
00000080: 0b1c 17bd ba02 a0bd e9ab 3ebf b3e7 3cbf
00000090: 196c d4be c8f0 193e 16bb e33a ea0f 953e
000000a0: ff5d bf3e 85d7 d1bc ce94 ce3e 083d 913e
000000b0: b20f 3bbe 863b 90be 738d a2bd 5544 c53d
000000c0: 3d0e 3c3e 09ff 00be 9f9f 70be 02aa 993f
000000d0: ed1f d6be 52a3 e23e 920b 47be 770b 9e3c
000000e0: dfcc 4ebe 4a88 3ebf da72 8dbe f34a 94be
000000f0: 42b1 5dbe 4d76 8e3e 3e84 93be a738 93be
00000100: cbea 19be ccf9 cb3d d355 a7bc 7fc1 b7bd
00000110: 8563 bfbd 338f 903f 51ac a43e de36 c7bc
00000120: ad33 1b3e 46d8 13bf e76d 88be 46bf f2bd
00000130: e83b 863e 604f edbe 4fe0 c0bd f378 99be
00000140: bb53 4c3e 70f7 c5bd cdbc 99be e6ce 16be
00000150: 71b7 863d c6c5 1fbe 36fa 883d f59f 0cbe
00000160: 063c ae3e a3ab 2ebe 512f bbbd bbd9 05bf
00000170: a6dd 18be 3704 113e 4845 67bc 0d24 073e
00000180: 2809 e43d 2592 86bc 450d 3a3d e191 c43e
00000190: ffd4 223e 9298 57be 8474 b93f c3d7 5cbf
000001a0: 199f d43c 0fa3 173e b9c6 64bd 2456 723d
000001b0: fd33 b1be c811 13bf 2240 20bd 07f0 53be
000001c0: de59 1b3e 72d9 21ba 2b96 27be 6222 833d
000001d0: f615 403e 1295 b7bc ca89 8c3d e006 ab3d
000001e0: 6bd2 50be 6439 c33e 1304 683e 9c57 bf3e
000001f0: 8c73 e93e 7d13 54be 5dae dc3e 7dc7 94be
00000200: eaf5 7e3f 119e ecbd c779 323e 3013 003c
00000210: 2ab4 8e3d c820 aa3e 96d1 a6be a60e 1c3e
00000220: caea 443f a83a 8fbf cad3 55be b01b 773e
00000230: 1049 f0bd 840b 8f3e f981 5cbd 826e 783e
00000240: dbfb 6a3e d80d 303e 9332 a0bc c776 493d
00000250: b8dd d43c 3eab 9bbe b4eb 8d3e 312b 89bb
00000260: 08d2 a9bd 3943 44bf faa5 393f 1553 793e
00000270: 1166 15bd 4bbb 943e c83e 2b3f b04a 033f
00000280: 3295 d33e 38f6 6fbd 1b53 f2be a1e1 8dbe
00000290: 413e 3c3e cb30 343d d684 d03d 62f6 d7bc
000002a0: b1fc 1ebe 315f 2fbe 0454 013f 5684 493f
000002b0: cbaf 283e a878 513e 8835 42be 90a6 d5be
000002c0: 7641 21be 0134 0fbe 0a88 833e a413 683e
000002d0: 5f6d e23b 422f 9cbe 537a 663d b67a 5cbb
000002e0: 52ec a2be 4608 dcbb f4db 2b3e edfc b73e
000002f0: d3a5 8abe c1f2 4dba 4745 c8be afaa 033e
00000300: 35da ef3d afc5 9cbe 60c7 c93e 57b5 11be
00000310: cdbb ef3e 84b9 88bd ca92 ebbd 7394 84be
00000320: 8f22 1dbe 1181 5cbc 6545 64be f3b5 ef3d
00000330: e9ab d7bc 6b3f a03f 9ee2 1c3e 9d5c 37be
00000340: fef3 5c3d ec12 343e 4525 023e e404 11be
00000350: 29c3 4f3c 87ad 9abd 14cb 873e 4097 0dbe
00000360: 72ed 25be 4607 e43d 3786 91be 689d 3f3d
00000370: f5d5 4bbb 2acb 693f d0e2 94bf 5c02 47bd
00000380: a001 9c3e f260 a0be da9b 373e d616 79be
00000390: 9a59 943d b94e b93d f14c fd3e 2188 d2be
000003a0: d1e4 4c3e 6337 8e3e b283 113d 23b6 753d
000003b0: 63c7 46bd 31d4 263e 7025 a0bf 46f9 8ebd
000003c0: 6c81 7e3e 0597 703e 0902 423f e26f 5b3f
000003d0: 8f19 4c3f 7f27 a73e 9ad5 0abf b90f a3bc
000003e0: 9b0a a73e cc8f c13c b7cf 0d3e ea21 253d
000003f0: 4851 1fbe c915 8bbe d771 b93d 10a3 103f
1.6339865 -0.71768814 -0.110331535 0.52698386 0.14032726 -0.04603393 -0.15868337 0.044965167
0.07058104 0.104886204 0.22590594 0.1494802 -0.17792101 0.031565525 0.284383 -0.16548598
0.16008481 0.68551403 0.7469215 0.045097463 -0.24725457 0.18744546 -0.2721522 -0.031806536
-0.17151357 -0.7873692 -0.1366734 0.42517337 -0.28083453 0.08047571 -0.014602583 0.04631678
-0.03689198 -0.0781302 -0.74481064 -0.73791045 -0.41488722 0.15033257 0.0017374482 0.29113704
0.373764 -0.025615463 0.40347904 0.28366876 -0.18267706 -0.28170413 -0.079371355 0.09632174
0.18364806 -0.12597288 -0.2349839 1.2005007 -0.41821232 0.4426523 -0.19438007 0.019292576
-0.2019534 -0.7442671 -0.27626687 -0.28963432 -0.2164965 0.2782463 -0.2881183 -0.2875416
-0.15030973 0.09959754 -0.020426666 -0.08972453 -0.09345154 1.1293701 0.32162717 -0.024318155
0.15156431 -0.5775188 -0.2664635 -0.11852889 0.2621758 -0.4634962 -0.094177835 -0.2997509
0.19953816 -0.096663356 -0.30026856 -0.14727363 0.065779574 -0.15602788 0.06688349 -0.13732894
0.3403017 -0.17057662 -0.09139884 -0.52285355 -0.14928302 0.14161764 -0.014115639 0.13197346
0.11134559 -0.016427109 0.04542281 0.38392547 0.15901564 -0.21054295 1.4488683 -0.86266726
0.02595477 0.14808296 -0.05585358 0.05916418 -0.34609976 -0.5744901 -0.03912366 -0.20697032
0.15171 -0.00061740645 -0.16365878 0.064030424 0.18758377 -0.02240995 0.06862219 0.08350921
-0.20392768 0.38129723 0.22657804 0.37371528 0.45595968 -0.20710559 0.4310178 -0.29058447
0.99593985 -0.11553586 0.17429267 0.007817075 0.06967957 0.33228135 -0.32581776 0.15239963
0.7692076 -1.1189775 -0.20881572 0.24131656 -0.117326856 0.27938473 -0.05383489 0.24260905
0.22947638 0.17192781 -0.019555366 0.04918554 0.02598463 -0.30404085 0.2771889 -0.004186057
-0.082920134 -0.76665074 0.72518885 0.243481 -0.03647429 0.29049143 0.6689267 0.5128584
0.41324764 -0.058584422 -0.4732903 -0.27711204 0.18383123 0.043991845 0.101815864 -0.026362602
-0.15526082 -0.17126156 0.5051882 0.78717554 0.1647331 0.20456183 -0.18965733 -0.4172864
-0.15747628 -0.13984682 0.25689727 0.22663742 0.0069100107 -0.30504805 0.056269 -0.0033642477
-0.31820923 -0.0067148535 0.16783124 0.35935155 -0.2707964 -0.00078563025 -0.39115354 0.1285808
0.117115416 -0.3061957 0.39409924 -0.14229332 0.46822968 -0.06676009 -0.11502607 -0.25894508
-0.15345214 -0.013458506 -0.22292097 0.11704626 -0.02632709 1.2519354 0.15320823 -0.17906423
0.053943627 0.17585343 0.1270953 -0.14162022 0.012680807 -0.07552629 0.26522124 -0.13827229
-0.1620386 0.111342 -0.2842271 0.046780974 -0.003110287 0.9132563 -1.1631718 -0.048586234
0.3046999 -0.31323963 0.17930546 -0.24325117 0.07243653 0.09048218 0.49472764 -0.41119483
0.20009162 0.27776632 0.035525985 0.059988152 -0.048529994 0.16291882 -1.2511425 -0.06981139
0.24854058 0.2349511 0.75784355 0.85717595 0.797265 0.3264732 -0.5423218 -0.019904958
0.3262528 0.023628138 0.13848768 0.040315546 -0.1555835 -0.27165058 0.09054916 0.56498814

layers.0.bias f4 [128]
00000000: d9ca 743e de06 dd3e d5e1 8abd 97f1 153c
00000010: be15 57be 58de 75be 1195 2b3e 450a 413e
00000020: 51e3 433d 3f09 973e 8279 a7bd 102c bf3e
00000030: ed90 843e d94b b13c 572f ee3e dde7 e33e
00000040: aae7 5b3e f793 0ebe 9459 c63e 98b5 623b
00000050: be70 a03d 2218 b4be 509d 7fbe 5f62 7e3e
00000060: 4621 0fbe 4aaf fe3d 30e1 4a3e 5cc6 4a3d
00000070: 9709 433e 4380 133f 46cf 59be 4cfd c63e
00000080: 41e2 193d dffd f43e bf3e 7b3c dd24 15be
00000090: 1127 b63e 16c8 423e cc7f c93e 0b12 29bc
000000a0: 9c17 a4bd f567 503d 2558 85be b796 773d
000000b0: de6d e03e 7777 71be e6c6 bd3e 3f34 493e
000000c0: 5eb4 833e 55c7 83be e071 b3bd cbfc 80bd
000000d0: 1d86 2cbe 84dc 223d 3853 233f 84d1 9cbe
000000e0: 7551 2f3f a9db 563c 887a 3fbc fb9b 3b3d
000000f0: 71c5 ee3e 6d44 16be 6cf2 363f a3ec 163f
00000100: 826e 98be 6797 efbd 051f febd 1f1b cebe
00000110: ed7d 6bbd 5416 ddbd e75b a53c 79e0 e53e
00000120: 49d1 d13d ef07 bb3e 3175 783e 54da a5bd
00000130: ae07 173f f48d f2bd de39 283e 81d7 3e3c
00000140: 7645 ad3e c3fa 0e3e c448 40bd c612 fcbe
00000150: 98c9 4aba 9f44 17bf 12ee a43e c03a ab3e
00000160: 4ca5 b5bc db06 ef3e fbff 193f 3d2a 8ebe
00000170: 7c2a 0e3f c2ca 583f d31d b53c 38ad fabe
00000180: 9da7 c73d a23d 693c 181a e93e e0aa 543f
00000190: c697 323d ea9c 5abe 6a64 563f c0dc 0dbe
000001a0: 216c 8fbd c835 cbbe 7219 9abd edd1 c53d
000001b0: ac72 5b3e 2281 813e 785b a23e e9fa 0bbe
000001c0: 08d5 6a3e c80a 4a3c 2f0a 233e 96b3 8b3e
000001d0: a355 96be 86d1 38be 2f1d 22be dc7f d6be
000001e0: f92f 82be a4ba babe 3236 353f 74b9 f4bd
000001f0: b5be 28be b0be 6b3e fc65 1d3f f4dc d73e
0.23905505 0.43169302 -0.06781355 0.009151838 -0.21004388 -0.24010599 0.16756083 0.18851574
0.047824208 0.29499242 -0.08177473 0.37338305 0.2589182 0.021642612 0.46520492 0.44512835
0.21475092 -0.13923632 0.38740218 0.0034593102 0.07834004 -0.35174662 -0.24962354 0.24842213
-0.13977537 0.124357775 0.19812465 0.049505576 0.19046627 0.57617587 -0.21270475 0.38865125
0.03756929 0.47849938 0.015334784 -0.14564843 0.3557668 0.19021639 0.39355314 -0.010319243
-0.08012316 0.05088039 -0.2604381 0.060446467 0.43833822 -0.23580728 0.3706581 0.19648837
0.25723547 -0.25738016 -0.08761954 -0.062982164 -0.16848035 0.03976108 0.63798857 -0.30628598
0.6848367 0.0131138945 -0.011686929 0.04580305 0.4663501 -0.1467454 0.71463656 0.5895483
-0.2977181 -0.116987996 -0.1240826 -0.40255067 -0.05749314 -0.107952744 0.020185424 0.44897822
0.10244996 0.3652949 0.24263455 -0.080982834 0.58996093 -0.11843482 0.16428325 0.01164806
0.33842057 0.13962846 -0.046944395 -0.49233073 -0.0007735728 -0.5908908 0.32212883 0.3344326
-0.022173546 0.46684918 0.6015622 -0.277666 0.55533576 0.84684384 0.022108948 -0.4896028
0.097487666 0.014235886 0.4552772 0.83073235 0.043601774 -0.2134892 0.8374697 -0.1385374
-0.07003046 -0.3968947 -0.075243846 0.09659181 0.21430463 0.25293833 0.3171041 -0.13669933
0.22932827 0.012331672 0.15921853 0.2728545 -0.2936221 -0.18048677 -0.15831445 -0.41894424
-0.25427225 -0.3647052 0.7078582 -0.11949435 -0.16478999 0.2302196 0.6148374 0.4216076

layers.1.weight f4 [128, 128]
00000000: 810a cb3d 0ab0 3dbe 8755 583d 68e7 013e
00000010: 7c0d 90bd 6f69 babd ea4c 323e 5dc0 6bbc
00000020: 63d2 0e3d 85f3 78bc be74 d8bd 67b9 7fbd
00000030: 56a9 01be acc4 0b3e 3eb9 733d ff7f 5b3c
00000040: a356 bfbd 02d0 14bd 208c 2fbd bde7 ec3d
00000050: ee7c ba3d ee28 26be 1c4c 55bd fcb5 293c
00000060: d2ab b43d e8b7 1bbe de77 f83c 33f0 febd
00000070: 85ba 773d 6a39 0abd bc4d 2ebe f3e9 ad3d
00000080: 59b1 c4bd 8f5a ba3d 6f3e 00bd c9bf f53c
00000090: a134 123e 3b82 c33d bd29 25bd 2bc3 67bd
000000a0: 57f8 03be cb6a 6f3e e243 50be 6635 283d
000000b0: f4ea fb3d 97ae 943d a461 d63d 54a7 adbd
000000c0: 6e7d c43c 8409 a73c 499a 9bbc a66b 86bd
000000d0: 73f5 91bd 1e96 8d3d 112f e03d c685 bfbd
000000e0: 3a80 773e 9688 d23d eca2 ec3d ebb6 fc3d
000000f0: dd2f fe3b 2280 f2bd bc3e 1a3e e821 b3bb
00000100: c07e fbbc d130 22bf 2df6 073d cf3d c9be
00000110: e6ce 563d 03dc c7bd dfa3 a83c 5145 c63d
00000120: 9f2e 403d cdda 353e 2999 e0bc f0c9 b6bd
00000130: 8587 4ebc 63d4 bbbd 607b 89bd dbcd 183d
00000140: eb34 163d 2533 56bc b18b 5fbd eb35 2ebe
00000150: 5279 1c3e dd9e c93d 7d51 853d 56a8 b73d
00000160: 98f1 72bc 5d9c a5bc c654 e73d d201 9d3d
00000170: 9eff 3a3e ddff 963d e883 8ebd fb98 e1bd
00000180: b974 873d 69c2 613d f9cd c13d 74c4 593e
00000190: ab51 fd3d 0959 7e3d c450 243e dcdc 32ba
000001a0: 83f3 8c3d d2ec 0d3c 5686 36bb 2da8 303d
000001b0: 2116 e43d 727a b03d 1d98 623b 334a 893d
000001c0: 84c3 26bd 503a f73b ee82 003e 0e06 08be
000001d0: 3b2b 12be 066e d3bd 25c2 93bd b38d 21be
000001e0: ae1c f7bd 82ca 18be e3f3 f93d 3c99 c4bd
000001f0: 6e9c 16bd c270 8a3d 24c8 4d3e 762e a93d
00000200: 663b e4bd 2bcd 99bd 1815 1f3e f8b3 b33d
00000210: c6c7 7fbd 7aa4 8dbc 3103 013e b179 a7bd
00000220: a7a7 f43c 57f8 14bd 51b1 70be c4be 7ebd
00000230: 9582 98bc 7219 40be 1791 2c3e 1565 e5bd
00000240: acd8 76bd 2cc9 0d3e 5153 30be ab45 43bd
00000250: 1684 44bd 712d df3e 11bf 1dbb fad8 d63d
00000260: d83e 00be 3578 a7bd b7fe d93d 52ba be3c
00000270: 08c3 c2bc 19e3 eebd 9be5 b83c b3f4 63be
00000280: 63ef 51be aeb3 3abe 1ca7 abbd df79 4fbd
00000290: 4947 0dbe 4144 d3bc 8df9 133e 0946 9bbd
000002a0: 4041 81bd d0b2 c53c 1770 933d a7a7 8abc
000002b0: a68d 86bc cda1 d9bd d521 fbbe cef6 e4bc
000002c0: dbdd ca3c b051 a13d 436d 69bd e51a 7c3d
000002d0: d04d adbb 02e2 fabc 68fb 0cbe 8852 7ebd
000002e0: 9a38 793e 1f18 3dbd a283 9dbe e484 353d
000002f0: 613d ff3b 171b 6cbe 7380 d9be d4c6 b0bd
00000300: 8061 783e fa19 053e d36f a93d 5922 ee3d
00000310: a92e 2f3d 360e 1abe 2a53 a23d 3380 40be
00000320: 44c3 b73a ebff 703c c95c 463e db94 94bb
00000330: 698b b53c 99f5 d2bd f1ad a4bd 3e5e 173c
00000340: 222c 18bf f6db 163d d49e abbd 8a57 663d
00000350: 2617 b1be f134 e0be 9fee 9fbd 7120 9ebc
00000360: 2236 c5bc 1f0b dcbd a5c7 503d 45f8 d33d
00000370: f33c f8bd f21b 26be 02f8 893e 96e7 7ebc
00000380: 6fc9 06bd 376c a3bd 29d4 91bc 0f0b a93d
00000390: 1244 bebd 1d0c 933d 6d8a bb3c 495b ae3c
000003a0: 24d6 8fbd 55d5 d5bb f9ba 53bd 15c2 e03d
000003b0: e4db 753d ff5e abbd eeb2 613e cd65 57bb
000003c0: 4bcd 8d3d 6292 65ba eb5b 983d 0c5f 17bd
000003d0: 4a97 263e 91f6 e5bc 36ae 003d aa27 e33d
000003e0: b3bd 853e 159b 613c 561d 223c 3f57 1e3e
000003f0: 1e90 cc3d 4344 c2bd e984 633e cced 983c
0.09914113 -0.18524185 0.05281594 0.1268593 -0.07033822 -0.09102141 0.17412153 -0.014389125
0.03486861 -0.015194778 -0.10569142 -0.062432673 -0.12662253 0.13649243 0.059502833 0.013397216
-0.093426965 -0.036331184 -0.042858243 0.11567638 0.0910586 -0.16226551 -0.052074537 0.01035833
0.088218346 -0.15206873 0.030330595 -0.12448158 0.060480613 -0.03374616 -0.17021841 0.08491888
-0.09604139 0.09099304 -0.03130954 0.029998677 0.14277889 0.09546324 -0.040323008 -0.05658261
-0.12887703 0.23380582 -0.20338395 0.04106655 0.12300673 0.07259863 0.10467842 -0.08479181
0.02398559 0.02039028 -0.018994467 -0.06563501 -0.07126894 0.06913398 0.10946477 -0.09351687
0.24170008 0.10279958 0.115545124 0.12339576 0.0077571706 -0.11840846 0.15062994 -0.0054666884
-0.030700088 -0.6335574 0.033193756 -0.3930497 0.052443407 -0.09758761 0.020585952 0.0968119
0.04691946 0.17759247 -0.027416782 -0.08925235 -0.012605553 -0.09171369 -0.06712985 0.037305694
0.03667156 -0.013073717 -0.05457658 -0.17012756 0.15280655 0.09844754 0.06509683 0.089676544
-0.014828108 -0.020216161 0.11295466 0.07666363 0.18261573 0.07373021 -0.06958753 -0.11015507
0.0661406 0.055117045 0.09463114 0.21266347 0.123690926 0.06209663 0.16046435 -0.0006823072
0.06882384 0.008662419 -0.0027851067 0.043129135 0.11137033 0.086171046 0.003457553 0.067036055
-0.040713802 0.007544793 0.12549946 -0.1328356 -0.14274304 -0.1032372 -0.072147645 -0.1577671
-0.12066017 -0.14921 0.12204721 -0.0959954 -0.036770277 0.06759788 0.20095879 0.08260815
-0.11144142 -0.07509836 0.1553539 0.08774561 -0.06244638 -0.017290343 0.12598874 -0.08177508
0.0298651 -0.036369648 -0.23505141 -0.062193647 -0.018616954 -0.18759707 0.16852222 -0.112009205
-0.06026523 0.13846272 -0.17219283 -0.047673862 -0.04797753 0.43589357 -0.0024070183 0.10490604
-0.12523973 -0.081772245 0.10644286 0.023282204 -0.023774639 -0.11664409 0.022570422 -0.22261314
-0.20501475 -0.18232605 -0.08381483 -0.050653335 -0.13796724 -0.025789382 0.14450665 -0.075817175
-0.063112736 0.024133116 0.07199114 -0.016925646 -0.016424965 -0.10626564 -0.4904925 -0.027949717
0.024763992 0.07876909 -0.056988966 0.061549086 -0.005288817 -0.030625347 -0.13767779 -0.062090427
0.24337998 -0.04616558 -0.3076449 0.044316188 0.0077892994 -0.23057209 -0.4248081 -0.086316735
0.24255943 0.1299819 0.08273282 0.11627645 0.042769108 -0.15044484 0.079260185 -0.18798904
0.0014019986 0.014709453 0.19371332 -0.0045343465 0.022161203 -0.1030075 -0.08040989 0.009238778
-0.5944234 0.036830865 -0.083799034 0.056235828 -0.34587973 -0.4379039 -0.07809185 -0.019302579
-0.024073664 -0.10744309 0.050971646 0.10350088 -0.12121 -0.16221598 0.26947027 -0.015558144
-0.032906946 -0.07979625 -0.017801361 0.082540624 -0.09290327 0.07180045 0.022893155 0.021283763
-0.07023266 -0.0065256753 -0.051691983 0.10974518 0.060024157 -0.083677284 0.22040913 -0.0032867074
0.06923922 -0.00087574695 0.07439407 -0.03695588 0.1626865 -0.028071674 0.03141614 0.1109155
0.26121292 0.013769885 0.00989469 0.15462969 0.09988426 -0.09485676 0.2221867 0.018668078

layers.1.bias f4 [128]
00000000: 1748 c53e a029 f6bc 3458 6f3e 5a49 b6be
00000010: b5fa 71bc 410f 3bbe f15a 01be 1939 cb3e
00000020: 2aa8 663e 04c1 2e3d 4223 72be ebb7 973d
00000030: 8fd1 e5ba 5543 423e bfbb 29be c8e3 28be
00000040: b0c4 013d 06c5 8a3d db59 4b3d 057b 7c3e
00000050: 7af4 423e 8db4 023c 92af 893c 94b3 033e
00000060: 12c6 2c3e 040f 913d e05c 613c fed6 323e
00000070: 0f50 e73c 166d 083e 32c9 0e3e e73a 8e3d
00000080: 069d cb3d 9043 0e3e 20ff 853d dd61 1ebe
00000090: d967 b5bd d133 893e 051c 0d3e bf65 32be
000000a0: dd79 1bbe 7f6e 97bc c040 d23b db1e db3d
000000b0: 2030 e13d b7e1 0f3e 373e 483e 94ab 5bbe
000000c0: 0d83 aa3b e3e8 363e 3315 2cbd ff9d 54be
000000d0: e63d 433e bcf6 c9be 27c4 893c d545 303d
000000e0: aa6e 7ebe 5f28 4a3e e3f3 733e 63d6 3f3d
000000f0: 3c31 5bbe a767 313d efac 86bc 98d2 1f3e
00000100: e6f9 8ebe 6fa3 d63d 64bf d33d 8c2e 9ebd
00000110: 3020 36be 0335 ef3c 3afa 273e d79f 24be
00000120: 56dc 20be c34c 843e f7ae cd3d d424 b0bd
00000130: 92a6 72bd 8b64 983e e5c1 09bd 2e4e 573e
00000140: 9742 c43d f172 0bbe f307 11bc 851c 9ebe
00000150: 9785 213e f8d3 6f3e d864 213d b9c6 19be
00000160: 49ed ea3c b79e 7a3e aa30 acbc 6793 883e
00000170: cbde c5bd 9259 c0bd c441 9bbc b217 403e
00000180: 2323 cbbd e280 f13d ebc6 a93d fa5d d33d
00000190: cae6 523e 562f 973d 5438 7d3e 0bd2 6c3e
000001a0: c235 513d cb24 863d 6a90 8fbe b970 80be
000001b0: ebf5 3a3e 28ac a1be efbf 4d3e a247 30be
000001c0: 8cec 71be dbb9 e63b 2a09 61bd 3b71 98be
000001d0: 3d4b 033e c45e 213e ba19 20bd 32c9 3a3e
000001e0: 5e80 3c3e 9842 e53e 8567 2c3d 03f2 6bbd
000001f0: c424 f23d 1639 6d3d 9788 293d bc32 7dbe
0.38531563 -0.030049145 0.2337349 -0.35602838 -0.014769246 -0.18267538 -0.12632348 0.39692
0.22525087 0.042664543 -0.23646262 0.074081264 -0.0017533767 0.18970998 -0.16575526 -0.16493142
0.031681716 0.067758605 0.04964624 0.24656303 0.19038573 0.007977617 0.016807351 0.12861472
0.16872433 0.07082942 0.013755053 0.17464826 0.028236417 0.13322863 0.13943937 0.069448285
0.09942059 0.1389296 0.06542802 -0.1546702 -0.08857698 0.26797345 0.1378022 -0.17421626
-0.15183206 -0.018485306 0.00641641 0.106992446 0.10995507 0.14050947 0.19554983 -0.2145217
0.0052036108 0.17862277 -0.042012405 -0.20763396 0.19066581 -0.39446056 0.016817166 0.043035347
-0.24846902 0.19741963 0.23823504 0.046835314 -0.214055 0.04331174 -0.016439883 0.15607679
-0.27925032 0.10480391 0.10339239 -0.07723722 -0.17785716 0.029200083 0.16404048 -0.16076599
-0.15709051 0.25839815 0.100431375 -0.086007744 -0.059240885 0.29764208 -0.033632178 0.21025917
0.095830135 -0.13618065 -0.008851993 -0.30881134 0.15773617 0.23420703 0.039402813 -0.15017213
0.0286776 0.24474607 -0.021019299 0.2667496 -0.09661635 -0.09392084 -0.018952258 0.18759039
-0.09918811 0.117921606 0.08289894 0.10320659 0.20595852 0.073820755 0.24728519 0.23127
0.051076658 0.065499865 -0.28039867 -0.25086 0.18257873 -0.31576657 0.20092748 -0.17214826
-0.23625392 0.0070411987 -0.05494038 -0.29773888 0.1282167 0.15758806 -0.039087035 0.18240812
0.18408343 0.4477737 0.04209091 -0.057603847 0.11823419 0.05791577 0.041390028 -0.24726385
