HW9/9_gym-DDPG/results/DDPG_Pendulum-v1_1000-eps0.1-t32-l5e-05-s1-u100.pth (torch, 176252 bytes, 12 tensors)

layers.0.weight f4 [128, 4]
0	0x3f1db0f2	0.6159812
1	0xbf02cea5	-0.51096565
2	0xbe02108c	-0.12701625
3	0x3c0e7ac2	0.00869626
4	0xbf0dc8c2	-0.5538446
5	0x3e4fea35	0.20304187
6	0xbe209d70	-0.15685058
7	0x3e5ca8b5	0.21548732
8	0xbd46c7c8	-0.04853037
9	0xbc806377	-0.015672429
10	0x3daf7aee	0.08568369
11	0x3ba1f4ab	0.004942497
12	0x3e3aff30	0.18261409
13	0xbe4786e4	-0.1948505
14	0xbd155130	-0.03645438
15	0xbd386040	-0.045013666
16	0x3d7b24c0	0.061314344
17	0x3d1140fa	0.035462357
18	0x3ee67594	0.4501158
19	0x3d28fd42	0.04125715
20	0xbe9ff058	-0.31238055
21	0xbf222198	-0.6333251
22	0x3d8f8c57	0.070091896
23	0xbe0f6195	-0.14002068
24	0xbe8d98ba	-0.27655584
25	0xbe18fbb7	-0.14939772
26	0x3eabbefd	0.3354415
27	0x3e84a4b4	0.2590691
28	0xbf150f8e	-0.5822686
29	0x3efe554c	0.4967445
30	0x3e0b35ba	0.13594714
31	0x3ea37b5f	0.31930062
32	0x3ee3bdb8	0.4448068
33	0xbf2109a5	-0.6290534
34	0xbf01f301	-0.5076142
35	0xbf0a094d	-0.5392044
36	0x3f0e032c	0.5547359
37	0xbdc3a7fd	-0.095535256
38	0x3e7ea507	0.2486764
39	0xbee5b167	-0.4486191
40	0x3efc8752	0.4932199
41	0xbea63bfc	-0.3246764
42	0x3eccd3f5	0.4000546
43	0x3c9bbc08	0.019010559
44	0xbec00b8c	-0.3750881
45	0x3def951d	0.11698363
46	0xbe891ad6	-0.26778287
47	0x3e3b4088	0.18286335
48	0xbddc7c29	-0.10765869
49	0xbe21c5f5	-0.15798171
50	0xbee950d0	-0.45569468
51	0xbe7d8cf8	-0.24760807
52	0x3ec15fec	0.37768495
53	0x3a5b3ee8	0.0008363561
54	0x3f053d37	0.5204653
55	0x3ee92301	0.45534518
56	0xbe125183	-0.14288907
57	0xbeb734a4	-0.3578235
58	0x3ea6da33	0.32588348
59	0x3df2af52	0.11849846
60	0xbecbbbda	-0.39791757
61	0x3f12322e	0.5710782
62	0x3e877d49	0.26462772
63	0x3eb4306f	0.35193202
64	0xbec0071c	-0.37505424
65	0xbea393d6	-0.31948727
66	0x3ce25e85	0.027632961
67	0xbc7388ee	-0.01486419
68	0xbeff3e60	-0.49852276
69	0xbea36b65	-0.31917873
70	0x3ead50ea	0.33850795
71	0xbe1d7d9d	-0.15379949
72	0x3e96038a	0.29299575
73	0x3d80d80c	0.06291208
74	0x3e593ffd	0.21215816
75	0x3d779f3c	0.060454592
76	0xbd0c7596	-0.034291826
77	0x3eb53f16	0.35399693
78	0xbef96d9a	-0.48716432
79	0x3e9c11ae	0.3048224
80	0xbed47223	-0.4149333
81	0xbf062928	-0.5240655
82	0xbcde358e	-0.027125146
83	0xbd85abf2	-0.065269366
84	0x3f23328c	0.63749003
85	0xbf32ed57	-0.698934
86	0xbed7c8ed	-0.42145482
87	0x3eb047c7	0.34429762
88	0xbe0ba92c	-0.13638753
89	0x3f293c75	0.66107875
90	0x3e00c836	0.12576374
91	0xbeb46071	-0.3522983
92	0x3d895461	0.06705547
93	0x3e371807	0.1788026
94	0xbeaf28e9	-0.342109
95	0xbe626b43	-0.2211123
96	0x3da0113f	0.078157894
97	0x3daff331	0.08591307
98	0xbe25fe92	-0.16210392
99	0xbe2ef637	-0.17086111
100	0x3e970087	0.2949259
101	0xbe963e22	-0.2934428
102	0x3eb47649	0.35246494
103	0x3da68e1e	0.081325755
104	0xbf0954ab	-0.5364482
105	0xbf3336e4	-0.7000563
106	0x3f089f0e	0.533677
107	0x3d99fc98	0.075188816
108	0x3e8eae53	0.27867374
109	0x3ec842fb	0.39113602
110	0x3dccba02	0.09996416
111	0x3e67931a	0.22614709
112	0x3ebe2e6d	0.37144795
113	0xbf218c5b	-0.6310479
114	0x3c9879b8	0.018612728
115	0xbc9ad6d8	-0.018901274
116	0x3eae01b3	0.3398567
117	0x3ec1c488	0.37845254
118	0xbec765f1	-0.38944963
119	0xbebbc3ec	-0.36672914
120	0xbec4d4d5	-0.38443628
121	0x3e2f91a2	0.17145398
122	0x3f086f42	0.53294766
123	0xbebb4ea0	-0.36583424
124	0x3ec56823	0.38556013
125	0xbec37198	-0.38172603
126	0xbef12891	-0.47101262
127	0xbe66dde0	-0.22545576
128	0x3e674544	0.22585016
129	0x3f186df3	0.5954277
130	0xbeaa55d5	-0.3326861
131	0x3e32ae8c	0.17449397
132	0x3f3aa64e	0.7291001
133	0x3f25a5c5	0.6470607
134	0x3eb7aa8a	0.35872298
135	0x3e692b4e	0.22770426
136	0x3e802658	0.25029254
137	0x3e27f73f	0.1640291
138	0xbebaa33c	-0.36452663
139	0xbef273a6	-0.47353858
140	0xbeaa6d73	-0.33286628
141	0xbea6f8d8	-0.32611728
142	0xbe6f7cca	-0.23387447
143	0x3e1c8349	0.15284456
144	0xbd3d6365	-0.046237368
145	0xbe5e2e7a	-0.21697417
146	0x3e8b87f3	0.2725216
147	0x3c8749ef	0.016514746
148	0x3e47bcd8	0.19505632
149	0x3f02c8a7	0.5108742
150	0xbe20947a	-0.1568164
151	0x3f0c1e7e	0.5473403
152	0xbe32c6ef	-0.174587
153	0xbe1a4102	-0.15063861
154	0xbed7d2cb	-0.4215301
155	0xbeaabda1	-0.333478
156	0xbed1d0a1	-0.40979484
157	0xbe65755f	-0.22408055
158	0x3ebd347e	0.3695411
159	0xbe43c5e9	-0.19118465
160	0xbeeca78d	-0.4622158
161	0x3e7c90be	0.2466459
162	0x3e062da7	0.13103352
163	0x3e864948	0.26227784
164	0xbf0b25ac	-0.5435436
165	0x3d9268ec	0.071489185
166	0xbe806cee	-0.25083107
167	0xbda9d620	-0.08292794
168	0xbf057da4	-0.5214484
169	0xbf0f6a7a	-0.56021845
170	0xbd52f605	-0.051504154
171	0x3dd95216	0.1061136
172	0x3e94f2f1	0.290916
173	0x3e21b02a	0.15789858
174	0x3f000cdf	0.5001964
175	0x3f19d859	0.60095745
176	0x3eb5546a	0.35415965
177	0x3d712614	0.058874205
178	0xbe9f9a0a	-0.3117221
179	0x3f085776	0.53258455
180	0xbe0c26c0	-0.13686657
181	0xbd9f9ae5	-0.07793216
182	0xbed5b9c9	-0.41743305
183	0x3d205fe3	0.039153945
184	0xbf09549a	-0.53644717
185	0x3ed7a14e	0.42115253
186	0xbef7743d	-0.4833087
187	0xbe9b8b25	-0.30379596
188	0xbe09da4d	-0.13462181
189	0xbf10db89	-0.56584984
190	0x3e4f5cc0	0.20250225
191	0xbe29e6f1	-0.16592003
192	0xbe8fceec	-0.28087556
193	0x3e080092	0.13281468
194	0x3eb61c3d	0.3556842
195	0xbeb6d0b4	-0.35706103
196	0x3eae6493	0.34061107
197	0x3ee4b33a	0.4466799
198	0x3ef6d5c3	0.48209962
199	0xbec599e9	-0.38593987
200	0x3da49b6b	0.08037456
201	0xbf308446	-0.68951833
202	0x3ee9d547	0.4567053
203	0xbe09b5ba	-0.1344823
204	0x3e9800ac	0.29688013
205	0x3df83305	0.12119106
206	0xbdcdee27	-0.100551896
207	0xbe88c84f	-0.26715323
208	0xbc63c32b	-0.013901512
209	0x3f138856	0.5762991
210	0x3ca3a050	0.019973904
211	0x3d62022f	0.055177864
212	0xbf082004	-0.5317385
213	0x3ee41e70	0.44554472
214	0x3ed17a94	0.40913832
215	0x3eb0270e	0.34404796
216	0x3f28441f	0.65728945
217	0xbf315bf4	-0.69280934
218	0xbe5db8ee	-0.21652576
219	0x3e9c8c70	0.30575895
220	0xbf14792e	-0.57997406
221	0x3eaf0390	0.34182405
222	0xbecdef30	-0.40221548
223	0xbea5cbd0	-0.3238206
224	0x3e33771b	0.17525904
225	0xbf275304	-0.65361047
226	0xbd777d8c	-0.060422465
227	0x3e1072ff	0.14106368
228	0x3e91bc28	0.28463864
229	0x3f1d1191	0.6135493
230	0xbe45d013	-0.19317655
231	0xbec1f476	-0.3788182
232	0x3f5171c2	0.81814206
233	0xbdc58d50	-0.09646094
234	0xbe210a9b	-0.15726702
235	0xbd1d914b	-0.03846864
236	0xbed524e4	-0.41629708
237	0x3ecd4a16	0.40095586
238	0x3eae8917	0.34088966
239	0xbec982e5	-0.39357677
240	0xbefba319	-0.4914787
241	0x3e17e8b2	0.1483486
242	0x3e873365	0.26406398
243	0xbd814087	-0.06311136
244	0xbeb72a40	-0.35774422
245	0xbe318a33	-0.17337875
246	0xbf00d86b	-0.5033023
247	0xbea5f160	-0.32410717
248	0xbec8c4ab	-0.39212546
249	0x3f2dbc9c	0.6786592
250	0x3ecad291	0.39613774
251	0xbe58fc59	-0.21190013
252	0xbdc17370	-0.09445846
253	0x3ec1caa4	0.37849915
254	0xbdb307e5	-0.0874174
255	0xbe51575f	-0.20443486

layers.0.bias f4 [128]
0	0xbec73322	-0.389062
1	0x3edd2889	0.43194988
2	0x3ecd6add	0.40120593
3	0xbefb92fc	-0.49135578
4	0xbeeb040b	-0.45901522
5	0xbe0fdd99	-0.14049377
6	0xbeaaa6c6	-0.33330363
7	0x3e3a341c	0.1818394
8	0xbed6e7af	-0.41973636
9	0xbea7bb58	-0.3276012
10	0x3e6a4efd	0.22881694
11	0xbd92cd0a	-0.07168014
12	0xbe4c77c3	-0.1996756
13	0xbf1254bb	-0.5716054
14	0x3e964be6	0.2935478
15	0x3e1ee364	0.1551643
16	0xbe0c04d8	-0.13673723
17	0xbe45450c	-0.1926462
18	0x3e07a723	0.13247351
19	0x3e6d201d	0.23156781
20	0x3e900881	0.28131488
21	0x3e0b45d2	0.13600853
22	0x3da2abbd	0.07942913
23	0xbeea24db	-0.45731243
24	0x3ee3352c	0.44376504
25	0x3d39b341	0.045336965
26	0xbeb427b8	-0.35186553
27	0x3f13f772	0.57799447
28	0x3eacc401	0.3374329
29	0xbeda917f	-0.4268913
30	0xbe244af7	-0.16044222
31	0xbe0a072a	-0.13479295
32	0xbe8d4841	-0.27594188
33	0x3e9ac49b	0.30228123
34	0xbeaab1b4	-0.33338702
35	0x3f13a259	0.576696
36	0xbe30ee02	-0.17278293
37	0x3ec40e2a	0.38292056
38	0x3e075413	0.13215666
39	0xbe1bc7c2	-0.1521292
40	0x3ee718e1	0.4513617
41	0xbe8054c7	-0.2506468
42	0xbe0d6373	-0.13807468
43	0x3b8dacfa	0.004323599
44	0x3ed681ea	0.41895992
45	0xbe83aa8a	-0.25716048
46	0xbe77f890	-0.24215913
47	0xbec02fbf	-0.37536427
48	0xbe016d0b	-0.12639253
49	0xbe307e90	-0.1723578
50	0xbe24fc85	-0.16111954
51	0xbe3a39e1	-0.18186142
52	0x3e8391f6	0.25697297
53	0x3ddca449	0.107735224
54	0xbe614755	-0.21999867
55	0xbe1be3b8	-0.15223587
56	0x3ea32850	0.31866693
57	0x3d897566	0.06711845
58	0x3eeced30	0.4627471
59	0x3d34bac2	0.04412342
60	0xbe959212	-0.29213005
61	0xbea40338	-0.32033706
62	0xbd16f684	-0.03685619
63	0xbcb5bb80	-0.022184134
64	0x3e2831dc	0.1642527
65	0xbdfbd8d5	-0.12297217
66	0x3e16653d	0.14687057
67	0xbdf2fd6d	-0.118647434
68	0x3eee74f7	0.46573612
69	0x3e815f03	0.252678
70	0xbd322f74	-0.043502286
71	0x3f11c60f	0.5694284
72	0x3e76b2e6	0.24091682
73	0xbe9f6e6c	-0.31138933
74	0xbe6df5e3	-0.2323833
75	0x3ed9af15	0.4251639
76	0x3eab8e09	0.33506802
77	0x3efcb9fe	0.4936065
78	0x3d1c034f	0.038089093
79	0x3eeffdfe	0.46873468
80	0x3eaba37f	0.33523175
81	0x3e825a15	0.25459352
82	0xbd0d8427	-0.03454986
83	0x3f186903	0.59535235
84	0x3e74f582	0.23921779
85	0xbd494e24	-0.049146786
86	0x3de7a8e6	0.11311512
87	0x3f1ce53d	0.6128729
88	0x3ecfa8bc	0.40558422
89	0x3d840203	0.06445696
90	0x3f155549	0.5833326
91	0x3e78d875	0.24301322
92	0xbe62f000	-0.22161865
93	0xbf0d49d0	-0.55190754
94	0x3ed8a3fa	0.42312604
95	0x3f0f4761	0.5596829
96	0xbe372e98	-0.17888868
97	0x3e928f1a	0.28624803
98	0xbd1594fc	-0.036519036
99	0xbcee496d	-0.029087747
100	0x3d14d21f	0.0363332
101	0x3e803ead	0.25047818
102	0x3e2a34d2	0.16621712
103	0x3ee3a6cd	0.44463196
104	0x3e8f89ea	0.28034908
105	0x3eb2a931	0.34894708
106	0x3f0c6f6c	0.54857516
107	0x3e8a3acb	0.2699798
108	0x3e5076a4	0.20357758
109	0xbe977b54	-0.2958628
110	0x3ef82ad0	0.48470163
111	0x3ce96cf7	0.028494341
112	0x3ec73df1	0.38914445
113	0x3ee50d0f	0.44736525
114	0xbc87b49a	-0.01656561
115	0x3eb44240	0.35206795
116	0xbd5e1718	-0.054221243
117	0x3f0b3a59	0.54385906
118	0x3efe2355	0.4963633
119	0xbd9fc44f	-0.07801115
120	0x3d850713	0.0649549
121	0xbe757eb4	-0.23974115
122	0xbe147cc9	-0.14500727
123	0x3d2f09e7	0.042734053
124	0x3cb04b59	0.021520304
125	0xbd9aa089	-0.07550151
126	0xbed5d71c	-0.41765678
127	0xbe845c69	-0.25851753

layers.1.weight f4 [128, 128]
0	0x3ea1afca	0.3157943
1	0x3d6b433c	0.057437167
2	0x3e17479c	0.1477341
3	0x3d932490	0.07184708
4	0x3d2e567c	0.042562947
5	0x3db3c639	0.08778042
6	0xbde99021	-0.114044435
7	0x3e27f1e2	0.16400865
8	0xbd9b9e30	-0.07598531
9	0xbca254a8	-0.019815758
10	0xbd80949c	-0.06278345
11	0x3d5e3e84	0.05425884
12	0xbd8796b0	-0.06620538
13	0xbd426dcd	-0.047467995
14	0xbc748a4f	-0.014925553
15	0xb9d3adb6	-0.0004037448
16	0x3dc4d677	0.096112184
17	0x3dd0a1b9	0.10187096
18	0x39a94631	0.0003228649
19	0x3cdd8fc8	0.0270461
20	0xbb99d8c8	-0.004695032
21	0x3dbe1058	0.09280461
22	0x3cb13c0c	0.021635078
23	0xbdef69ea	-0.116901234
24	0x3de2a3a2	0.11066367
25	0xbd2a90cc	-0.041641995
26	0x3d842d58	0.06453961
27	0x3c28d166	0.010303831
28	0xbdf86586	-0.12128739
29	0xbdb749c8	-0.089496195
30	0x3d5df001	0.054183964
31	0xbc569bc0	-0.013098657
32	0xbdf2dcf2	-0.11858548
33	0x3d869aeb	0.06572517
34	0xbcc6103f	-0.024177669
35	0x3dff3b58	0.12462491
36	0xbdbafb1c	-0.091299266
37	0xbd4f1fc5	-0.050567407
38	0x3dae07b9	0.08497567
39	0xbcd82a36	-0.026387315
40	0x3e20a7bd	0.15688987
41	0x3d7be83f	0.061500784
42	0x3d1ae02f	0.037811454
43	0xbd06eb1a	-0.032939054
44	0x3caa5032	0.020790193
45	0xbdb650a3	-0.08902099
46	0x3ceabf52	0.028655682
47	0xbdf782a4	-0.120854646
48	0xbcc519da	-0.024060179
49	0xbd4add6b	-0.049527567
50	0x3c888e66	0.016669463
51	0xbdbdc122	-0.09265353
52	0x3cd5cb35	0.026097873
53	0x3cb6661a	0.022265483
54	0x3ae25388	0.0017267326
55	0xbd91204b	-0.070862375
56	0x3d851b20	0.06499314
57	0xbd438a83	-0.047739517
58	0x3d973be0	0.07384467
59	0x3dde4f60	0.10854983
60	0xbd3bfb6f	-0.045894083
61	0xbd5f47d4	-0.05451186
62	0x3b9109a4	0.004426198
63	0x3d2d918d	0.042375136
64	0xbd880e8e	-0.06643401
65	0xbd7d0fa0	-0.06178248
66	0x3d8b349d	0.067971446
67	0x3d6985c8	0.05701235
68	0x3ddcd8b6	0.10783522
69	0x3ccb9be9	0.024854617
70	0x3c73eec5	0.01488847
71	0x3d6c22fa	0.057650544
72	0x3e0c8d36	0.13725743
73	0xbdb8552e	-0.09000622
74	0xbd302200	-0.043001175
75	0x3da8fc08	0.08251196
76	0x3cdc82bb	0.026917806
77	0x3dd60267	0.10449677
78	0x3d766017	0.060150232
79	0x3d0dd928	0.034630924
80	0x3e18a7a4	0.149077
81	0x3dd3322a	0.103123024
82	0x3d8718a4	0.06596497
83	0xbc6657da	-0.014059031
84	0x3df3ecbf	0.1191039
85	0x3dd53eee	0.104123935
86	0x3da20f78	0.07913107
87	0x3d3c68f9	0.045998547
88	0x3d92f94c	0.07176456
89	0x3b852ed9	0.0040644226
90	0x3e15ddd5	0.14635403
91	0x3dbbd5e3	0.09171655
92	0xbcb853bc	-0.022500865
93	0xbdf11957	-0.11772411
94	0x3e1274d7	0.14302383
95	0x3dcc6d22	0.09981753
96	0x3def1fd8	0.116759956
97	0x3c0f8b80	0.008761287
98	0x3cd42c00	0.025899887
99	0xbd04b7c7	-0.032401826
100	0xbcd9d34b	-0.02659001
101	0x3c6a6c85	0.0143081
102	0x3cbdd6d5	0.023173729
103	0x3d927f4b	0.071531855
104	0xbca023ed	-0.01954838
105	0x3e042d1a	0.1290783
106	0x3df8a962	0.12141682
107	0x3e00a676	0.125635
108	0x3dbdc01b	0.09265157
109	0x3b8a5169	0.0042211306
110	0x3dd8f274	0.10593119
111	0x3d860582	0.06544019
112	0x3df7ae84	0.12093833
113	0xbd5f4826	-0.054512165
114	0xbb5211e4	-0.003205412
115	0x3db4fc88	0.08837229
116	0x3d7870cb	0.060654443
117	0x3e18f1be	0.14935967
118	0x3cb3834f	0.021913199
119	0x3d0fd0b3	0.03511114
120	0xbe2db906	-0.16965112
121	0xbce822c4	-0.02833689
122	0x3de2eabe	0.1107993
123	0xbe171660	-0.14754629
124	0xbcaa0039	-0.02075206
125	0x3d97b278	0.07407087
126	0xbc1f4b25	-0.009722506
127	0x3c85334e	0.016259816
128	0x3eb01c76	0.34396714
129	0xbde80aa2	-0.11330153
130	0xbb99eea3	-0.004697637
131	0x3c47d9ea	0.012197951
132	0xbdff86f8	-0.12476915
133	0x3e477e44	0.1948176
134	0x3d0b61da	0.034028865
135	0xbe5e42d2	-0.21705177
136	0x3e170e7b	0.14751618
137	0xbea7851e	-0.32718748
138	0xbc8c3de9	-0.017119365
139	0xbe24424d	-0.16040917
140	0xbced7d9f	-0.028990565
141	0xbd2f42ea	-0.042788424
142	0x3d861e4c	0.065487474
143	0xbdab0bda	-0.0835187
144	0xbe7c826a	-0.24659124
145	0x3b6af9c3	0.0035854436
146	0xbdddce82	-0.10830404
147	0xbdf5bbd1	-0.11998714
148	0x3e207e12	0.15673092
149	0x3d8d4645	0.068981685
150	0xbef4b7f7	-0.47796604
151	0x3d99097f	0.07472514
152	0x3d11c880	0.035591602
153	0x3d052130	0.032502353
154	0x3e07d3d3	0.13264398
155	0xbd74b916	-0.059746824
156	0x3e42be4e	0.19017908
157	0x3db21a16	0.08696382
158	0xbb86a6f3	-0.0041092574
159	0x3d08f04a	0.033432283
160	0x3dafd9a9	0.08586437
161	0xbd3cb4af	-0.04607075
162	0x3e10df32	0.14147642
163	0x3deaa2fc	0.11456868
164	0xbd77cf9d	-0.06050073
165	0xbe609cd7	-0.2193483
166	0x3d4b04bb	0.04956506
167	0x3df1a125	0.11798314
168	0xbe04ed0c	-0.12981051
169	0xbe3ad080	-0.18243599
170	0xbdc4e6e0	-0.096143484
171	0xbdba9a9d	-0.091115214
172	0xbac67b15	-0.0015142882
173	0xbc1d6f65	-0.009609078
174	0xbdf744cd	-0.120736696
175	0x3e315a3b	0.17319576
176	0x3d0da329	0.03457943
177	0xbcd2fcdf	-0.025755344
178	0x3dfb2667	0.12263184
179	0x3e12650b	0.14296357
180	0x3e036984	0.1283322
181	0x3b84cf1b	0.004053009
182	0x3ac635cf	0.0015122237
183	0xbd93ade3	-0.07210901
184	0x3debfef7	0.1152324
185	0xbd857a28	-0.0651744
186	0x3dbff2a9	0.093724556
187	0xbdc3173f	-0.09525918
188	0xbddb18ff	-0.10698127
189	0xbd4edbc7	-0.050502565
190	0xbd23f601	-0.04002953
191	0xbeac4d2d	-0.3365263
192	0xbed40c21	-0.41415504
193	0xbd935fe3	-0.07196023
194	0x3e416fa3	0.18890242
195	0x3c3a0dbc	0.011355814
196	0xbda9dfb6	-0.082946226
197	0xbe186c77	-0.14885126
198	0xbd1f6906	-0.038918518
199	0x3dca257b	0.0987043
200	0xbd97de5e	-0.0741546
201	0xbdecce20	-0.11562753
202	0xbdebd967	-0.115160756
203	0x3dc1beb4	0.09460202
204	0x3cbaf896	0.022823613
205	0xbea2b35f	-0.31777474
206	0x3c5f21c1	0.013618887
207	0xbc6e5071	-0.014545546
208	0x3d62fede	0.05541884
209	0x3e29f490	0.165972
210	0xbdc8ecaa	-0.09810765
211	0x3e01a4a3	0.1266046
212	0xbba70c91	-0.0050979336
213	0xbd38ca17	-0.045114603
214	0xbcf2d05d	-0.029640371
215	0x3dba0bad	0.09084258
216	0xbd1aad46	-0.037762903
217	0xbe8bafef	-0.27282664
218	0x3d58b595	0.052907545
219	0xbd65dde2	-0.056119807
220	0x3db3a5ea	0.0877188
221	0xbda8fcb3	-0.082513236
222	0xbd932d75	-0.071864046
223	0x3e28578f	0.16439651
224	0x3e762a1d	0.24039502
225	0x3d7d5225	0.061845917
226	0x3c48710d	0.012233985
227	0xbdfd106e	-0.12356649
228	0xbf020f48	-0.5080457
229	0x3e3ab11d	0.18231626
230	0xbd0a1768	-0.03371373
231	0x3dce51b4	0.100741774
232	0xbe18a0d9	-0.14905109
233	0xbe834abf	-0.25642964
234	0xbded9674	-0.11600962
235	0x3d72471f	0.059149858
236	0xbdc7134b	-0.09720477
237	0xbdc0dc79	-0.09417052
238	0xbe2fcf36	-0.17168888
239	0xbe29d71b	-0.16585962
240	0x3d25c028	0.040466458
241	0xbd6495c1	-0.05580688
242	0x3e0e9a4d	0.13926049
243	0x3e1ae18b	0.151251
244	0x3d0246a7	0.03180566
245	0x3d9001be	0.07031582
246	0xbd615125	-0.055009026
247	0xbdd491b5	-0.10379354
248	0x3e25049d	0.16115041
249	0x3dfec1e8	0.124393284
250	0xbdf4821f	-0.11938881
251	0x3e674020	0.22583055
252	0x3e0dec54	0.13859683
253	0x3d702b6f	0.05863517
254	0x3d954971	0.072893985
255	0x3d3668d5	0.04453357

layers.1.bias f4 [128]
0	0x3e0563c7	0.13026343
1	0xbbb207e3	-0.005433069
2	0x3d82a22c	0.06378588
3	0x3c91b6a8	0.017787293
4	0xbd16504b	-0.036697667
5	0x3d9409b1	0.07228411
6	0x3dbe5f76	0.092955515
7	0xbd0045a8	-0.03131643
8	0x3e048364	0.12940747
9	0x3dda2a01	0.10652543
10	0xbc9a6dfd	-0.018851275
11	0x3d2ba5a8	0.04190603
12	0x3bcf2fff	0.0063228603
13	0x3db700d6	0.08935706
14	0x3ca82370	0.02052471
15	0x3d9c75c7	0.07639652
16	0x3ddd4aaa	0.10805257
17	0xbd7edc9f	-0.06222212
18	0xbd878f54	-0.066191345
19	0x3d4d25c6	0.05008485
20	0x3e2ad77c	0.16683763
21	0x3d9b1122	0.07571627
22	0xbd8af21d	-0.06784461
23	0x3dda9a9c	0.10674021
24	0x3e3bd5e0	0.18343306
25	0x3c9b5c28	0.018964842
26	0x3d381ca2	0.04494918
27	0x3d2fd83e	0.042930834
28	0x3d9d21c2	0.076724544
29	0x3dfbddc7	0.1229816
30	0x3d33f19e	0.043931596
31	0x3b872283	0.004123987
32	0x3dbd911c	0.09256193
33	0x3e0b5983	0.13608365
34	0x3d840864	0.06446913
35	0x3dacbc55	0.08434359
36	0xbca37646	-0.019953858
37	0x3dc2151e	0.09476684
38	0xbd558f1f	-0.052138444
39	0x3e2aae2c	0.16668004
40	0x3c3b5d3e	0.011435805
41	0xbd4dc627	-0.0502378
42	0x3cfef2b0	0.031121582
43	0x3cfe73ca	0.031061072
44	0xbdaf097c	-0.08546731
45	0x3e1a53c2	0.15071014
46	0x3daed935	0.08537523
47	0x3e0b6c6d	0.1361558
48	0x3e1787ef	0.14797948
49	0x3d9b1fc9	0.07574422
50	0xbcfd0215	-0.030884782
51	0x3dc5f435	0.096657194
52	0x3e1d2f80	0.15350151
53	0x3db6faa3	0.08934524
54	0x3dd2a59f	0.10285496
55	0x3e264226	0.16236171
56	0x3dcbd2cc	0.09952316
57	0x3e15ebf7	0.14640795
58	0x3dbe13e0	0.092811346
59	0xbc296262	-0.010338398
60	0x3e14d9e4	0.14536244
61	0xbcf7cbfe	-0.030248638
62	0xbc000844	-0.007814471
63	0x3d95cabf	0.073140614
64	0x3d9cbe54	0.0765349
65	0xbc97731c	-0.018487506
66	0x3d84d6e6	0.06486301
67	0x3defd981	0.117114075
68	0x3e1a86b2	0.15090445
69	0x3e0132b1	0.12616993
70	0xbd06c738	-0.032904834
71	0x3e192dab	0.14958827
72	0x3cd9074a	0.026492734
73	0x3d80661a	0.06269474
74	0xbb197fe0	-0.0023422167
75	0x3e2875ce	0.16451189
76	0x3e39cf3f	0.18145464
77	0x3c968aa5	0.018376658
78	0x3d792a1e	0.06083118
79	0x3d654bbb	0.055980425
80	0x3e3e5b06	0.1858941
81	0x3d6bfe16	0.057615362
82	0x3e0e6fd9	0.13909854
83	0x3c1d3e3a	0.0095973555
84	0x3bdd0a0c	0.0067455824
85	0x3e2be2fd	0.16785808
86	0xbd1ed187	-0.03877404
87	0x3c83bb76	0.0160806
88	0x3e144c9d	0.1448235
89	0x3cfff62d	0.031245315
90	0x3e039caa	0.12852731
91	0x3d0a886f	0.03382152
92	0x3ddddcb6	0.10833113
93	0x3e03384e	0.12814447
94	0x3de67957	0.112536125
95	0x3c029d2c	0.007972043
96	0x3dee041a	0.11621876
97	0x3df01803	0.1172333
98	0x3d0deab7	0.03464767
99	0x3d415157	0.047196712
100	0xbd63c873	-0.055611085
101	0x3e30830b	0.17237489
102	0x3dacae47	0.08431678
103	0xbd48b5b0	-0.049001396
104	0x3d2d3809	0.042289767
105	0x3c222f3b	0.009898956
106	0x3dd5b116	0.10434167
107	0x3d50ad0c	0.05094628
108	0x3d91158e	0.07084189
109	0x3d5f78b2	0.054558463
110	0x3dcb7670	0.099346995
111	0x3e0e35b8	0.1388768
112	0x3e16b30b	0.14716737
113	0x3df23b4a	0.11827715
114	0x3d025588	0.03181985
115	0x3d632fbe	0.055465452
116	0x3d3f2a86	0.046671413
117	0x3dbba58a	0.091624334
118	0x3dd5369f	0.10410809
119	0x3d8fd9c9	0.07023961
120	0xbd5c2038	-0.053741664
121	0xbc348c66	-0.011019802
122	0x3d903c54	0.07042757
123	0x3e289829	0.16464294
124	0x3df99ba3	0.121878885
125	0xbd63cb5c	-0.05561386
126	0x3df24703	0.11829951
127	0x3e0c5a2d	0.13706274

layers.2.weight f4 [64, 128]
0	0x3ba3a4f5	0.0049940296
1	0x3de36207	0.111026816
2	0x3ccff351	0.025384577
3	0x3df68ae2	0.120382085
4	0x3e244a72	0.16044024
5	0x3e34a294	0.17640144
6	0x3d8e8cf7	0.06960481
7	0xbe928e8f	-0.2862439
8	0x3d5ac0ab	0.0534064
9	0xbe20d016	-0.15704378
10	0x3bf40bd7	0.0074477005
11	0x3d86ac24	0.06575802
12	0x3db2ec79	0.0873651
13	0x3e027d62	0.12743142
14	0x3c8a1056	0.016853493
15	0x3c314c33	0.01082139
16	0xbb89c7cd	-0.0042047263
17	0xbe3acd72	-0.18242434
18	0xbc08ffe4	-0.00836179
19	0x3d5356dc	0.051596507
20	0xbe0551d2	-0.13019493
21	0xbc9589e8	-0.018254235
22	0xbd1d3312	-0.038378783
23	0xbe89ad9e	-0.26890272
24	0xbe1cace9	-0.15300335
25	0xbe309d15	-0.17247422
26	0xbe960794	-0.29302657
27	0xbd5ed012	-0.05439765
28	0xbe6cd4bd	-0.23128028
29	0x3d9d2281	0.07672597
30	0xbd6ec03f	-0.05828881
31	0xbd27ad52	-0.040936776
32	0x3ce38400	0.027772903
33	0xbce05c0a	-0.027387638
34	0x3d8c01ce	0.06836282
35	0xbddc2723	-0.10749652
36	0xbe1d1a04	-0.15341955
37	0x3d848d9f	0.064723246
38	0x3b074cf9	0.0020645245
39	0x3d8be94b	0.068316065
40	0x3d50afdf	0.050948974
41	0x3d8ee4f2	0.069772616
42	0xbd95b391	-0.0730964
43	0xbc995066	-0.018715095
44	0xbea04237	-0.31300518
45	0x3c8014fb	0.015635004
46	0x3d5f515a	0.054520942
47	0xbbecac73	-0.007222706
48	0xbcbd7079	-0.02312492
49	0xbb8aed38	-0.0042397045
50	0xbe1cd604	-0.15316015
51	0xbd24de7c	-0.04025124
52	0xbe2d588c	-0.16928309
53	0x3d684c15	0.056713182
54	0x3e9ee676	0.31035203
55	0xbe3d36a7	-0.1847788
56	0xbe955fcd	-0.29174653
57	0xbd15801c	-0.036499128
58	0xbdb1c067	-0.08679276
59	0xbd025064	-0.031814948
60	0x3ca6ce48	0.020362034
61	0xbcf18f66	-0.029487323
62	0xbe091460	-0.13386679
63	0xbe350256	-0.17676672
64	0xbd97c145	-0.0740991
65	0xbeaa0cf7	-0.33213016
66	0xbdaa32f1	-0.083104976
67	0x3dde1707	0.10844236
68	0xbc13b4fc	-0.009015318
69	0xbda091c0	-0.078402996
70	0xbbee28b1	-0.0072680344
71	0x3e6de767	0.23232804
72	0x3d00604b	0.031341832
73	0xbe3e25b3	-0.18569069
74	0xbd06c162	-0.032899268
75	0xbe13f289	-0.14447989
76	0x3c403728	0.0117319
77	0x3e725989	0.23666967
78	0xbca40f6e	-0.020026889
79	0x3e124184	0.14282805
80	0xbde7f838	-0.11326641
81	0xbe1151e5	-0.14191397
82	0xbdab924d	-0.08377514
83	0xbea39ad1	-0.31954053
84	0x3e1dd485	0.15413101
85	0x3d535f55	0.051604588
86	0x3e56842a	0.20948854
87	0xbd0aa068	-0.03384438
88	0xbd53b565	-0.051686663
89	0xbd85a50d	-0.065256216
90	0xbcaea209	-0.021317499
91	0xbd04f333	-0.032458495
92	0x3d1b136b	0.037860315
93	0x3d98dac2	0.074636
94	0x3cd590e5	0.026070068
95	0x3c9cb205	0.019127855
96	0xbd0193a5	-0.031634945
97	0xbdcf51c0	-0.101230145
98	0x3d866476	0.0656213
99	0xbdbb8cb1	-0.09157694
100	0x3e86a397	0.26296684
101	0x3e0f4047	0.13989364
102	0xbe1229fa	-0.14273825
103	0xbe30944d	-0.17244072
104	0xbe9d4b1f	-0.30721375
105	0xbd0fc984	-0.03510429
106	0x3c4f9eff	0.012672185
107	0xbdb556a6	-0.088544175
108	0xbc72bd1d	-0.014815596
109	0x3e8279e0	0.25483608
110	0x3ee25c69	0.44211128
111	0xbdfaf103	-0.122530006
112	0xbd386e9f	-0.04502737
113	0xbd03d7c1	-0.03218818
114	0x3e8deb52	0.27718598
115	0x3d861842	0.065475956
116	0x3d7cb235	0.06169339
117	0xbd0f4dc9	-0.03498629
118	0x3d131ff8	0.03591916
119	0xbd6a0f0c	-0.057143256
120	0x3e375897	0.17904888
121	0x3d72bd78	0.059262723
122	0xbdcb3eb4	-0.09924069
123	0xbb92571d	-0.004465951
124	0xbdf335f8	-0.11875528
125	0xbdbec446	-0.0931478
126	0xbc954f1c	-0.018226199
127	0x3db5b3a7	0.088721566
128	0x3d517b33	0.051142883
129	0xbd5129c5	-0.051065225
130	0xbe060a42	-0.1308985
131	0x3dfb43f2	0.12268819
132	0x3ddc81bb	0.107669316
133	0x3ded18a1	0.11576963
134	0x3cfbf361	0.0307557
135	0xbe624f6a	-0.22100607
136	0x3dd24fbd	0.10269115
137	0xbd07c006	-0.033142112
138	0xbd789473	-0.060688447
139	0xbe1275bd	-0.14302726
140	0xbcdf4125	-0.027252743
141	0x3e2c1d51	0.16808058
142	0x3d9537b6	0.07286017
143	0xbd6a10ee	-0.05714505
144	0xbd388567	-0.045049097
145	0x3cacde8f	0.021102218
146	0xbd91bb18	-0.071157634
147	0xbcdf6f25	-0.027274678
148	0x3d9dfc86	0.07714181
149	0xbc193289	-0.009350427
150	0x3d16e812	0.036842413
151	0xbddbaad5	-0.10725943
152	0xbd2948f3	-0.041329335
153	0xbdfcfef2	-0.123533145
154	0xbe8e2bd2	-0.27767807
155	0xbd10f458	-0.035389274
156	0xbe472332	-0.1944702
157	0x3db87504	0.09006694
158	0xbc78bacc	-0.015181255
159	0xbacc155c	-0.001557033
160	0xbc0190e3	-0.007908079
161	0x3cab1255	0.020882765
162	0xbbf803cb	-0.0075688115
163	0x3d781eed	0.060576368
164	0xbd4aaa62	-0.049478896
165	0xbd09ca2c	-0.03364007
166	0xbb0fa310	-0.0021917261
167	0xbca66049	-0.020309584
168	0x3d3d55bc	0.04622434
169	0xbd809f5d	-0.06280396
170	0x3d208cc6	0.039196752
171	0xbbf0e043	-0.007350953
172	0xbea904f4	-0.3301159
173	0x3d66ec9e	0.056378
174	0xbd8cea2a	-0.06880601
175	0xbdacc36c	-0.08435711
176	0x3d2bf876	0.041984998
177	0x3c942b56	0.01808707
178	0x3cf1038e	0.02942064
179	0x3be2ab2a	0.006917377
180	0xbac43cfb	-0.0014971787
181	0xbe3e451a	-0.18581048
182	0x3e83b334	0.2572266
183	0xbe408c59	-0.18803538
184	0xbe9acf1d	-0.3023614
185	0xbe9d7bac	-0.30758417
186	0xbd1ee821	-0.038795594
187	0xbd5e161e	-0.05422031
188	0xbc9e134e	-0.019296315
189	0x3d7b9c69	0.06142846
190	0xbcf478a0	-0.029842675
191	0xbc3d3c2e	-0.0115499925
192	0x3df705bf	0.12061643
193	0x3d2dbd67	0.042416956
194	0xbb0b22c1	-0.0021230432
195	0x3bc3ef59	0.00597946
196	0x3cda42e2	0.02664322
197	0xbd5cc7fa	-0.05390165
198	0x3c96f86d	0.018429006
199	0x3e0ab157	0.13544212
200	0x3d93d9f8	0.072193086
201	0xbd56b284	-0.05241634
202	0xbd5773fa	-0.05260084
203	0xbe02161f	-0.12703751
204	0x3ce196b5	0.027537683
205	0xbcd4257c	-0.02589678
206	0x3d578a4b	0.05262212
207	0x3cc25b33	0.023725128
208	0x3c385d93	0.011252779
209	0xbdc7cb4b	-0.09755572
210	0x3bffaf55	0.0078028836
211	0x3d1a69e4	0.03769864
212	0x3e8af47c	0.27139652
213	0xbcb14267	-0.021638108
214	0x3dc8f859	0.098129936
215	0xbde1d6a9	-0.11027271
216	0xbbc21c6c	-0.0059237983
217	0x3d8d0b22	0.06886889
218	0xbd0a7526	-0.033803128
219	0x3d463fcd	0.04840069
220	0x3d36369a	0.044485666
221	0x3ca9e096	0.020736974
222	0x3d61f02a	0.05516068
223	0x3b0318fc	0.0020003906
224	0xbd0cdfcf	-0.034393128
225	0x3d55ab32	0.052165218
226	0x3adda195	0.0016909117
227	0xbd9f297d	-0.07771585
228	0x3eaf3fe0	0.3422842
229	0x3d0c3f62	0.034240134
230	0xbd13464f	-0.035955723
231	0x3cd5f1bd	0.026116246
232	0xbd47684c	-0.04868345
233	0x3d0b2c73	0.033977937
234	0x3dcef2dc	0.101049155
235	0xbdac30ee	-0.0840777
236	0xbda38471	-0.079842456
237	0x3e2f9204	0.17145544
238	0x3eb2476b	0.34820113
239	0xbea01889	-0.3126872
240	0xbcad2d27	-0.021139694
241	0x3da05247	0.07828193
242	0x3e75fc6c	0.24022073
243	0xbdc40768	-0.09571725
244	0xbe190528	-0.14943373
245	0xbd20ff13	-0.039305758
246	0xbdbd403d	-0.09240768
247	0xbc53cf28	-0.012927808
248	0x3d08c71e	0.033393018
249	0xbdc2e006	-0.09515385
250	0xbdd1bc01	-0.10240937
251	0x3c740245	0.014893119
252	0xbc3df460	-0.011593908
253	0xbd5a6b06	-0.05332472
254	0x3d0579d9	0.032586906
255	0xbd474b1c	-0.048655614

layers.2.bias f4 [64]
0	0x3e8ae5ca	0.2712844
1	0x3e5b2018	0.21398962
2	0xbdd3f8dc	-0.103502005
3	0x3ca9c61c	0.020724349
4	0x3d4d5aa8	0.050135285
5	0x3e13d078	0.14434993
6	0xbd39eca7	-0.045391705
7	0x3c96ecbe	0.018423434
8	0x3d1028bf	0.03519511
9	0xbc5f9787	-0.013646967
10	0x3d0cc8db	0.03437124
11	0x3dedcb1b	0.11611005
12	0xbccf734d	-0.025323534
13	0x3ccd4254	0.025056042
14	0x3e261e62	0.16222528
15	0x3d9f5914	0.07780662
16	0x3c76d815	0.015066166
17	0x3d7c29f2	0.06156344
18	0x3e4a2891	0.19742037
19	0x3dbb1059	0.091339774
20	0x3dfbc0b3	0.12292614
21	0x3ba93b6b	0.005164554
22	0xbd693576	-0.05693575
23	0xbbe1a40d	-0.0068860115
24	0x3d1760a7	0.03695741
25	0x3cfaaaca	0.030599017
26	0x3e02a5b7	0.12758528
27	0x3d7706c4	0.060309187
28	0x3e214a48	0.15750992
29	0x3ddbab47	0.10726028
30	0xbd8e1aa5	-0.06938676
31	0x3e1278a4	0.14303833
32	0xbdb6dd6b	-0.08928951
33	0x3e25a399	0.16175689
34	0xbb4ba190	-0.003107164
35	0x3d15423c	0.03644012
36	0x3d4f4609	0.0506039
37	0x3de271a3	0.11056831
38	0x3e47c17e	0.19507405
39	0x3c175d60	0.009238571
40	0x3e765102	0.2405434
41	0xbd80e4c6	-0.06293635
42	0xbcd2f9cb	-0.025753876
43	0x3e1d0cce	0.15336916
44	0x3e2227dc	0.15835518
45	0x3e2cabc8	0.16862404
46	0xbbae2d18	-0.005315434
47	0x3cc19032	0.023628328
48	0x3e06f2b1	0.13178517
49	0xbc8514e7	-0.016245319
50	0x3cfaa8b2	0.030598018
51	0x3c59a578	0.01328408
52	0x3e2a4671	0.16628434
53	0xbc952993	-0.0182083
54	0x3d0e52e0	0.034747005
55	0x3da58e61	0.08083797
56	0xbcc6539a	-0.024209786
57	0xbd6f31ec	-0.05839722
58	0x3c792927	0.015207565
59	0xbc4e99c7	-0.012609906
60	0x3d764893	0.060127806
61	0x3e7c08be	0.2461271
62	0x3e3bf9c9	0.18357004
63	0xbdb49ff7	-0.088195734

readout.weight f4 [1, 64]
0	0x3f407244	0.75174356
1	0x3f0642ea	0.5244585
2	0x3e6aa767	0.22915421
3	0xbe2ff347	-0.17182647
4	0xbde99430	-0.11405218
5	0xbe5147aa	-0.20437494
6	0x3d37926a	0.044817366
7	0x3de8a25e	0.11359094
8	0xbddf46af	-0.10902154
9	0x3d8c6776	0.06855671
10	0xbe46e241	-0.19422247
11	0xbe4a89c8	-0.19779122
12	0x3e4ec8c1	0.20193769
13	0x3c880092	0.016601834
14	0xbe6fecaa	-0.23430124
15	0x3cf7a1c6	0.030228507
16	0x3d2a0e95	0.041517813
17	0x3e5dfe41	0.21679021
18	0xbea56dd4	-0.32310355
19	0xbe3b87e7	-0.18313561
20	0xbe4382d4	-0.19092876
21	0xb9eba9c1	-0.0004494917
22	0x3a5e1f9c	0.0008473338
23	0x3e74ea34	0.23917466
24	0xbe34fc03	-0.1767426
25	0xbe76f09f	-0.24115227
26	0xbea8e2c6	-0.32985514
27	0x3e207cf3	0.15672664
28	0xbe65ec77	-0.22453485
29	0xbe4cfbe8	-0.2001797
30	0x3e7319f4	0.23740369
31	0xbe06513a	-0.13116923
32	0x3d43cf4d	0.04780512
33	0xbdefa414	-0.11701217
34	0x3da9c7d6	0.08290069
35	0xbe278081	-0.16357614
36	0x3d84dcae	0.06487404
37	0xbe181161	-0.1485038
38	0xbec25fdb	-0.37963757
39	0xbe1234a0	-0.14277887
40	0x3f5076a1	0.81431013
41	0x3e97b0a3	0.2962695
42	0x3d164868	0.036690146
43	0xbe14d613	-0.14534788
44	0xbe016e0e	-0.12639639
45	0xbe08f25f	-0.13373707
46	0x3db4aa76	0.08821575
47	0xbe5d0346	-0.2158328
48	0xbde4d51a	-0.111734584
49	0x3e131465	0.14363249
50	0xbe27fefe	-0.16405866
51	0x3e0aebad	0.13566466
52	0xbe488eaf	-0.1958568
53	0x3e28ff85	0.16503723
54	0xbdfe6a09	-0.12422568
55	0xbe459011	-0.19293238
56	0x3cd5dfc2	0.026107673
57	0x3d8a58e7	0.06755238
58	0xbe19435d	-0.14967103
59	0x3d79602a	0.060882725
60	0x3e8d80a6	0.27637213
61	0xbed1ddee	-0.4098963
62	0x3f34b598	0.7058959
63	0x3e7068eb	0.23477523

layers.0.weight f4 [128, 3]
0	0x3f172a27	0.59048694
1	0x3ed5bc09	0.41745022
2	0x3f139637	0.57651085
3	0xbf00393d	-0.5008734
4	0x3f376559	0.7163902
5	0xbe796fdb	-0.24359076
6	0xbd46ee2a	-0.048566975
7	0xbd83ccc7	-0.064355426
8	0xbf121c1e	-0.57074153
9	0x3e82058c	0.25394857
10	0xbf293f9d	-0.6611269
11	0x3f13b42f	0.57696813
12	0xbdcd273e	-0.100172505
13	0xbf3a37dd	-0.7274149
14	0x3ef05a01	0.46943668
15	0xbe03e49e	-0.1288018
16	0xbf0cc15c	-0.54982543
17	0x3e2dfa64	0.16990048
18	0xbe7304e7	-0.23732339
19	0xbf57422c	-0.84085345
20	0x3e8516d1	0.2599397
21	0xbe9d7abf	-0.3075771
22	0xbe441d4c	-0.19151801
23	0x3f0a8c2f	0.54120153
24	0xbd0bfba2	-0.034175523
25	0xbec3b71c	-0.3822564
26	0x3ef926d3	0.48662433
27	0xbee7fb71	-0.45309022
28	0x3e9b8615	0.30375734
29	0x3dee1a67	0.116261296
30	0x3eef65ea	0.46757442
31	0xbf06c85d	-0.5264948
32	0xbe8d5af2	-0.27608448
33	0x3e1914a6	0.14949283
34	0xbdcfd42e	-0.10147892
35	0xbed7e866	-0.42169493
36	0xbd14178b	-0.036155265
37	0x3ec7a6bb	0.38994393
38	0xbd688016	-0.056762777
39	0x3edd3d57	0.4321086
40	0xbf4ac137	-0.7920107
41	0x3edaa0ed	0.42700902
42	0x3f0073d6	0.5017675
43	0xbe64666c	-0.22304696
44	0xbcc8ec44	-0.024526723
45	0xbe8d200c	-0.27563512
46	0xbf44a1e0	-0.768095
47	0x3e082e95	0.1329902
48	0xbf1d7128	-0.6150079
49	0x3f013942	0.50477993
50	0x3f066b6a	0.5250765
51	0xbe36507e	-0.17804143
52	0x3d692452	0.056919403
53	0xbeacd4e0	-0.3375616
54	0x3f0575ef	0.5213308
55	0xbc927c87	-0.017881645
56	0x3e4419f5	0.19150527
57	0xbe6d486f	-0.23172162
58	0x3dfc69a2	0.12324835
59	0xbebc9bef	-0.36837718
60	0xbdc7b774	-0.09751788
61	0x3e916a62	0.28401476
62	0x3eb2904a	0.3487571
63	0xbf142622	-0.57870686
64	0x3e77e7be	0.24209496
65	0x3e1f92d5	0.15583356
66	0xbdfe9cfe	-0.12432288
67	0x3f06342e	0.5242337
68	0xbefdfe5c	-0.49608123
69	0xbe2773ac	-0.16352719
70	0xbeb345c6	-0.3501417
71	0xbe88c744	-0.26714528
72	0x3d3cc2b2	0.046084113
73	0xbe437cb5	-0.1909054
74	0xbf024487	-0.50885814
75	0xbeccad5f	-0.39976022
76	0x3d9f6eb0	0.07784784
77	0x3db8b706	0.09019284
78	0x3ec44bfa	0.38339216
79	0xbeb7471c	-0.3579644
80	0x3ed4029f	0.4140825
81	0x3eb773fa	0.3583067
82	0xbe92e4d4	-0.28690207
83	0xbd9b4fee	-0.07583605
84	0xbed9c05c	-0.4252957
85	0x3d0563cd	0.03256588
86	0x3d562fb0	0.052291572
87	0xbf1d048a	-0.6133505
88	0x3f3aa53b	0.7290837
89	0xbf0c0049	-0.54687935
90	0xbe94b769	-0.2904618
91	0x3d4edad6	0.050501667
92	0x3f108ac0	0.56461716
93	0x3da7186f	0.08158957
94	0x3ec271ae	0.37977356
95	0xbddafc70	-0.1069268
96	0x3dd7794b	0.10521182
97	0xbe278b44	-0.1636172
98	0xbedf241a	-0.4358223
99	0x3ef16e5a	0.47154504
100	0x3f0dfe92	0.5546657
101	0x3ef620b2	0.4807182
102	0xbedbd524	-0.4293605
103	0x3cb3e38b	0.021959087
104	0x3ea662fd	0.32497397
105	0x3ec08866	0.37604064
106	0x3ed6ff13	0.4199148
107	0x3ab139d3	0.0013521261
108	0x3e234813	0.15945463
109	0x3f48fde4	0.78512406
110	0x3de5d08d	0.112214185
111	0xbe7dbc62	-0.24778894
112	0x3d85e343	0.06537487
113	0xbecb4474	-0.39700663
114	0xbef726e1	-0.4827185
115	0xbeba3112	-0.36365563
116	0xbe2d9788	-0.16952336
117	0x3ed68831	0.4190078
118	0xbedb62b8	-0.42848754
119	0xbf012d0e	-0.50459373
120	0xbdb97128	-0.09054786
121	0x3e99619e	0.29957289
122	0xbec22ffe	-0.3792724
123	0xbf271368	-0.65263987
124	0xbec4018c	-0.3828243
125	0xbda71968	-0.08159143
126	0x3e7857ca	0.24252239
127	0x3f5dc5be	0.86629856
128	0xbe8a0c41	-0.26962474
129	0x3e27cf07	0.16387568
130	0x3e762645	0.24038036
131	0xbecf3136	-0.40467232
132	0xbd5f7c3d	-0.054561842
133	0xbf190aaa	-0.597819
134	0x3ea04fd9	0.3131092
135	0x3f236878	0.6383128
136	0xbf3bf928	-0.7342706
137	0xbf0f56a2	-0.55991566
138	0x3dd61503	0.104532264
139	0x3f07af81	0.5300217
140	0xbddecc48	-0.10878807
141	0xbf08909c	-0.53345656
142	0xbe0437a0	-0.12911844
143	0xbf09c8c7	-0.53821987
144	0xbcc1fec8	-0.02368106
145	0x3f077d26	0.52925336
146	0x3eb7a3b5	0.35867086
147	0xbec43f52	-0.3832956
148	0x3f29d088	0.6633382
149	0x3e34fea7	0.17675267
150	0xbe8294f6	-0.25504273
151	0x3efe74d8	0.4969852
152	0xbef05b50	-0.46944666
153	0xbdfab6e8	-0.12241918
154	0x3f21be4a	0.63180983
155	0x3db8fe54	0.09032884
156	0xbe1f5290	-0.15558839
157	0xbf19e201	-0.6011048
158	0xbedc71e6	-0.43055648
159	0xbea77f58	-0.32714343
160	0xbec62851	-0.38702634
161	0xbd0dc36e	-0.034610204
162	0x3e6f5cee	0.23375294
163	0x3f0208a8	0.5079446
164	0x3d6ebdb9	0.058286402
165	0x3edebb47	0.43502256
166	0x3f202440	0.62555313
167	0x3e8cae6c	0.27476823
168	0x3ef16292	0.47145516
169	0xbd9703c4	-0.07373765
170	0x3e4be6a2	0.19912198
171	0x3ea26173	0.31714973
172	0xbcf74ac3	-0.030187016
173	0xbf0de397	-0.554254
174	0xbf049568	-0.51790476
175	0xbecc4efd	-0.39904013
176	0xbd0f7f94	-0.035033777
177	0xbea55799	-0.32293394
178	0x3f0184f9	0.50593525
179	0xbeb884fc	-0.3603896
180	0x3ecc56e5	0.39910045
181	0x3f45078d	0.76964647
182	0xbee453c5	-0.4459516
183	0xbe81b233	-0.25331268
184	0x3eb5b650	0.35490656
185	0x3d2805f9	0.04102132
186	0xbed58119	-0.41700056
187	0xbd4a788f	-0.04943138
188	0xbd332e59	-0.043745372
189	0xbdc7c3c7	-0.097541384
190	0x3eff24e9	0.49832848
191	0x3e3bf0a4	0.18353516
192	0xbe07577d	-0.13216968
193	0x3ef1fd10	0.47263384
194	0x3e61799a	0.22019044
195	0xbe2dddba	-0.16979113
196	0xbf24f576	-0.64437044
197	0xbee1f431	-0.44131616
198	0x3e88ada4	0.26694977
199	0x3d963fc2	0.073363796
200	0x3eb6f187	0.35731146
201	0xbe256dcb	-0.16155164
202	0x3f366a28	0.7125573
203	0xbe217654	-0.15767795
204	0x3d38628e	0.045015864
205	0xbed140d0	-0.4086976
206	0xbf05fe02	-0.5234071
207	0x3e58539f	0.21125649
208	0x3f2a3e27	0.66501087
209	0xbf0b5c67	-0.5443787
210	0x3e68cbcf	0.22733997
211	0xbf087e28	-0.533175
212	0x3eee7a37	0.46577618
213	0xbecee380	-0.40407944
214	0x3ecdfaa0	0.40230274
215	0xbebb5ec7	-0.36595747
216	0xbe9245de	-0.2856893
217	0xbe516b20	-0.20451021
218	0xbe3decd7	-0.18547378
219	0x3f1e3621	0.61801344
220	0x3e0db4c7	0.13838492
221	0x3e209d30	0.15684962
222	0xbe3d014f	-0.1845753
223	0x3ee6b403	0.45059213
224	0x3da25d2d	0.07927928
225	0xbee23584	-0.44181454
226	0x3f09afd7	0.53783935
227	0xbef1fd16	-0.47263402
228	0x3ecb0d1e	0.39658445
229	0xbe8ca7ef	-0.27471873
230	0x3e9e82ce	0.3095917
231	0xbd7bc823	-0.061470162
232	0x3eb8cd59	0.36094168
233	0x3f0a10d1	0.5393191
234	0xbe472ca5	-0.19450624
235	0x3e5898b8	0.21152008
236	0x3d8fa021	0.07012964
237	0xbf07adff	-0.5299987
238	0x3eaec8c8	0.3413756
239	0x3df6a277	0.120427065
240	0x3d10cd78	0.0353522
241	0x3d0d315b	0.034470897
242	0xbe83c6de	-0.2573766
243	0xbe98d659	-0.29851034
244	0x3eadcb1c	0.33944023
245	0x3f0c72ef	0.54862875
246	0xbeb17336	-0.3465821
247	0xbe4a9b8f	-0.19785903
248	0xbd033215	-0.032030184
249	0xbef68a2b	-0.4815229
250	0x3dd4cc1b	0.103904925
251	0xbefb108a	-0.49036056
252	0x3e32a0ff	0.17444228
253	0x3ee6aa9b	0.45052037
254	0x3edb5a50	0.4284234
255	0xbd1114b5	-0.03542014

layers.0.bias f4 [128]
0	0xbef44b5b	-0.47713742
1	0xbeb35b12	-0.3503042
2	0xbf0e6e80	-0.5563736
3	0x3ec756af	0.38933322
4	0x3d4a7c13	0.049434733
5	0xbe33d279	-0.17560758
6	0xbe0d0319	-0.13770713
7	0x3e64ca11	0.22342707
8	0xbef19b9b	-0.4718903
9	0xbda66bae	-0.08126007
10	0x3d28edb1	0.041242305
11	0xbebd8293	-0.37013683
12	0xbe0fd8eb	-0.14047591
13	0x3f1941ac	0.5986583
14	0x3f15aee9	0.58470017
15	0xbd247f03	-0.04016019
16	0xbecd53be	-0.40102953
17	0x3efe3bfc	0.4965514
18	0x3ea34058	0.31885028
19	0x3ef9c193	0.48780498
20	0x3cd0bde9	0.025481181
21	0x3df85298	0.121251285
22	0xbe465d17	-0.19371448
23	0xbf0d8578	-0.5528178
24	0x3e80f6ce	0.25188297
25	0x3d5bb95d	0.053643573
26	0x3d98aceb	0.074548565
27	0x3f0b9450	0.5452318
28	0xbe34cf86	-0.17657289
29	0xbd83bebb	-0.06432863
30	0xbe944803	-0.2896119
31	0x3e02d064	0.12774807
32	0x3e0c7ca7	0.13719426
33	0xbed08379	-0.40725306
34	0x3f16693f	0.5875434
35	0x3f0f4823	0.55969447
36	0x3e2d1c3a	0.16905299
37	0x3ceb66d1	0.02873555
38	0x3ed8ee41	0.42369273
39	0x3dd5a441	0.104317196
40	0x3d40279d	0.04691278
41	0xbe8d847e	-0.27640146
42	0x3eacae1f	0.33726594
43	0x3e2f45c6	0.1711646
44	0x3de0a366	0.10968666
45	0xbdbb9978	-0.09160131
46	0x3e09959a	0.13435975
47	0x3f02af76	0.5104898
48	0x3eb6b2ff	0.35683438
49	0x3f077a31	0.52920824
50	0xbe5831ef	-0.21112798
51	0xbedc836b	-0.43069014
52	0xbe472316	-0.19446978
53	0x3e8a1956	0.26972455
54	0xbeab6079	-0.3347204
55	0xbe457900	-0.19284439
56	0xbe5dd1fd	-0.21662135
57	0x3ebd69ab	0.3699468
58	0xbc7223f2	-0.014779078
59	0xbe0e465d	-0.13894029
60	0xbb0c2845	-0.0021386307
61	0xbeea136a	-0.45717937
62	0x3e366f5e	0.1781592
63	0xbe7ef2f0	-0.24897361
64	0x3f14044d	0.5781906
65	0xbe7b4801	-0.24539186
66	0x3e351cf3	0.17686825
67	0x3e1cd2d3	0.15314798
68	0x3d7cfed1	0.06176645
69	0x3e5f286c	0.21792763
70	0xbea56a0f	-0.3230748
71	0x3e229aa3	0.15879302
72	0x3e4e9d5a	0.20177212
73	0xbade2bb3	-0.0016950279
74	0xbee5ffe2	-0.44921786
75	0xbec4e428	-0.3845532
76	0x3ef8f70b	0.4862598
77	0xbd301fe8	-0.04299918
78	0x3ed065ac	0.4070257
79	0x3eca5e5c	0.39525115
80	0x3e8e8b13	0.2784048
81	0xbd0e30bc	-0.034714445
82	0x3e87a70d	0.26494637
83	0xbef30eab	-0.47472128
84	0x3ebd9dfb	0.37034592
85	0xbe9b5be0	-0.30343533
86	0xbd079262	-0.033098586
87	0xbe66f6c3	-0.2255507
88	0xbed0b8d2	-0.40766007
89	0x3df33c78	0.11876768
90	0xbf1052e3	-0.56376475
91	0x3f19887d	0.5997389
92	0x3f0381b7	0.51369804
93	0x3eae48cb	0.34039912
94	0x3ed735cd	0.42033234
95	0x3cffc657	0.031222505
96	0x3d6fd5da	0.058553554
97	0x3e10daad	0.14145918
98	0xbed71413	-0.42007503
99	0x3d80e665	0.06293944
100	0x3c73ee97	0.014888427
101	0xbecb67fe	-0.39727777
102	0x3e30e50d	0.17274876
103	0x3f142a6d	0.57877237
104	0xbc712755	-0.01471885
105	0x3daa2364	0.083075315
106	0x3cd855c1	0.026408078
107	0x3d0a4b09	0.033762965
108	0x3c79a5f7	0.015237323
109	0xbe499ed3	-0.19689493
110	0x3ed4e1eb	0.41578612
111	0xbeea89f8	-0.45808387
112	0x3efc048b	0.49222216
113	0xbe60bb88	-0.21946537
114	0x3ebed547	0.37272093
115	0xbe8b8345	-0.27248588
116	0x3eb97ad1	0.36226514
117	0x3f042051	0.5161181
118	0xbed0df5d	-0.40795413
119	0x3ea31778	0.31853843
120	0xbe153d07	-0.14574061
121	0x3e0778c2	0.13229659
122	0x3e8df065	0.2772247
123	0x3ee80d06	0.45322436
124	0x3eb54f27	0.3541195
125	0xbd760ca7	-0.06007066
126	0xbd822184	-0.06354049
127	0x3ca35c57	0.019941492

layers.1.weight f4 [128, 128]
0	0xbda93b00	-0.082632065
1	0x3d70104e	0.0586093
2	0xbc57dc0f	-0.013175025
3	0xbd47b9f8	-0.048761338
4	0xbd6858d6	-0.056725346
5	0x3d23d335	0.039996345
6	0x3c2cbeb8	0.010543518
7	0x3c27bb7f	0.010237574
8	0xbe322c0b	-0.17399614
9	0xbdaa86b0	-0.08326471
10	0xbcf88b76	-0.030339938
11	0x3d800af9	0.06252093
12	0xbe06bad1	-0.13157202
13	0xbc6b8c45	-0.014376705
14	0xbd0f8ae5	-0.03504457
15	0xbd2ebdc6	-0.04266145
16	0xbcf0f8b5	-0.029415468
17	0x3d0fa5f8	0.03507039
18	0xbe2130c1	-0.15741254
19	0x3d2e997b	0.04262684
20	0xba892986	-0.0010464645
21	0xbd98f06c	-0.07467732
22	0x3cf9e473	0.03050444
23	0x3cef4db3	0.029211855
24	0xbdbf234d	-0.09332905
25	0x3c99ea20	0.018788397
26	0xbde0e45f	-0.10981058
27	0xbdc43736	-0.09580843
28	0xbe103c8c	-0.14085597
29	0x3d9b9d60	0.07598376
30	0xbdbb34f5	-0.0914096
31	0x3db9cc5d	0.09072182
32	0x3d02cbdf	0.031932708
33	0xbe00b4eb	-0.12569015
34	0xbda0f9c1	-0.07860137
35	0xbd9bba81	-0.07603932
36	0x3dd8a481	0.10578252
37	0x3d6502f5	0.055911023
38	0x3ce75d24	0.028242655
39	0x3c66aa27	0.014078653
40	0xbb21f915	-0.0024715115
41	0x3d864cb6	0.065576
42	0xbdaaa3f3	-0.08332052
43	0x3ca9c282	0.020722631
44	0xbdd74efd	-0.10513113
45	0x3c02109b	0.007938529
46	0x3d9855fb	0.074382745
47	0x3c1c8191	0.009552375
48	0xbc4d24ec	-0.01252101
49	0x3b4fd570	0.0031712912
50	0x3bab1872	0.00522142
51	0x3e3613b4	0.17780954
52	0x3da8545c	0.08219215
53	0xbc6180ae	-0.01376359
54	0xbd777361	-0.06041277
55	0xbde4504d	-0.11148129
56	0x3d745869	0.059654627
57	0xbddc2b84	-0.107504874
58	0x3d54892c	0.05188863
59	0xbd937e2a	-0.07201798
60	0x3bbc59b4	0.005747998
61	0x3e545780	0.20736504
62	0xbd0426e7	-0.032263663
63	0x3e833699	0.25627592
64	0x3d27a458	0.040928215
65	0xbd42c5fa	-0.047552086
66	0xbca80461	-0.0205099
67	0x3bc57e71	0.006027036
68	0xbd9035a5	-0.07041482
69	0x3d87511c	0.06607267
70	0xbe411d22	-0.1885877
71	0x3d5fb641	0.05461717
72	0x3d1f91f9	0.03895757
73	0xbe00bd42	-0.12572196
74	0x3e7f7724	0.24947792
75	0xbc9be504	-0.019030102
76	0x3d649ef7	0.055815663
77	0xbba16f7b	-0.0049266196
78	0x3c1d7f04	0.009612802
79	0x3d04ef20	0.03245461
80	0xbd134b05	-0.035960216
81	0x3d4f82b1	0.050661746
82	0x3dac7a0f	0.08421718
83	0xbcb7a047	-0.022415293
84	0x3d08f6ce	0.033438496
85	0x3e8cbda1	0.27488425
86	0xbcc60751	-0.02417341
87	0x3e5f6939	0.21817483
88	0xbd65f18d	-0.056138564
89	0xbd5c8446	-0.053837083
90	0x3c9fd9a3	0.019512957
91	0xbbee1151	-0.007265248
92	0xbcf99036	-0.030464273
93	0xbd64c6c8	-0.055853635
94	0xbd823833	-0.063583754
95	0x3db8c4d5	0.09021918
96	0xbbeb5d2e	-0.0071827387
97	0xbb1ff3e0	-0.0024406835
98	0xbd785503	-0.06062795
99	0x3bf3dbf8	0.007441994
100	0x3d4ec226	0.050478123
101	0x3d2d7eb7	0.042357173
102	0xbdee1b90	-0.11626351
103	0x3d3f6c7d	0.04673432
104	0x3d0e885a	0.034798004
105	0x3dc44d08	0.09585005
106	0x3d5f48ea	0.054512896
107	0x3ca78603	0.020449644
108	0xbe0e9338	-0.13923347
109	0xbd5b3590	-0.053517878
110	0xbd78ebed	-0.06077187
111	0xbdb0d87f	-0.08635043
112	0x3c9a04d8	0.018801138
113	0x3d3e668f	0.046484526
114	0x3db474fd	0.08811376
115	0xbe2b0ced	-0.1670415
116	0x3c08e005	0.008354192
117	0xbd2fa838	-0.042885035
118	0xbd06c2ad	-0.0329005
119	0x3d84a95c	0.06477615
120	0xbd860bc3	-0.06545212
121	0xbd29aba4	-0.041423455
122	0xba4fb2cb	-0.00079230656
123	0xbce550e6	-0.027992677
124	0x3b405d0f	0.0029352342
125	0x3c1ed116	0.009693405
126	0x3d049572	0.032369085
127	0x3cf70050	0.030151516
128	0xbe6007d2	-0.21877983
129	0x3dac8d57	0.08425396
130	0xbdbab2be	-0.091161236
131	0xbd739c86	-0.059475444
132	0xbe5f2683	-0.21792035
133	0xbd8c7525	-0.06858281
134	0xbe04d49d	-0.1297173
135	0xbd3a66ae	-0.04550808
136	0xbe79bd3e	-0.24388596
137	0x3d2d56d3	0.04231913
138	0xbdad4a09	-0.08461387
139	0x3d022c13	0.031780314
140	0xbe368c6f	-0.17827009
141	0xbe0b7b91	-0.13621356
142	0x3d1f8aaa	0.0389506
143	0xbd4eeafe	-0.050517075
144	0x3d1d03ca	0.03833369
145	0xbd00e583	-0.03146888
146	0xbcecd053	-0.02890793
147	0xbd0ac9ed	-0.033883978
148	0x3d30747d	0.043079842
149	0x3ce29e9d	0.027663523
150	0x3d714502	0.0589037
151	0xbdb5fc1b	-0.08885976
152	0xbdd3070f	-0.10304081
153	0x3ce7685d	0.028248006
154	0xbe700a10	-0.23441339
155	0xbd931f94	-0.071837574
156	0x3d4b87d3	0.04969008
157	0x3d99f998	0.07518309
158	0xbd84f617	-0.064922504
159	0xbc74976e	-0.014928682
160	0xbd748a69	-0.05970231
161	0xbe03a28a	-0.12854972
162	0xbcf7ad13	-0.030233895
163	0x3c939423	0.018014973
164	0xbd2b8bb2	-0.04188127
165	0x3d2dd34d	0.04243784
166	0xbd36691a	-0.044533826
167	0x3ce6e96d	0.028187478
168	0x3b859eae	0.004077754
169	0xbced4c29	-0.02896698
170	0xbdb2830f	-0.08716404
171	0xbb6139c9	-0.0034366718
172	0xbe246fc1	-0.16058256
173	0xbd8ed5ad	-0.06974349
174	0x3ddfd11f	0.109285586
175	0x3c7d1502	0.015446903
176	0x3cbbe824	0.022937842
177	0xbd324cdd	-0.043530334
178	0xbd370ae4	-0.04468812
179	0x3e5e7c38	0.21727073
180	0x3c065572	0.008199083
181	0x3d9a6281	0.075383194
182	0xbd1181b7	-0.035524096
183	0x3dccc802	0.09999086
184	0x3d7cd531	0.061726753
185	0x3d6df7a6	0.058097504
186	0x3d57d162	0.052689917
187	0x3cf2b44d	0.02962699
188	0xbd05b82e	-0.03264635
189	0x3dde78da	0.10862894
190	0x3d8c30e9	0.06845266
191	0x3e63e87d	0.22256656
192	0xbd7ce383	-0.06174041
193	0x3d8c3aa1	0.0684712
194	0xbdcb1aae	-0.09917198
195	0x3da4ebe8	0.08052808
196	0x3d891e27	0.06695204
197	0x3d560163	0.052247416
198	0xbe6d3265	-0.23163755
199	0xbced1479	-0.028940426
200	0xbd586dab	-0.052838963
201	0xbe278c06	-0.16362008
202	0x3e4a2fec	0.19744843
203	0x3c18ff78	0.009338252
204	0xbbc6b99e	-0.0060646078
205	0xbd85f45c	-0.065407485
206	0xbb037e8f	-0.0020064448
207	0x3db30a89	0.08742244
208	0x3c15228a	0.009102473
209	0x3ca842c9	0.020539658
210	0x3dad345d	0.08457253
211	0xbd836a0a	-0.0641671
212	0x3db10d56	0.08645122
213	0x3e6027b4	0.21890146
214	0xbd85e2b2	-0.06537379
215	0x3e4f9a9e	0.20273826
216	0xbe01b4ed	-0.12666674
217	0x3db85749	0.09001023
218	0x3c34e3a2	0.0110406
219	0xbe5e9326	-0.2173582
220	0x3d694fcf	0.056960877
221	0xbd358fc0	-0.044326544
222	0xbddcd24d	-0.10782299
223	0xbcbc128b	-0.02295806
224	0x3cb0687a	0.021534193
225	0xbdc9c016	-0.098510906
226	0xbea12fc6	-0.3148176
227	0x3db40ad5	0.087911285
228	0xbd1c85ef	-0.038213667
229	0x3cd029c2	0.025410537
230	0xbe1ecfba	-0.15508929
231	0xbcb7b1ec	-0.022423707
232	0xbe0d78e3	-0.13815646
233	0x3dbb2204	0.09137347
234	0xbb2bf878	-0.0026240628
235	0xbd21d961	-0.03951395
236	0xbe36f714	-0.1786769
237	0xbd104218	-0.035219282
238	0xbd9c6f1f	-0.07638382
239	0xbe23ee24	-0.16008812
240	0xbde409b3	-0.111346625
241	0x3d21b824	0.03948225
242	0x3d3e4feb	0.046462934
243	0xbe341725	-0.17586954
244	0xbd71f1a6	-0.059068345
245	0xbdc12e26	-0.0943263
246	0xbe3119c2	-0.17294982
247	0x3dd7a966	0.10530357
248	0xbdcf75f4	-0.1012992
249	0x3d4fa8e1	0.050698165
250	0xbb9aa015	-0.0047187903
251	0x3bc2c41d	0.0059437887
252	0x3de4203f	0.11138963
253	0x3e175e1a	0.1478199
254	0x3c176e91	0.00924267
255	0x3d027851	0.031853024
