HW9/9_gym-DDPG/results/DDPG_HalfCheetah-v4_3000-eps0.15-t32-l0.0001-s2.pth (torch, 195708 bytes, 13 tensors)

layers.0.weight f4 [128, 23]
-0.008595165 0.19427146 0.03811523 -0.15468965 -0.045717876 0.053725533 -0.035260096 -0.18136178
0.3050226 -0.110409655 -0.13330787 0.052859426 -0.047804445 0.117004275 0.0049706134 0.10694068
0.08132128 -0.10778257 -0.104833245 0.13594095 -0.16439162 -0.00952341 -0.008904405 1.5907443
-0.63504666 0.16925962 0.16327997 -0.15456508 -0.34007317 -0.7602941 -0.8745618 -0.24583474
-0.28564936 0.09513973 0.00022390154 -0.08098866 0.022842167 -0.075888805 -0.010232153 -0.04538204
-0.18811712 -0.13579354 0.20897943 -0.45188048 0.03977295 0.12249039 0.8041338 0.09414428
-0.21504523 0.13869278 0.14320165 0.07943064 0.117764354 -0.054379404 -0.31754437 0.099712506
-0.19090621 0.13466626 0.020629695 0.14205396 0.041845553 -0.13749732 0.059802465 0.19376709
0.0492725 0.05376738 0.124140866 -0.18035954 -0.014994157 -0.4033853 -0.7778505 -0.126599
-0.41875377 0.041403476 0.08339799 0.47980082 0.19225705 0.012286726 0.048140887 -0.12397951
0.14313877 -0.03870973 -0.10404291 -0.026811415 0.14439636 -0.00014525898 -0.102457404 0.007894679
-0.06107719 -0.06542247 0.018168742 -0.12837856 2.0414567 -0.30930704 0.74940413 0.07126056
0.1295966 0.37399837 -0.40789202 -0.44961157 -0.22036317 0.32151654 0.048811484 0.1426552
0.06360519 0.06339494 0.15652312 0.10314719 -0.04445561 0.11131108 0.16012062 -0.05185717
-0.09708138 0.019660383 -0.21681955 0.33511013 -0.64559543 -0.08631909 -0.17134923 0.05760645
0.24582717 0.22133508 0.0023501737 0.08207006 0.124027 -0.1755931 -0.03044462 0.1399149
-0.15988575 -0.14711653 -0.158938 0.052836154 0.051255226 -0.28897035 0.082821175 0.24084221
0.065905966 -0.18656452 0.20943837 -0.6576455 -1.3488498 -0.24291776 0.15206024 -0.1751835
0.32185996 0.19710952 -0.034744754 0.11470677 0.15883555 -0.12510453 0.0663236 -0.015682109
-0.15013178 -0.059775367 -0.030009912 -0.15625232 -0.14706136 -0.071086995 0.20759103 0.06432301
-0.18309493 0.58392113 -0.21515673 -0.170484 0.030612977 0.23004206 -0.023330083 -0.27733645
-0.010931106 0.022124398 -0.109729014 -0.05182478 0.108255915 -0.08339043 -0.07280118 -0.07730979
-0.17135781 0.037410963 0.1729753 0.07063425 -0.08980098 0.012707251 0.22922792 -0.051187243
0.14355502 -0.21955183 -0.11969843 0.16496928 0.037134696 0.058059786 -0.01382926 -0.3293494
0.51476973 0.32791188 -0.07956112 -0.0911922 0.048379634 -0.11047517 0.10401222 0.11382236
-0.038200386 -0.085732825 -0.21141282 -0.08584566 -0.036451492 0.16010454 0.059113625 0.12680022
0.10430786 -0.023282344 -0.32567593 0.0055238027 -0.22506697 -0.023669887 -0.05555569 0.23921295
-0.023000274 -0.10894756 0.016673965 0.10881189 0.038012225 -0.18196824 0.1159208 0.123407036
0.016166976 0.088486284 -0.1199112 0.20770235 0.077188104 -0.017623123 0.58195823 0.21537638
0.35270023 0.053584278 -0.07181058 -0.34403744 -0.18240489 -0.412686 -0.44193092 0.25147521
0.086698964 -0.0027491492 -0.12423674 -0.1732155 0.2413115 0.09184237 0.044779494 0.16662131
-0.03156503 -0.17748164 -0.14886984 -0.05997818 0.0050723716 -0.5975137 -0.08191007 -0.17441057
00000000: bcd2 0cbc 19ef 463e b71e 1c3d f766 1ebe
00000010: ab42 3bbd 4e0f 5c3d e46c 10bd e7b6 39be
00000020: ec2b 9c3e 751e e2bd dc81 08be 2083 583d
00000030: 98ce 43bd f09f ef3d 87e0 a23b b703 db3d
00000040: c58b a63d 1cbd dcbd d0b2 d6bd 1b34 0b3e
00000050: 4756 28be 1408 1cbc c8e3 11bc 829d cb3f
00000060: 6b92 22bf 6552 2d3e dd32 273e 4f46 1ebe
00000070: 121e aebe a2a2 42bf 48e3 5fbf 1abc 7bbe
00000080: a240 92be 9ed8 c23d 1dc7 6a39 62dd a5bd
00000090: 7f1f bb3c 976b 9bbd c3a4 27bc 85e2 39bd
000000a0: c6a1 40be 760d 0bbe b4fe 553e e15c e7be
000000b0: f6e8 223d 3edc fa3d b6db 4d3f b7ce c03d
000000c0: d134 5cbe 7b05 0e3e 74a3 123e 88ac a23d
000000d0: 702e f13d f0bc 5ebd 2d95 a2be 1236 cc3d
000000e0: eb7c 43be f4e5 093e 9bff a83c 9876 113e
000000f0: 3e66 2b3d 19cc 0cbe 6ef3 743d e16a 463e
00000100: f6d1 493d 2f3b 5c3d 913d fe3d 2cb0 38be
00000110: 0daa 75bc 8588 cebe 3621 47bf 2ba3 01be
00000120: e566 d6be b196 293d 91cc aa3d 74a8 f53e
00000130: 08df 443e 444e 493c 612f 453d f8e8 fdbd
00000140: f892 123e 188e 1ebd 7314 d5bd 9da3 dbbc
00000150: a4dc 133e a950 18b9 30d5 d1bd af58 013c
00000160: 132c 7abd 37fc 85bd 9dd6 943c ab75 03be
00000170: 3aa7 0240 7e5d 9ebe f3d8 3f3f 0ef1 913d
00000180: f9b4 043e b77c bf3e 39d7 d0be 7d33 e6be
00000190: e2a6 61be d19d a43e 8dee 473d 3414 123e
000001a0: 7043 823d 35d5 813d 9947 203e d53e d33d
000001b0: 1617 36bd 10f7 e33d a9f6 233e 2f68 54bd
000001c0: 9ad2 c6bd d00e a13c f205 5ebe 8e93 ab3e
000001d0: be45 25bf 10c8 b0bd 2c76 2fbe bef4 6b3d
000001e0: 1eba 7b3e aaa5 623e 5f05 1a3b 5914 a83d
000001f0: de01 fe3d adce 33be ff66 f9bc da45 0f3e
00000200: 17b9 23be b7a5 16be a5c0 22be b96a 583d
00000210: 00f1 513d ecf3 93be 269e a93d 579f 763e
00000220: b5f9 863d c50a 3fbe 0377 563e 755b 28bf
00000230: 1ca7 acbf 6fbf 78be aeb5 1b3e 4e63 33be
00000240: d4ca a43e 14d7 493e 8450 0ebd 62eb ea3d
00000250: c9a5 223e 671b 00be abd4 873d c477 80bc
00000260: 25bc 19be 04d7 74bd 59d7 f5bc 9c00 20be
00000270: 4197 16be 0f96 91bd be92 543e c8bb 833d
00000280: 3d7d 3bbe db7b 153f 0c52 5cbe 5c93 2ebe
00000290: 11c8 fa3c 2590 6b3e bb1e bfbc 0bff 8dbe
000002a0: 6218 33bc 3a3e b53c 9bb9 e0bd 3846 54bd
000002b0: 47b5 dd3d 9ac8 aabd c918 95bd 9854 9ebd
000002c0: 6c78 2fbe 3d3c 193d 7020 313e b1a8 903d
000002d0: 94e9 b7bd 1332 503c b9ba 6a3e b7a9 51bd
000002e0: 1600 133e 32d2 60be 7324 f5bd b5ed 283e
000002f0: 8d1a 183d 19d0 6d3d 1f94 62bc 7ca0 a8be
00000300: f3c7 033f 11e4 a73e f1f0 a2bd fac2 babd
00000310: b929 463d ce40 e2bd 5c04 d53d b31b e93d
00000320: 0278 1cbd b194 afbd 9a7c 58be d9cf afbd
00000330: 294e 15bd 72f2 233e 2121 723d ebd7 013e
00000340: 5c9f d53d 9dba bebc ffbe a6be 0401 b53b
00000350: f577 66be 5ae7 c1bc 5d8e 63bd 3df4 743e
00000360: 126b bcbc e61f dfbd d797 883c c5d8 de3d
00000370: b5b2 1b3d e255 3abe e267 ed3d d4bc fc3d
00000380: 9b70 843c 4c38 b53d 0194 f5bd edaf 543e
00000390: cc14 9e3d 5e5e 90bc 37fb 143f a08b 5c3e
000003a0: 2095 b43e 307b 5b3d 6d11 93bd ad25 b0be
000003b0: 59c8 3abe 944b d3be c544 e2be 5cc1 803e
000003c0: 3a8f b13d 122b 34bb d56f febd 675f 31be
000003d0: 5d1a 773e da17 bc3d b46a 373d c79e 2a3e
000003e0: 554a 01bd bfbd 35be 5671 18be aeab 75bd
000003f0: 2336 a63b a8f6 18bf 77c0 a7bd af98 32be

layers.0.bias f4 [128]
-0.04997405 0.17437875 -0.05402505 0.120137125 0.22401062 0.43281677 0.052256882 0.19619788
0.25399065 0.1726271 -0.028280193 0.12466964 0.20186271 -0.1541609 -0.22408117 -0.15358697
-0.044305883 0.36986214 0.3526364 -0.0108170435 0.38881266 0.2842787 0.2609023 -0.191035
0.357159 -0.047107905 -0.1268604 0.45234096 0.34006912 0.251685 0.44745794 -0.48070836
0.18830305 -0.33543476 -0.08564181 -0.42294624 -0.05628816 0.104281135 -0.36355516 0.20918097
0.35558513 0.1992133 0.09846689 0.48291194 -0.22811328 0.5994986 0.115419775 -0.15220083
-0.033487573 0.13093586 0.113223515 -0.116393074 0.012907883 0.69816464 -0.1888207 0.22527611
-0.00045688302 -0.031514082 -0.17931056 -0.07637143 0.087234356 0.20206401 0.29644024 -0.029881231
-0.1969354 0.062054742 -0.19533241 -0.121026665 -0.30852336 0.35176522 0.3515999 -0.082568355
-0.31433424 -0.27332208 -0.3041252 -0.098427355 -0.26798624 -0.13033992 0.344119 -0.04093624
-0.03230255 -0.14253785 -0.05866624 -0.20767616 -0.2517122 -0.07251559 -0.16782632 0.3453533
0.155732 0.13424432 -0.0684717 0.4668326 0.4369747 0.10964622 0.5291845 -0.19662176
-0.17327072 -0.2787374 0.120117866 0.4385687 -0.15733746 0.512529 -0.009737947 -0.01532228
-0.09667941 -0.37579313 -0.016318554 0.44277483 0.6380328 0.05531584 0.10904415 0.21867248
0.27169412 0.37441868 0.5100396 0.115928866 0.51112264 0.10302518 0.36843792 -0.052831594
0.0635524 0.056417257 -0.35796484 0.54558665 -0.34970462 0.16093257 -0.28277576 -0.31982622
00000000: 97b1 4cbd 5890 323e 5f49 5dbd 740a f63d
00000010: 0a63 653e 299a dd3e 500b 563d 19e8 483e
00000020: 100b 823e 29c5 303e ddab e7bc cc52 ff3d
00000030: 19b5 4e3e 5bdc 1dbe 8975 65be e745 1dbe
00000040: 167a 35bd 925e bd3e c28c b43e f839 31bc
00000050: 7412 c73e fa8c 913e fc94 853e ae9e 43be
00000060: 8bdd b63e 38f4 40bd b1e7 01be 3c99 e73e
00000070: 8a1d ae3e dbdc 803e 3519 e53e 681f f6be
00000080: 84d2 403e 1bbe abbe f964 afbd 698c d8be
00000090: 6a8e 66bd 5991 d53d e723 babe 8933 563e
000000a0: 410f b63e 92fe 4b3e 02a9 c93d 3c40 f73e
000000b0: 8796 69be be78 193f 3461 ec3d 89da 1bbe
000000c0: 442a 09bd 0d14 063e bbe1 e73d 7e5f eebd
000000d0: 967b 533c ebba 323f 375a 41be c8ae 663e
000000e0: cd89 efb9 e914 01bd 309d 37be a068 9cbd
000000f0: eda7 b23d dee9 4e3e 04c7 973e 7cc9 f4bc
00000100: 6fa9 49be 1d2d 7e3d 3805 48be d4dc f7bd
00000110: c6f6 9dbe 921a b43e e704 b43e 9919 a9bd
00000120: 6bf0 a0be dff0 8bbe 4cb6 9bbe 4894 c9bd
00000130: 7e35 89be d477 05be 5e30 b03e c2ac 27bd
00000140: ae4f 04bd 71f5 11be 034c 70bd 0fa9 54be
00000150: 6ce0 80be 0e83 94bd aada 2bbe 26d2 b03e
00000160: 3678 1f3e 5877 093e e43a 8cbd af04 ef3e
00000170: 26bb df3e 338e e03d a378 073f 3757 49be
00000180: e16d 31be abb6 8ebe 5b00 f63d 148c e03e
00000190: 121d 21be 1a35 033f e98b 1fbc 4d0a 7bbc
000001a0: dbff c5bd f567 c0be 7dae 85bc 62b3 e23e
000001b0: 1e56 233f dd92 623d 8a52 df3d aeeb 5f3e
000001c0: 7e1b 8b3e ceb3 bf3e f591 023f 1d6c ed3d
000001d0: efd8 023f defe d23d e5a3 bc3e f165 58bd
000001e0: c327 823d c815 673d 2b47 b7be 91ab 0b3f
000001f0: 7c0c b3be 82cb 243e fcc7 90be 43c0 a3be

layers.1.weight f4 [128, 128]
-0.034213096 0.05536685 -0.082749985 -0.032976165 -0.011036224 0.0225184 0.042232446 -0.057089075
0.02205111 0.007863316 0.022795461 0.0018855772 0.04652697 0.117250524 0.12237312 0.039475095
0.05909961 0.03759148 0.032104596 0.06077634 -0.03938201 -0.079524994 0.01861458 0.04651215
-0.06691794 0.0034485387 0.10077779 0.0147111965 -0.066210285 -0.123851806 -0.04895991 -0.04673906
0.007425634 0.046347227 0.031945422 0.0796042 0.08727479 -0.072993085 0.021599526 -0.026319709
0.01846068 0.026186738 0.04665831 -0.015427278 0.08428714 -0.017220987 -0.0061692228 -0.020536836
-0.014729686 0.021788236 0.012536555 0.038535655 0.057589952 -0.0131476 0.08943321 -0.04101634
-0.007151175 0.052208036 0.07845837 0.03086425 0.025371334 0.060909595 0.113271974 -0.07319431
-0.064318866 0.024079975 -0.0075334464 -0.035628773 -0.04252107 0.01945095 -0.013861833 0.027122894
0.06419364 -0.062901214 -0.01656627 0.04406445 0.074485764 0.007092172 0.020792915 0.0721643
0.048672903 -0.008862008 0.015348206 -0.05205668 -0.0059389914 0.03991923 -0.006421492 -0.06794807
0.08185914 -0.01580088 -0.044800524 -0.039922874 -0.054391373 -0.059118953 -0.051864043 0.06560516
0.13867244 0.27030817 -0.030569894 0.0024069522 -0.051090606 0.018501142 -0.05261173 -0.038121644
-0.010230426 0.093469284 -0.011890328 -0.019545598 0.018778883 0.06504365 -0.042821024 0.029061418
0.13822556 0.05781083 0.07826252 0.035395723 0.06015086 -0.15409058 -0.059432272 0.024806395
0.030318929 0.016118424 0.09717725 0.020859927 -0.020349823 0.0069928775 -0.036180194 0.029792443
-0.03749192 -0.23992336 0.031335175 0.08841191 0.043803237 0.05439373 0.005213433 0.08232114
0.03392553 0.04176992 -0.038123846 -0.06944253 -0.028547512 0.016932882 -0.00223899 -0.03656674
0.07313356 -0.043125276 -0.020785399 0.036649488 0.108911425 0.021800406 -0.047212485 0.013848516
0.06547953 -0.07457677 0.052794855 0.052856285 -0.03205233 -0.09690715 -0.07692365 -0.049411558
0.03512556 -0.09656396 -0.002318688 -0.07849994 0.039789714 0.04626254 0.048677415 0.07490016
0.13296843 0.03149681 0.09576361 -0.049307816 0.005359871 0.08662942 -0.04028694 -0.08221001
0.09010364 0.079564795 -0.06404185 -0.053967286 -0.16441785 0.05236985 -0.0781854 -0.042474885
0.09569398 0.079977676 0.060725074 -0.017803699 -0.04582415 0.0905104 0.059905443 0.022298805
0.04121482 -0.025607329 -0.03512146 0.02649528 0.016824797 0.085830174 -0.013386747 0.04061138
0.018519798 -0.060916934 0.050822858 -0.01876428 0.06956262 -0.089416735 -0.03383746 -0.018308865
-0.014283784 -0.027792355 0.060281944 -0.029008735 -0.10494448 0.08500525 -0.061748587 -0.009383438
-0.0012244214 0.020609884 -0.019385228 0.042755004 0.01690689 -0.06411272 0.058604777 -0.059171326
-0.08772011 -0.18643507 -0.052112885 0.08024399 0.011555587 0.019003727 0.031984586 0.07686035
0.03799414 -0.03412997 -0.057527523 -0.13146996 0.03671947 -0.021600343 -0.0484958 0.05477984
-0.07673488 0.039177362 -0.0017734148 -0.06258936 0.08435124 -0.0976344 0.0035921005 0.047932338
-0.005212454 0.099774055 -0.02034918 -0.11390038 -0.004104432 -0.1081482 -0.03254503 -0.041012593
00000000: 0823 0cbd 5ac8 623d d378 a9bd 0412 07bd
00000010: 47d1 34bc 8278 b83c eefb 2c3d 3cd6 69bd
00000020: 88a4 b43c 23d5 003c 8cbd ba3c 7925 f73a
00000030: 1093 3e3d 0b21 f03d c29e fa3d a3b0 213d
00000040: 6f12 723d 86f9 193d 1c80 033d 9df0 783d
00000050: 084f 21bd 00de a2bd 9b7d 983c 8683 3e3d
00000060: 460c 89bd e100 623b 9664 ce3d 3b07 713c
00000070: 4299 87bd 04a6 fdbd 308a 48bd 7571 3fbd
00000080: bc52 f33b 97d6 3d3d 34d9 023d 8707 a33d
00000090: 20bd b23d 667d 95bd 7df1 b03c 6e9c d7bc
000000a0: da3a 973c 9285 d63c c91c 3f3d b2c2 7cbc
000000b0: bc9e ac3d 0713 8dbc 3127 cabb de3c a8bc
000000c0: c854 71bc 3e7d b23c 1f66 4d3c 90d7 1d3d
000000d0: 71e3 6b3d 0869 57bc c228 b73d c000 28bd
000000e0: 6754 eabb 18d8 553d c8ae a03d 06d7 fc3c
000000f0: 8bd7 cf3c 577c 793d 23fb e73d e6e6 95bd
00000100: 9cb9 83bd 5e43 c53c 21db f6bb 7aef 11bd
00000110: 932a 2ebd 9957 9f3c be1c 63bc d530 de3c
00000120: f577 833d 5ad2 80bd fcb5 87bc ed7c 343d
00000130: fe8b 983d 7365 e83b e755 aa3c e0ca 933d
00000140: 3d5d 473d f531 11bc 0b77 7b3c 6339 55bd
00000150: df9b c2bb 5982 233d 616b d2bb 5c28 8bbd
00000160: c4a5 a73d d970 81bc c180 37bd 2b86 23bd
00000170: 7dc9 5ebd b726 72bd 646f 54bd 005c 863d
00000180: 2600 0e3e d565 8a3e b76d fabc f5bd 1d3b
00000190: 6244 51bd b58f 973c 667f 57bd 7125 1cbd
000001a0: 849d 27bc d36c bf3d a6cf 42bc 171e a0bc
000001b0: 2cd6 993c 9b35 853d 1965 2fbd 3612 ee3c
000001c0: 008b 0d3e 0dcb 6c3d 1a48 a03d 1bfb 103d
000001d0: c060 763d ecc9 1dbe 416f 73bd c836 cb3c
000001e0: 675f f83c c90a 843c de04 c73d 70e2 aa3c
000001f0: acb4 a6bc 8224 e53b af31 14bd 480f f43c
00000200: 2191 19bd 78ae 75be 5059 003d 4e11 b53d
00000210: 066b 333d f6cb 5e3d 72d5 aa3b fc97 a83d
00000220: 7ff5 0a3d f016 2b3d c027 1cbd e337 8ebd
00000230: 79dc e9bc d4b6 8a3c 05bc 12bb 02c7 15bd
00000240: 0cc7 953d 21a4 30bd 2446 aabc c61d 163d
00000250: f40c df3d c496 b23c e161 41bd e3e4 623c
00000260: 221a 863d b5bb 98bd 6b3f 583d d57f 583d
00000270: 4e49 03bd 4177 c6bd 268a 9dbd c663 4abd
00000280: d2df 0f3d 53c3 c5bd 21f5 17bb 94c4 a0bd
00000290: 8afa 223d ca7d 3d3d f861 473d 4165 993d
000002a0: e028 083e cd02 013d b61f c43d fef6 49bd
000002b0: dba1 af3b c46a b13d eb03 25bd b95d a8bd
000002c0: 4288 b83d def2 a23d 6028 83bd cd0c 5dbd
000002d0: 275d 28be c581 563d ab1f a0bd 25fa 2dbd
000002e0: 35fb c33d 56cb a33d dbba 783d 10d9 91bc
000002f0: 1bb2 3bbd 845d b93d 695f 753d fcab b63c
00000300: dfd0 283d 76c6 d1bc 85db 0fbd a10c d93c
00000310: 28d4 893c bbc7 af3d 1654 5bbc 1e58 263d
00000320: d5b6 973c 0984 79bd a12b 503d 8cb7 99bc
00000330: d976 8e3d 1f20 b7bd 2699 0abd 79fc 95bc
00000340: 8806 6abc cbac e3bc 33ea 763d baa3 edbc
00000350: 22ed d6bd 3c17 ae3d 16ec 7cbd febc 19bc
00000360: c47c a0ba 0fd6 a83c c5cd 9ebc df1f 2f3d
00000370: 5180 8a3c 884d 83bd 900b 703d a25d 72bd
00000380: 9aa6 b3bd d6e8 3ebe 5274 55bd f656 a43d
00000390: a553 3d3c b4ad 9b3c 4502 033d f668 9d3d
000003a0: be9f 1b3d decb 0bbd fba1 6bbd 10a0 06be
000003b0: 2867 163d 34f3 b0bc 88a3 46bd d360 603d
000003c0: 2d27 9dbd 7178 203d ed71 e8ba da2e 80bd
000003d0: 58c0 ac3d 8bf4 c7bd 7269 6b3b b354 443d
000003e0: 3ccd aabb 5756 cc3d 53b3 a6bc 9a44 e9bd
000003f0: 797e 86bb ce7c ddbd f04d 05bd d2fc 27bd

layers.1.bias f4 [128]
-0.26291072 0.24226943 -0.19249098 -0.16384424 0.3195316 0.1314982 0.001636392 0.3119613
0.48983878 -0.29357237 -0.22105174 -0.18814477 0.27378717 0.14122723 -0.204202 0.12764561
-0.22157484 -0.24116062 0.23548111 -0.21367425 0.36605996 0.1436775 -0.097971074 -0.11947784
0.2349188 0.32037506 0.006583353 0.42991504 0.13651077 -0.00027465596 0.006528768 -0.0068658185
0.34406155 -0.35397846 -0.2159954 0.2947901 -0.1315531 0.013253995 0.25086784 -0.27761796
0.1647451 -0.30765942 0.29789564 0.31263402 0.3616577 0.35383996 -0.2123592 -0.2154545
-0.06439015 0.024984967 0.22431733 -0.30143237 0.3389086 -0.30890003 0.29685014 -0.28366137
0.27488792 -0.11111048 -0.13080104 0.031903222 -0.2083152 -0.22179839 -0.24759816 0.23352928
0.33220395 0.027543461 0.38166094 -0.2508474 0.0069362517 0.16168562 0.16573772 0.062010318
0.28057638 0.16975184 0.09473974 0.047621254 -0.035323244 -0.21868074 -0.2459786 -0.22585481
0.035486363 0.26217836 0.3818307 0.26890302 0.17929028 0.35636863 -0.18792737 -0.28727132
0.23306745 -0.024726743 -0.16959369 0.40396634 0.13020763 -0.17243943 -0.21593475 -0.12494124
0.3709805 -0.08078234 -0.03769614 -0.21921693 -0.22090289 0.32649982 0.2792248 0.37040788
-0.27190533 0.27927592 0.386232 0.18176313 0.42880028 0.2366939 -0.23323381 -0.12919812
-0.11542949 0.44994178 -0.16323009 -0.22228695 -0.1760048 -0.21935385 0.04090998 -0.28814018
-0.30629808 -0.29477975 -0.25057143 0.45328948 0.0068993918 -0.21878827 -0.112668246 -0.23071449
00000000: 3c9c 86be 7a15 783e 5b1c 45be c9c6 27be
00000010: a599 a33e 77a7 063e 347c d63a 64b9 9f3e
00000020: 26cc fa3e 1e4f 96be 635b 62be 06a9 40be
00000030: d52d 8c3e df9d 103e 541a 51be 88b5 023e
00000040: 84e4 62be cff2 76be f621 713e 6ccd 5abe
00000050: 366c bb3e 3220 133e 0fa5 c8bd ccb0 f4bd
00000060: 8e8e 703e 3308 a43e 2bb9 d73b d31d dc3e
00000070: 7bc9 0b3e b3ff 8fb9 47ef d53b a9fa e0bb
00000080: d628 b03e aa3c b5be e62d 5dbe baee 963e
00000090: dbb5 06be 4927 593c c071 803e f123 8ebe
000000a0: f1b2 283e 8985 9dbe c785 983e 9111 a03e
000000b0: 332b b93e 832a b53e b174 59be 1ba0 5cbe
000000c0: fcde 83bd 46ad cc3c 71b3 653e 5855 9abe
000000d0: 6e85 ad3e 2528 9ebe befc 973e 103c 91be
000000e0: 1cbe 8c3e e48d e3bd b5f0 05be f4ac 023d
000000f0: 9450 55be 1e1f 63be 5f8a 7dbe 4d22 6f3e
00000100: a316 aa3e d3a2 e13c 1069 c33e 126f 80be
00000110: 7f49 e33b ea90 253e 26b7 293e 88fe 7d3d
00000120: b5a7 8f3e 6dd3 2d3e e906 c23d 810e 433d
00000130: 1baf 10bd d8ed 5fbe d0e1 7bbe 7c46 67be
00000140: 265a 113d 3e3c 863e 507f c33e a8ad 893e
00000150: df97 373e f375 b63e 0870 40be 3a15 93be
00000160: 3ca9 6e3e bd8f cabc f8a9 2dbe add4 ce3e
00000170: 2655 053e f693 30be 001e 5dbe 31e1 ffbd
00000180: 28f1 bd3e 3671 a5bd 4567 1abd 677a 60be
00000190: 5e34 62be fc2a a73e 8ef6 8e3e 1aa6 bd3e
000001a0: 2d37 8bbe 41fd 8e3e 33c0 c53e 1d20 3a3e
000001b0: b68b db3e e35f 723e d8d4 6ebe 834c 04be
000001c0: 4c66 ecbd c55e e63e ca25 27be 319f 63be
000001d0: 9a3a 34be 4c9e 60be 3991 273d 1c87 93be
000001e0: 1ad3 9cbe 5fed 96be e64a 80be 8f15 e83e
000001f0: 4b14 e23b 080a 60be 9cbe e6bd 6b40 6cbe

layers.2.weight f4 [64, 128]
-0.22643715 0.03264204 -0.7872928 0.021879397 0.00870801 0.16886897 0.16515575 0.10485272
0.0950669 -0.99112874 -0.27044 -0.022636702 -0.00095931377 0.0018166681 -0.035758052 0.2837379
-0.15543681 -0.04228855 -0.097167395 -0.13046658 0.020174513 -0.089216046 -0.09982963 -0.18425165
-0.19887163 -0.024833905 -0.31574225 0.4491975 0.043950178 -0.33780476 -0.09554304 0.07259451
0.086353995 0.00016860898 0.02431953 0.13523644 -0.14458932 0.2718143 0.107121006 -0.5915396
0.11434351 -0.4419113 -0.0770782 0.18464816 0.07747146 0.04323907 -0.05611661 0.093957275
-0.03240405 0.00032560367 0.2561596 -0.0068009216 0.04361318 -0.3203789 0.05985018 -0.08481916
-0.019472534 0.10580959 -0.0029928188 -0.07900282 -0.06854401 -0.050244797 -0.07716993 0.19348802
0.026700607 0.16936852 0.06837199 -0.9574957 0.106977515 -0.05738199 0.15325435 -0.3821695
0.11998902 -0.07215268 0.1635294 0.070368186 0.057202592 -0.5036719 -0.10805271 -0.014451234
0.11338901 0.08864193 0.12979624 -0.07211484 0.3505557 0.10946338 0.21215226 -0.0557156
0.05939668 -0.18195367 -0.10559216 0.09073594 -0.108791985 -0.0802537 0.03344247 0.0033059497
7.8764126e-05 -0.10390142 0.0149382055 -0.025557363 -0.15442194 0.022632333 0.010048169 0.05155251
-0.005620563 -0.009507136 -0.0793805 0.10054654 -0.037534658 0.044554856 -0.070441715 0.11307662
0.015592625 0.025039546 -0.07490422 -0.018901236 0.033215635 0.089917704 0.21035323 -0.111492164
0.057586934 -0.8832327 -0.109806 0.016554136 0.020581253 0.007965735 -0.024802081 0.08418652
-0.035321396 0.072296314 -0.23622255 -0.026092453 0.1025934 0.043753844 0.024664378 0.13812426
0.10973087 -0.1825947 -0.0131588755 0.015343744 0.011981439 0.11780736 -0.03333101 0.2715018
-0.016427146 -0.029925458 0.023365302 -0.02176585 0.05205638 0.1307096 -0.05803446 -0.12229084
0.042812295 -0.01855489 -0.20726068 0.3354922 0.14930683 -0.24442837 0.01697431 0.10540228
0.014667576 -0.12865262 -0.07296467 -0.005281962 -0.26222825 0.16452187 0.11843475 -0.17091353
0.06540375 -0.37262586 -0.03951756 0.20511156 0.073596746 0.113345765 0.024605267 -0.06934995
-0.086461045 -0.074031204 0.11356622 -0.0053232117 0.11712196 -0.053192556 0.017052831 -0.035070926
0.094703175 -0.11797869 -0.14176375 -0.19635642 -0.02585396 -0.03811875 -0.041570228 0.23220879
0.005676036 0.07643929 0.0373825 -0.12491636 -0.033277113 0.04647515 0.08907648 -0.33044413
0.18801476 0.061228283 0.0059170304 -0.011232363 -0.020703115 -0.027461115 -0.45018524 -0.10861645
0.0748741 0.10517783 0.10488642 -0.013022832 0.25928178 0.1666289 -0.11220507 -0.0064605116
0.073049724 -0.22157344 0.002135521 -0.041424844 0.10359737 -0.011566185 -0.22606902 -0.11600564
0.087034196 -0.104656234 -0.052161377 -0.11917058 0.00095953356 0.059790038 0.13867077 0.059123438
-0.29651162 0.021012243 -0.01764954 0.033850014 -0.020344958 0.12767252 -0.09743316 -0.04574237
-0.030812178 0.06272979 -0.19323902 -0.10745697 -0.008759393 0.00035083888 0.19071904 0.08696599
-0.022774085 -0.30631217 0.08665657 0.103216924 -0.17880073 0.03787648 -0.010210531 -0.11379435
00000000: 24df 67be a9b3 053d 058c 49bf 6c3c b33c
00000010: 0bac 0e3c fdeb 2c3e 971e 293e 06bd d63d
00000020: 6fb2 c23d 9dba 7dbf 1d77 8abe 9b70 b9bc
00000030: 757a 7bba 441d ee3a 0977 12bd 1846 913e
00000040: d42a 1fbe c236 2dbd b3ff c6bd 0899 05be
00000050: 0545 a53c e7b6 b6bd 7a73 ccbd 77ac 3cbe
00000060: 01a5 4bbe 7970 cbbc f8a8 a1be 37fd e53e
00000070: 1a05 343d bff4 acbe 12ac c3bd 6eac 943d
00000080: 5dda b03d a1cc 3039 c039 c73c 6c7b 0a3e
00000090: 390f 14be 3e2b 8b3e 4262 db3d 246f 17bf
000000a0: ee2c ea3d 3342 e2be 2ddb 9dbd 6814 3d3e
000000b0: 5ba9 9e3d 731b 313d 88da 65bd ac6c c03d
000000c0: 1cba 04bd c9b5 aa39 5a27 833e 44da debb
000000d0: bca3 323d b408 a4be 7625 753d abb5 adbd
000000e0: dd84 9fbc b3b2 d83d 2b23 44bb 3bcc a1bd
000000f0: cd60 8cbd 7dcd 4dbd 450b 9ebd b921 463e
00000100: 3bbb da3c f16e 2d3e 9d06 8c3d 701e 75bf
00000110: 0717 db3d 6109 6bbd b5ee 1c3e b9ab c3be
00000120: cebc f53d c9c4 93bd 4074 273e 321d 903d
00000130: 444d 6a3d a4f0 00bf bd4a ddbd dec4 6cbc
00000140: 7f38 e83d e689 b53d 4ee9 043e f2b0 93bd
00000150: 097c b33e 562e e03d 713e 593e 0a36 64bd
00000160: ef49 733d 1052 3abe b440 d8bd c4d3 b93d
00000170: 55ce debd 0d5c a4bd f9fa 083d a2a8 583b
00000180: 2b2e a538 45ca d4bd 60bf 743c ad5d d1bc
00000190: c920 1ebe 7167 b93c 13a1 243c ba28 533d
000001a0: b32c b8bb d2c3 1bbc 3e92 a2bd 58eb cd3d
000001b0: f1bd 19bd 277f 363d bf43 90bd b794 e73d
000001c0: 3678 7f3c bc1f cd3c 6267 99bd c4d6 9abc
000001d0: 1e0d 083d c626 b83d d666 573e 0156 e4bd
000001e0: 47e0 6b3d 8a1b 62bf f8e1 e0bd 8a9c 873c
000001f0: 049a a83c b782 023c bc2d cbbc fb69 ac3d
00000200: 2bad 10bd 1710 943d 53e4 71be d7bf d5bc
00000210: 7d1c d23d 3b37 333d f30c ca3c 7270 0d3e
00000220: 94ba e03d 1bfa 3abe 5398 57bc 5464 7b3c
00000230: cc4d 443c fc44 f13d 1986 08bd 4902 8b3e
00000240: 3992 86bc 3c26 f5bc 9768 bf3c 4c4e b2bc
00000250: 1239 553d bdd8 053e 8bb5 6dbd 9f73 fabd
00000260: f25b 2f3d 6d00 98bc 253c 54be a2c5 ab3e
00000270: e4e3 183e 6e4b 7abe b50d 8b3c 27dd d73d
00000280: 4650 703c 83bd 03be 806e 95bd 4f14 adbb
00000290: c842 86be 6c78 283e eb8d f23d f503 2fbe
000002a0: 67f2 853d d1c8 bebe 2add 21bd c408 523e
000002b0: e4b9 963d d321 e83d fc90 c93c 5907 8ebd
000002c0: 7d12 b1bd ac9d 97bd 6895 e83d 566e aebb
000002d0: a3dd ef3d 70e0 59bd 61b2 8b3c 88a6 0fbd
000002e0: bdf3 c13d d09e f1bd 842a 11be a811 49be
000002f0: afcb d3bc 6822 1cbd 8b45 2abd 24c8 6d3e
00000300: 0afe b93b 348c 9c3d 641e 193d 26d4 ffbd
00000310: 954d 08bd ba5c 3e3d bb6d b63d f92f a9be
00000320: f186 403e 82ca 7a3d a6e3 c13b f207 38bc
00000330: 9499 a9bc 22f6 e0bc ae7e e6be 4d72 debd
00000340: 9857 993d 7967 d73d b1ce d63d b75d 55bc
00000350: 95c0 843e c4a0 2a3e c6cb e5bd b3b2 d3bb
00000360: 189b 953d 26e4 62be 19f4 0b3b 19ad 29bd
00000370: dc2a d43d 1980 3dbc a37e 67be 5d94 edbd
00000380: fc3e b23d 0256 d6bd 2ba7 55bd b40f f4bd
00000390: 3589 7b3a 66e6 743d b6ff 0d3e 6b2b 723d
000003a0: 5fd0 97be de21 ac3c c595 90bc 50a6 0a3d
000003b0: 78aa a6bc 96bc 023e 098b c7bd 5a5c 3bbd
000003c0: d269 fcbc 7a78 803d 73e0 45be 6612 dcbd
000003d0: 8f83 0fbc ccf0 b739 da4b 433e 3a1b b23d
000003e0: b890 babc f3d4 9cbe 0079 b13d 6563 d33d
000003f0: 8a17 37be 5e24 1b3d 124a 27bc 030d e9bd

layers.2.bias f4 [64]
0.10049531 0.27810422 0.2255974 -0.18767236 -0.22461805 -0.25221378 -0.23065162 0.3549977
-0.203891 0.3164814 -0.15365613 -0.19619706 -0.2846025 0.094832756 -0.22171973 0.18887527
-0.11263842 0.3211998 0.37076712 0.3993139 -0.14355582 0.27664202 -0.17971042 0.004152574
-0.17631629 0.23962922 -0.14575125 -0.1846076 0.30920073 -0.23226672 -0.18469507 -0.15797693
0.45418012 0.21504147 0.3940189 -0.25002092 -0.14729813 -0.1637221 0.22496134 0.3930476
0.33662015 0.3857076 0.017829705 -0.2512394 -0.17379463 -0.019178007 -0.07292464 0.2880156
-0.17228144 0.38136363 -0.19374904 -0.0054228315 -0.23054849 -0.0779487 -0.2647552 -0.24866922
0.36772367 -0.28666416 -0.14837572 -0.28585693 0.38515258 -0.09428248 -0.20294723 -0.19755697
00000000: 7cd0 cd3d ad63 8e3e 0103 673e 2f2d 40be
00000010: 4602 66be 2a22 81be f02f 6cbe 42c2 b53e
00000020: cdc8 50be da09 a23e 0858 1dbe e2e7 48be
00000030: 6bb7 91be ad37 c23d 7f0a 63be 8568 413e
00000040: f9ae e6bd 4d74 a43e 30d5 bd3e df72 cc3e
00000050: 4c00 13be 06a4 8d3e 0206 38be 5112 883b
00000060: 428c 34be 5d61 753e d13f 15be c609 3dbe
00000070: 8f4f 9e3e 54d7 6dbe b420 3dbe b4c4 21be
00000080: 4c8a e83e d533 5c3e d8bc c93e be02 80be
00000090: 52d5 16be c4a6 27be 445c 663e 893d c93e
000000a0: 7a59 ac3e 777b c53e 9a0f 923c 73a2 80be
000000b0: 38f7 31be 321b 9dbc 8359 95bd c876 933e
000000c0: 8c6a 30be 1842 c33e 2666 46be 02b2 b1bb
000000d0: e714 6cbe 91a3 9fbd fe8d 87be 25a3 7ebe
000000e0: 4746 bc3e a5c5 92be ceef 17be d75b 92be
000000f0: b832 c53e 2c17 c1bd 66d1 4fbe 604c 4abe

readout.weight f4 [1, 64]
0.6232001 0.25851792 0.29835734 -0.29076424 -0.22775844 -0.3538304 -0.15389408 0.2318886
-0.34656587 0.26674297 -0.23869504 -0.2723261 -0.3509211 0.38815325 -0.2697365 0.1955674
-0.45529598 0.31465173 0.27935165 0.25383556 -0.2177299 0.2001546 -0.20000292 0.3512638
-0.14520384 0.38131127 -0.2259753 -0.20887482 0.39387646 -0.15788786 -0.16769403 -0.24295491
0.533254 0.19563705 0.23625185 -0.4568661 -0.24417506 -0.16606377 0.16988182 0.34440503
0.28321007 0.30791357 0.69245815 -0.32476348 -0.1816821 0.061700642 0.031863853 0.19961795
-0.22819793 0.23157464 -0.15522522 0.2933566 -0.28218442 0.101005256 -0.2080805 -0.28979746
0.35020393 -0.22447209 -0.19071229 -0.21802257 0.31446964 -0.20366496 -0.24692805 -0.20851676
00000000: 0b8a 1f3f 765c 843e 4bc2 983e 0ddf 94be
00000010: 8239 69be 4229 b5be 6996 1dbe 3574 6d3e
00000020: 1571 b1be 8992 883e 796c 74be 546e 8bbe
00000030: eeab b3be 06bc c63e e71a 8abe d242 483e
00000040: 8e1c e9be 081a a13e 2e07 8f3e bcf6 813e
00000050: 96f4 5ebe 54f5 4c3e 91cd 4cbe d9d8 b33e
00000060: 51b0 14be 3b3b c33e 1266 67be 48e3 55be
00000070: 2daa c93e 5bad 21be fcb7 2bbe 2cc9 78be
00000080: 5683 083f 1455 483e 01ec 713e 5aea e9be
00000090: 0709 7abe 9f0c 2abe 80f5 2d3e db55 b03e
000000a0: e900 913e d9a6 9d3e f044 313f 6647 a6be
000000b0: df0a 3abe d0b9 7c3d ac83 023d a668 4c3e
000000c0: b8ac 69be e721 6d3e 5cf3 1ebe d632 963e
000000d0: 7a7a 90be d8db ce3d 0e13 55be 5560 94be
000000e0: ee4d b33e 03dc 65be 154a 43be 4f41 5fbe
000000f0: 2a02 a13e 8c8d 50be b5da 7cbe 6b85 55be

layers.0.weight f4 [128, 17]
1.0627941 -0.7358457 -0.06529475 0.46731105 0.14832297 0.004526669 -0.2199146 -0.07397033
0.04722035 0.088141344 0.27358297 0.16737047 -0.19297798 0.025239859 0.34639594 -0.22276671
0.14060658 0.28555688 0.6810815 0.29261798 -0.30983868 0.27805823 -0.19002852 0.0020949
-0.16818966 -0.7776192 0.046211593 0.47172287 -0.2830435 0.11071294 -0.013678376 0.040742394
-0.019133374 -0.08181285 -0.69097716 -0.36260936 -0.39775804 0.084638126 -0.049256947 0.310571
0.2670971 -0.06999359 0.38625395 0.47220203 -0.22741513 -0.28784746 -0.07771961 0.101286896
0.17683582 -0.12788704 -0.30379814 0.18932717 -0.5601778 0.67593795 -0.11720127 -0.103048734
0.05086014 -0.32602364 -0.23636878 -0.237656 0.2537715 0.2070537 -0.28390893 -0.31853718
-0.11455321 0.08583021 0.024793327 -0.17304431 -0.22544315 1.016315 0.091090284 -0.08211568
0.102682546 -0.57983273 -0.06683942 -0.08558897 0.3907232 -0.27197528 -0.018003521 -0.32609937
0.22921382 -0.1425975 -0.3229911 -0.12573892 0.05731121 0.09892936 0.07021477 -0.14346121
0.24479336 -0.14654501 -0.07810717 -0.45454735 -0.17372152 0.116619505 -0.12450195 0.15939738
0.10060787 0.012613017 0.030188203 0.39226806 0.184926 -0.23548616 1.3169814 -0.8747788
0.04418833 0.19378841 0.05585139 -0.022538275 -0.190393 -0.53524977 -0.025212828 -0.20169783
0.16517912 -0.03168308 -0.18196777 0.07560822 0.2045152 0.0012426969 0.05449918 0.08509695
-0.30048692 0.5520732 0.0049658455 0.24985124 0.58132833 0.10612009 0.30053443 -0.22151734
0.49819037 -0.15345253 0.14792208 0.009549137 0.08446285 0.40465558 -0.372537 0.1982244
0.47936904 -1.2255373 0.053254433 0.20093152 -0.19333239 0.24165836 -0.006342244 0.07894532
0.26252082 0.23581612 0.0026874044 0.03448574 -0.060784798 -0.31610522 0.24610463 0.06767395
-0.0915544 -0.88788545 0.5694993 0.34149012 0.02782176 0.2617072 0.6283444 0.4388176
0.36833557 -0.06406817 -0.45448855 -0.29568464 0.20279019 0.014158555 0.10564386 -0.015516833
-0.16415632 -0.18995848 0.28229478 0.694927 0.21968843 0.14495465 -0.030306226 -0.4268538
-0.09301692 -0.13451487 0.23270662 0.3589627 0.10898561 -0.3109493 0.04909093 -0.011968404
-0.31985155 0.023421507 0.23522836 0.03326779 -0.19681804 0.36991355 -0.51131 0.266406
0.20722559 -0.15742423 0.21097204 -0.075214334 0.12342749 -0.08451284 -0.11402543 -0.3170524
-0.08332138 -0.0026049956 -0.23389547 0.140921 -0.16957013 1.1420144 0.021656755 -0.1690635
0.34011307 0.19419117 -0.046111137 -0.106817976 -0.026438363 0.029889064 0.31289652 -0.1333963
-0.19289002 0.14194831 -0.3070618 0.081102856 -0.017115204 0.83105546 -1.12179 0.021888932
0.16659845 -0.42685205 -0.005349754 -0.3590105 -0.22884066 0.028361248 0.34028313 -0.41238448
0.18782492 0.2999893 0.059601296 0.038716376 -0.07377887 0.16888104 -0.6433777 -0.08668023
0.29168093 0.38075593 0.690751 0.6912775 0.62190735 0.23897968 -0.6928166 -0.10850569
0.25677496 0.0706195 0.14777493 0.014190778 -0.20619045 -0.2550685 0.07244966 0.31612664
00000000: a309 883f 6260 3cbf 41b9 85bd 6543 ef3e
00000010: fae1 173e 7454 943b 4b31 61be c27d 97bd
00000020: 206a 413d 7383 b43d 1113 8c3e 2a63 2b3e
00000030: 059c 45be d2c3 ce3c cf5a b13e f51c 64be
00000040: 2cfb 0f3e 8334 923e 5b5b 2e3f 06d2 953e
00000050: 2da3 9ebe a65d 8e3e d696 42be 974a 093b
00000060: e939 2cbe 0d12 47bf 5e48 3d3d a985 f13e
00000070: 14eb 90be 77bd e23d 441b 60bc 7fe1 263d
00000080: 98bd 9cbc 7f8d a7bd e1e3 30bf efa7 b9be
00000090: f1a6 cbbe c156 ad3d a7c1 49bd 2a03 9f3e
000000a0: f3c0 883e cd58 8fbd 14c3 c53e 77c4 f13e
000000b0: 83df 68be be60 93be 752b 9fbd 816f cf3d
000000c0: 7314 353e d2f4 02be 6e8b 9bbe fbde 413e
000000d0: d067 0fbf 450a 2d3f 3807 f0bd 370b d3bd
000000e0: b952 503d 92ec a6be a80a 72be 185c 73be
000000f0: 57ee 813e e305 543e 835c 91be 4e17 a3be
00000100: e09a eabd c0c7 af3d 601b cb3c 8732 31be
00000110: 92da 66be 9c16 823f 8b8d ba3d 442c a8bd
00000120: 3a4b d23d eb6f 14bf 1be3 88bd 4549 afbd
00000130: df0c c83e 5840 8bbe 1f7c 93bc 7ff6 a6be
00000140: 07b7 6a3e 1405 12be 175f a5be b4c1 00be
00000150: 29bf 6a3d 7a9b ca3d c3cc 8f3d 7fe7 12be
00000160: 1cab 7a3e e50f 16be a7f6 9fbd 6eba e8be
00000170: 0ee4 31be 35d6 ee3d e1fa febd 1139 233e
00000180: 800b ce3d d4a6 4e3c 404d f73c 5cd7 c83e
00000190: 3e5d 3d3e 4923 71be d992 a83f 81f1 5fbf
000001a0: d3fe 343d 7870 463e 6dc4 643d 30a2 b8bc
000001b0: 62f6 42be 2106 09bf 228b cebc e089 4ebe
000001c0: b724 293e 1ec6 01bd c255 3abe 7cd8 9a3d
000001d0: 6f6c 513e fde1 a23a 883a 5f3d 4f47 ae3d
000001e0: 6cd9 99be ab54 0d3f 88b8 a23b 01d9 7f3e
000001f0: efd1 143f 7d55 d93d a6df 993e 71d5 62be
00000200: cf12 ff3e a922 1dbe e378 173e fc73 1c3c
00000210: dcfa ac3d 042f cf3e 2bbd bebe 56fb 4a3e
00000220: dc6f f53e 68de 9cbf 5221 5a3d fec0 4d3e
00000230: edf8 45be 4a75 773e 99d2 cfbb 15ae a13d
00000240: 2169 863e c879 713e 2a1f 303b eb40 0d3d
00000250: 7bf9 78bd 8bd8 a1be da02 7c3e a498 8a3d
00000260: e080 bbbd 764c 63bf b5ca 113f cbd7 ae3e
00000270: 76ea e33c 7cfe 853e 2edb 203f b3ac e03e
00000280: 7b96 bc3e 2c36 83bd b9b2 e8be fa63 97be
00000290: 3ba8 4f3e 49f9 673c cf5b d83d 513a 7ebc
000002a0: 9818 28be 7a84 42be f188 903e bce6 313f
000002b0: 01f6 603e fe6e 143e c344 f8bc 958c dabe
000002c0: a87f bebd 44be 09be a54a 6e3e f6c9 b73e
000002d0: d933 df3d bf34 9fbe 9213 493d 2017 44bc
000002e0: 95c3 a3be 76de bf3c b4df 703e ce43 083d
000002f0: ab8a 49be 4f65 bd3e 36e5 02bf 5e66 883e
00000300: f232 543e d133 21be 0e09 583e f909 9abd
00000310: 8dc7 fc3d 1115 adbd 2a86 e9bd b154 a2be
00000320: 66a4 aabd 93b8 2abb 4b82 6fbe 984d 103e
00000330: cba3 2dbe 872d 923f 8269 b13c fb1e 2dbe
00000340: 4d23 ae3e 0dda 463e 08df 3cbd 62c3 dabd
00000350: 4495 d8bc e9d9 f43c f933 a03e 0a99 08be
00000360: f684 45be e65a 113e 3437 9dbe 4119 a63d
00000370: 2f35 8cbc 0dc0 543f d196 8fbf 6b50 b33c
00000380: c998 2a3e 5a8c dabe fd4c afbb 39d0 b7be
00000390: 3555 6abe d955 e83c 9739 ae3e 0f24 d3be
000003a0: 2d55 403e 3398 993e 7d20 743d 1095 1e3d
000003b0: 6019 97bd 27ef 2c3e 67b4 24bf 6885 b1bd
000003c0: 3457 953e 71f2 c23e 0fd5 303f 90f7 303f
000003d0: 5235 1f3f 17b7 743e 6e5c 31bf 3b38 debd
000003e0: 0278 833e f5a0 903d 5052 173e 7080 683c
000003f0: 9723 53be 5798 82be 7d60 943d 5adb a13e

layers.0.bias f4 [128]
0.13546203 0.32657766 -0.0232308 -0.05206396 -0.05249607 -0.18244688 0.078432314 0.19746749
-0.037416033 0.24875773 -0.12389569 0.41265827 0.23582578 -0.15026896 0.38903368 0.34000137
0.1643948 -0.08635812 0.3643671 0.07418433 -0.062126856 -0.28994882 -0.17419624 0.16662897
-0.0346052 0.19856983 0.103644535 0.08773363 0.27499637 0.51037776 -0.18539374 0.29077998
-0.024288898 0.42995715 -0.015868621 -0.20774245 0.2369772 0.116281934 0.43143952 -0.03516513
0.02965613 0.017977163 -0.15269358 0.09010091 0.38001645 -0.16413105 0.4827423 0.25046864
0.15381852 -0.25628638 -0.02268731 -0.12837829 -0.09853285 0.118471496 0.4502923 -0.25907406
0.6273814 -0.0920005 0.012312865 -0.100529134 0.29979384 -0.111272454 0.5114374 0.4104703
-0.12389421 -0.0043316055 -0.11620069 -0.2814585 0.04455394 -0.13545081 0.0025873305 0.40425918
-0.028580116 0.29299757 0.2763155 0.05080954 0.50703794 0.037418917 0.21134546 0.014401877
0.30870032 0.10522545 -0.005105022 -0.34967688 -0.13010204 -0.42649734 0.196682 0.30002618
-0.07949614 0.43310007 0.5951852 -0.25561947 0.54489094 0.61246246 0.1842102 -0.32839933
0.22351071 0.048209142 0.35637987 0.7367302 -0.010806844 -0.17333025 0.66508174 0.025430942
-0.122760765 -0.31240323 -0.08701188 0.13154863 0.09587957 0.1837688 0.3258792 -0.08494418
0.18272515 0.09348377 0.20818633 0.17039369 -0.13845709 -0.10438707 -0.07721912 -0.33405015
-0.043201827 -0.32059252 0.63869387 -0.08317803 -0.13155973 0.195188 0.43308586 0.34056255
00000000: 8fb6 0a3e 3035 a73e 854e bebc 0541 55bd
00000010: 1e06 57bd 5bd3 3abe 1fa1 a03d eb34 4a3e
00000020: 8e41 19bd 59ba 7e3e 06bd fdbd f247 d33e
00000030: 507c 713e 1be0 19be 6c2f c73e a914 ae3e
00000040: 1c57 283e 87dc b0bd 538e ba3e f4ed 973d
00000050: bb78 7ebd 2c74 94be 8060 32be c9a0 2a3e
00000060: 2fbe 0dbd e455 4b3e 9643 d43d b0ad b33d
00000070: 53cc 8c3e 1ea8 023f dbd7 3dbe 1de1 943e
00000080: 83f9 c6bc 5823 dc3e e9fe 81bc 70ba 54be
00000090: 27aa 723e 3925 ee3d a4e5 dc3e 5009 10bd
000000a0: 6af1 f23c d844 933c b55b 1cbe d386 b83d
000000b0: 8491 c23e f811 28be 002a f73e 6d3d 803e
000000c0: 9a82 1d3e f837 83be bdda b9bc 9975 03be
000000d0: 97cb c9bd 2fa1 f23d b68c e63e 5ba5 84be
000000e0: 119c 203f c26a bcbd e6bb 493c 38e2 cdbd
000000f0: 947e 993e d0e2 e3bd 90ed 023f 2a29 d23e
00000100: 3fbc fdbd 24f0 8dbb a1fa edbd 541b 90be
00000110: 317e 363d 9eb3 0abe 3490 293b 0ffb ce3e
00000120: d920 eabc c703 963e 3a79 8d3e aa1d 503d
00000130: 3dcd 013f 9444 193d f26a 583e daf5 6b3c
00000140: f80d 9e3e 7180 d73d 0748 a7bb d908 b3be
00000150: 7839 05be dc5d dabe 0267 493e 089d 993e
00000160: dfce a2bd 4bbf dd3e 0f5e 183f 8ee0 82be
00000170: f97d 0b3f 57ca 1c3f 99a1 3c3e f523 a8be
00000180: fedf 643e f376 453d 6c77 b63e 5a9a 3c3f
00000190: 300f 31bc 7c7d 31be cc42 2a3f 8d54 d03c
000001a0: ff69 fbbd 51f3 9fbe 4933 b2bd afb4 063e
000001b0: 825c c43d e32d 3c3e a3d9 a63e 37f7 adbd
000001c0: 4d1c 3b3e 6b74 bf3d cc2e 553e af7b 2e3e
000001d0: b2c7 0dbe e3c8 d5bd 0f25 9ebd 9f08 abbe
000001e0: 66f4 30bd b424 a4be 7181 233f 3e59 aabd
000001f0: 98b7 06be 5ddf 473e 6ebd dd3e 375e ae3e

layers.1.weight f4 [128, 128]
0.0701734 -0.173436 0.032217592 0.15847854 -0.058770627 -0.09647746 0.17925276 -0.028634699
0.040589795 -0.031265926 -0.09116218 0.0029450252 -0.13817334 0.1216963 0.025185218 0.028024146
-0.10350948 -0.030201897 -0.017461933 0.11663775 0.08007053 -0.17197207 -0.05002712 0.009482526
0.07710377 -0.17157292 0.04885244 -0.13128257 0.048018638 -0.020230426 -0.17736496 0.095893234
-0.10548724 0.07006886 -0.040032692 0.019920161 0.11250482 0.07328445 -0.03378635 -0.055153366
-0.12080801 0.20416841 -0.18184514 0.03076308 0.1465682 0.0528031 0.12437365 -0.094594575
0.013231266 0.012394471 -0.014407402 -0.021892717 -0.068943605 0.06466961 0.07748034 -0.01420602
0.25230747 0.093468286 0.116455294 0.122728914 0.0009749995 -0.11861545 0.13547172 0.016230535
-0.08015659 -0.5840036 0.024704749 -0.40761778 0.051143404 -0.11928261 0.011702467 0.08306648
0.015210817 0.18059725 -0.024002586 -0.0961254 -0.024145853 -0.11156895 -0.053593215 0.06429178
0.042864926 -0.011752372 -0.06458043 -0.1671591 0.12787114 0.11203589 0.07333854 0.07268313
-0.023269206 -0.0014659915 0.12736392 0.073376685 0.18910013 0.07086727 -0.06333679 -0.03653624
0.074856 0.04267187 0.08901763 0.24950536 0.11898678 0.05479895 0.14927995 -0.005702061
0.059205573 0.008633407 -0.009312449 0.039386403 0.08063998 0.08692189 0.01403868 0.07901183
-0.019798743 -0.013392865 0.10535053 -0.14231373 -0.11749439 -0.12685944 -0.060818832 -0.15990634
-0.13170795 -0.15752222 0.19067775 -0.12744103 -0.048254795 0.057748374 0.20878667 0.09880163
-0.09683431 -0.15895522 0.19570492 0.07629233 -0.18362446 -0.0030404215 0.12683308 -0.10310223
0.0075444514 -0.053341806 -0.28059143 -0.06853325 0.0017715469 -0.03974075 0.23795532 -0.11819935
-0.027165733 -0.036111463 -0.097072415 -0.07729962 -0.09294068 0.45182627 -0.084908895 0.11351213
-0.105513364 -0.07050764 0.06762657 0.033419333 -0.015044854 -0.08597341 0.045137245 -0.2162309
-0.27949536 -0.19757804 -0.10789153 0.055568647 -0.09597087 -0.03675671 0.1086438 0.011747269
-0.07869981 0.033437125 0.022360273 -0.03200353 -0.005496238 -0.110897385 -0.4787963 -0.017334545
0.065096214 0.060288597 -0.05285584 -0.034980275 0.02744834 -0.03951686 -0.21111368 0.017322166
0.2413572 -0.1288858 -0.23595485 0.038881026 0.0021189894 -0.06701486 -0.44253007 -0.12503073
0.35807833 0.18596958 0.097511634 0.12402089 0.07509855 -0.08508126 0.061880093 -0.20111448
-0.009848931 0.13679528 0.21257126 0.0867283 -0.025787806 -0.047989566 -0.07103973 -0.007098451
-0.4791644 -0.0076183663 -0.08903655 0.049565524 -0.25906217 -0.3208238 -0.13446127 0.006181242
-0.02522301 0.061905466 -0.06121579 0.1429104 -0.13000762 -0.19181558 0.24436851 -0.0063287066
0.013699471 0.00096481084 -0.04837565 0.08108946 -0.11443267 -0.010447205 0.01242613 0.08183468
-0.1613408 -0.018507328 -0.054588538 0.119736426 0.03792378 -0.08488001 0.20209438 -0.0028641848
0.027773062 0.00532405 0.08640553 -0.030289736 0.18831563 -0.039893735 0.018642576 0.11294576
0.25860548 0.06257409 -0.03629945 0.12376065 0.10213631 -0.10564981 0.19221415 0.0015087193
00000000: 12b7 8f3d 3599 31be 98f6 033d 3348 223e
00000010: 78b9 70bd f995 c5bd 098e 373e 5193 eabc
00000020: 7c41 263d b310 00bd 3db3 babd 5301 413b
00000030: 507d 0dbe e93b f93d 3b51 ce3c e592 e53c
00000040: c7fc d3bd f869 f7bc 540c 8fbc c6df ee3d
00000050: 05fc a33d 7219 30be 3de9 4cbd 995c 1b3c
00000060: 95e8 9d3d d0b0 2fbe 7f19 483d f06e 06be
00000070: 31af 443d 47ba a5bc 299f 35be ac63 c43d
00000080: b209 d8bd 4380 8f3d 52f9 23bd 9b2f a33c
00000090: ed68 e63d 2816 963d 8e63 0abd 7fe8 61bd
000000a0: 316a f7bd 8611 513e 9d35 3abe db02 fc3c
000000b0: f915 163e 1048 583d 9db7 fe3d cdba c1bd
000000c0: f4c7 583c 2e12 4b3c 060d 6cbc 5b58 b3bc
000000d0: 4e32 8dbd 8071 843d 03ae 9e3d 5ec0 68bc
000000e0: 722e 813e 4d6c bf3d 1d80 ee3d 4c59 fb3d
000000f0: 1c97 7f3a a8ec f2bd 19b9 0a3e e6f5 843c
00000100: 2329 a4bd 4381 15bf 9d61 ca3c 47b3 d0be
00000110: bf7b 513d 714a f4bd b4bb 3f3c c21e aa3d
00000120: ca36 793c 7cee 383e 12a1 c4bc 65dd c4bd
00000130: 86cd c5bc 437e e4bd 8f84 5bbd 69ab 833d
00000140: 2293 2f3d 058d 40bc bf42 84bd c12b 2bbe
00000150: a7f0 023e 1373 e53d 8432 963d e5da 943d
00000160: 109f bebc 8326 c0ba b06b 023e 8446 963d
00000170: 77a3 413e dc22 913d b8b6 81bd 06a7 15bd
00000180: 1a4e 993d b3c8 2e3d e04e b63d 557e 7f3e
00000190: 57af f33d dd74 603d d8dc 183e 5bd8 babb
000001a0: 8b81 723d 2273 0d3c 3e93 18bc a353 213d
000001b0: 9326 a53d 1b04 b23d 7e02 663c f4d0 a13d
000001c0: f930 a2bc bf6d 5bbc 05c2 d73d b1ba 11be
000001d0: e6a0 f0bd 71e7 01be 2b1d 79bd 7dbe 23be
000001e0: 73de 06be 814d 21be 0741 433e e77f 02be
000001f0: d2a6 45bd 8f89 6c3d 2ccc 553e 8258 ca3d
00000200: 1151 c6bd 28c5 22be df66 483e 273f 9c3d
00000210: 0d08 3cbe cf41 47bb 88e0 013e 4327 d3bd
00000220: 7237 f73b f07c 5abd aea9 8fbe 295b 8cbd
00000230: 4033 e83a 32c7 22bd 8faa 733e 8012 f2bd
00000240: ac8a debc 9de9 13bd e7cd c6bd 434f 9ebd
00000250: af57 bebd c655 e73e b7e4 adbd 0c79 e83d
00000260: 6417 d8bd 4f66 90bd cd7f 8a3d b6e2 083d
00000270: b17e 76bc d412 b0bd d5e1 383d a26b 5dbe
00000280: 041a 8fbe e651 4abe 3cf6 dcbd f39b 633d
00000290: 608c c4bd 348e 16bd a480 de3d 9e77 403c
000002a0: 5e2d a1bd 5ef5 083d e42c b73c 2216 03bd
000002b0: c919 b4bb 2b1e e3bd ca24 f5be 2d01 8ebc
000002c0: 2a51 853d 2df1 763d 5e7f 58bd 7a47 0fbd
000002d0: 57db e03c 6edc 21bd 2f2e 58be 37e7 8d3c
000002e0: 5826 773e a4fa 03be 269e 71be b641 1f3d
000002f0: bede 0a3b 163f 89bd 4d93 e2be 0e08 00be
00000300: 0b56 b73e cf6e 3e3e 2eb4 c73d aafe fd3d
00000310: 45cd 993d 153f aebd fb75 7d3d f4f0 4dbe
00000320: 695d 21bc 1014 0c3e 48ac 593e 9b9e b13d
00000330: f340 d3bc b590 44bd 477d 91bd 1f9a e8bb
00000340: 0955 f5be 7da3 f9bb cb58 b6bd 3805 4b3d
00000350: cca3 84be 0443 a4be 37b0 09be 048c ca3b
00000360: 7ca0 cebc 9690 7d3d 69bd 7abd 1b57 123e
00000370: b820 05be 4e6b 44be bd3b 7a3e 0a61 cfbb
00000380: bf73 603c 5ceb 7c3a 8c25 46bd 3b12 a63d
00000390: ad5b eabd c12a 2bbc f796 4b3c f198 a73d
000003a0: 8636 25be ae9c 97bc 3b98 5fbd 5f38 f53d
000003b0: f755 1b3d 92d5 adbd d4f1 4e3e 0cb5 3bbb
000003c0: 5584 e33c 5e75 ae3b 62f5 b03d 2e22 f8bc
000003d0: d0d5 403e 9d67 23bd 51b8 983c 1b50 e73d
000003e0: f067 843e d826 803d bbae 14bd 3976 fd3d
000003f0: d72c d13d ed5e d8bd c9d3 443e 38c0 c53a

layers.1.bias f4 [128]
0.35671481 -0.016461592 0.23659402 -0.30623922 0.033590782 -0.16242565 -0.11999815 0.287081
0.19563185 0.0057522873 -0.17140329 0.04750042 0.02702799 0.161637 -0.06725194 -0.14346053
0.028072804 0.06451895 0.048566457 0.23609944 0.18024173 -0.004011771 -0.010138419 0.08082489
0.12604523 0.021634638 0.00044917283 0.0937082 0.046227757 0.09014663 0.13710052 0.08974776
0.02658569 0.15438908 0.06192916 -0.1134365 -0.09884221 0.20519899 0.14757432 -0.09831211
-0.14459212 -0.033399098 0.020001633 0.15203083 0.10777187 0.15197578 0.19712734 -0.03601972
0.030783873 0.16196792 0.0051667304 -0.19577898 0.12901627 -0.28774 0.029652525 0.007990022
-0.17091045 0.13628209 0.18350211 0.043700486 -0.14734688 0.052748248 -0.06725796 0.09199241
-0.21770498 0.08526731 0.108129404 -0.06008455 -0.19174244 0.036725845 0.15335155 -0.16884999
-0.21105932 0.2621756 0.11467129 -0.08008831 -0.061004415 0.25264984 -0.034743465 0.21804562
0.123227425 -0.11591101 0.08466288 -0.19180138 0.1118578 0.2233315 0.0696254 0.015736813
0.025091782 0.24366382 -0.035290416 0.25358373 -0.06036745 -0.022856863 -0.019997433 0.13786024
-0.03793201 0.125033 0.07705019 0.0772829 0.1097747 0.052692767 0.22113326 0.2330452
0.023185086 0.12152052 -0.2336854 -0.2512041 0.16863225 -0.079558544 0.20132096 -0.16810738
-0.1676876 -0.019465081 -0.041565474 -0.22555399 0.108847775 0.09717719 -0.027822884 0.15355603
0.17935586 0.37900934 0.03241102 -0.017557906 0.10929761 0.06145074 0.014880796 -0.19751155
00000000: 53a3 b63e 76da 86bc b445 723e 63cb 9cbe
00000010: 7d96 093d e952 26be 97c1 f5bd 48fc 923e
00000020: b753 483e af7d bc3b 5884 2fbe cd8f 423d
00000030: ce69 dd3c 2b84 253e 63bb 89bd 51e7 12be
00000040: f0f8 e53c 8322 843d 9fed 463d 0dc4 713e
00000050: 4a91 383e 2d75 83bb 9d1b 26bc 8587 a53d
00000060: 0012 013e 203b b13c f57e eb39 16ea bf3d
00000070: 5159 3d3d cc9e b83d 1464 0c3e accd b73d
00000080: 3cca d93c 2c18 1e3e 6ea9 7d3d 6551 e8bd
00000090: c96d cabd af1f 523e b91d 173e dc57 c9bd
000000a0: f50f 14be 7ecd 08bd 77da a33c f8ad 1b3e
000000b0: 80b7 dc3d 8a9f 1b3e c0db 493e 6a89 13bd
000000c0: 762e fc3c ebda 253e ad4d a93b 497a 48be
000000d0: d71c 043e a852 93be dae9 f23c 95e8 023c
000000e0: 2603 2fbe 888d 0b3e fae7 3b3e 48ff 323d
000000f0: 1ae2 16be 8c0e 583d 8bbe 89bd 8466 bc3d
00000100: 0eee 5ebe a1a0 ae3d f372 dd3d 381b 76bd
00000110: 2158 44be d76d 163d 3008 1d3e 03e7 2cbe
00000120: ef1f 58be e13b 863e c8d8 ea3d 5705 a4bd
00000130: c4df 79bd 525b 813e 2a4f 0ebd 5a47 5f3e
00000140: a95e fc3d c062 edbd bb63 ad3d 9567 44be
00000150: b415 e53d 03b1 643e c397 8e3d 7dea 803c
00000160: 488d cd3c 0283 793e af8c 10bd bad5 813e
00000170: dc43 77bd 513e bbbc a8d1 a3bc 3c2b 0d3e
00000180: 985e 1bbd a708 003e 7dcc 9d3d 7f46 9e3d
00000190: 8fd1 e03d 5fd4 573d c270 623e 67a3 6e3e
000001a0: a6ee bd3c c0df f83d 3a4b 6fbe d39d 80be
000001b0: efad 2c3e 97ef a2bd 1527 4e3e 5724 2cbe
000001c0: 4cb6 2bbe 3c75 9fbc 8f40 2abd a0f7 66be
000001d0: 95eb de3d d604 c73d d1ec e3bc cb3d 1d3e
000001e0: 10a9 373e 830d c23e 6bc1 043d 99d5 8fbc
000001f0: 6dd7 df3d c5b3 7b3d 95ce 733c 7840 4abe
