HW9/9_gym-DDPG/results/DDPG_Pendulum-v1_2000-eps0.1-t32-l5e-05-s1-u100.pth (torch, 176252 bytes, 12 tensors)

layers.0.weight f4 [128, 4]
00000000: 90af 323f 809c 0abf b9e2 18be 527c 9c3c
00000010: a028 0fbf 6f3f fc3d d88d 17be 6cc8 3d3e
00000020: 8806 76bd 4be9 853c 6cf2 993d faf9 073b
00000030: 30ff 3a3e e486 47be 3051 15bd 4060 38bd
00000040: d1df 87bb c04e a53e e3f3 f03e 7ffc d3bd
00000050: f0c8 a0be c165 33bf 4105 bf3d ad6f 57bd
00000060: 51e8 74be 5c52 a73c 4334 ac3e 730f 693e
00000070: fe20 10bf f004 203f 6c51 0f3e 0e64 6e3e
00000080: e36e 333f 6899 1fbf b93b f5be 67b7 0cbf
00000090: 7a48 5d3f 19c0 95bd 3306 8f3e b330 cdbe
000000a0: e82e e13e 872f 23be e710 d83e ca12 6ebd
000000b0: ea5c c4be a79b 45be 32fb 65be af73 9d3e
000000c0: 4086 44be 50f1 babe 00e5 eabe 8dc2 4bbe
000000d0: d476 cf3e a1da 033e e412 0a3f d5bf dd3e
000000e0: bfad 1dbe 8917 7abe fb2d bb3e 484f ac3d
000000f0: 3151 c0be f2a9 553f c76d 753e ec63 663e
00000100: d5d4 c8be a3bb 87be 76c6 143d 1eba 2dbd
00000110: d5fd 17bf 0544 3bbc 196c b93e de76 4abe
00000120: 7c30 c83e 859a 5f3e 9a4f 683e af55 313c
00000130: f26c e6bd 33e7 933e 1f47 f1be 0754 913e
00000140: 2b94 e5be fedf 08bf 1ad4 7bbd 9ad9 38bd
00000150: fcaf 6b3f e4a7 3dbf 8890 bbbe 2de9 b23e
00000160: e981 aebd 7b7f 2c3f 4855 cc3d 003e b0be
00000170: 3024 173d 1ad1 093e 331b b3be 9fc5 3bbe
00000180: 4c4f 9b3d bd6b 2d3e c262 f4bd 4360 53be
00000190: 838d 7f3e 991e 18be 3205 b93e 652d 9dbb
000001a0: c684 17bf a351 f0be 36b6 0a3f 262f 183d
000001b0: 9567 a33e 818d cc3e 4c95 b13d 9194 383e
000001c0: 46e5 b33e c5d4 27bf b766 d7bb e49a 2abd
000001d0: 1a68 aa3e e63c ad3e 3df4 c4be 6367 babe
000001e0: 307b cdbe 7558 193f 7849 113f 75df a2be
000001f0: fb97 213f 367e d4be a193 e2be 1b45 6fbe
00000200: da93 7a3e ce66 0a3f eea2 a7be 1910 663e
00000210: 5bcb 833f 4332 423f 9a71 9c3e 200f 5c3e
00000220: a8b1 803e 04de d93d d328 bdbe 9f97 f5be
00000230: 7c72 acbe deb2 d0be e0de 66be e02b 243e
00000240: 60fd d7bd 4dbd e13c c1ed 8c3e ca31 77bc
00000250: 8be0 3a3e e09d 083f 0932 16be 9681 163f
00000260: af0a 40be af10 5bbe adbe dcbe 40a0 92be
00000270: ac26 00bf da24 b43e a930 ef3e e748 06be
00000280: b20f d7be c993 9f3e f0c6 e33d 0acc 423e
00000290: 83e1 20bf 96c2 99be 7011 7fbe 571d 30bd
000002a0: 8044 febe 5179 18bf c010 2dbd ac4b 063e
000002b0: 865d d43e dfe1 813e d08f 033f 6d12 133f
000002c0: b235 913e 6f33 113d 35cd aebe 690d 0f3f
000002d0: 1bcd 41be d206 a1be f556 debe eb40 a53d
000002e0: 68e0 0fbf a1d1 043d 20d6 02bf f9df 0ebe
000002f0: adc8 05be db29 fabe 5fc3 4c3e bd7f b7bd
00000300: f498 90be b846 2f3f e141 ac3e c9f6 99be
00000310: 485c 1d3f 368b 5a3f 4e3e 003f 23f5 b9be
00000320: c4ce 3fbb 719a fdbe cf01 ec3e 37d7 6fbe
00000330: b2f5 ca3e 3195 d53d d67c f8bd 09a5 8abe
00000340: d0f9 a8bd bd61 1a3f 724c 94bc f146 e53c
00000350: 1335 f2be 802c 313f 5399 e13e 055f 8a3e
00000360: 1465 4d3f e44b 3dbf 8977 68be 7e00 3e3e
00000370: 7b69 33bf 8bbd f43d fda1 e5be b36d 85be
00000380: 7286 ad3e 8a51 0ebf 3c37 bdbd 6425 a33d
00000390: c261 8d3e 07bd 153f 755f 34be 0f65 cbbe
000003a0: 9882 5b3f 40e2 f5bd 9ae1 24be 081b ecbd
000003b0: ddd1 debe 0bff 023f eb58 a43e d1a5 b2be
000003c0: 2a24 c7be 21b4 313f 52df a33e d3ee 24be
000003d0: 6304 e2be 48f4 e3be 9860 02bf d94c 70be
000003e0: 2ee5 bebe a1dd 4e3f 0071 be3e 4cbc 49be
000003f0: 0134 f1bd 6e9d ba3e 513a aebd 8c39 66be
0.6979914 -0.5414505 -0.14930238 0.01910225 -0.55921364 0.123167865 -0.14800203 0.18533486
-0.060064822 0.016346594 0.075169414 0.0020748363 0.18261409 -0.1948505 -0.03645438 -0.045013666
-0.004146554 0.32286644 0.4706107 -0.10350894 -0.31403303 -0.7007714 0.09327174 -0.052596737
-0.23916747 0.020425014 0.33633623 0.227598 -0.5630034 0.62507534 0.13995904 0.23280355
0.70091075 -0.62343454 -0.47897127 -0.5496735 0.86438715 -0.0731203 0.27934417 -0.40076217
0.439811 -0.15936099 0.42200395 -0.058123387 -0.38352138 -0.19297658 -0.22459105 0.30752322
-0.19191837 -0.36512232 -0.45877838 -0.19898434 0.40520346 0.12876369 0.53935075 0.4331042
-0.1539831 -0.2442304 0.36558518 0.08413559 -0.37561944 0.8346244 0.23967658 0.22499055
-0.39224878 -0.26510343 0.03632208 -0.042413823 -0.5937169 -0.011429791 0.36215284 -0.19771907
0.3909949 0.21836288 0.22686616 0.010823651 -0.112512484 0.28887329 -0.47124574 0.2838442
-0.44839606 -0.53466785 -0.061481573 -0.045129396 0.92065406 -0.74084306 -0.36633706 0.34943524
-0.08520872 0.6738202 0.099772036 -0.34422302 0.036899745 0.13458672 -0.3498169 -0.18337105
0.07583484 0.1693563 -0.11932899 -0.2064219 0.24956326 -0.14855422 0.36136776 -0.004796671
-0.5918697 -0.46937284 0.5418428 0.03715434 0.31914964 0.3995171 0.08671054 0.18025424
0.3513586 -0.65559036 -0.006573524 -0.04165162 0.33282548 0.33835524 -0.3846759 -0.36407003
-0.40133047 0.599006 0.5675273 -0.3181111 0.6312253 -0.4150254 -0.44253257 -0.23366205
0.24470463 0.5406312 -0.32741493 0.22467078 1.0296434 0.75857943 0.3055542 0.21490145
0.2513554 0.10638049 -0.3694521 -0.4796724 -0.33681095 -0.40761465 -0.22545958 0.16032362
-0.10546374 0.027556086 0.27525142 -0.015087554 0.18249719 0.533659 -0.14667524 0.5879148
-0.18754075 -0.21393083 -0.43114224 -0.28637886 -0.5005901 0.35184366 0.46716812 -0.13113748
-0.42004162 0.3116744 0.11121929 0.19023147 -0.62844104 -0.3003127 -0.24908996 -0.04299673
-0.49661636 -0.59560114 -0.042252302 0.13114804 0.41477603 0.25367638 0.51391315 0.5744999
0.2836128 0.03544944 -0.34140936 0.5587984 -0.18925898 -0.31450516 -0.43425718 0.08069023
-0.5620179 0.03242648 -0.5110798 -0.13952626 -0.13064833 -0.48860058 0.19996403 -0.08959911
-0.28241694 0.68467283 0.33644012 -0.30071095 0.61468935 0.8536867 0.5009507 -0.36319837
-0.002926753 -0.49531892 0.4609513 -0.23421942 0.39640576 0.10428847 -0.121331856 -0.27079037
-0.08250773 0.60305387 -0.018102858 0.027987929 -0.47306117 0.69208527 0.4406229 0.2702562
0.8023236 -0.73943925 -0.22701849 0.18554875 -0.70082825 0.11950215 -0.4485015 -0.26060256
0.33891636 -0.5559317 -0.09239051 0.07966116 0.27613646 0.5849156 -0.17614539 -0.3972554
0.85746145 -0.120060444 -0.16101685 -0.11528593 -0.43519488 0.51170415 0.3209909 -0.34892133
-0.38894778 0.6941548 0.32006317 -0.16106729 -0.44143972 -0.4452231 -0.5092864 -0.23466815
-0.37284225 0.8080693 0.37195587 -0.19700736 -0.11777497 0.36448234 -0.08507217 -0.2248289

layers.0.bias f4 [128]
00000000: 5373 a3be 3f28 f03e 95c8 da3e fc92 fbbe
00000010: 37d8 d8be 5a42 04be 4e23 d7be 755f 773e
00000020: a5a4 f8be 7e16 bebe d3f1 8c3e 80db 97bd
00000030: 6d68 45be 2691 24bf bb8b 853e a553 633e
00000040: 8067 f5bd f173 2ebe e59b 063e 0468 633e
00000050: 5bda 893e bbee ac3c b1c3 cc3d afb3 fcbe
00000060: e58a f43e 5334 a53d 7c89 bcbe a1c2 1b3f
00000070: 730e b83e e1fe fabe 2052 e5bd 49c7 13be
00000080: 7de6 a3be 4db3 5b3e dc52 b2be a8be 0f3f
00000090: bb8a 6dbe d619 af3e d696 0e3e e60e 47be
000000a0: b66f 043f b41a 69be 94fe 81bd 3f38 68bd
000000b0: 8372 cb3e 6442 29be 068d 90be 6ce9 debe
000000c0: a991 80bd 8435 32be 11f4 09be 6e5b 16be
000000d0: 12d6 8b3e ae29 c73d 1aeb 3ebe 2e28 42be
000000e0: 50d2 973e 75ac 0b3d 6853 163f 6ce0 ee3d
000000f0: df61 aebd cdbc a2be 8243 383d 11f4 ffbc
00000100: 6653 393e f9fa 1ebe 3cbc ee3d de46 19be
00000110: 842a fd3e 394f 8f3e 59ff 7b3d aea4 0b3f
00000120: f35e 873e 7527 9fbe 66e0 c5bd a7eb e53e
00000130: f0af 9e3e d3d4 013f 45c6 863d 45b6 fe3e
00000140: d93c bc3e 17f8 943e 8803 24bd 8a19 233f
00000150: 4705 a13e 3df8 65bc 16f0 fe3d f104 2a3f
00000160: 9be9 ce3e 08d0 983d 1c57 1d3f aaa2 723e
00000170: 93a0 87be b485 15bf dc20 db3e bdbf 0f3f
00000180: 5eef c4bd 8001 9b3e ea5f a0bd 2292 8dbd
00000190: ae8b 9f3d a450 8c3e 07eb 333e 3da8 d43e
000001a0: e983 933e 2284 d43e 6a22 193f bd15 a03e
000001b0: 09d5 5b3e 7880 afbe 3647 f53e a960 d83c
000001c0: 7ca7 cc3e a21d d23e 03dd e53b d9f8 a53e
000001d0: 5e27 03be ee85 0d3f 9e42 203f 8405 92bd
000001e0: a019 a23c 88d2 99be 2093 45bd 6697 6fbd
000001f0: be06 73bd 3760 bf3d b1eb b8be 8dd7 b3be
-0.31923923 0.46905705 0.42731157 -0.49135578 -0.4235246 -0.12915936 -0.42019123 0.24157508
-0.48563114 -0.37126535 0.27528247 -0.07414913 -0.19278117 -0.6428398 0.26083168 0.22199877
-0.11982632 -0.17036416 0.13145407 0.22207648 0.26924405 0.02110993 0.09998263 -0.49355838
0.47762218 0.08066621 -0.36823642 0.60843855 0.35948524 -0.49022582 -0.11197305 -0.1443149
-0.32011786 0.21455117 -0.34828842 0.56150293 -0.23197453 0.341994 0.13924727 -0.19439277
0.5173296 -0.22764093 -0.06347385 -0.056694265 0.39735803 -0.16529232 -0.28232592 -0.43537462
-0.062777825 -0.17403227 -0.1347201 -0.14683315 0.2731176 0.09724747 -0.18644372 -0.1896064
0.29652643 0.034100015 0.5872102 0.11663899 -0.08514761 -0.3178467 0.044986255 -0.03124431
0.1809822 -0.15525426 0.116569966 -0.1496844 0.494465 0.2799013 0.061522815 0.54548156
0.26439628 -0.3108479 -0.09661941 0.4490635 0.30993605 0.5071537 0.06580786 0.49748436
0.36765173 0.29095528 -0.04004243 0.63710845 0.3144934 -0.014036235 0.124481365 0.6641379
0.40412602 0.07461554 0.61461043 0.23694864 -0.26489696 -0.5840714 0.42798507 0.56151944
-0.09615968 0.30274582 -0.07830794 -0.06912638 0.07790314 0.27405274 0.17570125 0.41534606
0.28811577 0.4150706 0.59818137 0.31266585 0.21467985 -0.342777 0.47905892 0.026413279
0.3997153 0.41038233 0.007014872 0.32416418 -0.12807986 0.55282485 0.6260165 -0.07129958
0.01978761 -0.30043435 -0.048236012 -0.058493994 -0.0593326 0.093445234 -0.36117318 -0.3512539

layers.1.weight f4 [128, 128]
00000000: 0cf5 ad3e 0d85 863d b40a 283e 9024 933d
00000010: c1d2 a93c 7852 9d3d ad57 f8bd db11 2e3e
00000020: bacc 89bd 3e2f d43a db74 5fbd 4dac 1d3d
00000030: 2f63 91bd 0c1c 39bd 88a1 8abc 2d0b 143c
00000040: 2858 b63d d00b b53d e9a5 c1bb 6d1b 113d
00000050: 74b8 b8bb f618 c53d 0597 a93c f3c6 f6bd
00000060: bbbd 003e a767 f2bc a024 923d 5154 1c3d
00000070: 02b2 10be d53a a6bd 1850 513d 761c 31bb
00000080: cf72 d7bd 1593 a73d f662 65bc 10a0 f13d
00000090: 17fd c7bd a7d9 c5bc 9985 ad3d f512 02bd
000000a0: e275 2e3e 1beb 283d 44aa f4bb d10d d3bc
000000b0: e00f 0a3d b92a c1bd 9602 fd3c 80a7 f8bd
000000c0: f14c f8bc 7767 4abd ab32 d73c c29a 60bd
000000d0: ea53 6d3d 3854 ea3c 8184 be3c 2062 91bd
000000e0: 4b35 283d ff79 f9bc cfa2 153e 9304 d33d
000000f0: b392 7bbd c5dd 93bd dd2e 273b 190d 363d
00000100: d2d6 7ebd 0aa6 35bd f07d 833d e06d 7a3d
00000110: 422a fd3d 3380 ee3c 053b 9a3c 925f 1f3d
00000120: 2c14 143e bb42 a9bd 1a37 8abd 0293 c53d
00000130: e60a 5c3c e004 033e 3b9b 5b3d f9b3 733d
00000140: 7898 233e 4464 b43d fc8f 853d 93a6 5e3c
00000150: 51e9 fe3d 096f b43d 1eb9 973d c2de 683d
00000160: 439f 923d 0126 bcba 36b3 0e3e 80bc ca3d
00000170: d50c b1bc 3ed6 09be 34c7 2c3e 3c64 ce3d
00000180: 4512 e83d 468f 9aba 5c18 023d 0f57 fabc
00000190: 5cd0 e0bc ad0d 28bb 6666 153d 477b 9a3d
000001a0: 3cc8 64bc fccc 0c3e e2d0 0a3e 430a 073e
000001b0: 5e61 b43d 4071 c33c 52a0 da3d f745 803d
000001c0: a924 e53d 5765 28bd b01a 42bc 701a c83d
000001d0: f145 9c3d 0019 193e a7fd 103d cefa cf3c
000001e0: 5825 1dbe 63c5 8ebc be44 043e 094a 10be
000001f0: cdb8 d0bc 4e9d b93c 5df7 e0bc 6c74 d13b
00000200: 4229 c73e b6c0 d3bd 900a 04bc ead9 473c
00000210: e4a7 1bbe f07d 333e 09a3 df3c 1e01 40be
00000220: ce47 393e 1a2d f0be a3ba 5abd e2d1 64be
00000230: c3d8 62bd f739 a4bd 6dad 653d ba7d 85bd
00000240: c608 85be af93 963a dfb5 25be 31d9 eabd
00000250: 4029 0d3e 3eaf c73d 6c47 dcbe fb7d 123e
00000260: 6bc4 e53c 9175 843b 0949 033e 5e02 98bd
00000270: 9788 1e3e 3e02 7f3e 6236 673c f18f 853d
00000280: 743e 373e f679 14be 953e 843e de2d ee3d
00000290: d6fb 98bd 4e4c 54be f9bb c63c d00a fe3d
000002a0: 6cd3 debd dd5b bebe 6515 0cbe 5f84 f0bd
000002b0: 5669 013c a653 07bc b557 2fbe 9adc 0f3e
000002c0: a1e8 8f3d 2fcc cfbd e3d2 d93d 16f5 dd3e
000002d0: 7510 963e 4694 803c bee9 263d 442b 20be
000002e0: 8c6e b53d 9936 413e e5c3 263e 0c71 5fbd
000002f0: 2bc8 62bd 99b2 05be 9098 cb3b eee1 2ebe
00000300: 65b8 0bbf 173c 86bd 145a 233e 0e0d dabc
00000310: 8d4b 25bd a5dc 1cbe 64bc eabc c065 c13d
00000320: ff55 adbd 607f 713d 5144 95be 5014 cd3d
00000330: 4afd 6cba 2cd8 5cbe 7417 ac3c 9069 58bb
00000340: 3cbb 853d 08c1 473e f625 b0bd b97c ce3d
00000350: a9d5 a23b b5fc a8bd 6376 0dbe a740 d33d
00000360: ff71 21bd 221c edbe 5ab5 593d 90a4 0ebd
00000370: ef55 e23d 3da3 d9bd a4d8 babc 1dd0 203e
00000380: 8419 f43e 34fd 323d f5b4 5b3b 840a 1dbe
00000390: ec4b 30bf 8dfc e23d 7288 a2bc 385a b43d
000003a0: 3c7f 61be b84a 64be 5a16 bdbd e7bd 2a3d
000003b0: 3bf3 9ebd 8053 2ebe 3322 5abe 3bc0 2abe
000003c0: cf5d fd3c 4b95 aabd d0c9 013e e2e0 0d3e
000003d0: 2a33 0f3d 2a73 a03d 92e8 e9bd 923c 2dbd
000003e0: 6b40 073e 8cc7 133e 0a13 50be b3c4 523e
000003f0: 4370 153e 0926 01bd e8a4 acbd d039 d13d
0.33976018 0.06568346 0.16410333 0.07184708 0.020730378 0.07681745 -0.12126098 0.16998999
-0.067285016 0.0016188396 -0.0545548 0.038494397 -0.07098996 -0.045192763 -0.016922727 0.009035868
0.08903533 0.08840144 -0.0059096706 0.035426546 -0.005637223 0.096239015 0.020701895 -0.12049665
0.12572376 -0.02959044 0.07135892 0.038166348 -0.14130405 -0.0811669 0.051101774 -0.002702502
-0.10519945 0.081823505 -0.014000645 0.117981076 -0.0976507 -0.024151636 0.08472747 -0.03175636
0.17037156 0.04123984 -0.0074665863 -0.025763424 0.033706546 -0.09431977 0.030885022 -0.12141323
-0.030310126 -0.049415078 0.026269278 -0.05483509 0.057941355 0.028604612 0.023256542 -0.07098794
0.04106645 -0.03045368 0.14612888 0.10303607 -0.0614192 -0.072200336 0.002551011 0.044446085
-0.062216587 -0.0443478 0.06420505 0.06113994 0.12361576 0.029113865 0.01882697 0.038909502
0.1446082 -0.08264681 -0.06748791 0.0964718 0.013430333 0.12794828 0.053614836 0.059497807
0.15976131 0.08808187 0.065216035 0.013589519 0.12446845 0.08810241 0.07408355 0.056853063
0.07159283 -0.0014354588 0.13935551 0.09899235 -0.021612564 -0.13460633 0.16872865 0.10077712
0.1133161 -0.0011791966 0.031761512 -0.03055909 -0.027443103 -0.0025642917 0.036474608 0.075430445
-0.013963755 0.1375007 0.13556245 0.13187508 0.08807634 0.023857713 0.1067511 0.06263345
0.11188633 -0.04111227 -0.011847183 0.097706676 0.07630528 0.14950943 0.03539815 0.025388148
-0.15346277 -0.017428106 0.12916848 -0.14090742 -0.025478745 0.022658017 -0.027461702 0.0063920524
0.38898665 -0.10339491 -0.008059159 0.012197951 -0.15200764 0.1752851 0.02729942 -0.18750426
0.18093798 -0.4690941 -0.053400647 -0.22345689 -0.0553825 -0.080188684 0.056073595 -0.06518121
-0.25983256 0.0011488105 -0.1618266 -0.11467207 0.13785267 0.09750222 -0.4302324 0.1430587
0.028047761 0.0040423353 0.1282083 -0.074223265 0.15481792 0.24903199 0.014112087 0.06521595
0.17894918 -0.1449965 0.25828996 0.11629842 -0.07469909 -0.20732233 0.024259554 0.12404406
-0.10880169 -0.3717946 -0.13680036 -0.11743998 0.007898649 -0.008259689 -0.17123301 0.14048997
0.07026792 -0.10146367 0.106359266 0.43351048 0.2930943 0.015695702 0.040750258 -0.15641505
0.08858976 0.18868484 0.16285665 -0.05455117 -0.055366676 -0.13056411 0.006213255 -0.17078373
-0.5457824 -0.0655443 0.15952331 -0.026617553 -0.040355254 -0.15318544 -0.028654285 0.094432354
-0.08463668 0.058959365 -0.29153684 0.1001364 -0.00090404286 -0.21566838 0.021007277 -0.0033021905
0.06529853 0.1950723 -0.086009905 0.10082383 0.004969318 -0.08251325 -0.13814692 0.10315066
-0.039415356 -0.46310526 0.053151466 -0.034824908 0.11051547 -0.10626838 -0.02280838 0.15704389
0.47675717 0.043698505 0.0033524607 -0.15336043 -0.6886585 0.110833265 -0.019840453 0.0880627
-0.22021192 -0.22294128 -0.09232779 0.04168501 -0.07761236 -0.1702404 -0.21302108 -0.16674893
0.03092852 -0.083292566 0.12674642 0.13855317 0.034960903 0.07834466 -0.114213124 -0.042294092
0.13208167 0.1443159 -0.20319763 0.20582847 0.14593606 -0.031530414 -0.08429891 0.10216105

layers.1.bias f4 [128]
00000000: 50ae 1b3e fc7c 00bc 62ba a33d d137 553d
00000010: 858d 1dbd 0288 c83d 8905 ff3d 4feb 8ebd
00000020: 6bd9 203e df53 023e fd6d 9abc a864 7c3d
00000030: ff2f cf3b b47d a93d 7023 a83c 0dc3 d43d
00000040: 3d27 043e 1f1f b0bd 548f 87bd d2bc 9d3d
00000050: 90ee 363e a0ae c43d 1df2 8abd b450 dc3d
00000060: 1f43 5d3e a685 acbb 296a a83d 93b1 673d
00000070: 817b db3d 4660 1a3e 82e9 763d beaa ee3c
00000080: 4a2d e53d 8acc 1d3e 98c9 b33d 335f cf3d
00000090: b44a 2c3c 2cdd f83d 1f8f 55bd 70df 443e
000000a0: d684 42bc 0079 9abd a2a7 583d 2f08 763d
000000b0: 36cf 95bd 4817 2f3e 4d88 e73d 31c3 1d3e
000000c0: 535e 313e 2b7b d53d 5e49 42bd 2565 f03d
000000d0: d629 263e 8595 013e 64a6 c13d 2e1c 4d3e
000000e0: e975 073e aaf2 293e 9340 e63d d8c9 003c
000000f0: 367a 2f3e 0f19 38bd 339a fcbc e7ee 793d
00000100: be57 ca3d c63a c5b8 e6d6 843d 15ea 153e
00000110: 4537 2c3e b7b9 0d3e 86fa c9bc fe36 413e
00000120: 3a1b 813d b48d 893d 2681 7e3c bbd6 363e
00000130: 7a5b 573e 8291 3a3c 4561 b13d 8cff ee3c
00000140: 0769 4e3e 2b12 dd3d 2994 223e 4203 8a3d
00000150: 7e6c 1dbc 7f1f 453e a3f0 2abd e6c6 163d
00000160: be75 2c3e 2df6 ff3c c3e7 183e 614a 713d
00000170: 9378 0b3e 2faf 1c3e a110 133e c07a d03c
00000180: 2c8c 083e 7f73 013e 8858 6d3d caf4 613d
00000190: 17da 4dbd 24ad 573e 2706 c73d 4afb 88bd
000001a0: c85d 8c3b 7387 f33c 370f 0b3e 11bf 903d
000001b0: 5285 b33d 6d8a a23d 742d b53d fc54 383e
000001c0: a972 303e fb88 0f3e cdeb 0a3d 6398 a13d
000001d0: 74f6 7c3d 662e de3d cea3 f43d 6906 c73d
000001e0: d0f7 f33c 03ad 1f3c db15 ab3d 14e0 453e
000001f0: ecae 0c3e 5ccb 63bd 5e89 103e c2bc 213e
0.15203214 -0.007842299 0.07994534 0.052055184 -0.03846504 0.097915664 0.124522276 -0.06978475
0.15707938 0.12727307 -0.018851275 0.06161943 0.0063228603 0.08275929 0.02052471 0.103887655
0.12905593 -0.08599686 -0.066191345 0.0770203 0.17864442 0.096036196 -0.06784461 0.107575804
0.21607636 -0.0052649556 0.082233734 0.056565832 0.10716916 0.15075788 0.060281284 0.02913415
0.11190279 0.15410057 0.08778685 0.1012558 0.0105158575 0.1215156 -0.052138444 0.1922586
-0.011872491 -0.0754261 0.052894242 0.0600664 -0.07314913 0.17098725 0.11305294 0.15406491
0.17321138 0.10423883 -0.04743325 0.11738042 0.16226897 0.12654693 0.094555646 0.20030281
0.13228573 0.16596475 0.11242785 0.007860623 0.17136464 -0.044945773 -0.030835247 0.06101885
0.09880017 -9.4046394e-05 0.06486301 0.14640076 0.16817959 0.13840376 -0.024655592 0.18868634
0.06304021 0.06716481 0.015533721 0.1785535 0.2103099 0.011387231 0.08661131 0.029174589
0.20157252 0.10794481 0.15876831 0.06738903 -0.009608386 0.19250296 -0.041733395 0.036810778
0.1684179 0.031245315 0.1493216 0.058908824 0.13620214 0.15301202 0.14361812 0.025449157
0.13334721 0.12641715 0.057945758 0.05516509 -0.050256815 0.21062142 0.0971797 -0.066885546
0.0042836405 0.029727673 0.13580023 0.07067693 0.08765663 0.07936559 0.0884656 0.18001169
0.1723124 0.14017098 0.033916283 0.078903936 0.061758474 0.108486935 0.11945306 0.097180195
0.029781252 0.009745839 0.08353778 0.1932376 0.13738602 -0.05561386 0.14114901 0.15794662

layers.2.weight f4 [64, 128]
00000000: 899e ea3c 7afe 70be ab1c ec3b 1d57 1f3e
00000010: 9d27 893e 974a a33e 693d e33d 9b5c 9ebe
00000020: f3c4 9b3d 29b8 35bf d70b f43b ad2a 8fbd
00000030: 79ec b23d c9cb 423e 5610 8a3c 7a28 43bd
00000040: f1fe cebd a9e9 bfbd e4ff 08bc c219 823d
00000050: a4f7 15be 4f61 11be 1233 1dbd 06d6 2fbf
00000060: 1fc9 a2be 1ae1 cfbd 4577 4dbf 0130 50bd
00000070: 51eb d3be b3e4 cc3d 0fec a7bd 89b1 55bd
00000080: db60 f53c ad5d 55bd 4276 b33d 2870 f5bd
00000090: e7e4 edbe eae8 813d f94c 073b 9580 a93d
000000a0: 3f7b 163e c780 d83d f728 47bd 034c 13be
000000b0: 39b4 49bf 98b8 b23c fbe7 833d 1632 31bc
000000c0: 1536 22bb 1528 c43b 15f2 08bd 3d79 01bd
000000d0: df9c 47be b792 ba3e 4deb 033f 8ee5 b2be
000000e0: a1d9 c9be 3186 dbbd 58df bfbd 261b 86bd
000000f0: 83c5 313d 9c1d 063d ad65 c4bd 3a82 08be
00000100: dc26 4cbd 5a22 edbe f132 aabd ab42 023e
00000110: 9b39 8bbc 0a79 bebd 7825 98bd b3ea 8e3e
00000120: a827 623d 7659 9dbe fee1 02bd 2f05 4ebe
00000130: 22b7 263d 1540 a43e b24d 8cbb dbf6 313e
00000140: 030e 43be 9172 6cbf f995 d3bd 221d 32bf
00000150: f955 de3e b0a7 873d f18a 8d3e f662 d3bd
00000160: 9cc1 00bd 0da5 85bd 1325 8dbc 1236 0abd
00000170: 16af 8e3d 8197 c63d 69b1 223d fb66 b73c
00000180: 31d0 44bd f4d4 efbd 4780 a3bd a011 e1bd
00000190: 991a b13e 20fd 3d3e bace 29be a95a d5bd
000001a0: 3586 86be 00a9 56bd fbe0 1c3d cb6f c2bd
000001b0: 24c6 96bb 84f5 b53e 3ed0 1d3f b80c dcbe
000001c0: df72 eabc f8d9 84bc 290a ca3e 1b4c 9a3d
000001d0: f4b9 71be be4d 2cbd 74ad 763c ab5d 97be
000001e0: b0e2 903e c269 6d3e 80af e3bd 042c 903c
000001f0: 5874 00be 46c4 bebd d2ca 36bc c67f b53d
00000200: 724f a33d 5016 95be 3fb7 00be bdf2 183e
00000210: 7d2d 3b3e 7f64 443e 1390 a33d 940c 2dbe
00000220: ff48 003e 5999 6dbe 7394 78bd daf5 99be
00000230: 2541 dfbc d681 1d3e b637 953d b50b 18be
00000240: 0cb5 bbbd adee dabc 18bb 91bd f89f 8fbb
00000250: c8a4 f43d 1d48 bcbd 12e8 163d 9f15 1cbe
00000260: bc29 a6be 81c5 b4bd 54a6 20bf df69 37bc
00000270: 92ef 98be b807 e63d 9ea9 96bc cf8d 7ebb
00000280: 0b9d 213c 77d9 d73b afe5 423c e97c 8b3d
00000290: d1c3 e6bd 9e7a f0bc 10a3 0fbb 40b9 8d3b
000002a0: b001 d93d 476f a2bd 9567 6a3d 7ee3 66be
000002b0: ad9c fcbe baee 803d b10e 82bd 702a 92bd
000002c0: fcd8 893d 66cc d53c a88c 5c3e 88f8 c03c
000002d0: 8e58 563b abf1 89bd 2e84 b83e f65f ecbe
000002e0: 93fa ffbe b0e8 9ebe 830f d9bc 57bb f0bd
000002f0: 0dd6 8a39 b951 a83d 9a1c 2abd 66e5 313c
00000300: f28e 0a3e dae5 5d3d c122 0bbb d3e5 df3c
00000310: e494 263d 8154 35bd da68 1abd 6bf2 353e
00000320: c506 ac3d 71ac 9cbe 9fc5 35bd 6dc2 fabd
00000330: 7374 6a3d 16c3 fabb 6815 933d 7d53 e3bc
00000340: 8eb9 7e3b c016 68be de7d af3c 7a56 b8bd
00000350: f508 fb3e 038d d33a 8d57 dd3d 6e56 83be
00000360: d101 2d3c 220b 8d3d 40ee 93bc 0148 753d
00000370: 61e5 813d 5608 113d d9f5 763d 7c61 aa3c
00000380: 5b09 c3bc 5ca9 683d 95c8 28bd 12b1 9ebd
00000390: 42ee c43e 5c0f 7d3d 9aec 09bd 25ea 773d
000003a0: 7e44 b8bd 9f3a 123d 846b 023e 9591 a3bd
000003b0: ada9 59bd d0c7 883e 680d 0d3f 8a65 33bf
000003c0: f797 00bc 81d7 ca3d 6a10 953e 36f1 b2bd
000003d0: 0fd6 b2be 94aa 02bd 966f b2bd 231b 5abe
000003e0: a053 1d3e 97e2 723c e0d5 bbbd d2f4 0b3d
000003f0: c6a3 e03b 066b 5abd 03e1 383d b1de 29bd
0.028640049 -0.23534575 0.007205566 0.15560575 0.26788035 0.31892845 0.110956974 -0.30930027
0.076059245 -0.7098413 0.0074477005 -0.06990562 0.0873651 0.1902305 0.016853493 -0.047646023
-0.1010722 -0.09370739 -0.00836179 0.06352569 -0.14645249 -0.14197277 -0.038378783 -0.6868595
-0.31794068 -0.101503566 -0.80260116 -0.05082703 -0.4139047 0.100045584 -0.081993215 -0.052171264
0.02995341 -0.05209129 0.0876279 -0.11984283 -0.464637 0.06343253 0.0020645245 0.08276478
0.14695452 0.10571437 -0.04862305 -0.14384465 -0.7879062 0.021816537 0.06440731 -0.010815164
-0.0024751474 0.0059862235 -0.033433992 -0.031609762 -0.19493435 0.3644006 0.51530915 -0.3494076
-0.3942385 -0.10718954 -0.09368771 -0.06548147 0.043401252 0.03274308 -0.095897056 -0.13330927
-0.049841747 -0.4631527 -0.083104976 0.12720744 -0.016995242 -0.0930043 -0.074290216 0.27913436
0.0552136 -0.30732316 -0.031953804 -0.20119165 0.040701993 0.3208014 -0.004281723 0.17379324
-0.19048314 -0.92362314 -0.103313394 -0.69575703 0.43424967 0.06623781 0.27645066 -0.1032161
-0.03143464 -0.065256216 -0.017229592 -0.03374297 0.06966989 0.09696866 0.039719973 0.022387972
-0.04805011 -0.117105395 -0.07983451 -0.1098969 0.34590605 0.18553591 -0.16582766 -0.10417683
-0.26274267 -0.052407265 0.038300496 -0.09493979 -0.004601257 0.35538876 0.6164588 -0.42978454
-0.028619228 -0.016217217 0.39460877 0.07534047 -0.23606092 -0.04206633 0.015056003 -0.2956365
0.2829795 0.23184875 -0.11117458 0.017599113 -0.12544382 -0.0931478 -0.011156755 0.088622615
0.07974137 -0.29118586 -0.12569903 0.14936347 0.18279071 0.19178961 0.07986464 -0.1689933
0.12527846 -0.23203029 -0.060688447 -0.30070382 -0.027252743 0.1538156 0.07286017 -0.14848216
-0.09165391 -0.026725138 -0.071157634 -0.0043830834 0.11945492 -0.09193442 0.036842413 -0.15242623
-0.32453716 -0.088267334 -0.62753797 -0.011194675 -0.29870278 0.11231941 -0.018391427 -0.0038841849
0.009864102 0.006587203 0.011895581 0.06810934 -0.11267818 -0.029355343 -0.0021917261 0.004325062
0.10596025 -0.07931381 0.05722769 -0.22547719 -0.49338284 0.062955335 -0.063504584 -0.071370006
0.067308396 0.026098441 0.21538031 0.023556009 0.0032706591 -0.06735548 0.36038345 -0.46166962
-0.4999586 -0.310369 -0.026496654 -0.11754482 0.0002648089 0.08218712 -0.041531183 0.0108579155
0.13531092 0.05417428 -0.0021230432 0.027331268 0.040669337 -0.044270042 -0.03769765 0.17768256
0.08399729 -0.30600312 -0.04437792 -0.12244115 0.05723996 -0.0076526506 0.07181817 -0.027749771
0.0038867923 -0.22664928 0.021422323 -0.09000869 0.4903027 0.0016140047 0.108077146 -0.25651878
0.010559515 0.06886889 -0.018057942 0.05988312 0.06342579 0.03540834 0.060293052 0.020798437
-0.023808172 0.05680214 -0.041206915 -0.07748617 0.38463026 0.061782226 -0.033672906 0.060526032
-0.08997439 0.035700437 0.12736326 -0.07986752 -0.05314033 0.26714945 0.5509858 -0.7007681
-0.007848731 0.09904385 0.29114085 -0.087374136 -0.3492894 -0.031900957 -0.087126896 -0.21299414
0.15363932 0.014824531 -0.09171653 0.034169026 0.006855461 -0.05332472 0.045136463 -0.04147214

layers.2.bias f4 [64]
00000000: 1283 af3e c1d5 803e fb3c ecbd 12cb 303d
00000010: e06e 943d e5d1 2a3e a7ec 39bd beec 963c
00000020: 18a1 6b3d 8797 5fbc 4fc9 683d c0e5 0d3e
00000030: 5cc5 21bd 5442 cd3c f625 3d3e 1459 9f3d
00000040: 15d8 763c ff4b 223d ae42 483e ba08 e93d
00000050: 50de 143e 6b3b a93b 7635 69bd f3bc ecbc
00000060: 3f59 733d 31fc 1f3d a00a 033e c321 2b3d
00000070: 7a50 383e 1ed6 043e 1f67 a9bd b262 293e
00000080: 6bdd b6bd 4785 3c3e 90a1 4bbb 261e 713d
00000090: 0946 4f3d 5b2a 083e cb67 563e ce96 013d
000000a0: 7d03 9a3e f87a a6bd 4798 0fbd d8fb 333e
000000b0: 9912 393e 4a97 433e 182d aebb 4bd1 3c3d
000000c0: 81d7 1d3e 2893 08bd 652c 593d 5809 30bc
000000d0: 8545 413e 8892 23bd 2ced 693d fa8a d33d
000000e0: 9a53 c6bc ec31 6fbd 1d16 1a3d c799 4ebc
000000f0: d4a4 443d ded8 893e a913 7e3e 690d ecbd
0.34279686 0.2516308 -0.115350686 0.043162413 0.0724771 0.16681631 -0.045391705 0.018423434
0.057526678 -0.013646967 0.056832608 0.13857174 -0.039494857 0.025056042 0.18471512 0.07780662
0.015066166 0.039623257 0.19556686 0.113786176 0.1453793 0.005164554 -0.05693575 -0.028898692
0.059411284 0.039058868 0.12797022 0.041780245 0.1799945 0.12972304 -0.08271622 0.16541556
-0.08928951 0.18410216 -0.003107164 0.058866642 0.0506039 0.13297407 0.20938031 0.03163796
0.30080786 -0.08128923 -0.035057332 0.1757654 0.180735 0.19100681 -0.005315434 0.046098035
0.1541424 -0.033343464 0.053020854 -0.010744415 0.18874176 -0.039934665 0.05711095 0.10329242
-0.024209786 -0.05839722 0.037618745 -0.012609906 0.048008755 0.2692327 0.24812187 -0.11525995

readout.weight f4 [1, 64]
00000000: cf53 a13f cd0b 513f e1ba 7d3e e908 40be
00000010: 3516 04be 4136 61be 6a92 373d 5ea2 e83d
00000020: 08fc febd 7667 8c3d 9333 57be f710 5abe
00000030: 4109 a53e 9200 883c 1485 80be c6a1 f73c
00000040: 950e 2a3d 2219 783e acd2 b9be f1e6 4abe
00000050: 3354 52be c1a9 ebb9 9c1f 5e3a df9c 933e
00000060: 38fb 47be 96ef b2be b5f1 c4be ab9b 3c3e
00000070: fce0 76be 267c 5cbe 0e65 e33e 15cb 15be
00000080: 4dcf 433d d3ce 06be d6c7 a93d 301d 37be
00000090: aedc 843d 0833 27be ca46 d7be c923 22be
000000a0: d3bf 983f e6c9 d53e 253d d13d affe 22be
000000b0: 8e23 13be 463f 18be 76aa b43d fba7 6abe
000000c0: 0a39 05be f768 2c3e ac49 36be f93f 2e3e
000000d0: fb6c 57be b09d 4a3e 9970 0ebe 9e90 54be
000000e0: c2df d53c e758 8a3d ad76 29be 2a60 793d
000000f0: 23e5 963e 2953 06bf 955d 913f 93dd 8a3e
1.2603701 0.8165863 0.2477832 -0.18753399 -0.12899096 -0.21993352 0.044817366 0.11359094
-0.12450415 0.06855671 -0.21015768 -0.21295534 0.32233623 0.016601834 -0.2510153 0.030228507
0.041517813 0.24228337 -0.36293542 -0.1981466 -0.20539932 -0.0004494917 0.0008473338 0.2883062
-0.19529426 -0.34948415 -0.38465658 0.18418758 -0.24109262 -0.21531734 0.44413036 -0.14628251
0.04780512 -0.13164835 0.08290069 -0.17882228 0.06487404 -0.1632806 -0.42046195 -0.15833963
1.193354 0.417556 0.102167405 -0.15917467 -0.14369032 -0.14867887 0.08821575 -0.22915642
-0.1301004 0.16836916 -0.17801541 0.17016591 -0.21037666 0.19786716 -0.1391014 -0.20758292
0.026107673 0.06755238 -0.16549177 0.060882725 0.29471692 -0.5247064 1.1356684 0.27122173

layers.0.weight f4 [128, 3]
00000000: bffa 1d3f 1caa d03e 4389 213f ad08 f5be
00000010: 0869 1d3f d9a5 acbe fcf1 763d 6df5 13be
00000020: 2081 14bf b471 883e c389 13bf e9f3 233f
00000030: 24a7 ddbd 5018 2bbf 73e7 013f 8d77 4dbe
00000040: b8fa 00bf 0529 523e 69fc aabe 1022 32bf
00000050: fe0f af3e f503 acbe c99b 10be 1eb6 0f3f
00000060: 3df2 63bd 0c40 d3be 915f f83e e6fc dcbe
00000070: 350f 143f 4e81 123e db81 023f 5293 07bf
00000080: 80e0 91be 2a7d 763e 5a36 83be da73 d8be
00000090: 907c afbd fbf5 ba3e ab98 b2bd e11c e83e
000000a0: ffa3 38bf 00e5 f13e 26e5 103f dbd4 85be
000000b0: 0d10 cdbc 6f90 37be 8742 3fbf bf49 383e
000000c0: 89be 3dbf 316f 363f 56a7 063f 14e0 3bbe
000000d0: 1b1a 42bb 81c3 acbe 0007 e03e 00fd 693a
000000e0: 344f 9d3e cda2 52be 5ee0 4c3d c86b cabe
000000f0: 18b5 3bbd 0b11 fa3e ce49 bd3e ad8f 25bf
00000100: 4aae 8b3e 067f 063e 63ac 1dbe fc80 f13e
00000110: c4ad 00bf 695c 18be c6c9 aabe 0f96 95be
00000120: cf61 963c a39f 9abe 5789 08bf 9262 e1be
00000130: e6bd 5b3c a897 963d 6033 693e abd5 6dbe
00000140: 22dc 063f 6f64 dc3e c248 b9be 446e 8fbd
00000150: f289 fcbe 2787 aa3d c0ad 173d ef26 22bf
00000160: 2018 0f3f 5d21 1cbf 66d8 a7be 60d1 023e
00000170: bc43 173f 2de8 583e 7f61 a43e f9b2 02be
00000180: 02f5 fd3d dd1c 6abe 2fb7 e2be e00b d93e
00000190: e051 1d3f 3982 063f 0b00 09bf 3bda 8f3c
000001a0: d80d a93e 24eb e13e 244f ed3e 0227 483d
000001b0: 0fdc 833e c074 433f 1985 de3d 14aa 86be
000001c0: 9269 1fbe 3824 e9be b399 ffbe d307 e5be
000001d0: 93a1 2dbe 113f fc3e 9577 06bf 8c74 05bf
000001e0: 5971 8ebd 949a e33d 08da d8be 43e7 30bf
000001f0: 7846 d3be 2ab7 eebd 4f68 d33e ee6d 3c3f
00000200: 8d5c bdbe d73a ef3d 73af f13d dcaf d3be
00000210: 491a 45bd dc80 06bf 77b3 b63e 2d7e 2f3f
00000220: bddc 4bbf 2ff9 10bf 25f5 7d3e 2232 e43e
00000230: 566c 20be ff1a 16bf 3d34 76be e0ef 0bbf
00000240: e347 2d3d f4a0 213f 521b b43e 8b00 f0be
00000250: 9840 223f b522 233e 0d9e 90be 93f3 823e
00000260: da5e 0cbf 12a4 4a3c 4429 373f c0b5 913d
00000270: 67c3 4cbe 8939 4cbf 2a30 d2be c744 a7be
00000280: bb48 c8be 4665 64bd c2eb 983e 6a8f 103f
00000290: 4221 5c3d 9c0e e73e a191 223f 4807 9b3e
000002a0: 2f34 f93e f385 703c 9327 853e 6f51 843e
000002b0: 6438 1dbe 286a 12bf 2c5f 13bf 2ede adbe
000002c0: 014d 7bbd 9319 8bbe fb99 8e3e 8378 ecbe
000002d0: eac9 d33e 45aa 4f3f adf3 dfbe 9711 77be
000002e0: b0cd c93e 7c2c bd3d 0476 eabe 1efa 99bd
000002f0: 2edc 1fbd 665d 9a3b 4695 e93e 41a4 3c3e
00000300: d79f 5cbe d598 b63e 71ff 393e 0930 8ebe
00000310: a9aa 6abf 74f1 d3be e07f 833e 845a 873e
00000320: f597 d13e dcce 90be 203f 1f3f 5989 53be
00000330: 8976 3b3c 6f07 18bf ad16 0dbf 8de3 3a3e
00000340: 1755 253f 852f 0dbf ba4e a53e 4d98 01bf
00000350: f299 fd3e b6f7 d4be 2ca1 943e 7a94 cdbe
00000360: 9d48 68be eba7 e2be 7c72 3dbe 07e5 2b3f
00000370: 2848 6f3e 3700 303e 32bc 20be 6cba f93e
00000380: a23b 673d cb6b f1be 0df1 b43e 3044 02bf
00000390: cce4 d43e 049c 52be e7c4 be3e ff21 d6bc
000003a0: 2d94 163f 921e 123f 3b9d 4cbe 9ed7 cf3d
000003b0: b3b4 523d dfa1 05bf 4153 b83e cd05 283e
000003c0: 9ed1 853d 9380 7fbd e5ba 92be 6a20 9bbe
000003d0: 1591 c63e 26b6 073f 6193 cfbe 63b2 3ebe
000003e0: bf83 2ebd 396f eabe 554e dd3c 23f1 00bf
000003f0: 51d8 853e c9aa 0f3f 6c6c d13e a96b 0a3e
0.61710733 0.40754783 0.6310007 -0.47858182 0.6148839 -0.33720282 0.060289368 -0.14449091
-0.5800953 0.2664925 -0.5763208 0.6404405 -0.10822895 -0.6683397 0.5074379 -0.20065136
-0.50382566 0.2052346 -0.333957 -0.69583225 0.3419189 -0.3359677 -0.14121927 0.56137264
-0.05565094 -0.412598 0.4851041 -0.43161696 0.57835704 0.14307138 0.50979394 -0.5295917
-0.28491592 0.24071184 -0.25627404 -0.42275888 -0.0856868 0.36515793 -0.08720525 0.45334533
-0.7212524 0.47245026 0.5659965 -0.26138958 -0.025032068 -0.17926191 -0.7471089 0.17996882
-0.7411886 0.71263415 0.52599084 -0.18347198 -0.002961761 -0.33742908 0.4375534 0.00089259446
0.3072449 -0.20569916 0.05001866 -0.39535356 -0.045827 0.48841128 0.3697037 -0.64672357
0.2728141 0.13134393 -0.15397792 0.4716872 -0.50265145 -0.14879002 -0.33357066 -0.29216048
0.018357186 -0.30199918 -0.53334564 -0.44020516 0.013411975 0.07353145 0.22773504 -0.23226039
0.52679646 0.43045375 -0.36188322 -0.070034534 -0.49323994 0.083265595 0.037030935 -0.6334066
0.55896187 -0.6098841 -0.32782286 0.12775183 0.5908773 0.21182318 0.32105634 -0.12763585
0.12400247 -0.22862573 -0.44280383 0.42391872 0.61453056 0.52542454 -0.5351569 0.017560115
0.33018374 0.4412471 0.46349442 0.048865326 0.2575383 0.7635002 0.1086523 -0.26301634
-0.15567616 -0.45535445 -0.4992195 -0.44732532 -0.16956167 0.49266866 -0.5252622 -0.5213096
-0.06955213 0.11113468 -0.42353845 -0.6910288 -0.412647 -0.116560295 0.4129052 0.7360524
-0.36984673 0.11681145 0.118010424 -0.41345108 -0.04812077 -0.52540374 0.35683796 0.68551904
-0.79633695 -0.56630224 0.24800546 0.44569498 -0.15666327 -0.5863494 -0.24043365 -0.54662895
0.042304885 0.6313622 0.35177094 -0.46875414 0.6337981 0.15931208 -0.28245583 0.25576457
-0.5483223 0.012368219 0.7154734 0.07114744 -0.19996415 -0.7977529 -0.4105237 -0.3266966
-0.3911799 -0.055760644 0.2986737 0.5646883 0.053742655 0.45128334 0.6350346 0.30278993
0.48672625 0.0146803735 0.26006755 0.2584338 -0.15353543 -0.5719323 -0.57567096 -0.33958572
-0.061352734 -0.2716795 0.27851853 -0.46185693 0.41364986 0.81119186 -0.43740597 -0.24127804
0.3941474 0.09237 -0.45793164 -0.07518409 -0.03902834 0.004710841 0.456217 0.18422033
-0.21545349 0.35663477 0.1816385 -0.27771023 -0.91666657 -0.41395152 0.25683498 0.26436245
0.40936247 -0.2828282 0.62205696 -0.20657863 0.011441835 -0.5938634 -0.55112725 0.18250866
0.6458296 -0.55150634 0.32286626 -0.5062302 0.49531513 -0.41595238 0.29029214 -0.4015234
-0.2268395 -0.44268736 -0.18500704 0.67146343 0.23367369 0.17187582 -0.15696791 0.4877504
0.056453355 -0.47152552 0.35340157 -0.50885296 0.41580808 -0.20567328 0.372596 -0.026139257
0.5881985 0.57077897 -0.19981854 0.101485476 0.05144186 -0.5220012 0.36001018 0.16408463
0.06534122 -0.062378477 -0.28658214 -0.30298167 0.38782564 0.5301231 -0.4054213 -0.18622737
-0.04260611 -0.4578798 0.02701489 -0.50367945 0.261416 0.5611997 0.40903032 0.13517632

layers.0.bias f4 [128]
00000000: acf4 f0be 6fa2 babe 8891 15bf 6b64 bf3e
00000010: d3ab a93c 4c67 f3bd 6c49 0fbd 4b39 8a3e
00000020: 801e 03bf 8336 5d3d 63cf 3f3d da6e c3be
00000030: 1eca b5bd b030 143f 2c11 123f c900 d1bd
00000040: c832 88be c0fd 073f 0340 d53e ad7e fa3e
00000050: e8ca 713d 3875 563e dae9 29be e34b 04bf
00000060: a32c 793e 1983 fb3d 1cc1 543e cdbf 113f
00000070: 7ad7 0ebe bb14 81bd 22ff 8abe 1fca 6d3d
00000080: f7fb dc3d 930c cdbe a18d 223f 5202 103f
00000090: f294 c43d f089 9c3c 494a dc3e 152d 8a3d
000000a0: 15ee f63c 2b81 56be 792a 543e bdc9 4b3e
000000b0: 0674 b23d 97db 04be f0c4 153d 34b6 0c3f
000000c0: 8374 b03e f5e5 113f dd2e 39be d39f cdbe
000000d0: 5754 f7bd b7f7 ac3e a783 91be 9e46 18be
000000e0: af59 34be 2cc0 cf3e a7a6 6c3d a58c 52be
000000f0: c100 33bc 92f0 e3be e340 753e 0627 a4be
00000100: 9ff8 283f dc8f c7bd 8cb8 3d3e e549 633e
00000110: 16b6 e43d a0b0 803e 05e8 b3be 9e76 2a3e
00000120: 8150 833e 5ae1 3cbc 6c5f e3be 66c6 cebe
00000130: 628a fb3e 2770 85bd 8444 fb3e aeb6 cf3e
00000140: 5340 7b3e 0fac f8bc f635 993e 7491 04bf
00000150: 548b a83e ffa8 c0be a870 61bd 617d 5abe
00000160: 22b6 c0be 554b 063e 34ab 1abf 499d 0e3f
00000170: 00fa 063f 21c0 cf3e dfef d53e 7fe3 823d
00000180: 540b bf3d 9585 303e 6e84 e5be 3bcd e13d
00000190: dcb9 623d 2d57 b8be ea5e a23d f2f1 153f
000001a0: dd83 89bc 2bd5 283d 51cc 483d 2b3f 0d3d
000001b0: db87 45bc cf7c 45be 3c35 c13e da34 f3be
000001c0: 1166 ea3e d104 5abe de0d bc3e 2b26 88be
000001d0: 5e51 b23e a28b 023f dfee ccbe b3fc b63e
000001e0: 5a41 30be 03be 193e 51d1 993e d61c ef3e
000001f0: 1823 aa3e 076e 6a3c 1cad 8b3c b23f 163d
-0.4706167 -0.36452052 -0.5842519 0.373813 0.020711815 -0.11884937 -0.03498213 0.26996836
-0.51218414 0.054007065 0.04682864 -0.3817051 -0.088764414 0.5788679 0.5705745 -0.10205228
-0.26601243 0.53121567 0.416504 0.4892477 0.059031397 0.20943153 -0.16593114 -0.51678294
0.24333434 0.12280864 0.2077679 0.5693329 -0.13949385 -0.06302782 -0.27147776 0.058054086
0.10790246 -0.40048656 0.6349736 0.5625354 0.095987216 0.019108742 0.43025425 0.0674688
0.030142823 -0.20947711 0.20719327 0.19901176 0.08713536 -0.12974392 0.036564767 0.5496552
0.3446389 0.5699151 -0.18084283 -0.40161 -0.120766334 0.3378274 -0.28420755 -0.14870688
-0.17612337 0.40576303 0.05777612 -0.20561464 -0.010925473 -0.44519478 0.23950534 -0.32061023
0.66004366 -0.09744236 0.1852743 0.22196157 0.11167543 0.25134754 -0.35137954 0.16646811
0.25647357 -0.011528337 -0.4440874 -0.4038574 0.49129015 -0.06515532 0.4907571 0.4056906
0.24536256 -0.030355481 0.2992398 -0.51784444 0.329188 -0.37628934 -0.055039078 -0.21336891
-0.37638956 0.13114674 -0.60417485 0.5570875 0.5272522 0.4057627 0.4178457 0.06391048
0.093283325 0.17238458 -0.44827598 0.11025473 0.05535303 -0.3600401 0.0792826 0.58572304
-0.01678651 0.041218918 0.049022976 0.03448407 -0.012056316 -0.19285892 0.37735927 -0.4750126
0.45780995 -0.212909 0.3672933 -0.2659162 0.34827703 0.5099431 -0.40025994 0.3573967
-0.1721243 0.1501389 0.30042508 0.46701688 0.332299 0.014308459 0.017050318 0.03668184

layers.1.weight f4 [128, 128]
00000000: 7d15 b7bd 0321 6f3d 86da 2fbc f453 bfbc
00000010: 8d1f 83bc afeb 163e 03fd c43d 41a3 983c
00000020: dc52 3dbe 7f72 20bd 142a 64bc f4bc 843d
00000030: 87e9 ecbd c1da 853d 64b7 1e3c 1be7 113d
00000040: 68ea b9bd 3fbc 413d f459 4abe dcdf 5b3d
00000050: cc45 84bd 164e 2abe c820 003d 3244 143d
00000060: 3ae7 a9bd dde7 cb3c f48e 77be 8546 80bd
00000070: 1479 8abe 6329 a43d 4335 7cbe 8da3 be3d
00000080: e563 203d 93d5 33be e3cf 11be 8d2d aabd
00000090: 3c18 1b3e 17bf 823d a9e3 3d3d 238c bc3c
000000a0: 05b2 153b 31a6 9a3d bc1d a4bd e3f7 cf3c
000000b0: ba3f 12bd c97f a03c ed48 a33d 7002 b33c
000000c0: 1297 e0bc b8d1 1dbd b4a9 f43b 0c38 173f
000000d0: 1079 c63d 06a0 323c 4cce 573d d4b3 b5bd
000000e0: 0ecb 8c3d 835c c9bd a598 8c3d 8fa4 8ebd
000000f0: 5453 133c 1aae 6c3d 6366 8fbc 371d 8e3d
00000100: 380c 73bc ad48 03bd 63d8 27be 47ec 243c
00000110: 60e7 71bd a5e1 8b3d 01e5 943c 9ce6 753d
00000120: d14f 623d 139e eebd 794c db3d 8042 9abc
00000130: c3ea 923d 93f7 a6bd 783d dc3c d0f5 a0bc
00000140: 1dbb cdbc 2d44 1fbd c66e d53d a11f bfbc
00000150: 2860 163c ee8d d63d 5de9 b1bc 0642 ca3e
00000160: efe8 2abd f768 84bc 31e3 383c f5e5 993d
00000170: 9901 e9bd 54c9 dabc 68ce 6cbd 674d bc3d
00000180: 10f9 f93b e23d 2f3c 566c 75bd 17f8 973c
00000190: e3df b53d 106a 223d ea01 8bbc 92eb 673d
000001a0: dc65 c73d ae4d f03d 4337 693d 9e21 363d
000001b0: b5b1 2abe 6445 12bd 7263 7ebd c2d4 54be
000001c0: d1b1 bb3d 7091 7b3d 8be7 bf3d 6857 81be
000001d0: 71be a93c f589 e13c 1fd2 06bd 9108 8e3d
000001e0: 9a29 6cbd 125d 6c3b c8ef a8bc 2c73 1d3c
000001f0: cadf 393d 3762 8b3d fbcb bd3d 1c8b 253d
00000200: 3c6c 10be 931e 9e3d cf06 e6bd 89b3 ebbd
00000210: d197 77be 922b 183d ab1b 9dbd 5da7 9ebd
00000220: f316 80be 4800 ea3c 4654 f2bd d707 4c3c
00000230: d48f 45be ac28 14be 461f ed3d 0f24 b43d
00000240: 96b0 2bbd 680e 90bc 8dcd c0bd 9bda aabc
00000250: fd85 56bd 0e19 8d3c 7e14 583d 9926 bcbd
00000260: 60c8 cebd 3f2f c83c 2f3e b0be 3041 a7bb
00000270: d2d2 003d 966b a23d 537c 34be 880d c53b
00000280: 7a6c 8ebd 1014 95bd c956 6dbd 215c e43c
00000290: ac16 a8bb d1e9 663d 56aa e8bc 4bbf 4a3c
000002a0: 3948 3c3c b5b2 fd3c 8419 9abd 5964 07ba
000002b0: b5f2 24be 6ccc cabd d3fc 053e 3bea f83c
000002c0: 2768 94bc 0ca8 51bd f6c9 36bd 2aba ac3e
000002d0: ba8c 49bc d212 d23d bed6 743e e751 403e
000002e0: 8cca 243e 564d 693d 2b52 ac3d c433 0f3d
000002f0: 785c 9dbc 98ef 383e fe1a 963d ce11 2a3e
00000300: 6b4c 85bd 7f45 583d f764 76be c8da a13d
00000310: 26a1 5c3d 15ba 563d 4893 67be 5287 b7bc
00000320: baa1 f7bc e7d0 91bd 04f5 6d3e 1d7c 873b
00000330: efda b7bd 754d 44be 2985 cf3a 9725 a43d
00000340: 9557 de3c b675 77bd ecd7 c23d 4bc7 b0bd
00000350: cfdf bb3b aa3f 263e 77b5 85bd d3b2 8c3e
00000360: 5c1b 0fbe 9644 933d 9bb9 6bbb 48ef 99be
00000370: b9f1 47bd 8dd9 41bd 870e ddbd a7bd c3bc
00000380: c91c 1a3d 195d 15be 2d15 96be 45bd aa3d
00000390: e235 43bd 3068 ae3c 9ab3 c8bd 2366 34bc
000003a0: 557c e9be 76d0 a73d d0c4 30bb c1a3 83bd
000003b0: c1fe 8bbe 8927 cdbd 62c3 3ebd 44b7 6dbe
000003c0: fb3d 4dbe f45d da3b f1a9 573d d1c8 4fbe
000003d0: c7f3 2dbd cd88 05be 9ec4 26be 47e4 dc3d
000003e0: c871 21be 2a81 5e3d 12d3 53bc acdb 1b3d
000003f0: 838b c33d c907 a43e 1aee 9abd ae65 483d
-0.089396454 0.05838109 -0.010733252 -0.023355462 -0.016006256 0.14738344 0.09618571 0.018632533
-0.1848864 -0.039171692 -0.013926048 0.064813524 -0.11567979 0.065358646 0.009687278 0.03562079
-0.090779126 0.047298666 -0.19760877 0.053680286 -0.06458625 -0.1663135 0.031281263 0.03619785
-0.08296056 0.024890834 -0.24175626 -0.062634505 -0.270455 0.080157064 -0.24629693 0.093085386
0.039157767 -0.17561941 -0.14239459 -0.08309469 0.15145963 0.06384104 0.04635969 0.023016041
0.0022841704 0.0755123 -0.08013484 0.025386756 -0.035705306 0.019592183 0.07972894 0.021851748
-0.027415786 -0.03853008 0.0074665193 0.59069896 0.096910596 0.01090241 0.052686974 -0.0887219
0.06874667 -0.09832098 0.06865052 -0.06964981 0.008992035 0.057783224 -0.017504876 0.06939166
-0.014834456 -0.03205173 -0.16391139 0.0100660985 -0.059058547 0.06830148 0.018175604 0.06003438
0.0552519 -0.11651244 0.107079454 -0.018830538 0.071736835 -0.0815269 0.02688478 -0.019648463
-0.025113637 -0.038883377 0.10421519 -0.023330512 0.009178199 0.1047629 -0.021717722 0.39503497
-0.04172605 -0.016163332 0.011284635 0.07514564 -0.11377258 -0.026707329 -0.05781403 0.09194451
0.0076285675 0.010695906 -0.05991777 0.018550916 0.08880594 0.03965193 -0.016968686 0.05662114
0.09736225 0.11733566 0.056937467 0.044465654 -0.16669352 -0.035710707 -0.062106557 -0.20784286
0.09164775 0.061417997 0.09370335 -0.25261998 0.020720692 0.027531603 -0.03291523 0.06935228
-0.05765686 0.0036066216 -0.02062215 0.009609979 0.045379438 0.06805842 0.09267422 0.04041587
-0.14103788 0.07720675 -0.112317674 -0.11508853 -0.24179007 0.037150927 -0.07671293 -0.07746766
-0.2501751 0.028564587 -0.1183248 0.012453041 -0.19293147 -0.1446864 0.115782306 0.0879594
-0.041916452 -0.017584994 -0.09414206 -0.020856192 -0.052373875 0.017223861 0.052753918 -0.091870494
-0.10096812 0.024436591 -0.34422442 -0.0051042065 0.031451054 0.07930677 -0.17625551 0.006013576
-0.06954284 -0.07279217 -0.057944093 0.027875962 -0.005129656 0.05637533 -0.028401535 0.012374709
0.011491829 0.030969003 -0.07524398 -0.0005164794 -0.1610821 -0.09902272 0.13084726 0.030385127
-0.01811607 -0.051185653 -0.0446262 0.33735782 -0.012301618 0.10257496 0.23910043 0.18781243
0.1609289 0.05695852 0.0841411 0.034961477 -0.019209132 0.18060148 0.07329367 0.16608354
-0.06508716 0.05280065 -0.24061953 0.07903057 0.05386462 0.052423555 -0.22614777 -0.022403393
-0.030228484 -0.07119923 0.23237997 0.0041346685 -0.08977305 -0.19170173 0.0015832531 0.08014982
0.027141372 -0.060414992 0.0951384 -0.08631762 0.005733467 0.16235223 -0.06528752 0.27480182
-0.1397528 0.07190816 -0.0035968784 -0.3006537 -0.04881451 -0.047326613 -0.107937865 -0.023894144
0.037625108 -0.14586295 -0.2931303 0.083368815 -0.04765881 0.021289915 -0.09799881 -0.011010679
-0.4560267 0.08194058 -0.0026972778 -0.06427718 -0.273428 -0.10017306 -0.04657305 -0.23214442
-0.20043175 0.006664032 0.052652303 -0.20291449 -0.042468812 -0.13040467 -0.16285941 0.10785728
-0.1576606 0.0543224 -0.012928741 0.038051292 0.09548094 0.3203719 -0.075649455 0.048925094

layers.1.bias f4 [128]
00000000: fa56 e63c 7bf6 803d eb63 c5bd 7314 5f3c
00000010: ff7f 633d 4f12 00bd 1748 bf3d c549 2c3c
00000020: 4107 ee3c 63bb 333d bccf 3c3d e74c 4abd
00000030: fc26 b1bd 427f 303d 278a d4bb 94d2 fabc
00000040: 91d2 cc3c b4d6 4e3c f4dd e7bd bf16 093d
00000050: ada3 2e3d 1f47 0ebd c076 643d 0741 a43c
00000060: 580f 5cbc 9662 623d 9d15 ec3d a195 a23d
00000070: faa7 ad3d 6004 8c3c 71e0 893d 17fb b23d
00000080: 47a8 ac3c 77af 9ebc 307d d93d 2ae8 203d
00000090: c2cc 4abd 8085 b33d bfd0 193c 9258 75bd
000000a0: ab42 b13d 9852 093d 60d9 fe3c 3630 413c
000000b0: af8b 573d 7fd7 4a3d 4cec df39 c3c4 a63d
000000c0: dd6c 773d 8e28 933d dea3 b63d 76b6 f53d
000000d0: fc67 6c3b f193 c9bc 5e72 e9bc f7ed 30bc
000000e0: eb85 933d abb4 e4bb 9085 b63d 5ab5 d83a
000000f0: dc4f 52bd ec69 16bd 27b6 afbd 6253 9abb
00000100: 7cc4 013d 776e 44bd 1fc7 e7bc c28c 8bbd
00000110: bacb bdbd 607b 5f3d c328 6b3d 041e bd3d
00000120: 7c80 44bd c6fc fcbc a457 4f3d 09d0 083d
00000130: fa59 5f3d 4315 cebd f0f9 d23b fdce 43bd
00000140: 56f6 953d 47d6 dabd d89b 60bd 3431 c73d
00000150: 3a25 a33d 5c90 f3ba 3351 1e3d 9886 adbc
00000160: 6da1 30bd 27d6 a0bd fd30 c63d 5784 603d
00000170: 7bed 8ebc 5a2d 56bd 695f 523c 51db 66bd
00000180: 56e6 6cbd d9a3 ae3d 36a2 2cbd ce25 7cbd
00000190: c636 c93d f998 12bb 5a8b abba 3ca9 8a3d
000001a0: dccd 49bd 7f1f 42bd b640 05bd e8f1 80bc
000001b0: cc3c e33d 5942 15bd 7d92 9e3b 23ed 95bb
000001c0: 70d9 1f3d 91b9 833d dfa1 c8bc c3d2 223d
000001d0: 4836 73bd 9438 9c3d f4d9 9cbc 5c06 03be
000001e0: 6388 af3d 846b b8bd aaeb 5c3b 014b cd3d
000001f0: bf6e f33c 429a b9bc 6153 933c 2e14 bcbc
0.028117646 0.062970124 -0.096381985 0.013615715 0.05554199 -0.03126746 0.09339922 0.010515635
0.029056193 0.043879878 0.04609655 -0.049389746 -0.08650014 0.043090113 -0.0064861956 -0.03061799
0.02500275 0.012624431 -0.11321631 0.033468958 0.042636562 -0.034735795 0.05577731 0.020050539
-0.013431393 0.0552698 0.1152756 0.07938696 0.084793046 0.01709193 0.06732262 0.08739298
0.021076335 -0.019370778 0.10619581 0.03928391 -0.04951168 0.087656975 0.009388148 -0.05989892
0.08655294 0.033526033 0.031109512 0.01179128 0.052623447 0.04952192 0.0004270993 0.08142998
0.060406554 0.071854696 0.08917974 0.11997692 0.0036072722 -0.024606677 -0.028496917 -0.010798923
0.07203277 -0.006979545 0.08912194 0.0016533539 -0.05134569 -0.03672211 -0.08579665 -0.004709647
0.031681523 -0.04795691 -0.02829319 -0.06813957 -0.092673734 0.05456102 0.05741192 0.09234241
-0.047974095 -0.03088225 0.05062069 0.033401523 0.054529168 -0.10062649 0.0064384863 -0.04780482
0.073223755 -0.106854014 -0.054836124 0.097261816 0.07966085 -0.0018582451 0.038651656 -0.021182343
-0.043122698 -0.07853346 0.096773125 0.05481371 -0.017447224 -0.052289344 0.01284013 -0.0563615
-0.057836853 0.08527345 -0.042146884 -0.06155949 0.098249 -0.002236901 -0.0013087795 0.0677056
-0.04926859 -0.04739332 -0.032532416 -0.01574035 0.110955805 -0.036440227 0.00483924 -0.004575388
0.039025724 0.06431878 -0.024491249 0.03975178 -0.05937794 0.07627979 -0.019146897 -0.12795395
0.085709356 -0.09004882 0.0033709803 0.100240715 0.029715894 -0.022656564 0.017984094 -0.022958841

readout.weight f4 [1, 128]
00000000: d01b afbd 891f 61bf 10d3 bfbe 733b b73d
00000010: 51de 263e 70f7 ef3d 3506 333e 81be bb3d
00000020: 56fb b1bd 6026 11bd 8911 82be b876 043e
00000030: b6e5 dbbe a95a b33d 5a4b 19be fe78 62be
00000040: bd9c abbe d179 0cbe 51ae 24bf 05f6 75bf
00000050: e3c5 09be 8488 54bf bdf8 83bd 7346 e5bd
00000060: 3436 2abe d1f1 9e3e ac8a 7fbe 1e3b 0c3e
00000070: a328 b7be b9af b9bd 0911 88be da88 023e
00000080: d396 31bd fec6 9bbe c96a c4be 1549 3d3e
00000090: 8227 df3d 5a5b b73d bcb3 a83d c191 18be
000000a0: e4d6 7ebe da18 b6bd e640 ba3c bef6 0fbe
000000b0: f8fa 63be 4c5f 4b3e 7306 283e 0d85 133e
000000c0: 4727 a9be 3775 17be 9e7f c83d 88ee 09be
000000d0: 24dc 3cbe f902 16bf 17ab 853d b304 18be
000000e0: 5155 a6be c3f8 923e 3549 3d3e cc93 1b3d
000000f0: 51f2 9abf 1202 013e 26d6 783e c2b0 00bd
00000100: f0ee 383e 4b20 8dbd efc7 93bd 2cc0 85be
00000110: 3a9e bf3d 49c6 c3bd ff12 993d fded 21be
00000120: d2ef 44bf a3b8 143e f9a1 ccbd 1c6b e23d
00000130: 2312 f23d c48e 26be d344 08bf e4ec 83be
00000140: 35c5 de3e cb2f bebe 8909 f63d 70ee fd3d
00000150: 4c70 0b3d 118d aabe 610e f63d 965f 33bf
00000160: 6b90 8c3e 8f0f 81be d5b1 703d 9fa6 063e
00000170: a1a6 943d 32cd 85bd 9eb3 803e e01e 033f
00000180: a519 86be 651d fc3d e9b4 ff3c 524f 48be
00000190: 554c 63be a963 023f 41f2 663d 5d6c 273e
000001a0: 1cec 0fbe f2db b53d af20 3abe 1b52 c43d
000001b0: 0406 a83e 975c 0abf 3335 fa3d 6504 92bd
000001c0: 98bb abbd 4890 f9bd 79b8 d9bd f4e3 efbd
000001d0: 5666 263d ed2b 44bd 94da 2d3e 567e 74be
000001e0: 76c0 45be 6ea6 28be aebe d73c 207d dd3d
000001f0: 0930 61bf ce66 8a3d eb1a a93e f476 bf3d
-0.08550227 -0.87938744 -0.37465715 0.08946886 0.16295744 0.11717117 0.17482837 0.09167195
-0.08690517 -0.035436988 -0.25404003 0.12935913 -0.42948693 0.087575264 -0.1497015 -0.22116467
-0.3351802 -0.13718344 -0.64328486 -0.9607852 -0.13454394 -0.83020806 -0.064439274 -0.11195078
-0.1662224 0.31043866 -0.24955243 0.13694426 -0.3577319 -0.090667196 -0.26575497 0.12747517
-0.043356728 -0.30425256 -0.3836272 0.1848491 0.108962074 0.08952971 0.082374066 -0.1489935
-0.24886662 -0.08891459 0.022736024 -0.14058968 -0.22263706 0.19860572 0.1640871 0.14406224
-0.3303778 -0.14790808 0.09789966 -0.13469899 -0.18443352 -0.58598286 0.065267734 -0.14845543
-0.32486966 0.28705415 0.18484958 0.037982747 -1.2105199 0.12598446 0.24300441 -0.03141857
0.18059897 -0.06890925 -0.07215869 -0.26123178 0.09356351 -0.09559304 0.07474326 -0.15813442
-0.76928437 0.14523558 -0.09991831 0.11055586 0.118198656 -0.16265398 -0.5323002 -0.2576667
0.43509832 -0.37145838 0.120135374 0.12398994 0.03404264 -0.3331075 0.12014461 -0.7006773
0.27453932 -0.25207183 0.058763344 0.13149498 0.072583444 -0.065332785 0.25137037 0.51218987
-0.2619144 0.12310294 0.031214194 -0.19561508 -0.22197087 0.5093332 0.056383375 0.16349931
-0.14054912 0.08879842 -0.1817653 0.09585973 0.3281709 -0.5404753 0.12217178 -0.071297444
-0.0838539 -0.121857226 -0.106308885 -0.117134005 0.04062494 -0.047893453 0.16977912 -0.23876318
-0.193117 -0.16469738 0.02633604 0.10814881 -0.8796392 0.0675789 0.3302835 0.093488604
