HW9/9_gym-DDPG/results/DDPG_Pendulum-v1_2000-eps0.1-t32-l0.0005-s1-u100.pth (torch, 176270 bytes, 12 tensors)

layers.0.weight f4 [128, 4]
00000000: 40bd e33e 107c 29bf 1f74 5dbe 1cb5 1b3d
00000010: e6de 0bbf e76d 133e b19a c4bd f983 743e
00000020: b4f1 3ebd ebdd 8abd 8d44 983d 13ba 4ebc
00000030: 72d1 3e3f 8bd7 c6be 985c 30bd dff6 cabd
00000040: 3359 a3bc 66b8 833e 3c72 013f 3dfd 063d
00000050: 68c5 80be 75a2 49bf 7802 4ebd 5f86 52be
00000060: de3f 42be e91f af3e 0da2 ad3e a716 263e
00000070: 5fc8 03bf a251 483f 1516 0e3e f363 983e
00000080: 17e2 ce3e c3d7 44bf 629b 0abf 63e7 abbe
00000090: 6a3a 1d3f a2c4 4b3e aaf9 8a3e 5ab2 d1be
000000a0: 89ad 023f 8588 cbbc d80a cf3e 33cc f4bb
000000b0: a415 dfbe e124 d83d e193 78be 2dd3 363e
000000c0: 3edc 60be b343 04bf 5944 ffbe dcf5 61be
000000d0: f678 d73e 9638 8b3d a939 073f fd6b dd3e
000000e0: bb53 cfbd f9ac afbe 420f b13e 9c10 ed3d
000000f0: ea14 8fbe 8fb6 503f 4bcf 883e 571f 923e
00000100: 8d6c 99be 4c17 0abf def9 ff3b f9af b33d
00000110: abb1 fdbe c75b 91be 5bbb bc3e abb6 0bbe
00000120: e281 eb3e 4dda 4b3e b295 713e 37c8 d03d
00000130: 7617 dcbd fd9c df3e 326d f6be 7665 293e
00000140: 6f89 d3be 04e6 a4be 4162 eb3d 308b f0bd
00000150: 13c3 0f3f 8717 73bf 1fd9 d3be bf54 8b3e
00000160: 55e4 1bbe df06 383f 2e62 1d3e eb1c a0be
00000170: 1e9b 093d 916d a03d 7d1a babe f11f 51be
00000180: 3169 a33d f287 f53c 0604 26be 9d73 1bbe
00000190: 3d9e a33e dff2 103e 7535 c03e 5abc fb3c
000001a0: 700c fdbe a83b 05bf d921 073f f33c c13d
000001b0: 8da0 883e 8509 953e 6573 f43d 43d7 623e
000001c0: 894a b23e c35c edbe dc57 3a3e c53b 67bc
000001d0: 28d2 a63e f230 893e c306 dabe f7cc bebe
000001e0: bac5 82be e5e1 c63e dfbd 053f a011 bdbe
000001f0: f8be a23e e02a eabe b323 febe 4281 23be
00000200: fee0 ff3d bdec c73e 941f ccbe 1910 323e
00000210: ff96 473f 1ff5 543f b007 993e 3544 983e
00000220: b1ae 933e c314 4a3e ce98 aebe c5ca e5be
00000230: 4771 acbe 7afb bcbe 3a56 70be 126c 173e
00000240: 7b9c efbc eb87 7abd 022e 913e 3269 453d
00000250: 40b5 4c3e 0bd9 2f3f 70d2 26be 3252 003f
00000260: c6a8 75be 6952 a0be 3609 bebe 488e a4be
00000270: 3aa0 6dbe 4f5c ee3d f9ad 023f 9b60 46be
00000280: 3108 d9be 13b6 9f3e 7b0f ee3d 4527 5b3e
00000290: 4541 fabd edd8 30bf 7486 abbe 5cb5 1d3d
000002a0: e7e9 9dbe bb1b 38bf 52b3 46be dbd6 4a3e
000002b0: 7017 a43e 1283 5c3e 9ad9 ce3e 93d0 353f
000002c0: 9db4 cd3e 2132 d83d d6fe abbe 3a0a f33e
000002d0: cbad 03be 5f62 a4bd 4ad0 edbe 23d7 643d
000002e0: fcb3 03bf ba7b cc3d bdf8 08bf 58dc 3fbe
000002f0: 5022 44bd c981 b0bd 3a60 673e 0bd1 29be
00000300: 4e71 05be 95e6 0b3f e723 d83e 57b6 b1be
00000310: 7f24 ab3e 3c38 733f b7bc eb3e 3bfb b9be
00000320: be25 eb3d 1ec9 91be e96c f83e d62c 73be
00000330: 9fac 3a3f ebf7 a5bd 38fc 5cbe 82e6 7fbc
00000340: 32b7 a2bd 3de7 f73e b87d ca3c e7b7 b03d
00000350: c700 cebe 77e4 4d3f e3c6 dd3e e102 9d3e
00000360: 45fb 5e3f e722 29bf ec4c 98be 9207 a93e
00000370: 56e1 13bf 67a4 d83e 2396 d7be a7c2 a4be
00000380: 5129 573e bebf 39bf a39d b0bd f465 e43c
00000390: 8bec c93e 67f5 183f 942a 79be d2e0 c4be
000003a0: c685 453f 5bc2 3dbe 6fa5 acbe e4df dd3d
000003b0: c9ca c7be 52b4 e13e ce0c a33e 9217 d2be
000003c0: 4741 d0be 4003 893e 201f af3e b28f 1abd
000003d0: 011f 82be db43 00bf 321a 01bf 3532 98be
000003e0: 8027 89be 873a 503f 2b0a b03e e161 6cbe
000003f0: a121 a6bd 29e3 fe3e 3088 c3bc 7230 2ebe
0.44480324 -0.6620493 -0.21626328 0.038014516 -0.5463699 0.14397393 -0.095998175 0.23878469
-0.046617225 -0.06780609 0.0743495 -0.012617606 0.7453834 -0.3883632 -0.043057054 -0.09910368
-0.019939994 0.25726622 0.5056493 0.03295635 -0.2515061 -0.78763515 -0.050295323 -0.20559071
-0.18969676 0.34204033 0.33912697 0.16219579 -0.5147762 0.7824956 0.13875611 0.29763755
0.40406868 -0.76891726 -0.54143345 -0.33574972 0.6141726 0.19899228 0.27143604 -0.40956384
0.51046044 -0.024845371 0.4043796 -0.0074706315 -0.43571198 0.10553909 -0.24275161 0.17853995
-0.21959016 -0.516658 -0.49856833 -0.22066444 0.42084473 0.06797902 0.5282236 0.4324645
-0.10123392 -0.34311655 0.34581953 0.115754336 -0.27945644 0.8152856 0.26720652 0.28539535
-0.2996563 -0.539418 0.007811769 0.087737985 -0.49549612 -0.28390333 0.3686169 -0.13643901
0.4599753 0.19907494 0.2359226 0.10194438 -0.10746662 0.4367446 -0.48130184 0.1654261
-0.4131579 -0.32206738 0.1149335 -0.11745298 0.56157035 -0.94957775 -0.41376588 0.27213094
-0.1522382 0.71885484 0.15369484 -0.31272063 0.033595197 0.07833398 -0.36348334 -0.20422341
0.07979048 0.02997205 -0.16212472 -0.15180822 0.31956664 0.14155148 0.37540784 0.030729461
-0.49423552 -0.52044153 0.5278602 0.09435453 0.2668499 0.29108825 0.11936072 0.22152428
0.3482249 -0.46359834 0.18197578 -0.014113371 0.32582211 0.26795155 -0.42583284 -0.3726575
-0.25541478 0.3884422 0.52242845 -0.3692751 0.31786323 -0.45735836 -0.4963661 -0.15967277
0.12494086 0.39047804 -0.39867842 0.17388953 0.77964777 0.83186525 0.29888678 0.29739538
0.28844216 0.19734482 -0.34100956 -0.44881263 -0.33680174 -0.3691061 -0.23470393 0.1478732
-0.02924942 -0.061164778 0.28355414 0.048196025 0.19991016 0.68690556 -0.16291213 0.5012542
-0.23990163 -0.31312874 -0.37116402 -0.32139802 -0.23205653 0.116387 0.5104671 -0.1937279
-0.42389062 0.311936 0.116240464 0.21401699 -0.122194804 -0.69081 -0.33501017 0.038503036
-0.30842516 -0.71917313 -0.19404343 0.19808523 0.3204913 0.21534374 0.40400392 0.71021384
0.4017686 0.10556436 -0.33592862 0.4746874 -0.12859266 -0.08026575 -0.46447974 0.055869233
-0.5144651 0.099845365 -0.53504544 -0.18736398 -0.047884285 -0.086185046 0.22595301 -0.1658365
-0.13031504 0.54648715 0.4221489 -0.34709427 0.33426282 0.9500768 0.46042415 -0.36324486
0.11481808 -0.28473753 0.48520592 -0.23747572 0.7291965 -0.08103927 -0.21580589 -0.015618922
-0.07945098 0.48418608 0.02471815 0.086288266 -0.40234968 0.80426735 0.433158 0.3066626
0.87102157 -0.6606888 -0.29746187 0.33013588 -0.5776571 0.4231293 -0.42106733 -0.32179758
0.21011855 -0.725582 -0.08623817 0.027880646 0.3943828 0.59749454 -0.24332649 -0.38452774
0.7715725 -0.18531172 -0.33719966 0.108337194 -0.390219 0.44082886 0.31845707 -0.41033608
-0.40674803 0.26760292 0.34203434 -0.037734695 -0.2541428 -0.5010354 -0.50430596 -0.29725805
-0.2678795 0.81339306 0.34382758 -0.23084213 -0.08111883 0.49782684 -0.02386865 -0.17010668

layers.0.bias f4 [128]
00000000: 158e c9be 2685 e73e 3b5f db3e d45f 01bf
00000010: 1c00 c0be a2c7 3ebe f067 b2be 0ded 1f3e
00000020: 1e00 01bf 0afc bcbe 9fca 4e3e 69a7 8bbd
00000030: 6b3a 04be a9ca f5be 2cfd 8f3e cc2d 4d3e
00000040: 3b11 70bd c8a7 3abe 5ea8 f83d 3784 b63e
00000050: df87 ac3e 88da 063e ca0f 853d 1397 e3be
00000060: 3fb2 eb3e 5056 bb3d 78fc 9bbe 3961 1d3f
00000070: a9c7 d73e 0e82 d9be 6ca8 15be 8c29 4bbe
00000080: fef3 48be 8583 783e 99bd bfbe a8e5 113f
00000090: 4157 25be 93f1 e63e 4a9c 183e aa80 42be
000000a0: 2772 043f 798d 53be ab7b 60bd cac0 663b
000000b0: 3a2b c43e 2b73 9bbe 7dec 8fbe 38e0 f0be
000000c0: fbff 95bd ac62 2bbe df3c 13be 4fdc 7cbe
000000d0: a950 813e f7b2 d13d d8d6 5cbe 74c0 ecbd
000000e0: 7f43 a83e b44d f33d ec9a a23e c902 923d
000000f0: 697b b1be 4065 babe 0677 b03d c221 893d
00000100: 2509 413e 0893 02be 94cc 173d 112f bf3c
00000110: 2b3a 083f 3970 893e a376 df3c cfcf 143f
00000120: d409 903e 5c2f 9fbe 6b5f b2be 935d e13e
00000130: a93c 9e3e 1e4a f53e 2458 a33d e6dd f23e
00000140: 4a65 af3e 7ef3 5f3e 03f7 393c 0e5c 1a3f
00000150: 0003 733e 68d0 46bd 5b5d f73d 1240 1e3f
00000160: 5336 c03e 6bb1 643d 905c 1a3f f58c 873e
00000170: 90fe 90be 03c6 d3be 6553 ca3e 8168 173f
00000180: 61a3 dbbd 9473 a63e 30e2 ec3c 9026 11bb
00000190: ffdc 233d fd37 743e 0022 453d 89ed 0c3f
000001a0: bc90 983e d944 cc3e edf3 243f 3e3e 993e
000001b0: 4966 7e3e b82c 90be 94a8 f03e 7073 61bc
000001c0: ad1e e33e 590a c93e 43ce a03b 2387 f63e
000001d0: 1bda e7bd 5cad 0f3f 4a78 223f b8ea c7bd
000001e0: 8fe2 a43d c764 94be d884 ccbd b2ee adbd
000001f0: d2b6 4fbd 293f 3cbd 96b9 a5be 067c aebe
-0.39366212 0.45218772 0.42846093 -0.5053685 -0.37500083 -0.18630841 -0.34844923 0.15617771
-0.50390804 -0.3691104 0.20194481 -0.0681904 -0.1291291 -0.4800618 0.28122842 0.20037001
-0.058610182 -0.18228066 0.121414885 0.35647747 0.3369741 0.131693 0.06497152 -0.44451198
0.46034428 0.09147322 -0.30466056 0.61476475 0.42144516 -0.42482036 -0.14615029 -0.19840068
-0.19624326 0.2426892 -0.3744934 0.5699105 -0.16146566 0.45106182 0.1490337 -0.18994394
0.5173668 -0.20659436 -0.05480544 0.0035210126 0.3831423 -0.30361304 -0.28110114 -0.47046065
-0.07324215 -0.16736859 -0.14378689 -0.24693416 0.2525685 0.10239213 -0.21566331 -0.11560145
0.32863995 0.11880055 0.3175882 0.071294375 -0.34664467 -0.36405373 0.08616452 0.06695892
0.18851145 -0.127514 0.037060335 0.023337873 0.5321376 0.26843432 0.02727825 0.5812959
0.28132498 -0.3109082 -0.34838423 0.44016704 0.30905655 0.4790811 0.07975796 0.4743492
0.34256965 0.21870229 0.011350396 0.60296714 0.23731613 -0.048538595 0.12078353 0.61816514
0.37541446 0.05583326 0.6029749 0.2647473 -0.28319216 -0.41362008 0.3951675 0.59143835
-0.107245214 0.32510054 0.028916448 -0.002214823 0.04000568 0.23849483 0.048128128 0.5504995
0.29797924 0.39896277 0.644347 0.299303 0.24843706 -0.28159118 0.47003615 -0.013760433
0.4435934 0.39265707 0.004907401 0.48149976 -0.11320897 0.561239 0.63464797 -0.09761566
0.08051025 -0.28983137 -0.099862754 -0.08492793 -0.05071146 -0.04595867 -0.32368153 -0.34078997

layers.1.weight f4 [128, 128]
00000000: 02a0 443e 1b34 673d 886e 393e b6b8 b43e
00000010: 3983 763c 01e0 223d 6b67 0ebe 317b 2c3e
00000020: 9df1 69bd 9e7f d0bc ad6b 45bd b6a6 673d
00000030: 2ea0 99bd be60 08bd f69a 92b9 b4a2 bd3c
00000040: 4f31 a63d 0706 d43d 7dec 1c3c 8393 433d
00000050: a660 a23a 812a 043e 430a 073d 5013 f4bd
00000060: bac9 ee3d 27d7 60bd e3a4 9f3d 8ac8 473d
00000070: 521a aebd 9109 94bd aa06 733d f5f6 97ba
00000080: c6a6 d0bd 1f14 943d 9f66 55bc 32f3 f13d
00000090: 0326 afbd ccb3 29bd b3b5 ab3d 7eb5 88bc
000000a0: 0f18 393e d17e a33d a311 00bd aee5 f3bc
000000b0: b0e8 bc3c af1e b7bd 3adc 1e3d 0558 b3bd
000000c0: 3173 9abc b36c 53bd 7632 493d 85e3 99bd
000000d0: 3129 b43d d5a0 fa3c de05 b33c 1905 88bd
000000e0: 7e06 cf3d c26c aebc 7f94 933d cd6f eb3d
000000f0: e7e1 5fbd 66f5 70bd ba2e 693c a2b3 b03d
00000100: 6e0b 85bc 649f 68bd d0b8 b33d 5e9a 933d
00000110: fafd e23d be45 a13b 6340 4d3c 6f45 473d
00000120: e3f8 0e3e ddbb 7abd 4a4d 4dbd 691d cd3d
00000130: 9beb 5b3c ebb4 e93d b70b 813d 87f3 7a3d
00000140: e213 173e a89d a23d 5703 8a3d 1677 ad3c
00000150: 2c06 1b3e eba8 c23d 95f4 833d 1820 683d
00000160: 420c b23d f852 553c 6cff 2e3e e89e e03d
00000170: a768 a6bc cf77 1abe e7ee 283e 7e41 f53d
00000180: 1083 ec3d 4ca6 ec3c 866d 4b3d 629f 63bd
00000190: 8147 dabc 3ca5 0ebb 637d 013e d6e5 093e
000001a0: c3be 97bc 3a7f 143e 01f5 033e 732c 063e
000001b0: 7798 cf3d 11f5 c13b 08c6 e93d ed9b 603d
000001c0: a490 263e 9377 33bd eb2e bb3b 1db5 e63d
000001d0: 88e6 9a3d fec8 103e 23af 753d 9b6b ff3c
000001e0: 30d0 3fbe fe1d 38bc e6f2 ae3d b112 d2bd
000001f0: 7636 89bc b7df 1d3d ccac 6bbd d39c c53c
00000200: bfd6 263e 6c07 003e 59f0 363d 65fc 913e
00000210: 2a91 05be aaf2 5e3d 08a4 153c 0fad 453d
00000220: 776e c33c 62bb 37bd 79e3 32bd bc55 5fbc
00000230: 6c0f 3abd 0487 e73c 7f85 1f3d 91f3 9a3d
00000240: 66e7 613d 5872 30bd f4f0 69bd 20e5 2cbd
00000250: ccd0 253e 2e74 a43d 7bb8 17bd 7ba4 66bd
00000260: 7e9e 8d3d 8dc8 513c 6e5d 9e3d b51b 083e
00000270: f9fe 933d e413 1dbd bac1 253c 8902 53bd
00000280: 61ac 20bb eed8 0d3e 2b99 4e3d 6932 353e
00000290: 3b55 afbd d3b6 3b3c 66de 2f3d d9de b73d
000002a0: cafa 103d 8127 13bd ee47 2b3d e70b 04bd
000002b0: c3de 373d 9644 79bc 82ca eebb b8ab 44bc
000002c0: 16b3 993d e4b8 c23d 41ec 213d 31a7 82bc
000002d0: d5d6 6d3e 8067 f23d 58f7 c13c bef9 893d
000002e0: ed8a 9b3d 8472 c0bc e409 27bb f2b4 dc3c
000002f0: 82f1 8abd 4a63 11bd 5b90 8b3d c3de bd3d
00000300: bd19 1cbc abae ddbd ceb1 933d dc45 19bd
00000310: db30 063e 1954 28bc 5ad4 9c3a 0be4 0b3e
00000320: c219 d83d bdb4 72bd f0de 98bd 0681 be3d
00000330: c556 8e3d 66bc 783c d907 dcbc 5181 e03d
00000340: ab1b 8e3d e86b a13d 2c4a 2ebd a838 be3d
00000350: 45bc 163d fe5a ba3c bdf1 7abb 7b3f e53d
00000360: 8bbf 273b 42df dbbc 1a14 ff3c 80ed 4fbd
00000370: 0949 273d 3af5 ddbd 004d 763d 6d9e 053e
00000380: 6f61 393d 4a04 0c3e 5bcb 8cbc 5072 cabd
00000390: 9e7f 963d 05a3 ed3d e1ee e93c deb8 de3d
000003a0: 9451 ac3d 147d cb3d cfdd 833d abf6 203d
000003b0: 12ff b3bc ba09 f13c 4017 943a 4a79 b0bd
000003c0: d669 ac3d aa0d 17bd 5f68 603d cdbd d33d
000003d0: b72e a03d 8e5b 123d b5ba 143e a262 de3d
000003e0: 0a01 08be e465 8f3d e141 743d ab9f 2e3d
000003f0: 919b 3f3d b72c 753d f964 54bd c30b 60bd
0.19201663 0.056446176 0.1810857 0.35297173 0.015045934 0.039764408 -0.13906638 0.16843869
-0.057115186 -0.025451478 -0.04819839 0.056555472 -0.07501255 -0.033295386 -0.00027962745 0.023148872
0.081148736 0.10352712 0.009577868 0.0477481 0.0012388423 0.12906839 0.03296877 -0.11917746
0.1165957 -0.054892685 0.077951215 0.048775233 -0.08501114 -0.07228387 0.059332527 -0.0011593985
-0.101880595 0.072304 -0.013024955 0.11813964 -0.08552172 -0.041431233 0.08384266 -0.016688105
0.18075584 0.07983173 -0.03126682 -0.029772606 0.023060173 -0.08941399 0.038784243 -0.08757023
-0.018853756 -0.051617336 0.04912039 -0.07514099 0.08796919 0.030594269 0.021853384 -0.06641597
0.1010866 -0.021292094 0.07206058 0.11495934 -0.054658797 -0.05882778 0.014232332 0.08628012
-0.016240802 -0.05679263 0.087754846 0.072071776 0.110835984 0.004921644 0.012527558 0.0486502
0.1396213 -0.061214317 -0.050122537 0.10015375 0.013422872 0.114114605 0.063010626 0.061267402
0.14753678 0.07940227 0.06738918 0.021174949 0.15139073 0.09504875 0.06443135 0.056671232
0.08693744 0.01302027 0.17089623 0.10967809 -0.020313574 -0.15084766 0.16497384 0.11975382
0.11548436 0.02888789 0.049664997 -0.05557192 -0.026645424 -0.0021765968 0.12645487 0.13466582
-0.01852358 0.14501658 0.1288643 0.13102894 0.10136502 0.005919107 0.114147246 0.054836202
0.16266114 -0.043815207 0.00571238 0.11265013 0.075635016 0.14139172 0.059981477 0.03117924
-0.18731761 -0.011237619 0.08542423 -0.10257471 -0.016749602 0.03854343 -0.05753784 0.024122631
0.16292857 0.12502831 0.044662807 0.28512874 -0.13043657 0.05443064 0.009133346 0.048260745
0.023856385 -0.044856437 -0.043673966 -0.0136312805 -0.045424864 0.028262623 0.03894567 0.07565988
0.05515232 -0.043077797 -0.057114556 -0.042210698 0.16192931 0.08029972 -0.03704117 -0.056309205
0.069149956 0.012804163 0.07732664 0.1329182 0.072263665 -0.038349047 0.010116989 -0.05151609
-0.0024516808 0.13852283 0.05043904 0.17695011 -0.08561178 0.011457163 0.042936705 0.08978052
0.03539542 -0.035926346 0.041816644 -0.032237913 0.044890177 -0.015214106 -0.0072873244 -0.012003832
0.07504861 0.09507921 0.03953195 -0.015948864 0.23226483 0.11836147 0.023677513 0.06737088
0.07594857 -0.023492105 -0.0025488073 0.02694175 -0.06784345 -0.03549508 0.06814643 0.09271004
-0.009527621 -0.10824331 0.07211648 -0.03742014 0.13104574 -0.010273957 0.0011965141 0.1366121
0.10551788 -0.059254397 -0.07464397 0.09301953 0.06950144 0.015181636 -0.02685921 0.10962165
0.06938871 0.078819096 -0.042551205 0.0928815 0.03680064 0.022748467 -0.003829106 0.111937486
0.0025596346 -0.026839856 0.031137515 -0.050763607 0.040841136 -0.10837789 0.060132027 0.13048716
0.045258936 0.13673511 -0.017186811 -0.09885085 0.0734856 0.11603359 0.02855629 0.10875104
0.08413997 0.09935966 0.06438791 0.03929774 -0.021972213 0.029423583 0.0011298433 -0.08616884
0.08418624 -0.036878265 0.054787036 0.10338936 0.0782141 0.035731845 0.14524348 0.108586565
-0.13281646 0.07001856 0.05963314 0.04263274 0.04677922 0.059857097 -0.051854108 -0.054698717

layers.1.bias f4 [128]
00000000: f60d 1b3e fa5a 6d3d fffa b53d f9a0 0f3d
00000010: 31fb dcbd f8b2 173d 0e0c e93d bf5c 98bc
00000020: 3bf3 143e 41d3 f93d 5aed 68bb a76d 2e3d
00000030: c5c5 bd3d 487b 3c3d 8e28 b33c c246 c83d
00000040: 0b86 183e 3808 b1bd 0309 85bd 5394 843d
00000050: 0a3d 503e 61eb e63d fe1e e5bc b9aa f83d
00000060: d7ce 393e 697d 843c 52c8 5d3d 814c 8b3d
00000070: 6614 9f3d 7fa8 103e 1a67 853d 888d 23bd
00000080: f45e da3d 26c5 193e 4b10 b23d a13f e73d
00000090: 8d01 d63c 5e4f f33d 3ea8 55bd f640 3a3e
000000a0: 7ba8 86ba 60c2 f8bd 83df 4c3d 6bf7 303d
000000b0: 993f 27bd 02ed 2e3e f036 c73d 39d7 243e
000000c0: 265b 263e 743e bc3d 7b28 f0bb 6beb f83d
000000d0: 6488 423e cf09 ea3d 50c4 e63d 216b 393e
000000e0: c1e4 b43d 9ebe 0d3e 8830 ec3d 8c2f 15bb
000000f0: 3668 2b3e 4edc 7cbd 9e1f b6bc ecdb 273b
00000100: b7e8 b93c 36a8 a23b 138f 463e dad8 003e
00000110: e850 363e d8c2 1e3e e543 f43c e58d 2b3e
00000120: a14f 153d 8a28 883d 1f3d 0a3d dd86 4c3e
00000130: f583 523e e034 1ebd 30c1 ae3d 319a 323d
00000140: d2da 573e ca15 be3d 97a6 213e 7b12 4abc
00000150: 6718 01bd 8aff 453e b7e1 88bd 8a48 c23c
00000160: 9dac 283e f8c0 0a3d abc0 1b3e 2da6 613d
00000170: 0f20 fc3d 5d10 113e 9194 033e e6d0 bd3b
00000180: c579 1c3e 2fc3 163e bf68 7a3d aa70 913d
00000190: 83cd 9fbd 1e04 393e 3482 eb3d cedb f7bc
000001a0: c30d 433c 61a0 063d a158 fe3d f3cc 943d
000001b0: 1596 bf3d 10ba 3a3c c4a2 82bb 8f4f 203d
000001c0: 4f73 273e 48d8 153e 2868 ea3b a9bf a83d
000001d0: 92ca 9f3d 2afd e63d 222e 053e c9d9 8f3d
000001e0: a5d2 79bd 1211 213d ece0 e83d cb23 313e
000001f0: 58fc 0e3e 9f66 2ebe 04d9 f53d 224c 323e
0.15142044 0.05794809 0.08885764 0.035065625 -0.107900985 0.037035912 0.113792524 -0.018598912
0.1454591 0.121984966 -0.0035541863 0.04258504 0.09266237 0.046016008 0.021869924 0.09779121
0.14894883 -0.08644146 -0.064958595 0.06473603 0.20335785 0.11275364 -0.02796888 0.12141938
0.1814531 0.016173081 0.05414612 0.06801701 0.077675626 0.14126776 0.06513806 -0.039929897
0.10662642 0.15016612 0.08694514 0.11291433 0.026123786 0.118803725 -0.0521624 0.18188843
-0.00102736 -0.12146449 0.050017845 0.043204706 -0.040832136 0.17082599 0.09727275 0.16097726
0.16245708 0.091915995 -0.0073290444 0.121542774 0.18997341 0.11427652 0.112679124 0.18107273
0.08832694 0.13842246 0.11532694 -0.0022763936 0.16738972 -0.061733536 -0.022231873 0.0025613261
0.022693975 0.0049639 0.19390516 0.12582722 0.17804301 0.15504014 0.02981753 0.16753347
0.036452893 0.06648357 0.033749696 0.19973321 0.2055815 -0.038624644 0.08532941 0.04360408
0.21079567 0.092815 0.15786205 -0.012333508 -0.031517413 0.19335762 -0.06683677 0.02371623
0.16472097 0.033875436 0.15210216 0.05509012 0.12310802 0.14166398 0.12849642 0.005792725
0.15280826 0.14722894 0.06113505 0.07101567 -0.0780287 0.18067977 0.11499444 -0.030256178
0.0119051365 0.032867793 0.12419248 0.072656535 0.09354798 0.0113969 -0.0039866883 0.039138373
0.1635258 0.14633286 0.0071535297 0.08239681 0.07802309 0.11278756 0.1300588 0.07023961
-0.060991902 0.03932292 0.113710254 0.1729881 0.13963449 -0.17031334 0.12004283 0.17411855

layers.2.weight f4 [64, 128]
00000000: bec5 223c 4298 3c3d 18a7 ac3d 3689 0a3d
00000010: 87a3 6bbd 82be df3c 9891 83b9 a4f2 993d
00000020: 79ae 4c3d 6e36 bfba ba41 e33b 00fa 0c3d
00000030: 0dfd b03d 122a 443d 5610 8a3c eff8 453d
00000040: 773f 503d bbda 783d 2ed7 23bc 7aa6 fe3c
00000050: ed05 1bbc b223 813d 1233 1dbd 1540 143c
00000060: 07ca 19bd 2391 53bc 234b 003d a496 5c3b
00000070: f8ab b8bd a4ee 413c 30d8 24bd 590f 9e3a
00000080: a718 db3c bf6e 04bc fc62 243d ff3d a8bd
00000090: 73b7 d83b 70c5 8b3d fc26 023b b0cc 903d
000000a0: c74b 16bd 3974 dc3c 217b 98bd 33e6 6bbc
000000b0: f765 67bd 3bfc 0a3d 6a50 103d 4d4c 94bc
000000c0: 326a 5abd 82b1 3fbd ba8c 403d 4e0f 0cbd
000000d0: 1b71 babd 46f3 793d cb72 193c f2d9 5d3d
000000e0: f802 0b3d ad78 61bc 6d31 9cbd bf07 e8bb
000000f0: 2ed7 09bc ccc4 c33c 1d39 b6bd 2e43 3ebc
00000100: 1181 92bd 846f 52bd f132 aabd 0dfc 803d
00000110: 553b 933d bcac 3abd ec33 2abd 50f4 3a3d
00000120: 5b93 90bb 41eb b1bc 93c7 71bc 23b8 b1bd
00000130: 61c8 81bd 5d96 693d fc22 7ebd bff0 433d
00000140: 5c16 14bd 4826 82bd 9539 39bd dddd 573d
00000150: 9bf6 afbd 957c 013d a6cb c53c b887 e03c
00000160: 5546 a4bd 0da5 85bd 221b a4bc 4625 13bd
00000170: f8e4 04bd ffa2 dc3c bea1 243d 661a 893d
00000180: 1268 3fbd c3a2 4fbd 387a a33d 4be0 34bc
00000190: 3684 cdbc 69c9 423d b2c1 90bd cb23 0a3d
000001a0: be20 1ebd be0b 83bb 521b 26bd be61 8ebd
000001b0: 991e 6cbc 4172 863c f3ad 34bd 531b 233c
000001c0: 463b a0bd 5ee3 7dbd 5c24 0a3d 2070 863d
000001d0: 9c78 343d d17a 80bd 995b 663d 0c0f 6abd
000001e0: 5c92 1f3d 380c 3a3c f752 c6bc 0eed 9ebd
000001f0: f497 a1bd 4599 b8bd d9f9 8ebc 4662 8c3d
00000200: 01e2 223d 6691 a03d 3979 97bd 8799 843d
00000210: e740 ff3d 1af4 9a3d 8d4c 59be 2cc4 5f3d
00000220: 778a a83d 56be 88bd 5e57 033d 71a6 4cbe
00000230: 8f95 233f 206a 103e 1338 953d be7c 2abd
00000240: e0d1 eb3c dfb8 2c3e 5a80 90bd 480d b1bc
00000250: eff5 6ebe 5c5f 7b3d 0140 2bbe 0c94 11bd
00000260: 28c4 b6bd f1d4 afbd 81b5 94be 2424 acbc
00000270: 1432 81bd b80b 533d f77f d93c aa1a 2cbe
00000280: 0483 a3bb af93 403d 72cc 53bc 25c5 b13d
00000290: d8ff b23d 241d 8bbc b52f 02bb bea6 a5bc
000002a0: c3b2 dfbc 3ad4 53be 78b3 273d fd56 6b3d
000002b0: 2697 76bd 47a8 a43d e5d7 82bd 5eb5 9abd
000002c0: 976a a53c 99fa 3b3c 3f41 873e c314 da3b
000002d0: fac2 4d3c ddb3 56be a539 bbbd 140f 65bd
000002e0: 6822 fdbd 5838 a9bd b591 f0bc 694a dc3b
000002f0: ee9e 0abd a96c e23e c2d0 8bbb bf33 293e
00000300: fc18 603e eba3 bc3d 771c 27bf 5f46 23bd
00000310: 2540 813d f7b3 edbb 72b5 8c3d 79fe 9f3b
00000320: 5a98 953d 6b18 b23d 3677 63bd 665e ecbd
00000330: 07fd c13a a0f8 123b 71b5 273d 6089 283d
00000340: cafc ac3c 0d3b 2bbe 750a 573d 2464 95be
00000350: 3ffd c73d e5c0 5ebd fe54 0f3d 31f6 35be
00000360: 3230 d7bc 220b 8d3d bb2d 5abc e328 8a3d
00000370: 2a4c 3b3c 37b2 6cba a31b 8f3d 6950 d6bd
00000380: 86ce a1bd fafe b63d c0ee 933c d57e febc
00000390: 5121 7e3e 769a cabc 0f9b 1d3d e1b3 f13d
000003a0: 0ce0 5bbd 30bd bf3d b07b a33d b88e a3bd
000003b0: 4aa8 a2bd 8e0d 443e ae63 643e 39a5 a13e
000003c0: 7b90 2abd 0730 8c3d 72d1 893e 0903 a5bd
000003d0: 846c 99bd 4eb1 febc 2e17 9bbd 28cf 53bc
000003e0: 863f 753d d348 05be 4056 99bd d386 aabc
000003f0: 262a babc 0564 963e 44e8 f03c fc26 d1bd
0.009934841 0.046043642 0.08430308 0.03382226 -0.057529 0.02731252 -0.00025094743 0.07516983
0.049971078 -0.0014588365 0.0069353255 0.034418106 0.086420156 0.047891684 0.016853493 0.048333105
0.050841775 0.060755473 -0.010000033 0.031085242 -0.009461862 0.063056365 -0.038378783 0.0090484815
-0.037546184 -0.012913021 0.031321656 0.0033659125 -0.090171754 0.0118366815 -0.040245235 0.0012059017
0.026745154 -0.008083045 0.04013346 -0.0821495 0.0066136657 0.068247676 0.0019859662 0.07070291
-0.03669336 0.026910888 -0.0744536 -0.0143981455 -0.056493726 0.033931952 0.03523294 -0.01810279
-0.053323932 -0.046800144 0.047009207 -0.034194283 -0.091036044 0.06102302 0.009365748 0.054162927
0.033938378 -0.0137616815 -0.07626615 -0.0070810015 -0.008413119 0.023897551 -0.08897612 -0.011612697
-0.07153524 -0.05137588 -0.083104976 0.06298075 0.07189051 -0.04557489 -0.041553423 0.04564315
-0.0044120974 -0.021718623 -0.014757055 -0.086776994 -0.06337047 0.057028163 -0.062045082 0.047837015
-0.036154136 -0.06354958 -0.04522093 0.05270182 -0.08591958 0.03161295 0.024144959 0.027408466
-0.08021227 -0.065256216 -0.02003247 -0.03592422 -0.032444924 0.026933191 0.040193312 0.06694488
-0.04673011 -0.05069233 0.07982296 -0.011039804 -0.025087457 0.04755536 -0.070681944 0.03372554
-0.038605444 -0.0039992025 -0.0405534 -0.069522366 -0.014411592 0.016411902 -0.044111203 0.009955245
-0.078238055 -0.061984412 0.03372608 0.06564355 0.044060335 -0.06273425 0.056239698 -0.057143256
0.03895794 0.011355452 -0.024209483 -0.07760058 -0.07890311 -0.09013609 -0.017453121 0.06854682
0.039766315 0.078402326 -0.07396168 0.064745955 0.12463551 0.0756609 -0.21220608 0.054630443
0.08229535 -0.06676929 0.03206574 -0.19985367 0.63900083 0.14102983 0.07286086 -0.04162287
0.0287866 0.16867398 -0.07055731 -0.021612778 -0.23336004 0.06137024 -0.16723634 -0.03554158
-0.089241326 -0.08585537 -0.29044726 -0.021013327 -0.0630838 0.051524848 0.026550276 -0.16807047
-0.0049899835 0.047015842 -0.0129271615 0.086801805 0.087402046 -0.016981669 -0.0019864861 -0.02022111
-0.02730692 -0.20686427 0.04094264 0.057456005 -0.06020274 0.08039909 -0.06388835 -0.07554124
0.020192428 0.011473321 0.26416966 0.006655307 0.012558693 -0.2096705 -0.09141854 -0.055922583
-0.12360078 -0.082627 -0.029366354 0.0067227376 -0.033842973 0.44223526 -0.004266829 0.16523646
0.21884531 0.09210952 -0.6527781 -0.039862033 0.06311063 -0.0072541195 0.068705454 0.0048826304
0.073044494 0.086960636 -0.05553361 -0.115414426 0.001480014 0.0022426024 0.04094452 0.041146636
0.021116633 -0.16721745 0.052500207 -0.29177964 0.097651 -0.054383177 0.034993164 -0.17769696
-0.026268099 0.06886889 -0.013316567 0.0674608 0.011431733 -0.00090292416 0.06987693 -0.10464556
-0.07900719 0.08935352 0.01805818 -0.031066338 0.24817397 -0.024731856 0.038477954 0.11801887
-0.053680465 0.093622565 0.07982576 -0.07986206 -0.07942255 0.19145796 0.2230365 0.31571367
-0.041641694 0.06845098 0.26917607 -0.080572195 -0.07491401 -0.031090405 -0.075727805 -0.012927808
0.059875034 -0.13016061 -0.07487154 -0.020816242 -0.022725176 0.29373184 0.029407628 -0.10212514

layers.2.bias f4 [64]
00000000: b526 0c3d bf36 b03c b953 e3bd e703 1f3d
00000010: e792 8e3d 0ecb 243e 1162 3bbd f1b8 a63c
00000020: b813 6a3d fccc 8fbc 31ea 5c3d 3fac 0d3e
00000030: 2d6c 943c 3715 d23c 31c4 463e 2c11 973d
00000040: 4da2 723c 7871 bd3d c8d2 ad3c b816 dc3d
00000050: 7e13 173e 9093 ca3b 4b30 68bd 9af8 bd3a
00000060: 7461 943d 557f 0fbb 303e 29bd 8c30 a33d
00000070: 51c7 393e 1499 fb3d 4225 bfbd b452 263e
00000080: ca9e c0bd d34a 3b3e 649f 0cbb 87f5 593d
00000090: a456 4c3d d56c 033e 17c6 003d 38a6 fe3c
000000a0: 6b41 11bc 27a7 123e 4a96 c0bc 193c 333e
000000b0: 36fd 333e 6dcb 413e cca8 d1bb bce0 263d
000000c0: 6aec 293e 99e3 f9bc 8e0a 493d e3eb 61bc
000000d0: 785b 3d3e ed6b 26bc 43f3 513d 9019 cf3d
000000e0: 1b33 bebc 6f72 babd 3cb1 e73c 2515 8ebc
000000f0: a869 ec3c d298 063d 566e 22bd 7930 023d
0.0342166 0.02151048 -0.11099953 0.03882208 0.06961613 0.16093084 -0.04574782 0.020351859
0.05714771 -0.017553799 0.05393428 0.13835238 0.018117988 0.025644882 0.19410779 0.07376322
0.014809203 0.09250158 0.021218672 0.10746521 0.1475353 0.0061821416 -0.05668668 0.0014493645
0.0724515 -0.0021895964 -0.041319072 0.07968244 0.1814244 0.12285057 -0.09333278 0.16242486
-0.094052866 0.18290262 -0.002145731 0.05321267 0.049887314 0.12834485 0.031438913 0.031085119
-0.0088656945 0.14321576 -0.023509163 0.17503394 0.17577061 0.18925257 -0.006398296 0.040741667
0.16594091 -0.030504035 0.04908233 -0.01378915 0.18491924 -0.010157567 0.051257383 0.101122975
-0.023217728 -0.09103858 0.028282754 -0.017344067 0.028858975 0.032860585 -0.039656006 0.03178451

readout.weight f4 [1, 64]
00000000: a1d9 b23d 124f ca3e 3da0 b93e 5f9a 40be
00000010: 66d3 f8bd 59bb 5fbe 62cb 363d 45e2 eb3d
00000020: fa97 f0bd e086 813d bed8 57be 83c6 5abe
00000030: 599a 843c b82a 8c3c 86c4 82be 0989 a83c
00000040: aa95 283d abb5 003f 5cc3 4cbd 9bd0 46be
00000050: 0b48 4ebe 00e0 483a eabb 303b d6a8 d53d
00000060: b7fe 3dbe cd1d 3bbd 44b6 54bd 5842 f43e
00000070: b26e 76be 7e02 61be fc2a 833e ef06 18be
00000080: b680 7f3d 0027 03be 6ce1 a93d 21cf 3bbe
00000090: 13b8 823d 13fb 23be 88fa a9bd 6b57 23be
000000a0: 458e db3d dc45 713f 86af 173d 4e87 27be
000000b0: e98b 0ebe 9ac5 1ebe 0a6f b33d 6634 6bbe
000000c0: f1c5 febd 5279 923e 5a62 2ebe 218a 5b3e
000000d0: 2a5b 4fbe 09f2 983c 49ce 14be dc6d 52be
000000e0: ac12 d33c 9077 9b3e 6217 23be ca31 623d
000000f0: cfde 903e e1a2 933e 7a09 9d3d f12b 483f
0.08732916 0.3951345 0.36255065 -0.18808888 -0.12149696 -0.21848811 0.044627555 0.11517767
-0.11747737 0.063245535 -0.21078774 -0.21364789 0.01618688 0.017110214 -0.2554056 0.020573156
0.041158356 0.50277203 -0.049990997 -0.19415514 -0.2014467 0.0007662773 0.0026967474 0.104325935
-0.18554197 -0.045682717 -0.051931635 0.47706866 -0.24065664 -0.21973607 0.25618732 -0.14846395
0.062378608 -0.12807846 0.08294949 -0.18340732 0.063827656 -0.16013746 -0.08299738 -0.15951316
0.10720495 0.9424722 0.037032627 -0.16360208 -0.13920559 -0.15505067 0.087614134 -0.22969207
-0.12440098 0.28608185 -0.17029706 0.21439411 -0.2024962 0.018670099 -0.14531817 -0.2054972
0.02576574 0.30364656 -0.15926889 0.055223264 0.2829499 0.28835204 0.07667823 0.7819205

layers.0.weight f4 [128, 3]
00000000: b813 f03d 03ad 833e 72a7 5e3f 6519 22bd
00000010: aa53 693f af49 06bf a30d 7d3f 648d 0c3e
00000020: 8f68 04bf df83 ca3e e834 abbe 474e 0b3f
00000030: e101 a6be e5b7 59bf 9be0 c23e 14c8 933e
00000040: 9af1 50bf 75f4 853f 5ad8 bd3d 88cf c2be
00000050: 9111 233f 1ef7 a8be e64b 28be abda ce3e
00000060: 31f8 90bd 4aea bbbe 8737 413f c12f b5be
00000070: f6d1 f83e e363 4e3e 0af3 f63d f0a6 a6bf
00000080: 9a35 babe 36a6 2d3f 0850 67bf 3507 93be
00000090: 164b ccbd 8bf0 0a3f a9d1 e8bd 6338 0b3f
000000a0: 91c8 00be 3af9 163f c1da 103f 9351 2bbf
000000b0: 1b77 06be 0ed8 0bbf 65fb 22bf f7e5 653e
000000c0: 59d2 40bf a0fe 683f 5147 183e 8abe e13c
000000d0: 1c91 423c 42c5 30be cab6 fd3e 3d9f b53d
000000e0: 839a 163e eb06 893d f5c7 923d 8d77 18bd
000000f0: 1b8c 40bc 6b94 d33e 7dc0 b63e 4770 7fbe
00000100: 6ea5 413f 899d 2c3e b90e ebbd ece3 16bc
00000110: b628 b4be 2eb3 27bf faf7 71bf 6444 61be
00000120: d3c7 98bd 0765 3bbf 75d3 a7be 4fa0 1dbf
00000130: 5176 95be b40d 9bbb 210e 033f d63a 2cbe
00000140: 8ced 0f3f d35b c13e 5be7 0bbf 15eb 4dbd
00000150: bb5c 22bf 175c 60be a88f 32bd 2580 26bf
00000160: 99d8 563f 3bc0 ddbe aaa0 b9be 85bc c33e
00000170: a102 fd3e e1eb e03e d824 453f ea53 b03d
00000180: a127 86bd fb12 02bf 1d85 d1be ff20 543f
00000190: 357a b53e 6569 da3e 341e 6fbe 495d 053d
000001a0: 47f4 1f3e 5500 043f b7f6 573f 5142 d6bc
000001b0: 33d7 d53d 640c 603f 287b c6bd 4d90 a4be
000001c0: cbc5 a1bd fedb 25be 2132 94be 65eb 56be
000001d0: 34c4 9fbd ca5e 513e c290 29bf 0a3e 1bbf
000001e0: 502f 2cbe 83b8 c53e bf58 63be 9730 76bf
000001f0: e564 a7be bf0c 0d3e fb14 373f 5ad9 2f3f
00000200: 9a46 d8be 6a7d d43e 1669 893e ca08 a5be
00000210: 9f62 d13e 24a2 4cbf 6099 6c3f 21a9 183f
00000220: b3bd 52bf 57ce 28bf 3575 c53e 3122 003f
00000230: 21d5 cebe ce3c a2be fd4f b0be a7b2 3ebe
00000240: a5c8 3a3e 2db4 313f f8b7 a83e 7735 cbbe
00000250: f738 643f 4241 813e 8ea4 f4be 2454 633f
00000260: f130 84be d128 7ebe 6396 063f 796a 87be
00000270: f000 e1be cc4f 56bf c5a2 cbbe c4db 88be
00000280: a4de 50bf 7ac8 3f3e f278 4ebe 0dbf 2a3f
00000290: c807 14be 8dfa fb3e 201a 3f3f 9e24 793e
000002a0: b7c5 353d 1c28 c7bd f950 0f3f 20dc 543e
000002b0: 3936 bebe 8349 87be a380 02bf a17e 93bf
000002c0: e6d6 99bc bec9 c3be b8de 413f 48c3 a0bd
000002d0: 91b9 373f a6dd ad3e 9bd7 16bf b0bb 3c3d
000002e0: a545 333f 055e dc39 c6e1 a1be d1f6 2fbe
000002f0: 2a3f e93d 04ef 0a3e 0951 443f 1fc7 9e3c
00000300: e13b 0f3e d9e4 3f3f e13a 2a3e 5e8c e9be
00000310: ccbb 5bbf a620 d0be 6946 983e a201 ef3e
00000320: aac0 e33d a17a 83be 62af 583f 1afa b7bc
00000330: fbb0 84bd eed2 10bf 771b dbbe 36e9 1a3e
00000340: feeb cebd 7a50 e2be 5437 113f 2836 00be
00000350: 651b 153f 25ea d4be 479d 033c b782 6fbe
00000360: 1ec6 9ebe 4fe0 d3be 1299 b0bd 3cf6 6e3f
00000370: 3d4d 46be 1d47 363d ea07 40bd 00d0 e33e
00000380: b6ca 2b3e ad39 18bf 774a 433e 987a fcbe
00000390: 776d fe3e b30e a33d eaad 773e face 013f
000003a0: b46c 2c3f 1777 623e 6973 4dbe 1aa0 0b3e
000003b0: d49e d13c 7d23 09bf 666b 053e ab59 7d3e
000003c0: a0cd 5f3e 51bd 8abe 3c5a 8abe 40c4 1bbe
000003d0: 25c8 3c3f 8ad5 ba3e ea04 02be 4794 84be
000003e0: 3cc8 ff3c ac1b 37bf 149b 78be 9700 aebe
000003f0: 2f27 273f 26e0 123f 65ea 393e ac35 e6be
0.11722511 0.25717935 0.8697425 -0.039575 0.91143286 -0.5245618 0.98848933 0.13725811
-0.51722044 0.39553735 -0.33438802 0.54416317 -0.32423308 -0.85046226 0.38061985 0.28863585
-0.81618655 1.0465227 0.092697814 -0.3804896 0.6369868 -0.33001035 -0.16435203 0.40401205
-0.07078589 -0.36702186 0.75475353 -0.35387996 0.48597687 0.20155291 0.12058075 -1.3019695
-0.3636902 0.6783174 -0.90356493 -0.28716436 -0.09975259 0.5427329 -0.113681145 0.54382914
-0.1257651 0.5897404 0.5658379 -0.6692135 -0.13131373 -0.5462655 -0.6366485 0.22451006
-0.75320965 0.91013527 0.14870955 0.027556676 0.011875417 -0.17262748 0.4955352 0.08868263
0.14707379 0.066907726 0.07167045 -0.037223388 -0.011752154 0.4132417 0.35693732 -0.24945174
0.7564305 0.1685697 -0.114774175 -0.009209614 -0.3518731 -0.6550778 -0.9451901 -0.21998745
-0.074599884 -0.7320103 -0.32778516 -0.61572737 -0.2919183 -0.004731858 0.51193434 -0.16819319
0.5622184 0.3776537 -0.54649895 -0.05027302 -0.63422745 -0.2191013 -0.043594033 -0.65039283
0.8392425 -0.43310723 -0.3625539 0.38229766 0.49416068 0.4392996 0.77009344 0.08609755
-0.06550527 -0.5081021 -0.4092187 0.8286285 0.354448 0.42658535 -0.23351365 0.032559667
0.15620528 0.51563007 0.8436083 -0.026154669 0.104414366 0.87518907 -0.09691459 -0.32141343
-0.07899054 -0.16197202 -0.28944495 -0.20988233 -0.07801095 0.20446315 -0.6623651 -0.6064154
-0.16814923 0.38617334 -0.22201823 -0.9616789 -0.32694164 0.13774393 0.7151639 0.6869103
-0.42241365 0.41501933 0.26837987 -0.32233268 0.40895554 -0.79934907 0.9242153 0.5963307
-0.8232071 -0.6593985 0.38565984 0.5005217 -0.4039698 -0.31687015 -0.34436026 -0.18622838
0.18240602 0.6941555 0.32952857 -0.39689228 0.8914942 0.252451 -0.47781795 0.88800263
-0.2581859 -0.24820258 0.5257322 -0.2644842 -0.43946028 -0.8371551 -0.3977262 -0.26730168
-0.8158972 0.1872882 -0.20163324 0.6669777 -0.14456093 0.49214593 0.7464924 0.24330375
0.04437801 -0.09724447 0.5598293 0.20787096 -0.37150744 -0.26423272 -0.50977534 -1.1523019
-0.01877923 -0.38239855 0.75730467 -0.07849747 0.71767527 0.33958167 -0.5892274 0.04607743
0.70028144 0.0004203172 -0.31617564 -0.17183997 0.11389001 0.1356774 0.7668615 0.019382058
0.13987686 0.7495857 0.16624023 -0.45614904 -0.8583343 -0.4064991 0.2974122 0.46680933
0.11120732 -0.25679496 0.8464261 -0.022458125 -0.06479069 -0.56571853 -0.42794392 0.15128025
-0.10103606 -0.44202024 0.5672505 -0.12520659 0.58244926 -0.41584888 0.008033103 -0.23389708
-0.31010526 -0.4138207 -0.08622946 0.93344474 -0.19365402 0.044501413 -0.046882547 0.4449463
0.16776547 -0.59463006 0.19071375 -0.49312282 0.4969289 0.07961788 0.24187437 0.50706446
0.6735337 0.22115742 -0.20063557 0.13635293 0.02558843 -0.53569776 0.1302925 0.24741237
0.21855783 -0.27097562 -0.27021968 -0.15211582 0.73742896 0.36491042 -0.12697187 -0.25894377
0.031223409 -0.715266 -0.24277908 -0.33984825 0.65294164 0.57373273 0.1815582 -0.44962823

layers.0.bias f4 [128]
00000000: dfb0 25be 199f 4abf 8069 9bbf 90bb 9c3e
00000010: 169f 2f3e a2e7 98be 8105 9dbe 5ae4 bf3d
00000020: eda0 f7be e0ed 9ebd 8c98 a63e fc34 3cbf
00000030: 8857 febc 06f8 203f 7170 1d3f 20f6 9a3e
00000040: b1c3 9dbe 0a67 ab3e 207e cf3e d75b 533e
00000050: 8e0f ffbd f1c2 35be e140 81be 42c2 fbbe
00000060: 21c5 533e b22f ee3d e1d9 5b3e e8a0 e93e
00000070: 029e 03be 95e6 2fbe 4192 81be 9b1d b2bd
00000080: 473d d33d da96 79bf 70f8 9b3e c201 d63e
00000090: da2a 073e 4782 8ebe df8b ce3d 928d b73e
000000a0: a303 a93d 105c 1b3d 2f36 afbd 8179 2ebe
000000b0: 3e85 1cbe c761 5fbe 8a43 33be 25e0 b73e
000000c0: fe3f 383c 9220 ab3e 31a5 06be 48df 1cbf
000000d0: f703 023e 29b7 ac3d b3a5 e0bd 9552 81bc
000000e0: 5d61 28bd 3993 983e 0e91 0cbe 69e1 c3be
000000f0: fb43 9ebd 222f 34bf ac9d 87bb 1000 d3be
00000100: 0765 923e 37b2 d63d d5aa 423e 9733 003e
00000110: 7d0b ff3d 6bde bfbd 4010 fabe a47b 083d
00000120: 305e 0e3e f721 783e f36d 0ebf deb6 efbe
00000130: 6dd1 d73e 77d4 9cbe f8a8 8f3e 4276 833e
00000140: 6e73 5e3e dca5 4ebe b1ad 1d3e 53b4 10bf
00000150: ec5e 65bd 34a4 1dbe 7c67 dabd 2878 efbe
00000160: f2bf c7bd 14a8 b63d 655a 55bf 1441 c73e
00000170: b236 8b3e 668d 093e 1aa0 073f 6e17 aebe
00000180: 3c91 2dbe bcd4 993e 9f3a 07bf 0164 a7be
00000190: 3811 60be e15a 48bf 4f07 9abd cf46 9b3d
000001a0: fa05 d93c 7ff3 90bc 5767 bbbe 92c9 1d3d
000001b0: 6f77 c1bd 31f3 b6be fae0 093f 4441 5fbe
000001c0: 9e02 ac3e c796 4abe 73f4 653e 2e71 2dbd
000001d0: bda7 7fbb 76f1 213f cb9d 07bf 6569 9b3e
000001e0: 955b b0be 9aa0 b2bd 1589 703e 465c 753e
000001f0: 51ae 893e 0c17 933e 73a6 45be 6ea6 123e
-0.16180752 -0.79149014 -1.2141571 0.3061185 0.1715053 -0.29864222 -0.30668262 0.093697265
-0.48364964 -0.07760215 0.3253826 -0.7351835 -0.031047598 0.62878454 0.61499697 0.30265903
-0.30813363 0.3347705 0.40525913 0.20640503 -0.12454139 -0.17750145 -0.2524481 -0.49171644
0.20680667 0.11630191 0.21469833 0.45630574 -0.12853244 -0.17177804 -0.25306895 -0.08697053
0.10314422 -0.97495806 0.3046298 0.41798216 0.1319994 -0.2783377 0.10085272 0.35850197
0.08252647 0.037929595 -0.085552566 -0.17038538 -0.15285203 -0.21814643 -0.17506233 0.35913196
0.011245726 0.33423287 -0.13148953 -0.612782 0.12696825 0.084333725 -0.109691046 -0.015786448
-0.041108478 0.29799822 -0.13727209 -0.38257912 -0.0772781 -0.7038442 -0.004138669 -0.41210985
0.28592703 0.104832105 0.1901048 0.1251968 0.12453363 -0.09368595 -0.48840523 0.033321038
0.13903117 0.24231707 -0.5563652 -0.46819204 0.42151967 -0.30630848 0.280586 0.2567616
0.2172372 -0.20180458 0.1539829 -0.5652515 -0.055998728 -0.1539467 -0.10664269 -0.4677136
-0.097534075 0.08918777 -0.83341056 0.38916838 0.27190167 0.13432845 0.5297867 -0.3400225
-0.16949934 0.30045116 -0.52823824 -0.32693484 -0.21881568 -0.7826367 -0.07520925 0.07581865
0.026492108 -0.017694233 -0.3660228 0.03852231 -0.09446608 -0.35732415 0.5385891 -0.2180224
0.33595747 -0.1978408 0.22456531 -0.042344265 -0.0039009892 0.63259065 -0.5297515 0.30353847
-0.34444872 -0.087220386 0.23489793 0.23960981 0.26890805 0.2872852 -0.19301777 0.143213

layers.1.weight f4 [128, 128]
00000000: ae8e 97be e75e bb3d b7e7 243d 5b56 373c
00000010: 8be8 3b3d 244c 6fbd 40cf 38be 3157 bb3c
00000020: 60bc f8bc 9170 efbc 77ae aabe b161 c53d
00000030: 4c6a 02bf fcde 213d be5b afbe 508b c3bd
00000040: 8539 afbd 10db 23bc d47e 9ebe 9b37 57bc
00000050: 9a3d 90bd c9a5 e3bc ca86 423c 687f 38bd
00000060: 47d0 16be 936f df3c 123b 81be 58e3 5bbe
00000070: 6a37 83bd 7fa9 953d ba9c 903d 1ba3 ad3d
00000080: 9305 1ebd 69b4 03be 89aa 9bbd f7bf 35be
00000090: 05fb cbbd a1a9 103d ff36 7fba c17e 86bd
000000a0: e9eb ffbc d7f1 babb e577 e8bd 73b6 9ebc
000000b0: fee9 66bd 986c 78bc a35b cc3d 8239 21bd
000000c0: 3843 58bd 5c2a f83c 1889 003c 3051 333e
000000d0: 7ab3 a63c 1826 87bd cc5e c2be 8482 3fbe
000000e0: d90b 0dbb c3ae 0cbe 054c 35bc cc99 bfbd
000000f0: 3885 f43c 84de b33e 128c e0bc 5df7 a4bd
00000100: 5f89 373d d7c6 f0bd cc83 6fbc 2741 f2bb
00000110: dc06 f5bd 89a8 ec3c 752b c5be 68c0 b93c
00000120: 5ef5 d4bc 4913 a8bc 1957 0a3e cfab 0cbd
00000130: 2edc 563d 62d4 903c d2ca 103d 08c9 473d
00000140: f7a7 c7bd 6198 eb3c 333b 863d 8a12 71bd
00000150: 55df 86bd f246 1ebd 7a39 60bd 2926 c73d
00000160: e650 66be b9f0 8bbd 3b8b 1fbe 417e 48be
00000170: decb f0bc a1f0 92bd 61a5 f1bd 9abc 6a3d
00000180: 7499 89ba f4b9 9abe c2ca 243c 8389 a3bc
00000190: 10ae a83d 222d c7bd bdac 91be ec90 a53a
000001a0: 9a81 82bc 80ab 623d 31ee aa3c 887f 81bb
000001b0: e7fe 40be 605d 79bc 72cd 61be 3fd6 d63c
000001c0: 9a43 0abe 2cdb c3be e55d 5b3d dbe1 a4be
000001d0: 054e 2cbd 9e20 68bd b97a 5dbd e8f6 683d
000001e0: 9267 11bd e689 8ebc 577c dd3c 951f 62bd
000001f0: f96c 293c beb0 f6be 9471 21be b2d0 c8bb
00000200: f2e8 e1be c45f 283e 5a87 51bf ff38 2c3e
00000210: b65c c93d 42a0 0ec0 8df1 d2bf b87a 4fbe
00000220: bb7c 10bf 3bda f03d 8e99 62bf 5c83 0bbf
00000230: 207e 56be 57cd 40bf e9a8 a1be 9776 92be
00000240: 0741 453d 5f8e 84bc c35b 4cbf ef9b a8bc
00000250: 7a39 f4be 6f54 103e f71a 063e 3481 94bf
00000260: 5817 e0be eaab 933e f299 943e 88ce e0be
00000270: 4152 ba3e 80c3 c33d e28f d53c a8e2 8e3d
00000280: eed2 4ebe ccb3 573e aa32 16bd 08d6 51bd
00000290: 190c 2dbe 5aba bb3d 6675 eebc 24ac 90bd
000002a0: 3c08 b13c 20e3 0f3d 3aa9 1bbc 22c1 5b3c
000002b0: 43f6 24c0 068d 8ebe ec7f 6f3e ff4f 2f3d
000002c0: d1fa d3be 7c69 8a3c 9910 febc b312 c93e
000002d0: e8ea 2c3e 0c0a 743e a7d1 2abe d499 80bd
000002e0: 01eb a7be 2566 f03a 0a8c 2abe f97c edbd
000002f0: 4ff8 fdbd 9d4e e43f 8557 103e e6ad b13d
00000300: 251a 2cbe d8be 8c3d 9810 9bbe 78a3 d93d
00000310: 8972 eabd d49a fa3d ea93 f43e 037c 803c
00000320: 1697 333e cbad 7ebe 3eb2 443e 1b2a ae3d
00000330: f021 33bf b4ac f2bd 58da 783d a2cc 1c3e
00000340: 4940 20bd d73e a3be dad2 953d 7724 7abe
00000350: 5d7a 1b3f 1476 c83d 6a2e 0dba ef00 663e
00000360: 04cd 52bf 6935 903e 4d26 d1be c1c2 8abf
00000370: 123b 47bf eea1 95bd 457f 37be 4507 173d
00000380: 5e38 cc3e 7f81 aabd 99ac 8f3f 55db 543e
00000390: f0eb 49bc ab0d fbbe b082 babf 69e6 27bb
000003a0: f486 8f3e bede b53e a942 b63d cc54 89bf
000003b0: ecbf f7be 9a74 603e 26bb 9a3c 2c75 d73d
000003c0: 22d6 46c0 722c eebe 2d60 923d 4360 5ebf
000003d0: faa4 8bbe 54ce 8abe bd48 a53f fc03 1e3e
000003e0: 901e f1be d03c 1abc cb13 953d 31d6 263f
000003f0: 3c6e 583e 7f1e 3cbd c9a3 18bf 1a63 1a3e
-0.29601043 0.091489606 0.040260043 0.011190022 0.045876067 -0.058422223 -0.1804781 0.022868725
-0.030363262 -0.02922848 -0.3333623 0.09637774 -0.50943446 0.039519295 -0.3424968 -0.09548056
-0.08555893 -0.010000959 -0.30956137 -0.013135816 -0.070429996 -0.027789013 0.0118729565 -0.04504338
-0.14727889 0.027274882 -0.2524038 -0.21473444 -0.06407054 0.073077194 0.07061143 0.084783755
-0.038579535 -0.1286179 -0.076008864 -0.1774901 -0.099599876 0.03531802 -0.0009735673 -0.06567145
-0.03124042 -0.005705099 -0.11350993 -0.019374108 -0.056375496 -0.0151626095 0.09978416 -0.039361484
-0.05279848 0.030293636 0.007845186 0.1751144 0.020349253 -0.06599063 -0.3796295 -0.18702132
-0.0021521954 -0.13738541 -0.011065488 -0.09355506 0.02984868 0.35130703 -0.02741054 -0.08054993
0.04480874 -0.11756676 -0.014618825 -0.0073930207 -0.11964199 0.028888958 -0.38509718 0.022674754
-0.025995906 -0.020517008 0.13509788 -0.034343537 0.052456073 0.017679397 0.035349675 0.048775703
-0.097488336 0.028759183 0.0655426 -0.05885557 -0.06585566 -0.038641877 -0.054742314 0.09724075
-0.22491798 -0.068330236 -0.15580456 -0.19579412 -0.029394086 -0.071748026 -0.11799122 0.05730877
-0.0010498003 -0.30219996 0.010058107 -0.019963032 0.08236325 -0.09725405 -0.284521 0.0012631691
-0.01593094 0.055339336 0.020865532 -0.0039519705 -0.18847238 -0.015220016 -0.22051027 0.026225207
-0.1350235 -0.38253152 0.05355634 -0.32203564 -0.042066593 -0.05667173 -0.054072116 0.056876093
-0.035499163 -0.01739974 0.027036829 -0.0552059 0.0103409225 -0.4818172 -0.15765983 -0.006128394
-0.44123036 0.16442782 -0.81847155 0.16818617 0.09832136 -2.2285314 -1.6479965 -0.20261657
-0.56440324 0.11760374 -0.88515556 -0.54497313 -0.2094655 -0.75313324 -0.3157418 -0.28606102
0.048157718 -0.01618117 -0.7982752 -0.020582167 -0.477001 0.14094709 0.13096224 -1.160193
-0.4376781 0.28842098 0.290237 -0.4390757 0.3639088 0.09558773 0.026069585 0.06976825
-0.20197651 0.21064681 -0.03666941 -0.051229507 -0.16899146 0.09166403 -0.029108714 -0.07064083
0.021610372 0.035128713 -0.009500796 0.013412746 -2.5775306 -0.27841967 0.23388642 0.0428009
-0.41402295 0.016896002 -0.031013774 0.3927208 0.16886485 0.23831958 -0.16681539 -0.062793404
-0.3279648 0.0018340988 -0.16654983 -0.11596102 -0.12400877 1.7836491 0.14095886 0.086757466
-0.16806848 0.06872338 -0.30286098 0.10626882 -0.11447627 0.12236562 0.477691 0.015684133
0.17538103 -0.24870984 0.19208619 0.08504125 -0.6997366 -0.11849347 0.060755104 0.15312436
-0.039123807 -0.3188388 0.07315607 -0.24427973 0.60733587 0.097881466 -0.00053856394 0.22461294
-0.8234408 0.2816575 -0.40849534 -1.0840684 -0.7782451 -0.07306276 -0.17919643 0.036872167
0.39886755 -0.08325481 1.1224548 0.20786794 -0.012324318 -0.49033865 -1.4571133 -0.0025619513
0.2803265 0.355215 0.08899433 -1.0729003 -0.48388612 0.2191948 0.018888067 0.10520396
-3.1068196 -0.46518284 0.0714725 -0.86865634 -0.27274305 -0.2711054 1.2912823 0.15431207
-0.4709363 -0.009413913 0.07279166 0.6517058 0.21135801 -0.04592752 -0.59624916 0.15076867

layers.1.bias f4 [128]
00000000: 89d5 a2bc e8f7 913d 7dc0 efbd 2dfe f4bc
00000010: 5c72 e43c 7307 0cbe 31f9 503d 4154 2ebd
00000020: 6f80 0e3c 6738 113d c05e 0cbe 6c0f 45bd
00000030: e923 89bd 4032 873d 4874 37bd ebc8 05bc
00000040: 0726 93bd 140e e6bb 523f 2fbe 0042 803d
00000050: 81c5 e03d 7bf6 76bd 40de 98bb 521e 403d
00000060: 0072 06bd f0f5 7e3d a13e 983d 8d9d 553d
00000070: e3a2 b93d 2456 0bbd e0b2 ec3d bf56 073d
00000080: b793 2a3d 799b 22bc 632a 113e 4554 14bd
00000090: 594e acbd 1e39 b83d 910b 8bbe a6d8 f6bd
000000a0: 8e76 c43a d1fd bc3b 6584 92bd d2bb 1c3d
000000b0: adc8 8a3d 76c4 c73a ad32 e4bb 45cc f43c
000000c0: 9efa c5bb 7c21 d6ba 64b2 a3bd d0b0 fe3d
000000d0: 79a2 923c 99a0 cdbd 5dae 30bd dc58 35bd
000000e0: e932 443c a95d 253d 7fde 333d 4bfb cbbd
000000f0: 5f90 dfbd cc0a 89bd 304b c7bd 324f e7bc
00000100: 29e6 d4bc d95e b7bd ac5c 3abd bb28 b0bd
00000110: 0da0 ccbd 0299 013e 5ba4 353d 6023 723d
00000120: e444 8ebd 5cc7 65bd 05cd 843d 4007 d63c
00000130: 13ae 12bd f1b5 f8bd 27c7 16bd 08e2 ad3c
00000140: 9aa4 343d 4a60 213e ce9c 45bc 97eb 8f3c
00000150: a2ed 5c3d b9e3 e1bc a95d 203d 304a 9ebd
00000160: 9f44 d1bd 1d3f 3cbe 28a0 8c3e 7ba1 093d
00000170: 10de c7bd 8e99 2cbd d551 ccbd f68f f4bd
00000180: bd2d 22bd 1317 65bc 7e86 06be a4ff 833d
00000190: 61ba 713d c0b7 7bbd 6413 5c3c 699c 1f3c
000001a0: a37d dcbd a484 11be f9ff 613c 468c 93bd
000001b0: 7dd8 073c 80bf a2bd 02ae 7ebd e59d 99bc
000001c0: f426 d23c 0d86 723c d639 0cbd 83ec cb3c
000001d0: 83cf e1bd 12cc 1f3d 6604 28bd 22a5 dbbd
000001e0: 09b1 a03c 1a73 dfbd f4d7 53bd 6e10 593c
000001f0: c490 233d 6cba c4bd 0139 0dbc aec7 dfbd
-0.019877212 0.071273625 -0.11706636 -0.029906357 0.027886562 -0.13674717 0.051018897 -0.04256082
0.008697613 0.03545418 -0.1370802 -0.04811041 -0.066963024 0.06601381 -0.04478863 -0.008165578
-0.071849875 -0.007020721 -0.17113999 0.062625885 0.10975171 -0.060293656 -0.004665166 0.046903916
-0.032823563 0.062246263 0.074338205 0.052152205 0.09064271 -0.034017697 0.11557555 0.033041712
0.041644778 -0.009924763 0.14176326 -0.03621318 -0.08413381 0.08995269 -0.27157262 -0.12053041
0.0014988945 0.005767562 -0.071541585 0.038265057 0.06776557 0.0015241045 -0.006964049 0.02988256
-0.006041839 -0.0016336883 -0.0799301 0.12436068 0.017899739 -0.10040397 -0.043135036 -0.044274196
0.011975029 0.040372524 0.04391336 -0.0996004 -0.109162085 -0.066915125 -0.09731138 -0.028236005
-0.025988655 -0.08953638 -0.045498535 -0.08601519 -0.09991465 0.12656024 0.044346195 0.059115767
-0.069467336 -0.056098327 0.06484417 0.026126504 -0.03581054 -0.121440776 -0.03681102 0.021225944
0.04410229 0.15759388 -0.012061311 0.017568393 0.05393756 -0.027574407 0.03915182 -0.07728994
-0.102181666 -0.18383451 0.2746594 0.033601265 -0.09759152 -0.04213863 -0.09976546 -0.11941521
-0.0395944 -0.013982552 -0.13137242 0.06445244 0.059015635 -0.061454535 0.013432357 0.009741881
-0.10766151 -0.14210755 0.013793939 -0.072044894 0.008291361 -0.07946682 -0.062177666 -0.018752048
0.02565334 0.014802468 -0.034234844 0.024893051 -0.11025908 0.039012976 -0.04101982 -0.10724856
0.019615667 -0.10910626 -0.05171962 0.013248546 0.03993298 -0.0960587 -0.008619548 -0.10926758

readout.weight f4 [1, 128]
00000000: 3634 36be 7a23 73c0 5569 45be f51b e03e
00000010: c5df bf3d 8cd8 5c3e ef0e 9a3d 8774 e33d
00000020: 2071 ba3b 9247 11be c2d7 b33e 552d a03d
00000030: 3719 39bd 6169 463e e7f9 0fbe e5b4 46be
00000040: 1697 0dbd f8fe 5ebd 5e5f 58bf 5b4b babe
00000050: 630f 42be 0d30 93bd 1667 a9c0 10c2 47bd
00000060: efc3 ffbc 67cc 803e a603 9cc0 7f0a e73d
00000070: 8c17 7fc0 8e65 a0be cc7a 50be d0a8 5e3e
00000080: 0fb9 5cbf 2f9b 5abd d46e af3e 944c 343e
00000090: a275 543c 7b28 483e c74d 3840 7a4e 923b
000000a0: 09c8 50be b2f3 68be cfa3 843e adbe c1c0
000000b0: 469a c3be ac3e c83e 97f5 803e 805d 5c3d
000000c0: 21d6 13bf 467c 12be b471 a63e 71ec 21be
000000d0: 3777 8dbc 9c7d cfbe 3c93 833d 8f71 81bd
000000e0: e0b4 72bf f97f 283f ab40 c23e 3236 fc3b
000000f0: 8c4c 5cbf 5ce6 1e3c 0ea8 6b3d 7faf 693c
00000100: 8e4b f23d 12d6 75bf 9922 4abd a0bf 823b
00000110: 8042 df3c 0667 1dbe f340 953d 929e 2bbe
00000120: 49c6 74be d5cc 273d 74c8 aabe 99b0 333e
00000130: 842f ef3d 171b 1abd 4034 d1bc 37b9 10bf
00000140: 12f1 6c3e d5f0 a2be 53f2 3a3e 6b56 003e
00000150: 9ad9 a3bb 7cf1 10bd 2714 763f 2994 36bd
00000160: 0a28 7a3d fd28 00bf b582 e33f c82f 743e
00000170: be83 2c3d cf47 a7be 53ae 1d3e d2a5 563e
00000180: 5b2b 89be 8196 9a3c 8130 9b3e 1215 94be
00000190: be4f aabd 8307 663d 4fd1 d93e 43bf 053b
000001a0: 875f 89be 2314 7d3c 3f6c 1ebe 33f2 493d
000001b0: f596 b1be 3901 eebd 5843 9a3c 8133 8dbd
000001c0: 7389 3abe 7750 06bf 6694 e1bc 7ab3 56bd
000001d0: 1a27 75bb d3df fdbe 7aee 4b3d d6cb b9be
000001e0: e221 ac3b cae3 83bf b503 0cbf 91d4 adbc
000001f0: 9ecd a4bb 5bab de3d e440 373e 11cb 93be
-0.17793354 -3.7990403 -0.19278462 0.4377133 0.093688525 0.21566981 0.075223796 0.1110621
0.005689755 -0.14187458 0.35125548 0.078211464 -0.045190062 0.19376136 -0.14060174 -0.19404943
-0.034567915 -0.054442376 -0.8452052 -0.36385617 -0.18951182 -0.07186899 -5.2938337 -0.048769057
-0.031221358 0.25155947 -4.8754454 0.11281299 -3.9858122 -0.3132748 -0.20359343 0.21744084
-0.86219877 -0.05337065 0.34264243 0.17607337 0.012967499 0.19546692 2.8797472 0.0044649215
-0.20388807 -0.22749212 0.25906226 -6.054526 -0.3820364 0.39110315 0.2518737 0.053800106
-0.5774861 -0.14305219 0.32508624 -0.15812851 -0.01726876 -0.4052552 0.06424567 -0.06320488
-0.94807243 0.6582027 0.37939963 0.0076968903 -0.860543 0.009698477 0.057533316 0.014263033
0.11830817 -0.9602977 -0.0493494 0.0039901286 0.02725339 -0.15371332 0.07287779 -0.16759709
-0.23903765 0.040966827 -0.3335606 0.17547835 0.11678985 -0.03762349 -0.02553761 -0.56532615
0.23138836 -0.31824365 0.18256502 0.12532966 -0.0050003054 -0.035386547 0.961245 -0.04457489
0.06107334 -0.50062543 1.7774264 0.23846352 0.042117827 -0.32671973 0.1539853 0.20961693
-0.2679089 0.018870594 0.30310443 -0.28922325 -0.08315991 0.056159507 0.42542502 0.002040819
-0.26830694 0.0154466955 -0.1547098 0.049303245 -0.34685484 -0.11621327 0.01883094 -0.06894589
-0.18216495 -0.5246653 -0.027536582 -0.052417256 -0.003740734 -0.49584827 0.049787976 -0.36288327
0.0052530626 -1.0303891 -0.54693156 -0.021219524 -0.0050293943 0.10872527 0.17895848 -0.28865865
