HW9/9_gym-DDPG/results/DDPG_HalfCheetah-v4_3500-eps0.15-t32-l0.0001-s2.pth (torch, 195708 bytes, 13 tensors)

layers.0.weight f4 [128, 23]
00000000: 185f 143d 2006 453e 1597 593d ff37 15be
00000010: 6e5a 57bd 2d4a 7b3d 64df bdbc 672a 31be
00000020: 12f1 9a3e a7b3 06be 691e 0ebe 3269 543d
00000030: af52 46bd 8690 e93d d61e 973c bd52 c23d
00000040: 611f a93d 31ff efbd 4b11 e4bd 7f01 023e
00000050: c08e 33be 4687 15bc 17a7 863c d156 d73f
00000060: fef6 33bf e8d7 293e 78ae 1a3e ff25 36be
00000070: bb80 afbe e012 50bf 4fff 6dbf c69f 74be
00000080: 90ec a1be 393f d43d 112f 8f3b 3a8d 88bd
00000090: 5aa7 ac3c 0df4 a3bd 4821 a0bb e2ca fbbc
000000a0: 3c0c 5fbe 0fce e8bd ba4e 3d3e 8350 f6be
000000b0: 4256 b23c 4ee3 0c3e 2d86 7c3f aada ce3d
000000c0: bc3d 62be b26a d33d fb4f 093e eae4 ae3d
000000d0: 2e11 233e 415d 8cbd b8a8 a8be dde5 9f3d
000000e0: 9b79 4cbe 9d2f ed3d 0814 5bbb 7063 073e
000000f0: 9c92 183d 9596 07be e33b 3b3d e9e1 173e
00000100: 6b09 0738 6733 343d 6d4d ea3d aaab 25be
00000110: 9ae8 cc3c f033 19bf ea82 4fbf de70 32be
00000120: 3d2b fdbe 1b4e fd3c 57d6 aa3d dcec de3e
00000130: 0b1e 473e d069 e03b cf42 a83d 4e1c d8bd
00000140: 98f7 113e 790e cbbc 0394 ccbd 985a c0bc
00000150: ec96 123e ffca 8bba 8535 d3bd 5b78 d9bb
00000160: 9684 98bd 705c b5bd 99b6 2d3b 7c3f 00be
00000170: c3c6 1540 75b4 70be 4066 423f 1ba1 683d
00000180: 6560 fd3d 9249 ca3e 2f78 a1be 7495 f0be
00000190: cfa7 5cbe 20b3 9d3e fa5f 313d 7f76 173e
000001a0: 914d 673d 7945 753d 22f3 0e3e 3edb b13d
000001b0: f0bb 41bd 8c7d c93d 1d37 053e aa1e 46bd
000001c0: c128 fabd acf4 393d ce82 5fbe 5d8e c73e
000001d0: ffdd 25bf efd4 a5bd 1283 35be 371f 013d
000001e0: 25fd 803e 22f6 823e c5d7 103d 9ce0 c23d
000001f0: 22b1 ef3d 2941 17be 2b6b 94bc 8fc2 013e
00000200: 0162 1dbe 64ef 0abe b7ac 1fbe 95d7 483d
00000210: baf8 8a3d e2ff 9dbe 5c53 a03d 63b1 893e
00000220: 7227 513d 59d5 49be 64b8 363e 3d70 26bf
00000230: 96c9 b4bf 24b8 25be 7986 083e 65d3 31be
00000240: 3b42 9d3e 514a 243e 5e21 4cbd 54cb 483d
00000250: a2be 313e 5c21 f2bd 6544 973d 044d 94bc
00000260: 695c 19be 6377 5abd 4e76 15bd cd68 21be
00000270: fa54 18be 219c 88bd 820c 563e 7f70 443d
00000280: deaa 34be dd61 133f d9b6 9cbe e238 19be
00000290: e273 953c 07a7 803e 6f90 12bc a9ca 94be
000002a0: 179e 56bc a293 593c d96c 44be e302 a2bd
000002b0: ed3c cb3d b3cf b2bd 43c7 33bd ab58 90bd
000002c0: 8491 23be 21ba 863d 4974 143e cd51 943d
000002d0: 6a8b b3bd 22dc 72bc d3bf 633e 35ac 34bd
000002e0: 563a 653e 9fed 55be cefa e6bd aa08 1f3e
000002f0: 23b0 c53b f9ef 863d 6aa7 1cbc a98f b0be
00000300: 7f36 033f 09b1 a83e 0ca5 3abd e87e b1bd
00000310: 527e 393d 4ae0 d9bd 4b72 e73d 8c57 e33d
00000320: 2927 20bd 332e bfbd 0c33 5bbe e052 b9bd
00000330: 8077 2fbd c44f 0c3e 79e5 6a3d 426e 1b3e
00000340: a36f a33d ba99 f3bc c72b 99be 78e0 f0bb
00000350: 77c8 44be 7e5b a53c d151 16bd 18dd 7e3e
00000360: c894 73bd 749f cfbd e391 ca3c 703a be3d
00000370: b6c0 163d 6ca4 35be c8d2 ef3d 1fef f03d
00000380: 2338 033d aac7 b83d 1b68 01be 2acb 5f3e
00000390: 971a be3d 07a0 e7bb a854 1b3f 161f 873e
000003a0: 4e7d b83e 9d18 0d3d 2cf3 b1bd d697 cbbe
000003b0: f874 8dbe fae8 c7be 7f8c e4be 15f0 8c3e
000003c0: cadc a43d c361 a73a 3fd9 edbd f0c4 28be
000003d0: d3ca 763e 998f b63d 360f 483d 096f 183e
000003e0: a7d1 d8bc dc6a 2abe c557 1bbe 6199 c5bd
000003f0: c98c c7bc 6e3f 2abf 1cdb babd 04cc 2fbe
0.0362235 0.19240618 0.0531226 -0.14572142 -0.052576475 0.061350036 -0.02317781 -0.17301331
0.30262047 -0.1315447 -0.13878788 0.051858135 -0.048418697 0.11404519 0.01844732 0.09488437
0.08257938 -0.11718596 -0.11136111 0.12695883 -0.17534924 -0.00912649 0.016437097 1.6823369
-0.70298755 0.16586268 0.15105617 -0.17787932 -0.342779 -0.812788 -0.92967695 -0.23889074
-0.31625795 0.10363621 0.0043696244 -0.06667562 0.021075893 -0.08005533 -0.00488678 -0.03073639
-0.21782011 -0.113674276 0.18487063 -0.481083 0.021769647 0.13758585 0.98642236 0.101003006
-0.22093862 0.10323085 0.13409416 0.08539756 0.15924522 -0.06853724 -0.32941222 0.07807515
-0.19968264 0.11581347 -0.0033428688 0.13221526 0.037249193 -0.13241036 0.04571141 0.14832272
3.219528e-05 0.043994334 0.11440549 -0.16178766 0.025013257 -0.59844875 -0.81059134 -0.17425868
-0.4944705 0.030921033 0.08341663 0.43540084 0.19445054 0.0068485513 0.08215868 -0.10552274
0.14254606 -0.024787175 -0.099891685 -0.023480698 0.14315385 -0.0010665356 -0.103129424 -0.006636662
-0.07447164 -0.08855522 0.0026506542 -0.12524217 2.3402565 -0.23506339 0.7593727 0.056794267
0.123719014 0.39509255 -0.31537005 -0.46989024 -0.21548389 0.30800724 0.04330442 0.14791296
0.056470457 0.059880707 0.13959935 0.08684395 -0.04729837 0.09838399 0.13009305 -0.048369087
-0.122148044 0.045399353 -0.21827242 0.38975802 -0.64791864 -0.080972545 -0.1772578 0.03152391
0.25193134 0.2557841 0.035362024 0.09515497 0.11703707 -0.1477095 -0.018117508 0.12671874
-0.15369417 -0.13567883 -0.15593229 0.04903372 0.06785722 -0.30859286 0.078283995 0.26893148
0.05106301 -0.19710292 0.17843777 -0.6501501 -1.4124019 -0.16183525 0.13332547 -0.17365797
0.30714592 0.16043974 -0.04983651 0.049022034 0.17357877 -0.11822769 0.07386092 -0.01810313
-0.14976658 -0.053336512 -0.036489777 -0.15762635 -0.14876166 -0.06670404 0.20903209 0.047958847
-0.17643306 0.575712 -0.30608252 -0.14963105 0.018243734 0.25127432 -0.008945568 -0.29060867
-0.013099215 0.013279827 -0.19182147 -0.07910707 0.0992373 -0.08731022 -0.043891203 -0.07048162
-0.15973479 0.0657847 0.14497484 0.07242165 -0.087668255 -0.014822992 0.22241144 -0.044109542
0.22385535 -0.20891427 -0.11278306 0.15530649 0.00603296 0.0658874 -0.009561399 -0.34484604
0.5125503 0.32947567 -0.045567557 -0.086667836 0.045286484 -0.10638483 0.113010965 0.111006826
-0.039099846 -0.09334984 -0.21406192 -0.0904901 -0.042838573 0.13702303 0.05734775 0.15178779
0.079802774 -0.029736388 -0.29916212 -0.0073509775 -0.19217096 0.020185228 -0.03669912 0.24889028
-0.05946806 -0.10137835 0.024727767 0.0928849 0.036804877 -0.17738503 0.11710125 0.11764359
0.032035958 0.09022458 -0.1263737 0.21854845 0.09282415 -0.0070686373 0.6067605 0.26390904
0.360331 0.0344473 -0.086889595 -0.3976428 -0.27628303 -0.39044935 -0.4463844 0.27526918
0.08049925 0.0012770224 -0.11613702 -0.16481376 0.24100809 0.08914108 0.04884263 0.14886107
-0.026467158 -0.16642326 -0.151702 -0.09648395 -0.024359124 -0.66503036 -0.09123823 -0.1716767

layers.0.bias f4 [128]
00000000: eb6f 67bd b1f0 4d3e ce24 33bd 17ec d53d
00000010: 1431 873e 6ff3 f13e c601 1b3d 0ace 523e
00000020: eb9b 863e 40c8 3c3e 32dc 0ebd 5d88 fe3d
00000030: dc59 553e 61d3 48be 62f6 75be 3f94 22be
00000040: d9a0 f7bc 5dd8 c23e 65b1 bd3e 2d64 5b3c
00000050: 4dc1 d13e edd8 983e 3624 8d3e d997 5abe
00000060: 5223 b83e deb9 fcbc 0949 27be 69ec ee3e
00000070: 2bd2 b53e aba2 8f3e 182a 023f 4723 fbbe
00000080: a962 6a3e e51b b5be 15ea b2bd 86da dcbe
00000090: 02fb 99bd 6b5a ca3d 4cdc c3be 54ad 7c3e
000000a0: 8ef4 bb3e 6738 673e 6561 c83d c396 083f
000000b0: 47a7 79be 078d 1e3f 30b5 de3d 1fc2 0ebe
000000c0: b9be 05bd e9d5 233e 5685 0d3e 3c7a eabd
000000d0: 3995 8eba b096 3c3f 0dfa 35be 3d6c 873e
000000e0: 1dd3 013d 1ad4 9dbc f769 35be b66e a2bd
000000f0: 18d6 d23d 234d 543e ccbf a33e b939 95bd
00000100: fc24 62be 86d1 573d 7794 52be 4a6e 0ebe
00000110: 884f 9fbe 9649 c03e 8265 b53e 6ea9 aabd
00000120: 5634 aebe 2dbc 8ebe 87e4 a9be 6544 d5bd
00000130: 236b 8bbe b424 09be 01d0 b63e 7836 58bd
00000140: 4e14 42bd 79a4 41be d023 60bd 815e 5cbe
00000150: 05b0 8ebe 2f76 6bbd 32c8 34be 1949 a43e
00000160: 18b7 343e 61f5 123e 0326 96bd 9bf2 f33e
00000170: b276 df3e 13d9 eb3d bce2 073f d644 5dbe
00000180: aec9 3dbe d815 a4be 17c1 e93d 9ce6 eb3e
00000190: f1a5 3fbe 9807 063f ac9a 88bc 9f2f 8dbc
000001a0: 6907 dbbd f807 c4be a478 a7bc f8cb f73e
000001b0: ab27 273f 620a b33d 9cda dc3d cfe9 703e
000001c0: d7c2 953e 5e91 c93e 00f2 073f 228f f73d
000001d0: 194d 043f 3a37 d13d c633 bf3e 2676 91bd
000001e0: d806 4d3d 282e 9c3d e8a3 b8be f185 133f
000001f0: 149c bbbe f340 243e c68e a8be 9473 afbe
-0.056503218 0.20111348 -0.04373627 0.10445421 0.2640463 0.47256038 0.03784349 0.2058641
0.2629083 0.18435764 -0.034877963 0.12428353 0.2083506 -0.19611885 -0.24019769 -0.15876864
-0.030228065 0.38055697 0.37049404 0.013390583 0.4096779 0.29853 0.2756669 -0.21346988
0.35964447 -0.030850347 -0.16336454 0.46664742 0.35511908 0.28053793 0.5084548 -0.49050352
0.22889198 -0.35372844 -0.08736054 -0.4313547 -0.07518579 0.09880527 -0.3825401 0.24675494
0.36710018 0.2258011 0.097842015 0.53355044 -0.24380217 0.6193394 0.108744025 -0.13941239
-0.03265259 0.15999569 0.13820395 -0.114490956 -0.0010878212 0.7366743 -0.17771168 0.26449767
0.031695474 -0.019266177 -0.17716204 -0.07931273 0.102947414 0.2073255 0.31982267 -0.072864
-0.22084421 0.05269005 -0.20564447 -0.1390926 -0.31115365 0.37556142 0.35429007 -0.083330974
-0.34024304 -0.27877942 -0.33182165 -0.10413436 -0.27230176 -0.13392907 0.3570557 -0.05278632
-0.047382645 -0.18910398 -0.054721653 -0.21520425 -0.27868667 -0.057485756 -0.17654493 0.3208702
0.1764797 0.14351417 -0.07331469 0.4764603 0.43645245 0.11516013 0.53080344 -0.2160829
-0.18533966 -0.32047915 0.11413782 0.46074378 -0.18715645 0.5235534 -0.016675316 -0.017234622
-0.10694773 -0.3828733 -0.020443268 0.48397803 0.65294904 0.08742215 0.10783884 0.23526691
0.29250214 0.3936872 0.5310364 0.12087847 0.5168014 0.10215612 0.37344187 -0.07102613
0.050055355 0.07625991 -0.3606255 0.57626253 -0.36642516 0.16040401 -0.32921427 -0.34267867

layers.1.weight f4 [128, 128]
00000000: cd59 35bd a2a2 1d3d 4265 b3bd 7a30 efbc
00000010: d2ec 92bc 86cb b53c e87b 2d3d c5f4 65bd
00000020: 3854 c53c d8ad 083c b0c9 ef3c 6f24 263a
00000030: df40 403d 0e89 fb3d ebb6 033e 0e77 263d
00000040: dbef 6b3d f7ff 113d aa23 f23c 7b8b ac3d
00000050: 980d 2bbd 77fb 9fbd 938f 833b ee7a 393d
00000060: e013 78bd 465d 863c 0e33 d93d c298 503c
00000070: a662 8fbd b1d4 04be 8b30 1fbd a4ee 4cbd
00000080: 9acb 263c b79b 2e3d af2a 013d fed9 a23d
00000090: 8d9f ae3d 9f4c 96bd dcdc 9e3c 9e6c e4bc
000000a0: 5503 9f3c 91b8 b83c 3dac 3b3d 6295 05bc
000000b0: b57b a83d d698 a6bc 8d23 b4bc ce37 dbbc
000000c0: 36ea 0fbc f262 563c 2ffc 68ba 4a60 2b3d
000000d0: 4e6b 2d3d 58bd 50bc 5fa9 a63d 0aec 16bd
000000e0: 413a 073b 5265 583d 7134 a23d e8e4 c33c
000000f0: 8eb6 1b3d 1a46 6e3d 5279 eb3d e120 a1bd
00000100: 9ee1 77bd b729 003d 4e28 5dbc 073f 03bd
00000110: c3f5 11bd a173 aa3c 87f6 8cbc 3cc7 ca3c
00000120: 7243 8a3d 681e 6bbd d083 b1bc 9e9c 313d
00000130: 7abc 923d 98b8 c63a 9690 9f3c de33 8b3d
00000140: 2225 4a3d 0d5c 4dbc f0ac 973a 3e47 73bd
00000150: 725f 42bc d648 333d 060c 22bb 9c10 89bd
00000160: fb13 a23d 81d1 74bc 897a 4fbd fbc0 0cbd
00000170: f186 65bd f381 81bd a1e1 4dbd 5db6 853d
00000180: 3310 023e 2ede 923e 2e0d dabc f566 6a3b
00000190: 82f6 3bbd c646 943c b086 50bd 5ea1 1abd
000001a0: 69d9 3dbc ffc9 ae3d 3f33 65bc 2f5a b4bc
000001b0: c8ad a63c 5297 8f3d 3772 26bd 636b 053d
000001c0: d1b4 063e 8565 6c3d 37df 863d 2fb3 383d
000001d0: a2db 843d 19ae 21be 6609 72bd e7b6 b73c
000001e0: 27da 1a3d 8fc3 743c 9dc9 c63d 5c7a e53c
000001f0: a362 a6bc 1468 b13b b223 14bd e82f ac3c
00000200: dbf8 42bd 342d 8fbe ac3e f63c cb7e b23d
00000210: 5a93 123d 303f 653d 65ea f43b fbea b03d
00000220: e460 fc3c a06d 2f3d 5ae1 00bd 93bb 89bd
00000230: 280e ddbc 0b59 8d3c 3dda 87bb 6b0a 4fbd
00000240: 8ed1 923d 62dc 2abd 97c8 a2bc 204d de3c
00000250: 2d76 e63d b95f dd3c e0da 41bd b977 7e3c
00000260: d513 743d 7b74 9abd d5c3 543d 7e15 523d
00000270: 249a 06bd 250a c1bd ff54 b3bd ae0b 4cbd
00000280: 3ae1 123d 099e c0bd ceb4 cdba a823 9dbd
00000290: 479c 603d 860a 3f3d 84bd 453d 018d 983d
000002a0: c6a7 083e db92 1f3d 9e11 c93d 1f26 42bd
000002b0: 19cb c73b b09c b63d 4e8d 49bd cc1f 9dbd
000002c0: e6cb ba3d 7b83 a63d 63ba 87bd 005c 6abd
000002d0: 5216 36be 46c1 683d 1a92 96bd b3be 36bd
000002e0: 61bb bf3d 9a4d a63d 7661 773d 8628 68bc
000002f0: 74ef 47bd 0aeb b33d d8ec 733d e862 bb3c
00000300: bea1 2e3d e6bc dbbc 9423 0abd b73c ce3c
00000310: c952 ba3c 2164 b13d d60b 72bc ef91 3a3d
00000320: 9aff 473c b950 70bd c75d 503d 37ad b8bc
00000330: 590f 913d 3f64 b5bd fe54 0fbd ebfe a0bc
00000340: b29e 95bc 6847 dcbc b5e2 953d 5188 dabc
00000350: 7829 ddbd b690 ae3d f679 85bd c7f6 2abc
00000360: eeda 283b 299f b03c ac98 35bc fddf 2c3d
00000370: 5ae3 6c3c 2f96 7fbd 5c28 6a3d 357f 69bd
00000380: 0304 b4bd 53f4 2dbe a842 47bd 927a a33d
00000390: c3fe 173c 4f4a ab3c 5f00 033d f201 9c3d
000003a0: 434e 223d 2f23 1fbd 9ab2 59bd d1c6 05be
000003b0: 202c 083d 04d9 b2bc 503c 45bd 4752 5d3d
000003c0: cc89 bebd bd33 203d 6c0a 6bbb 0e26 68bd
000003d0: 3b4f af3d 0005 cabd 5dfa 6f3b d72e 493d
000003e0: 4e81 b2bb 1aab ce3d 0d3a b1bc 7c3d 06be
000003f0: 0bc5 5fbb 0c7c e5bd b616 3abd a09c 23bd
-0.044275094 0.038485177 -0.08759548 -0.02919792 -0.01793519 0.022191774 0.042354494 -0.056141634
0.02408801 0.008342229 0.029270977 0.00063378265 0.046936866 0.122820005 0.12862746 0.040640883
0.05760179 0.035644498 0.029558022 0.08425041 -0.04176101 -0.07811635 0.004014918 0.04528325
-0.06056583 0.016401898 0.10605441 0.012731733 -0.070012376 -0.1297176 -0.038864654 -0.050032273
0.010180378 0.04262897 0.031534847 0.07951735 0.08526526 -0.07338833 0.019392423 -0.027883824
0.019410769 0.022548946 0.045818556 -0.008153291 0.0822672 -0.02033655 -0.021989608 -0.026760008
-0.008783868 0.013085114 -0.0008887676 0.041839875 0.04233866 -0.012740456 0.08137774 -0.0368462
0.0020634087 0.052831 0.07920159 0.023912862 0.038015895 0.058172323 0.114977494 -0.07867599
-0.0605179 0.031289782 -0.013498379 -0.03204253 -0.035634767 0.02080709 -0.017207397 0.024753205
0.067511454 -0.057402045 -0.021669298 0.043362252 0.07164855 0.0015161214 0.019478124 0.06797002
0.04935182 -0.012534154 0.0011571925 -0.059394114 -0.011863576 0.043770634 -0.0024726405 -0.06692621
0.07913967 -0.014942528 -0.050653968 -0.034363728 -0.056036893 -0.06323614 -0.050264005 0.06528924
0.12701492 0.28685135 -0.026617613 0.0035766934 -0.045889385 0.018100154 -0.050909698 -0.037751548
-0.011587479 0.085346214 -0.013989269 -0.02201566 0.020346537 0.07011284 -0.040636268 0.032573115
0.13154913 0.057714004 0.065855436 0.045092758 0.06487204 -0.15789069 -0.059090994 0.022426082
0.037805703 0.014939203 0.097064234 0.028012447 -0.020310706 0.0054140184 -0.036166854 0.021018937
-0.04760061 -0.27964175 0.030059181 0.0871559 0.035785057 0.055968463 0.007474231 0.08638569
0.03080792 0.042829156 -0.031464912 -0.0672523 -0.02698429 0.017254373 -0.004145889 -0.050547045
0.07168876 -0.04171408 -0.01987104 0.027136385 0.11253009 0.027023183 -0.047327876 0.015531474
0.059589226 -0.07541748 0.051944572 0.051290028 -0.032861844 -0.09425763 -0.08756446 -0.049815826
0.035859324 -0.09405143 -0.0015694143 -0.076728165 0.054836538 0.046640895 0.04827644 0.07448769
0.1334525 0.03895841 0.09817813 -0.047399636 0.006097209 0.089166045 -0.049207024 -0.076720804
0.09120922 0.08130547 -0.06627347 -0.057216644 -0.17781952 0.056824945 -0.073520854 -0.04461546
0.093619116 0.0812027 0.06039568 -0.014169818 -0.048812345 0.087850645 0.059552044 0.02287431
0.042634718 -0.026823472 -0.033725336 0.025175435 0.022744553 0.08661676 -0.01477333 0.04554933
0.012206936 -0.058670733 0.050870683 -0.022543533 0.070830055 -0.08857011 -0.034993164 -0.019652804
-0.018264148 -0.026889518 0.073186316 -0.026676329 -0.10798925 0.08523695 -0.06517403 -0.010434813
0.0025765258 0.021560268 -0.011083763 0.0422058 0.014458502 -0.062399086 0.057167396 -0.05700608
-0.08789828 -0.16987734 -0.048647553 0.07982363 0.0092770485 0.020909457 0.031982776 0.076175585
0.039625417 -0.038851913 -0.053148843 -0.13064124 0.033245206 -0.021831997 -0.04815322 0.054033544
-0.093036264 0.03911184 -0.0035864366 -0.056676917 0.08560034 -0.09864235 0.0036617734 0.049116936
-0.005447543 0.10091229 -0.021634126 -0.13109392 -0.0034144546 -0.11205301 -0.045431815 -0.03994429

layers.1.bias f4 [128]
00000000: 0a26 8abe 2d0f 823e 0ff9 48be d7e7 2cbe
00000010: e74d a23e 382b 143e c2b7 9c3c cc95 a33e
00000020: 6043 003f 10ab a1be 472e 6abe 03f6 47be
00000030: c129 913e eaf2 163e 17b4 49be e945 023e
00000040: de66 71be 7f8b 81be 5622 793e a2f7 61be
00000050: 8b24 c03e a66e 1b3e b5c8 e7bd 4a9f 01be
00000060: 3441 7b3e 76bf a93e ff98 8a3b 6316 e53e
00000070: b992 003e 84ec 0eba 53f6 043b f83f b4bb
00000080: 4380 b53e 6d02 bdbe 1464 5dbe 43ff 9c3e
00000090: c62c 11be c90f 603b 8c27 853e fe83 94be
000000a0: fe4c 333e eaab 9bbe 7145 9c3e e4db a43e
000000b0: 5a16 bc3e e0b1 b93e 85a8 60be 3ddb 6cbe
000000c0: 2631 7bbd bc9e 0c3d de53 733e 75ee a3be
000000d0: 1360 b23e 0ee6 a4be 5c3f 9c3e 34d2 96be
000000e0: a5fd 8d3e a9e4 eebd a494 1ebe c558 323d
000000f0: 4091 59be d57c 6cbe d155 83be e5b1 663e
00000100: 968e ae3e 7814 1a3d 8dd8 c93e 667e 8bbe
00000110: 655d 903c 0c38 333e ae91 3b3e 3e5e 823d
00000120: dea2 943e 6b80 313e 193c dd3d b9fb 7b3d
00000130: 7fb0 8fbc c827 5fbe 1569 85be 4b9a 5bbe
00000140: e4a8 1b3d bd42 8a3e 1ed1 c83e c793 8e3e
00000150: 98db 463e 7e76 be3e 3d7f 52be ba3b 98be
00000160: 951a 773e 2264 d4bc 492c 3cbe d44b d43e
00000170: a974 0c3e 3220 3cbe 3f26 5abe 9bff f6bd
00000180: a1aa c23e 4a39 a2bd ba61 08bd 0468 67be
00000190: 449b 64be d734 ab3e d4a8 933e ee79 c23e
000001a0: a907 8dbe 1ab6 943e 5316 c93e 844a 3c3e
000001b0: f704 df3e e4f9 7a3e ce7f 7cbe 0645 eebd
000001c0: c627 00be cac2 ed3e c087 29be 7536 75be
000001d0: de32 3fbe d68c 5cbe 5703 493d 0d31 99be
000001e0: f661 a1be 96c3 a3be a9c5 82be 55aa ed3e
000001f0: ac26 8b3a f4d8 6cbe 4d36 f5bd 35ed 68be
-0.26982147 0.25402203 -0.19626258 -0.16885315 0.3170006 0.14469612 0.019130591 0.31950223
0.50102806 -0.31575823 -0.22869216 -0.1952744 0.28352168 0.14741102 -0.19697605 0.12721981
-0.23574397 -0.2530174 0.24329504 -0.2206712 0.3752788 0.15178928 -0.11317579 -0.1265842
0.24536592 0.33153886 0.0042296643 0.44743642 0.1255597 -0.00054521137 0.0020288422 -0.0055007897
0.35449418 -0.36915913 -0.21620208 0.306635 -0.14177236 0.0034189096 0.26006734 -0.29006952
0.17509839 -0.30404598 0.3052173 0.32199013 0.36735803 0.3626852 -0.21939285 -0.23130508
-0.06132617 0.03433107 0.23762462 -0.32017866 0.34838924 -0.32206768 0.3051709 -0.29457247
0.27732578 -0.11664707 -0.1548639 0.04354169 -0.21246815 -0.23094495 -0.2565141 0.22528799
0.3409316 0.037617177 0.39423028 -0.27244872 0.017622659 0.17501849 0.18317291 0.063656315
0.29030508 0.17334144 0.10802478 0.06151936 -0.017540215 -0.21792519 -0.26056734 -0.21445577
0.038002864 0.27004042 0.39222044 0.2784712 0.19419706 0.37199777 -0.2055635 -0.29733068
0.24131234 -0.025926653 -0.18376268 0.41464102 0.13716377 -0.18371657 -0.21303652 -0.120604716
0.38020805 -0.07921083 -0.033296324 -0.22598273 -0.22324854 0.3343875 0.28839743 0.3798365
-0.27544907 0.29045182 0.39274845 0.183878 0.43558475 0.24509388 -0.24658129 -0.11634259
-0.12515172 0.46437675 -0.16555691 -0.23946555 -0.18671748 -0.215381 0.04907545 -0.29920235
-0.3152005 -0.31985158 -0.25541428 0.46419016 0.0010616384 -0.23129636 -0.11973248 -0.22746737

layers.2.weight f4 [64, 128]
00000000: 461d 66be c442 0a3d 36db 5dbf ae12 da3c
00000010: 6101 ff3c f757 313e 6462 2e3e fb1f d73d
00000020: 3f50 c93d 001b 87bf d885 96be 5d17 e9bc
00000030: ff47 f13a 91de 793b f32a 07bd 118a 953e
00000040: b2cd 1cbe aaae 03bd a255 c2bd 00fe 07be
00000050: 8039 b13c db84 b6bd 5a01 d2bd d7d6 49be
00000060: 2baf 45be a0fb e8bc 2f62 9ebe 7ee0 ed3e
00000070: 7bf7 763d 104a a8be 2a73 bebd 5901 653d
00000080: c2ac b53d eda8 d63a 3325 023d c30b 0b3e
00000090: 6b0c 09be f178 9b3e 739a dd3d 2e6f 1cbf
000000a0: 689a f23d 46d2 dcbe bf3e 99bd 15ce 3d3e
000000b0: 05d5 8e3d e2d5 3d3d 7f4b 68bd 9f55 d63d
000000c0: 0ee5 dbbc e783 ce3a 7812 833e ebb2 40bc
000000d0: a9bc 3c3d 6e7f a9be 182e 7f3d 02c2 b0bd
000000e0: 3923 c8bc f8d6 e53d f95d 94bd 7ed6 9bbd
000000f0: c826 5dbd ad16 6abd 7525 90bd 4bc7 673e
00000100: ae0d ed3c dc6d 2d3e a0e3 853d 64a9 80bf
00000110: 4310 e03d 70ab 6bbd 6e5d 153e 5554 c5be
00000120: 2d61 fa3d 2c90 94bd e4c9 293e a6c7 893d
00000130: e209 7d3d bca8 01bf 281d b2bd 3e00 88ba
00000140: e76e f33d 973c b43d fa3a 083e 517c 91bd
00000150: f023 b83e c6e1 e73d 6d71 5d3e dd7a 6dbd
00000160: 8bf7 753d c098 39be d9b4 e4bd e93e bf3d
00000170: 0754 dabd 226f a3bd 02ef 8c3d 8a49 783c
00000180: 396b b63a 0db2 b9bd fda9 c83c aa0c d1bc
00000190: 6d36 0ebe 22ed be3c dcc2 463c 8410 5f3d
000001a0: 4adb 60bc cf49 15bc 1761 9ebd ad09 d63d
000001b0: 6088 09bd 71d7 3d3d 444c adbd be46 043e
000001c0: fda1 5f3c 2a98 e43c 2776 96bd 4112 a8bc
000001d0: f2eb 023d 9010 c83d 204d 583e ab87 e2bd
000001e0: e73e 7d3d b8b9 6ebf 4948 d3bd e6ae 993c
000001f0: 4f0e 8d3b 0d84 5f3c 401c 98bc 7a8a c23d
00000200: ca7d 08bd 8a7f 953d f809 94be f01d d6bc
00000210: 7c92 f33d afa4 2a3d 1988 f03c a332 0c3e
00000220: 29c3 e23d cc95 43be 568c bfbc 3819 d03b
00000230: c755 4f3c f0a6 ef3d ba6e 13bd 728b 8b3e
00000240: c2a3 54bc b930 e9bc b150 d63c b3b5 e1bc
00000250: e0a0 573d ae63 083e 15db 79bd 906c 0abe
00000260: c8d4 483d 03b7 b4bc 81de 4dbe 74ba b33e
00000270: 085f 253e 46e7 75be f892 443c 77cf a93d
00000280: 9184 823c 151c 06be 4345 97bd ae5d bebb
00000290: adc9 84be c938 3d3e 73a4 f13d 5de9 31be
000002a0: 2fc7 8b3d f33c d0be 2f3f 19bd 72d9 533e
000002b0: f2aa 953d cc21 ea3d f06c a33c 6c20 8abd
000002c0: a8fb b2bd 7943 9bbd 295b e53d 28b2 3bbc
000002d0: 6d36 f33d e7fc 6abd 402a 9c3c 0489 f5bc
000002e0: e361 b93d ca56 f4bd 73b8 58be cd7c 4fbe
000002f0: 3119 0abd 344e 4bbd 99e1 31bd 7624 883e
00000300: a4bd df3b 50e8 953d 5dd5 103d 2fc6 01be
00000310: 99c1 1bbd 47d8 453d 5caa ab3d d8d3 aabe
00000320: 2b38 433e af7b 803d 0e04 c53b b02b 55bc
00000330: 224f 9cbc c458 bdbc 6763 09bf 1350 02be
00000340: 1b82 a33d 8c34 da3d b48e d93d 54c3 3bbc
00000350: 10c8 863e 14f8 2b3e 0bf8 fabd 80ae 6fbc
00000360: efbf 963d 5b78 6ebe 4139 91bb a401 2abd
00000370: 3b43 d93d fc8a 45bc 1f7c 5fbe d688 efbd
00000380: a771 b63d b053 d0bd 5381 40bd 4f01 04be
00000390: 7ce7 27bc 7d85 753d 144d 0e3e 5277 7d3d
000003a0: 99cc b7be 1806 9d3c d05c 8abc d8c2 083d
000003b0: 2dc7 93bc 5308 043e f209 e5bd 8193 52bd
000003c0: 1b65 1bbd 254c 823d f1c5 4ebe 3d4a e4bd
000003d0: e61f 82bc cea4 243b 58c6 443e 420f c43d
000003e0: 251d 00bd c21b 9dbe 43de d13d 1022 d53d
000003f0: af7b 4dbe 74ca 153d b059 80bc 4b24 ebbd
-0.22472104 0.03375508 -0.86662614 0.026620235 0.031128587 0.17318712 0.1702972 0.10504147
0.09829759 -1.0555115 -0.2939899 -0.028453523 0.0018408297 0.0038127045 -0.032999944 0.292069
-0.15312842 -0.032148995 -0.094889894 -0.13280487 0.021633863 -0.08912059 -0.10254164 -0.19710861
-0.19305103 -0.028440297 -0.30934283 0.46460336 0.06029461 -0.32869005 -0.092993096 0.05590949
0.088708416 0.0016377248 0.031773757 0.13578705 -0.13383643 0.30365708 0.108204745 -0.61107147
0.11845857 -0.43129176 -0.07482671 0.18535645 0.06974224 0.046346553 -0.056712624 0.1046555
-0.02684262 0.0015755863 0.25600028 -0.011761407 0.046078358 -0.33105034 0.062299818 -0.08630754
-0.024430858 0.11222643 -0.07244486 -0.076092705 -0.053992063 -0.05715053 -0.07038394 0.22634618
0.028937187 0.1693644 0.06537557 -1.0051694 0.10940602 -0.057536542 0.14586422 -0.38540903
0.12225566 -0.07254061 0.16580921 0.06727533 0.061777003 -0.50648093 -0.08696967 -0.0010376049
0.11886387 0.08800619 0.13303748 -0.071037896 0.35964918 0.1132236 0.216253 -0.0579785
0.06005053 -0.18124676 -0.111673065 0.09338171 -0.10660558 -0.07980181 0.068815246 0.015154252
0.0013917453 -0.090671636 0.02449512 -0.025518734 -0.1388795 0.023306433 0.012131419 0.05445911
-0.013724158 -0.009111836 -0.07733362 0.10451064 -0.033577323 0.04634804 -0.08461812 0.12917611
0.013649461 0.027904589 -0.073467545 -0.020516517 0.031963296 0.09768784 0.21123171 -0.11061033
0.061827566 -0.93252134 -0.10316522 0.018760156 0.0043046842 0.013642323 -0.018568158 0.094990686
-0.033323087 0.07299717 -0.28913856 -0.026137322 0.11893174 0.04166096 0.029361771 0.13691191
0.1107238 -0.19100112 -0.023382347 0.0063506626 0.012654728 0.11701763 -0.03599427 0.27254826
-0.012978496 -0.028465616 0.026161524 -0.027552461 0.052643657 0.13319275 -0.06099995 -0.13517976
0.04903105 -0.022059923 -0.2010441 0.3510319 0.16149533 -0.24014005 0.011997931 0.08291524
0.015932353 -0.1309665 -0.073862575 -0.0058095073 -0.25935116 0.18478693 0.11798944 -0.17374177
0.06825101 -0.406715 -0.037413772 0.20688418 0.07307996 0.114322275 0.019949406 -0.06744465
-0.08739406 -0.07581229 0.11199028 -0.01145605 0.11875615 -0.057370093 0.019063115 -0.02997256
0.090518735 -0.11930616 -0.21164112 -0.20262451 -0.03371543 -0.049635127 -0.043428037 0.26590317
0.006828027 0.07319701 0.03535973 -0.12673257 -0.038026426 0.04830196 0.08382103 -0.3336475
0.19064395 0.06273591 0.0060124462 -0.013010904 -0.019080702 -0.023113616 -0.536673 -0.12725858
0.079838 0.10654554 0.106229216 -0.011460144 0.2632451 0.16793853 -0.12254342 -0.014629006
0.07360827 -0.232881 -0.004431874 -0.04150547 0.10608526 -0.012057062 -0.21824692 -0.11696021
0.08908396 -0.10172212 -0.046998333 -0.12891124 -0.010248061 0.059941757 0.1389659 0.06188137
-0.35898283 0.019167945 -0.01688996 0.033388942 -0.01803931 0.128938 -0.111835375 -0.051410202
-0.03793822 0.0636218 -0.20192696 -0.11146972 -0.015884351 0.0025122645 0.19216287 0.09573223
-0.031277794 -0.3068524 0.10247471 0.104068875 -0.20066713 0.036570027 -0.015667766 -0.11481532

layers.2.bias f4 [64]
00000000: 1fd6 ed3d 771d 933e f4ff 703e 7019 3bbe
00000010: f353 6dbe 6d12 85be a2b2 73be 12e5 ba3e
00000020: 7689 59be af1d a73e 70b7 20be 5cf4 50be
00000030: c851 98be 7e4a e13d 4d63 69be ee04 4d3e
00000040: 0345 dabd dabc a93e a0a5 c23e 2786 d13e
00000050: 733c 1abe fbb3 923e d361 3ebe 20c4 273c
00000060: 3131 3cbe 9bbc 823e 7097 1abe f8ce 44be
00000070: ca5a a33e 5123 75be 2519 44be fa35 29be
00000080: 5d75 ed3e 2753 663e 5ccf ce3e 8c69 80be
00000090: a662 21be 20ae 30be cd76 703e d936 ce3e
000000a0: 8e18 b13e 1f4f ca3e a46e f93c db74 84be
000000b0: 1839 39be 321b 9dbc 8359 95bd ba86 983e
000000c0: 9e47 37be 2b54 c83e 70c5 4dbe f2f0 44bc
000000d0: 2b5b 78be 91a3 9fbd 1a2e 89be 8ac6 83be
000000e0: a38d c13e bf5c 96be c7e8 1bbe a879 96be
000000f0: 3c48 ca3e 619f cfbd 5618 50be c26d 50be
0.11613106 0.28733417 0.23535138 -0.18271422 -0.23176555 -0.2599062 -0.23798612 0.36502892
-0.21243843 0.32639834 -0.15694976 -0.20405716 -0.29749894 0.110005364 -0.22791786 0.20021412
-0.10657694 0.33151895 0.38016987 0.40922663 -0.15062122 0.2865294 -0.18592004 0.010239631
-0.1837814 0.2553452 -0.15096831 -0.19219577 0.31905204 -0.23939253 -0.19150217 -0.16524497
0.46378604 0.22492658 0.40392578 -0.25080526 -0.15760288 -0.17253923 0.23482819 0.4027622
0.34589046 0.3951349 0.030448265 -0.25870404 -0.18088186 -0.019178007 -0.07292464 0.29790288
-0.17898414 0.39126715 -0.20094848 -0.012020336 -0.24253528 -0.0779487 -0.26792985 -0.2573741
0.37803373 -0.29367635 -0.15225516 -0.2938969 0.39508235 -0.10137821 -0.20321783 -0.2035437

readout.weight f4 [1, 64]
00000000: 0b86 223f 8dbd 863e 4704 9b3e fe0d b1be
00000010: 4462 6ebe f510 b9be e8ba 24be 06f9 713e
00000020: 57c1 b4be d9e6 893e deb4 7ebe f675 8cbe
00000030: 8b18 b8be f02e cd3e a478 99be 0ff6 4b3e
00000040: 9a46 0abf a253 a33e 5fa1 903e 9d3d 833e
00000050: 0bc8 61be 8fce 4f3e c698 57be 5809 b73e
00000060: c02e 19be 0faa c93e 48cd 71be a0d5 5ebe
00000070: bda3 cb3e 096d 24be d26d 31be cef6 7bbe
00000080: 5a89 093f d40d 4b3e 56b4 743e 78ff 07bf
00000090: c45b 7dbe 79c5 2cbe 6ab0 303e bee7 b23e
000000a0: bfac 923e 8450 a03e fdf4 3a3f e1d2 bdbe
000000b0: e034 3fbe d0b9 7c3d ac83 023d 3653 4f3e
000000c0: 0a52 6bbe 20f1 6f3e 65f9 21be 397c 9d3e
000000d0: 225f 98be d8db ce3d b8ab 60be 88db 95be
000000e0: 074f b53e ab13 7ebe a004 4ebe c674 63be
000000f0: 5f8f a23e 41e1 55be 63be 86be d31d 5ebe
0.63485783 0.2631649 0.302767 -0.34580988 -0.23279673 -0.3614575 -0.16086924 0.23630151
-0.35303757 0.26933935 -0.24873683 -0.27433747 -0.35956225 0.40074873 -0.29974854 0.19918083
-0.5401398 0.31899744 0.28248116 0.25632945 -0.22048967 0.2029364 -0.21054372 0.35749316
-0.1495924 0.39387557 -0.23613465 -0.21761179 0.3977336 -0.16057219 -0.1732705 -0.24605867
0.53725207 0.19829494 0.23896918 -0.5312419 -0.24742037 -0.16872205 0.17254797 0.3494243
0.2864742 0.3131143 0.7303007 -0.3707495 -0.18672514 0.061700642 0.031863853 0.20246586
-0.22980514 0.23431826 -0.15817793 0.30758837 -0.2976008 0.101005256 -0.21940506 -0.29269052
0.35411856 -0.2481219 -0.20118952 -0.22212514 0.31750008 -0.20886709 -0.2631713 -0.21691065

layers.0.weight f4 [128, 17]
00000000: 5da3 9b3f 3936 4dbf a0ca acbd 82ca e83e
00000010: 8ca5 0c3e 8b77 16bc e119 2abe 2067 73bd
00000020: 66e1 743d a6b4 333d d215 853e fe0b 1f3e
00000030: 869a 3abe 1f32 9b3c 5394 b53e 0fe2 49be
00000040: 449b 0e3e d59a cc3e 3abc 333f d6cf 903e
00000050: ea51 89be ca17 6f3e a60f 6ebe 66a0 65b8
00000060: 326f 1bbe 8909 43bf 2159 d43b ebe2 df3e
00000070: 9567 90be 565e d93d ba4e b1bc 74c1 373d
00000080: 23fd 95bc c2d7 adbd d49a 2bbf dee4 eabe
00000090: 8ad1 cfbe 9089 6e3d 08c2 17bd 1085 a33e
000000a0: 3c81 a43e 545e 86bd a74d c73e 74ea dc3e
000000b0: 6d97 4abe aa69 8bbe 2b79 a6bd 842a cd3d
000000c0: 7e4b 3a3e a803 f3bd b312 94be 3c88 0d3f
000000d0: 5ccc f3be 6c9f 0c3f c7a2 19be 27f3 89bd
000000e0: c579 b3bd ea9b d1be 5125 66be 0385 85be
000000f0: 6b98 083e f4ca 533e 4778 98be f66a 9dbe
00000100: 5f37 f8bd 3258 d63d 8c34 ff3b 12be 21be
00000110: b9a1 52be c06c 893f ee94 913e c403 03be
00000120: 1511 cf3d 04d1 08bf 6dfa 06be 647a d1bd
00000130: b28f c43e 3b0c aebe f7fd fbbc 4267 a4be
00000140: c0dd 5e3e 7425 12be 345c 9dbe 1f2e 0abe
00000150: 58c8 873d 4913 82ba 0a59 313d e961 0fbe
00000160: 849e 8c3e 90fc 16be ffb5 93bd 221a efbe
00000170: 252c 21be bcce fd3d ddd8 c1bd 86e6 153e
00000180: 977a d03d 8a60 fc38 820e 0d3d 4a1e c03e
00000190: 5521 333e 859d 64be 37df aa3f 17a8 6fbf
000001a0: 5861 6d3d 1846 483e e08c 663c 701d a7bc
000001b0: 2ec4 82be 7306 0dbf 3cc2 fcbc 5999 35be
000001c0: 85de 1f3e e750 b1bc 98eb 36be ddca 963d
000001d0: a48e 423e 6766 6dba 8d1b 6f3d 89f2 863d
000001e0: fd39 7bbe 1de0 093f 871d fc3d 3b8c 913e
000001f0: 4cf6 0f3f 90b7 c8bc 1ea2 993e 5a1f 5fbe
00000200: c1f1 2c3f 244e 0ebe 34c0 143e ac03 5c3c
00000210: c144 b53d a83e cc3e 25d2 b7be 564f 423e
00000220: ba38 103f 7e81 99bf 84cb 06bd 85b4 663e
00000230: b21c 39be 9430 733e 460d 0c3b bd2d 343e
00000240: 9d26 803e 41fa 5d3e 52ec 0d3b a012 183d
00000250: 026d 41bd a6fc a3be e5a0 7c3e e867 443d
00000260: ed31 b1bd 6132 64bf d0a1 1b3f 396f a73e
00000270: 6126 c03c e419 8b3e b069 253f 9145 ee3e
00000280: c3a7 cc3e a518 67bd bbf8 e0be 82fd 97be
00000290: 01c7 4b3e 8ef5 943c e016 e03d f29f 9bbc
000002a0: 797a 20be ca61 3fbe 2de9 b03e 1de3 453f
000002b0: 5f6b 4d3e 8fef 173e 6137 93bd a30b d9be
000002c0: 733f e7bd f51d d4bd b8b0 603e 092f b83e
000002d0: 8b64 0b3d 14f1 a0be f5ac 8d3d 79fd d8bc
000002e0: 0f2b 9fbe 8b49 9dbb bddf 693e 3809 853d
000002f0: 28fc 70be 8da8 b23e 3b91 e0be feff 923e
00000300: a076 4d3e 6260 49be ba49 6e3e f782 76bd
00000310: dcb1 353e 3bd8 f9bd 0aae 08be 8428 9fbe
00000320: 72f8 c6bd 45cb 1cbc 1632 50be b3f5 1c3e
00000330: 7bec 0fbe 994d 973f ef86 1e3d 7302 46be
00000340: 0896 993e df77 5f3e cc88 a93c 13cf e3bd
00000350: fb93 89bc 930b 2fbc 8d9f 8c3e e734 05be
00000360: 2c28 3cbe 69b6 0e3e cf78 a3be fcce 9d3d
00000370: fe7b ecb8 587b 713f 8f73 86bf 5511 f63b
00000380: 3484 073e 98af ccbe 2cf0 493c 1ca1 b8be
00000390: 3ea8 58be d8e5 473d 4685 d53e 5cd0 dbbe
000003a0: 9de7 443e a20c 9d3e 4423 1f3d 086c 6d3d
000003b0: f131 9bbd f138 2e3e 8b2e 6abf 2c3c dbbd
000003c0: 979e 753e e68c c53e 56ba 393f 022e 443f
000003d0: 415d 303f 4702 973e b8b4 24bf 56cb 03be
000003e0: 3050 9c3e ee04 783d e441 083e f2d4 853c
000003f0: 5905 31be c974 91be 1e27 953d 1ab0 cb3e
1.215923 -0.8016086 -0.08437085 0.45467 0.13735026 -0.009183775 -0.16611435 -0.05942452
0.05978527 0.04387345 0.2599321 0.15531918 -0.18223009 0.018944798 0.35464725 -0.19715141
0.13926417 0.39961877 0.70209086 0.28283566 -0.26820308 0.23348919 -0.23248157 -5.4747237e-05
-0.15179136 -0.76186424 0.0064803516 0.43727812 -0.28204027 0.10613696 -0.021643985 0.044862226
-0.018309182 -0.08488418 -0.67033124 -0.45877737 -0.40589553 0.05823666 -0.037050277 0.31937456
0.32129848 -0.065609604 0.38926432 0.43147624 -0.19784327 -0.27229053 -0.0812858 0.10017875
0.1819286 -0.11865932 -0.28920516 0.55286 -0.4761685 0.5493076 -0.15003501 -0.06735831
-0.0876346 -0.40939265 -0.22475173 -0.26078042 0.13339393 0.20682889 -0.29779264 -0.30745667
-0.12119936 0.10466041 0.0077882465 -0.15795162 -0.20569505 1.0736313 0.28433937 -0.12794405
0.1011068 -0.5344393 -0.13181467 -0.10228422 0.3839088 -0.33993706 -0.030760748 -0.3211003
0.21764278 -0.142721 -0.30734408 -0.13494156 0.066300094 -0.000992396 0.043297805 -0.14002194
0.27464688 -0.14744782 -0.072124474 -0.46699625 -0.15739496 0.12392947 -0.094651915 0.14638719
0.10179632 0.00012034278 0.034437664 0.3752311 0.17493184 -0.22325714 1.334937 -0.9361586
0.057954162 0.19557989 0.014071673 -0.02039978 -0.25540298 -0.55087966 -0.030854337 -0.17734279
0.15612228 -0.021645023 -0.1786331 0.07362912 0.18999726 -0.00090560917 0.058375884 0.06589229
-0.2453384 0.53857595 0.123103194 0.284273 0.56235194 -0.024501592 0.30006498 -0.21789303
0.6755639 -0.13896996 0.14526445 0.01342861 0.088510044 0.39891553 -0.35902515 0.18975577
0.5633656 -1.1992643 -0.03290893 0.225298 -0.18077353 0.23749 0.0021370216 0.17595573
0.2502946 0.21677496 0.002165575 0.037127137 -0.0472231 -0.32028693 0.24670751 0.047950655
-0.08652101 -0.8913937 0.6079378 0.32702044 0.0234558 0.2716819 0.6461439 0.4653745
0.39971742 -0.056419987 -0.43939766 -0.296856 0.19900133 0.018183496 0.10941863 -0.018997166
-0.1567172 -0.18689647 0.345529 0.7729967 0.2006049 0.14837478 -0.07188297 -0.4239169
-0.11291399 -0.10357276 0.21942413 0.35973385 0.034031432 -0.31433928 0.069177546 -0.026488053
-0.3108754 -0.004800027 0.22839256 0.06495899 -0.2353369 0.3489422 -0.43860802 0.28710932
0.20064783 -0.19665673 0.23270312 -0.06018349 0.17743629 -0.12199446 -0.1334764 -0.31085598
-0.09715356 -0.009569948 -0.20331606 0.15328102 -0.14055054 1.1820556 0.0387029 -0.19336872
0.29997277 0.21823071 0.020695113 -0.11123481 -0.016794195 -0.010683912 0.27465478 -0.13008462
-0.183747 0.13936771 -0.31928107 0.07705495 -0.00011276452 0.9432883 -1.0504016 0.0075093904
0.13234025 -0.39977717 0.012325328 -0.36060417 -0.2115793 0.04880318 0.41703242 -0.42932403
0.19228978 0.306737 0.03885199 0.057964355 -0.07577885 0.17013909 -0.9147727 -0.10704836
0.23986278 0.3858406 0.7254995 0.766327 0.68892294 0.29493925 -0.64338255 -0.12870535
0.30529928 0.060551576 0.13306385 0.016336892 -0.17287196 -0.28409413 0.07282852 0.39782792

layers.0.bias f4 [128]
00000000: 9360 203e d895 b83e c8f5 8dbc c2c6 49bd
00000010: 5d70 c1bd 85c6 3cbe 1b6b 9c3d f6e4 603e
00000020: 61d9 c7bc 8eee 813e 283f fbbd e01a cc3e
00000030: b4e0 813e d415 febd 4ba2 d13e c283 ae3e
00000040: cba8 2e3e 64b4 c5bd 4713 c73e e793 c73d
00000050: 26cd f2bc 7206 a5be 07c2 3abe 3773 203e
00000060: ee01 8fbd 5946 4d3e 3a39 e33d e5ca c03d
00000070: c331 803e 1f29 053f ab27 3abe 1622 9f3e
00000080: 4b18 ceb8 2402 dd3e 86d0 513b ed70 45be
00000090: 064c 673e 50c6 e53d 626b de3e 6d60 acbc
000000a0: 68f8 eb3c 999d 6c3c db39 1dbe e467 aa3d
000000b0: b18b c73e a492 3dbe dca1 eb3e f8f0 803e
000000c0: 4966 1e3e 94c9 7abe d81c 06bd 3ce4 e3bd
000000d0: 3ab4 98bd 5563 f63d 0fe4 fe3e e754 8ebe
000000e0: b32f 203f 672f 7ebd 4f0d 92bb 8eaa 46bd
000000f0: 0e2b ad3e 267a 02be a70a 0b3f 1e97 d93e
00000100: c918 2fbe f370 02bd 29ce f1bd aafe 97be
00000110: 3967 393c 2868 d2bd f0d2 83bb c179 d83e
00000120: d958 313b e2e6 a03e acba 853e 3120 683c
00000130: 619b 053f aa47 203d bbc4 523e 9444 463c
00000140: 0786 963e 135d de3d 4942 a5bb 8e5f bcbe
00000150: d7de fdbd 5dad f4be 51ad 5e3e c30a 9d3e
00000160: 61fc c5bd 66ca dd3e 77d1 163f 3325 83be
00000170: 1304 0d3f 4a49 2d3f 1ffb 0a3e 26d1 babe
00000180: d449 503e c1d8 0a3d 6026 c03e 6621 403f
00000190: 66d3 fbbb 73a5 40be 16eb 303f f0cd 8dbc
000001a0: 3d63 e8bd 79a1 a9be 3360 b6bd b60a fc3d
000001b0: 7c10 ea3d 0590 4b3e 507a 9e3e 7a79 bcbd
000001c0: fbf2 443e fd09 9e3d 1b6e 4b3e 858c 573e
000001d0: 296a 0cbe 7f74 f0bd 8959 c9bd ec90 aebe
000001e0: 3060 9cbd dac5 a2be 349e 283f 506a 0cbe
000001f0: f3ae f9bd 3292 5a3e 1131 e43e 2ae1 af3e
0.1566184 0.36051822 -0.017329112 -0.049261816 -0.0944526 -0.18435104 0.07637616 0.21962342
-0.024395647 0.25377315 -0.122679055 0.39864254 0.25366747 -0.12406507 0.40944132 0.34084898
0.17056577 -0.096535474 0.38881895 0.09745007 -0.029638838 -0.3223148 -0.18238078 0.15668951
-0.0698279 0.20046367 0.110948995 0.09413699 0.25037965 0.5201587 -0.18179195 0.31080693
-9.8273704e-05 0.43165696 0.0032015159 -0.19281359 0.22587594 0.11219466 0.43441302 -0.021042073
0.028804973 0.014441871 -0.15354101 0.08320597 0.38973764 -0.1851297 0.46021926 0.25183845
0.15468706 -0.24490958 -0.03274235 -0.111275166 -0.074562505 0.12030665 0.4978337 -0.2779915
0.62572783 -0.062056925 -0.004457153 -0.048502497 0.3382191 -0.12741908 0.5431313 0.42498106
-0.17099299 -0.031845998 -0.118069 -0.2968648 0.011316114 -0.102737725 -0.0040229484 0.4228039
0.0027061014 0.3142615 0.26118982 0.014167831 0.52190214 0.039130844 0.20582859 0.012101311
0.2939913 0.10857596 -0.005043302 -0.36791652 -0.12396019 -0.47788516 0.21745802 0.30672273
-0.09667278 0.4331848 0.5891337 -0.25614318 0.5508434 0.67689955 0.13572358 -0.36487693
0.20340663 0.03389812 0.37529278 0.7505096 -0.0076851128 -0.18813114 0.6910871 -0.017310113
-0.11347053 -0.33131006 -0.08905067 0.123067304 0.114289254 0.19879158 0.30952692 -0.09202857
0.19233315 0.07716749 0.1986622 0.21049698 -0.13712372 -0.1174097 -0.098315306 -0.34094942
-0.07635534 -0.31791574 0.658664 -0.1371243 -0.12191572 0.21344832 0.44568685 0.34351474

layers.1.weight f4 [128, 128]
00000000: 63fc 9f3d 00e7 34be c2fd 243d e8a2 0e3e
00000010: cb3e 6dbd b7bb bbbd 0c9c 393e c4a7 1ebd
00000020: ddc2 273d b0ae e5bc f797 c4bd 60ad 5abc
00000030: bda5 05be cb51 033e c85e 2a3d 29d8 dc3c
00000040: 5e78 c6bd d8ab 1abd 3bb4 f0bc 0009 ee3d
00000050: 659f ac3d 9b5a 2ebe 953b 3ebd ffc9 5c3c
00000060: 4a35 ab3d cbd4 26be 101f 433d 07a6 03be
00000070: 358c 593d 35bf c2bc 2005 2ebe 8ac5 c23d
00000080: 0500 d4bd 4458 a03d 68fd d3bc 7f73 a43c
00000090: 5a3a f23d e760 9d3d d0ee 2ebd d477 74bd
000000a0: 61e1 f8bd d57d 5d3e a5f8 41be 7361 233d
000000b0: e6d3 133e 27ca 6f3d f0e9 ef3d 5c3c bbbd
000000c0: 51eb 893c 65f4 8f3c 6f89 4ebc df37 16bd
000000d0: 870c 89bd d8c7 8b3d b48d b83d ee7a 28bd
000000e0: 618b 823e fe30 d33d 42ba f63d 6694 003e
000000f0: ea83 833b 7ff3 ebbd 2169 0f3e c31e e53b
00000100: 4caf 7abd f02b 19bf 6965 e73c 10ec cbbe
00000110: bc11 593d 78ff c8bd a655 843c f3af b23d
00000120: 643a be3c acd7 383e bee9 b3bc 0274 c1bd
00000130: 4dc7 b2bc 37ca dcbd 43d7 54bd 30c5 793d
00000140: ad6d 273d f226 4bbc 86a1 6ebd 477a 26be
00000150: d681 1a3e 88a5 e13d 7dfa 913d 6d0b a43d
00000160: 3721 9dbc 6d25 4abc b48f 023e 419d 8d3d
00000170: bb2c 443e 862b 9c3d 1557 6dbd 2659 8fbd
00000180: f339 8d3d baba 283d ced9 a53d b50b 773e
00000190: cd86 f73d b13b 6a3d 10ca 1c3e d83d acbb
000001a0: 3571 843d 6933 3a3c d750 0cbc 66e2 293d
000001b0: caca b93d 4c79 a63d 5a1f c93b 199a 9e3d
000001c0: 937b a8bc 6532 87bc 2019 e13d c737 0fbe
000001d0: 6fdc 05be 7193 eabd bf7a 81bd 7537 1ebe
000001e0: d8e9 f3bd c408 1abe 5dca 2a3e 650d e0bd
000001f0: 6efa 11bd 53a6 7f3d 9ea1 4f3e 58fe af3d
00000200: cf4f bbbd 2e16 10be 8ea8 363e 4b64 a33d
00000210: b4b1 f6bd d445 d4bc e6d0 013e d850 90bd
00000220: 1794 543b bebd 2dbd 0544 72be 3b82 86bd
00000230: a227 b0bb e932 89bd 0cf7 603e fe8b d7bd
00000240: 6ad6 afbc b14a b23d 8c6c cfbd a0d6 8ebd
00000250: e8d7 a3bd d16e da3e c3a2 4cbd 5d77 e23d
00000260: b6a3 e9bd 7840 9abd 9ae7 873d 9fa8 f83c
00000270: 406f 87bc 8e97 c5bd f5e9 163d e198 60be
00000280: a94c 82be 9d13 46be a851 d6bd a522 babc
00000290: 0605 ffbd b626 0cbd 5ebd 213e 03f7 c3bd
000002a0: 8072 a5bd ef55 e53c f97b 0b3d 71f8 80bb
000002b0: c0e1 88bc 01f6 01be 2d8d e3be 6944 9fbc
000002c0: 3d0a 173d 3c40 8e3d 4ecc 56bd 8f91 c63b
000002d0: 790e 5b3c d1fd 0bbd 7efd 51be 4e5a 95bb
000002e0: 8767 743e dfaa 00be 28b5 84be 3bcf c33b
000002f0: e029 0fbb 663d 9abd 1b9d e4be eaa8 e9bd
00000300: cc97 a03e 5a42 1e3e 25cb bc3d 2f05 0b3e
00000310: 4169 993d 1429 a5bd fb2e 893d e529 50be
00000320: d2cf 6eba 2c3b c03d 3efb 4f3e 32d1 843d
00000330: 5412 cebc 6041 6cbd 1f82 9dbd f196 a1bb
00000340: 984c 02bf b5dd 1a3b 3681 abbd 6635 5a3d
00000350: 309c 93be 03d9 9dbe 3297 ecbd a6ef 07bc
00000360: 49da bbbc cd05 72bc 8305 80bc baf2 103e
00000370: 1da2 0bbe 03e6 3ebe 7238 963e a45f 23bc
00000380: c2aa a23b 0dd2 e5bc dd3c 0ebd fd7a 8f3d
00000390: 7486 d0bd 01cf a7bc f685 903c 8131 7f3d
000003a0: ebba 09be de6a afbc 633f 5abd 374c eb3d
000003b0: 7718 0a3d ce41 e4bd 60aa 4a3e 8db6 4aba
000003c0: f703 1b3d 47a1 183c edaa b13d 81c0 febc
000003d0: c209 3c3e 33cf 22bd 1151 143d b4ce df3d
000003e0: 6042 823e b881 233d aba3 6dbc a931 a43d
000003f0: bcf2 d03d 7cbe d2bd ebcf 473e 584c 563c
0.07811811 -0.17666245 0.040281065 0.13929331 -0.057921212 -0.09166663 0.18125933 -0.038734213
0.04095732 -0.028037399 -0.095992975 -0.013347 -0.13051505 0.1282417 0.041594297 0.026958542
-0.09690927 -0.03776154 -0.029382816 0.1162281 0.084288396 -0.1702675 -0.04644354 0.013475894
0.083597735 -0.16292112 0.047637045 -0.12856303 0.053112227 -0.023772815 -0.16994143 0.09510334
-0.10351566 0.07829335 -0.02587767 0.020074604 0.11827536 0.07684498 -0.042708218 -0.05968459
-0.121523626 0.21630032 -0.18942507 0.039887857 0.14436302 0.058542397 0.11714542 -0.09142372
0.01683584 0.017572591 -0.012606009 -0.036674377 -0.066918425 0.068252265 0.09011403 -0.04113286
0.25496963 0.10312079 0.120472446 0.1255661 0.004013528 -0.115210526 0.14004947 0.0069921925
-0.061202332 -0.5983267 0.028246598 -0.3982854 0.05299543 -0.09814352 0.016154122 0.08724966
0.023221202 0.18051022 -0.021962043 -0.09445955 -0.02182355 -0.10780757 -0.051963102 0.06097907
0.04087608 -0.012399422 -0.05825951 -0.16257583 0.15088591 0.11017901 0.07127855 0.08009992
-0.019180877 -0.012338025 0.12750131 0.069147594 0.19157688 0.07625489 -0.057944376 -0.069994256
0.068958186 0.0411937 0.080981836 0.2412556 0.12086258 0.057185832 0.15311456 -0.005256396
0.06466905 0.011364796 -0.008564196 0.041475676 0.09071882 0.08128604 0.0061377706 0.077442355
-0.020566737 -0.016503522 0.1099112 -0.13986121 -0.1307237 -0.114539035 -0.0632224 -0.15450843
-0.119098365 -0.15042406 0.16678758 -0.10940055 -0.03563922 0.06241448 0.20276496 0.08593434
-0.09146082 -0.14070961 0.17837736 0.07978114 -0.12045613 -0.025912203 0.12677345 -0.0704667
0.0032436901 -0.04241728 -0.2365876 -0.06567808 -0.0053758183 -0.066991635 0.21969241 -0.10524748
-0.021464545 0.087056525 -0.101281255 -0.0697453 -0.08000165 0.4266267 -0.04995991 0.11057923
-0.114081785 -0.07531828 0.06635971 0.030353842 -0.01653254 -0.096480474 0.036844213 -0.21933319
-0.25449112 -0.1934342 -0.104647934 -0.022721598 -0.1245213 -0.034216605 0.15794894 -0.09568598
-0.0807848 0.027995078 0.034053776 -0.0039358665 -0.016709208 -0.126915 -0.44443646 -0.0194418
0.036875 0.069458455 -0.052440934 0.0060598324 0.01337015 -0.034177605 -0.20506856 -0.0045578843
0.23867618 -0.12565182 -0.2591946 0.0059756315 -0.0021845028 -0.07531242 -0.44651112 -0.11409171
0.31365812 0.15454999 0.09218434 0.13576196 0.07490779 -0.08064476 0.06698414 -0.20328481
-0.0009109947 0.09386286 0.20310685 0.06485213 -0.025155224 -0.057679534 -0.07690834 -0.0049313237
-0.5089812 0.0023630683 -0.083742544 0.05327358 -0.288301 -0.3082963 -0.11552276 -0.008296883
-0.022931235 -0.014771891 -0.015627628 0.14155093 -0.1363606 -0.1864243 0.2933994 -0.009971533
0.0049642036 -0.028054262 -0.034726012 0.0700588 -0.10181895 -0.02048445 0.017642003 0.06230307
-0.1345021 -0.021413263 -0.053283107 0.11489146 0.033714738 -0.11145364 0.19791555 -0.00077328907
0.037845578 0.009315795 0.0867518 -0.031097652 0.18363097 -0.03974838 0.036210123 0.10928097
0.25441265 0.03991863 -0.0145043535 0.080172844 0.10202548 -0.10290238 0.19512908 0.013079725

layers.1.bias f4 [128]
00000000: e65a b63e 4456 b0bc d6c7 733e 4ad8 98be
00000010: 0299 983c 0c6b 2fbe 76fe 0ebe 617a 9c3e
00000020: 6d8b 443e a947 0abc 6b81 3fbe 0c15 853d
00000030: 8519 233d 610a 243e 8faf aabd 510c 10be
00000040: 8ffc ad3c e06b 7d3d 7f64 333d 275c 663e
00000050: 50fb 313e 28d3 ea3b f5b5 103c f706 a93d
00000060: fb24 f43d 5be5 1b3d 49de 973b 95c0 d33d
00000070: ba2e 3a3d 5c8c ca3d 4d33 103e b997 bd3d
00000080: ea3b d03c 8537 213e a882 573d 5f7d f5bd
00000090: e3fd b7bd 9a26 5c3e 4a5a 0e3e fa7d d0bd
000000a0: 10b9 0dbe df5e c4bc 10b3 4a3c 3415 0e3e
000000b0: 93f4 f23d d9e4 063e 1860 473e a373 34bd
000000c0: 0d27 823c fbca 223e df64 f23b f5fa 4abe
000000d0: df56 143e 01af 9cbe 4d75 873c 39c5 a43c
000000e0: 82ce 39be 975e 163e 65ce 443e 0da2 5f3d
000000f0: b666 11be 8afa 423d 9095 0fbd ebc8 c93d
00000100: b855 70be ebdc c83d a0aa dc3d c355 5fbd
00000110: 1a97 3dbe e0ee 293d 3c70 183e 5c68 20be
00000120: 2e01 56be cdea 7f3e 80f7 d83d 266c cbbd
00000130: c522 7fbd 37e6 7c3e 911b 18bd 28b3 513e
00000140: 3f1f dc3d 09d6 dfbd 822d 933d fb10 61be
00000150: e33b e33d 2488 5e3e f6b6 9a3d 1c09 febc
00000160: b8a8 103d c789 6b3e d074 04bd d6fa 803e
00000170: 47e6 47bd c0ff 1bbd a8d1 a3bc 429f 213e
00000180: facc 48bd 36cb f33d 2356 9a3d 45cb a93d
00000190: 72c5 fc3d d8b4 5b3d a783 573e dc13 673e
000001a0: 4002 2f3d 3738 e43d b9c1 73be 5343 73be
000001b0: ab67 243e cf7e f7bd 7319 453e cdaf 27be
000001c0: 4cac 2dbe af42 2abc 3ad5 fdbc e6a8 7bbe
000001d0: 4ff0 f53d 266c ec3d 0007 05bd 4d5a 1c3e
000001e0: f885 2b3e ace8 cc3e 777e ed3c 6d9a e5bc
000001f0: 2cd7 e43d 3f2e 5f3d 6c9f d13c 5da9 59be
0.35616225 -0.02152551 0.238067 -0.29852515 0.018627647 -0.17130679 -0.13964257 0.30562118
0.19193812 -0.008439937 -0.18701713 0.06498155 0.03981926 0.16019584 -0.083342664 -0.14067198
0.021238593 0.061870456 0.043797012 0.22496091 0.17381024 0.007166285 0.008832444 0.082532816
0.11921116 0.038060527 0.0046346528 0.103394665 0.04545472 0.09890053 0.1408207 0.092574544
0.025419194 0.15743835 0.052614838 -0.11986803 -0.08983972 0.214991 0.1390163 -0.10180278
-0.13840127 -0.02397102 0.012371793 0.13875276 0.11863055 0.13173236 0.1947025 -0.044055592
0.015887761 0.15897743 0.0073972787 -0.19822295 0.14486264 -0.30602267 0.016535426 0.020113574
-0.18145183 0.1468452 0.19219358 0.054597903 -0.14199337 0.047602214 -0.035054743 0.09852775
-0.23470199 0.09807762 0.10774732 -0.054525148 -0.18514672 0.041487575 0.14886564 -0.1566481
-0.20898888 0.24991913 0.10594082 -0.09932737 -0.06228902 0.24697195 -0.037135664 0.20478499
0.10748147 -0.10929496 0.07186414 -0.21979134 0.11095407 0.21731621 0.07554428 -0.031010203
0.035317153 0.23001777 -0.032337964 0.25191373 -0.048803594 -0.0380857 -0.019997433 0.15783408
-0.049023606 0.11903994 0.075359605 0.08290724 0.12342347 0.053639263 0.21046315 0.2256617
0.042726755 0.11143535 -0.23804368 -0.23756151 0.16055171 -0.12084734 0.1924799 -0.16375656
-0.16960257 -0.010391875 -0.030985463 -0.24576148 0.12008726 0.11544065 -0.03247738 0.15268822
0.16750324 0.40021265 0.028990967 -0.028027738 0.11173853 0.054487463 0.025588714 -0.21256013
