HW9/9_gym-DDPG/results/DDPG_HalfCheetah-v4_1500-eps0.15-t32-l0.0001-s2.pth (torch, 195708 bytes, 13 tensors)

layers.0.weight f4 [128, 23]
00000000: 24c0 14be 26dd 0cbd 8fe2 cf3c 07f5 343c
00000010: 668e 1abd a8bd 043d a0d7 f8bd 7e75 24be
00000020: fa99 a73e 54c7 adbd b565 8ebd 8f7e 1a3d
00000030: c99f 62bd a012 0d3e be96 ef3c 4ca9 c63d
00000040: 7ff2 df3d d74d a9bd a007 84bd d7b9 3e3e
00000050: 71f4 33be b756 843c ab24 17bd 4dbd 873f
00000060: fadd 8fbe 3618 013e 06ed 2fbd 61cb 70bd
00000070: 861e 99be 5e3e ccbe dde7 12bf 8464 8fbe
00000080: 4a57 8b3d 7632 393d e4ef 44bb a2c5 e3bd
00000090: f71e 193d 4d26 f0bd 55f7 31bd 02f9 f2bc
000000a0: 26a7 d1bd cb5e 1dbe 4476 1a3e 0650 53be
000000b0: 3518 94bc fe5e 853d fc50 8e3e da3b 1b3d
000000c0: e707 fdbd 9055 873d 4610 693e 23ab 94bc
000000d0: d5aa 703e 223a acbd 6cdc a0be 55fa 403e
000000e0: 167b 5dbd 7c1a 043e 8305 8f3c 3fd8 2b3e
000000f0: b99b e93d 7d74 05be 7fe0 cf3d 16df 073e
00000100: e427 003e c860 443d 7d0a c93d 19ba 7cbe
00000110: 6e93 c8bd 8895 2c3d 4980 12bf 847d 92bd
00000120: 8dbb 70be bb5b 83bc f7cc 6f3d be32 543e
00000130: c438 243e 9b95 d1bd 3e74 20bd bdbf 28be
00000140: ce9e 323e 450d 61bc 96e8 38be a93c 95bc
00000150: 7072 c43d 7cbe 3dbc 7904 85bc 6bae c4bc
00000160: f1f6 89bd abc9 32bb e155 afba 2dff 04be
00000170: 751f a53f 3e21 8ebe e46c 273f 5d0f 423c
00000180: 127f 123e dedd 263e ea4c cebe 9608 9fbe
00000190: cdee 8abe feb5 ba3e cd7c 463c ea32 113e
000001a0: 336f 8d3d 6cf7 7d3d 8662 3e3e 50fe 073e
000001b0: 813c 2bbd cfc0 3a3e dc53 083e 7f0d dcbd
000001c0: 2b9a 2fbd cb41 063d 4c9f 6cbe 5669 7d3e
000001d0: 0682 10bf 2062 a93d 4bc9 40be 8526 163e
000001e0: 9f62 243e 2642 3a3e 26d0 4ebe e880 053d
000001f0: 9cf4 f23d 1b36 53be 64c4 47bd 63a9 1a3e
00000200: bd59 40be f9e9 40be 61e7 1dbe d55e c33d
00000210: a210 e43c 3e55 63be 7799 d43d f88f 243e
00000220: 91c6 ce3d 94b2 0bbe b569 e03e 4db4 17bf
00000230: 58cd 37bf a5a9 80be 289b 283e 54d3 31ba
00000240: 63f0 433e 5aa2 6e3e 7ca0 a0bd d769 ce3d
00000250: 3273 233e a845 07be 02e2 723d be2a 7fbb
00000260: 35f2 33be 08ae 54bb ba15 0fbd c81b 0dbe
00000270: 6e78 cbbd 21be 52bd 6929 5e3e 2724 ee3d
00000280: d74a d7bd 0b61 093f c372 07be d2c5 56be
00000290: 0951 74bc a70d 403e ef9f 46bd 18d5 4cbe
000002a0: 9d93 f7bd 8805 b63c afa8 e8bd 11e3 10bd
000002b0: 3a6c 0b3e 10f5 8ebd 442d 0ebe 0480 85bd
000002c0: 6969 3ebe 10ea dd3c 533f 223e 68d3 ae3d
000002d0: d8fc 0cbe 660f 0abb 12df 193e 3115 1bbd
000002e0: 10a9 03bd 5a61 84be e5f6 68bd 9f49 183e
000002f0: 5b80 fb3d 60eb 963c 093b 933c e57c b3be
00000300: 155d 063f 45e0 743e 9cb1 82bd b444 c3bd
00000310: f73d 1d3d 0529 ecbd 1263 bc3d b9d9 1b3e
00000320: 9d52 24bd 3cb7 9fbd a386 24be 84f0 b9bd
00000330: 40af 07bd d26b e23d acf5 083d df70 f1bd
00000340: af19 ab3c be5b a8bc 1aa5 97be 4594 8cba
00000350: 89eb 9ebe 16b9 fcbd 20a9 27be d37f 473e
00000360: 994d 0abb 8452 e7bd fac5 9b3b 98c7 093e
00000370: f824 093d 5a6f 50be fa20 0f3e 9c32 0a3e
00000380: 0348 df3c 2eaa 3c3c 8545 d5bd 4831 5e3e
00000390: c9dd 613d 5d53 74bc 4974 163f d05e 5f3d
000003a0: e79d 553e 01fc e13c 1a55 8ebc 6e3c 62be
000003b0: 53cc aebd d46c b7be 6648 dabe 6764 4f3e
000003c0: de83 473d 071f 9b3c 7ecd 0dbe df10 4dbe
000003d0: 2caf 7a3e b79d a93d 7114 0f3d eb97 133e
000003e0: acd3 80bd 84a1 39be 00ac 2cbe 2f02 d1ba
000003f0: cba2 0e3d 1565 b3be 2c06 bdbd 6fe2 f13c
-0.14526421 -0.03439059 0.025376586 0.011044747 -0.037733458 0.032407433 -0.12150502 -0.16060445
0.32734662 -0.084852844 -0.06952993 0.037718352 -0.055328164 0.13776636 0.029246684 0.097002596
0.10934924 -0.082668 -0.06446767 0.1862558 -0.17573716 0.01615463 -0.036900204 1.0604645
-0.28099042 0.12606892 -0.042950653 -0.058787707 -0.299061 -0.39891332 -0.57385045 -0.28006375
0.068037584 0.04521414 -0.0030050213 -0.1112168 0.037383046 -0.11726055 -0.043448765 -0.029659752
-0.10236959 -0.15368192 0.15084177 -0.20635995 -0.018077949 0.06512259 0.2779616 0.037898876
-0.12355023 0.066081166 0.22760114 -0.01814801 0.23502667 -0.084095255 -0.3141817 0.18845494
-0.054072462 0.12900728 0.017458683 0.1678171 0.11406655 -0.13032718 0.10150241 0.13268694
0.12515217 0.04794386 0.098164536 -0.24680366 -0.09793745 0.04213479 -0.57227 -0.071528465
-0.23509045 -0.016034951 0.05854508 0.20722482 0.1603728 -0.10233613 -0.039173357 -0.16479392
0.17443392 -0.013736074 -0.18057474 -0.018217402 0.0959214 -0.01158106 -0.016237484 -0.02400895
-0.067365535 -0.0027280848 -0.0013377034 -0.12987967 1.2900225 -0.27759737 0.6540053 0.011844483
0.14306286 0.16295573 -0.40293056 -0.31061238 -0.27135316 0.36466974 0.012114716 0.14179578
0.06905975 0.062003538 0.18592271 0.13280606 -0.041805748 0.18237613 0.1331324 -0.10744762
-0.042871635 0.03277759 -0.23107642 0.24747214 -0.564484 0.08270669 -0.18826787 0.14663132
0.16053246 0.18189296 -0.2019659 0.032593638 0.11863062 -0.20626108 -0.048771277 0.15103678
-0.18784232 -0.18839253 -0.15420295 0.09539572 0.027839962 -0.22200486 0.103808336 0.16070545
0.10096467 -0.13642341 0.43830648 -0.5925949 -0.71797705 -0.25129429 0.16465437 -0.00067835045
0.19134669 0.2330412 -0.0784311 0.10078781 0.15961912 -0.13210166 0.05929757 -0.0038935388
-0.17572863 -0.0032452364 -0.03493283 -0.13780129 -0.099350795 -0.051450852 0.21695484 0.11627989
-0.105123214 0.536637 -0.13227372 -0.209739 -0.014911898 0.18755208 -0.04849237 -0.20003164
-0.12088702 0.022219434 -0.11360299 -0.035372797 0.13615504 -0.06980336 -0.13884455 -0.06518558
-0.18594898 0.027089149 0.15844469 0.08536416 -0.13768327 -0.0021066307 0.15026501 -0.037862007
-0.032143652 -0.25855523 -0.056876082 0.14871834 0.12280341 0.018422782 0.017972486 -0.35056224
0.5248578 0.23913677 -0.063815325 -0.095345885 0.038389172 -0.11531261 0.09198584 0.15219773
-0.04011785 -0.07798621 -0.16066985 -0.09079078 -0.033126116 0.11055721 0.033437416 -0.117891066
0.02088627 -0.020551559 -0.2961815 -0.001072534 -0.31039074 -0.1233999 -0.1637311 0.19482355
-0.002110338 -0.112950355 0.0047538253 0.13455045 0.03348252 -0.20354977 0.13977423 0.13495868
0.027256018 0.011515183 -0.104136504 0.21698487 0.05514315 -0.0149124535 0.5877119 0.05453378
0.20861016 0.027585985 -0.017374564 -0.22093365 -0.085350655 -0.35825217 -0.4263336 0.20253144
0.048709743 0.018935693 -0.1384792 -0.20025967 0.24480885 0.08282035 0.034931604 0.14413421
-0.06290373 -0.1812802 -0.16862488 -0.0015946085 0.03482322 -0.35038057 -0.09229693 0.029526917

layers.0.bias f4 [128]
00000000: aef5 5c3b 0cfb 173d 9e6d 6fbd c09f ec3d
00000010: 7f0e ae3d e6d4 9d3e 321a f13b 4215 b53d
00000020: c3b3 313e f3c7 f23d cf9b e6bb 4f18 0e3e
00000030: bcb7 313e eaa2 d9bc 51ee 0fbe af26 02be
00000040: fc7e 50bd 6406 8e3e 1e0e 7f3e 2d13 9ebd
00000050: 089a a03e 3e0a 353e 97e8 563e fefe cebd
00000060: 9947 a23e f19a f4bd 180d 853b 0ad9 c13e
00000070: 4dd1 7b3e 5554 ad3d 1312 9a3e 6548 c4be
00000080: 3858 7b3d fd4a 8fbe 6d09 82bd c837 b0be
00000090: 9958 ddbb 7372 033e 0c11 8dbe cf46 273e
000000a0: 8ea9 843e 92a2 073e ec75 cd3c 1690 7d3e
000000b0: 90ef 1cbe b7f2 f83e 2481 eb3d 2f89 a6bd
000000c0: d203 bd3c 1296 9abc 5580 853c 9c49 adbd
000000d0: 8d11 0d3e 0561 113f 08f6 24be 3b3e 1d3e
000000e0: b8a6 0ebe 04c6 a4bd 1b66 25be 00a2 2ebd
000000f0: a440 ad3d 1b09 143e 66cb 503e f134 993d
00000100: ac61 0dbe f1ab 523d c9cd 0abe 7d30 8bbd
00000110: 5783 80be 0b92 873e 7ce0 8b3e 36e0 13bd
00000120: 9b49 4abe 9cc6 83be 78cf 6abe 6791 a4bd
00000130: 2722 5dbe 5c63 97bd a80c 813e 32ec e43c
00000140: a74d d33b 00f3 8d3c 367b cfbc e670 52be
00000150: 492f 39be 56f2 b6bd bee4 0cbe 7a6f ac3e
00000160: 6473 023e 9fe0 b93d 8893 0bbd b848 cd3e
00000170: e0c4 d73e 771d ec3d 18d7 eb3e c386 19be
00000180: 9b1f bfbd cca3 0ebe 4938 083e c597 b03e
00000190: f24a a8bd 44fd d73e f57f 46bd a805 14bd
000001a0: 6b15 0bbd f1b8 86be 8ebd 083d 580b 7e3e
000001b0: 04ca f53e 22a3 b3bc 27c6 a13d 105f 433e
000001c0: a3bd 543e 08cc 3d3e ebaa cc3e 98e0 563d
000001d0: a772 d83e be41 573e c927 a13e 41d4 973a
000001e0: 5ec5 cf3d 9540 f4bc 203a 93be 77ed f23e
000001f0: 47bd 92be 44e7 0a3e 7c99 39be 94cf 3bbe
0.0033715772 0.03710465 -0.05845415 0.115539074 0.08498859 0.3082649 0.007357859 0.08841945
0.1735373 0.118545435 -0.007037617 0.1387646 0.17355245 -0.026566941 -0.14055754 -0.12710069
-0.05090235 0.2773925 0.24907729 -0.07718501 0.31367517 0.17679688 0.20987163 -0.1010723
0.3169525 -0.11943615 0.004060399 0.378609 0.2459156 0.08463351 0.30091915 -0.38336483
0.06136343 -0.279869 -0.06349454 -0.34417558 -0.0067549464 0.12836628 -0.27552068 0.16335605
0.2591061 0.1324561 0.025080644 0.24761996 -0.15325761 0.48622677 0.11499241 -0.081316344
0.02307311 -0.018870387 0.016296545 -0.084613055 0.13776226 0.56788665 -0.16109478 0.1535577
-0.13930786 -0.08045581 -0.16152231 -0.042634964 0.08459595 0.14456598 0.2039009 0.07480801
-0.1380679 0.051433507 -0.13555063 -0.06796358 -0.25100204 0.2647861 0.27319705 -0.036102496
-0.19754641 -0.25737464 -0.22930706 -0.08035546 -0.2159506 -0.07391998 0.25204968 0.027944658
0.006448466 0.017327785 -0.025327306 -0.2055088 -0.18084444 -0.08932941 -0.13759133 0.336788
0.1273933 0.09076046 -0.034076244 0.40094543 0.4214239 0.115290575 0.4606254 -0.14992814
-0.093322 -0.13929671 0.13302721 0.3449079 -0.0821742 0.42185414 -0.048461873 -0.036138207
-0.033955973 -0.26312974 0.0333839 0.24809015 0.48005688 -0.021928374 0.07899123 0.19079232
0.20775466 0.18534863 0.3997415 0.052460283 0.42274973 0.21021172 0.31475666 0.0011583642
0.10145067 -0.029815951 -0.28755283 0.47446796 -0.28660032 0.13564783 -0.18124956 -0.18340904

layers.1.weight f4 [128, 128]
00000000: 7924 bcbc 18d4 38bd d6c1 90bd 5f6b 35bd
00000010: e5bd 04bb f339 9b3c 2256 013d c950 83bd
00000020: af8d 303c fc27 8fba daa3 2fbb 5eb3 72bb
00000030: 9b6c 2f3d d83f d13d 686f eb3d 07db 573d
00000040: e5ea 993d 5e90 da3c 5877 f43c 414c 7f3c
00000050: 1c7e 0cbd 6a9b b2bd 7f81 003d b60b 513d
00000060: 74ed 9cbd aa87 cebc 00ae 913d 7a2b 9e3c
00000070: f1b7 81bd b504 c2bd 70c5 8cbd 5be5 54bd
00000080: ab5e 023c 21e9 2a3d ed6a 6e3d 5d01 483d
00000090: 377b 353d cbfe 5abd d9a2 043d c5c0 88bc
000000a0: f5c2 813c 374c 913c 714a 263d 65b2 46bd
000000b0: 2ce9 583d 4698 8abc f463 2b3c 0828 b0bc
000000c0: 8955 44bd 40bf d73b 300c 723d a5f7 1b3d
000000d0: 7aaf b43d 5edb b1bc d025 c63d 1526 75bd
000000e0: dc53 393b 24ba 3c3d efa6 a43d abe7 0d3d
000000f0: 142b cf3c e3c8 823d 12c2 c53d 338f 96bd
00000100: edc3 79bd 5fe5 403c ad13 09bd cb4e 58bd
00000110: 106c b3bd 1a5d 983c b22e efbb 5e46 263d
00000120: 051a c43d fd6d a4bd 144c cb3a 9524 803d
00000130: fca1 aa3d 6fc7 cdba cd4f 543d 0d90 a43d
00000140: 5425 913d 2a75 b0bb 2899 1cbc c9ae 23bd
00000150: 4701 ec3a 5e81 253d ad43 f8bb cc54 8fbd
00000160: 6fc5 b23d 17a7 2dbd 7468 e5bc 2f93 c0bc
00000170: 387b 1cbd 8992 55bd a1af 64bd ac47 8e3d
00000180: f44a 033e 89bd 513e 4b2a 5bbc 0503 3bbd
00000190: 5596 0bbd 9544 003c ffe7 5dbd bf61 07bd
000001a0: 6ce6 5fbc f2ee d73d 276f 08bc b51d eabc
000001b0: 7562 283c a4db 9c3d 3822 34bd 7874 ed3c
000001c0: 7bbd 013e a162 433d 4b7f c63d 5c83 dc3b
000001d0: b281 753d d6dc 0fbe 29e9 75bd b06a 073d
000001e0: 0f67 243d 4939 ee3b 181f d63d 5d4c 173d
000001f0: 6fdf a9bc 0f14 02bc 050c 1dbc b2b6 693c
00000200: 2a2e 123d d981 e2bc 4239 663c 50a0 ad3d
00000210: 6ebc 4f3b c309 4f3d 65ca 9bbb 7d79 933d
00000220: ab73 ed3c cbbf 443d ffd7 5ebd 3bb4 a0bd
00000230: 8e0f ecbc aad7 f13c 27af edbb 1727 5cbc
00000240: 17a9 7d3d 0671 47bd cf53 e9bc 7419 aa3d
00000250: e75b c23d e8be d53c bdd2 a4bd 54b6 713c
00000260: 3f96 a83d 0e95 9ebd ae03 453d 16c6 493d
00000270: 91ba 26bd 4d85 bbbd 6f04 1dbc 60ce 1dbd
00000280: 7247 b43c 7c48 c8bd 3c31 8fbc 9b29 a7bd
00000290: 4699 0e3d 42aa da3c 35a6 323d 4996 813d
000002a0: f17c f93d 00a3 433c 1c30 b43d b1e7 65bd
000002b0: f129 f63c 5488 ac3d bcb7 bcbc ae2d b8bd
000002c0: 06da 9e3d 4710 8a3d 8cfb 79bd 524f 49bd
000002d0: 50e7 20be 1c3c 313d 60f3 c7bd 9168 d8bc
000002e0: c6a3 b83d 48be a13d 86ee 883d d8c2 00bd
000002f0: f01a 89bd 6903 b73d 48d8 823d c3f9 0d3d
00000300: 6e66 053d e729 e1bc aeb1 75bc aea7 d23c
00000310: 4fca 4ebc e7e7 ab3d 901d a0bc 2a7e e03c
00000320: 3917 f23b d03b bbbc 5eb4 753d 7793 f8bb
00000330: 33b6 163d 2ef0 acbd 5af8 57bd 90b7 03bc
00000340: 4662 eabb dd8a 8bbd 1d09 bebc 0577 7fbc
00000350: a163 cbbd 6ec3 923d 9698 87bd 6a29 8bbc
00000360: c17d b4bc 20dc a03c c94e 5ebd 79af 423d
00000370: 9878 f63b 86df 88bd 5800 393d 2b47 7abd
00000380: e79b 6bbd ed37 65be 53d4 8cbd 990e bc3d
00000390: f2c8 2cbb cd86 943c df53 133d 0824 983d
000003a0: f509 f23c c318 0abd 8c93 9abd 2ea4 f9bd
000003b0: c646 103d 3f7e 65bd 8d82 2abd 2f16 493d
000003c0: 2107 7dbd d911 063d d6d1 9b3b 5d65 7dbd
000003d0: f12d a63d e562 a4bd e955 96bb d9d2 543d
000003e0: f707 3dbd 8e01 b73d eaae 85bc c432 f1bc
000003f0: 8631 7dbc 7e90 56bd 5e61 10bc ade4 24bd
-0.02296661 -0.045124143 -0.07068221 -0.04429185 -0.0020254788 0.01894853 0.031576283 -0.06411893
0.0107759675 -0.001092195 -0.0026800544 -0.003703318 0.042828184 0.10217255 0.114958584 0.052699115
0.07515506 0.026680168 0.029842064 0.015582145 -0.034299955 -0.08721049 0.031373497 0.05103656
-0.07662478 -0.025211174 0.07113266 0.01930784 -0.06333912 -0.09473554 -0.06873596 -0.051976543
0.007957141 0.041726235 0.05820744 0.048829425 0.04430696 -0.053465646 0.032381866 -0.016693482
0.015840033 0.017736537 0.040598337 -0.048509974 0.052956745 -0.016918313 0.010460842 -0.021503463
-0.047933135 0.006584078 0.059093654 0.03807797 0.08822532 -0.021711048 0.09675181 -0.05985077
0.0028278744 0.046075955 0.080396526 0.034644764 0.025289096 0.06385972 0.096561566 -0.07351532
-0.060977865 0.011773436 -0.03346603 -0.052809518 -0.08760846 0.018599082 -0.0072992677 0.04059445
0.09575275 -0.08028791 0.0015510344 0.062569775 0.08331677 -0.0015699695 0.051833916 0.08035288
0.07087198 -0.005385061 -0.009558 -0.03996161 0.0018005752 0.040406577 -0.007576427 -0.069985956
0.08729064 -0.042395677 -0.028003909 -0.023507683 -0.038203448 -0.0521417 -0.055831555 0.06947264
0.12821561 0.20482458 -0.013376783 -0.045657177 -0.034078915 0.007828851 -0.054176327 -0.033052202
-0.013665777 0.10543622 -0.008327282 -0.028578619 0.01027738 0.076590806 -0.043977946 0.0289862
0.12669937 0.04770148 0.09692248 0.0067295264 0.05993814 -0.14049086 -0.060036812 0.03306073
0.040137347 0.0072700125 0.104551494 0.03693806 -0.020736424 -0.007939353 -0.009585385 0.014264749
0.035688557 -0.027649807 0.014051737 0.08477843 0.0031698006 0.05054642 -0.004754352 0.072009064
0.028985819 0.04803447 -0.05440521 -0.07846876 -0.02881601 0.029521782 -0.007253546 -0.013437054
0.061928835 -0.048691772 -0.028482346 0.08305636 0.09490185 0.026092008 -0.08048008 0.014752943
0.08231782 -0.07743274 0.048099212 0.049261175 -0.040705267 -0.091562845 -0.009583577 -0.038526893
0.022006724 -0.0977945 -0.017479531 -0.081622325 0.03481414 0.026692513 0.04361554 0.06327493
0.12182034 0.011940718 0.08798239 -0.05612916 0.030049296 0.0842444 -0.02303683 -0.08993088
0.077564284 0.06741386 -0.06103091 -0.04914791 -0.15713239 0.043270215 -0.09763217 -0.026417049
0.09015612 0.078976214 0.0668612 -0.031435817 -0.06694591 0.08936197 0.063889086 0.03466202
0.032568388 -0.0274858 -0.014995975 0.025714722 -0.012621476 0.08393841 -0.019545346 0.02740391
0.0073880223 -0.02285567 0.059986465 -0.0075859386 0.036794852 -0.08444248 -0.05272708 -0.00803937
-0.0071528284 -0.068135954 -0.023197705 -0.015592341 -0.09931112 0.071661815 -0.066209 -0.016987521
-0.02203262 0.019636214 -0.054274354 0.047530625 0.0075217 -0.06683259 0.045166343 -0.061103027
-0.057521727 -0.22384615 -0.06876435 0.09182472 -0.002636489 0.018130684 0.035968658 0.074287474
0.029545764 -0.03371502 -0.075476736 -0.12189518 0.035223745 -0.0560286 -0.04162841 0.04909342
-0.061774377 0.032731865 0.004755239 -0.061864246 0.081142314 -0.08026675 -0.004587878 0.051958892
-0.046150174 0.089358434 -0.016318757 -0.029443152 -0.015453702 -0.052383892 -0.008812277 -0.040257145

layers.1.bias f4 [128]
00000000: 15b1 43be 8973 1b3e 1000 09be 52bb d4bd
00000010: 70ea 7d3e 0509 503d a3da 8dbd c661 713e
00000020: e686 c93e c560 2dbe 006f 12be c625 fabd
00000030: c8d6 3e3e cb97 a33d 100c 1abe 3170 c13d
00000040: e521 14be 1e13 3abe 5c17 2f3e aa27 1bbe
00000050: af21 8e3e 5ad3 b63d 59c9 6fbd 5197 65bd
00000060: b8e2 0b3e 36b0 7f3e cf9e 433d 04ed aa3e
00000070: da90 de3d 6cee 823c 5575 0fbd 3d4d 6fbb
00000080: fa26 813e bd84 8cbe 7137 32be 9a5b 573e
00000090: 7538 80bd b64f 25bc f4b6 3b3e 4d51 58be
000000a0: 572f b93d f016 6bbe 8de7 3e3e e56a 723e
000000b0: 6dea a23e 8591 863e 646a 0ebe 2b52 1ebe
000000c0: cf8b 50bc 6626 17bd bc40 163e 10ac 67be
000000d0: 86ec 7b3e 2379 6dbe 10c4 583e 20d4 5dbe
000000e0: 07c1 553e 02b9 a0bd 10cf 9bbd d3a6 9c3c
000000f0: bfa4 23be 676c 1fbe a6b5 2fbe c216 363e
00000100: d8b7 7b3e 98d0 d7bc b8a1 9d3e 9c09 0cbe
00000110: 7b1b 56bd 6fa9 a03d abda a93d d3d9 493d
00000120: d00a 4c3e 7737 e83d 9653 173d 565d 8ebc
00000130: 477c 13bd 44fc 26be 26f3 2cbe 2140 40be
00000140: 006f 3cbc 969a 3d3e 4e49 963e 133e 323e
00000150: a456 a83d f5e4 763e bbc1 e6bd 1372 52be
00000160: 95cb 163e 6865 d43c 3e53 e6bd 5c05 a13e
00000170: 2197 2b3c 5dad cabd 681d 2fbe 2416 9abd
00000180: 148a 913e cfd5 16bd c176 a5bd 374c 13be
00000190: a1c3 39be a3b6 753e 5afd 433e 8e0f 963e
000001a0: 6244 64be 3baf 4f3e 88e7 903e a861 e33d
000001b0: 57e1 b03e 83d7 203e 2379 18be 1d4b ebbd
000001c0: a048 52bd 26c7 ab3e f34c fcbd d131 11be
000001d0: 8585 edbd 967b 1ebe ea40 aeba 9198 51be
000001e0: 64d9 65be 1c12 1abe 786d 3ebe d60d b63e
000001f0: b877 2d3d 5bc3 1bbe 610a 40bd 8ed3 3fbe
-0.1911052 0.15180792 -0.1337893 -0.10387291 0.24796462 0.05078985 -0.06926467 0.23572454
0.39360732 -0.16931446 -0.14300156 -0.12214236 0.1863662 0.079879366 -0.15043664 0.09445227
-0.14466055 -0.18171355 0.17098755 -0.1515185 0.27760074 0.08927031 -0.05854163 -0.05605251
0.13660705 0.24969563 0.047758874 0.33383954 0.10867472 0.015982829 -0.035024006 -0.0036514543
0.2522505 -0.2744502 -0.17403962 0.21031037 -0.06260768 -0.010089805 0.1833151 -0.21124764
0.090422325 -0.22957969 0.18643017 0.2367359 0.31819478 0.26282898 -0.13907772 -0.15461032
-0.0127286455 -0.036901854 0.14673132 -0.2262423 0.24601945 -0.23190741 0.21168542 -0.2166295
0.20874415 -0.078477874 -0.076078534 0.019122517 -0.15980814 -0.15568696 -0.17159137 0.17782119
0.2458185 -0.026344582 0.30787444 -0.1367554 -0.0522723 0.07844817 0.08293661 0.04928
0.19926 0.11338704 0.036944948 -0.01737849 -0.036007192 -0.16307169 -0.16889629 -0.18774463
-0.011501074 0.18516001 0.29352802 0.17406492 0.082196504 0.24110778 -0.1126742 -0.20551328
0.14726098 0.02592726 -0.11246346 0.314494 0.010473044 -0.09896348 -0.17101061 -0.07523754
0.28425658 -0.036824998 -0.08079291 -0.14384542 -0.18141033 0.23995452 0.19139615 0.29308742
-0.22291711 0.20281689 0.28301644 0.11102611 0.3454692 0.15707211 -0.1488996 -0.11488936
-0.05133879 0.33550376 -0.123193644 -0.1417916 -0.115977325 -0.15476832 -0.0013294492 -0.20468356
-0.22446209 -0.1504597 -0.18596447 0.3555743 0.0423505 -0.15211241 -0.046884898 -0.18733045

layers.2.weight f4 [64, 128]
00000000: 7217 5cbe 6a96 053c eb74 88be a127 e13c
00000010: 06f9 b83c 6cd4 013e d984 123e fe9a b73d
00000020: 7c87 a83d f05c 92be c93a 2abe 0c9a fdbc
00000030: 9b25 6fbc 53a0 62bc 988e fe3c 334e 493e
00000040: 9f71 24be acf8 e6bd 2949 b1bd b73d 27bd
00000050: dc7a 813c 96c6 bcbd dd16 04be d457 50bd
00000060: 1930 4ebe 3b22 eebb ede6 a4be 02ad a83e
00000070: 35a3 01bd 24ce 42be 8190 d2bd 0999 983d
00000080: 65de a03d ef6b 873c 627d c0bb 00ce f83d
00000090: fb9e 5cbe da15 e93d 7e3b b33d 1323 d4be
000000a0: 2901 be3d 16cc 3dbd bf77 abbd b098 2a3e
000000b0: c53b e03d c2ad cb3c 80ae 69bd 45d5 983d
000000c0: e427 1ebd df63 f43a 811b 433e 82ae c93c
000000d0: a4a7 143d 65f0 38be a4e3 463d 94cc b6bd
000000e0: 0fc6 5e3c 5691 963d f82e 363d 0e2f d0bd
000000f0: 2edf eabd 1e1b 3bbc f3ff b3bd 691c 053e
00000100: d2e2 da3c 9ea6 053e 3a4a ad3d e602 e5be
00000110: 2e8c af3d 9e4f 49bd 2943 fc3d 80fe 85be
00000120: 806b b83d 3955 bfbd 8615 063e 066b 323d
00000130: 9162 033d 49f5 a6be bb53 3cbd 9456 b6bc
00000140: cd6c ad3d 91fc b43d 0ce4 dd3d b082 8dbd
00000150: 4158 733e 84e2 a63d 6658 c43d 96c7 98bd
00000160: 812c 6e3d a78c e2bd efcb dabd 4349 bb3d
00000170: 56f0 cbbd 5829 a1bd 402d c6bd 5c30 26bc
00000180: e1b1 62bc b47f e7bd 27da 393a 5bb2 0ebd
00000190: 646c 47be 26fa 973c 52c8 d7b9 d929 f73c
000001a0: 21da 40bd e164 cbbc be73 aabd 14e9 dc3d
000001b0: db60 1fbd 8dec db3c d760 99bd 5bda 833d
000001c0: a630 843c ec33 193c 09e7 65bd e555 c9bc
000001d0: 2651 e03c 247f 513d a434 193e 437b acbd
000001e0: a531 273d 84ee 88be 3975 a9bd b6ed 7b3b
000001f0: 569c 24bd d8ed 55bc 7542 0dbd cbbb 453d
00000200: b466 2abd 1ea4 6a3d 277c 59bd 4f48 9d3c
00000210: f898 4f3d 90d8 533d 80df 823a d495 013e
00000220: 9311 c73d 7b5b c1bd ba76 06bd d5a9 993b
00000230: acf8 e4ba 6c5f e83d e12c 6bbc c049 593e
00000240: 724d dcbc a6ff 05bd 6fbe 073c 6c27 2d3d
00000250: 64be 073d ef7f d53d 10a0 32bd 05e4 3cbc
00000260: 66f7 0fbd 4344 02bd 54d9 6dbe c35b 753e
00000270: b0b7 f23b 3dc3 b9bd fe54 a73c aa48 d93d
00000280: fcd7 34bb 3d1d e1bd f8f4 90bd 32b3 81bc
00000290: 39a4 81be c1e7 6f3c c650 e13d a739 58be
000002a0: 831b 733d 53f8 22be ed0d 82bd d72c 423e
000002b0: 8905 d33c bb14 ce3d 246f 723c c04f 73bd
000002c0: 8044 b1bd 33a5 9fbd 3144 9e3d 27da c53b
000002d0: 0249 cd3d 70e3 8cbd cb33 5cbb bee1 4ebd
000002e0: 3f85 4c3c 608f a9bd b882 29bd be76 15be
000002f0: 18cf 0bbb a70e 1cbd 8523 b2bc c522 453e
00000300: 391a 3dbc 7d13 6e3d 5dd9 7b3c bbc5 d4bd
00000310: 4e3e 2bbd 55b8 463c 0278 863d c1ee 59be
00000320: 25c0 263e fd0a 1b3d 531f a4bb aaea 7ebc
00000330: a570 f5bc 0f17 00bc 0aab 7fbe 611e f3bc
00000340: ce29 723d 6ce1 aa3d bc11 b53d 1095 babc
00000350: 7f1f 4a3e 7751 1c3e 0c03 c8bd 6bf3 0cbc
00000360: 806f 7c3d e87f 38be 1995 2b3d 0e40 83bd
00000370: 1239 a03d 32e8 443c 454b 53be 2a1c 97bd
00000380: 7809 973d 828c 87bd 343f a5bd 6dc4 a2bd
00000390: 659a 093c 8e33 2a3d 13f9 013e 6c4e 183d
000003a0: 32a5 0bbe 5cde 07ba b836 29bd 61ec b93c
000003b0: 1f4e 4bbd 3d13 ef3d aac7 ddbd fc4b 67bd
000003c0: 4a6e 9ebc fccf 523d 4b35 e2bd ffdc cebd
000003d0: ce67 8c3b 6343 313b 1e96 0d3e e163 8a3d
000003e0: e0d4 14bc ca35 7cbe 2591 923d ab04 ac3d
000003f0: 19da 4dbe ada4 3e3d a10d 153d fabb d9bd
-0.21493319 0.008153537 -0.266517 0.027484717 0.022579681 0.12678689 0.1430849 0.08965109
0.082289666 -0.2858653 -0.16623987 -0.030957244 -0.014596368 -0.01383217 0.031073853 0.19658737
-0.16058968 -0.11277899 -0.08656532 -0.04083034 0.015805654 -0.09217565 -0.12899347 -0.05086501
-0.20135535 -0.007267264 -0.32207432 0.32944494 -0.031649787 -0.19023949 -0.10281468 0.07451064
0.078549184 0.016530959 -0.005874322 0.121486664 -0.21545021 0.11381121 0.087515816 -0.4143301
0.09277565 -0.04633721 -0.08372449 0.16659808 0.109489 0.024863128 -0.05705118 0.07462553
-0.03861226 0.0018645487 0.1905346 0.024619345 0.036292687 -0.18060453 0.04855694 -0.08925739
0.013597026 0.073519394 0.044478387 -0.10165225 -0.114683494 -0.011420039 -0.08789053 0.12999119
0.026719484 0.1305184 0.08461423 -0.44728774 0.08571659 -0.049148194 0.12317497 -0.2617073
0.09004879 -0.09342427 0.13094148 0.043559097 0.032076422 -0.32609013 -0.04597829 -0.02225808
0.08468018 0.08837236 0.10834512 -0.06909692 0.23764135 0.08148673 0.09587173 -0.07459943
0.05814791 -0.110619836 -0.106834285 0.09144833 -0.0995795 -0.07869214 -0.096765995 -0.010143366
-0.013836355 -0.11303654 0.0007089697 -0.03483806 -0.19474941 0.018551897 -0.00041157246 0.030171322
-0.047083024 -0.024828376 -0.08322857 0.107866436 -0.038910728 0.026846195 -0.07489174 0.064381324
0.016136479 0.009350758 -0.056128535 -0.02457709 0.027382445 0.05114664 0.14961487 -0.08421948
0.04081883 -0.26744473 -0.082743116 0.0038441247 -0.040188156 -0.013057195 -0.034487206 0.048274796
-0.04160185 0.05728542 -0.053096917 0.019199518 0.05068299 0.051720202 0.0009984821 0.12654811
0.09720149 -0.09441277 -0.03282807 0.004689435 -0.001746913 0.11346325 -0.014353962 0.2121954
-0.026892398 -0.03271451 0.008285149 0.042273924 0.033140555 0.10424792 -0.04360968 -0.0115289735
-0.035148047 -0.03180338 -0.23227435 0.23960786 0.007407151 -0.09070442 0.02042627 0.10609563
-0.0027594557 -0.10991905 -0.07077974 -0.015832517 -0.25320604 0.014642657 0.110017344 -0.21115743
0.05935241 -0.1591504 -0.063503124 0.18962418 0.025759475 0.10062548 0.014797006 -0.059402227
-0.086556435 -0.07795181 0.0772785 0.0060379687 0.10023691 -0.06879318 -0.0033600207 -0.050508253
0.01248294 -0.082793 -0.04138443 -0.14596078 -0.0021333154 -0.03809991 -0.021745453 0.19251545
-0.0115418965 0.058124054 0.015371648 -0.103892766 -0.041807465 0.012128909 0.065658584 -0.21282484
0.16284235 0.037852276 -0.005008617 -0.015558878 -0.02996094 -0.007817998 -0.2496759 -0.029677572
0.0591219 0.08343777 0.08841273 -0.022776157 0.19738577 0.15265451 -0.09766206 -0.008602957
0.061629772 -0.18017542 0.041890237 -0.06408702 0.07823385 0.01201825 -0.20634182 -0.07378419
0.07374853 -0.066185966 -0.08068696 -0.079476215 0.008398627 0.041553073 0.1269267 0.037184164
-0.13637236 -0.00051829754 -0.04131195 0.022695722 -0.04963505 0.11673591 -0.108290985 -0.05646895
-0.0193397 0.05146788 -0.11045321 -0.101007454 0.0042848354 0.0027048222 0.13826796 0.06757332
-0.0090839565 -0.24629894 0.0715659 0.08399328 -0.20102729 0.046543766 0.03638995 -0.10631557

layers.2.bias f4 [64]
00000000: 03a1 dd3c dfb5 383e 35e1 013e 436f f4bd
00000010: 6b6c 22be 861f 33be 8b08 20be ba2a 853e
00000020: 6165 04be 8090 643e 9827 cbbd 9214 01be
00000030: 583f 59be 6d8e e73c ae16 15be 4f32 bb3d
00000040: 0cc7 a1bd 2801 643e cff8 913e 03b2 9c3e
00000050: 8014 93bd 19c8 3b3e 75fb debd 5c26 73bd
00000060: 434f d0bd 551e 293e 3b7b 92bd 4c5c e8bd
00000070: 4e70 563e 62ec 1fbe 97c3 e2bd fd1c afbd
00000080: 5147 b73e 1c76 f93d 1efb 993e b482 4fbe
00000090: 0655 99bd 53e0 cebd e4e3 063e 3a42 993e
000000a0: 6e8c 833e 4958 943e b595 35bd b739 23be
000000b0: 10e7 d6bd 321b 9dbc 8359 95bd 2b69 473e
000000c0: 53fd ccbd 0a7e 933e b693 f8bd eb1a 9fbc
000000d0: fe35 20be ffa9 99bd 3f20 4bbe 6fab 3bbe
000000e0: e508 8b3e a649 55be 4787 93bd a970 5dbe
000000f0: a56a 953e 0208 cbbc 08e4 0cbe d275 01be
0.027054315 0.18038128 0.12683566 -0.11935284 -0.1586167 -0.17492494 -0.15628259 0.2600916
-0.12929298 0.22320747 -0.09919661 -0.12605503 -0.2121557 0.028266156 -0.14559433 0.09140455
-0.07899293 0.22266066 0.28510138 0.30604562 -0.071816444 0.1833805 -0.10887805 -0.059362754
-0.10171368 0.16515477 -0.071524106 -0.11345729 0.20941278 -0.15617517 -0.11072462 -0.08550451
0.35796598 0.12180731 0.300744 -0.20264703 -0.0748692 -0.1010138 0.13172871 0.2993334
0.25693077 0.28973606 -0.044332225 -0.15939985 -0.104932904 -0.019178007 -0.07292464 0.19473712
-0.10009255 0.28807098 -0.121375486 -0.019422015 -0.15645596 -0.07503127 -0.1983652 -0.18327115
0.27155223 -0.20828876 -0.072035365 -0.21625008 0.29182926 -0.024784092 -0.13758862 -0.12642601

readout.weight f4 [1, 64]
00000000: d97b e23e a33b 5a3e f65b 823e 9a0b e9bd
00000010: 0057 22be c187 6dbe 918d adbd 8e47 3e3e
00000020: b820 8abe c6ea 703e bfc9 25be 3d82 43be
00000030: 1704 7cbe 4e90 7b3e 7fd7 31be f847 183e
00000040: 72e7 20be 317d 883e 06c1 733e ac8f 643e
00000050: 7b81 27be d8b5 2c3e 377e 0bbe 5876 8b3e
00000060: 1d7a 97bd 1825 643e 9969 27be 83dd f6bd
00000070: ceb2 b23e 904a d9bd bbaa dabd 510f 21be
00000080: 4685 f83e 2a0e 2a3e 1da8 513e 1041 42be
00000090: 4054 30be 7268 cebd 8aa0 0e3e 20c4 933e
000000a0: 05b4 7a3e ae0c 803e f300 b83e 916d 0bbe
000000b0: 2c1e d8bd d0b9 7c3d ac83 023d 561f 2a3e
000000c0: 10bd 39be 97c2 4a3e 2347 cabd e916 7e3e
000000d0: 3230 3fbe 9f06 d23d ae6e 08be c349 69be
000000e0: 8b91 9c3e e30a d8bd dedd 0fbe c2e1 21be
000000f0: 4052 8e3e e009 16be 78bb 3abe a898 1ebe
0.44235113 0.21311812 0.25460786 -0.11379166 -0.158535 -0.23196317 -0.08474267 0.18581983
-0.26978087 0.23527059 -0.16190241 -0.1909265 -0.24610935 0.24566767 -0.17367361 0.14871204
-0.1571329 0.26658013 0.23804101 0.22320431 -0.16357987 0.16866243 -0.13622366 0.27238727
-0.07396338 0.22279775 -0.16348876 -0.12053969 0.34902042 -0.10609925 -0.106770955 -0.15728499
0.4853918 0.16606966 0.20474286 -0.18970132 -0.17219639 -0.10078515 0.13928428 0.2886057
0.24482735 0.25009674 0.35938224 -0.13616015 -0.1055263 0.061700642 0.031863853 0.16613516
-0.18138528 0.19800793 -0.098768495 0.24813427 -0.18670729 0.10255169 -0.13323471 -0.22782044
0.3057979 -0.105489515 -0.1404948 -0.15808776 0.27797127 -0.14652205 -0.18235576 -0.15487921

layers.0.weight f4 [128, 17]
00000000: 5a01 f63e f92f 16bf 6062 f5bd 3cff b23e
00000010: 79f9 39bd 39c5 c83c acc8 603b 502e ccbd
00000020: ce60 893d a44e d73c 5550 7f3e 19ea 083e
00000030: 8e54 60be 0b61 9c3b afc9 b03e 97d1 88be
00000040: 7c0f 083e 20e3 a33e a00b 033f 6700 633e
00000050: d884 d4be 6f53 933e 0413 a3bd 32fb 143e
00000060: 62bc 0abe 050e 34bf d462 3fbd 3e50 f23e
00000070: 148d 8fbe daba 0c3e d1ee f539 d6e6 fc3b
00000080: 7bc3 ac3c 88e0 82bd 7112 18bf e159 1abe
00000090: a6c7 93be af81 0f3e e6fd 7bbd 5ac6 b03e
000000a0: 69ea 873e 5935 cfbc d87b c93e 2091 6d3e
000000b0: fed6 73be 1075 bdbe 1a08 8cbd bbe6 b43d
000000c0: 9a6b 0f3e c953 0bbe e618 95be 548d f13d
000000d0: 0e4e 08bf 0d8a 2c3f fc84 b6bc 02a9 00be
000000e0: 6455 8f3d c6eb b8be 5205 14be 99f7 85be
000000f0: 8938 8e3e ca39 333e 2b85 9dbe 496e 92be
00000100: 0285 1ebe 1348 833c 7f0f 823d 4c42 f8bd
00000110: a171 e5be f3d2 403f eef2 92bd a92a d9bd
00000120: 31ac 983d 58d1 b7be 27c9 653e 7d87 36bd
00000130: 6518 003f 83e8 31be 1804 bc3c 4c41 a5be
00000140: 9e7b 503e 3919 e4bd 0ad2 bcbe d599 5dbe
00000150: 3b5c ae3d cf58 483e 75d3 5d3d cd25 b9bd
00000160: 4e1c 813e 90a1 56be 1d64 dabc 8345 00bf
00000170: 6fea 83be 286e 163e c071 03be 5ecc 1b3e
00000180: 13e8 683d a563 a23c b452 febb 8f5a d73e
00000190: 5372 403e 1fbe 85be d0d0 923f 43c4 45bf
000001a0: ceca 21be 2346 8a3d 3eb9 b83d cf3d f33c
000001b0: 23ee 00be 95dc e4be f030 d23c f5d4 18bd
000001c0: b514 973e c8fc 49bd e53f 36be b7e9 2c3d
000001d0: b193 833e 0c8b d9bc 6109 ca3d 66f5 70be
000001e0: 4e80 953c c4a9 b13e adab 2ebe 0764 733d
000001f0: e0cc b43e 655c c73d e9d8 af3e 69be cabe
00000200: e90e c43e 0f64 93bd a294 ed3d 890d c43d
00000210: bdf7 c8bc f92a b93e b79e d1be f945 263e
00000220: 386b 7b3e dcb6 9cbf 440c 213e ba5f 2c3e
00000230: 1387 91be ffd0 873e 7acf afbb e562 a4bd
00000240: 0000 853e 4d6f b93e 9942 7f3d 28b2 7e3c
00000250: ffd9 30bd 1384 a4be f7bd 1c3e 8f24 f73d
00000260: 3d67 02be 21d6 37bf 8031 113f baa8 253e
00000270: 7478 a73d b959 b23e 782a f83e 4807 ac3e
00000280: 7e76 e43e 89b4 c23b a3c1 c0be 9fa6 69be
00000290: dc2e 863e 5e30 d1bc 5c47 d43d 2399 41bd
000002a0: 8936 2fbe b0d7 60be 6660 763d 01f0 033f
000002b0: c52a e03d 8476 24bd 168e d9bd 1f11 b8be
000002c0: 1248 973d 94f8 a2bd edef 663e 27a9 e63e
000002d0: b069 d33d 393a 9cbe df78 5b3d a00b 51bc
000002e0: 7a5f c6be 9eeb 723c a438 6b3e cb63 113e
000002f0: ce7f d0bd b4aa 853e f0f8 eebe 9ffe 433e
00000300: e70d 083e cfcb 63be 4a39 563d ebc5 15be
00000310: 9ec4 ab3d cb49 f63d a70c 0ebe 864c a2be
00000320: 8dc5 e5bd a767 dfbb 2207 85be 658b ea3d
00000330: e93e eebe 27c5 803f be8c db3d 358d 28be
00000340: f218 2e3e 3bf5 5b3e cea3 833d 0513 d0bd
00000350: fd0c 463c 379e 2ebb c667 843e d132 1ebe
00000360: ba8b 27be 72da ec3d 0dbc c1be baa5 003e
00000370: 4e38 e4bd 3a18 673e 3e40 84bf d0fe 443d
00000380: 5bc8 8a3e 0a92 bdbe 60db 903d 415b b2be
00000390: ae41 11be 91fe d23c 9348 1a3e ee28 d3be
000003a0: 3ccd 6a3e 94a4 973e 8bee a83d 4312 283d
000003b0: 0c89 78bd 032a 3c3e e231 2dbe bae5 a8bd
000003c0: 0c13 e73e 255f b43e d148 273f 8035 c93e
000003d0: 6b04 b93e 15cb d03d 1449 42bf 5d59 3a3e
000003e0: fb3e 803e 4d9c fb3d cab2 f73d f451 86bc
000003f0: 21fe 4bbe 6517 78be 0184 973d 2a0e 08bd
0.48047906 -0.5866695 -0.11981654 0.34960353 -0.04540393 0.024508106 0.0034299297 -0.09969771
0.06707917 0.026282616 0.24932988 0.13370551 -0.21907255 0.0047723106 0.34528872 -0.26722404
0.13287157 0.3200922 0.51189613 0.22168122 -0.41507602 0.28774592 -0.07962611 0.14548948
-0.13548425 -0.7033389 -0.04672511 0.47326845 -0.28037322 0.13743153 0.00046907974 0.0077179475
0.021089306 -0.06390482 -0.5940314 -0.15073349 -0.28863257 0.14014314 -0.061521433 0.3452633
0.26546028 -0.025293993 0.39352298 0.23199892 -0.23812482 -0.37003374 -0.06837483 0.08833071
0.1400589 -0.1360618 -0.29120559 0.11794534 -0.532441 0.6739815 -0.022280209 -0.12564471
0.06998709 -0.3611738 -0.14455155 -0.26165465 0.27777508 0.17502514 -0.30765662 -0.28599766
-0.15480426 0.016025579 0.06350612 -0.1212202 -0.44813254 0.7532188 -0.071752414 -0.1060384
0.07454718 -0.35901904 0.22440015 -0.044562805 0.50037223 -0.17373852 0.02295117 -0.3227638
0.20359656 -0.11137623 -0.36878997 -0.21640714 0.08513685 0.19565128 0.05415674 -0.09040413
0.25216907 -0.20960069 -0.026659066 -0.50106066 -0.25764796 0.14690459 -0.12836361 0.15214679
0.05686195 0.019822905 -0.007761324 0.42061278 0.18793611 -0.26121613 1.1469975 -0.77252597
-0.1580002 0.06751659 0.09019707 0.029692559 -0.12590842 -0.4469954 0.0256581 -0.037312467
0.29507986 -0.049313337 -0.17797811 0.042215075 0.25698617 -0.02655556 0.0986507 -0.23531112
0.018249657 0.34699833 -0.17057677 0.059421565 0.35312557 0.0973442 0.34345177 -0.39598396
0.38292626 -0.07196819 0.11600615 0.09572894 -0.024532193 0.36165598 -0.40941402 0.1623763
0.2455262 -1.2243304 0.15727335 0.16833392 -0.28423366 0.2652664 -0.0053653093 -0.08026675
0.25976562 0.36217728 0.06231937 0.015545405 -0.043176647 -0.32132015 0.15306841 0.1206752
-0.12734695 -0.7181111 0.56716156 0.16177645 0.081772715 0.34834078 0.484699 0.33599305
0.44621652 0.0059419316 -0.37647733 -0.22817467 0.26207626 -0.025535759 0.10365173 -0.047265183
-0.17110647 -0.21957278 0.060150526 0.5153809 0.10945658 -0.040152088 -0.10622804 -0.35950562
0.07386793 -0.07957569 0.22552462 0.45050928 0.10322893 -0.3051317 0.05358207 -0.012759119
-0.38744718 0.014826683 0.22970825 0.14198224 -0.10180627 0.261068 -0.466743 0.19140099
0.13286553 -0.22245716 0.05230073 -0.14626281 0.08387111 0.12025794 -0.13872014 -0.31699008
-0.112193204 -0.0068177762 -0.25982004 0.11452369 -0.46532372 1.0060166 0.10720204 -0.16460116
0.17001703 0.21480267 0.06427728 -0.10159878 0.012088058 -0.0026644596 0.25860423 -0.15449072
-0.16361895 0.11565103 -0.37838784 0.1256322 -0.11143552 0.22567835 -1.0332105 0.04809457
0.27105984 -0.3702548 0.070730925 -0.34835246 -0.14185211 0.025756152 0.15066747 -0.41242164
0.22929853 0.2961775 0.082486235 0.04103304 -0.060677573 0.18375401 -0.1691356 -0.08246942
0.4513172 0.3522884 0.65345484 0.3929863 0.36136183 0.10194985 -0.7589276 0.18198152
0.2504805 0.122856714 0.12094648 -0.0163965 -0.19921161 -0.24227674 0.073982246 -0.033216633

layers.0.bias f4 [128]
00000000: 2e5a a63d ea57 973e 1849 893d 1e33 f9bd
00000010: 6a26 043e e5f4 8fbd da78 f43b 3415 e93d
00000020: 4fe2 fdbd e212 2d3e 883d b6bd 513a ab3e
00000030: 9b43 583e 31ce 68be 6825 853e 552c 873e
00000040: 7ecb 053e 81fe 723b 5c6a 8d3e 2cc1 523d
00000050: 3622 81bd 68b3 51be d944 dfbd 0bd6 0d3e
00000060: ce31 d3bd 4ba3 573e 3cdf e43d 775e 943d
00000070: ed41 8a3e 5cb1 d93e 150c 21be 6cd5 4d3e
00000080: c62f 1bbd 54ee a03e 6d3d 373d 47cf 6fbe
00000090: 171a 853e f5a2 313d 095e a63e 69da 15bd
000000a0: 9a76 f33d 0816 043d e12e 37bd b932 353e
000000b0: 98ac c63e 8339 b4bd 9e98 f23e 7c57 e43d
000000c0: b8d7 da3d e894 6cbe daec 763d 1f5b 65bd
000000d0: 13b4 d2bc 11d6 003e 1494 a33e e0b6 35be
000000e0: 3c7b 053f b385 d4bd 5b12 8c3c 734d 58be
000000f0: 0657 993e 2f2b 3cbc 53bf bd3e e742 db3e
00000100: 1ddb 44bc 4e57 a73d fe1b 40be 1340 6fbe
00000110: 4670 173e 1990 5cbe 5fd3 d73b 9849 b63e
00000120: 4a49 ccbd d875 5c3e fbd8 ba3e de71 013e
00000130: d915 e83e 0995 943a 7adc 893e 7f2d 0c3d
00000140: 9feb 4d3e d02a d33d 4fcd 783d fca7 53be
00000150: 6a0c c4bd fa9a c2be 7936 0a3e 15fd 953e
00000160: a497 f0bd 6239 9b3e 0751 023f 2eb5 81be
00000170: 2da6 e73e 64fe d43e 63d3 713e bdd2 69be
00000180: e828 743e 911d 8e3d 911b bb3e 21e3 223f
00000190: c757 26bd b09a e9bd 46bc 213f 8169 a33d
000001a0: ebd3 71be fc16 02be efe2 e4bd 24f3 703d
000001b0: 0437 b53d 81bb 583e fa3c 673e 022f 6bbd
000001c0: 77f9 e23d b525 713e 5935 5a3e a5e0 2f3e
000001d0: 7f04 1dbe db79 c7bd 67f4 9abc c376 9bbe
000001e0: 3392 bc3d 9333 1ebe b9c4 1c3f 5514 b2bd
000001f0: 61c5 2bbd 4322 203e f96c ca3e 560f 873e
0.08122669 0.2955926 0.06703395 -0.12167953 0.12905279 -0.07029132 0.0074606957 0.11380997
-0.123966806 0.16901734 -0.08898455 0.3344293 0.2111954 -0.22734906 0.260051 0.2640101
0.13065907 0.0037077966 0.27620208 0.051453754 -0.06305353 -0.20478594 -0.109018035 0.13851182
-0.10312234 0.21058385 0.11175391 0.0724458 0.27003422 0.42518127 -0.15727265 0.20100945
-0.037887357 0.3143183 0.044736315 -0.23418914 0.25996467 0.0433683 0.32493618 -0.036585245
0.11887856 0.032247573 -0.04472244 0.1769513 0.38803554 -0.08800032 0.47382063 0.11149499
0.10685676 -0.23103678 0.060284473 -0.055995103 -0.025720632 0.1258166 0.31948912 -0.17745543
0.52141166 -0.103770636 0.017098596 -0.21123295 0.29949206 -0.011484905 0.3706003 0.4282448
-0.012015131 0.08170949 -0.18760678 -0.23364286 0.14788923 -0.21539344 0.0065864767 0.35603023
-0.09974916 0.21529329 0.36493668 0.12641093 0.45329168 0.001133592 0.26926023 0.034223076
0.20109414 0.103109 0.060742673 -0.2066955 -0.0957268 -0.38008863 0.13497342 0.2929465
-0.11747673 0.30317217 0.5090489 -0.25333542 0.4524397 0.41600335 0.23615794 -0.22834297
0.2384373 0.06939233 0.3654447 0.6362782 -0.040611055 -0.114064574 0.6317791 0.07979108
-0.23615997 -0.1270408 -0.11176097 0.058825627 0.08848384 0.21165277 0.22581854 -0.057417877
0.11082738 0.2354954 0.21309413 0.17175539 -0.15333746 -0.09740039 -0.018915368 -0.30364046
0.09207573 -0.15449362 0.61237675 -0.08695284 -0.041936282 0.1563807 0.39536265 0.26378888

layers.1.weight f4 [128, 128]
00000000: be1e ea3d 6f01 35be 75be 563d 99af b13d
00000010: 14d2 d1bd 7f72 debd 6121 3f3e 805c 2fba
00000020: 209b 0e3d a54b 91bb 179d 0cbe 5d77 103b
00000030: 8ccb 35be ec30 fc3d ca32 b63a 3882 1b3d
00000040: 16e6 d9bd 37b3 3cbd b266 003d ec45 df3d
00000050: a06c d43d b811 27be f843 89bd 3bf6 a4bd
00000060: 2eb0 bb3d 62d0 3abe 86f7 6b3d 6c14 dabd
00000070: bb08 223d 5a40 24bd d784 65be 93c6 a33d
00000080: f3c4 ffbd c252 de3d 8555 773c af00 a0b9
00000090: bc6c c63d b2f8 cd3d 297a 15bd 5845 5abd
000000a0: 2946 0ebe 66a0 7a3d 3f8a 78be c134 5dbc
000000b0: 4683 ab3d 9afe 873d dc4f d03d e31b 9dbd
000000c0: 42fa b43c f31c df3c cd3e c83c f9fa d33b
000000d0: 17db a0bd 6aff a13d db93 723d 7182 863a
000000e0: 72d8 0c3e e286 fb3d b355 c93d 5d08 8c3d
000000f0: 1652 07bd 3262 00be be01 fb3d ba7d 2e3d
00000100: 0956 d9bd 3c95 a9be 23ef 0e3d 56ff c7be
00000110: 6599 593d 1c0c 06be f8ec 40bd ea97 953d
00000120: 2eeb bd3c 3fdf 353e 0066 76bd 62ea c7bd
00000130: 1e3d 47bc c301 1bbd 536d 0ebd 9fe8 663d
00000140: e3ff 263d 2b21 0e3d b2d1 ffbc 7c8b eabd
00000150: 607c 013e a1fa ab3d 0d81 ca3d 98e4 9d3c
00000160: b9a6 a43c f671 14bc 3f2d fd3d 2b56 c63d
00000170: 9667 253e 500a 3d3d 88c6 9bbd 2376 0c3c
00000180: bd63 c33d 05d8 893d ab61 163e ba66 8e3e
00000190: 9da4 f73d 993b 373d fbc4 083e 3c6b 7e3b
000001a0: 5fca 683d c1b3 653c ed66 a53c c628 323d
000001b0: d657 6c3d dce4 863d 2c30 4f3d 0e46 e83d
000001c0: cde1 9c3b 0504 843c 95f0 063e c1f5 3dbe
000001d0: 2323 c7bd aeb0 13be aaa4 36bd e074 fabd
000001e0: 3aaa 02be 8b33 15be b851 283e ee9f fcbd
000001f0: a87e 8bbd 0832 2f3d 51bb 363e 8eba e43d
00000200: 07ad e6bd 25a5 fbbd 2277 a23d 53f8 4c3e
00000210: 6c98 28be 1fb7 c03a fdab 0c3e 5150 01be
00000220: 78ed a1bc 62ca b6bd 643e 29be 2483 78bd
00000230: 2d30 a93d 6f9e c3bd c22a 8abc e3df febd
00000240: 3c38 c0bd 64be 0fbd be55 0bbe d88e 6ebd
00000250: ac7b 1abe ed0b cd3e 3a55 693d b8de d03d
00000260: 65ee 0cbe 53a8 aebc 9a54 6cbc 9f69 f13c
00000270: 07cf 7f3c 335b dabd 3b9a d83d 7aa1 34be
00000280: 6fc7 a4be 73ee 72be 2b55 b6bc afe8 87bd
00000290: 5198 1b3c a402 70bd 674c 8bbc 6a98 343e
000002a0: 5cf2 49bd 7b64 d03d d5fd 493e 6688 60be
000002b0: f03e 1fbe ba06 fabd 711b e9be 4562 e5bc
000002c0: 88eb dd3d b6f6 35bc 08d6 24bd b81c aa3d
000002d0: fc4d 0d3e 5b24 eabb 49f3 84be 5724 86bc
000002e0: cb53 2f3e fc2a 6bbe bed7 87be a126 39be
000002f0: ec30 03bd b13a 83bd 280b fcbe 4fa2 05be
00000300: 8183 853e ccc0 1f3e 6408 cb3d a8f7 db3d
00000310: 2b19 e23d 1538 8ebd ece6 a03d d75a 62be
00000320: 6ffa 853d 6f8f f83d a9f3 693e 7c24 ee3d
00000330: b179 33bd 0110 57bd 787b 50bd ee34 563d
00000340: fa92 73be b9d0 bcbd 2aa6 6abd 1af6 2dba
00000350: 7584 3abe c8f8 10be c305 3abe f8c6 283d
00000360: 1c72 56bd 5b58 7d3d cfe5 72be bd09 3a3e
00000370: 7c64 42be 0ac6 47bd 7268 233e 1288 d93c
00000380: d447 283c 1fac bdbd 43ab afbc eef8 143e
00000390: d882 31bd 8f67 4b3c 2dde 0bbc 06d7 093e
000003a0: bee3 3cbe bd61 fbbd 353c 77bd b391 0e3e
000003b0: 99b3 07be bb26 743d 0dba eb3d de31 873c
000003c0: 5813 c8bd c741 91bd 78f6 e43d 6839 c43d
000003d0: f1e0 083e 8c0d 6cbe 3f7e 8abd dfb2 c13d
000003e0: 5f83 2e3e 7111 4b3d 94af 0ebe 92f1 9cbd
000003f0: 071b 363e 2b8b 8a3c 5db6 2d3e f3d1 ee3b
0.11431645 -0.17676328 0.052427728 0.08676071 -0.10245147 -0.10861682 0.18665077 -0.0006689504
0.034815907 -0.0044340664 -0.137318 0.0022043802 -0.17753428 0.123140186 0.0013900634 0.037965983
-0.106395885 -0.04606935 0.031347938 0.109020084 0.10372281 -0.16315353 -0.06702417 -0.08054777
0.09164463 -0.18243554 0.057609104 -0.106484264 0.039559107 -0.040100433 -0.22413956 0.079968594
-0.12488737 0.108556286 0.015096073 -0.00030518087 0.09688708 0.100572005 -0.036493454 -0.053288788
-0.13893951 0.061188124 -0.24271487 -0.013501347 0.08374648 0.06640358 0.10171482 -0.076713346
0.022091988 0.027235484 0.024444008 0.0064691273 -0.07854288 0.079100445 0.059223037 0.0010262263
0.13754442 0.12281586 0.09830799 0.06837533 -0.033037268 -0.12537459 0.12256192 0.04260037
-0.10612113 -0.3312167 0.034896027 -0.39061993 0.053124804 -0.13090557 -0.04710099 0.07304366
0.023183431 0.17760943 -0.06015587 -0.09761502 -0.012160568 -0.037843477 -0.03477223 0.05637419
0.040771376 0.0346996 -0.03122792 -0.11452386 0.12645102 0.08397413 0.09887896 0.019274041
0.02009903 -0.0090603735 0.12362146 0.09684404 0.16152796 0.046152413 -0.07606226 0.008573088
0.09540508 0.067306556 0.14685695 0.2781275 0.12091944 0.04473457 0.13356392 0.003882124
0.05683362 0.014019907 0.02019068 0.043495916 0.057700954 0.0658662 0.05058305 0.11341487
0.0047876597 0.016115198 0.13177712 -0.18550779 -0.09723499 -0.14422867 -0.04459063 -0.122293234
-0.12760249 -0.14570443 0.16437423 -0.12335192 -0.06811267 0.042772323 0.17844893 0.11168395
-0.11263471 -0.12287358 0.07932879 0.20016603 -0.16464394 0.0014703012 0.13737483 -0.12628295
-0.019766554 -0.0892532 -0.16527706 -0.06067194 0.08261142 -0.09551703 -0.016866092 -0.12445047
-0.09385726 -0.03509368 -0.13606927 -0.058241695 -0.1508624 0.4004816 0.056966044 0.1019873
-0.13762815 -0.021320498 -0.014424467 0.02946931 0.015613324 -0.10661926 0.10576292 -0.17639723
-0.32183406 -0.23723774 -0.022257408 -0.06636178 0.009496764 -0.05859627 -0.017004205 0.17636266
-0.049303398 0.10175415 0.19725735 -0.21927032 -0.15551353 -0.12208314 -0.4552875 -0.02800096
0.1083594 -0.011106184 -0.04024318 0.08306259 0.1379928 -0.007145447 -0.25966862 -0.01637475
0.17121808 -0.22965616 -0.26531786 -0.18081142 -0.032029077 -0.06407679 -0.49227262 -0.13050197
0.26076892 0.1560089 0.0991371 0.10740596 0.11039957 -0.069442905 0.07856545 -0.22104965
0.06541907 0.12136733 0.22846855 0.116280526 -0.043817226 -0.052505497 -0.050899 0.05229657
-0.23786536 -0.09219498 -0.057287373 -0.0006636098 -0.18214591 -0.14157403 -0.1816626 0.041205376
-0.052354917 0.06185184 -0.23720478 0.18167777 -0.18983644 -0.04877285 0.15957811 0.026554141
0.010271031 -0.09261345 -0.021443969 0.14548084 -0.043337673 0.012414827 -0.008536858 0.13460931
-0.18446252 -0.122745015 -0.060360152 0.13922767 -0.13252105 0.05960725 0.11510096 0.01650327
-0.097693145 -0.07092624 0.11179823 0.09581262 0.13367058 -0.23052043 -0.06762361 0.09457945
0.17042302 0.04957718 -0.13934165 -0.076632634 0.17783748 0.016912064 0.16964097 0.0072882115

layers.1.bias f4 [128]
00000000: 263c 8c3e 0d48 06bd 095d 5a3e 64f4 79be
00000010: 951b dc3d 94c0 b6bd b767 bbbd 4dfd 893e
00000020: 640c 213e 732a 043d 5b7f 4cbe fd89 c1bd
00000030: f1c9 683d 338f 4c3e bd21 67bd aac0 aebd
00000040: 68ec da3d 0bd3 393c 799b 9a3d 211e 2e3e
00000050: 9b69 ae3d 2c51 03bd 5a2e e93c f783 3dbc
00000060: 6545 233e 2711 c1bc 1b82 7f3c aa4d 0bbd
00000070: 940a d73d da94 21bd e72b 8f3d a6b0 0d3e
00000080: dc49 4fbd 7511 f33d 84e5 e63c e789 c43b
00000090: 8ced 363c 6019 af3d 4f6b e13d bd0d 0f3b
000000a0: ce26 cabd 084c abbd eaa7 d03d 5003 433e
000000b0: 055b 283e ec14 5e3e c107 033e 91c0 79bb
000000c0: b333 51bc 600c dc3d 0180 463d 3608 66be
000000d0: d874 053e 8900 3abe a729 353d 71cd 02be
000000e0: bfb2 03be 1fea 023d 5340 9b3d 36f5 d23c
000000f0: e828 98bd 744c f73d d6e0 b0bd 2b58 933d
00000100: d394 89be 778c d93d 5de0 423e 73cd 33bd
00000110: 13a0 abbd d843 093d dcc9 2f3e 3d9a 3ebe
00000120: 3c99 87be bae3 813e 6c67 303e ff78 6bbd
00000130: 73e0 113c c3ec b73d bb95 f5bc 6169 6e3e
00000140: 0533 af3d 790a 6ebd 674c 433e 3ff3 50be
00000150: 65e4 8c3d c34e 533e e69e bf3c dcbd ea3c
00000160: fbf1 8cbd cf83 523e 39a3 22bd f324 703e
00000170: 5322 923c 5d5c ab3b a8d1 a3bc 2381 023e
00000180: 8c11 213d 7b78 983d 7cd3 133d 3637 883d
00000190: 1c08 273d 749c bc3c 416b 303e 6616 153e
000001a0: 8a83 fc3b 119b 0d3d c52d febd ca38 3cbe
000001b0: c9fc e93d 63cf 84bc 7a88 2a3e 61d2 90bd
000001c0: a07d 92bd 6a0c e0bd b229 21bd e4d8 19be
000001d0: 9b26 a13d 81f5 b43d f9b1 4bbd 75b0 183e
000001e0: 103c 023e aef0 7c3e cc3d bd3d 21eb 853d
000001f0: b3f9 2dbc bb81 5e3d 7d18 c23d e50c 20be
0.2738964 -0.032783557 0.21324553 -0.24409634 0.10747448 -0.0892345 -0.091506414 0.26951066
0.15727383 0.032267045 -0.19970457 -0.09450147 0.05683321 0.19976501 -0.05642866 -0.085328415
0.10689622 0.0113418205 0.07549185 0.17003681 0.085162364 -0.032059833 0.028464485 -0.011567107
0.1594444 -0.02356775 0.015594984 -0.034009613 0.105000645 -0.039448597 0.069907956 0.13836917
-0.050607547 0.11868564 0.028185613 0.0059978846 0.011165034 0.08549762 0.110067956 0.0021828257
-0.09870683 -0.08364111 0.10188277 0.19044232 0.16440971 0.21687669 0.12795927 -0.0038109163
-0.012768674 0.10744548 0.048461918 -0.2246407 0.13032854 -0.18164267 0.044229176 -0.12773682
-0.12861155 0.031961557 0.07580628 0.025751691 -0.07429677 0.12075129 -0.08636634 0.07194551
-0.26871356 0.10622495 0.190309 -0.043897104 -0.08380141 0.033511966 0.17166847 -0.18613525
-0.26484096 0.25369054 0.17226952 -0.057488438 0.0089036105 0.089807056 -0.029978624 0.23282386
0.08554653 -0.058115456 0.19072114 -0.20405291 0.068795 0.20635514 0.023391198 0.028654985
-0.068820916 0.20558093 -0.039706443 0.23451595 0.017838633 0.0052295164 -0.019997433 0.12744574
0.039323375 0.07444855 0.03609036 0.06651156 0.040779218 0.023023821 0.17228414 0.14559326
0.0077061104 0.03457171 -0.124110736 -0.18381038 0.11425168 -0.016212171 0.16653624 -0.070713766
-0.07152867 -0.10939868 -0.039346404 -0.15024143 0.078686915 0.08835889 -0.049730275 0.14911063
0.12718225 0.24701187 0.092403024 0.06538988 -0.010618615 0.05432294 0.09477327 -0.15629919
