HW9/9_gym-DDPG/results/DDPG_Pendulum-v1_1500-eps0.1-t32-l0.0001-s1.pth (torch, 176180 bytes, 12 tensors)

layers.0.weight f4 [128, 4]
000000 a6 ac a7 3e 05 41 13 bf 3f e8 6f be 62 b6 43 3e
       0.32748908 -0.57521087 -0.23428439 0.19112542
000010 23 b0 0c bf df 42 c2 3d 84 f7 32 be d6 9d 71 3e
       -0.54956263 0.09485411 -0.17477232 0.23595366
000020 cb 19 55 bd 9b 4a 3e bd 79 45 9b 3d 19 12 40 3c
       -0.05202655 -0.046457868 0.0758161 0.011723065
000030 76 b8 5c 3e de 4a 9f be 33 93 eb bb e8 62 34 bd
       0.21554741 -0.31111807 -0.0071891784 -0.044039637
000040 a4 1c fc 3c 66 b7 19 3e 9b ff ee 3e d6 e5 49 3e
       0.030775376 0.15011367 0.46679386 0.19716582
000050 33 be 70 be 89 b6 43 bf c0 ec 21 be bb 5a ea bd
       -0.23510055 -0.764504 -0.15812969 -0.11443087
000060 ac 58 d8 be 76 48 29 3e fe 5b c4 3e 41 0d 86 3e
       -0.4225515 0.16531548 0.38351434 0.26181987
000070 5d d2 13 bf 59 e8 b2 3e f1 9c 64 3d d3 be cf 3e
       -0.57742864 0.34942892 0.055813733 0.40575275
000080 f6 66 21 3f 93 ca 19 bf 65 29 13 bf aa d2 a8 be
       0.6304773 -0.6007473 -0.5748504 -0.32973224
000090 35 aa d5 3e f3 0e 98 be 28 cb 33 3e ce f6 be be
       0.4173142 -0.29698905 0.17557967 -0.37297672
0000a0 48 30 e9 3e 58 01 41 be 0a b3 d0 3e 58 bf 08 3d
       0.45544648 -0.18848169 0.40761596 0.033385605
0000b0 d8 e2 b0 be 82 b5 e0 3d 1a 92 a4 be 48 e3 f4 3d
       -0.34548068 0.1097212 -0.32142717 0.11957413
0000c0 c6 fc 54 be 36 af 2d be a2 48 e7 be 91 49 a8 be
       -0.2079955 -0.16961369 -0.45172602 -0.32868627
0000d0 be ef 9d 3e 09 c9 a1 bc 94 93 01 3f 94 34 c1 3e
       0.3084697 -0.019749181 0.5061581 0.37735426
0000e0 56 d5 22 be f7 f8 a9 be e5 0a b6 3e c7 7d d9 3d
       -0.15901694 -0.33197758 0.35555187 0.10619693
0000f0 56 92 e5 be 1b 87 1e 3f 70 88 60 3e 28 8e ae 3e
       -0.44838208 0.61924905 0.21927047 0.34092832
000100 e4 0e c4 be 11 54 18 be 29 ab b7 3c 49 26 70 3b
       -0.3829261 -0.14875819 0.022420483 0.0036643913
000110 29 f9 2c bf aa 87 45 be 64 40 9c 3e 99 c8 1b be
       -0.6756769 -0.19290033 0.30517876 -0.1521324
000120 9f f1 57 3e c2 a7 ec 3e 3a c3 31 3e 42 f9 79 3a
       0.21088265 0.4622174 0.1735963 0.00095357385
000130 0f 37 5f bd 87 21 36 3e b9 5f 04 bf 32 b5 8a 3e
       -0.054495867 0.17786227 -0.5170856 0.27091366
000140 9e e2 c7 be 41 75 d9 be e6 e8 d8 3c 4d 01 16 be
       -0.39040083 -0.4247227 0.026478242 -0.14648934
000150 8c 73 a0 3e 79 0c 58 bf 7c 63 d5 be 6a bd 8a 3e
       0.31338155 -0.8439403 -0.41677463 0.27097636
000160 7f 4e b4 bd 6f 0b 20 3f 3b fd 34 3e ac 30 46 be
       -0.088040344 0.62517446 0.17674725 -0.19354504
000170 10 45 56 3c 33 d0 58 3e 40 a4 ba be 2a 44 19 be
       0.013077989 0.21173172 -0.36453438 -0.14967409
000180 90 93 9d 3d 89 c5 4d 3d df f1 6e be 8d b8 09 be
       0.07694161 0.050237212 -0.23334454 -0.13449307
000190 1d 80 02 3f 60 25 1e bd 2d 40 9f 3e 6d c8 a6 3d
       0.50976735 -0.038609862 0.3110365 0.08143697
0001a0 67 cf ff be b4 ac e0 be cf ba 0c 3f 5f e5 4a 3d
       -0.49962923 -0.43881762 0.5497255 0.04953515
0001b0 7d 8b 9b 3e cc 6c 39 3e ab 00 fa 3d fe 52 a5 3e
       0.3037986 0.18107909 0.12207159 0.3228988
0001c0 03 ba c8 3e d4 3e 0f bf 8e 1b 16 3e 6c 61 4f 3e
       0.39204416 -0.55955243 0.14658949 0.20252007
0001d0 13 77 c0 3e 72 cd de 3e fc 2f d7 be 78 3c c1 be
       0.37590846 0.43516117 -0.42028797 -0.37741446
0001e0 33 a7 d8 be 2c 13 c0 3e 25 78 0b 3f e1 9e db be
       -0.42315063 0.37514627 0.544802 -0.42894652
0001f0 5b e8 ac 3e de 90 67 bf e9 6e f4 be dd bd 86 bd
       0.33771023 -0.90455425 -0.47740868 -0.06579182
000200 89 21 c7 3d 02 13 fd 3e 08 13 d6 be 1b e4 b8 3d
       0.09723193 0.49428564 -0.41811395 0.09027883
000210 8d 90 34 3f c5 30 65 3f a8 38 90 3e 4f 4a 6a 3e
       0.70533067 0.8952754 0.28168225 0.22879909
000220 fc 84 e4 3e 3d 65 86 3d e7 24 b4 be ae ca d8 be
       0.4463271 0.065622784 -0.35184404 -0.42342132
000230 5e dd b3 be 77 94 92 be c2 28 7c be 00 82 28 3e
       -0.35129827 -0.28628895 -0.24624923 0.16455841
000240 26 4d 54 bc 66 37 40 be 11 49 85 3e d5 35 40 3e
       -0.012957847 -0.18771133 0.26032308 0.18770535
000250 af 04 85 3e 0d 59 2f 3f c8 9b 48 be 66 b9 ec 3e
       0.25980136 0.68495256 -0.19590676 0.46235198
000260 7a 35 45 be 6c 32 c4 be c8 6c f3 be 8d f8 53 be
       -0.19258681 -0.3831972 -0.4754393 -0.20700283
000270 bd 3b 02 bf 4b 72 8c bd a9 26 d4 3e d9 77 85 be
       -0.50872403 -0.06857737 0.41435745 -0.26068
000280 b8 2e e1 be 2f fb 80 3e 1b 98 c7 3d b1 41 42 3e
       -0.43980956 0.25191638 0.09745809 0.18970372
000290 7d ad 06 bf 2b e7 8e be 4a f0 4e be 7f fd bf bb
       -0.5260847 -0.27910742 -0.2020885 -0.0058590765
0002a0 95 ae 01 bf f2 f6 f8 be 02 43 29 bd a4 97 15 3e
       -0.50657016 -0.48625904 -0.04132367 0.14608628
0002b0 c7 5a f1 3c 2f 23 13 3f 61 45 e6 3e 66 59 a8 3e
       0.029462231 0.5747556 0.44974807 0.32880706
0002c0 98 63 9d 3e e6 3d 98 bd b3 12 95 be d9 6e 02 3f
       0.30740047 -0.07433681 -0.2911583 0.5095039
0002d0 45 e3 b3 bd 39 66 25 bf 31 ff d4 be 7f b2 c6 bd
       -0.087835826 -0.64609104 -0.41600946 -0.09702014
0002e0 3d 5f 2c bf 7e 6b ac 3e 9b 98 02 bf d4 90 92 be
       -0.6733282 0.3367576 -0.5101411 -0.2862612
0002f0 fc c8 05 be 33 b9 88 be 5c 05 41 3e d5 31 78 be
       -0.1306495 -0.26703796 0.188497 -0.2423776
000300 8f 0f c7 be 18 92 fe 3d 3f de 99 3e c6 e1 e7 be
       -0.38879058 0.12430209 0.30052373 -0.4528944
000310 75 66 92 3e a7 a0 d1 3e 86 e9 00 3f 6d c7 ea be
       0.28593794 0.4094288 0.5035633 -0.45855275
000320 9b 08 8a 3d 7e 0e e0 be 9b 9a d9 3e ef 34 ae be
       0.067399226 -0.43761057 0.42500767 -0.3402476
000330 3c 27 68 3f ef 5f ec bd a5 40 2d be 58 f2 85 bd
       0.90684867 -0.115417354 -0.16919191 -0.06540364
000340 9a 8d ff bb ef d3 13 3f 71 f0 bb 3d 99 26 07 3d
       -0.0077988626 0.5774526 0.0917672 0.032995794
000350 f6 ae 06 bf e1 a9 22 3f 1d 95 d4 3e ff 9a a7 3e
       -0.5261072 0.63540465 0.41520014 0.3273544
000360 01 4d b2 3e c9 50 d3 be 17 8f 15 be 1d 9a 03 3f
       0.34824374 -0.41272572 -0.14605366 0.51407033
000370 f0 cc f9 be e1 21 ab 3e 6e 29 07 bf 28 ba 26 be
       -0.48789167 0.33424285 -0.5279759 -0.1628195
000380 b7 9a 84 3e b8 f7 1f bf 22 72 cb 3c 8f f3 87 3e
       0.25899288 -0.62487364 0.024834696 0.26553008
000390 5c 50 ee 3e f8 ac 09 3f 1c 1c 71 be b9 e7 a1 be
       0.46545684 0.53779554 -0.23545879 -0.31622103
0003a0 eb 0d 0d 3f b5 3c 52 be dc 05 66 be 06 48 d1 3d
       0.5509936 -0.2053097 -0.22463173 0.102188155
0003b0 ea c7 ce be e8 3e f2 3e 12 fa a4 3e e1 1f c3 be
       -0.40386897 0.4731362 0.32222039 -0.3811026
0003c0 b0 3a 07 bf e8 6a 0d 3f 90 98 6c 3e 34 6e f6 bd
       -0.52823925 0.5524125 0.23105073 -0.12032738
0003d0 f1 28 2b be c1 17 38 bf 3e d1 0e bf f3 2d 55 be
       -0.16714837 -0.71911246 -0.5578803 -0.2081831
0003e0 f0 08 b7 be 7c 5e 4f 3f 7e 48 c2 3e 93 ba 4f be
       -0.35749006 0.81003547 0.37945932 -0.20286016
0003f0 53 34 1e 3e cb 65 31 3f 91 d9 b8 3d f0 51 d2 bd
       0.15449648 0.6929595 0.090258725 -0.102695346

layers.0.bias f4 [128]
000000 c4 c2 9e be 83 c9 ec 3e 12 dc cd 3e 59 ab 01 bf
       -0.3100797 0.4624749 0.40206963 -0.5065208
000010 96 be e3 be d9 bd 05 be 07 91 0c be 6b c0 2b 3e
       -0.44481343 -0.13060702 -0.13727199 0.1677262
000020 5d d4 b5 be 59 77 c2 be 2d 5e 91 3e 3e 01 ab bd
       -0.35513583 -0.3798168 0.28392163 -0.08349846
000030 f4 c9 3f be 44 d9 f5 be 51 fd 97 3e b6 84 45 3e
       -0.18729383 -0.48017323 0.29685453 0.19288906
000040 55 40 1c be df 28 fc bd ff ef 33 3e 0a 6c b6 3e
       -0.15258916 -0.12312483 0.1757202 0.35629302
000050 ef 23 b4 3e d6 2c 69 3e a0 dd 16 3e c9 1f d8 be
       0.35183665 0.2277101 0.1473298 -0.4221175
000060 40 ed df 3e 44 f7 91 3d e8 01 93 be df 5e 0a 3f
       0.43735695 0.0712724 -0.28712392 0.5405101
000070 eb b5 c6 3e 71 14 95 be 7e b6 42 be 51 1c aa bd
       0.38810667 -0.29117158 -0.19014928 -0.08306182
000080 13 d2 12 be af 1b 96 3e 65 23 d5 be 16 37 14 3f
       -0.1433795 0.29317996 -0.41628566 0.57896554
000090 c4 bf 08 be e9 ae b4 3e 8f 4f 42 3e d8 8e 0f be
       -0.13354403 0.35289696 0.18975662 -0.14019334
0000a0 4a 41 f2 3e 77 2d 9b be 7a f2 dc bd 41 90 5b 3e
       0.47315437 -0.30308124 -0.10788436 0.21441747
0000b0 69 96 cc 3e 07 48 d9 bd 8d b6 03 be bb ec db be
       0.39958504 -0.10609441 -0.12862606 -0.4295405
0000c0 0f bb f2 bd db 90 49 be d0 5b ef bd 0a 87 8a be
       -0.11852085 -0.19684164 -0.11687434 -0.27056152
0000d0 86 b3 5f 3e ed 18 c3 3d 7e cf 6e be 77 51 74 be
       0.21845827 0.095262386 -0.2332134 -0.23859201
0000e0 54 f5 37 3e 7a 37 ae 3d 88 6e cf 3e bc c1 60 3d
       0.17964679 0.08506675 0.40514016 0.05487226
0000f0 4b 32 28 be d8 dd 2c be 08 51 f3 3c 01 46 af 3d
       -0.16425435 -0.16881502 0.029701725 0.08558274
000100 89 14 66 3e 66 b1 87 bd 15 9c 35 3e 5b 4f 82 bd
       0.22468771 -0.06625633 0.17735322 -0.06362792
000110 08 1e c3 3e 18 fe 8b 3e 3b 43 b0 bd b7 20 11 3f
       0.3810885 0.27342296 -0.08606573 0.56690544
000120 a7 fa 87 3e ae 9e 96 be 3c f0 28 be e1 63 d1 3e
       0.2655842 -0.29417938 -0.16497892 0.40896514
000130 eb 34 a1 3e a6 15 eb 3e 73 b2 8b 3d a5 fc e2 3e
       0.31485686 0.45914954 0.06821146 0.44333377
000140 9e 2d b7 3e 77 bf 80 3e 2e 28 03 bd df da f8 3e
       0.3577699 0.25146076 -0.03202074 0.48604485
000150 60 f3 82 3e 13 c4 e3 bc 7a 9f 21 3e f0 13 19 3f
       0.25576305 -0.027803456 0.15783492 0.5979605
000160 ed 20 de 3e 7d 66 1a 3e de 93 18 3f 94 9e b8 3e
       0.43384495 0.15078159 0.5960063 0.36058486
000170 f2 42 82 be 13 5a fa be f7 9b c4 3e 14 b1 0d 3f
       -0.254417 -0.48896846 0.38400242 0.55348325
000180 0a e3 35 be a7 7c a8 3e 80 95 a0 3c 46 03 4c bc
       -0.1776239 0.32907602 0.019602537 -0.012451952
000190 4b 27 45 bd 5f 43 95 3e 73 d2 29 3e 0d e3 f5 3e
       -0.048133176 0.29152963 0.16584186 0.48024788
0001a0 b4 43 94 3e ff 55 bb 3e f8 d0 1a 3f bf 76 a1 3e
       0.28957903 0.36589047 0.6047511 0.3153591
0001b0 fb 22 67 3e 4c 03 53 be 04 70 ff 3e 57 ce 0e 3e
       0.22571938 -0.20606726 0.4989015 0.139459
0001c0 fa fe d6 3e cc 3a 00 3f f0 39 20 3c ee 2e b6 3e
       0.41991407 0.50089717 0.009779438 0.3558268
0001d0 9d c4 93 3d 31 ee 0f 3f cd 0c f8 3e ce f3 87 bd
       0.072152354 0.56222826 0.48447266 -0.06638299
0001e0 09 69 ea 3d 5c e1 2e be 0a 73 1a be d2 40 1a 3c
       0.11445815 -0.17078155 -0.15082946 0.009414868
0001f0 76 f1 a3 3d 2a fd 44 bb f8 89 9f be 9a 8d 6a be
       0.080050394 -0.0030058124 -0.3115995 -0.22905579

layers.1.weight f4 [128, 128]
000000 b8 56 e0 3d 67 6a 43 3d 41 c1 21 3e 11 7b 67 3c
       0.1095404 0.047708895 0.15796377 0.014128462
000010 57 2e 50 3d aa cf 09 3e ba bf 9e bd b8 1d 01 3e
       0.050825443 0.13458124 -0.07751413 0.12608993
000020 24 27 00 bd 99 11 58 bd 2b 40 6d bd 8f dd 7b 3d
       -0.031287327 -0.052751157 -0.057922523 0.06149059
000030 e4 68 81 bd c1 9c 6a bd 8e 7c 0a 39 5e e3 c8 3b
       -0.063188344 -0.0572784 0.00013207106 0.00613062
000040 35 2f ba 3d ab a5 df 3d c9 7e 5f 3d 35 0f 3e 3d
       0.09091035 0.109202705 0.05456427 0.04640122
000050 4e 58 22 bb 09 12 ec 3d c2 24 29 3d 82 e1 da bd
       -0.0024771872 0.115268774 0.04129482 -0.106875435
000060 3f a2 fb 3d 11 22 6f bd 42 a4 a5 3d 2d 50 6a 3a
       0.12286805 -0.058382098 0.0808797 0.0008938339
000070 90 1f b4 bd a7 67 9f bd a8 16 85 3d b2 2d 21 3d
       -0.087950826 -0.07783442 0.06498462 0.03935022
000080 28 df f4 bd 13 5d 8a 3d c2 47 70 bc d1 fd f3 3d
       -0.11956626 0.06756034 -0.014665546 0.11913646
000090 04 bb a7 bd 69 04 22 bd 0a 70 cd 3d 41 56 75 bc
       -0.08189967 -0.039554987 0.100311354 -0.014974178
0000a0 2e d5 11 3e ea 2b e3 3c f0 fb dc 3b ff a4 76 bc
       0.14241478 0.0277309 0.0067439005 -0.015053987
0000b0 c3 8d 12 3d 32 5f 2d bd f5 e6 21 3d 8b 1d e4 bd
       0.035779726 -0.042327113 0.0395269 -0.111384474
0000c0 8b ef a4 bc 6c 14 31 bd ed 58 31 3d 4b 85 3d be
       -0.020133754 -0.043232366 0.043297697 -0.18507878
0000d0 6d 9a 1a 3d af 8d f3 3c 8c b5 8b bd e4 76 87 bd
       0.03774493 0.029730646 -0.06821737 -0.066144735
0000e0 07 ef 7e 3d f0 95 10 bd 8b f8 95 3d e9 68 e9 3d
       0.062239673 -0.03529924 0.073227964 0.11396963
0000f0 a1 4c a3 bc f5 52 08 bd 45 22 e1 3c 21 cd ef 3d
       -0.019934 -0.03328224 0.027482161 0.11709047
000100 5e 7b ce bd a8 71 64 bd 40 a7 83 3d ef 11 8e 3d
       -0.10082124 -0.055772454 0.06428385 0.06937014
000110 b9 c2 fa 3d 0a ed e8 3c 36 65 d8 3c 66 15 66 3d
       0.12244172 0.028433342 0.026415449 0.05617275
000120 ba 08 16 3e ce 26 87 bd 7c c8 46 bd 0d 09 ca 3d
       0.14651766 -0.06599198 -0.04853104 0.098650075
000130 c5 25 09 3d 86 40 0b 3e 72 70 6e 3d b6 5a 4c 3d
       0.033483285 0.13598832 0.058212705 0.049891196
000140 bb ce 27 3e fc 19 d7 3d 70 7b 81 3d ac b2 ca bc
       0.16387455 0.10503003 0.06322372 -0.0247434
000150 38 e8 f2 3d 55 0a e0 3d 17 59 cd 3d 46 b7 4a 3d
       0.118606985 0.10939471 0.10026758 0.04949119
000160 58 d5 9c 3d 99 3e 99 bc c7 4e 27 3e bf 1a e1 3d
       0.076578796 -0.018706607 0.16338645 0.109914295
000170 cf e1 73 bc b5 56 23 be b6 77 23 3e 53 bd fb 3d
       -0.01488538 -0.15951045 0.15963635 0.1229197
000180 47 c8 f3 3d ee 48 1a 3c 44 4d 19 3d d6 1e 0a bd
       0.11903434 0.009416802 0.037427202 -0.033720814
000190 53 ea 46 bd 53 da 43 3d b9 72 f8 3c 99 ce c4 3d
       -0.048563313 0.047815632 0.030328142 0.09609718
0001a0 81 a6 cd bb 13 8a e5 3d 0f 31 11 3e 75 1f 28 3e
       -0.0062759523 0.11207976 0.1417887 0.1641825
0001b0 61 eb e4 3d 15 8f 89 3b a2 ce f0 3d f1 0a ad 3d
       0.111777075 0.004197965 0.11758162 0.084493525
0001c0 d9 d8 07 3e 66 22 3e bd 7b 7d 81 3c a9 fb e1 3d
       0.13266315 -0.046419524 0.015806904 0.110343285
0001d0 ee 88 a2 3d 53 82 2c 3e 3d 3c da 3b 2d 62 19 3d
       0.079362735 0.1684659 0.006660013 0.037447143
0001e0 15 b7 fa bd bc 01 33 bd 89 bd 08 3e 2c 28 e6 bd
       -0.122419514 -0.043702826 0.13353552 -0.11238131
0001f0 a3 3a f0 ba 79 9f 95 3d ef cf 1a bd 20 4b 2a 3d
       -0.0018328022 0.073058076 -0.037795957 0.04157555
000200 16 5c 25 3b 82 45 d0 3d 51 72 25 3c 51 f7 30 be
       0.002523189 0.101695076 0.010098056 -0.17281844
000210 b7 9b 38 be 10 97 00 3e 06 09 96 3d 0e b5 7d 3b
       -0.1802815 0.12557626 0.0732594 0.0038712653
000220 fd b5 a6 bc ae 13 a1 be 7d 3f a4 bd 55 d7 9a bc
       -0.02035045 -0.31460327 -0.08019922 -0.018901506
000230 5f 4f b7 bd b9 ec cb bd 9a 4c 1f 3d 22 f7 3a 3d
       -0.08950686 -0.09957261 0.038891412 0.04564584
000240 c2 fd b3 3d 25 87 f5 3c ef b0 f9 bd eb d0 a0 bd
       0.08788635 0.029971668 -0.121919505 -0.07852348
000250 ba 9d 50 3e 84 41 5c 3d c5 44 de bd fd 95 15 be
       0.20372668 0.053773418 -0.108529605 -0.14607997
000260 66 5f 89 3d 2c f9 2b bd 9a 89 d0 3d b1 62 15 3d
       0.06707649 -0.041985676 0.101824954 0.036471073
000270 1d 78 70 3d c0 2e 2b be d8 0f 6a 3c 8d 7c 1b bd
       0.0587083 -0.16717052 0.014286004 -0.037960578
000280 5f 5b e8 bd e8 18 ba bd 7d fe d8 bd d7 39 32 3e
       -0.11345553 -0.09086782 -0.10595415 0.17404877
000290 42 bc d8 bd ce 9c 36 bd 1c 14 0a 3d 33 32 fa 3d
       -0.10582782 -0.044583134 0.033710584 0.12216606
0002a0 e3 c8 83 bc d2 b2 cf bd 82 a8 d1 3d b7 08 ac bd
       -0.016087001 -0.10141529 0.102372184 -0.084001
0002b0 91 54 17 3d 5b ba 80 bc de c8 62 bd dd cc bd 3b
       0.036945883 -0.015713861 -0.055367343 0.005792244
0002c0 c6 4d bc 3d 19 2a 8f bc 8e bf 15 3d 7f f3 70 3e
       0.091945216 -0.017476128 0.036559634 0.23530386
0002d0 a5 e0 aa 3d 35 e0 d7 3d f5 f5 9e bd 63 05 dc 3c
       0.08343629 0.10540811 -0.07761756 0.026858037
0002e0 fd c9 ee b9 33 0d 30 be 60 47 7a 3b 17 b5 5a 3b
       -0.0004554539 -0.17192535 0.0038189515 0.0033372098
0002f0 32 bb 89 3c b4 b3 82 bd c8 dc 55 3d ae e5 c6 ba
       0.016812894 -0.06381932 0.052212507 -0.0015174651
000300 89 3c c7 be 99 e4 15 be ec 80 cd 3d b7 6a 60 bc
       -0.38913372 -0.14637984 0.100343555 -0.013697318
000310 aa b9 c9 3d 43 42 59 3c ec b3 f4 bc af 9a 15 3e
       0.09849866 0.013260427 -0.02987095 0.14609788
000320 a1 b0 f3 3d 44 45 8b be 6a f6 dd bd 48 91 cd 3d
       0.11898924 -0.27201283 -0.108380154 0.10037476
000330 91 dc c5 3d bc c6 55 bc a7 29 9c 3c a1 3b 6a 3d
       0.0966121 -0.01304787 0.01906283 0.057185773
000340 96 c9 c7 3d 0a b6 ba 3d 99 3d dd bc 5d d9 7b 3d
       0.09755246 0.091167524 -0.027006911 0.06148659
000350 21 0c 2d 3d 38 7d 32 3d d1 83 cd 3c bf da e9 3d
       0.042247895 0.04357645 0.025087269 0.11418676
000360 b8 8b 4e bc 82 44 64 be 1c 9c 2b 3d c2 b5 bd bd
       -0.012606554 -0.22291759 0.041896924 -0.09263183
000370 14 fa 2a 3c 69 5e f4 bd 52 63 0c 3c 84 fa 17 3e
       0.0104356 -0.1193207 0.008568602 0.14841658
000380 6c 4b 1a bc d3 69 fc 3d d8 3b 2c bd 65 0e 30 be
       -0.009417396 0.12324872 -0.04204926 -0.17192991
000390 80 0f 50 3d 94 8d 2a 3e 09 ed d1 bd bf 09 8b 3d
       0.050796032 0.1665557 -0.10250289 0.06788968
0003a0 aa a0 65 3d ab ce 4f 3d bf bf 8f 3d 8f 6d c5 3d
       0.056061424 0.050734203 0.070189945 0.09640037
0003b0 c2 7d 80 bd dd 85 50 be 98 23 67 bc 8c cb b6 bd
       -0.062739864 -0.20363565 -0.014107607 -0.08925542
0003c0 46 44 98 3d 2a 60 a7 bd b7 1f f0 3d 9d 65 c6 3d
       0.07434897 -0.08172639 0.11724799 0.0968735
0003d0 d4 3a b4 3c 2d a0 7e 3d 89 74 f2 bb 09 4a 0e 3e
       0.022000708 0.062164474 -0.007399146 0.1389543
0003e0 82 1f 50 bd 98 ec e9 3c 08 6a 02 be 46 d9 97 3c
       -0.0508113 0.0285552 -0.1273576 0.018536221
0003f0 42 3c 70 3d 97 56 bf 3d ed bc d3 bd 24 38 4b bd
       0.058651216 0.093426876 -0.10338769 -0.049614087

layers.1.bias f4 [128]
000000 8b 47 0f 3e d9 e4 24 3d 40 1d 8a 3d 1b 70 b1 3c
       0.13992135 0.04025731 0.0674386 0.021659901
000010 53 bf 66 bd 34 1d 03 3d 22 09 b6 3c 35 9f a6 bb
       -0.056334805 0.032010272 0.022221152 -0.005084897
000020 11 4e 10 3e 3e f4 d7 3d 83 25 e7 3a 44 a2 0e 3d
       0.1409228 0.105446324 0.0017635081 0.034822717
000030 4d a7 2d 3d 4c 8f b2 3d e6 a9 b9 3d 32 83 b7 3d
       0.04239588 0.08718738 0.09065609 0.089605704
000040 ad ea 12 3e bf ee 33 3c 56 7a a6 bd c6 69 71 3d
       0.14347334 0.0109822145 -0.081288025 0.058938764
000050 3f e5 3b 3e b5 cb d6 3d f3 88 85 bd 34 97 1b 3e
       0.18349169 0.10488073 -0.065202616 0.15194398
000060 3f 03 c7 3d b3 11 9c 3d b8 87 4b 3d 77 c8 69 3d
       0.09717416 0.07620563 0.04968998 0.057075944
000070 74 11 d0 3d 28 92 09 3e 0c cd 83 3d 3f ef 54 bd
       0.10159579 0.1343466 0.06435594 -0.051985975
000080 ac 95 db 3d 0d 65 1a 3e fc a5 96 3d cd 16 96 3d
       0.10721907 0.1507761 0.07355878 0.07328568
000090 eb b1 08 bd 12 1a dd 3d 42 fb 5f bd 6f 63 2a 3e
       -0.0333728 0.10795988 -0.054682977 0.16639493
0000a0 df 70 c1 3c d1 6b 8e 3d 35 cc 3a 3d 22 b8 d6 3c
       0.023613391 0.06954158 0.045604903 0.026210848
0000b0 16 f7 25 3c e7 4f 2f 3e ee 81 ba 3d b8 ec 14 3e
       0.010129711 0.17120324 0.09106813 0.14543426
0000c0 22 aa 21 3e bc 08 ab 3d 47 ac ce 3c 2e ba e1 3d
       0.15787557 0.08351275 0.025228633 0.11021839
0000d0 3d 4d 27 3e a8 50 dd 3d 0c 36 87 3c 33 23 2b 3e
       0.16338058 0.108063996 0.016505264 0.16712646
0000e0 29 d3 8f 3d be 20 33 3e 40 4d cf 3d d0 e2 b8 3c
       0.070226975 0.17492959 0.10122156 0.02256909
0000f0 50 f3 1a 3e b8 8c 98 bd 12 30 30 bc 78 d5 d6 3d
       0.15131879 -0.07448715 -0.010753648 0.10489935
000100 40 c6 31 3c ba 9a 96 3a 4e 3e 11 3e 6a 3d 01 3e
       0.010850489 0.0011490204 0.14183924 0.12621084
000110 d9 b8 29 3e 9d 90 13 3e bd 53 90 bd ff e5 1c 3e
       0.1657442 0.14410634 -0.07047222 0.15322112
000120 d4 d4 11 3d df 27 e0 3d 15 44 ce bc 0c 9d 28 3e
       0.03560336 0.10945105 -0.025178948 0.16466159
000130 b9 33 e6 3d 62 6e b3 bc 01 ad 95 3d 16 6d 45 bc
       0.11240334 -0.02190322 0.073083885 -0.012049934
000140 86 1b f1 3d 22 5c 8a 3d 59 76 1e 3e cb 35 7c 3c
       0.11772828 0.06755854 0.15474834 0.015393685
000150 27 e0 61 bd d7 dc 3a 3e ef bc 0e bd 23 33 37 3d
       -0.05514541 0.18248306 -0.03484815 0.044726502
000160 bc c7 18 3e f8 c0 0a 3d de 8c 10 3e b0 b1 30 3d
       0.14919943 0.033875436 0.14116237 0.043138206
000170 8d 80 eb 3d 4d 44 0e 3e 21 4b 89 3d 92 48 9d bd
       0.114991285 0.13893242 0.06703783 -0.07679857
000180 2d 42 0c 3e 1e fa 03 3e f0 98 bc 3c 4a 68 84 3d
       0.13697119 0.12888381 0.023022145 0.06465204
000190 78 d6 60 bd e1 f5 2f 3e 8e d3 cb 3d 71 78 6d 3d
       -0.054892033 0.17183639 0.0995246 0.05797619
0001a0 61 d3 e9 3c 44 a7 b8 3c 9d 3b de 3d 76 2b ef 3b
       0.028543176 0.022540696 0.10851214 0.007298882
0001b0 61 2b a4 3d f5 a4 81 bc 7d 93 bf 3c 2f 08 bd 3d
       0.08016086 -0.015825728 0.023385758 0.092300765
0001c0 e1 53 26 3e 60 12 0a 3e 94 ce 49 3b 32 95 88 3d
       0.16242935 0.13483572 0.0030793296 0.06669082
0001d0 f9 d5 59 3d 17 0a da 3d e0 19 00 3e c9 d9 8f 3d
       0.053182576 0.10646456 0.1250987 0.07023961
0001e0 87 25 ce bd 05 83 07 3c 80 d0 b7 3d f0 f4 2f 3e
       -0.100657515 0.008270984 0.08975315 0.1718328
0001f0 cf 01 07 3e e8 06 91 bc d0 8c 08 3e 89 6f 11 3e
       0.13184284 -0.017703488 0.13334966 0.14202704

layers.2.weight f4 [64, 128]
000000 2c c7 40 3c dc 90 54 3d 06 cd ab 3d 61 0d 1a 3d
       0.011766236 0.05189596 0.083887145 0.037610415
000010 9d 47 69 bd 09 e8 e6 3c 2d e1 a3 3b 09 43 99 3d
       -0.05695306 0.028186815 0.0050012083 0.07483489
000020 67 f7 4b 3d 43 eb 69 ba 3c a4 f5 3b 0c 7e 12 3d
       0.049796488 -0.00089233014 0.007496385 0.03576474
000030 64 53 b1 3d 62 64 45 3d 56 10 8a 3c 8a f7 40 3d
       0.086584836 0.048191436 0.016853493 0.04711107
000040 c2 9e 51 3d bb d2 77 3d 31 19 16 bc 63 c8 ee 3c
       0.051176794 0.060503703 -0.00916128 0.029148286
000050 a2 73 42 bc 1f 93 82 3d 12 33 1d bd 71 55 14 3c
       -0.011868389 0.06375717 -0.038378783 0.009053574
000060 07 ca 19 bd a7 9a 66 bc ce 05 05 3d b3 9b 39 3b
       -0.037546184 -0.014074958 0.03247624 0.0028321564
000070 cb ab bc bd d7 17 5b 3c 59 b6 26 bd dc bb 48 3a
       -0.092124544 0.013372383 -0.040701244 0.0007657388
000080 5f 12 d5 3c 62 d1 29 bc eb bc 24 3d 8b 1b aa bd
       0.026009737 -0.010364862 0.04021923 -0.08306035
000090 f9 49 3f 3c 37 91 8a 3d fa ea 3c 3a 27 b6 90 3d
       0.011675351 0.06765979 0.0007206645 0.07065993
0000a0 63 09 12 bd 8f 7d d0 3c ee 87 9b bd 87 df 47 bc
       -0.035653483 0.025450496 -0.07594286 -0.012199289
0000b0 c5 74 6e bd bc b3 14 3d fc 82 0c 3d 9f 2e 98 bc
       -0.05821683 0.03630422 0.034304604 -0.018576918
0000c0 fc 76 60 bd 46 58 47 bd b3 ab 42 3d 26 bb 00 bd
       -0.054800972 -0.04866817 0.047527026 -0.03142848
0000d0 32 4e b8 bd 66 99 7a 3d 13 08 2f 3c cb ef 5f 3d
       -0.089992896 0.06118145 0.010683077 0.054672044
0000e0 ee 46 08 3d 22 11 3c bc 1b 50 9d bd 5c 02 12 bc
       0.03327077 -0.011478694 -0.076812945 -0.008911695
0000f0 a1 3c b2 bb 3a 07 ca 3c 24 f9 b2 bd 56 e8 18 bc
       -0.0054393564 0.024661649 -0.08738926 -0.009332737
000100 11 81 92 bd e1 76 46 bd f1 32 aa bd b2 c2 7d 3d
       -0.07153524 -0.048453216 -0.083104976 0.061953254
000110 3d 2f 96 3d de df 37 bd 0d 31 18 bd 8d 2b 46 3d
       0.07333229 -0.04489123 -0.037156153 0.048381377
000120 83 db c9 bb f7 dd b5 bc c6 d7 6b bc 2a 58 b0 bd
       -0.006160201 -0.022200568 -0.014394706 -0.08610566
000130 da cb 75 bd 68 44 71 3d 3f 25 7d bd 24 5e 3e 3d
       -0.06000886 0.058903128 -0.0618031 0.0464765
000140 ea b2 12 bd 86 aa 81 bd e8 ca 36 bd 78 2e 52 3d
       -0.035815157 -0.06331353 -0.0446271 0.051313847
000150 ae 66 af bd ad 15 08 3d 63 41 ca 3c d3 56 d3 3c
       -0.085645065 0.033223797 0.024689382 0.025798237
000160 96 f2 a3 bd 0d a5 85 bd 49 be a4 bc 5e fc 0a bd
       -0.08005254 -0.065256216 -0.020110266 -0.033932082
000170 02 a7 07 bd b3 d5 df 3c 9e d1 2c 3d 40 41 87 3d
       -0.033118255 0.02732358 0.042192094 0.06604242
000180 86 00 3f bd 1b 95 52 bd 29 0b a3 3d 7d b8 0f bc
       -0.04663136 -0.05141173 0.07961113 -0.008772013
000190 36 84 cd bc c1 21 3e 3d c7 f3 8c bd e7 0a 12 3d
       -0.025087457 0.04641891 -0.06882434 0.03565493
0001a0 00 d5 14 bd 48 3c b7 bb e2 e8 1d bd 2a 05 8f bd
       -0.036335945 -0.005591903 -0.038552172 -0.06983407
0001b0 b9 b9 73 bc ba 2b 94 3c 7b 9c 30 bd 23 15 13 3c
       -0.014875823 0.018087257 -0.04311798 0.008977207
0001c0 c0 e8 a2 bd 69 51 80 bd da 99 0d 3d 9b 57 87 3d
       -0.0795455 -0.06265528 0.034570552 0.06608506
0001d0 5c 37 30 3d d9 d1 79 bd ff c7 64 3d 0c 0f 6a bd
       0.043021545 -0.060991142 0.055854794 -0.057143256
0001e0 b3 b8 1c 3d 86 34 5a 3c 52 8c c7 bc bc 54 a2 bd
       0.03826208 0.013318187 -0.024358902 -0.07926318
0001f0 86 1f a3 bd a6 f9 b5 bd 2f e1 8d bc a3 8d 8c 3d
       -0.07964997 -0.08885507 -0.01731929 0.068629526
000200 69 09 1b 3d 78 54 e1 3b 63 ab 9c bd 0e 3e 99 3d
       0.03785077 0.0068765245 -0.07649877 0.07482539
000210 32 f7 97 3d f4 4a 12 3e 11 26 ce bc 85 66 18 3c
       0.07420196 0.14286405 -0.025164636 0.009301786
000220 5f b3 9f 3d d0 80 dd 3c 3f 0d 03 3e ff 17 08 be
       0.07797884 0.027038962 0.12798022 -0.13290404
000230 94 26 8d 3d 07 a5 98 3e 18 7f d8 bd df f9 c9 bc
       0.06892124 0.29813406 -0.10571116 -0.02465528
000240 07 02 9d 3b e2 6a 8f 3c 19 d0 f6 bb 5c ce 35 bb
       0.0047915014 0.01750702 -0.0075321314 -0.0027741408
000250 6a c2 9a 3d d2 e9 23 3d 12 e8 16 3d 72 07 b3 3d
       0.07556613 0.04001791 0.036842413 0.087416545
000260 2b be 8f 3e fb df 88 3e 22 03 3d be 8f 2a 0d bd
       0.28074774 0.26733384 -0.18458226 -0.034464415
000270 bc 37 ac bd c3 07 9f 3d 4c 38 db 3c e3 12 f5 bd
       -0.08409068 0.07765152 0.026760243 -0.11966493
000280 a5 45 74 3b 7e d1 0e 3d 8c 75 b9 bb b9 de dc 3c
       0.0037272957 0.034867756 -0.0056597646 0.026961671
000290 d9 02 05 3c 27 b9 c7 bb 63 9c 81 3e 61 fa c2 bc
       0.008118355 -0.00609507 0.25314626 -0.02380103
0002a0 17 b6 30 3d dc 76 d4 be dc 10 7d 3d dd 45 4e 3d
       0.043142404 -0.41496933 0.061783656 0.050359596
0002b0 61 5a 2c bd e1 e5 98 3d 46 b4 3a bd cc c9 7b bd
       -0.04207838 0.07465721 -0.04558208 -0.061471745
0002c0 f0 ab 02 3d 9a f3 09 3d 45 64 72 3c 65 9f 68 ba
       0.031902254 0.033679582 0.014794414 -0.00088738493
0002d0 db b1 40 3c 5f 7b d3 bd e1 da 48 3e 33 e3 78 bd
       0.011761154 -0.103262655 0.19614746 -0.06076355
0002e0 0f 76 7f bd 4b 6a e1 be 37 39 52 bd 31 c1 b7 3c
       -0.06236845 -0.44026408 -0.051324096 0.022430988
0002f0 99 87 dc bc f6 4d 25 3e 5e d9 47 3d 1b 08 9f 3d
       -0.026920127 0.16143021 0.048791282 0.07765218
000300 a7 5d 28 3e e7 3e ae 3d c7 5c a4 be a1 99 b9 bc
       0.16441976 0.085080914 -0.32102033 -0.022656264
000310 77 25 7d 3d 62 77 fb 3a 9c 8a b9 bd a9 a1 bf 3d
       0.061803307 0.0019185359 -0.09059641 0.09357006
000320 f5 1b c4 3d 28 8e a9 3d 02 c7 d2 bd cf 6e b1 bd
       0.09575645 0.08279067 -0.10291864 -0.08663713
000330 e4 83 9d 3b 5b 9e d8 b9 c8 23 8b 3d e0 55 c4 be
       0.0048069824 -0.00041316714 0.06793934 -0.38346767
000340 e6 a5 df 3d d6 37 e2 bd 84 da 31 3d 65 96 49 be
       0.109203145 -0.11045806 0.043421283 -0.19686277
000350 93 64 df 3d c3 fb 9d bd c6 97 68 3d 79 41 6a bd
       0.10907855 -0.07714035 0.056785367 -0.057191346
000360 c5 40 4a bc 22 0b 8d 3d db 37 56 bc 67 1d 5b 3d
       -0.012344544 0.06886889 -0.01307484 0.053494837
000370 35 33 ec 3c 9b 67 c6 3c db cb 85 3e d3 23 8f bd
       0.028833011 0.024219325 0.26132092 -0.06989255
000380 bc 82 75 bd a8 97 d3 3d 13 d9 81 3c 5d bd 99 bc
       -0.05993913 0.103316605 0.01585058 -0.018767053
000390 9d d3 0f 3e 23 e7 1e 3c 32 25 15 3d 3a 4a ad 3c
       0.14045568 0.009698662 0.036412425 0.021153558
0003a0 c7 74 ec 3d f3 b1 d1 3d 58 07 ac 3d f3 9e 10 be
       0.11545711 0.10239019 0.08399838 -0.14123134
0003b0 8d a2 93 bd 6f 3a 21 3e 7a 32 28 3e ea 98 27 3e
       -0.072087385 0.15744947 0.16425505 0.16366926
0003c0 83 e9 a5 bc bd 78 a6 3d 95 52 05 3e ee b5 65 bd
       -0.020252949 0.08128498 0.13019784 -0.056081705
0003d0 08 64 24 bd f1 58 f4 bc c7 77 9c bd 28 cf 53 bc
       -0.04013446 -0.029827567 -0.07640033 -0.012927808
0003e0 5f f4 88 3d a3 5a 88 bd 79 f9 5f bd 39 3d a3 3b
       0.06687235 -0.066579126 -0.054681275 0.0049816635
0003f0 ff b1 5f bc ad e5 f5 3d 0a 4b ca 3c 49 43 aa bd
       -0.013653277 0.12006698 0.024693985 -0.08313615

layers.2.bias f4 [64]
000000 8e f5 0e 3d f2 31 43 3d 19 91 c7 bd ad 26 e6 3c
       0.034902148 0.047655053 -0.09744472 0.028094614
000010 11 03 72 3d 3a 8a 1a 3e 59 bf 33 bd 5d 73 1f 3c
       0.059084956 0.15091792 -0.043883655 0.009732095
000020 e9 78 3d 3d 0f 62 62 bc 96 9f 39 3d 44 63 06 3e
       0.046257887 -0.013817324 0.04531821 0.13123804
000030 d7 d4 19 bd 58 6f be 3c 2d e7 13 3e 34 7f 9e 3d
       -0.037556496 0.023246452 0.14443655 0.07739106
000040 d1 c8 84 3c 3c 4e 79 3d b1 fd 98 3c ae b0 ca 3d
       0.016209038 0.060865626 0.018675657 0.0989698
000050 b5 cb 08 3e 90 93 ca 3b 2e ed 60 bd 93 56 43 bc
       0.13358958 0.0061821416 -0.054913692 -0.011922496
000060 e2 07 1f bd e1 db b7 3d 30 3e 29 bd d6 7e 88 3d
       -0.038825877 0.089774854 -0.041319072 0.06664817
000070 84 5a 26 3e 87 74 df 3d 64 19 27 be 91 c8 13 3e
       0.16245466 0.10910898 -0.1631828 0.14431979
000080 e1 d3 b4 bd 4f b4 2f 3e a4 61 a0 3b 60 7c 25 3d
       -0.08829475 0.17158626 0.004894452 0.040401816
000090 24 37 4e 3d a3 0a f1 3d 17 c6 00 3d bd a7 a5 3c
       0.050345555 0.11769607 0.031438913 0.020221585
0000a0 3e 22 18 bc 24 77 01 bd 1f 4f 11 bd 86 00 28 3e
       -0.009285508 -0.031607762 -0.035475846 0.1640645
0000b0 e7 a6 29 3e e6 f7 35 3e 18 2d ae bb 1a 01 02 3d
       0.16567574 0.17770347 -0.005315434 0.03173933
0000c0 76 b7 1e 3e e0 4e ff bc 39 f8 28 3d e6 a2 2a 3c
       0.15499672 -0.03116554 0.04125235 0.010414815
0000d0 3e 46 32 3e e8 da 1f bd 93 47 26 3d 58 a1 b8 3d
       0.17409608 -0.039027125 0.040595602 0.09015149
0000e0 42 23 b3 bc 3d c4 bd bd bd f2 86 3c 15 3c 8e bc
       -0.021867398 -0.09265945 0.016473169 -0.017362634
0000f0 91 18 08 3e 28 b7 24 3e 57 78 7e bd 72 40 c2 bd
       0.13290621 0.16085494 -0.062126484 -0.09484948

readout.weight f4 [1, 64]
000000 41 33 b2 3d 31 f6 83 3e a2 9f 97 3e fe 60 3a be
       0.08701182 0.25773767 0.29613978 -0.18201062
000010 ec ed 01 be 10 1b 59 be 5b c9 3f 3d c3 e0 95 3e
       -0.12688416 -0.2120173 0.046822887 0.29273042
000020 8f 53 ec bd f6 8e 8a 3d 56 8e 70 be ab f0 59 be
       -0.11539375 0.06765549 -0.23491797 -0.21283214
000030 c9 36 a6 3e 75 bb 74 3c 2a 52 f0 be b8 3e f4 3c
       0.32463673 0.014937271 -0.46937686 0.029815063
000040 a2 ca 2e 3d d0 5a 83 3e c8 d1 4a bd 25 59 47 be
       0.042673714 0.25655222 -0.04951647 -0.194676
000050 eb a8 53 be 00 e0 48 3a 7e c0 9c 3b 84 c4 73 3e
       -0.20669906 0.0007662773 0.004783689 0.23805434
000060 14 b9 51 bd 18 7d 32 be 44 b6 54 bd 26 60 14 3f
       -0.051201895 -0.17430532 -0.051931635 0.5795921
000070 6a a5 6d be cb 6b 55 be a4 e6 b1 3e 66 37 21 be
       -0.23207632 -0.20841901 0.34746277 -0.15743789
000080 5f e4 50 3d bb 1b 01 be 46 73 88 3e a9 e6 30 be
       0.05099904 -0.12608235 0.26650447 -0.1727549
000090 d7 b7 83 3d 6c 39 20 be 88 fa a9 bd 53 bc 1c be
       0.06431549 -0.15646905 -0.08299738 -0.15306215
0000a0 2e 64 de 3d 2b e1 83 3e 35 b3 41 3e 92 ba 27 be
       0.108589515 0.25757727 0.18916018 -0.16379765
0000b0 aa 92 12 be af 9d 1a be 76 aa b4 3d b1 7e 71 be
       -0.1431376 -0.15099214 0.08821575 -0.23583485
0000c0 b1 de f4 bd d8 5c 3d 3e 02 e3 37 be 13 d3 3e 3e
       -0.119565375 0.18492448 -0.1795769 0.18635206
0000d0 51 85 52 be c2 ad 69 3e 89 37 10 be 2d 93 56 be
       -0.20558669 0.2282019 -0.14083685 -0.2095458
0000e0 c5 cc e5 3c 86 ee 83 3e 3e ee 3b be 91 a2 46 3e
       0.028051743 0.25767916 -0.18352601 0.19397952
0000f0 74 76 05 3f 46 7b 07 be 5a f8 25 3e f1 e9 82 3e
       0.5213387 -0.13230619 0.1620802 0.25569108

layers.0.weight f4 [128, 3]
000000 ac 3e 02 3f c0 13 05 3f 0f da 23 3f 6c ec ed be
       0.5087688 0.5198326 0.64004606 -0.46469438
000010 37 2b 2b 3f 65 d1 a3 be 9e 4f 82 bd 14 60 b5 bd
       0.66862816 -0.31995693 -0.06362842 -0.08856216
000020 2a 10 18 bf 96 89 b2 3e b3 4c 8c be 5e 4d 20 3f
       -0.59399664 0.34870595 -0.27402267 0.6261805
000030 ea fc c0 bd 10 7e 01 bf 2f 6f f8 3e d2 20 ed bd
       -0.094232395 -0.5058298 0.48522326 -0.115785256
000040 30 42 18 bf ed ea a5 3e 8f 2f 38 be 59 6c 35 bf
       -0.59475994 0.32405797 -0.17986892 -0.7086845
000050 d7 67 c1 3e 85 e5 dd be c1 16 bf be 2f 07 29 3f
       0.37774536 -0.43339172 -0.37322047 0.66026586
000060 e0 2f 03 be 9c 09 35 be c1 2b 1f 3f b6 de 06 bf
       -0.12811232 -0.17679447 0.6217614 -0.5268358
000070 13 87 88 3e 10 2e 6c 3d 72 c5 82 3e 1d 12 2e bf
       0.26665553 0.057661116 0.25541264 -0.6799639
000080 e0 b3 90 be ad 5f 9c 3e d5 1e d7 be 3b a4 e7 be
       -0.28262234 0.30541745 -0.4201571 -0.45242485
000090 a1 fe ac 3d b1 83 e7 3e c6 14 db 3d b7 82 f8 3e
       0.08447004 0.4521766 0.106973216 0.48537228
0000a0 e9 7f 16 bf c0 03 f4 3e 03 df 0b 3f 3d 13 c8 be
       -0.58788925 0.4765911 0.54637164 -0.39077178
0000b0 df ae 5b 3e 72 c7 05 be d1 5d 4e bf 98 69 a0 3e
       0.21453427 -0.13064364 -0.806119 0.31330562
0000c0 d4 5c e9 be 37 ff 59 3f f1 fc 0c 3f 2d 0a 91 be
       -0.45578635 0.8515505 0.5507346 -0.28328076
0000d0 9f 2d b6 bd 27 91 66 be 03 88 04 3f a4 31 0a bd
       -0.0889542 -0.22516309 0.5177004 -0.033738747
0000e0 48 e5 99 3e 58 46 47 be a4 84 b6 bd 5f 5c ec be
       0.3005774 -0.19460428 -0.08912018 -0.46164224
0000f0 8a 45 95 3d 5d 3b d0 3e ae 55 df 3e d1 22 de be
       0.07288654 0.4067029 0.43620056 -0.43385938
000100 bb f0 1c 3e 06 80 02 3f ad 25 a6 be 14 82 02 bd
       0.15326206 0.509766 -0.3245062 -0.031862333
000110 f2 71 27 bf 83 72 15 3e c2 61 0e bf 72 44 8b bd
       -0.6540824 0.14594464 -0.55617917 -0.06800164
000120 c2 0a d1 3c d6 f1 0e bf 84 c1 bf be f2 e8 cf be
       0.025517825 -0.5583776 -0.37452328 -0.4060741
000130 39 10 50 be f8 0c 88 3d 8b b7 22 3f 13 11 a3 be
       -0.20318688 0.066430986 0.63561314 -0.31848964
000140 e1 78 bc 3e 97 c2 d6 3e 51 e9 9d be fc f6 c5 bd
       0.36810973 0.41945335 -0.3084207 -0.09666249
000150 ea 0b da be dc 1d 69 be b4 0d 28 3d d9 35 15 bf
       -0.42587215 -0.22765297 0.041028693 -0.5828529
000160 e7 54 3d 3f eb 1d 22 bf a7 1b a9 be 41 a1 a7 3e
       0.73957676 -0.633269 -0.3302891 0.32740214
000170 6d 72 37 3f ab 3f 74 3d 32 5c df 3e fb 54 99 be
       0.71658975 0.05963103 0.43625027 -0.29947647
000180 8e 18 16 3c 89 b0 db be 27 01 d8 be 43 3a d4 3e
       0.009161128 -0.42908123 -0.4218838 0.414507
000190 8e 7f 05 3f 90 77 0e 3f f9 70 bd be 85 b3 5d 3e
       0.5214776 0.5565119 -0.37000254 0.21650513
0001a0 23 4b ac 3e de cc d0 3e 38 eb 1f 3f 6c 26 e4 be
       0.33651075 0.407813 0.6246829 -0.44560564
0001b0 da 65 19 3e 99 55 42 3f a7 20 86 be 72 69 48 be
       0.1498026 0.7591186 -0.26196787 -0.19571474
0001c0 95 03 0d be 4f c6 e6 be 85 fe 15 bf 95 6f cc be
       -0.13770898 -0.45073172 -0.5859149 -0.3992888
0001d0 ad 59 c2 bd 3a 8c 57 3e 2b 90 ff be 83 24 f8 be
       -0.094897605 0.21049586 -0.4991468 -0.48465356
0001e0 29 fa 88 bd cd aa 9c 3e 8e 8b e2 be bc c0 f3 be
       -0.06688339 0.3059906 -0.44247097 -0.47607982
0001f0 a2 2f 3e bf 0c 81 b1 bc 49 a6 6d 3e 0f 22 58 3f
       -0.7429143 -0.02166798 0.23207964 0.8442697
000200 5d 6a bc be 5f eb 67 bc 78 38 06 be 4b 84 f1 be
       -0.367999 -0.014155238 -0.13107479 -0.47171244
000210 c3 b1 48 be 99 f0 0f bf 23 66 3a 3e f3 3b 2d 3f
       -0.1959906 -0.562265 0.18203025 0.676696
000220 14 0c 70 bf 57 65 08 bf 6b bb 9c 3d a6 24 23 3f
       -0.9376843 -0.5327963 0.07652935 0.63727796
000230 ea b7 88 be 68 38 0a bf 51 2b 9e be 33 ca 02 bf
       -0.26702815 -0.5399232 -0.30892423 -0.5108978
000240 f5 4a 98 3c 1a 1c 11 3f 05 23 e5 3e 73 4a d7 be
       0.01859043 0.56683505 0.4475328 -0.42048988
000250 0c e8 7c 3f 66 ea 2e 3e 26 d2 96 be 55 d6 12 3f
       0.98791575 0.17081603 -0.29457206 0.57358295
000260 68 7b 1f bf d0 af f1 bd f0 5d 36 3f cb d4 16 3e
       -0.6229768 -0.11801112 0.7123709 0.14729612
000270 78 80 b5 be 36 72 80 bf f6 06 9d be 9e 98 9f be
       -0.35449576 -1.0034854 -0.30669373 -0.31171125
000280 54 b7 13 bf 1b ab a8 3c f6 b1 a8 bc 1e c0 3f 3f
       -0.5770161 0.020589402 -0.02059267 0.7490252
000290 2d a9 d9 3c 35 d4 ce 3e db 7a 3d 3f 15 c4 8e 3e
       0.026569927 0.40396276 0.7401559 0.27883974
0002a0 2d 46 de 3e 3c 22 a0 be 60 98 98 3e 58 4d 9a 3d
       0.43412915 -0.3127612 0.29803753 0.075342834
0002b0 e3 ef fc 3d f5 32 0f bf f3 c7 e5 be d7 d9 22 bf
       0.12350442 -0.5593713 -0.44879112 -0.6361365
0002c0 0d 5d 1c 3d fd 02 a5 be da 01 ff 3e db e6 ea be
       0.038174678 -0.32228842 0.498061 -0.45879254
0002d0 d3 97 0b 3f eb 6e e7 3e f0 71 0d bf 5b 0e 05 bf
       0.5452854 0.4520181 -0.5525198 -0.5197503
0002e0 33 27 ff 3e 67 f0 e5 3d ac 21 e6 be 13 48 90 bd
       0.49834594 0.11227494 -0.44947565 -0.07044997
0002f0 1c d1 47 bd e9 01 62 be db 09 2a 3f 44 46 0d 3e
       -0.048783407 -0.22071041 0.6642129 0.13796335
000300 41 d8 14 be ce c8 48 3f 3e 47 57 3e 5c 30 8f be
       -0.1453562 0.78431404 0.2102327 -0.27966583
000310 5f de 89 bf 22 81 61 be ee e6 82 3e b2 7f 4e 3e
       -1.0770987 -0.22021917 0.2556681 0.201659
000320 73 bb e2 3e 9a 43 69 bd 60 b5 4c 3f bf 6e ef be
       0.44283637 -0.056949235 0.79964256 -0.4676418
000330 37 03 6e be 6a 8b 3b bf 99 ed a7 be 16 8d 11 3e
       -0.23243414 -0.73259604 -0.3279846 0.14213976
000340 4f 53 38 3f a0 cb 2b bf 7f 4e 86 3e 31 2a 3b bf
       0.7200212 -0.6710758 0.26231763 -0.73111254
000350 80 b5 fe 3e 56 59 e2 be 19 8c c3 3e 42 fb e4 be
       0.4974785 -0.44208783 0.38192824 -0.44722944
000360 ec 68 97 be 88 be ee bd 36 d8 71 be bd fc 2a 3f
       -0.29572237 -0.11657435 -0.23617634 0.667919
000370 f1 fe 19 3e 18 a8 23 3e 13 6c a2 be ea 64 fa 3e
       0.15038659 0.15982091 -0.3172308 0.48905116
000380 a8 66 3e be ae da f3 be b7 8c f0 3e 11 52 01 bf
       -0.18593848 -0.47627777 0.46982357 -0.5051585
000390 b0 10 be 3e f8 82 51 bd c1 6c 95 3e 5d fa 00 3e
       0.37122107 -0.051150292 0.29184535 0.12595506
0003a0 7d 7f 24 3f a1 fb 17 3f c2 15 56 be 00 fc 15 3f
       0.6425703 0.5936833 -0.20906737 0.58587646
0003b0 d7 85 7b 3d e3 57 1e bf 32 e0 a7 3e ea f5 ad 3d
       0.061406936 -0.61852854 0.32788235 0.0849417
0003c0 0a 34 70 3c 68 9b 57 bd 75 d9 9a be 6d 2f 2e be
       0.014660845 -0.05263844 -0.30244032 -0.17010279
0003d0 a4 72 fa 3e d0 df 1d 3f 62 e1 bd be cb 09 bd be
       0.4891559 0.61669636 -0.37086016 -0.36921534
0003e0 3e b3 cb bc 7b fe 13 bf 84 88 4a be cf 17 0e bf
       -0.024865743 -0.5781018 -0.19778639 -0.5550508
0003f0 71 e4 3b 3e 43 9d 16 3f 11 96 d0 3e c5 67 8a bd
       0.18348862 0.5883371 0.40739492 -0.06758074

layers.0.bias f4 [128]
000000 7f 87 ec be 35 65 de be f2 53 fa be 0f 97 b7 3e
       -0.46197125 -0.4343659 -0.4889217 0.35857436
000010 bb 6d 3a 3d bf 86 c4 bd 93 5d 23 be 1c 06 cb 3e
       0.045514803 -0.09596013 -0.15953664 0.396531
000020 a4 7b ca be 5a e6 43 bc 3e e6 66 3e 8d 10 b3 be
       -0.39547455 -0.011956776 0.22548768 -0.34973565
000030 9b 1e 41 be b1 47 12 3f b0 9a 14 3f b2 86 5d be
       -0.18859331 0.5714064 0.58048534 -0.21633413
000040 71 e0 c9 be 5b 16 0c 3f 49 d1 63 3e 85 e7 ac 3e
       -0.39429048 0.5472161 0.22247805 0.33770385
000050 55 c5 8d bd d9 c8 14 3d 93 4d f5 bd 94 6c 47 bf
       -0.06922404 0.036324356 -0.11977687 -0.7790005
000060 4c 48 62 3e 71 2c d4 3b f1 fa 13 3d 79 4c 06 3f
       0.22097892 0.0064750244 0.03612799 0.5246044
000070 45 7b 0f be 4e 8c 1a be 0c 54 af be 1d 7e a9 3d
       -0.14011867 -0.15092584 -0.3424381 0.08276007
000080 cb 0a 4b 3e 78 50 d2 be 3b 6b 22 3f e8 6f d8 3e
       0.19828336 -0.41077018 0.6344487 0.42272878
000090 b7 8d 48 3e 3f 79 b8 bd bb e8 df 3e 9b 8e a6 3e
       0.1958531 -0.09007501 0.43732247 0.32530674
0000a0 99 3f 04 bd 15 9d da be 72 6a 99 3e ad 5b 61 3e
       -0.032287214 -0.4269797 0.29964024 0.22007628
0000b0 51 28 92 3e d5 cb d8 bd 4e ad c4 3d d0 df e5 3e
       0.28546384 -0.10585753 0.09603368 0.44897318
0000c0 f4 cc 94 3e fb 80 0a 3f 33 6e 67 be 51 97 be be
       0.29062617 0.5410306 -0.22600631 -0.3722482
0000d0 da 69 e0 bd 0f 8a 90 3e 11 6d c3 bd c5 07 38 be
       -0.109576896 0.2823033 -0.09542287 -0.17971714
0000e0 a9 50 1e be a5 69 05 3f b1 c8 ad bd 2f 4f 6d be
       -0.15460457 0.52114326 -0.084855445 -0.23174737
0000f0 2b 10 c4 bd 19 a7 98 be 49 6d 43 3e b4 a9 2f be
       -0.09573396 -0.29814985 0.19084658 -0.1715458
000100 d1 81 26 3f 47 bc 27 be 4d d6 5e 3e 62 82 1d bb
       0.65041834 -0.16380416 0.21761437 -0.0024034013
000110 74 03 95 3e 1e 87 4a 3e d9 65 93 be c1 dc d1 3d
       0.29104197 0.19778106 -0.2878864 0.102471836
000120 ac d3 1b 3e 7a 4e 96 3d 52 c8 97 be 5b 6a cb be
       0.15217465 0.07339187 -0.2964502 -0.3972958
000130 15 09 0e 3f 77 c9 8e bd 64 84 e6 3e 91 39 f3 3e
       0.5548261 -0.0697202 0.4502288 0.47504857
000140 5f 61 93 3e 2b 01 d8 bd c6 73 6d 3e 66 d3 ba be
       0.28785226 -0.10547098 0.23188695 -0.3648941
000150 63 cd dd 3e 9e 2e 75 be df ec f0 bc 71 55 1f be
       0.4332076 -0.23943564 -0.029409824 -0.15559937
000160 07 3b 03 bf 7b 52 57 3e 4a 32 dc be 2d 83 d7 3e
       -0.51261944 0.21027558 -0.43007118 0.42092267
000170 a9 02 fa 3e 90 f2 b7 3e a1 08 f6 3e 8e 2c c9 bd
       0.48830155 0.35927248 0.48053458 -0.09822951
000180 b3 68 03 bd 9b 82 44 3e 4e a7 fe be 83 4d dd bc
       -0.03208227 0.19190447 -0.49737018 -0.0270145
000190 9b 56 0e 3c a2 f8 a0 be d8 25 d3 3d da 22 15 3f
       0.008687641 -0.31439692 0.103099525 0.58256304
0001a0 12 13 bf bd e4 95 c6 3d 3b 79 93 bd 65 9e ff 3c
       -0.09329809 0.09696558 -0.07200857 0.031203458
0001b0 c4 67 a7 bd 18 c1 d6 bd 96 40 f3 3e 8e 1f db be
       -0.081740886 -0.104860485 0.47510213 -0.42797512
0001c0 9f de 90 3e b6 ac 5c be 15 d6 90 3e a1 b0 8c be
       0.28294846 -0.21550259 0.28288332 -0.27478507
0001d0 56 da cc 3e c1 e7 18 3f 08 e0 00 bf e2 29 e2 3e
       0.40010327 0.5972863 -0.50341845 0.4417258
0001e0 55 37 27 be a5 97 87 3e 65 25 82 3e cf 0d 02 3f
       -0.16329701 0.26482883 0.25419155 0.5080232
0001f0 53 d8 a4 3e b2 8d 80 bd 6f d2 e7 bc f0 82 fb 3d
       0.32196292 -0.06277026 -0.028298585 0.12280834

layers.1.weight f4 [128, 128]
000000 4f 76 43 3c 01 6c 87 3d 72 72 8e bd da 92 84 bc
       0.011930062 0.06612397 -0.069554225 -0.016183306
000010 63 02 67 bd fe d5 a7 bd ed c2 0f bd 66 46 8b bd
       -0.05639876 -0.08195113 -0.035098005 -0.06800537
000020 a5 0d 23 bc 14 11 cf bc 7a 2d db bd b5 f0 80 3b
       -0.009951984 -0.025276698 -0.10702033 0.0039349445
000030 51 b3 07 be c1 b9 0a bc f3 f7 0e be 62 c7 40 be
       -0.13251998 -0.008467139 -0.13961773 -0.18826059
000040 aa fd fd bd ff fc af 3b be 01 5d bd c8 47 a0 3c
       -0.12401898 0.0053707357 -0.05395674 0.019565478
000050 01 6a df bd 0d 30 8c bd ee ae 47 3c 38 82 40 bc
       -0.109088905 -0.068451025 0.012187703 -0.011749797
000060 49 41 e7 bd e7 78 31 3d 8a 74 d0 bc 1a 44 1b be
       -0.11291749 0.043328192 -0.025446195 -0.15162697
000070 f0 7e 2b bd 20 bd 8f 3d e9 7a 19 bd 2f 7a 44 3d
       -0.041869104 0.070184946 -0.037470732 0.047968086
000080 36 d2 e6 3b 40 1d 36 bd b6 55 c0 bd 2d ac ed bd
       0.007044102 -0.04446149 -0.09391348 -0.116051055
000090 38 35 99 bd 6f 42 3d 3d 39 28 78 3c b6 42 21 bd
       -0.07480854 0.046205934 0.015146309 -0.03937026
0000a0 0f 61 33 bc cd 5b b1 3c e7 f1 e7 bd 66 91 aa 3b
       -0.010948434 0.02165022 -0.11325436 0.005205321
0000b0 9d c5 69 be 5f fa 48 bd aa 32 0d 3d b9 a9 4d bc
       -0.2282929 -0.049066897 0.034472145 -0.012552672
0000c0 c6 5c bf bd 68 4d 82 3c 45 d0 a7 bb f0 f1 d0 bd
       -0.09343867 0.01590605 -0.005121263 -0.10202396
0000d0 b2 e7 80 3d 42 91 b8 bc 13 13 8b 3a 9b 0f 83 bd
       0.062941924 -0.022530202 0.0010610543 -0.06399461
0000e0 c6 ed 9b 3d 10 ed f9 bd cc 38 53 3d ec 4e 9b bd
       0.07613711 -0.12203419 0.051567838 -0.075834125
0000f0 55 01 96 bd c1 63 97 bd 88 c2 0b bd a5 0f ef bc
       -0.07324473 -0.073920734 -0.034121066 -0.029182265
000100 2a e7 e8 3b 5b fa 9a bd 46 61 47 bd ca 1f 88 bc
       0.007107635 -0.07567283 -0.04867675 -0.01661672
000110 2d 8b ba bd f2 b9 64 3d 65 58 a5 bd cb f7 16 3d
       -0.09108577 0.055841394 -0.080735005 0.036857408
000120 f1 a6 8d 3c 6e 72 18 3d c5 ec 00 3d 5e 7a ae bc
       0.017291518 0.037218504 0.0314758 -0.021298584
000130 d1 a7 3f bd 01 fe 59 bd de e8 76 3c 96 c6 4f 3d
       -0.0467909 -0.053220753 0.015070168 0.050726496
000140 9c a3 7d bd 78 04 31 bd 13 74 a2 3d 9b a0 d4 bc
       -0.06192361 -0.043217152 0.07932296 -0.025955489
000150 1b 44 c2 bd 1c ce 91 3d 1d cd 04 bd a5 07 d2 bc
       -0.09485646 0.0711939 -0.032422174 -0.02563841
000160 ee 1c dc bd 73 c7 ad bd 0a ad 06 bd 1c 77 12 be
       -0.107477054 -0.084853075 -0.032879867 -0.14303249
000170 5d 33 53 bd e9 eb 53 bd 83 95 e5 bd c6 be a6 3d
       -0.051562656 -0.051738653 -0.11210158 0.08141856
000180 c8 c8 2e 3b d7 b6 8c bd e8 81 3c 3d 89 70 53 bc
       0.0026669968 -0.068708114 0.046022326 -0.012905248
000190 55 be b2 3d d4 92 d9 bc 59 d3 75 be 12 9b b7 3c
       0.08727709 -0.02655927 -0.24006404 0.02241281
0001a0 6a e8 26 bd 8f aa 53 3d 9a 32 36 3d e6 a6 9c bd
       -0.04074899 0.05167633 0.04448185 -0.07649021
0001b0 d2 b9 38 bd 75 ef c3 bb 56 70 03 be ce f5 69 3b
       -0.045099087 -0.0059794732 -0.12835822 0.003569949
0001c0 27 e9 dc bd ea 62 68 be ae c8 83 3d 2a 22 bc bc
       -0.10786658 -0.22693983 0.06434761 -0.02296551
0001d0 42 a1 53 bc b8 9e 2a be 5f c4 47 3d 05 bc 43 3d
       -0.012916865 -0.16662109 0.04877126 0.04778673
0001e0 7e c6 73 3c e8 1a fc bc 46 af 99 3c d3 ac 50 bd
       0.014878867 -0.030774549 0.018760335 -0.050946068
0001f0 9c b2 03 be e4 35 59 bc fd 62 ca bd 24 6a a3 3c
       -0.12861103 -0.013257477 -0.09882162 0.019948073
000200 4a 78 08 bc 5f 85 c3 3d 36 e9 73 bd 22 56 b9 3d
       -0.00832946 0.09546923 -0.05954858 0.09049632
000210 bd 64 c7 bc 59 b8 93 3d 09 e7 46 3e e0 36 4a bd
       -0.024340028 0.07212896 0.1942407 -0.04936874
000220 87 bc 13 3c 28 8c 2f 3b 1a a4 3c bc 4e cb 6c 3d
       0.009017116 0.002678642 -0.011513734 0.057811074
000230 ed e8 73 be 67 58 84 3d 6d da 9d 3a 6d 16 93 3c
       -0.23819323 0.06462174 0.0012043245 0.01795503
000240 68 4b 98 bd ea 3a da bc f8 d3 0c 3d 62 78 62 bc
       -0.074362576 -0.02663942 0.034381837 -0.013822647
000250 67 cb 6c bd 47 fd 6e 3c b0 45 87 3d 6f 2b b2 be
       -0.057811167 0.014586753 0.06605089 -0.34798762
000260 9c a6 b8 bd 82 04 ad 3c 43 df 28 bc 79 65 76 bd
       -0.09016153 0.021120314 -0.010307136 -0.060155366
000270 26 b0 d8 3d 80 6b ce 3d b4 63 67 3b 76 14 2d bd
       0.10580473 0.10079098 0.003530723 -0.04225584
000280 73 f9 95 bd 32 34 c9 3c 15 0d f9 bc 67 f9 74 bd
       -0.07322969 0.024561021 -0.030401746 -0.05980816
000290 59 d5 62 be b7 84 46 3d 98 c9 15 bd 75 48 ef 3c
       -0.22151698 0.04846641 -0.036569208 0.029209355
0002a0 4c a6 26 3c 87 14 b2 bc 3a fd eb bd 78 97 38 bb
       0.010171484 -0.021738304 -0.115229085 -0.0028166454
0002b0 b4 65 1e bc 68 ad aa bb 58 b8 b2 3d 62 8f 02 3d
       -0.009667803 -0.00520866 0.08726567 0.03187502
0002c0 19 6f 5e bd fe d9 c9 bd d6 30 b9 bc f4 1b bf bd
       -0.05430517 -0.09856032 -0.022606295 -0.093315035
0002d0 c8 8e 6d 3c c1 d5 d7 3d 23 c9 78 be be ca c3 3d
       0.014499374 0.10538817 -0.24295478 0.095601544
0002e0 0f 34 1d 3e 6f 6c 8c 3d f1 dd ac 3d d6 cf 2e 3d
       0.1535189 0.068566196 0.084407695 0.042678677
0002f0 66 11 50 3c 18 f7 a8 be e1 6c 8d 3d b7 8a 72 be
       0.012699461 -0.33001018 0.06905533 -0.23685728
000300 7c 2e f6 bd 70 6e 36 3d 85 27 a3 bd 0e 94 b1 3d
       -0.12020585 0.044538915 -0.07966522 0.08670817
000310 4d ce af 3d 29 b9 78 3d 18 55 b4 3d 9d b7 27 bd
       0.085842706 0.060723457 0.08805293 -0.04094659
000320 d1 dc 3b bd 29 45 c0 bb fd fa 06 3e 2a 1b b7 3c
       -0.045864884 -0.0058676195 0.13181682 0.02235182
000330 3d ba 15 3d db 3c da bd 02 fb 49 bd ee 7a 93 3d
       0.036554564 -0.106561385 -0.049311645 0.07201181
000340 fd c0 a5 3c 44 24 4a bd b9 36 cd 3d cb 4e 50 bd
       0.020233626 -0.04935099 0.10020203 -0.050856393
000350 a1 75 70 bc ad 31 88 bd 18 4c 7a bd d8 43 c2 bd
       -0.014676482 -0.066501 -0.061107725 -0.094855964
000360 5b e6 e3 bc 0b b0 cb 3d cb 55 e4 3d b6 be d5 bd
       -0.027819803 0.09945687 0.11149176 -0.10436766
000370 c3 e4 86 3d 6c ec 9d bd f3 d9 c2 bd c4 b5 f6 bc
       0.065866016 -0.077111095 -0.09514227 -0.03011597
000380 6a cf ff 3c 55 de 2f be 00 62 fc 3c af 88 d5 3d
       0.031226832 -0.17174657 0.030808449 0.10426461
000390 01 c1 84 bd 64 99 62 3d 3b df d5 bd 22 04 0a bd
       -0.06482125 0.055322066 -0.104429685 -0.033695348
0003a0 ac 65 b6 bb e8 73 df 3d 6f f7 2e bc df 42 3f bd
       -0.0055663195 0.10910779 -0.01067911 -0.046694633
0003b0 1a 9e 1d bd bd d7 e4 3d 8a 8b 68 be e9 d7 1f 3d
       -0.038480856 0.11173961 -0.2270948 0.039024267
0003c0 a7 09 cd bb 5f 1b 85 be e5 be 67 3d cb 0c 9a bb
       -0.006257254 -0.25997445 0.056578536 -0.004701232
0003d0 87 54 33 bd 1c 9b 06 3e d1 1d d8 3d f1 ec 3d 3d
       -0.043781783 0.13145107 0.10552562 0.046368543
0003e0 17 84 13 3e 22 fd 06 bb 80 52 10 bd 14 e9 8d 3c
       0.14405857 -0.0020597656 -0.035234928 0.017323054
0003f0 bc 47 1b 3e fd b7 32 3c 29 89 3d be 37 69 4b 3d
       0.15164083 0.010908124 -0.18509354 0.049660888
