HW9/9_gym-DDPG/results/DDPG_Pendulum-v1_1500-eps0.1-t32-l5e-05-s1-u100.pth (torch, 176252 bytes, 12 tensors)

layers.0.weight f4 [128, 4]
0.69982946 -0.5060608 -0.14117026 0.00073467486 -0.5550216 0.14758785 -0.15280806 0.20112279
-0.05037479 0.003394677 0.085850626 0.006752614 0.18261409 -0.1948505 -0.03645438 -0.045013666
0.015382593 0.1598278 0.4711274 -0.052234758 -0.3090394 -0.6535537 0.09370641 -0.07422729
-0.27552116 -0.051827647 0.3399562 0.22465535 -0.56009275 0.5814818 0.15906645 0.2560865
0.60633314 -0.5729224 -0.49306938 -0.5932861 0.7902137 -0.11246645 0.24450494 -0.4389745
0.4826616 -0.23681907 0.41011667 -0.0062275855 -0.37687162 -0.008505713 -0.2817622 0.2556858
-0.16436118 -0.24125439 -0.46367037 -0.24599256 0.37729958 0.035604853 0.53535944 0.4451634
-0.11839568 -0.27228156 0.3605758 0.10604083 -0.38737112 0.66886985 0.26865914 0.30924854
-0.3795847 -0.3000179 0.033274055 -0.030181468 -0.535752 -0.13785273 0.36788318 -0.18284233
0.36742106 0.12768967 0.22049537 0.036634274 -0.10847632 0.2892596 -0.49062446 0.27078384
-0.4141995 -0.49927312 -0.049869157 -0.06852565 0.8156865 -0.6792042 -0.41424754 0.31857562
-0.09371715 0.66501623 0.11735757 -0.3451633 0.06540336 0.17901164 -0.348504 -0.21028513
0.08268237 0.13513187 -0.13235918 -0.18945724 0.2658835 -0.19082595 0.36334828 0.036772214
-0.57353204 -0.5941344 0.53851366 0.071911775 0.31202066 0.39361268 0.09940281 0.21107829
0.36054087 -0.63925606 0.00584107 -0.034751765 0.3452384 0.363898 -0.38381228 -0.37154743
-0.41672915 0.38376266 0.560156 -0.37207294 0.53892064 -0.4228205 -0.4542819 -0.2131884
0.23936233 0.57477236 -0.33217654 0.18515022 0.8922272 0.7189792 0.32171345 0.22699134
0.26536274 0.13609748 -0.37370342 -0.46158612 -0.34229296 -0.35104415 -0.22201426 0.12539002
-0.07557039 -0.05742138 0.2834433 -0.010905885 0.20234467 0.5353924 -0.14543967 0.5701473
-0.18153997 -0.17466117 -0.42625326 -0.31636715 -0.44248712 0.05268995 0.48517457 -0.18121563
-0.44703966 0.28324527 0.123146586 0.23852758 -0.597093 -0.12906826 -0.25670242 -0.03730757
-0.5241197 -0.5745754 -0.035999384 0.10252705 0.36381918 0.22441743 0.5158322 0.5677992
0.34607032 0.049097687 -0.30596706 0.5466665 -0.20540038 -0.20259042 -0.42657286 0.061482113
-0.55772394 0.23097546 -0.5074397 -0.21947762 -0.12321331 -0.49973118 0.20053568 -0.11575653
-0.28078252 0.3698309 0.3698592 -0.34522492 0.49290395 0.7099404 0.5002916 -0.42536816
0.025790973 -0.559015 0.4707928 -0.18207525 0.35788602 0.10403379 -0.12039359 -0.25350282
-0.032422706 0.60203916 -0.0004627792 0.048271503 -0.50865096 0.52514774 0.43031207 0.31579202
0.7941158 -0.6880125 -0.22749507 0.21961159 -0.61917377 0.2207885 -0.4627166 -0.2762498
0.27986 -0.5631653 -0.07797419 0.1471133 0.27849633 0.60010946 -0.1774258 -0.38740143
0.8464475 -0.032321665 -0.1770713 -0.1372379 -0.42331648 0.45043775 0.33260062 -0.3828693
-0.44911802 0.39025965 0.36791548 -0.121851705 -0.41363505 -0.31666884 -0.51696575 -0.2853838
-0.38092682 0.71676606 0.39039534 -0.199326 -0.10494354 0.3618075 -0.08109588 -0.21440732
00000000: 0628 333f 338d 01bf f08e 10be 3297 403a
00000010: e515 0ebf 4521 173e b779 1cbe 22f3 4d3e
00000020: cc55 4ebd 3b79 5e3b 74d2 af3d 0845 dd3b
00000030: 30ff 3a3e e486 47be 3051 15bd 4060 38bd
00000040: 4507 7c3c e6a9 233e 9c37 f13e 1df4 55bd
00000050: 6a3a 9ebe 4c4f 27bf 25e9 bf3d 7a04 98bd
00000060: 1c11 8dbe 3a49 54bd bd0e ae3e 0d0c 663e
00000070: 3d62 0fbf fedb 143f 51e2 223e c51d 833e
00000080: a638 1b3f 0bab 12bf 9773 fcbe 99e1 17bf
00000090: 724b 4a3f cf54 e6bd 815f 7a3e 44c1 e0be
000000a0: 6c1f f73e b380 72be d0fa d13e c610 ccbb
000000b0: 51f5 c0be 8c5b 0bbc 2343 90be 40e9 823e
000000c0: 4c4e 28be 640b 77be 3466 edbe 79e5 7bbe
000000d0: 692d c13e 65d6 113d 510d 093f 75ec e33e
000000e0: 6f79 f2bd 7d68 8bbe 649d b83e ef2b d93d
000000f0: 8255 c6be 0e3b 2b3f b18d 893e d355 9e3e
00000100: ed58 c2be f29b 99be 604a 083d 203f f7bc
00000110: 0b27 09bf 4429 0dbe 2f5b bc3e 053b 3bbe
00000120: 9d1e bc3e 15c1 023e 8ac9 613e d20d 163d
00000130: d528 debd d619 943e 2133 fbbe 2ea4 8a3e
00000140: f511 d4be baa0 ffbe 9a43 4cbd 2d57 8cbd
00000150: d5d0 503f 54e0 2dbf 4118 d4be 581c a33e
00000160: c7ee bfbd 813e 2a3f 2a59 f03d 3eb9 b0be
00000170: 32f2 853d d44e 373e 1e6f b2be fc54 57be
00000180: 6055 a93d 0260 0a3e 2a89 07be 1401 42be
00000190: e221 883e e167 43be c908 ba3e 769e 163d
000001a0: ffd2 12bf 3119 18bf 08dc 093f 7b46 933d
000001b0: 2cc1 9f3e 9a87 c93e b393 cb3d e824 583e
000001c0: d098 b83e 49a6 23bf 7266 bf3b de57 0ebd
000001d0: 16c3 b03e d750 ba3e 0b83 c4be 773b bebe
000001e0: 865d d5be 8a7c c43e 6266 0f3f 5880 bebe
000001f0: b4f6 093f ee7b d8be a397 e8be 0f4e 5abe
00000200: 661b 753e 4824 133f 0b13 aabe 0598 3d3e
00000210: 0069 643f 050f 383f a0b7 a43e 6b70 683e
00000220: a0dd 873e 235d 0b3e 0e56 bfbe 0455 ecbe
00000230: 0641 afbe 0fbc b3be b557 63be 3e66 003e
00000240: a6c4 9abd ae32 6bbd 7b1f 913e 99ae 32bc
00000250: 7133 4f3e 7a0f 093f 23ee 14be 2cf5 113f
00000260: 9de5 39be 61da 32be de3d dabe e0fa a1be
00000270: ac8d e2be 6bd1 573d cd68 f83e 9790 39be
00000280: 62e2 e4be 8605 913e 4734 fc3d 9340 743e
00000290: 16db 18bf 782a 04be 806e 83be d3cf 18bd
000002a0: b52c 06bf 6017 13bf 1774 13bd b4f9 d13d
000002b0: 8246 ba3e afcd 653e 940d 043f 4a5b 113f
000002c0: 2130 b13e a81a 493d b7a7 9cbe 56f2 0b3f
000002d0: 7a54 52be dd73 4fbe c267 dabe abd4 7b3d
000002e0: ffc6 0ebf d584 6c3e 91e7 01bf bebe 60be
000002f0: 4357 fcbd c4dc ffbe 3a59 4d3e c211 edbd
00000300: bac2 8fbe 7a5a bd3e 2f5e bd3e 52c1 b0be
00000310: e85d fc3e a7be 353f 1c13 003f dbc9 d9be
00000320: 9747 d33c 9b1b 0fbf c10b f13e ef71 3abe
00000330: d63c b73e ab0f d53d ea90 f6bd 1fcb 81be
00000340: accd 04bd 3d1f 1a3f 2ca1 f2b9 57b8 453d
00000350: f336 02bf 1570 063f dd51 dc3e 7eaf a13e
00000360: 2c4b 4b3f 9621 30bf 78f4 68be dce1 603e
00000370: 2c82 1ebf 6116 623e 31e9 ecbe 9d70 8dbe
00000380: cf49 8f3e 9a2b 10bf efb0 9fbd dea4 163e
00000390: 1297 8e3e c6a0 193f 1caf 35be 7b59 c6be
000003a0: c9b0 583f b963 04bd 2e52 35be 1888 0cbe
000003b0: f0bc d8be c79f e63e a14a aa3e 7207 c4be
000003c0: ccf2 e5be 1dd0 c73e 6b5f bc3e 638d f9bd
000003d0: f9c7 d3be 6b22 a2be de57 04bf d31d 92be
000003e0: d708 c3be fb7d 373f e6e1 c73e 1d1c 4cbe
000003f0: a4ec d6bd d53e b93e 9915 a6bd 988d 5bbe

layers.0.bias f4 [128]
-0.37153658 0.45168695 0.4150212 -0.49135578 -0.434061 -0.1470666 -0.3860226 0.20565194
-0.4439756 -0.32072237 0.25097117 -0.0793373 -0.16251233 -0.5922142 0.28127658 0.1816432
-0.15065837 -0.18298312 0.14942491 0.24726184 0.3021055 0.027866367 0.10653952 -0.4618392
0.46520403 0.06448853 -0.37142184 0.5928795 0.35074103 -0.4516066 -0.12097664 -0.1174741
-0.29955813 0.28807428 -0.34569815 0.58590144 -0.20109072 0.38241813 0.14747696 -0.12951261
0.48055542 -0.2521742 -0.09128988 -0.036850605 0.42576683 -0.20030673 -0.25682464 -0.41721246
-0.08710448 -0.15898302 -0.14169708 -0.17855687 0.26858416 0.12464414 -0.21655326 -0.16760373
0.31376263 0.053802904 0.5278473 0.07466407 -0.17046677 -0.2980121 -0.004070823 -0.032431155
0.17538445 -0.14684843 0.12334507 -0.14249639 0.46780592 0.273933 0.010214488 0.5669712
0.25037187 -0.31631365 -0.17275338 0.4392937 0.3141024 0.49939677 0.07275652 0.4874964
0.34851506 0.2667155 -0.029009702 0.6208847 0.28373033 -0.026334148 0.11509444 0.63456464
0.41333026 0.1102037 0.60035825 0.24706773 -0.2535148 -0.57134104 0.43670052 0.5646187
-0.14012437 0.2990864 -0.08002026 -0.03178568 0.058158986 0.2612211 0.17328827 0.43440443
0.2857541 0.39815977 0.5689114 0.2931846 0.21489526 -0.31422105 0.49301994 0.0264697
0.393688 0.41962242 -0.02790768 0.3303328 -0.07969491 0.54982597 0.56068254 -0.07013758
0.0235123 -0.33740225 -0.071677625 -0.028649712 -0.014606362 0.016423794 -0.37277415 -0.3030529
00000000: 0b3a bebe 8343 e73e a97d d43e fc92 fbbe
00000010: 3e3d debe a098 16be c1a4 c5be 6c96 523e
00000020: c550 e3be b935 a4be 4b7f 803e 987b a2bd
00000030: a269 26be 5a9b 17bf 7c03 903e ad00 3a3e
00000040: 3046 1abe ed5f 3bbe d802 193e 3532 7d3e
00000050: 92ad 9a3e 0248 e43c 6431 da3d 3076 ecbe
00000060: 392f ee3e 9012 843d 012b bebe f3c6 173f
00000070: 5494 b33e fb38 e7be 9ac2 f7bd 4396 f0bd
00000080: af5f 99be 797e 933e 59ff b0be a3fd 153f
00000090: baea 4dbe 4fcc c33e 3304 173e f49e 04be
000000a0: 5c0b f63e fa1c 81be 30f6 babd a9f0 16bd
000000b0: 1cfe d93e 351d 4dbe 857e 83be df9c d5be
000000c0: d563 b2bd 72cc 22be 0a19 11be 9dd7 36be
000000d0: dd83 893e 6d45 ff3d 23c0 5dbe 50a0 2bbe
000000e0: 7fa5 a03e 6f60 5c3d 0021 073f 7ae9 983d
000000f0: d78e 2ebe 0b95 98be 8a64 85bb 88d6 04bd
00000100: fb97 333e 6f5f 16be 579c fc3d 93ea 11be
00000110: 4284 ef3e f240 8c3e ab5a 273c 0625 113f
00000120: be30 803e ddf3 a1be 43e6 30be 1beb e03e
00000130: 08d2 a03e efb0 ff3e 5f01 953d 2199 f93e
00000140: 9170 b23e ef8e 883e c1a5 edbc 4df2 1e3f
00000150: 1a45 913e b6ba d7bc a2b6 eb3d d472 223f
00000160: 06a0 d33e 7ab2 e13d 14b1 193f 53ff 7c3e
00000170: b1cc 81be 6843 12bf 3697 df3e da8a 103f
00000180: c37c 0fbe da21 993e a9e1 a3bd b431 02bd
00000190: 1e38 6e3d c6be 853e 7b72 313e 426a de3e
000001a0: 5d4e 923e 99db cb3e 2da4 113f 4b1c 963e
000001b0: 810d 5c3e 95e1 a0be 1c6d fc3e fcd6 d83c
000001c0: 7991 c93e c0d8 d63e a69e e4bc 6121 a93e
000001d0: 1637 a3bd 65c1 0c3f e488 0f3f 4ba4 8fbd
000001e0: de9c c03c fdbf acbe b8cb 92bd cdb2 eabc
000001f0: 864f 6fbc 318b 863c 41dc bebe c029 9bbe

layers.1.weight f4 [128, 128]
0.35438764 0.058454372 0.1589167 0.07184708 0.023627207 0.08517301 -0.13240476 0.16172935
-0.071678914 0.008840503 -0.05834893 0.036921192 -0.07695262 -0.05176634 -0.017541476 0.0027402362
0.10025538 0.09200791 -0.0033500192 0.026484912 -0.0045148036 0.10050294 0.026741749 -0.12096268
0.12006401 -0.037612755 0.06119887 0.031462472 -0.12595414 -0.08434251 0.05220655 -0.0041196095
-0.116323374 0.074893594 -0.01917126 0.12624346 -0.103565164 -0.03656234 0.08003896 -0.030579297
0.1645248 0.040032297 0.014505849 -0.032798003 0.027016748 -0.09763688 0.024483083 -0.11612823
-0.026187101 -0.04058281 0.020736339 -0.069712006 0.050472137 0.024527289 0.01635547 -0.07523756
0.060030024 -0.035329156 0.1114599 0.10950682 -0.05525619 -0.07208196 0.005499989 0.044887453
-0.054759618 -0.059768658 0.06687263 0.057910345 0.11725172 0.028317964 0.023838175 0.047661047
0.1422719 -0.08485079 -0.05845262 0.09191993 0.019259943 0.12231269 0.05602534 0.051137045
0.1547966 0.10433018 0.061060417 0.009336173 0.12092447 0.09575666 0.076093085 0.051237553
0.07147385 0.00889009 0.14397025 0.089741334 -0.02275077 -0.13348581 0.16000524 0.099603474
0.11493978 0.0019447029 0.021693923 -0.034701034 -0.025150469 0.010029805 0.03325746 0.074623875
-0.021329163 0.13323522 0.13088183 0.13207608 0.09724541 0.017333055 0.10371112 0.06281765
0.114949234 -0.04596456 -0.010273167 0.09363219 0.06293544 0.15280122 0.03571862 0.030124644
-0.15461595 -0.012241431 0.14670423 -0.13588916 -0.017679542 0.048228912 -0.020587372 0.0070456616
0.40503934 -0.11713573 -0.0056641717 0.012197951 -0.1361129 0.18835649 0.03313687 -0.19800119
0.17989586 -0.41599506 -0.03789201 -0.22043617 -0.04839432 -0.059707347 0.06472904 -0.074919075
-0.24368052 0.014053277 -0.14009893 -0.12700702 0.1416293 0.071809374 -0.44729707 0.13336818
0.0490412 0.018168837 0.13664205 -0.07020704 0.16853188 0.19871292 0.008990119 0.0523491
0.16556399 -0.10228828 0.22556904 0.10977951 -0.068118334 -0.21595941 0.029581152 0.12907273
-0.114392616 -0.31539014 -0.1244258 -0.10343223 -0.001829192 -0.021776836 -0.15320346 0.16667874
0.04478785 -0.05197369 0.117528245 0.32846174 0.28275955 0.013458574 0.009341255 -0.11274899
0.0949851 0.086836606 0.12929304 -0.07438788 -0.0839179 -0.10013296 -0.02110434 -0.23864256
-0.4564873 -0.04746887 0.17532493 -0.0077744327 -0.054362725 -0.16110201 -0.0271431 0.086005874
-0.09418876 0.00074324134 -0.18520455 0.09993811 0.0030804016 -0.21296172 0.030179871 -0.003205456
0.04937854 0.17875579 -0.08658635 0.11103309 0.002737906 -0.07337519 -0.068020105 0.10039162
-0.035692826 -0.3764405 0.057477627 -0.059216443 0.10421849 -0.08337756 -0.041901976 0.16515483
0.34570733 0.049052607 0.010321863 -0.1390647 -0.6000675 0.15178414 -0.038686175 0.095539026
-0.19674015 -0.23490235 -0.08347135 0.046215 -0.08809211 -0.13240361 -0.21121961 -0.17461014
0.034562945 -0.070246935 0.14258014 0.14668903 0.04275669 0.06726466 -0.0875617 -0.1041826
0.14460446 0.15097179 -0.1593346 0.21651575 0.1596589 0.0064076185 -0.01212215 0.08332944
00000000: 4c72 b53e da6d 6f3d 0fbb 223e 9024 933d
00000010: d88d c13c 306f ae3d 1d95 07be 619c 253e
00000020: 65cc 92bd c2d7 103c 4aff 6ebd ad3a 173d
00000030: 5699 9dbd f108 54bd 24b3 8fbc 8995 333b
00000040: b152 cd3d a56e bc3d ff8b 5bbb e3f6 d83c
00000050: ebf0 93bb 7cd4 cd3d 8311 db3c 48bb f7bd
00000060: 1fe4 f53d d50f 1abd abab 7a3d cbde 003d
00000070: 1ffa 00be c4bb acbd 89d6 553d cafd 86bb
00000080: f33a eebd d061 993d 0c0d 9dbc f745 013e
00000090: f919 d4bd 64c2 15bd 77eb a33d 6f81 fabc
000000a0: 3079 283e e8f8 233d f1a9 6d3c 3357 06bd
000000b0: 3a52 dd3c d8f5 c7bd bf90 c83c a3d4 edbd
000000c0: 5586 d6bc 293a 26bd 41df a93c 2bc5 8ebd
000000d0: dfbb 4e3d 74ed c83c e8fb 853c 2616 9abd
000000e0: 0be2 753d 4eb5 10bd 1745 e43d 1d45 e03d
000000f0: 5154 62bd b59f 93bd 4039 b43b e8db 373d
00000100: 9f4b 60bd fbcf 74bd 84f4 883d 6633 6d3d
00000110: ab21 f03d 13fb e73c 4748 c33c 3b38 433d
00000120: baaf 113e 40c6 adbd 046c 6fbd 8440 bc3d
00000130: 07c7 9d3c 137f fa3d d47a 653d 1475 513d
00000140: 0083 1e3e 10ab d53d 7d1a 7a3d bff6 183c
00000150: 40a7 f73d 111c c43d b1d6 9b3d 78de 513d
00000160: e260 923d bda7 113c f06c 133e 4eca b73d
00000170: d35f babc 81b0 08be 6ad8 233e e8fc cb3d
00000180: 8c65 eb3d 67e5 fe3a 74b7 b13c ac22 0ebd
00000190: 5b08 cebc 0d54 243c f938 083d 67d4 983d
000001a0: 7fba aebc d06e 083e e305 063e f43e 073e
000001b0: 9a28 c73d 0dfe 8d3c 7f66 d43d 8aa6 803d
000001c0: 816a eb3d 5645 3cbd c950 28bc 3cc2 bf3d
000001d0: 4ce4 803d ec77 1c3e b04d 123d f5c7 f63c
000001e0: a553 1ebe 4890 48bc a239 163e 8726 0bbe
000001f0: b0d4 90bc ae8b 453d d9a6 a8bc 4bdf e63b
00000200: 5161 cf3e dce4 efbd 849a b9bb ead9 473c
00000210: 2e61 0bbe 86e0 403e 87ba 073d d3c0 4abe
00000220: 9f36 383e 4efd d4be a734 1bbd 05ba 61be
00000230: 1f39 46bd b18f 74bd a990 843d 2c6f 99bd
00000240: 6387 79be b73f 663c 1876 0fbe 210e 02be
00000250: 4507 113e cb10 933d 1f04 e5be ab91 083e
00000260: 6ddf 483d d0d6 943c e5eb 0b3e b5c8 8fbd
00000270: 9f93 2c3e 667b 4b3e 4b4b 133c 036c 563d
00000280: 9b89 293e 857c d1bd 92fb 663e 14d4 e03d
00000290: a081 8bbd 7724 5dbe 2c54 f23c a42b 043e
000002a0: ad46 eabd d17a a1be f4d2 febd 47d4 d3bd
000002b0: 80c1 efba 5665 b2bc 5ee1 1cbe d5ad 2a3e
000002c0: 7773 373d 5de2 54bd a6b2 f03d 232c a83e
000002d0: dcc5 903e 5a81 5c3c 100c 193c f1e8 e6bd
000002e0: 8c87 c23d 64d7 b13d 6565 043e ac58 98bd
000002f0: 26dd abbd 8212 cdbd 02e3 acbc b75e 74be
00000300: b4b8 e9be b86e 42bd 6188 333e abc0 febb
00000310: 73ab 5ebd edf7 24be 355b debc d923 b03d
00000320: 09e6 c0bd 15d6 423a 43a6 3dbe 5aac cc3d
00000330: 90e0 493b a312 5abe c73b f73c a112 52bb
00000340: 2741 4a3d c20b 373e 2f54 b1bd 5165 e33d
00000350: 716e 333b bb45 96bd 204e 8bbd 1f9a cd3d
00000360: a432 12bd cfbc c0be a96d 6b3d f18c 72bd
00000370: 8170 d53d dbc1 aabd 68a1 2bbd 591e 293e
00000380: 8d00 b13e 63eb 483d 081d 293c fa66 0ebe
00000390: 069e 19bf 4d6d 1b3e 6575 1ebd f7a9 c33d
000003a0: 4076 49be 3e8a 70be 07f3 aabd f14b 3d3d
000003b0: a369 b4bd d094 07be f449 58be 00cd 32be
000003c0: e091 0d3d a0dd 8fbd 8700 123e a635 163e
000003d0: a421 2f3d 0ec2 893d 8c53 b3bd b05d d5bd
000003e0: 3113 143e 5998 1a3e 9c28 23be 4eb6 5d3e
000003f0: 9f7d 233e 00f7 d13b fb9b 46bc a0a8 aa3d

layers.1.bias f4 [128]
0.14427364 -0.0076345876 0.075152546 0.03661098 -0.03645799 0.08825017 0.1092675 -0.051480774
0.14635573 0.11638439 -0.018851275 0.04757794 0.0063228603 0.089096084 0.02052471 0.090747416
0.12341125 -0.07252721 -0.066191345 0.06579491 0.17563346 0.086568005 -0.06784461 0.10811397
0.19778353 0.008173141 0.058072865 0.052084807 0.0897199 0.1387741 0.05499512 0.023649398
0.10537795 0.14845021 0.07754245 0.095641606 -0.0013842566 0.1119821 -0.052138444 0.18143912
-0.0019880813 -0.067508265 0.04595601 0.046020553 -0.07763972 0.16511393 0.10261167 0.1471436
0.16398388 0.09219574 -0.042061564 0.110583775 0.16098672 0.10877272 0.09954954 0.17975192
0.11864108 0.16465019 0.1057566 -0.00097427977 0.16159795 -0.03575239 -0.02121209 0.06555488
0.09052764 -0.004784056 0.06486301 0.13324241 0.16292255 0.13489082 -0.025007276 0.16972378
0.047068875 0.0686761 0.009200351 0.17501351 0.19813235 0.0121397255 0.076048546 0.043075904
0.19821687 0.086928755 0.15208046 0.037756614 -0.0013111196 0.18244417 -0.042379297 0.026323609
0.15934828 0.031245315 0.1429808 0.04912973 0.12348624 0.14299002 0.13326782 0.018921584
0.12831429 0.12655535 0.051187966 0.054853983 -0.04937752 0.19208366 0.0941305 -0.059574872
0.030144548 0.022981321 0.12330838 0.06546607 0.081301756 0.06723022 0.097799435 0.16310896
0.1618248 0.13212346 0.03027449 0.07029363 0.0595956 0.10434093 0.115079574 0.094896235
-0.016929302 0.004171491 0.08049433 0.18060797 0.13202399 -0.05561386 0.13303225 0.15008013
00000000: 78bc 133e 902b fabb 94e9 993d 65f5 153d
00000010: f954 15bd 81bc b43d a4c7 df3d 81dd 52bd
00000020: 47de 153e f05a ee3d fd6d 9abc 16e1 423d
00000030: ff2f cf3b 0278 b63d 7023 a83c c8d9 b93d
00000040: 0abf fc3d 2589 94bd 548f 87bd 7bbf 863d
00000050: 42d9 333e 914a b13d 1df2 8abd db6a dd3d
00000060: c487 4a3e a3e8 053c d0dd 6d3d e156 553d
00000070: 11bf b73d cc1a 0e3e 9042 613d 62bc c13c
00000080: 65d0 d73d 5503 183e 93ce 9e3d bfdf c33d
00000090: f26f b5ba df56 e53d 1f8f 55bd 2dcb 393e
000000a0: 784a 02bb c641 8abd 5f3c 3c3d 0c80 3c3d
000000b0: 9301 9fbd a013 293e 1126 d23d d0ac 163e
000000c0: 64eb 273e 1fd1 bc3d bf48 2cbd bf79 e23d
000000d0: b4d9 243e 3bc4 de3d a1e0 cb3d e310 383e
000000e0: 18fa f23d 0f9a 283e eb96 d83d cf66 7fba
000000f0: ef79 253e 1971 12bd fac4 adbc a341 863d
00000100: 8e66 b93d 92c3 9cbb e6d6 843d b370 083e
00000110: 2bd5 263e d220 0a3e 0fdc ccbc 12cc 2d3e
00000120: 4bcb 403d 0ea6 8c3d 12bd 163c be36 333e
00000130: 35e3 4a3e b3e5 463c 57bf 9b3d 5c70 303d
00000140: 5df9 4a3e b407 b23d fbba 1b3e aea6 1a3d
00000150: e0d9 abba a5d2 3a3e ea95 2dbd 9ca4 d73c
00000160: 322c 233e 2df6 ff3c 8f69 123e 413c 493d
00000170: 5be6 fc3d fa6b 123e 5c77 083e 7001 9b3c
00000180: d264 033e ba97 013e 79aa 513d 92ae 603d
00000190: 1540 4abd 94b1 443e 7ec7 c03d c804 74bd
000001a0: b3f1 f63c 5343 bc3c 1b89 fc3d 1313 863d
000001b0: 8981 a63d ffaf 893d 124b c83d 0906 273e
000001c0: 66b5 253e 5f4b 073e 3502 f83c 1bf6 8f3d
000001d0: 841a 743d b3b0 d53d d7ae eb3d f558 c23d
000001e0: 52af 8abc 01b1 883b 36da a43d 4cf1 383e
000001f0: 4c31 073e 5ccb 63bd 9b39 083e 9bae 193e

layers.2.weight f4 [64, 128]
0.016499935 0.0036381832 0.017688807 0.14111046 0.24499974 0.2521853 0.091383055 -0.2966864
0.06607356 -0.40917102 0.0074477005 -0.015229769 0.0873651 0.1698893 0.016853493 -0.013252135
-0.043962 -0.15646462 -0.00836179 0.056745786 -0.1389731 -0.07945893 -0.038378783 -0.516222
-0.24358834 -0.11870033 -0.5707703 -0.05557764 -0.33787894 0.08880186 -0.07435782 -0.04687301
0.026388563 -0.025273405 0.08107459 -0.115432516 -0.32038987 0.06607218 0.0020645245 0.07010385
0.09414292 0.086579524 -0.059743583 -0.07673037 -0.53903675 0.021809397 0.06262718 -0.004823427
-0.011975412 0.005094266 -0.054232854 -0.036942095 -0.1854736 0.20480709 0.42720646 -0.2586468
-0.32833287 -0.046136517 -0.092425704 -0.040381588 0.03514146 0.0071725906 -0.11785198 -0.15635553
-0.064618155 -0.44171146 -0.083104976 0.12595236 -0.01461252 -0.08953237 -0.023997571 0.26500306
0.0489113 -0.25304148 -0.032941338 -0.18106812 0.029201841 0.28391507 -0.008481005 0.1697183
-0.16150832 -0.49252042 -0.09582322 -0.5462522 0.3032819 0.056922402 0.25221384 -0.07205893
-0.043452576 -0.065256216 -0.017172214 -0.030955635 0.057626754 0.08896456 0.035412755 0.016906701
-0.038585193 -0.111797355 -0.01770085 -0.10380065 0.31902823 0.16773997 -0.15535577 -0.13270526
-0.29755443 -0.040459078 0.030286398 -0.09506553 -0.006444155 0.3058313 0.5564939 -0.17856273
-0.03536609 -0.023960257 0.34363613 0.07184454 -0.058999386 -0.04079725 0.022834653 -0.17553298
0.24023418 0.16546072 -0.10714065 0.01336799 -0.1250627 -0.0931478 -0.013042558 0.08804324
0.06704572 -0.09422113 -0.12948062 0.14221741 0.15023196 0.16231191 0.066867866 -0.21049339
0.11629654 -0.10151187 -0.060688447 -0.21897683 -0.027252743 0.15581416 0.07286017 -0.11068949
-0.08307887 -0.0075446363 -0.071157634 -0.008338442 0.09792172 -0.062207017 0.036842413 -0.13455574
-0.1571427 -0.12114638 -0.40017465 -0.027169855 -0.2532578 0.1090716 -0.016624168 -0.005629837
0.0021909757 0.0039386484 0.00409972 0.06757438 -0.095145896 -0.033063874 -0.0021917261 -0.004033573
0.033122674 -0.09318985 0.046448924 -0.098118074 -0.4715214 0.05461937 -0.067202374 -0.0768702
0.055428747 0.023114393 0.12993406 0.017493276 -0.006287459 -0.14737275 0.32575947 -0.3005153
-0.4019871 -0.31378892 -0.030164592 -0.092369854 -0.008567271 0.069686435 -0.06116587 -0.012957108
0.13294709 0.043645445 -0.0021230432 0.023962278 0.02904449 -0.051112045 -0.0020938274 0.17811808
0.07886892 -0.14441018 -0.050213505 -0.1308823 0.052997526 -0.01827888 0.06351048 0.025418952
0.005477748 -0.16550918 0.009987186 0.1119457 0.38704926 -0.0050828643 0.10136426 -0.17854635
0.0032461141 0.06886889 -0.027268216 0.056553785 0.061540596 0.029266205 0.055932358 0.013575492
-0.028957816 0.049164735 -0.026512722 -0.080994226 0.3665881 0.05705281 -0.040519945 0.031607438
-0.07123281 0.031339485 0.11817982 -0.082587294 -0.06214298 0.20052776 0.4624454 -0.5136168
-0.011828404 0.08895819 0.2755662 -0.09238063 -0.2707092 -0.03482505 -0.091132335 -0.17652838
0.082834385 -0.07217893 -0.10424588 0.02967528 0.00091276166 -0.05332472 0.039371964 -0.04497477
00000000: df2a 873c 966e 6e3b 1ee8 903c 437f 103e
00000010: 36e1 7a3e 6f1e 813e 0a27 bb3d 48e7 97be
00000020: 9351 873d dd7e d1be d70b f43b 4886 79bc
00000030: 79ec b23d 76f7 2d3e 5610 8a3c 7c1f 59bc
00000040: 8011 34bd 4338 20be e4ff 08bc 456e 683d
00000050: f74e 0ebe 5dbb a2bd 1233 1dbd 2027 04bf
00000060: 396f 79be 2919 f3bd 011e 12bf 61a5 63bd
00000070: 78fe acbe c0dd b53d ea48 98bd eafd 3fbd
00000080: d42c d83c 2c0a cfbc 6f0a a63d e267 ecbd
00000090: 240a a4be da50 873d f94c 073b 9b92 8f3d
000000a0: 01ce c03d 9b50 b13d b0b5 74bd d024 9dbd
000000b0: 50fe 09bf 9fa9 b23c ae42 803d d70d 9ebb
000000c0: 8534 44bc cded a63b 4523 5ebd 9850 17bd
000000d0: cbec 3dbe f3b8 513e ceba da3e 5a6d 84be
000000e0: 3f1b a8be a5f9 3cbd b049 bdbd 2a67 25bd
000000f0: 7ef0 0f3d 0d08 eb3b 615c f1bd aa1b 20be
00000100: 8656 84bd 0128 e2be f132 aabd a8f9 003e
00000110: 5a69 6fbc bf5c b7bd 8e96 c4bc 7bae 873e
00000120: 3757 483d a78e 81be 7fed 06bd ec69 39be
00000130: b338 ef3c 515d 913e eaf3 0abc a2ca 2d3e
00000140: 7062 25be a32b fcbe f73e c4bd 2fd7 0bbf
00000150: c447 9b3e 7727 693d 2c22 813e a293 93bd
00000160: 54fb 31bd 0da5 85bd beac 8cbc ac96 fdbc
00000170: 080a 6c3d 0d33 b63d f70c 113d ec7f 8a3c
00000180: 820b 1ebd 03f6 e4bd 5f01 91bc 6f95 d4bd
00000190: ab57 a33e 07c4 2b3e 9515 1fbe e3e3 07be
000001a0: 0e59 98be 6bb8 25bd 2e1b f83c b7b1 c2bd
000001b0: 7d29 d3bb ec95 9c3e 6276 0e3f 26d9 36be
000001c0: 08dc 10bd 4d48 c4bc 13f1 af3e 3b23 933d
000001d0: 57a9 71bd 041b 27bd bd0f bb3c ebbe 33be
000001e0: f3ff 753e 896e 293e 8f6c dbbd 6a05 5b3c
000001f0: 7010 00be 46c4 bebd 74b0 55bc 0450 b43d
00000200: 444f 893d 02f7 c0bd 9196 04be 71a1 113e
00000210: 68d6 193e 1835 263e 05f2 883d 948b 57be
00000220: e12c ee3d 75e5 cfbd 7394 78bd 763b 60be
00000230: 2541 dfbc bf8d 1f3e b637 953d 2cb1 e2bd
00000240: 4125 aabd ff38 f7bb 18bb 91bd f69d 08bc
00000250: 2f8b c83d c9cc 7ebd 12e8 163d fbc8 09be
00000260: 04ea 20be 981b f8bd b1e3 ccbe 5193 debc
00000270: 02ab 81be ee60 df3d 682f 88bc 7f7a b8bb
00000280: 7996 0f3b c70f 813b f256 863b 7064 8a3d
00000290: dadb c2bd fc6d 07bd 10a3 0fbb 102c 84bb
000002a0: a4ab 073d 52da bebd 3a41 3e3d 21f2 c8bd
000002b0: 416b f1be 8fb8 5f3d 66a1 89bd 206e 9dbd
000002c0: 4109 633d 655a bd3c 6f0d 053e 0f4e 8f3c
000002d0: 0707 cebb e2e8 16be f2c9 a63e 24dd 99be
000002e0: 41d1 cdbe f1a8 a0be bc1b f7bc 682c bdbd
000002f0: bd5d 0cbc c3b7 8e3d 1089 7abd 0d4a 54bc
00000300: 4823 083e 91c5 323d c122 0bbb 8a4c c43c
00000310: b6ee ed3c dd5a 51bd 9838 09bb 9664 363e
00000320: 0786 a13d 43e0 13be adac 4dbd 0206 06be
00000330: ef13 593d 97bd 95bc c811 823d 683b d03c
00000340: ae7e b33b 3d7b 29be 4ba1 233c ca43 e53d
00000350: 522b c63e 288e a6bb 1198 cf3d dbd4 36be
00000360: c2bc 543b 220b 8d3d 9861 dfbc f1a4 673d
00000370: fe11 7c3d aebf ef3c 5419 653d be6b 5e3c
00000380: f138 edbc f660 493d 3531 d9bc 4de0 a5bd
00000390: 6fb1 bb3e 35b0 693d 3ef8 25bd cd76 013d
000003a0: 82e2 91bd d55d 003d 4308 f23d 8723 a9bd
000003b0: a389 7ebd 2657 4d3e a5c5 ec3e 647c 03bf
000003c0: eccb 41bc b62f b63d 0317 8d3e 0e32 bdbd
000003d0: 659a 8abe b6a4 0ebd 97a3 babd dbc3 34be
000003e0: 13a5 a93d 8cd2 93bd dd7e d5bd 9319 f33c
000003f0: 6646 6f3a 066b 5abd 7f44 213d 7737 38bd

layers.2.bias f4 [64]
0.3190353 0.24831685 -0.11067288 0.03467385 0.06403497 0.15831402 -0.045391705 0.018423434
0.049089205 -0.013646967 0.04833369 0.1300709 -0.034686096 0.025056042 0.17620139 0.07780662
0.015066166 0.051441487 0.1953066 0.10529408 0.13688281 0.005164554 -0.05693575 -0.016599339
0.05091698 0.035829704 0.12863432 0.05045515 0.17148307 0.121223524 -0.06955809 0.15695675
-0.08928951 0.17565866 -0.003107164 0.050384387 0.0506039 0.12450033 0.20268676 0.023168761
0.2873355 -0.0716142 -0.025753876 0.16729559 0.17227606 0.18254578 -0.005315434 0.037593354
0.14569436 -0.026891714 0.04453955 0.0021368759 0.18024333 -0.027890181 0.048658013 0.09479589
-0.024209786 -0.05839722 0.02914396 -0.012609906 0.053269856 0.2586894 0.22517748 -0.09957535
00000000: 9858 a33e c646 7e3e 77a8 e2bd 2b06 0e3d
00000010: c424 833d 121d 223e a7ec 39bd beec 963c
00000020: c311 493d 8797 5fbc 8cf9 453d 4e31 053e
00000030: 0213 0ebd 5442 cd3c 236e 343e 1459 9f3d
00000040: 15d8 763c 4fb4 523d 74fe 473e 6ca4 d73d
00000050: 022b 0c3e 6b3b a93b 7635 69bd 56fb 87bc
00000060: 538e 503d 2bc2 123d b7b8 033e 0faa 4e3d
00000070: 4299 2f3e 0a44 f83d 7974 8ebd 45b9 203e
00000080: 6bdd b6bd dddf 333e 90a1 4bbb dc5f 4e3d
00000090: 0946 4f3d 07fa fe3d 1e8d 4f3e 6acc bd3c
000000a0: a31d 933e 77aa 92bd cbf9 d2bc 894f 2b3e
000000b0: 2369 303e 48ed 3a3e 182d aebb 7dfb 193d
000000c0: e730 153e 034c dcbc 1a6f 363d d40a 0c3b
000000d0: b591 383e f379 e4bc a04d 473d 5924 c23d
000000e0: 9a53 c6bc ec31 6fbd 50bf ee3c c799 4ebc
000000f0: 7e31 5a3d f072 843e ed94 663e 29ee cbbd

readout.weight f4 [1, 64]
1.0257459 0.7048753 0.23974594 -0.1817525 -0.123613365 -0.21436073 0.044817366 0.11359094
-0.118842036 0.06855671 -0.20450684 -0.20738186 0.2803903 0.016601834 -0.24491364 0.030228507
0.041517813 0.22804266 -0.34617633 -0.19286543 -0.20030783 -0.0004494917 0.0008473338 0.267928
-0.18836647 -0.31155944 -0.35827443 0.17102924 -0.23500809 -0.21004306 0.32692534 -0.14090125
0.04780512 -0.12646262 0.08290069 -0.17341545 0.06487404 -0.15793999 -0.40627986 -0.1527391
1.0335478 0.36996296 0.036690146 -0.15423347 -0.13734397 -0.14350043 0.08821575 -0.22454634
-0.12322896 0.15747783 -0.17317632 0.1497569 -0.20524786 0.18253754 -0.13376446 -0.20234099
0.026107673 0.06755238 -0.15980025 0.060882725 0.28649536 -0.4731586 0.9310617 0.24970978
00000000: a44b 833f b572 343f f67f 753e 541d 3abe
00000010: 0129 fdbd 6181 5bbe 6a92 373d 5ea2 e83d
00000020: 7463 f3bd 7667 8c3d 3e6a 51be e95b 54be
00000030: 518f 8f3e 9200 883c a4ca 7abe c6a1 f73c
00000040: 950e 2a3d 0484 693e 063e b1be 847e 45be
00000050: 7f1d 4dbe c1a9 ebb9 9c1f 5e3a dc2d 893e
00000060: 24e3 40be b884 9fbe bf6f b7be 4a22 2f3e
00000070: f6a5 70be 8715 57be c262 a73e 6b48 10be
00000080: 4dcf 433d 6b7f 01be d6c7 a93d d293 31be
00000090: aedc 843d 05bb 21be ea03 d0be a367 1cbe
000000a0: 4b4b 843f c96b bd3e 6848 163d 61ef 1dbe
000000b0: e6a3 0cbe c7f1 12be 76aa b43d 7aef 65be
000000c0: 775f fcbd de41 213e 2255 31be df59 193e
000000d0: 7f2c 52be 1feb 3a3e 8df9 08be 7a32 4fbe
000000e0: c2df d53c e758 8a3d ada2 23be 2a60 793d
000000f0: 85af 923e d841 f2be 0f5a 6e3f ecb3 7f3e

layers.0.weight f4 [128, 3]
0.62406456 0.36445323 0.59671307 -0.47481394 0.67391676 -0.30540425 -0.0030399205 -0.09993094
-0.5771257 0.2778246 -0.62559015 0.6189159 -0.0901043 -0.6955517 0.50442517 -0.190356
-0.515549 0.19778162 -0.29964873 -0.7629118 0.30755404 -0.34509525 -0.20495935 0.5424749
-0.06502474 -0.38660496 0.49744123 -0.42804906 0.4194459 0.15042913 0.47741687 -0.5200935
-0.28614584 0.19271639 -0.16779557 -0.42332017 -0.07401543 0.3726683 -0.08181134 0.45698494
-0.7668778 0.44465643 0.5292078 -0.24627954 -0.027537461 -0.20727275 -0.76606596 0.16676874
-0.66367894 0.5259907 0.5383383 -0.2098065 0.037130397 -0.34366915 0.47053906 -0.06244669
0.23306017 -0.23769334 0.093913734 -0.38594556 -0.09410479 0.36490068 0.3662898 -0.6289369
0.24282803 0.12995243 -0.16320157 0.49403232 -0.5029359 -0.15370911 -0.32480013 -0.28649107
0.018803298 -0.22526787 -0.5242609 -0.4257789 0.030097347 0.08209083 0.2787326 -0.32531968
0.46573684 0.3713436 -0.3156246 -0.06180708 -0.4763423 0.06984357 0.027996656 -0.6421249
0.66216505 -0.572287 -0.29666504 0.06929093 0.5779909 0.1306257 0.34010997 -0.13766873
0.14644855 -0.16621111 -0.43937883 0.4282887 0.574074 0.5034238 -0.49347264 0.011779054
0.34369305 0.39304182 0.43136954 0.014675235 0.18634325 0.7904758 0.08287947 -0.30367044
-0.005309454 -0.41134942 -0.4978625 -0.384591 -0.16864929 0.463746 -0.4756285 -0.5131877
-0.13115507 0.25451577 -0.38741395 -0.6724905 -0.36818492 -0.11711648 0.3075642 0.7911985
-0.3587498 0.121087216 0.20685357 -0.40771484 -0.03905696 -0.5571515 0.35305628 0.6826064
-0.77145123 -0.55794597 0.15637596 0.47650063 -0.14755209 -0.5962141 -0.16731507 -0.53711826
0.008646853 0.60192174 0.34215114 -0.44929063 0.6381235 0.1434909 -0.34076285 0.32217517
-0.53319585 -0.053552154 0.65399915 0.07877723 -0.1560395 -0.69923437 -0.43183064 -0.3515236
-0.38516343 -0.054113902 0.25359127 0.5311721 0.057618137 0.42714995 0.6230262 0.29625016
0.47950652 -0.031515613 0.24526507 0.2964095 -0.048047774 -0.5691735 -0.5561718 -0.3512322
-0.050451707 -0.32484496 0.4220988 -0.39365774 0.41100195 0.7883426 -0.4400209 -0.23451968
0.3647105 0.054962195 -0.43497056 -0.07049938 -0.04138303 -0.07207191 0.46110758 0.19589008
-0.20045385 0.38381186 0.190943 -0.2265907 -0.7670815 -0.44436863 0.28163996 0.1533432
0.3840507 -0.1846683 0.6773033 -0.20849448 -0.01879245 -0.4876518 -0.54482263 0.18938059
0.64719254 -0.5505836 0.26977772 -0.5188622 0.4837802 -0.41880035 0.3523561 -0.38698182
-0.29593554 -0.30149096 -0.18312232 0.6589728 0.17415316 0.17127211 -0.1606827 0.45322686
0.06720911 -0.50230414 0.4091628 -0.5047623 0.42099625 -0.25809228 0.33584803 -0.019387957
0.43340743 0.5681029 -0.20051539 0.1618199 0.053821225 -0.531483 0.39335412 0.14375766
0.01795264 0.057189517 -0.2630638 -0.2904527 0.35097402 0.5455516 -0.37304726 -0.19986127
-0.032316342 -0.4996431 0.06894216 -0.4999092 0.22434254 0.49534082 0.41325283 -0.002439248
00000000: b2c2 1f3f 9d99 ba3e 30c2 183f d01a f3be
00000010: cf85 2c3f f25d 9cbe 6739 47bb 98a8 ccbd
00000020: 83be 13bf 073f 8e3e ad26 20bf 4671 1e3f
00000030: 9a88 b8bd ad0f 32bf 0222 013f afec 42be
00000040: 05fb 03bf 4487 4a3e 8f6b 99be 304e 43bf
00000050: b977 9d3e 53b0 b0be dde0 51be a3df 0a3f
00000060: b12b 85bd 16f1 c5be 9eb0 fe3e 3f29 dbbe
00000070: 9dc1 d63e 180a 1a3e fc6f f43e d924 05bf
00000080: b581 92be 7257 453e 9ad2 2bbe 6cbd d8be
00000090: 6795 97bd 61ce be3e b48c a7bd eef9 e93e
000000a0: 1a52 44bf 02aa e33e 2a7a 073f b430 7cbe
000000b0: 3e96 e1bc 4f3f 54be e61c 44bf 6dc5 2a3e
000000c0: dde6 29bf 54a7 063f 8ad0 093f 84d7 56be
000000d0: 0b16 183d 67f5 afbe 7fea f03e 1ac8 7fbd
000000e0: 53a7 6e3e e265 73be d855 c03d a89a c5be
000000f0: 03ba c0bd 43d4 ba3e 568a bb3e 0202 21bf
00000100: e9a7 783e 4012 053e 501e 27be cef1 fc3e
00000110: 68c0 00bf ec65 1dbe 344c a6be f5ae 92be
00000120: 6009 9a3c 9fac 66be f635 06bf b1ff d9be
00000130: b68e f63c 3d1f a83d 0ab6 8e3e 4d90 a6be
00000140: 0f75 ee3e c020 be3e 8c99 a1be 6c29 7dbd
00000150: 23e3 f3be 250a 8f3d 3e59 e53c 4c62 24bf
00000160: a683 293f 6781 12bf 7be4 97be 67e8 8d3d
00000170: 36f7 133f bec2 053e e522 ae3e 08f9 0cbe
00000180: 9cf6 153e 3f33 2abe 43f6 e0be a848 db3e
00000190: 83f6 123f 62e0 003f 72a8 fcbe effc 403c
000001a0: 89f8 af3e c73c c93e 78dc dc3e 6670 703c
000001b0: c4d0 3e3e 9f5c 4a3f b6bc a93d b17a 9bbe
000001c0: eefa adbb 649c d2be d5e7 febe 1de9 c4be
000001d0: 66b2 2cbe 1e70 ed3e 9485 f3be 4560 03bf
000001e0: 844d 06be e44f 823e 1f5b c6be 5628 2cbf
000001f0: bc82 bcbe c4da efbd 0e79 9d3e fc8b 4a3f
00000200: 0eae b7be 93fc f73d 6cd1 533e 00c0 d0be
00000210: 31fa 1fbd 7ba1 0ebf cbc3 b43e 4bbf 2e3f
00000220: d47d 45bf 8cd5 0ebf 0521 203e e4f7 f33e
00000230: e517 17be 7da1 18bf a454 2bbe 9580 09bf
00000240: 88ab 0d3c 8b17 1a3f 6f2e af3e 6c09 e6be
00000250: 105c 233f 47ef 123e 7878 aebe 25f4 a43e
00000260: 867f 08bf 8159 5bbd 7d6c 273f f555 a13d
00000270: d2c8 1fbe 0601 33bf e818 ddbe e7fa b3be
00000280: 2434 c5be 8aa6 5dbd b7d6 813e e5fa 073f
00000290: ff00 6c3d 66b3 da3e a57e 1f3f 1aae 973e
000002a0: e181 f53e 8416 01bd c426 7b3e fcc2 973e
000002b0: becd 44bd 5bb5 11bf 4661 0ebf b5d4 b3be
000002c0: 73a6 4ebd 1452 a6be 551d d83e 828d c9be
000002d0: d96e d23e d2d0 493f 6b4a e1be ed25 70be
000002e0: 56bb ba3e 0a20 613d 76b4 debe fb61 90bd
000002f0: 4181 29bd 709a 93bd 4b16 ec3e 6997 483e
00000300: c643 4dbe fd82 c43e 9086 433e 6407 68be
00000310: 745f 44bf 4984 e3be 1d33 903e 0006 1d3e
00000320: 4ba2 c43e b019 3dbe c063 2d3f 947f 55be
00000330: a0f2 99bc 7fad f9be 7f79 0bbf fcec 413e
00000340: 69ae 253f 0cf3 0cbf 4e20 8a3e 27d4 04bf
00000350: 0ab2 f73e 006d d6be 0568 b43e 7b22 c6be
00000360: dd84 97be 065d 9abe 6b84 3bbe 71b2 283f
00000370: 3555 323e f561 2f3e 018a 24be 5a0d e83e
00000380: eea4 893d 0197 00bf c97d d13e 1a38 01bf
00000390: d28c d73e ac24 84be 46f4 ab3e 7ed3 9ebc
000003a0: 94e7 dd3e 316f 113f e853 4dbe 1eb4 253e
000003b0: a573 5c3d 450f 08bf b665 c93e 3535 133e
000003c0: 6a11 933c 8e3f 6a3d 4cb0 86be 37b6 94be
000003d0: deb2 b33e 45a9 0b3f 0d00 bfbe 6fa8 4cbe
000003e0: 245e 04bd 38d1 ffbe 8c31 8d3d 19f4 ffbe
000003f0: 0dba 653e 509d fd3e e095 d33e cadb 1fbb

layers.0.bias f4 [128]
-0.49618828 -0.36382946 -0.5747401 0.36533144 0.030864585 -0.12179195 -0.05691793 0.2769938
-0.45865637 -0.048670415 0.050624672 -0.387501 -0.09468027 0.58656394 0.56832105 -0.09150762
-0.34393144 0.5145901 0.38046393 0.4897167 0.034399625 0.17725216 -0.16816661 -0.5273154
0.23905066 0.1043689 0.15782489 0.56259197 -0.14836206 -0.04180734 -0.2897407 0.08796045
0.11502622 -0.39942032 0.6110778 0.5481379 0.1176694 0.059561655 0.43736356 0.084523536
0.08809051 -0.24829921 0.26766405 0.20316587 0.08919867 -0.10266382 0.09852914 0.5484435
0.3534372 0.5718594 -0.1275452 -0.44077805 -0.16105543 0.2959265 -0.3255638 -0.16548009
-0.17829658 0.36145794 0.027143726 -0.1382678 -0.013491625 -0.46142766 0.20785832 -0.2515064
0.6370769 -0.19994675 0.15452027 0.16123697 0.08584107 0.24453351 -0.3418146 0.17096488
0.2494043 0.0029928917 -0.46014327 -0.3613271 0.47684485 -0.081787705 0.44603562 0.38302085
0.27492052 -0.028970448 0.285982 -0.49667993 0.35928237 -0.29557014 0.0022484977 -0.22481364
-0.38194934 0.12405647 -0.58235705 0.5655875 0.5256159 0.38195285 0.42000628 0.050276518
0.06775289 0.14792717 -0.43906853 0.08792195 0.004502445 -0.37391168 0.10941049 0.58448
0.00018882214 0.04952755 0.03026176 0.035899922 -0.009452192 -0.18519478 0.41015512 -0.4636903
0.47863695 -0.21569407 0.3356122 -0.2598769 0.3740532 0.49509645 -0.38103408 0.3158776
-0.1597854 0.13036555 0.29252928 0.4600903 0.3433244 0.0073761498 -0.04183012 0.05298492
00000000: 640c febe db47 babe 2b22 13bf b90c bb3e
00000010: bad7 fc3c 0f6e f9bd c622 69bd 22d2 8d3e
00000020: 02d5 eabe a15a 47bd d15b 4f3d 8866 c6be
00000030: bbe7 c1bd 0e29 163f 7d7d 113f 5968 bbbd
00000040: c817 b0be 2dbc 033f 2bcc c23e 26bc fa3e
00000050: 9fe6 0c3d 9781 353e de33 2cbe 24fe 06bf
00000060: b2c9 743e 5dbf d53d d99c 213e 0706 103f
00000070: 39ec 17be 2c3e 2bbd e558 94be 9c24 b43d
00000080: de92 eb3d d280 ccbe 986f 1c3f c452 0c3f
00000090: a8fc f03d ecf6 733d 1eee df3e ad1a ad3d
000000a0: cc68 b43d 2642 7ebe 430b 893e b70a 503e
000000b0: cbad b63d 6941 d2bd a5c9 c93d cb66 0c3f
000000c0: b8f5 b43e 6165 123f 359b 02be a9ad e1be
000000d0: b7eb 24be ae83 973e 4cb0 a6be 9d73 29be
000000e0: 6193 36be 0411 b93e 855c de3c 1396 0dbe
000000f0: fa0b 5dbc 3f40 ecbe d0d8 543e 72c5 80be
00000100: 7917 233f d7be 4cbe 903a 1e3e 4e1b 253e
00000110: 71cd af3d fe66 7a3e 5302 afbe 6b11 2f3e
00000120: d763 7f3e 6424 443b e697 ebbe deff b8be
00000130: 0225 f43e 5080 a7bd c85e e43e 4f1b c43e
00000140: 62c2 8c3e 6f53 edbc 3c6c 923e d54c febe
00000150: dcf3 b73e f854 97be 885b 133b 8c35 66be
00000160: dd8e c3be 5211 fe3d 5a15 15bf 58ca 103f
00000170: c38e 063f 538f c33e 100b d73e c0ee 4d3d
00000180: 07c2 8a3d 387a 173e 97cd e0be 6c10 b43d
00000190: 3f89 933b 5a71 bfbe 9b12 e03d 7ba0 153f
000001a0: 8ffe 4539 66dd 4a3d 83e7 f73c cc0b 133d
000001b0: 5edd 1abc b3a3 3dbe daff d13e d168 edbe
000001c0: e70f f53e e8de 5cbe 5dd5 ab3e 960e 85be
000001d0: e783 bf3e 487d fd3e e616 c3be b5ba a13e
000001e0: c99e 23be 8c7e 053e 66c6 953e f590 eb3e
000001f0: 37c8 af3e a1b3 f13b 0f56 2bbd b706 593d

layers.1.weight f4 [128, 128]
-0.12894435 0.057340827 -0.010752314 -0.05368537 -0.043920882 0.1425034 0.08660188 0.009784721
-0.25332698 -0.05777189 -0.016202083 0.06619479 -0.124124125 0.050330933 -0.004347021 0.007490251
-0.045398936 0.043825675 -0.19520111 0.05068786 -0.012448947 -0.13278687 0.030418495 0.035742424
-0.08496415 0.017894857 -0.2654121 -0.07328525 -0.2446084 0.07775033 -0.12745507 0.0953766
0.0399864 -0.19593923 -0.12433831 -0.07075373 0.1383305 0.06191983 0.040328737 0.02393615
0.0012394555 0.07409111 -0.07945319 0.025051216 -0.05466651 0.018973019 0.081428036 0.01831448
-0.009327681 -0.030297792 0.0059063956 0.35417035 0.094330005 0.0025770045 0.013962381 -0.095889635
0.060671646 -0.09956845 0.06369608 -0.07173591 0.010656254 0.17427622 -0.022557983 0.22621065
0.0049851043 -0.035018485 -0.076892234 0.005579725 -0.06080055 0.06733922 -0.17689426 0.058864664
0.049873713 -0.10593951 0.20878872 -0.020183261 0.053672887 -0.02168079 0.01910169 0.0049225446
-0.02784132 0.027753767 0.09722394 -0.02208686 0.043296747 0.25712863 -0.023747154 0.30208313
-0.04345515 -0.02621246 0.02007864 0.047503795 -0.08738657 -0.04332359 -0.056644555 0.091759965
0.004622306 0.013288193 -0.05991777 0.0131288525 0.072698824 0.043394193 -0.05953903 0.05405031
0.08467711 0.10847486 0.056135412 0.038348805 -0.18934792 -0.03773411 -0.054526012 -0.18342257
0.06961245 0.05973038 0.09088737 -0.24784613 0.017245889 0.011842814 -0.03291523 0.06663195
-0.090111904 -0.0068309256 -0.021600276 -0.0028664966 0.03402462 0.046369735 0.079368465 0.037582517
-0.1570799 0.087674566 -0.099496745 -0.096970186 -0.25827727 -0.06455551 -0.14415346 -0.05820632
-0.25221336 0.04863956 -0.110215776 0.023463817 -0.18191698 -0.16402225 0.05331307 -0.03956455
0.0073806685 -0.022774452 -0.032230526 -0.02545768 0.015039508 0.034513194 0.055034045 -0.0785955
-0.10394377 0.034368236 -0.27207294 -0.056731477 0.042460706 0.08183678 -0.109606214 -0.009130838
-0.06454153 -0.095493145 -0.049486037 0.02599161 -0.0066936053 0.04844337 -0.034486074 0.019320766
0.0057801665 0.001222974 -0.08167653 -0.006907845 -0.18929954 -0.08860242 0.1149993 0.02558284
0.020442355 -0.036549084 -0.04647713 0.29703054 0.005862117 0.09162166 0.10912681 0.14240274
0.08240441 0.05451323 0.070232905 0.034203537 -0.034002453 0.18727137 0.07667381 0.20060891
-0.05563661 0.06769235 -0.14011572 0.08615496 0.061907172 0.04995179 -0.22614777 -0.021830201
-0.04160788 -0.15998921 0.24111274 0.006540766 -0.046133947 -0.10133819 0.006959077 0.095291995
0.016794488 -0.0068422523 0.09421193 -0.071511924 0.07012581 0.20680538 -0.06620461 0.2426965
-0.12255114 0.055460673 -0.003342002 -0.30725548 0.019240318 -0.036395498 -0.11265908 -0.015858991
0.036538623 -0.118352026 -0.2931303 0.09238758 -0.028960213 0.0177772 -0.17297177 -0.014230471
-0.36789218 0.082869634 0.004316986 -0.04933118 -0.23740295 -0.06302059 -0.067685395 -0.219111
-0.18773344 -0.005432604 0.053248387 -0.22004254 -0.04850019 -0.13094243 -0.16285941 0.11210429
-0.16014843 0.06693924 0.0025884255 0.015674705 0.102712184 0.23808247 -0.004957598 0.039808128
00000000: fd09 04be 37de 6a3d 792a 30bc 31e5 5bbd
00000010: 62e6 33bd 69ec 113e 545c b13d 1850 203c
00000020: 13b4 81be 38a2 6cbd 3bba 84bc 2291 873d
00000030: ca34 febd cf27 4e3d 7571 8ebb c870 f53b
00000040: 3cf4 39bd 8d82 333d cde2 47be 139e 4f3d
00000050: abf6 4bbc 48f9 07be 3530 f93c a666 123d
00000060: af01 aebd 3c98 923c 18e4 87be 9416 96bd
00000070: a07a 7abe 913b 9f3d 9583 02be cf54 c33d
00000080: c8c8 233d 4ba4 48be 15a5 febd 55e7 90bd
00000090: 83a6 0d3e a69f 7d3d bf2f 253d bf15 c43c
000000a0: 3a75 a23a 14bd 973d 5bb8 a2bd 3538 cd3c
000000b0: fee9 5fbd 4e6d 9b3c bec3 a63d 4008 963c
000000c0: 21d3 18bc 1333 f8bc 708a c13b d155 b53e
000000d0: 1730 c13d f6e2 283b 78c2 643c c961 c4bd
000000e0: d582 783d 8bea cbbd 1773 823d 47ea 92bd
000000f0: 9297 2e3c 7775 323e 85cb b8bc c4a3 673e
00000100: 165a a33b 8b6f 0fbd ad79 9dbd 20d6 b63b
00000110: ff09 79bd 25e9 893d c523 35be 131c 713d
00000120: 6148 4c3d d0f6 d8bd b6cc 553e 5e57 a5bc
00000130: 1ad8 5b3d ea9b b1bc 267b 9c3c 4c4d a13b
00000140: 7b13 e4bc de5b e33c 581d c73d 81ef b4bc
00000150: ee57 313d 5da6 833e 6489 c2bc a4aa 9a3e
00000160: 07fe 31bd 83bb d6bc f67b a43c 5793 423d
00000170: bbf7 b2bd 1474 31bd 1f04 68bd a6ec bb3d
00000180: b776 973b b9b6 593c 566c 75bd 661a 573c
00000190: 1fe3 943d 1cbe 313d 33df 73bd dc63 5d3d
000001a0: 316b ad3d 1128 de3d 3fee 653d a313 1d3d
000001b0: 6ce4 41be 158f 1abd ab56 5fbd 20d3 3bbe
000001c0: f990 8e3d d8a7 743d 2823 ba3d 60cb 7dbe
000001d0: 4047 8d3c 5d08 423c 1fd2 06bd 5576 883d
000001e0: 978c b8bd f5d5 dfbb 10f3 b0bc d5db 3bbb
000001f0: 665d 0b3d 31ee 3d3d ef8b a23d 20f0 193d
00000200: 8ed9 20be b98e b33d f3c4 cbbd 4e98 c6bd
00000210: eb3c 84be ae35 84bd f79c 13be c069 6ebd
00000220: 1c22 81be 463a 473d cfb8 e1bd 3137 c03c
00000230: 7248 3abe 73f5 27be ce5e 5a3d 700e 22bd
00000240: 89d9 f13b 7d91 babc 2804 04bd a08c d0bc
00000250: 4568 763c b55d 0d3d 616b 613d adf6 a0bd
00000260: 79e0 d4bd b5c5 0c3d 254d 8bbe 445f 68bd
00000270: 47eb 2d3d 0b9a a73d 3979 e0bd 8399 15bc
00000280: 5a2e 84bd e991 c3bd dfb1 4abd 5bec d43c
00000290: 0856 dbbb 8e6c 463d 4541 0dbd 9546 9e3c
000002a0: 8d67 bd3b 334c a03a 0646 a7bd 345b e2bb
000002b0: bdd7 41be 3075 b5bd c184 eb3d 1b93 d13c
000002c0: ba76 a73c 7eb4 15bd ce5e 3ebd 6314 983e
000002d0: 0017 c03b 23a4 bb3d e17d df3d 06d2 113e
000002e0: a5c3 a83d 4449 5f3d 45d6 8f3d 0219 0c3d
000002f0: 2846 0bbd 11c4 3f3e 2907 9d3d 6c6c 4d3e
00000300: 37e3 63bd 49a2 8a3d 7f7a 0fbe 0372 b03d
00000310: 6092 7d3d 409a 4c3d 4893 67be 40d5 b2bc
00000320: 066d 2abd 36d4 23be 42e6 763e ec53 d63b
00000330: f3f6 3cbd 668a cfbd f808 e43b 7328 c33d
00000340: 9894 893c f934 e0bb 2ff2 c03d d874 92bd
00000350: 1f9e 8f3d cac4 533e 4896 87bd 6e85 783e
00000360: 18fc fabd bb2a 633d 7d05 5bbb 9750 9dbe
00000370: df9d 9d3c 7213 15bd ceb9 e6bd b7ea 81bc
00000380: 86a9 153d 8c62 f2bd 2d15 96be b335 bd3d
00000390: f83d edbc 7ea1 913c 831f 31be ec26 69bc
000003a0: 5d5c bcbe 8eb7 a93d 8175 8d3b 7e0f 4abd
000003b0: c219 73be f010 81bd a49e 8abd a25e 60be
000003c0: 323d 40be fc03 b2bb fb1a 5a3d d552 61be
000003d0: 23a8 46bd c615 06be 9ec4 26be ef96 e53d
000003e0: f3fd 23be 7117 893d 93a2 293b 3d68 803c
000003f0: c45a d23d e4cb 733e 5973 a2bb d90d 233d

layers.1.bias f4 [128]
0.019261798 0.05875882 -0.09266146 0.0016482339 0.048889797 -0.046984848 0.097641416 0.011529206
0.027469244 0.045764606 0.048442494 -0.045175236 -0.07810427 0.039346993 -0.007207776 -0.042653777
0.019272521 0.011478635 -0.11865836 0.04244641 0.052546863 -0.037221145 0.048713505 0.011350809
-0.026925193 0.04602004 0.09825367 0.08672869 0.06899859 0.01754193 0.06310954 0.088375844
0.016727312 -0.0231839 0.08995368 0.04288696 -0.048513256 0.090986736 0.017416313 -0.062627435
0.06877864 0.02745583 0.03254666 0.017105429 0.06110878 0.04837617 0.00082358456 0.082427986
0.066537485 0.055474184 0.090199694 0.11741538 0.0036072722 -0.019304993 -0.028496917 -0.0139910355
0.07241352 0.0013771098 0.086489044 0.0028552003 -0.03941054 -0.029888958 -0.083329596 -0.004709647
0.022431975 -0.04795691 -0.02829319 -0.06888436 -0.092673734 0.052136373 0.05741192 0.08680216
-0.046006564 -0.016688965 0.046474274 0.024547117 0.038131278 -0.095033005 0.008167893 -0.047080528
0.069712326 -0.085624106 -0.033950895 0.09824779 0.08097605 0.0015168072 0.03488092 -0.023836574
-0.051836237 -0.071954325 0.1047794 0.062866144 -0.020554118 -0.052289344 0.015143068 -0.050974347
-0.056789972 0.08011241 -0.04084089 -0.067820445 0.08696237 -0.010419904 -0.00019263246 0.057317186
-0.04944511 -0.044264976 -0.010616145 -0.014727965 0.098439336 -0.044461064 -0.007647506 -0.004575388
0.035991434 0.053219035 -0.027835937 0.03975178 -0.071528584 0.07627979 -0.012335264 -0.08871791
0.07840163 -0.09004882 0.0047205877 0.097745456 0.035112288 -0.032578748 0.008713307 -0.02163101
00000000: ebca 9d3c 17ad 703d 4bc5 bdbd 8d09 d83a
00000010: ab40 483d 2f73 40bd 39f8 c73d ffe4 3c3c
00000020: 2e07 e13c ab73 3b3d a36b 463d ab09 39bd
00000030: 22f5 9fbd 502a 213d 352f ecbb bab5 2ebd
00000040: 68e1 9d3c e210 3c3c 2703 f3bd 49dc 2d3d
00000050: 613b 573d 3375 18bd d087 473d bef8 393c
00000060: 3992 dcbc 827f 3c3d 3839 c93d d09e b13d
00000070: 224f 8d3d 18b4 8f3c 933f 813d 65fe b43d
00000080: b707 893c 2aec bdbc a339 b83d 3daa 2f3d
00000090: d6b5 46bd 4157 ba3d a8ac 8e3c d042 80bd
000000a0: d1db 8c3d 0ceb e03c a64f 053d af20 8c3c
000000b0: 334d 7a3d 1726 463d d3e5 573a 01d0 a83d
000000c0: ce44 883d e638 633d 9eba b83d 7a77 f03d
000000d0: fc67 6c3b 8125 9ebc 5e72 e9bc a83a 65bc
000000e0: 8a4d 943d 2380 b43a 2b21 b13d 501e 3b3b
000000f0: f26c 21bd b0d9 f4bc b5a8 aabd 6253 9abb
00000100: 43c3 b73c 776e 44bd 1fc7 e7bc 3e13 8dbd
00000110: bacb bdbd f38c 553d c328 6b3d 55c5 b13d
00000120: 6171 3cbd 4cb7 88bc cf5b 3e3d 0917 c93c
00000130: 8b2f 1c3d aaa0 c2bd a0d2 053c 83d7 40bd
00000140: 56c5 8e3d b15b afbd 1810 0bbd 2336 c93d
00000150: c5d6 a53d 9bcf c63a 4cdf 0e3d eb44 c3bc
00000160: 3c52 54bd ca5c 93bd 9596 d63d f7bf 803d
00000170: 1c61 a8bc 5a2d 56bd a11a 783c 7aca 50bd
00000180: 9a9c 68bd fa11 a43d c748 27bd 72e5 8abd
00000190: 5419 b23d 3fb8 2abc 62fd 49b9 6dc5 6a3d
000001a0: f586 4abd 314f 35bd 57ef 2dbc 904d 71bc
000001b0: 909a c93d ce1c 36bd ee97 fabb 23ed 95bb
000001c0: c16b 133d 34fc 593d 3108 e4bc c3d2 223d
000001d0: 947d 92bd 9438 9c3d d919 4abc bcb1 b5bd
000001e0: 0991 a03d 846b b8bd 29af 9a3b c52e c83d
000001f0: e7d1 0f3d 4b71 05bd 42c2 0e3c 8433 b1bc

readout.weight f4 [1, 128]
-0.07645909 -0.6289967 -0.35034156 0.08243162 0.14927253 0.10159567 0.15953754 0.09030594
-0.08548493 -0.032580562 -0.24697085 0.12087136 -0.38691536 0.081297375 -0.14482857 -0.17127883
-0.30148685 -0.13732722 -0.5611161 -0.7933195 -0.13354196 -0.5134809 -0.06024257 -0.11130327
-0.13780662 0.24327524 -0.24509847 0.1131999 -0.31506145 -0.083314665 -0.24464218 0.12378897
-0.043057576 -0.24353206 -0.38038793 0.17377508 0.10575498 0.084838554 0.047869544 -0.12619865
-0.22408015 -0.075964205 0.021638984 -0.1372467 -0.20861728 0.15662208 0.16408873 0.14061496
-0.29288533 -0.13205945 0.094581544 -0.12988505 -0.18443352 -0.5239161 0.065267734 -0.14585656
-0.28467909 0.23425122 0.17566034 0.03547314 -1.0483936 0.10288734 0.21803601 -0.03141857
0.15873832 -0.06890925 -0.07215869 -0.24003436 0.09356351 -0.079407655 0.07474326 -0.14861913
-0.6041908 0.12311235 -0.09909271 0.10162367 0.10542149 -0.14200228 -0.46245378 -0.22546862
0.32891655 -0.2873786 0.09685204 0.121201314 0.03074426 -0.30566216 0.11422801 -0.67702377
0.23476131 -0.23866853 0.0529156 0.10826159 0.06514986 -0.065332785 0.2441779 0.47163513
-0.22011414 0.110221535 0.028367301 -0.18497077 -0.22155046 0.36080626 0.050285242 0.14851631
-0.13385627 0.07884762 -0.17333747 0.09419423 0.25319907 -0.50856066 0.11288663 -0.071297444
-0.082971804 -0.10254506 -0.099514715 -0.117134005 0.033396434 -0.047893453 0.14555545 -0.17801256
-0.1853192 -0.16469738 0.024234036 0.085750654 -0.6575602 0.05167573 0.27929685 0.09553707
00000000: 9596 9cbd ed05 21bf f85f b3be e9d1 a83d
00000010: e6da 183e 6411 d03d cf5d 233e 52f2 b83d
00000020: b912 afbd 3273 05bd ede5 7cbe 678b f73d
00000030: c519 c6be 3d7f a63d f14d 14be b863 2fbe
00000040: 7c5c 9abe 829f 0cbe 4ea5 0fbf fd16 4bbf
00000050: 39bf 08be 7c73 03bf eac0 76bd f8f2 e3bd
00000060: 2e1d 0dbe 251d 793e 18fb 7abe 59d5 e73d
00000070: bc4f a1be e1a0 aabd 7b83 7abe 1285 fd3d
00000080: 245d 30bd 7860 79be 35c2 c2be 18f2 313e
00000090: 1196 d83d d6bf ad3d db12 443d 383a 01be
000000a0: 4475 65be 1f93 9bbd 3d44 b13c 668a 0cbe
000000b0: c59f 55be 8a61 203e e006 283e 5efd 0f3e
000000c0: 11f5 95be 983a 07be f8b3 c13d 9600 05be
000000d0: 24dc 3cbe 5e1f 06bf 17ab 853d 6c5b 15be
000000e0: 75c1 91be 8ddf 6f3e 4ee0 333e 494c 113d
000000f0: c331 86bf 99b6 d23d d544 5f3e c2b0 00bd
00000100: 4c8c 223e 4b20 8dbd efc7 93bd 91cb 75be
00000110: 3a9e bf3d 7ba0 a2bd ff12 993d 9d2f 18be
00000120: 40ac 1abf 5422 fc3d 1ef1 cabd 1220 d03d
00000130: 39e7 d73d 0c69 11be bec6 ecbe 3fe1 66be
00000140: c067 a83e 4a23 93be 5d5a c63d 6538 f83d
00000150: 63db fb3c c07f 9cbe 60f0 e93d 6e51 2dbf
00000160: 4565 703e 8665 74be 07be 583d 41b8 dd3d
00000170: 4a6d 853d 32cd 85bd c509 7a3e 297a f13e
00000180: 9a65 61be d4bb e13d 8b62 e83c fa68 3dbe
00000190: 20de 62be 99bb b83e e6f7 4d3d a914 183e
000001a0: 9e11 09be dc7a a13d 617f 31be e8e8 c03d
000001b0: 4fa3 813e 0831 02bf 1b31 e73d 6504 92bd
000001c0: 1fed a9bd 2503 d2bd 5fce cbbd f4e3 efbd
000001d0: b3ca 083d ed2b 44bd 7d0c 153e ed48 36be
000001e0: 51c4 3dbe 6ea6 28be 7586 c63c 0a9e af3d
000001f0: de55 28bf eea9 533d ffff 8e3e f0a8 c33d
