HW9/9_gym-DDPG/results/DDPG_Pendulum-v1_1000-eps0.1-t32-l0.001-s1-u20.pth (torch, 176098 bytes, 12 tensors)

layers.0.weight f4 [128, 4]
0	0x3e25a1d7	0.16175018
1	0xbf3b415f	-0.73146623
2	0xbe1a14aa	-0.15046945
3	0x3c9a007e	0.018799063
4	0xbf0e4e37	-0.55588096
5	0x3e73eaaf	0.23819993
6	0xbe2144e6	-0.15748939
7	0x3d79a984	0.06095268
8	0x3c1e334b	0.009655784
9	0x3d82b8b7	0.06382888
10	0x3d608f8e	0.054824404
11	0xbc97d9a5	-0.018536398
12	0x3e36c07a	0.17846861
13	0xbe424729	-0.18972458
14	0xbcff6d91	-0.031180175
15	0xbd2450f3	-0.04011626
16	0x3d0656ce	0.032797627
17	0x3ebff064	0.3748809
18	0x3ee962dc	0.45583236
19	0x3c3d266f	0.011544808
20	0xbec1f847	-0.37884733
21	0xbf2dfd65	-0.67964774
22	0xbd15c6ca	-0.036566533
23	0xbe895ca8	-0.26828504
24	0xbe001e73	-0.12511615
25	0x3f186449	0.59528023
26	0x3ec37f36	0.38182992
27	0x3d8313ee	0.06400286
28	0xbef25022	-0.4732676
29	0x3f2655aa	0.64974463
30	0x3e0768ef	0.13223623
31	0x3e8d5e1b	0.2761086
32	0x3ec75f67	0.38939974
33	0xbfa88f99	-1.3168823
34	0xbeafd116	-0.34339207
35	0xbde0cd57	-0.109766655
36	0x3f5a3423	0.85235804
37	0x3ecc6f3e	0.3992862
38	0x3e86a7db	0.2629994
39	0xbd2fcdfd	-0.042921055
40	0x3ed371dd	0.41297808
41	0xbea2df1d	-0.31810847
42	0x3ed6b76b	0.41936812
43	0xbd63a69f	-0.055578824
44	0xbf269ccf	-0.6508302
45	0xbe8edc46	-0.2790243
46	0xbea8ba16	-0.32954472
47	0x3eae947b	0.34097657
48	0xbe8e46ea	-0.27788478
49	0xbe8f1d41	-0.27952006
50	0xbf028d68	-0.5099702
51	0xbdddb8c5	-0.108262576
52	0x3e6f8413	0.23390226
53	0x3d45c897	0.048287
54	0x3f0db279	0.5535045
55	0x3ecea4dd	0.40360156
56	0xbdd72112	-0.105043545
57	0xbeb0243c	-0.34402645
58	0x3ea70aab	0.32625327
59	0x3e144bbb	0.14482014
60	0xbeb1ff91	-0.34765294
61	0x3f3cc3fa	0.73736537
62	0x3e7a5ff9	0.24450673
63	0x3ea136b6	0.31487054
64	0xbeb67d22	-0.35642344
65	0xbe911d3b	-0.28342614
66	0x3dad2f8b	0.08456334
67	0xbcb68093	-0.022278106
68	0xbeffa9ce	-0.49934238
69	0x3e42b627	0.19014798
70	0x3e831637	0.25602886
71	0xbe799567	-0.24373399
72	0x3f365901	0.7122956
73	0x3d9b6597	0.07587736
74	0x3e4393e7	0.19099389
75	0x3dc05347	0.09390884
76	0xbeda588f	-0.4264569
77	0xbccee41a	-0.025255252
78	0xbf01178a	-0.5042654
79	0x3ea56193	0.32301006
80	0xbee7c56e	-0.45267814
81	0xbf28cef9	-0.65940815
82	0xbc51b618	-0.012799762
83	0xba83118f	-0.000999974
84	0x3e93b2d3	0.2884737
85	0xbf52f142	-0.8239938
86	0xbecab1e1	-0.39588836
87	0x3e30aa9f	0.17252587
88	0x3e2e1ce8	0.17003214
89	0x3f22df0e	0.63621604
90	0x3e56c1bf	0.20972346
91	0xbe883cbc	-0.26608837
92	0xbba6ad20	-0.005086556
93	0x3c027656	0.007962784
94	0xbeaae907	-0.3338091
95	0xbe3ff872	-0.18747118
96	0x3dd2efa4	0.10299614
97	0xbd4c5bab	-0.04989211
98	0xbe46efe9	-0.19427456
99	0xbdc9bfcb	-0.09851035
100	0x3ea7b378	0.3275411
101	0xbe7edb07	-0.2488824
102	0x3eb28fbd	0.3487529
103	0x3e17ef13	0.14837293
104	0xbf1345ad	-0.5752819
105	0xbe865984	-0.2624017
106	0x3efd298e	0.49445766
107	0xbd3846e2	-0.044989474
108	0x3ea1509b	0.3150681
109	0x3ebbbd29	0.36667755
110	0x3d98b274	0.07455912
111	0x3e4c8916	0.19974169
112	0x3e76ad02	0.24089435
113	0xbf2235e6	-0.6336349
114	0x3d119083	0.035538208
115	0x3e7019e0	0.2344737
116	0x3e8c3121	0.27381232
117	0x3ec03cbe	0.37546343
118	0xbec784e2	-0.3896857
119	0xbeb4a6dd	-0.35283557
120	0x3cdf8983	0.02728725
121	0x3f068b2a	0.525561
122	0x3f02fde1	0.5116864
123	0xbed45109	-0.41468075
124	0x3e245bc7	0.16050635
125	0xbf618092	-0.8808681
126	0xbea73b05	-0.32662216
127	0x3db8769e	0.090069994
128	0x3dfb29b7	0.12263816
129	0x3ee01240	0.43763924
130	0xbeaa2f7e	-0.3323936
131	0x3e3ad782	0.18246272
132	0x3f6eae96	0.93235147
133	0x3f3460cc	0.704602
134	0x3ea2f766	0.31829375
135	0x3ea7b2c2	0.3275357
136	0x3ea9740d	0.33096352
137	0x3e3b6c63	0.18303065
138	0xbe933e64	-0.28758538
139	0xbed9a3db	-0.42507824
140	0xbeeda504	-0.4641496
141	0xbe86770e	-0.26262707
142	0xbe511fc4	-0.20422274
143	0x3d9f5604	0.07780078
144	0xbdca2e4e	-0.09872113
145	0xbd38a39f	-0.045077916
146	0x3e89b8b5	0.26898733
147	0x3c5c75e1	0.013455839
148	0x3e8dd965	0.2770492
149	0x3f035811	0.51306254
150	0xbe8937da	-0.26800424
151	0x3ee1e677	0.44121143
152	0xbe38f150	-0.18060803
153	0xbe804c95	-0.25058427
154	0xbed6835e	-0.418971
155	0xbeb47f98	-0.35253596
156	0xbea6e9c7	-0.32600233
157	0x3ecc1e10	0.39866686
158	0x3eb74951	0.35798123
159	0xbe9f651c	-0.31131828
160	0xbef61ee1	-0.48070434
161	0x3eb7057d	0.35746375
162	0x3ded1457	0.11576145
163	0x3e675067	0.22589265
164	0xbed5a632	-0.4172836
165	0xbe8cdb3f	-0.27511021
166	0xbe68400f	-0.22680686
167	0xbd40ec59	-0.0471004
168	0xbef6b110	-0.48181963
169	0xbf18da89	-0.5970846
170	0x39ff9e29	0.0004875523
171	0x3e2a226b	0.16614692
172	0x3edb6678	0.42851615
173	0x3e4dc6c8	0.2009536
174	0x3f0171e7	0.50564426
175	0x3f1dee49	0.6169172
176	0x3eed84de	0.46390432
177	0xbe34f4e2	-0.1767154
178	0xbeb7bef8	-0.35887885
179	0x3eae0973	0.33991584
180	0xbeb6b391	-0.35683873
181	0xbe95d9e4	-0.292678
182	0xbee18f86	-0.44054812
183	0xbc7b01db	-0.015320267
184	0xbf0be937	-0.5465273
185	0x3db553f9	0.08853907
186	0xbef015cd	-0.46891633
187	0xbe887f63	-0.26659688
188	0xbdced360	-0.1009891
189	0xbea22814	-0.31671202
190	0x3e2ca753	0.16860704
191	0xbdbe4de5	-0.09292201
192	0xbddf6e18	-0.109096706
193	0x3f13fdf1	0.5780936
194	0x3ebd780e	0.37005657
195	0xbf00f21f	-0.5036945
196	0x3f522257	0.8208365
197	0x3f230639	0.6368137
198	0x3ef86805	0.4851686
199	0xbea61a80	-0.32442093
200	0x3d9fc525	0.07801274
201	0xbf0a432e	-0.5400876
202	0x3ee79be5	0.45236126
203	0xbe1a7aa3	-0.15085845
204	0x3efc2264	0.49244988
205	0xbd446170	-0.047944486
206	0xbd2e6b46	-0.042582773
207	0xbde1cabd	-0.110249974
208	0xbcd8e3f9	-0.026475893
209	0x3eea91d7	0.45814392
210	0xbba0e324	-0.00490989
211	0x3dda2ff9	0.10653681
212	0xbeee7a99	-0.4657791
213	0x3f067df9	0.5253597
214	0x3ede8fac	0.43468988
215	0x3eae0da4	0.33994782
216	0x3d88674c	0.06660327
217	0xbf6ba0da	-0.92042315
218	0xbe5879b6	-0.21140179
219	0x3df6f84a	0.12059076
220	0xbefab980	-0.4896965
221	0x3ebc690f	0.36798903
222	0xbed17c92	-0.40915352
223	0xbebef466	-0.37295836
224	0x3ddc2756	0.1074969
225	0xbf376b97	-0.71648544
226	0xbda5be9e	-0.08092998
227	0x3e8cf620	0.27531528
228	0x3ebeb13e	0.372446
229	0x3f1a5225	0.6028159
230	0xbe942f11	-0.2894216
231	0xbebfa3b1	-0.37429574
232	0x3f3530a4	0.70777345
233	0xbecd5d6c	-0.40110338
234	0xbe1f3bf4	-0.15550214
235	0xbc847e12	-0.016173396
236	0xbea81c9b	-0.32834324
237	0x3f1bbedb	0.608381
238	0x3e90a1fc	0.28248584
239	0xbefd65b3	-0.49491653
240	0xbf06e612	-0.5269481
241	0x3edee9fd	0.43537894
242	0x3e69ddb8	0.22838485
243	0xbe054992	-0.13016346
244	0xbed3fb3a	-0.41402608
245	0xbe8e2d10	-0.27768755
246	0xbef2b661	-0.4740477
247	0xbeafe28e	-0.34352535
248	0xbe2f2086	-0.1710225
249	0x3f4a093d	0.78920346
250	0x3edc9def	0.43089244
251	0xbe6efab8	-0.23337829
252	0xbe4e83c8	-0.20167458
253	0x3eefc3d6	0.46829098
254	0xbe2f8c22	-0.171433
255	0xbe1cad8a	-0.15300575

layers.0.bias f4 [128]
0	0xbe95070b	-0.29106936
1	0x3f07e57a	0.5308453
2	0x3ede001b	0.43359455
3	0xbefe1d0c	-0.49631536
4	0xbf076a85	-0.5289691
5	0xbdcadcb5	-0.09905378
6	0xbeda1337	-0.42592785
7	0x3e975726	0.29558676
8	0xbef2fa63	-0.47456655
9	0xbf2155ff	-0.63021845
10	0x3e5d5b70	0.21616912
11	0x3e43d7e6	0.19125327
12	0xbe03968a	-0.12850395
13	0xbefe2ca3	-0.4964343
14	0x3e8d1602	0.27555853
15	0x3e821281	0.25404742
16	0xbe552640	-0.20815372
17	0xbdd4bab4	-0.10387173
18	0x3da23279	0.07919783
19	0x3db0657e	0.08613108
20	0x3e988ea9	0.2979634
21	0x3e9462b2	0.2898155
22	0x3dd73287	0.10507684
23	0xbefd3a53	-0.4945856
24	0x3ee36c91	0.44418767
25	0x3b181d68	0.0023210887
26	0xbec907cd	-0.39263764
27	0x3f25de6b	0.6479251
28	0x3ebb806b	0.36621413
29	0xbed92c8c	-0.424168
30	0xbe1dec63	-0.15422206
31	0xbeb1054d	-0.34574357
32	0xbed6373e	-0.4183902
33	0x3e4ce479	0.2000903
34	0xbef2746f	-0.47354457
35	0x3f194148	0.59865236
36	0xbe382f62	-0.17986825
37	0x3eca8b8f	0.395596
38	0x3e20da86	0.1570836
39	0xbe2306e0	-0.15920591
40	0x3eec9f3e	0.46215242
41	0xbebbca07	-0.36677572
42	0xbde52312	-0.1118833
43	0xbddeb391	-0.10874093
44	0x3ed8a608	0.42314172
45	0xbe10696f	-0.1410272
46	0xbe8bc034	-0.27295077
47	0xbef8cd17	-0.4859397
48	0xbe26eec1	-0.16302015
49	0xbeb2ed37	-0.34946606
50	0xbe4d6495	-0.200579
51	0xbe9a45b7	-0.30131313
52	0x3e9e2195	0.30884996
53	0x3e25f813	0.16207914
54	0xbe8e50da	-0.2779606
55	0xbe51236d	-0.2042367
56	0x3e245a84	0.16050154
57	0x3d683a31	0.05669612
58	0x3f052899	0.5201507
59	0x3dd08139	0.10180897
60	0xbe83ff15	-0.2578055
61	0xbea748a8	-0.3267262
62	0x3da26732	0.07929839
63	0x3d8b4068	0.06799394
64	0x3df68aed	0.12038217
65	0xbe4d3924	-0.20041329
66	0x3e00f6ef	0.12594198
67	0xbe033512	-0.12813213
68	0x3f04be82	0.5185319
69	0x3ea55324	0.32289994
70	0xbe56d0e3	-0.20978121
71	0x3f136c3a	0.57587016
72	0x3ea32c70	0.3186984
73	0xbea0b3b3	-0.313871
74	0xbc1b3114	-0.00947215
75	0x3ee9e37f	0.45681378
76	0x3ed9c3f8	0.42532325
77	0x3f034496	0.5127653
78	0x3e13f391	0.14448382
79	0x3eefa285	0.4680368
80	0x3eb8290a	0.3596881
81	0x3eaa9290	0.33314943
82	0x3d9b0cf0	0.07570827
83	0x3f24131f	0.64091676
84	0x3e86f798	0.26360774
85	0xbc847eb6	-0.016173702
86	0x3df0709f	0.11740231
87	0x3f1abe43	0.60446566
88	0x3ef0a8a9	0.47003677
89	0xbe150480	-0.14552498
90	0x3f1e4658	0.61826086
91	0x3ebf52cb	0.37367854
92	0xbe9e5a03	-0.30928048
93	0xbef79de9	-0.48362663
94	0x3ed33a95	0.41255632
95	0x3f0df249	0.5544782
96	0xbd6eed92	-0.058332033
97	0x3ec4e9d6	0.38459653
98	0xbdb09549	-0.08622224
99	0xbec5af55	-0.3861033
100	0x3dd7dc38	0.1054005
101	0x3e8e8b02	0.2784043
102	0x3ec91106	0.392708
103	0x3ef7ec42	0.48422438
104	0x3ea55ec5	0.32298866
105	0x3ec115b1	0.37711862
106	0x3f208178	0.62697554
107	0x3ea9e093	0.3317915
108	0x3e76d634	0.2410515
109	0xbf07fdb2	-0.53121483
110	0x3ee496c0	0.44646263
111	0x3e1d9323	0.1538816
112	0x3ec927ef	0.3928828
113	0x3ec6a2cc	0.3879608
114	0xbbf3fe30	-0.007446073
115	0x3ee8995d	0.45429507
116	0xbdce236f	-0.10065352
117	0x3f0f36e1	0.55943114
118	0x3ecb7fb8	0.3974588
119	0x3cbcd36d	0.023050034
120	0x3da6f1b0	0.08151567
121	0xbe49cddd	-0.19707437
122	0xbe831a2d	-0.25605908
123	0xbca36e6d	-0.019950116
124	0x3e05270b	0.13003175
125	0x3c77a6e3	0.0151154725
126	0xbf061a80	-0.52384186
127	0xbec8a718	-0.39189982

layers.1.weight f4 [128, 128]
0	0x3e24d415	0.16096528
1	0x3d42a81c	0.047523603
2	0x3e16d22d	0.14728613
3	0x3d9af6e1	0.0756662
4	0x3d764b47	0.060130384
5	0x3c8043cc	0.015657328
6	0xbdd6b238	-0.10483211
7	0x3e02c6c0	0.1277113
8	0xbc76e6ea	-0.015069703
9	0x3eb73515	0.35782686
10	0xbd2ccf74	-0.04219003
11	0x3c9b8992	0.018986497
12	0xbdc24e2f	-0.094875686
13	0xbccf95b4	-0.025339939
14	0xbbe88d58	-0.0070969276
15	0x3c3b12f7	0.011418096
16	0x3dc6ba98	0.09703559
17	0x3dafae35	0.08578149
18	0x3d88353e	0.0665078
19	0x3cbc26c7	0.02296771
20	0x3b7fd022	0.003903397
21	0x3da11bce	0.078666314
22	0x3d0f0fa0	0.03492701
23	0xbe219ca4	-0.1578241
24	0x3ded7d47	0.115961604
25	0xbbb51769	-0.0055264723
26	0x3d9bee5b	0.07613822
27	0x3d59fe69	0.05322114
28	0xbe096745	-0.134183
29	0xbda7cfee	-0.08193956
30	0x3d7c9d7f	0.061673637
31	0x3c898be9	0.016790347
32	0xbe033866	-0.12814483
33	0x3d8b4ec5	0.068021335
34	0xbc5db7fb	-0.013532634
35	0x3e082ce8	0.1329838
36	0xbd6dab16	-0.05802449
37	0xbcd5c7a9	-0.026096182
38	0x3da5855d	0.08082078
39	0xbd04de42	-0.032438524
40	0x3e080dd5	0.13286527
41	0xbd14ea3e	-0.036356203
42	0x3cbddf24	0.02317769
43	0xbc0bb31c	-0.00852659
44	0x3d0093ba	0.031390883
45	0xbe00e7a8	-0.1258837
46	0x3cb327ff	0.021869658
47	0xbd91c262	-0.07117154
48	0xbcdf64e3	-0.027269786
49	0xbc330554	-0.010926563
50	0x3d67aca5	0.05656113
51	0xbea17ffa	-0.3154295
52	0x3cb536aa	0.022120792
53	0x3ce54629	0.027987557
54	0x3d724aef	0.059153493
55	0xbd93919b	-0.072055064
56	0xbb86f4a0	-0.004118517
57	0xbd037881	-0.032097343
58	0x3dddaf40	0.10824442
59	0x3dd7b57b	0.105326615
60	0xbdd023ef	-0.10163104
61	0xbda005c7	-0.07813602
62	0x3b6c4509	0.003605189
63	0x3d81ffe7	0.063476376
64	0xbd2eb591	-0.042653624
65	0xbd40e4f5	-0.04709335
66	0x3dac6411	0.08417524
67	0x3d83839a	0.064215854
68	0x3df7b4a0	0.12094998
69	0x3c90b0dc	0.017662458
70	0x3c81acc7	0.015829457
71	0x3d5d589e	0.05403959
72	0x3e1a35ef	0.15059637
73	0xbd3344d6	-0.04376682
74	0xbda43dbd	-0.08019588
75	0x3d84b457	0.064797096
76	0x3cb8ded8	0.022567198
77	0x3df5c3a4	0.12000206
78	0x3d30d1d0	0.043168843
79	0x3ccb3a19	0.024807977
80	0x3e29ff81	0.16601373
81	0x3da3aba8	0.07991725
82	0x3d808a7e	0.06276415
83	0x3cfb0803	0.030643469
84	0x3dd1725e	0.10226892
85	0x3dcca388	0.099921286
86	0x3d8d3807	0.06895452
87	0x3cc88d2f	0.024481384
88	0x3d821467	0.06351548
89	0x3c51fcb1	0.012816594
90	0x3e07d6c0	0.13265514
91	0x3dd1706c	0.10226521
92	0xbcbab602	-0.022791866
93	0xbde610bd	-0.11233661
94	0x3e0a46b8	0.1350354
95	0x3dccd00d	0.1000062
96	0x3dbb6e76	0.09151928
97	0xbbf285f8	-0.007401224
98	0x3d42ffdc	0.047607288
99	0x3b608d4c	0.0034263907
100	0xbd448dfe	-0.047986977
101	0x3c864061	0.01638812
102	0x3e446255	0.19178136
103	0x3d97e7bc	0.07417247
104	0xbd0662e5	-0.032809157
105	0x3df768b9	0.12080521
106	0x3dff7c73	0.12474909
107	0x3e0472aa	0.12934366
108	0x3dc90cb3	0.09816875
109	0x3d2cc0f8	0.042176217
110	0x3dbc1624	0.091839105
111	0x3d8b3b5c	0.06798431
112	0x3dc8636c	0.09784588
113	0xbce15288	-0.027505174
114	0x3aad8210	0.0013237614
115	0x3dc5a5cf	0.09650766
116	0x3d47bcee	0.04876416
117	0x3e126bd1	0.14298941
118	0x3be413d4	0.0069603715
119	0x3c710d03	0.014712575
120	0xbe27cfbd	-0.1638784
121	0xbd07a0b5	-0.033112247
122	0x3e5f8200	0.21826935
123	0xbe2f0c81	-0.17094614
124	0xbcd6228d	-0.026139522
125	0x3cbf2556	0.023333233
126	0xbdc7a533	-0.09748306
127	0x3d2b979d	0.041892637
128	0x3d8aea4d	0.067829706
129	0xbea76baa	-0.3269933
130	0xbb4208d5	-0.0029607315
131	0x3c47d9ea	0.012197951
132	0xbe7b83a1	-0.24561931
133	0x3e8cbd2b	0.27488074
134	0x3b97265b	0.0046127266
135	0xbe27aa5e	-0.16373584
136	0x3d9a909a	0.07547112
137	0xbf78753e	-0.970539
138	0xbc8d5c2b	-0.017255863
139	0xbeed6762	-0.46367937
140	0xbe75d7d4	-0.24008113
141	0xbda7608b	-0.08172711
142	0x3d5fad51	0.054608647
143	0xbe07dab7	-0.13267027
144	0xbdfa3fc7	-0.12219196
145	0x3d4fa0c2	0.05069042
146	0xbe0db425	-0.13838251
147	0xbe460565	-0.19337995
148	0x3e80494f	0.2505593
149	0x3c8d650c	0.017260097
150	0xbf22c539	-0.6358219
151	0x3ceef38d	0.029168868
152	0x3d2074a6	0.039173745
153	0x3cb79c50	0.022413403
154	0x3e233c2b	0.15940921
155	0xbccca868	-0.024982646
156	0x3e3c60a6	0.18396243
157	0x3dba9ffe	0.09112547
158	0xbd97e546	-0.07416777
159	0xbda3f67c	-0.080059975
160	0x3e7287d8	0.23684633
161	0xbdaf9bf8	-0.085746706
162	0x3e270662	0.16311029
163	0x3e3f70e8	0.18695414
164	0xbd1f8527	-0.038945343
165	0xbb7b9fbc	-0.003839477
166	0xbdfd1d70	-0.123591304
167	0x3e030f63	0.12798838
168	0xbdc0c7ae	-0.09413086
169	0x3e886f39	0.26647356
170	0x3ceea6a2	0.029132191
171	0xbe0666e6	-0.1312519
172	0xbd15435f	-0.036441203
173	0xbe7c2db8	-0.24626815
174	0xbdc390e9	-0.09549124
175	0x3e650f39	0.22369088
176	0x3ce7a692	0.02827767
177	0xbeadfcfc	-0.33982074
178	0x3ddd1a2a	0.10796006
179	0x3da9f7a9	0.082991906
180	0xbcb392c7	-0.021920575
181	0xbce99040	-0.028511167
182	0x3d6633d5	0.056201775
183	0xbe22f527	-0.1591383
184	0x3e139a12	0.14414242
185	0x3e35244c	0.17689627
186	0x3e0f97f1	0.14022805
187	0xbdca9c87	-0.098931365
188	0x3d417f23	0.047240388
189	0x3d632ef5	0.055464704
190	0xbdc93414	-0.09824386
191	0xbcbe689d	-0.023243243
192	0x3e69947c	0.22810549
193	0x3db6ed28	0.08931953
194	0x3e354364	0.17701489
195	0x3d8f09c6	0.06984286
196	0x3df38f56	0.118925735
197	0xbe709ad6	-0.23496565
198	0xbe8109e2	-0.25202852
199	0x3e0d6421	0.13807727
200	0xbde20473	-0.11036005
201	0x3b9f2390	0.0048565343
202	0xbeedaa94	-0.46419203
203	0x3ded5960	0.115893126
204	0xbdf1a7b7	-0.11799567
205	0xbedabe8a	-0.42723495
206	0x3bfe107d	0.0077534304
207	0xbd5b8124	-0.053589955
208	0x3e12be9d	0.14330526
209	0x3dee2ec9	0.11630017
210	0xbd8f68b3	-0.07002392
211	0x3e13615e	0.14392611
212	0x3d60bc14	0.054866865
213	0xbe64ea12	-0.22354916
214	0xbe7f3662	-0.24923089
215	0x3dda5411	0.10660566
216	0xbd1c80b7	-0.03820869
217	0xbf1d5ea6	-0.6147255
218	0x3d5b151e	0.053486936
219	0xbd8881e9	-0.066654034
220	0x3d849d30	0.06475294
221	0x3c30207b	0.010749931
222	0xbe1e62c9	-0.15467371
223	0x3e17a181	0.14807703
224	0x3d93a169	0.07208521
225	0x3dd82dc0	0.10555601
226	0xbc2d85e0	-0.010591
227	0xbe91de29	-0.28489807
228	0xbf1d849b	-0.61530465
229	0x3e2fc006	0.17163095
230	0xbc8b9efb	-0.017043581
231	0x3ddcb453	0.107765816
232	0xbeafa011	-0.34301808
233	0xbe332a64	-0.1749664
234	0xbe188ced	-0.14897509
235	0x3e4e5c4a	0.20152393
236	0xbebf9db2	-0.37425
237	0xbe5fbee3	-0.21850161
238	0xbf29a334	-0.66264653
239	0xbe94a28a	-0.29030257
240	0x3da1535d	0.078772284
241	0xbd627a50	-0.055292428
242	0x3e132c77	0.1437243
243	0x3e1b00cf	0.15137027
244	0x3e3677d4	0.17819148
245	0x3e3572e4	0.17719609
246	0xbdaa644a	-0.0831991
247	0xbec3177a	-0.3810385
248	0x3e34c41c	0.17652935
249	0x3d9e4428	0.077278435
250	0xbf99f021	-1.2026407
251	0x3e717574	0.23579961
252	0x3df13853	0.11778321
253	0xbee65632	-0.44987637
254	0xbda6d295	-0.08145634
255	0x3e938a60	0.2881651

layers.1.bias f4 [128]
0	0x3e04ee0c	0.12981433
1	0x3d054f84	0.032546535
2	0x3d86e7d6	0.06587188
3	0x3d17a521	0.037022714
4	0xbd0fbf09	-0.035094295
5	0x3d1d8c98	0.03846416
6	0x3dde77e4	0.10862711
7	0xbcdef184	-0.027214773
8	0x3e1aac79	0.15104856
9	0x3e1e496a	0.15457693
10	0xbb082fe9	-0.002078051
11	0x3bbb6582	0.005718888
12	0xbca64c0c	-0.020299934
13	0x3d915c7c	0.07097718
14	0x3caf0a40	0.021367192
15	0x3e071db5	0.13194926
16	0x3e3f1b9e	0.18662879
17	0xbdaac78b	-0.08338841
18	0x3d9ae6f9	0.07563586
19	0x3d5a4520	0.05328858
20	0x3e71d6cc	0.23617095
21	0x3dc84761	0.097792394
22	0xbd8588f3	-0.065202616
23	0x3e2fa475	0.17152579
24	0x3e5785b6	0.210471
25	0x3d33ea2f	0.043924507
26	0x3de0fe86	0.109860465
27	0x3d9619dd	0.07329152
28	0x3e111680	0.1416874
29	0x3e16898f	0.14700912
30	0x3d52ac6f	0.051433977
31	0x3d956651	0.07294906
32	0x3ddc4af4	0.10756484
33	0x3e4cc049	0.19995226
34	0x3d9fe141	0.07806636
35	0x3db879cb	0.09007605
36	0xbd890199	-0.06689758
37	0x3de7272b	0.112867676
38	0xbd5787fd	-0.052619923
39	0x3e532ef2	0.20623377
40	0x3bf47212	0.0074598873
41	0xbd8996e6	-0.06718235
42	0x3cba4bf1	0.02274129
43	0x3da2b215	0.07944123
44	0x3cd67e87	0.02618338
45	0x3e28c291	0.16480471
46	0x3dc8ee6a	0.09811099
47	0x3e2841a7	0.16431294
48	0x3e1efe80	0.15526772
49	0x3db7b243	0.089695476
50	0xbd5250b7	-0.051346507
51	0x3dcb9785	0.099410094
52	0x3e31f59b	0.17378847
53	0x3dba9103	0.0910969
54	0x3caa6ab7	0.020802839
55	0x3e60fadc	0.21970695
56	0x3e0df0a3	0.13861327
57	0x3e4d0155	0.2002004
58	0x3dac6cee	0.08419214
59	0x3c706890	0.014673367
60	0x3e46065b	0.19338362
61	0xbd12066e	-0.035650663
62	0xbc4412e3	-0.011967394
63	0x3de63926	0.11241369
64	0x3d30e79c	0.04318963
65	0x381804a4	3.6243946e-05
66	0x3d839cfa	0.06426425
67	0x3e0f76fc	0.14010233
68	0x3e170509	0.14748015
69	0x3e0bd24a	0.13654438
70	0x3ad2727b	0.0016055846
71	0x3e34db55	0.17661794
72	0x3d30ff15	0.043212015
73	0x3e0d8436	0.13819966
74	0xbca159c9	-0.019696133
75	0x3e2d332a	0.16914049
76	0x3e4e16a7	0.20125829
77	0x3cb2ee1d	0.021842057
78	0x3db2edbf	0.08736753
79	0x3d36fd25	0.04467501
80	0x3e38d528	0.18050063
81	0x3df13719	0.11778087
82	0x3e109783	0.14120297
83	0x3e07a6ba	0.13247195
84	0x3b765541	0.0037587436
85	0x3e4817f0	0.19540381
86	0xbd51452c	-0.051091358
87	0x3d601ed4	0.0547169
88	0x3e242e6d	0.16033335
89	0x3d0ac0f8	0.033875436
90	0x3dfa7250	0.12228835
91	0x3d286ae0	0.04111755
92	0x3e0e0ec3	0.13872819
93	0x3e0912b5	0.13386042
94	0x3e143ba5	0.14475878
95	0x3becf0db	0.0072308606
96	0x3e0218d0	0.12704778
97	0x3deaafc7	0.11459308
98	0x3c0e9392	0.008702176
99	0x3d310a6a	0.043222822
100	0xbda2a989	-0.079424925
101	0x3e5bfc37	0.21482931
102	0x3d914184	0.07092574
103	0xbd999371	-0.07498825
104	0x3d61a2b5	0.05508681
105	0x3bfd12ba	0.0077231796
106	0x3dfd009d	0.123536326
107	0x3dccc5cd	0.09998665
108	0x3da4d55e	0.08048509
109	0x3c635f8f	0.013877763
110	0x3d5da668	0.054113775
111	0x3d12dcc8	0.035855085
112	0x3e2c36be	0.16817757
113	0x3e027fd8	0.12744081
114	0x3d0dc696	0.034613214
115	0x3d7d0aef	0.061778005
116	0x3c91ab9e	0.017782029
117	0x3daf935f	0.08573031
118	0x3e050503	0.12990193
119	0x3d8efcd2	0.069818154
120	0xbd064b45	-0.032786626
121	0x3d74badb	0.05974851
122	0x3d9a2ad9	0.07527704
123	0x3e40b51b	0.18819086
124	0x3e18d4d0	0.14924932
125	0xbdd3eee6	-0.10348301
126	0x3e00ed57	0.12590538
127	0x3e1c19b6	0.15244183

layers.2.weight f4 [64, 128]
0	0x3c4b0ae6	0.012392735
1	0x3d4a3c30	0.049373806
2	0x3dad3203	0.084568046
3	0x3d19aac4	0.03751637
4	0xbd684b76	-0.05671259
5	0x3ce81f35	0.028335193
6	0x3a82ff5f	0.0009994319
7	0x3d9ab884	0.07554725
8	0x3d5203f9	0.05127332
9	0xbad4e031	-0.0016241131
10	0x3bb169eb	0.0054142377
11	0x3d155756	0.036460243
12	0x3da2b360	0.07944369
13	0x3d48f281	0.049059395
14	0x3c8a1056	0.016853493
15	0x3d45dc87	0.048306014
16	0x3d5508a0	0.05201018
17	0x3d791f82	0.060821064
18	0xbc1819bd	-0.00928348
19	0x3cfc77c4	0.030818827
20	0xbc29676f	-0.010339602
21	0x3d861606	0.065471694
22	0xbd1d3312	-0.038378783
23	0x3c23b87d	0.009992716
24	0xbd250c5b	-0.040294986
25	0xbc5984fd	-0.013276336
26	0x3d06aafa	0.0328779
27	0x3b4ed72a	0.0031561353
28	0xbdb8f17f	-0.09030437
29	0x3c2e7f1b	0.0106504215
30	0xbd25bc6b	-0.040462893
31	0x3aacf0e4	0.001319435
32	0x3cdaf56b	0.026728353
33	0xbc0c3721	-0.008558066
34	0x3d28c501	0.041203503
35	0xbda8bcd4	-0.08239141
36	0x3c3f49f9	0.011675351
37	0x3d8c9df0	0.06866062
38	0x3ad277fe	0.0016057489
39	0x3d91f003	0.07125857
40	0xbd10c415	-0.03534325
41	0x3cdb9400	0.02680397
42	0xbd98a4f3	-0.074533366
43	0xbc6e80d1	-0.014557079
44	0xbd68275c	-0.05667816
45	0x3d19a854	0.037514046
46	0x3d1193e3	0.035541426
47	0xbc9248a0	-0.017856896
48	0xbd5aa78c	-0.05338244
49	0xbd40477c	-0.046943173
50	0x3d46e73d	0.04856037
51	0xbcfa05db	-0.03052037
52	0xbdb70068	-0.08935624
53	0x3d7d1db3	0.0617959
54	0xbaec5c86	-0.0018032945
55	0x3d609c47	0.054836538
56	0x3d0928ae	0.03348606
57	0xbc64f349	-0.013974019
58	0xbd9d54fe	-0.076822266
59	0xbbf05d99	-0.0073353765
60	0xbbd0c632	-0.006371283
61	0x3ca22e02	0.019797329
62	0xbdb22fad	-0.087005
63	0xbc161383	-0.009159925
64	0xbdaaa46c	-0.08332142
65	0xbd457de3	-0.048215758
66	0xbdaa32f1	-0.083104976
67	0x3d80efc2	0.0629573
68	0x3d97c276	0.07410137
69	0xbd362eec	-0.044478342
70	0xbd203917	-0.039116945
71	0x3d3847ae	0.044990234
72	0xbb98eb8e	-0.004666752
73	0xbcaff6c1	-0.021479966
74	0xbc75849e	-0.014985232
75	0xbdaf532e	-0.08560787
76	0xbd835b20	-0.06413865
77	0x3d4bd78e	0.049766116
78	0xbd7e70cd	-0.062119294
79	0x3d42e06c	0.047577307
80	0xbd1c649e	-0.038181894
81	0xbd7826fb	-0.06058405
82	0xbd342ccc	-0.043988034
83	0x3d56c90c	0.052437827
84	0xbdb0bf72	-0.08630265
85	0x3d0a1386	0.033710025
86	0x3c4682d2	0.012116151
87	0x3cdfc145	0.027313838
88	0xbda276b0	-0.07932794
89	0xbd85a50d	-0.065256216
90	0xbc9c3e13	-0.019072568
91	0xbd09ece9	-0.0336732
92	0xbd03f640	-0.032217264
93	0x3cddf6d6	0.02709524
94	0x3d234e3f	0.039869543
95	0x3d894c3b	0.06703993
96	0xbd3d5d39	-0.046231482
97	0xbd4fb6b1	-0.050711337
98	0x3da37751	0.07981742
99	0xbc399a16	-0.011328241
100	0xbd0e22ee	-0.03470128
101	0x3d42203d	0.047394026
102	0xbd8bc096	-0.06823842
103	0x3d0854ac	0.033283874
104	0xbd1a3bb6	-0.0376546
105	0xbb8925f6	-0.0041854335
106	0xbd1d033d	-0.038333166
107	0xbd8f0456	-0.06983249
108	0xbc652963	-0.013986918
109	0x3c70c891	0.014696256
110	0xbd37a522	-0.044835217
111	0x3c22b831	0.00993161
112	0xbda03213	-0.07822051
113	0xbd7d1903	-0.06179143
114	0x3d0d063c	0.034429774
115	0x3d878056	0.06616275
116	0x3d31f477	0.04344603
117	0xbd772920	-0.060341954
118	0x3d68aff6	0.056808434
119	0xbd737a88	-0.059443027
120	0x3d1e9082	0.038712032
121	0x3c5e1bc3	0.013556424
122	0xbcbf8e88	-0.023383394
123	0xbd9f8a84	-0.07790092
124	0xbda1194b	-0.078661524
125	0xbdb533b9	-0.08847756
126	0xbc82de7b	-0.015975228
127	0x3d8b91aa	0.068148926
128	0x3d817d41	0.063227184
129	0xbf3d156c	-0.7386081
130	0xbd2f1241	-0.042742018
131	0x3d9d0b19	0.07668132
132	0xbcd3cc6c	-0.025854312
133	0x3e19721d	0.14984937
134	0xbd32f2cf	-0.04368859
135	0x3e76a660	0.24086905
136	0x3dcfc5bd	0.101451375
137	0xbdbe54e7	-0.092935376
138	0x3e15dd9f	0.14635323
139	0xbddfefbc	-0.109343976
140	0x3e280c12	0.16410854
141	0x3e3113fd	0.17292781
142	0x3d950976	0.07277195
143	0xbd806af7	-0.06270402
144	0x3bd5c114	0.006523261
145	0x3e264b3b	0.16239636
146	0x3ed72553	0.42020664
147	0x3b055b95	0.0020348777
148	0x3d0052c5	0.031328935
149	0x3d78a0d4	0.060700253
150	0x3d16e812	0.036842413
151	0xbdf37b1f	-0.11888718
152	0xbc277cec	-0.010222655
153	0xbe6de743	-0.2323275
154	0xbe73f7ec	-0.23825043
155	0xbc02547a	-0.007954711
156	0xbe3b19a0	-0.18271494
157	0x3d8c37b9	0.06846566
158	0x3ccf2d2d	0.025290096
159	0x3d1ba30a	0.037997283
160	0x3b85a52c	0.004078528
161	0x3cf76bc9	0.030202763
162	0x3b9d550e	0.004801399
163	0x3dca0525	0.098642625
164	0x3d79bdd8	0.060972065
165	0xba55db2c	-0.00081579643
166	0xbb37fb07	-0.0028073208
167	0xbda71f3f	-0.081602566
168	0x3d2206d7	0.039557304
169	0xbd9cd74f	-0.07658254
170	0x3d97d280	0.074131966
171	0x3cad913d	0.02118742
172	0xbe12efdd	-0.14349313
173	0x3dbc6cfb	0.09200474
174	0xbd4dd218	-0.05024919
175	0xbd6376dd	-0.05553328
176	0x3d599b1b	0.053126436
177	0x3c96e2c6	0.01841868
178	0x3e7ea836	0.24868855
179	0x3c810f91	0.015754493
180	0x3d291f6c	0.04128973
181	0xbc693406	-0.014233595
182	0x3def98cc	0.116990656
183	0xbdc2c1d8	-0.09509629
184	0xbdae592d	-0.08513103
185	0xbe711534	-0.23543245
186	0xbcc061a0	-0.023484051
187	0x3cd38768	0.025821403
188	0xbda4267d	-0.080151536
189	0xbf0ddfe8	-0.5541978
190	0x3d9bcebb	0.0760779
191	0x3d9da3a1	0.07697225
192	0x3e073846	0.1320506
193	0x3df893e6	0.121375844
194	0xbb0eb60c	-0.002177599
195	0xbcca026a	-0.024659354
196	0x3db6190f	0.08891498
197	0x3b95cd67	0.004571605
198	0x3db71947	0.08940368
199	0x3d62e8c1	0.055397753
200	0x3da36a67	0.07979279
201	0xbd098181	-0.03357077
202	0xbcbc4d08	-0.02298595
203	0xbd2a7b64	-0.04162158
204	0xbc40792a	-0.011747638
205	0xbd95cd22	-0.073145166
206	0x3d52f82b	0.051506203
207	0x3e8ab941	0.27094463
208	0x3dac25db	0.08405658
209	0xbdfa6452	-0.12226166
210	0x3d912835	0.07087747
211	0xbcff150a	-0.031137962
212	0x3dfc866d	0.12330327
213	0xbd330cf6	-0.043713532
214	0x3cdaedaf	0.026724664
215	0xbdb88f80	-0.090117455
216	0xbbbd799c	-0.005782319
217	0x3d8d0b22	0.06886889
218	0x3b5796f9	0.0032896383
219	0x3d7937fb	0.060844403
220	0x3cb91239	0.022591697
221	0x3cb63bfd	0.022245402
222	0x3dce209b	0.10064813
223	0x3d2e79c6	0.0425966
224	0xbd2078ef	-0.03917783
225	0x3dffe2e5	0.124944486
226	0x3d614ac4	0.055002943
227	0xbbb13212	-0.00540758
228	0x3dacd582	0.08439161
229	0xbb014e2a	-0.0019730427
230	0x3d830adc	0.06398556
231	0x3da51b28	0.0806182
232	0xbd878c80	-0.06618595
233	0x3dd08844	0.101822406
234	0x3da64b0a	0.08119781
235	0xbe50387a	-0.20334044
236	0xbd7c1454	-0.061542824
237	0x3e59e654	0.2127927
238	0x3e1a54a2	0.15071347
239	0x3db04d32	0.08608474
240	0xbc9e33e9	-0.019311862
241	0x3dc5e68c	0.09663114
242	0x3e29bb5a	0.16575375
243	0xbd84d47f	-0.06485843
244	0xbd382265	-0.044954676
245	0xbcc9ee90	-0.024649888
246	0xbd83b6e5	-0.06431369
247	0xbc6dfba5	-0.014525329
248	0x3d9f5e49	0.07781655
249	0xbd971c2f	-0.073784225
250	0xbc289318	-0.010288976
251	0xba84f445	-0.0010143599
252	0x3b651e19	0.0034960567
253	0x3e9c177d	0.3048667
254	0x3d709f2e	0.058745556
255	0xbd7be432	-0.06149692

layers.2.bias f4 [64]
0	0x3d11bb36	0.03557893
1	0x3d27bc2d	0.040950943
2	0xbdedd2a8	-0.11612445
3	0x3ceb1b77	0.02869962
4	0x3d73141a	0.059345342
5	0x3e1814c9	0.14851679
6	0xbd382bbe	-0.04496359
7	0x3e8144f4	0.2524792
8	0x3d42fd58	0.04760489
9	0xbc74edc1	-0.014949263
10	0x3d3cc766	0.0460886
11	0x3dfc7ccc	0.123284906
12	0x3c8c1ab4	0.017102577
13	0x3cca4bad	0.024694288
14	0x3e379dc5	0.17931278
15	0x3efa897d	0.4893302
16	0x3c71d9aa	0.014761368
17	0x3d98bca0	0.07457852
18	0x3cadd2c8	0.021218672
19	0x3dc5c865	0.09657363
20	0x3e07527c	0.13215059
21	0x3ba47ead	0.0050199837
22	0xbd69a1a6	-0.057038926
23	0x39eaef79	0.0004481038
24	0x3d6fe202	0.058565147
25	0x3dbba166	0.09161644
26	0x3d30b1db	0.043138366
27	0x3d6869c9	0.05674151
28	0x3e267158	0.16254175
29	0x3ddfd766	0.10929756
30	0xbdc9cc2c	-0.09853396
31	0x3e1ac730	0.15115047
32	0xbde55846	-0.111984774
33	0x3e2feb06	0.17179498
34	0xbb2bd1f2	-0.0026217666
35	0x3d23b555	0.039967854
36	0x3d51a6bf	0.051184412
37	0x3deda5f6	0.1160392
38	0x3e1f0ee6	0.15533027
39	0x3ca3a442	0.019975785
40	0xbc0fa987	-0.008768446
41	0xbd1c4883	-0.03815509
42	0xbcbc4fdb	-0.022987297
43	0x3e255027	0.16143857
44	0x3e29d81a	0.16586342
45	0x3e3523c7	0.17689429
46	0xbbc90803	-0.0061349883
47	0x3ce8cfe6	0.028419446
48	0x3e217415	0.15766938
49	0xbae7f8f4	-0.0017698095
50	0x3d1a24bc	0.03763269
51	0x3c4d0bcd	0.012515021
52	0x3e313d59	0.17308559
53	0xbc5376bd	-0.012906727
54	0x3d2aec2a	0.04172913
55	0x3db1e307	0.0868588
56	0xbcc28c7e	-0.023748633
57	0xbd7d8a81	-0.061899666
58	0xbaf14f81	-0.0018410535
59	0xbc62ed5f	-0.013850539
60	0x3ec43924	0.38324845
61	0x3e265e43	0.16246895
62	0x3e6e2e15	0.23259766
63	0xbdb9ef3e	-0.09078835

readout.weight f4 [1, 64]
0	0x3db38ded	0.087673046
1	0x3eb97c1f	0.3622751
2	0x3e96d0ee	0.29456276
3	0xbe4a1931	-0.19736172
4	0xbe0eba0b	-0.13938157
5	0xbe6d68db	-0.2318453
6	0x3d3a81bb	0.045533877
7	0x3fad6496	1.3546321
8	0xbe09a960	-0.13443518
9	0x3d89e365	0.06732825
10	0xbe6790fb	-0.226139
11	0xbe66779d	-0.22506566
12	0x3c98097f	0.018559216
13	0x3c85d75e	0.016338047
14	0xbe83ddec	-0.2575525
15	0x3fb78ec3	1.4340442
16	0x3d28cb8c	0.041209742
17	0x3de7e864	0.11323622
18	0xbd4cc35c	-0.049990997
19	0xbe558185	-0.20850189
20	0xbe6175a8	-0.22017539
21	0xba7c22fd	-0.0009618251
22	0x3a538543	0.0008068869
23	0x3dd4266c	0.10358891
24	0xbe4cbb95	-0.19993432
25	0xbe43c91a	-0.19119683
26	0xbe47be48	-0.1950618
27	0x3be9ec80	0.0071387887
28	0xbe810ccc	-0.25205076
29	0xbe690298	-0.22754896
30	0x3eb96bd1	0.3621507
31	0xbe28c776	-0.16482338
32	0x3e929968	0.28632665
33	0xbe1395f5	-0.14412673
34	0x3daa27f2	0.083084
35	0xbe44bccd	-0.19212647
36	0x3d84ccca	0.06484373
37	0xbe33cb6f	-0.17558073
38	0xbe71c9f4	-0.23612195
39	0xbe29eb50	-0.16593671
40	0x3ddb666d	0.107128955
41	0x3c58637a	0.013207311
42	0x3d1c75b7	0.0381982
43	0xbe3409d2	-0.17581871
44	0xbe237608	-0.15962994
45	0xbe2902e9	-0.16505016
46	0x3db329f6	0.08748238
47	0xbe802d36	-0.25034493
48	0xbe0ece05	-0.13945778
49	0x3ce8758d	0.028376365
50	0xbe4566bb	-0.1927747
51	0x3ef2a97e	0.47394937
52	0xbe62d7e1	-0.22152664
53	0x3cf3f9f0	0.029782265
54	0xbe21d7e0	-0.15805006
55	0xbe6054a8	-0.21907294
56	0x3cd89dbe	0.026442405
57	0x3f0d67e4	0.5523665
58	0xbe2a7f14	-0.16650039
59	0x3d7753f1	0.060382787
60	0x3fb4b0eb	1.4116491
61	0xbe16a894	-0.14712745
62	0x3f7d0e45	0.988499
63	0x3e97db04	0.29659283

layers.0.weight f4 [128, 3]
0	0x3fa72092	1.3056815
1	0x3eb9861c	0.3623513
2	0x3efde7ed	0.49591008
3	0xbea258eb	-0.31708464
4	0x3f5b0081	0.85547644
5	0xbe09af2e	-0.13445732
6	0xbdd595cf	-0.10428964
7	0x3f02de76	0.511207
8	0xbef1375f	-0.47112557
9	0x3e7872e2	0.24262574
10	0x3c525934	0.0128386505
11	0x3f12dda8	0.5736947
12	0xbd9fad85	-0.07796768
13	0xbf655806	-0.8958744
14	0x3e36ffff	0.17871092
15	0xbeff112a	-0.49817783
16	0xbef8d43a	-0.48599416
17	0x3e655c73	0.22398548
18	0xbe39fe59	-0.18163432
19	0xbfa72f9a	-1.3061402
20	0x3d99f349	0.07517106
21	0xbdff7c3b	-0.12474867
22	0x3e26b846	0.16281232
23	0x3e6fdccb	0.2342407
24	0xbeb9da54	-0.36299384
25	0xbf369fc3	-0.7133753
26	0x3ee470b4	0.44617236
27	0xbe1412ff	-0.14460371
28	0x3eb370a8	0.35046887
29	0xbe9887b5	-0.29791036
30	0x3f43ec50	0.7653246
31	0xbee23802	-0.44183356
32	0xbe980a4b	-0.29695353
33	0xbef43113	-0.4769369
34	0xbe808908	-0.25104547
35	0xbe9834b1	-0.297277
36	0x3da1225f	0.07867884
37	0x3e73d0a7	0.23810063
38	0xbad05750	-0.0015895162
39	0x3eba6132	0.3640228
40	0xbf80ee68	-1.0072756
41	0x3eb56f3a	0.35436422
42	0x3f0cb860	0.54968834
43	0xbe93f786	-0.28899783
44	0x3e96f9c4	0.2948743
45	0xbec4b70e	-0.3842091
46	0xbf434ba1	-0.76287276
47	0x3e89726f	0.26845118
48	0xbeb32c08	-0.3499453
49	0x3f93cf87	1.1547707
50	0x3eab441a	0.33450395
51	0xbec3e650	-0.38261652
52	0x3e5ddec2	0.21667007
53	0xbeba160c	-0.36344945
54	0x3f6cd834	0.925174
55	0x3d3b491a	0.045724012
56	0x3e36f32a	0.17866197
57	0xbe185f5d	-0.14880128
58	0xbdd48e84	-0.10378745
59	0xbd84b5ab	-0.06479963
60	0xbe4060be	-0.18786904
61	0x3f5ce766	0.86290586
62	0x3ea022d2	0.31276566
63	0xbe174f20	-0.14776278
64	0x3f3b5c22	0.7318746
65	0x3e9eb3e3	0.30996618
66	0xbe84df58	-0.25951648
67	0x3e70bae2	0.2350879
68	0xbcaa077f	-0.020755528
69	0xbf0e32ac	-0.5554607
70	0xbf85b098	-1.0444517
71	0xbe96bc3d	-0.2944049
72	0xbe2b1357	-0.16706596
73	0xbe4d73ee	-0.20063755
74	0xbe98518b	-0.29749712
75	0xbeca76ab	-0.3954366
76	0xbd85c14a	-0.065310076
77	0x3eae2671	0.34013703
78	0x3e21cb7e	0.15800282
79	0x3d9fea2e	0.07808338
80	0x3f228391	0.63482004
81	0x3f5efa14	0.8710034
82	0xbf1f354f	-0.6219072
83	0xbe5581a1	-0.20850231
84	0xbe564629	-0.20925201
85	0x3d767325	0.060168404
86	0x3c3bb8e4	0.011457656
87	0xbeb51bfb	-0.3537291
88	0x3e07c547	0.13258849
89	0xbef269cc	-0.47346342
90	0xbea262df	-0.31716058
91	0x3f5777d4	0.8416722
92	0x3eee117d	0.46497717
93	0x3b2f912a	0.0026789405
94	0x3f0ee6ee	0.5582112
95	0xbe546cec	-0.20744675
96	0xbce7956e	-0.028269496
97	0xbe9daf42	-0.30797774
98	0xbe3494b6	-0.17634854
99	0x3f01af55	0.5065816
100	0x3f336202	0.70071423
101	0x3f3fe960	0.74965477
102	0x3e780ed7	0.24224411
103	0xbe61355f	-0.21993016
104	0x3ea19b95	0.31564012
105	0x3f54f8c0	0.8319206
106	0x3f46d7a6	0.77672803
107	0xbd1c26dc	-0.038122997
108	0x3ecc8d26	0.39951438
109	0x3f7326f9	0.9498134
110	0x3cec28c1	0.028828027
111	0xbec01ff9	-0.37524393
112	0xbd999375	-0.07498828
113	0x3db04c1e	0.08608268
114	0xbea0c4f6	-0.3140027
115	0xbd6a44b8	-0.05719444
116	0x3df27089	0.11837871
117	0x3eaa38e8	0.3324654
118	0xbf49b744	-0.78795266
119	0xbe9cbc67	-0.3061249
120	0x3eda16f2	0.4259563
121	0x3eff3aff	0.49849698
122	0xbcbc8da2	-0.023016755
123	0xbf14a798	-0.5806823
124	0xbf35ad14	-0.7096722
125	0x3ddfbad8	0.109243095
126	0x3f025434	0.50909734
127	0x3f14bef4	0.5810387
128	0xbe9de33a	-0.30837423
129	0xbcb64234	-0.022248365
130	0xbd9ad35f	-0.07559847
131	0xbef26ef0	-0.47350264
132	0xbcfd0d8a	-0.030890245
133	0xbe94c4b4	-0.29056323
134	0x3ea2d9c7	0.31806776
135	0xbdbc88fa	-0.09205814
136	0xbf7aacfb	-0.979202
137	0xbf00e47d	-0.50348645
138	0x3cb7963e	0.022410508
139	0x3f35bcb9	0.7099109
140	0xbe89b4d3	-0.2689577
141	0xbf1ff12b	-0.6247737
142	0xbd99c2fc	-0.075078934
143	0xbea8afc0	-0.32946587
144	0xbe9ea2ca	-0.30983573
145	0x3f1b8b8b	0.607598
146	0x3e65fe19	0.22460212
147	0x3d1bde27	0.038053658
148	0x3f82f28d	1.0230271
149	0x3e439e23	0.19103293
150	0x398d147a	0.00026908872
151	0x3eb28b2f	0.34871814
152	0xbd304c18	-0.04304132
153	0xbee9d361	-0.45669082
154	0x3f4643cb	0.77447194
155	0x3cd47141	0.02593291
156	0xbf411f80	-0.7543869
157	0xbecc7fd8	-0.39941287
158	0x3d07e103	0.033173572
159	0x3e489d70	0.19591308
160	0xbf6911d9	-0.9104286
161	0xbd64fc4d	-0.055904675
162	0xbd7f9f8c	-0.062408015
163	0x3f809a06	1.0047004
164	0x3e208426	0.1567541
165	0x3d9dfe12	0.07714476
166	0x3f755b69	0.95842606
167	0x3e68d383	0.22736935
168	0x3f057631	0.5213347
169	0xbe833faf	-0.25634524
170	0x3e5bf924	0.21481758
171	0x3f187240	0.5954933
172	0xbe982f08	-0.29723382
173	0xbea3e351	-0.32009366
174	0xbf00a668	-0.50253916
175	0xbef3d7ce	-0.47625583
176	0x3e46f3ca	0.19428936
177	0x3eaece3d	0.34141722
178	0x3f87cdc1	1.0609666
179	0x3bc2969b	0.0059383637
180	0x3db302f8	0.087408006
181	0x3f12baa8	0.57316065
182	0xbeba1d9c	-0.36350715
183	0xbf377c91	-0.7167445
184	0x3e924fcc	0.28576505
185	0x3de930ba	0.11386247
186	0xbeec80e5	-0.4619209
187	0xbef2c9da	-0.47419626
188	0x3dce8137	0.100832395
189	0xbde726cc	-0.11286697
190	0x3f08e6a6	0.5347694
191	0xbe0ae547	-0.13564025
192	0x3f114123	0.56740016
193	0x3f34ceea	0.70628226
194	0x3e3e1136	0.18561253
195	0xbbf06819	-0.007336628
196	0xbf7b7644	-0.98227334
197	0xbdcf6e36	-0.10128443
198	0x3d9bb0ef	0.07602107
199	0x3efac283	0.48976526
200	0x3eac40fb	0.33643326
201	0x3be04608	0.006844286
202	0x3f28a120	0.6587086
203	0xbe7e7cb7	-0.24852262
204	0x3ef020ee	0.46900123
205	0xbf60de01	-0.8783875
206	0xbe83fea9	-0.25780228
207	0x3edb22b3	0.4279991
208	0x3ea449ea	0.32087642
209	0xbecfb957	-0.4057109
210	0xbd127707	-0.035758045
211	0xbe3ed9bb	-0.18637745
212	0x3ef60910	0.4805379
213	0xbd0da982	-0.034585483
214	0x3eab631b	0.3347405
215	0xbea574aa	-0.3231557
216	0xbe72fd14	-0.23729354
217	0xbf31f2bf	-0.69511026
218	0x3bcc92b8	0.006243076
219	0x3e25e3bc	0.16200155
220	0x3ee9017f	0.45508954
221	0x3e41c823	0.18924002
222	0xbeda6808	-0.42657495
223	0x3f259812	0.64685166
224	0x3d91c9db	0.07118579
225	0xbf2a1db6	-0.66451585
226	0xbee2335a	-0.44179803
227	0xbe3b8a7c	-0.18314546
228	0x3f1d6b40	0.61491776
229	0xbec0aa64	-0.37629998
230	0x3ea4b152	0.32166535
231	0x3f26ebbf	0.6520347
232	0x3f22bf53	0.6357319
233	0x3ea9e679	0.3318365
234	0xbdbad577	-0.091227464
235	0x3e518766	0.20461807
236	0x3d8b629d	0.06805918
237	0xbeae4f49	-0.34044865
238	0x3f1410f5	0.57838374
239	0x3e37736d	0.17915125
240	0x3d809e1c	0.06280157
241	0xbdb66e10	-0.089077115
242	0x3a5ce114	0.0008425873
243	0xbcb42f46	-0.021995198
244	0x3f8ba63e	1.0910108
245	0x3ed47620	0.41496372
246	0xbe6dbbe7	-0.2321621
247	0xbea8b3bf	-0.32949635
248	0x3e06c07e	0.13159367
249	0xbf167eb7	-0.587871
250	0xbf360472	-0.71100533
251	0xbe72f5ef	-0.23726629
252	0x3eafff13	0.34374294
253	0x3f83274f	1.0246371
254	0x3eab6c09	0.33480862
255	0xbdf3b113	-0.118990086

layers.0.bias f4 [128]
0	0xbfa8bf3a	-1.3183358
1	0xbedb26f0	-0.42803144
2	0xbf031804	-0.5120852
3	0xbd21f327	-0.03953853
4	0xbd8b8a95	-0.06813542
5	0xbeb79e2b	-0.3586286
6	0xbf222c78	-0.63349104
7	0xbe33a155	-0.17542012
8	0xbed0c97a	-0.40778714
9	0xbeabde22	-0.3356791
10	0xbe99c7b4	-0.30035174
11	0xbe5bd657	-0.21468483
12	0xbe854053	-0.26025638
13	0x3ec1a4e8	0.37821126
14	0x3e63b832	0.22238234
15	0xbe981f3e	-0.29711336
16	0xbea861ee	-0.32887214
17	0x3e90f793	0.28313884
18	0x3d60fb6b	0.05492727
19	0xbd864d90	-0.065577626
20	0xbe9a6497	-0.3015487
21	0xbe7671d4	-0.2406686
22	0xbe9a9dea	-0.30198604
23	0xbf08d5e1	-0.53451353
24	0x3e9320cb	0.28735957
25	0xbed4f63f	-0.4159412
26	0xbdf307f7	-0.118667535
27	0x3e0222ca	0.12708583
28	0xbec7d19e	-0.39027113
29	0xbeec0ddb	-0.4610432
30	0xbf0fddec	-0.56198
31	0xbe71b949	-0.23605837
32	0x3c2758e4	0.010214064
33	0xbf326950	-0.69691944
34	0x3e519c7a	0.20469847
35	0x3e278cbd	0.16362281
36	0x3d01b63c	0.031667933
37	0x3dd3dd3f	0.10344934
38	0x3e811280	0.25209427
39	0x3bca04ec	0.0061651375
40	0xbe788084	-0.24267775
41	0xbede003e	-0.4335956
42	0x3cbf6cf9	0.023367392
43	0xbe821eed	-0.2541422
44	0xbe3b28d1	-0.18277289
45	0x3d56737d	0.052356232
46	0xbe92d8f5	-0.2868115
47	0xbbf54e80	-0.0074861646
48	0x3e9ce782	0.30645376
49	0x3e75f9af	0.24021028
50	0xbf060a6c	-0.5235965
51	0xbe755f5f	-0.23962162
52	0x3d8b79ac	0.068103164
53	0xbe882058	-0.26587176
54	0xbf1beaab	-0.6090495
55	0x3d77cd15	0.060498316
56	0xbf0970e4	-0.5368788
57	0x3e4459c5	0.1917487
58	0xbe97a520	-0.29618168
59	0xbf1c00cb	-0.6093871
60	0xbec5d250	-0.38637018
61	0xbdc89648	-0.09794289
62	0x3d6925c2	0.056920774
63	0xbeec906c	-0.46203935
64	0xbe39ea2e	-0.18155739
65	0xbd98be87	-0.07458215
66	0x3d286461	0.041111354
67	0xbe8ed84b	-0.27899393
68	0x3d7a8d75	0.06117006
69	0xbe9eb121	-0.30994514
70	0xbed9b86f	-0.42523524
71	0xbea4320e	-0.3206944
72	0x3e0850a1	0.13312007
73	0x3dce2c02	0.100669876
74	0xbe7d5a66	-0.24741516
75	0xbf0c3e14	-0.54782224
76	0x3e377d79	0.17918958
77	0xbf5f6e0b	-0.8727729
78	0x3e8a2ea4	0.2698871
79	0x3e504268	0.20337832
80	0x3dc78950	0.09742987
81	0xbe3690e7	-0.17828713
82	0xbe2074f5	-0.15669616
83	0xbe45dc5e	-0.19322345
84	0x3e138bde	0.14408824
85	0xbe9701b2	-0.2949348
86	0x3e9d7e8b	0.30760607
87	0x3df04f31	0.117338546
88	0xbec804db	-0.39066204
89	0xbdffcd29	-0.12490303
90	0xbecbf2a7	-0.39833567
91	0xbe702f80	-0.2345562
92	0x3ecb312f	0.39685962
93	0xbde4eaa2	-0.11177565
94	0x3ead1b19	0.33809736
95	0xbe96c6bb	-0.29448494
96	0xbee5224b	-0.44752726
97	0x3dfce93e	0.12349175
98	0xbf8dc7ff	-1.1076659
99	0xbeb58037	-0.35449383
100	0xbeb57583	-0.35441217
101	0xbe9a319f	-0.30115983
102	0x3dd6a811	0.10481275
103	0xbe3fcbfc	-0.18730158
104	0xbea0fda5	-0.31443515
105	0xbe67cef6	-0.22637543
106	0xbd3ac263	-0.045595538
107	0xbe4f3c2b	-0.20237796
108	0xbe818288	-0.252949
109	0xbed00266	-0.4062683
110	0x3ebcdb85	0.3688623
111	0xbf100314	-0.56254697
112	0x3d82121b	0.063511096
113	0xbe8ff4f4	-0.28116572
114	0xbdbdbf14	-0.09264961
115	0xbf06d0a0	-0.52662086
116	0xbde5cd70	-0.11220825
117	0x3eb9477b	0.36187348
118	0xbf538199	-0.82619625
119	0xbeab6daa	-0.33482105
120	0xbf33351f	-0.7000293
121	0xbea41990	-0.32050753
122	0x3da73e3e	0.08166169
123	0x3e1125e7	0.14174615
124	0x3d35ac7b	0.044353943
125	0x3dd1e7af	0.10249268
126	0xbc813b74	-0.01577542
127	0x3d335eab	0.043791454

layers.1.weight f4 [128, 128]
0	0xbe004e35	-0.12529834
1	0x3c8bbe16	0.017058413
2	0xbd382268	-0.044954687
3	0xbdc171f8	-0.09445566
4	0xbda50b97	-0.08058851
5	0xbe843317	-0.25820228
6	0xbdad7c72	-0.08471002
7	0x3c2c8b41	0.010531248
8	0xbe3ba8d4	-0.18326122
9	0x3b16c50f	0.002300564
10	0xbc16d172	-0.009205209
11	0x3d25109b	0.04029904
12	0xbd75bfb1	-0.059997264
13	0xbd92b252	-0.07162918
14	0xbe1152eb	-0.14191787
15	0xbda6d6be	-0.081464276
16	0xbc0aaaa5	-0.008463536
17	0xbc191604	-0.009343628
18	0xbe79a385	-0.24378784
19	0xbacaa2db	-0.0015459912
20	0xbdb579ef	-0.088611476
21	0xbd09f76c	-0.033683226
22	0xbb86084c	-0.0040903445
23	0x3c200219	0.009766125
24	0xbde3b763	-0.111189626
25	0x3d4d0572	0.05005402
26	0xbe294c9a	-0.16533127
27	0xbe342e00	-0.17595673
28	0xbd22f56a	-0.039784826
29	0x3d36d07a	0.044632412
30	0xbc723395	-0.014782806
31	0x3c060c8d	0.008181703
32	0x3caa3f45	0.020782122
33	0xbe4eda2d	-0.20200415
34	0xbd683ec7	-0.056700494
35	0xbe825beb	-0.25460753
36	0xbe1b8aa7	-0.1518961
37	0x3d20ca62	0.039255507
38	0xbc2c343c	-0.0105105005
39	0xbb83d44a	-0.0040231096
40	0xbcea3e0c	-0.02859404
41	0xbb57b23d	-0.0032912635
42	0xbe0fe5b8	-0.14052474
43	0x3bde4e30	0.006784223
44	0xbe12b901	-0.14328386
45	0xbafa8fce	-0.0019116343
46	0xbd7dcb98	-0.06196174
47	0xbd06cf94	-0.032912806
48	0xbce8d71e	-0.028422888
49	0xbba7abd5	-0.0051169195
50	0xbcece92a	-0.028919775
51	0xbec3261d	-0.38115016
52	0x3d6c49fe	0.057687752
53	0xbd39b0c4	-0.045334592
54	0xbe29cceb	-0.16582076
55	0xbe825163	-0.25452718
56	0xbda0d469	-0.07853014
57	0xbdfc4f9d	-0.123198725
58	0x3c4f5bf7	0.0126562035
59	0xbdcedec9	-0.10101087
60	0xbb985fcb	-0.0046500913
61	0x3e180767	0.14846574
62	0xbd6dcaef	-0.05805486
63	0xbe0eb57c	-0.13936418
64	0x3d29f2ad	0.0414912
65	0xbdaaebbe	-0.083457455
66	0xbdd0bb2d	-0.10191951
67	0xbd2bc5f5	-0.041936833
68	0xbdc7a4c3	-0.09748223
69	0x3d1e54c8	0.038655072
70	0xbe840c9c	-0.2579087
71	0x3c5c9727	0.013463772
72	0xba8d314a	-0.0010772136
73	0xbe35c393	-0.17750387
74	0xbeaf93c7	-0.34292433
75	0xbd2656d4	-0.04061015
76	0xbcd507f4	-0.026004769
77	0xbde7bf96	-0.11315839
78	0xbc0a3d23	-0.008437428
79	0x3cb9ad5c	0.022665672
80	0xbd9d4ab0	-0.07680261
81	0x3d635df9	0.05550954
82	0x3d5801b8	0.052736014
83	0xbcfa2ba5	-0.03053839
84	0xbd5a9160	-0.053361297
85	0xbd844be8	-0.064597905
86	0xbd55e8a5	-0.05222382
87	0xbe470fea	-0.19439664
88	0xbd38424a	-0.044985093
89	0xbdadd0e9	-0.08487112
90	0x3cfb35ad	0.030665243
91	0xbd89fcaa	-0.06737645
92	0xbdf2edee	-0.11861788
93	0xbd37c22f	-0.044862922
94	0xbdb61a08	-0.08891684
95	0x3d53137e	0.05153226
96	0xbce391a7	-0.027779413
97	0xbe87bee2	-0.2651282
98	0xbc223ccf	-0.009902193
99	0xbde8b3a6	-0.1136239
100	0x3dd0ef48	0.10201889
101	0x3d086a7f	0.033304688
102	0xbda61f42	-0.08111431
103	0xb9f70a59	-0.0004711922
104	0x3ccf368f	0.02529457
105	0x3dbafb32	0.09129943
106	0x3c812a4a	0.015767235
107	0xbe2bcb23	-0.1677671
108	0xbe136a68	-0.1439606
109	0xbe09a935	-0.13443454
110	0xbe58f226	-0.21186122
111	0xbdbd66db	-0.09248134
112	0xbcc9fb96	-0.024656098
113	0xbdf23b92	-0.118277684
114	0x3d3cfd68	0.046140105
115	0xbddc0245	-0.107426204
116	0xbd0a36f4	-0.033743814
117	0xbddc7607	-0.107646994
118	0x3ba34fb6	0.0049838675
119	0x3cbf1ada	0.023328234
120	0xbd9bbc08	-0.076042235
121	0xb77c5f66	-1.5042582e-05
122	0xbc1ed64a	-0.009694645
123	0xbd93d609	-0.07218558
124	0xbd46a1a9	-0.048494015
125	0xbe527c2f	-0.20555185
126	0xbe068671	-0.13137223
127	0xbb9bb192	-0.0047513926
128	0x3ef0cea7	0.47032663
129	0xbf3c0833	-0.7345001
130	0x3d5400a4	0.051758423
131	0x3da9b3f9	0.0828628
132	0xbe284263	-0.16431575
133	0xbe4d3991	-0.20041491
134	0xbdfd79b5	-0.123767294
135	0x3ced263b	0.028948894
136	0xbde5c0c7	-0.1121841
137	0xbeefad5c	-0.4681195
138	0xbe921898	-0.2853439
139	0xbd961ef1	-0.0733012
140	0xbd3629a5	-0.04447331
141	0xbca4cd69	-0.020117478
142	0x3d631a7e	0.055445187
143	0xbddf3e19	-0.10900516
144	0x3cbd987a	0.023143996
145	0xbd9798d3	-0.07402196
146	0x3e3bfa78	0.18357265
147	0xbd3ef822	-0.046623357
148	0xbd2d5b98	-0.04232368
149	0x3d97add8	0.07406205
150	0xbd121fb5	-0.03567477
151	0x3d126aa3	0.035746228
152	0x3e33ecf9	0.17570867
153	0xbdcacf09	-0.0990277
154	0xbda3a4da	-0.07990427
155	0xbe5f4977	-0.21805368
156	0x3df54a04	0.11977008
157	0x3dd0bc71	0.10192192
158	0x3e084372	0.13306978
159	0x3e0c22b0	0.13685107
160	0xbdd428bf	-0.10359334
161	0xbcf4f948	-0.029904023
162	0xbc0a17ce	-0.008428527
163	0x3d970ffb	0.07376095
164	0xbccebe72	-0.025237296
165	0xbe9ac298	-0.30226588
166	0xbe8711ed	-0.26380864
167	0xbdfbe23a	-0.12299009
168	0x3e0350d4	0.12823802
169	0xbe987cd8	-0.29782748
170	0xbd02086f	-0.031746324
171	0x3eaddecc	0.33959043
172	0xbcfe8403	-0.031068807
173	0x3e377d9d	0.17919011
174	0x3e8bdee5	0.27318493
175	0xbccb9628	-0.024851874
176	0xbd57facf	-0.052729424
177	0xbe07a65c	-0.13247055
178	0xbcf2d0b7	-0.029640539
179	0xbdc1cbe9	-0.09462721
180	0xbf03cb6b	-0.51482266
181	0xbee148e4	-0.44000924
182	0x3ea106c5	0.31450477
183	0x3dbfa3ed	0.09357438
184	0x3ecbde32	0.3981796
185	0xbd9811f2	-0.07425298
186	0xbdce6656	-0.10078113
187	0x3ebba21a	0.3664711
188	0x3d1033a4	0.0352055
189	0xbf0a9add	-0.5414255
190	0x3c00da31	0.007864521
191	0xbec91737	-0.39275524
192	0x3dfbf273	0.12302103
193	0xbf0826e5	-0.5318435
194	0xbdd5a092	-0.10431017
195	0x3e5202a7	0.20508824
196	0xbead37fa	-0.3383177
197	0x3e16f840	0.14743137
198	0x3d76f28d	0.06028991
199	0xbe6acbb1	-0.22929265
200	0xbe8c3396	-0.27383107
201	0xbd71b8ce	-0.059014134
202	0xbee3081b	-0.4434212
203	0x3c8b313e	0.016991254
204	0x3daee91c	0.08540556
205	0x3ec12c6f	0.37729213
206	0xbd954e69	-0.07290346
207	0xbd5eef68	-0.054427534
208	0xbda1595b	-0.07878371
209	0x3da3eca5	0.08004121
210	0xbd874d17	-0.066065006
211	0xbd4c6cb3	-0.04990835
212	0x3e2258bd	0.15854163
213	0xbd80d825	-0.06291226
214	0xbeae3d78	-0.34031272
215	0xbfcf21d7	-1.6182202
216	0xbe09c575	-0.1345423
217	0x3dff00e4	0.12451342
218	0x3c6b5636	0.014363816
219	0xbe56ef72	-0.20989779
220	0x3e0d4302	0.13795093
221	0x3b9e342b	0.0048279963
222	0xbdd06c30	-0.10176885
223	0xbd860a16	-0.065448925
224	0xbd3254fb	-0.043538075
225	0xbe0caa53	-0.13736849
226	0x3f519917	0.8187422
227	0x3e82a2e8	0.25514913
228	0xbe6ffe1f	-0.23436783
229	0x3e9c4c90	0.30527163
230	0xbe7430cc	-0.2384674
231	0x3d69b4ee	0.057057314
232	0xbdcb3928	-0.09923011
233	0x3d8af6ed	0.067853786
234	0xbcedb243	-0.029015666
235	0xbd1b74a2	-0.037953027
236	0xbd2973e7	-0.0413703
237	0x3e6cff61	0.23144294
238	0xbc8d832f	-0.017274467
239	0x3c7b1f8b	0.015327345
240	0xbd925843	-0.07145741
241	0xbe9193f0	-0.2843318
242	0x3e483827	0.1955267
243	0x3e99914b	0.29993662
244	0xbd858681	-0.06519795
245	0x3c5191e7	0.0127911335
246	0x3fa11425	1.2584273
247	0x3eabbee7	0.33544084
248	0xbdfa408a	-0.12219341
249	0xbf2035b7	-0.6258196
250	0xbe14cd85	-0.14531524
251	0x3a37c8cd	0.00070108176
252	0x3daba86e	0.08381735
253	0x3e93fc90	0.28903627
254	0xbc3a64b4	-0.011376549
255	0xbd1d4dfb	-0.038404446
