HW9/9_gym-DDPG/results/DDPG_Pendulum-v1_500-eps0.1-t32-l0.001-s1-u20.pth (torch, 176080 bytes, 12 tensors)

layers.0.weight f4 [128, 4]
00000000: 0c6e 6b3e 07ae 32bf 1be2 05be a4e1 583d
00000010: 5bd9 0dbf 043c 4c3e 71ec 39be b23a 1e3e
00000020: 7bed 0f3c 31cd 8a3d 6961 603d 2f48 cfbb
00000030: 7ac0 363e 2947 42be 916d ffbc f350 24bd
00000040: c827 1a3d 3d9d 7b3e 719a eb3e 00e0 db3d
00000050: 16d6 8cbe 6ca3 2cbf 5294 0dbd 6295 7bbe
00000060: 3c46 3fbe ce2f f53e 404e be3e ce14 033e
00000070: cec7 0bbf 5fe4 133f 693d fa3d a6ff b13e
00000080: bb7f 153f d1a0 91bf 2630 c6be c7ef ffbd
00000090: 9c93 513f 50e5 ce3e baf1 813e 4121 3abd
000000a0: 8265 e83e 3cd6 c3be 0595 cf3e 7ee8 213c
000000b0: 7c76 0abf fafe cbbd f79f a2be 37c0 9b3e
000000c0: c4ca 9abe df85 4abe c344 ffbe 3bf9 52be
000000d0: 15e2 133e f4d3 9e3c c8e4 0d3f 7e90 bb3e
000000e0: 1779 77bd 36c0 b1be b52a a93e dfec 183e
000000f0: b83f acbe c8a7 253f d9b1 8c3e 499e c33e
00000100: 4bc1 a6be 43d3 acbe 3881 d23d dc21 163c
00000110: 3d05 f9be f186 2739 8446 883e 0676 43be
00000120: d176 273f 1cac 843c ef01 2f3e 8636 b03d
00000130: df46 20be c73e 10bd 83ae 00bf a74c d13e
00000140: d54d dcbe 00f7 17bf 3dc4 21bc cb60 31bd
00000150: 7ac1 7e3e 8634 45bf c8ee c6be f722 753e
00000160: 87b2 2b3d 4325 213f 382f 403e 6230 b2be
00000170: 9591 b33d f75f b43d 7c3a a3be 9d9e 62be
00000180: f585 cb3d f935 3cbd 602b 34be 3e99 0ebe
00000190: 5fa8 a83e 4976 80be 2a88 b13e 2260 113e
000001a0: b26f 0abf 350f bcbe 4262 003f e220 07bd
000001b0: 1c22 a03e 519e c53e 1d0e 9c3d 42ea 5f3e
000001c0: 00e6 953e c31f 23bf 47b0 f43c 5fae 803e
000001d0: 3f1c a03e f1e0 b13e 7269 c1be 30f0 cbbe
000001e0: d663 18be e360 fc3e b465 003f 7b3a c5be
000001f0: 2438 a03e 7483 30bf 4067 dcbe 40dd e43d
00000200: 8f91 4f3e 37a7 ef3e 3186 abbe 4d72 453e
00000210: 2114 4e3f efb5 1d3f 770b aa3e 0d67 a63e
00000220: d18b ab3e 481c 143e 7dec 94be b862 e5be
00000230: 048c cfbe c91b 8ebe 01ec 52be 6875 af3d
00000240: a06f ffbc 4abf e2bd a687 853e 349e 983d
00000250: f027 a83e 5b85 0c3f e05d 80be ed06 943e
00000260: 5fdd 21be dd47 3dbe 9c5d d8be a498 bbbe
00000270: 2203 a4be 52f0 463e 25dd c03e a4dd 73be
00000280: b6cf e8be c5dc a33e 8b80 023e 9cb1 863e
00000290: f767 cdbe a88c 3fbe e858 5ebe b330 84bd
000002a0: 9d97 fcbe 7134 18bf 2b52 cb3c 7564 0b3e
000002b0: 1698 b23e de35 4d3e 8b14 013f 4d33 173f
000002c0: 0465 e43e aa89 7dbd 52db b9be 72db a93e
000002d0: 4d94 b1be 3964 59be 9b09 ddbe 45fd 9ebd
000002e0: d9c6 08bf b07c 883e a3ae e4be 28b3 c6be
000002f0: bc66 0ebe 3327 a7be da1c 423e c602 c2bd
00000300: 38f8 2cbe 69aa fe3e 39db c13e e7af f0be
00000310: 95d2 203f 4ea7 193f a47d f53e 0db8 b8be
00000320: 044c aa3d 1a0a 07bf e09e e33e 82ba 03be
00000330: 4459 023f 22fe 13bd 4129 30bd 0b89 dfbd
00000340: 0df3 3cbc 1245 de3e cb09 4f3b 900f e63d
00000350: 96b5 e6be 9039 083f 7f07 e03e a506 c03e
00000360: cb72 7a3e ad8d 5bbf 63c6 49be 3275 2e3e
00000370: 4b2e 01bf 87ec be3e 3c24 d2be 611b c6be
00000380: d76b 353e 52b0 2bbf 14fa a0bd 7da6 963e
00000390: 3744 d23e e6ec 113f 74ba 88be e139 babe
000003a0: 8623 213f 253b 72be cf52 4cbe 6c71 ddbd
000003b0: 64c5 b1be b927 fe3e 04b2 a43e fa59 e4be
000003c0: 6e61 03bf 5c46 bc3e a37d 513e a20b 07be
000003d0: 93db c6be cfb1 4ebe 2f31 f0be 2be6 b9be
000003e0: bb0c 96be a548 3d3f 63f2 db3e c8b8 57be
000003f0: efce febc a598 d13e 624d 1dbe a11b 3fbe
0.22991198 -0.69796795 -0.13074534 0.052949563 -0.55409783 0.19944769 -0.18156601 0.15452078
0.008784647 0.067774184 0.054780398 -0.0063257436 0.17846861 -0.18972458 -0.031180175 -0.04011626
0.037635595 0.245717 0.46016267 0.10736084 -0.27507085 -0.6743686 -0.034565277 -0.24568704
-0.18679136 0.47888035 0.37169075 0.12800905 -0.5460175 0.5777034 0.12218744 0.34765357
0.58398026 -1.1377202 -0.3870861 -0.12496906 0.8186586 0.40409327 0.25379735 -0.04544187
0.45389944 -0.38249385 0.4054338 0.009882091 -0.5408704 -0.09960742 -0.31762668 0.30420086
-0.30232823 -0.1977763 -0.4985715 -0.20602886 0.14441712 0.019388177 0.5542722 0.36633676
-0.060418215 -0.34716958 0.33040395 0.14934109 -0.33642364 0.6470914 0.27479437 0.382067
-0.32569346 -0.3375493 0.10278553 0.009163346 -0.4863681 0.0001597663 0.266163 -0.19087991
0.65415674 0.01619535 0.17090581 0.086041495 -0.15652035 -0.03521612 -0.50266284 0.40878794
-0.4302813 -0.5936127 -0.009873447 -0.0433052 0.24878493 -0.7703327 -0.3885405 0.2393912
0.041918304 0.6294748 0.18768013 -0.34802538 0.08768002 0.08807366 -0.31880558 -0.22130819
0.0993766 -0.04594991 -0.17594671 -0.13925645 0.32940957 -0.25090244 0.34674197 0.14196828
-0.54076684 -0.36730352 0.5014993 -0.032990344 0.31276023 0.38597348 0.076198794 0.21866706
0.2927704 -0.6372034 0.029869212 0.25133035 0.3127155 0.3474193 -0.3777576 -0.39831686
-0.14881834 0.4929267 0.50155187 -0.3852118 0.31292832 -0.6895058 -0.43047523 0.111750126
0.2027037 0.46807262 -0.33500817 0.19281884 0.80499464 0.61605734 0.33211872 0.32500497
0.3350511 0.14463913 -0.29086676 -0.4480188 -0.4053651 -0.27755573 -0.20597841 0.08567315
-0.031181157 -0.11071642 0.26080054 0.0745205 0.3284297 0.54890984 -0.2507162 0.28911534
-0.15807103 -0.18484445 -0.42258918 -0.36639893 -0.3203364 0.19427612 0.3766872 -0.23815018
-0.4547097 0.3200437 0.12744348 0.2630738 -0.4011838 -0.18706 -0.21713603 -0.06454601
-0.49334422 -0.5945502 0.024819454 0.1361254 0.34881657 0.2004008 0.5042197 0.59062654
0.4460832 -0.061898865 -0.3630014 0.33175236 -0.34683457 -0.21229638 -0.4317139 -0.07763151
-0.5342842 0.2665763 -0.44664487 -0.3880856 -0.13906378 -0.32647094 0.18956318 -0.09473185
-0.16891563 0.49739388 0.37862566 -0.47009203 0.6282132 0.6002091 0.4794742 -0.3607792
0.0831528 -0.5274979 0.4445715 -0.12864116 0.5091746 -0.03613103 -0.043008093 -0.10914811
-0.011532557 0.4341207 0.003159153 0.11233437 -0.45060414 0.53212833 0.4375572 0.3750507
0.24457853 -0.85763055 -0.19704585 0.17036894 -0.5046126 0.3728983 -0.4104327 -0.38692763
0.17716919 -0.6706592 -0.078601986 0.29423895 0.4106767 0.57002103 -0.26704752 -0.36372283
0.6294483 -0.23655374 -0.19953464 -0.10812649 -0.3472091 0.4963968 0.32167065 -0.44599897
-0.5132054 0.3677243 0.20458083 -0.13188031 -0.38839397 -0.20185016 -0.46912524 -0.36308417
-0.29306588 0.7393897 0.42958364 -0.21066582 -0.031104533 0.4093677 -0.1536155 -0.18662883

layers.0.bias f4 [128]
00000000: 26b7 94be df62 ff3e 9a7e da3e 0c1d febe
00000010: 83d8 ffbe bf1f 19be a85c e0be be41 733e
00000020: ef68 babe 438d 10bf fc01 4e3e 0b1d e53d
00000030: eb3b e0bd c723 00bf 9ea9 823e 19dd 303e
00000040: b1b8 3bbe 6791 08be 1b8f 933d 6dfb 1d3e
00000050: 68dc 993e ace4 803e c12a 7a3d d1ea 01bf
00000060: 6fd6 e73e 8459 e53c 08fc c6be c016 233f
00000070: c1ab b23e c31d d1be f5fa 1ebe 3fe0 51be
00000080: 05e7 c7be 46bb 4f3e ceaf e3be 60d8 1d3f
00000090: 192b 4bbe d040 c93e b67d 1e3e fc1e ecbd
000000a0: 3ee1 e83e 93ba b2be 4e66 ecbd d8da d1bd
000000b0: 7c0b c93e 80cc 15be e46a 59be 6bea d6be
000000c0: 4c6f 21be f517 a5be 6a78 43be 99fe 93be
000000d0: 1d49 9c3e 8ba2 fe3d 3a55 8fbe 47de 29be
000000e0: 866f 343e 09ff 7c3d 52d1 093f 1106 803d
000000f0: 4882 a1be b9ee 9dbe ff1d dc3c 12aa e43b
00000100: 56fb 113e fdf4 56be 529f 043e 6939 8cbd
00000110: cf67 013f 1390 8f3e 9808 27be 1dc9 1a3f
00000120: ab77 9b3e 037d a3be 864e b4bd 3bdb e23e
00000130: 9333 cf3e 94ea 003f ad76 a83d 0864 fc3e
00000140: a7e0 be3e f583 6f3e 0d9d 18bd 4716 1e3f
00000150: 3c63 583e 8236 453d 375a 013e a137 203f
00000160: 7bc5 e53e ac8c afbd 329b 183f 580d ae3e
00000170: 689f 86be 490f f3be 722e dd3e 3b2d 123f
00000180: 69bc afbd 8d2e bf3e 835d edbd 951c a4be
00000190: 5cda 563d 7302 963e a546 a43e cc86 ff3e
000001a0: 85d4 a73e 7082 ad3e 3397 143f f9db 9f3e
000001b0: 7fcd 3f3e f2be f4be cf7d 033f 0f19 153e
000001c0: 84fb c33e d0db d13e 5eb5 edbb 0836 f33e
000001d0: fbf0 73bd 79d7 113f 1ab3 cc3e a4f8 0dbd
000001e0: a2b1 a33d fed7 70be 9a86 62be 2f65 bd3c
000001f0: 199b bb3d c9c9 52bd 28dc f7be 9b6c c3be
-0.2904598 0.4988012 0.42674714 -0.49631536 -0.49969873 -0.14953516 -0.4382069 0.23755547
-0.36408183 -0.5646555 0.20117944 0.1118718 -0.109489284 -0.5005459 0.25520033 0.17271842
-0.18332173 -0.13336717 0.072050296 0.15427943 0.3005097 0.25174463 0.06107593 -0.50748926
0.45280787 0.027996786 -0.3886416 0.6370659 0.34896663 -0.4084302 -0.1552542 -0.204957
-0.3904344 0.20286283 -0.44470066 0.6165829 -0.19840659 0.3930726 0.15477642 -0.11529347
0.45484346 -0.3490797 -0.115429506 -0.10246819 0.39266574 -0.14628792 -0.21232182 -0.41975722
-0.15765113 -0.3224484 -0.19088903 -0.2890518 0.3052453 0.12433346 -0.2799471 -0.16588698
0.17620668 0.061766658 0.5383502 0.06251157 -0.3154471 -0.30846193 0.026869772 0.006978282
0.14256033 -0.20991893 0.12951401 -0.068468876 0.50549024 0.28039607 -0.16311872 0.60463125
0.30364737 -0.31931314 -0.0880404 0.44307885 0.40469036 0.5035794 0.082257606 0.49295068
0.3728077 0.23390181 -0.03725915 0.6175274 0.21131605 0.048147686 0.1263207 0.6258488
0.44877228 -0.08571753 0.5961181 0.33994555 -0.26293492 -0.474726 0.43199497 0.57100266
-0.08580858 0.37340203 -0.115901016 -0.32053056 0.052454337 0.29298744 0.32085148 0.4990753
0.32779327 0.33888578 0.5804321 0.31222513 0.18730734 -0.4780193 0.51363844 0.1456034
0.3827783 0.40988016 -0.0072542867 0.4750216 -0.05955599 0.5696941 0.39980394 -0.03466095
0.07992865 -0.23519894 -0.22121659 0.023119537 0.09160442 -0.05146197 -0.48410153 -0.38168797

layers.1.weight f4 [128, 128]
00000000: 57ae 133e dca0 6d3d 53e6 133e e1f6 9a3d
00000010: 041a 643d 80fe 7f3d e27f bfbd 50b2 123e
00000020: 048f 4dbd 23fc 993e 7287 60bd c565 f63c
00000030: 920f a6bd 18df 1abd 1fab 59bc ece4 553c
00000040: 9d94 cb3d e5d5 c03d df28 543d 46d8 d03c
00000050: 3f9d 70bc 31f1 ad3d daad 183d 9b5a 1cbe
00000060: 82ca fa3d dc62 96bc 16fc 993d 5db7 423d
00000070: 2dd7 1ebe ee40 aabd eb81 663d a2f0 f33b
00000080: d252 0abe ae22 833d 9658 e7bc 3e3e 0e3e
00000090: 1f14 89bd fc15 f1bc 866c b13d 09ee e8bc
000000a0: ddcb 073e 72c9 be3b ab4f cf3c ed51 a0bc
000000b0: 2e4b b13c 0c76 dabd 3f6d ef3c 611f a4bd
000000c0: 509a cdbc f1d6 a0bc 653f 2f3d af4c bfbe
000000d0: e493 f83c 8ad3 013d 6a4b 223d 50bf 8bbd
000000e0: d324 58bc 706f 13bd 844c b63d 41f2 d83d
000000f0: 773f b5bd 5226 85bd 8b85 ba3b c577 8d3d
00000100: 1df2 47bd 4dd0 64bd bcd8 8d3d 3512 2b3d
00000110: 9f68 f43d 88d6 b73c 8516 993c 52fa 833d
00000120: de04 1d3e dbf9 80bd 13df 53bd 016e 883d
00000130: 0b4d d33c 9274 ed3d 7070 493d fb6c d53c
00000140: 8043 2d3e 554b 893d 34f4 633d 1f0e 4e3c
00000150: 8f7f b53d 20ba d63d 95aa 983d 3ddc 953c
00000160: bdbb 653d 15b1 83ba 15a8 033e b153 d83d
00000170: e9fa b7bc ae21 f4bd 0d22 0c3e 8c52 c03d
00000180: 5dbd bc3d 0402 14bc b12d 1e3d aa55 e9bb
00000190: 0d4e 23bd 2ca9 a93c a666 243e 78ad 853d
000001a0: 91c5 adbc 86ae 023e 5d4a 033e 9074 093e
000001b0: c62e d13d 8145 803c 6ea6 d63d 400b 7f3d
000001c0: b510 c73d cd0c 2dbd a520 93bb 4619 b73d
000001d0: 4858 6a3d e9de 1d3e a1ba d53b e39b cb3c
000001e0: e3cc 36be 2150 3abd 5618 543e 7bcd 3fbe
000001f0: 5dc5 79bc 126e 533d 11be c9bd fc40 cb3c
00000200: eb6c 963c 8962 84be d098 1fbc ead9 473c
00000210: 2c9d 67be 47e3 8e3e 5907 16bc 499f 3dbe
00000220: 8a4a 2d3d d78c 53bf 5fad afbb 9f9d 02bf
00000230: bd28 1bbe 280d 94bd 7a56 6b3d 49db 06be
00000240: 7405 09be d3db fb3c 8660 fcbd 817f 33be
00000250: c1d0 733e c6a8 aabc 3ed5 edbe 0d82 20bd
00000260: e1be a8bc 21bb 063d 84b2 253e 3be5 f6bc
00000270: a885 3d3e ae6a dcbc 49ab 94bd 0c02 7dbd
00000280: bf7a 33bd 5cea 9dbd e4bb 663d 839f 063e
00000290: 9501 01bd 92fa 3cbd c1f5 f3bd cfbb ee3d
000002a0: 482f e9bd 1e41 f2bb 9e36 50bb 7fa4 01be
000002b0: 22f9 8dbd 9e58 07be 2699 25be 65ca 673e
000002c0: 1cfb 48bc b407 8dbe 1e9f ee3d 3230 2cbe
000002d0: 635e e2bd 2019 f4bc 67df 33bc f8ac 3fbe
000002e0: b327 123e bef0 cfbd 1f21 c93d f76b 26be
000002f0: 6d4b d9bd 925c c9bd 2bfc e4bd 52f8 d0bd
00000300: 3327 59bc bb94 833d 3b78 3c3e a7aa a63d
00000310: 5367 86bd 5895 8ebe 6b66 61be b772 cd3d
00000320: 5668 62bd 1f34 a9bd 234f c9be 73b6 da3d
00000330: eea3 11be 8c20 29bf c376 ec3b 13be 70bd
00000340: b401 cf3d 0f64 8e3d 507c a9bd bdd0 163e
00000350: 73bc 3e3d 8a0a 6bbe 1f89 97be d5eb c33d
00000360: b470 27bd def5 15bf b4c2 513d 4d96 11be
00000370: a710 e73d 19d1 0dbb 3654 26be 488b 1a3e
00000380: efce 39bc 03db be3d 2978 cc3a 2353 7fbe
00000390: 8426 1ebf 7fd8 183e 7961 04bc a0ed df3d
000003a0: 0bdb e3be 30ae 43be 49f4 a1be aed5 223e
000003b0: bff1 a1be 8adc 54be 0ced 1fbf d8cb 9abe
000003c0: 0986 953d 1273 44bd 1dd5 183e 7c0b 1e3e
000003d0: c650 bcbc af2a 113e 32ea 9ebd 0a34 d3be
000003e0: 577a 3c3e 4716 593d 2d5a 08bf 41b1 773e
000003f0: e8bf 8f3d 10c0 99be 876a 16be bbb0 823e
0.14421974 0.058014736 0.1444333 0.0756662 0.055688873 0.06249857 -0.093505636 0.14325833
-0.05018522 0.30075178 -0.05481667 0.030077824 -0.081084386 -0.037810415 -0.013285427 0.0130550675
0.09940455 0.09415797 0.05179679 0.025493752 -0.014685928 0.08493269 0.037275173 -0.15268938
0.122456565 -0.018357687 0.07518785 0.04753815 -0.1551177 -0.083131656 0.056276243 0.007444457
-0.13508156 0.06403099 -0.028240483 0.13890931 -0.06693291 -0.029429428 0.08663277 -0.028433817
0.13261361 0.005822354 0.025306543 -0.019570315 0.021642294 -0.10667047 0.029226897 -0.080137976
-0.025097996 -0.019633742 0.042785067 -0.37363192 0.030343957 0.03169588 0.0396227 -0.06823599
-0.013192373 -0.035994947 0.08901313 0.10593081 -0.088499956 -0.0650145 0.005692189 0.0690761
-0.04881488 -0.055862714 0.069261044 0.04176541 0.119340174 0.022441164 0.018687496 0.06444229
0.15333888 -0.06297656 -0.051726412 0.066616066 0.025793573 0.115945 0.049179494 0.026052942
0.1692028 0.067038216 0.055652812 0.012576609 0.088622205 0.10484719 0.07454411 0.018293494
0.056087244 -0.0010047281 0.12857087 0.10562838 -0.02245851 -0.119204864 0.13684864 0.093907446
0.09215806 -0.009033684 0.038617793 -0.0071208077 -0.039869357 0.02071055 0.16054782 0.06527227
-0.021212371 0.12761888 0.12821336 0.13423371 0.102139995 0.015658142 0.10480963 0.06226659
0.097199835 -0.042248536 -0.0044899755 0.089403674 0.057213098 0.15417065 0.006522492 0.024854606
-0.17851596 -0.045486573 0.20712408 -0.18730728 -0.015244809 0.051618643 -0.098507054 0.02481126
0.018362483 -0.25856426 -0.009741023 0.012197951 -0.2261855 0.27907774 -0.009157025 -0.18517794
0.042307414 -0.8263678 -0.0053612436 -0.5102176 -0.15152259 -0.07229072 0.057455517 -0.13169588
-0.13380986 0.030744469 -0.12323098 -0.17529108 0.23810102 -0.02083243 -0.46451753 -0.039186526
-0.02059883 0.032893304 0.1618138 -0.030138602 0.18508017 -0.026906338 -0.072592326 -0.06176953
-0.04381823 -0.07710716 0.05633153 0.13146786 -0.03149565 -0.0461374 -0.11912108 0.116569154
-0.11385971 -0.0073930165 -0.0031770836 -0.12660407 -0.06932284 -0.13217399 -0.16171703 0.22635801
-0.0122669 -0.2754494 0.11651443 -0.1681526 -0.11053159 -0.029797137 -0.010978556 -0.18718326
0.14272957 -0.1015334 0.098207705 -0.16252123 -0.106100895 -0.098321095 -0.1118091 -0.10203613
-0.013253975 0.064248525 0.1840524 0.08138018 -0.06562676 -0.27848315 -0.22011726 0.10031646
-0.055275284 -0.082618944 -0.3931819 0.10679331 -0.1422269 -0.6606529 0.007216306 -0.05877502
0.10107747 0.069526784 -0.08275664 0.14728065 0.046566438 -0.22953239 -0.29596803 0.09566466
-0.040878966 -0.5857829 0.051211074 -0.14217491 0.11282473 -0.0021639524 -0.16243061 0.15092194
-0.011340841 0.09319117 0.0015599775 -0.24934058 -0.6177752 0.14926337 -0.00807988 0.10933995
-0.44503054 -0.19109416 -0.31631687 0.15901825 -0.3162975 -0.20787254 -0.6247108 -0.30233645
0.07300956 -0.047961302 0.14925046 0.15434068 -0.022987735 0.14176439 -0.07759513 -0.4125064
0.18406044 0.05299976 -0.532626 0.24188711 0.07019025 -0.30029345 -0.14689074 0.2552546

layers.1.bias f4 [128]
00000000: 35d1 023e f97a a53c ec3f 853d 5431 0f3d
00000010: 923c 3bbd 265e 1a3d 258a d63d cc72 4fbd
00000020: 958c 113e 2337 1a3e 67f0 af3b 09cf c53c
00000030: a73a acbc 9a88 ad3d 400a af3c baf1 f93d
00000040: 0a0d 3a3e c0b9 9abd 1454 803d a0be 463d
00000050: ffe7 613e d2e6 c13d f388 85bd b866 293e
00000060: e6a4 563e 0e0f 173d 757b c83d 0d6e 933d
00000070: 4d8d 093e a024 0e3e 0419 453d b360 443d
00000080: 11d8 d73d eacf 2f3e fdb4 933d e9e5 b43d
00000090: 9901 89bd 6f4d dc3d fd87 57bd 4a9f 4e3e
000000a0: 6cfe 243c e696 89bd 9459 a03c 67fd 873d
000000b0: 7b88 a93c 72ee 243e aa17 bc3d 5409 233e
000000c0: b2a4 1a3e a565 ad3d aece cfbc 503f c53d
000000d0: fe5c 2e3e 79ef bb3d e73c 933c 856b 513e
000000e0: 60c1 f83d 310a 493e c4e5 a33d 2d4e 2b3c
000000f0: 4dc1 373e 2c46 fe3b 224e 90bc 1389 bb3d
00000100: 3abd 073d f522 1ebb fa9c 833d fd0c 033e
00000110: 6ae2 153e ab7e 093e d071 ed3a 7072 293e
00000120: ca70 0c3d 1f1e 083e b0ef c2bb d449 283e
00000130: 41cb 473e f068 403c 50ed a33d ef9a 4a3d
00000140: ed67 333e ed3b e93d 3c09 0b3e 8414 d63d
00000150: b478 03bb 1dd0 413e 6eed 54bd be28 823d
00000160: 46cd 1e3e f8c0 0a3d 9759 fd3d 90e5 1b3d
00000170: 2723 033e d22d 043e 67ce 093e 2205 cc3b
00000180: 1a4a 003e 9fe1 e63d dee7 b03c e0f7 333d
00000190: 1965 a0bd e5e7 4d3e 1f42 943d ad62 94bd
000001a0: b5a2 613d c66f 083c 2192 ef3d 63ad c13d
000001b0: 7eb2 9d3d 3e6d 2f3c e797 343d 2398 1c3d
000001c0: 4959 263e caea f53d a541 f93c 16fd 773d
000001d0: 366c 023d c27a af3d 3ba6 003e d2fc 8e3d
000001e0: 267a 40bd b439 e13c ac63 953d fdb5 383e
000001f0: e8ce 0f3e 7bb3 04be b62b fa3d f7b6 1a3e
0.12775119 0.02020024 0.06506333 0.034959152 -0.04571206 0.037687443 0.10475568 -0.05064659
0.14213784 0.15060095 0.0053692344 0.024146574 -0.021024061 0.0847332 0.021367192 0.12204309
0.18169037 -0.0755496 0.06266037 0.048521638 0.22061156 0.094678536 -0.065202616 0.1654309
0.20961341 0.03687959 0.097891726 0.07198725 0.13432808 0.13881159 0.04811956 0.047943782
0.10539258 0.17169157 0.07212255 0.088329144 -0.06689758 0.10756957 -0.052619923 0.20177951
0.0100704245 -0.06718235 0.019573964 0.066401295 0.020694962 0.16106585 0.09184201 0.15921527
0.15101889 0.08466653 -0.025367107 0.096312165 0.17027661 0.09176535 0.017973376 0.20451172
0.12146258 0.19632794 0.08002809 0.01045565 0.17944832 0.00775983 -0.017615382 0.09157004
0.033139445 -0.0024129723 0.06426425 0.12797923 0.14637151 0.13427226 0.0018115584 0.1654756
0.03428725 0.1329274 -0.005948983 0.16434413 0.19511129 0.011743769 0.08004248 0.049464162
0.17520113 0.11388383 0.13577741 0.10453132 -0.0020060958 0.18927045 -0.051984243 0.06355427
0.15507993 0.033875436 0.123706035 0.038060725 0.12806378 0.12908104 0.13457642 0.006226198
0.12528268 0.112735026 0.021594938 0.043937564 -0.07831783 0.20107992 0.07239174 -0.072453834
0.05508681 0.00832743 0.11697794 0.09456899 0.0770006 0.010707198 0.044090178 0.038231026
0.16244997 0.12007673 0.03042681 0.060544096 0.03184148 0.08568336 0.12563412 0.069818154
-0.04699149 0.027493335 0.072944015 0.18038173 0.14043772 -0.12959091 0.122153684 0.15108858

layers.2.weight f4 [64, 128]
00000000: e60a 4b3c 303c 4a3d 0332 ad3d c4aa 193d
00000010: 764b 68bd 351f e83c 5fff 823a 84b8 9a3d
00000020: f903 523d 31e0 d4ba eb69 b13b 5657 153d
00000030: 60b3 a23d 81f2 483d 5610 8a3c 87dc 453d
00000040: a008 553d 821f 793d bd19 18bc c477 fc3c
00000050: 6f67 29bc 0616 863d 1233 1dbd 7db8 233c
00000060: 5b0c 25bd fd84 59bc faaa 063d 2ad7 4e3b
00000070: 7ff1 b8bd 1b7f 2e3c 6bbc 25bd e4f0 ac3a
00000080: 6bf5 da3c 2137 0cbc 01c5 283d d4bc a8bd
00000090: f949 3f3c f09d 8c3d fe77 d23a 03f0 913d
000000a0: 15c4 10bd 0094 db3c f3a4 98bd d180 6ebc
000000b0: 5c27 68bd 54a8 193d e393 113d a048 92bc
000000c0: 8ca7 5abd 7c47 40bd 3de7 463d db05 fabc
000000d0: 6800 b7bd b31d 7d3d 865c ecba 479c 603d
000000e0: ae28 093d 49f3 64bc fe54 9dbd 995d f0bb
000000f0: 32c6 d0bb 022e a23c ad2f b2bd 8313 16bc
00000100: 6ca4 aabd e37d 45bd f132 aabd c2ef 803d
00000110: 76c2 973d ec2e 36bd 1739 20bd ae47 383d
00000120: 8eeb 98bb c1f6 afbc 9e84 75bc 2e53 afbd
00000130: 205b 83bd 8ed7 4b3d cd70 7ebd 6ce0 423d
00000140: 9e64 1cbd fb26 78bd cc2c 34bd 0cc9 563d
00000150: 72bf b0bd 8613 0a3d d282 463c 45c1 df3c
00000160: b076 a2bd 0da5 85bd 133e 9cbc e9ec 09bd
00000170: 40f6 03bd d6f6 dd3c 3f4e 233d 3b4c 893d
00000180: 395d 3dbd b1b6 4fbd 5177 a33d 169a 39bc
00000190: ee22 0ebd 3d20 423d 96c0 8bbd ac54 083d
000001a0: b63b 1abd f625 89bb 3d03 1dbd 5604 8fbd
000001b0: 6329 65bc 91c8 703c 22a5 37bd 31b8 223c
000001c0: 1332 a0bd 0319 7dbd 3c06 0d3d 5680 873d
000001d0: 77f4 313d 2029 77bd f6af 683d 887a 73bd
000001e0: 8290 1e3d c31b 5e3c 888e bfbc 848a 9fbd
000001f0: 4b19 a1bd b933 b5bd 7bde 82bc aa91 8b3d
00000200: 08ad 743d 0283 1bbf 78f8 4abd df7b a53d
00000210: f5bc d9bb 2422 003e 18a9 35bd 227f 553e
00000220: 3094 c83d 8796 0dbd 0036 e63d 010f fbbd
00000230: 3403 113e 462c 1a3e 7609 953d ad2c 71bd
00000240: e3f7 213c 9052 003e 30a9 c83e 5fc2 3eba
00000250: 3ed8 0d3d dce3 643d 12e8 163d 0e46 18bd
00000260: 1d06 933b 1f96 fdbd 330d 1dbe 6b91 0bbc
00000270: c6c1 1abe 329c 8d3d 0286 b73c bbd3 f03c
00000280: 51a1 6b3b 2abc fb3c 2bfe 973a 928b c13d
00000290: d8bd 793d 9ce2 02bb 07fb 37bb 12b6 80bd
000002a0: 33ec f43c 4fd7 9cbd d050 8b3d 58ce c33c
000002b0: f8d2 06be a672 ac3d bfc3 58bd ca33 66bd
000002c0: 1593 493d b638 753c d866 433e 4811 663c
000002d0: f7fd 2e3d 8d51 2ebc 9cbc d23d 02be b3bd
000002e0: 9c69 acbd 1c65 4dbe 5280 98bc fafb 543c
000002f0: 18b3 9cbd 8011 10bf 5469 443d de6e 873d
00000300: a6ac ea3d 2fde f63d 0cb6 0ebb ad87 f7bc
00000310: e887 ad3d 9a44 743b d59d ac3d d4f3 6a3d
00000320: 4b0a 9a3d 59f8 fdbc daaf fbbc c38e 38bd
00000330: ae94 3ebc effe 96bd 3d86 5a3d 774b 083e
00000340: de2c ab3d 3668 e3bd cdda 7b3d 2ee6 3bbd
00000350: ef34 c83d 7c83 29bd 3d2e e83c b1a5 a1bd
00000360: fdb8 8cbb 220b 8d3d 8edc 87bb 9f87 6c3d
00000370: 0c1a ad3c 9d93 b43c 27fd cd3d da86 1c3d
00000380: 07ef 21bd b0e4 f03d e6e5 4e3d 5b0f 31bc
00000390: eb5d b73d 12c6 15ba a221 583d 4fdb a23d
000003a0: 808c 87bd b78b c63d f99e a93d 6caf 2ebe
000003b0: c7f9 89bd 8fe3 293e 9c63 eb3d 3167 273d
000003c0: 96e7 d1bc 3944 bf3d 89b2 103e 67b0 86bd
000003d0: da77 4dbd dd26 d5bc 836f 8abd a5fb 6dbc
000003e0: 617d 7b3d 9a16 8fbd 8d6f 8ebc 5f02 f9ba
000003f0: 4073 42bb eccc 8e3e f238 5b3d bb41 79bd
0.012392735 0.049373806 0.084568046 0.03751637 -0.05671259 0.028335193 0.0009994319 0.07554725
0.05127332 -0.0016241131 0.0054142377 0.036460243 0.07944369 0.049059395 0.016853493 0.048306014
0.05201018 0.060821064 -0.00928348 0.030818827 -0.010339602 0.065471694 -0.038378783 0.009992716
-0.040294986 -0.013276336 0.0328779 0.0031561353 -0.09030437 0.0106504215 -0.040462893 0.001319435
0.026728353 -0.008558066 0.041203503 -0.08239141 0.011675351 0.06866062 0.0016057489 0.07125857
-0.03534325 0.02680397 -0.074533366 -0.014557079 -0.05667816 0.037514046 0.035541426 -0.017856896
-0.05338244 -0.046943173 0.04856037 -0.03052037 -0.08935624 0.0617959 -0.0018032945 0.054836538
0.03348606 -0.013974019 -0.076822266 -0.0073353765 -0.006371283 0.019797329 -0.087005 -0.009159925
-0.08332142 -0.048215758 -0.083104976 0.0629573 0.07410137 -0.044478342 -0.039116945 0.044990234
-0.004666752 -0.021479966 -0.014985232 -0.08560787 -0.06413865 0.049766116 -0.062119294 0.047577307
-0.038181894 -0.06058405 -0.043988034 0.052437827 -0.08630265 0.033710025 0.012116151 0.027313838
-0.07932794 -0.065256216 -0.019072568 -0.0336732 -0.032217264 0.02709524 0.039869543 0.06703993
-0.046231482 -0.050711337 0.07981742 -0.011328241 -0.03470128 0.047394026 -0.06823842 0.033283874
-0.0376546 -0.0041854335 -0.038333166 -0.06983249 -0.013986918 0.014696256 -0.044835217 0.00993161
-0.07822051 -0.06179143 0.034429774 0.06616275 0.04344603 -0.060341954 0.056808434 -0.059443027
0.038712032 0.013556424 -0.023383394 -0.07790092 -0.078661524 -0.08847756 -0.015975228 0.068148926
0.059735328 -0.6074678 -0.049553365 0.08080267 -0.00664484 0.12513024 -0.044350713 0.20849279
0.097938895 -0.034567382 0.112407684 -0.12258721 0.14161378 0.15055951 0.07277195 -0.058880497
0.009885761 0.12531495 0.3919158 -0.00072768884 0.034630053 0.055881366 0.036842413 -0.037176184
0.0044868127 -0.12382149 -0.15337066 -0.008518557 -0.15112981 0.069145575 0.022402767 0.029397836
0.0035954306 0.030729372 0.0011596134 0.09450449 0.060972065 -0.0019971495 -0.0028073208 -0.06284727
0.029897785 -0.07658254 0.06802523 0.023902103 -0.13166416 0.08420305 -0.052921053 -0.056201734
0.049212534 0.014967134 0.190822 0.014042206 0.04272267 -0.01063956 0.10289881 -0.087764755
-0.08418581 -0.20058101 -0.018615875 0.012999529 -0.07651347 -0.562767 0.04795201 0.06612943
0.11458711 0.12054097 -0.002177599 -0.030216062 0.08473188 0.0037272335 0.084285416 0.05736144
0.075214945 -0.03100221 -0.030723501 -0.045058023 -0.011632128 -0.073728435 0.053350676 0.13310038
0.08358167 -0.11103861 0.06148796 -0.045873813 0.09775721 -0.04138516 0.02834236 -0.07892931
-0.0042945133 0.06886889 -0.004146165 0.057746526 0.021130584 0.022043044 0.100580506 0.038214542
-0.039534595 0.11762369 0.050512217 -0.010806884 0.0895346 -0.00057134137 0.05276645 0.07951986
-0.06618595 0.09694617 0.08282275 -0.17059106 -0.06737094 0.16590713 0.11493608 0.040869895
-0.025623124 0.09339184 0.14130606 -0.06576615 -0.050163127 -0.026019508 -0.067595504 -0.014525329
0.061398868 -0.06986733 -0.017387176 -0.0018997899 -0.0029670745 0.27890718 0.053521104 -0.0608537

layers.2.bias f4 [64]
00000000: 36bb 113d ad83 283d a64e e3bd 8f6a c63c
00000010: eee3 603d 567b 133e be2b 38bd 54e1 853e
00000020: 02cd 303d c1ed 74bc fb62 2a3d a64b f33d
00000030: 871f 993c ad4b ca3c e701 333e 8415 f03e
00000040: aad9 713c a0bc 983d c8d2 ad3c fe9b bc3d
00000050: f3b9 023e ad7e a43b a6a1 69bd 79ef ea39
00000060: 9c86 5d3d af74 b23d 254f 1e3d c969 683d
00000070: 6dd6 213e 0da6 d63d 2cc5 d6bd ad33 163e
00000080: 1dcd e4bd a25c 2b3e f2d1 2bbb 585d 113d
00000090: bfa6 513d 557f e43d ef73 1a3e 7323 7e3c
000000a0: 87a9 0fbc 8348 1cbd db4f bcbc 9bbd 203e
000000b0: ae45 253e 2291 303e 0308 c9bb 63fe c33c
000000c0: 2de5 1c3e 94a3 2dbc 2bd1 073d 87ea d03b
000000d0: a8a5 2c3e bd76 53bc 9aa7 183d 26b4 a83d
000000e0: 7e8c c2bc 9b2e 97bd 4eb9 cebb 5fed 62bc
000000f0: ee42 bf3e abcd 213e 2980 523e 5fca bdbd
0.03557893 0.0411412 -0.110989854 0.024220733 0.05490487 0.14402518 -0.04496359 0.26148474
0.04316426 -0.014949263 0.0415983 0.11879663 0.018691791 0.024694288 0.17481194 0.46891415
0.014761368 0.07457852 0.021218672 0.09209441 0.12766246 0.0050199837 -0.057038926 0.0004481038
0.05408345 0.08713662 0.038649697 0.05674151 0.15804453 0.104808904 -0.10486826 0.1466815
-0.11171935 0.16734555 -0.0026217666 0.03548941 0.051184412 0.11157099 0.15083288 0.015511381
-0.008768446 -0.03815509 -0.022987297 0.15697329 0.16139862 0.17242864 -0.0061349883 0.023925012
0.15321799 -0.010598082 0.033158462 0.006375614 0.16860068 -0.012906727 0.037269212 0.082374856
-0.023748633 -0.07381936 -0.006308711 -0.013850539 0.3735575 0.15801112 0.20556702 -0.09267115

readout.weight f4 [1, 64]
00000000: ed8d b33d fbef a63e 798e 833e 555e 3dbe
00000010: 1605 03be c0b1 5fbe bb81 3a3d 82da 623f
00000020: 95bc fabd 65e3 893d 8b8f 59be 0b58 5abe
00000030: b85f 9b3c 5ed7 853c 4722 7abe 7534 8a3f
00000040: 8ccb 283d 64e8 e73d 5cc3 4cbd 1700 4abe
00000050: 672c 54be fd22 7cba 4385 533a 6c26 d43d
00000060: 2b1d 3fbe b2e6 34be 6043 35be 80ec e93b
00000070: 87d3 74be df7d 5cbe 2284 853e 3a18 1abe
00000080: e02f 793e 6ed2 06be f227 aa3d 50d8 37be
00000090: cacc 843d adb4 27be c4d4 5fbe 0223 1dbe
000000a0: 6d66 db3d 7a63 583c b775 1c3d 3b4f 28be
000000b0: 41f5 14be d825 1cbe f629 b33d 02f1 73be
000000c0: fa7f 00be 5853 863c 01b5 39be be90 bb3e
000000d0: 9684 57be f0f9 f33c 07cd 13be af98 54be
000000e0: be9d d83c 48b1 d93e a1db 19be f153 773d
000000f0: edcf 843f a706 08be 2e7c 563f 5ccd 803e
0.087673046 0.32604966 0.25694636 -0.18493016 -0.12794909 -0.2184515 0.045533877 0.88614666
-0.122430004 0.06732825 -0.21246164 -0.21322648 0.01896654 0.016338047 -0.24427138 1.0797259
0.041209742 0.11323622 -0.049990997 -0.19726597 -0.20720063 -0.0009618251 0.0008068869 0.10358891
-0.1866347 -0.17666128 -0.17701483 0.0071387887 -0.23908816 -0.21532391 0.26077372 -0.15048304
0.24334669 -0.1316621 0.083084 -0.1795361 0.06484373 -0.16377516 -0.21858507 -0.15345386
0.107128955 0.013207311 0.0381982 -0.16436474 -0.14546682 -0.15248811 0.08748238 -0.23822406
-0.12548819 0.016397163 -0.18135454 0.36633867 -0.21046671 0.029782265 -0.1443368 -0.20761369
0.026442405 0.42518067 -0.15025188 0.060382787 1.0375954 -0.13283788 0.83783233 0.25156677

layers.0.weight f4 [128, 3]
00000000: b70a 9f3f 8fc3 073f 28c7 ce3e 5ae9 ccbe
00000010: b369 473f e376 fdbd 60d2 04be 0564 d53e
00000020: 2a49 fabe ffe7 c03e 98e7 fdbe f848 2a3f
00000030: b192 83be 047f 76bf 777b e53d 97c8 babe
00000040: 5962 46bf d95d 353e 164a 51be 9dcb aebf
00000050: 80fd c23d 4ea0 1bbe 5e55 8e3e f7d5 e83e
00000060: 7176 05bf 905a 41bf 7245 e23e b0bb a2be
00000070: 0dd7 023f 5356 c8bd 0991 313f cbd3 01bf
00000080: 6ec6 7dbe f6c2 8fbe f476 82be c1c5 b8be
00000090: 5f22 a13d a7d0 733e 5057 d0ba e323 dd3e
000000a0: 3b8f 92bf 3086 933e 574c 233f 9374 0cbf
000000b0: ec84 983e cb36 97be 30da 83bf 8dc8 603e
000000c0: 46af 11bf 6803 863f 0f76 b53e 6fd3 4cbe
000000d0: 8c7c 543e 0652 9abe 83c1 513f d561 c13c
000000e0: 862e 853e a1a4 1dbd 49f4 433d c476 8abd
000000f0: 3c6b 34bd 5b43 223f 1a01 cc3e 2ff5 09be
00000100: 0266 b43e b98b cc3e 08ac afbe 89e3 ec3d
00000110: e552 80bd 6e03 c4be b1d2 5abf 11de 3bbe
00000120: f3be 19be 0fd9 2cbe 2b56 50be 3f96 0dbf
00000130: f387 98bc e175 973e 6275 893e 300d 9cbe
00000140: 33b8 323f 9bc7 453f 9c8f 13bf c2e7 39be
00000150: c0ad 83be e794 c83d 09a6 0abc d794 5ebe
00000160: a339 c93e d54f c4be a4db 0dbf 53a7 343f
00000170: c0a7 e83e e2e3 8cbc 19e1 283f c588 08be
00000180: 3540 b4bd b197 a8be 3ca0 34be 98d7 253f
00000190: 48c0 533e e8c0 2e3f 0dac c63d dc48 29be
000001a0: a0b6 003f 7c3e 543f e49b 333f 84ae b6bd
000001b0: 005f b63e c653 673f 761c c43b 845b e5be
000001c0: 2539 01be 6a1f 7d3d 5aa8 78be fc36 1abe
000001d0: fbae ae3d 86b8 573e f311 56bf b7f5 b5be
000001e0: 809e 9b3e 7ef2 e23e def4 2bbd 6f59 07bf
000001f0: 82b1 4abf 3629 263e ef50 b93e a1f7 1e3f
00000200: c4ec 6cbe 48b5 3f3e 7180 fd3a 233f ecbe
00000210: e3dc 043e a626 00bf 43ad ac3e 71f9 d63d
00000220: d18c 86bf 4c18 f3be 563f de3a 15d2 563f
00000230: 07ce 41be 70a3 d5be 7bb9 073c 8313 bdbe
00000240: 31f0 92be c22e da3e 50c8 7d3e 641c 203d
00000250: 79bf 833f 7a7d 5f3e 1f77 cdbd 3a65 a63e
00000260: ed4f 37bd e904 babe 3669 313f ee56 2b3c
00000270: 070f 2ebf d98a f3be c9da 1d3e 21d7 483e
00000280: 772e 45bf 5a5f a9bd 8bf8 123c ef9f 5b3f
00000290: 77fe 4f3e c5a3 1b3e 576a 7e3f 8bed 663e
000002a0: 9dc6 e93e 14e1 9ebe 88a7 673e 46b8 d83e
000002b0: e330 3abe e1c0 bcbe 53ec e4be 46d7 e2be
000002c0: f9cb 173e 262a 413d 6e07 713f 1faf 9a3c
000002d0: db21 ae3e 29b3 363f 7c2a c5be d264 27bf
000002e0: 498f 263e 7a49 bb3d ff1e ccbe 3cd6 22bf
000002f0: d107 e73d 48df 72be 684f 0f3f ae47 10be
00000300: 81ac f53e 15fd 0e3f 8356 703e d58e afbd
00000310: 4ae2 6dbf dff3 b8bd 5031 633e 6b1b 093e
00000320: 8c60 f83e 7514 43bd 7d46 4b3f c5da 24be
00000330: d4fe 153f f28f 4abf 2d7f 27be 30da bd3e
00000340: f60d 1c3f 3862 dabe 3aa6 d9bd 700c ecbe
00000350: 86cc f43e 3a7a 10be a2a4 253e e134 91be
00000360: 97d2 51be e4ae 28bf 8659 fc3c 555c 8c3e
00000370: 537c 7d3d 55a0 cb3e b08f cabe 52c8 083f
00000380: 3e91 033e d5fd 2dbf bf3a 543d 5f09 87be
00000390: 10f9 273f afde 05bf deb1 a03e 8f36 b93e
000003a0: a749 1e3f 2cf7 923e 28f7 98bd 9ddc 493e
000003b0: bc0b 883d 375a e5be e746 c63e c249 483e
000003c0: f4b6 c33d 9dd3 38be 381d 02bc 6acf d63d
000003d0: c4e1 583f 8770 e23e 565f 2ebe 83c7 edbe
000003e0: 7db0 ae3d ae53 00bf 8af2 37bf 9ee3 83be
000003f0: b3c8 0c3f dd44 4b3f 2793 b63e d862 40be
1.2425145 0.53032774 0.4038632 -0.40021783 0.7789566 -0.123761915 -0.12970877 0.4167787
-0.48883945 0.37677 -0.49590755 0.6651759 -0.25697854 -0.9628756 0.1120519 -0.36481163
-0.77493817 0.17711581 -0.20438418 -1.3655888 0.095210075 -0.1519787 0.27799505 0.45475742
-0.5213385 -0.7552881 0.44193608 -0.3178382 0.5110939 -0.0978209 0.6936193 -0.50713795
-0.24782726 -0.2807843 -0.2548138 -0.36088374 0.07867884 0.23810063 -0.0015895162 0.43191442
-1.144996 0.28813314 0.6378836 -0.5486538 0.2978891 -0.2953399 -1.030096 0.21951504
-0.5690807 1.046979 0.35441634 -0.2000253 0.20750636 -0.30140704 0.819359 0.02360622
0.26012057 -0.03848708 0.04784039 -0.06760934 -0.04404758 0.63384026 0.3984459 -0.13472436
0.35234076 0.3995035 -0.34310937 0.115668364 -0.06265811 -0.38283867 -0.8547774 -0.1834643
-0.15014248 -0.16879676 -0.2034537 -0.5530738 -0.018619513 0.29582122 0.26847368 -0.3047881
0.69812316 0.772577 -0.57641006 -0.18154815 -0.25718498 0.09794026 -0.008462437 -0.21736465
0.39301786 -0.38342157 -0.5541327 0.70567816 0.45440483 -0.017198507 0.6596847 -0.13333423
-0.08801309 -0.3292823 -0.1763925 0.64782095 0.20678818 0.682631 0.09700785 -0.165317
0.50278664 0.82907844 0.70159745 -0.08920005 0.35619354 0.90362203 0.005984838 -0.44796383
-0.12619455 0.061797537 -0.24282971 -0.15060037 0.085294686 0.21066484 -0.8362114 -0.35539028
0.30394363 0.44325632 -0.04198157 -0.5287084 -0.79177105 0.16226658 0.3619456 0.620966
-0.23137194 0.18721497 0.0019340647 -0.4614192 0.12974887 -0.5005897 0.33725938 0.10496796
-1.0511724 -0.47479475 0.0016956131 0.8391431 -0.1892625 -0.41726255 0.008283968 -0.3692895
-0.28698877 0.42613798 0.24783444 0.039089575 1.0292808 0.2182521 -0.10032486 0.32499105
-0.044753958 -0.3633187 0.69301164 0.010457737 -0.6799168 -0.4756687 0.15415491 0.19613315
-0.77024025 -0.0827014 0.00897039 0.85790914 0.20311914 0.15199192 0.9938101 0.22551553
0.45659342 -0.31031096 0.22622502 0.4232809 -0.18182711 -0.36865905 -0.4471155 -0.44304866
0.14823903 0.047159337 0.9415196 0.018882332 0.34010205 0.71367127 -0.38508976 -0.65388215
0.16265596 0.09144874 -0.39867398 -0.63608146 0.11280788 -0.23717988 0.5598054 -0.14089844
0.47983173 0.5585492 0.23470502 -0.08572165 -0.92923415 -0.0903089 0.2218678 0.13389365
0.4851116 -0.04762693 0.7940443 -0.16099079 0.5859196 -0.79125893 -0.16357107 0.37080526
0.609588 -0.4265306 -0.10627408 -0.4610324 0.4781229 -0.14109126 0.16176084 -0.28360656
-0.2049049 -0.6589186 0.030804407 0.27414194 0.061886143 0.3977076 -0.3956275 0.53430665
0.12848374 -0.6796544 0.051813837 -0.26374337 0.65614414 -0.52292913 0.31385702 0.36174437
0.61831135 0.28704202 -0.07469016 0.19713064 0.06642863 -0.4479539 0.3872597 0.19559386
0.0955638 -0.18049474 -0.007941537 0.1048878 0.8471949 0.44226477 -0.17028555 -0.46441278
0.08529756 -0.50127685 -0.7185446 -0.25759596 0.5499374 0.7940195 0.35659143 -0.18787706

layers.0.bias f4 [128]
00000000: 8675 8abf 3000 dcbe 996c f4be b6ff 8ebc
00000010: 9e34 06be 2235 99be b4f1 19bf c32c 18be
00000020: e1e4 fcbe 1ab3 9fbe 1725 41be 67f4 f6bd
00000030: 5340 85be 78c2 063f b71c aa3e 66e9 48be
00000040: ee83 d3be 4625 823e c99e 1d3e d693 763d
00000050: 3a1b c3be 0e6a c5be 9052 52be 0a94 09bf
00000060: f576 193e 9123 c3be 51de 1fbe e6e4 8c3e
00000070: 708c afbe c67f 8dbe 9bce 1cbf 07c0 44bc
00000080: 2596 c1bb f0a6 4cbf 3fea 503e c47c b03e
00000090: ea61 193e c516 f73d 407f 653e d75f ea3d
000000a0: 9fa4 dcbd 4751 bcbe dcb8 883e 04ae 0b3d
000000b0: 2a69 00be 20ae 983d 9a4b 263d 4d4b 8f3e
000000c0: a086 a93e f1c4 843e 6cf8 dabe 1c26 8abe
000000d0: f992 963d 67a9 9cbe 3f61 07bf 564b ff3d
000000e0: 34a1 e9be 9504 923e 5fc8 82be 7b71 04bf
000000f0: cce8 febd 2e32 34be c228 833d b26b 9cbe
00000100: 2bee afbd 4f43 26be 6125 20bd 10c1 20bd
00000110: d1ce d03d 257a a03d f0bf b9be f239 a5bd
00000120: 5327 0a3e 9654 813d e548 63be c2d6 f1be
00000130: 1773 393e 57ca 6abf e5cc 8b3e 6b35 033e
00000140: e172 7b3e 5fba c3be e387 d0bd 1e9a 4a3c
00000150: ef6d 973b 937e a8be 1c99 663e 83ec 81bc
00000160: fd25 a2be 4a6e aebc f58f 91be b8c3 b83d
00000170: 383e a43e 90b0 70be 1b03 cd3e 1c21 75be
00000180: 568d a6be d806 3a3e 1859 83bf 7b3f a6bd
00000190: 94e3 b1be 83a4 b4be e260 b33d 3113 d53c
000001a0: add5 9fbe 90bb 73be 9eb2 67bc fbb6 ebbd
000001b0: 2f72 a8be 0d30 1abe de11 e03e cde3 2dbf
000001c0: 3476 cd3d 40fe 49be 99ad 703c 1c98 07bf
000001d0: bfe2 2f3d 123f f23e 559f 4cbf 192e 54be
000001e0: 418a 06bf c364 ddbe 181f b73d 225a 333e
000001f0: 7065 203d 7edf 853d cd0a e8bd b047 c83d
-1.0817115 -0.42968893 -0.47739103 -0.017455917 -0.1310601 -0.2992335 -0.60134435 -0.14860825
-0.4939337 -0.3119133 -0.18861805 -0.12058335 -0.26025638 0.52640486 0.33225033 -0.19620284
-0.41311592 0.25419062 0.15392603 0.06019958 -0.3810671 -0.38557476 -0.20539308 -0.53741515
0.14986785 -0.38113073 -0.1561215 0.27518386 -0.34286833 -0.27636546 -0.61252755 -0.0120086735
-0.005907791 -0.79942226 0.20401858 0.3447019 0.14978758 0.1206489 0.22411823 0.11444061
-0.107735865 -0.3678076 0.26703537 0.0341015 -0.12540117 0.07455087 0.040599443 0.27987137
0.33110523 0.25931504 -0.42767656 -0.269822 0.073522516 -0.30597994 -0.5288276 0.12465541
-0.456308 0.2851912 -0.25543496 -0.5173566 -0.12446746 -0.17597267 0.06404258 -0.30550915
-0.08590349 -0.16236614 -0.039098147 -0.03924662 0.10195697 0.07835797 -0.3627925 -0.08067693
0.13491563 0.063149616 -0.22195776 -0.4723416 0.1811031 -0.91714996 0.2730476 0.12813346
0.24555542 -0.38228127 -0.10182168 0.012365846 0.0046212594 -0.32909068 0.22519344 -0.015859848
-0.31669608 -0.021292824 -0.28430143 0.090217054 0.3207872 -0.23504853 0.40041432 -0.23938411
-0.32529706 0.18166673 -1.0261564 -0.08117577 -0.3474394 -0.35281762 0.08758713 0.026010128
-0.3121771 -0.23802018 -0.014141707 -0.1150951 -0.32899615 -0.15057392 0.43763632 -0.6792572
0.10032311 -0.19725895 0.014689826 -0.52966475 0.04294085 0.47313744 -0.7993062 -0.2072071
-0.5255471 -0.43240938 0.089414775 0.17514852 0.03915924 0.065367684 -0.11330185 0.09779298

layers.1.weight f4 [128, 128]
00000000: 354e 00be 16be 8b3c 6822 38bd f871 c1bd
00000010: 970b a5bd 1733 84be 727c adbd 418b 2c3c
00000020: d4a8 3bbe 0fc5 163b 72d1 16bc 9b10 253d
00000030: b1bf 75bd 52b2 92bd eb52 11be bed6 a6bd
00000040: a5aa 0abc 0416 19bc 85a3 79be dba2 caba
00000050: ef79 b5bd 6cf7 09bd 4c08 86bb 1902 203c
00000060: 63b7 e3bd 7205 4d3d 9a4c 29be 002e 34be
00000070: 6af5 22bd 7ad0 363d 9533 72bc 8d0c 063c
00000080: 453f aa3c 2dda 4ebe c73e 68bd eb5b 82be
00000090: a78a 1bbe 62ca 203d 3c34 2cbc 4ad4 83bb
000000a0: 0c3e eabc 3db2 57bb b8e5 0fbe 304e de3b
000000b0: 01b9 12be ce8f faba 98cb 7dbd 94cf 06bd
000000c0: 1ed7 e8bc d5ab a7bb 2ae9 ecbc 1d26 c3be
000000d0: fe49 6c3d c4b0 39bd ebcc 29be 6351 82be
000000e0: 69d4 a0bd 9d4f fcbd f75b 4f3c c9de cebd
000000f0: cb5f 98bb 6707 183e efca 6dbd 7cb5 0ebe
00000100: adf2 293d beeb aabd 2dbb d0bd f5c5 2bbd
00000110: c3a4 c7bd c854 1e3d 9c0c 84be 2797 5c3c
00000120: 4a31 8dba 93c3 35be c793 afbe d456 26bd
00000130: f407 d5bc 96bf e7bd 233d 0abc 5cad b93c
00000140: b04a 9dbd f95d 633d b801 583d a52b fabc
00000150: 6091 5abd e84b 84bd a5e8 55bd ea0f 47be
00000160: 4a42 38bd e9d0 adbd ad35 fb3c aafc 89bd
00000170: eeed f2bd 2fc2 37bd 081a b6bd 7e13 533d
00000180: a791 e3bc e2be 87be cf3c 22bc a6b3 e8bd
00000190: 48ef d03d 7f6a 083d 421f a6bd 590a f7b9
000001a0: 8f36 cf3c 32fb ba3d 4a2a 813c 23cb 2bbe
000001b0: 686a 13be 35a9 09be 26f2 58be db66 bdbd
000001c0: 96fb c9bc 923b f2bd 68fd 3c3d 4502 dcbd
000001d0: f436 0abd 0776 dcbd b64f a33b da1a bf3c
000001e0: 08bc 9bbd 665f 7cb7 4ad6 1ebc 09d6 93bd
000001f0: a9a1 46bd 2f7c 52be 7186 06be 92b1 9bbb
00000200: 7032 2e3e efaa 843d b345 58bd b193 a63d
00000210: 0985 8fbd 1369 15be 16f4 37bd d219 1dbd
00000220: bb7e c3bd 4f1b b6bc 2ccb 5abd a14d 2c3d
00000230: a529 36bd bc6a 9f3c 231f 5b3d e928 ebbd
00000240: cb6e 383e 9875 b2bd eb34 e93d 78bf 9fbd
00000250: b8d2 46bd dffb b43c 7ae4 b13d a36a 123d
00000260: 5acf e4bd 2a8e a03d d2e2 bcbd c5f8 63be
00000270: eb74 f93d 8551 1d3d 52ca a93d 4854 e6bc
00000280: 2fdf 55bd 6d3c ccbd 19bf 8abb 59f9 173d
00000290: f584 cabd dc9b 28bd ea35 05be 70eb 633d
000002a0: 8872 bdba 8ad6 2fbe 0620 07be a6e4 1f3d
000002b0: 6ed1 61bd 7003 03bd 098f e53d 7695 b9bc
000002c0: b0c5 be3c b4e6 17be b7d0 f2bc 9d23 90bd
000002d0: 0da1 8bbd 0b9d fbbc 297d cf3c 3086 573d
000002e0: 0c4a 883e c5f1 843d 2b1e 963c e20c 6abd
000002f0: 6a24 21bd 9dbd 243e 1e8b 983d dcf7 f53d
00000300: 96b7 67bd 07f2 b13b b6ad 03be 3266 553d
00000310: c205 7dbc 5132 5e3d 07f8 263c 07ff 61bd
00000320: 5c35 8dbd 7503 adbd 0e20 7cbe 3e31 8b3c
00000330: 456b 833d 40cf 25be ab21 c5bc d458 7a3d
00000340: a151 d8bc 758e 243c 9673 273c b36c 4cbd
00000350: b251 9f3d 2200 893a 350f 83bd 28ba 8d3d
00000360: fe50 3fbd ff17 fb3d 24e5 833d e6c6 32be
00000370: 6dd5 ec3d e363 5dbd 510d abbd 2958 24bd
00000380: 1708 5e3d 5502 8cbd d1c0 093f 64a1 e93d
00000390: 4032 66be b38a da3d d68c 98be c6bc 05bd
000003a0: e872 4abe 968e 453d 1a31 25bc e96c 91bd
000003b0: ff15 b9bd 9e94 f83d 174e 5dbd a8ec 0cbd
000003c0: 71d1 30bd 57e7 a2be 41da f83c 6bfb e83d
000003d0: 4bf9 f5bd f763 1b3d ccab 243f 0a4a f23d
000003e0: 8341 693d 7250 d03c 70ba e6bd 7095 bebb
000003f0: 7045 a73d 7e2d 1a3e 9b3c aebd 4b36 baba
-0.12529834 0.017058413 -0.044954687 -0.09445566 -0.08058851 -0.25820228 -0.08471002 0.010531248
-0.18326122 0.002300564 -0.009205209 0.04029904 -0.059997264 -0.07162918 -0.14191787 -0.081464276
-0.008463536 -0.009343628 -0.24378784 -0.0015459912 -0.088611476 -0.033683226 -0.0040903445 0.009766125
-0.111189626 0.05005402 -0.16533127 -0.17595673 -0.039784826 0.044632412 -0.014782806 0.008181703
0.020782122 -0.20200415 -0.056700494 -0.25460753 -0.1518961 0.039255507 -0.0105105005 -0.0040231096
-0.02859404 -0.0032912635 -0.14052474 0.006784223 -0.14328386 -0.0019116343 -0.06196174 -0.032912806
-0.028422888 -0.0051169195 -0.028919775 -0.38115016 0.057687752 -0.045334592 -0.16582076 -0.25452718
-0.07853014 -0.123198725 0.0126562035 -0.10101087 -0.0046500913 0.14846574 -0.05805486 -0.13936418
0.0414912 -0.083457455 -0.10191951 -0.041936833 -0.09748223 0.038655072 -0.2579087 0.013463772
-0.0010772136 -0.17750387 -0.34292433 -0.04061015 -0.026004769 -0.11315839 -0.008437428 0.022665672
-0.07680261 0.05550954 0.052736014 -0.03053839 -0.053361297 -0.064597905 -0.05222382 -0.19439664
-0.044985093 -0.08487112 0.030665243 -0.06737645 -0.11861788 -0.044862922 -0.08891684 0.05153226
-0.027779413 -0.2651282 -0.009902193 -0.1136239 0.10201889 0.033304688 -0.08111431 -0.0004711922
0.02529457 0.09129943 0.015767235 -0.1677671 -0.1439606 -0.13443454 -0.21186122 -0.09248134
-0.024656098 -0.118277684 0.046140105 -0.107426204 -0.033743814 -0.107646994 0.0049838675 0.023328234
-0.076042235 -1.5042582e-05 -0.009694645 -0.07218558 -0.048494015 -0.20555185 -0.13137223 -0.0047513926
0.17011428 0.064779155 -0.052800845 0.08133639 -0.07007796 -0.14590864 -0.044910513 -0.038354702
-0.09545656 -0.022229819 -0.053416416 0.04206622 -0.04447331 0.019460075 0.05349649 -0.11482412
0.18011014 -0.087138355 0.113870464 -0.07800192 -0.0485408 0.022092758 0.086861566 0.035746228
-0.11172362 0.07839616 -0.0922295 -0.22262867 0.121805035 0.03840782 0.08290543 -0.02811636
-0.052214798 -0.09972463 -0.0042342064 0.03710303 -0.09888641 -0.041164264 -0.13008848 0.055644453
-0.0014453689 -0.17171684 -0.1319581 0.039036416 -0.05513137 -0.0319857 0.112089224 -0.022654276
0.023287624 -0.148341 -0.029640539 -0.07038043 -0.068178274 -0.030714532 0.025328236 0.052618206
0.26618993 0.064914264 0.018324932 -0.057141192 -0.039341368 0.16087957 0.074484095 0.12010166
-0.056571566 0.0054304632 -0.12859234 0.052099414 -0.015443267 0.054247204 0.01019097 -0.055174854
-0.06894943 -0.08447925 -0.24621603 0.016991254 0.064169444 -0.16192341 -0.024063906 0.06111987
-0.026406111 0.01004373 0.010220429 -0.04990835 0.07779254 0.001045231 -0.06399385 0.06920272
-0.0467081 0.12260436 0.064401895 -0.17458686 0.11564145 -0.054050338 -0.08352149 -0.04012314
0.054206934 -0.06836382 0.5380984 0.11407736 -0.22480106 0.10670986 -0.2979495 -0.03265073
-0.19770396 0.048231684 -0.0100825075 -0.07100851 -0.090373985 0.121377215 -0.05402955 -0.03440538
-0.04316849 -0.31817123 0.03037751 0.11376079 -0.120104395 0.03793713 0.6432464 0.11830528
0.056947242 0.025428984 -0.11266029 -0.005816154 0.08167541 0.15056416 -0.08507653 -0.0014206854

layers.1.bias f4 [128]
00000000: e0ca 10bd d4ec 793a e0e0 c9bd 1cab ecbd
00000010: e43b 4bbc 8d12 3cbe cfa7 8b3d 5c1b b2bc
00000020: c197 db3c 0c3e 783b e54d 9c3c e8fa 9ebd
00000030: 96b3 3cbd add9 bcbd 6370 20bd 963d 27bb
00000040: 1aab 7cbd e750 0ebd 21dd 20be f900 3a3d
00000050: 08bf 0c3d 7bcc 6bbd d0f7 ae3d ab18 073d
00000060: 617c 19bd adae c1bb 4f1b 8d3d f688 473d
00000070: 8fe8 4e3c 9a89 983d 158a 693d 41d8 203d
00000080: 5d48 ae3c b237 4ebb 01c6 203e 8a45 6fbc
00000090: 9663 c3bd b5bc f73d 6510 683d 752b 1fbe
000000a0: 76bd 863c b577 d6bc a6d5 bdbc 77d7 9abb
000000b0: 0a30 c03c 9163 70bb d839 d73c 2a21 393c
000000c0: 6d3f 7c3c 2083 953c fbb3 803d a516 8c3d
000000d0: be9c 72ba d501 8abd 90af 81bd 0bb3 0cbc
000000e0: 0a4c ac3d a0b1 8bbc ffdd 783d 41fa 3abd
000000f0: 67f2 a3bd a204 92bd 6081 babd 8868 a9bc
00000100: 3030 23bd 9e3e 3ebd b2da d8bd 7ec8 afbd
00000110: 3ad5 bbbd 82a7 723b 8b4f ea3b f7b3 863d
00000120: f378 87bd 5c80 7bbd 7fbb a93d 02e9 263e
00000130: 75e5 bb3c 1cb6 90bd 64aa bdbc d3c1 a4bd
00000140: 79b3 cd3c 87ce b6bc c54c a5bd d1ce 973d
00000150: 4caf 093d 7fd0 fbbc bd5e 7f3d 3dcb fd3a
00000160: d972 dabd 087c 86bd cd57 d23d dc1b 133d
00000170: 6d88 87bd c8c7 fcbc 25e1 c9bd 5fe0 d6bd
00000180: f997 1fbc 62d9 d53c 10af 11bd 08ff 933b
00000190: 9e36 203d 5b26 51bd 57c3 28bd 8db3 b73c
000001a0: 5cc3 5d3c 937c f4bd dd92 7fbd 6324 d8bc
000001b0: ec60 603d 0dec c0bd f618 b2bc b45f acbc
000001c0: 264d 05bf 3bc6 1a3c 9d58 cebd 4ea3 363d
000001d0: d7f7 fbbd dd36 5e3d c4fc f9bc c8e8 f9bd
000001e0: 4da2 573b 9700 00be db0d b93b 0eb4 563d
000001f0: 5746 6d3c 1a7e 8ebd d475 e2bc 851f e1be
-0.035349727 0.00095338863 -0.098573446 -0.11556074 -0.012404416 -0.18366452 0.06819116 -0.021741562
0.02680576 0.003787878 0.019080112 -0.077627 -0.046069704 -0.09221206 -0.03916968 -0.0025518886
-0.061686613 -0.034745123 -0.15709354 0.045411084 0.03436187 -0.057568055 0.0854336 0.03298251
-0.037472133 -0.0059107156 0.06889974 0.0487146 0.0126286885 0.074481204 0.05701645 0.039268736
0.02127474 -0.0031466302 0.15700532 -0.014603982 -0.09540479 0.1209654 0.05665626 -0.15543921
0.016447764 -0.026180128 -0.023173165 -0.0047253924 0.023460407 -0.003668044 0.0262727 0.011299411
0.015395981 0.018251002 0.062843286 0.068402566 -0.0009254924 -0.06738631 -0.06332314 -0.008587609
0.08412941 -0.017052472 0.060758587 -0.045648817 -0.08005219 -0.0712979 -0.091067076 -0.020679727
-0.039840877 -0.046446435 -0.10588588 -0.08583163 -0.09171529 0.0037026112 0.0071505955 0.06577294
-0.06614866 -0.06140171 0.08287715 0.16299823 0.022936562 -0.070659846 -0.023152538 -0.080447815
0.025109993 -0.022315277 -0.08071283 0.07412494 0.03361444 -0.030739067 0.06234621 0.0019362938
-0.10666437 -0.06566626 0.10270653 0.03591524 -0.06617818 -0.030856982 -0.09857396 -0.10492014
-0.009740823 0.026104633 -0.035567343 0.004516486 0.039114587 -0.05106197 -0.041201916 0.022424484
0.013535347 -0.11937823 -0.06239592 -0.026384538 0.054779932 -0.09420023 -0.021740418 -0.021041729
-0.52070844 0.009446676 -0.100754954 0.044589333 -0.12303131 0.05425154 -0.030516036 -0.122026026
0.0032903135 -0.12500225 0.0056474037 0.052417807 0.014482102 -0.06957646 -0.027644075 -0.4396936

readout.weight f4 [1, 128]
00000000: fb9f 07bd dca3 723c 815b 3bbd 94d7 753e
00000010: d4ea 843c 7a35 c73d 81ae 963d 078a 723c
00000020: 621a 28bd bb1c 02bd beb1 6abd c7c7 a53d
00000030: d17f 12bd 1733 c83d 2917 35bd 8570 963e
00000040: 8db4 6cbc d85f 72bd 20eb a5bd 334e 09bc
00000050: 950a babd 389e e8bd 1aa7 bfbe 31c4 d7bd
00000060: d416 0ebc 3987 323d 0275 03bd a779 0b3d
00000070: 9b2c c7bc f2a0 4fbe 983c 3abe d79d 863e
00000080: 755b 19be 4e3f 02bd f597 b9be 30f5 903c
00000090: cf35 a9bb c9bb 113e 4c37 93be 594e 53bd
000000a0: 999f 943f 7f58 ed3b 2f21 753d e015 91bc
000000b0: ad02 61be 3ba2 4c3d 556a 143d bcea 783d
000000c0: 0aed b6ba fe3a 24bd f550 483e 0a1f c9bd
000000d0: ee6b 73bc 8e64 85bd 8320 653c b851 04be
000000e0: c11f 3ebe 55bb ae3b 03d0 083e d5ac 2dbe
000000f0: 6a17 8ebd b9f1 c7bb 4ba3 5f3d 70c2 793c
00000100: ad81 efbc 52a1 88bd 1f00 14be 9133 64bb
00000110: 5e39 373d b962 d3bd 3eac 5f3d 2473 aabd
00000120: 4824 4dbc 8bc5 163d 36c6 a0be ad41 cd3e
00000130: 50fa 553e 78ee 61be 5d30 31bd 5d7b 24be
00000140: d905 403d 311a d4bc 6b82 8f3c 1194 983e
00000150: 0814 4e3b 401e 57bc 1382 f83d 824c a3bd
00000160: 790e 7b3d df77 4fbe 480a 883e 8737 3b3d
00000170: f639 133c 735c 80be d19f ee3a 5aec 053d
00000180: 2e85 4f3e f335 003d 76eb 6e3e 13d9 4abe
00000190: a683 ee3a 7e4a 693d 7e5c 283b e550 413c
000001a0: a1d5 aebe c8c8 103d 8431 91bc e954 ab3e
000001b0: aef8 04bc abdd 30bd 7957 bd3d 3442 78bd
000001c0: 7f98 253f abfa 05bd 3987 15bc 74e6 67bd
000001d0: 048f e43c ed69 3ebd baa6 f23d cf32 87be
000001e0: ae23 0bbd 4758 c03e d65f f3bd d854 e2bd
000001f0: ead1 993b 1c38 bf3b aaff 0f3d e37d 263f
-0.033111554 0.014809575 -0.04574156 0.24008018 0.016225256 0.09726997 0.07357503 0.014803416
-0.041040786 -0.03176568 -0.057298414 0.08094745 -0.035766426 0.097753696 -0.04421154 0.2938272
-0.014447344 -0.059173435 -0.08101487 -0.008380461 -0.090840496 -0.11358303 -0.37432176 -0.105354674
-0.008672435 0.04358599 -0.03209401 0.034051564 -0.024313262 -0.2027624 -0.18187177 0.26292297
-0.14976294 -0.031798653 -0.36248747 0.01769504 -0.005163885 0.1423179 -0.28753126 -0.05158839
1.1611205 0.0072432156 0.0598461 -0.017710626 -0.21973677 0.049959403 0.03623422 0.060770735
-0.0013956141 -0.04009532 0.19562133 -0.09820373 -0.014857275 -0.0651332 0.013984802 -0.12921798
-0.185668 0.0053323903 0.133606 -0.16960461 -0.0693806 -0.0061018136 0.054599088 0.015244111
-0.029236639 -0.066713944 -0.14453171 -0.0034820775 0.044732444 -0.10321564 0.054607622 -0.083227426
-0.012520857 0.036809485 -0.31401223 0.4008917 0.20896268 -0.22063625 -0.043259013 -0.16062684
0.046880577 -0.025891395 0.017518243 0.29800466 0.0031445045 -0.013129771 0.12134185 -0.07973577
0.0612931 -0.20260571 0.26570344 0.045707252 0.008985987 -0.25070533 0.0018205588 0.032696106
0.20265648 0.03130145 0.23332009 -0.1980937 0.0018197193 0.056955807 0.0025689895 0.011799072
-0.3414736 0.03534773 -0.017723806 0.3346322 -0.0081159305 -0.04318015 0.092452 -0.06061001
0.64685816 -0.03270976 -0.009126478 -0.05661626 0.027900226 -0.046487737 0.11848207 -0.2640595
-0.033969574 0.3756735 -0.11883514 -0.11051339 0.004694213 0.005835546 0.03515593 0.6503584
