HW9/9_gym-DDPG/results/DDPG_Pendulum-v1_1500-eps0.1-t32-l0.0005-s1-u100.pth (torch, 176270 bytes, 12 tensors)

layers.0.weight f4 [128, 4]
0	0x3f04d2e8	0.5188432
1	0xbf152408	-0.58258104
2	0xbe49e382	-0.19715694
3	0x3d9bfe49	0.076168604
4	0xbf0bb70e	-0.54576194
5	0x3e30cdf7	0.1726607
6	0xbdb7f40a	-0.08982094
7	0x3e760699	0.24025954
8	0xbd2ed0ca	-0.042679586
9	0xbd8dd03c	-0.06924483
10	0x3d85bfa4	0.06530693
11	0xbc835e19	-0.01603608
12	0x3f2ce0c2	0.67530453
13	0xbeef0015	-0.4667975
14	0xbd7da200	-0.061922073
15	0xbdd28504	-0.10279277
16	0xbcda0d84	-0.026617773
17	0x3e3ce30b	0.18445985
18	0x3f031630	0.5120573
19	0x3ce98a39	0.028508293
20	0xbe81a323	-0.25319776
21	0xbf2a5c22	-0.66546834
22	0xbd7f628a	-0.062349834
23	0xbe5ca5b2	-0.21547583
24	0xbe5c4217	-0.21509586
25	0x3e7b2564	0.24525982
26	0x3eb00acf	0.34383246
27	0x3e3ec9eb	0.18631713
28	0xbf0c2d38	-0.547565
29	0x3f28a210	0.6587229
30	0x3e26b99a	0.16281739
31	0x3ea2ec1a	0.31820756
32	0x3ec170fb	0.3778151
33	0xbf2d901f	-0.67798036
34	0xbf0c98da	-0.5492073
35	0xbec1d775	-0.37859693
36	0x3f165081	0.5871659
37	0x3d67ffea	0.056640543
38	0x3e856369	0.26052406
39	0xbebed9b9	-0.37275484
40	0x3ef31a25	0.47480884
41	0xbdd5ae4a	-0.104336336
42	0x3ed3cc2b	0.41366705
43	0xbc192c5a	-0.009348953
44	0xbed73060	-0.42029095
45	0x3e57d983	0.21079068
46	0xbe7be70a	-0.24599853
47	0x3dfdd2cf	0.12393724
48	0xbe479e1d	-0.19493909
49	0xbebb1cb5	-0.3654534
50	0xbf017c53	-0.5058033
51	0xbe727d33	-0.23680572
52	0x3eba57c7	0.36395094
53	0x3d1c9ad5	0.038233597
54	0x3f07f801	0.531128
55	0x3edbe330	0.42946768
56	0xbdd806aa	-0.10548146
57	0xbeba5491	-0.36392644
58	0x3eb52458	0.3537929
59	0x3dd910be	0.105988964
60	0xbeac8f9f	-0.33703324
61	0x3f26f1f5	0.6521295
62	0x3e8db47a	0.27676755
63	0x3eb1442a	0.34622318
64	0xbea8ea7c	-0.32991397
65	0xbf0a088a	-0.5391928
66	0x3c77553b	0.015096004
67	0x3d90b9fe	0.07066725
68	0xbefaba47	-0.48970243
69	0xbec68f30	-0.38781118
70	0x3eb7c075	0.3588902
71	0xbddab80d	-0.10679636
72	0x3ed8dca8	0.42355847
73	0x3e249e29	0.16075958
74	0x3e600ebe	0.21880624
75	0x3dc6ed0f	0.09713184
76	0xbdc278fc	-0.09495732
77	0x3ed831e8	0.42225575
78	0xbef2ef4d	-0.47448197
79	0x3e32c1b8	0.1745671
80	0xbed300a4	-0.41211426
81	0xbeb049f6	-0.34431428
82	0x3dfadfa8	0.1224969
83	0xbde1d8b5	-0.11027662
84	0x3f121ed5	0.57078296
85	0xbf555189	-0.8332754
86	0xbede22b8	-0.43385863
87	0x3e9b9282	0.30385214
88	0xbe09bf01	-0.13451768
89	0x3f31695b	0.69301385
90	0x3e08da27	0.13364469
91	0xbea98be0	-0.3311453
92	0x3d4693e4	0.048480883
93	0x3e056556	0.13026938
94	0xbeb70a55	-0.3575007
95	0xbe6fbf70	-0.23412871
96	0x3da89cf3	0.08233061
97	0xbc2cd8d2	-0.010549741
98	0xbe2806b9	-0.16408814
99	0xbe146025	-0.14489801
100	0x3e9bd0a8	0.3043263
101	0x3d973546	0.07383208
102	0x3ec2c3d7	0.3804004
103	0x3cf53fce	0.029937651
104	0xbf017d4e	-0.50581825
105	0xbf12083f	-0.5704383
106	0x3f05332a	0.52031195
107	0x3dd19ac6	0.10234599
108	0x3e7eda6c	0.24888009
109	0x3e8514e1	0.25992492
110	0x3e10f078	0.14154232
111	0x3e782975	0.24234565
112	0x3eaf7e3d	0.34276
113	0xbeee4191	-0.46534398
114	0x3e3b5099	0.18292464
115	0xbc4d3dfb	-0.012526984
116	0x3eb4f56d	0.35343495
117	0x3e9909b9	0.2989023
118	0xbed65f41	-0.41869548
119	0xbec17ddf	-0.37791345
120	0xbead4ed9	-0.33849218
121	0x3e844d84	0.2584039
122	0x3f05d212	0.52273667
123	0xbeb3d46b	-0.35123
124	0x3e999914	0.29999602
125	0xbebeb44d	-0.37246934
126	0xbefd6db5	-0.49497762
127	0xbe3ca8bb	-0.1842374
128	0x3e0fa830	0.14029002
129	0x3ee4dc0f	0.4469914
130	0xbec9eced	-0.39438573
131	0x3e1e7948	0.15475953
132	0x3f2dcb9e	0.6788882
133	0x3f48f784	0.7850268
134	0x3ea2cf77	0.31798908
135	0x3e99d142	0.30042464
136	0x3e95fba2	0.29293543
137	0x3e516122	0.2044721
138	0xbeaf9df3	-0.34300193
139	0xbee637bd	-0.449644
140	0xbeaa3a02	-0.3324738
141	0xbe98ce3c	-0.29844844
142	0xbe7e29c1	-0.24820615
143	0x3e1cdf57	0.15319572
144	0xbca5853a	-0.020205129
145	0xbd20d7fc	-0.03926848
146	0x3e92709f	0.28601548
147	0x3ce44186	0.027863275
148	0x3e7df0a2	0.24798825
149	0x3f2b741d	0.6697405
150	0xbe1224ec	-0.14271897
151	0x3f04e28b	0.5190818
152	0xbe236930	-0.15958095
153	0xbe79b715	-0.24386247
154	0xbecb1032	-0.39660794
155	0xbea9b203	-0.33143625
156	0xbea35625	-0.3190166
157	0xbda96e22	-0.08272959
158	0x3f02f99a	0.5116211
159	0xbe3946ee	-0.18093464
160	0xbee2396d	-0.44184437
161	0x3e932a2f	0.2874312
162	0x3dd0b242	0.1019025
163	0x3e7c2d7d	0.24626727
164	0xbe79db9d	-0.24400182
165	0xbecf2344	-0.40456593
166	0xbeb42491	-0.35184148
167	0xbbeb4381	-0.007179678
168	0xbec020a3	-0.375249
169	0xbf1cf46d	-0.61310464
170	0xbe5c6b6b	-0.21525352
171	0x3e2484fb	0.16066353
172	0x3e9fa5ed	0.3118128
173	0x3e589a06	0.21152505
174	0x3ecc6747	0.39922544
175	0x3f31818c	0.693383
176	0x3ece5234	0.4029709
177	0x3e0d0673	0.13771991
178	0xbeb4d674	-0.35319865
179	0x3ee23de5	0.44187847
180	0xbe0820ec	-0.13293809
181	0x3ba9e41c	0.0051846635
182	0xbeef82f2	-0.4677959
183	0x3c9286eb	0.0178866
184	0xbeff3148	-0.49842286
185	0x3e4e4495	0.2014335
186	0xbf08ed1e	-0.5348681
187	0xbe49265a	-0.19643536
188	0xbd6ce9d8	-0.0578402
189	0xbde57447	-0.11203819
190	0x3e6a5a52	0.22886017
191	0xbe40720e	-0.18793508
192	0xbe45bfce	-0.19311449
193	0x3eac9e8e	0.33714718
194	0x3ed2d36e	0.41176933
195	0xbeaf7bfd	-0.34274283
196	0x3e968001	0.29394534
197	0x3f3dce5a	0.7414299
198	0x3ef4fbd7	0.4784839
199	0xbebd71ee	-0.37000984
200	0x3de4658f	0.11152183
201	0xbeb3cb2e	-0.3511595
202	0x3ef605fa	0.48051435
203	0xbe54e5c3	-0.20790772
204	0x3f3e5321	0.74345595
205	0x3aa44e3f	0.0012535526
206	0xbe488326	-0.19581279
207	0xbd7f2f4a	-0.062300958
208	0xbd695eb1	-0.05697507
209	0x3eea1999	0.45722654
210	0x3d1d1a71	0.038355295
211	0x3dbead70	0.09310424
212	0xbefcb9e0	-0.4936056
213	0x3f1732ca	0.5906187
214	0x3ed9d638	0.42546248
215	0x3eaf85a1	0.34281638
216	0x3f5d2f05	0.8639987
217	0xbf24f9ff	-0.64443964
218	0xbe78f0f0	-0.2431066
219	0x3eba025f	0.36329934
220	0xbf0947fc	-0.53625464
221	0x3ee9cec9	0.45665577
222	0xbed6e4cd	-0.41971436
223	0xbeacf8a3	-0.33783445
224	0x3e6aa0c5	0.22912891
225	0xbf3c4941	-0.73549277
226	0xbdcedc1f	-0.101005785
227	0x3d75f226	0.060045384
228	0x3ec4d344	0.38442433
229	0x3f18da58	0.59708166
230	0xbe6deede	-0.23235652
231	0xbec8bfc5	-0.3920881
232	0x3f480d67	0.7814545
233	0xbdfd112a	-0.123567894
234	0xbe9678d7	-0.29389068
235	0x3daa45c7	0.0831409
236	0xbecfc567	-0.40580294
237	0x3ecda569	0.4016526
238	0x3ea4b347	0.32168028
239	0xbed47abd	-0.41499892
240	0xbee219ef	-0.4416041
241	0x3e2a8a79	0.16654386
242	0x3eac6e03	0.33677682
243	0xbd14de99	-0.0363451
244	0xbe893eb2	-0.26805645
245	0xbec63e70	-0.3871951
246	0xbf015eac	-0.5053508
247	0xbea748d0	-0.3267274
248	0xbeb8d844	-0.36102498
249	0x3f22a369	0.63530594
250	0x3ed1af51	0.40954068
251	0xbe51e468	-0.20497286
252	0xbd320f2b	-0.043471497
253	0x3f02a09e	0.5102633
254	0xbcebb771	-0.028773995
255	0xbe28e4ea	-0.16493574

layers.0.bias f4 [128]
0	0xbeba0c2f	-0.3633742
1	0x3ee4523f	0.44594
2	0x3ed6cbd5	0.41952386
3	0xbefddbbf	-0.49581715
4	0xbeb853e1	-0.36001495
5	0xbe70b833	-0.23507766
6	0xbea7b69c	-0.32756507
7	0x3e35e57b	0.17763321
8	0xbed8ce94	-0.42345107
9	0xbec0a8bf	-0.37628743
10	0x3e51177a	0.20419112
11	0xbd5eea81	-0.05442286
12	0xbe0862df	-0.13318966
13	0xbeeea6fd	-0.46611777
14	0x3e8ff695	0.28117815
15	0x3e2ad595	0.16683038
16	0xbdadbf83	-0.084837936
17	0xbe6840e2	-0.22681001
18	0x3e23ebc2	0.16007903
19	0x3eb1dade	0.34737295
20	0x3ea67a9c	0.3251542
21	0x3de9be6c	0.11413273
22	0x3d8d4c2f	0.068992965
23	0xbeda06a6	-0.42583197
24	0x3ee5fe9c	0.44920814
25	0x3d9fe618	0.07807559
26	0xbe9d8f22	-0.30773264
27	0x3f19595d	0.5990198
28	0x3ed85403	0.42251596
29	0xbed3b9bf	-0.4135265
30	0xbe267e6b	-0.16259162
31	0xbe38de61	-0.18053581
32	0xbe52b1c2	-0.20575622
33	0x3e9b8e1e	0.30381864
34	0xbeb62161	-0.3557234
35	0x3f12b1cb	0.5730254
36	0xbe22391b	-0.15842097
37	0x3ecae3de	0.39626974
38	0x3e0bf764	0.13668591
39	0xbe1826ed	-0.14858599
40	0x3efb8fa9	0.49133042
41	0xbe8141a8	-0.25245404
42	0xbde2cb29	-0.11073906
43	0x3c0c82e1	0.008576126
44	0x3ebefabf	0.3730068
45	0xbe8e62c9	-0.27809742
46	0xbe872bef	-0.26400706
47	0xbee4ebdd	-0.447112
48	0xbdde80ae	-0.108643875
49	0xbe241c51	-0.16026427
50	0xbe1179f6	-0.1420668
51	0xbe1bd192	-0.15216663
52	0x3e796f28	0.24358809
53	0x3decc692	0.11561312
54	0xbe6243f3	-0.22096233
55	0xbe1bb305	-0.1520501
56	0x3e9a9e58	0.30198932
57	0x3dd99563	0.106241964
58	0x3ebc9efe	0.3684005
59	0x3d4fdb18	0.050746053
60	0xbeab8d5b	-0.33506283
61	0xbeb40c51	-0.35165647
62	0x3c1bb23c	0.009502944
63	0x3cbc0fce	0.022956755
64	0x3e4f4be5	0.20243795
65	0xbdec565a	-0.11539908
66	0x3d6c9011	0.05775458
67	0x3ba8946c	0.0051446464
68	0x3f05dadd	0.52287084
69	0x3e79c13e	0.24390122
70	0xbcb71d9c	-0.022352986
71	0x3f12ca85	0.5734027
72	0x3e7d0445	0.2470866
73	0xbe9d4131	-0.307138
74	0xbe9d4505	-0.3071672
75	0x3edba14b	0.42896494
76	0x3e9f847d	0.31155768
77	0x3eed869e	0.46391767
78	0x3d89c493	0.06726947
79	0x3eeb6e0e	0.45982403
80	0x3ea69e80	0.325428
81	0x3e1ce331	0.15321042
82	0x3a7e3f73	0.0009698786
83	0x3f17cd29	0.59297425
84	0x3e542cb5	0.2072018
85	0xbdd343a8	-0.10315639
86	0x3dcb1b8b	0.09917363
87	0x3f1c5004	0.61059594
88	0x3ebfb26c	0.37440813
89	0x3d187ea7	0.03723016
90	0x3f1a6aac	0.6031902
91	0x3e96d935	0.2946259
92	0xbe82e17b	-0.25562653
93	0xbed49ea3	-0.4152728
94	0x3ed103c8	0.40823197
95	0x3f19af59	0.60033184
96	0xbe20a903	-0.15689473
97	0x3ea24ca5	0.316991
98	0x3d1bb4b1	0.038014118
99	0xbcf68ff7	-0.030097945
100	0x3b24e3e7	0.0025160254
101	0x3e64ae09	0.22332014
102	0x3dfa3aef	0.12218272
103	0x3f09c5aa	0.53817236
104	0x3e900b30	0.28133535
105	0x3ebfe7a9	0.3748143
106	0x3f1dba67	0.6161255
107	0x3e90b0d6	0.28259915
108	0x3e4fcfe5	0.20294149
109	0xbe705af2	-0.23472193
110	0x3ef6375b	0.48089108
111	0xbcb31af3	-0.021863436
112	0x3edd2465	0.4319183
113	0x3ecbd5c1	0.3981152
114	0xbb0e9fed	-0.0021762804
115	0x3ef2660f	0.4734349
116	0xbd9f8600	-0.0778923
117	0x3f0b9969	0.5453096
118	0x3f150516	0.58210886
119	0xbda2ad01	-0.07943154
120	0x3db569f8	0.088581026
121	0xbe839014	-0.2569586
122	0xbe09c3cb	-0.13453595
123	0xbd6ff630	-0.058584392
124	0xbc3a35d1	-0.01136537
125	0xbd9be279	-0.076115556
126	0xbed2ad83	-0.41148004
127	0xbe8efd83	-0.2792779

layers.1.weight f4 [128, 128]
0	0x3e2ce346	0.16883573
1	0x3d6554f3	0.055989217
2	0x3e31199f	0.1729493
3	0x3ec8eb53	0.39242038
4	0x3c724261	0.014786334
5	0x3d92c1c7	0.07165866
6	0xbe055f78	-0.130247
7	0x3e30ef92	0.17278889
8	0xbd6518d6	-0.05593189
9	0xbcf9c506	-0.030489456
10	0xbd62dc91	-0.05538613
11	0x3d4599af	0.048242267
12	0xbd99f6df	-0.0751779
13	0xbd0f7b5b	-0.03502975
14	0xb857ef24	-5.148271e-05
15	0x3cc5f6a6	0.024165463
16	0x3de327b4	0.11091557
17	0x3ddf0bc2	0.108909145
18	0x3b73ae4e	0.003718275
19	0x3d1e1990	0.038598597
20	0x3ac860f3	0.0015287682
21	0x3e002e76	0.12517723
22	0x3ce8b13c	0.028404824
23	0xbdf73e13	-0.120723866
24	0x3de3ccfc	0.11123082
25	0xbd6d64b2	-0.05795736
26	0x3daa7327	0.08322745
27	0x3d1e0365	0.038577456
28	0xbdbdfd96	-0.09276883
29	0xbda524d6	-0.080636665
30	0x3d8051f5	0.06265632
31	0xbb0ad7d1	-0.0021185766
32	0xbde34643	-0.11097386
33	0x3da75998	0.081713855
34	0xbca72c14	-0.02040676
35	0x3df141de	0.11780141
36	0xbdb02258	-0.086003006
37	0xbd4b512b	-0.049637955
38	0x3da4ac16	0.08040635
39	0xbc4d835c	-0.012543526
40	0x3e336d5e	0.17522189
41	0x3d96a573	0.07355776
42	0xbc66b78c	-0.014081847
43	0xbd14184e	-0.03615599
44	0x3cc0093a	0.0234419
45	0xbdb95279	-0.090489335
46	0x3d0578bc	0.032585844
47	0xbda415a3	-0.080119394
48	0xbc849733	-0.016185379
49	0xbd53ae33	-0.0516798
50	0x3d343b00	0.04400158
51	0xbd7f3201	-0.062303547
52	0x3d97a3c8	0.07404286
53	0x3d0bc9ac	0.034127876
54	0x3c9890bb	0.0186237
55	0xbd8dc31e	-0.06921981
56	0x3de97f4b	0.11401232
57	0xbce36132	-0.027756307
58	0x3d8de738	0.06928867
59	0x3df0de5e	0.11761163
60	0xbd48f916	-0.04906567
61	0xbd6c9eb2	-0.05776853
62	0x3c66e948	0.0140937045
63	0x3da0c514	0.0785009
64	0xbcb05a34	-0.021527387
65	0xbd8068c9	-0.06269986
66	0x3dae5aed	0.085134365
67	0x3d7f0350	0.06225902
68	0x3dd6b725	0.10484151
69	0x3bb400b5	0.0054932483
70	0x3c087c59	0.008330428
71	0x3d58cd68	0.052930266
72	0x3e0e9317	0.13923298
73	0xbd85f71d	-0.06541274
74	0xbd4cdccb	-0.050015252
75	0x3dc43bed	0.095817424
76	0x3c623ba3	0.013808164
77	0x3dd81fdb	0.10552951
78	0x3d89c961	0.06727863
79	0x3d6f5cee	0.058438234
80	0x3e11099d	0.14163823
81	0x3d9dfb92	0.07713999
82	0x3d9801ef	0.07422244
83	0x3c207115	0.009792586
84	0x3e165d01	0.14683916
85	0x3dc209b5	0.09474508
86	0x3d899647	0.06718116
87	0x3d75e051	0.060028378
88	0x3db12630	0.08649862
89	0x3c6cfe75	0.014464964
90	0x3e303fd5	0.1721185
91	0x3dd319e8	0.103076756
92	0xbc8ef3c6	-0.017450225
93	0xbe1b965b	-0.15194075
94	0x3e2141ad	0.1574771
95	0x3df7a9d2	0.120929375
96	0x3de3e5bc	0.11127803
97	0x3cf1cc76	0.02951644
98	0x3d45930d	0.04823594
99	0xbd5e468d	-0.0542665
100	0xbcf5764b	-0.029963633
101	0x3a9448f9	0.0011313251
102	0x3dc3992b	0.09550699
103	0x3e08d834	0.13363725
104	0xbcd094a0	-0.025461495
105	0x3e1416ec	0.14461869
106	0x3dff5afb	0.12468525
107	0x3e010d36	0.12602696
108	0x3dc7b494	0.097512394
109	0x3c583801	0.013196946
110	0x3ddb4317	0.10706156
111	0x3d507311	0.050890986
112	0x3e2adf29	0.16686691
113	0xbd4f50ed	-0.050614286
114	0x3c25191a	0.010076785
115	0x3de2a454	0.11066499
116	0x3d8b5558	0.068033874
117	0x3e0e03f6	0.13868698
118	0x3d64e5ee	0.05588334
119	0x3d0da5e8	0.03458205
120	0xbe33626d	-0.17518015
121	0xbc329f2a	-0.0109022055
122	0x3db0154d	0.08597813
123	0xbde04ba1	-0.10951925
124	0xbc3c0a38	-0.011477046
125	0x3d5a1d7a	0.053250767
126	0xbd4ca986	-0.049966358
127	0x3d057328	0.032580525
128	0x3e2755bd	0.163413
129	0x3df88837	0.12135356
130	0x3d13babe	0.036066763
131	0x3eaeb23b	0.34120354
132	0xbe05d9ad	-0.13071318
133	0x3db68aad	0.08913169
134	0x3c8b24c8	0.016985312
135	0x3d5a9d6e	0.053372793
136	0x3cf50ecc	0.029914282
137	0xbd4125fc	-0.047155365
138	0xbd5658a8	-0.052330643
139	0xbccbb77d	-0.024867767
140	0xbd39cbc1	-0.04536033
141	0x3c9f2504	0.01942683
142	0x3d1bb6cf	0.038016137
143	0x3da2b887	0.07945352
144	0x3da8edf3	0.0824851
145	0xbd1dea52	-0.038553543
146	0xbd86b2c3	-0.06577065
147	0xbd5ca82d	-0.053871322
148	0x3e258399	0.16163482
149	0x3da5124c	0.080601305
150	0xbd27bb19	-0.040949915
151	0xbd721ced	-0.059109617
152	0x3d7cd0ae	0.06172245
153	0x3c2397d7	0.009984932
154	0x3da3487e	0.07972811
155	0x3df9f6cf	0.12205278
156	0x3d786410	0.060642302
157	0xbd4bea36	-0.049783908
158	0x3c7c49ef	0.0153984865
159	0xbd4d2a7c	-0.050089344
160	0xbc5a3665	-0.013318633
161	0x3e1958c1	0.14975263
162	0x3d1eeec4	0.038801923
163	0x3e345aa8	0.17612708
164	0xbdb3952a	-0.08768685
165	0xb97ab928	-0.00023910834
166	0x3d1bc742	0.038031824
167	0x3dc2cba3	0.09511497
168	0x3cf19444	0.029489644
169	0xbd1daf29	-0.038497124
170	0x3d792943	0.060830366
171	0xbd4a2111	-0.04934794
172	0x3d369724	0.044577733
173	0xbc847529	-0.016169148
174	0xbc8579e0	-0.016293466
175	0xbb8bd22d	-0.0042669983
176	0x3da4baef	0.08043467
177	0x3dcb4820	0.09925866
178	0x3d0d65e3	0.034520995
179	0x3b976b51	0.0046209474
180	0x3e5e5611	0.21712519
181	0x3dfc03b6	0.12305395
182	0x3ceea6f4	0.029132344
183	0x3d7aa3c4	0.061191335
184	0x3dbc1c44	0.09185079
185	0xbd076a00	-0.033060074
186	0xbbc73f44	-0.00608054
187	0x3d01eb04	0.03171827
188	0xbd7d52a8	-0.061846405
189	0xbd0e6b46	-0.034770273
190	0x3d917242	0.07101871
191	0x3dab7acd	0.08373032
192	0xbc8eb2c9	-0.017419236
193	0xbdf076e9	-0.1174143
194	0x3d8e5e82	0.0695162
195	0xbd494b41	-0.049144033
196	0x3dfb5e53	0.1227385
197	0xbc300d19	-0.01074531
198	0x37f06f0b	2.8661938e-05
199	0x3e102e51	0.14080168
200	0x3dd52718	0.10407847
201	0xbd8a3e41	-0.06750155
202	0xbd9b7c90	-0.07592118
203	0x3db63740	0.08897257
204	0x3d90adc4	0.07064393
205	0x3bb6a4a5	0.0055738264
206	0xbcb0b926	-0.02157266
207	0x3ddfef9d	0.109343745
208	0x3d817163	0.06320455
209	0x3d9fc527	0.07801276
210	0xbd10fabe	-0.035395376
211	0x3da73306	0.08164029
212	0x3cf2d843	0.029644137
213	0x3cccf4ab	0.02501901
214	0xb93f8fc3	-0.00018268735
215	0x3ded09bd	0.11574123
216	0xbab6c81f	-0.0013945139
217	0xbcaecf7f	-0.021339176
218	0x3d05749c	0.03258191
219	0xbd762946	-0.060097955
220	0x3d389684	0.045065418
221	0xbde732f4	-0.112890154
222	0x3d6268d3	0.05527575
223	0x3e076a63	0.13224177
224	0x3d27c081	0.04095507
225	0x3e084671	0.13308121
226	0xbc8d8f29	-0.017280178
227	0xbdc34937	-0.09535449
228	0x3d8b6d19	0.06807918
229	0x3df79455	0.12088839
230	0xbb9a2e6b	-0.0047052405
231	0x3dd69074	0.10476771
232	0x3d988c0f	0.07448589
233	0x3dce2d50	0.100672364
234	0x3d73726e	0.0594353
235	0x3d0cad94	0.034345224
236	0xbcc708bb	-0.024296155
237	0x3d14c95a	0.036324836
238	0xbc0b5c44	-0.008505885
239	0xbdbff628	-0.093731225
240	0x3daf0e70	0.085476756
241	0xbd448c04	-0.04798509
242	0x3d7363b1	0.059421245
243	0x3dc959e1	0.09831596
244	0x3d8c3a35	0.068470396
245	0x3d042251	0.03225929
246	0x3e1260a8	0.14294684
247	0x3de57a5e	0.1120498
248	0xbdf3a7e6	-0.118972585
249	0x3d9d4b47	0.07680374
250	0x3d850e1a	0.0649683
251	0x3ce93d08	0.028471485
252	0x3d646561	0.055760745
253	0x3d9888e7	0.07447987
254	0xbd14776c	-0.036246702
255	0xbd27a888	-0.04093221

layers.1.bias f4 [128]
0	0x3e1268fc	0.14297861
1	0x3d45bcf5	0.048275907
2	0x3da32a60	0.07967067
3	0x3cd17dc1	0.02557266
4	0xbdc7c038	-0.0975346
5	0x3d543a8f	0.05181366
6	0x3dcc7be3	0.09984567
7	0xbc8ebef8	-0.017425045
8	0x3e0b3e4f	0.13597988
9	0x3df10e97	0.11770361
10	0x3a12b0bc	0.00055957935
11	0x3d05de42	0.032682665
12	0x3def62a7	0.11688738
13	0x3d4b9f2c	0.049712345
14	0x3cb3288e	0.021869924
15	0x3db3a531	0.08771742
16	0x3e0fc499	0.1403984
17	0xbda5c2a2	-0.08093764
18	0xbd850903	-0.064958595
19	0x3d631e6c	0.055448934
20	0x3e34105b	0.17584364
21	0x3dd616f8	0.104536
22	0xbd71fc0b	-0.059078258
23	0x3df4c4e3	0.11951616
24	0x3e370a34	0.17874986
25	0x3c847d69	0.016173081
26	0x3d1da09d	0.03848325
27	0x3d78f6f6	0.060782395
28	0x3d8cb6a7	0.06870776
29	0x3e0741bb	0.13208668
30	0x3d6cb6c0	0.05779147
31	0xbd137be7	-0.036006834
32	0x3dc6d46a	0.097084835
33	0x3e10cb11	0.14139964
34	0x3d9c2769	0.076247044
35	0x3dd46416	0.103706524
36	0x3c9c7e23	0.019103115
37	0x3ddf4fbf	0.10903882
38	0xbd55a83e	-0.0521624
39	0x3e2fd204	0.17169958
40	0x3c251387	0.010075456
41	0xbde9fe4f	-0.11425459
42	0x3d20b59d	0.0392357
43	0x3d0b74a9	0.034046803
44	0xbd47f7cd	-0.048820306
45	0x3e26c206	0.16284952
46	0x3db55f5e	0.088560805
47	0x3e1ce775	0.15322669
48	0x3e1cacba	0.15300265
49	0x3da70acb	0.081563555
50	0x3c00e5c8	0.007867284
51	0x3de7d498	0.11319846
52	0x3e3705fe	0.1787338
53	0x3dd9b727	0.10630637
54	0x3dc26245	0.094914
55	0x3e2fe755	0.1717809
56	0x3d9fab66	0.077963635
57	0x3e049b67	0.12949906
58	0x3ddb74b4	0.10715619
59	0xbc667990	-0.014067069
60	0x3e203ba1	0.15647747
61	0xbd5d969e	-0.054098718
62	0xbc6c92cc	-0.014439296
63	0x3c321ea5	0.010871564
64	0x3ce081e0	0.02740568
65	0xb9529dec	-0.00020085991
66	0x3e480219	0.1953205
67	0x3df00031	0.117187865
68	0x3e2ce22d	0.16883154
69	0x3e16fe38	0.14745414
70	0x3ca5ec83	0.02025438
71	0x3e1c16ca	0.15243068
72	0x3ce9b22f	0.028527347
73	0x3d694c6e	0.056957655
74	0x3cd00b40	0.02539599
75	0x3e3d5185	0.18488128
76	0x3e476944	0.1947375
77	0xbcf3fb8e	-0.029783037
78	0x3d99f5ad	0.07517562
79	0x3d4acf61	0.04951418
80	0x3e499d97	0.19689022
81	0x3dac6f2c	0.08419642
82	0x3e1ad159	0.15118922
83	0xbc70d150	-0.0146983415
84	0xbd17f23f	-0.03709626
85	0x3e3d191a	0.18466607
86	0xbd68ca25	-0.056833405
87	0x3cb1b461	0.021692457
88	0x3e1f35f9	0.15547933
89	0x3d0ac0f8	0.033875436
90	0x3e124d68	0.1428734
91	0x3d3b0ec6	0.045668386
92	0x3de87e20	0.113521814
93	0x3e076a5b	0.13224165
94	0x3df21922	0.118212
95	0x3b86e5b5	0.0041167387
96	0x3e133fab	0.14379756
97	0x3e0c1d94	0.13683158
98	0x3d5a2d0b	0.053265613
99	0x3d7c68bb	0.061623316
100	0xbd92f31a	-0.07175274
101	0x3e30a10b	0.17248933
102	0x3dd8da60	0.10588527
103	0xbce41e8d	-0.027846599
104	0x3cc36c4f	0.023855356
105	0x3ccf419d	0.025299842
106	0x3dec716a	0.115450695
107	0x3d8293ff	0.06375884
108	0x3dabc9c9	0.08388097
109	0x3c27de14	0.010245819
110	0xbb27ebb1	-0.002562266
111	0x3d4d3871	0.050102655
112	0x3e1d4465	0.15358122
113	0x3e0c3d1d	0.13695188
114	0x3b4ae303	0.0030958063
115	0x3d93dd4b	0.07219943
116	0x3d82b76d	0.06382642
117	0x3dd4c8cf	0.10389864
118	0x3df85d2f	0.12127148
119	0x3d8fd9c9	0.07023961
120	0xbd8cbc9e	-0.068719134
121	0x3cc6547c	0.024210207
122	0x3dd1b679	0.10239882
123	0x3e27a6d1	0.16372229
124	0x3e066331	0.13123776
125	0xbe275209	-0.16339888
126	0x3de4ea74	0.11177531
127	0x3e213129	0.1574141

layers.2.weight f4 [64, 128]
0	0x3c22c5be	0.009934841
1	0x3d3c9842	0.046043642
2	0x3daca718	0.08430308
3	0x3d0a8936	0.03382226
4	0xbd6ba387	-0.057529
5	0x3cdfbe82	0.02731252
6	0xb9839198	-0.00025094743
7	0x3d99f2a4	0.07516983
8	0x3d4cae79	0.049971078
9	0xbabf366e	-0.0014588365
10	0x3be341ba	0.0069353255
11	0x3d0cfa00	0.034418106
12	0x3db0fd0d	0.086420156
13	0x3d442a12	0.047891684
14	0x3c8a1056	0.016853493
15	0x3d45f8ef	0.048333105
16	0x3d503f77	0.050841775
17	0x3d78dabb	0.060755473
18	0xbc23d72e	-0.010000033
19	0x3cfea67a	0.031085242
20	0xbc1b05ed	-0.009461862
21	0x3d8123b2	0.063056365
22	0xbd1d3312	-0.038378783
23	0x3c144015	0.0090484815
24	0xbd19ca07	-0.037546184
25	0xbc539123	-0.012913021
26	0x3d004b23	0.031321656
27	0x3b5c96a4	0.0033659125
28	0xbdb8abf8	-0.090171754
29	0x3c41eea4	0.0118366815
30	0xbd24d830	-0.040245235
31	0x3a9e0f59	0.0012059017
32	0x3cdb18a7	0.026745154
33	0xbc046ebf	-0.008083045
34	0x3d2462fc	0.04013346
35	0xbda83dff	-0.0821495
36	0x3bd8b773	0.0066136657
37	0x3d8bc570	0.068247676
38	0x3b0226fc	0.0019859662
39	0x3d90ccb0	0.07070291
40	0xbd164bc7	-0.03669336
41	0x3cdc7439	0.026910888
42	0xbd987b21	-0.0744536
43	0xbc6be633	-0.0143981455
44	0xbd6765f7	-0.056493726
45	0x3d0afc3b	0.033931952
46	0x3d10506a	0.03523294
47	0xbc944c4d	-0.01810279
48	0xbd5a6a32	-0.053323932
49	0xbd3fb182	-0.046800144
50	0x3d408cba	0.047009207
51	0xbd0c0f4e	-0.034194283
52	0xbdba711b	-0.091036044
53	0x3d79f346	0.06102302
54	0x3c1972cb	0.009365748
55	0x3d5dd9f2	0.054162927
56	0x3d0b02f8	0.033938378
57	0xbc6178ad	-0.0137616815
58	0xbd9c316d	-0.07626615
59	0xbbe807bf	-0.0070810015
60	0xbc09d72e	-0.008413119
61	0x3cc3c4cc	0.023897551
62	0xbdb6391d	-0.08897612
63	0xbc3e432e	-0.011612697
64	0xbd928111	-0.07153524
65	0xbd526f84	-0.05137588
66	0xbdaa32f1	-0.083104976
67	0x3d80fc0d	0.06298075
68	0x3d933b55	0.07189051
69	0xbd3aacbc	-0.04557489
70	0xbd2a33ec	-0.041553423
71	0x3d3af450	0.04564315
72	0xbb90935b	-0.0044120974
73	0xbcb1eb41	-0.021718623
74	0xbc71c793	-0.014757055
75	0xbdb1b823	-0.086776994
76	0xbd81c861	-0.06337047
77	0x3d69965d	0.057028163
78	0xbd7e22fc	-0.062045082
79	0x3d43f0bf	0.047837015
80	0xbd14165c	-0.036154136
81	0xbd822648	-0.06354958
82	0xbd393995	-0.04522093
83	0x3d57dddd	0.05270182
84	0xbdaff69b	-0.08591958
85	0x3d017c95	0.03161295
86	0x3cc5cba6	0.024144959
87	0x3ce087b8	0.027408466
88	0xbda44655	-0.08021227
89	0xbd85a50d	-0.065256216
90	0xbca41b22	-0.02003247
91	0xbd132546	-0.03592422
92	0xbd04e4f8	-0.032444924
93	0x3cdca2ff	0.026933191
94	0x3d24a1be	0.040193312
95	0x3d891a66	0.06694488
96	0xbd3f6812	-0.04673011
97	0xbd4fa2c3	-0.05069233
98	0x3da37a38	0.07982296
99	0xbc34e04b	-0.011039804
100	0xbccd8436	-0.025087457
101	0x3d42c969	0.04755536
102	0xbd90c1b2	-0.070681944
103	0x3d0a23cb	0.03372554
104	0xbd1e20be	-0.038605444
105	0xbb830bbe	-0.0039992025
106	0xbd261b52	-0.0405534
107	0xbd8e61be	-0.069522366
108	0xbc6c1e99	-0.014411592
109	0x3c867241	0.016411902
110	0xbd34adf3	-0.044111203
111	0x3c231b53	0.009955245
112	0xbda03b46	-0.078238055
113	0xbd7de35e	-0.061984412
114	0x3d0a245c	0.03372608
115	0x3d867020	0.06564355
116	0x3d34789c	0.044060335
117	0xbd807ad1	-0.06273425
118	0x3d665b99	0.056239698
119	0xbd6a0f0c	-0.057143256
120	0x3d1f925c	0.03895794
121	0x3c3a0c38	0.011355452
122	0xbcc652f7	-0.024209483
123	0xbd9eed0e	-0.07760058
124	0xbda197f4	-0.07890311
125	0xbdb89945	-0.09013609
126	0xbc8ef9d9	-0.017453121
127	0x3d8c6246	0.06854682
128	0x3d2c2612	0.042028494
129	0x3d9f1677	0.07767957
130	0xbd9bdc0d	-0.07610331
131	0x3d8747d6	0.066054985
132	0x3da0ac08	0.07845312
133	0x3d29725f	0.04136884
134	0xbe19e993	-0.15030508
135	0x3d49415d	0.0491346
136	0x3da23237	0.07919734
137	0xbbd1f2e6	-0.0064071296
138	0x3d258014	0.040405348
139	0xbe376015	-0.17907746
140	0x3f08e638	0.53476286
141	0x3e051a44	0.12998301
142	0x3d953813	0.07286086
143	0xbd247676	-0.040152036
144	0x3cee4960	0.029087722
145	0x3e14172f	0.14461969
146	0xbd90805a	-0.07055731
147	0xbcdbd606	-0.026835453
148	0xbdcac480	-0.09900761
149	0x3d73b076	0.05949446
150	0x3d2a6b04	0.041605964
151	0x3c2ae1a2	0.010429772
152	0xbd458b4b	-0.048228543
153	0xbdafd4f1	-0.08585537
154	0xbe29c219	-0.16577949
155	0xbca0d855	-0.019634405
156	0xbda10d9d	-0.07863925
157	0x3d533cde	0.05157172
158	0x3ce001a7	0.027344538
159	0xbe195d85	-0.14977081
160	0xbba390a3	-0.0049916073
161	0x3d199f5c	0.037505493
162	0xbc449bea	-0.012000063
163	0x3dad9c9d	0.08477137
164	0x3d9a0597	0.075205974
165	0xbc881335	-0.016610721
166	0xbb022fb5	-0.0019864861
167	0xbca38270	-0.019959658
168	0xbd4f4389	-0.050601516
169	0xbe652df0	-0.22380805
170	0x3d1b625b	0.037935596
171	0x3d605819	0.054771516
172	0xbda816db	-0.08207484
173	0x3da308e2	0.07960679
174	0xbd88aaf2	-0.0667323
175	0xbd9b8367	-0.075934224
176	0x3c95de8f	0.0182946
177	0x3c2e8dfd	0.01065397
178	0x3e7972f1	0.24360253
179	0x3bec2dad	0.0072075934
180	0x3ce7ce00	0.02829647
181	0xbe18cb68	-0.14921343
182	0xbd7530a1	-0.05986083
183	0xbd629cbc	-0.055325255
184	0xbdae8b4a	-0.08522661
185	0xbdbed8b9	-0.0931868
186	0xbd01dc9f	-0.03170454
187	0x3af8d63f	0.0018984749
188	0xbd149e04	-0.036283508
189	0x3eb879f5	0.36030546
190	0xbc9a9d3d	-0.018873805
191	0x3e2cdb76	0.16880593
192	0x3e5c0b1d	0.21488614
193	0x3dcbc6fc	0.09950063
194	0xbf2fed38	-0.6872134
195	0xbd220a6f	-0.03956073
196	0x3d84786b	0.064682804
197	0xbbbea60c	-0.005818134
198	0x3da5a557	0.08088177
199	0x3cd6b987	0.026211513
200	0x3d8b0aa7	0.06789141
201	0x3daccdd2	0.084376946
202	0xbd36fdd7	-0.044675674
203	0xbdc25496	-0.0948879
204	0xb8707a93	-5.7334615e-05
205	0x3c57d73f	0.013173877
206	0x3d25d7c2	0.040488966
207	0x3cc3457b	0.023836842
208	0x3d152bac	0.036418602
209	0xbdf4ea01	-0.11958695
210	0x3d5e2a78	0.05423972
211	0xbe96807a	-0.29394895
212	0x3d88d0ba	0.066804364
213	0xbd4f9fb4	-0.050689414
214	0x3cacbd88	0.02108647
215	0xbdfe6ad5	-0.1242272
216	0xbccd977e	-0.025096651
217	0x3d8d0b22	0.06886889
218	0xbc849f69	-0.016189294
219	0x3d8a825f	0.067631476
220	0x3c10af3f	0.008830844
221	0xbaff6749	-0.0019485737
222	0x3d901850	0.07035887
223	0xbd850826	-0.06495695
224	0xbd817053	-0.06320252
225	0x3db2f709	0.087385245
226	0x3d05f19e	0.032701127
227	0xbd064834	-0.032783702
228	0x3e80a1e5	0.25123516
229	0xbce96145	-0.028488765
230	0x3d197dcd	0.03747349
231	0x3de263d2	0.110541955
232	0xbd9c8039	-0.07641644
233	0x3dbf7f5e	0.09350465
234	0x3da7c753	0.08192315
235	0xbda2d889	-0.07951457
236	0xbda44a78	-0.08022016
237	0x3e3155db	0.17317908
238	0x3e4be6ff	0.19912337
239	0x3e9f66d5	0.31133142
240	0xbd3968db	-0.045266014
241	0x3d890092	0.06689562
242	0x3e8dbb01	0.27681735
243	0xbda5778e	-0.08079444
244	0xbd643ed0	-0.055723965
245	0xbd019829	-0.03163925
246	0xbd9cc5b1	-0.07654894
247	0xbc53cf28	-0.012927808
248	0x3cb87533	0.022516822
249	0xbd64294e	-0.055703454
250	0xbd6fd670	-0.058554113
251	0xbcb69ee7	-0.022292567
252	0xbcad1fb2	-0.021133278
253	0x3e95813f	0.2920017
254	0x3d0829f1	0.033243123
255	0xbdab14df	-0.0835359

layers.2.bias f4 [64]
0	0x3d0c26b5	0.0342166
1	0x3cf22f2c	0.029563509
2	0xbdd77838	-0.10520977
3	0x3cf2e43b	0.029649844
4	0x3d77cc33	0.060497474
5	0x3e1b6304	0.1517449
6	0xbd3b6211	-0.04574782
7	0x3ca6b8f1	0.020351859
8	0x3d44bf4a	0.04803399
9	0xbc8fccfc	-0.017553799
10	0x3d374c16	0.044750296
11	0x3e0444b6	0.12916836
12	0x3c946c2d	0.018117988
13	0x3cd21537	0.025644882
14	0x3e3d58ac	0.18490857
15	0x3d97112c	0.07376322
16	0x3c72a24d	0.014809203
17	0x3dc43ba3	0.09581687
18	0x3cadd2c8	0.021218672
19	0x3dc94c51	0.09829009
20	0x3e0dad7c	0.1383571
21	0x3bca9390	0.0061821416
22	0xbd68304b	-0.05668668
23	0x3abdf89a	0.0014493645
24	0x3d819909	0.06328017
25	0xbb0f7f55	-0.0021895964
26	0xbd293e30	-0.041319072
27	0x3da6b492	0.0813991
28	0x3e305cfe	0.17222974
29	0x3de8c8a7	0.113663964
30	0xbdb5e331	-0.08881224
31	0x3e1cf4d8	0.15327775
32	0xbdc09eca	-0.094052866
33	0x3e31f286	0.17377672
34	0xbb0c9f64	-0.002145731
35	0x3d346537	0.04404184
36	0x3d4c56a4	0.049887314
37	0x3df41902	0.11918832
38	0x3d00c617	0.031438913
39	0x3cb3a569	0.02192946
40	0xbc11416b	-0.0088656945
41	0x3dfe6ef3	0.12423506
42	0xbcc0964a	-0.023509163
43	0x3e29db4c	0.16587561
44	0x3e2aa17a	0.16663161
45	0x3e386c3b	0.18010037
46	0xbbd1a8cc	-0.006398296
47	0x3d013d95	0.03155287
48	0x3e20948b	0.15681665
49	0xbca7b854	-0.020473637
50	0x3d238319	0.039919946
51	0xbb89bbde	-0.0042033037
52	0x3e33f56d	0.17574091
53	0xbc266bed	-0.010157567
54	0x3d2c7e73	0.04211278
55	0x3dbc4c44	0.09194234
56	0xbcbe331b	-0.023217728
57	0xbda7b84b	-0.08189448
58	0x3c9cb1da	0.019127775
59	0xbc8e1525	-0.017344067
60	0x3d0f9ce5	0.035061736
61	0x3d20aad3	0.03922541
62	0xbd226e56	-0.039656006
63	0x3d0fefad	0.035140682

readout.weight f4 [1, 64]
0	0x3db2d9a1	0.08732916
1	0x3eb6da0c	0.35713232
2	0x3eb2b561	0.34904006
3	0xbe3a017a	-0.18164626
4	0xbdecd488	-0.115639746
5	0xbe58e97e	-0.2118282
6	0x3d36cb62	0.044627555
7	0x3debe245	0.11517767
8	0xbde38a14	-0.11110321
9	0x3d8186e0	0.063245535
10	0xbe50518b	-0.20343606
11	0xbe5489a1	-0.20755626
12	0x3c849a59	0.01618688
13	0x3c8c2ab8	0.017110214
14	0xbe7de9d5	-0.24796231
15	0x3ca88909	0.020573156
16	0x3d2895aa	0.041158356
17	0x3ed73c49	0.4203818
18	0xbd4cc35c	-0.049990997
19	0xbe404f4d	-0.18780251
20	0xbe486716	-0.19570574
21	0x3a48e000	0.0007662773
22	0x3b30bbea	0.0026967474
23	0x3dd5a8d6	0.104325935
24	0xbe37337d	-0.17890735
25	0xbd3b1dcd	-0.045682717
26	0xbd54b644	-0.051931635
27	0x3ed245a6	0.41068763
28	0xbe6f5da6	-0.23375568
29	0xbe597de9	-0.21239437
30	0x3e77b408	0.2418977
31	0xbe10d057	-0.14141975
32	0x3d7f80b6	0.062378608
33	0xbdfa53f4	-0.12223044
34	0x3da9e16c	0.08294949
35	0xbe34aa69	-0.17643131
36	0x3d82b813	0.063827656
37	0xbe1d1905	-0.15341575
38	0xbda9fa88	-0.08299738
39	0xbe1c619a	-0.15271607
40	0x3ddb8e45	0.10720495
41	0x3f2c5b1c	0.6732652
42	0x3d17af86	0.037032627
43	0xbe21270f	-0.15737556
44	0xbe07837f	-0.13233756
45	0xbe1800d1	-0.14844061
46	0x3db36f0a	0.087614134
47	0xbe658174	-0.22412664
48	0xbdf0a95e	-0.11751054
49	0x3e70d5a5	0.23518999
50	0xbe281ac2	-0.16416457
51	0x3e48e8f7	0.19620119
52	0xbe496f07	-0.1967126
53	0x3c98f209	0.018670099
54	0xbe0d8a15	-0.13822205
55	0xbe4c2a85	-0.19938095
56	0x3cd312ac	0.02576574
57	0x3e912660	0.2834959
58	0xbe1c291b	-0.15250055
59	0x3d6231ca	0.055223264
60	0x3e887c2b	0.26657233
61	0x3e8c9ddf	0.27464196
62	0x3d9d097a	0.07667823
63	0x3f2e1f13	0.68016165

layers.0.weight f4 [128, 3]
0	0x3da064d3	0.07831731
1	0xbb958b2c	-0.0045637097
2	0x3f644ccf	0.891797
3	0xbe078ada	-0.13236561
4	0x3f794d26	0.97383344
5	0xbee86992	-0.45393044
6	0x3f43d697	0.76499313
7	0x3d3d0686	0.0461488
8	0xbeffc6cf	-0.49956366
9	0x3eb5e4fc	0.35526264
10	0xbecf87ca	-0.40533286
11	0x3f16addf	0.58859056
12	0xbe9be3ea	-0.30447322
13	0xbf64aa1e	-0.8932208
14	0x3ed0b25a	0.4076107
15	0x3dc5c1e6	0.09656124
16	0xbf9a6dcc	-1.2064757
17	0x3f6e3a6b	0.9305789
18	0xbd3fc79b	-0.046821218
19	0xbf0a4e92	-0.5402614
20	0x3f1cf9e4	0.613188
21	0xbe82efe0	-0.25573635
22	0xbe649f0a	-0.22326294
23	0x3ed6fbbc	0.41988933
24	0xbe0abcca	-0.1354858
25	0xbf16cdc7	-0.5890774
26	0x3f41fadf	0.75773424
27	0xbedb72af	-0.42860934
28	0x3ed43df6	0.41453522
29	0x3e61b5f1	0.22042061
30	0x3e770fd8	0.24127138
31	0xbf8bf16a	-1.0933049
32	0xbedd845c	-0.43265045
33	0x3ec7236a	0.38894206
34	0xbf3dddef	-0.7416677
35	0xbe9cf403	-0.30654916
36	0xbd8af0e9	-0.06784231
37	0x3f0ecdf2	0.55783
38	0xbde93bab	-0.11388334
39	0x3f23a4fa	0.6392361
40	0xbe9bddf8	-0.30442786
41	0x3f189abc	0.59611106
42	0x3f2fef4a	0.687245
43	0xbeeab12a	-0.4583829
44	0xbe06343d	-0.13105865
45	0xbf0d8e4f	-0.5529527
46	0xbf2cd40d	-0.67511064
47	0x3e43d2e6	0.1912342
48	0xbf4729fc	-0.7779844
49	0x3f5a6c8b	0.85321873
50	0x3e4fc9d2	0.20291832
51	0x3dadb6d9	0.08482141
52	0x3d3866a9	0.04501978
53	0xbe2b3bcd	-0.16722031
54	0x3efe8efb	0.4971846
55	0xbd0bd134	-0.03413506
56	0x3e474838	0.19461143
57	0x3d08ac7b	0.033367615
58	0x3c1d5e79	0.009605044
59	0xbd879665	-0.06620482
60	0x3bf720cb	0.007541751
61	0x3e9b5dce	0.30345005
62	0x3eaace6b	0.3336061
63	0xbecbc679	-0.3979986
64	0x3f16a32e	0.5884274
65	0x3e43aca5	0.19108827
66	0xbe49f1d8	-0.19721162
67	0x3dce2b30	0.10066831
68	0xbed22181	-0.41041186
69	0xbf12f079	-0.5739818
70	0xbf44cb89	-0.7687307
71	0xbe87b8e2	-0.26508242
72	0x3b03c748	0.0020107795
73	0xbf268713	-0.65049857
74	0xbea50123	-0.3222743
75	0xbf1761e5	-0.5913375
76	0xbddc6cde	-0.10762952
77	0x3c6e204e	0.014534069
78	0x3f21872f	0.630969
79	0xbe8fe6fa	-0.2810591
80	0x3f0d5138	0.55202055
81	0x3ef19794	0.47185957
82	0xbeb94e56	-0.36192578
83	0xbd53f000	-0.051742554
84	0xbf0d51ce	-0.5520295
85	0xbe2cfe17	-0.16893803
86	0xbd9b0069	-0.075684376
87	0xbf218524	-0.6309378
88	0x3f61278d	0.87950975
89	0xbece5730	-0.40300894
90	0xbecd3383	-0.40078363
91	0x3eca047e	0.39456552
92	0x3efec90b	0.4976276
93	0x3edb7e4d	0.42869797
94	0x3f34bc34	0.70599675
95	0x3d1a0cb4	0.03760977
96	0x3c158b64	0.009127472
97	0xbebfd71f	-0.37468812
98	0xbed2391c	-0.41059196
99	0x3f387d47	0.7206616
100	0x3ea07ccf	0.3134522
101	0x3ed1b7e0	0.40960598
102	0xbe4184a4	-0.18898255
103	0x3dc01c74	0.09380427
104	0x3e568d64	0.20952374
105	0x3f0a8c85	0.54120666
106	0x3f42e4a5	0.76130134
107	0xbd2d382c	-0.042289898
108	0x3e1da595	0.15395196
109	0x3f5d47fd	0.8643797
110	0xbe00ff90	-0.1259749
111	0xbe8d3d70	-0.27585936
112	0x3d8ef029	0.06979401
113	0xbe6054ec	-0.21907395
114	0xbe6e9fe7	-0.23303185
115	0xbe045c2a	-0.12925783
116	0xbd894e83	-0.06704428
117	0x3e80cb5b	0.25155148
118	0xbf0151ee	-0.5051564
119	0xbf2465fe	-0.6421813
120	0xbe27b69c	-0.16378254
121	0x3ec2bdaa	0.38035327
122	0xbe6d4c0e	-0.23173544
123	0xbf6eae8e	-0.932351
124	0xbe9f9916	-0.31171483
125	0x3e2575c8	0.16158211
126	0x3f34e61f	0.70663637
127	0x3f2099d5	0.6273473
128	0xbf023cbf	-0.5087394
129	0x3ecaf348	0.39638734
130	0x3ecbedcc	0.39829862
131	0xbe89972d	-0.2687315
132	0x3e6c75e7	0.23091851
133	0xbf80d426	-1.0064743
134	0x3f64c93c	0.8936956
135	0x3f05d57d	0.5227888
136	0xbf313860	-0.69226646
137	0xbf30d0ba	-0.6906849
138	0x3ebf8977	0.37409565
139	0x3f0c8ea6	0.54905164
140	0xbeb24642	-0.34819227
141	0xbeacb46c	-0.337314
142	0xbec1d271	-0.37855867
143	0xbe2eb408	-0.17060864
144	0x3e14650c	0.14491671
145	0x3f139d63	0.5766203
146	0x3ebc5c1a	0.36789018
147	0xbed3683c	-0.41290462
148	0x3f5b7c0d	0.8573616
149	0x3e8eb10a	0.27869445
150	0xbee2ae7b	-0.44273743
151	0x3f5e203a	0.86767924
152	0xbe9dc04c	-0.30810773
153	0xbe401661	-0.18758537
154	0x3f1cfe2f	0.61325353
155	0xbe630996	-0.22171625
156	0xbf04104f	-0.51587385
157	0xbf37a7df	-0.71740526
158	0xbeb08cc8	-0.34482408
159	0xbe6f3f67	-0.2336403
160	0xbf393487	-0.72345775
161	0x3e6ba933	0.23013763
162	0xbe150a2f	-0.14554666
163	0x3f317c05	0.69329864
164	0xbe15489e	-0.14578483
165	0x3ed3a1d9	0.41334417
166	0x3f3b8c01	0.73260504
167	0x3e95e77e	0.29278177
168	0x3d0bcd70	0.034131467
169	0xbe79b84f	-0.24386714
170	0x3f11abc1	0.569027
171	0x3e66fe65	0.22557981
172	0xbe6e05e5	-0.23244436
173	0xbe8e4252	-0.27784973
174	0xbefef25d	-0.49794284
175	0xbf876a95	-1.0579401
176	0xbd3bdb82	-0.045863636
177	0xbeb3fb43	-0.35152635
178	0x3f3e8e04	0.7443545
179	0xbda6194d	-0.081102945
180	0x3f31fb36	0.6952394
181	0x3f05bca3	0.5224096
182	0xbf0a4b56	-0.54021204
183	0x3a75a75e	0.0009370948
184	0x3f347511	0.7049113
185	0x3c81f956	0.015865963
186	0xbe8e29ca	-0.27766258
187	0xbe31ace5	-0.1735111
188	0x3e1a0fcd	0.1504509
189	0x3e1d7b8a	0.15379158
190	0x3f30e248	0.6909528
191	0xbc3ead14	-0.011637945
192	0x3e2c8bb2	0.16850165
193	0x3f309d04	0.68989587
194	0x3e51bece	0.20482942
195	0xbefc9be6	-0.4933769
196	0xbf3c1343	-0.7346689
197	0xbecb3c61	-0.39694503
198	0x3e95dd57	0.2927043
199	0x3ec8b9fa	0.3920439
200	0x3e1a3a79	0.15061368
201	0xbe7ddcc8	-0.24791253
202	0x3f6121bc	0.879421
203	0xbd152479	-0.036411736
204	0xbc3acf47	-0.011401958
205	0xbee0239f	-0.43777177
206	0xbee26a8c	-0.44221914
207	0x3dbab2bb	0.091161214
208	0x3d395bd7	0.0452536
209	0xbf04f5b5	-0.5193742
210	0x3ef76afb	0.48323807
211	0xbe0f7353	-0.14008836
212	0x3f1f6271	0.62259585
213	0xbeb62057	-0.35571548
214	0x3e070364	0.13184887
215	0xbe899223	-0.26869306
216	0xbe8ff003	-0.28112802
217	0xbea9f1eb	-0.3319238
218	0xbdbd2a7c	-0.09236619
219	0x3f5f0de6	0.8713058
220	0xbe7f43ad	-0.2492816
221	0x3dc282b4	0.09497586
222	0xbe0ba30b	-0.13636415
223	0x3eb827dd	0.35967913
224	0x3e2ad1b7	0.16681562
225	0xbf271b2e	-0.6527585
226	0x3e9ae46a	0.3025239
227	0xbef07c53	-0.46969852
228	0x3f0257ef	0.50915426
229	0xbd8cfdf0	-0.06884372
230	0x3e491660	0.19637442
231	0x3ed65b05	0.41866317
232	0x3f1c230b	0.6099097
233	0x3e76891d	0.24075742
234	0xbe350ad1	-0.17679907
235	0x3e358640	0.17726994
236	0x3ce2a761	0.027667703
237	0xbf130c53	-0.5744068
238	0x3e592119	0.21204032
239	0x3e84ecb2	0.25961834
240	0x3e32d6cd	0.17464752
241	0xbe3d243f	-0.18470858
242	0xbe94dd8e	-0.29075283
243	0xbe4e55b1	-0.20149876
244	0x3f24c982	0.64369977
245	0x3ea8a5df	0.3293905
246	0xbe50c17d	-0.2038631
247	0xbe6119b4	-0.21982461
248	0x3d5e18a8	0.054222733
249	0xbf2d679a	-0.6773621
250	0xbdc09579	-0.0940351
251	0xbe9cd0ac	-0.30627954
252	0x3f12968f	0.57260984
253	0x3ee84972	0.45368534
254	0x3e27afb2	0.16375616
255	0xbec774bf	-0.38956258

layers.0.bias f4 [128]
0	0xbe2c2606	-0.1681138
1	0xbf45f899	-0.77332455
2	0xbf9632e4	-1.173428
3	0x3e9c8e6c	0.3057741
4	0x3e02dbc8	0.12779152
5	0xbeb16c94	-0.3465315
6	0xbe8fe367	-0.28103182
7	0x3da1682a	0.07881196
8	0xbedb03ff	-0.42776486
9	0xbdafb255	-0.08578936
10	0x3e5c8d87	0.21538363
11	0xbf37b1e3	-0.7175581
12	0xbd2a1e94	-0.041533068
13	0x3f0caf8f	0.5495538
14	0x3f13f0ac	0.5778911
15	0x3e8ef2e7	0.27919695
16	0xbe892cf8	-0.2679212
17	0x3ea6c7fc	0.3257445
18	0x3ec9d638	0.39421248
19	0x3e504b26	0.20341167
20	0xbdf35702	-0.1188183
21	0xbdf0a799	-0.11750717
22	0xbe37754f	-0.17915843
23	0xbf05e116	-0.5229658
24	0x3e3f6737	0.18691717
25	0x3d9d67a3	0.07685783
26	0x3e0667e1	0.13125564
27	0x3ee33709	0.44377926
28	0xbe0b49c9	-0.13602366
29	0xbe0cba0d	-0.13742848
30	0xbe857502	-0.26065832
31	0xbdbca2b4	-0.09210721
32	0x3dc249ca	0.094867304
33	0xbf6c2d69	-0.9225679
34	0x3eb74a2c	0.35798776
35	0x3ee26281	0.44215778
36	0x3de48275	0.11157695
37	0xbe5a7867	-0.21334992
38	0x3e1b0310	0.15137887
39	0x3eb2c5a7	0.34916422
40	0x3dde3ab3	0.1085104
41	0x3c894bd5	0.016759792
42	0xbd710f17	-0.05885228
43	0xbe279909	-0.16366972
44	0xbe15dfc3	-0.1463614
45	0xbde753fd	-0.11295316
46	0xbe5ae866	-0.21377715
47	0x3ea57ca9	0.3232167
48	0x3d817f68	0.06323129
49	0x3eb889bf	0.36042592
50	0xbe0dfa06	-0.13864908
51	0xbf0dfcd8	-0.55463934
52	0x3df84417	0.12122362
53	0x3d9feba4	0.07808617
54	0xbdd64b1b	-0.10463544
55	0xbc940670	-0.018069476
56	0xbcc9fb38	-0.024655923
57	0x3ea9fae8	0.3319924
58	0xbe04ab2d	-0.12955923
59	0xbeca40ef	-0.39502665
60	0xbd8284ad	-0.06372962
61	0xbf323a11	-0.6961985
62	0xbc5a0c1e	-0.013308553
63	0xbeeaec08	-0.45883203
64	0x3e9ad647	0.30241606
65	0x3cade296	0.021226209
66	0x3e4e4ce3	0.20146517
67	0x3e07e061	0.13269188
68	0x3ddf8d0a	0.10915573
69	0x3d8b2b81	0.06795407
70	0xbec2cf12	-0.38048607
71	0x3ccf4772	0.025302622
72	0x3e1e9e18	0.15489995
73	0x3e4ae411	0.19813563
74	0xbf04c9fe	-0.51870716
75	0xbeb509ff	-0.3535919
76	0x3ed44991	0.41462377
77	0xbe983f7f	-0.29735944
78	0x3ea63649	0.3246329
79	0x3e715440	0.23567295
80	0x3e928806	0.28619403
81	0xbe449be2	-0.1920009
82	0x3e259953	0.1617177
83	0xbf0bdd2a	-0.54634345
84	0xbce138c6	-0.027492892
85	0xbe1d2978	-0.1534785
86	0xbded738d	-0.11594305
87	0xbee3a0d3	-0.44458637
88	0xbe1c3279	-0.15253629
89	0x3dbdef21	0.09274126
90	0xbf499b99	-0.7875305
91	0x3ee6d087	0.4508097
92	0x3e7c4fcb	0.24639814
93	0x3e199ab1	0.15000416
94	0x3f06efda	0.52709734
95	0xbe9fd641	-0.3121815
96	0xbe130580	-0.14357567
97	0x3e8c7f63	0.27440938
98	0xbf07a3f3	-0.5298454
99	0xbea165e9	-0.31523064
100	0xbe2ea05a	-0.17053357
101	0xbf3f53e8	-0.74737406
102	0xbb79fb1c	-0.0038144058
103	0x3e043577	0.1291102
104	0xbd541df9	-0.051786397
105	0xbcb6cdce	-0.022314932
106	0xbe93dd9e	-0.28880018
107	0x3c1949bc	0.009355959
108	0xbdc076cf	-0.09397661
109	0xbea7fd56	-0.32810467
110	0x3ef3a893	0.4758955
111	0xbe3907e2	-0.18069413
112	0x3ea7ec20	0.32797337
113	0xbe386f98	-0.1801132
114	0x3e858724	0.26079667
115	0xbda8aef8	-0.08236498
116	0x3c3ad719	0.011403822
117	0x3f175124	0.59108186
118	0xbf0ef554	-0.5584309
119	0x3eacc8c9	0.33746937
120	0xbea07b95	-0.31344286
121	0xbd95fefe	-0.073240265
122	0x3e6edcbc	0.23326391
123	0x3e6e715c	0.2328543
124	0x3e8f9466	0.28042907
125	0x3e877d90	0.26462984
126	0xbe2e5076	-0.17022881
127	0x3e1f9f71	0.15588166

layers.1.weight f4 [128, 128]
0	0xbe978eae	-0.29601043
1	0x3dbb5ee7	0.091489606
2	0x3d24e7b7	0.040260043
3	0x3c37565b	0.011190022
4	0x3d3be88b	0.045876067
5	0xbd6f4c24	-0.058422223
6	0xbe38cf40	-0.1804781
7	0x3cbb5731	0.022868725
8	0xbcf8bc60	-0.030363262
9	0xbcef7091	-0.02922848
10	0xbeaaae77	-0.3333623
11	0x3dc561b1	0.09637774
12	0xbf026a4c	-0.50943446
13	0x3d21defc	0.039519295
14	0xbeaf5bbe	-0.3424968
15	0xbdc38b50	-0.09548056
16	0xbdaf3985	-0.08555893
17	0xbc23db10	-0.010000959
18	0xbe9e7ed4	-0.30956137
19	0xbc57379b	-0.013135816
20	0xbd903d9a	-0.070429996
21	0xbce3a5c9	-0.027789013
22	0x3c4286ca	0.0118729565
23	0xbd387f68	-0.04504338
24	0xbe16d047	-0.14727889
25	0x3cdf6f93	0.027274882
26	0xbe813b12	-0.2524038
27	0xbe5be358	-0.21473444
28	0xbd83376a	-0.06407054
29	0x3d95a97f	0.073077194
30	0x3d909cba	0.07061143
31	0x3dada31b	0.084783755
32	0xbd1e0593	-0.038579535
33	0xbe03b469	-0.1286179
34	0xbd9baa89	-0.076008864
35	0xbe35bff7	-0.1774901
36	0xbdcbfb05	-0.099599876
37	0x3d10a9a1	0.03531802
38	0xba7f36ff	-0.0009735673
39	0xbd867ec1	-0.06567145
40	0xbcffebe9	-0.03124042
41	0xbbbaf1d7	-0.005705099
42	0xbde877e5	-0.11350993
43	0xbc9eb673	-0.019374108
44	0xbd66e9fe	-0.056375496
45	0xbc786c98	-0.0151626095
46	0x3dcc5ba3	0.09978416
47	0xbd213982	-0.039361484
48	0xbd584338	-0.05279848
49	0x3cf82a5c	0.030293636
50	0x3c008918	0.007845186
51	0x3e335130	0.1751144
52	0x3ca6b37a	0.020349253
53	0xbd872618	-0.06599063
54	0xbec25ecc	-0.3796295
55	0xbe3f8284	-0.18702132
56	0xbb0d0bd9	-0.0021521954
57	0xbe0caec3	-0.13738541
58	0xbc354c05	-0.011065488
59	0xbdbf99cc	-0.09355506
60	0x3cf48538	0.02984868
61	0x3eb3de84	0.35130703
62	0xbce08c12	-0.02741054
63	0xbda4f75d	-0.08054993
64	0x3d37895f	0.04480874
65	0xbdf0c6d7	-0.11756676
66	0xbc6f83cc	-0.014618825
67	0xbbf24127	-0.0073930207
68	0xbdf506dc	-0.11964199
69	0x3ceca889	0.028888958
70	0xbec52b75	-0.38509718
71	0x3cb9c068	0.022674754
72	0xbcd4f55e	-0.025995906
73	0xbca81349	-0.020517008
74	0x3e0a5719	0.13509788
75	0xbd0cabcf	-0.034343537
76	0x3d56dc2e	0.052456073
77	0x3c90d462	0.017679397
78	0x3d10cad2	0.035349675
79	0x3d47c908	0.048775703
80	0xbdc7a7f7	-0.097488336
81	0x3ceb9861	0.028759183
82	0x3d863b33	0.0655426
83	0xbd71128a	-0.05885557
84	0xbd86df55	-0.06585566
85	0xbd1e46f2	-0.038641877
86	0xbd60397a	-0.054742314
87	0x3dc72629	0.09724075
88	0xbe6650e6	-0.22491798
89	0xbd8bf0b9	-0.068330236
90	0xbe1f8b3b	-0.15580456
91	0xbe487e41	-0.19579412
92	0xbcf0cbde	-0.029394086
93	0xbd92f0a1	-0.071748026
94	0xbdf1a561	-0.11799122
95	0x3d6abc9a	0.05730877
96	0xba899974	-0.0010498003
97	0xbe9ab9f4	-0.30219996
98	0x3c24cac2	0.010058107
99	0xbca38983	-0.019963032
100	0x3da8ae10	0.08236325
101	0xbdc72d22	-0.09725405
102	0xbe91acbd	-0.284521
103	0x3aa590ec	0.0012631691
104	0xbc82819a	-0.01593094
105	0x3d62ab80	0.055339336
106	0x3caaee31	0.020865532
107	0xbb817f88	-0.0039519705
108	0xbe40fee7	-0.18847238
109	0xbc795d60	-0.015220016
110	0xbe61cd72	-0.22051027
111	0x3cd6d63f	0.026225207
112	0xbe0a439a	-0.1350235
113	0xbec3db2c	-0.38253152
114	0x3d5b5de5	0.05355634
115	0xbea4e1db	-0.32203564
116	0xbd2c4e05	-0.042066593
117	0xbd68209e	-0.05667173
118	0xbd5d7ab9	-0.054072116
119	0x3d68f6e8	0.056876093
120	0xbd116792	-0.035499163
121	0xbc8e89e6	-0.01739974
122	0x3cdd7c57	0.027036829
123	0xbd621f95	-0.0552059
124	0x3c296cf9	0.0103409225
125	0xbef6b0be	-0.4818172
126	0xbe217194	-0.15765983
127	0xbbc8d0b2	-0.006128394
128	0xbf04de13	-0.5190136
129	0x3de3172d	0.11088405
130	0xbf1345a7	-0.57528156
131	0xbe5e5013	-0.21710233
132	0xbd78eea3	-0.060774457
133	0xc00fa0ff	-2.2442014
134	0xbfd4b7ae	-1.6618555
135	0xbe5c1718	-0.21493185
136	0xbf22391c	-0.6336839
137	0x3e1c17a3	0.15243392
138	0xbf1490f9	-0.5803371
139	0xbf0b835c	-0.54497313
140	0xbe451a3e	-0.19248292
141	0xbf50c8d6	-0.8155645
142	0xbe6285bd	-0.2212133
143	0xbe912751	-0.2835031
144	0x3d8e2dad	0.06942306
145	0xbc3777da	-0.011198008
146	0xbef60f5e	-0.480586
147	0xbc1f7394	-0.009732146
148	0xbebe288d	-0.37140313
149	0x3e394ed5	0.18096478
150	0x3d33050c	0.043705985
151	0xbf34eddf	-0.7067546
152	0xbe79de61	-0.24401237
153	0x3e8ddc78	0.27707267
154	0x3e4b2b04	0.19840628
155	0xbe1358cc	-0.14389342
156	0x3ea0d39a	0.3141144
157	0x3dd34a42	0.10316898
158	0x3d242c06	0.040081047
159	0x3d8f6127	0.07000952
160	0xbe24201c	-0.16027874
161	0x3e57b3cc	0.21064681
162	0xbc06dc4e	-0.008231236
163	0x3d160bae	0.036632232
164	0xbde87b41	-0.11351634
165	0x3c83915d	0.016060526
166	0xbd1d8fd7	-0.038467254
167	0xbd7b015f	-0.061280604
168	0x3d0498e6	0.032372378
169	0x3d2fc03e	0.042907946
170	0xbd409241	-0.04701448
171	0xbbdec0e6	-0.0067978976
172	0xc024f643	-2.5775306
173	0xbe933f56	-0.2875926
174	0x3e426841	0.18985082
175	0x3d14fd83	0.03637458
176	0xbe9274c4	-0.2860471
177	0x3d2a0827	0.04151168
178	0xbca429ae	-0.020039406
179	0x3eaba483	0.3352395
180	0x3dc0d68b	0.09415921
181	0x3df9d8e0	0.12199569
182	0xbe1a8354	-0.1508916
183	0x3c9954dc	0.018717222
184	0xbf168646	-0.58798635
185	0x3cf34503	0.029695993
186	0x3df46cd4	0.1193482
187	0xbd20c2b9	-0.039248202
188	0xbe229090	-0.15875459
189	0x3ff2209f	1.8916205
190	0x3e134106	0.14380273
191	0x3de9c6f2	0.11414899
192	0xbe065218	-0.13117254
193	0x3c6f87e2	0.014619799
194	0xbe3755aa	-0.17903772
195	0x3e04b55f	0.12959813
196	0xbd81df05	-0.06341366
197	0x3d777692	0.06041581
198	0x3ef493ea	0.477691
199	0x3beb0225	0.0071718865
200	0x3e12dbc0	0.1434164
201	0xbea251a6	-0.31702918
202	0x3e44b23e	0.19208619
203	0x3d329b01	0.043604854
204	0xbf019f23	-0.5063345
205	0xbdf919e4	-0.12163141
206	0x3d9e32f6	0.07724564
207	0x3e37f47a	0.17964354
208	0xbd6a9af6	-0.05727669
209	0xbe84ee44	-0.25963032
210	0x3daf414e	0.08557378
211	0xbe5e1322	-0.21686986
212	0x3eb8b516	0.36075658
213	0x3dfb42fd	0.122686364
214	0xbcfa5bd6	-0.030561369
215	0x3e41048c	0.18849391
216	0xbf166ebd	-0.58762723
217	0x3e7fc156	0.24976096
218	0xbed1264d	-0.40849534
219	0xbfdc8cf7	-1.7230519
220	0xbf0cf64c	-0.5506332
221	0xbd742a16	-0.05961045
222	0xbe1fc06d	-0.15600748
223	0x3afe8748	0.0019418979
224	0x3e9de404	0.30838025
225	0xbd4c7a81	-0.049921516
226	0x3f8fac99	1.1224548
227	0x3e1d23b8	0.15345657
228	0xbb689d3b	-0.0035494107
229	0xbeb820d3	-0.35962543
230	0xbfeb4031	-1.8378965
231	0x3c2998ef	0.010351404
232	0x3e8f86f4	0.2803265
233	0x3e910dad	0.28330746
234	0x3cc6a49a	0.02424841
235	0xbeca53c8	-0.39517045
236	0xbeb7bc24	-0.35885727
237	0x3e24bf61	0.1608863
238	0x3d4f4c16	0.05060967
239	0x3da949d1	0.082660325
240	0xc01b944a	-2.4309258
241	0xbe94c502	-0.29056555
242	0x3db723d3	0.0894238
243	0xbf1c231b	-0.60991067
244	0xbe1ecccc	-0.15507811
245	0xbec2e260	-0.38063335
246	0x3fa548bd	1.2912823
247	0x3e2d7363	0.16938548
248	0xbef22a51	-0.4729791
249	0x3cb25209	0.021767633
250	0x3dab3311	0.083593495
251	0x3f14c85b	0.5811822
252	0x3de82666	0.11335449
253	0x3cbb22cb	0.022843739
254	0xbeccac3f	-0.39975163
255	0x3da08d5e	0.07839464
