HW9/9_gym-DDPG/results/DDPG_Pendulum-v1_1000-eps0.1-t32-l0.0001-s1-u20.pth (torch, 176252 bytes, 12 tensors)

layers.0.weight f4 [128, 4]
000000 c7 6e 84 3e 4f be 2e bf d8 df 5c be c9 b2 06 3e
       0.25865766 -0.6825914 -0.21569765 0.13154139
000010 d8 40 14 bf 86 13 d5 3d ff 8c d5 bd f5 f9 0a 3e
       -0.57911444 0.104041144 -0.104272835 0.13571914
000020 27 c8 0a bd 44 de e3 3d 8a 23 40 3d 13 a0 ca ba
       -0.033882286 0.11126378 0.046908893 -0.0015459083
000030 94 c7 20 3f 4d 8e 97 be f1 b7 a8 bd 28 fe ac bc
       0.6280453 -0.29600754 -0.08238209 -0.021117285
000040 15 0b 5a be d5 4b eb 3e e4 92 f0 3e cc 06 d2 bb
       -0.2129329 0.45956293 0.4698707 -0.0064095017
000050 29 cd 8b be 20 17 c4 be 77 01 fe 3d 0d ce 7b 3c
       -0.27304962 -0.38298893 0.12402623 0.015368951
000060 23 69 a6 be d8 20 da 3e e0 fd b0 3e d4 86 fa 3d
       -0.32502088 0.42603183 0.3456869 0.12232748
000070 bd 02 06 bf ef 05 53 3f e1 b1 de 3d 20 78 63 3e
       -0.5234793 0.8243093 0.108737715 0.22213793
000080 73 21 1c 3f 39 a1 ef be cb af fb be d9 b6 a5 be
       0.6098854 -0.4680269 -0.49157557 -0.32366064
000090 7f fa ca 3e cf 53 f2 3b ca 40 87 3e 15 7e b0 be
       0.39644238 0.0073952447 0.26416618 -0.34471193
0000a0 c6 60 f0 3e 57 7e 4f bd c1 00 e0 3e a3 18 02 bc
       0.46948832 -0.050657596 0.43750575 -0.007940444
0000b0 17 f2 97 be 6e d8 98 bd 80 cb 94 be b8 d9 93 3e
       -0.29676887 -0.07463156 -0.29061508 0.28877044
0000c0 19 88 9e be 06 3f 82 be 05 87 00 bf b4 29 08 bd
       -0.3096321 -0.25438708 -0.50206023 -0.033242896
0000d0 6c af ac 3e 19 5f 78 3d 51 55 0e 3f 1a 95 e1 3e
       0.33727586 0.060637567 0.5559893 0.44059068
0000e0 fd f8 10 be 6c 2c 83 be 9b 1d ba 3e 9e 55 8c 3d
       -0.14157481 -0.2561983 0.36350712 0.06852268
0000f0 be 42 a6 be 3a 6d 5a 3f f6 ba 56 3e 5b df 68 3e
       -0.32472795 0.85322917 0.20969757 0.22741453
000100 78 dd d4 be 8f 97 aa be 8f e1 f5 3c fb fb a9 bc
       -0.41575217 -0.33318755 0.030014781 -0.020750036
000110 f7 89 1c bf 76 dc 8c 3d 8e b4 b3 3e cd c4 c4 bd
       -0.6114802 0.06877987 0.3509869 -0.09607849
000120 4e cd b0 3e 40 50 c7 3e 53 a9 59 3e 3c 72 c5 bc
       0.34531635 0.38928413 0.21255998 -0.024102323
000130 f7 1c 30 3e 82 9a ae 3e c2 d4 f3 be 3b 35 fd 3e
       0.17198549 0.34102255 -0.4762326 0.49454674
000140 67 ea e3 be 41 4c 28 bf b5 e3 0d 3c e0 aa a2 bd
       -0.44514772 -0.65741354 0.008660247 -0.07942748
000150 53 35 7d 3e 57 88 82 bf e8 0e ab be 01 8a c6 3e
       0.24727373 -1.0197858 -0.3340981 0.38777164
000160 ef 6f e5 ba 6b 82 26 3f 4e df 05 3e 2a 0e 9f be
       -0.0017504672 0.6504275 0.13073465 -0.31065494
000170 c8 8c 21 bd 43 54 0b 3e b6 b3 ae be e0 4b 61 be
       -0.0394409 0.13606362 -0.34121484 -0.220016
000180 e1 4f 8d 3d ed 0c 06 be 88 d0 9b bd 82 38 78 bd
       0.06900001 -0.13090868 -0.076081336 -0.060600765
000190 75 d5 a1 3e 7c d0 13 bd 89 20 c0 3e 02 7b db 3d
       0.31608167 -0.036087498 0.37524822 0.10716821
0001a0 17 38 0a bf 06 fa dc be d1 46 06 3f 8c 30 5c 3d
       -0.53991836 -0.43159503 0.5245181 0.053757235
0001b0 66 86 c0 3e a0 12 b4 3e 72 b5 b4 3d b1 12 51 3e
       0.37602538 0.3517046 0.088236704 0.20417286
0001c0 64 c0 e6 3e 11 ab 18 bf 3a 33 77 3a 06 47 46 3e
       0.45068657 -0.59636027 0.00094299356 0.19363031
0001d0 52 bd 92 3e 97 c9 dd 3e b0 7b c5 be 2f da c6 be
       0.28660065 0.43317863 -0.3857093 -0.38838336
0001e0 c4 65 fb be 96 fe 12 3f 50 9b 03 3f e6 d6 a2 be
       -0.4910108 0.5741972 0.51408863 -0.3180458
0001f0 57 8d 06 3f 68 30 eb be d7 d4 f2 be 6c 57 8f 3c
       0.5255942 -0.4593537 -0.4742801 0.01749774
000200 fd 37 4a 3e 65 f7 f9 3e ae 6f ab be 3f e3 86 3e
       0.1974792 0.4882156 -0.33483642 0.2634525
000210 78 0d 6a 3f 8a 6d 4e 3f f8 94 a5 3e a5 16 3e 3e
       0.914268 0.80635893 0.32340217 0.18563326
000220 1e a6 94 3e 99 6c fd 3d 5d 0a bc be da 3e a3 be
       0.29032987 0.12374229 -0.36726657 -0.3188389
000230 ee 18 ff be 9d 06 99 be dc 5c 42 be 4a 8d 9e bb
       -0.49823707 -0.29887858 -0.18980736 -0.0048386203
000240 d9 4d 70 bd 1b e8 e0 bd 53 49 70 3e 9f 28 3b 3e
       -0.05866799 -0.109817706 0.23465471 0.18277214
000250 15 9d a4 3e 0a 3c e9 3e 58 12 5a be 6e 67 02 3f
       0.32151094 0.4555362 -0.2129606 0.5093907
000260 c9 46 8a be 1f 90 68 be a2 ee dd be cd 0e a2 be
       -0.2700713 -0.22711228 -0.43346125 -0.31651917
000270 1f f5 f5 be 6f c6 15 3e fb 16 cf 3e a2 03 15 be
       -0.48038575 0.14626478 0.4044722 -0.14552167
000280 f7 66 e4 be e4 ee 98 3e 1b 72 f4 3d 81 72 2f 3e
       -0.44609806 0.2986976 0.119358264 0.17133524
000290 d6 bc f0 be 31 6d ff be e6 85 3d be 27 64 06 3e
       -0.4701907 -0.49887994 -0.1850811 0.13124143
0002a0 4b f6 ef be 01 b1 13 bf c3 52 d8 bd c3 29 6f 3e
       -0.46867594 -0.5769196 -0.105626605 0.23355775
0002b0 36 59 a6 3d a6 38 26 3f 41 90 fd 3e e4 87 df 3e
       0.081224844 0.6493019 0.4952412 0.43658364
0002c0 8f b2 f7 3e 1f 76 e9 bd e2 8f c1 be 3f 2e c6 3e
       0.48378417 -0.11399483 -0.37805086 0.38707158
0002d0 20 6c aa be 6c 90 76 be f4 e9 d7 be fd b9 21 3d
       -0.33285618 -0.2407853 -0.4217068 0.039484013
0002e0 57 9d 02 bf 78 ad 67 3e a7 1f f3 be 87 dc 9b be
       -0.5102133 0.22624767 -0.47485086 -0.30441687
0002f0 66 26 a7 bd 7a 5b 83 be ab e9 4e 3e 81 4a 2f be
       -0.08161621 -0.2565573 0.20206325 -0.17118265
000300 28 5f 8f be 23 1e 27 3f 3c d7 90 3e 01 fe fb be
       -0.28002286 0.6528036 0.2828921 -0.49217227
000310 88 ee 04 3f d7 76 41 3f 27 db 01 3f 77 65 bf be
       0.5192647 0.7557196 0.50725025 -0.373821
000320 ce 65 88 bd 9d 0d f3 be d7 b3 fa 3e 57 9d 13 be
       -0.06660043 -0.47471324 0.48965332 -0.14415489
000330 fc 7e a2 3e 3c a6 4a bd 0a ac 33 be 14 c7 b9 3c
       0.31737506 -0.04947494 -0.17546096 0.022677936
000340 d8 24 dc 3c 20 52 1b 3f 4c 44 bd bc ee 87 c2 3c
       0.026873037 0.6067219 -0.023103856 0.023746457
000350 64 8e dc be c1 a9 63 3f b2 ae d0 3e b9 f6 88 3e
       -0.43077385 0.889309 0.40758282 0.26750734
000360 09 94 c4 3e 75 54 67 bf 28 bd 96 be 58 62 c5 3e
       0.38394192 -0.90363246 -0.2944119 0.38551593
000370 b3 21 0f bf e0 5b 5f 3d 3c 1a d7 be 01 4b 17 be
       -0.55910796 0.05453098 -0.42012203 -0.14774705
000380 dd c7 e0 3e d5 ab 63 bf 81 2b 45 bd 94 64 94 3d
       0.43902484 -0.8893407 -0.04813719 0.07245746
000390 56 62 59 3e 28 48 26 3f ce aa 63 be 25 29 bc be
       0.21228918 0.6495385 -0.22233126 -0.3675014
0003a0 a1 72 47 3f ea 01 fe be 38 02 6d be cd ac 04 3e
       0.77909285 -0.49610835 -0.23145378 0.12956543
0003b0 0f 03 ca be a5 1f 1d 3f 29 bf 9a 3e cd 44 b8 be
       -0.3945546 0.6137641 0.3022397 -0.3598999
0003c0 74 e2 26 bf ee 52 29 3f 5d 1f 03 3e 84 b2 7e bd
       -0.6518929 0.66142166 0.12804933 -0.062181965
0003d0 5c 0c f7 be e3 25 f1 be 18 83 f1 be df 30 6d bd
       -0.48251617 -0.47099218 -0.4717033 -0.057907935
0003e0 9d c1 c1 be da cf 56 3f 7c b2 bf 3e 70 b3 20 be
       -0.37843028 0.83910906 0.3744086 -0.1569345
0003f0 5a 2a 38 be 02 81 a0 3e 40 41 8b bd 9d 7c 7c be
       -0.17984906 0.31348425 -0.06799555 -0.24656911

layers.0.bias f4 [128]
000000 5b 0a d9 be ee aa fc 3e 89 af e2 3e b2 79 fb be
       -0.42390713 0.4934916 0.44274548 -0.49116284
000010 bd 5c c6 be 44 2b ac be 4a a0 3d be 10 6a 54 3e
       -0.3874263 -0.3362676 -0.18518177 0.20743585
000020 88 10 0f bf d1 fe e4 be cc a8 75 3e 5d 06 2a 3d
       -0.558846 -0.4472566 0.23990172 0.041509975
000030 62 c5 25 be 3d e6 02 bf e4 08 98 3e df 16 86 3e
       -0.16188577 -0.51132566 0.29694283 0.26189324
000040 1f b6 f0 bd 08 f2 26 bd d8 30 02 3e 30 82 95 3e
       -0.11753487 -0.040758163 0.12713945 0.29200888
000050 c0 c1 9b 3e 4c 3d 69 3e 27 ac 9e 3d 6e c1 fc be
       0.30421257 0.22777289 0.07747679 -0.49366325
000060 f1 cf fc 3e e8 9a 49 3c 74 d8 95 be 37 08 13 3f
       0.49377397 0.012304999 -0.29266703 0.5743441
000070 8a bf 97 3e 79 f2 e6 be f0 2a e6 bd f3 9a 8e be
       0.2963832 -0.45106867 -0.112386584 -0.27852592
000080 c2 7c b8 be 8f 51 62 3e 24 58 fe be 7a 82 16 3f
       -0.36032683 0.22101425 -0.4967662 0.5879284
000090 bd 9a 94 be f4 23 c9 3e b3 b8 2e 3e 32 7a 20 bc
       -0.29024306 0.39285243 0.17062645 -0.009794759
0000a0 1b b1 00 3f 56 7f 85 be fa ac 90 bd 07 04 93 3d
       0.5027024 -0.26073712 -0.07064243 0.071785025
0000b0 fd 87 cd 3e be 46 49 be 6f a3 89 be 98 90 d9 be
       0.40142813 -0.19655892 -0.26882502 -0.4249313
0000c0 fc 6b b8 bd 57 ac 42 be f2 60 42 be ed 7c 61 be
       -0.090049714 -0.19011055 -0.18982294 -0.22020312
0000d0 db 48 91 3e f0 d1 23 3e c0 07 b7 be f2 24 21 be
       0.28375897 0.15998054 -0.357481 -0.1573675
0000e0 d7 66 be 3d c4 5a cc 3d a4 42 9d 3e 28 05 9b 3d
       0.09296959 0.0997825 0.30714905 0.07569343
0000f0 4d 43 8d be e6 98 b1 be 43 b8 c4 3d 8b da bd bd
       -0.2759041 -0.34686965 0.09605458 -0.092701994
000100 3e f0 0e 3e c6 a9 2f be a4 a6 bf 3d 9e db 48 be
       0.13958833 -0.17154607 0.09357956 -0.19615027
000110 bf f1 08 3f 2a 85 a3 3e b3 e9 23 3e db 3c 1e 3f
       0.53493875 0.31937534 0.16007118 0.6181161
000120 d5 5d 95 3e a7 47 ca be dc 58 8e bd 79 89 de 3e
       0.2917315 -0.3950779 -0.06950542 0.43464258
000130 32 0d 98 3e 95 80 00 3f cd 20 f7 3d 18 47 fc 3e
       0.29697567 0.501962 0.12066803 0.4927299
000140 4b 53 a7 3e 7a ed 82 3e f5 2d cb 3d 23 06 83 3e
       0.32680735 0.25571805 0.09920875 0.2559062
000150 91 a4 8e 3e 18 3e 0f bc f3 02 f2 3d d7 35 26 3f
       0.2785993 -0.008742832 0.11816969 0.64925903
000160 38 4a e8 3e c4 dc 59 bd 5b 6a 22 3f d9 81 a5 3e
       0.45369124 -0.053189054 0.63443536 0.32325628
000170 b0 42 5a be 91 af e9 be 36 2e e0 3e 10 5f 0c 3f
       -0.21314502 -0.4564176 0.43785256 0.54832554
000180 40 21 15 39 0b ec a0 3e c3 76 4e bd 33 3f 2b be
       0.00014222134 0.31430086 -0.05040623 -0.16723327
000190 57 d9 7e 3d b4 dc 95 3e 36 7c 4c bd 9c f8 b2 3e
       0.06221899 0.29269946 -0.049923144 0.349553
0001a0 7f 7d 9e 3e ad 4d d7 3e 06 b2 20 3f f9 00 9a 3e
       0.3095512 0.4205145 0.6277164 0.30078867
0001b0 1b d9 a3 3e 10 ee de be 83 f3 0b 3f 10 fc 41 3e
       0.32001576 -0.43541002 0.54668444 0.1894381
0001c0 ee 9e e0 3e 10 45 04 3f b8 7f 12 3e cf 04 9c 3e
       0.43871254 0.5166788 0.14306533 0.3047242
0001d0 b0 7f 0f bd 39 20 10 3f c7 d2 06 3f 8b 9b 23 bc
       -0.03503388 0.5629917 0.5266537 -0.009985815
0001e0 73 98 bf 3d 80 d0 8e be 9b 9a 86 bd 49 21 ce bd
       0.09355249 -0.27893448 -0.065724574 -0.100649424
0001f0 18 ad 91 bd 6a 7d 81 bb bd cb 90 be fe 87 b3 be
       -0.07113093 -0.003951718 -0.2828044 -0.3506469

layers.1.weight f4 [128, 128]
000000 11 72 ff 3d 6c 12 52 3d 95 f8 22 3e cd 44 29 3f
       0.12472928 0.0512871 0.15915139 0.66120607
000010 ca 0d 3e 3d d8 de 83 bd 5b e0 9a bd 7d 45 1f 3e
       0.04639987 -0.064389884 -0.07562324 0.15553851
000020 22 01 48 bd 5d 5e 30 bd ed 44 53 bd 2e 70 4f 3d
       -0.048829205 -0.04305874 -0.051579405 0.050644092
000030 0a d3 a5 bd e1 61 9e bc 98 3e 0d bc b0 2c c7 3c
       -0.08096893 -0.019333782 -0.008620881 0.0243133
000040 8c bc 80 3d 7f 6b d5 3d fe 0c 9e bc 1b b2 46 3d
       0.062859625 0.10420894 -0.019293305 0.0485097
000050 12 dc af ba ff 72 f6 3d 2e 26 0d 3d 4c c3 f2 bd
       -0.0013417026 0.120336525 0.03446024 -0.11853656
000060 27 68 f7 3d 17 43 19 bc f5 8b b2 3d 92 ff 24 3d
       0.12080412 -0.009354374 0.08718101 0.040282793
000070 d8 c3 98 bd d9 35 b4 bd a7 52 61 3d d6 b3 7e 3c
       -0.07459229 -0.08799333 0.055010464 0.015545806
000080 96 5f d9 bd 38 c2 36 3d 0e cb dd bc 2f ea ea 3d
       -0.10613935 0.044618815 -0.027074363 0.11470448
000090 d6 76 37 bd 69 ee 75 bc 3e 00 ab 3d 54 83 ec bc
       -0.044791065 -0.015010455 0.083496556 -0.028871216
0000a0 7b cc 22 3e 17 0d 70 bc b2 c8 b1 bc ae af 0d bb
       0.15898316 -0.014651558 -0.021702144 -0.0021619606
0000b0 ac 2a 53 3d 76 3b d6 bd 00 47 02 3c 22 5a b6 bd
       0.051554367 -0.1046056 0.007951498 -0.0890391
0000c0 fc 33 91 bc 46 07 43 bd b1 86 52 3d ae 7d f2 bd
       -0.017724983 -0.04761436 0.051397983 -0.11840378
0000d0 07 9a 2f 3d 33 bb 2b 3d fb 73 f7 3c 80 49 a7 bd
       0.0428715 0.041926574 0.030206671 -0.08168316
0000e0 ba 8c b9 3d a6 a1 61 bd 78 17 d0 3d f6 94 fb 3d
       0.090600446 -0.0550858 0.10160726 0.122842714
0000f0 35 ca 4f bd 2a 72 ae bd 03 7e ad 3c a7 b9 0e 3d
       -0.05072995 -0.08517869 0.021178251 0.03484502
000100 13 18 a0 bd fb 70 7a bc 58 4b 84 3d 88 8b 99 3d
       -0.07817092 -0.015285726 0.06459683 0.074973166
000110 a0 ea de 3d 3c 94 48 3c 9e 85 17 3c 8a 0e 58 3d
       0.10884595 0.012242373 0.009248165 0.05274824
000120 40 cd 27 3e ac 1c 9d bd f3 24 9b bd 3d 18 c1 3d
       0.1638689 -0.07671484 -0.07575407 0.09428451
000130 40 cd e4 3c 33 e2 09 3e 5e 5e 5a 3d 57 1e 6e 3d
       0.027929902 0.13465194 0.05331265 0.058134403
000140 3e d5 22 3e 42 62 e3 3d 0e 89 7a 3d c3 3f 57 bd
       0.15901658 0.111027256 0.06116586 -0.052551042
000150 41 d0 04 3e af 46 ce 3d ce c8 e4 3d 52 6f 4a 3d
       0.12970068 0.100720756 0.11171113 0.04942257
000160 3b ec a0 3d 1a f9 5e bc 0c ea 16 3e b3 17 bf 3d
       0.078575574 -0.013609195 0.1473772 0.09330692
000170 5a 4d 6e 3b 50 c0 cf bd d0 ed 2c 3e 03 5e d2 3d
       0.0036362023 -0.101441026 0.16887593 0.102718376
000180 e5 8e c8 3d e6 43 8f 3c 88 0e 32 3d ee 29 19 bc
       0.0979288 0.017488431 0.04347089 -0.009348376
000190 a1 05 8e bc 1e bc 1e 3d af 68 c3 3d 38 cb 98 3d
       -0.017336668 0.03875362 0.09541451 0.07460636
0001a0 0f fe e0 bc 8a 54 06 3e 5c f8 0d 3e 32 e4 0e 3e
       -0.027464895 0.13118187 0.13864273 0.13954237
0001b0 ab c9 da 3d ca 9d 6a 3c ff 2e dd 3d fb 0b bd 3d
       0.10682996 0.014319846 0.107999794 0.09230801
0001c0 f7 48 07 3e fe fa 46 bd d4 0e 14 ba 90 48 c2 3d
       0.13211428 -0.04857921 -0.00056479615 0.094864964
0001d0 c2 b3 83 3d 19 2a 14 3e 7a 64 17 bc b0 41 15 3d
       0.064307705 0.14469184 -0.009240264 0.036439598
0001e0 7b cb 0d be 2c 6d 36 bb 17 60 f9 3d 01 b0 dc bd
       -0.13847153 -0.0027836068 0.12176531 -0.107757576
0001f0 ce 98 12 3c b3 13 31 3d 72 4d b4 bc 69 71 5a 3d
       0.008947564 0.043231677 -0.022009585 0.053330813
000200 ed 79 4e 3e a9 0f 2f be 29 da 33 bd 39 b8 53 be
       0.20163698 -0.17095818 -0.043909226 -0.20675744
000210 19 2e fc bd 03 48 84 3e 7a 67 36 3d d4 c0 8d be
       -0.1231348 0.2583619 0.044532277 -0.2768618
000220 cb d2 55 bc 4e a8 0d bd df 7c 7c 3d 9d 06 1d bc
       -0.013050745 -0.034584336 0.061642524 -0.009584096
000230 98 a3 41 3d 8a b4 85 3c 52 45 a1 3d 1b 58 02 be
       0.047275156 0.01632144 0.0787455 -0.12728922
000240 0c 0b 67 be 43 9a df bc 22 ba 20 bc 3b 46 36 bd
       -0.22562808 -0.027295237 -0.0098100025 -0.04450057
000250 ba 15 eb 3d ba 46 0b bd 63 64 bb be 15 6f e7 3b
       0.114787534 -0.034002997 -0.36600026 0.0070628026
000260 9b 88 15 be bf c3 f6 3d 46 84 1c 3e f1 ae 36 ba
       -0.14602892 0.12049054 0.15284833 -0.00069688173
000270 e2 43 21 3e 55 a2 ea bd 45 d2 ac bc 26 a1 1a 3e
       0.15748551 -0.11456744 -0.021096358 0.15100536
000280 78 5f aa 3d 06 72 19 3d 83 28 17 bd 52 e0 f9 3d
       0.083189905 0.037462257 -0.03690387 0.12200989
000290 d8 63 7c 3c dd 27 8b be 0a bf 25 bc c5 7e e1 3d
       0.015404664 -0.2717885 -0.010116348 0.110105075
0002a0 b5 1a 18 be 40 cf 05 be 0b e2 f7 bd 74 0d 1c bd
       -0.14853938 -0.13067341 -0.12103661 -0.038098767
0002b0 ae 57 e7 bd 34 f5 65 3e 54 cf 4e bd 5e 61 53 3e
       -0.112960204 0.22456819 -0.050490692 0.20642611
0002c0 f9 19 d7 3c 8a b0 84 3d b4 84 3d 3e e0 9f 67 be
       0.026257502 0.06478985 0.18507653 -0.22619581
0002d0 53 25 8a 3d fa fd b8 bc 8a d2 9a bd d4 c5 97 bd
       0.067454 -0.022582043 -0.075596884 -0.074107796
0002e0 d0 cd b5 3d a7 e2 12 be 26 16 2d be d3 7f ea bd
       0.08877146 -0.14344274 -0.1690298 -0.11450162
0002f0 7a 38 3d be 79 db 29 3e 82 75 53 bd 3c 91 36 be
       -0.18478575 0.16587628 -0.051625736 -0.1782884
000300 5a 55 c1 be 5d ef eb bb 95 15 5e 3e 2f 06 2e 3e
       -0.3776043 -0.007200165 0.2168792 0.16994546
000310 ea fa 8d be 65 4b 16 be 46 bc 7d bc c0 eb 1b 3c
       -0.27730495 -0.14677198 -0.015486782 0.009516656
000320 b6 02 82 3c 97 1e 27 bb a8 53 b8 be 3a 22 58 3d
       0.015870433 -0.002550041 -0.36001325 0.052767016
000330 24 3b 93 bd ee 53 ee be fe 5c db bc 6f a0 58 bd
       -0.071890146 -0.46548408 -0.02677774 -0.052887376
000340 59 67 db 3d f4 5f bc bc 57 ef fc bd bc 1f a0 3d
       0.107130714 -0.022994973 -0.12350338 0.07818553
000350 d2 24 19 bd e3 6d 83 bd 8f 2c b9 3d de 33 6c 3d
       -0.03738863 -0.064174436 0.09041702 0.057666652
000360 84 16 2d bd 06 e0 16 be 6d 0a 93 3c c1 75 a5 bd
       -0.0422578 -0.14733896 0.017949307 -0.080791004
000370 58 38 96 3e 8d 13 2e bd 35 9c 0d be b0 6e 1f 3e
       0.29339862 -0.042499114 -0.1382912 0.15569568
000380 1e 84 40 be 2b cd 34 3d e1 ff 96 3d be 96 a9 bd
       -0.18800399 0.044140976 0.07373024 -0.08280705
000390 99 b5 28 bf 58 ca 81 3e e2 c1 4b be 11 47 de 3d
       -0.65902096 0.2534969 -0.19898179 0.108533986
0003a0 4d 46 5f be ab f6 7a be 8e cb 64 be ce d3 39 3d
       -0.21804161 -0.24508159 -0.22343275 0.04536801
0003b0 f6 48 a0 bd fb 0c 83 bd 81 93 15 be cd 0f c1 bd
       -0.07826416 -0.0639896 -0.1460705 -0.09426842
0003c0 cb a1 75 3c 38 e8 a7 3c b2 14 02 3e de b1 36 3e
       0.014992188 0.020496473 0.12703207 0.17841288
0003d0 aa a2 6b 3e d5 56 68 bd 71 73 b3 3c d1 f1 30 be
       0.2301127 -0.056723434 0.021905633 -0.17279746
0003e0 f2 d6 0a 3e a7 1a 18 3c 69 0d 09 3d 4f 19 6e 3e
       0.13558558 0.009283698 0.033460055 0.23251842
0003f0 39 b3 32 3c d4 53 d3 bd 63 b1 a3 bd fd 02 8b 3e
       0.010906988 -0.10318723 -0.07992818 0.27150717

layers.1.bias f4 [128]
000000 87 e3 16 3e 7a 61 7b bd ea 89 9d 3d ca e2 2d 3d
       0.14735232 -0.061372258 0.07692321 0.04245261
000010 32 b7 81 bd ab e9 56 3d 29 9a e5 3d bd db da 3d
       -0.0633377 0.052468937 0.11211044 0.10686443
000020 24 75 30 3e a0 0b f9 3d 09 fd b3 bc 0b d5 9e 3d
       0.17232186 0.121604204 -0.021971243 0.077554785
000030 b0 95 54 bc 77 0c 86 3d 61 00 df 3c f3 a9 da 3d
       -0.012975141 0.06545346 0.02722186 0.106769465
000040 c2 b8 23 3e 30 a3 80 bd eb 06 83 bd 17 c2 80 3d
       0.15988448 -0.062811255 -0.06397804 0.0628702
000050 d8 1b 37 3e 78 84 e6 3d f3 88 85 bd df 6d 24 3e
       0.17881715 0.11255735 -0.065202616 0.16057537
000060 7c 35 48 3e 84 58 66 3d 93 30 bf 3d fd e4 87 3d
       0.19551653 0.05623676 0.09335437 0.06635473
000070 bc f2 c7 3d 72 c5 13 3e a2 94 61 3d 4f 1e 38 3d
       0.09763095 0.14430788 0.055073388 0.04495078
000080 0e 9a cc 3d 3e b2 38 3e 90 f8 b0 3d 2d 15 eb 3d
       0.09990321 0.18036744 0.086411595 0.11478648
000090 8c 72 6c 3d 8d 46 da 3d 78 81 68 bd bc 37 44 3e
       0.057726428 0.10657988 -0.056764096 0.19161886
0000a0 7d 1f 38 3d af 43 11 bd 1f ea 48 3d 92 9e 1b 3d
       0.044951905 -0.03546494 0.0490514 0.03799302
0000b0 9a b5 38 bd 6f ac 29 3e 45 67 d1 3d f7 f5 12 3e
       -0.045095064 0.16569684 0.10224775 0.1435164
0000c0 2f 7d 2e 3e 45 16 e3 3d 81 2e 1e 3d 23 a2 f8 3d
       0.17039941 0.11088232 0.03861857 0.121403
0000d0 50 58 29 3e 0a 40 03 3e cc 6c d1 3b 24 ab 47 3e
       0.16537595 0.12817398 0.0063911434 0.19498879
0000e0 ee 3d 1f 3e 95 a1 3a 3e 50 f8 f2 3d 4e 7d 08 3d
       0.15550968 0.18225701 0.11863768 0.033322625
0000f0 a6 ac 1f 3e 38 fa 3d bd 57 9d a9 3a 05 23 ae 3d
       0.15593204 -0.046381205 0.0012940568 0.08502773
000100 69 83 c2 3d d7 fe d2 3c 34 c8 f7 3d 83 a9 08 3e
       0.09497721 0.025756283 0.120987326 0.13345914
000110 c4 79 29 3e 4d 1b 0d 3e 1f 8c 36 3c 7e 87 3d 3e
       0.16550356 0.13779946 0.011141806 0.18508717
000120 e4 aa 54 3d c8 1a 14 3e 45 5b 9a 3c 15 4b 34 3e
       0.051920786 0.14463341 0.018842349 0.17606767
000130 16 eb 4c 3e c4 b7 dd 3c ef 6e a3 3d 53 87 e1 bc
       0.20011553 0.027065165 0.07980143 -0.027530348
000140 84 bb 42 3e dd e1 eb 3d df c6 19 3e d5 59 48 3d
       0.19016844 0.115176894 0.1501727 0.048913796
000150 9a b2 94 bd 39 a1 3f 3e c8 64 d0 bc f8 42 46 3c
       -0.07260628 0.18713845 -0.025438681 0.0121009275
000160 c3 3d 24 3e f8 c0 0a 3d a0 63 11 3e 65 2a 34 3d
       0.16039185 0.033875436 0.1419816 0.043985743
000170 41 39 f4 3d a3 c0 2b 3e 10 47 06 3e c8 6c 8c 3c
       0.11924983 0.16772704 0.13113046 0.017141715
000180 cc d1 0e 3e 58 7c 0f 3e a8 4c 68 3d 50 b0 5f 3d
       0.13947219 0.14012277 0.05671373 0.054611504
000190 b8 79 33 be 2d ba 42 3e 65 42 e4 3d 77 fe e6 bc
       -0.17526901 0.19016333 0.11145476 -0.02819751
0001a0 ae 97 d0 3c 8f 28 bb 3c 45 e3 fc 3d 36 ef 81 3d
       0.025462952 0.022846488 0.12348036 0.06344454
0001b0 e1 78 ad 3d 37 4a d6 3b c2 c3 1a 3d 30 91 2b 3d
       0.084703214 0.006539609 0.037784345 0.04188651
0001c0 8d 24 20 3e c3 33 0a 3e 4e e5 34 bb e1 52 8b 3d
       0.15638943 0.13496308 -0.0027602497 0.06802917
0001d0 de 33 87 3d 8a f7 d0 3d 21 f2 f9 3d 76 7d 8e 3d
       0.0660169 0.10203464 0.122043855 0.069575235
0001e0 0c 7b 9e bd 02 1e 14 3b 25 d9 b0 3d 49 a2 38 3e
       -0.07738313 0.0022600894 0.08635167 0.18030657
0001f0 c0 9d 11 3e 29 dc 5d bd bb 33 05 3e 19 79 22 3e
       0.14220333 -0.05416504 0.13008015 0.15866508

layers.2.weight f4 [64, 128]
000000 bc 7e b3 3d 61 37 5f 3e 39 5e 8d 3c db f2 7f 3e
       0.08764407 0.21798469 0.017256843 0.24994986
000010 b1 32 51 bd 05 8a 9b 3e 64 90 23 3e 37 db 7c bd
       -0.051073734 0.30378738 0.1597305 -0.061732497
000020 d4 67 37 3e 42 f3 27 be 09 a0 76 3f 1d 71 ea be
       0.17910701 -0.16401389 0.96337944 -0.45789424
000030 35 be 9b 3f ea be dc 3a 4d 0f 01 bf 9b c0 58 be
       1.2167422 0.0016841565 -0.5041397 -0.21167223
000040 64 30 1d be 73 ff 17 bd f3 d7 07 bc db cf af 3d
       -0.15350491 -0.03710885 -0.008291232 0.08584567
000050 13 96 4b bf ee 35 4c bd 12 33 1d bd 77 a8 a3 bc
       -0.7952587 -0.04985612 -0.038378783 -0.019977791
000060 a5 f6 51 bf ac b9 71 be 0c 35 49 bf c5 94 e2 3c
       -0.82016975 -0.23605984 -0.7859657 0.02765883
000070 1a d1 5f bf 13 ab fc 3d 8e 8a 3c be 6f a5 9a be
       -0.8742844 0.12337317 -0.1841223 -0.3020434
000080 34 5b f1 bc 7f 13 c2 bd d6 64 c1 3d 70 df 92 be
       -0.029462434 -0.09476375 0.09443061 -0.28686094
000090 9c 06 1c be 3c 04 77 3d 88 a2 d5 bd 4d 3e 8a be
       -0.15236896 0.060306773 -0.10431391 -0.27000657
0000a0 83 a1 0c bc cb e6 0d bf 38 ed 15 bd d1 68 38 bf
       -0.008583429 -0.5543029 -0.036603183 -0.7203494
0000b0 9e 0c 67 bd a8 91 a0 bd 80 3a a1 3d a5 73 67 bd
       -0.056408517 -0.07840282 0.07872486 -0.05650677
0000c0 98 b4 44 3d 9f 41 12 3d 3d 15 fa bd be a9 6f 3d
       0.04802379 0.035707112 -0.12211082 0.05851149
0000d0 8a 7f 94 be 0a f7 42 bf 33 9b 88 3e 51 d5 d9 be
       -0.29003555 -0.761582 0.26680908 -0.4254556
0000e0 98 b0 78 bf 44 bc 57 bf 39 5b 54 be e1 d2 6b be
       -0.9714446 -0.84271646 -0.20737924 -0.23029663
0000f0 da cb 8e be 12 4c f8 3d b6 73 43 bd 6b 30 b2 3c
       -0.278899 0.12123884 -0.047717772 0.021751603
000100 cc 33 02 be f4 b3 0c bd 38 35 f1 be 3b 27 08 3e
       -0.12715071 -0.034351304 -0.47110915 0.13296215
000110 b8 e9 2f bc 9a 1a 05 be d0 6b 47 bd 13 52 9d 3e
       -0.010736875 -0.12998429 -0.048686802 0.3072668
000120 3b 4c 54 3d f3 81 89 bf 39 c4 00 be ac a0 34 be
       0.05183051 -1.0742782 -0.12574853 -0.17639416
000130 a2 b1 05 3d 51 94 a8 3e 7e cf 4c 3d 10 bb 5f 3d
       0.032640107 0.32925656 0.050002567 0.054621756
000140 88 2f 48 be 8d d1 5a bf f0 e0 57 be 01 e2 0f 3e
       -0.19549382 -0.85476 -0.210819 0.14051057
000150 75 a6 d5 3d 43 b7 b7 3d 2e 0f 91 3e cf ef 1c bf
       0.1043214 0.08970501 0.28331894 -0.6130342
000160 49 d0 2a bd 0d a5 85 bd 84 8b 62 bb dd fd 44 bd
       -0.041702542 -0.065256216 -0.003456802 -0.048093665
000170 9a 3c 8f 3d eb 07 47 3e 9a 2c 8a be 2f 6d 2a bb
       0.06993981 0.19436614 -0.26987153 -0.002600502
000180 a2 f1 25 be 6f 23 ad bd 38 9b 01 3c 5e 5b 6a be
       -0.16205457 -0.08454024 0.007910542 -0.22886416
000190 da c5 0e be 6b 6d 75 3e 37 32 e0 be c4 3a 09 3e
       -0.13942662 0.23967521 -0.4378831 0.13401324
0001a0 ce 05 aa bb d5 cc 23 be df 3d 91 3d ff df 39 be
       -0.0051886803 -0.15996106 0.07091879 -0.18151854
0001b0 33 f0 eb 3c 0a e8 ad 3e 7c e9 a3 3e 55 01 8e 3d
       0.02880106 0.33966094 0.32014072 0.06933848
0001c0 8f 6a 96 3b 5a 7d 03 3d 83 79 ba 3e 60 cc c5 3d
       0.0045903395 0.032101966 0.3642083 0.09658122
0001d0 d3 91 2b be 4c 8c b0 bd 2b ad 6b 3d 0c 0f 6a bd
       -0.16754846 -0.086205095 0.057538193 -0.057143256
0001e0 0f bf 17 3f 47 dd c2 bd 6b b3 2a be c1 4a b5 3c
       0.5927591 -0.095148616 -0.16670005 0.022130372
0001f0 1f 47 45 bf 6e 6f b4 bd 5e 0e 2d 3b 7f 02 b3 bd
       -0.7706165 -0.08810316 0.0026406269 -0.087407105
000200 cb 97 27 3d 2d ba 77 be 77 17 8b bd 33 e5 bb 3d
       0.040916245 -0.24192114 -0.06791585 0.09174576
000210 3a 86 0e 3e 2b a5 0d 3e 4d f7 41 bd 99 54 47 be
       0.13918391 0.13832538 -0.047354985 -0.19465865
000220 3f 0b b1 3d d4 de b8 3c 40 5b ef 3e cc ef 2f be
       0.08644723 0.02256719 0.46749306 -0.17181319
000230 0d c5 33 3f 37 74 82 3e 35 99 30 be 2b c7 6b bd
       0.7022255 0.2547929 -0.17245944 -0.05756299
000240 9f 72 86 bb 24 c4 81 3e 28 7a 8f bd 80 7b 16 3a
       -0.0041030194 0.25344956 -0.07005721 0.0005740449
000250 b9 47 0e bc c1 1d d2 3c 12 e8 16 3d ac 11 9d 3c
       -0.008684092 0.025648953 0.036842413 0.019173466
000260 02 59 29 3b e1 c9 fb 3d 71 81 15 be 35 cc 15 bc
       0.0025840406 0.12294365 -0.14600159 -0.009142925
000270 b5 59 04 be 3f 6e b0 3d c3 72 17 3d 90 8b 9f 3c
       -0.12924846 0.08614778 0.03697468 0.019475728
000280 ee ce 74 ba 7a 19 8e 3c c0 85 c5 3b 99 85 ab 3d
       -0.0009338696 0.017346133 0.006027907 0.08375091
000290 62 88 36 3d 75 31 c0 bb a2 da 20 3e 4f 5d 10 bd
       0.04456366 -0.0058652707 0.15708402 -0.035245236
0002a0 ce 0d 11 3e 21 ec 06 bf 4d 06 77 3d fc cb 5a 3c
       0.14165422 -0.52704054 0.060308743 0.013354298
0002b0 1f c3 81 be d7 9d 9e 3d 1a b7 30 bd 1a 5a 6d bd
       -0.25344178 0.07744949 -0.04314337 -0.057947256
0002c0 31 6c 07 3d a0 f1 19 3d 7d c5 87 3e 4b e3 d6 3b
       0.033062164 0.037583947 0.2651786 0.006557857
0002d0 1a ed 8e 3c 05 95 f1 bd d1 f0 93 3e c9 1b b5 bd
       0.017447043 -0.11796001 0.28894666 -0.0884319
0002e0 41 b6 90 bd 36 07 39 be d3 bc c8 bc 0d 80 85 3a
       -0.07066012 -0.18069157 -0.0245041 0.0010185257
0002f0 8b dd 47 bd 2f 1c e3 3d 9a 1f 49 3e 9a a4 b9 3d
       -0.048795264 0.1108936 0.19640961 0.090645984
000300 c7 83 e6 3d 64 d8 c8 3d 40 66 5c be 23 d9 02 bd
       0.11255603 0.09806898 -0.2152338 -0.03194536
000310 fb 70 6e 3d 5b 08 58 3c d0 d5 c1 3d d8 63 b2 3d
       0.058213215 0.013185586 0.094646096 0.0871045
000320 ae 0f bc 3d 9b 68 27 bd e1 2a e6 3c 07 e4 b8 bd
       0.09182678 -0.040871244 0.028096618 -0.09027868
000330 72 7a 2f 3c 91 78 2a bd 0b b2 87 3d 09 28 02 3e
       0.010710346 -0.041618887 0.06625756 0.12710585
000340 0f 0c 92 3d 4f 36 e4 bd 8a 55 31 3d 9d bb 2d be
       0.07131206 -0.11143171 0.043294467 -0.169661
000350 c1 4e f7 3d 2a f1 65 bd 3c 9e a4 3d ca 76 b7 bd
       0.12075568 -0.056138195 0.08037993 -0.08958204
000360 13 70 53 bb 22 0b 8d 3d 1a c0 15 bc 90 10 6b 3d
       -0.0032262846 0.06886889 -0.009140039 0.057388842
000370 9c 58 0e 3d df 20 d7 3c 8d 40 7c 3d fb 42 cd 3c
       0.034752473 0.026260791 0.061584998 0.025056353
000380 cf a9 5a bd 1d 2b ce 3d 00 79 af 3d 9c 26 8b bc
       -0.0533846 0.10066817 0.08568001 -0.016986184
000390 f7 ff 2f bf 6b 6a eb 3b 0f 07 6e 3c ac 6e 2d 3e
       -0.68749946 0.007184317 0.01452805 0.16936749
0003a0 be 49 81 3d 5d 4f cc 3d 04 34 b2 3d b1 46 86 bd
       0.06312893 0.09976075 0.087013274 -0.06556452
0003b0 c3 55 89 bd 19 64 35 3e de e0 27 3e e9 41 d7 3d
       -0.06705811 0.17713965 0.16394374 0.10510618
0003c0 eb ac 8f bc 6a fe b1 3d c1 c3 d8 3d 37 1b 60 bd
       -0.017538508 0.08691104 0.10584212 -0.054713454
0003d0 82 5d 34 bc 6e 5a 78 bc ae 41 9b bd 28 cf 53 bc
       -0.011008622 -0.015158279 -0.07580887 -0.012927808
0003e0 d3 96 a4 3d 03 72 ad bd 9e 29 64 bd e7 75 21 3b
       0.0803658 -0.08469012 -0.05570375 0.0024636926
0003f0 c5 44 34 bd 88 00 46 bd ff c1 e5 3c f1 31 4d bd
       -0.044010896 -0.04834035 0.028046606 -0.050096456

layers.2.bias f4 [64]
000000 54 10 b2 3e 3b 4d 88 3d f1 da bc bd d9 c1 ca 3c
       0.34778082 0.066553555 -0.09221447 0.024750637
000010 66 08 71 3d 61 4a 16 3e 37 6c 39 bd 79 91 a3 3c
       0.0588459 0.14676811 -0.045269217 0.019966828
000020 ed 61 41 3d e0 ec 63 bc a6 4b 2f 3d 49 8c fa 3d
       0.04721253 -0.013911456 0.042796753 0.122337885
000030 4a 53 8b 3c 37 15 d2 3c 97 f8 36 3e 06 42 9f 3d
       0.017007489 0.025644882 0.17868267 0.07776265
000040 1e 19 3c 3d 7b 7a 9c 3d 0c 2a 35 3e 39 a9 c0 3d
       0.04592239 0.07640549 0.17691821 0.09407277
000050 20 55 05 3e 9c 9b 1a 3e e9 b9 69 bd 63 e7 49 3a
       0.13020754 0.15098423 -0.057062063 0.0007702021
000060 db e7 64 3d 89 d9 91 bb ad 6c c8 3d c5 a9 88 3d
       0.055885177 -0.004450981 0.09786353 0.06673006
000070 d0 a8 27 3e f2 5e e1 3d 2c a8 61 bd 1d 1b 18 3e
       0.1637299 0.110044375 -0.05509202 0.14854093
000080 85 69 e3 bd 0f 7f 2d 3e 6b b9 10 3e 91 d2 24 3d
       -0.11104111 0.16943 0.14133231 0.040239874
000090 2b 8e 54 3d 4a a7 ea 3d 68 8a d8 3c 72 ef 91 3c
       0.051893394 0.11457689 0.026433185 0.017814372
0000a0 cf 87 15 bc b7 19 23 bd 30 99 ca bc 35 01 24 3e
       -0.009126618 -0.039819445 -0.024731249 0.16016085
0000b0 2b 89 27 3e 73 e5 33 3e 18 2d ae bb cc 31 d1 3c
       0.16360919 0.17567997 -0.005315434 0.02553644
0000c0 62 69 1d 3e b2 f0 45 bc 94 42 10 3d 1f 59 d2 3c
       0.15372232 -0.012081312 0.035219744 0.025677262
0000d0 76 ac 2f 3e 52 8c 40 3e c6 30 29 3d 81 e2 ad 3d
       0.17155632 0.18803528 0.04130628 0.08490468
0000e0 f5 d2 cc bc 98 34 54 bd ab 98 ae 3c ae 79 5b bc
       -0.025002936 -0.05180797 0.021313032 -0.01339571
0000f0 5d 7a 84 3d 6a 56 22 3e 51 b5 14 bd 40 96 33 3d
       0.064686514 0.15853277 -0.03630573 0.04384446

readout.weight f4 [1, 64]
000000 4e 02 9b 3f 11 23 8b 3e df 44 95 3e 8f 00 4f be
       1.2110078 0.2717519 0.29154107 -0.20215057
000010 65 b9 15 be 7d 71 72 be 57 1b 3a 3d 2d 31 e7 3d
       -0.14621504 -0.23676105 0.04543623 0.112886764
000020 6f 47 0a be af 37 8c 3d 26 3c 6c be 42 4f 69 be
       -0.13503812 0.06846558 -0.2306982 -0.2278414
000030 55 e0 9b 3c b8 2a 8c 3c f6 2e 88 be aa 21 f7 3c
       0.019027868 0.017110214 -0.26598328 0.03016742
000040 b9 0c 29 3f 23 d9 9b 3e 7e 85 e6 be 05 37 59 be
       0.6603504 0.304391 -0.4502372 -0.21212395
000050 e8 64 64 be ee 8a ce be 31 49 97 3a 5a b4 d4 3d
       -0.22304118 -0.4034037 0.0011542198 0.10385962
000060 e3 ff 4d be 8c b2 31 bd ce 15 df be bd 31 6c 3e
       -0.20117144 -0.043383166 -0.43571323 0.23065849
000070 41 c5 84 be af 70 71 be 26 dd 4a 3e 21 12 29 be
       -0.25931743 -0.23578142 0.19810924 -0.16510822
000080 87 2e e7 3d f8 48 1d be 95 6a 71 3f c5 cf 4a be
       0.11288171 -0.15359867 0.94303256 -0.1980582
000090 58 31 86 3d f8 e6 33 be 69 f6 a7 bd 38 e1 33 be
       0.0655238 -0.17568576 -0.08201296 -0.17566383
0000a0 3d 71 db 3d cc e0 35 3c 82 77 0e 3d 66 f8 31 be
       0.10714958 0.011100959 0.03478194 -0.17379913
0000b0 c6 80 23 be 70 81 2b be 76 aa b4 3d a2 27 7f be
       -0.15967092 -0.16748595 0.08821575 -0.24917462
0000c0 ab dc 12 be b8 50 55 3e 85 e4 44 be 3e 85 61 3e
       -0.1434199 0.20831573 -0.19227798 0.22023484
0000d0 7d 9c 65 be a7 1b 36 3f 71 4f 21 be 09 26 67 be
       -0.22422977 0.71135944 -0.1575296 -0.22573103
0000e0 b2 07 d4 3c 85 97 80 3d e1 72 36 be 35 1a 78 3d
       0.025882576 0.062789 -0.1781726 0.060571868
0000f0 f7 6b a1 3e b7 54 29 be 6e a1 9a 3e 73 08 33 3f
       0.31527683 -0.16536222 0.30201286 0.6993477

layers.0.weight f4 [128, 3]
000000 65 38 4a 3f 52 15 de 3e 46 f9 1d 3f e8 44 f2 be
       0.789923 0.4337564 0.61708486 -0.47318196
000010 6b 7b 1b 3f ab fe aa be 7e 2f 5b bc 5e fd 64 3e
       0.60735196 -0.3339742 -0.013378022 0.22362277
000020 54 72 20 bf 9f 4d 67 3e c1 c4 70 be 29 d1 2b 3f
       -0.6267445 0.22588204 -0.23512556 0.6711603
000030 83 67 91 be 4d 6e bd be c0 c8 11 3f bd 0b 44 be
       -0.28399286 -0.36998215 0.56946945 -0.19145103
000040 9c 34 41 bf 7d d6 82 3e 07 69 73 be 49 79 62 bf
       -0.754709 0.25554267 -0.23770534 -0.88466316
000050 6d 60 90 3e 94 ec f3 be f7 57 2d 3e 67 04 05 3f
       0.28198567 -0.47641432 0.16928087 0.5195984
000060 5b 72 5f be 3f a2 ab be e7 d6 12 3f c7 88 18 bf
       -0.21820967 -0.3352222 0.57359165 -0.59583706
000070 b3 94 c5 3e 86 91 3a 3d 9f ed 07 3f e1 ba 36 bf
       0.3859001 0.04554894 0.53096956 -0.71378905
000080 a5 17 8b be f3 5d f8 3e 8a 0f 57 be 2b d7 b0 be
       -0.27166477 0.48509178 -0.21002021 -0.3453916
000090 66 ea 43 3e 2f d5 c3 3e b1 4d bb 3d 84 e6 b2 3e
       0.19132385 0.38248584 0.09145678 0.34941494
0000a0 08 35 12 bf 49 c7 f8 3e 5f 48 18 3f bb c1 df be
       -0.5711217 0.48589543 0.5948543 -0.43702492
0000b0 97 5a 48 bd 1a ff 7d be ba ff 35 bf 19 6f 58 3e
       -0.04891452 -0.24804345 -0.7109333 0.2113613
0000c0 ae f4 28 bf 0a 74 4d 3f 6e 93 18 3f a1 f5 12 be
       -0.6599835 0.80255187 0.5959996 -0.14351512
0000d0 4b a7 56 3d f4 71 cf be af ba 43 3f ff bf 14 3e
       0.052405637 -0.40516627 0.7645673 0.14526366
0000e0 06 fe 5d 3e 94 32 ad bd 9a e9 02 bf e7 a1 f8 be
       0.21678934 -0.08456913 -0.511377 -0.48561022
0000f0 d9 49 63 be 1a 0b d2 3e 2a 30 a1 3e d8 5d 06 bf
       -0.2219614 0.41024095 0.3148206 -0.52486944
000100 04 fb ed 3e 7e 72 75 3e 56 a9 60 be a7 e4 bb 3e
       0.46480572 0.23969457 -0.21939597 0.36697885
000110 59 44 f1 be 40 e8 21 3c 32 ff a3 be 50 9e 61 be
       -0.47122458 0.009882033 -0.32030636 -0.22033048
000120 39 27 56 3e 0c ed c2 be 37 38 10 bf 08 c0 14 bf
       0.209134 -0.38071477 -0.5633578 -0.58105516
000130 74 3f e7 3b 3a 2e 4e 3d c7 2f 09 3f 34 f8 2a bf
       0.0070571247 0.050337054 0.5358853 -0.6678498
000140 ce bc ad 3e 9a 46 df 3e 28 93 f6 be 51 00 2c be
       0.3393311 0.43608552 -0.48159146 -0.16796996
000150 a2 fa fd be fe eb c1 3d f2 bb d6 3d 37 8b ff be
       -0.4960528 0.0946884 0.104850665 -0.499109
000160 a1 aa 0a 3f ff 0b 1a bf de b6 9f be 38 00 72 3e
       0.5416661 -0.60174555 -0.31194204 0.23632896
000170 24 be 14 3f db 33 33 3d ef 0c 12 3f 2f ce 1c bd
       0.5810263 0.043750625 0.57050985 -0.03828257
000180 de 5c 20 3e 03 6c 7a be 36 4e e7 be 5c c5 16 3f
       0.15660426 -0.24455266 -0.45176858 0.58894897
000190 10 05 20 3f 87 12 f1 3e 56 22 64 be ea 46 8f 3e
       0.62507725 0.47084448 -0.22278723 0.2798379
0001a0 96 75 e0 3e 69 9a d9 3e 31 5b 39 3f 55 9e bf 3b
       0.4383971 0.42500618 0.7240477 0.005847732
0001b0 92 1d 48 3e 28 89 59 3f 42 34 c1 3c 1a 0d 85 be
       0.1954253 0.8497491 0.023584489 -0.25986558
0001c0 7c fe 77 be 8c a2 da be 48 da 15 bf 5c 29 04 bf
       -0.24218172 -0.42702138 -0.58536196 -0.5162561
0001d0 22 fe 22 be ee 13 fb 3e 82 48 d5 be e9 18 f7 be
       -0.15917256 0.49038643 -0.41656882 -0.48261192
0001e0 4e 35 77 bd 68 96 b1 3e d0 83 bf be 1f bf 0b bf
       -0.06035357 0.34685063 -0.37405252 -0.545885
0001f0 c1 8d 4f bf 35 46 e3 bd c6 95 9e 3e 10 2e 5c 3f
       -0.81075674 -0.11097375 0.30973643 0.86007786
000200 52 e6 45 be ac d0 25 3d 9b d2 3b bd f5 6e ef be
       -0.19326141 0.040482208 -0.045855146 -0.4676434
000210 8e 69 3b be 23 8a ef be 4a 9d 8c 3e 1d 36 60 3f
       -0.18301985 -0.46785077 0.27463752 0.8758257
000220 e5 3c 32 bf 7f 6c 05 bf 88 d8 96 3d 20 18 2e 3f
       -0.6962417 -0.52118677 0.07365519 0.6800556
000230 d5 79 36 bd 47 5a 16 bf 16 a8 eb be e8 b6 11 bf
       -0.04454978 -0.587315 -0.46026677 -0.5691972
000240 ad f9 38 3d 6a f6 1e 3f a5 c6 df 3e 11 ac 97 be
       0.045159984 0.6209475 0.4370624 -0.29623464
000250 42 77 6d 3f c4 6e 10 3e 5a 1c 98 be 96 43 d4 3e
       0.927601 0.14104754 -0.2970913 0.41457814
000260 56 9a fb be df 44 13 be 6a 4f 32 3f 7d 38 82 3d
       -0.49141186 -0.14381741 0.69652426 0.063584305
000270 e6 ed c6 be 1c 53 5f bf 89 e2 a1 be f7 cc d1 be
       -0.38853377 -0.8723619 -0.31618145 -0.40976688
000280 f4 c9 9f be 4f d5 81 bd af ef c9 3e f8 1a 04 3f
       -0.31208766 -0.063395135 0.39440677 0.5160365
000290 38 87 6b 3e 63 34 31 3f 50 a4 21 3f 1e 72 50 3e
       0.230008 0.6922056 0.63141346 0.20356032
0002a0 8d 09 0a 3f 8d 11 78 be ba 55 48 3e 5f ad 82 3e
       0.53920823 -0.24225445 0.19563952 0.25522897
0002b0 b4 97 dd be 31 7f 07 bf f4 21 0f bf 06 bb 27 bf
       -0.43279803 -0.52928454 -0.55911183 -0.6551975
0002c0 dc 29 d0 bd eb 3a 8d be 47 1a 1d 3f 84 09 9e be
       -0.10164234 -0.27584013 0.6136822 -0.30866635
0002d0 30 75 2d 3f a7 63 07 3f a5 e5 c7 be 5b 7d 0d bf
       0.6775694 0.5288643 -0.39042392 -0.552694
0002e0 a3 b1 f4 3e fb cb 27 3d 2d 57 ef be b6 44 fe bd
       0.47791776 0.040966015 -0.46746197 -0.12415449
0002f0 49 24 b1 bc 9e f0 fc bb 40 89 20 3f 0a 55 87 3d
       -0.021623747 -0.0077191135 0.62709427 0.06608017
000300 23 91 24 be 91 cd 1a 3f 04 9a 65 3e 27 d0 94 be
       -0.1607099 0.6046992 0.22422034 -0.29065058
000310 cd fe 90 bf 30 f3 91 be bf 8f 83 3e 2e de 9c 3e
       -1.1327759 -0.2850585 0.25695607 0.3063826
000320 8f 78 f4 3e 17 d7 d8 bd 69 fd 3f 3f da f3 48 be
       0.4774823 -0.105879 0.7499605 -0.19624272
000330 b7 67 04 be cd 26 3a bf c0 50 dd be a0 05 15 bd
       -0.12930189 -0.72715455 -0.4322567 -0.036382318
000340 00 a6 ae 3e 4c f3 0f bf 71 41 54 3e 1e de f5 be
       0.34111023 -0.56230617 0.20728089 -0.48021024
000350 da d9 02 3f 3c 96 0d bf cd 45 b3 3e 1d ea 93 be
       0.51113665 -0.55307364 0.3501419 -0.28889552
000360 76 93 76 be a6 09 2b bf 53 89 59 be 80 c7 35 3f
       -0.2407969 -0.668116 -0.21243791 0.7100754
000370 5c 1f 40 3e d3 d5 2d 3e 9b ad 8e be f2 19 33 3f
       0.18761963 0.16976099 -0.27866825 0.69961464
000380 c6 e8 4d bd 14 da 04 bf 95 8b 9d 3e 5d db f8 be
       -0.05027082 -0.5189526 0.30770555 -0.4860486
000390 aa ec c4 3e 27 ff bc be 06 57 b6 3e cc 31 95 3c
       0.3846181 -0.36913416 0.3561327 0.018212222
0003a0 dd 0f 24 3f 07 32 2d 3f b7 f7 70 be cb f3 ac 3e
       0.64086705 0.6765446 -0.23531996 0.3377975
0003b0 07 72 6c 3b 91 33 14 bf cf b4 c9 3e 08 e2 a1 3d
       0.0036078708 -0.57891184 0.39395759 0.0790444
0003c0 68 23 f6 3d a9 7b cf be 21 f8 41 be 02 c9 9d be
       0.12018472 -0.40524033 -0.1894231 -0.3081742
0003d0 3b 0b 07 3f 0b f7 06 3f 31 24 09 bf 50 69 55 be
       0.5275151 0.5272071 -0.5357085 -0.20840955
0003e0 46 4d 26 3d 84 26 f4 be 44 79 05 be 79 55 fb be
       0.040601037 -0.47685635 -0.1303454 -0.49088648
0003f0 e3 06 46 3e 5a 0a 3b 3f 4a c7 a0 3e d0 d1 75 3d
       0.19338565 0.7306267 0.31402045 0.060014546

layers.0.bias f4 [128]
000000 cc 27 db be 85 64 aa be 04 ee d4 be bb 7c a8 3e
       -0.428038 -0.33279815 -0.41587842 0.32907662
000010 a7 7d 9e 3d 34 c5 d2 bd a5 98 24 be 66 4a 9c 3e
       0.0773881 -0.1029152 -0.16073854 0.30525512
000020 82 bd d8 be 9b 71 ef 3c 02 99 ff bb 94 48 e6 be
       -0.42332083 0.029228976 -0.0078002224 -0.44977248
000030 0c 97 53 be c2 58 23 3f 4a d6 f6 3e e5 a4 0c be
       -0.20663089 0.6380731 0.48210365 -0.13734777
000040 d3 8e 17 be 56 40 01 3f 8f 75 69 3e 97 0a 9c 3e
       -0.14800577 0.50488794 0.22798751 0.3047683
000050 1d 43 08 3e a1 9c 96 3e 91 5d a1 bd 4f b2 28 bf
       0.13306852 0.29416373 -0.078791745 -0.6589708
000060 3a d8 49 3e d6 b9 2c 3e 58 0e 00 3e 3f 0d dd 3e
       0.1971139 0.16867766 0.12505472 0.43174168
000070 91 e3 5f 3c 85 11 0a be 9a 04 a7 be 6b 7c 16 3e
       0.013665096 -0.13483246 -0.32620698 0.14695899
000080 1f 32 1b 3e 2b 48 d7 be a5 1d fc 3e 70 81 c4 3e
       0.15155838 -0.42047247 0.49241367 0.38380003
000090 8f 8f 41 3e 1b a4 94 bd 4d 00 f7 3e b8 76 80 3e
       0.1890242 -0.07257863 0.48242417 0.25090575
0000a0 5e 49 c7 3c 8f 70 71 be eb 56 8b 3e 3a e6 76 3e
       0.024326976 -0.23578094 0.2721475 0.24111262
0000b0 83 7a 1a 3e a9 f0 14 be e6 6e 3e 3e bb d7 00 3f
       0.15085797 -0.1454493 0.18596992 0.5032918
0000c0 d8 7a 8e 3e ac ef 2c 3f 56 2e f9 bd c3 6d a6 be
       0.27828097 0.6755321 -0.12167041 -0.32505617
0000d0 16 a4 5f 3c 04 18 b3 3e 3f 5f 65 be cd 47 2b be
       0.013649961 0.3497926 -0.22399615 -0.16726609
0000e0 52 c6 4e be b0 bd fe 3e 2c c0 82 3d d3 9b 17 be
       -0.2019284 0.49754095 0.0638431 -0.14805536
0000f0 a2 ba 87 be 57 71 1d be a0 fb 8e 3e 54 8b 6f be
       -0.26509577 -0.15375267 0.2792635 -0.23392993
000100 22 b1 2a 3f 95 11 a0 3d ca 86 61 3e dd aa 71 3e
       0.66676533 0.078158535 0.22024074 0.23600335
000110 1e 85 99 3e 5c fb 80 3e db 6f b6 be e9 1e 86 3e
       0.29984373 0.25191772 -0.35632214 0.26195458
000120 d8 2c ae 3e 1f 8b b7 bd ff e5 51 be da 21 d3 be
       0.34018588 -0.08962082 -0.20497893 -0.41236764
000130 83 2b 04 3f 5d 51 28 bd ca be e1 3e a9 01 06 3f
       0.51628894 -0.04109322 0.44090873 0.52346283
000140 d4 f1 b1 3e 9a 0b f9 3b 16 82 bf 3e dc e0 f1 be
       0.34754813 0.00760026 0.37403935 -0.47241867
000150 cc 45 e6 3e 43 61 4c be 90 8b 12 be 53 fa 1c be
       0.44975126 -0.19958977 -0.14311051 -0.15329866
000160 fd 54 fc be 3d b6 a8 3e 08 73 1e bf 73 df 01 3f
       -0.4928359 0.32951537 -0.61894274 0.5073158
000170 d1 23 ef 3e dc 76 d1 3e 36 90 d3 3e 3a e1 c2 3d
       0.46707013 0.40910995 0.41320962 0.09515615
000180 3e db 08 3e 64 6a 80 3d 86 7f 05 bf 6f f3 e5 bd
       0.13364884 0.062702924 -0.5214771 -0.11228072
000190 0c 3b 0e 3e e0 b1 d0 be 01 96 03 3d d7 65 13 3f
       0.13889712 -0.40760708 0.032125477 0.5757727
0001a0 9f 15 34 be 4e d5 7a 3e 90 3d b4 bd 1a 75 05 3e
       -0.17586373 0.24495432 -0.088008046 0.13032952
0001b0 92 88 9d bc c1 3e e1 bd ee 49 bf 3e 00 9e d7 be
       -0.01923016 -0.109982975 0.3736109 -0.42112732
0001c0 b4 cc 8d 3e a4 d9 84 be b4 87 c2 3e f8 db 3a be
       0.2769524 -0.25947297 0.37994158 -0.18247974
0001d0 2a ec b8 3e 2c 2d 0e 3f ac e0 f3 be 6d cc ea 3e
       0.3611768 0.55537677 -0.4763235 0.4585909
0001e0 d2 96 13 be cd 0b 98 3e 1b 5c ae 3e 9d f3 ea 3e
       -0.14413002 0.29696503 0.34054646 0.45888987
0001f0 85 d0 af 3e b8 20 1b 3d 0c d9 35 3d c2 aa 4a be
       0.34338775 0.037873 0.044396445 -0.19791701

layers.1.weight f4 [128, 128]
000000 ec 3c ff 3d 66 7a bc 3d 05 55 13 bd 80 cf 42 3c
       0.12462792 0.09203033 -0.035969753 0.011890292
000010 fc 6e 13 3d d7 cb 04 be 51 65 28 3d 18 92 7d bc
       0.035994515 -0.12968384 0.041112248 -0.015476726
000020 d1 98 06 3d ea 20 a1 bd d7 e1 83 be 60 30 7d bd
       0.03286058 -0.07867606 -0.2575824 -0.061813712
000030 16 af 8a 3c 25 a2 71 3d 2c 39 f7 bd 04 0b 08 be
       0.01692919 0.058992524 -0.120714515 -0.13285452
000040 6b b8 05 be 21 5b 0d 3d 9c d0 4d bb 41 67 2c 3d
       -0.13058631 0.034510735 -0.0031404858 0.042090658
000050 3e c3 2f bd e9 18 09 be 1a 3a 1b 3d 44 15 00 be
       -0.042910807 -0.13388409 0.037897207 -0.12508112
000060 ac 75 e0 bd 89 cd 34 bd ac fb 7e 3d e6 76 d3 bd
       -0.10959944 -0.044141326 0.06225173 -0.103254125
000070 58 c3 12 be 92 2f ce 3d 3d f9 28 bd b1 0a 55 3d
       -0.1433233 0.10067667 -0.041253317 0.05201215
000080 70 2e 87 3c 0a 75 2a 3d e3 ed ad bd c2 43 ca bd
       0.016501635 0.041615523 -0.08492639 -0.09876205
000090 b8 ef 43 ba 07 a3 9b 3d f1 4c 97 3c 51 2d 98 bc
       -0.00074743805 0.075994544 0.018469306 -0.018576296
0000a0 97 cb be 3c 63 09 75 3d d1 98 03 be cb 17 11 3d
       0.023290439 0.059823405 -0.12851264 0.03542308
0000b0 30 52 dd bb 57 1f 5b bd 67 20 45 3d e6 4d 1f 3c
       -0.0067541823 -0.053496685 0.048126604 0.009723162
0000c0 32 9f b1 bc 3f aa 1d ba ea 6e c4 3c b8 6d 69 3e
       -0.021682356 -0.00060144434 0.02397867 0.2279576
0000d0 83 22 64 3d 07 dc fc bb fb 84 9d 3d c8 8a 45 3d
       0.055696975 -0.007716659 0.0769138 0.048228055
0000e0 f5 c9 6d 3e d0 a5 ba bd db e9 bf bc e1 96 2b bd
       0.23221572 -0.091136575 -0.02342694 -0.041891936
0000f0 92 6b b1 3c c0 ec 95 bc a6 2d 0b bd 34 10 90 3e
       0.021657739 -0.018301368 -0.03397908 0.28137362
000100 59 7f e7 3c 72 b5 c4 bd 43 19 13 bc 21 a8 fd bc
       0.028258966 -0.096049204 -0.008978191 -0.03096396
000110 42 19 ab bd b0 a9 c2 3d 98 d5 d1 bc 0a 39 83 3d
       -0.08354427 0.095050216 -0.025614545 0.06407364
000120 5d fa cb 3c e9 23 d1 3d d2 5d b7 bd 27 13 7c 3a
       0.024899656 0.102119274 -0.08953442 0.0009615891
000130 b5 cc 9d 3d 58 a6 b5 bc b0 bb 68 3c ea 0c 08 3d
       0.077050604 -0.022174045 0.014204904 0.03321544
000140 dd 1b bf bc 1c 75 65 3c 9a 07 1e 3d 2e 6c 16 bd
       -0.023328716 0.014004972 0.03858147 -0.036724262
000150 4c 38 76 bc ed ae e8 3c 18 33 72 ba f8 6b e4 3e
       -0.015028071 0.028403724 -0.0009239181 0.44613624
000160 be c2 47 be 02 54 f3 bd db 34 ac bc 5d ed b6 bd
       -0.19507882 -0.118812576 -0.021021297 -0.08931992
000170 5b 10 74 bc cd 4b ab bd 3b 7b 9e bd 7f 4a eb 3d
       -0.014896478 -0.08364067 -0.07738348 0.114888184
000180 4a fc 9a bc b6 2b be 3d 08 e9 3b 3e e1 17 49 3d
       -0.018919129 0.09285681 0.18350613 0.04909504
000190 f6 a4 2f bd b5 e4 7d 3c eb b0 0b be 2c 21 60 3d
       -0.04288193 0.015496423 -0.13641708 0.054719135
0001a0 4a 8c 81 be a7 df 2e 3d ac 53 9f 3d 5c 62 8b bd
       -0.25302345 0.04269376 0.07779631 -0.0680587
0001b0 7c 46 75 bd c3 78 dc bd 9d e4 6f bd b3 00 a5 3c
       -0.059881672 -0.10765221 -0.058567632 0.020141935
0001c0 22 48 6c bb ad 71 04 bd 45 7e 42 3d 9c e7 d5 3d
       -0.0036053737 -0.032334972 0.0474837 0.104445666
0001d0 5d d6 2c 3c e4 dd 2b 3d bb d8 03 3e 0c bc f9 3c
       0.010549155 0.04195966 0.12875645 0.030485176
0001e0 08 9b 0a 3d 4c 99 a3 bd f6 f9 9a 3c ca 7b 17 bd
       0.033839256 -0.079882234 0.018918019 -0.03698329
0001f0 0e 09 bf bb b8 dc 21 3d 2b 24 be bd e5 18 30 3d
       -0.005829937 0.039517134 -0.09284242 0.04299249
000200 e2 61 bc bc c4 9d 1d 3e 01 54 ce bd 51 c8 a4 3d
       -0.022995893 0.15392214 -0.10074616 0.0804602
000210 23 ce 37 bd 21 de c5 bd fc e1 68 3d 88 59 44 bd
       -0.04487432 -0.09661508 0.05685614 -0.047936946
000220 cd 7d 5d bd 03 d4 d2 3b eb c0 75 3d d3 5e 6a be
       -0.05407505 0.006433965 0.059998434 -0.22887735
000230 01 9c 56 3d c0 b0 c4 3c f7 ce 0c bd 06 92 2f bd
       0.05239487 0.024010062 -0.034377065 -0.04286387
000240 b4 b2 3c 3d ad 50 db bd 69 67 3a 3d d3 68 dc bc
       0.046068862 -0.10708747 0.045508776 -0.026905453
000250 09 0f 7f 3d 3e fb 63 3b 17 e7 0d 3e 29 5b f0 bd
       0.062270198 0.0034787203 0.13857685 -0.117361374
000260 98 d4 1e be 35 41 4f bc 5b d5 7b bd f2 aa 01 be
       -0.15510786 -0.012649824 -0.06148277 -0.12662867
000270 dc ea a1 3d 5b e8 03 3e 46 7a 18 3d 2c 10 27 bc
       0.07906124 0.12881605 0.037225984 -0.010196727
000280 c6 de d0 bd 8b 9d 9a 3c 95 30 94 bb d4 cf df bc
       -0.10198741 0.01887395 -0.004522393 -0.02732078
000290 c0 6e 05 be bb 2d f3 3d 34 1a 47 be c7 bf 3d bd
       -0.13030529 0.11873957 -0.1944359 -0.04632547
0002a0 32 14 ee 3d 54 c8 2d bf 50 aa 96 bd 3a ce 3b 3d
       0.11624946 -0.678838 -0.07356703 0.04585097
0002b0 90 3f e6 bc a3 f5 fb bd e4 85 fa 3d d4 0e 0c be
       -0.02810648 -0.12302711 0.12232569 -0.13677531
0002c0 67 54 24 3d 98 0c 53 bd 5a 8b 28 3d 28 5c 14 3e
       0.040119555 -0.051525682 0.04114852 0.1448828
0002d0 f2 c7 fc bd 1b c3 07 3d 29 c7 74 bd 59 18 d2 3d
       -0.12342824 0.03314505 -0.059760246 0.1025855
0002e0 5d 96 21 3e 68 07 af 3d f0 02 34 be 5d d5 11 3e
       0.15780015 0.085463345 -0.17579246 0.14241548
0002f0 2b 01 ce bd 29 60 a0 3c 6c b5 23 3d 64 84 86 3d
       -0.100588165 0.019577103 0.03996794 0.0656822
000300 fc 44 8a bd a0 86 17 bf 5c 76 3a bd 8d a9 fa 3d
       -0.06751439 -0.59189796 -0.045523033 0.122393705
000310 3c 41 30 3d 22 51 00 3e 18 a3 e0 bb ad 4c 28 3d
       0.043030962 0.1253095 -0.00685538 0.04108875
000320 33 97 03 bf 36 90 7e 3b 50 dd 3d 3d fe 6f 87 3d
       -0.51402587 0.003884328 0.04635364 0.06613158
000330 a0 96 24 3d 3f 2c af bc af 27 91 bc a2 c5 ab 3d
       0.04018271 -0.021383403 -0.017719118 0.08387305
000340 22 d3 92 3d 40 db fc 3c e8 17 59 3d a9 da c2 bd
       0.07169177 0.030866265 0.053001314 -0.09514362
000350 58 12 9d 3d d1 3c cc 3d 4a 57 9a 3d c8 21 12 3e
       0.076695144 0.09972537 0.0753618 0.14270699
000360 a1 cd a1 be fa 01 17 3d f3 00 2a be 29 0e 19 be
       -0.31602195 0.03686712 -0.16601925 -0.14946808
000370 6f 24 c1 3d 07 79 6c bd 9d de 01 be f6 15 9e 3d
       0.09430777 -0.05773261 -0.12682576 0.077190325
000380 4c 5b 90 bd 5a 88 0b 3d fb 93 14 3e 91 10 f5 3d
       -0.070486635 0.03406558 0.14509575 0.119660504
000390 7f f4 ac bd 81 b5 47 bd 30 e0 3d bd f6 1f 32 bd
       -0.084450714 -0.04875708 -0.04635638 -0.04348751
0003a0 5b f0 2d bd bf fe 96 3d b8 17 72 3d b5 7b 5b bd
       -0.04246555 0.07372808 0.05910465 -0.053584773
0003b0 3e eb d7 ba 43 a9 85 3d 53 cc 2c bd a8 d3 c8 3c
       -0.0016473306 0.06526425 -0.042187046 0.024514988
0003c0 66 22 f8 bc e3 79 f8 bd b3 7e 59 3d 66 eb 18 bd
       -0.03028984 -0.12132623 0.053099345 -0.03733387
0003d0 a8 08 37 be 4c 8a 8f 3d 6c 60 f0 3d 3e 24 0b 3e
       -0.17874396 0.070088 0.11737141 0.13588044
0003e0 3b fb d7 3d b4 b3 ca 3c 9b 8e 7c b9 52 e4 8d bc
       0.10545965 0.024743892 -0.00024085717 -0.017320786
0003f0 a2 77 e7 3d ec 4c 98 3b e8 7e 32 3c d1 b2 e5 3d
       0.11302115 0.0046478417 0.010894515 0.11215747
