HW9/9_gym-DDPG/results/DDPG_Pendulum-v1_500-eps0.1-t32-l0.0001-s1-u20.pth (torch, 176234 bytes, 12 tensors)

layers.0.weight f4 [128, 4]
0	0x3e8098fb	0.25116715
1	0xbf0a5e73	-0.5405037
2	0xbe6341df	-0.22193097
3	0x3e34e951	0.17667128
4	0xbf1099e6	-0.5648483
5	0x3db73052	0.08944763
6	0xbdfbcf6b	-0.12295421
7	0x3e52b912	0.20578411
8	0xbced6023	-0.028976506
9	0x3dd5efc6	0.10446124
10	0x3d4c1336	0.04982301
11	0xbbd5ab93	-0.0065206974
12	0x3f0fc8e6	0.5616592
13	0xbec81536	-0.39078683
14	0xbd968341	-0.073492534
15	0xbd6e4f0b	-0.05818085
16	0xbd243ca1	-0.040096883
17	0x3e9fd051	0.3121362
18	0x3ef00437	0.46878216
19	0x3d8c2124	0.068422586
20	0xbe7000df	-0.23437832
21	0xbee0473e	-0.43804353
22	0x3e11ad50	0.1422627
23	0x3d59fd02	0.053219803
24	0xbea2bf61	-0.31786636
25	0x3ec470c7	0.38367292
26	0x3eb2a915	0.34894624
27	0x3ddb43bb	0.10706278
28	0xbf0d7c45	-0.55267745
29	0x3f33503a	0.7004429
30	0x3dd852bd	0.10562656
31	0x3e815f59	0.25268057
32	0x3f0532d7	0.520307
33	0xbee43086	-0.4456827
34	0xbf044dee	-0.5168141
35	0xbea1711c	-0.31531608
36	0x3ebf5708	0.37371087
37	0xbd03ba2d	-0.032159973
38	0x3e804ad8	0.250571
39	0xbeb52b4b	-0.35384592
40	0x3ef75d31	0.48313287
41	0xbe0fa990	-0.14029527
42	0x3edfe449	0.43728855
43	0x3ca79f04	0.020461567
44	0xbebaa8bf	-0.36456868
45	0xbd493907	-0.04912665
46	0xbe92443f	-0.28567693
47	0x3e89f3f4	0.26943934
48	0xbebf3370	-0.3734393
49	0xbdff3ab9	-0.12462372
50	0xbefed4f8	-0.49771857
51	0xbe08ef3d	-0.13372512
52	0x3e9cda88	0.30635476
53	0x3c965071	0.018348904
54	0x3f08ef39	0.53490025
55	0x3efa82fb	0.48928055
56	0xbe0adc0b	-0.13560502
57	0xbe94fe64	-0.29100335
58	0x3ebc01fc	0.36720264
59	0x3d3576da	0.0443028
60	0xbec09286	-0.3761179
61	0x3f35a84f	0.70959944
62	0x3e749bc1	0.2388754
63	0x3e965818	0.29364085
64	0xbec6d322	-0.38832957
65	0xbec62ab4	-0.38704455
66	0x3d0e8813	0.03479774
67	0x3cd4d30d	0.025979543
68	0xbf0ee8ed	-0.55824167
69	0xbc9b1097	-0.01892881
70	0x3eb9bd74	0.36277354
71	0xbdf21fbd	-0.1182246
72	0x3e92d383	0.28676996
73	0x3e97b775	0.29632154
74	0x3e651b86	0.2237378
75	0xbcb4af07	-0.022056116
76	0x3dd98aa7	0.10622149
77	0x3ea5ecc7	0.3240721
78	0xbefea787	-0.49737188
79	0x3ef2952d	0.47379437
80	0xbee58a00	-0.44831848
81	0xbf299848	-0.6624799
82	0xbcd124ea	-0.025530297
83	0xbdcda4f1	-0.10041226
84	0x3eb5657b	0.35428986
85	0xbf2efc77	-0.6835398
86	0xbed62511	-0.41825154
87	0x3eac9528	0.33707547
88	0xbdd3a237	-0.103336744
89	0x3f101874	0.5628731
90	0x3e2885b6	0.16457257
91	0xbea87ad2	-0.32906204
92	0x3aef9be1	0.0018280708
93	0x3e185608	0.14876568
94	0xbeb3983b	-0.3507708
95	0xbe42b999	-0.19016112
96	0x3d74b389	0.05974153
97	0xbe0c57c5	-0.13705356
98	0xbd97a10c	-0.07403764
99	0xbd66a15e	-0.056306235
100	0x3eb5f24c	0.3553642
101	0xbdc7282b	-0.09724458
102	0x3eb90fdf	0.3614492
103	0x3e06eb23	0.13175635
104	0xbeead5d8	-0.45866275
105	0xbf04a412	-0.5181285
106	0x3f05f5f2	0.5232841
107	0x3d10e126	0.03537097
108	0x3eb973cc	0.36221159
109	0x3eb211bb	0.34779152
110	0x3d9c2ec7	0.076261096
111	0x3e60fef3	0.21972255
112	0x3eefae5e	0.4681272
113	0xbf17aeed	-0.5925129
114	0x3d1de28d	0.038546134
115	0x3e605d55	0.21910603
116	0x3ea61b04	0.32442486
117	0x3ee17fba	0.4404276
118	0xbec5f9f0	-0.3866725
119	0xbecd5842	-0.40106398
120	0xbf0d677d	-0.55236036
121	0x3f094cbb	0.53632706
122	0x3f02c5e1	0.5108319
123	0xbeb3e483	-0.35135278
124	0x3eedd58e	0.46451992
125	0xbecb572d	-0.39714947
126	0xbef72236	-0.48268288
127	0x3bf037aa	0.0073308544
128	0x3e59a1cf	0.21253131
129	0x3f19a486	0.6001667
130	0xbeaa2022	-0.3322764
131	0x3e480160	0.19531775
132	0x3f535a23	0.8255941
133	0x3f321750	0.6956682
134	0x3eb3a337	0.3508546
135	0x3e497e9d	0.19677205
136	0x3e9de7a4	0.3084079
137	0x3e078171	0.13232972
138	0xbeba59c8	-0.36396623
139	0xbeab40ed	-0.33447972
140	0xbed24725	-0.41069904
141	0xbead9e43	-0.33909807
142	0xbe565344	-0.20930201
143	0x3d7a6750	0.061133683
144	0xbbcd9285	-0.00627357
145	0xbe072d8d	-0.1320097
146	0x3e6f7962	0.23386148
147	0x3e418ae9	0.18900646
148	0x3ead696c	0.33869493
149	0x3ed0eb60	0.40804577
150	0xbe2cc895	-0.16873391
151	0x3f08e4ad	0.5347393
152	0xbe4f8a7b	-0.2026767
153	0xbe57de8c	-0.21080989
154	0xbedd2c3d	-0.43197814
155	0xbec3f24b	-0.38270792
156	0xbefa8ede	-0.48937124
157	0x3d8e0d10	0.06936085
158	0x3ed063ab	0.4070104
159	0xbe206519	-0.15663566
160	0xbeed8715	-0.46392122
161	0x3e81db2c	0.25362527
162	0x3ddf1d31	0.1089424
163	0x3e6c88c4	0.23099047
164	0xbee05bea	-0.43820125
165	0xbebc2074	-0.3674351
166	0xbe5ae42b	-0.21376102
167	0x3ddfc092	0.10925402
168	0xbf02b90c	-0.5106361
169	0xbf0f12b3	-0.5588791
170	0xbda8bec5	-0.082395114
171	0x3e5081b7	0.20361982
172	0x3dce7e99	0.1008274
173	0x3f172814	0.5904553
174	0x3efa6258	0.48903155
175	0x3eddfd64	0.43357384
176	0x3ebc179a	0.36736757
177	0x3c447164	0.011989925
178	0xbed26453	-0.41092166
179	0x3ea77731	0.32708123
180	0xbeb33c28	-0.35006833
181	0xbe25e7e5	-0.16201742
182	0xbed8271e	-0.42217344
183	0x3c695a56	0.014242729
184	0xbf04614f	-0.5171098
185	0x3e831860	0.25604534
186	0xbef31f6b	-0.47484908
187	0xbe8d9157	-0.27649948
188	0xbd917cae	-0.07103859
189	0xbe9443fd	-0.2895812
190	0x3e4e1793	0.2012618
191	0xbe2ccdfd	-0.16875453
192	0xbecdc90c	-0.4019245
193	0x3ee6adb1	0.4505439
194	0x3eb3297d	0.3499259
195	0xbed9a4f9	-0.42508677
196	0x3ee2388b	0.44183764
197	0x3f289362	0.6584989
198	0x3effdb3d	0.49971953
199	0xbec74779	-0.38921717
200	0x3d9b70c8	0.07589871
201	0xbf051926	-0.519915
202	0x3ef3a68c	0.47588003
203	0xbdc3cf83	-0.09561064
204	0x3ea6b197	0.32557365
205	0x3d27233f	0.040805098
206	0xbe1207a4	-0.14260727
207	0xbda76aeb	-0.0817469
208	0xbd51cc76	-0.05122038
209	0x3f10de66	0.56589353
210	0x3b2da761	0.002649747
211	0x3d95d462	0.073158994
212	0xbef52a9c	-0.4788407
213	0x3f3d28e9	0.7389055
214	0x3ed600b2	0.41797405
215	0x3e940151	0.28907254
216	0x3f0f2152	0.5591022
217	0xbf2e85cd	-0.68172914
218	0xbe9d8ab8	-0.30769897
219	0x3ed1e1a3	0.4099246
220	0xbf1e672c	-0.6187618
221	0x3e0feb77	0.14054666
222	0xbecc94d0	-0.39957285
223	0xbe6b1ce5	-0.22960241
224	0x3ed67cb1	0.41892007
225	0xbf456e7b	-0.77121705
226	0xbd9b6b53	-0.0758883
227	0x3e0dadeb	0.13835876
228	0x3e79a55c	0.24379486
229	0x3f1bad24	0.60811067
230	0xbe64be35	-0.22338183
231	0xbebc1ceb	-0.36740813
232	0x3f4b78b4	0.79481053
233	0xbeaef11b	-0.34168324
234	0xbe856fa9	-0.26061752
235	0x3d9c2163	0.076235555
236	0xbebe33bf	-0.37148854
237	0x3f0a2e25	0.5397666
238	0x3e9df6a6	0.3085224
239	0xbecfd55f	-0.40592477
240	0xbf0fd27f	-0.56180567
241	0x3eff5fc0	0.4987774
242	0x3e672047	0.22570907
243	0xbce56a23	-0.028004711
244	0xbef2fbd9	-0.4745777
245	0xbeb81000	-0.35949707
246	0xbef7bb4d	-0.48385087
247	0xbe08dc87	-0.13365375
248	0xbec9cb0e	-0.3941273
249	0x3f3d9b10	0.7406473
250	0x3ecba3c0	0.3977337
251	0xbe3378d0	-0.17526555
252	0xbdbca220	-0.092106104
253	0x3eb0adaf	0.3450751
254	0xbd8ccd3e	-0.06875084
255	0xbe7a9f4e	-0.24474832

layers.0.bias f4 [128]
0	0xbeca4d57	-0.3951213
1	0x3eef5b99	0.4674957
2	0x3ee119d2	0.43965012
3	0xbef8cfb5	-0.48595968
4	0xbee21cc9	-0.44162586
5	0xbe9b1296	-0.30287617
6	0xbe4bc674	-0.19899923
7	0x3e4369c2	0.19083312
8	0xbeeee20d	-0.46656838
9	0xbed79edd	-0.4211339
10	0x3e7a9850	0.24472165
11	0x3bdd0727	0.0067452374
12	0xbe17fb75	-0.14842017
13	0xbee8445b	-0.4536465
14	0x3e8ba268	0.27272344
15	0x3e49288e	0.19644377
16	0xbda0e393	-0.07855906
17	0xbdfcc0e5	-0.12341479
18	0x3dfed0bc	0.12442157
19	0x3e944183	0.2895623
20	0x3e99289a	0.2991379
21	0x3e816ad2	0.2527681
22	0x3da77da4	0.08178261
23	0xbef2d3bb	-0.47427163
24	0x3efe55d7	0.49674866
25	0x3d76ffeb	0.060302656
26	0xbea0346c	-0.31289995
27	0x3f13adc2	0.5768701
28	0x3e8960f9	0.26831797
29	0xbed98a01	-0.424881
30	0xbe0f23eb	-0.13978545
31	0xbe837acb	-0.2567962
32	0xbeaa1112	-0.3321615
33	0x3e84d43c	0.25943172
34	0xbeec6639	-0.4617174
35	0x3f1809e0	0.5939007
36	0xbe8911db	-0.26771435
37	0x3ec5ef40	0.38659096
38	0x3e32c3f8	0.17457569
39	0xbdc3d1ca	-0.095614985
40	0x3ef4e38a	0.4782985
41	0xbe82afab	-0.2552465
42	0xbdaffe7a	-0.085934594
43	0x3d8e0bd6	0.06935851
44	0x3ec6deef	0.3884196
45	0xbe4bf1f5	-0.19916518
46	0xbe6bfa74	-0.23044759
47	0xbed0170c	-0.40642583
48	0xbdceca50	-0.10097182
49	0xbe0fb269	-0.14032902
50	0xbe28de5b	-0.16491072
51	0xbe80f560	-0.25187206
52	0x3e97031a	0.29494554
53	0x3e00668e	0.12539122
54	0xbe8768c8	-0.2644713
55	0xbde8a88e	-0.11360274
56	0x3da2ac22	0.07942988
57	0x3ddc8437	0.107674055
58	0x3eb06d18	0.34458232
59	0x3da2cf42	0.079496875
60	0xbe657841	-0.22409154
61	0xbea25f47	-0.31713316
62	0x3d258ae6	0.040415667
63	0xbd6c13fc	-0.057636246
64	0x3e307960	0.17233801
65	0xbe0e914b	-0.13922612
66	0x3e1368eb	0.14395492
67	0xbe3d36d1	-0.18477942
68	0x3f015ba5	0.50530463
69	0x3e9a045d	0.30081454
70	0x3e1a9ba6	0.15098438
71	0x3f1b869c	0.6075227
72	0x3e8ca68d	0.27470818
73	0xbeabec09	-0.33578518
74	0xbd9e46bb	-0.077283345
75	0x3edc8535	0.4307038
76	0x3ea588d3	0.3233095
77	0x3f069bf8	0.5258174
78	0x3dc1abaf	0.09456574
79	0x3efb21b1	0.49049142
80	0x3ea7136b	0.32632002
81	0x3e475b26	0.19468364
82	0x3d01dc0d	0.031703997
83	0x3e80b10d	0.2513508
84	0x3e7178bc	0.23581213
85	0xbd005cff	-0.031338688
86	0x3e0fde59	0.14049663
87	0x3f20737a	0.62676203
88	0x3ee2fbb3	0.44332656
89	0xbcb33b92	-0.021878991
90	0x3f1cc7bc	0.6124227
91	0x3ea06821	0.31329444
92	0xbe7e9e86	-0.2486516
93	0xbee478a2	-0.44623286
94	0x3eda6765	0.4265701
95	0x3f0fdcb6	0.56196153
96	0xbdc69987	-0.09697252
97	0x3eadb938	0.33930373
98	0xbd0bb42d	-0.034107376
99	0xbdfc429a	-0.12317391
100	0x3d4b6a0d	0.049661685
101	0x3e9681d0	0.29395914
102	0xbd50103b	-0.05079673
103	0x3ed03682	0.40666586
104	0x3e96a2fb	0.2942122
105	0x3ebb3de1	0.36570647
106	0x3f1d3698	0.6141143
107	0x3e99b7c0	0.30023003
108	0x3e87ac3c	0.26498592
109	0xbec4a65a	-0.38408166
110	0x3f01ea5a	0.5074822
111	0x3de9171c	0.11381361
112	0x3ede5445	0.43423668
113	0x3eed7d82	0.46384817
114	0x3d322890	0.043495715
115	0x3ea25ca5	0.31711307
116	0x3b8da446	0.0043225614
117	0x3f132b9c	0.5748842
118	0x3f074be8	0.528502
119	0xbd3e8f6d	-0.0465235
120	0x3d89af7f	0.06722926
121	0xbe75383a	-0.2394723
122	0xbd35cb91	-0.04438359
123	0xbd279e74	-0.040922597
124	0x3c20ec95	0.009822031
125	0xbbba42f4	-0.005684251
126	0xbea8e7de	-0.329894
127	0xbeb1595f	-0.34638497

layers.1.weight f4 [128, 128]
0	0x3daeec76	0.08541195
1	0x3d6416ae	0.05568569
2	0x3e23e575	0.160055
3	0x3f080f64	0.53148484
4	0x3d1e64f4	0.038670495
5	0xbd9875e7	-0.07444363
6	0xbda6452e	-0.08118664
7	0x3e24dc28	0.16099608
8	0xbd4d622c	-0.050142452
9	0xbd816866	-0.063187405
10	0xbd766fe3	-0.060165297
11	0x3d4e040d	0.050296832
12	0xbd9d428f	-0.07678711
13	0xbd03f245	-0.032213468
14	0xbc0dc7a8	-0.008653559
15	0x3c3d7b70	0.011565074
16	0x3d8ff0b5	0.07028333
17	0x3dc9cd4b	0.0985361
18	0xbc8ebb03	-0.017423159
19	0x3d3c4d5c	0.045972213
20	0x3c8b9f45	0.017043719
21	0x3dd8c6d2	0.10584797
22	0x3d14412a	0.036194958
23	0xbdf0a21d	-0.11749671
24	0x3e0262fc	0.12733072
25	0xbc780ea9	-0.015140214
26	0x3da6baee	0.08141123
27	0x3d163e7b	0.03668068
28	0xbd9bf6c2	-0.07615425
29	0xbda52638	-0.0806393
30	0x3d4cee2b	0.050031822
31	0x3c3ab978	0.011396758
32	0xbde52e95	-0.111905254
33	0x3d472381	0.048617844
34	0xbcbd036c	-0.02307292
35	0x3df0fe85	0.11767296
36	0xbd63ceea	-0.05561725
37	0xbcfb43f2	-0.030672047
38	0x3db84c5f	0.08998942
39	0xbd028b0d	-0.03187089
40	0x3e1bb239	0.15204705
41	0x3bd08863	0.006363915
42	0x3bf8d7a2	0.007594065
43	0xbc3703da	-0.011170352
44	0x3d35a048	0.04434231
45	0xbdca7ed3	-0.09887471
46	0x3c8d82b1	0.017274233
47	0xbde41572	-0.11136903
48	0xbce8bc7e	-0.028410193
49	0xbd57207f	-0.052521225
50	0x3d3f602f	0.046722587
51	0xbde044f7	-0.10950654
52	0x3d255a26	0.040369175
53	0x3d001290	0.031267703
54	0xba84e34f	-0.0010138544
55	0xbda068de	-0.07832502
56	0x3d882605	0.06647877
57	0xbd450590	-0.048101008
58	0x3df9c6e1	0.12196136
59	0x3deb6852	0.11494507
60	0xbd2a30cd	-0.041550446
61	0xbd9a45bd	-0.07532833
62	0x3c38c631	0.011277721
63	0x3cfb6143	0.030686026
64	0xbd944201	-0.07239152
65	0xbd0abcd9	-0.033871505
66	0x3d9544b3	0.07288494
67	0x3d9ce460	0.076607466
68	0x3de50df4	0.11184302
69	0x3ca18e90	0.0197213
70	0x3ae114ef	0.0017172376
71	0x3d4b2e2a	0.049604572
72	0x3e2fc6c9	0.17165674
73	0xbdb1189e	-0.086472735
74	0xbd62aac7	-0.055338647
75	0x3dbbe91c	0.091753215
76	0x3cc22b3f	0.023702262
77	0x3e115a3f	0.14194582
78	0x3d6c3676	0.057669125
79	0x3d330e1b	0.043714624
80	0x3e25edcb	0.16203992
81	0x3dc6b8c7	0.09703212
82	0x3d7b1db7	0.061307635
83	0xbd3a3222	-0.045457967
84	0x3e05415a	0.13013211
85	0x3dd143da	0.1021802
86	0x3db9d426	0.09073667
87	0x3d3a7c3a	0.045528628
88	0x3d964375	0.07337085
89	0xbc87636f	-0.016526906
90	0x3e1bc444	0.15211588
91	0x3dc8e191	0.098086484
92	0xbbe405c2	-0.006958694
93	0xbdf13704	-0.117780715
94	0x3e1e5780	0.15463066
95	0x3dd7c735	0.105360426
96	0x3db6b594	0.08921352
97	0x3c94e0e8	0.01817365
98	0x3d275de4	0.040861025
99	0xbc8ba6b6	-0.017047267
100	0xbca8174b	-0.02051892
101	0x3cdbabe3	0.02681536
102	0x3d7f8a93	0.062388014
103	0x3da8f959	0.08250684
104	0xbca31656	-0.019908112
105	0x3e0ab7b5	0.13546641
106	0x3e1821d2	0.14856651
107	0x3e219073	0.15777759
108	0x3de79851	0.11308349
109	0xbb81dccb	-0.003963088
110	0x3dea043a	0.114265874
111	0x3da888ae	0.082291946
112	0x3e061399	0.13093413
113	0xbd532756	-0.051551186
114	0xbae4bed0	-0.0017451886
115	0x3dc36331	0.09540404
116	0x3d87dc70	0.06633842
117	0x3e1d9c45	0.15391643
118	0xbc0f2141	-0.008735956
119	0x3d31bb95	0.043391783
120	0xbdf233bf	-0.11826276
121	0xbce0c51c	-0.02743774
122	0x3df583de	0.11988042
123	0xbdf90082	-0.121583
124	0x3be0587f	0.006846487
125	0x3d55c280	0.052187443
126	0xbc069ce4	-0.008216117
127	0x3d1f48d9	0.038887832
128	0x3e0b54e2	0.13606599
129	0xbdfc0c02	-0.12306978
130	0xbc8c6bf1	-0.017141314
131	0xbda7d7f2	-0.08195485
132	0xbe221f23	-0.1583219
133	0x3e6ab68c	0.22921199
134	0x3c8a9766	0.016917896
135	0xbe85b399	-0.26113585
136	0x3d48f4b4	0.049061492
137	0xbdea1d43	-0.114313625
138	0x3d7dc67c	0.061956868
139	0xbe319b92	-0.17344502
140	0xbdd165ec	-0.10224518
141	0xbb4becca	-0.003111648
142	0x3d9f686e	0.0778359
143	0xbe10cd08	-0.14140713
144	0xbe57d0b9	-0.21075715
145	0xbd3a2d48	-0.04545334
146	0xbc8ed6f5	-0.017436484
147	0xbe1b5490	-0.15168977
148	0x3e11ad4e	0.14226267
149	0x3c134ad9	0.008990013
150	0xbeb53110	-0.35388994
151	0x3be76f15	0.0070628026
152	0xbd974dc9	-0.07387883
153	0x3ded362f	0.115826
154	0x3e0bfb79	0.13670148
155	0x3cb6dc8d	0.022321964
156	0x3e3b3f77	0.18285929
157	0xbdef65d5	-0.11689345
158	0xbd3c82c0	-0.04602313
159	0xbcc01090	-0.023445398
160	0x3daa5f78	0.083189905
161	0x3d2eb7a7	0.042655613
162	0xbd2c461c	-0.04205905
163	0x3d825066	0.06362991
164	0xbbec52c1	-0.0072120135
165	0xbe81204b	-0.2521995
166	0xbd0e4486	-0.034733318
167	0x3dbb78fa	0.09153934
168	0xbe13c7dc	-0.14431709
169	0xbdfc1d70	-0.12310302
170	0xbda00624	-0.07813671
171	0xbd4f2dd5	-0.05058082
172	0xbdd1f22f	-0.10251271
173	0xbc92d359	-0.017923044
174	0xbcd49102	-0.025948051
175	0x3e200d0b	0.15629975
176	0xbb9f133b	-0.0048545874
177	0x3d1caf36	0.03825303
178	0x3e345e72	0.17614153
179	0xbe8f3cec	-0.27976167
180	0xbd1064aa	-0.03525225
181	0xbd29bd34	-0.041440204
182	0xbd4095d3	-0.047017884
183	0x3c99aed4	0.018760122
184	0x3dfe0aa8	0.12404376
185	0xbea167e7	-0.31524584
186	0xbdcf2c84	-0.101159126
187	0xbe07cee1	-0.13262512
188	0xbe5b5819	-0.21420325
189	0xbd6c86e1	-0.057745818
190	0xbd908d1d	-0.07058165
191	0xbdfd8735	-0.12379304
192	0xbf069cc4	-0.52582955
193	0xbdd21b40	-0.10259104
194	0x3e63797c	0.22214311
195	0x3e2554b8	0.16145599
196	0xbed4b4c6	-0.4154417
197	0xbe2b1132	-0.16705778
198	0xbd81ff63	-0.06347539
199	0x3c7cc35c	0.015427437
200	0x3d6c9990	0.057763636
201	0xbd1d00de	-0.038330905
202	0xbe1e3d7b	-0.1545314
203	0x3d8d9b16	0.06914346
204	0xbd51c091	-0.051209036
205	0xbebfc923	-0.37458143
206	0xbd2276a2	-0.03966392
207	0xbd553778	-0.052054852
208	0x3d087823	0.033317696
209	0x3d1c5361	0.038165454
210	0xbe0f1e48	-0.13976395
211	0x3e092695	0.13393624
212	0xbcd8d5fe	-0.026469227
213	0xbda3dec6	-0.08001475
214	0xbcedff46	-0.029052388
215	0x3d8406eb	0.06446632
216	0xbd29ab14	-0.04142292
217	0xbe3964a3	-0.18104796
218	0x3cd4745c	0.02593439
219	0xbe38ea44	-0.18058115
220	0x3e07e764	0.13271862
221	0xbda835b1	-0.08213366
222	0xbe102763	-0.14077525
223	0x3e2411c0	0.16022396
224	0xbe5c2427	-0.21498166
225	0x3d7758ed	0.06038754
226	0x3d84be75	0.06481639
227	0xbdc67c78	-0.09691709
228	0xbee94550	-0.45560694
229	0x3e33eefc	0.17571634
230	0xbe14a196	-0.14514765
231	0x3df401a6	0.11914377
232	0xbe7d867c	-0.24758333
233	0xbe70b67e	-0.23507115
234	0xbde5fa91	-0.112294324
235	0x3dcb6a36	0.099323675
236	0xbda21b2b	-0.07915338
237	0xbdb2c1d9	-0.0872838
238	0xbe86edcb	-0.26353297
239	0xbe1bc101	-0.15210344
240	0x3ce04b29	0.02737959
241	0x3cb0f895	0.021602908
242	0x3df67822	0.12034632
243	0x3e398b6c	0.18119591
244	0x3c97c9f7	0.018528922
245	0x3c6e0b23	0.014529022
246	0x3cb40ec3	0.021979695
247	0xbdd810ce	-0.1055008
248	0x3e2029b4	0.15640908
249	0xbb9752b6	-0.004618014
250	0xbd36fd70	-0.04467529
251	0x3e6effa2	0.23339704
252	0xbc5df642	-0.013547482
253	0xbd45b365	-0.048266787
254	0xbd62f85e	-0.055412643
255	0x3da11a3b	0.07866331

layers.1.bias f4 [128]
0	0x3e18d51d	0.14925046
1	0xbca523d1	-0.02015868
2	0x3dae28c1	0.08503867
3	0x3d31eaaa	0.043436684
4	0xbdbdfd9b	-0.09276887
5	0x3d20fbd6	0.03930267
6	0x3de602fd	0.11231039
7	0x3df3171e	0.11869644
8	0x3e2444c7	0.16041861
9	0x3e082e1b	0.13298838
10	0xbc995bf5	-0.018720606
11	0x3d8f2105	0.0698872
12	0x3c442e04	0.011973862
13	0x3d5af75b	0.053458553
14	0x3d9bbaad	0.07603965
15	0x3dc0fc72	0.0942315
16	0x3e18d379	0.1492442
17	0xbd9ba6b2	-0.07600154
18	0xbd8306eb	-0.06397804
19	0x3d882084	0.06646827
20	0x3e39a929	0.18130936
21	0x3de42f52	0.11141838
22	0xbd8588f3	-0.065202616
23	0x3e162294	0.14661628
24	0x3e46616d	0.19373102
25	0x3d7095e0	0.058736682
26	0x3db6ee75	0.08932201
27	0x3d89ae61	0.06722713
28	0x3dd621e9	0.104556866
29	0x3e16fcac	0.14744824
30	0x3d81f478	0.06345457
31	0x3ca947ff	0.020664213
32	0x3dddaa79	0.10823531
33	0x3e257c6c	0.16160744
34	0x3dbd078d	0.09229956
35	0x3ddaa437	0.10675853
36	0x3d2d3035	0.042282302
37	0x3dea5ce1	0.114434965
38	0xbd7416d1	-0.059592072
39	0x3e3c0eea	0.18365064
40	0x3c660199	0.014038467
41	0xbc2df2e9	-0.010616996
42	0x3d531d69	0.05154172
43	0x3d345a31	0.044031326
44	0xbd7b08a6	-0.061287545
45	0x3e2fe9eb	0.17179076
46	0x3dcaf815	0.09910599
47	0x3e200a8d	0.15629025
48	0x3e2b8b81	0.16752435
49	0x3dd855ef	0.105632655
50	0x3d27f2dd	0.041003097
51	0x3df94ea9	0.12173206
52	0x3e32e814	0.17471343
53	0x3dedd16d	0.116122104
54	0x3c95652d	0.018236721
55	0x3e3c3834	0.18380815
56	0x3e03d086	0.12872514
57	0x3e146f5c	0.14495605
58	0x3dde9882	0.10868932
59	0x3cbb9cb0	0.022901863
60	0x3e1f3211	0.15546443
61	0xbd287918	-0.04113111
62	0xbb6c4b6f	-0.0036055704
63	0x3d83e81c	0.06440756
64	0x3dce1b5f	0.10063814
65	0x3cee2d4a	0.02907433
66	0x3e0c058c	0.13673991
67	0x3e096b02	0.13419726
68	0x3e2fd22a	0.17170015
69	0x3e1770b3	0.14789085
70	0x3c9bc76e	0.019015994
71	0x3e37b406	0.17939767
72	0x3d4e082f	0.050300773
73	0x3dc07f9a	0.09399338
74	0x3cc99aac	0.024609886
75	0x3e2e6e9f	0.17034386
76	0x3e516177	0.20447336
77	0x3c879385	0.016549835
78	0x3dae813d	0.08520744
79	0xbbdfc5bc	-0.0068289917
80	0x3e474661	0.19460441
81	0x3dc9262d	0.098217346
82	0x3e1fedfd	0.15618129
83	0x3d2583c8	0.04040888
84	0xbd9f2a03	-0.07771685
85	0x3e3e4d61	0.18584205
86	0xbd195c64	-0.037441626
87	0x3d00fa2a	0.031488575
88	0x3e25ccfa	0.16191474
89	0x3d0ac0f8	0.033875436
90	0x3e172247	0.1475917
91	0x3d57e76f	0.052710947
92	0x3e036ff4	0.12835675
93	0x3e1f1350	0.15534711
94	0x3dfd7b39	0.123770185
95	0x3ce06f54	0.027396835
96	0x3e0c4436	0.13697895
97	0x3e16dfdc	0.14733833
98	0x3d87f887	0.066392
99	0x3d82690a	0.06367691
100	0xbe060e1c	-0.1309132
101	0x3e471c6c	0.19444436
102	0x3de1c77c	0.11024377
103	0xbd0846b8	-0.033270568
104	0x3c43d917	0.011953614
105	0x3ce75c4f	0.028242258
106	0x3dfee3c3	0.12445786
107	0x3d8ec3d1	0.06970943
108	0x3dbba047	0.0916143
109	0x3c509231	0.012730167
110	0x3cd158f0	0.025555104
111	0x3d35ce40	0.04438615
112	0x3e234f0b	0.15948121
113	0x3e13f8a0	0.14450312
114	0xbc84636e	-0.016160693
115	0x3d9ee1d4	0.07757917
116	0x3d9b4f0c	0.07583436
117	0x3ddc25d5	0.107494034
118	0x3dff2bab	0.12459501
119	0x3d8e7d76	0.069575235
120	0xbdb9fcdd	-0.09081433
121	0x3c03d8de	0.008047311
122	0x3dbefb0f	0.093252294
123	0x3e38f6bf	0.18062876
124	0x3e12928d	0.14313717
125	0xbd5ddc29	-0.05416504
126	0x3e0c612a	0.1370894
127	0x3e1b2c76	0.15153679

layers.2.weight f4 [64, 128]
0	0x3d931479	0.07181639
1	0x3e1f9f29	0.15588059
2	0x3c01bd3f	0.007918655
3	0x3e703726	0.23458537
4	0xbd68cc2b	-0.056835335
5	0x3ea06c43	0.31332597
6	0x3e1c1c55	0.15245183
7	0xbb685f66	-0.0035457253
8	0x3e2d954b	0.16951482
9	0xbe51cbb3	-0.20487861
10	0x3f0fa5bd	0.5611227
11	0xbecccc6a	-0.39999706
12	0x3f446d7c	0.7672956
13	0x3b8c15cd	0.00427506
14	0xbe8b813c	-0.27247036
15	0xbe3f3837	-0.18673788
16	0xbe2d9b8e	-0.1695387
17	0xbd0782aa	-0.033083595
18	0xbc07d7f3	-0.008291232
19	0x3d9b74f7	0.07590669
20	0xbedd1c73	-0.43185768
21	0xbd79e152	-0.061005898
22	0xbd1d3312	-0.038378783
23	0xbd901021	-0.07034326
24	0xbf10d753	-0.5657856
25	0xbe998122	-0.29981333
26	0xbebcc645	-0.36870018
27	0x3c64f7ee	0.013975127
28	0xbf08104c	-0.5314987
29	0x3df392f6	0.11893265
30	0xbe3dd254	-0.18537265
31	0xbe20dde0	-0.15709639
32	0xbd21c00b	-0.039489787
33	0xbdeb2c20	-0.114830256
34	0x3db9a978	0.09065527
35	0xbe890612	-0.26762444
36	0xbe32dd98	-0.17467344
37	0x3d58f75b	0.05297027
38	0x3d220e6f	0.039564546
39	0xbe1a189e	-0.15048453
40	0xbc9fd52b	-0.019510826
41	0xbe952c47	-0.29135343
42	0xbd591cc8	-0.053005964
43	0xbeb3e88e	-0.35138363
44	0xbd670c9e	-0.056408517
45	0xbdb44827	-0.088028245
46	0x3d95adda	0.0730855
47	0xbd880b08	-0.06642729
48	0x3d03b1bf	0.032151934
49	0x3d085bc1	0.03329063
50	0x3d8d1d42	0.06890346
51	0x3d4285ff	0.04749107
52	0xbe99d939	-0.3004854
53	0xbed7f528	-0.42179227
54	0x3e32a6e3	0.17446475
55	0xbe99f5c2	-0.3007031
56	0xbf0227e0	-0.50842094
57	0xbeafab47	-0.34310362
58	0xbe4a4dae	-0.19756195
59	0xbe7428ce	-0.23843691
60	0xbe19e468	-0.15028536
61	0x3dedb88f	0.116074674
62	0xbcbf2b4f	-0.02333608
63	0x3c045357	0.00807651
64	0xbe067756	-0.1313146
65	0xbd53dfc8	-0.051727086
66	0xbec3b004	-0.38220227
67	0x3dff6efc	0.124723405
68	0xbcffdeca	-0.031234164
69	0xbe0a6de4	-0.13518482
70	0xbd52e358	-0.051486343
71	0x3e9b10eb	0.30286345
72	0x3d398f56	0.04530271
73	0xbf0bca12	-0.5460521
74	0xbe00af47	-0.12566863
75	0xbe3416c7	-0.17586814
76	0x3cf3e26e	0.029771056
77	0x3ea8b3fb	0.32949814
78	0x3d2cba91	0.04217011
79	0x3ad7fee7	0.0016479165
80	0xbe4ef244	-0.20209605
81	0xbee3cec8	-0.444937
82	0xbe5e1e53	-0.21691255
83	0x3e0e9439	0.1392373
84	0x3dfd6de9	0.12374479
85	0x3da36db9	0.07979912
86	0x3e946c95	0.28989092
87	0xbe9be724	-0.30449784
88	0xbd530f8f	-0.05152851
89	0xbd85a50d	-0.065256216
90	0xbca60a88	-0.020268694
91	0xbd69a7c0	-0.057044744
92	0x3d932233	0.07184257
93	0x3e3ceac8	0.18448937
94	0xbe2d9912	-0.16952923
95	0xbc5b801a	-0.013397241
96	0xbe24137f	-0.16023062
97	0xbdbc8af8	-0.09206194
98	0x3b6f6baf	0.003653269
99	0xbe7016d5	-0.2344621
100	0x3c2ecac8	0.010668464
101	0x3e6a13f9	0.22859181
102	0xbeb3d5ec	-0.35124147
103	0x3e040676	0.1289309
104	0xbbfa695a	-0.0076419534
105	0xbe26f888	-0.16305745
106	0x3d6cc9fd	0.05780982
107	0xbe42c8d6	-0.19021925
108	0x3c7bd654	0.015370924
109	0x3eb3a209	0.3508456
110	0x3ea7b382	0.3275414
111	0x3d32ee97	0.04368457
112	0xbbbfef86	-0.005857411
113	0x3ca515ad	0.020151937
114	0x3eb8c22e	0.36085647
115	0x3db0c16f	0.086306445
116	0xbe2ac022	-0.16674855
117	0xbdb1ad27	-0.08675604
118	0x3d41e7ea	0.04734031
119	0xbd6a0f0c	-0.057143256
120	0x3ebcfbd9	0.36910895
121	0xbdfc4fac	-0.12319884
122	0xbe3b5d16	-0.18297228
123	0x3ca4317d	0.02004313
124	0xbed0916d	-0.4073595
125	0xbdb46f6e	-0.08810316
126	0xbc05be90	-0.008163109
127	0xbda8ace4	-0.08236101
128	0x3d0c0c14	0.034191206
129	0xbe72559f	-0.23665474
130	0xbd9a72da	-0.075414374
131	0x3db186a8	0.08668262
132	0x3e0af1cd	0.13568802
133	0x3e01a1d2	0.12659386
134	0xbd4b7288	-0.049669772
135	0xbe3d4ad6	-0.18485579
136	0x3da56806	0.080764815
137	0x3c48ccf9	0.012255901
138	0x3e3cfab3	0.18455009
139	0xbe251dcd	-0.1612465
140	0x3eb35997	0.3502929
141	0x3e78037e	0.24220082
142	0xbe88880e	-0.266663
143	0xbd56aafe	-0.052409165
144	0xbc036e87	-0.008021957
145	0x3e7f1e74	0.2491396
146	0xbd8f7a28	-0.07005721
147	0xbbe3367b	-0.006933985
148	0x3c52cc7c	0.012866136
149	0x3cd811f3	0.026375746
150	0x3d16e812	0.036842413
151	0x3b290bec	0.002579446
152	0x3c6c3851	0.014417724
153	0x3d94936c	0.07254681
154	0xbe0d0834	-0.1377266
155	0xbc7310b4	-0.014835525
156	0xbdeaf69b	-0.114728175
157	0x3da573eb	0.0807875
158	0x3d0bd75b	0.034140926
159	0x3d05348b	0.032520812
160	0xbbf55999	-0.0074874875
161	0x3c7f80e7	0.015594698
162	0x3ae2b83e	0.001729734
163	0x3dba6a0b	0.09102257
164	0x3d28e64b	0.04123525
165	0xbbfcb836	-0.0077123893
166	0x3e190d14	0.14946395
167	0xbce1f3e3	-0.027582115
168	0x3e0b3759	0.13595332
169	0xbef2307b	-0.47302613
170	0x3d5f865b	0.05457149
171	0x3cca0a4f	0.024663119
172	0xbe692d9e	-0.22771308
173	0x3d966c6a	0.07344897
174	0xbd3f2025	-0.046661515
175	0xbd85c791	-0.06532205
176	0x3cd796b0	0.02631697
177	0x3d0dac90	0.034588397
178	0x3e82b317	0.2552726
179	0x3a990868	0.0011675479
180	0x3c3ed23a	0.011646802
181	0xbdce63ad	-0.100776054
182	0x3e77279e	0.24136207
183	0xbda48e4c	-0.080349535
184	0xbd5c6830	-0.0538103
185	0xbe0a08ee	-0.13479969
186	0xbcab7dde	-0.020934042
187	0xbb29674b	-0.002584892
188	0xbd0bdfb3	-0.034148883
189	0x3de86c1e	0.11348747
190	0x3e1ffe60	0.1562438
191	0x3dc1b240	0.094578266
192	0x3ddbe8b4	0.10737744
193	0x3dbc8de6	0.092067525
194	0xbe18360c	-0.14864367
195	0xbd1baacf	-0.038004693
196	0x3d5550da	0.05207906
197	0x3c1e342c	0.009655993
198	0x3db91f7c	0.09039208
199	0x3da6e62e	0.08149372
200	0x3db2adb2	0.08724536
201	0x3ca23800	0.019802094
202	0x3cc701b9	0.024292814
203	0xbdb15a04	-0.08659747
204	0x3bb87f8c	0.005630439
205	0xbd213377	-0.03935572
206	0x3d807c2d	0.06273685
207	0x3df7fe06	0.12108998
208	0x3d87f70f	0.066389196
209	0xbdc366b0	-0.095410705
210	0x3d2a4074	0.041565374
211	0xbe20b92a	-0.15695634
212	0x3de55fb7	0.11199897
213	0xbd734779	-0.059394334
214	0x3da75a04	0.08171466
215	0xbd8da8af	-0.069169395
216	0xbc13d2b1	-0.009022401
217	0x3d8d0b22	0.06886889
218	0xbc69fd96	-0.014281651
219	0x3d61b96b	0.05510847
220	0x3ce98b2c	0.028508745
221	0x3cc35bcc	0.023847483
222	0x3d99a733	0.07502594
223	0x3c8c8726	0.017154288
224	0xbd5ad6fc	-0.05342768
225	0x3dc49598	0.09598845
226	0x3da97891	0.08274949
227	0xbcb7bc88	-0.022428766
228	0xbf073ef7	-0.5283045
229	0x3a9a08bd	0.0011751872
230	0x3c98f099	0.018669413
231	0x3e2afb56	0.1669744
232	0x3d2351c7	0.03987291
233	0x3dc5a801	0.09651185
234	0x3da8b8ef	0.08238398
235	0xbd8fafd7	-0.07015961
236	0xbd96145a	-0.073281005
237	0x3e2eba34	0.17063218
238	0x3e171124	0.14752632
239	0x3db49f6e	0.08819471
240	0xbcb329bc	-0.021870486
241	0x3da51abb	0.08061739
242	0x3dd69689	0.10477931
243	0xbd730a68	-0.059336096
244	0xbc72f723	-0.01482943
245	0xbc9cce66	-0.019141387
246	0xbda529dc	-0.08064625
247	0xbc53cf28	-0.012927808
248	0x3d5f16f9	0.054465268
249	0xbdb72345	-0.08942274
250	0xbd7dd1ea	-0.061967768
251	0xbb42e7cb	-0.002974021
252	0xbd116fd7	-0.03550705
253	0xbd460088	-0.04834035
254	0x3cbf325a	0.02333944
255	0xbd32bf01	-0.043639187

layers.2.bias f4 [64]
0	0x3eb22bea	0.3479913
1	0x3d611106	0.054947875
2	0xbdd310a1	-0.10305906
3	0x3d006b91	0.031352583
4	0x3d8624a1	0.06549955
5	0x3e1d08a4	0.15335327
6	0xbd396c37	-0.045269217
7	0x3ca39179	0.019966828
8	0x3d5cb0bd	0.05387949
9	0xbc63ece0	-0.013911456
10	0x3d4a4848	0.04938534
11	0x3e0404d4	0.12892467
12	0x3c9c4b95	0.01907901
13	0x3cd21537	0.025644882
14	0x3e3db31c	0.18525356
15	0x3d9f4206	0.07776265
16	0x3ccd1cdd	0.025038177
17	0x3d845e6b	0.06463321
18	0x3e3bdb41	0.18345357
19	0x3dce29f1	0.100665934
20	0x3e0c14b2	0.1367977
21	0x3e29a533	0.16566925
22	0xbd69b9e9	-0.057062063
23	0x3a49e763	0.0007702021
24	0x3d7ff505	0.06248953
25	0xbb91d989	-0.004450981
26	0x3dd5ccec	0.10439476
27	0x3d63b961	0.055596713
28	0x3e2e6425	0.1703039
29	0x3deedb16	0.11662881
30	0xbd85e8c3	-0.065385364
31	0x3e1ee6a0	0.15517664
32	0xbdc28b9a	-0.09499283
33	0x3e344db9	0.17607774
34	0x3e0855b8	0.13313949
35	0x3d3fe17c	0.046845898
36	0x3d548e2b	0.051893394
37	0x3df8352d	0.121195175
38	0x3cd88a68	0.026433185
39	0x3cc8337a	0.024438608
40	0xbc1587cf	-0.009126618
41	0xbd2319b7	-0.039819445
42	0xbcca9930	-0.024731249
43	0x3e2ac830	0.16677928
44	0x3e2e5630	0.17025065
45	0x3e3aaf3a	0.18230906
46	0xbbae2d18	-0.005315434
47	0x3d0388e5	0.032112975
48	0x3e243be4	0.16038471
49	0xbcbe25cc	-0.023211382
50	0x3d2b5103	0.041825306
51	0x3c6fbb5c	0.014632072
52	0x3e366b29	0.17814316
53	0x3e11b16d	0.14227839
54	0x3d446589	0.047948394
55	0x3dbb60e8	0.09149343
56	0xbcccd2f5	-0.025002936
57	0xbd543498	-0.05180797
58	0x3ce4dba3	0.027936762
59	0xbc5b79ae	-0.01339571
60	0x3d5b90fe	0.053605072
61	0x3e292455	0.16517766
62	0xbd436397	-0.0477024
63	0x3bc3f6e2	0.0059803585

readout.weight f4 [1, 64]
0	0x3f8200c5	1.0156485
1	0x3e768ddc	0.24077553
2	0x3e8794e5	0.26480785
3	0xbe429113	-0.19000654
4	0xbe097490	-0.13423371
5	0xbe65013f	-0.22363757
6	0x3d3a1b57	0.04543623
7	0x3de7312d	0.112886764
8	0xbdfd073a	-0.12354894
9	0x3d8c37af	0.06846558
10	0xbe5e5b3d	-0.21714492
11	0xbe5d2612	-0.21596554
12	0x3c9e2272	0.019303534
13	0x3c8c2ab8	0.017110214
14	0xbe81b0ee	-0.253303
15	0x3cf721aa	0.03016742
16	0x3ef34ce1	0.4751959
17	0x3e8962f8	0.2683332
18	0xbede442b	-0.43411383
19	0xbe4e08e2	-0.20120576
20	0xbe57cb68	-0.21073687
21	0xbec56eb8	-0.38561034
22	0x3a974931	0.0011542198
23	0x3dd4b45a	0.10385962
24	0xbe40a244	-0.188119
25	0xbd31b28c	-0.043383166
26	0xbed8fb31	-0.42379144
27	0x3e4a3848	0.19748032
28	0xbe7c699a	-0.24649659
29	0xbe6454a7	-0.22297917
30	0x3e198460	0.14991903
31	0xbe1bd03b	-0.15216152
32	0x3d7d5944	0.06185271
33	0xbe1086ef	-0.14113973
34	0x3f42732a	0.75956976
35	0xbe3df7b3	-0.18551521
36	0x3d863158	0.0655238
37	0xbe28d232	-0.16486433
38	0xbda7f669	-0.08201296
39	0xbe26acd7	-0.1627687
40	0x3ddb713d	0.10714958
41	0x3c35e0cc	0.011100959
42	0x3d0e7782	0.03478194
43	0xbe275882	-0.16342357
44	0xbe163d15	-0.14671738
45	0xbe1ef970	-0.1552484
46	0x3db4aa76	0.08821575
47	0xbe72a607	-0.23696147
48	0xbe05117c	-0.12994951
49	0x3e392737	0.18081366
50	0xbe39d463	-0.18147425
51	0x3e44fc44	0.19236857
52	0xbe5abe57	-0.21361671
53	0x3f155172	0.583274
54	0xbe142a73	-0.14469318
55	0xbe5aa876	-0.21353325
56	0x3cd407b2	0.025882576
57	0x3d809785	0.062789
58	0xbe28f6b9	-0.16500367
59	0x3d781a35	0.060571868
60	0x3e926c02	0.28598028
61	0xbe193738	-0.1496247
62	0x3e8abca5	0.2709705
63	0x3f12b6a4	0.5730994

layers.0.weight f4 [128, 3]
0	0x3f392f91	0.72338206
1	0x3f05e0f6	0.5229639
2	0x3f0d978e	0.5530938
3	0xbee10341	-0.43947795
4	0x3f301f96	0.68798196
5	0xbe88e525	-0.26737323
6	0xbdeeb1af	-0.11654984
7	0x3e68278a	0.22671333
8	0xbf1df4a7	-0.61701435
9	0x3e955ef6	0.29174012
10	0xbeb2a7e9	-0.3489373
11	0x3f1b2609	0.6060491
12	0xbd6ee60f	-0.05832487
13	0xbf05211a	-0.52003634
14	0x3f0798da	0.5296761
15	0xbe177deb	-0.14794128
16	0xbf3e05fc	-0.7422788
17	0x3e565267	0.20929871
18	0xbe1b5468	-0.15168917
19	0xbf6b209a	-0.9184662
20	0x3e5456c6	0.20736226
21	0xbed2782b	-0.41107306
22	0x3d067d9b	0.03283463
23	0x3f0481e4	0.517607
24	0xbe0916b4	-0.13387567
25	0xbebda522	-0.3704005
26	0x3f0c5e9f	0.5483188
27	0xbf05e579	-0.5230327
28	0x3ec0da88	0.37666726
29	0x3db1d462	0.08683087
30	0x3ef449ee	0.47712654
31	0xbf3286e6	-0.6973709
32	0xbe8b3c49	-0.2719443
33	0x3ec0293c	0.3753146
34	0xbe5af803	-0.21383671
35	0xbeaa8426	-0.33303946
36	0x3dec6ac9	0.11543805
37	0x3eb0c20b	0.34523043
38	0x3dcd7168	0.10031396
39	0x3ee9ea7f	0.4568672
40	0xbf13b145	-0.57692367
41	0x3edfd64a	0.43718177
42	0x3f16a106	0.5883945
43	0xbed4f8e7	-0.41596147
44	0xbd71cefe	-0.059035294
45	0xbe3b79c1	-0.18308164
46	0xbf4a821f	-0.791048
47	0x3e12fa21	0.14353229
48	0xbf45f375	-0.7732461
49	0x3f1e706f	0.6189031
50	0x3f001439	0.5003086
51	0xbe2b4dae	-0.16728851
52	0x3d3c832e	0.04602354
53	0xbeadb05a	-0.33923608
54	0x3f2bb8dc	0.6707895
55	0x3cb92de1	0.022604885
56	0x3e4b7441	0.19868566
57	0xbdcd8d73	-0.10036745
58	0xbea243d5	-0.31692377
59	0xbefd8955	-0.4951884
60	0xbe4fe543	-0.203023
61	0x3eb2edcc	0.3494705
62	0x3e9a8048	0.30175996
63	0xbf198932	-0.5997497
64	0x3eb6e953	0.35724887
65	0x3e3b7b90	0.18308854
66	0xbe44002d	-0.19140692
67	0x3e96ea25	0.29475513
68	0xbef91aa4	-0.48653138
69	0xbd75a288	-0.059969455
70	0xbe4badc4	-0.19890505
71	0xbe6521e3	-0.22376208
72	0x3e236551	0.15956618
73	0xbeafdb3f	-0.3434696
74	0xbf0d8049	-0.5527387
75	0xbef08510	-0.4697652
76	0xbd7aa094	-0.061188295
77	0x3da0266f	0.078198306
78	0x3ee60cc6	0.4493162
79	0xbf1c32f5	-0.61015254
80	0x3eb189fd	0.3467559
81	0x3ecc2ea0	0.39879322
82	0xbef34bcd	-0.4751877
83	0xbe170cc6	-0.14750966
84	0xbee14d81	-0.44004443
85	0x3dbf6e93	0.09347262
86	0x3de2bc0c	0.11071023
87	0xbf00bc7d	-0.5028761
88	0x3f159f6f	0.584464
89	0xbf18e80d	-0.5972908
90	0xbe94943b	-0.2901934
91	0x3e190e0b	0.14946763
92	0x3f0c6658	0.54843664
93	0x3c940ed2	0.018073473
94	0x3f056c36	0.5211824
95	0xbd08ba41	-0.03338075
96	0x3ddd0804	0.107925445
97	0xbe712b20	-0.23551607
98	0xbee39a61	-0.4445372
99	0x3f00023e	0.5000342
100	0x3f191cfc	0.5980985
101	0x3ef28f2e	0.47374862
102	0xbe729b40	-0.23692036
103	0x3e41527a	0.18879119
104	0x3ed72176	0.42017716
105	0x3edf545f	0.43619058
106	0x3f247432	0.642398
107	0x3c31ea3a	0.010859067
108	0x3e478e58	0.19487894
109	0x3f408a2a	0.7521082
110	0x3d4bd89b	0.049767118
111	0xbe99bcfd	-0.30027
112	0xbe489cde	-0.1959109
113	0xbed29ec5	-0.41136757
114	0xbf021fc4	-0.5082972
115	0xbed6a8ab	-0.41925558
116	0xbe1f2687	-0.15542041
117	0x3ed44e77	0.41466114
118	0xbec05904	-0.37567914
119	0xbef385ef	-0.4756312
120	0xbd92b3da	-0.0716321
121	0x3ebca73d	0.36846343
122	0xbeb884f4	-0.36038935
123	0xbf152446	-0.58258474
124	0xbf247bed	-0.64251596
125	0xbdcd7611	-0.10032285
126	0x3e8a1988	0.26972604
127	0x3f59773b	0.84947556
128	0xbe31f11e	-0.17377135
129	0x3d4714b5	0.048603732
130	0xbd7f598e	-0.062341265
131	0xbee050ae	-0.43811554
132	0xbe301a20	-0.17197466
133	0xbf0762b6	-0.52884996
134	0x3e737cab	0.23778026
135	0x3f4872d9	0.78300244
136	0xbf3a692f	-0.7281675
137	0xbf00188a	-0.50037444
138	0x3d3bafa3	0.045821797
139	0x3f22f78c	0.63658977
140	0xbd15e98f	-0.036599692
141	0xbf009b08	-0.5023656
142	0xbec8f914	-0.39252532
143	0xbf0f0843	-0.5587198
144	0x3d10bfe9	0.03533927
145	0x3f09adc2	0.5378076
146	0x3ed934a6	0.4242298
147	0xbeb34ea3	-0.35020933
148	0x3f5a38a6	0.8524269
149	0x3e2fbda7	0.1716219
150	0xbe901eec	-0.28148592
151	0x3ebc198f	0.3673825
152	0xbef592c6	-0.47963542
153	0xbe342b34	-0.17594606
154	0x3f296845	0.6617473
155	0x3d44152f	0.047871765
156	0xbe869022	-0.2628184
157	0xbf2017d7	-0.62536377
158	0xbebbc060	-0.36670208
159	0xbea97fbe	-0.33105272
160	0xbe9b09fb	-0.30281052
161	0xbcd59be2	-0.026075307
162	0x3e85108a	0.2598918
163	0x3f04d222	0.5188314
164	0x3e437abc	0.19089788
165	0x3f1a6ebe	0.6032523
166	0x3f1d85eb	0.6153247
167	0x3e60758b	0.21919839
168	0x3f00de00	0.50338745
169	0xbe81fc01	-0.25387576
170	0x3e4e57a8	0.20150626
171	0x3e1a3250	0.15058255
172	0xbe7d995a	-0.2476553
173	0xbf0b28d1	-0.54359156
174	0xbefe631c	-0.4968499
175	0xbf19de8e	-0.60105217
176	0xbda5d56d	-0.08097348
177	0xbea11a3b	-0.31465325
178	0x3f0be66d	0.54648477
179	0xbe96bfba	-0.2944315
180	0x3f3326cd	0.6998108
181	0x3ef90c61	0.48642257
182	0xbeca26a3	-0.39482602
183	0xbeed1400	-0.4630432
184	0x3edc420d	0.43019143
185	0x3d1a185e	0.037620895
186	0xbeca5afe	-0.39522547
187	0xbd8da203	-0.06915667
188	0xbb8c35f4	-0.0042788927
189	0xbdd179c3	-0.10228302
190	0x3f152d08	0.5827184
191	0x3d54ebeb	0.0519828
192	0xbe44c793	-0.19216757
193	0x3ee717d7	0.45135376
194	0x3e94ce02	0.2906342
195	0xbe8e58d9	-0.2780216
196	0xbf81d1f9	-1.0142204
197	0xbe85f2ba	-0.26161748
198	0x3e9a9cd2	0.3019777
199	0x3e807c21	0.25094703
200	0x3ed24daa	0.41074878
201	0xbe0ca72e	-0.13735649
202	0x3f410482	0.75397503
203	0xbe150235	-0.14551623
204	0xbd8fb003	-0.070159934
205	0xbefe034d	-0.49611893
206	0xbef27e4d	-0.47361985
207	0xbccf447e	-0.025301214
208	0x3edce4b1	0.43143228
209	0xbf03f8e0	-0.5155163
210	0x3e16a2f9	0.14710607
211	0xbef607ba	-0.4805277
212	0x3ef9d95d	0.48798648
213	0xbf09ce40	-0.5383034
214	0x3ec18986	0.37800235
215	0xbe8c5b65	-0.27413478
216	0xbe90a866	-0.28253478
217	0xbef813df	-0.4845266
218	0xbe6626fa	-0.22475806
219	0x3f2f0a8a	0.68375456
220	0x3e2bb6ba	0.16768923
221	0x3e1deffc	0.15423578
222	0xbe9c9a1e	-0.30586332
223	0x3f238d8f	0.63887876
224	0xbcb60430	-0.022218794
225	0xbeeb9f5f	-0.46020028
226	0x3e939a0b	0.28828463
227	0xbefa6215	-0.48902956
228	0x3ed564bd	0.4167842
229	0xbebdb3bf	-0.37051198
230	0x3eae85c0	0.34086418
231	0x3da8d376	0.08243458
232	0x3f1b5292	0.6067287
233	0x3f0ff7cd	0.5623749
234	0xbe6da6bb	-0.23208134
235	0x3e95d5f1	0.29264787
236	0x3c147567	0.009061194
237	0xbf16c289	-0.5889059
238	0x3ec15c5d	0.3776578
239	0x3d9c001a	0.07617207
240	0x3db18e13	0.08669677
241	0xbe16b87d	-0.14718814
242	0xbe825abc	-0.2545985
243	0xbea73597	-0.32658073
244	0x3ee406e4	0.44536507
245	0x3f074561	0.5284024
246	0xbed34c80	-0.41269302
247	0xbe386fbf	-0.18011378
248	0x3cd6f502	0.026239876
249	0xbeeb0556	-0.45902508
250	0xbd916c16	-0.07100694
251	0xbef0063c	-0.46879756
252	0x3e0c2e50	0.13689542
253	0x3f24d9bb	0.6439473
254	0x3eabec90	0.3357892
255	0xbd6f2335	-0.058383185

layers.0.bias f4 [128]
0	0xbef4f603	-0.47843942
1	0xbede86d2	-0.43462235
2	0xbed34e39	-0.41270617
3	0x3e9857cd	0.29754487
4	0x3bc054cd	0.005869484
5	0xbe05d990	-0.13071275
6	0xbe51ca40	-0.20487309
7	0x3e994673	0.2993656
8	0xbef1dc9a	-0.47238618
9	0x3b31953c	0.0027097007
10	0xbb8134ad	-0.003943047
11	0xbf065852	-0.52478516
12	0xbe6888ea	-0.22708479
13	0x3f147ec2	0.5800592
14	0x3ef26b9e	0.4734773
15	0xbe1bcd78	-0.15215099
16	0xbe92455f	-0.2856855
17	0x3f03d05e	0.5148982
18	0x3e8389a2	0.25690943
19	0x3e8c4d1b	0.27402577
20	0x3e023d41	0.12718679
21	0x3e3c9219	0.18415107
22	0xbe036f27	-0.1283537
23	0xbf251a1f	-0.6449298
24	0x3e748371	0.23878266
25	0x3e1fcc1c	0.15605205
26	0x3de71ed5	0.112851776
27	0x3ee58174	0.44825327
28	0xbd7a5d65	-0.061124224
29	0xbe136d5d	-0.14397188
30	0xbeb2b8b3	-0.3490654
31	0x3e1f2027	0.15539609
32	0x3e2bbd10	0.1677134
33	0xbec52cec	-0.38510835
34	0x3f0e016a	0.5547091
35	0x3ec654b2	0.38736492
36	0x3e440551	0.19142653
37	0x3af0be55	0.001836727
38	0x3ee4b847	0.44671842
39	0x3e699057	0.22808968
40	0x3c7f3515	0.015576621
41	0xbe9ff372	-0.31240422
42	0x3e8a1f89	0.26977184
43	0x3e82af8a	0.2552455
44	0x3e290c13	0.16508512
45	0xbe16dccd	-0.14732666
46	0x3e3ffa2c	0.18747777
47	0x3f004286	0.50101507
48	0x3e974dfd	0.29551688
49	0x3f22410d	0.6338051
50	0xbe3eac17	-0.18620335
51	0xbeaf7274	-0.34267008
52	0xbdfcf086	-0.12350564
53	0x3ebfb887	0.3744547
54	0xbea56223	-0.32301435
55	0xbe34ce42	-0.17656806
56	0xbe258a69	-0.1616608
57	0x3ef8a561	0.48563674
58	0xbbb2d13d	-0.005457072
59	0xbe431da4	-0.19054276
60	0xbe6e4084	-0.23266798
61	0xbe842697	-0.25810692
62	0x3e6932fe	0.22773358
63	0xbe4a945e	-0.1978316
64	0x3f13fc87	0.578072
65	0xbcdca692	-0.026934896
66	0x3e35fea2	0.17772916
67	0x3e13bc5e	0.14427325
68	0x3e254f14	0.16143447
69	0x3eb3cca0	0.35117054
70	0xbec9115d	-0.3927106
71	0x3e7c5c72	0.2464464
72	0x3e7fb7cb	0.24972455
73	0xbd8e3ffc	-0.06945798
74	0xbe908a7c	-0.28230655
75	0xbec1febb	-0.37889656
76	0x3efa5b34	0.48897707
77	0xbdbfabf5	-0.0935897
78	0x3edc061b	0.42973408
79	0x3edfaa8c	0.43684804
80	0x3e81052f	0.25199267
81	0x3c3e6bf7	0.0116224205
82	0x3eb5f021	0.35534766
83	0xbf07c8ed	-0.53040963
84	0x3ee0124c	0.4376396
85	0xbe881b5c	-0.26583374
86	0xbda9dcf2	-0.08294095
87	0xbe4ba288	-0.1988622
88	0xbee5203a	-0.4475115
89	0x3ea43953	0.32074985
90	0xbf2b53db	-0.6692483
91	0x3f07afd2	0.53002656
92	0x3ef01f0a	0.4689868
93	0x3ec56949	0.3855689
94	0x3ed6956b	0.41910872
95	0x3cbea4dd	0.023271972
96	0x3d49e81a	0.049293615
97	0x3d653c51	0.055965725
98	0xbf076417	-0.528871
99	0xbe2efa9b	-0.17087786
100	0x3d09446c	0.033512518
101	0xbeee7f8b	-0.46581683
102	0x3da70e6e	0.08157049
103	0x3f1bd0f3	0.60865706
104	0xbdffe28c	-0.12494382
105	0x3e491d78	0.19640148
106	0xbe0f9390	-0.14021134
107	0x3d998a7f	0.07497119
108	0xbd29dcbf	-0.041470286
109	0xbe106824	-0.14102226
110	0x3ecb631a	0.39724046
111	0xbeefa659	-0.468066
112	0x3eb641b7	0.3559701
113	0xbe9ac0c5	-0.30225196
114	0x3eb279e7	0.3485863
115	0xbe5919cf	-0.21201251
116	0x3ec59325	0.38588825
117	0x3f109a75	0.5648568
118	0xbef0549b	-0.4693955
119	0x3ed6fb60	0.4198866
120	0xbe704619	-0.2346424
121	0x3e787574	0.24263555
122	0x3e91baa4	0.28462708
123	0x3ee5d787	0.44890997
124	0x3eabae85	0.33531585
125	0xbc062bc7	-0.008189148
126	0x3bfd2253	0.007725039
127	0xbddd22d7	-0.10797661

layers.1.weight f4 [128, 128]
0	0x3e0939dd	0.1340098
1	0x3da237dd	0.07920811
2	0xbd0fc08c	-0.035095736
3	0x3b9927a3	0.0046739145
4	0x3d04c956	0.03241857
5	0xbe04eebc	-0.12981695
6	0x3d1f9ff9	0.03897092
7	0xbc202151	-0.009773568
8	0x3d4ecf77	0.050490823
9	0xbdcf11ea	-0.10110839
10	0xbe7f40d1	-0.24927069
11	0xbd223eff	-0.03961086
12	0x3dc68667	0.09693604
13	0x3d2fac29	0.042888794
14	0xbe15731e	-0.14594695
15	0xbe0c7d5c	-0.13719696
16	0xbda1e8b5	-0.079057135
17	0x3d1b822e	0.037965946
18	0xbc9e4ecf	-0.019324688
19	0x3d3541fc	0.04425238
20	0xbcd5ae29	-0.026084023
21	0xbdd82b08	-0.105550826
22	0x3d0f5f61	0.03500307
23	0xbde341c0	-0.11096525
24	0xbdd557fa	-0.10417171
25	0xbd0e3ac8	-0.034724027
26	0x3d366353	0.044528317
27	0xbe074d6f	-0.13213132
28	0xbe061474	-0.1309374
29	0x3dc1c0c0	0.09460592
30	0xbc8753af	-0.016519396
31	0x3d009a8b	0.031397384
32	0x3caeaee8	0.021323636
33	0x3d74f4ea	0.05980388
34	0xbdad4867	-0.08461075
35	0xbde32a60	-0.11092067
36	0x3b76030b	0.0037538435
37	0x3d9a7cb9	0.0754332
38	0x3c128aeb	0.008944253
39	0xbbc410f8	-0.005983468
40	0x3ca37bcb	0.01995649
41	0x3d6e4796	0.05817374
42	0xbe0bfc20	-0.13670397
43	0x3d1aaaf7	0.0377607
44	0xbc647f67	-0.013946391
45	0xbcf2fce5	-0.029661605
46	0x3ce048f6	0.02737854
47	0x3bd6960f	0.00654865
48	0xbc7361b0	-0.0148548335
49	0xbc077dea	-0.008269766
50	0x3ca0c340	0.019624352
51	0xbb9b52fb	-0.0047401167
52	0x3d700105	0.058594722
53	0xbd4d71d1	-0.050157372
54	0x3e05cc8f	0.13066314
55	0x3d7a8abe	0.06116747
56	0x3e5e5ef9	0.21715917
57	0xbdaed3c8	-0.08536488
58	0xbbfccaef	-0.0077146213
59	0xbd535fb8	-0.051604956
60	0x3d23d8de	0.040001743
61	0xbdc88c41	-0.09792376
62	0xbd843e62	-0.06457211
63	0xbbb3ef73	-0.005491191
64	0x3ca176ac	0.019709907
65	0xbda04240	-0.07825136
66	0xbc193983	-0.009352091
67	0xbd2b7a28	-0.041864544
68	0xbda11ce2	-0.07866837
69	0x3dc59dc6	0.096492335
70	0xbcb9bdfd	-0.022673601
71	0x3d54bdb9	0.051938746
72	0x3d0ce459	0.034397457
73	0x3dbc1886	0.09184365
74	0xbe0305dd	-0.12795205
75	0xbb6b0876	-0.0035863197
76	0x3d7a0495	0.061039526
77	0xbbdc1d59	-0.0067173657
78	0xbc47fa1d	-0.012205628
79	0x3c1e69f7	0.009668819
80	0xbcf75829	-0.030193405
81	0x3d0ec1d4	0.034852818
82	0x3cc45fa3	0.023971384
83	0xbd171adb	-0.036890846
84	0xbcbe0999	-0.023197936
85	0x3df47714	0.11936775
86	0xbb5d5df9	-0.0033777936
87	0x3db02c5c	0.08602211
88	0xbe37d7ae	-0.17953369
89	0xbe046330	-0.12928462
90	0xbcc683f9	-0.024232851
91	0xbe04c7e1	-0.12966873
92	0xbca97b9f	-0.02068883
93	0xbdb7ec64	-0.08980635
94	0xbd8b633d	-0.068060376
95	0x3dc7909b	0.09744378
96	0xbcd1fd5d	-0.025633508
97	0x3dd06cae	0.10176979
98	0x3e854137	0.26026317
99	0x3d6cb183	0.057786476
100	0xbc9298b7	-0.017895086
101	0x3cbe90c7	0.023262395
102	0xbe19ebda	-0.15031376
103	0x3d5079c3	0.05089737
104	0xbe45e881	-0.19326974
105	0x3d3e43f5	0.046451528
106	0x3d7e75a9	0.06212393
107	0xbd534a73	-0.051584672
108	0xbd575039	-0.05256674
109	0xbdf685b9	-0.12037224
110	0xbda0d21d	-0.07852576
111	0x3d20ee83	0.039289963
112	0xbcfca889	-0.030842083
113	0xbced87b9	-0.028995382
114	0x3d3a349f	0.04546034
115	0x3dd3a9d9	0.1033513
116	0x3bed9f0b	0.0072516254
117	0x3cb8b063	0.022545045
118	0x3e50c8b3	0.2038906
119	0x3c836b17	0.016042275
120	0x3d289dac	0.041165993
121	0xbd7c9f7a	-0.061675526
122	0xbc8a5abd	-0.01688897
123	0xbd8df1a8	-0.06930858
124	0xbc7c6623	-0.015405211
125	0x3d2ee33a	0.04269717
126	0xbd6867ed	-0.056739736
127	0x3d2892a6	0.04115548
128	0xbcb6da3b	-0.022320857
129	0x3de94865	0.11390761
130	0xbd977eec	-0.07397255
131	0x3d90cb06	0.07069974
132	0xbd70a80c	-0.058754012
133	0xbdd86256	-0.10565631
134	0x3d426bb1	0.047465984
135	0xbd782fe7	-0.06059256
136	0xbd8fedaa	-0.07027753
137	0xbbc6eb0e	-0.006070501
138	0xbd599c80	-0.053127766
139	0xbd345ff5	-0.044036824
140	0x3d739dd0	0.059476674
141	0x3c8bfea8	0.017089203
142	0xbc9e6135	-0.019333461
143	0xbd62fad0	-0.055414975
144	0x3ce6ab26	0.028157782
145	0xbd8601c3	-0.06543305
146	0x3d3a8c6c	0.045544073
147	0xbd19246f	-0.03738826
148	0x3d4d0290	0.050051272
149	0xbc39e2d9	-0.011345589
150	0x3da6ee2f	0.08150899
151	0xbdd2e06a	-0.1029671
152	0xbdef03b6	-0.1167063
153	0xbca417d1	-0.020030888
154	0xbd95988f	-0.07304489
155	0xbdff9efc	-0.12481496
156	0x3d3ba112	0.045807905
157	0x3db54621	0.08851267
158	0x3cb85988	0.02250363
159	0xbc56e7c5	-0.013116782
160	0xbd94beba	-0.07262941
161	0x3cbba60a	0.022906322
162	0xbc79eb68	-0.015253879
163	0xbcd9c181	-0.026581528
164	0xbdce21b5	-0.10065023
165	0x3da96116	0.08270471
166	0xbd97b02d	-0.0740665
167	0x3d1437ba	0.036185957
168	0x3ce8af8e	0.028404023
169	0xbe4eb6ca	-0.20186916
170	0xbddd32cf	-0.108007066
171	0x3c937ee1	0.018004837
172	0xbd223df3	-0.03960986
173	0xbcad7653	-0.021174585
174	0x3df2b9a9	0.11851818
175	0xbd29978d	-0.041404296
176	0x3cf0e348	0.029405251
177	0xbd6ee82f	-0.058326896
178	0xbc1d4ecd	-0.009601307
179	0x3e2829ce	0.16422197
180	0xbbbbea36	-0.005734707
181	0x3d42bfe5	0.047546286
182	0xbd044961	-0.032296542
183	0x3db5002c	0.088379234
184	0x3e11609c	0.1419701
185	0x3da014e5	0.07816485
186	0xbd1a96f7	-0.037741628
187	0x3d8f2e2d	0.06991229
188	0x3c2f75ff	0.010709285
189	0xbb1a2889	-0.0023522696
190	0x3d25ca99	0.040476415
191	0x3d91f904	0.07127574
192	0xbda0abcf	-0.0784527
193	0x3cd2d5cc	0.025736712
194	0xbd683019	-0.056686494
195	0x3d99b0c3	0.07504418
196	0x3d84badb	0.06480952
197	0x3daa4a16	0.08314912
198	0xbcb1aa94	-0.021687783
199	0xbc34cba7	-0.011034883
200	0xbe00142c	-0.12507695
201	0xbca024bc	-0.019548766
202	0x3d17b46e	0.037037306
203	0x3d61037f	0.054934975
204	0x3d07c25d	0.033144344
205	0xbd12a5ec	-0.035802767
206	0xbc974967	-0.018467618
207	0x3d9d8406	0.07691197
208	0x3c7c3edd	0.015395847
209	0x3c8d3979	0.01723932
210	0x3d4057d1	0.04695875
211	0xbd2faf44	-0.042891756
212	0x3d8428a4	0.06453064
213	0x3dc1447b	0.0943689
214	0xbd0d3413	-0.03447349
215	0x3e06e775	0.13174231
216	0xbe24cc23	-0.16093497
217	0x3ce161f3	0.027512526
218	0xbc3a1089	-0.011356481
219	0xbe17003a	-0.1474618
220	0x3dac7ded	0.08422456
221	0xbd8f4641	-0.06995822
222	0xbdfdd92f	-0.1239494
223	0x3c870d3e	0.016485807
224	0xbd03ecc6	-0.032208227
225	0x3d45a510	0.04825312
226	0x3dc88552	0.09791054
227	0x3e100969	0.1406609
228	0xbdcea09a	-0.10089226
229	0x3d2b6d54	0.04185231
230	0xbd559178	-0.052140683
231	0xbd3fa5ca	-0.04678897
232	0xbd0b2e4f	-0.03397971
233	0x3d7ad6aa	0.061239876
234	0xbb0e014b	-0.002166825
235	0xbd88234b	-0.066473566
236	0xbc6c76d9	-0.014432632
237	0x3cbac4a9	0.022798853
238	0xbd8bb76a	-0.06822093
239	0x3bee5940	0.007273823
240	0xbd1c0c9a	-0.038097955
241	0xbdbdf545	-0.09275297
242	0x3d07caf9	0.033152554
243	0xbd29629e	-0.041353814
244	0xbdcd49ad	-0.10023818
245	0x3d84190c	0.0645009
246	0x3da121b9	0.0786776
247	0x3ddd3a47	0.10802131
248	0x3db9f80e	0.09080516
249	0x3c283797	0.01026716
250	0xbc046119	-0.0080797905
251	0xbca3d292	-0.019997869
252	0x3dd04292	0.10168947
253	0x3caca717	0.021075768
254	0xbb77f2f4	-0.003783402
255	0x3d8cc76e	0.06873976

layers.1.bias f4 [128]
0	0xbd1f98c3	-0.038964044
1	0x3c92cccd	0.017919922
2	0xbdc9ae98	-0.09847754
3	0xbd32a240	-0.043611765
4	0x3d332e5d	0.043745387
5	0xbd4c1883	-0.049828064
6	0x3dcf8c8b	0.10134228
7	0xbb505dea	-0.0031794258
8	0x3c328eea	0.010898331
9	0x3cf63767	0.030055715
10	0x3d5fb096	0.054611765
11	0xbd4b53be	-0.04964041
12	0xbd60a710	-0.054846823
13	0x3d83d05b	0.06436225
14	0xbc871e62	-0.01649398
15	0xbd0cb601	-0.03435326
16	0xbd720f01	-0.05909634
17	0xbcead806	-0.028667461
18	0xbda58dce	-0.08083688
19	0x3d98b627	0.07456618
20	0xbc1e9d2d	-0.009681028
21	0xbda5fc14	-0.08104721
22	0x3d40b4cb	0.047047418
23	0x3cab28f9	0.02089356
24	0xbcd6d011	-0.02622226
25	0x3db44816	0.08802812
26	0x3db398fc	0.08769414
27	0x3da03c05	0.07823948
28	0x3d2b933f	0.04188847
29	0x3b819df6	0.003955598
30	0x3d6d148d	0.057880927
31	0x3dcaaaf8	0.09895891
32	0x3cf4bc5a	0.02987497
33	0x3cff37bf	0.031154511
34	0x3d9ca00f	0.07647716
35	0x3d1a65af	0.03769463
36	0xbda82bd2	-0.08211483
37	0x3d8a6893	0.06758227
38	0x3d9a61c0	0.075381756
39	0xbdc979b1	-0.09837664
40	0x3d63b530	0.055592716
41	0x3c40e6ed	0.011773807
42	0x3d136ba9	0.035991345
43	0x3d218231	0.0394308
44	0x3d88ab1a	0.0667326
45	0x3d4af7b1	0.049552623
46	0x3d906110	0.07049763
47	0x3d9acbcd	0.07558403
48	0x3d80c520	0.062875986
49	0x3d2c6f8b	0.042098563
50	0x3dd1162f	0.10209309
51	0x3ded9395	0.11600415
52	0x3d339ce4	0.043850794
53	0xbd451d00	-0.04812336
54	0xbce9725e	-0.028496917
55	0xba967e66	-0.0011481761
56	0x3d9b5d33	0.07586136
57	0x3c8bc490	0.017061502
58	0x3dc721b4	0.09723225
59	0xbcfb1dab	-0.030653795
60	0xbd30762f	-0.04308146
61	0xbd870302	-0.065923706
62	0xbda276a0	-0.07932782
63	0xbb9a5362	-0.004709647
64	0x3c23efb4	0.01000588
65	0xbd59ca5e	-0.053171508
66	0xbcef12bf	-0.029183744
67	0xbdc1ad7e	-0.09456919
68	0xbd845837	-0.06462138
69	0x3c73eef0	0.01488851
70	0x3d6b28c3	0.05741192
71	0x3d83722a	0.064182594
72	0xbd56affc	-0.052413926
73	0xbd46d6f0	-0.048544824
74	0x3d61d037	0.05513021
75	0x3c3e3254	0.011608679
76	0x3d2d1153	0.04225285
77	0xbdc7c1b9	-0.097537465
78	0xbd2ff794	-0.04296072
79	0xbd394e12	-0.04524047
80	0x3d45edce	0.04832249
81	0x3d1f660b	0.038915675
82	0xbd3b5aa9	-0.045740757
83	0x3d93e3b4	0.07221165
84	0x3daaa01a	0.08331318
85	0x3bd8873e	0.006607919
86	0x3d257865	0.04039802
87	0xbd0ae67a	-0.033911206
88	0xbd961aa4	-0.073293
89	0xbd7c1d00	-0.061551094
90	0x3d4d1145	0.050065298
91	0x3db0e865	0.08638076
92	0xbc0551b1	-0.0081371525
93	0xbc8454dd	-0.016153747
94	0xbd65f513	-0.056141924
95	0xbd7ab389	-0.061206374
96	0xbd43adb2	-0.04777307
97	0x3d3a6b8a	0.045512713
98	0xbd7936c0	-0.06084323
99	0xbd9420f5	-0.072328486
100	0x3dae64ff	0.08515357
101	0xbd2100ce	-0.039307408
102	0x3c5fd223	0.01366094
103	0x3c1b65a0	0.0094846785
104	0xbe04a17f	-0.12952231
105	0xbd6da34a	-0.058017053
106	0xbd232037	-0.039825644
107	0xbd7a3bc1	-0.061092142
108	0x3d80c961	0.0628841
109	0xbd86459e	-0.06556247
110	0x3b9c2a8e	0.004765815
111	0xbb95ed23	-0.004575388
112	0xbc6b40cf	-0.014358713
113	0x3d70693a	0.058694102
114	0xbdca5b0e	-0.098806486
115	0x3d0cb8e8	0.034356028
116	0xbd6c3dca	-0.057676114
117	0x3d9c3894	0.07627979
118	0xba0361ea	-0.0005011844
119	0xbd5c62ed	-0.05380528
120	0x3dbff8d9	0.09373636
121	0xbd1a861b	-0.03772555
122	0x3c367236	0.011135628
123	0x3de2bb50	0.11070883
124	0x3c34a975	0.01102673
125	0xbde8fe41	-0.1137662
126	0xbcb0868e	-0.021548536
127	0x3c0f43a2	0.008744152
