HW9/9_gym-DDPG/results/DDPG_Pendulum-v1_1000-eps0.1-t32-l0.0005-s1-u100.pth (torch, 176270 bytes, 12 tensors)

layers.0.weight f4 [128, 4]
0.5757499 -0.50675243 -0.17017183 0.1076886 -0.54630595 0.16875295 -0.093842834 0.25740403
-0.048296567 -0.08241945 0.063596636 -0.009444857 0.5569564 -0.50102645 -0.09735301 -0.14658326
0.020554088 0.038132608 0.49263188 0.09880027 -0.25011584 -0.65917426 -0.06967859 -0.20226836
-0.21727437 0.13694863 0.3347234 0.23026195 -0.5639713 0.57211286 0.1605351 0.3447028
0.38705933 -0.577482 -0.5312556 -0.3691102 0.47061968 -0.07811662 0.24717553 -0.2974702
0.4670195 -0.21915483 0.40815786 -0.00025086725 -0.40508968 0.21789168 -0.2556951 0.1277265
-0.1483905 -0.25034186 -0.5008813 -0.21834941 0.2599786 0.031540815 0.5465772 0.355431
-0.123823956 -0.40901294 0.34530258 0.11730406 -0.3754019 0.6088942 0.25161925 0.36988807
-0.34115875 -0.5226105 0.0013290906 0.03975368 -0.4809025 -0.47121823 0.32932332 -0.12951913
0.30962265 0.13133028 0.20292774 0.11749438 -0.07900462 0.4087111 -0.49211362 0.18768637
-0.41600245 -0.3962787 0.11163081 -0.095243186 0.54397476 -0.7897735 -0.431833 0.34341663
-0.13992725 0.68834645 0.12436655 -0.33056232 0.057918727 0.15251862 -0.34801257 -0.23694913
0.082801856 -0.021090528 -0.18201709 -0.15129347 0.3298453 -0.13315438 0.36280984 0.12521614
-0.4831429 -0.6501251 0.5074262 0.113930404 0.22425912 0.21085808 0.14876604 0.26404482
0.39861682 -0.5310226 0.18263912 0.028415794 0.35037825 0.375284 -0.40263388 -0.40675592
-0.38818964 0.095255405 0.4997796 -0.32966492 0.27968574 -0.31886363 -0.4893676 -0.16995564
0.13883434 0.54607564 -0.3862584 0.09671507 0.56787914 0.70455027 0.3473839 0.29382822
0.28571653 0.24440663 -0.3348669 -0.46854708 -0.32452053 -0.26188356 -0.26302946 0.15925767
0.005453247 -0.14687116 0.27654582 0.05638597 0.26893577 0.6138768 -0.1646313 0.5071366
-0.13543457 -0.15965983 -0.41875663 -0.33523053 -0.3874879 -0.2320806 0.3967129 -0.1867853
-0.45270547 0.25545555 0.11774828 0.26340863 -0.35758677 -0.19503154 -0.26034957 -0.045489963
-0.41355327 -0.56884897 -0.1837821 0.14680126 0.26314408 0.17110237 0.39470515 0.6860188
0.3681825 0.16636543 -0.36195832 0.4241843 -0.12817012 0.032357465 -0.46768275 0.016357632
-0.46808442 0.4431327 -0.49726945 -0.3365753 -0.070915364 -0.24400753 0.23009796 -0.18421705
-0.29185727 0.0883686 0.38083112 -0.37438557 0.2460688 0.49176162 0.4774199 -0.3806138
0.121014275 -0.45559564 0.46515426 -0.17894338 0.6798229 0.07616208 -0.13674805 -0.14580303
-0.03089532 0.43525466 0.040908337 0.10661527 -0.5295445 0.45031676 0.40430278 0.3633765
0.754855 -0.61527246 -0.24471058 0.4087273 -0.5233944 0.42005253 -0.4353935 -0.34422052
0.23110494 -0.73764926 -0.098463595 0.13886565 0.36969492 0.64143896 -0.20548475 -0.3969152
0.69887537 -0.02844463 -0.19617456 0.019107392 -0.42551485 0.35886312 0.31208012 -0.41930586
-0.49117962 0.033053488 0.28568482 -0.045342878 -0.25542495 -0.29825407 -0.48084247 -0.32336676
-0.40508887 0.52556086 0.40665844 -0.19600105 -0.05449214 0.52311605 -0.033479713 -0.17263559
00000000: 5864 133f 87ba 01bf 8641 2ebe d78b dc3d
00000010: b5da 0bbf 93cd 2c3e ac30 c0bd 76ca 833e
00000020: 9fd2 45bd 87cb a8bd f43e 823d 9abe 1abc
00000030: b294 0e3f 4543 00bf 0461 c7bd ec19 16be
00000040: 0c61 a83c f030 1c3d 3f3a fc3e cc57 ca3d
00000050: 2f0f 80be a5bf 28bf a6b3 8ebd 701f 4fbe
00000060: 2c7d 5ebe 433c 0c3e de60 ab3e cac9 6b3e
00000070: 6c60 10bf fd75 123f 5063 243e e37c b03e
00000080: a42c c63e dcd5 13bf 5e00 08bf 03fc bcbe
00000090: 10f5 f03e 9bfb 9fbd 951b 7d3e 044e 98be
000000a0: 2e1d ef3e 206a 60be 11fa d03e d586 83b9
000000b0: ea67 cfbe ff1e 5f3e 78ea 82be bcca 023e
000000c0: aef3 17be cf2c 80be c239 00bf fd96 5fbe
000000d0: ea1b 853e f130 013d 7cec 0b3f 0dfb b53e
000000e0: 6a97 fdbd 256a d1be 80cb b03e 1c3d f03d
000000f0: ae34 c0be 7ee0 1b3f 3dd4 803e f861 bd3e
00000100: 5cac aebe cdc9 05bf e134 ae3a c1d4 223d
00000110: da38 f6be 8443 f1be 119d a83e aaa0 04be
00000120: dc86 9e3e 727b 063e 4acc 4f3e e5a0 f03d
00000130: 2dcd a1bd 9542 d13e 51f6 fbbe db30 403e
00000140: 46fe d4be 0be5 cabe b29e e43d dc0e c3bd
00000150: ee41 0b3f 992e 4abf 3719 ddbe 4ed4 af3e
00000160: 1749 0fbe 7937 303f e4b3 fe3d 773f a9be
00000170: 303c 6d3d d72d 1c3e b42e b2be cba2 72be
00000180: 0594 a93d 0bc6 acbc b062 3abe adec 1abe
00000190: 7ce1 a83e 9f59 08be 36c2 b93e a938 003e
000001a0: 825e f7be 996e 26bf afe6 013f 5854 e93d
000001b0: 2fa4 653e 2eeb 573e 2056 183e e230 873e
000001c0: 8117 cc3e 19f1 07bf c005 3b3e 3dc8 e83c
000001d0: c764 b33e 3925 c03e 0726 cebe 5042 d0be
000001e0: cbc0 c6be 4415 c33d 1de3 ff3e d7c9 a8be
000001f0: f832 8f3e 1842 a3be 648e fabe da08 2ebe
00000200: 972a 0e3e 9dcb 0b3f a9c3 c5be 8d12 c63d
00000210: 8760 113f 685d 343f 4ddc b13e a770 963e
00000220: 7049 923e bb45 7a3e ad73 abbe 67e5 efbe
00000230: 8e27 a6be 9a15 86be ccab 86be 7114 233e
00000240: 27b1 b23b 6565 16be 6a97 8d3e faf4 663d
00000250: f3b1 893e 0827 1d3f 1c95 28be b4d3 013f
00000260: 5caf 0abe de7d 23be 4567 d6be 56a3 abbe
00000270: d064 c6be 89a6 6dbe f41d cb3e a544 3fbe
00000280: 03c9 e7be 12cb 823e 0326 f13d 7fdd 863e
00000290: 9d15 b7be 59b6 47be 8a4c 85be af53 3abd
000002a0: 41bd d3be 16a0 11bf 6031 3cbe 1253 163e
000002b0: d2ba 863e 7635 2f3e cb16 ca3e ee9e 2f3f
000002c0: 6b82 bc3e b35b 2a3e 9a52 b9be af2e d93e
000002d0: 073f 03be 4389 043d 1d74 efbe 7100 863c
000002e0: c3a8 efbe 4ae2 e23e 1a9a febe 9953 acbe
000002f0: 133c 91bd 1cdd 79be cd9e 6b3e 65a3 3cbe
00000300: 516e 95be 99fa b43d 4cfc c23e 77af bfbe
00000310: 76f9 7b3e 2ec8 fb3e 6270 f43e d0df c2be
00000320: 55d6 f73d d543 e9be b328 ee3e ef3c 37be
00000330: e008 2e3f ddfa 9b3d ae07 0cbe 644d 15be
00000340: 2f18 fdbc b3d9 de3e 808f 273d 1b59 da3d
00000350: 3a90 07bf eb8f e63e c600 cf3e 7c0c ba3e
00000360: 2d3e 413f 7f82 1dbf 6995 7abe b444 d13e
00000370: 2dfd 05bf 2011 d73e e6eb debe ac3d b0be
00000380: c6a6 6c3e 95d6 3cbf 48a7 c9bd cc32 0e3e
00000390: a748 bd3e 5835 243f 986a 52be 7838 cbbe
000003a0: 7fe9 323f b604 e9bc fce1 48be 1b87 9c3c
000003b0: 15dd d9be e8bc b73e f7c8 9f3e 42af d6be
000003c0: e57b fbbe 1863 073d 4845 923e 74b9 39bd
000003d0: 0fc7 82be c2b4 98be fc30 f6be 5490 a5be
000003e0: cf67 cfbe 288b 063f 8935 d03e 80b4 48be
000003f0: 2633 5fbd efea 053f 0622 09bd 62c7 30be

layers.0.bias f4 [128]
-0.34715605 0.42508405 0.40433052 -0.44160712 -0.3876243 -0.2679746 -0.3025759 0.15557197
-0.43106723 -0.39756122 0.20808978 -0.07219893 -0.16608706 -0.44029588 0.28403062 0.12145535
-0.123037 -0.20209523 0.120303705 0.30252498 0.3110567 0.10102678 0.036076855 -0.41900218
0.4232993 0.04062432 -0.3083799 0.5800681 0.3842724 -0.3784391 -0.162397 -0.1715147
-0.19976558 0.29246864 -0.3275519 0.5638413 -0.15518808 0.3378772 0.09589956 -0.124262325
0.46063316 -0.34857687 -0.17851803 0.037850406 0.3718368 -0.2628694 -0.23803857 -0.4134786
-0.1492423 -0.15359583 -0.1464441 -0.07522914 0.23137842 0.10384982 -0.20439409 -0.17418046
0.27581543 0.104074076 0.42380813 0.025075424 -0.29324588 -0.3857815 -0.039426222 -0.013660602
0.1916895 -0.10787174 0.08780617 -0.004230104 0.49411148 0.20712152 -0.07788785 0.57931226
0.21927173 -0.30120185 -0.25542137 0.4134215 0.3160398 0.44454768 0.042071894 0.45961413
0.31355244 0.12568511 0.01170352 0.57765865 0.1863117 -0.09174758 0.066673145 0.601602
0.37861797 0.01849885 0.5974849 0.29743177 -0.23414156 -0.4230703 0.4110521 0.58304447
-0.18708225 0.3133638 0.06257123 -0.08128045 -0.022395564 0.221243 0.18465427 0.5341549
0.26382282 0.342058 0.579879 0.25930542 0.19118096 -0.22066809 0.49283463 0.0086068455
0.43342194 0.4387844 -0.016706206 0.476764 -0.06565101 0.52946293 0.5479194 -0.08976655
0.08722535 -0.22113182 -0.1401212 0.014201353 0.03813581 -0.10460113 -0.44545618 -0.23545253
00000000: 70be b1be 9ea4 d93e 6904 cf3e 541a e2be
00000010: b176 c6be f733 89be 3aeb 9abe 424e 1f3e
00000020: d8b4 dcbe 258d cbbe 7d15 553e 08dd 93bd
00000030: ba12 2abe 766e e1be 766c 913e 95bd f83d
00000040: d3fa fbbd 0df2 4ebe ca61 f63d 8ee4 9a3e
00000050: d342 9f3e 21e7 ce3d 53c5 133d 7487 d6be
00000060: b0ba d83e b065 263d f8e3 9dbe 587f 143f
00000070: 5abf c43e c5c2 c1be 664b 26be 8da1 2fbe
00000080: 598f 4cbe 73be 953e e2b4 a7be e757 103f
00000090: a0e9 1ebe 3efe ac3e fd66 c43d 3f7d febd
000000a0: 1cd8 eb3e ab78 b2be 6ecd 36be 0709 1b3d
000000b0: 6561 be3e d196 86be 62c0 73be 78b3 d3be
000000c0: f9d2 18be 3a48 1dbe 71f5 15be bc11 9abd
000000d0: 77ee 6c3e 37af d43d af4c 51be 5d5c 32be
000000e0: ae37 8d3e ca24 d53d 61fd d83e fa6a cd3c
000000f0: 5324 96be 2785 c5be 647d 21bd b8d0 5fbc
00000100: 414a 443e dceb dcbd b9d3 b33d af9c 8abb
00000110: 2efc fc3e aa17 543e aa83 9fbd cf4d 143f
00000120: c588 603e 2137 9abe 97c6 82be fcab d33e
00000130: f8cf a13e c19b e33e 9453 2c3d 8b52 eb3e
00000140: f289 a03e 99b3 003e 1fc0 3f3c 70e1 133f
00000150: 7fc8 3e3e 28e6 bbbd ee8b 883d 9702 1a3f
00000160: 37da c13e e68a 973c c5f4 183f fa48 983e
00000170: cec2 6fbe ac9c d8be 6c75 d23e 6742 153f
00000180: 7d92 3fbe 3871 a03e 5825 803d 5d76 a6bd
00000190: e776 b7bc 868d 623e 0216 3d3e 60be 083f
000001a0: c913 873e 3a22 af3e f372 143f aec3 843e
000001b0: f1c4 433e d1f6 61be d254 fc3e ba03 0d3c
000001c0: 7be9 dd3e 59a8 e03e 74db 88bc 691a f43e
000001d0: 0974 86bd e28a 073f 7244 0c3f 86d7 b7bd
000001e0: 34a3 b23d 6170 62be ef7b 0fbe cbac 683c
000001f0: 4c34 1c3d 1e39 d6bd d512 e4be 781a 71be

layers.1.weight f4 [128, 128]
0.15062983 0.05232031 0.16036524 0.3262091 0.027800487 0.107088625 -0.108188406 0.17262858
-0.059838362 -0.03939968 -0.0556608 0.054302137 -0.06264914 -0.040249847 0.0018050923 0.017677221
0.1299438 0.12306407 -0.0039700647 0.03212592 0.00094810355 0.11388968 0.018142985 -0.110287204
0.10325732 -0.057707645 0.086732164 0.012477848 -0.12167802 -0.087391526 0.061177246 -0.007898864
-0.11177714 0.062316712 -0.026187804 0.11452835 -0.07849512 -0.07291228 0.0837097 -0.00816424
0.16433509 0.08203991 0.0111046815 -0.046925165 0.019083075 -0.09155349 0.035917137 -0.065462
-0.01917786 -0.05719238 0.042084534 -0.06480517 0.05298349 0.03326518 0.009116758 -0.068029754
0.116021544 -0.04517837 0.064572796 0.11508283 -0.038871974 -0.044242606 0.007922453 0.06807559
-0.0492893 -0.064573646 0.08253142 0.051838484 0.09664368 0.004696039 -0.0011479094 0.055326242
0.13539335 -0.082737155 -0.04019808 0.08877607 0.022977494 0.08907882 0.06952301 0.04497011
0.13572189 0.06977128 0.084611475 -0.012368319 0.1447368 0.10163606 0.07331464 0.058393892
0.08392739 -0.006610838 0.16922957 0.09974106 -0.017373981 -0.13629572 0.14469689 0.11897832
0.11490734 0.030241815 0.043460462 -0.045283798 -0.028995326 0.006341314 0.060815267 0.12690645
-0.026501633 0.13979052 0.115942895 0.11845431 0.090138085 0.0012340037 0.105111375 0.051787164
0.16696958 -0.06376787 0.020764997 0.1078932 0.06591132 0.13506345 0.026743498 0.038761772
-0.16624852 -0.017438121 0.074481845 -0.12750626 -0.012350098 0.070103034 -0.03055987 0.037815236
0.14868236 0.11779437 0.02231971 0.26507536 -0.11540638 0.12553598 0.03991411 0.05342655
0.03174844 -0.055738755 -0.054000255 -0.015776934 -0.029293789 0.013962456 0.04051765 0.07386941
0.10131917 -0.023341658 -0.07722276 -0.05778581 0.16129565 0.06990766 -0.050795387 -0.043783266
0.05285408 0.010178108 0.08342458 0.09143453 0.026772965 -0.053224478 0.014828855 -0.051269542
-0.009472632 0.12680036 0.034400847 0.17489484 -0.07891648 -0.02200644 0.043658905 0.10095528
0.019098608 -0.025584402 0.0893251 -0.06396662 0.04211667 -0.012443869 -0.010408102 0.013487003
0.07799486 0.09415334 0.033512443 -0.008229096 0.1953061 0.122976504 0.01596398 0.06389586
0.09444857 -0.052242324 -0.015172087 0.029131368 -0.050410185 -0.017364524 0.0650568 0.073761545
-0.046519432 -0.11889784 0.06678239 -0.06003037 0.11440054 -0.009067682 -0.00836083 0.14539923
0.1005545 -0.088030055 -0.06312352 0.08142213 0.08243658 -0.010919676 -0.019103788 0.09630374
0.05806819 0.072423704 -0.023883587 0.05597598 0.02728442 0.03551564 0.008408366 0.1143492
-0.004085067 -0.04352233 0.029583046 -0.062426347 0.049615145 -0.09724573 0.04289739 0.13004288
0.046210673 0.1319412 -0.02113701 -0.08500778 0.069841735 0.1284913 -0.059347846 0.095956594
0.074919246 0.09637832 0.05073317 0.026775451 -0.03173574 0.024354974 -0.008045858 -0.08925258
0.084419005 -0.06441269 0.0713594 0.095005795 0.06912749 0.028863136 0.11134228 0.11648216
-0.11090025 0.07243412 0.05385171 0.007279247 0.057262618 0.094734244 -0.011596403 -0.030606655
00000000: b53e 1a3e d24d 563d c936 243e e104 a73e
00000010: d9bd e33c 4851 db3d e291 ddbd 8cc5 303e
00000020: 1219 75bd 8f61 21bd 94fc 63bd eb6b 5e3d
00000030: 314e 80bd 06dd 24bd d998 ec3a d2cf 903c
00000040: fd0f 053e 0409 fc3d 5117 82bb 7896 033d
00000050: 278a 783a fe3e e93d 99a0 943c 42de e1bd
00000060: 9378 d33d da5e 6cbd a2a0 b13d e36f 4c3c
00000070: 5332 f9bd 54fa b2bd fe94 7a3d 3d6a 01bc
00000080: 6aeb e4bd cf3f 7f3d ce87 d6bc d78d ea3d
00000090: 0dc2 a0bd 0953 95bd fe6f ab3d 4ec3 05bc
000000a0: 7547 283e 8a04 a83d 69f0 353c 9a34 40bd
000000b0: 1c54 9c3c 6580 bbbd d91d 133d f110 86bd
000000c0: e31a 9dbc 8f42 6abd d560 2c3d 93b8 84bd
000000d0: 3705 593d 1241 083d 745e 153c 2f53 8bbd
000000e0: b49c ed3d f40c 39bd be3e 843d 8cb0 eb3d
000000f0: 3838 1fbd bc37 35bd 2dcd 013c 376b 8b3d
00000100: 94e3 49bd 303f 84bd 3c06 a93d 9754 543d
00000110: 1fed c53d 3be1 993b 7375 96ba c59d 623d
00000120: 8ea4 0a3e 1972 a9bd bea6 24bd 3ad0 b53d
00000130: 4c3b bc3c f56e b63d 1462 8e3d 9432 383d
00000140: aefa 0a3e 3fe4 8e3d c848 ad3d 7da4 4abc
00000150: e235 143e 9126 d03d fc25 963d 6f2e 6f3d
00000160: 20e2 ab3d bb9f d8bb 844a 2d3e 0a45 cc3d
00000170: e153 8ebc 1b91 0bbe 6c2b 143e e8aa f33d
00000180: 8a54 eb3d afbd f73c 9903 323d 817b 39bd
00000190: 9b87 edbc ccca cf3b 6e19 793d c4f3 013e
000001a0: f419 d9bc 3f25 0f3e 7873 ed3d 2c98 f23d
000001b0: 519a b83d 4bbe a13a a244 d73d c71e 543d
000001c0: 13fa 2a3e bb98 82bd 5b1b aa3c 1cf7 dc3d
000001d0: 84fc 863d 134e 0a3e 2e15 db3c aac4 1e3d
000001e0: 0d3d 2abe 64da 8ebc f089 983d 0091 02be
000001f0: 1158 4abc 2e92 8f3d b158 fabc 26e4 1a3d
00000200: 3040 183e 2d3e f13d d3d7 b63c f5b7 873e
00000210: 2e5a ecbd 818c 003e fa7c 233d ccd5 5a3d
00000220: a70a 023d 524e 64bd 5f2f 5dbd a13e 81bc
00000230: 87f9 efbc c9c2 643c d6f5 253d d848 973d
00000240: 6d80 cf3d 0137 bfbc f726 9ebd d0b0 6cbd
00000250: b02a 253e bf2b 8f3d d30e 50bd 1556 33bd
00000260: 857d 583d 14c2 263c 82da aa3d 0742 bb3d
00000270: fa52 db3c e901 5abd baf4 723c 0300 52bd
00000280: 1933 1bbc f4d7 013e e7e7 0c3d a217 333e
00000290: f79e a1bd da46 b4bc aed3 323d a4c1 ce3d
000002a0: af74 9c3c 6196 d1bc 14f0 b63d ee00 83bd
000002b0: 8882 2c3d 5fe1 4bbc be86 2abc 97f8 5c3c
000002c0: c5bb 9f3d 77d3 c03d 5844 093d 55d3 06bc
000002d0: 53fe 473e 1bdb fb3d e5c6 823c d5db 823d
000002e0: 406e c13d 0cfc 55bd 5894 78bc e8a4 ee3c
000002f0: e97a 4ebd 0c40 8ebc 803c 853d 4b10 973d
00000300: 298b 3ebd b680 f3bd 35c5 883d 68e2 75bd
00000310: d54a ea3d 9d90 14bc ddfb 08bc 89e3 143e
00000320: 85ef cd3d 1a49 b4bd e746 81bd a5c0 a63d
00000330: 82d4 a83d 71e8 32bc 8c7f 9cbc e53a c53d
00000340: e9d8 6d3d e152 943d 83a7 c3bc 1247 653d
00000350: 9383 df3c d978 113d 3ec3 093c ea2f ea3d
00000360: 07dc 85bb 7844 32bd 2558 f23c c5b2 7fbd
00000370: 4039 4b3d c528 c7bd 2cb5 2f3d f629 053e
00000380: 6747 3d3d 981b 073e 8627 adbc 8f18 aebd
00000390: 2f09 8f3d 3993 033e ba16 73bd e484 c43d
000003a0: 436f 993d ff61 c53d 96cd 4f3d 3158 db3c
000003b0: 56fd 01bd 1584 c73c c6d2 03bc 0fca b6bd
000003c0: dfe3 ac3d cdea 83bd e124 923d 6692 c23d
000003d0: b792 8d3d 6272 ec3c 6c07 e43d 338e ee3d
000003e0: ac1f e3bd 5758 943d 9c93 5c3d c086 ee3b
000003f0: 358c 6a3d 0704 c23d d7fe 3dbc cfba fabc

layers.1.bias f4 [128]
0.12814051 0.03234938 0.06320158 0.010209425 -0.089167364 0.06152061 0.084080406 -0.022172784
0.11929127 0.106853545 0.0021365709 0.021631978 0.10847946 0.06327999 0.021869924 0.071512505
0.1260606 -0.06658584 -0.064958595 0.038317237 0.15840143 0.08889179 -0.065202616 0.11067863
0.16632955 0.016173081 0.03888384 0.048094343 0.055638857 0.11579666 0.04442501 -0.050089113
0.08139716 0.126283 0.059075207 0.087870695 0.0060874275 0.09365921 -0.0521624 0.15530767
0.024849532 -0.118641056 0.021187536 0.018867105 -0.0647319 0.14797223 0.07266988 0.13956046
0.13686377 0.06536091 0.015783697 0.098364644 0.1634901 0.09132926 0.084176525 0.15566884
0.063479334 0.11472681 0.09177736 -0.027394515 0.13787168 -0.058120035 -0.005365237 0.02645607
0.02752384 -0.010944205 0.17618266 0.10070644 0.1529403 0.1339128 0.003369236 0.14206848
0.012789512 0.04504845 0.014100256 0.16955054 0.17665981 -0.022543201 0.058711875 0.063011155
0.18112457 0.06551125 0.13781044 -0.016461339 -0.05096181 0.16916035 -0.038616236 0.016034791
0.13933977 0.033875436 0.12732558 0.029793618 0.098429255 0.115383774 0.101524815 -0.005397161
0.12739484 0.118738495 0.036933742 0.045584023 -0.06349179 0.15748438 0.09007665 -0.022167396
0.040385883 0.012178325 0.09970556 0.048509896 0.06687228 0.023194455 -0.0036287978 0.057267234
0.13708083 0.1202599 0.009837436 0.05601172 0.043703668 0.08736052 0.105594404 0.07023961
-0.07373963 0.008094619 0.08462665 0.14711574 0.11617667 -0.14756112 0.10124045 0.14107525
00000000: 4437 033e c980 043d d46f 813d 6f45 273c
00000010: 619d b6bd 09fd 7b3d 5932 ac3d b3a3 b5bc
00000020: fb4e f43d 08d6 da3d b605 0c3b 8c35 b13c
00000030: 7b2a de3d f098 813d 8e28 b33c 2675 923d
00000040: 0816 013e 285e 88bd 0309 85bd 89f2 1c3d
00000050: fc33 223e e60c b63d f388 85bd 7aab e23d
00000060: 4b52 2a3e 697d 843c a944 1f3d 93fe 443d
00000070: 92e5 633d cd26 ed3d 00f7 353d 3e2a 4dbd
00000080: 8eb3 a63d 5550 013e d8f8 713d 8df5 b33d
00000090: 0b79 c73b 66d0 bf3d 3ea8 55bd f908 1f3e
000000a0: 3f91 cb3c 15fa f2bd 7c91 ad3c 308f 9a3c
000000b0: 2992 84bd 0886 173e f2d3 943d f0e8 0e3e
000000c0: 0426 0c3e f1db 853d d04c 813c 6773 c93d
000000d0: f369 273e d60a bb3d be64 ac3d a767 1f3e
000000e0: 7401 823d e4f5 ea3d c5f5 bb3d 766a e0bc
000000f0: 3c2e 0d3e 460f 6ebd dfce afbb 66ba d83c
00000100: ad79 e13c 534f 33bc 3a69 343e 2e3f ce3d
00000110: 629c 1c3e 7020 093e 66ce 5c3b 667a 113e
00000120: 1a8b 513c b984 383d c304 673c a89e 2d3e
00000130: 4fe6 343e 85ac b8bc dd7b 703d fe0b 813d
00000140: b878 393e c32a 863d 2e1e 0d3e eed9 86bc
00000150: 55bd 50bd 5f38 2d3e 0f2c 1ebd 655b 833c
00000160: 16af 0e3e f8c0 0a3d a361 023e bf11 f43c
00000170: 4795 c93d 544e ec3d 3eec cf3d abda b0bb
00000180: cb73 023e 2b2d f33d d647 173d 50b6 3a3d
00000190: fc07 82bd 9643 213e 1b7a b83d 6698 b5bc
000001a0: ab6b 253d 9987 473c 6e32 cc3d 50b2 463d
000001b0: 55f4 883d 4c02 be3c 20d1 6dbb 0c91 6a3d
000001c0: eb5e 0c3e d34a f63d 322d 213c 8c6c 653d
000001d0: 9e02 333d 13ea b23d e141 d83d c9d9 8f3d
000001e0: ce04 97bd 4b9f 043c bd50 ad3d 82a5 163e
000001f0: 09ee ed3d 431a 17be 2757 cf3d 0876 103e

layers.2.weight f4 [64, 128]
0.009934841 0.046043642 0.08430308 0.03382226 -0.057529 0.02731252 -0.00025094743 0.07516983
0.049971078 -0.0014588365 0.0069353255 0.034418106 0.086420156 0.047891684 0.016853493 0.048333105
0.050841775 0.060755473 -0.010000033 0.031085242 -0.009461862 0.063056365 -0.038378783 0.0090484815
-0.037546184 -0.012913021 0.031321656 0.0033659125 -0.090171754 0.0118366815 -0.040245235 0.0012059017
0.026745154 -0.008083045 0.04013346 -0.0821495 0.0066136657 0.068247676 0.0019859662 0.07070291
-0.03669336 0.026910888 -0.0744536 -0.0143981455 -0.056493726 0.033931952 0.03523294 -0.01810279
-0.053323932 -0.046800144 0.047009207 -0.034194283 -0.091036044 0.06102302 0.009365748 0.054162927
0.033938378 -0.0137616815 -0.07626615 -0.0070810015 -0.008413119 0.023897551 -0.08897612 -0.011612697
-0.07153524 -0.05137588 -0.083104976 0.06298075 0.07189051 -0.04557489 -0.041553423 0.04564315
-0.0044120974 -0.021718623 -0.014757055 -0.086776994 -0.06337047 0.057028163 -0.062045082 0.047837015
-0.036154136 -0.06354958 -0.04522093 0.05270182 -0.08591958 0.03161295 0.024144959 0.027408466
-0.08021227 -0.065256216 -0.02003247 -0.03592422 -0.032444924 0.026933191 0.040193312 0.06694488
-0.04673011 -0.05069233 0.07982296 -0.011039804 -0.025087457 0.04755536 -0.070681944 0.03372554
-0.038605444 -0.0039992025 -0.0405534 -0.069522366 -0.014411592 0.016411902 -0.044111203 0.009955245
-0.078238055 -0.061984412 0.03372608 0.06564355 0.044060335 -0.06273425 0.056239698 -0.057143256
0.03895794 0.011355452 -0.024209483 -0.07760058 -0.07890311 -0.09013609 -0.017453121 0.06854682
0.035403907 0.071633235 -0.085026145 0.06173721 0.028422786 0.06111333 -0.11521715 9.0511785e-05
0.078017876 0.03328913 0.025865098 -0.16887264 0.31494048 0.1585931 0.07286086 -0.04448654
0.016093155 0.15652724 -0.07055731 -0.026971642 0.0098540075 0.052463703 0.036842413 0.044479847
0.0097210845 -0.08585537 -0.12997663 -0.02754261 -0.091925755 0.044667117 0.014527684 -0.08236864
-0.011470859 0.025841912 -0.019536277 0.07666191 0.059138156 -0.022108993 -0.0019864861 -0.023738375
-0.044259302 -0.19941522 0.039436296 0.04946671 -0.09755477 0.0737506 -0.069906615 -0.08022052
0.019697428 0.0076165074 0.21217902 0.0010368447 0.020336425 -0.12452268 -0.020181846 -0.060351208
-0.042005427 -0.104591966 -0.040697675 -0.015998306 -0.03545558 0.23424548 -0.025123423 0.16028106
0.19814254 0.095039606 -0.6061145 -0.04102874 0.061075877 -0.017071187 0.07061708 0.022662226
0.06368881 0.054047167 -0.052230842 -0.09908873 -0.006836947 0.028319685 0.037154127 0.0073595936
0.030632444 -0.09751284 0.04173526 -0.29992765 0.06974715 -0.05906204 0.02568373 -0.07737561
-0.02698384 0.06886889 -0.026003826 0.057957407 0.007698693 -0.004808312 0.072262906 -0.017842613
-0.07085108 0.0815259 0.024498047 -0.039222244 0.25367546 -0.025312174 0.03142014 0.08423283
-0.08398442 0.08305099 0.07492052 -0.085932575 -0.08475678 0.18044585 0.115041405 0.23093897
-0.040517885 0.06306182 0.27115765 -0.08918829 -0.07291095 -0.03985233 -0.08423196 -0.012927808
0.042108938 -0.019686684 -0.06369587 -0.022027962 -0.0253739 0.28041252 0.02726009 -0.088515535
00000000: bec5 223c 4298 3c3d 18a7 ac3d 3689 0a3d
00000010: 87a3 6bbd 82be df3c 9891 83b9 a4f2 993d
00000020: 79ae 4c3d 6e36 bfba ba41 e33b 00fa 0c3d
00000030: 0dfd b03d 122a 443d 5610 8a3c eff8 453d
00000040: 773f 503d bbda 783d 2ed7 23bc 7aa6 fe3c
00000050: ed05 1bbc b223 813d 1233 1dbd 1540 143c
00000060: 07ca 19bd 2391 53bc 234b 003d a496 5c3b
00000070: f8ab b8bd a4ee 413c 30d8 24bd 590f 9e3a
00000080: a718 db3c bf6e 04bc fc62 243d ff3d a8bd
00000090: 73b7 d83b 70c5 8b3d fc26 023b b0cc 903d
000000a0: c74b 16bd 3974 dc3c 217b 98bd 33e6 6bbc
000000b0: f765 67bd 3bfc 0a3d 6a50 103d 4d4c 94bc
000000c0: 326a 5abd 82b1 3fbd ba8c 403d 4e0f 0cbd
000000d0: 1b71 babd 46f3 793d cb72 193c f2d9 5d3d
000000e0: f802 0b3d ad78 61bc 6d31 9cbd bf07 e8bb
000000f0: 2ed7 09bc ccc4 c33c 1d39 b6bd 2e43 3ebc
00000100: 1181 92bd 846f 52bd f132 aabd 0dfc 803d
00000110: 553b 933d bcac 3abd ec33 2abd 50f4 3a3d
00000120: 5b93 90bb 41eb b1bc 93c7 71bc 23b8 b1bd
00000130: 61c8 81bd 5d96 693d fc22 7ebd bff0 433d
00000140: 5c16 14bd 4826 82bd 9539 39bd dddd 573d
00000150: 9bf6 afbd 957c 013d a6cb c53c b887 e03c
00000160: 5546 a4bd 0da5 85bd 221b a4bc 4625 13bd
00000170: f8e4 04bd ffa2 dc3c bea1 243d 661a 893d
00000180: 1268 3fbd c3a2 4fbd 387a a33d 4be0 34bc
00000190: 3684 cdbc 69c9 423d b2c1 90bd cb23 0a3d
000001a0: be20 1ebd be0b 83bb 521b 26bd be61 8ebd
000001b0: 991e 6cbc 4172 863c f3ad 34bd 531b 233c
000001c0: 463b a0bd 5ee3 7dbd 5c24 0a3d 2070 863d
000001d0: 9c78 343d d17a 80bd 995b 663d 0c0f 6abd
000001e0: 5c92 1f3d 380c 3a3c f752 c6bc 0eed 9ebd
000001f0: f497 a1bd 4599 b8bd d9f9 8ebc 4662 8c3d
00000200: b003 113d 72b4 923d 3022 aebd 28e0 7c3d
00000210: e7d6 e83c f951 7a3d f8f6 ebbd 25d1 bd38
00000220: d6c7 9f3d 2f5a 083d 0be3 d33c f3ec 2cbe
00000230: e13f a13e 3b66 223e 1338 953d 8537 36bd
00000240: cbd5 833c ad48 203e 5a80 90bd a2f3 dcbc
00000250: b472 213c 2ee4 563d 12e8 163d 8030 363d
00000260: 2f45 1f3c f1d4 afbd 9818 05be 0aa1 e1bc
00000270: 9243 bcbd def4 363d 8605 6e3c e4b0 a8bd
00000280: 45f0 3bbc 6bb2 d33c 8b0a a0bc eb00 9d3d
00000290: da3a 723d eb1d b5bc b52f 02bb fb76 c2bc
000002a0: 3e49 35bd 8133 4cbe f487 213d 9b9d 4a3d
000002b0: ccca c7bd 8e0a 973d 332b 8fbd a84a a4bd
000002c0: 805c a13c e593 f93b 7545 593e bce6 873a
000002d0: 9398 a63c bf05 ffbd 6654 a5bc d432 77bd
000002e0: e20d 2cbd 5034 d6bd 9bb2 26bd e10e 83bc
000002f0: df39 11bd 0cde 6f3e a3cf cdbc b820 243e
00000300: e1e5 4a3e 20a4 c23d 522a 1bbf c10d 28bd
00000310: b32a 7a3d e0d8 8bbc b09f 903d 22a6 b93c
00000320: 476f 823d 9060 5d3d 02f0 55bd 08ef cabd
00000330: 7808 e0bb affe e73c ed2e 183d bf28 f13b
00000340: e4f0 fa3c d0b4 c7bd 98f2 2a3d 1e90 99be
00000350: 98d7 8e3d 0aeb 71bd b066 d23c 1b77 9ebd
00000360: 370d ddbc 220b 8d3d fa05 d5bc bf64 6d3d
00000370: 5145 fc3b 0b8f 9dbb 93fe 933d ac2a 92bc
00000380: 5f1a 91bd 0df7 a63d 21b0 c83c 81a7 20bd
00000390: c0e1 813e 7a5b cfbc 68b2 003d 4382 ac3d
000003a0: 0600 acbd a316 aa3d ee6f 993d 6bfd afbd
000003b0: f694 adbd ccc6 383e d49a eb3d 447b 6c3e
000003c0: 15f6 25bd 8e26 813d 2dd5 8a3e 5aa8 b6bd
000003d0: 5652 95bd 323c 23bd ce81 acbd 28cf 53bc
000003e0: 6c7a 2c3d f845 a1bc fb72 82bd fc73 b4bc
000003f0: eddc cfbc 3b92 8f3e 8d50 df3c a247 b5bd

layers.2.bias f4 [64]
0.0342166 0.040113557 -0.09564998 0.013876474 0.044793937 0.13595457 -0.04574782 0.020351859
0.03233594 -0.017553799 0.028960237 0.113380805 0.018117988 0.025644882 0.16910063 0.07376322
0.014809203 0.08918618 0.021218672 0.08251274 0.1225771 0.0061821416 -0.05668668 0.0014493645
0.047506306 -0.0021895964 -0.041319072 0.079545006 0.15642837 0.09787092 -0.08174403 0.1375327
-0.094052866 0.158061 -0.002145731 0.02827034 0.049887314 0.1034351 0.031438913 0.006174536
-0.0088656945 0.06484649 -0.023509163 0.15012091 0.15089783 0.16435103 -0.006398296 0.015759818
0.14110263 -0.015230979 0.024159824 0.007816458 0.15995905 -0.010157567 0.026372239 0.07615866
-0.023217728 -0.07279325 0.0033758457 -0.017344067 0.050215703 0.05215706 -0.039656006 0.011658381
00000000: b526 0c3d 1d4e 243d 23e4 c3bd 275a 633c
00000010: d979 373d ad37 0b3e 1162 3bbd f1b8 a63c
00000020: b172 043d fccc 8fbc 053e ed3c 3234 e83d
00000030: 2d6c 943c 3715 d23c b728 2d3e 2c11 973d
00000040: 4da2 723c 3ea7 b63d c8d2 ad3c 70fc a83d
00000050: b409 fb3d 9093 ca3b 4b30 68bd 9af8 bd3a
00000060: f995 423d 557f 0fbb 303e 29bd 7ee8 a23d
00000070: c22e 203e 8d70 c83d 6a69 a7bd 5fd5 0c3e
00000080: ca9e c0bd beda 213e 649f 0cbb 3397 e73c
00000090: a456 4c3d c8d5 d33d 17c6 003d c353 ca3b
000000a0: 6b41 11bc 3dce 843d 4a96 c0bc 4cb9 193e
000000b0: f684 1a3e a34b 283e cca8 d1bb bc1a 813c
000000c0: 357d 103e 5b8b 79bc d3ea c53c 9a10 003c
000000d0: 4ecc 233e ed6b 26bc 980a d83c 12f9 9b3d
000000e0: 1b33 bebc a114 95bd 4b3d 5d3b 2515 8ebc
000000f0: fbae 4d3d a4a2 553d 566e 22bd cb02 3f3c

readout.weight f4 [1, 64]
0.08732916 0.31310785 0.3225866 -0.17191993 -0.10636772 -0.20212245 0.044627555 0.11517767
-0.10142358 0.063245535 -0.19260721 -0.19812322 0.01618688 0.017110214 -0.2370869 0.020573156
0.041158356 0.32246113 -0.049990997 -0.17807172 -0.18676957 0.0007662773 0.0026967474 0.104325935
-0.16869664 -0.045682717 -0.051931635 0.32537645 -0.22362539 -0.2017665 0.2166834 -0.13097583
0.062378608 -0.11272315 0.08294949 -0.1663604 0.063827656 -0.1435702 -0.08299738 -0.14231594
0.10720495 0.3678851 0.037032627 -0.14802252 -0.1219308 -0.13830216 0.087614134 -0.21525513
-0.10717194 0.16818507 -0.15474083 0.16191849 -0.18743226 0.018670099 -0.12768112 -0.18994461
0.02576574 0.25152367 -0.14264609 0.055223264 0.24578878 0.25511172 0.07667823 0.5187227
00000000: a1d9 b23d ac4f a03e 122a a53e c70b 30be
00000010: 52d7 d9bd 30f9 4ebe 62cb 363d 45e2 eb3d
00000020: 2ab7 cfbd e086 813d d33a 45be d0e0 4abe
00000030: 599a 843c b82a 8c3c e9c6 72be 0989 a83c
00000040: aa95 283d a019 a53e 5cc3 4cbd 6f58 36be
00000050: 8640 3fbe 00e0 483a eabb 303b d6a8 d53d
00000060: d0be 2cbe cd1d 3bbd 44b6 54bd be97 a63e
00000070: 0efe 64be e19b 4ebe 41e2 5d3e 871e 06be
00000080: b680 7f3d 65db e6bd 6ce1 a93d 615a 2abe
00000090: 13b8 823d 1104 13be 88fa a9bd 45bb 11be
000000a0: 458e db3d 705b bc3e 86af 173d 3793 17be
000000b0: dbb6 f9bd 159f 0dbe 0a6f b33d d76b 5cbe
000000c0: f67c dbbd b538 2c3e 6174 1ebe f6cd 253e
000000d0: 3eee 3fbe 09f2 983c d7be 02be d780 42be
000000e0: ac12 d33c b6c7 803e d111 12be ca31 623d
000000f0: 0eb0 7b3e 019e 823e 7a09 9d3d 03cb 043f

layers.0.weight f4 [128, 3]
0.34595647 -0.037673213 0.77728015 -0.44318745 1.2337123 -0.2898935 0.67829674 0.29012382
-0.3933522 0.30233985 -0.45667344 0.62809706 -0.3255559 -0.87483907 0.4200399 -0.08019266
-1.76065 0.6641991 -0.12985988 -0.9828112 0.3933769 -0.30608222 -0.35956982 0.34683394
-0.25443298 -0.9193951 0.64832336 -0.42107135 0.44728786 0.21972224 0.23475215 -0.982444
-0.39442044 0.17115855 -0.6695307 -0.3605964 -0.07066464 0.57463825 -0.1228553 0.58770317
-0.6653773 0.46136594 0.6551609 -0.3961151 -0.085432686 -0.39826536 -0.96977794 0.031288374
-0.72948146 0.8532875 0.24116588 0.021652468 0.051833373 -0.18232764 0.524016 -0.06485395
0.225815 0.051544335 0.112658404 -0.036685716 -0.032597195 0.2390101 0.30384365 -0.41105494
0.41664574 0.22292347 -0.17535408 0.43027994 -0.42021567 -0.51672995 -0.60174924 -0.27158594
-0.02391258 -0.5750571 -0.2930884 -0.4507295 -0.04365026 0.037859492 0.58894295 -0.4777039
0.4613501 0.45886317 -0.32186309 -0.047795366 -0.40571186 -0.2723877 -0.019201366 -0.63700795
0.95626885 -0.38414815 -0.43178415 0.31582397 0.5524247 0.2398161 0.57616204 -0.02264795
-0.00096441316 -0.30243093 -0.4067784 0.59769976 0.28989252 0.44629532 -0.15765639 0.0033366655
0.21339329 0.6133596 0.5737785 0.008868476 0.17024675 0.92038774 -0.060238376 -0.2509838
0.30796623 -0.18755405 -0.23278446 -0.22342668 -0.06310002 0.22606978 -0.46701473 -0.6475643
-0.19028556 0.38592917 -0.25953838 -0.7160281 -0.7171554 -0.01254314 0.3504694 1.0334063
-0.26443392 0.20561123 0.5774299 -0.24533053 0.1082119 -1.5574867 0.5944737 0.49358788
-0.71454996 -0.6537616 0.13611975 0.8040236 -0.18390083 -0.27470997 -0.34199932 -0.24121535
0.09482404 0.52014214 0.35445908 -0.32960525 0.8750453 0.2776527 -0.3212192 1.0413752
-0.21956432 -0.3343549 0.76717395 -0.1619509 -0.4666981 -0.72597796 -0.33616614 -0.27599394
-0.69024837 0.22642505 -0.13326144 0.7234211 -0.1515795 0.27817154 0.8787184 0.2691634
0.017536614 -0.609929 0.40099105 0.26955938 0.0705936 -0.31366366 -0.4750993 -0.9869146
-0.098302126 -0.32548016 0.68559855 -0.10436353 0.6189173 0.75661 -0.4439034 -0.11989349
0.7212588 0.065242246 -0.27560228 -0.19327645 0.1288187 -0.1314178 0.6445412 -0.023067173
0.06126006 0.67851406 0.2325179 -0.5094934 -0.7544913 -0.38060176 0.29785082 0.40844837
0.18221696 -0.25569087 0.7884309 -0.0948167 0.008342662 -0.35825723 -0.4501662 0.08335616
0.7476253 -0.42927185 0.33118045 -0.4046738 0.5732335 -0.30243415 0.22291465 -0.22702159
-0.19229554 -0.36804298 -0.098652996 0.8138916 -0.17361024 0.094408944 -0.2855395 0.4737519
0.18424189 -0.65391237 0.6580016 -0.3181105 0.44266137 -0.25698075 0.20243366 0.18565346
0.6579564 0.33613333 -0.15666758 0.15344547 0.02293344 -0.4674673 0.35895595 0.34657103
0.18095998 -0.008195565 -0.2110396 -0.28396073 0.4537543 0.31439155 -0.083189845 -0.33725572
0.004922275 -0.6058108 -0.041069254 -0.37868756 0.30934986 0.35834923 0.2843064 -0.37459737
00000000: 3521 b13e 3a4f 1abd d5fb 463f 77e9 e2be
00000010: 49ea 9d3f ec6c 94be dba4 2d3f 1c8b 943e
00000020: 7665 c9be 4acc 9a3e 1ad1 e9be f8ca 203f
00000030: 43af a6be 74f5 5fbf 780f d73e 0d3c a4bd
00000040: fb5c e1bf f408 2a3f fdf9 04be 8499 7bbf
00000050: b268 c93e cfb6 9cbe 8919 b8be 3894 b13e
00000060: 0a45 82be 7a5d 6bbf 85f8 253f aa96 d7be
00000070: ea02 e53e defe 603e de62 703e 7381 7bbf
00000080: 7af1 c9be 3044 2f3e 5d66 2bbf 17a0 b8be
00000090: 9fb8 90bd 7e1b 133f 8f9b fbbd b773 163f
000000a0: 2b56 2abf 2838 ec3e a0b8 273f 99cf cabe
000000b0: 55f7 aebd 70e9 cbbe 5e43 78bf 3d28 003d
000000c0: 4cbf 3abf 0d71 5a3f 30f4 763e 8460 b13c
000000d0: 3b4f 543d 19b4 3abe ea25 063f 26d2 84bd
000000e0: 0c3c 673e 2720 533d 73b9 e63d c343 16bd
000000f0: a384 05bd 10bf 743e 6591 9b3e cb75 d2be
00000100: 9752 d53e 0d46 643e 0590 33be a74d dc3e
00000110: 8226 d7be 6a48 04bf 3d0c 1abf 500d 8bbe
00000120: 51e4 c3bc f136 13bf af0f 96be 04c6 e6be
00000130: 9dca 32bd 8e12 1b3d f7c4 163f 9b95 f4be
00000140: 1536 ec3e 1df0 ea3e 3dcb a4be 13c5 43bd
00000150: 77b9 cfbe 6776 8bbe 2f4c 9dbc f412 23bf
00000160: 09ce 743f 11af c4be d012 ddbe aeb3 a13e
00000170: b56b 0d3f 5a92 753e 5b7f 133f 3288 b9bc
00000180: acd0 7cba 3ad8 9abe 4245 d0be da02 193f
00000190: cb6c 943e d280 e43e ad70 21be f5ab 5a3b
000001a0: c583 5a3e 2205 1d3f 26e3 123f 164d 113c
000001b0: 2a55 2e3e 889e 6b3f 84bc 76bd f380 80be
000001c0: c0ad 9d3e 2b0e 40be 0d5f 6ebe f7c9 64be
000001d0: 953a 81bd d67e 673e 8e1c efbe c6c6 25bf
000001e0: 38da 42be 8298 c53e 37e2 84be 9e4d 37bf
000001f0: 7f97 37bf be81 4dbc ba70 b33e a846 843f
00000200: e263 87be c08b 523e 72d2 133f ed37 7bbe
00000210: 339e dd3d b95b c7bf 6e2f 183f 8db7 fc3e
00000220: bfec 36bf ec5c 27bf fa62 0b3e 7ed4 4d3f
00000230: 8050 3cbe c9a6 8cbe 891a afbe 2801 77be
00000240: 1b33 c23d 0928 053f a97b b53e 05c2 a8be
00000250: f802 603f 7f28 8e3e d876 a4be c84b 853f
00000260: 78d5 60be 9130 abbe 8365 443f 75d6 25be
00000270: 0ef3 eebe b1d9 39bf f81d acbe 144f 8dbe
00000280: 1eb4 30bf f8db 673e b075 08be 2032 393f
00000290: a837 1bbe 806c 8e3e b0f3 603f c9cf 893e
000002a0: f2a8 8f3c 4f24 1cbf b34e cd3e b003 8a3e
000002b0: 6193 903d 8698 a0be 3740 f3be 6fa6 7cbf
000002c0: a052 c9bd 56a5 a6be 6383 2f3f 8cbc d5bd
000002d0: 5d71 1e3f 31b1 413f 4e47 e3be b88a f5bd
000002e0: 6ba4 383f ba9d 853d be1b 8dbe 43ea 45be
000002f0: 0de9 033e 6392 06be a700 253f 5ef7 bcbc
00000300: d4eb 7a3d 19b3 2d3f 2c19 6e3e 296e 02bf
00000310: 5826 41bf 3cde c2be e77f 983e 2520 d13e
00000320: 1597 3a3e eae9 82be 9cd6 493f 422f c2bd
00000330: a9af 083c 7e6d b7be 2f7c e6be a2b6 aa3d
00000340: 5f64 3f3f 85c9 dbbe 7c90 a93e 6831 cfbe
00000350: 6ebf 123f a6d8 9abe bd43 643e 5978 68be
00000360: 1fe9 44be 2170 bcbe 950a cabd 335b 503f
00000370: e2c6 31be 7a59 c13d 3c32 92be 9c8f f23e
00000380: e8a9 3c3e cd66 27bf cb72 283f 61df a2be
00000390: 83a4 e23e fb92 83be c54a 4f3e f11b 3e3e
000003a0: d56f 283f ab19 ac3e 776d 20be cf20 1d3e
000003b0: e9de bb3c e057 efbe 13c9 b73e c271 b13e
000003c0: 934d 393e b146 06bc c41a 58be 4d63 91be
000003d0: 7c52 e83e eef7 a03e 705f aabd c8ac acbe
000003e0: 094b a13b 6b16 1bbf 3c38 28bd 56e3 c1be
000003f0: 1b63 9e3e 8d79 b73e 9c90 913e 3acb bfbe

layers.0.bias f4 [128]
-0.41849744 -0.49400863 -1.0311753 0.28972268 0.18376315 -0.23625535 -0.21930073 0.15943658
-0.31874114 -0.14174347 0.23556614 -0.50515056 -0.0238083 0.5918624 0.61504537 0.088382766
-0.3257517 0.35253868 0.35381773 0.20340157 -0.09300016 -0.15438287 -0.1184029 -0.5360345
0.26113456 0.0025381777 -0.016441995 0.5073121 -0.25257185 -0.15857145 -0.27790964 -0.034080237
0.10118438 -0.7992328 0.3765355 0.4671493 0.085022956 -0.16147316 0.13717002 0.33823276
0.10645052 -0.2448793 0.25084347 -0.028813656 -0.041417222 -0.12571356 0.03149679 0.2603186
0.12529635 0.37110168 -0.21311218 -0.38529086 0.06276067 0.13402809 -0.08053732 0.031629287
-0.034417126 0.37407878 -0.124363385 -0.4015243 -0.1027061 -0.63005704 -0.0016686843 -0.40256804
0.34388864 0.015382305 0.21348375 0.12892462 0.08573193 0.16639127 -0.44227493 0.073922075
0.078628585 0.20368573 -0.44614747 -0.32843474 0.43493456 -0.123458385 0.31348696 0.19725162
0.22970232 -0.13381124 0.09386492 -0.48341623 0.10611143 -0.16828124 -0.04665626 -0.20726253
-0.13484652 0.08186712 -0.73658675 0.44366777 0.29135692 0.17928973 0.28752303 -0.2564882
-0.12532936 0.23162651 -0.55046207 -0.07460194 -0.18911365 -0.7107913 0.02083878 0.15916497
-0.054358892 -0.042631283 -0.21357264 0.0043854727 -0.12860994 -0.1722766 0.41793722 -0.23536777
0.38030702 -0.18395765 0.24505325 -0.07023409 0.057359118 0.5105979 -0.5837471 0.23867282
-0.2001241 -0.065962076 0.19426973 0.25884047 0.29259807 0.17796294 -0.108235106 -0.0013047002
00000000: 4c45 d6be b3ee fcbe 8dfd 83bf 8856 943e
00000010: 682c 3c3e ecec 71be 5f90 60be 5843 233e
00000020: 0a32 a3be 3325 11be 4038 713e 8c51 01bf
00000030: a009 c3bc 4b84 173f 9d73 1d3f 0602 b53d
00000040: edc8 a6be f37f b43e 9927 b53e 8048 503e
00000050: de76 bebd 8b16 1ebe 387d f2bd 8f39 09bf
00000060: 6eb3 853e 8e57 263b 5db1 86bc 35df 013f
00000070: 1951 81be 8e60 22be 2c4a 8ebe b897 0bbd
00000080: c239 cf3d 859a 4cbf 43c9 c03e 312e ef3e
00000090: 8420 ae3d 3859 25be 4c76 0c3e d82c ad3e
000000a0: bb02 da3d a4c1 7abe 8e6e 803e 9e0a ecbc
000000b0: 1ba5 29bd 0ebb 00be c702 013d 7b48 853e
000000c0: b04d 003e 0a01 be3e 143a 5abe d844 c5be
000000d0: ab88 803d a93e 093e c0f0 a4bd b68d 013d
000000e0: f9f8 0cbd 4187 bf3e 3bb2 febd 9894 cdbe
000000f0: 9357 d2bd 6b4b 21bf c1b7 daba 661d cebe
00000100: 2c12 b03e 1006 7c3c 7c9b 5a3e d104 043e
00000110: 3994 af3d 7962 2a3e dc71 e2be 7564 973d
00000120: 0608 a13d fe92 503e 716d e4be 9928 a8be
00000130: beaf de3e c0d7 fcbd 5d81 a03e 54fc 493e
00000140: 1637 6b3e d005 09be 403c c03d 5582 f7be
00000150: f350 d93d eb51 2cbe a21a 3fbd a13c 54be
00000160: 3515 0abe f3a9 a73d f390 3cbf 6c28 e33e
00000170: bc2c 953e ba97 373e 3836 933e 6c52 83be
00000180: 5756 00be 802f 6d3e 15eb 0cbf e7c8 98bd
00000190: 02a7 41be 6bf6 35bf 17b6 aa3c 24fc 223e
000001a0: 6ea7 5ebd 249e 2ebd c9b2 5abe 03b4 8f3b
000001b0: 53b2 03be 4769 30be defb d53e 4004 71be
000001c0: 9ab7 c23e 655f 3cbe 3def 7a3e e4d6 8fbd
000001d0: 65f1 6a3d 8bb6 023f 7370 15bf a666 743e
000001e0: 55ed 4cbe 2017 87bd a5ee 463e bd86 843e
000001f0: 6acf 953e eb3b 363e 5eaa ddbd 7902 abba

layers.1.weight f4 [128, 128]
-0.29601043 0.091489606 0.040260043 0.011190022 0.045876067 -0.058422223 -0.1804781 0.022868725
-0.030363262 -0.02922848 -0.3333623 0.09637774 -0.50943446 0.039519295 -0.3424968 -0.09548056
-0.08555893 -0.010000959 -0.30956137 -0.013135816 -0.070429996 -0.027789013 0.0118729565 -0.04504338
-0.14727889 0.027274882 -0.2524038 -0.21473444 -0.06407054 0.073077194 0.07061143 0.084783755
-0.038579535 -0.1286179 -0.076008864 -0.1774901 -0.099599876 0.03531802 -0.0009735673 -0.06567145
-0.03124042 -0.005705099 -0.11350993 -0.019374108 -0.056375496 -0.0151626095 0.09978416 -0.039361484
-0.05279848 0.030293636 0.007845186 0.1751144 0.020349253 -0.06599063 -0.3796295 -0.18702132
-0.0021521954 -0.13738541 -0.011065488 -0.09355506 0.02984868 0.35130703 -0.02741054 -0.08054993
0.04480874 -0.11756676 -0.014618825 -0.0073930207 -0.11964199 0.028888958 -0.38509718 0.022674754
-0.025995906 -0.020517008 0.13509788 -0.034343537 0.052456073 0.017679397 0.035349675 0.048775703
-0.097488336 0.028759183 0.0655426 -0.05885557 -0.06585566 -0.038641877 -0.054742314 0.09724075
-0.22491798 -0.068330236 -0.15580456 -0.19579412 -0.029394086 -0.071748026 -0.11799122 0.05730877
-0.0010498003 -0.30219996 0.010058107 -0.019963032 0.08236325 -0.09725405 -0.284521 0.0012631691
-0.01593094 0.055339336 0.020865532 -0.0039519705 -0.18847238 -0.015220016 -0.22051027 0.026225207
-0.1350235 -0.38253152 0.05355634 -0.32203564 -0.042066593 -0.05667173 -0.054072116 0.056876093
-0.035499163 -0.01739974 0.027036829 -0.0552059 0.0103409225 -0.4818172 -0.15765983 -0.006128394
0.0030923476 0.11494484 -0.33106658 -0.098215885 -0.006501286 -2.2541044 -1.4968793 -0.12114685
-0.4986659 0.17020231 -0.36280835 -0.49793467 -0.19242063 -0.41811445 -0.224034 -0.2921689
0.036626935 -0.031351063 -0.20750432 -0.030186823 -0.14132948 0.19327335 0.05843266 -0.46439177
-0.13808365 0.18636471 0.25847095 -0.13925306 0.21366964 0.096029855 0.12535259 0.0352164
-0.110591955 0.20685613 0.02323599 0.051521756 -0.094862446 0.036258046 -0.062923305 -0.02968811
0.019486608 0.023656024 -0.059474126 -0.007579942 -2.382456 -0.21013795 0.18731512 0.0036296393
-0.14605057 0.050244354 -0.026345514 0.3522296 0.064805284 0.11431497 -0.14965521 0.18252876
-0.34852496 0.039854344 0.14162493 0.021618722 -0.15367043 2.052722 0.19689307 0.11820751
-0.10560477 0.1183059 -0.09629873 0.13101305 -0.008087982 0.0568109 0.52663463 -0.006769956
0.01904683 -0.44986087 0.44417208 0.031858493 -0.2286154 0.005785867 0.07362001 0.19545917
-0.044579152 -0.13343365 0.09487257 -0.10932546 -0.004734726 0.13139716 -0.047309548 0.1911565
-0.41893584 0.16525337 -0.40950796 -1.5476353 -0.16560441 -0.06744677 -0.14293233 -0.008492313
0.14147155 -0.03524325 1.132938 0.13947675 -0.005298627 -0.34515738 -1.6926335 -0.0018542295
0.2803265 0.103422664 0.013864369 -0.14906867 -0.08739511 0.15318969 0.05114441 0.1475832
-1.7080306 -0.1585283 0.08527338 -0.24566337 -0.07930603 -0.3466402 1.3985391 0.16429184
-0.40138805 0.026184395 0.08306406 0.09604807 0.22179556 0.10865551 -0.16396736 0.060328666
00000000: ae8e 97be e75e bb3d b7e7 243d 5b56 373c
00000010: 8be8 3b3d 244c 6fbd 40cf 38be 3157 bb3c
00000020: 60bc f8bc 9170 efbc 77ae aabe b161 c53d
00000030: 4c6a 02bf fcde 213d be5b afbe 508b c3bd
00000040: 8539 afbd 10db 23bc d47e 9ebe 9b37 57bc
00000050: 9a3d 90bd c9a5 e3bc ca86 423c 687f 38bd
00000060: 47d0 16be 936f df3c 123b 81be 58e3 5bbe
00000070: 6a37 83bd 7fa9 953d ba9c 903d 1ba3 ad3d
00000080: 9305 1ebd 69b4 03be 89aa 9bbd f7bf 35be
00000090: 05fb cbbd a1a9 103d ff36 7fba c17e 86bd
000000a0: e9eb ffbc d7f1 babb e577 e8bd 73b6 9ebc
000000b0: fee9 66bd 986c 78bc a35b cc3d 8239 21bd
000000c0: 3843 58bd 5c2a f83c 1889 003c 3051 333e
000000d0: 7ab3 a63c 1826 87bd cc5e c2be 8482 3fbe
000000e0: d90b 0dbb c3ae 0cbe 054c 35bc cc99 bfbd
000000f0: 3885 f43c 84de b33e 128c e0bc 5df7 a4bd
00000100: 5f89 373d d7c6 f0bd cc83 6fbc 2741 f2bb
00000110: dc06 f5bd 89a8 ec3c 752b c5be 68c0 b93c
00000120: 5ef5 d4bc 4913 a8bc 1957 0a3e cfab 0cbd
00000130: 2edc 563d 62d4 903c d2ca 103d 08c9 473d
00000140: f7a7 c7bd 6198 eb3c 333b 863d 8a12 71bd
00000150: 55df 86bd f246 1ebd 7a39 60bd 2926 c73d
00000160: e650 66be b9f0 8bbd 3b8b 1fbe 417e 48be
00000170: decb f0bc a1f0 92bd 61a5 f1bd 9abc 6a3d
00000180: 7499 89ba f4b9 9abe c2ca 243c 8389 a3bc
00000190: 10ae a83d 222d c7bd bdac 91be ec90 a53a
000001a0: 9a81 82bc 80ab 623d 31ee aa3c 887f 81bb
000001b0: e7fe 40be 605d 79bc 72cd 61be 3fd6 d63c
000001c0: 9a43 0abe 2cdb c3be e55d 5b3d dbe1 a4be
000001d0: 054e 2cbd 9e20 68bd b97a 5dbd e8f6 683d
000001e0: 9267 11bd e689 8ebc 577c dd3c 951f 62bd
000001f0: f96c 293c beb0 f6be 9471 21be b2d0 c8bb
00000200: fca8 4a3b 3368 eb3d 8f81 a9be 6925 c9bd
00000210: bd08 d5bb 3f43 10c0 be99 bfbf d71b f8bd
00000220: 2351 ffbe 8449 2e3e 04c2 b9be 4bf1 febe
00000230: ea09 45be 1913 d6be 2b69 65be 2997 95be
00000240: 2006 163d f969 00bd 037c 54be 5b4a f7bc
00000250: adb8 10be 73e9 453e 1657 6f3d c2c4 edbe
00000260: cd65 0dbe 64d6 3e3e 4e56 843e 5b98 0ebe
00000270: 37cc 5a3e 4dab c43d 6e5c 003e 123f 103d
00000280: 097e e2bd 18d2 533e 6759 be3c 7a08 533d
00000290: 3e47 c2bd 5183 143d efdd 80bd 7b34 f3bc
000002a0: 61a2 9f3c 47ca c13c 249b 73bd 2961 f8bb
000002b0: 297a 18c0 672e 57be 89cf 3f3e 3edf 6d3b
000002c0: 488e 15be 06cd 4d3d 8cd2 d7bc 7057 b43e
000002d0: a2b8 843d f81d ea3d 373f 19be d2e8 3a3e
000002e0: dd71 b2be 4f3e 233d 2006 113e bf19 b13c
000002f0: c85b 1dbe cc5f 0340 569e 493e c716 f23d
00000300: 5047 d8bd 5d4a f23d 4538 c5bd 4928 063e
00000310: 7583 04bc 8cb2 683d 87d1 063f 82d6 ddbb
00000320: 1908 9c3c 2a54 e6be 866a e33e 0d7e 023d
00000330: 281a 6abe 5f97 bd3b 16c6 963d 7326 483e
00000340: a198 36bd d5a2 08be 8d4c c23d 07e6 dfbd
00000350: c325 9bbb fa8c 063e a8c7 41bd 88be 433e
00000360: c27e d6be 2e38 293e 07ab d1be ea18 c6bf
00000370: 3494 29be 8821 8abd da5c 12be 5823 0bbc
00000380: ebdd 103e 3a5b 10bd 1d04 913f fed2 0e3e
00000390: 1ba0 adbb 78b8 b0be 37a8 d8bf 9e09 f3ba
000003a0: f486 8f3e 43cf d33d 6127 633c 75a5 18be
000003b0: 35fc b2bd c2dd 1c3e cd7c 513d 0d20 173e
000003c0: bfa0 dabf 3e55 22be cfa3 ae3d 2e8f 7bbe
000003d0: 336b a2bd d37a b1be 5403 b33f 1f3c 283e
000003e0: bc82 cdbe a880 d63c 7d1d aa3d dab4 c43d
000003f0: 601e 633e c886 de3d 0fe7 27be 311b 773d

layers.1.bias f4 [128]
-0.019877212 0.06895921 -0.11706636 -0.07951088 0.022270681 -0.08413428 0.051018897 -0.015678462
0.03873405 0.021691063 0.026196763 -0.0324415 -0.066963024 0.064383104 -0.04478863 -0.008256023
-0.071849875 -0.00370003 -0.17113999 0.062625885 0.060266465 -0.049311336 -0.010716346 0.033701845
-0.032823563 0.066259995 0.053441953 0.06797524 0.07009913 -0.072032474 0.11805784 0.045925073
0.036316898 -0.009901848 0.13940622 0.019095542 -0.08413381 0.06876922 -0.18812874 -0.09405297
0.0014988945 0.005767562 -0.025082065 -0.0027826899 0.09403955 0.028688738 -0.006964049 0.02988256
-0.006041839 -0.0016336883 0.036085796 0.11673916 0.017899739 -0.10040397 -0.043135036 -0.044274196
0.011975029 -0.018929906 0.032228626 -0.08562618 -0.109162085 -0.0647314 -0.09731138 -0.028236005
-0.028375387 -0.08953638 -0.034421302 -0.08601519 -0.08255023 0.05288229 0.044346195 0.059115767
-0.069467336 -0.056098327 0.045075603 0.008859634 -0.03581054 -0.121440776 -0.03681102 0.0035868732
0.058498323 0.08390697 -0.045272496 0.09132024 0.057940528 -0.027574407 0.05085992 -0.07728994
-0.102181666 -0.13478908 0.12339152 0.06808447 -0.060236342 -0.04213863 -0.08651009 -0.10573077
-0.03203733 0.04425117 -0.12557928 0.016338002 0.059015635 -0.061454535 -0.001277103 0.009741881
-0.060271695 -0.08125365 -0.022728201 -0.072044894 0.008291361 -0.07946682 -0.04141451 -0.018752048
0.029962216 0.014802468 -0.034553014 0.024893051 -0.10206945 0.052287254 -0.021595862 -0.10724856
0.019615667 -0.10910626 -0.04503975 0.013248546 0.03993298 -0.0960587 -0.007158655 -0.017828923
00000000: 89d5 a2bc 7c3a 8d3d 7dc0 efbd 9ad6 a2bd
00000010: 0171 b63c 984e acbd 31f9 503d 1e70 80bc
00000020: 98a7 1e3d 75b1 b13c 989a d63c 61e1 04bd
00000030: e923 89bd 4adb 833d 4874 37bd 4544 07bc
00000040: 0726 93bd 347c 72bb 523f 2fbe 0042 803d
00000050: f8d9 763d affa 49bd 9d93 2fbc f20a 0a3d
00000060: 0072 06bd 52b3 873d f3e5 5a3d 9a36 8b3d
00000070: 2290 8f3d c385 93bd 4fc8 f13d ee1b 3c3d
00000080: 07c1 143d 5c3b 22bc 81c0 0e3e 416e 9c3c
00000090: 594e acbd e0d6 8c3d d2a4 40be d89e c0bd
000000a0: 8e76 c43a d1fd bc3b e778 cdbc ca5d 36bb
000000b0: cf97 c03d a504 eb3c ad32 e4bb 45cc f43c
000000c0: 9efa c5bb 7c21 d6ba b3ce 133d f114 ef3d
000000d0: 79a2 923c 99a0 cdbd 5dae 30bd dc58 35bd
000000e0: e932 443c e412 9bbc 2a02 043d c75c afbd
000000f0: 5f90 dfbd e591 84bd 304b c7bd 324f e7bc
00000100: 8073 e8bc d95e b7bd 5afd 0cbd bb28 b0bd
00000110: 1810 a9bd 1a9b 583d 5ba4 353d 6023 723d
00000120: e444 8ebd 5cc7 65bd 32a1 383d 0028 113c
00000130: 13ae 12bd f1b5 f8bd 27c7 16bd bf11 6b3b
00000140: f09b 6f3d 6bd7 ab3d a76f 39bd 1b06 bb3d
00000150: 0c53 6d3d b9e3 e1bc 7e52 503d 304a 9ebd
00000160: 9f44 d1bd 2606 0abe b1b4 fc3d df6f 8b3d
00000170: 62ba 76bd 8e99 2cbd 342c b1bd 6089 d8bd
00000180: 9339 03bd b740 353d db97 00be 46d7 853c
00000190: 61ba 713d c0b7 7bbd 7764 a7ba 699c 1f3c
000001a0: 74df 76bd 5068 a6bd 7e30 babc 468c 93bd
000001b0: 7dd8 073c 80bf a2bd 43a2 29bd e59d 99bc
000001c0: 5273 f53c 0d86 723c 7687 0dbd 83ec cb3c
000001d0: ca09 d1bd 292b 563d cee9 b0bc 22a5 dbbd
000001e0: 09b1 a03c 1a73 dfbd 9a7b 38bd 6e10 593c
000001f0: c490 233d 6cba c4bd 2793 eabb f60d 92bc

readout.weight f4 [1, 128]
-0.17793354 -0.62692916 -0.19278462 0.27603868 0.08335679 0.21716943 0.075223796 0.06790048
-0.035296675 -0.11078878 -0.0032306241 0.05706 -0.045190062 0.09858973 -0.14060174 -0.16297515
-0.034567915 -0.08342587 -0.8452052 -0.36385617 -0.098565325 -0.072331615 -2.5120842 -0.057163917
-0.031221358 0.3455469 -0.2874945 0.15735768 -0.019066252 -0.16591558 -0.13773796 0.21776327
-0.6809968 -0.05337387 0.3619936 0.16798353 0.012967499 0.03880215 1.3804593 0.005653674
-0.20388807 -0.22749212 0.003060362 -2.235218 -0.36213282 0.34573853 0.2518737 0.053800106
-0.5774861 -0.14305219 0.1782542 -0.14863917 -0.01726876 -0.4052552 0.06424567 -0.06320488
-0.94807243 0.35742128 0.16737759 -0.008074538 -0.860543 -0.0003932424 0.057533316 0.014263033
0.12897187 -0.9602977 -0.064576864 0.0039901286 0.049427718 -0.07947678 0.07287779 -0.16759709
-0.23903765 0.040966827 -0.087644994 0.17175716 0.11678985 -0.03762349 -0.02553761 -0.4531349
0.23227043 -0.2200266 0.01868922 0.037258435 -0.0015807579 -0.035386547 0.5371953 -0.04457489
0.06107334 -0.06577095 0.5431545 0.18478602 0.083237216 -0.32671973 0.2030686 0.23544209
-0.1613356 0.03620353 0.25524035 -0.282294 -0.08315991 0.056159507 0.3132745 0.002040819
-0.2160164 0.20393725 -0.17283924 0.049303245 -0.34685484 -0.11621327 0.033440705 -0.06894589
-0.21737057 -0.5246653 -0.08839822 -0.052417256 0.006502 -0.4921516 0.06774474 -0.36288327
0.0052530626 -1.0303891 -0.49310178 -0.021219524 -0.0050293943 0.10872527 0.065712206 0.007719032
00000000: 3634 36be 6e7e 20bf 5569 45be f154 8d3e
00000010: f7b6 aa3d aa61 5e3e ef0e 9a3d 680f 8b3d
00000020: 3f93 10bd 3ae5 e2bd e1b8 53bb bfb7 693d
00000030: 3719 39bd 6ae9 c93d e7f9 0fbe f5e2 26be
00000040: 1697 0dbd 2fdb aabd 5e5f 58bf 5b4b babe
00000050: 9edc c9bd 9922 94bd fdc5 20c0 b624 6abd
00000060: efc3 ffbc 86eb b03e 7b32 93be 5f22 213e
00000070: d430 9cbc c6e5 29be 2e0b 0dbe 56fd 5e3e
00000080: ce55 2ebf 8f9e 5abd 3a57 b93e e003 2c3e
00000090: a275 543c 01ef 1e3d e4b2 b03f 7442 b93b
000000a0: 09c8 50be b2f3 68be 5b90 483b d00d 0fc0
000000b0: 7969 b9be a404 b13e 97f5 803e 805d 5c3d
000000c0: 21d6 13bf 467c 12be 4588 363e de34 18be
000000d0: 3777 8dbc 9c7d cfbe 3c93 833d 8f71 81bd
000000e0: e0b4 72bf ecff b63e 0865 2b3e 114b 04bc
000000f0: 8c4c 5cbf 1a2c ceb9 0ea8 6b3d 7faf 693c
00000100: 3411 043e 12d6 75bf e040 84bd a0bf 823b
00000110: b874 4a3d b9c4 a2bd f340 953d 929e 2bbe
00000120: 49c6 74be d5cc 273d 387f b3bd 1ce1 2f3e
00000130: 842f ef3d 171b 1abd 4034 d1bc 4c01 e8be
00000140: 4dd8 6d3e a74e 61be 231a 993c 4d9c 183d
00000150: 6f31 cfba 7cf1 10bd a285 093f 2994 36bd
00000160: 0a28 7a3d ebb2 86bd 2c0c 0b3f 8c38 3d3e
00000170: 4678 aa3d cf47 a7be 37f1 4f3e bb17 713e
00000180: 2935 25be 274a 143d ddae 823e d788 90be
00000190: be4f aabd 8307 663d 8465 a03e 43bf 053b
000001a0: 6733 5dbe edd4 503e c5fc 30be 33f2 493d
000001b0: f596 b1be 3901 eebd 1ff9 083d 8133 8dbd
000001c0: 6496 5ebe 7750 06bf 200a b5bd 7ab3 56bd
000001d0: bb0e d53b 4bfb fbbe c1bd 8a3d d6cb b9be
000001e0: e221 ac3b cae3 83bf d677 fcbe 91d4 adbc
000001f0: 9ecd a4bb 5bab de3d 1f94 863d efef fc3b
