HW9/9_gym-DDPG/results/DDPG_Pendulum-v1_2000-eps0.1-t32-l0.0001-s1-u100.pth (torch, 176270 bytes, 12 tensors)

layers.0.weight f4 [128, 4]
00000000: baf7 193f 728d 0cbf 5b23 24be 9b83 373e
00000010: 25f4 10bf 4bd2 7c3d ce31 21be 362c 393e
00000020: 21bb 4ebd 34cb 95bc e4a6 833d 0cba ccbb
00000030: ef9f 873f 4ec3 07bf 9a23 e3bd 8fa9 08be
00000040: fdd6 213d 7c4a bc3e ad1f ec3e 8901 173d
00000050: 782e 93be f1ce 5cbf fdee 0cbe 29bb 51bc
00000060: c87d b9be 93d2 903d 0352 9e3e 9a13 a73e
00000070: 7aa7 13bf 9e72 183f 6c78 043e 8847 5f3e
00000080: 80ce 1a3f e7c7 ffbe 23fb 02bf b844 99be
00000090: 73df 283f a03f 303e c3b6 a63e c170 03bf
000000a0: 1b64 d03e 1372 36be 3dd5 e13e 7fb2 82bc
000000b0: 6c29 b2be d992 82bd af96 90be d5f6 743e
000000c0: a497 92be 7c4a 8abe f823 04bf 0f5c 58be
000000d0: fed6 ff3e 9c64 f33d 17fc f53e 2737 b93e
000000e0: f139 74be d932 85be 4b82 9f3e b494 d23d
000000f0: b88d a8be 0ddd 5f3f 0b82 6b3e 5fa1 293e
00000100: f76b cfbe f098 64be 9184 253d eded 1ebd
00000110: 59b9 36bf 11ae e8bd 5eb9 b93e 9728 07be
00000120: 003c ad3e bc4f c83e fbdc 513e 5a23 273c
00000130: e06b be3c 42f6 033f 9b00 debe 705f 1a3e
00000140: 1ec3 e2be a5de 25bf 161f 92bc 5ee3 75bd
00000150: 1b47 ff3e 42db 48bf faef c6be 16c4 bb3e
00000160: a416 89bd 4598 303f f763 3f3e 748a 2fbe
00000170: 714a 473c d54f 7b3d 858f bebe f1e4 7bbd
00000180: 2545 a43d 5b22 4dbe 1a5d 1ebe 735c 22be
00000190: b21b dc3e 3294 24be c989 aa3e 7f66 553e
000001a0: 96a2 f4be 0edd c8be 9223 113f fc0b 8f3c
000001b0: b9ae 863e 62b5 993e b522 d33b b02d 5b3e
000001c0: 711d 003f c983 1cbf c695 9e3d 7b00 193e
000001d0: 8648 a93e 7d66 953e 4536 dabe 4f2e 87be
000001e0: 2bd6 a7be 5e7f 453f 5be6 073f 5851 ccbe
000001f0: 6835 b83e 9ce6 46bf 7f09 eabe 2b7a c63c
00000200: 147e 083e 3b22 fd3e f1a9 c2be 648b f43d
00000210: 9bb8 623f 59bf 1f3f 9fef b63e e1cb 873e
00000220: a0ab c93e 461f 373d 1f0b b4be 735d dcbe
00000230: 678b adbe a60e d1be 708e 78be 1ba1 243e
00000240: 5a7e d2bc a64d 743d f1b8 8c3e 603e 47bd
00000250: 7b1a b23e 5551 483f 35e0 edbd 6dae e73e
00000260: 9151 16be ea97 39bf af4b c3be 76b5 e9bd
00000270: 38fe f2be 7529 903e aa64 d53e 082d 7cbe
00000280: b618 d0be 852b a33e 5b94 073e e8ea 2a3e
00000290: 08d8 80be c94c 3abf fb74 49be 4a7c 26bd
000002a0: bc65 fbbe 04a1 06bf 4b0f b9bd de13 1c3e
000002b0: 4954 c53e d85a c93e a229 f33e 0303 d23e
000002c0: 3fbb a03e 214d 223d 4f3a afbe fdfe df3e
000002d0: 3fa9 98be 8ebd 40bd a98e efbe e1b2 c7bc
000002e0: 49f1 eabe 4c04 433e fb21 03bf 833b 6fbe
000002f0: efe0 47be f870 52be 71f8 7c3e d114 71be
00000300: 40da b8be 3bf6 ee3e 3ed8 ab3e 9036 ccbe
00000310: 6cc1 843e 6b64 fe3e 3856 f83e 8dc6 07bf
00000320: 6dc9 edbc 9bf8 0ebf b18d e73e 9256 2abe
00000330: 6114 6e3f ae59 7fbd 8f5a 88bd 98a9 e2bd
00000340: bc2c d4bc 324e 253f cdca af3d 6851 2f3c
00000350: 89ba dfbe 27cd 923f c2a2 af3e e9dc 333e
00000360: 7815 c13e 9601 ffbe f111 84be b6e2 f73e
00000370: 5edc 1bbf 773f 003d ebe7 d5be d5dd 3ebe
00000380: 8579 7c3e 0658 4cbf c8bb debc 8fb8 223e
00000390: dd9b 9f3e 5070 013f d41c 79be 3ac3 e2be
000003a0: 5311 263f fe7f 5dbd c49c 7ebe 7dd7 893d
000003b0: fda1 c4be 323e 0f3f eb4d 983e cd87 d7be
000003c0: 7699 c4be d091 3c3f 5d2a 913e 0751 cc3d
000003d0: 8d78 71be a3e8 37bf d589 16bf 2a9e b0bb
000003e0: 5f03 8cbe c655 683f c71b c53e 1089 2bbe
000003f0: 573f b3bd 9502 dc3e 3c41 8dbd 9d06 2cbe
0.60143626 -0.5490333 -0.16029112 0.17921297 -0.56622535 0.06172399 -0.15741655 0.18083271
-0.05047143 -0.018285371 0.06428316 -0.0062477645 1.0595683 -0.53032386 -0.11090775 -0.13345931
0.03951167 0.36775577 0.46117917 0.0368667 -0.2874639 -0.8625327 -0.13763042 -0.01280097
-0.36228776 0.07071414 0.30921945 0.32632142 -0.57677424 0.5954989 0.12936562 0.21804631
0.60471344 -0.499572 -0.51164454 -0.2993524 0.65965956 0.17211771 0.3256131 -0.51343924
0.40701374 -0.17816953 0.44108 -0.015954254 -0.34797227 -0.06375665 -0.28239962 0.23922284
-0.28631318 -0.27009952 -0.51617384 -0.21128868 0.49968714 0.11884424 0.48043892 0.3617489
-0.23850228 -0.26015356 0.31154093 0.10282269 -0.32920623 0.8744667 0.22998826 0.16565464
-0.40512058 -0.22323966 0.04040963 -0.038801122 -0.7137657 -0.113613255 0.36274236 -0.13199078
0.3383484 0.39123333 0.20494454 0.0102013 0.023244798 0.51547635 -0.43359837 0.15075469
-0.44289488 -0.64792854 -0.017837089 -0.060031287 0.49858937 -0.7845956 -0.38854963 0.3667304
-0.066937715 0.68982345 0.18690477 -0.1714266 0.012163744 0.06135543 -0.37218872 -0.061497632
0.08021001 -0.20032637 -0.15465203 -0.15855579 0.4298988 -0.16072157 0.33308247 0.2083988
-0.47780293 -0.3923115 0.566949 0.01746177 0.26305178 0.30021197 0.0064433464 0.21404147
0.50044924 -0.6113859 0.07743411 0.1494159 0.33063143 0.29179755 -0.4261953 -0.26402518
-0.32780585 0.7714747 0.5308587 -0.3990581 0.35978246 -0.7769563 -0.4571037 0.024228176
0.13329345 0.49440178 -0.3802028 0.11940649 0.88562936 0.6240135 0.3572969 0.26522735
0.39388752 0.04470756 -0.35164735 -0.43040046 -0.33895418 -0.40831488 -0.24273086 0.16077082
-0.025695015 0.059644364 0.2748485 -0.04864347 0.34785828 0.782491 -0.1161503 0.45250264
-0.14679553 -0.7249743 -0.3814368 -0.11411564 -0.4745958 0.2815663 0.41678363 -0.24626553
-0.40643853 0.3186914 0.13240187 0.16691172 -0.2516482 -0.72773415 -0.19673531 -0.040645875
-0.49101055 -0.5258944 -0.0903612 0.15241954 0.38540867 0.3932712 0.474927 0.41017923
0.31392857 0.039624337 -0.34224173 0.43749228 -0.29816625 -0.047055773 -0.4678853 -0.024377288
-0.4588721 0.19044608 -0.51223725 -0.23362546 -0.19519399 -0.20550907 0.24704148 -0.23543097
-0.36104012 0.46672234 0.33563417 -0.39885378 0.2592882 0.49685988 0.4850328 -0.5303734
-0.029026711 -0.5584809 0.4522529 -0.16634586 0.92999846 -0.062341385 -0.06657898 -0.11067504
-0.025900237 0.6457244 0.08583603 0.010700561 -0.43697003 1.1468858 0.34303862 0.1756474
0.37711692 -0.49805897 -0.25794938 0.48415154 -0.6088313 0.031310525 -0.41778502 -0.1863931
0.24655731 -0.79821813 -0.02718915 0.15890716 0.31173602 0.50562 -0.24327403 -0.4428957
0.64870185 -0.05407714 -0.24864489 0.06730554 -0.38404837 0.5595428 0.29746947 -0.42095795
-0.3839833 0.7365999 0.28352633 0.09976392 -0.23581143 -0.7183935 -0.58804065 -0.0053899484
-0.27346322 0.9075588 0.38497755 -0.16751504 -0.087523155 0.4297072 -0.06897208 -0.16799398

layers.0.bias f4 [128]
00000000: f55f 7ebe 303c e33e a988 d93e 0ac5 95be
00000010: 98c1 debe 091f b8bd e537 8bbe 7f63 323e
00000020: 6c7c ddbe e246 8dbe 3509 9e3e b15b a8bd
00000030: e224 e1bd 6e22 1abf 1c1a a43e 042d 2e3e
00000040: 95fb 01be 4a9a ffbd eb0c 3d3e 76e8 ab3e
00000050: 01f0 993e 815d a63e 2ad0 8a3d 2134 d5be
00000060: 9d4a ef3e b7e2 9bbc 4328 c2be cf8b 183f
00000070: 2653 973e f9ef dbbe 42c0 a0bd ffc7 433c
00000080: d573 43be eccd a13e 5175 d3be ed6d 113f
00000090: 9006 3abe 0eac b33e 86bb 3d3e 119f b9bd
000000a0: 6916 003f 74cb a2be 2c5a cbbd f784 b53c
000000b0: d501 d23e 8bbf 22be 71d5 9dbe 40d7 cabe
000000c0: 7753 17be e572 58be 7642 07be c354 22be
000000d0: a40c 983e 8b54 083d 0fa1 5abe fc67 4dbe
000000e0: 8aea 873e 8848 1c3e 56bb ae3e b7ce 9d3d
000000f0: 8c95 b0be 06fc 5ebe 3076 44bd 2d42 04bd
00000100: 9ddd 453e 8f78 38be cba7 553e 9d44 44be
00000110: 9f69 f43e 5bb6 923e 8255 02be befa 133f
00000120: 2a9a 773e c8a0 afbe e234 b5bd 374d e23e
00000130: 9aae ba3e 9ec9 f53e 72bc 303d f4ac f63e
00000140: 33dd b53e 54b0 863e d6f7 51ba 3b35 cd3e
00000150: 98ac 883e 5c0a 81bd 4b95 173e 35ad 203f
00000160: 2ea6 db3e dce9 a53d dc39 1f3f 15b8 8d3e
00000170: 9bc9 6abe d503 a0be f818 e33e eb11 193f
00000180: aec6 1ebe 505e b43e 35b1 053c a8c6 84bc
00000190: 22f2 dcbc df74 523e ea4e c13d dc7f f03e
000001a0: 9159 963e 5644 c33e 2d3f 163f d826 983e
000001b0: 7fc6 803e 147e bebe 00e4 033f c5af 03bd
000001c0: dd67 d73e 2f90 f63e 38e1 893d f8c0 c03e
000001d0: fe89 43bd debd 0b3f b4e0 133f 7308 5fbd
000001e0: 68a6 e03d fba8 43be 0be2 3ebd 5493 e33c
000001f0: 0c7c a53d 8628 653d eea6 f2be a542 b0be
-0.24841292 0.44381857 0.42487076 -0.2925189 -0.43507075 -0.089902945 -0.27191082 0.17420767
-0.4325899 -0.27593142 0.308664 -0.08220614 -0.10993363 -0.60208786 0.3205117 0.1700936
-0.12693627 -0.124806 0.18461959 0.3357579 0.3006592 0.32493213 0.067779854 -0.41641334
0.46736613 -0.019029004 -0.37921342 0.5958833 0.29555625 -0.42956522 -0.0784917 0.011949538
-0.19087155 0.31602418 -0.41300443 0.5680836 -0.18166566 0.35092205 0.18528566 -0.09063543
0.50034195 -0.31795847 -0.09929308 0.02215813 0.41017023 -0.1589338 -0.30826905 -0.39617348
-0.14777933 -0.21137579 -0.13208947 -0.15852647 0.29697144 0.03328375 -0.21350501 -0.20059198
0.26546127 0.15262043 0.341273 0.07705443 -0.34489095 -0.21775827 -0.047964275 -0.032289673
0.1932282 -0.1801474 0.20864789 -0.19166799 0.47736832 0.2865475 -0.12727931 0.5780448
0.24179903 -0.34302354 -0.08847977 0.44199535 0.36461335 0.48005384 0.043148465 0.48178828
0.35520324 0.26306403 -0.0008009648 0.40079674 0.2669418 -0.06300804 0.14803044 0.6276429
0.42900223 0.08101246 0.6219766 0.27679506 -0.22928469 -0.31252924 0.44354987 0.59792966
-0.15505478 0.35228205 0.008159925 -0.016208008 -0.026970927 0.20552395 0.0943888 0.4697255
0.2936521 0.38138074 0.5869015 0.29717135 0.2515144 -0.37205565 0.51519775 -0.03215005
0.4207143 0.48156878 0.0673241 0.37647223 -0.04773902 0.5458659 0.57764745 -0.054451417
0.109692395 -0.1910743 -0.04660229 0.027780212 0.08080301 0.05594685 -0.47392982 -0.34425846

layers.1.weight f4 [128, 128]
00000000: 5303 cb3d 3aa0 5c3d ec5d 2b3e fe10 813e
00000010: 1164 163d 741c 053e f255 bdbd 2c97 163e
00000020: 81e4 99bd 37e2 d3bc 7c31 4abd a23a 563d
00000030: cf07 99bd 2478 2dbd 250a 36bc 5da7 aeb9
00000040: 8f10 a83d e98f dc3d 1a6f 38bc c9b9 473d
00000050: df03 673c bcf4 b33d 55b1 1d3d 3aca 01be
00000060: d965 023e f567 b0bc d58c a43d 90d3 0a3d
00000070: acf0 9cbd f931 96bd a3c2 513d 07c1 4e3c
00000080: a1a9 a7bd 5a26 573d abb2 c8bc 2668 ed3d
00000090: 1020 8abd b84d c0bc 3113 a33d 0682 e2bc
000000a0: 5101 1e3e f1fa b23d 5cd2 debc 8e1c d9bc
000000b0: 41ff 023d bed7 adbd a3d2 dc3c cab7 8cbd
000000c0: d197 06bd ce00 70bd c789 443d fd4f 1bbc
000000d0: 2fd8 893d 5da3 db3c fefe 6bbd 681d 9fbd
000000e0: b456 853d a402 5cbb 8284 b83d 3531 d93d
000000f0: fe0d 8abd 4d44 5abd 482a ac3b a428 9e3d
00000100: 63ad 19bd 3b4b 37bd b0da b63d 1287 8c3d
00000110: 7151 033e bd6c d73c c809 60bc 2c31 433d
00000120: 4a7c 253e 3bad 63bd 5352 82bd 225f dc3d
00000130: 45de 6e3c d06a 093e d319 5f3d 4096 3b3d
00000140: 032b 313e 7c2a b33d 3efe 443d e648 30bd
00000150: b8d7 f63d cd38 9e3d d975 b13d b869 4e3d
00000160: 497f 893d cf49 213c fe92 203e 2cfb ce3d
00000170: d622 80bc 1260 dcbd b926 263e 40e7 d83d
00000180: a3f1 033e dcdb af3a 6d63 413d f2ac dcbc
00000190: 03f5 94bc 99ba 253c 76f0 8c3c cc7c b03d
000001a0: 4ba7 96bc 936f eb3d d989 0f3e 2bc3 1a3e
000001b0: 8818 df3d dd70 5b3c ce50 c73d 198e 943d
000001c0: 777e f53d 77d1 11bd 280f 923b 814c d13d
000001d0: 7252 a13d 85c5 263e 565d 573c 1462 d13c
000001e0: 5497 1bbe 6ec1 42bd 45ce 023e 87db 04be
000001f0: 3249 d3bc bbce 313d e511 75bc 08ed 1ebc
00000200: 44ba 183e d727 ea3d 183e 70bb ebdf 943e
00000210: 50e7 17be c17e 343e 48ac a73d 2d31 7b3d
00000220: 25f3 873d 79df 10be 6505 e9bd ac81 94bc
00000230: bce9 24bd 47ea e4bd 3853 103d b2db 9d3d
00000240: d468 1f3d c225 363a 21f5 4ebe a807 bbbd
00000250: 9d0e 473e 83aa 943d d24e 7bbd a5a5 63bd
00000260: 583f 373d ac2f 21bd f6f9 aa3d 6f39 f53b
00000270: 5c0e 59bb 220f 22bd f111 c33c 7d47 173c
00000280: 5890 4dbd b279 4dbd 0263 8f3d cb33 3c3e
00000290: 27d0 d5bd e8fe f4bd bfc6 2e3d a3a8 da3d
000002a0: e82e 583c 84d8 debc 4dab c53d d7bf bfbd
000002b0: 348e c53c 1445 82bc 97a4 2fbd 7dd8 073b
000002c0: eb4a b73d 294f 383d 8713 793c 3b44 133e
000002d0: d990 fa3d fc3d 0d3e 2c7a 0cbc 7474 103d
000002e0: 87bf 1b3c 8021 d2bd ffcb babc 32f8 0f3d
000002f0: f1a3 613c 4e4e 5cbb 8040 8a3d 883e 4dbd
00000300: 4224 bbbe 3a1e 1bbe ad09 5e3d 8cb5 22be
00000310: b9ad 8b3d 3322 153d 6a94 e7bc 7681 1a3e
00000320: faac e83d d874 ddbd 267e 81bd 3730 b83d
00000330: c33f c03d 2fa9 11bd 3ff0 40bb 1f0d 983d
00000340: 8807 b53d 1e35 f93d dfe1 95bc 0644 41bc
00000350: cf5e 253d 4299 5a3d 668d 8d3d 249f 003e
00000360: c261 babb 07a1 62be c1c6 0b3d d51d a5bd
00000370: 3fcd 8e3d abbf 4dbd 118e 083d 011f f83d
00000380: d8ab fb3d 1bf0 053e 02b5 17bd d7ce 23be
00000390: 2bff 933d 85fb 343e a00d 8bbd 3002 323d
000003a0: a01e 623d 628b ab3d 893f c73c e653 823d
000003b0: 3f61 0cbd 5496 27be 93ad 1fbd 3211 c2bd
000003c0: 0141 903d 116a f5bd c5e2 993d 959a 9d3d
000003d0: 7ac0 513d c023 8a3d 0cb7 3ebd 978c 203e
000003e0: 583b 38be 41fa 943d d664 30bc 2686 e0bd
000003f0: c327 913d 5850 bc3d b626 d43d 5446 42bd
0.099127434 0.05386374 0.16735047 0.25208277 0.036716525 0.12999135 -0.092449084 0.14706105
-0.07514287 -0.025864704 -0.0493636 0.05230201 -0.074721925 -0.042350903 -0.011110817 -0.00033312562
0.08206283 0.10769636 -0.011256957 0.048761163 0.014100044 0.08786914 0.038499195 -0.126748
0.12734164 -0.021533946 0.08034674 0.033893168 -0.07663092 -0.0733375 0.05121101 0.0126192635
-0.08186651 0.05252681 -0.024499258 0.1159213 -0.06744397 -0.02347456 0.07962645 -0.02764989
0.1543019 0.087392695 -0.027199917 -0.026502874 0.03198171 -0.08488415 0.026955908 -0.068709925
-0.032859627 -0.058594517 0.047982957 -0.00947952 0.06730687 0.026811296 -0.057616226 -0.07769281
0.06510678 -0.003357091 0.09009649 0.106050886 -0.0674095 -0.053287793 0.0052540638 0.07722595
-0.03751887 -0.04474948 0.0892843 0.068617 0.12824036 0.026296968 -0.013674207 0.047654316
0.16160694 -0.055585127 -0.06363358 0.10760333 0.01457936 0.13419652 0.054467987 0.045797586
0.17301564 0.087483376 0.048094027 -0.04303827 0.12052864 0.07725678 0.08665056 0.05039379
0.06713731 0.0098442575 0.15681073 0.10106501 -0.015641611 -0.107605115 0.16225709 0.105909824
0.12885146 0.0013416964 0.04721396 -0.026937936 -0.018183237 0.010115289 0.017204504 0.08617553
-0.018390318 0.114958905 0.14017428 0.15113513 0.10893351 0.013393608 0.09732209 0.072536655
0.11987012 -0.035600152 0.004457373 0.1021967 0.07877053 0.16286285 0.013144812 0.025559463
-0.15194446 -0.04754775 0.12773998 -0.12974368 -0.025791738 0.043410044 -0.01495788 -0.009700067
0.14914805 0.1143338 -0.0036658105 0.29077086 -0.14834332 0.17626478 0.08187157 0.061326195
0.06638173 -0.14147748 -0.11377982 -0.018128239 -0.04026197 -0.11177497 0.035235614 0.07707919
0.03891833 0.00069483754 -0.20210697 -0.0913232 0.19439168 0.07259085 -0.061354466 -0.055577893
0.044738144 -0.039352104 0.083484575 0.0074836533 -0.003312013 -0.039565213 0.023812266 0.009233353
-0.050186485 -0.050164886 0.07001306 0.18379132 -0.104400925 -0.11962682 0.042670008 0.10676696
0.013194777 -0.027202852 0.09651814 -0.093627624 0.02411566 -0.01590208 -0.042881574 0.0020728402
0.08949836 0.044997368 0.01520241 0.14381497 0.12234659 0.13793176 -0.00857405 0.03526731
0.009506113 -0.10260296 -0.022802351 0.035148807 0.013771997 -0.003361601 0.06750584 -0.050108463
-0.365511 -0.1514825 0.054208446 -0.15889567 0.06820244 0.036409568 -0.028269012 0.15088448
0.11361118 -0.10813302 -0.06322889 0.08993571 0.093871616 -0.035561737 -0.0029440073 0.07424378
0.08839327 0.121683344 -0.01829618 -0.011796003 0.04037362 0.053368814 0.06911735 0.12560707
-0.005687923 -0.2213174 0.034125093 -0.08062331 0.06972741 -0.050231617 0.03333861 0.121152885
0.12288636 0.13079874 -0.037037857 -0.15996872 0.07226404 0.17674072 -0.06789708 0.043459117
0.055204988 0.083761945 0.024322288 0.063636586 -0.03427243 -0.1636594 -0.038983893 -0.09475936
0.070436485 -0.11983121 0.07513956 0.076955 0.05120895 0.067451 -0.046561286 0.15678631
-0.17991388 0.07274295 -0.010766229 -0.10963087 0.07087662 0.09195012 0.10358946 -0.04743035

layers.1.bias f4 [128]
00000000: c21b 1b3e 9eac 913c 8477 b33d fa9e 3e3d
00000010: 41e2 e6bc 2be9 9b3d db13 f63d 0f5c 54bd
00000020: 4592 263e 4fd0 f63d 270c d0bc a9c3 103d
00000030: 9791 033c 1f16 0a3d 0d9e b33d 7a00 973d
00000040: f558 013e b59a 91bd 5250 82bd 5c0d 8e3d
00000050: 4ba5 373e 6674 d93d 1a7f 8bbd 4492 163e
00000060: cf66 533e 31eb 573c ae0b ea3d 57fc 673d
00000070: e5ee 3b3d 3452 143e 643a 833d fd2c 73bd
00000080: b7bb e03d 3fba 263e 5189 c53d 87c0 e13d
00000090: c5ee 92bb 23c8 f33d deab a7bd 547b 363e
000000a0: 4cb3 3a3c 1b30 90bd 9cb2 833d 51aa 4b3d
000000b0: 93f1 95bd 3cef 353e 6474 d73d 2e2f 253e
000000c0: e80a 273e b418 d23d a226 85bc 6662 e53d
000000d0: 5e1d 2e3e 0621 9f3d 9217 0a3e 41b1 453e
000000e0: 66d4 c53d c9a9 ed3d 4446 e43d 800d 60bb
000000f0: 61b8 313e b75f b5bd 14ea 96bc b42b c13d
00000100: 7bfd 713d 0e8c 263c 70d2 063e 77ef 0e3e
00000110: c474 303e a7b2 193e ec56 cf3c 6a80 3a3e
00000120: e718 5b3d 7f5f cd3d b346 103c 64f8 3f3e
00000130: 4e94 5b3e 3af6 173e c933 bc3d 7d9e ef3c
00000140: eb62 4a3e bb0e 643d 5f9d 223e 7408 d5bb
00000150: 4555 b5bd 219d 3e3e b6c3 2ebd b3b2 043b
00000160: eb2e 283e 3128 063d 0ede 1d3e 3a2f 6c3d
00000170: 889d 0f3e 1e3a 153e ea96 133e e2ae a63c
00000180: 87b9 113e 1752 143e c726 6f3d 8ac5 063d
00000190: 5dc3 82bd fcac 4c3e b532 bd3d 3249 2fbd
000001a0: 0cdd 763d 003b cc3c 7c4a 0c3e e9ad 953d
000001b0: f6cc b93d 3f40 443d c4ae f43c 7ef9 023e
000001c0: e5cd 2c3e c1bf 1e3e c1a3 883c 2e24 943d
000001d0: d71f 793d 7fe1 f53d a60d f93d 5574 8d3d
000001e0: 5db0 abbd 93c7 d33c e8eb b43d 57f6 413e
000001f0: 43bf 043e 0d79 65bd 2d96 0c3e c599 223e
0.15147308 0.017782506 0.0876303 0.04653833 -0.028184058 0.07612833 0.12015506 -0.051845606
0.16266735 0.120514505 -0.02539642 0.035342846 0.008030317 0.033712503 0.0877038 0.07373138
0.1263159 -0.07109586 -0.06362976 0.06936142 0.17934148 0.10617904 -0.06811352 0.14704233
0.20644687 0.013178633 0.11428009 0.056637134 0.045882124 0.14484483 0.064076215 -0.059369076
0.10973304 0.16281985 0.09645332 0.1102305 -0.00448403 0.119034074 -0.08187078 0.17820483
0.011395287 -0.070404254 0.064305514 0.049722973 -0.07321467 0.17767042 0.105202466 0.16131279
0.16312754 0.10258618 -0.016253773 0.11200409 0.1700339 0.077699706 0.13485554 0.19305898
0.096596524 0.116046496 0.111462146 -0.0034187734 0.17355491 -0.08856147 -0.018422164 0.09432164
0.05907963 0.010165228 0.13166213 0.13958536 0.17232043 0.15009557 0.025310002 0.18213049
0.053490546 0.1002798 0.0088059185 0.18747097 0.21443292 0.14840022 0.09189565 0.029250378
0.19764297 0.05567811 0.15880345 -0.006501252 -0.088541545 0.18614627 -0.042667113 0.0020248115
0.16424148 0.032753173 0.15416738 0.057662226 0.14024937 0.14572951 0.14413038 0.020347062
0.1423093 0.1448444 0.05838659 0.03290323 -0.06384919 0.19987863 0.09238187 -0.042794414
0.0602694 0.024930477 0.13700289 0.07308561 0.09072296 0.047912832 0.029868491 0.12790486
0.16875418 0.15502836 0.016679646 0.07233463 0.06082138 0.120059006 0.12160806 0.06906954
-0.08383248 0.025852 0.08834058 0.18941627 0.12963586 -0.056023646 0.13729163 0.15878971

layers.2.weight f4 [64, 128]
00000000: 4c53 fe3b b8bc 3f3d c84e a83d 4d46 083d
00000010: b139 66bd 5166 d43c 8e2a a2ba 2048 963d
00000020: 8d84 413d 60b8 7abb 653f f43b 5afd 153d
00000030: 8739 b13d 816d 3b3d 5610 8a3c 3e69 453d
00000040: e64e 483d 37cb 6b3d 039b 0dbc 5353 e83c
00000050: e1d7 23bc c6ee 7c3d 1233 1dbd ea43 fc3b
00000060: 24cc 1ebd ccc9 6cbc aa09 013d 9910 f8b9
00000070: 7307 babd 525a 1f3c ca2e 2ebd 73ec be3a
00000080: 372d c73c 7b04 2dbc efd0 1b3d 3a8e b0bd
00000090: b4cf 003c 1062 863d 81b9 8bba 4dd6 8b3d
000000a0: 62f0 0ebd 3974 dc3c 5193 9ebd 98bf 89bc
000000b0: 9805 68bd 236c 073d a505 053d 4456 a8bc
000000c0: 451a 66bd 75d3 4bbd 57eb 403d 02af 13bd
000000d0: 2f15 c0bd 8e17 7f3d 1308 2f3c e406 5c3d
000000e0: def5 0b3d 3224 84bc ed30 9cbd 1fdc 21bc
000000f0: e329 36bc a03e c93c 801f b9bd e7e0 18bc
00000100: b266 97bd 1959 4ebd 9cf4 adbd 1e9f 773d
00000110: e433 8f3d cd8d 3fbd 7da0 29bd d0c1 323d
00000120: 9c80 f3bb 5b94 b8bc 156f 6dbc 4c32 b6bd
00000130: 1830 84bd 1154 613d 2bae 84bd c56b 373d
00000140: 77f7 22bd 2f7d 80bd 3f03 3fbd 5c21 573d
00000150: 9493 b5bd 3611 f93c 9d12 a73c 4544 ca3c
00000160: f76c a8bd 0da5 85bd 1654 b8bc 3fee 18bd
00000170: 520e 10bd bf99 c63c fbaf 183d 8014 843d
00000180: abc1 45bd bb10 5cbd f8e7 9e3d d30c 58bc
00000190: c8e3 d7bc 0db3 363d 9a96 95bd 5341 0a3d
000001a0: ed2f 1ebd 28de ddbb d19b 27bd 1e5c 8ebd
000001b0: 9d1c 8abc 277b 6b3c d5d1 2fbd f847 243c
000001c0: 5d3c a6bd 356c 84bd 114f 0f3d 6293 813d
000001d0: 9592 343d 1309 82bd 0ad2 5c3d 0c0f 6abd
000001e0: 6472 133d 2cbb 393c 8114 e6bc 5ed0 a4bd
000001f0: 1a7b a6bd ea58 b5bd d374 a3bc d588 873d
00000200: ec34 343d fcbc 443d 056e 8dbd f380 833d
00000210: 6ae3 9d3d 2636 ed3d 263e 43bd c813 493d
00000220: 2b11 a63d da88 f33c 660c 033e 0ce5 0abe
00000230: afd7 953e a930 863e a9ab 003f c482 3cbd
00000240: ae9f 463c 4426 873e f4f4 8fbd 49c2 14bc
00000250: f3f3 833d ca86 3f3d f6b6 153d 64ee c4bb
00000260: 5535 163b 371b 913d 0df8 debd 4a6e 9abc
00000270: d2e1 36be 5d19 6b3d b162 a43c 2a0c e9bc
00000280: be91 83bb 0a4f fa3c 1db2 3abc 3044 c33d
00000290: 38ec 543c 0c3f 7bbc a319 413e e80a bdbb
000002a0: 6869 ad3b 1bfc afbd f880 4d3d 5eab e83b
000002b0: bbbe 4abe 61e9 a23d bf2b 6bbd dc41 8cbd
000002c0: 08f4 eb3c 21ed 8e3c 3543 4b3e 8c95 403b
000002d0: 6da2 dc3c 1c01 02be c4dc 803e 3f07 a8bd
000002e0: 24f3 58bd fcc8 dfbd 2b2b 0abd 17fe b2bc
000002f0: b547 d1bc e73b ff3d a55f e43d a0b6 873d
00000300: cda4 b93d f534 bb3d 273c bebe be58 09bd
00000310: fc23 913d 4fb1 54bb 0063 993d e3fd 873d
00000320: 6ac2 9f3d 3689 173c f3c5 0dbd df72 87bd
00000330: 5737 80bc 24b0 14be ae82 4e3d c3fa d63d
00000340: 702b a53d e544 dbbd c81c 343d 1060 04be
00000350: 3d8f b93d 3301 6ebd 6487 5b3c c45d 9fbd
00000360: e18c 63bc 910a 8d3d edf6 b8bc 6bbb 4c3d
00000370: 3f1d 803c 42e6 103b f0df bc3d 5019 ab3c
00000380: 01c0 49bd 6691 c93d 0955 953d 195b cfbc
00000390: 7d7e 893e 1318 2fbc fc11 233d b312 093e
000003a0: da54 a5bd dad1 c23d 6e92 933d a57a d4bd
000003b0: c224 9abd 70e5 e03d 6a8e b63d fb7b 1abe
000003c0: 04a1 ebbc 83f8 9a3d e2b9 043e ba6b 94bd
000003d0: ad4f 4cbd 1531 26bd ca6c 8cbd 28cf 53bc
000003e0: 2cab f23d 6729 20bd 92a9 22bd b928 35bc
000003f0: 526b d9bb 2eb5 40bd ae4a 033d f5ab 7cbd
0.0077613946 0.046810836 0.08218151 0.03327017 -0.056207363 0.025927695 -0.0012372301 0.073379755
0.04724555 -0.0038256869 0.0074538463 0.036618568 0.086535506 0.045758728 0.016853493 0.04819607
0.04890337 0.057566848 -0.008642915 0.028360045 -0.0100002 0.06175115 -0.038378783 0.0076985257
-0.038768902 -0.014452409 0.031503357 -0.00047314612 -0.09083452 0.009726124 -0.04252509 0.0014566317
0.024313552 -0.01056015 0.03804105 -0.086208776 0.00786202 0.06561673 -0.0010660143 0.06827984
-0.034897216 0.026910888 -0.07742942 -0.016814992 -0.05664596 0.03306211 0.032476086 -0.020548947
-0.056177396 -0.049762208 0.047099438 -0.036055572 -0.093790404 0.062278323 0.010683077 0.05371751
0.034170024 -0.01613054 -0.07626519 -0.009879141 -0.011118385 0.024565995 -0.09039211 -0.009330965
-0.073926345 -0.05037794 -0.08493921 0.06045448 0.06992319 -0.04676609 -0.04141282 0.043641865
-0.007431103 -0.022531679 -0.014491816 -0.08896312 -0.06454486 0.055011813 -0.064785324 0.04478051
-0.039786782 -0.06273877 -0.046633955 0.05252205 -0.08866039 0.030403715 0.020394618 0.024690757
-0.082239084 -0.065256216 -0.022501033 -0.037336584 -0.035169907 0.024243234 0.037277203 0.064492226
-0.0482804 -0.053726893 0.07759088 -0.013186651 -0.026353732 0.04460435 -0.073041156 0.033753704
-0.038619924 -0.006770868 -0.040920082 -0.06951164 -0.016859347 0.0143726235 -0.04292472 0.010026924
-0.08116982 -0.06465951 0.034987513 0.06326939 0.044085104 -0.06349387 0.053911246 -0.057143256
0.035997763 0.011336129 -0.028085949 -0.080475554 -0.081289485 -0.0885485 -0.019953167 0.066178955
0.043995783 0.048031792 -0.0690575 0.064210795 0.077093914 0.115825936 -0.04766669 0.04909113
0.08108743 0.029728342 0.12797698 -0.13563937 0.29266116 0.26209 0.5026193 -0.046023145
0.012123032 0.26396382 -0.07029143 -0.009079524 0.06443014 0.046759404 0.03655144 -0.0060098637
0.0022919972 0.07085269 -0.10887156 -0.018851418 -0.17859581 0.057397235 0.020066591 -0.028448183
-0.0040151766 0.030555267 -0.011395005 0.0953449 0.012995772 -0.015334856 0.18857436 -0.0057691224
0.0052921064 -0.08593007 0.050171822 0.0071005067 -0.1979932 0.0795467 -0.057414766 -0.06848499
0.028802887 0.017447056 0.19849856 0.0029386012 0.02693292 -0.12695736 0.2516843 -0.08204507
-0.052966252 -0.109270066 -0.033732574 -0.021849675 -0.025546888 0.12462597 0.11151055 0.0662663
0.090646364 0.0914096 -0.37155268 -0.033531897 0.070869416 -0.0032454317 0.07489586 0.06640222
0.078007534 0.009249022 -0.034612607 -0.06613707 -0.015651388 -0.14520317 0.050417595 0.10497048
0.08064926 -0.107065 0.04397276 -0.1292727 0.09060524 -0.058106612 0.013398979 -0.07781556
-0.013888569 0.06886781 -0.02257868 0.049983423 0.015638946 0.00221099 0.092224 0.020886093
-0.049255375 0.09842186 0.0729161 -0.025311993 0.26854315 -0.010686892 0.039812073 0.1338604
-0.08072825 0.09512682 0.072056636 -0.10374955 -0.07526542 0.10981262 0.08913882 -0.15086357
-0.028763302 0.07566931 0.12961534 -0.0724711 -0.049880672 -0.040574152 -0.06856687 -0.012927808
0.11849055 -0.039101984 -0.039712496 -0.011057072 -0.006635108 -0.047047786 0.032053642 -0.06168743

layers.2.bias f4 [64]
00000000: 273b 063d b27b 303d 89a9 cebd 75c0 1e3d
00000010: 39ee 943d 06ca 2a3e 6706 39bd 3e76 8d3c
00000020: 2f3e 783d 3590 1b3e df34 263d d04d 103e
00000030: c1e4 943c 1ce0 cc3c 7814 4a3e c88d 8f3d
00000040: 1751 7c3c 4214 d03d 5b99 4d3e 25e7 e33d
00000050: 4bac 173e bde7 c93b 3975 68bd 5a2e 793e
00000060: fb0f 923d 25fd fa3d 1090 3e3e ad70 9b3e
00000070: 58ba 3c3e ddd8 073e 22aa 01bd 3665 293e
00000080: 0583 b0bd 21e2 3c3e 8523 17bb de42 7b3d
00000090: 7da7 4f3d 1f50 073e 17c6 003d d22e 073d
000000a0: aba0 11bc b3f7 5d3e 2b25 6ebd be80 363e
000000b0: 28ca 393e 1695 453e 182d aebb 9af5 383d
000000c0: 8daf 2c3e c6dc 2ebd e3be 583d 027d 9e3a
000000d0: b86f 413e 3d3f f03b 21eb 723d abe1 d53d
000000e0: 3f93 cebc 925b 92bd 175a 163d 7ce5 73bc
000000f0: 4fe9 193d 4811 273e 60e9 88bd e2bc d9bd
0.032771256 0.043086715 -0.1009093 0.03875776 0.07272 0.16678628 -0.04517212 0.017268296
0.060606178 0.1519173 0.040577766 0.14092183 0.018175485 0.025009207 0.1973437 0.070094645
0.015400193 0.10160114 0.20078032 0.11128072 0.14811818 0.0061616586 -0.056752417 0.24334088
0.07131954 0.12255315 0.18609643 0.30359402 0.1843046 0.1326632 -0.031656392 0.16542515
-0.0861874 0.18445636 -0.0023061943 0.061343066 0.05069684 0.13214158 0.031438913 0.033003636
-0.008888404 0.21676521 -0.058140915 0.17822549 0.18143523 0.19295153 -0.005315434 0.0451561
0.16863842 -0.042691015 0.05291642 0.0012091699 0.18890274 0.0073317573 0.059306268 0.104434334
-0.025216697 -0.07146372 0.03670701 -0.014886256 0.037576016 0.16315186 -0.06685138 -0.1063173

readout.weight f4 [1, 64]
00000000: 6e18 b33d 8979 643e 6476 913e 373a 41be
00000010: 9da9 00be 9a42 61be a040 373d 6c0e f43d
00000020: 0aa2 f4bd ba3e 2f3f 88d1 6abe e74e 5abe
00000030: 1b67 9b3c c446 883c 968e 7cbe f22b 693e
00000040: e249 2b3d f334 cc3e 1e9d 69be f4f7 46be
00000050: 9f32 57be 478d 483a 6587 1d3b 05ff 7a3f
00000060: 8fe1 42be 39d0 e9be acc5 e2be 9222 593f
00000070: ec40 7bbe 65cb 5dbe 9fe9 b63e 23d1 1cbe
00000080: 4387 523d c232 05be f332 aa3d e516 3abe
00000090: a9d1 843d 4c29 24be 88fa a9bd 1896 20be
000000a0: 6b8a db3d 9e59 613f 9817 b33e 5b87 24be
000000b0: d8aa 14be b891 1dbe 76aa b43d 520e 6cbe
000000c0: bb58 04be 3928 0a3e 23a7 30be aa7f 1d3e
000000d0: a177 4fbe 4e25 9a3e 58a8 15be ee72 55be
000000e0: f53a d43c f8b0 be3d ed9e 27be 5076 753d
000000f0: 1cf3 843e 8df9 f3be b059 443e ddac 763e
0.08744894 0.22311987 0.28410637 -0.18869863 -0.12564702 -0.21998063 0.044739366 0.11916813
-0.11944969 0.6845509 -0.22931492 -0.21319161 0.018970063 0.016635306 -0.24663767 0.2277067
0.041818507 0.39884147 -0.22813842 -0.19430524 -0.21015404 0.00076504465 0.0024037 0.9804538
-0.19031356 -0.45666674 -0.44291437 0.84818375 -0.24536484 -0.2165962 0.35725114 -0.15314154
0.051398527 -0.13007644 0.08310499 -0.18172796 0.06485302 -0.16031379 -0.08299738 -0.15682256
0.107197605 0.8802737 0.34978938 -0.16067259 -0.14518297 -0.15387619 0.08821575 -0.23052338
-0.12924473 0.13491906 -0.17251258 0.15380731 -0.20260479 0.30106586 -0.14615 -0.20844623
0.02590702 0.09311098 -0.16369219 0.059927285 0.25966728 -0.4765133 0.19174838 0.2408938

layers.0.weight f4 [128, 3]
00000000: d70e 2e3f 6b2c 573f 5a35 0f3f ea26 19bf
00000010: 472c 173f 353b 8cbe 9014 babd 6095 96be
00000020: 620e 2dbf 64c4 b13e 6f06 71bd 3105 613f
00000030: bdc7 e1bc 4157 6abe 7a88 373f d0b3 2ebd
00000040: 4dc6 17bf 7a3e 5e3e 5a72 c7bd 6a10 c1be
00000050: 208c 393f 204c d1be 1f88 343f 70d0 1c3f
00000060: dd2e a5be a399 15bd 4693 263f 4c29 16bf
00000070: 0977 733e f6e6 b03d 28e8 0b3f 4e10 82bf
00000080: c469 53be e3f9 c83e 3e18 b9be 84c3 dabe
00000090: 7c43 243e ddf8 023f 444a 0f3d ec40 203f
000000a0: effd 31be 4b28 123f c0ff 193f 3f14 a8be
000000b0: 5596 a23c 2bab 60bd 0b9f 1dbf 4911 d13e
000000c0: 1226 23bf e210 8a3f 88b0 093f 1f12 50be
000000d0: fb49 43be 241e 81be 4aa9 d83e 5c52 213e
000000e0: 0981 c33e 70bb afbe a6f2 c0be a4c4 8fbe
000000f0: ec8e bbbd da72 033f f73a d23e 2e59 22bf
00000100: 5495 983e 19a8 a83e 76e7 91be e394 183d
00000110: b189 04bf 74f8 27be a2ed e7be 1ef3 68be
00000120: e694 5f3d 5a96 cebe 0072 edbe 3f12 ddbe
00000130: b618 5cbe 99dc 893e 1906 b03e 2fd7 73be
00000140: f099 283f 8c20 de3e 1156 e7be ffab 6cbd
00000150: ae81 16bf fd32 01be b1be 953e c0e4 2dbf
00000160: 2040 083f 5d49 17bf 159c eabe 1547 463f
00000170: af5d 253f 6468 c9bd 4afd d13e 0693 84be
00000180: 8add f13d 073c 0fbf 8273 ffbe 3ec5 d13e
00000190: 62d8 493f 55bc 0e3f 3d77 2abe 7347 9e3e
000001a0: c371 0c3f e860 3c3f 7ea6 133f e65f 9ebe
000001b0: 8515 f93e 8637 393f 9053 94be 8936 e9be
000001c0: 6629 d23d bd7f c6be 793c 2cbf f3c6 d7be
000001d0: f69f 8dbd ce08 0b3f 550d 02bf 231a ffbe
000001e0: 4b4c 02bd 6deb 0f3c 4fd9 eabe d82a 4abf
000001f0: f02a aabe 7422 4b3e d19a 0e3e a8a2 223f
00000200: c2cf acbe 10f9 ae3d 7fcf fdbd 55b5 d1be
00000210: ab39 45be 0adb e5be 18bc 9c3e 0223 353f
00000220: b417 4bbf d13e 0dbf d862 1ebb 1971 e53e
00000230: 257c 91be c4ba 51bf 070f 303e fb1f b9be
00000240: 81d2 053e 5528 1d3f bea9 043f 6395 e4be
00000250: 46b9 3d3f be1a d43d d27b bbbe f503 363e
00000260: a207 f6be f473 03be 2e67 193f 9ba4 15be
00000270: a98e 5dbe 9e8b 3cbf 1cc4 d8be d0be c6be
00000280: 52c2 d2be c813 e8bb 7957 ef3e c3a2 273f
00000290: 8c24 89bc 4a35 503f 5bc4 203f b190 653d
000002a0: 13b6 1e3e 9d94 213d b71f f53e 86cb 153e
000002b0: c87e 4dbe 1af7 06bf 8279 11bf 6faf 19bf
000002c0: a07f de3c 4aa8 efbe 21ec 093f 791e a6be
000002d0: 91ec ec3e 1b06 ea3e 6b95 0abf b4dd b9be
000002e0: 8fd9 6d3e f1c3 a7bd 35c5 01bf 7489 10be
000002f0: 1c4e cf3c f3df 7abe defa 313f 1b44 033e
00000300: 2e0a 8bbd 997b 263f 527b ac3e 02e7 45be
00000310: 4897 1ebf eff0 04bf 246a 3c3e 7d97 4a3f
00000320: 0f4b c53e 0260 8cbc 1aa0 623f bf19 2cbe
00000330: f1ba 30be 6c9b 3fbf d0bb ddbe ef62 3f3e
00000340: 1313 f13d 2be4 15bf af51 593c d8af 19be
00000350: 7e55 2f3f 2e59 dcbe 1711 053f b656 b5be
00000360: f3d9 17bf e5f9 febd 70b4 24be 0fc7 b53e
00000370: 8676 373f f172 2e3e c384 00bf ab88 f73e
00000380: 3731 79be b545 1dbf 3387 263f c249 dabe
00000390: 7d0b 053f d14c 9bbd 3f83 2e3f c16d 503b
000003a0: 52eb 253f ae40 0c3f 941d 91be 550c e13e
000003b0: ac2d 12bd c6ea 27bf be81 043f 78ed b93d
000003c0: ef2d 4ebd d2ef 70bc 4612 6fbe c41b 9cbe
000003d0: a653 7a3f fd7b 103f 8509 efbe b137 afbe
000003e0: 7229 ebbc 0b54 23bf bf0d 76be 9fc1 e6be
000003f0: 7f71 9a3e 268a 583f f8ff af3e ddf7 8abe
0.67991394 0.8405215 0.55940783 -0.59825003 0.59051937 -0.2738892 -0.09085953 -0.2941084
-0.6760007 0.34720147 -0.058844026 0.87898546 -0.027561063 -0.22884847 0.7169262 -0.04265195
-0.5928696 0.2170352 -0.09738608 -0.37707835 0.7247944 -0.4087839 0.70520204 0.6125555
-0.32262316 -0.036523473 0.6506847 -0.58656764 0.23775877 0.08637802 0.5465112 -1.0161226
-0.20645815 0.39253148 -0.36151308 -0.42727292 0.16041368 0.51160985 0.034982935 0.6259906
-0.17382024 0.5709273 0.6015587 -0.32827947 0.019847075 -0.05485074 -0.61570805 0.408335
-0.63729966 1.0786402 0.5378499 -0.20319413 -0.1907119 -0.25218308 0.42316657 0.15754074
0.38184384 -0.3432269 -0.37685126 -0.28079712 -0.091581196 0.51347125 0.41060612 -0.6341733
0.29801428 0.32940748 -0.28496903 0.037251364 -0.517726 -0.16403371 -0.45298487 -0.22748992
0.05458536 -0.40349084 -0.46376038 -0.43177983 -0.21493801 0.26926115 0.34379652 -0.23812555
0.6585989 0.43384206 -0.4518285 -0.057781216 -0.58791625 -0.12617107 0.29247048 -0.6792717
0.53222847 -0.5909632 -0.45822206 0.7745221 0.64596075 -0.09834364 0.41013557 -0.2589342
0.11809833 -0.5595097 -0.49892813 0.40970796 0.788458 0.5575612 -0.16647048 0.30913886
0.54861087 0.7358537 0.5767592 -0.3093254 0.4864923 0.7235035 -0.28970003 -0.4554942
0.102618024 -0.38769332 -0.67279774 -0.42143974 -0.06915276 0.5431031 -0.50801593 -0.49824628
-0.03181104 0.008784157 -0.45868918 -0.78971624 -0.33235884 0.19837362 0.13926245 0.63529444
-0.33752257 0.08543599 -0.12393092 -0.40958658 -0.1926028 -0.44893676 0.30612254 0.7075654
-0.79333043 -0.55173975 -0.0024167802 0.4481285 -0.28415027 -0.81925607 0.17193232 -0.36157212
0.13068582 0.61389667 0.51821506 -0.44645223 0.7411083 0.10356663 -0.36617905 0.17774947
-0.48052698 -0.12837201 0.59923065 -0.14613573 -0.21636452 -0.7365054 -0.4233712 -0.38817453
-0.4116388 -0.0070824362 0.46746424 0.6548273 -0.01674106 0.8133131 0.62799615 0.05604619
0.15499143 0.03944837 0.4787576 0.1462842 -0.20067894 -0.527208 -0.5682603 -0.60033315
0.027160466 -0.46808082 0.5387593 -0.32445124 0.46274236 0.45707783 -0.54134244 -0.3630196
0.23227523 -0.0819167 -0.5069154 -0.14114934 0.0253058 -0.24499492 0.6952342 0.12818949
-0.06789051 0.65032345 0.33687836 -0.19326404 -0.61949587 -0.51930135 0.18399864 0.791374
0.38533828 -0.017135624 0.88525546 -0.16806696 -0.17258812 -0.7484653 -0.43307352 0.18690084
0.11771216 -0.5855128 0.013264104 -0.15008485 0.68489826 -0.4303679 0.519792 -0.35417718
-0.5931694 -0.12450007 -0.16084456 0.35503432 0.7166523 0.17036034 -0.5020258 0.48346457
-0.2433518 -0.6143449 0.6505005 -0.42634398 0.51970655 -0.07583011 0.68169016 0.00318037
0.64812195 0.54786193 -0.2834288 0.4395472 -0.035688087 -0.6559261 0.5176047 0.09078497
-0.050336774 -0.014705615 -0.23346815 -0.30489933 0.9778389 0.5643919 -0.4668695 -0.34222177
-0.028706286 -0.63800114 -0.24028681 -0.45069596 0.30164716 0.845858 0.34374976 -0.2714223

layers.0.bias f4 [128]
00000000: 569f f0be 2618 a3be 5175 00bf cc34 c73e
00000010: 434d 82bc f7c8 7bbe 7ae5 62be 2e76 da3e
00000020: 4fc4 94be a1bd 703d 5708 863d 16ad b4be
00000030: 2384 63be 9218 eb3e a764 163f 023f 8cbe
00000040: 69e2 8fbd 05a3 1b3f 486e d73e 8827 113f
00000050: f4ab 193c 0fd2 1f3e 13c3 1fbe 92ad 18bf
00000060: 633a 653e 09b9 273d 4463 493e 1764 033f
00000070: 21bf 843c 7d35 27bd 0072 77be 2911 da3d
00000080: ece1 0b3e d4cd 8cbe 204c c53e 4f5c 603e
00000090: f15c afbd e4a7 793d 8b46 103f 6549 cc3d
000000a0: be4e 23bd a25b 29be 3e40 a93e 42b8 3e3e
000000b0: f1ea 2a3e 91c8 19be f2fb 413e 684c 233f
000000c0: 81a1 753e 3f36 283f 4b3a 32be be88 f6be
000000d0: 7410 d0bd 56f7 c83e 209d e0be afe3 a2be
000000e0: c7ae 353e 876b cf3e 7e23 b3bc f7e6 fdbd
000000f0: a7b5 5abd 892d e0be 885c 8d3e b9f2 1abe
00000100: 1014 053f 65ee 49be c4e8 b43e b83d 2abc
00000110: 0b13 993e 233f 053e fae1 66bd b14a f83d
00000120: c31c de3e 7bc6 cf3e 0ec0 51be 2c45 76be
00000130: 5b3e e53e 2b11 d13c edf8 f33e 3789 e33e
00000140: fd3d 9d3e 8279 a9bd d71c ac3e 2caf dcbe
00000150: 1764 ef3e a8dd 3abe afd3 46bc 172b 8abe
00000160: a872 d5be fa49 0abd feeb 29bf 5285 ca3e
00000170: a37e 0a3f 593a 923e 2cad 673e cfc6 033b
00000180: 4c48 e23d 3b09 463e 9db1 12bd dcd2 73be
00000190: 130f 773d 3053 e1be c093 5e3c 5b5f 353f
000001a0: 05c5 1ebd 8c53 853e 8212 bfbd 83e3 c23d
000001b0: b943 ef3c 9caf d2bd 4ada d73e a35a 0abf
000001c0: 17c8 873e eb55 c1bd 82e5 153e bdc1 7a3d
000001d0: 9044 ea3e 21e0 273f 7e77 debe b739 b53e
000001e0: 308d 86be 4634 2c3e 2ffa b53e dd4f fb3e
000001f0: 87aa 113e d62f da3d ff9f 96bd d665 c43c
-0.46996564 -0.3185436 -0.5017901 0.38907468 -0.015905982 -0.24588381 -0.22157851 0.4266829
-0.29056022 0.058774594 0.065445594 -0.35288304 -0.22218375 0.45917183 0.58747333 -0.2739182
-0.07025606 0.60795623 0.42076325 0.56700945 0.009379376 0.15607475 -0.15601759 -0.5963985
0.22385554 0.040947948 0.19666773 0.513246 0.016204419 -0.040822495 -0.24164581 0.10647804
0.13660401 -0.27500784 0.3853464 0.21910213 -0.08562649 0.06095113 0.5635764 0.099749364
-0.039870016 -0.16538861 0.33056825 0.18624976 0.16691186 -0.15017916 0.18943766 0.6378846
0.2398739 0.6570777 -0.1740505 -0.481512 -0.10159388 0.39251202 -0.43869877 -0.31814334
0.17742454 0.40511724 -0.02186751 -0.12397569 -0.053395893 -0.4378474 0.27609658 -0.15131654
0.5198374 -0.19719847 0.35333836 -0.010390691 0.2989734 0.13012366 -0.05636785 0.12123621
0.43381318 0.40581116 -0.2048342 -0.24049824 0.44774136 0.025520882 0.47650853 0.44440624
0.30711356 -0.08275129 0.33615753 -0.43102396 0.4675605 -0.18248618 -0.01213543 -0.26986
-0.41689038 -0.033761956 -0.6637572 0.3955484 0.5409948 0.2856014 0.22624654 0.0020107513
0.11048946 0.19339459 -0.035813916 -0.23810905 0.06031711 -0.4400878 0.013585031 0.70848626
-0.03876211 0.26040304 -0.09329702 0.09516051 0.029207097 -0.10287401 0.4215873 -0.5404455
0.26519844 -0.09440216 0.14638332 0.06121992 0.45755434 0.6557637 -0.4345054 0.35395595
-0.26279593 0.16816816 0.35542437 0.49084368 0.14225207 0.10653655 -0.073547356 0.02397434

layers.1.weight f4 [128, 128]
00000000: 373b 393d d521 733d d244 f8bc 98f1 7b3b
00000010: 3f54 ab3b 202e 95bd 1249 fd3d 7700 0fbd
00000020: 4801 a1bc 49ff b4bd 5d25 a2bd 24b1 3a3d
00000030: b9a9 10bd bbaa 4c3d 0a56 9ebd b67e 49be
00000040: 20f6 11be 140f c93b e355 02bd 01a5 b13c
00000050: 84de f9bd 967d a2bd 57ef df3c 11d4 e73c
00000060: aa76 d0bd 5b67 8a3c 2e3d d9bc 9158 efbd
00000070: 9b4a 9dbd 27ae 8e3d c625 e6bc 0681 5e3d
00000080: 3ee6 d93c cddd 4bbc 4794 f0bd 00ed aabd
00000090: 2dac 1a3d 9745 5a3d 0d8f 2dbb 48b1 5ebb
000000a0: 28a8 a0ba e70b 073d d198 bfbd 083c bf3c
000000b0: 9b5a 96bd fffd 8fba 39f8 403d 972c 7fbc
000000c0: 3088 b4bd 35a3 433b a758 d43b ea4d e7bd
000000d0: 9d12 903d 2c33 30bd ec22 6a3d 62a9 e3bc
000000e0: d73e a23d 09e2 dbbd 1f29 c63c 29c3 96bd
000000f0: f7a9 25bc 0e18 dcbd f7cb 69bd 174e 3b3a
00000100: 5a85 b63b b8ff 8ebd 05fd 153a d886 71bc
00000110: 9b2b a6bd 1bc3 913d 288d bfbd deab 083d
00000120: 7bd6 473c 080a 803d be07 c23c 4562 a5bc
00000130: 9642 643d fdfd 16bc 910e 193b f072 033d
00000140: 249b 5cbd f6f7 e63b 9484 623d c71d c7bc
00000150: cf1a a3bd 0e73 f93d 7523 9ebc fecd 12bc
00000160: 0402 7abd bb7b 00be 553c 953b b132 f5bd
00000170: 067a 07bc c340 bdbd 2c40 8cbd a8af 943d
00000180: fa85 debc 255e 463d 5725 353d 17bb 103c
00000190: 9bee 023d 1588 073c 2efb 74be f194 b53c
000001a0: acd5 e8bd d45d 953d e19f 183d 3bb9 e9bc
000001b0: 9fc0 26bd cec5 9abd 8476 b0bc 0185 8e3c
000001c0: 7797 b3bd 560b 3cbe 3090 903d 71fa 153c
000001d0: de81 83bc 80dd ae3c 5fc4 473d bd67 363d
000001e0: 87b4 a03c 9f30 86bd 671b 5c3b 51ab 7abd
000001f0: 918c 08bd 19d8 f03c ce90 bbbd 88d7 943c
00000200: 02c0 5fbd 9a37 d33d 4d2a e1bd 3b0f fb3d
00000210: 1715 88bc 2b23 87bc 5326 4b3e bc23 27bd
00000220: 4faf fabc db2a a9bd a6b9 3abd 1a1d 87ba
00000230: 186e 9e3d 95e2 b73d b84d b73d b837 e73c
00000240: d267 b7bc b1bb 75bd 309f ec3d 2ea3 92bd
00000250: 8863 f33c a76e 29bc b2de 8d3d 8294 d1bd
00000260: 3cb3 cfbd f7ff 9f3c 7751 59bc bda2 4cbd
00000270: 747c b83d bb48 873d 7167 673d 27fb 38bc
00000280: d09f 8abd 05a9 133d aca3 c4bb f41a 053d
00000290: 61bd 9dbd 976d 053d afe2 5ebd 7300 b53c
000002a0: 9e3c 9837 3617 863b e288 89bd 8d45 c23b
000002b0: 25eb 96bb 9378 9bbd 841e e93d 83e8 3e3d
000002c0: 4f3a b73c 10db a6bd c631 d7bc 0f29 ed3b
000002d0: a0b2 b1ba 7392 943d 69ea 433e b232 9c3e
000002e0: 7293 233e a3d5 873d 02dd 733d 0334 8d3d
000002f0: 7845 fabc cec0 7dbe b176 6a3d 382d 22be
00000300: e637 a2bd e6be 693d 96d6 ccbb 90ca 333d
00000310: bcf5 5b3d 73c4 7d3d f090 1c3d 0d70 4fbd
00000320: bbcc debd e75f d93d 2191 fb3d 5583 143d
00000330: ebaa b63d 69b9 50bc dc5e a4bc 4c30 ad3d
00000340: 2a62 fb3b b136 603c d2bd 8d3d fa89 6ebd
00000350: b07d 933d 5d96 92bd 7645 6bbd e2ed 373c
00000360: 651c 61be 36ef a33d 7a9c b43c 710d 6fbd
00000370: ac37 0c3e 4843 82bd 1675 b8bd fc28 14bd
00000380: b413 c93c caa7 733d 6a7e 83bc 678b fd3d
00000390: d2cc cabd 2b7b 9d3b 83d1 d6bc 8ce7 2dbd
000003a0: da25 aebe e491 b13d cdb8 c8bc f938 1bbd
000003b0: a0b9 1a3d c369 a8bc 8083 813c bd5a 533d
000003c0: d8d1 193d 4104 54be 4643 c83c 1674 b73c
000003d0: 3743 d6bc 97b2 fe3d 58ca 4dbc 0339 9e3d
000003e0: 7f69 043e 94d1 18bc 4c34 eabc 4702 013d
000003f0: 6ae2 153e f733 183e ec54 cfbd 83a6 a03c
0.045222487 0.059358437 -0.030306254 0.0038443562 0.005228549 -0.07284188 0.12367453 -0.034912553
-0.019653931 -0.08837754 -0.07917283 0.04557909 -0.03531811 0.04996751 -0.077312544 -0.19677243
-0.14254045 0.0061358307 -0.03182019 0.021685125 -0.122006446 -0.0793411 0.027335806 0.028299363
-0.101788834 0.016894987 -0.02651843 -0.116868146 -0.076802455 0.06966811 -0.028094184 0.054322265
0.026599046 -0.012443018 -0.11747032 -0.083459854 0.037761856 0.053289022 -0.002648297 -0.003398018
-0.0012257146 0.032970335 -0.09355319 0.023344055 -0.073415 -0.0010985731 0.047111724 -0.015574596
-0.08815038 0.0029851918 0.0064802947 -0.11294158 0.070348 -0.04301755 0.05716221 -0.027790729
0.07922142 -0.10736472 0.02418953 -0.073614426 -0.010111324 -0.107467756 -0.05707928 0.000714512
0.005570096 -0.06982368 0.0005721602 -0.014741622 -0.08113786 0.071172915 -0.09353095 0.03336703
0.012197132 0.06251913 0.023685332 -0.02018846 0.055727564 -0.009215829 0.002335463 0.032092035
-0.05385889 0.007048602 0.055302218 -0.024306191 -0.07964098 0.12180148 -0.019304017 -0.008960245
-0.06103708 -0.125472 0.0045543113 -0.11972559 -0.008268839 -0.09240868 -0.06848177 0.07260066
-0.027163494 0.048429627 0.044225063 0.008833668 0.031965833 0.008272191 -0.23923942 0.022165747
-0.1136888 0.07293287 0.037261847 -0.028530708 -0.04071104 -0.075572595 -0.021540888 0.017397406
-0.08769124 -0.183637 0.070587516 0.009153948 -0.016053136 0.021345854 0.04877126 0.044532526
0.019617332 -0.065522425 0.003358567 -0.061198536 -0.03333718 0.029399918 -0.09158479 0.01816918
-0.054626472 0.103133395 -0.10994396 0.12258764 -0.016611619 -0.016496262 0.19838838 -0.040805563
-0.030601172 -0.08260127 -0.045587204 -0.0010308356 0.077358425 0.08978764 0.089503706 0.028224811
-0.022388373 -0.05999345 0.115538 -0.0716003 0.029710546 -0.010341323 0.069272414 -0.10233404
-0.10141608 0.019531233 -0.013264052 -0.049959887 0.090081125 0.06605669 0.056495134 -0.011290348
-0.06768763 0.03604986 -0.0060009565 0.032496408 -0.07702137 0.032575216 -0.0544154 0.02209494
1.8148039e-05 0.0040921224 -0.067155614 0.0059287013 -0.004605668 -0.07591357 0.113827735 0.04660846
0.02236667 -0.081472516 -0.026268851 0.0072375606 -0.0013557263 0.072544955 0.19132389 0.30507427
0.15974215 0.06632545 0.05953694 0.06894686 -0.030550703 -0.2478058 0.0572421 -0.15837562
-0.07920818 0.05706682 -0.0062511666 0.04389435 0.053701147 0.061954927 0.03822416 -0.05064397
-0.10878893 0.10613995 0.122835405 0.03625806 0.08919319 -0.012739518 -0.020064764 0.084564775
0.007671614 0.013684914 0.06920971 -0.058237053 0.07201707 -0.07157586 -0.05743929 0.011226149
-0.21983488 0.0800461 0.02204727 -0.058362428 0.13693112 -0.06360489 -0.09006707 -0.0361719
0.024545528 0.059486188 -0.01605149 0.123801045 -0.099023476 0.0048059425 -0.02622295 -0.04245715
-0.34013253 0.086704046 -0.024502182 -0.03789613 0.037774682 -0.020558244 0.015809774 0.051600207
0.03755364 -0.20704748 0.024446141 0.022394221 -0.026155097 0.12436407 -0.01256045 0.07725718
0.12930869 -0.009327311 -0.02858939 0.031496312 0.14637151 0.14863573 -0.101236194 0.019610649

layers.1.bias f4 [128]
00000000: b08b d8bc b1d1 513d 9ac3 83bd 0dce 54bc
00000010: 17fd c53d a9d6 103a 6278 c43d fa91 a53b
00000020: e914 d9bd 40b6 d43c fc96 8b3d 3035 9bbc
00000030: 5fe0 74bd 50c0 8d3d 5c77 45ba 4361 a1bd
00000040: 86d9 6ebd 6ef4 983c ed7e a9bd 6d5b 2c3e
00000050: 412d 393d 1a3f 6abd 4e16 903d 6970 95bb
00000060: 9e9a 62bc d00f ae3d 2366 ac3d 1408 e73d
00000070: d135 683d cd11 02bd 4a21 883d f6f9 c53d
00000080: 6d28 8e3c cbb9 543d b040 943d 4041 de3d
00000090: 58a7 acbd 222b f93d af98 913d 1368 c5bd
000000a0: b549 363d 11e6 11bc 3236 393d 181f d13c
000000b0: 6499 8b3d fafe a93d c161 9b3d c247 913d
000000c0: 42f5 763d 049f 383d 7d21 df3d 3295 c83d
000000d0: 4196 383d 1be3 d9bc 5e72 e9bc ee09 35bd
000000e0: fde3 b03d ba65 103d ef75 f93d 1ece 5b3c
000000f0: 2d64 b0bd 7971 90bd 1b77 d7bc 3e26 bdbb
00000100: d97f 213d 26bc 90bc eaca 06bd 3ffa 8bbd
00000110: 9aa2 cebc 3280 843d 46cf 5e3d d5f8 113e
00000120: 88f3 c9bb b265 55bd 6e17 d93c 6a62 92bc
00000130: 2f4d 473b f292 b1bd 8099 303c a326 12bd
00000140: b9bc a53d b33a 0bbc 8411 87bd 9705 dc3d
00000150: c451 b93d 584a 14bc b9f9 583d c52d 97bc
00000160: f038 a9bd f0cb 4fbd dac6 efbc b917 c23d
00000170: 64f4 f13a e9f6 093c 52cb 98bc 7119 77bd
00000180: 24c1 33bd 0f49 a23d 8d50 52bd 9b47 81bd
00000190: 0da4 313d 417f 42bd 78e3 a43c 6110 a03d
000001a0: 8ce1 44bd 7206 86bd 110d a4bd 5b7d 1abd
000001b0: 320e c93d 5425 27bd 2538 3a3c 23ed 95bb
000001c0: bfa0 4b3d 50db 3b3d b98b 01bd b9d7 963d
000001d0: d077 83bc 4bf8 9b3d 7cce 8c3b 06dd 73bc
000001e0: dfcb 873d 55ca 39bd 0ac8 013d b3d7 d33d
000001f0: cffa a23d 3a4c 21bd 4dff 8fb8 e109 1e3d
-0.026433796 0.051225368 -0.064337924 -0.012988579 0.09667414 0.0005525151 0.09593274 0.005052802
-0.105996914 0.02596581 0.06815907 -0.01894626 -0.05978429 0.06921446 -0.00075327395 -0.07879879
-0.058312915 0.01867124 -0.08276162 0.16831751 0.045209173 -0.057189085 0.07035504 -0.0045605195
-0.013830809 0.0849911 0.084179185 0.11280838 0.05669195 -0.031755257 0.066469744 0.09666817
0.01735326 0.051935 0.07238901 0.10852289 -0.08430356 0.1216643 0.071092 -0.09638991
0.044503886 -0.00890495 0.0452177 0.025527522 0.06816366 0.08300586 0.075870045 0.07093765
0.06029249 0.045073524 0.10895059 0.09794082 0.04506517 -0.02659755 -0.028496917 -0.044198923
0.08637235 0.035253264 0.12180697 0.013415841 -0.08612857 -0.07052893 -0.026301911 -0.005772381
0.039428566 -0.017667841 -0.032908358 -0.0683484 -0.025224019 0.06469764 0.05439689 0.14255078
-0.0061630644 -0.052098937 0.02650043 -0.017869193 0.0030410995 -0.08670606 0.010778785 -0.035681378
0.080926366 -0.008497882 -0.06595138 0.10743254 0.09048799 -0.009050928 0.05297253 -0.018454442
-0.08262813 -0.0507316 -0.029269625 0.09477181 0.0018459675 0.008420684 -0.018651638 -0.060326997
-0.043885365 0.07924091 -0.05134635 -0.06312486 0.04336934 -0.04748464 0.020127997 0.07815624
-0.04806666 -0.06544198 -0.08010305 -0.037717205 0.09817161 -0.040807083 0.011365925 -0.004575388
0.049713846 0.04586345 -0.03162739 0.073653646 -0.016048342 0.076157175 0.004297076 -0.014884239
0.06630682 -0.045358974 0.031684913 0.10343876 0.07957994 -0.039379336 -6.866325e-05 0.03858364

readout.weight f4 [1, 128]
00000000: ae97 9fbd 2e94 35be 0886 9fbe c519 5f3e
00000010: d624 0c3e 4eb6 dc3e f35a 4d3e 4afc ca3d
00000020: d048 3abf 7017 4abd 1dab 8ebe 675f 453e
00000030: 7f5e 98be 5eb6 373e 1e4d 7cbe 3ac2 c3bd
00000040: ace4 c3bc e40d 13be dcb4 e9bd a4a0 f5be
00000050: 4c9f a1be a840 babe 7ff1 e1bd 80d0 a6bd
00000060: 2420 07be 7130 603e afc3 67be 2277 e13d
00000070: 040a efbe a110 7bbe bf8d a8be 3298 d73d
00000080: 56bb 9bbd 67a4 09be b5c7 64bf 1680 c83e
00000090: ee78 403c cfd7 193e 2af7 1a3d d48a 38be
000000a0: 99cc bdbe 2cb4 aabd 2a73 d93c 9f7d 95be
000000b0: 999b 6cbe 9b28 023e 84bf 0b3f 4b56 903e
000000c0: 80eb 44bf 1829 48be e172 e03d 53b8 18be
000000d0: 2e78 bfbd 66b0 95be 17ab 853d 1e63 61be
000000e0: a4e0 85be 68a3 823e 8299 3d3e 5759 2a3e
000000f0: 4a33 cfbe 039a 823e a408 a23e 1a95 00bd
00000100: e92e 633e 308f 6cbe 8912 84bd 3b2f f9be
00000110: 8577 e33e ec89 77be ee06 993d 657a 93bf
00000120: e15a 09be 8259 423d 37ed cabd 1580 033e
00000130: ebbe 513e e0f8 08be dd93 8abe 08c6 6fbe
00000140: 366b ef3e f22f 7ebe 195a f83d 2891 1b3e
00000150: 3618 f23c c417 1fbe c755 253e ddeb b4be
00000160: b4ad 0f3f 77ad 6fbe 379c ad3f d173 e83d
00000170: fc53 c63d 0afd d8be a7a4 bb3e 5652 863e
00000180: fb54 febd d0a9 4d3e b9af e33d 9839 d0be
00000190: a55a 72be 12c9 8c3d 8934 563d d501 7c3e
000001a0: 4d2e 4ebe 13c3 393e 90eb 21be 5c41 a13e
000001b0: a94e bd3d a114 d1be cdcb f63d 6504 92bd
000001c0: fe9a 1abe 4a2b 4dbe 1ec1 eebd d248 43be
000001d0: a9a7 4e3d c92a 44bd 5eb3 013e 3f08 03be
000001e0: 7340 02be 33e8 95bd 3db2 5b3d 05a4 103e
000001f0: 1c66 41be 22d9 1d3e 79b3 883e 97a2 003e
-0.077926025 -0.17732307 -0.31156945 0.21787174 0.13685927 0.43107837 0.20054226 0.099114016
-0.72767353 -0.049338758 -0.27864924 0.19274674 -0.29759595 0.17940661 -0.24638793 -0.0955853
-0.02391275 -0.14360768 -0.11411449 -0.47974122 -0.31566846 -0.36377454 -0.1103239 -0.08145237
-0.13195854 0.21893479 -0.22633241 0.11009051 -0.4668733 -0.24518062 -0.32920644 0.10527076
-0.07604091 -0.13441621 -0.8936723 0.39160222 0.011747582 0.1502373 0.03783337 -0.18021709
-0.37070158 -0.08335146 0.026544172 -0.29197404 -0.23106231 0.12710802 0.54589105 0.28190836
-0.76921844 -0.19546926 0.109594114 -0.14914064 -0.09349094 -0.29236144 0.065267734 -0.22010466
-0.2614795 0.25515294 0.1851559 0.16635643 -0.40468818 0.25508127 0.31647217 -0.031392194
0.22185864 -0.23101497 -0.06448848 -0.48668846 0.44427124 -0.24173707 0.07472025 -1.1521727
-0.13413574 0.047448643 -0.099085264 0.12841828 0.20482986 -0.13376188 -0.27065936 -0.23415387
0.46761483 -0.24822977 0.1212656 0.15192091 0.02955256 -0.1553641 0.16146003 -0.353362
0.56124425 -0.23406015 1.3563298 0.11350215 0.096839875 -0.42380553 0.36649057 0.26234692
-0.124185525 0.2008431 0.11117501 -0.4066894 -0.2366739 0.068742886 0.052296195 0.24610074
-0.2013485 0.18140821 -0.15812516 0.31495178 0.09243519 -0.4083605 0.12050591 -0.071297444
-0.15098187 -0.20036045 -0.11657928 -0.19070747 0.050452862 -0.047892366 0.1266608 -0.12796114
-0.12719898 -0.07319679 0.05363678 0.14125068 -0.18886608 0.15414861 0.26699427 0.12562023
