Final Project/wandb_version/checkpoints/td3_hockey_latest.pth (torch, 868604 bytes, 16 tensors)

layer1.weight f4 [256, 18]
000000 58 db 41 be ae 8c 33 be 60 1d fd bc 6a d2 1d be
       -0.18931329 -0.17534134 -0.030897796 -0.15412298
000010 3c 9f 77 be 97 95 51 3e 18 e7 c7 3e 99 94 41 3f
       -0.24181837 0.2046722 0.39043498 0.7561737
000020 1f 00 96 bd 55 8c 0c be eb e1 71 be 85 b7 df 3c
       -0.07324242 -0.13725407 -0.23621337 0.027309189
000030 e0 aa 10 be d6 79 05 3e 2f f3 2f 3c e8 c2 93 b9
       -0.14127684 0.13034758 0.010739132 -0.0002818324
000040 2d 59 fa be 50 0c bd 3e ca 01 a7 bd 10 82 af bc
       -0.4889616 0.36923456 -0.08154638 -0.021424323
000050 09 9e 86 bd f7 97 32 be 3f 35 aa bc 1e 54 ab 3c
       -0.065731116 -0.17440782 -0.020777343 0.020914134
000060 cb da 8d be d2 70 10 be ea 88 fb be 29 21 87 be
       -0.27705988 -0.14105538 -0.49127895 -0.26392487
000070 3e 5c 66 3d 0c fc d7 3e 70 e4 62 be d0 88 74 3c
       0.056240313 0.42184484 -0.22157454 0.014925197
000080 cb cc da 3d 58 54 01 be 1f 46 02 be dd fb 5d be
       0.106835924 -0.12629831 -0.12722062 -0.2167811
000090 42 81 fc 3c 4a 71 7f 3e c1 88 69 be 84 4d 47 3d
       0.030823354 0.2494556 -0.22806074 0.04865791
0000a0 56 6e 1f be 6a 5f b8 bd ad d1 bf bc d0 2a fd bd
       -0.15569434 -0.09002574 -0.02341541 -0.123616815
0000b0 ce 67 3e 3f 36 40 10 3e 68 92 da 3d 48 24 b7 bd
       0.74377143 0.14086995 0.10672456 -0.08942467
0000c0 44 da bd 3e 64 72 ba be bd 62 ce bd e7 3e e1 3c
       0.37080586 -0.36415398 -0.100774266 0.027495814
0000d0 78 32 66 3e 58 5b 34 bc 3c a9 6a 3e 94 f6 98 3e
       0.2248019 -0.011008106 0.2291612 0.29875624
0000e0 f4 72 df be 62 d1 99 bd d5 3b a9 bd 6b dc 8b 3e
       -0.4364239 -0.0751064 -0.08263365 0.27316603
0000f0 ac d9 03 be 3c 3f bb 3d a3 cf c5 bd 98 58 8b be
       -0.12876004 0.091429204 -0.09658744 -0.2721603
000100 fb 19 6d be bd f8 9d 3e 54 b9 18 3e 22 9d 98 3e
       -0.23154442 0.30853835 0.14914447 0.29807383
000110 21 79 28 be 70 ba 34 3e 6d b7 11 be 8a 6f d8 bd
       -0.16452457 0.17649245 -0.14230128 -0.105681494
000120 89 e3 a2 3e 74 91 1d bd 34 28 d6 be be 0c 94 be
       0.3181422 -0.038468793 -0.41827548 -0.28915972
000130 f7 84 5b be bb 68 df 3a b7 68 27 3e 1d 9e a5 3e
       -0.21437441 0.0017044762 0.1634854 0.32347193
000140 8e 24 ae be 39 8d b2 bd 7a be d2 be 79 93 1a be
       -0.34012264 -0.08718342 -0.41160947 -0.15095319
000150 e4 49 91 bd 7b 7e ce be ba 4d db bc 80 81 21 be
       -0.07094172 -0.40330872 -0.026770461 -0.15772057
000160 00 48 4a 3e 9d 44 d9 be f7 7b a4 3e 2e ff 6c be
       0.19754028 -0.4243516 0.32125828 -0.23144218
000170 4a 6d 92 3d fe ff 10 3e 67 c4 17 3e 90 7e 0a bd
       0.071497515 0.14160153 0.14821015 -0.033812106
000180 74 00 59 be 07 6c 86 be b3 18 51 be dc 6b 9c 3e
       -0.21191579 -0.26254293 -0.20419578 0.3055104
000190 92 12 5f 3e 13 ac af bd db 9c 54 bc 7f 33 83 3e
       0.21784428 -0.085777424 -0.01297685 0.25625226
0001a0 73 0f c1 bc 44 1c 45 3e b9 78 74 3e 3d e4 a1 3e
       -0.023566937 0.19249064 0.23874177 0.31619444
0001b0 b2 72 0d 3e b2 a3 a4 be 4c e0 d2 3c de cf 47 be
       0.13813284 -0.3215614 0.025741719 -0.19512889
0001c0 18 64 00 be ae c5 f2 bd ee c3 ca bc 6b 27 03 3d
       -0.12538183 -0.11854111 -0.02475163 0.032020014
0001d0 74 e5 56 3e 31 86 01 bb 7d a4 f3 3c 7f 98 0f be
       0.20985967 -0.0019763822 0.02974152 -0.14023016
0001e0 f8 ee 57 be a4 24 28 3f dd e9 bc bd cd 13 ce 39
       -0.21087253 0.6568091 -0.092242934 0.00039306135
0001f0 2d 17 a1 3d 6c 0f 91 be 5c db fc 3d cb fd 00 bd
       0.078657486 -0.28332078 0.12346527 -0.031492036
000200 1c 70 68 3e d4 b4 a0 3e 2d e1 1a be 7a e3 8d bd
       0.22699016 0.3138796 -0.1512496 -0.06928153
000210 d7 41 7d bd c7 73 f5 be b3 f8 1f bc 62 dd 86 be
       -0.061830368 -0.47939894 -0.009763884 -0.26340777
000220 49 48 ab 3e e7 46 0b 3d d4 a6 db be 20 e5 de be
       0.33453587 0.034003165 -0.42900717 -0.43534184
000230 65 c9 c2 bd bc 0f f1 3d c3 0f a5 be 7a 74 db bd
       -0.09511069 0.11770579 -0.32238588 -0.107155755
000240 44 88 0a 3e f3 ba 02 3e 29 2c 7c 3e d0 90 7f 3d
       0.13528544 0.12766628 0.24626221 0.062393963
000250 40 8b d2 3c e2 af 03 3e 17 62 38 3c 7e a8 0a 3e
       0.025701165 0.12860063 0.011253855 0.13540837
000260 4d f9 07 3e 8d 28 8d be 33 30 9e be 99 47 d4 be
       0.13278694 -0.2757 -0.30896148 -0.41460875
000270 69 29 5e 3e d3 08 21 bd b3 57 2f 3e 51 13 2a 3e
       0.21695484 -0.039315056 0.17123298 0.16608931
000280 34 2a f4 3c 72 29 ec be 56 bc 5a 3e 9d 46 af 3d
       0.02980528 -0.4612537 0.21360907 0.0855839
000290 5e 84 06 bc 23 ed 5b 3d 64 df e4 bc 87 c2 1c 3e
       -0.00821027 0.053692948 -0.027938552 0.15308581
0002a0 c9 b0 12 3d 0d de ca bc 4b 88 c7 3d ec de 92 3e
       0.035813127 -0.024764085 0.09742793 0.286857
0002b0 46 74 81 3e fe 80 6e be 0e 41 a5 be 5a 80 4e 3f
       0.25284022 -0.23291394 -0.32276195 0.806646
0002c0 e0 7c fb ba 91 f7 c8 3c 7f 1d d8 3e 97 3c b6 3d
       -0.0019186996 0.024532111 0.42210004 0.08898275
0002d0 56 65 ee bd 6e 38 0e bf 60 ed 9b 3e bf e9 99 3d
       -0.11640422 -0.55554855 0.3045454 0.07515287
0002e0 f7 92 ce be 77 73 89 be 04 2c 8f be d9 96 8d be
       -0.403465 -0.26845905 -0.2796327 -0.2765415
0002f0 3b 5d 48 3e 75 17 31 3e 47 d1 1c be f8 3a bd bc
       0.19566815 0.17294104 -0.15314208 -0.023099408
000300 5e 0e 84 3e 23 d1 aa 3e fe f3 42 3d 11 ee fb 3d
       0.2579221 0.33362684 0.04759597 0.12301267
000310 75 82 62 bd 74 e3 0e bd 5a 9c 90 3e 80 af 82 3d
       -0.055300195 -0.034884885 0.28244287 0.0638113
000320 f3 17 8d be 90 27 3e be 99 97 59 be 98 28 90 be
       -0.27557334 -0.1856978 -0.21249236 -0.2815597
000330 dd f9 80 bc 6c cd eb bd 40 44 25 3e c3 5c 17 3e
       -0.015744144 -0.115137905 0.16139317 0.1478148
000340 73 79 16 bd 01 09 de be 60 af 64 3e d5 02 df be
       -0.036736917 -0.43366244 0.22332525 -0.43556848
000350 0d 52 46 3e fa 24 ef bd 3e 15 9d be e3 49 9f be
       0.19367237 -0.116769746 -0.3068027 -0.3111106
000360 01 ac 0e bd f0 30 22 3f 2d b0 a3 be b9 40 c9 3d
       -0.034832004 0.6335592 -0.3197035 0.09826798
000370 45 b4 52 3d 42 69 d7 bd 50 38 b4 be 8b 15 73 3d
       0.05144145 -0.10518123 -0.35199213 0.059346717
000380 b7 5b a8 3e c0 35 32 be f3 46 ac 3e f2 e9 50 be
       0.32882473 -0.17403316 0.3364788 -0.20401743
000390 60 0e 82 3e 4a 5d 73 bd cb 2f 09 bd aa 7b 3f 3d
       0.25401592 -0.05941514 -0.033492845 0.046748795
0003a0 47 5f 85 3d 67 03 1d 3e 9d 66 4d be 5f 90 4e 3e
       0.06512313 0.15333329 -0.20058675 0.2017226
0003b0 21 12 c3 be f1 f9 45 bc f6 9e f2 3d ce d0 b5 3d
       -0.3809977 -0.012083516 0.11846726 0.08877717
0003c0 42 23 78 3e 46 85 84 be 5e 7f 81 be ac e6 94 3e
       0.242322 -0.2588293 -0.25292486 0.2908224
0003d0 00 47 98 3e bc 1e a6 3c b8 56 ae 3d 39 93 5d be
       0.2974167 0.020278327 0.08512634 -0.21638192
0003e0 ad 19 18 3d e3 99 27 3d 6e 41 64 3e c2 00 1a be
       0.03713386 0.040918242 0.22290584 -0.15039352
0003f0 d3 e7 12 3d 82 c6 01 bf d8 d8 3e 3d 0f 48 e9 3d
       0.035865616 -0.50693524 0.046593517 0.11390697

layer1.bias f4 [256]
000000 d6 60 79 3e d6 dc 04 be d8 d8 33 3d de 28 f1 3d
       0.24353346 -0.12974867 0.04390797 0.11775373
000010 bd 2f 86 3d 9d f1 b3 be 36 1e a3 3d 91 7d 7c be
       0.06552074 -0.35145274 0.07964747 -0.24657275
000020 42 55 87 bd 53 eb 50 be a8 02 e7 bd 5b f2 81 be
       -0.066080585 -0.20402269 -0.112798035 -0.25380215
000030 f2 22 6b 3e ea 55 5e be 91 da 1c be 1e c8 bd bd
       0.2296255 -0.21712461 -0.15317751 -0.09266685
000040 e6 d0 d1 3b a0 19 0b be ad a8 a4 be 32 1d dd 3d
       0.0064030765 -0.13583994 -0.3215994 0.10796584
000050 9b 05 9f 3e 4f 38 5f 3e 33 9c 88 3c ed 6b d4 3d
       0.31058964 0.21798824 0.016676044 0.10372148
000060 67 4e be bd dc df 1c 3e eb 29 8e 3e 08 40 fb 3c
       -0.09292298 0.1531977 0.27766356 0.03067018
000070 36 b2 94 3e e9 74 ac bd b3 ca 0a bd 06 1f 59 be
       0.29042214 -0.08420736 -0.033884715 -0.21203241
000080 35 16 87 be 7c 4b 65 bd f5 cc 1f be 51 8f 06 3e
       -0.2638413 -0.05598019 -0.15605529 0.13140608
000090 94 94 0d be 2a 17 54 be 6c 2a 3b 3d 8c ae 9a bd
       -0.1382621 -0.20711961 0.045694754 -0.075528234
0000a0 24 17 98 bc a2 d8 34 3e 86 0d 11 be 95 8d 56 3e
       -0.018565722 0.17660764 -0.14165315 0.20952447
0000b0 19 46 b4 be b0 0e 9a bd 4f 6d 91 be 69 af 0a be
       -0.3520973 -0.07522333 -0.28403708 -0.13543476
0000c0 07 b8 ce 3d 1a 50 6c 3b 35 77 a2 be 36 86 3c 3d
       0.10093694 0.0036058486 -0.31731573 0.04602643
0000d0 4f 1b 8a 3e d4 c4 ed bd 74 03 7c be fa a2 dc bb
       0.2697396 -0.116098076 -0.24610692 -0.0067332955
0000e0 5d 41 c3 bb b9 8d ea 3a 51 72 0f bc 15 3b 3c be
       -0.0059587196 0.001789502 -0.0087552825 -0.18381913
0000f0 1a 8f 0b be 4d 51 29 3e 40 66 50 3e 61 bf bf 3d
       -0.13628808 0.1653492 0.20351505 0.093626745
000100 9b e2 cc bd f7 16 94 be d6 83 99 3d 79 d4 01 3d
       -0.10004159 -0.2892377 0.07495849 0.03169677
000110 20 cb 5e 3e 39 6e 2b 3e 01 b7 d0 3c f4 ea c2 3d
       0.21757174 0.16741265 0.025477888 0.0951747
000120 11 e3 f6 3d 3a 8d 86 3d 6a c0 6e be 90 1e 11 3c
       0.12055028 0.065699056 -0.23315588 0.008857384
000130 69 a6 18 3f 77 58 93 be 05 3c 72 3e ad f8 09 3e
       0.5962892 -0.2877843 0.23655708 0.13473769
000140 01 bc f9 bd 6a 1f a9 bc 94 3d c8 bc fd 9b ab 3d
       -0.12194062 -0.020644862 -0.024443425 0.08379362
000150 67 f8 d9 bd 94 9c 92 be e5 94 2e be c6 9a 77 be
       -0.10643082 -0.28635085 -0.17048986 -0.24180135
000160 e9 6a 72 be 8e d7 15 be c7 b2 86 bd 8c 5b bd 3d
       -0.23673595 -0.14633009 -0.06577068 0.09245977
000170 5f a7 80 bc 56 8a 35 be f4 92 21 3e ab b9 00 3d
       -0.015704809 -0.17728552 0.15778714 0.031427067
000180 4f 7b ed 3c 67 bd 0f 3e ff d8 07 3e ff b9 36 3d
       0.028989462 0.14037095 0.13266371 0.044610973
000190 fa ca 71 3e 12 a9 49 bd 85 71 8c be e1 b4 85 3e
       0.23612586 -0.049233504 -0.2743036 0.26114562
0001a0 d3 2f bc bc 24 5a 0e 3e 2d 52 1c 3e 64 3e d7 bc
       -0.022972023 0.13901573 0.15265723 -0.026274867
0001b0 5f 54 e1 bd c0 e0 d7 3d 80 e7 a3 3d 18 ac 21 3e
       -0.11002421 0.105409145 0.080031395 0.15788305
0001c0 f4 98 a0 3e d0 fa 3e be 77 0d 83 bd d3 0b 67 3e
       0.31366694 -0.18650365 -0.063990526 0.22563104
0001d0 24 05 63 3d fb c7 8d 3e 1d 3a fa 3d bf 18 6e 3e
       0.055424824 0.27691635 0.122181155 0.23251627
0001e0 fc 55 1a be 20 e2 82 3e 50 65 03 bd a1 0a 9a 3d
       -0.15071863 0.25563145 -0.03207904 0.075215586
0001f0 b6 62 0f bc 96 47 ba be a3 8a 99 3c 08 08 37 3e
       -0.008751562 -0.3638274 0.018742865 0.17874157
000200 61 c8 71 3e 47 4c 68 3d cc 0b 36 bd cb 6c bd 3d
       0.23611595 0.05671337 -0.044444844 0.09249266
000210 4d 1a 33 be 2d 1a c0 bd ab f8 f0 3d 23 4c 26 bd
       -0.17490502 -0.09379993 0.1176618 -0.040599953
000220 96 25 1c bd 15 28 f2 bc 10 92 90 be 98 d0 c5 3a
       -0.038121782 -0.029560128 -0.28236437 0.0015092073
000230 7e ef 0c bd d2 4f 43 3e d3 a8 72 3e 7d d5 3d 3e
       -0.034408085 0.19073418 0.23697214 0.1853847
000240 30 db 13 3e 7e d4 93 3e 4c d1 94 bd 7d ce 95 bd
       0.14439082 0.28873056 -0.07266483 -0.07314775
000250 df bb 3a bd 65 84 1f 3d 9a 5c 25 be a0 a3 3c be
       -0.045589324 0.03894462 -0.16148606 -0.18421793
000260 d8 fd 7e 3e f5 a4 3c 3e dd d1 aa bd c8 72 47 3e
       0.24901521 0.18422301 -0.083408095 0.1947738
000270 ef ca 03 3e 99 53 39 3e 5e 61 a3 3d c7 b1 1a bd
       0.12870382 0.18098296 0.07977556 -0.037767198
000280 1c 4d 57 be 6a a8 f9 bd 32 2a 2d be a3 e9 0b be
       -0.21025509 -0.121903256 -0.16910627 -0.13663344
000290 5d 5a 9e bd da 4e 31 3e 6b 67 d5 bd d6 1e 99 3d
       -0.07732079 0.17315236 -0.10420116 0.074765846
0002a0 0a 85 a2 3e 4a c0 9f 3d 0e 13 06 be 23 17 57 bd
       0.31742126 0.07800348 -0.13093206 -0.0525123
0002b0 99 94 5d 3e d7 9d 5e 3e 25 2b b3 bd f9 ba fa 3d
       0.21638717 0.21739899 -0.087484635 0.122426935
0002c0 03 5a 1b 3e c6 b4 ae 3d e9 a7 0b 3e 2c 08 53 be
       0.15171055 0.085305735 0.13638271 -0.20608586
0002d0 ba 14 9d 3d b0 86 de bc 6a 06 d9 3c b4 0e 3a 3e
       0.07669969 -0.027163833 0.026492316 0.18169671
0002e0 98 05 1a be fd 5b 4d bd 75 01 94 3a 46 37 d6 bd
       -0.15041196 -0.050136555 0.0011291938 -0.10459761
0002f0 49 34 22 3e 7e 1e 83 3e e8 49 64 be 96 bc 13 bc
       0.15840258 0.256092 -0.22293818 -0.00901713
000300 5b 8b ad 3e a3 0c 0f be 01 7c ea bd 11 fd 11 bc
       0.33895382 -0.13969664 -0.11449433 -0.008910433
000310 25 56 ed bd ca ca 8c bd 1c cf 09 be 43 58 8d be
       -0.115886964 -0.068746164 -0.13457912 -0.276064
000320 17 4f 01 be 94 78 96 bd 9f 95 9a bd 18 dd 3e be
       -0.12627827 -0.07347217 -0.07548069 -0.18639028
000330 d1 76 3d 3b ed 7b 49 3d 07 04 a0 3e 4e b8 7b 3e
       0.0028909931 0.04919045 0.31253073 0.24582025
000340 b5 c8 47 3e d5 36 fe 3d d6 3e 22 bd 2f 49 6e 3d
       0.19510157 0.12412802 -0.039610706 0.058175262
000350 29 7d 3f be b0 d5 af 3b 32 e3 4b bc 4f db 4a bd
       -0.18700089 0.0053660497 -0.012444304 -0.049525555
000360 ee cf d0 bd 9e 3c 89 3e 9b 07 7b be 67 14 6b be
       -0.101959094 0.2680406 -0.2451462 -0.22957002
000370 da 60 25 be ff b8 fe bd 14 81 42 be a9 ae de bd
       -0.16150227 -0.12437629 -0.18994552 -0.108731575
000380 36 b7 33 be 92 cb a5 3d 4b eb 96 bd da 41 b4 3d
       -0.17550358 0.080954686 -0.07369097 0.08801623
000390 ee c4 04 3d 9f 99 ab 3e af 6e 56 be ef fa 49 3e
       0.03241437 0.3351564 -0.2094066 0.1972463
0003a0 f5 f9 0f be a5 1e 49 bd 18 ff 54 bd f5 e1 5d be
       -0.14060195 -0.04910149 -0.05200109 -0.21668227
0003b0 dc 21 80 3e ae 2c 62 3d cc 84 55 3e d6 7d a5 3d
       0.25025833 0.05521839 0.20851439 0.08080642
0003c0 e6 a9 27 3d 25 86 95 3e c1 ae 06 3e 95 3f e9 3c
       0.040933512 0.29203907 0.13152601 0.028472701
0003d0 ae 67 c7 3a c2 57 95 bc 2a 5e 77 be 9d 44 6a bd
       0.0015213394 -0.018230323 -0.24157014 -0.05719434
0003e0 e6 92 96 bd f7 29 90 bd 29 3f 88 be 70 94 7e be
       -0.073522374 -0.07039254 -0.26610687 -0.24861312
0003f0 08 f9 84 bd 6d 38 17 3e d4 58 45 bc 39 6c 20 3e
       -0.064928114 0.14767618 -0.012045104 0.15666284

layer2.weight f4 [256, 256]
000000 5d 32 62 bd fd b1 52 be 4c 4c e0 bd 5e 9a 81 bc
       -0.05522381 -0.2057571 -0.109520525 -0.015820678
000010 3d b4 21 be 13 3b 82 3c 59 9c e0 3d 44 11 7c bd
       -0.15791412 0.01589731 0.10967321 -0.061539903
000020 68 2c 19 be f0 d0 1f 3e 68 5c 8d bc 37 94 39 bd
       -0.14958346 0.15607047 -0.017255977 -0.045307364
000030 8b 79 94 be 4c 69 47 bd 17 41 c7 3c f8 ce 90 3d
       -0.2899898 -0.048684403 0.02432303 0.07070726
000040 ae b1 ef 3d 2f 64 0d be 83 df 9e 3c e7 8c ac 3c
       0.117038116 -0.13807748 0.019393688 0.021063281
000050 4a 24 2f 3e 1a d6 86 bd 26 6a 73 bd 3d c4 dd bc
       0.17103687 -0.065838054 -0.059427403 -0.027071113
000060 1b ab b0 3b 05 76 c9 bb 5c ca 8a 3c 0e 27 32 bd
       0.005391491 -0.006148102 0.016942196 -0.043494277
000070 a2 ad 4f 3d 27 cd c9 bd ab f8 2b 3d 36 c1 84 3c
       0.0507027 -0.09853583 0.041985195 0.016205411
000080 06 07 31 bd 85 b8 33 bd a0 42 1d 3c 5a d6 b5 3d
       -0.04321959 -0.043877143 0.009598404 0.08878775
000090 d1 4d 79 3c 18 71 15 3d fe 1d 33 bd aa cf 01 3e
       0.015216307 0.036484808 -0.043729775 0.12676874
0000a0 b2 94 73 bc d2 82 bb ba c3 b6 c8 bd b0 f3 37 bc
       -0.014866995 -0.0014305955 -0.09800484 -0.011227533
0000b0 ec 87 05 be e1 5d 0a 3e 01 5f 4f bd 42 64 52 bd
       -0.13040131 0.13512374 -0.050627712 -0.051365145
0000c0 2d 99 30 be 4c 5c 00 be 60 b7 c9 3d 8b d7 45 3b
       -0.17245932 -0.12535208 0.09849429 0.0030188288
0000d0 2f 31 62 3c f4 4b 94 3d 6f 2a 73 bc 74 6d a0 bd
       0.013805672 0.072410494 -0.01484166 -0.078333765
0000e0 da 07 14 bc 8a ac 02 be 13 c9 54 3d ac ee ea 3d
       -0.009035075 -0.12761131 0.05194957 0.11471304
0000f0 16 cb d0 3d c6 c8 26 3e e2 e8 d6 bd 8d 0a ab 3d
       0.101949856 0.16287526 -0.104936376 0.08351622
000100 a8 01 27 3d bb 30 c2 3c ad 6f 93 be 9e 0b c7 3d
       0.040773064 0.023704877 -0.2879614 0.09719013
000110 0d 51 ec bd 19 ad e1 bc 75 2b 29 bd 66 5a 5b be
       -0.11538897 -0.02754836 -0.04130121 -0.21421203
000120 24 79 83 3d d6 98 e1 bc 1a ce 5f be 6b d8 c8 bd
       0.0641959 -0.027538698 -0.21855965 -0.098069035
000130 dd 24 d1 3d 34 3f b6 bc e6 81 ea 3d 91 c1 e5 3d
       0.10212109 -0.022246934 0.114505574 0.112185605
000140 07 8e d6 3c 13 7a 14 3d 8b d1 0b 3e 58 59 07 be
       0.02619077 0.03624923 0.13654153 -0.13217676
000150 4c 0c 1d bd 69 d6 81 3c d2 d9 22 3d 5c 55 45 3e
       -0.038341805 0.015849309 0.03975851 0.19270843
000160 86 00 7c 3d 6b b7 17 be 89 c8 86 bd 11 ca 80 be
       0.061523937 -0.14816062 -0.06581218 -0.25154164
000170 e8 f6 68 be c1 ed a5 bd 91 9b bb bd 4b 68 22 3e
       -0.22750437 -0.081019886 -0.09160531 0.15860097
000180 05 48 a6 bd c4 96 57 3d d7 e8 df bd cd 69 26 3d
       -0.081192054 0.052634016 -0.109330826 0.040628243
000190 26 20 0d bd 1a e3 48 3e 9a 4a 1c be 65 a0 9d 3c
       -0.034454487 0.19617882 -0.15262833 0.019241521
0001a0 f9 60 dd 3d 1a d2 c3 bc 90 6c 83 be 19 4f 28 3d
       0.10809512 -0.023903895 -0.25668764 0.04109106
0001b0 04 c5 31 be 87 23 5b 3d 84 fe 8d 3d e7 13 0e be
       -0.17360312 0.05350068 0.06933311 -0.1387478
0001c0 44 85 86 3d a8 ec 62 bd d0 35 8e bd 77 5e 5b 3d
       0.06568387 -0.055401474 -0.06943858 0.053556886
0001d0 f3 11 08 bd 35 ed 88 3d 43 55 90 bd 7e 05 88 3c
       -0.033220243 0.06685869 -0.070475124 0.016604181
0001e0 25 27 51 3d 9e 29 ea 3b 5c 52 89 bd 41 62 8f bd
       0.05106272 0.0071460744 -0.06705162 -0.07001162
0001f0 8f 56 76 be 7f 12 67 bc 59 e6 c7 bc 7b 4e 3d 3d
       -0.24056457 -0.014103531 -0.02440183 0.046217423
000200 3d 43 03 be 9d 6a 8c 3b 19 d0 88 bd a1 a0 44 be
       -0.12818618 0.00428517 -0.066803165 -0.192019
000210 a1 0c 05 3d 38 54 eb 3d 31 25 0f bc 96 7d c6 be
       0.032482747 0.11490673 -0.0087368945 -0.3876769
000220 ee 74 8e 3c 8b 20 a6 be 37 66 fd bd 21 69 11 3d
       0.01738974 -0.32446703 -0.123730116 0.03550065
000230 d4 db 42 bc 38 11 23 bd e9 5f 22 3e f0 ec 3c 3d
       -0.011893231 -0.039811343 0.158569 0.0461244
000240 ae 81 aa 3d d5 b9 ee be b7 f5 5c 3e 4f 33 a2 3c
       0.08325516 -0.46626154 0.21578108 0.019799856
000250 99 3c 09 3d 60 35 d8 3d e3 b1 80 be 92 5f 17 be
       0.033505056 0.105570555 -0.25135717 -0.14782551
000260 ee c5 b5 bd 2b 52 28 bb 50 cf 37 be 09 1c d0 3d
       -0.08875643 -0.0025683742 -0.17950177 0.10161597
000270 75 d0 32 3d 31 2b 0e 3d 85 e9 2a 3d c4 27 0d bd
       0.04365583 0.03470916 0.041726608 -0.03446175
000280 6b 46 01 3e da fe 9c bd b2 89 82 bd 88 19 33 3e
       0.12624519 -0.076657966 -0.063739195 0.17490208
000290 c4 03 01 bd 4e 94 c1 3c d3 ef 36 be 9e 10 78 bb
       -0.03149773 0.023630287 -0.17864923 -0.0037851701
0002a0 c0 65 da 3d ac 50 01 be 23 46 c3 bd 9c 69 4c 3d
       0.106639385 -0.1262843 -0.09534862 0.049905404
0002b0 c0 b2 99 3c b6 ec d9 3d 1f 8e 00 be f1 24 9b bd
       0.018761992 0.10640852 -0.12554215 -0.075754054
0002c0 79 df 84 be ba b3 1f 3d 3a 3e b4 b9 a9 50 f7 3d
       -0.25951746 0.03898976 -0.00034378638 0.120759316
0002d0 da 07 52 be e0 18 f5 bc a7 bb e2 bc 79 a1 07 bd
       -0.20510808 -0.029919088 -0.02767737 -0.033112977
0002e0 f5 b0 29 be 66 87 d6 3d c3 27 88 3d 33 3a cc bc
       -0.1657141 0.10475044 0.06648209 -0.024930095
0002f0 e3 4a 78 bd da 22 4e 3c df 19 40 bd cc 8c 89 bc
       -0.060618293 0.012581551 -0.046899673 -0.01679077
000300 cc 30 99 3d 62 14 5f 3c 86 ef 68 bd 11 c7 c9 bd
       0.074800104 0.0136156995 -0.056869052 -0.09852422
000310 13 de 9f bd 0b 80 4a be 7b 59 fd bc b5 58 7f bd
       -0.07806029 -0.19775407 -0.030926457 -0.062340457
000320 e1 c2 a9 3d 65 11 fa bd 1c 3b fb 3d 61 e6 10 3e
       0.08289123 -0.12210349 0.122671336 0.14150383
000330 65 ba cb bd cd fb 7d be fa 6b 42 be e9 e8 b4 3c
       -0.09947661 -0.24803086 -0.18986502 0.022083716
000340 ca 13 5a 3d 19 ee 83 bd 73 84 11 bd 24 3f b4 3c
       0.05324153 -0.06441898 -0.035526704 0.022002764
000350 9b 32 85 be b6 ff c1 3c 05 70 87 3d 5e f4 b5 bd
       -0.2601517 0.023681503 0.06613163 -0.088845
000360 52 a1 2d be 73 83 a9 be ff ad 6c 3d 5f 42 9d 3d
       -0.1695607 -0.331081 0.057783123 0.07678675
000370 3d 70 9f 3d c6 78 25 3d cc e2 bc 3d 9e e0 26 be
       0.0778508 0.04039838 0.092229456 -0.16296622
000380 29 0a 00 3d e4 3c 06 3d 23 7c 96 3d ad 2a 0d bd
       0.03125969 0.032772914 0.07347896 -0.034464527
000390 57 b9 36 3d cb 7f 51 be 99 0a 38 3e 08 91 29 3e
       0.044610348 -0.20458905 0.17972793 0.16559231
0003a0 4e 10 d9 3c af 56 25 bd eb 0d 1c bd e5 78 57 3c
       0.026497032 -0.04036587 -0.03809921 0.013151382
0003b0 e1 ab 25 bd e3 53 e1 bd bf fb b9 3d 26 69 a4 bd
       -0.04044712 -0.11002328 0.0908122 -0.08027868
0003c0 cd 27 1b bd 25 aa c1 bd b0 ed 02 bd e9 09 28 3e
       -0.037879754 -0.094562806 -0.031964958 0.1641003
0003d0 71 5e 06 be 03 7d 3f 3d 11 7a 2a 3d d4 56 a9 3c
       -0.13121964 0.04675008 0.041620318 0.020671286
0003e0 49 0b 42 3d 0d 7b ad bd d6 28 fe 3d 2b 6c df bc
       0.047374044 -0.08470736 0.124101326 -0.027273258
0003f0 f4 57 3a be ad 67 cf bd 2c 7e 24 3e ad 9d 23 bd
       -0.18197614 -0.101271965 0.16063756 -0.039945293

layer2.bias f4 [256]
000000 48 d4 26 bb ef d7 b4 3c c3 49 c2 3d 7e 51 b3 3c
       -0.002545612 0.022075621 0.09486725 0.021889444
000010 de 10 d0 3b b0 d7 08 3d a0 9f 08 bd 61 bd 21 bd
       0.006349667 0.03340882 -0.033355355 -0.039487246
000020 23 a8 f4 3c e9 7e 3b 3a 39 e2 92 3d 6b 7b 3f bd
       0.02986533 0.0007152395 0.07172055 -0.04674856
000030 3f bb 54 bd a3 88 2e 3e fb de fc 3c a4 04 80 3d
       -0.051936384 0.1704431 0.030868044 0.06250885
000040 3f 00 ee 3c e0 a7 43 bc ee f9 21 3e 67 5e 1d bb
       0.029052852 -0.01194188 0.15817997 -0.0024012567
000050 17 99 42 bd 82 e8 21 3c ce 4f 11 bd a7 6b c1 3c
       -0.04750928 0.009882094 -0.0354765 0.023610903
000060 73 ef 14 3e 44 33 56 bd 24 f3 bf 3d 3d e9 53 3d
       0.14544468 -0.052294984 0.09372547 0.051736105
000070 86 5e 59 3c 7e 05 57 bd e2 dd eb bb 58 02 cd 3d
       0.013267165 -0.052495472 -0.0071980814 0.10010213
000080 dd 6b a1 3d 50 f3 d0 bc c0 c9 65 3d ec fb 86 3c
       0.078819014 -0.025506645 0.056100607 0.016477548
000090 58 14 db 3d 92 ca f5 3d 8d 54 e2 bc cf a9 06 bc
       0.1069724 0.12001528 -0.027628208 -0.008219196
0000a0 5b cc a8 bd af 90 ec bc fa de f0 3d 39 43 87 bd
       -0.08242103 -0.028877584 0.117612794 -0.066046186
0000b0 bb 50 13 bc 7f d8 22 3d da 90 af 3d 4a e0 19 3c
       -0.008991416 0.039757248 0.0857255 0.009391854
0000c0 26 7a 1d 3e fd 44 b9 3d f6 e6 0c be 9f 1e 8f 3c
       0.15378627 0.090463616 -0.1375998 0.017470656
0000d0 6c a6 ae bd 7f df a1 3d 03 58 2c bd d5 32 35 3e
       -0.08527836 0.079039566 -0.042076122 0.17695172
0000e0 d2 c3 29 bd c3 ca 6b bd 36 3d 29 3d 0a 84 16 3e
       -0.041446514 -0.057566416 0.04131814 0.14698806
0000f0 c9 7b f6 3a 9f fd 0b 3e 00 2f 8e 3a 61 36 f3 3d
       0.0018805201 0.13670968 0.0010847747 0.11875606
000100 b7 aa 6f bd 90 78 46 3d 11 2c b8 bc 5a 08 85 3d
       -0.058512416 0.04845482 -0.02248195 0.064957336
000110 e1 97 3c 3d f1 6f 38 bd 3e c6 7a 3d 90 ff 05 be
       0.04604328 -0.04502863 0.061224215 -0.1308577
000120 19 f5 dc 3d e7 e9 e9 3d 44 29 38 3e 43 ab f3 3d
       0.10788936 0.114215665 0.17984492 0.118979
000130 bb f1 97 3d 33 7a 9a bc 29 e7 24 3d 5b b0 9c 3c
       0.07419153 -0.018857097 0.040259514 0.019127062
000140 6c be 0a bd e0 70 9c bd 8d 6c e7 3d 57 85 c8 3d
       -0.033873007 -0.07638717 0.11300001 0.097910576
000150 39 fa ec bb 9f 2f c1 bd dc 4f b3 bc 16 7e 88 bc
       -0.0072319773 -0.09432911 -0.021888666 -0.016661685
000160 b6 33 79 3d a9 98 4b bb 0a 8d bf 3c a3 2d 08 bd
       0.06084033 -0.0031066334 0.023382682 -0.033246648
000170 3d 63 2c 3d 51 29 1a bd d2 7b 46 3d 84 3f eb bb
       0.04208683 -0.03763706 0.048457928 -0.0071792025
000180 d7 1e 88 3e f3 3f a1 3d 2d b0 5d 3d 63 a7 12 3e
       0.2658603 0.078735255 0.054123092 0.14321665
000190 2b d9 b2 3d c8 5d ba 3d 9c dc ab bc a5 da 71 3e
       0.08732828 0.090999186 -0.020979218 0.23618563
0001a0 42 1c 91 3d 93 66 1d 3d 5e 97 7e 3d c2 3b c0 bd
       0.07085468 0.0384279 0.062156074 -0.09386398
0001b0 e8 dc 0b 3d f0 86 fd bc 04 06 b9 3d 77 74 b2 3d
       0.03414622 -0.030948132 0.090343505 0.0871362
0001c0 32 16 ff bc 5e 16 7d 3d 1e 21 a5 3c eb ba 79 3c
       -0.031138513 0.06178891 0.020157393 0.015242319
0001d0 3b 6c 57 3d a5 df 0f 3d 47 e6 d3 3d 81 5d 6f 3b
       0.05259345 0.035125393 0.10346656 0.0036524239
0001e0 c6 9e 5e 3d db f9 3f 3c 2b 9c 5c bd 41 0f 39 3d
       0.054350637 0.011717285 -0.05385987 0.045180563
0001f0 4c 8a bc bb 2f 7a d2 bb 07 28 88 bd 3b 54 b9 3a
       -0.005753791 -0.006423257 -0.066482596 0.0014139483
000200 2a 38 3b 3d 4e be 80 bd 7a 96 a0 3b 1d b8 e8 bc
       0.04570786 -0.06286298 0.0049007507 -0.028408105
000210 3a 1c f4 3c f9 20 09 be df b4 d8 bd 91 e4 46 bd
       0.029798616 -0.13391484 -0.105813734 -0.04855782
000220 b0 3e 47 bd 02 f9 82 3d 48 07 cf 3c b4 92 40 3e
       -0.048643768 0.06395151 0.025272027 0.18805963
000230 81 1e 4a 3e 11 92 6d 3d 40 2a 52 3d 35 46 f1 3d
       0.19738199 0.058000628 0.051309824 0.11780969
000240 b4 1c 5c 3d 54 e9 1c 3e 5f 75 58 bd 0c f5 e7 3c
       0.05373831 0.15323383 -0.05284631 0.02831509
000250 ef 74 1e 3e ec c9 b3 3d 9b cf bc bd e6 b1 09 bd
       0.15474294 0.08778748 -0.09219285 -0.033616923
000260 de 5f bd 3d f5 47 f9 3c 80 d2 91 3d b5 53 2f bd
       0.09246801 0.03042982 0.07120228 -0.04280444
000270 4c c9 32 3d 40 f0 63 3d 5f f5 0e bd fa 04 dc bd
       0.043649003 0.055649042 -0.034901973 -0.10743137
000280 64 f8 24 3c 1b fb 6b 3d 87 70 7b bc 96 1f eb bc
       0.010068987 0.05761252 -0.015346653 -0.028701585
000290 93 b8 a0 bc 03 b0 01 3e 6c cb f5 bc 5b ab 1a 3e
       -0.019619262 0.126648 -0.030004226 0.1510443
0002a0 ae 37 a6 3d 67 bd 8a bc ef 8a f1 bc 73 6c d9 3b
       0.08116089 -0.016936017 -0.029485194 0.0066352426
0002b0 e1 86 33 3d 3e dd 37 bd be 87 0d 3d 14 06 6a bd
       0.043829802 -0.044888727 0.034553282 -0.057134703
0002c0 4f c3 5d 3e 3d 78 32 3e 2d eb 08 3c c3 e5 a5 3d
       0.21656536 0.1742868 0.0083568515 0.08100464
0002d0 69 e1 54 3e ab ff 8d 3d 6c c4 dc 3d c2 ab 26 bd
       0.20789112 0.069335304 0.10779652 -0.040691145
0002e0 bf 86 e7 bd 61 86 cf bc 3c 2f f1 3b e7 70 6d 3d
       -0.11304998 -0.025332632 0.007360367 0.057969
0002f0 fb 31 fc 3d ed 0f 3e bd 3f f7 7c 3e cd f1 b7 3d
       0.123142205 -0.046401907 0.24703692 0.08981667
000300 90 e4 09 3d 45 98 92 bd 78 21 24 3d c5 b0 a1 3d
       0.03366524 -0.07157949 0.04007098 0.07895044
000310 3e 0f a3 3d 5b d6 e3 3c 84 ef b5 bd 45 1f 2a 3c
       0.079618916 0.027812174 -0.088835746 0.010383432
000320 13 35 ad 3d bc 36 ba bc f9 7d fc 3c d9 f9 0a 3d
       0.08457389 -0.022731178 0.030821787 0.03392968
000330 41 ec 6b bd 43 fa 52 bd 07 14 c0 bd 74 e5 8f 3d
       -0.057598356 -0.0515082 -0.0937882 0.070261866
000340 a2 2f 51 bd 1d 31 49 bd 41 f8 ff 3d c0 c4 31 bd
       -0.051070817 -0.049119104 0.124985225 -0.043400526
000350 ad ac fd 3c 68 ca 3c bb 77 af a0 bd 26 eb 8e bd
       0.030966127 -0.0028807167 -0.07845967 -0.06978445
000360 71 51 15 3e c5 4d 4c 3d 9c 9f 22 3d ad 05 69 bc
       0.14581849 0.049878854 0.039702997 -0.014222545
000370 7e 4b f0 bc 49 94 96 bc c8 a2 f5 bd a3 67 90 3d
       -0.029332872 -0.018381255 -0.11993939 0.07051017
000380 b8 2e a2 bd d5 45 48 3d 3a 62 b3 3c 34 c8 5f 38
       -0.07919067 0.048894722 0.021897424 5.3353797e-05
000390 54 6e 1a be fc 12 54 bd c8 85 84 3d 9d df 18 be
       -0.1508115 -0.051775917 0.06470829 -0.14929052
0003a0 27 aa f8 3d ba 65 d7 3c f1 e3 30 3c 64 b6 a8 bd
       0.12141829 0.026293624 0.010796533 -0.08237913
0003b0 12 97 c2 3c 00 23 00 3d d7 7a a4 3d 29 77 b7 bd
       0.023753677 0.03128338 0.08031242 -0.08958275
0003c0 3c 9f b1 3c 2d 9c 15 be 7a be 3e 3d 24 de 32 3e
       0.021682374 -0.14610358 0.04656837 0.17467552
0003d0 3a 63 6f 3e f8 e3 83 bd 93 7b dc bc 7b 80 ae 3d
       0.23377696 -0.06439966 -0.026914394 0.085205995
0003e0 3b b2 7f bd 83 7c 02 3e 79 89 2b bd 4e 07 e6 bc
       -0.062425833 0.1274281 -0.04187915 -0.028079655
0003f0 9a c4 c8 3c e9 43 32 3e bf fd 2a bc 22 c6 3d 3c
       0.02450781 0.17408718 -0.010436474 0.011582883

layer3.weight f4 [4, 256]
000000 4c 42 74 3e 6c 99 a1 3d bd c1 83 3d 57 0a 9b bd
       0.23853415 0.07890591 0.06433437 -0.075703315
000010 b0 08 65 3e eb 00 40 3d 90 a1 a3 bc f1 22 de 3c
       0.22366595 0.046875875 -0.0199745 0.02711627
000020 c0 4c da 3c f9 19 7b be 80 5b c1 3e 9e 75 57 3d
       0.026647925 -0.24521627 0.3776512 0.052602403
000030 1b a7 78 be 52 0f 15 bb 7f 1a 7c be c8 3f 28 3e
       -0.24282496 -0.0022744727 -0.24619482 0.1643058
000040 a8 03 48 bc 98 21 41 bd a2 20 bb bd 0d 37 c6 bd
       -0.012207903 -0.047151178 -0.091370836 -0.09678469
000050 03 52 11 3d 84 3f 7d be 20 7f 81 3d a8 a9 20 3e
       0.035478603 -0.2473126 0.06323075 0.15689719
000060 bf 3c 10 3e a3 c8 20 be 91 4a 0b 3e ac 50 85 bb
       0.14085673 -0.15701537 0.13602664 -0.0040684547
000070 47 cd e1 3d 09 96 fd bd 22 d0 0f 3d 56 ab 3d 3e
       0.11025482 -0.123821326 0.0351106 0.1852239
000080 a8 ef a4 be 5c 8b 1d be 10 68 5f be 74 7e 11 3e
       -0.32214093 -0.15385193 -0.2181704 0.14208394
000090 26 1b 72 3e 7a 41 ae 3e b0 92 20 be c0 0b 4b be
       0.23643169 0.3403433 -0.15680957 -0.19828701
0000a0 63 78 95 bc 99 11 43 bd 0f f6 19 3e 38 f7 94 be
       -0.018245881 -0.047624204 0.1503527 -0.29094863
0000b0 2c e9 84 3e 92 d2 a5 3e 83 46 2e 3e 88 ef 38 be
       0.25959146 0.32387215 0.17019086 -0.18060124
0000c0 43 c3 8c 3e b5 84 06 3d 99 3f 9e bd df a3 d5 3d
       0.27492723 0.032841403 -0.07726974 0.104316466
0000d0 ed 4d b7 3e 29 bf b6 3e 38 98 5c 3e 4c 26 80 3d
       0.3580164 0.3569272 0.21542442 0.062573045
0000e0 33 0f 90 3d eb 16 90 be 71 87 cd be 58 56 11 bd
       0.07034149 -0.28142485 -0.40142396 -0.035482734
0000f0 03 1b 98 3e b9 50 b6 bd 56 50 8b 3e 6b c9 41 3d
       0.29708108 -0.089021154 0.2720973 0.047311228
000100 8f f1 54 3b 06 23 86 3d 1e 2e 97 3d 7c a4 ca 3d
       0.0032492613 0.06549649 0.07381843 0.09894654
000110 05 6d 85 bd 02 b3 99 bd 25 b1 29 be 6e 65 3a 3d
       -0.065149345 -0.07504846 -0.16571482 0.045506887
000120 34 f3 73 3b c0 ab 6c bd 8f 43 2b 3e 0a b8 d5 bc
       0.0037223818 -0.05778098 0.1672499 -0.026088733
000130 75 b3 24 be 53 a2 21 3e f9 26 3f 3e 86 6f 80 be
       -0.16084082 0.15784578 0.1866721 -0.25085086
000140 9a fc e4 bd a5 75 04 be 75 f2 8f be 16 96 9f 3d
       -0.111809924 -0.12935503 -0.28114668 0.077922985
000150 d4 94 1c 3e 2b 69 ec 3c ee 3b c8 be fc b4 c0 bd
       0.15291148 0.028858742 -0.39108223 -0.0940952
000160 fd 7f 89 be 18 ae 1c 3e be 01 d5 be b7 a4 96 bd
       -0.2685546 0.15300786 -0.41602892 -0.073556356
000170 79 c3 03 3e d8 d8 f9 3d be 71 d1 3d e6 d0 db bd
       0.12867536 0.12199563 0.10226773 -0.107332036
000180 54 28 98 3d cb 06 38 3e 97 5d 5e 3e 60 c5 42 be
       0.07429567 0.17971341 0.21715389 -0.19020605
000190 02 a0 d8 bd 45 ca 8a be 19 13 0d be db b8 a4 bd
       -0.10577394 -0.27107444 -0.13776816 -0.08043071
0001a0 2c ae 4f be 2d 56 32 3e df 10 f1 3d 5b e7 9c be
       -0.20281285 0.17415686 0.11770796 -0.3064526
0001b0 bc 73 1a 3e 54 66 be 3d 86 43 fb be 7c f9 17 be
       0.15083212 0.09296861 -0.49074954 -0.14841264
0001c0 1c 1d 04 3e 97 bb ba 3d c7 d9 1d bd 88 66 9c bd
       0.1290173 0.09117811 -0.038537767 -0.07636744
0001d0 bc 5c 31 be aa d1 b8 3d 33 1e 87 bc 9d 39 ea bd
       -0.17320532 0.09024365 -0.016493892 -0.1143677
0001e0 73 94 ca be 96 7f 19 3d 71 3c 18 bc 54 84 d0 3b
       -0.39566383 0.03747519 -0.009291754 0.006363431
0001f0 23 f5 3d be 81 d2 73 be 2f c3 dc bd 66 62 50 3d
       -0.18550543 -0.2381077 -0.10779416 0.05087509
000200 1b fd 36 bd 2b 06 58 3d 83 51 e9 39 3c 37 40 be
       -0.044674974 0.052740257 0.00044501954 -0.1877107
000210 6b db aa be 5d ac 01 3e e4 6f b5 bd 44 e4 ec bd
       -0.33370528 0.12663408 -0.08859232 -0.11566976
000220 a0 5e 33 3e a8 f9 6f 3d 17 a9 74 3c 18 27 fe bd
       0.17516565 0.0585877 0.014932892 -0.124098
000230 48 bf 35 be 5f 02 68 be a1 6c 00 be 2a 07 05 bd
       -0.1774875 -0.22657155 -0.12541439 -0.032477535
000240 2f ce 71 be 16 1b 61 bd db c1 ed bd cc 8c 6f bd
       -0.23613809 -0.05495747 -0.116092406 -0.058483884
000250 88 f1 ee bc 3f 32 56 3e 1d 27 bb bd fe 14 28 3e
       -0.029167905 0.20917605 -0.0913832 0.16414258
000260 69 40 31 be d4 d6 e6 bd fa 3d cc be 00 34 41 bb
       -0.17309727 -0.11271444 -0.39891034 -0.0029480457
000270 2a fa aa 3c 05 ea 08 be b9 95 1b be 2b 48 62 3e
       0.02087124 -0.13370521 -0.15193833 0.22097842
000280 77 e6 84 3d ad 65 2a 3e be 0f 4c 3d 52 db c5 bd
       0.0648927 0.16640349 0.0498197 -0.09660973
000290 98 51 f7 bc ac 44 7a 3e 05 d0 37 be fb 51 f1 bc
       -0.030190274 0.24440259 -0.17950447 -0.029458037
0002a0 90 16 51 be 91 55 42 be 41 d9 9b be 8e 8d 26 3e
       -0.20418763 -0.18977953 -0.3043919 0.16264936
0002b0 ab 2b ff bd 31 0e 10 3e a7 5e f1 bd 18 38 42 3d
       -0.12459501 0.14067914 -0.117856316 0.047416776
0002c0 19 b3 a6 3d 51 65 29 3d 37 b5 5f be 49 47 dc bd
       0.08139629 0.04135639 -0.21846472 -0.10755784
0002d0 73 8f d0 bc c1 26 b2 bd 0b 1f 68 3d aa 09 a3 3e
       -0.025459027 -0.08698798 0.05667023 0.3184331
0002e0 a8 b3 66 3d a1 8f a5 be 92 a8 68 be 81 9b f1 3d
       0.056323677 -0.32336143 -0.22720554 0.11797238
0002f0 cf 46 f8 3d 6c 4f 80 3b ad cf ad be cd b7 8b 3d
       0.12122881 0.003915718 -0.33947507 0.068221666
000300 64 b1 5c 3e 81 cf b2 bd 17 09 10 bd 61 dd 11 3c
       0.21552044 -0.087309845 -0.03516492 0.0089028785
000310 cd dc 3c bc 04 47 b0 3d de d5 b5 bd 6e 2b 6a be
       -0.011527252 0.08607295 -0.088786826 -0.2286813
000320 eb 2b 81 bd e9 db 3e be 77 8b a2 3e aa e1 e8 bd
       -0.06307205 -0.18638577 0.31747028 -0.11371167
000330 c6 2e 43 3e f9 57 06 be 01 35 86 be b0 2c c8 3e
       0.19060811 -0.13119496 -0.26212314 0.39096594
000340 5d 41 6c bd 28 a4 f2 3d e3 c5 8a bc dd 48 9e bc
       -0.057679523 0.118477166 -0.016940063 -0.019321853
000350 00 8c 81 be 7b 12 f7 bd 47 18 a8 3c a4 4f e8 3a
       -0.25302124 -0.12064072 0.020519389 0.001772393
000360 41 04 70 3a ce 59 a1 3d 33 b7 4d 3d c9 f6 13 be
       0.00091559073 0.07878457 0.05022354 -0.1444961
000370 5f 1b 67 be 49 2a f9 bd 75 78 10 3e f4 c7 40 3d
       -0.22569035 -0.121662684 0.1410845 0.04706569
000380 82 31 1d 3d 1f 33 95 bc c1 79 41 3c 9a c2 e3 be
       0.038377292 -0.018212853 0.011808814 -0.44484407
000390 c2 ee ab 3d 29 87 b7 3d 2b 10 af 3e d5 81 54 3e
       0.08395149 0.08961327 0.34192023 0.20752652
0003a0 b3 58 96 3d 5f fe f7 bd f4 76 29 3e 45 d4 d9 bd
       0.07341137 -0.12109064 0.16549283 -0.1063619
0003b0 88 6a 2a 3e 2d dc 02 be 27 a7 22 3e c5 22 0e be
       0.16642201 -0.12779303 0.15884076 -0.13880451
0003c0 0a b4 3c 3d 99 b5 eb be 0f 63 60 bb cb 57 44 be
       0.046070136 -0.46036986 -0.003423873 -0.19174115
0003d0 4e 3d a2 3d 82 74 e7 be 8b de 62 be 7e ce 84 3e
       0.07921849 -0.45206076 -0.22155206 0.2593879
0003e0 e7 44 83 be f8 f9 f7 3d b7 ac 11 3e 47 2a e3 bd
       -0.25638506 0.12108225 0.14226042 -0.11092048
0003f0 d8 79 48 3e 5f c5 47 bc 05 6f 2c be 47 6b 29 3e
       0.1957773 -0.012193053 -0.16839226 0.1654483

layer3.bias f4 [4]
000000 d2 88 3b 3d 0f 69 b5 3c 08 cf ac 3c d3 27 09 bd
       0.04578478 0.022144822 0.021094814 -0.033485245

layer1.weight f4 [256, 22]
000000 f3 17 28 3e ae ca 77 3e 42 66 91 3e 66 08 53 3d
       0.16415386 0.2419841 0.2839833 0.05152168
000010 57 81 3f be af 6e 70 bb 4f e0 97 3e ba b2 f6 3e
       -0.18701683 -0.0036687066 0.2966332 0.48183233
000020 eb 1e 1a 3e 40 2e 36 be ce 43 d5 bd 01 46 08 be
       0.15050857 -0.1779108 -0.10413323 -0.13307954
000030 89 43 9d be e6 4c 71 bc 6b 31 27 3e ac 9b 57 bd
       -0.30715588 -0.014727807 0.16327445 -0.052638695
000040 42 95 2b 3e 46 66 d0 3c b2 f1 38 3e 40 ff 1d bf
       0.16756156 0.025439393 0.1806095 -0.61717606
000050 35 32 df 3e 23 b5 2c 3e fd 88 b7 3e 04 dc 4c 3e
       0.43592992 0.16865973 0.358467 0.20005804
000060 5a c1 98 3e a8 1e 2c bd 46 e5 45 be c3 79 c6 3c
       0.29835016 -0.042021424 -0.19325742 0.024227982
000070 9b 10 ba 3c ea 58 85 3d 6a 97 07 bf 04 02 37 be
       0.022712996 0.065111 -0.52965415 -0.17871863
000080 b1 2c aa bc 64 87 de 3e 7e 0e be 3d 33 d2 49 be
       -0.020773264 0.4346267 0.09280108 -0.19709091
000090 72 20 f9 3d a3 8d f6 bd f0 fd b6 bd bd 15 61 3e
       0.121643916 -0.12038734 -0.089351535 0.21980949
0000a0 75 3e 34 be 08 d9 45 be 51 fb 40 3e e4 3a d3 3e
       -0.1760195 -0.19321072 0.1884587 0.41255867
0000b0 18 20 55 3d e9 76 8b 3d bd fd 2c 3e c6 3d e8 3d
       0.05203256 0.0680979 0.16893668 0.11339907
0000c0 0a 25 56 3c 2f 98 1a bd 75 a3 a2 3b 96 6a 4b be
       0.013070354 -0.03774279 0.0049633333 -0.19864878
0000d0 0c e4 47 bf 05 0f 9f be d2 f0 cb 3d 5d 61 37 be
       -0.78082347 -0.31066146 0.09958042 -0.17908235
0000e0 1c b0 e6 3d 21 c9 fb bd d0 2d 8e 3d 0a 96 e8 3d
       0.11264059 -0.12294222 0.06942332 0.11356743
0000f0 bc 19 bc be 50 81 3e 3d 5f 8a 88 be 6b 9f d6 bd
       -0.36738384 0.04651004 -0.2666807 -0.10479625
000100 16 2c 46 be 82 c0 69 3b 80 b5 18 be 6f d2 91 be
       -0.19352755 0.0035667722 -0.14912987 -0.2848086
000110 31 19 a3 bd fe 04 26 3c 53 57 85 3c 67 60 0c 3e
       -0.07963789 0.010133026 0.016276991 0.1370865
000120 91 95 81 3e d2 d7 4f be fd 91 4f bc 0f 2e 79 be
       0.25309423 -0.20297173 -0.012669084 -0.24333976
000130 cf dc 7d 3e c7 31 b5 3d e6 fe 93 be 70 9a 1a be
       0.24791263 0.08847385 -0.2890541 -0.15097976
000140 55 c2 38 3e 45 31 3a bd bc 00 25 3d b1 27 8e be
       0.18042882 -0.045457143 0.040283903 -0.27764657
000150 a1 15 4a 3e 38 6b 9f 3e 7c 6a 0c be 44 1c 07 3e
       0.19734813 0.3113649 -0.13712496 0.13194376
000160 73 c5 67 3e 2e 66 75 be ae bd 79 bd cd d5 17 3d
       0.22633915 -0.2396476 -0.06097191 0.03706913
000170 88 c1 b0 bc d2 01 72 bb b9 6f 15 3e d9 4f 60 3e
       -0.021576658 -0.0036927355 0.145934 0.2190546
000180 09 4a 73 3d b9 f5 22 3c 12 52 17 be 9d 08 0d 3e
       0.059396777 0.00994628 -0.14777401 0.13772817
000190 40 d7 9f 3e b6 fc fd be 63 d0 05 3e e7 6b 77 be
       0.3121891 -0.49606866 0.13067774 -0.24162255
0001a0 c8 db 88 be 7d a3 11 3b 9d e1 6e 3d b9 81 ae bd
       -0.2673018 0.002222269 0.05832063 -0.085208364
0001b0 d8 f6 0d be 58 2d 2e 3e 2e 80 29 3e f1 a8 82 be
       -0.13863695 0.17009485 0.16552803 -0.25519517
0001c0 29 23 30 bd a3 99 f3 3d 83 5c 56 bc 94 83 86 3b
       -0.04300228 0.11894538 -0.01308358 0.004105041
0001d0 af 6f 7e bc 5e fe 53 be c7 8b ac bd 1e cd 06 3d
       -0.015529557 -0.20702502 -0.08425098 0.03291046
0001e0 98 54 89 be 91 b8 40 3e 45 06 f8 be f2 a3 9f 3e
       -0.26822352 0.18820406 -0.48442283 0.31179768
0001f0 03 6f 8d bc cf 30 8f bc 31 3b a3 3d 3a fe 89 be
       -0.017264849 -0.017479328 0.07970274 -0.26951772
000200 8d e4 dc bd 76 51 de bd 1e c1 fb bd fa 97 59 3e
       -0.1078578 -0.10855381 -0.122926936 0.2124938
000210 76 8e 6a bd ee 86 59 be e2 54 31 3e 9c 36 72 3d
       -0.057264768 -0.21242878 0.17317536 0.05913411
000220 0c 78 43 3e 37 76 2a 3d ff ff e9 3d 34 a6 2b 3e
       0.19088763 0.041616645 0.114257805 0.1676262
000230 cb 1a 92 be a4 e7 09 bd e2 71 02 3c ea fa b9 3d
       -0.28536066 -0.033668175 0.007961722 0.09081061
000240 9e 5a 92 3e a1 9d 71 3c 78 01 c8 bd 2b 55 80 bc
       0.2858476 0.014747054 -0.09765905 -0.015665611
000250 08 c6 10 bf 32 dd f3 be 10 e6 0e be 6e ad 64 be
       -0.5655217 -0.47629696 -0.1395495 -0.22331783
000260 97 f9 eb 3d d7 e3 29 be a6 c4 94 3e fe 63 b4 bc
       0.11522215 -0.1659082 0.2905628 -0.022020336
000270 93 3d 06 3c 3b 9b 75 3e aa 31 99 be b0 06 2f be
       0.008193391 0.23984997 -0.29920703 -0.17092395
000280 b9 ce 55 be 52 31 75 be a4 d5 4a be d4 9b a5 be
       -0.2087964 -0.23944595 -0.1980806 -0.3234545
000290 78 e1 81 3c 84 dd 97 bc eb 1f 54 be 24 d9 81 3e
       0.015854582 -0.018538244 -0.207153 0.25360978
0002a0 7d 07 42 bc 46 93 2d bd 7b 31 b2 3c 7a d4 8a bd
       -0.011842606 -0.04237678 0.02175211 -0.06778808
0002b0 6e 41 03 3e c9 c2 68 3b 93 b3 1c 3e 22 9e 78 be
       0.12817928 0.0035516492 0.15302877 -0.24279073
0002c0 9f 01 71 bd 94 cc 31 3e 96 57 36 3d 20 f9 15 be
       -0.058839437 0.17363197 0.044517122 -0.14645815
0002d0 c0 29 50 3e d3 51 4a be 83 cc 93 be 87 06 56 3e
       0.20328426 -0.19757776 -0.28866968 0.20900927
0002e0 7a 61 ff 3d d1 1e 3c 3e 1c 7e 6e 3e 45 41 cd bc
       0.12469764 0.1837113 0.23290294 -0.025055537
0002f0 29 2a 59 be 68 32 88 3e 24 88 1f 3e cc 85 05 bd
       -0.21207489 0.26600957 0.15579277 -0.0325983
000300 e5 e7 46 3e 36 4b 31 3e 24 d6 d9 bd ba 16 99 bd
       0.19424398 0.17313847 -0.10636547 -0.07475038
000310 18 60 73 3d 5f ab 33 3d 63 0c 12 bd 1d fc d6 be
       0.059417814 0.043864604 -0.035656344 -0.41989222
000320 01 51 30 3d f4 36 2b bb 5a 9a 1f 3d 98 53 c8 bd
       0.043046 -0.0026125284 0.03896556 -0.09781569
000330 33 43 aa bd 0c 18 1e 3d bc dc e8 3d 2e e3 33 be
       -0.083135985 0.03859715 0.11370227 -0.17567131
000340 c0 ad 41 3c c4 47 9f bd 91 07 d5 bd 08 a8 03 3f
       0.01182121 -0.0777736 -0.10401834 0.5142827
000350 31 95 3d be f5 21 4e bd 11 60 0d bd 9d d3 e5 3e
       -0.18513943 -0.050325353 -0.034515444 0.4488801
000360 f8 4b 14 3e 5b 16 50 3d 2d 4b 40 be 71 77 27 3e
       0.14482105 0.05080257 -0.18778677 0.16354157
000370 0b 7a 2f bd bc c1 bd 3e 62 a7 1c bd 87 ae bd bc
       -0.042841 0.3706187 -0.038245566 -0.02315451
000380 ce 93 a9 bc 1d 5f bc bd 53 ec 39 be 40 c9 0f bd
       -0.020700362 -0.09197829 -0.18156557 -0.035104036
000390 bb 4e 07 be 1e c7 38 3d 36 e6 80 3e 9e d6 09 bd
       -0.13213627 0.045111768 0.25175637 -0.03365194
0003a0 de 48 f3 bd 0e 29 bb be fe c9 e0 bd da 1b 54 3e
       -0.11879133 -0.3655476 -0.10976027 0.2071375
0003b0 2d 1c 98 be dc 49 99 be f5 b1 57 3d c4 2d d0 3d
       -0.29708996 -0.29939163 0.052659947 0.10164979
0003c0 1a 6c 3f 3d 92 cf 1c 3e 42 bc c8 bb 9d 30 4c 3d
       0.046733953 0.15313557 -0.0061259577 0.04985105
0003d0 c5 db 2f 3c ce fc a5 bd 2b a1 1a bd b6 2f 36 3d
       0.0107335495 -0.08104859 -0.037751358 0.044479094
0003e0 8f 1e 3a 3c 1a b0 13 bf 8b 90 b6 3c 90 b3 1b 3d
       0.011359825 -0.57690585 0.02228572 0.03801304
0003f0 c1 87 c8 3d fd 35 b1 bd cb 69 9b be bb d8 96 bf
       0.09791518 -0.086528756 -0.3035415 -1.1784891

layer1.bias f4 [256]
000000 25 1e f1 bd 38 24 77 3e cc be 23 3e 7a 65 b3 3e
       -0.11773328 0.2413491 0.15990752 0.35038358
000010 12 74 ca bc d7 21 01 bd 02 6b 1b bd 09 43 2b be
       -0.02471355 -0.031526413 -0.037943847 -0.1672479
000020 b5 43 af be 1e 09 0f bf 5c 15 f5 bd b5 d7 9f bc
       -0.34231344 -0.55873287 -0.119669646 -0.019512037
000030 cb 43 80 be 89 c7 11 3d d0 f9 3f 3d c8 2a 74 bd
       -0.25051722 0.035590682 0.0468691 -0.059611112
000040 35 96 95 be ee 76 cb be da 1f a5 be e7 ce 84 be
       -0.2921616 -0.39739174 -0.32250863 -0.25939104
000050 35 bd 56 3c f9 f9 a7 bd a3 43 d3 be dc 1c 7f be
       0.013106634 -0.082019754 -0.4126254 -0.24913353
000060 2f 6f 54 be a5 51 9c be 3d c7 4e 3e 30 76 4e 3e
       -0.20745538 -0.3053104 0.20193191 0.20162272
000070 08 4c 22 be ad 7a 2e be 8f 2b 64 3e fa 7b 73 3e
       -0.15849316 -0.17038985 0.22282241 0.23777762
000080 e7 da ef be f6 0c 07 3e 63 4c 5c be e2 41 a0 3d
       -0.46846697 0.13188538 -0.21513514 0.07825066
000090 25 88 30 3d ac f5 47 3e 75 ec 9a be 25 46 d8 be
       0.043098588 0.1952731 -0.30258527 -0.42241016
0000a0 ab 5b b7 be b6 e7 1d be 43 c2 ac be d6 ae 4c 3d
       -0.35812125 -0.15420422 -0.3374196 0.049971424
0000b0 56 b6 48 be a7 05 d2 bd 22 7b 29 bd bd 3c ab be
       -0.19600806 -0.10254984 -0.041377194 -0.33444777
0000c0 94 9d 4a 3d cc 25 de bd f9 fe 0f be 99 b5 29 3f
       0.049466684 -0.10847053 -0.14062108 0.6629272
0000d0 93 5b 53 be a7 f3 d4 bd e8 ce 90 3e 02 10 39 3c
       -0.20640402 -0.103980355 0.28282857 0.0112953205
0000e0 e9 ee 05 be 64 02 86 3d cc 3e a7 3e fc b7 ef bd
       -0.13079418 0.06543425 0.32665098 -0.11705014
0000f0 64 99 b1 be ab d9 a3 bd bf 65 26 be 60 8b 5b be
       -0.3468734 -0.08000501 -0.1624975 -0.21439886
000100 48 6d 91 bc 3b 1a 65 be c2 22 de bd dc 02 2e be
       -0.017752305 -0.22373287 -0.10846473 -0.16993278
000110 24 8e 6d be 69 20 a6 3e a2 f2 47 be b3 c4 2b 3e
       -0.23198754 0.32446602 -0.19526151 0.16774254
000120 10 18 e0 3e cd f6 ce 3c b1 b7 86 3e d7 87 f3 bd
       0.43768358 0.025264168 0.2631202 -0.11891144
000130 74 83 2a be ad 48 2f 3e 6c 6c 39 be c3 03 cd be
       -0.16651708 0.17117567 -0.18107766 -0.40041932
000140 a7 d4 34 bf 0f ec 88 3d 33 5c a7 3e 48 e3 a8 3d
       -0.7063698 0.066856496 0.3268753 0.082464755
000150 bd 06 0f be 72 61 73 3e 04 79 2b 3d 64 c8 42 be
       -0.13967414 0.23767641 0.041863456 -0.19021755
000160 2b b5 8c be f4 c0 9d 3d 1a 14 9b 3e a2 a8 ee bd
       -0.2748197 0.077028185 0.30288774 -0.11653258
000170 84 b9 d8 3d 38 8b 89 be cc 74 b9 bc 03 2a 3a 3d
       0.10582259 -0.26864028 -0.0226387 0.04545022
000180 77 f1 4e be a8 89 ad be f6 5e d2 be 0f 35 d5 3e
       -0.20209299 -0.33894086 -0.41088074 0.41642043
000190 13 9b 48 3e 7a 42 3a 3e 3c df 49 be 8e 7d 8c 3d
       0.19590406 0.18189421 -0.19714063 0.06859885
0001a0 c6 d5 ae 3d 97 dc 97 be 7e 24 c1 3e 6d 76 85 3e
       0.08536868 -0.29660484 0.37723154 0.26066914
0001b0 ba f2 47 3c d2 ca e1 bc 37 9f a8 bd be a4 8a 3e
       0.012203867 -0.027562533 -0.08233493 0.27078813
0001c0 18 a2 10 3d f9 22 b9 be fd ae ac 3e df 1d 65 be
       0.035310835 -0.36159495 0.33727255 -0.22374676
0001d0 f2 3b 09 bc 38 6e ab 3c 9b f2 8b 3d 2a 69 87 3d
       -0.0083761085 0.02092658 0.06833383 0.06611855
0001e0 e1 d0 2f 3e ad 06 83 bd 8f dc 4e be 09 6b a2 be
       0.17169525 -0.06397758 -0.20201324 -0.31722286
0001f0 ac 80 91 be 65 04 94 3c 1a 9b 0b 3d 01 0a 5c 3e
       -0.2841848 0.018068502 0.034083463 0.21488191
000200 9e 30 6d 3d 99 b2 e6 3d 12 e7 61 3d 9f d0 29 bd
       0.057907693 0.112645335 0.055152006 -0.041458722
000210 2a b4 1b 3f f6 76 59 3d a3 36 a1 be 16 39 86 3e
       0.60821784 0.053091966 -0.31486997 0.26215428
000220 d2 41 59 be 80 e2 93 3e 5f 1a 03 be 46 61 43 3d
       -0.21216515 0.28883743 -0.12803029 0.04770019
000230 f9 a7 c5 3e ae e5 c2 bd 65 46 b5 be ce c3 4e 3d
       0.38604715 -0.09516464 -0.3540527 0.050479703
000240 4e 23 fd bd 5f ca 04 be 63 32 a0 3e 32 ab 0a 3e
       -0.123602495 -0.12967823 0.31288442 0.13541868
000250 8b 77 13 bf 34 2d ff 3b e2 ab 4b 3d 14 24 84 bd
       -0.57604283 0.007787371 0.049724467 -0.06452194
000260 b0 09 8a 3e 0a d6 ab be ad 45 14 be cc 42 e0 3c
       0.26960516 -0.33561736 -0.14479704 0.027375601
000270 9b 0f 9e bd 11 86 69 bd bc 9c 13 be 29 8c 79 3e
       -0.0771782 -0.05701262 -0.14415258 0.24369873
000280 7b 91 83 be ce ab 28 be b7 ad 80 be ed fa 01 3e
       -0.2569693 -0.16471788 -0.25132534 0.12693377
000290 26 5e ec 3e ce ea b0 3d da 51 db bd 8b 38 16 3e
       0.4616558 0.086385354 -0.10708971 0.14670007
0002a0 31 76 ae be b7 e5 7c 3d c3 a8 24 be a4 0c 83 bc
       -0.34074548 0.06174251 -0.16080002 -0.015997238
0002b0 58 09 bb 3d 2f 03 25 3e 9b db be 3e b3 6a 29 be
       0.091326416 0.16114496 0.3727692 -0.16544609
0002c0 b9 d5 56 be f3 3a 06 3e 6d e6 88 3e 0d e1 41 3c
       -0.20979966 0.13108425 0.267383 0.011833441
0002d0 9a a5 7f be 25 2d ee 3d f5 29 1a be 49 44 d2 bd
       -0.24965516 0.116297044 -0.15055068 -0.102669306
0002e0 00 1f 65 3e 68 5d 9d 3e c0 20 2f bd 70 cc 2f be
       0.22375107 0.30735326 -0.042755842 -0.1716783
0002f0 d1 61 b1 bc c9 30 17 bc 16 1c 29 be fe f4 41 3e
       -0.021653088 -0.00922794 -0.1651462 0.18941113
000300 ff ad 1a 3d fe 01 8e be 5c f8 a1 bd 7a 40 12 be
       0.03776359 -0.27735895 -0.07908699 -0.14282408
000310 79 6d f1 bd b6 00 f2 3e ee 81 20 be 77 ed 3d 3c
       -0.117884584 0.47266167 -0.15674564 0.011592261
000320 3a 43 60 3d bd c3 f4 bd cc 48 df bd 8b 2c 77 bb
       0.054751612 -0.119513966 -0.10902557 -0.0037715759
000330 52 4c 43 be f5 45 aa 3e ef 42 c4 3d 6a b2 bc 3c
       -0.19072083 0.33256498 0.09583079 0.023034293
000340 eb 2e 64 3c 2a 4b e9 3e ff cb 8d bd 3e e9 02 3d
       0.013927202 0.45565158 -0.06923675 0.03196072
000350 5c 38 68 3e 2b 40 77 be 6a 20 82 be f9 e7 9d bd
       0.2267775 -0.24145572 -0.25415355 -0.07710261
000360 ca f6 21 be 61 9e 93 3d be ec d4 3d 7e ea 52 bd
       -0.15816799 0.07207943 0.103967175 -0.05149316
000370 5f f8 bb be 2f ca c0 3e 5f 86 2b bd de 15 74 3e
       -0.3671293 0.37654254 -0.041876193 0.23836467
000380 a2 33 e4 3e 74 32 fc be db 9b ee bd 1a d2 47 be
       0.44570643 -0.49257243 -0.11650821 -0.19513741
000390 a2 3d 1e bf 24 92 2f 3e bb a8 16 be a6 d4 df 3a
       -0.61812794 0.17145592 -0.14712803 0.0017076924
0003a0 de 7f 45 3d 8c 6b b7 be cc 48 df 3c 76 91 99 be
       0.048217647 -0.3582424 0.027256392 -0.2999379
0003b0 e1 8e f1 3e 29 b3 84 3e 93 d2 5e 3e db 60 24 be
       0.4717932 0.25917938 0.21760015 -0.16052572
0003c0 5e 83 bd 3d bc aa 4e bb 1d 33 53 be d9 10 ea bc
       0.09253572 -0.003153487 -0.20624967 -0.028572487
0003d0 22 46 b8 be 54 1d ad bd 48 1a 9f be dd 8e f6 bd
       -0.35991007 -0.084528595 -0.31074739 -0.12038968
0003e0 b7 6c b7 3d 2d fb 3a be a6 00 71 3d ae dc 81 bd
       0.089562826 -0.18259878 0.05883851 -0.063409194
0003f0 70 78 1c 3d c2 66 72 bd 4d 76 0e 3c a9 63 bf 3d
       0.038200796 -0.05918003 0.008695197 0.093451805
